checkpoints/bikeshare_honam2_emb32_3.pt (torch, 264998 bytes, 146 tensors)

weight f4 [32, 1]
0.39948484 0.511723 0.49537262 0.34193385 0.22843064 0.5449224 0.30506614 -0.16037698
-0.20824999 0.22828561 0.24774268 0.38645655 -0.36579487 0.21580368 0.41740346 0.20655732
0.27158237 -0.75259715 -0.37363768 0.30387273 0.2724327 -0.7271784 -0.4856582 -0.28153893
0.27240166 -0.69752014 -0.3341097 0.3098826 -0.53935313 -0.5301782 0.44161263 0.30715075
00000000: 4789 cc3e 4700 033f 7ba1 fd3e f411 af3e
00000010: b9e9 693e 0980 0b3f a131 9c3e dd39 24be
00000020: 7c3f 55be b4c3 693e 42b0 7d3e a2dd c53e
00000030: 7749 bbbe a4fb 5c3e e8b5 d53e c383 533e
00000040: d80c 8b3e 35aa 40bf 704d bfbe 3595 9b3e
00000050: 4d7c 8b3e 5d28 3abf 31a8 f8be df25 90be
00000060: 3b78 8b3e ae90 32bf 6d10 abbe efa8 9e3e
00000070: 0c13 0abf c2b9 07bf 0d1b e23e dd42 9d3e

bias f4 [32]
-0.46783683 -0.5157795 -0.5102934 -0.3429187 -0.26202056 -0.57156056 -0.3609863 0.15171339
0.2206607 -0.14004493 -0.0025831568 -0.4274351 0.35094008 -0.24851921 -0.42065415 -0.25986078
-0.0024598166 0.4043993 0.35370123 -0.30745882 -0.0029182383 0.388633 0.35224128 0.26651022
-0.29808378 0.36899498 0.3271997 -0.33306178 0.36172038 0.19359031 -0.44670826 -0.337066
00000000: 4f88 efbe 200a 04bf 97a2 02bf 0a93 afbe
00000010: 8f27 86be cb51 12bf 32d3 b8be c15a 1b3e
00000020: e1f4 613e f067 0fbe 2e4a 29bb c6d8 dabe
00000030: 6bae b33e d27b 7ebe fb5f d7be 790c 85be
00000040: e034 21bb 6d0d cf3e 5418 b53e 3e6b 9dbe
00000050: ea3f 3fbb e8fa c63e f858 b43e 0774 883e
00000060: 709e 98be e9ec bc3e b886 a73e 1387 aabe
00000070: 6a33 b93e 8a3c 463e f2b6 e4be ea93 acbe

weight f4 [64, 32]
0.07073323 0.09836459 0.07967816 0.09408743 0.080582865 0.027090982 0.09891525 -0.121138774
-0.10703564 0.14426306 0.03506455 0.053532023 -0.08745645 0.10111362 0.06565733 0.09631082
0.022942767 -0.03208913 -0.08240869 0.09702299 0.021226482 -0.032501183 -0.05072116 -0.09845514
0.09215499 -0.03263886 -0.092983544 0.062347133 -0.03680135 -0.22380675 0.09553942 0.100136265
0.007991631 0.008906705 0.008209394 0.0002120796 -0.01571875 0.041156046 -0.0023313684 -0.0001596952
0.023609754 0.07340246 -0.07826965 0.02563294 -0.006451262 -0.015714893 0.020595217 -0.012107002
-0.07135578 -0.025469813 -0.00886527 -0.013197616 -0.07017741 -0.025372298 -0.021574492 0.02501838
-0.0073967124 -0.025449278 0.00015583096 0.0052114795 -0.025276517 -0.0029663504 0.00784977 -0.0035116745
0.03280541 0.021917513 0.03419731 0.02572557 0.024264814 0.06256094 0.022912335 0.056398623
-0.0004601701 -0.076254986 -0.07263418 0.0409876 -0.013057786 0.018190073 0.042134773 0.023513377
-0.07387791 0.019448813 -0.013752332 0.036425814 -0.071495906 0.01955495 -0.010056092 0.0017960223
0.024444107 0.01996492 -0.00868058 0.049519457 -0.0066767153 0.11233847 0.027631722 0.023968646
0.033213105 0.027198484 0.03534959 0.023693305 0.01743311 0.06481383 0.02062513 0.07590033
0.030323341 -0.10162686 -0.109663635 0.05006473 -0.019385703 0.0064295884 0.045315377 0.012217014
-0.10349715 0.011362602 -0.019927874 0.017342478 -0.10230681 0.011700906 -0.016758295 0.007930399
0.022186728 0.012591799 -0.0121788755 0.023773247 -0.013357728 0.3014018 0.028980153 0.022351567
0.02892212 0.043901417 0.004286827 0.048719533 0.049576696 0.00757516 0.04375227 0.002712854
-0.03904056 0.10974392 -0.0029663064 0.046343535 -0.011406348 0.046969593 0.029240089 0.056317493
-0.009461208 0.023978857 -0.008104961 0.08986323 -0.011066438 0.023381164 0.008334511 -0.020607116
0.050302703 0.02285153 -0.01639499 0.08324397 0.013045341 -0.1718995 0.05369109 0.045234393
-0.13428277 -0.12917054 -0.12937932 -0.15096554 -0.2097876 -0.12670788 -0.15499541 0.3422612
0.2754201 -0.3629312 -0.79131764 -0.13611552 0.16307583 -0.21183538 -0.13617085 -0.21110617
-0.78720355 0.16832252 0.16401552 -0.1640913 -0.7905688 0.16832691 0.16668469 0.2408497
-0.16955824 0.16885896 0.1717129 -0.15749192 0.16722444 0.7461545 -0.13290058 -0.15844342
0.023376858 0.012283132 0.022400422 0.012707234 0.01596944 0.0557184 0.010558194 0.07577688
0.031556595 -0.073829405 -0.08830865 0.03320535 -0.0076004476 0.007785979 0.033164278 0.007408712
-0.08162783 0.01660797 -0.0075903405 0.013806108 -0.08068459 0.016891437 -0.00541703 0.011095904
0.01571477 0.017190142 -0.0011261225 0.022483623 -0.0029607348 0.36700228 0.0160648 0.013734795
0.03922528 0.04181388 0.04170956 0.04691675 0.04392542 0.05263647 0.054385975 0.020030402
-0.022567103 -0.2821703 0.019329986 0.017641377 -0.028979897 0.048121117 0.030858388 0.029355206
0.03390465 -0.012282764 -0.025697451 0.039801423 0.035193592 -0.0106408615 -0.008840869 -0.03808353
0.056076236 -0.009177238 -0.039020553 0.057937108 -0.005048561 0.07939916 0.04397601 0.056279745
00000000: 95dc 903d 6073 c93d 4e2e a33d e9b0 c03d
00000010: a108 a53d e8ed dd3c 1494 ca3d 9b17 f8bd
00000020: 8035 dbbd b2b9 133e d89f 0f3d 6544 5b3d
00000030: 5e1c b3bd a814 cf3d 5a77 863d 9b3e c53d
00000040: 78f2 bb3c e46f 03bd e3c5 a8bd fdb3 c63d
00000050: 29e3 ad3c f61f 05bd fec0 4fbd d9a2 c9bd
00000060: c1bb bc3d 53b0 05bd 286e bebd b55f 7f3d
00000070: 03bd 16bd 992d 65be 2caa c33d 3e14 cd3d
00000080: 54ef 023c 6eed 113c b280 063c af61 5e39
00000090: 9cc4 80bc 3e93 283d dfc9 18bb db73 27b9
000000a0: 3e69 c13c 0754 963d d74b a0bd 2cfc d13c
000000b0: 1c65 d3bb 85bc 80bc 4db7 a83c 725c 46bc
000000c0: fb22 92bd 12a6 d0bc a33f 11bc d03a 58bc
000000d0: 2db9 8fbd 91d9 cfbc fdbc b0bc 58f3 cc3c
000000e0: 1f60 f2bb 017b d0bc 8e66 2339 0fc5 aa3b
000000f0: b310 cfbc 1a67 42bb 529c 003c 1f24 66bb
00000100: f75e 063d 5b8c b33c 7b12 0c3d 6ebe d23c
00000110: 01c7 c63c f31f 803d a6b2 bb3c 3e02 673d
00000120: fc42 f1b9 932b 9cbd 3bc1 94bd 9de2 273d
00000130: 53f0 55bc 5903 953c 8395 2c3d 209f c03c
00000140: 4d4d 97bd 1e53 9f3c 7651 61bc 3c33 153d
00000150: 726c 92bd b431 a03c 4fc2 24bc 8268 eb3a
00000160: 023f c83c 798d a33c fe38 0ebc ead4 4a3d
00000170: 59c8 dabb b611 e63d ec5b e23c e559 c43c
00000180: 770a 083d 5bcf de3c bbca 103d 7618 c23c
00000190: e2cf 8e3c 1dbd 843d 08f6 a83c a271 9b3d
000001a0: a868 f83c be21 d0bd 5497 e0bd ad10 4d3d
000001b0: c4ce 9ebc 4caf d23b 9e9c 393d df29 483c
000001c0: 50f6 d3bd 352a 3a3c c83f a3bc d011 8e3c
000001d0: 3c86 d1bd 28b5 3f3c b148 89bc 81ee 013c
000001e0: f1c0 b53c d54d 4e3c e889 47bc 1dc0 c23c
000001f0: 5fda 5abc 5651 9a3e c967 ed3c a21a b73c
00000200: 15ee ec3c f9d1 333d 8378 8c3b 228e 473d
00000210: ef10 4b3d 0c39 f83b 9535 333d 23ca 313b
00000220: ffe8 1fbd 6cc1 e03d 5d66 42bb b8d2 3d3d
00000230: b1e1 3abc 3063 403d e988 ef3c 2cad 663d
00000240: 2f03 1bbc 4f6f c43c acca 04bc 370a b83d
00000250: 0150 35bc db89 bf3c 798d 083c 41d0 a8bc
00000260: 350a 4e3d 2233 bb3c c94e 86bc d17b aa3d
00000270: 20bc 553c 6c06 30be 30eb 5b3d b347 393d
00000280: 6c81 09be 4845 04be 037c 04be b696 1abe
00000290: 90d2 56be b6bf 01be 1eb7 1ebe dc3c af3e
000002a0: dd03 8d3e 1ed2 b9be cb93 4abf de61 0bbe
000002b0: 5afd 263e 60eb 58be 5f70 0bbe 372c 58be
000002c0: 2c86 49bf bd5c 2c3e aff3 273e 8d07 28be
000002d0: b862 4abf e45d 2c3e 64af 2a3e 4ea1 763e
000002e0: ada0 2dbe 5de9 2c3e 82d5 2f3e 9045 21be
000002f0: e23c 2b3e fb03 3f3f 1717 08be fe3e 22be
00000300: d380 bf3c 313f 493c 1781 b73c 0132 503c
00000310: 58d2 823c fa38 643d 46fc 2c3c e930 9b3d
00000320: 7d41 013d df33 97bd 2adb b4bd 5502 083d
00000330: 2d0d f9bb 8721 ff3b 44d7 073d c8c4 f23b
00000340: 7e2c a7bd 700d 883c 64b8 f8bb 0433 623c
00000350: f63d a5bd e95f 8a3c 5781 b1bb 98cb 353c
00000360: 43bc 803c 57d2 8c3c 679a 93ba 932f b83c
00000370: e308 42bb b9e7 bb3e 549a 833c e807 613c
00000380: b0aa 203d 0845 2b3d a5d7 2a3d c72b 403d
00000390: 24eb 333d 5799 573d d4c3 5e3d cc16 a43c
000003a0: a5de b8bc a078 90be eb59 9e3c a684 903c
000003b0: 4067 edbc a61a 453d bbca fc3c 547a f03c
000003c0: 9adf 0a3d a53d 49bc 7683 d2bc d106 233d
000003d0: 2827 103d 0257 2ebc 4bd9 10bc 7afd 1bbd
000003e0: 32b0 653d 205c 16bc 04d4 1fbd 764f 6d3d
000003f0: 666e a5bb 079c a23d 3020 343d 9785 663d

bias f4 [64]
0.033800963 0.030451342 -0.14171052 -0.14887446 -0.0065992437 -0.15111142 -0.19889598 -0.014408325
0.030228792 -0.15991546 0.001058209 0.09378403 0.12182216 -0.028212098 -0.11982907 -0.13753933
0.04320131 -0.045730975 0.11192123 0.07137137 -0.015294422 0.057752114 0.046983372 0.09892396
0.08101397 0.06459453 0.09633743 -0.06951513 -0.046991114 -0.07887624 0.0510489 -0.1432521
0.10440695 -0.03636093 -0.12500326 -0.08361771 -0.0841312 -0.0998777 -0.13174462 0.09163634
-0.04074919 -0.10741553 0.09815034 -0.0917821 0.09448207 -0.009390969 0.13650982 -0.0075782496
-0.032743726 0.057601217 0.013169655 -0.07670361 -0.023690557 -0.014254634 -0.03139694 -0.0050485753
-0.1379212 -0.10472674 -0.17029616 -0.1051351 -0.004116337 0.0498226 -0.039274603 -0.035023715
00000000: e172 0a3d 1875 f93c 901c 11be 8c72 18be
00000010: 783e d8bb f4bc 1abe 63ab 4bbe e510 6cbc
00000020: 5fa2 f73c e1c0 23be 9ab3 8a3a d711 c03d
00000030: e67d f93d 0f1d e7bc f268 f5bd 1cd7 0cbe
00000040: dbf3 303d 6750 3bbd f536 e53d 272b 923d
00000050: 7595 7abc 7b8d 6c3d a371 403d a598 ca3d
00000060: a7ea a53d 234a 843d 8f4c c53d f35d 8ebd
00000070: c179 40bd de89 a1bd a718 513d aeb0 12be
00000080: 50d3 d53d 33ef 14bd db00 00be c33f abbd
00000090: fb4c acbd ae8c ccbd 10e8 06be d5ab bb3d
000000a0: 9fe8 26bd acfc dbbd 0c03 c93d 41f8 bbbd
000000b0: d17f c13d 94dc 19bc 3bc9 0b3e f752 f8bb
000000c0: 491e 06bd 41ef 6b3d 89c5 573c c816 9dbd
000000d0: b312 c2bc 458c 69bc 149a 00bd 856e a5bb
000000e0: 373b 0dbe f97a d6bd 1e62 2ebe 1251 d7bd
000000f0: 56e2 86bb c812 4c3d 68de 20bd 0775 0fbd

weight f4 [32, 64]
-0.034931403 0.21302402 0.012652545 -0.014172147 -0.029069934 -1.2496947 0.04865414 0.31450874
-0.06696002 0.038036432 -0.06468744 0.20768334 0.20739351 0.1498488 0.04509822 -1.2588726
-0.06553703 0.27994105 -0.024284266 0.24166247 -0.06615537 -0.041388623 0.0585466 0.13075395
-0.03643043 0.14225623 -0.02888066 0.17034395 0.09581238 -1.2934474 -0.0325168 0.07615206
-0.028257173 0.24773012 0.118800044 0.13536271 0.044692334 0.13084711 0.17642176 -0.029061612
0.5928869 0.1305641 0.19121961 0.1458663 -0.029666267 0.58268964 -0.04070003 -0.58800924
-0.8469663 -0.024499778 0.2773102 0.16414468 0.2864304 0.39495155 0.16077767 0.29312307
0.098366976 0.087687165 0.05038465 0.08978739 -0.016811468 0.13863505 -0.83769786 0.35463375
-0.051759053 0.0488925 0.044704545 0.082037725 -0.010248682 -0.08273043 0.09087938 -0.0018250014
-0.04930719 0.070292465 -0.023234775 -0.023527814 -0.035712007 0.043308362 0.073955335 -0.07796039
-0.06608134 -0.016786797 -0.070474915 -0.0486879 -0.02083975 -0.05097884 -0.016961016 -0.046488754
-0.056879666 -0.03992053 -0.06724567 0.055861995 0.06793032 -0.080297224 -0.05580064 0.06840106
-0.068728 0.07022503 0.06228712 0.040491525 0.066556014 0.086283065 0.049569618 -0.06546141
0.001144467 0.07045069 -0.02622828 0.08102757 -0.06644944 0.0063236817 -0.14182691 -0.040845495
0.02599162 -0.05806847 0.0754513 0.10032214 0.08600838 0.00459744 0.06930262 -0.017608423
0.07925875 0.06699739 0.0869941 0.040905066 -0.037492633 -0.03464531 0.041719306 -0.009547719
0.05788129 -0.022083284 -0.07958591 -0.06310499 0.013098268 -0.31862327 -0.055366877 -0.034880742
0.060681574 -0.060526185 0.052573096 0.09679048 0.021712288 -0.0027699135 -0.037310444 -0.41272
0.011788651 0.079021335 0.059092227 0.11782891 0.04894678 0.050210044 0.030811088 0.03999274
0.050040293 0.06304558 0.059972387 -0.06902865 -0.08177947 -0.31342468 0.061572675 -0.058039147
0.06565269 -0.05014725 -0.09650873 -0.057832062 -0.07416965 -0.046572436 -0.0796169 0.066768266
-0.074560024 -0.070417404 0.05021156 -0.09373145 0.050388027 -0.0077688685 -0.071751714 0.019431386
-0.038997512 0.063446246 -0.01154905 -0.058478136 -0.051756803 0.046304386 -0.020822449 0.03442023
-0.07954805 -0.06814691 -0.076970436 -0.07138301 0.013805191 0.07216394 0.05282627 -0.0011065049
-0.068364576 0.18430081 0.09040112 0.043738633 -0.07599547 -0.48188648 0.06942044 0.014881257
-0.094411016 0.08759002 -0.10136541 0.12776159 0.08157568 0.12156623 0.03578449 -0.5005078
-0.06976173 0.064109094 -0.044845082 0.040000454 -0.104316376 -0.055699293 -0.040248144 0.020585628
-0.044114538 0.015291203 -0.04838772 0.14348288 0.11229848 -0.44222125 -0.06651735 0.094218135
-0.047475856 0.20509996 0.11374964 0.1589345 0.1300399 0.10016453 0.12016421 -0.051069383
0.27746502 0.0802175 0.090740174 0.11183743 -0.046846334 0.18549405 -0.022737456 -0.19536129
-0.26963344 -0.067553066 0.16515979 0.12988345 0.15476213 -0.004740293 0.15697087 0.018333774
0.08744307 0.08970907 0.08661747 0.09148945 -0.072151124 -0.0007395004 -0.26718578 0.039735913
00000000: 3b14 0fbd f822 5a3e 9f4c 4f3c 4b32 68bc
00000010: 1224 eebc fff5 9fbf 9049 473d 4a07 a13e
00000020: 5622 89bd 17cc 1b3d d97a 84bd f1aa 543e
00000030: f75e 543e f771 193e e9b8 383d bd22 a1bf
00000040: 4738 86bd 6f54 8f3e ccef c6bc 5e76 773e
00000050: 777c 87bd 1e87 29bd 8fce 6f3d 5de4 053e
00000060: 1338 15bd 9eab 113e 2297 ecbc a56e 2e3e
00000070: 4839 c43d af8f a5bf 5630 05bd 9cf5 9b3d
00000080: 967b e7bc f7ac 7d3e 704d f33d 869c 0a3e
00000090: 4f0f 373d c9fc 053e e8a7 343e 9e12 eebc
000000a0: 70c7 173f 98b2 053e 13cf 433e fa5d 153e
000000b0: ac06 f3bc 262b 153f 13b5 26bd c687 16bf
000000c0: c9d2 58bf c2b3 c8bc 9afb 8d3e 8b15 283e
000000d0: 01a7 923e 1737 ca3e e7a2 243e 3a14 963e
000000e0: a074 c93d 5495 b33d 2260 4e3d 73e2 b73d
000000f0: 34b8 89bc 59f6 0d3e 5e73 56bf 8e92 b53e
00000100: 4d01 54bd 8143 483d 1d1c 373d 6503 a83d
00000110: 17ea 27bc 926e a9bd f81e ba3d e334 efba
00000120: 56f6 49bd 7ff5 8f3d db56 bebc 67bd c0bc
00000130: c146 12bd 1c64 313d e575 973d b2a9 9fbd
00000140: a755 87bd 7784 89bc 2755 90bd f76c 47bd
00000150: 20b8 aabc 30cf 50bd d4f1 8abc fe6a 3ebd
00000160: a7fa 68bd b683 23bd 19b8 89bd 8ccf 643d
00000170: 0d1f 8b3d df72 a4bd 368f 64bd db15 8c3d
00000180: 44c1 8cbd 24d2 8f3d c720 7f3d 71da 253d
00000190: 854e 883d 2db5 b03d 8309 4b3d a210 86bd
000001a0: f101 963a 7448 903d b1dc d6bc c8f1 a53d
000001b0: a516 88bd e336 cf3b 133b 11be 9b4d 27bd
000001c0: 61ec d43c 34d9 6dbd 3686 9a3d b275 cd3d
000001d0: 2925 b03d 1fa6 963b 88ee 8d3d 8a3f 90bc
000001e0: 6952 a23d ed35 893d f629 b23d 128c 273d
000001f0: e091 19bd 3ee8 0dbd dde1 2a3d 096e 1cbc
00000200: ee14 6d3d 01e8 b4bc f0fd a2bd 303d 81bd
00000210: 1e9a 563c 9722 a3be 61c8 62bd 1cdf 0ebd
00000220: 3e8d 783d 4eea 77bd e356 573d 163a c63d
00000230: f8dd b13c 7087 35bb d6d2 18bd 0950 d3be
00000240: 3025 413c f0d5 a13d b10a 723d 4950 f13d
00000250: 6b7c 483d 0ca9 4d3d 8967 fc3c 6dcf 233d
00000260: 0df7 4c3d 0b1e 813d 9ba5 753d e55e 8dbd
00000270: ff7b a7bd 3379 a0be a133 7c3d 75ba 6dbd
00000280: eb74 863d 3467 4dbd 5ea6 c5bd 50e1 6cbd
00000290: 42e6 97bd bdc2 3ebd 2f0e a3bd cdbd 883d
000002a0: edb2 98bd 0037 90bd a3aa 4d3d 46f6 bfbd
000002b0: ad63 4e3d fe91 febb 90f2 92bd 922e 9f3c
000002c0: dbbb 1fbd 1bf0 813d 3a38 3dbc c586 6fbd
000002d0: f1fe 53bd aba9 3d3d d793 aabc 3afc 0c3d
000002e0: 17ea a2bd 9b90 8bbd ada2 9dbd 4131 92bd
000002f0: 2b2f 623c b0ca 933d 5c60 583d 2508 91ba
00000300: ba02 8cbd 5ab9 3c3e 3924 b93d 4827 333d
00000310: 83a3 9bbd d3b9 f6be 4e2c 8e3d 84d0 733c
00000320: 905a c1bd 6562 b33d ab98 cfbd efd3 023e
00000330: 2611 a73d b7f7 f83d c292 123d 4721 00bf
00000340: 3ddf 8ebd a14b 833d 7aaf 37bd 84d7 233d
00000350: d3a3 d5bd f124 64bd 3ddb 24bd 31a3 a83c
00000360: 72b1 34bd f487 7a3c 3432 46bd 2ded 123e
00000370: bffc e53d d36a e2be 403a 88bd 70f5 c03d
00000380: 0b76 42bd b905 523e 92f5 e83d babf 223e
00000390: 2e29 053e 1023 cd3d a718 f63d 212e 51bd
000003a0: e50f 8e3e 1349 a43d fcd5 b93d 060b e53d
000003b0: f1e1 3fbd 27f2 3d3e e743 babc ca0c 48be
000003c0: 650d 8abe 4359 8abd a61f 293e 2b00 053e
000003d0: f779 1e3e 7654 9bbb f9bc 203e b630 963c
000003e0: 5a15 b33d 64b9 b73d 8064 b13d d25e bb3d
000003f0: f8c3 93bd 08db 41ba 93cc 88be 20c2 223d

bias f4 [32]
-0.34901392 -0.07454566 0.036724254 -0.10921063 -0.013351415 0.09474168 -0.2233596 -0.2629521
-0.018455945 -0.19325007 -0.044191293 -0.39871228 -0.13585842 0.06395737 -0.12974891 -0.045991544
-0.04545443 0.09905644 0.01458755 -0.159668 0.18631132 -0.18889202 0.06302418 -0.09366345
0.03827767 0.058119 0.08309186 -0.4394354 0.023488946 -0.10973481 0.1259327 -0.20721811
00000000: f4b1 b2be 65ab 98bd 2c6c 163d d3a9 dfbd
00000010: e5bf 5abc ed07 c23d 61b8 64be a8a1 86be
00000020: ec30 97bc 59e3 45be ee01 35bd 0424 ccbe
00000030: 781e 0bbe 15fc 823d e6dc 04be a161 3cbd
00000040: 6d2e 3abd 1ade ca3d 9f00 6f3c 0280 23be
00000050: 65c8 3e3e e96c 41be d212 813d 9fd2 bfbd
00000060: 0cc9 1c3d 300e 6e3d 112c aa3d adfd e0be
00000070: e46b c03c a5bc e0bd 80f4 003e fc30 54be

weight f4 [32, 1]
0.5978267 -0.32936198 0.3216084 -0.3116183 -0.5401895 0.13072161 -0.33329007 0.52492654
-0.35130718 -0.308523 -0.54111093 0.14462921 -0.26553765 0.24690647 -0.61926454 0.47100267
-0.34398443 -0.4271731 -0.29023963 0.42537653 -0.5824166 -0.6365868 0.41353217 0.6525306
-0.62199616 -0.23534712 -0.23544012 -0.5756399 0.3404106 0.4217565 0.24092889 -0.34126544
00000000: 2c0b 193f 22a2 a8be dba9 a43e 6f8c 9fbe
00000010: dc49 0abf e3db 053e ffa4 aabe 9661 063f
00000020: 89de b3be baf6 9dbe 3f86 0abf ae19 143e
00000030: 8df4 87be 0dd5 7c3e 1f88 1ebf 4327 f13e
00000040: ba1e b0be 6fb6 dabe 4a9a 94be f4ca d93e
00000050: 4119 15bf 5af7 22bf 7dba d33e 3f0c 273f
00000060: 243b 1fbf d6fe 70be 3717 71be 235d 13bf
00000070: 4c4a ae3e 78f0 d73e 10b6 763e 58ba aebe

bias f4 [32]
-0.6428547 0.32158273 -0.36381823 0.2982403 0.5043088 -0.09807356 0.30397153 -0.53341585
0.33456898 0.29783377 0.5145789 -0.105618164 0.2165488 -0.25409704 0.6143501 -0.4751226
0.33175638 0.4174003 0.2863713 -0.44619668 0.5667506 0.6293233 -0.46290413 -0.660135
0.57878375 0.23140427 0.21258359 0.5396719 -0.36135784 -0.43111834 -0.2787722 0.311391
00000000: 2092 24bf 7ea6 a43e 6246 babe f4b2 983e
00000010: 621a 013f cada c8bd 28a2 9b3e f18d 08bf
00000020: a04c ab3e ab7d 983e 71bb 033f 564e d8bd
00000030: f8be 5d3e 0219 82be 0c46 1d3f 4543 f3be
00000040: f9db a93e 7eb5 d53e 429f 923e e473 e4be
00000050: 9116 113f 551b 213f c501 edbe 9bfe 28bf
00000060: 2c2b 143f 3ef5 6c3e 83af 593e f027 0a3f
00000070: e503 b9be 8bbb dcbe 3bbb 8ebe a46e 9f3e

weight f4 [64, 32]
0.005668373 -0.0137725165 0.007905987 0.021017164 -0.010516074 0.055884913 0.002531595 0.029444281
-0.015028721 -0.008220421 -0.0085681 -0.0450321 -0.00252414 0.00017021135 0.00067786523 0.037733857
-0.01467779 -0.019357612 0.01157363 0.03943969 -0.002383763 0.0013259033 0.05180885 0.025181014
-0.0012726337 0.01209877 -0.052914582 -0.0049176295 0.0423592 0.039243337 0.05027085 0.011810713
0.071952626 0.005947826 0.038409 0.026891042 -0.012180748 -0.012256449 0.011990082 0.02791942
0.0048089726 0.009403624 -0.013818918 -0.07767502 0.038910873 0.061748426 -0.03530294 0.0148810325
0.005110777 0.0010787654 0.021560494 0.0327241 -0.026424741 -0.037507318 0.051517796 0.05609827
-0.029443394 0.027718399 0.012705379 -0.020884637 0.03084411 0.029052017 0.05987241 0.020045802
-0.10633282 0.15289485 -0.15300132 0.19323604 0.11779179 -0.1644035 0.1868978 -0.11277422
0.1502385 0.15854487 0.11678587 -0.18972045 0.25650075 -0.1594128 0.11054614 -0.11876031
0.15090968 0.14500219 0.18544608 -0.13510413 0.1127726 0.11010409 -0.13136873 -0.10399399
0.11212028 0.23169824 0.27026913 0.11439101 -0.14450806 -0.14069065 -0.15727371 0.18283907
-0.055354904 0.27543473 -0.31088284 0.39334694 0.092599444 -0.32330757 0.38373965 -0.0801971
0.264837 0.3002024 0.08761965 -0.5094712 0.36287835 -0.29346207 0.05994979 -0.116332926
0.26752585 0.2395537 0.38019034 -0.21366672 0.069865495 0.057601005 -0.20120035 -0.049455646
0.06638661 0.3840444 0.32016948 0.07722088 -0.28484005 -0.26096535 -0.30021867 0.3770937
0.009880896 -0.01918763 0.051100835 0.089016564 -0.018590746 0.0037054971 0.04178041 0.030526284
-0.021768128 -0.011387599 -0.018243887 0.04677874 0.19662632 0.018816134 -0.018014282 0.03292326
-0.021088902 -0.029523183 0.059298612 0.04371841 -0.017050212 -0.018361114 0.074320175 0.029713003
-0.01749991 0.15589662 0.24850777 -0.017366327 0.050124936 0.0475223 0.04696916 0.051770024
0.10035452 -0.03752711 0.08910434 -0.0027710234 -0.053312678 0.019911358 -0.030626891 0.08526121
-0.038329933 -0.034335315 -0.056826655 -0.042010505 0.021808693 0.04175004 -0.074807644 0.060761787
-0.03816593 -0.04506425 -0.016587347 0.0528992 -0.071695186 -0.07523498 0.13240841 0.08887853
-0.07298667 0.014150252 -0.00845462 -0.06596275 0.07457116 0.060440548 0.048165258 -0.020297565
0.04966219 -0.010456028 -0.0050689764 0.02151271 -0.012160479 0.009106224 -0.00040574346 0.023810888
-0.011123933 -0.0084568 -0.01883941 -0.08835616 0.038138863 -0.0025676128 -0.042931613 0.021964751
-0.011024297 -0.017404614 0.0075487853 -0.004726984 -0.037623134 -0.044040278 0.05220107 0.053473804
-0.03971242 0.024684472 0.021592269 -0.031807613 0.04326121 0.032643743 0.069335006 0.0040798984
0.037713904 0.00047726475 0.011514833 0.035017464 -0.022210717 -0.082217805 0.01880281 -0.0020132663
-0.002476239 0.00370959 -0.022877632 -0.066660576 0.104680754 0.064475454 -0.031050684 0.061790973
-0.0015347875 -0.0086447 0.026874166 0.060985584 -0.027285038 -0.031828742 0.04147778 0.056889363
-0.02876881 0.047034387 0.119952746 -0.025410106 0.03929248 0.07167526 0.044142384 0.02499389
00000000: c2bd b93b 1fa6 61bc 1d88 013c 302c ac3c
00000010: 9c4b 2cbc 94e7 643d 1ee9 253b 2235 f13c
00000020: 063b 76bc f2ae 06bc 3761 0cbc 9473 38bd
00000030: 0b6c 25bb c37a 3239 c4b2 313a d18e 1a3d
00000040: 1d7b 70bc db93 9ebc 539f 3d3c 838b 213d
00000050: e838 1cbb efc9 ad3a 8435 543d 6a48 ce3c
00000060: 80ce a6ba eb39 463c f6bc 58bd 1124 a1bb
00000070: d780 2d3d 9fbd 203d cfe8 4d3d b981 413c
00000080: e65b 933d fbe5 c23b c152 1d3d 9a4a dc3c
00000090: c391 47bc 46cf 48bc 0d72 443c 44b7 e43c
000000a0: 9694 9d3b a811 1a3c be68 62bc 1514 9fbd
000000b0: 0261 1f3d ebeb 7c3d d199 10bd 93cf 733c
000000c0: 4e78 a73b 5c65 8d3a a29f b03c b509 063d
000000d0: b378 d8bc 46a1 19bd 5304 533d 4dc7 653d
000000e0: 4633 f1bc b211 e33c 392a 503c 4216 abbc
000000f0: c9ac fc3c 7ffe ed3c c63c 753d 1837 a43c
00000100: 06c5 d9bd 7890 1c3e 61ac 1cbe abdf 453e
00000110: d23c f13d 6459 28be 2362 3f3e 2cf6 e6bd
00000120: 1fd8 193e 9659 223e 6e2d ef3d 1446 42be
00000130: 1154 833e 1c3d 23be 0466 e23d 9b38 f3bd
00000140: 1188 1a3e 747b 143e 94e5 3d3e bd58 0abe
00000150: 52f5 e63d 417e e13d 8685 06be cdfa d4bd
00000160: 519f e53d 4e42 6d3e b760 8a3e d545 ea3d
00000170: ecf9 13be 3611 10be 5c0c 21be 2a3a 3b3e
00000180: d3bb 62bd c805 8d3e 092c 9fbe c564 c93e
00000190: c7a4 bd3d 9288 a5be 8679 c43e 613e a4bd
000001a0: b798 873e 21b4 993e ee71 b33d b46c 02bf
000001b0: 31cb b93e a940 96be e98d 753d f53f eebd
000001c0: 26f9 883e 914d 753e 4fa8 c23e 73cb 5abe
000001d0: a415 8f3d 08ef 6b3d 7707 4ebe 0192 4abd
000001e0: b4f5 873d 78a1 c43e 41ed a33e fb25 9e3d
000001f0: 8ed6 91be 409d 85be 43b6 99be 6d12 c13e
00000200: 7be3 213c 602f 9dbc 1c4f 513d 514e b63d
00000210: 9f4b 98bc edd7 723b ef21 2b3d 4212 fa3c
00000220: 1353 b2bc 0d93 3abc 3474 95bc 109b 3f3d
00000230: 6958 493e 4b24 9a3c b092 93bc 8ada 063d
00000240: a2c2 acbc 9ada f1bc 1ae3 723d 1312 333d
00000250: e3ac 8bbc 0c6a 96bc 2d35 983d af68 f33c
00000260: f95b 8fbc 5da3 1f3e d278 7e3e d443 8ebc
00000270: ce4f 4d3d bea6 423d bc62 403d ce0c 543d
00000280: ac86 cd3d 07b6 19bd 567c b63d 0f9a 35bb
00000290: 655e 5abd 251d a33c 3fe5 fabc 6e9d ae3d
000002a0: d9ff 1cbd 30a3 0cbd 11c3 68bd 3513 2cbd
000002b0: 25a8 b23c 1702 2b3d c034 99bd 5ae1 783d
000002c0: e153 1cbd 4a95 38bd 30e2 87bc d5ac 583d
000002d0: edd4 92bd cc14 9abd 1296 073e f205 b63d
000002e0: 097a 95bd 75d6 673c 3f85 0abc 7a17 87bd
000002f0: c4b8 983d 8290 773d ef48 453d 1447 a6bc
00000300: 956a 4b3d c34f 2bbc a819 a6bb 6c3b b03c
00000310: bf3c 47bc 4632 153c f7b9 d4b9 0d0f c33c
00000320: 2841 36bc 648e 0abc 1b55 9abc 13f4 b4bd
00000330: 7f37 1c3d 6545 28bb 0fd9 2fbd 6cef b33c
00000340: 419f 34bc 1f94 8ebc cd5b f73b d1e4 9abb
00000350: b71a 1abd 9463 34bd cad0 553d 5907 5b3d
00000360: 7ea9 22bd 1737 ca3c 45e2 b03c b348 02bd
00000370: ab32 313d 72b5 053d 83ff 8d3d abb0 853b
00000380: e579 1a3d 6439 fa39 b6a8 3c3c 796e 0f3d
00000390: 40f3 b5bc cf61 a8bd 5a08 9a3c 01f1 03bb
000003a0: 6648 22bb 981c 733b df69 bbbc 5785 88bd
000003b0: dd62 d63d b50b 843d 015e febc 8818 7d3d
000003c0: ec2a c9ba 80a2 0dbc 3627 dc3c 05cc 793d
000003d0: df84 dfbc db5e 02bd 9be4 293d d204 693d
000003e0: 91ac ebbc 21a7 403d c9a9 f53d db28 d0bc
000003f0: 27f1 203d 7bca 923d a5ce 343d fdbf cc3c

bias f4 [64]
-0.0130757885 -0.018074635 -0.049831565 -0.01737114 -0.12813744 -0.018641984 -0.011852453 -0.1639175
-0.19183248 -0.0026360434 0.0026171857 -0.18022431 0.009260921 0.00015231346 0.08914427 -0.023501216
-0.18766625 -0.006263463 0.12201944 -0.003406803 -0.015999945 0.019538134 0.0013140229 -0.0985147
0.0053546056 -0.14416063 -0.07329989 -0.002115402 -0.0040665464 -0.09859501 -0.19325194 -0.0051890975
0.111988895 -0.044398088 0.11048494 -0.018406158 4.98083e-05 -0.04150008 -0.017191848 0.13431084
-0.005914562 -0.020213539 -0.0070745507 -0.04633063 -0.014629976 -0.002887672 -0.18656847 -0.1768776
-0.013007189 -0.10759224 -0.004727545 -0.034840155 -0.033485476 -0.01645866 -0.078492634 0.05947019
-0.014411187 -0.145532 -0.17490147 -0.005584668 -0.07631987 -0.05529231 -0.011919835 0.13225092
00000000: d53b 56bc 4211 94bc 2f1c 4cbd ec4d 8ebc
00000010: 7636 03be 13b7 98bc cb30 42bc fdd9 27be
00000020: bc6f 44be 78c1 2cbb 1785 2b3b b98c 38be
00000030: 1ebb 173c 55b6 1f39 4591 b63d 9f85 c0bc
00000040: 952b 40be bc3d cdbb 54e5 f93d ab44 5fbb
00000050: 5112 83bc 700e a03c 4b3b ac3a 13c2 c9bd
00000060: b075 af3b d89e 13be 411e 96bd 8ea2 0abb
00000070: aa40 85bb 2eec c9bd d6e3 45be 4e09 aabb
00000080: 6f5a e53d c5da 35bd ee45 e23d 83c8 96bc
00000090: 41e9 5038 fdfb 29bd ebd5 8cbc c888 093e
000000a0: f1ce c1bb dd96 a5bc a2d1 e7bb 30c5 3dbd
000000b0: 91b2 6fbc 193f 3dbb ce0b 3fbe 671f 35be
000000c0: 1b1c 55bc 5259 dcbd 86e9 9abb 8db4 0ebd
000000d0: 1128 09bd 50d4 86bc bfc0 a0bd 0497 733d
000000e0: e61c 6cbc 5706 15be 5f19 33be 97ff b6bb
000000f0: 984d 9cbd 307a 62bd 694b 43bc c96c 073e

weight f4 [32, 64]
0.05930016 0.1171896 -0.0592881 -0.0040586214 0.116505906 0.0923718 0.031543497 0.14299092
0.10506074 0.08692695 -0.25694147 0.17257656 0.044698425 0.0404352 -0.33167434 0.07373149
0.22105923 0.119649306 -0.32459554 0.046351165 0.024194509 0.048901614 0.08450722 0.17116168
0.04745988 0.22393651 -0.0489319 0.06478514 0.099608 0.14513071 0.14225549 0.059861105
-0.3333316 0.10282864 -0.3269459 0.05443538 0.07325022 0.17662323 0.070040144 -0.33158427
0.039303575 0.07002851 -0.18375117 0.13799274 0.08493338 0.03894257 0.120213576 0.11383889
0.09775968 0.19735296 0.023485573 0.14650509 0.027594334 0.06916022 0.14045174 -0.330004
0.03350659 0.09487244 0.13907872 0.124101765 -0.0475251 -0.060667075 0.05784823 -0.32913104
0.04189592 0.039038848 -0.04368449 -0.09969628 -0.0132959215 0.0013546204 0.027849266 0.045352586
0.05760521 0.011529126 0.023638798 0.056185406 -0.13795088 0.017370608 0.034337886 0.011915563
0.022399245 0.01699062 0.029167779 0.016170107 -0.035241283 -0.12881058 0.010660791 -0.013586895
0.0148036545 -0.016653767 -0.038009383 0.0023511944 0.010689387 0.026120283 0.057858963 0.0043034987
0.03488051 0.03324519 0.034307867 0.0012481444 0.005875322 -0.013890467 0.013879547 0.030140884
0.0073993145 0.010609274 0.021881036 0.011419549 0.022110235 0.008150204 0.05803351 0.048371553
0.0012427571 -0.018596716 -0.0019702795 0.0077627017 -0.013691406 0.024573833 0.000109982546 0.03160389
0.029686665 0.039206926 0.047409102 -0.008474021 -0.13965581 -0.047087025 -0.0014157498 0.03080957
-0.037153404 0.0034342099 -0.31815818 -0.21881591 -0.10922845 0.055241328 0.027679477 -0.10736629
-0.11751447 0.010484756 0.07821874 -0.10313416 -0.12814353 -0.003024885 0.09988184 -0.027077626
-0.1417191 -0.031824186 0.13163348 -0.03400622 -0.020137142 -0.13077474 0.016670244 -0.09013241
-0.008143823 -0.059402253 -0.34487107 0.047254954 0.035426803 -0.0967638 -0.10981967 -0.05902687
0.102862485 -0.052384313 0.12597187 -0.060329996 0.03339744 -0.066026874 -0.053087134 0.12660675
-0.025332378 -0.021724764 0.10309762 -0.07385666 -0.05310581 -0.019120501 -0.117044106 -0.10197493
-0.04864038 -0.102422364 -0.0073113455 -0.037028763 -0.051940084 -0.028158376 -0.09982699 0.094804
-0.08873354 -0.099244624 -0.10831171 -0.07491011 -0.5273424 -0.3173412 -0.021287687 0.13037224
-0.0055192737 -0.034357887 -0.40134406 -0.26628852 -0.12509575 3.3309014e-05 0.0019563443 -0.21866353
-0.25886902 0.0027814114 0.099764794 -0.18938507 -0.3390964 -0.012945001 0.12629703 -0.031282727
-0.12318002 -0.044262666 0.14143904 -0.009158184 0.008360219 -0.2534247 -0.025623074 -0.09819197
-0.030620256 -0.12444369 -0.38839245 -0.0053204815 -0.034643676 -0.20048173 -0.23044702 -0.052630883
0.13243742 -0.02101625 0.13934049 -0.07344711 -0.0092989355 -0.06766368 -0.01402338 0.13886273
-0.023997387 -0.041214336 0.091985635 -0.10450779 -0.0039160918 -0.01578431 -0.21748337 -0.22740361
-0.009331118 -0.12169812 -0.023999115 -0.03923495 -0.0059923166 -0.037288755 -0.09660528 0.117673375
-0.03991554 -0.19716881 -0.24459824 -0.069330625 -0.24768616 -0.39303535 -0.031810775 0.1419365
00000000: b9e4 723d 1a01 f03d 14d8 72bd 2ffe 84bb
00000010: a69a ee3d 6d2d bd3d c133 013d 366c 123e
00000020: 162a d73d c206 b23d d58d 83be e9b7 303e
00000030: b215 373d 619f 253d 38d1 a9be 8900 973d
00000040: 5a5d 623e b20a f53d 6331 a6be b8da 3d3d
00000050: 9033 c63c 0f4d 483d 1f12 ad3d 0245 2f3e
00000060: 4b65 423d 9d4f 653e d16c 48bd 12ae 843d
00000070: 47ff cb3d 259d 143e 6cab 113e eb30 753d
00000080: 71aa aabe d297 d23d 7465 a7be a2f7 5e3d
00000090: 3604 963d b8dc 343e 3571 8f3d 6ac5 a9be
000000a0: c9fc 203d 1c6b 8f3d 4429 3cbe f84d 0d3e
000000b0: 8df1 ad3d 3f82 1f3d 8932 f63d 5d24 e93d
000000c0: 3a36 c83d e516 4a3e d164 c03c 6e05 163e
000000d0: 830d e23c e0a3 8d3d 95d2 0f3e 49f6 a8be
000000e0: 353e 093d 7b4c c23d a76a 0e3e 1129 fe3d
000000f0: aea9 42bd 0a7e 78bd 44f2 6c3d dd83 a8be
00000100: 0e9b 2b3d 33e7 1f3d 82ee 32bd 902d ccbd
00000110: 23d7 59bc 858d b13a 2524 e43c a2c3 393d
00000120: 71f3 6b3d a9e4 3c3c 27a6 c13c ab22 663d
00000130: ff42 0dbe ce4c 8e3c e2a5 0c3d 7e39 433c
00000140: 9f7e b73c ea2f 8b3c 44f1 ee3c 2c77 843c
00000150: 2a59 10bd ece6 03be 99aa 2e3c 919b 5ebc
00000160: 078b 723c 7b6d 88bc baaf 1bbd 7f16 1a3b
00000170: 8a22 2f3c 34fa d53c 85fd 6c3d 5d04 8d3b
00000180: dede 0e3d 1c2c 083d 6886 0c3d c798 a33a
00000190: c685 c03b d794 63bc 0a67 633c 04ea f63c
000001a0: f375 f23b 85d2 2d3c dc3f b33c 0f19 3b3c
000001b0: 8620 b53c 6f88 053c 8cb4 6d3d 4021 463d
000001c0: 02e4 a23a 2458 98bc ce1f 01bb 435e fe3b
000001d0: eb51 60bc 104f c93c 6ea6 e638 1573 013d
000001e0: 7331 f33c 7197 203d 0c30 423d 9fd6 0abc
000001f0: ef01 0fbe 53de 40bd ae90 b9ba 5a64 fc3c
00000200: 2b2e 18bd 7b10 613b a1e5 a2be 4711 60be
00000210: 2ab3 dfbd bb44 623d 12c0 e23c dce2 dbbd
00000220: 6dab f0bd 41c8 2b3c 2631 a03d 0138 d3bd
00000230: 0f38 03be 263d 46bb da8e cc3d e6d1 ddbc
00000240: d01e 11be 145a 02bd edca 063e 1b4a 0bbd
00000250: a6f6 a4bc d0e9 05be 0990 883c 5797 b8bd
00000260: ab6d 05bc c74f 73bd f192 b0be 698e 413d
00000270: b21b 113d 192c c6bd 23e9 e0bd 29c6 71bd
00000280: 91a9 d23d ef90 56bd c5fe 003e 961c 77bd
00000290: c1cb 083d 1939 87bd e571 59bd 33a5 013e
000002a0: d985 cfbc 22f8 b1bc d824 d33d 2942 97bd
000002b0: 7a85 59bd 99a2 9cbc d2b4 efbd 3bd8 d0bd
000002c0: 233b 47bd d1c2 d1bd 0394 efbb 79ab 17bd
000002d0: 20bf 54bd 65ac e6bc 1872 ccbd 9928 c23d
000002e0: eeb9 b5bd c440 cbbd 88d2 ddbd 796a 99bd
000002f0: e9ff 06bf 8c7a a2be 8463 aebc 4d80 053e
00000300: 06db b4bb dbba 0cbd f87c cdbe f856 88be
00000310: 1a19 00be 48b5 0b38 0336 003b 55e9 5fbe
00000320: 7b8a 84be 5748 363b 7c51 cc3d 29ee 41be
00000330: 0b9e adbe 4517 54bc 0254 013e 5122 00bd
00000340: ce45 fcbd c54c 35bd 65d5 103e 350c 16bc
00000350: 4df9 083c e2c0 81be 7be7 d1bc df18 c9bd
00000360: 55d7 fabc 55dc febd 60db c6be 6f57 aebb
00000370: 87e6 0dbd 154b 4dbe 4efa 6bbe 7b93 57bd
00000380: ad9d 073e 452a acbc 46af 0e3e 706b 96bd
00000390: 905a 18bc 4193 8abd 52c2 65bc 0832 0e3e
000003a0: 2b96 c4bc 5dd0 28bd f762 bc3d 2e08 d6bd
000003b0: 8f52 80bb 194e 81bc f6b3 5ebe 7edc 68be
000003c0: 8ce1 18bc dd3c f9bd cb99 c4bc d4b4 20bd
000003d0: 325b c4bb 18bc 18bd fdd8 c5bd bdfe f03d
000003e0: 7a7e 23bd 9fe6 49be f677 7abe 37fd 8dbd
000003f0: 71a1 7dbe ee3b c9be 044c 02bd cd57 113e

bias f4 [32]
-0.16280395 0.04345868 0.11208785 0.20806295 0.22113378 0.0844219 0.13747282 -0.17551053
-0.28641203 -0.075424924 -0.055546 -0.45085916 0.08635312 0.015392522 -0.021819167 -0.14363225
0.16850887 0.067727014 -0.25306994 0.06496201 -0.40859362 -0.24276668 -0.07736457 -0.11083671
0.11923324 0.06692942 -0.18233146 0.26814988 -0.19581215 0.002985731 -0.083708584 -0.09835571
00000000: 14b6 26be bb01 323d 518e e53d 740e 553e
00000010: e570 623e 64e5 ac3d adc5 0c3e 08b9 33be
00000020: 99a4 92be 6278 9abd 3484 63bd 03d7 e6be
00000030: e8d9 b03d eb30 7c3c 1cbe b2bc 5514 13be
00000040: 978d 2c3e 76b4 8a3d 6292 81be cd0a 853d
00000050: 2f33 d1be d497 78be 5171 9ebd 5bfe e2bd
00000060: 8f30 f43d 4b12 893d 19b5 3abe f14a 893e
00000070: fb82 48be 41ac 433b 686f abbd b86e c9bd

weight f4 [32, 1]
-0.5472208 0.42900202 0.3569224 -0.60861313 0.49128357 -0.5285913 -0.44141597 0.32179224
-0.50400215 -0.5148518 1.367225 -0.47977197 0.5390077 0.18917868 -0.43321532 0.4042358
-0.503916 -0.61110735 -0.43591142 -0.53224194 0.45848918 -0.3582502 0.5772433 -0.61095744
0.36267805 -0.46945697 0.48447874 0.41530168 0.5630248 -0.4615199 -0.50171775 -0.59765565
00000000: aa16 0cbf 27a6 db3e 88be b63e 12ce 1bbf
00000010: 8589 fb3e c251 07bf 4601 e2be f4c1 a43e
00000020: 4906 01bf 54cd 03bf 3b01 af3f aca4 f5be
00000030: 69fc 093f 0eb8 413e 66ce ddbe fff7 ce3e
00000040: a400 01bf 8871 1cbf c82f dfbe 0241 08bf
00000050: 18bf ea3e 926c b7be 38c6 133f b567 1cbf
00000060: f0b0 b93e aa5c f0be 990d f83e 6ca2 d43e
00000070: 6522 103f 564c ecbe 9370 00bf f6ff 18bf

bias f4 [32]
0.47911602 -0.2452604 -0.3892472 0.53307676 -0.53833723 0.46054834 0.38752306 -0.35678807
0.43646765 0.4505808 0.101726405 0.47076046 -0.5504616 -0.21743137 0.38036212 -0.4579335
0.48054254 0.5324653 0.37842187 0.48301494 -0.47850817 0.310115 -0.58902866 0.5362426
-0.26267353 0.4080727 -0.50618255 -0.2972902 -0.4358117 0.4010851 0.48592275 0.5535856
00000000: b24e f53e 8b25 7bbe 694b c7be b877 083f
00000010: 78d0 09bf fecc eb3e 6c69 c63e edac b6be
00000020: b078 df3e 87b2 e63e ef55 d03d 8407 f13e
00000030: 0deb 0cbf 54a6 5ebe d3be c23e 4276 eabe
00000040: ac09 f63e a54f 083f 83c0 c13e bc4d f73e
00000050: 06ff f4be 65c7 9e3e 95ca 16bf 3247 093f
00000060: 257d 86be e8ee d03e 2e95 01bf 6c36 98be
00000070: b622 dfbe 075b cd3e deca f83e c9b7 0d3f

weight f4 [64, 32]
-0.35012916 0.35127234 0.17415021 -0.36245996 0.2820945 -0.3581214 -0.34692052 0.20216392
-0.36250314 -0.3616576 0.035053473 -0.32842186 0.27385092 0.1669559 -0.34165755 0.2659992
-0.3355679 -0.3662449 -0.3422343 -0.3476784 0.2803213 -0.2442033 0.29262808 -0.36020026
0.13614033 -0.35188943 0.2812318 0.19560297 -0.044769667 -0.35136172 -0.33395478 -0.33928373
-0.17357717 0.29005265 0.11378935 -0.18590821 0.18218787 -0.16374207 -0.13989669 0.13610105
-0.14865492 -0.15043604 -0.41708925 -0.17213199 0.1692523 0.1347774 -0.13956687 0.19784433
-0.1725898 -0.18427645 -0.13884644 -0.17185493 0.17908053 -0.0029737055 0.19876225 -0.18870501
0.2856287 -0.14216022 0.17929992 0.33514324 0.09116311 -0.14166823 -0.17415091 -0.19463688
-0.14259118 0.36618719 0.110777475 -0.1400173 0.12523262 -0.14229831 -0.13449517 0.083094396
-0.1398269 -0.13831298 0.011738258 -0.13997751 0.1087938 0.11826021 -0.13293757 0.119907685
-0.13968867 -0.14038269 -0.13275848 -0.14112395 0.1250291 -0.10652133 0.12480732 -0.14051344
0.22550958 -0.1353091 0.12970005 0.22094531 0.044069804 -0.13539359 -0.1404664 -0.13656677
-0.085965425 0.43301982 0.09136162 -0.10097122 0.10452816 -0.07900414 -0.05580576 0.06571754
-0.067825824 -0.06973546 -0.2160481 -0.085540466 0.105608806 0.09976403 -0.05498091 0.10923257
-0.08551444 -0.10017894 -0.053691298 -0.084831856 0.09967612 0.03122004 0.11725582 -0.10308565
0.32404676 -0.060612187 0.10560028 0.39889812 0.13031246 -0.058663324 -0.08689562 -0.10801267
-0.2445043 0.61227065 0.12673898 -0.25217295 0.22605278 -0.23876001 -0.22811107 0.16764818
-0.23149441 -0.23160484 -0.15433455 -0.23961855 0.20575967 0.1557721 -0.22773471 0.23119183
-0.24065256 -0.25162262 -0.22741002 -0.24216722 0.22646149 -0.1856617 0.24003269 -0.253844
0.39298066 -0.22655177 0.22534518 0.47241768 0.065858126 -0.22791524 -0.24169916 -0.25245136
-0.29395434 0.21802732 0.17257161 -0.28194213 0.2757774 -0.2866557 -0.27878472 0.21034667
-0.2864952 -0.2859148 -0.31778705 -0.29945764 0.24548525 0.19464307 -0.27746692 0.26904786
-0.29751146 -0.2819433 -0.27667642 -0.29322663 0.27860326 -0.2614593 0.2742301 -0.282276
0.14369051 -0.2807767 0.27030128 0.13285162 0.13201143 -0.28059042 -0.29968756 -0.2853621
-0.3255069 0.21232606 0.1481014 -0.32758936 0.30117813 -0.31775817 -0.31549332 0.22399385
-0.31703308 -0.3141754 -0.31349808 -0.32710654 0.26637366 0.18452504 -0.31543708 0.31204426
-0.32513416 -0.32652837 -0.31452754 -0.32355788 0.3068423 -0.26819468 0.31501573 -0.32932332
0.16306075 -0.31277826 0.29005957 0.17743047 0.028688246 -0.31455535 -0.32709068 -0.33171353
-0.26384628 -0.24160488 0.17029722 -0.24303861 0.2292602 -0.282768 -0.3397818 0.23747058
-0.31893748 -0.3090999 0.06545801 -0.26642546 0.20882733 0.18420874 -0.3399989 0.20127112
-0.26463398 -0.24794309 -0.34234455 -0.2635135 0.23554482 -0.34572822 0.20526204 -0.23976824
-0.3198229 -0.3260359 0.22874388 -0.36925146 -0.110955864 -0.3327601 -0.26357815 -0.21999083
00000000: 2144 b3be f8d9 b33e 6f54 323e 5a94 b9be
00000010: b16e 903e b05b b7be 919f b1be 0f04 4f3e
00000020: 039a b9be 2f2b b9be 3b94 0f3d e926 a8be
00000030: 3036 8c3e 7df6 2a3e bded aebe 0c31 883e
00000040: 8ecf abbe 7484 bbbe 5639 afbe e702 b2be
00000050: 4686 8f3e 6e10 7abe 59d3 953e 2b6c b8be
00000060: 5f68 0b3e da2a b4be 9dfd 8f3e 254c 483e
00000070: 6660 37bd afe5 b3be 1ffc aabe 99b6 adbe
00000080: 37be 31be c881 943e 640a e93d b95e 3ebe
00000090: 758f 3a3e 00ac 27be 1441 0fbe 135e 0b3e
000000a0: ff38 18be e80b 1abe b98c d5be 5e43 30be
000000b0: 7a50 2d3e 1603 0a3e 9eea 0ebe b497 4a3e
000000c0: 61bb 30be f7b2 3cbe c32d 0ebe bdfa 2fbe
000000d0: e360 373e 80e2 42bb 5588 4b3e e33b 41be
000000e0: ed3d 923e 7392 11be 669a 373e e597 ab3e
000000f0: bab3 ba3d 7a11 11be 9e54 32be e44e 47be
00000100: 6c03 12be e37c bb3e 4ddf e23d b260 0fbe
00000110: fb3c 003e a6b6 11be 1ab9 09be 652d aa3d
00000120: c82e 0fbe eba1 0dbe d351 403c 4456 0fbe
00000130: 49cf de3d 6932 f23d c920 08be 2992 f53d
00000140: 8c0a 0fbe 7bc0 0fbe d7f1 07be cc82 10be
00000150: a107 003e db27 dabd fb9a ff3d c1e2 0fbe
00000160: fceb 663e 788e 0abe 17d0 043e 7d3f 623e
00000170: 8a82 343d 9ea4 0abe 6dd6 0fbe 29d8 0bbe
00000180: a40e b0bd c6b4 dd3e cd1b bb3d 00ca cebd
00000190: dc12 d63d eccc a1bd 9594 64bd eb96 863d
000001a0: 44e8 8abd 77d1 8ebd b73b 5dbe d72f afbd
000001b0: 6e49 d83d 1551 cc3d aa33 61bd 53b5 df3d
000001c0: 3222 afbd 9e2a cdbd 68eb 5bbd 53bc adbd
000001d0: fe22 cc3d 2bc1 ff3c d223 f03d 921e d3bd
000001e0: 75e9 a53e 7c44 78bd f644 d83d 603c cc3e
000001f0: a170 053e f448 70bd 55f6 b1bd bf35 ddbd
00000200: 565f 7abe c5bd 1c3f ddc7 013e d01c 81be
00000210: 617a 673e 817d 74be f395 69be f7ab 2b3e
00000220: df0c 6dbe d229 6dbe e009 1ebe 915e 75be
00000230: aab2 523e b982 1f3e 4a33 69be 8dbd 6c3e
00000240: a06d 76be aed4 80be 2cde 68be affa 77be
00000250: 85e5 673e 1a1e 3ebe 21cb 753e d7f7 81be
00000260: c334 c93e 30fd 67be e3c0 663e bbe0 f13e
00000270: a0e0 863d 9d62 69be fc7f 77be 4e41 81be
00000280: 2f81 96be 8e42 5f3e 9db6 303e b85a 90be
00000290: b232 8d3e 89c4 92be dfbc 8ebe 1e65 573e
000002a0: 80af 92be 6d63 92be fcb4 a2be 8352 99be
000002b0: 7c60 7b3e 8350 473e 2510 8ebe a4c0 893e
000002c0: 6c53 98be df5a 90be 88a8 8dbe cd21 96be
000002d0: 16a5 8e3e fedd 85be e367 8c3e 7b86 90be
000002e0: 9b23 133e f7c1 8fbe ee64 8a3e 410a 083e
000002f0: 012e 073e 8ca9 8fbe a670 99be fb1a 92be
00000300: d7a8 a6be 016c 593e e5a7 173e cbb9 a7be
00000310: 0534 9a3e 33b1 a2be 5788 a1be a55e 653e
00000320: 2952 a2be 99db a0be d282 a0be 827a a7be
00000330: 2162 883e 22f4 3c3e f880 a1be 44c4 9f3e
00000340: fc77 a6be ba2e a7be c109 a1be 61a9 a5be
00000350: 6f1a 9d3e d050 89be be49 a13e 119d a8be
00000360: 66f9 263e 7924 a0be b082 943e 55b0 353e
00000370: 9d03 eb3c 660d a1be 6e78 a7be 5bd6 a9be
00000380: dc16 87be 4567 77be 6562 2e3e 1ddf 78be
00000390: 30c3 6a3e f8c6 90be e1f7 adbe 7d2b 733e
000003a0: c64b a3be 5842 9ebe d90e 863d eb68 88be
000003b0: d5d6 553e 37a1 3c3e 5614 aebe 041a 4e3e
000003c0: 1b7e 87be cbe4 7dbe c947 afbe 3eeb 86be
000003d0: a932 713e 4a03 b1be 3630 523e ce85 75be
000003e0: d4bf a3be 2dee a6be d63b 6a3e 870e bdbe
000003f0: d43c e3bd 885f aabe b7f3 86be 4745 61be

bias f4 [64]
-0.16451524 -0.395415 -0.1856523 -0.33006746 -0.3184929 -0.32312006 -0.3892791 0.017289849
-0.03644317 -0.117057234 -0.28204876 0.025941372 -0.31263435 -0.3885973 0.12393838 -0.045268737
-0.02874383 0.110758156 0.027667608 -0.025800291 0.20078143 0.14262025 -0.15733735 -0.10629873
-0.3871076 -0.14255215 0.019337092 0.09017892 -0.09854364 -0.049383968 -0.068812236 -0.10245272
-0.1517018 0.19814941 -0.04620392 -0.34983465 -0.07481218 -0.024455227 -0.0064336974 -0.30498075
-0.0024531537 -0.001966661 -0.40246773 -0.05599793 -0.11303316 -0.30710936 -0.13506952 -0.18349586
-0.04052027 -0.35019514 -0.070933565 -0.06702515 -0.060283165 -0.15086982 -0.20992911 -0.35191458
-0.08886972 -0.1778797 -0.033151608 -0.39749464 -0.040989596 -0.07829425 0.32665527 -0.37500703
00000000: af76 28be d673 cabe a31b 3ebe 9afe a8be
00000010: 8011 a3be fe6f a5be 974f c7be 71a3 8d3c
00000020: 6f45 15bd b4bb efbd b268 90be 0083 d43c
00000030: 9c11 a0be 3af6 c6be 68d3 fd3d b66b 39bd
00000040: 2e78 ebbc 2cd5 e23d 2ea7 e23c 225b d3bc
00000050: a699 4d3e 0b0b 123e 0b1d 21be 26b3 d9bd
00000060: f832 c6be 31f9 11be d268 9e3c baaf b83d
00000070: 3fd1 c9bd d846 4abd 6eed 8cbd bbd2 d1bd
00000080: b757 1bbe aee7 4a3e 5240 3dbd 871d b3be
00000090: 2137 99bd 5456 c8bc c4d1 d2bb 7026 9cbe
000000a0: 17c5 20bb 19e3 00bb 4010 cebe 165e 65bd
000000b0: ee7d e7bd 703d 9dbe aa4f 0abe 57e6 3bbe
000000c0: 95f8 25bd c74c b3be 9e45 91bd 7b44 89bd
000000d0: 7beb 76bd 9e7d 1abe a8f7 56be 262e b4be
000000e0: 5401 b6bd 1926 36be fbc9 07bd 6b84 cbbe
000000f0: b5e4 27bd bc58 a0bd 5c3f a73e ec00 c0be

weight f4 [32, 64]
-0.036405955 0.019731717 0.014165989 0.010763691 -0.011383523 0.02569492 0.057916492 -0.09272109
-0.072442375 -0.045024294 0.27881625 -0.09681084 -0.11615268 0.06355372 0.043948185 -0.06662538
-0.0588996 -0.2325088 -0.09332012 -0.052707423 -0.1601941 -0.22265236 -0.08171016 -0.07753406
0.052182995 -0.024931943 -0.10162949 0.06186444 -0.09054314 -0.0932926 -0.08688769 -0.09025431
-0.07267716 -0.28360257 -0.090258755 0.0475668 0.013811941 -0.07194172 -0.09981495 0.04208025
-0.08279597 -0.07479202 0.07455286 -0.08906488 -0.041850332 0.0655109 0.033594616 -0.085387655
-0.077255316 0.053536292 -0.08738653 -0.07256918 -0.07959358 0.020835571 0.042758822 0.011331614
-0.061490726 -0.042712566 -0.08045837 0.0518156 -0.080895126 -0.09544107 -0.16240537 0.057571042
6.9299145e-05 0.021138674 0.00723688 0.0060886135 -0.0038298017 0.013193175 0.02117181 0.013394706
0.042682316 0.066307 -0.07633816 0.038353372 0.111092605 0.017228892 0.11184433 -0.00026839942
0.015606959 -0.07318497 0.029527802 0.0057869125 -0.052262828 -0.0712327 -0.0012648721 0.009646884
0.029612526 0.028051162 0.008861795 0.18664339 0.004355669 -0.00038770054 0.060823407 0.0174246
0.022941865 -0.055979777 0.046673402 0.012224408 0.05615442 -0.007596244 0.02326181 0.00051348447
0.0066153747 0.0014519349 0.00052067084 0.046375524 0.16601668 -0.024811523 0.01673776 0.009078356
-0.0063857245 0.004909166 0.022837663 0.012833737 0.0032559875 0.015677994 0.022686884 -0.009916229
0.0043422123 0.017149603 0.038079582 0.012057998 -0.0021666246 -0.0037694126 -0.1532211 -0.0014807737
0.2037495 0.09754397 0.042182144 0.0053946646 0.056114797 0.05280823 0.12505975 0.4151038
0.38215357 0.08129603 0.05169028 0.24302879 -0.4183587 0.096965894 -1.1838125 0.25505045
0.17828372 -1.2163627 0.35148358 0.3879498 -0.7441177 -1.2029365 0.2711359 0.271088
0.08979898 0.24049479 0.4059841 -1.010776 0.29859132 0.26078138 0.10925376 0.32507008
0.19775806 -0.75667703 -0.030874163 0.0831014 -0.014660067 0.24786837 0.49233395 0.12149539
0.3792408 0.15607682 0.07444165 0.44520637 -1.0551661 0.05612279 0.050976776 0.237057
0.17246139 0.070516735 0.37100577 0.41002244 0.39047882 0.013651391 0.09708158 0.06539258
0.13675898 0.30489352 0.26823032 0.10120852 0.23022974 0.32772127 0.09282226 0.072544016
0.016673768 0.11131767 0.00577426 0.14524604 0.10301091 0.072637044 0.07790827 0.0889137
0.058627363 0.012358998 -0.062472716 0.042712007 -0.31033102 0.1450372 -0.58266705 0.05079077
0.049263194 -0.5583535 0.051311348 0.050276127 -0.3363095 -0.55290467 0.070413746 0.060389973
0.10549565 0.050682776 0.10310278 -0.5614609 -0.012204321 0.06262546 -0.003735693 0.09546433
-0.043569535 -0.49721494 -0.046484552 0.13252655 0.07058841 0.059688997 0.09655454 0.12407659
0.05683733 0.012700766 0.15721579 0.07051288 -0.21407057 0.16548683 0.040198997 -0.022301724
0.04199323 0.11955637 0.052584726 0.07206417 0.093166515 0.029142538 0.14778025 0.10498438
0.0040899087 0.033580612 0.071535766 0.14094253 0.05777247 -0.009930729 -0.113148436 0.1744784
00000000: 691e 15bd 69a4 a13c 7718 683c 315a 303c
00000010: f581 3abc 277e d23c d839 6d3d 8ee4 bdbd
00000020: ab5c 94bd 656b 38bd 01c1 8e3e c344 c6bd
00000030: 75e1 edbd 7428 823d 0303 343d e372 88bd
00000040: b540 71bd c916 6ebe 9e1e bfbd bde3 57bd
00000050: ec09 24be fbfe 63be a857 a7bd 2dca 9ebd
00000060: d6bd 553d 133e ccbc 1f23 d0bd 9165 7d3d
00000070: af6e b9bd 3110 bfbd 2cf2 b1bd 40d7 b8bd
00000080: c3d7 94bd 5b34 91be 95d9 b8bd 68d5 423d
00000090: 7b4b 623c 2e56 93bd c86b ccbd 575c 2c3d
000000a0: ef90 a9bd 8f2c 99bd 2baf 983d a667 b6bd
000000b0: 416b 2bbd 942a 863d 829a 093d b9df aebd
000000c0: 0938 9ebd df48 5b3d b6f7 b2bd 269f 94bd
000000d0: f501 a3bd 5caf aa3c e023 2f3d 3ca8 393c
000000e0: b3dd 7bbd 5ff3 2ebd 5cc7 a4bd 983c 543d
000000f0: 58ac a5bd 9c76 c3bd 984d 26be 9dcf 6b3d
00000100: b254 9138 032b ad3c 5923 ed3b fe82 c73b
00000110: 69fd 7abb 3028 583c 8170 ad3c 7875 5b3c
00000120: a7d3 2e3d f7cb 873d 2e57 9cbd 6d18 1d3d
00000130: 8584 e33d 9b23 8d3c a40e e53d f6b7 8cb9
00000140: 55b4 7f3c 00e2 95bd 4ae4 f13c 24a0 bd3b
00000150: 8c11 56bd 73e2 91bd 11ca a5ba f70d 1e3c
00000160: f895 f23c 8dcb e53c 1031 113c 721f 3f3e
00000170: 00ba 8e3b 4944 cbb9 f721 793d 09be 8e3c
00000180: 94f0 bb3c 0d4b 65bd 9c2c 3f3d e248 483c
00000190: 2d02 663d eae9 f8bb 8d8f be3c 5c9b 063a
000001a0: c9c5 d83b da4e be3a a17d 083a 43f4 3d3d
000001b0: 4700 2a3e 8941 cbbc a01d 893c 63bd 143c
000001c0: 573f d1bb 12dd a03b 0d16 bb3c 9844 523c
000001d0: 6862 553b 236f 803c d8d9 b93c ae77 22bc
000001e0: 1e49 8e3b 537d 8c3c 56f9 1b3d e98e 453c
000001f0: eefd 0dbb 4008 77bb fee5 1cbe 8516 c2ba
00000200: b5a3 503e 22c5 c73d 2fc7 2c3d bac5 b03b
00000210: a1d8 653d 714d 583d aa0f 003e 7c88 d43e
00000220: a2a9 c33e 887e a63d 30b9 533d 8adc 783e
00000230: 1d33 d6be 0e96 c63d 2b87 97bf f995 823e
00000240: 0290 363e c6b1 9bbf a8f5 b33e 5ba1 c63e
00000250: 7f7e 3ebf d3f9 99bf 53d2 8a3e 0ccc 8a3e
00000260: 87e8 b73d 4444 763e 26dd cf3e 1c61 81bf
00000270: f6e0 983e 2385 853e 6fc0 df3d 966f a63e
00000280: 1781 4a3e 96b5 41bf d0eb fcbc 1131 aa3d
00000290: c730 70bc 35d1 7d3e 3213 fc3e 93d2 f83d
000002a0: da2b c23e 9ad2 1f3e dd74 983d 17f2 e33e
000002b0: af0f 87bf 03e1 653d 06cd 503d 12bf 723e
000002c0: b899 303e 146b 903d 78f4 bd3e 76ee d13e
000002d0: d7ec c73e 15aa 5f3c b5d2 c63d 8cec 853d
000002e0: 8c0a 0c3e 011b 9c3e 7c55 893e 6a46 cf3d
000002f0: 58c1 6b3e 15cb a73e 9919 be3d f591 943d
00000300: 6d97 883c 85fa e33d 0136 bd3b 61bb 143e
00000310: 62f7 d23d bbc2 943d 5f8e 9f3d 6318 b63d
00000320: 3f23 703d 657d 4a3c 64e3 7fbd c9f2 2e3d
00000330: b5e3 9ebe a284 143e ab29 15bf fc09 503d
00000340: 34c8 493d 41f0 0ebf d92b 523d 57ee 4d3d
00000350: c230 acbe 298b 0dbf 1535 903d 7a5b 773d
00000360: 1a0e d83d be98 4f3d 8d27 d33d e7bb 0fbf
00000370: a2f4 47bc c741 803d 87d2 74bb cd82 c33d
00000380: f875 32bd f592 febe 9666 3ebd 0ab5 073e
00000390: a890 903d 737c 743d 63be c53d de1b fe3d
000003a0: 43ce 683d e016 503c 2dfd 203e 0f69 903d
000003b0: 5135 5bbe 6175 293e b4a7 243d 1bb2 b6bc
000003c0: 1801 2c3d f8d9 f43d 1563 573d 6196 933d
000003d0: 16ce be3d 55bc ee3c b553 173e 0d02 d73d
000003e0: a404 863b d38b 093d 5881 923d 3d53 103e
000003f0: d3a2 6c3d 7fb4 22bc 5eba e7bd 77aa 323e

bias f4 [32]
-0.01811096 -0.10370555 -0.09484944 -0.15135156 0.14417168 0.26647276 -0.062185567 0.26928708
-0.2208431 0.1892693 -0.1587362 -0.5460491 -0.10880379 -0.08565014 0.11561062 -0.19250815
-0.03307047 0.060868833 -0.21072447 0.10795387 -0.09532338 0.22492355 -0.07933136 0.17786361
-0.32707348 0.038610805 -0.0479711 -0.28711373 0.06376044 -0.09699955 0.12520842 0.1207433
00000000: 705d 94bc 9363 d4bd 6c40 c2bd e7fb 1abe
00000010: bea1 133e 1e6f 883e 4bb6 7ebd ffdf 893e
00000020: b224 62be d0cf 413e be8b 22be e0c9 0bbf
00000030: 85d4 debd 5769 afbd 43c5 ec3d db20 45be
00000040: e774 07bd 9951 793d 28c8 57be eb16 dd3d
00000050: e738 c3bd 5c52 663e 7b78 a2bd e121 363e
00000060: 2d76 a7be 5d26 1e3d 587d 44bd 9200 93be
00000070: d594 823d b3a7 c6bd a336 003e 4348 f73d

weight f4 [32, 1]
-0.6164987 0.44193518 -0.49634597 -0.40105182 0.4874118 0.23085983 0.64059085 0.3848725
-0.55138046 0.44199684 -0.61288506 0.27984706 0.4806643 -0.584179 0.41549748 -0.62264466
0.5690834 0.6507097 0.26092896 0.55314374 -0.54211897 -0.3925492 0.6086011 -0.48554432
0.6632692 -0.43610632 0.5619804 -0.62893784 0.603553 -0.5710789 -0.59226364 -0.5780625
00000000: dcd2 1dbf 5445 e23e 0f21 febe aa56 cdbe
00000010: 0a8e f93e 8566 6c3e c3fd 233f 020e c53e
00000020: 4527 0dbf 694d e23e 09e6 1cbf 1d48 8f3e
00000030: a219 f63e c18c 15bf 16bc d43e a465 1fbf
00000040: 73af 113f e994 263f 7b98 853e d49a 0d3f
00000050: 4fc8 0abf 35fc c8be 48cd 1b3f 4499 f8be
00000060: 03cc 293f 5449 dfbe f3dd 0f3f 1202 21bf
00000070: 7382 1a3f 3a32 12bf 979e 17bf e7fb 13bf
