checkpoints/bikeshare_honam2_emb32_2.pt (torch, 264998 bytes, 146 tensors)

weight f4 [32, 1]
-0.25070998 -0.44068006 -0.256772 0.3044217 -0.350121 0.27813074 0.19818072 0.34167352
0.23655997 0.5051456 -0.3424388 -0.3271972 -0.23765169 -0.3701565 -0.34096822 -0.24226755
-0.20813346 -0.2440431 -0.39088494 -0.4432045 -0.45157412 -0.41209915 0.2178506 0.2696391
0.18798509 -0.41341224 -0.19552515 -0.46537137 -0.3829317 0.4908129 -0.2706249 -0.46424598
00000000: 0f5d 80be d1a0 e1be 9f77 83be 29dd 9b3e
00000010: 0f43 b3be 2767 8e3e e3ef 4a3e d5ef ae3e
00000020: c73c 723e 3951 013f 2354 afbe 6486 a7be
00000030: f75a 73be 2785 bdbe 6393 aebe fc14 78be
00000040: f020 55be 6fe6 79be 1222 c8be b3eb e2be
00000050: b934 e7be a9fe d2be 3a14 5f3e 230e 8a3e
00000060: 2a7f 403e c5aa d3be bf37 48be 2845 eebe
00000070: a00f c4be d44b fb3e 598f 8abe a6b1 edbe

bias f4 [32]
0.24972156 0.45504194 0.13332282 -0.32895964 0.3245551 -0.29208803 -0.23094946 -0.37008792
-0.26267204 -0.5509321 0.31890503 0.30371633 0.23149304 0.35358247 0.3175855 0.13252942
0.17449446 0.13441117 0.3771042 0.4657748 0.5007324 0.40355718 -0.22412315 0.0004966603
-0.19470485 0.40477255 0.18273778 0.66608095 0.36086017 -0.50049686 0.26692823 0.6958132
00000000: 02b7 7f3e 42fb e83e c785 083e 666d a8be
00000010: 162c a63e 908c 95be 047e 6cbe 2a7c bdbe
00000020: f37c 86be e309 0dbf 8547 a33e b580 9b3e
00000030: 830c 6d3e c308 b53e 919a a23e cbb5 073e
00000040: adae 323e 15a3 093e cd13 c13e 097a ee3e
00000050: 0030 003f 0c9f ce3e 8a80 65be 4f32 023a
00000060: b560 47be 593e cf3e 9d1f 3b3e 4884 2a3f
00000070: aac2 b83e 9020 00bf d1aa 883e d020 323f

weight f4 [64, 32]
0.117445335 0.050764475 0.23399569 -0.04544099 0.067489065 -0.053322002 -0.09810182 -0.041318864
-0.06449423 -0.033308238 0.068983786 0.072606936 0.13624242 0.062196754 0.06941521 0.23666607
0.19098268 0.21433927 0.058589224 0.04997747 0.047975633 0.05539154 -0.08894936 -0.20444109
-0.10524212 0.05507156 0.18839905 0.041488167 0.06097457 -0.034969244 0.09315127 0.040698394
-0.091901496 -0.021149531 -0.23364452 0.02037512 -0.028256744 0.0007172834 0.07232466 0.016690282
0.029907087 0.016269099 -0.029032163 -0.037661973 -0.11166836 -0.025586978 -0.029237842 -0.22054227
-0.15782537 -0.21400593 -0.024094714 -0.021001974 -0.020335637 -0.022646382 0.060511466 0.11874823
0.052794334 -0.022550968 -0.14477427 -0.0184781 -0.025358226 0.016319716 -0.060458582 -0.0183319
-0.009280617 -0.010662285 0.020593584 0.027157636 -0.017808907 0.04062533 0.021102127 0.027865004
0.026333706 0.017611228 -0.018096978 -0.01748305 -0.00440704 -0.015994195 -0.018177923 0.02852345
0.0015727523 0.0028704088 -0.014653284 -0.010109809 -0.008850217 -0.013219089 0.02199477 -0.04379843
0.029560167 -0.01298351 0.004821538 -0.0038701 -0.015591337 0.021560956 -0.014047625 -0.0032360351
0.13685991 0.075657055 0.26017222 -0.06654536 0.086430274 -0.07272482 -0.12799548 -0.06077104
-0.08690195 -0.05875648 0.08739732 0.08850365 0.15700856 0.08295924 0.087652646 0.26887622
0.21387906 0.23170263 0.0806743 0.07546998 0.074286215 0.078445695 -0.11166075 -0.18176429
-0.13160582 0.07843381 0.21396606 0.071108736 0.08213832 -0.058107864 0.111226 0.070810065
0.06742606 -0.018376248 0.15030959 0.0085975425 0.0004680622 0.003659523 -0.020546038 0.015051229
-0.011268196 0.030431485 0.0024183416 0.0101854205 0.075680576 -0.0062738014 0.0028947107 0.1521728
0.11856159 0.1322639 -0.01043767 -0.019043913 -0.020839714 -0.014101486 -0.02235423 -0.23210783
-0.038797937 -0.014200789 0.112904765 -0.027010849 -0.008064592 0.028279351 0.036998406 -0.027739812
-0.102626346 -0.020275045 -0.271727 0.023102498 -0.031423375 0.0006179085 0.07358836 0.019090554
0.035380907 0.014132692 -0.032405455 -0.043471795 -0.123369426 -0.02725072 -0.03270056 -0.24885644
-0.18029375 -0.24334945 -0.025114553 -0.019832665 -0.01859516 -0.022689156 0.0636291 0.1409314
0.055560347 -0.022656327 -0.16171849 -0.014889684 -0.026729649 0.015257569 -0.07002674 -0.0143289445
-0.027287347 -0.012639209 -0.024968425 0.02588263 -0.022107664 0.022955101 0.008174109 0.024662945
0.022739228 0.015720204 -0.022752155 -0.02664967 -0.026651436 -0.018885897 -0.022869157 -0.02009167
-0.0290868 -0.032621227 -0.017050603 -0.012231359 -0.010963677 -0.015066243 0.021615617 -0.0032376563
0.02044661 -0.015173896 -0.025484184 -0.006548677 -0.018602626 0.01885713 -0.026906101 -0.0057892166
-0.13012168 -0.057058267 -0.18521835 0.044894658 -0.050818052 0.0133769065 0.1464851 0.03774923
0.07007627 0.050993294 -0.0506442 -0.0501615 -0.15254995 -0.05077313 -0.0505199 -0.18588983
-0.17899665 -0.18413162 -0.05083418 -0.057541903 -0.05889104 -0.05298298 0.10209866 0.08692205
0.07565453 -0.053139254 -0.17606895 -0.06309466 -0.0512751 0.042963058 -0.088577166 -0.063763686
00000000: 2e87 f03d 69ee 4f3d 919c 6f3e 5520 3abd
00000010: b537 8a3d 2c68 5abd 9be9 c8bd f83d 29bd
00000020: 8d15 84bd 386e 08bd 5f47 8d3d f2b2 943d
00000030: 2283 0b3e 06c2 7e3d 9029 8e3d 9758 723e
00000040: f790 433e c17b 5b3e 41fb 6f3d 2db5 4c3d
00000050: 1982 443d 3de2 623d 152b b6bd 0159 51be
00000060: 2e89 d7bd b792 613d aeeb 403e 7fef 293d
00000070: 79c0 793d e93b 0fbd 18c6 be3d 5cb3 263d
00000080: da36 bcbd c841 adbc 8240 6fbe b9e9 a63c
00000090: b07a e7bc 1308 3c3a f41e 943d 0fba 883c
000000a0: b5ff f43c c646 853c dcd4 edbc 7143 1abd
000000b0: 62b2 e4bd c89b d1bc 3384 efbc d5d5 61be
000000c0: f99c 21be 5f24 5bbe 4762 c5bc 550c acbc
000000d0: ec96 a6bc e884 b9bc dfda 773d 4632 f33d
000000e0: df3e 583d cfbc b8bc b53f 14be 625f 97bc
000000f0: 0ebc cfbc edb0 853c 6ba3 77bd c82c 96bc
00000100: bb0d 18bc ddb0 2ebc e0b3 a83c b179 de3c
00000110: fce3 91bc bf66 263d 5ede ac3c 2645 e43c
00000120: c9b9 d73c 6c45 903c 1d40 94bc 9d38 8fbc
00000130: ee68 90bb 4206 83bc dee9 94bc 03aa e93c
00000140: cf24 ce3a 781d 3c3b 5414 70bc 9da3 25bc
00000150: 8000 11bc e194 58bc 602e b43c fc65 33bd
00000160: 2a28 f23c cab8 54bc fefd 9d3b 81a1 7dbb
00000170: cf72 7fbc 9aa0 b03c 0228 66bc a913 54bb
00000180: 0125 0c3e 16f2 9a3d 4b35 853e ef48 88bd
00000190: 5b02 b13d c0f0 94bd 3f11 03be 0eeb 78bd
000001a0: a6f9 b1bd a3aa 70bd 5efd b23d 6741 b53d
000001b0: dac6 203e 89e6 a93d 3b83 b33d 25aa 893e
000001c0: 1d03 5b3e 7443 6d3e 9138 a53d 0190 9a3d
000001d0: 5f23 983d 23a8 a03d 64ae e4bd 6b20 3abe
000001e0: adc3 06be e8a1 a03d eb19 5b3e 75a1 913d
000001f0: 2338 a83d 8302 6ebd 75ca e33d de04 913d
00000200: ad16 8a3d c989 96bc c2ea 193e b5dc 0c3c
00000210: 3f66 f539 9cd4 6f3b 2a50 a8bc 6e99 763c
00000220: 3d9e 38bc 734b f93c 0a7d 1e3b c0e0 263c
00000230: 6bfe 9a3d 7694 cdbb 30b5 3d3b 30d3 1b3e
00000240: 6bd0 f23d 3070 073e c302 2bbc fb01 9cbc
00000250: 0cb8 aabc eb09 67bc 3820 b7bc adad 6dbe
00000260: 96ea 1ebd 6daa 68bc 9d3a e73d db45 ddbc
00000270: 5a21 04bc 19aa e73c a48b 173d 9a3e e3bc
00000280: c32d d2bd da17 a6bc cd1f 8bbe 7341 bd3c
00000290: ccb5 00bd 23fb 213a 7eb5 963d cb63 9c3c
000002a0: 92eb 103d ce8c 673c 95bb 04bd 7b0f 32bd
000002b0: 1ca9 fcbd e73c dfbc 06f1 05bd 39d4 7ebe
000002c0: ed9e 38be 9930 79be 09bd cdbc 1d78 a2bc
000002d0: e154 98bc 9cde b9bc f94f 823d 5250 103e
000002e0: 3f93 633d c399 b9bc 8899 25be dcf3 73bc
000002f0: 23f8 dabc e2fa 793c 2e6a 8fbd f3c3 6abc
00000300: b789 dfbc af14 4fbc 958a ccbc cf07 d43c
00000310: 221b b5bc 560c bc3c b3ec 053c f209 ca3c
00000320: 9e47 ba3c a8c7 803c ba62 babc 6950 dabc
00000330: 1d54 dabc 99b6 9abc 1958 bbbc 4997 a4bc
00000340: 7147 eebc d69d 05bd b5ad 8bbc 0a66 48bc
00000350: ffa0 33bc 67d8 76bc 3c13 b13c dc2e 54bb
00000360: a67f a73c ef9b 78bc 35c4 d0bc 4996 d6bb
00000370: 8964 98bc 457a 9a3c 2f6a dcbc 78b3 bdbb
00000380: 9e3e 05be eeb5 69bd e1a9 3dbe 76e3 373d
00000390: 9726 50bd d02a 5b3c 3100 163e f09e 1a3d
000003a0: 2684 8f3d 58de 503d 4b70 4fbd 2576 4dbd
000003b0: 0e36 1cbe 7cf7 4fbd f4ed 4ebd e759 3ebe
000003c0: e64a 37be 008d 3cbe 8037 50bd 0fb1 6bbd
000003d0: bb37 71bd ae04 59bd 1a19 d13d 3004 b23d
000003e0: c3f0 9a3d 8ca8 59bd 6b4b 34be c637 81bd
000003f0: d705 52bd 08fa 2f3d f267 b5bd 8996 82bd

bias f4 [64]
-0.14267416 0.14043128 -0.10650381 -0.08670063 -0.12734486 0.15301375 -0.024239084 0.015369315
0.11319749 -0.21915357 -0.14002335 -0.067243434 0.008139309 0.16698119 0.025194058 -0.10504092
-0.029052151 0.15236731 -0.056896083 0.17344876 -0.15753075 0.16380644 0.07295203 -0.0032640002
-0.15126438 -0.009447295 -0.14453992 0.15169148 -0.009404245 0.16112858 0.022766361 0.18019682
0.16771068 0.14132099 0.01649579 -0.0128137665 0.13922659 0.13476305 0.017957207 0.13237731
-0.048853733 0.16496663 -0.21262644 0.15301725 0.0903645 -0.08324761 0.1525454 -0.054006353
-0.023397937 -0.01647472 -0.065483965 -0.096143275 0.0044513373 -0.008422679 0.16599582 0.046224594
-0.023733448 -0.023213355 0.1574424 0.12200686 0.17292255 -0.10865819 0.17728998 -0.037537914
00000000: 2d19 12be 38cd 0f3e ab1e dabd 1a90 b1bd
00000010: b166 02be a3af 1c3e 0b91 c6bc 94cf 7b3c
00000020: 16d4 e73d cb69 60be 4862 0fbe edb6 89bd
00000030: bc5a 053c 1efd 2a3e c563 ce3c b21f d7bd
00000040: c7fe edbc 2d06 1c3e de0b 69bd 8d9c 313e
00000050: be4f 21be e0bc 273e e067 953d d6e8 55bb
00000060: 0de5 1abe d4c8 1abc 4602 14be 0355 1b3e
00000070: 4314 1abc e4fe 243e 8580 ba3c 8485 383e
00000080: 59bc 2b3e 73b6 103e 2e22 873c d5f0 51bc
00000090: 6a91 0e3e 53ff 093e fe1a 933c eb8d 073e
000000a0: da1a 48bd 03ed 283e bfba 59be 8eb0 1c3e
000000b0: 0611 b93d b97d aabd dd34 1c3e c435 5dbd
000000c0: 08ad bfbc fef5 86bc 751c 86bd c4e6 c4bd
000000d0: 86dc 913b 47ff 09bc cffa 293e 0056 3d3d
000000e0: a66c c2bc ef29 bebc 9538 213e bcde f93d
000000f0: 9c12 313e 2f88 debd 818b 353e 5bc1 19bd

weight f4 [32, 64]
0.034888018 -0.19744776 0.10428075 0.015161033 0.037444454 -0.1474684 0.019439733 -0.09062379
-0.08669124 0.029105896 0.032369494 0.09149883 0.01984345 -0.17356241 0.018198896 0.035282407
-0.010070932 -0.078984074 -0.01748298 -0.16955121 0.05158515 -0.1565985 -0.122070394 0.018175093
0.017396841 0.054738317 0.03634453 -0.092165686 0.007923214 -0.10531373 0.020344691 -0.047751777
-0.19441047 -0.149406 -0.1255093 -0.012327732 -0.14787395 -0.09141598 0.009277609 -0.101264685
0.009350988 -0.15690339 0.027311746 -0.11519923 -0.06695962 0.09049773 -0.123663105 -0.023548612
0.044473387 0.018236684 -0.018829215 0.055715848 0.017197927 0.017961359 0.0054467022 -0.08553564
-0.010501071 0.0011371298 -0.065427765 -0.12174021 -0.1828567 0.055492613 -0.0728519 0.031830054
-0.74645764 0.051613104 0.060236458 -0.6967675 -0.14588155 0.06352087 0.20467344 0.15381876
0.02076037 -0.84199405 -0.73690736 0.11679091 0.3304713 0.06431628 0.21160683 0.028054234
0.1426197 -0.040650353 0.024173398 0.066769585 -0.77378964 0.062194504 0.052955933 0.04858536
-0.17357162 0.35726896 -0.73983353 -0.030373428 0.24310331 -0.06264718 0.19923405 -0.012496833
0.05757243 0.005815416 0.1164482 0.3620142 0.058353942 -0.0385166 0.23473088 -0.06335496
0.030105034 0.062229224 -0.83553606 0.06473703 0.04734257 0.102312766 -0.043791585 -0.0028969028
0.090444736 0.12519291 -0.10816429 0.04473588 0.43364587 0.24353068 0.0100133745 0.020513747
0.062206905 0.25338155 -0.01049249 -0.06434582 0.06589292 -0.110173956 -0.038376126 0.14149725
-0.14015992 -0.020831259 0.068414085 -0.17749102 -0.12742867 -0.015583839 0.015733648 -0.002358612
-0.010249547 -0.21665913 -0.13838698 0.012862687 0.025438134 0.02171286 0.011082646 -0.003332651
0.0029576726 -0.017385311 -0.016032374 0.020961398 -0.15049319 0.002230353 -0.022472117 -0.018455083
-0.16517147 0.071421176 -0.14274713 -0.024656288 0.024678895 -0.015837634 0.020311352 0.0059199166
0.022639958 -0.012128662 0.009565447 0.056156456 -0.019461073 -0.025054958 0.009071149 -0.008124531
0.007403395 0.008527864 -0.21736482 -0.003504327 0.01970779 0.03330677 -0.008780607 -0.0021245852
0.030130418 0.015316028 -0.07448504 0.005778687 0.05983281 0.05216614 -0.023210179 0.0012566295
-0.019604322 0.017757853 -0.0075695976 -0.010090345 0.019432638 -0.12853383 -0.01992763 0.008722608
-0.059117224 -0.58987886 0.2691349 -0.046047505 -0.23790164 -0.59334177 -0.010375452 -0.82088387
-1.9314439 0.046556577 -0.05284505 0.14701745 -0.13979253 -0.51071346 -0.13237663 0.2239068
0.11137876 -2.0286086 -0.0047470904 -0.5072469 -0.036519036 -0.5508874 -0.74233335 0.097153924
-0.20466526 -0.18925545 -0.062074367 -1.8745071 -0.16431555 -2.0168033 -0.051938605 -2.1084578
-0.50584036 -1.773806 -0.4300858 -0.13682926 -0.6021043 -1.8052592 -0.136039 -2.1230254
0.052220613 -0.5465454 0.036142964 -0.59088737 -1.8657405 0.19518307 -1.8800366 -0.03131158
0.14122027 0.10868971 -0.2122595 0.20495707 -0.20970502 -0.0482275 -1.650014 -0.995206
0.1372595 -0.025128061 -1.998668 -2.0756762 -0.5147284 -0.2228462 -2.0119886 0.061635636
00000000: bde6 0e3d bf2f 4abe 2591 d53d fb65 783c
00000010: 5b5f 193d f501 17be 1340 9f3c f798 b9bd
00000020: 2d8b b1bd 7d6f ee3c e095 043d bd63 bb3d
00000030: bb8e a23c 58ba 31be da15 953c 4984 103d
00000040: 8d00 25bc 67c2 a1bd 7738 8fbc d59e 2dbe
00000050: f34a 533d 5b5b 20be 0b00 fabd efe3 943c
00000060: d283 8e3c 4935 603d 00de 143d 5dc1 bcbd
00000070: 5ed0 013c baae d7bd e9a9 a63c 5e97 43bd
00000080: 8a13 47be e3fd 18be 8385 00be 41fa 49bc
00000090: 456c 17be 4d38 bbbd 1d01 183c dc63 cfbd
000000a0: e334 193c 48ab 20be e2bc df3c 93ed ebbd
000000b0: 2022 89bd e056 b93d 1543 fdbd 05e9 c0bc
000000c0: ba29 363d 1965 953c ba3f 9abc 4d36 643d
000000d0: abe2 8c3c b323 933c 407a b23b 4f2d afbd
000000e0: af0c 2cbc bf0b 953a fefe 85bd ee52 f9bd
000000f0: c93e 3bbe 394c 633d 6033 95bd 3b60 023d
00000100: d917 3fbf 4368 533d 81ba 763d 5b5f 32bf
00000110: f961 15be 3b17 823d ea95 513e aa82 1d3e
00000120: a711 aa3c ec8c 57bf f6a5 3cbf 1330 ef3d
00000130: 8933 a93e 41b8 833d 76af 583e fed1 e53c
00000140: e60a 123e fc80 26bd 4a07 c63c 7ebe 883d
00000150: 1417 46bf aabf 7e3d 52e8 583d 7101 473d
00000160: c2bc 31be f5eb b63e bb65 3dbf b2d1 f8bc
00000170: 13f0 783e 2a4d 80bd 0304 4c3e 84bf 4cbc
00000180: 12d1 6b3d 3f8f be3b 657c ee3d ed59 b93e
00000190: 8b04 6f3d 95c3 1dbd 4b5d 703e 3fc0 81bd
000001a0: d59e f63c 12e4 7e3d b1e5 55bf d994 843d
000001b0: 48ea 413d 5b89 d13d ce5e 33bd f7d9 3dbb
000001c0: 173b b93d 9232 003e 3d85 ddbd f83c 373d
000001d0: d506 de3e 1b60 793e 230f 243c 720c a83c
000001e0: abcc 7e3d 3abb 813e b1e8 2bbc bec7 83bd
000001f0: def2 863d e2a2 e1bd 4930 1dbd a8e4 103e
00000200: 1586 0fbe 51a6 aabc af1c 8c3d 35c0 35be
00000210: a97c 02be 5c53 7fbc dae3 803c f192 1abb
00000220: b7ed 27bc e4db 5dbe 51b5 0dbe 05be 523c
00000230: a263 d03c 2bdf b13c fd93 353c 9b68 5abb
00000240: 83d5 413b a46b 8ebc 5356 83bc 3db7 ab3c
00000250: e31a 1abe 1d2b 123b 7217 b8bc 1d2f 97bc
00000260: b622 29be 4445 923d 4e2c 12be fcfb c9bc
00000270: 652b ca3c edbd 81bc fe63 a63c dcfb c13b
00000280: 6f77 b93c 4cb7 46bc 65b8 1c3c 5004 663d
00000290: d46c 9fbc 0e40 cdbc 289f 143c c11c 05bc
000002a0: 2e98 f23b 74b8 0b3c e294 5ebe daa8 65bb
000002b0: 3b72 a13c ae6c 083d 89dc 0fbc a03c 0bbb
000002c0: 11d4 f63c 14f0 7a3c 9d8b 98bd 245b bd3b
000002d0: 4013 753d 2aac 553d 4623 bebc 7db5 a43a
000002e0: 3e99 a0bc eb78 913c 630a f8bb f951 25bc
000002f0: 3231 9f3c 5f9e 03be 453f a3bc 45e9 0e3c
00000300: e724 72bd 4d02 17bf 0dcc 893e 4f9c 3cbd
00000310: 7d9c 73be 3fe5 17bf cdfd 29bc 7225 52bf
00000320: 8e39 f7bf 1cb2 3e3d 0d74 58bd be8b 163e
00000330: c625 0fbe 1ebe 02bf bd8d 07be d347 653e
00000340: 8c1a e43d b9d4 01c0 7b8d 9bbb efda 01bf
00000350: fc94 15bd f506 0dbf 8f09 3ebf a3f8 c63d
00000360: c593 51be 2ecc 41be b141 7ebd d9ef efbf
00000370: 5642 28be 4e13 01c0 93bd 54bd f9f0 06c0
00000380: c17e 01bf 130c e3bf 3534 dcbe f81c 0cbe
00000390: 8223 1abf bc12 e7bf cf4d 0bbe a6df 07c0
000003a0: 48e5 553d 66ea 0bbf a50a 143d 6544 17bf
000003b0: 96d0 eebf 12de 473e 0aa5 f0bf 9240 00bd
000003c0: 0c9c 103e b698 de3d 8e5a 59be 44e0 513e
000003d0: eabc 56be 338a 45bd a933 d3bf d2c5 7ebf
000003e0: c18d 0c3e 5dd9 cdbc 5ad4 ffbf e1d7 04c0
000003f0: 3ec5 03bf cb31 64be 6cc4 00c0 a675 7c3d

bias f4 [32]
-0.19628304 -0.15555735 -0.13702185 -0.21370786 -0.12310555 -0.17663659 0.1039545 -0.016232485
0.057725012 -0.020056725 -0.16450854 0.01662701 0.09466282 -0.16843556 -0.12307597 0.09490128
-0.22904968 0.08849561 0.014811886 -0.0024384966 -0.0798339 -0.087238975 0.011259879 -0.24691427
-0.13545786 -0.17152478 0.072603546 -0.039303944 -0.091463715 -0.13657716 -0.054239467 -0.073584095
00000000: 6cfe 48be 6d4a 1fbe 754f 0cbe 3cd6 5abe
00000010: c31e fcbd 39e0 34be 19e6 d43d fdf9 84bc
00000020: 1071 6c3d 004e a4bc ed74 28be 5e35 883c
00000030: 95de c13d 5f7a 2cbe 410f fcbd 9a5b c23d
00000040: 008c 6abe 303d b53d 8dad 723c 2fcf 1fbb
00000050: f57f a3bd 59aa b2bd 5b7b 383c 18d7 7cbe
00000060: 77b5 0abe 31a4 2fbe 2bb1 943d 2cfd 20bd
00000070: 5451 bbbd e2da 0bbe 342a 5ebd 42b3 96bd

weight f4 [32, 1]
0.38707945 -0.20571163 0.36941606 -0.41589633 0.3871874 0.24504957 -0.41303265 0.42373222
-0.37039512 -0.25596347 -0.43120724 -0.2594965 -0.18974291 -0.4230408 0.21089603 0.21909419
0.22956717 0.35158908 -0.23395431 -0.40147772 0.33841816 -0.20692591 -0.28193423 -0.24956438
0.39370814 0.2704946 -0.32204977 0.29459247 0.3911318 -0.28625515 0.25997588 -0.4010622
00000000: 472f c63e 12a6 52be 1a24 bd3e 5df0 d4be
00000010: 6d3d c63e 46ee 7a3e 0479 d3be 6ef3 d83e
00000020: 6ea4 bdbe a50d 83be 32c7 dcbe badc 84be
00000030: f74b 42be ce98 d8be 21f5 573e 3a5a 603e
00000040: a813 6b3e 7c03 b43e b891 6fbe 7d8e cdbe
00000050: 2545 ad3e 63e4 53be af59 90be ce8d 7fbe
00000060: 1d94 c93e 457e 8a3e b5e3 a4be d3d4 963e
00000070: 6d42 c83e 0990 92be 8f1b 853e 0658 cdbe

bias f4 [32]
-0.38897118 0.18287598 -0.40216047 0.40313786 -0.38791198 -0.26325706 0.39649388 -0.45345008
0.5815024 0.2479591 0.4409056 0.24970523 0.13231573 0.4683849 -0.23779355 0.031844072
-0.25809196 -0.4163666 0.17733704 0.38172638 -0.36782882 0.17085938 0.27332246 0.22943108
-0.5216132 -0.32674664 0.30770776 -0.32847735 -0.39954773 0.27685153 -0.325829 0.38461208
00000000: 3b27 c7be d743 3b3e fae7 cdbe 1668 ce3e
00000010: 669c c6be a1c9 86be 3f01 cb3e 9c2a e8be
00000020: 57dd 143f fee8 7d3e 61be e13e bab2 7f3e
00000030: c67d 073e 25d0 ef3e 2780 73be ee6e 023d
00000040: a124 84be 012e d5be d797 353e a471 c33e
00000050: 0f54 bcbe c3f5 2e3e ecf0 8b3e fbef 6a3e
00000060: 7188 05bf 564b a7be df8b 9d3e 2f2e a8be
00000070: 8591 ccbe 7cbf 8d3e 0fd3 a6be e0eb c43e

weight f4 [64, 32]
0.023210963 0.04477947 0.019818498 -0.029952735 0.017614858 -0.005812898 -0.028448183 0.035534658
-0.037192877 0.022106381 -0.033712555 0.01967481 0.102247454 -0.034888517 -0.019399228 0.030904917
0.0067298766 0.014195175 0.044227343 -0.01721681 0.015466767 0.05442893 0.005647492 0.028742203
0.03698411 0.004553766 -0.0058034523 0.006760253 0.027889658 0.0037243704 0.003993661 -0.020880515
0.0033048573 -0.25624296 0.008105096 -0.0038004948 0.0036262663 -0.0012517642 -0.0035733979 0.0044112266
-0.0016880311 -0.015353639 -0.0049329144 -0.01460689 -0.3115779 -0.004711707 -0.01766798 0.18386996
0.035658088 0.003932606 -0.26502275 -0.0030070266 0.006101757 -0.27726987 -0.0069143074 -0.13650323
0.0028378898 -0.017315052 -0.0037123943 -0.0034717196 0.0022658992 -0.0064827115 0.00842125 -0.0033307131
0.02210063 0.010379875 0.02039711 -0.018305993 0.02178498 0.0144509915 -0.01882605 0.017086774
-0.011550673 -0.009099484 -0.015547435 -0.009409184 0.048470654 -0.014164741 0.0068181395 -0.16181883
0.008284135 0.01081689 0.011605339 -0.020332096 0.02509054 0.015013998 -0.012269107 -0.0008645163
0.014931409 0.020140946 -0.016508527 0.02054482 0.02172912 -0.012852489 0.02050937 -0.020160625
-0.009777925 0.07858397 -0.010787114 0.012188588 -0.01072827 -0.022537665 0.012678779 -0.008724028
0.009433313 0.03364469 0.011328334 0.032789286 0.12732482 0.011125581 -0.021197174 -0.10909262
-0.015575306 -0.009450722 0.07680098 0.014163569 -0.012947062 0.092950225 0.026255472 0.042265892
-0.007937635 -0.0094861835 0.020688739 -0.014637021 -0.009553353 0.025503581 -0.021842754 0.013726326
-0.00025277844 0.05289896 0.026822489 -0.024716707 0.0043790154 0.029067658 -0.0204635 0.041477777
-0.049488235 0.04327489 -0.037229627 0.04309583 0.061141856 -0.042678565 -0.0069879913 0.062044483
0.028797831 0.0045299064 0.05356219 0.024633616 0.007124163 0.05503665 0.020172331 0.041683085
0.0477009 -0.016124735 0.020005831 0.0057046204 0.03162615 0.017809816 -0.012298019 0.00904449
0.00930669 0.06764514 0.008902438 -0.0074713132 0.009050181 -0.006572235 -0.0070221038 0.011934816
-0.010911441 0.015179657 -0.008841338 0.014394257 0.11173916 -0.00926361 -0.011204804 -0.11947893
-0.0030573502 0.009320689 0.06503978 -0.0057047047 0.0066812467 0.0847159 0.007342109 0.024585526
0.012711882 0.006449373 0.0011943983 0.0037149547 0.009834216 0.0065312595 -0.003442458 -0.0059605357
-0.010110678 -0.31147966 0.015421469 0.01192225 -0.008077664 0.037341833 0.010831468 -0.021222942
0.032210648 -0.075783126 0.019230992 -0.07122182 -0.33407956 0.023233168 0.042876113 0.29154173
0.08073234 0.010321864 -0.31432799 0.0023345558 -0.017364997 -0.3171307 -0.036070727 -0.191905
-0.027436271 -0.020352988 -0.015413381 -0.0074269385 -0.007902186 -0.03256624 -0.013113088 0.0055679847
-0.013345896 0.08563809 -0.014233224 0.016329933 -0.014346633 -0.027940115 0.01662871 -0.012221815
0.013242334 0.039636735 0.01531116 0.03884638 0.13033192 0.015023344 -0.029483367 -0.12341413
-0.021468747 -0.013411731 0.084050074 0.01837321 -0.016623931 0.097012915 0.03196873 0.04813966
-0.011566976 -0.0148485005 0.02559747 -0.018949296 -0.0133442925 0.030975435 -0.026052307 0.01783781
00000000: eb24 be3c ad6a 373d 675a a23c 705f f5bc
00000010: 094d 903c 1f7a bebb 2a0c e9bc ca8c 113d
00000020: 8f57 18bd 7118 b53c 2d16 0abd 112d a13c
00000030: 1d67 d13d 43e7 0ebd 21eb 9ebc 4f2c fd3c
00000040: 4c86 dc3b e192 683c bb27 353d 440a 8dbc
00000050: 5368 7d3c dff0 5e3d 990e b93b c574 eb3c
00000060: a67c 173d c237 953b e32a bebb 1d85 dd3b
00000070: da78 e43c 9114 743b 42dd 823b 9d0d abbc
00000080: 4e96 583b 4732 83be 3dcb 043c b911 79bb
00000090: a7a6 6d3b 3d12 a4ba ab2f 6abb 0d8c 903b
000000a0: ed40 ddba d48d 7bbc 49a4 a1bb bd51 6fbc
000000b0: 2387 9fbe aa64 9abb 71bc 90bc 6848 3c3e
000000c0: 370e 123d 17dd 803b 10b1 87be 8911 45bb
000000d0: 3ff1 c73b 51f6 8dbe 6a91 e2bb 81c7 0bbe
000000e0: e4fb 393b 4cd8 8dbc a44b 73bb ca85 63bb
000000f0: 7b7f 143b ed6c d4bb 48f9 093c 1848 5abb
00000100: 610c b53c 5a10 2a3c d717 a73c 73f6 95bc
00000110: 6a76 b23c dac3 6c3c 1739 9abc 90f9 8b3c
00000120: 093f 3dbc 0116 15bc abba 7ebc fa28 1abc
00000130: 2a89 463d 3b13 68bc b36a df3b d6b3 25be
00000140: 2eba 073c 5339 313c 5224 3e3c 7f8f a6bc
00000150: ad8a cd3c 46fd 753c 5d04 49bc b5a0 62ba
00000160: dea2 743c a0fe a43c e43c 87bc 9c4d a83c
00000170: 4401 b23c 3f93 52bc 4403 a83c e527 a5bc
00000180: 9733 20bc a2f0 a03d 6fbc 30bc a5b2 473c
00000190: a0c5 2fbc e9a0 b8bc a7ba 4f3c 3aef 0ebc
000001a0: 2f8e 1a3c 04cf 093d 7a9a 393c 0f4e 063d
000001b0: 7061 023e 1248 363c b2a5 adbc f46b dfbd
000001c0: 912f 7fbc 33d7 1abc d549 9d3d 500e 683c
000001d0: ea1f 54bc b05c be3d b715 d73c 001f 2d3d
000001e0: db0c 02bc f06b 1bbc 6e7b a93c 1ed0 6fbc
000001f0: ab85 1cbc e3ec d03c 93ef b2bc 62e4 603c
00000200: 5987 84b9 94ac 583d d6ba db3c b17a cabc
00000210: d87d 8f3b 4c1f ee3c 12a3 a7bc 9ae4 293d
00000220: 2db4 4abd 0341 313d 187e 18bd 4185 303d
00000230: e26f 7a3d b8cf 2ebd 85fb e4bb 5b22 7e3d
00000240: 6ee9 eb3c 9c6f 943b 0764 5b3d 70cc c93c
00000250: d071 e93b 1c6e 613d 7240 a53c e2bb 2a3d
00000260: 0562 433d 0518 84bc 45e3 a33c d3ed ba3b
00000270: 6c8a 013d e4e5 913c a17d 49bc 572f 143c
00000280: 167b 183c 8989 8a3d 88db 113c ebd1 f4bb
00000290: 3647 143c e75b d7bb ad19 e6bb 3f8a 433c
000002a0: e7c5 32bc 19b4 783c 42db 10bc e4d5 6b3c
000002b0: 80d7 e43d 65c6 17bc 5b94 37bc 5fb1 f4bd
000002c0: d35d 48bb ceb5 183c 9433 853d 88ee babb
000002d0: 5cee da3b 887f ad3d 1396 f03b 9667 c93c
000002e0: 7f45 503c 4355 d33b 5b8d 9c3a 9976 733b
000002f0: b11f 213c 2d04 d63b dd9a 61bb 9950 c3bb
00000300: 42a7 25bc 437a 9fbe 54aa 7c3c 8a55 433c
00000310: 2e58 04bc c0f3 183d 7876 313c bcdb adbc
00000320: 50ef 033d 2f34 9bbd 508a 9d3c bfdc 91bd
00000330: 7a0c abbe 7c53 be3c dd9e 2f3d f544 953e
00000340: ff56 a53d 091d 293c 99ef a0be 59ff 183b
00000350: 0a41 8ebc f55e a2be e6be 13bd bf82 44be
00000360: 08c2 e0bc 4fbb a6bc 6888 7cbc ad5d f3bb
00000370: 2c78 01bc 2d64 05bd 47d8 56bc a473 b63b
00000380: bfa8 5abc 0663 af3d 7832 69bc 5ac6 853c
00000390: 240e 6bbc abe2 e4bc ef38 883c 023e 48bc
000003a0: 60f6 583c 215a 223d a9db 7a3c 621d 1f3d
000003b0: bb75 053e 7924 763c 1a87 f1bc 8cc0 fcbd
000003c0: 3adf afbc e1bc 5bbc 7222 ac3d 6a83 963c
000003d0: e92e 88bc b5ae c63d a5f1 023d 182e 453d
000003e0: 6a83 3dbc 2047 73bc c9b1 d13c 8e3b 9bbc
000003f0: 05a2 5abc 32c0 fd3c a66b d5bc 9920 923c

bias f4 [64]
-0.0044471584 0.18223982 -0.046521198 -0.16009228 -0.031051623 -0.15097772 0.16063255 -0.17638503
-0.04258085 -0.10181688 -0.08717065 -0.15752718 0.13790584 0.012273514 0.18713841 0.09689812
-0.0013808573 0.17036596 -0.15210089 -0.13841173 -0.024520516 -0.16095373 -0.02278694 -0.076019585
-0.026975261 0.18286076 -0.04707555 -0.0064390055 -0.09213485 0.09374145 -0.1159199 0.00070518465
-0.08579795 -0.1681846 -0.16410889 0.15869649 0.016611148 -0.16778307 -0.044335783 0.113737755
-0.08161289 -0.1780984 -0.061639123 0.17593986 -0.04529814 -0.12275345 -0.121547915 -0.062597014
0.1884394 -0.12830444 -0.021001317 -0.075028144 0.1588673 0.1738208 -0.011164661 0.14868571
0.16731745 0.10266197 -0.16716136 0.14747965 0.18535648 -0.16583075 -0.022088727 -0.022808025
00000000: 78b9 91bb 139d 3a3e 038d 3ebd 3bef 23be
00000010: f95f febc e799 1abe dc7c 243e 479e 34be
00000020: 4269 2ebd 5e85 d0bd 8786 b2bd ce4e 21be
00000030: 3037 0d3e d916 493c 36a1 3f3e 8672 c63d
00000040: e2fd b4ba 6a74 2e3e 56c0 1bbe cebb 0dbe
00000050: 40df c8bc 0ed1 24be adab babc 28b0 9bbd
00000060: 39fb dcbc da3f 3b3e 4bd2 40bd 4bfe d2bb
00000070: 32b1 bcbd 84fb bf3d 6a67 edbd 24dc 383a
00000080: d6b6 afbd 9538 2cbe 290c 28be 5581 223e
00000090: 1a14 883c 53cf 2bbe 7099 35bd 57ef e83d
000000a0: a924 a7bd 6d5f 36be 4e79 7cbd 9429 343e
000000b0: 8b8a 39bd 2966 fbbd 1dee f8bd dd32 80bd
000000c0: 42f6 403e 3d62 03be f40a acbc 5ba8 99bd
000000d0: 1cae 223e 14fe 313e fbeb 36bc 1141 183e
000000e0: 4455 2b3e 7040 d23d 592c 2bbe e804 173e
000000f0: 17ce 3d3e 89cf 29be 6bf3 b4bc e5d7 babc

weight f4 [32, 64]
0.010300955 -0.04838639 0.032593448 0.15277515 0.029596826 0.20160256 -0.047093734 0.09699368
0.0046104896 0.015733784 0.028484203 0.1920921 0.002780282 0.0032280106 -0.043421075 0.01777733
-0.0059684184 -0.048989516 -0.014289562 0.19821371 0.010220067 0.1523331 0.018416906 0.15975215
0.04629992 0.017385049 0.1427899 -6.0108086e-05 0.022431098 0.006779773 -0.012882695 0.0660168
0.060980797 0.12810077 0.12288811 -0.051416643 -0.039644253 0.0951835 0.017762953 0.006236295
0.071154706 0.098500386 -0.017232006 -0.05054941 0.04401117 0.19471121 0.1945561 0.056609806
-0.052411307 0.14686127 0.008888034 0.16445002 0.032634415 -0.04079851 -0.02252944 0.052986026
-0.046367466 0.01410097 0.14243984 -0.03613367 -0.04519084 0.109596744 0.020986559 0.016796835
0.0032803759 -0.027964026 -0.0010111372 -0.035948742 0.042694848 -0.07566644 -0.08508711 -0.045827895
0.090479575 0.026801521 0.029539123 -0.07579209 -0.057948984 0.021524059 -0.032789484 -0.059537295
0.017973617 -0.030147646 0.052972686 -0.055948984 0.04154702 -0.041107286 0.020646008 -0.011694447
0.036351882 -0.08917906 -0.009447309 0.05360366 -0.07114404 -0.06757103 0.050620247 0.016712045
-0.07019393 -0.05142967 -0.04954925 -0.029943995 -0.0048940815 -0.074874215 0.04753799 -0.061968423
-0.04130909 -0.046325278 0.023474524 -0.026652735 -0.22225066 -0.07363804 -0.055233598 -0.17628464
-0.084753975 -0.08276051 0.025425537 -0.016143013 -0.090424515 -0.026612485 0.019312743 -0.0898046
-0.029883957 -0.05792918 -0.044132307 -0.025662791 -0.032697093 -0.06837931 0.03804029 0.030630527
0.0052015246 0.002637625 0.010586835 -0.024743171 -5.9667094e-05 -0.0516185 -0.032738075 -0.011905871
0.018044509 -0.023717929 0.022476662 -0.046084177 -0.030496785 0.025713155 -0.0023525658 -0.033592805
5.8846454e-05 -0.0011013609 -0.022957385 -0.03931263 0.018497461 -0.02737988 0.009803904 0.008510268
0.0075879064 -0.039655693 0.024606727 0.008172572 -0.023987165 -0.037480943 -0.0035539577 0.0028993736
-0.051844057 -0.03458462 -0.028350508 -0.0014077175 -0.029146617 -0.03155097 0.0076586227 -0.03308068
0.005950984 -0.012861848 0.009492337 0.00313955 -0.011965426 -0.04520733 -0.03683748 0.0016612578
-0.032771774 -0.04082803 -0.011576069 0.015625274 -0.048132196 0.0022199836 0.009186772 -0.05601285
-0.00076901977 -0.032346733 -0.02840961 -0.0006801388 -0.002281899 -0.03265509 0.0004410287 0.008074702
0.0028590187 0.007379318 0.03458373 -0.029433984 0.06776899 -0.05102547 -0.037856545 -0.04813992
0.016948605 0.021736676 0.01997817 -0.05815514 -0.01493962 0.017604575 0.002009328 -0.012844464
0.020522902 0.004540679 0.021735048 -0.038967274 0.07035167 -0.03186427 0.04652541 0.011054905
0.04288631 -0.037454784 0.0087656155 0.090821095 -0.050236892 -0.014682415 0.020026082 0.059625
-0.052087855 -0.039591435 -0.049181055 0.0067307386 -0.020667376 -0.05187013 0.074847765 -0.014459495
-0.044533443 -0.048356384 0.023923155 0.008467753 -0.060624942 -0.052745827 -0.0386129 0.11730267
-0.03897114 -0.066232204 0.023098467 0.0049351696 -0.03234985 0.008750508 0.010930162 -0.028507508
0.005360378 -0.013650385 -0.034446914 0.009056236 0.0023360588 -0.049412645 0.03406597 -0.005598909
00000000: 56c5 283c cf30 46bd b580 053d 1771 1c3e
00000010: 0b75 f23c e770 4e3e 5ce5 40bd 9fa4 c63d
00000020: 9713 973b 23e4 803c b457 e93c cbb3 443e
00000030: 6435 363b 088d 533b 4cda 31bd c3a1 913c
00000040: b992 c3bb 3ba9 48bd c41e 6abc 89f8 4a3e
00000050: 1172 273c 35fd 1b3e 0ddf 963c 1196 233e
00000060: fca4 3d3d 176b 8e3c 8437 123e 911c 7cb8
00000070: 6cc1 b73c dc28 de3b f011 53bc d133 873d
00000080: 00c7 793d d92c 033e c3ac fb3d 429a 52bd
00000090: 0362 22bd 91ef c23d 9d83 913c d659 cc3b
000000a0: 8fb9 913d 92ba c93d 232a 8dbc e60c 4fbd
000000b0: 0e45 343d 6062 473e b739 473e afdf 673d
000000c0: 3dad 56bd cd62 163e 1e9f 113c 9665 283e
000000d0: aaab 053d 571c 27bd a98f b8bc e007 593d
000000e0: d0eb 3dbd c107 673c c0db 113e e600 14bd
000000f0: 081a 39bd 4274 e03d 01ec ab3c 8499 893c
00000100: 93fb 563b d014 e5bc 2288 84ba fd3e 13bd
00000110: cbe0 2e3d 02f7 9abd 2742 aebd 08b6 3bbd
00000120: 5b4d b93d dd8e db3c 08fc f13c e238 9bbd
00000130: ea5b 6dbd 3953 b03c 444e 06bd 61dd 73bd
00000140: 683d 933c 32f8 f6bc e3f9 583d c32a 65bd
00000150: 352d 2a3d 1d60 28bd d121 a93c 119a 3fbc
00000160: b6e5 143d 83a3 b6bd e3c8 1abc 838f 5b3d
00000170: f7b3 91bd ae62 8abd 2d57 4f3d b3e7 883c
00000180: d6c1 8fbd eba7 52bd 28f4 4abd 1c4d f5bc
00000190: 885e a0bb a757 99bd 32b7 423d 9ad2 7dbd
000001a0: b833 29bd 93bf 3dbd a54d c03c d656 dabc
000001b0: ad95 63be 8acf 96bd a03c 62bd f683 34be
000001c0: 7e93 adbd 587e a9bd 3749 d03c 5a3e 84bc
000001d0: 7d30 b9bd 6d02 dabc c235 9e3c 79eb b7bd
000001e0: 33cf f4bc 2647 6dbd 14c4 34bd c63a d2bc
000001f0: 63ed 05bd 740a 8cbd 23d0 1b3d dfec fa3c
00000200: 8d71 aa3b 01dc 2c3b 6874 2d3c 31b2 cabc
00000210: 0e43 7ab8 ec6d 53bd 5c18 06bd d810 43bc
00000220: 14d2 933c 1a4c c2bc fa20 b83c c3c2 3cbd
00000230: 65d4 f9bc 65a4 d23c 812d 1abb 9c98 09bd
00000240: e6d1 7638 8a5b 90ba 2011 bcbc 4806 21bd
00000250: fd87 973c c54b e0bc 8ea0 203c a76e 0b3c
00000260: f9a3 f83b 026e 22bd 0c94 c93c 40e6 053c
00000270: bb80 c4bc 9e85 19bd 84e9 68bb 6b03 3e3b
00000280: 6f5a 54bd 9aa8 0dbd 533f e8bc 2983 b8ba
00000290: e3c4 eebc 973b 01bd 2ff5 fa3b 9b7f 07bd
000002a0: 7900 c33b 80ba 52bc bf85 1b3c e9c0 4d3b
000002b0: a20a 44bc 522b 39bd e6e2 16bd 90be d93a
000002c0: b23b 06bd 4b3b 27bd 8da9 3dbc 9300 803c
000002d0: 4426 45bd 257d 113b 1d84 163c bb6d 65bd
000002e0: 0b98 49ba 027e 04bd 45bb e8bc 584b 32ba
000002f0: ea8b 15bb 58c1 05bd df39 e739 c14b 043c
00000300: 605e 3b3b 35ce f13b aba7 0d3d 8a1f f1bc
00000310: 78ca 8a3d 1500 51bd 770f 1bbd 5d2e 45bd
00000320: cdd7 8a3c 1d11 b23c 42a9 a33c 1634 6ebd
00000330: 4fc5 74bc 7837 903c eeae 033b 9671 52bc
00000340: a51f a83c fac9 943b b30d b23c 269c 1fbd
00000350: 8914 903d 1c84 02bd 6e91 3e3d a21f 353c
00000360: 8ea9 2f3d 306a 19bd a89d 0f3c 6900 ba3d
00000370: 33c5 4dbd 838e 70bc bd0d a43c 5839 743d
00000380: 135a 55bd a12a 22bd 1372 49bd 878d dc3b
00000390: a14e a9bc c675 54bd c949 993d 85e7 6cbc
000003a0: b368 36bd 5811 46bd 7efa c33c 55bc 0a3c
000003b0: dc51 78bd 020c 58bd 8f28 1ebd 623c f03d
000003c0: 34a0 1fbd c0a4 87bd ff38 bd3c 34b7 a13b
000003d0: 4781 04bd 4a5e 0f3c 6c14 333c 9488 e9bc
000003e0: 1ca6 af3b dda5 5fbc 3518 0dbd 9b60 143c
000003f0: 9018 193b ea64 4abd c288 0b3d 0e77 b7bb

bias f4 [32]
-0.041098095 0.0014836901 0.07279735 -0.0034744525 -0.16645035 -0.09272956 -0.08170676 0.120294824
-0.065978676 0.025816137 0.0076509546 -0.1555268 0.036085345 0.16232148 -0.025208058 0.068897985
-0.012521888 -0.21182378 0.12778145 0.0064990465 0.00809665 -0.15574297 0.062988214 0.04675866
-0.059603613 -0.16560556 0.008129697 -0.07300478 -0.012243535 -0.11206475 0.027555263 0.0046067233
00000000: 7a56 28bd 6178 c23a c716 953d a4b3 63bb
00000010: f671 2abe ffe8 bdbd e055 a7bd 225d f63d
00000020: d41f 87bd 5d7c d33c dcb4 fa3b 6b42 1fbe
00000030: 3ace 133d 9a37 263e 2181 cebc 631a 8d3d
00000040: 9b28 4dbc 55e8 58be 24d9 023e f4f5 d43b
00000050: d0a7 043c 167b 1fbe f7ff 803d 0286 3f3d
00000060: eb22 74bd 8194 29be 6c32 053c 8883 95bd
00000070: 1c99 48bc 3482 e5bd 93bb e13c fff3 963b

weight f4 [32, 1]
0.3898455 0.39519644 0.5105263 -0.3758557 0.46611002 -0.35614926 -0.53224534 0.27736723
-0.50259155 0.5410823 0.53420544 0.51568896 -0.33737114 0.32232586 -0.2571375 -0.4579643
0.5098892 -0.52085626 -0.25733656 0.49843776 -0.38055402 0.13938034 0.37196377 0.30694243
-0.22363898 0.27661195 0.41009986 -0.19871311 -0.26074857 -0.23933771 -0.53363323 0.52253354
00000000: d499 c73e 3057 ca3e dab1 023f 2970 c0be
00000010: f9a5 ee3e 3259 b6be 3b41 08bf 1403 8e3e
00000020: d7a9 00bf 5f84 0a3f b0c1 083f 3104 043f
00000030: e9bb acbe e507 a53e 87a7 83be 4c7a eabe
00000040: 1988 023f d656 05bf 9ec1 83be 3c33 ff3e
00000050: fad7 c2be b8b9 0e3e 0972 be3e 8f27 9d3e
00000060: 9e01 65be 15a0 8d3e 9cf8 d13e 737b 4bbe
00000070: d680 85be f214 75be 309c 08bf c2c4 053f

bias f4 [32]
-0.45149004 -0.4248719 -0.5936404 0.34225947 -0.33011585 0.31926835 0.74455047 -0.0005913823
0.5812343 -0.7555192 -0.7156224 -0.61815095 0.3026838 -0.20232262 0.22413601 0.45470226
-0.5894496 0.675662 0.22534636 -0.54104775 0.3502863 -0.189957 -0.37580138 0.0031388074
0.1958198 -0.30202273 -0.45475194 0.17270626 0.23182757 0.21192122 0.7558008 -0.6507092
00000000: b429 e7be cf88 d9be d1f8 17bf a23c af3e
00000010: f204 a9be 2477 a33e dc9a 3e3f ff06 1bba
00000020: c5cb 143f b569 41bf 0833 37bf 243f 1ebf
00000030: 5ff9 9a3e a92d 4fbe e983 653e bcce e83e
00000040: 2be6 16bf 2ff8 2c3f 32c1 663e 1b82 0abf
00000050: ba58 b33e 1684 42be 0a69 c0be 73b4 4d3b
00000060: fc84 483e b9a2 9abe 3fd5 e8be e9d9 303e
00000070: 3564 6d3e e001 593e 297c 413f e194 26bf

weight f4 [64, 32]
0.01987423 0.021841953 0.019205479 -0.013160189 0.04672132 -0.011360657 -0.017511796 0.0042456635
-0.01811303 0.018655587 0.018898189 0.01910131 -0.011523708 0.1986996 4.203237e-06 -0.018904548
0.01924028 -0.017845593 -0.00022473323 0.019447977 -0.014533896 -0.02067592 0.006985583 -0.08099793
0.029098691 0.021428816 0.021903174 0.05904676 -0.0030388688 0.014562565 -0.017463718 0.019052604
0.03098856 0.0328574 0.037958037 -0.004405977 0.06263089 0.00983028 -0.03982338 -0.018508088
-0.0372827 0.040064614 0.039681956 0.038523227 0.023446541 -0.028536115 0.01322316 -0.03287074
0.038010824 -0.038860884 0.013178055 0.03702374 -0.008327069 -0.013047428 0.014420586 0.045407817
0.015321429 0.017056944 0.03345111 0.012899247 0.01101732 0.013732458 -0.039889462 0.038867388
0.0120859835 0.015427777 0.007984229 -0.0047240383 0.09079319 -0.0040322007 -0.0011759781 0.035186928
-0.004162478 0.0044481824 0.0050515276 0.00740401 -0.0029979402 0.21694106 0.020155283 -0.008397178
0.008125405 -0.0023426379 0.019675694 0.00952553 -0.004230309 -0.03227245 0.005682559 -0.04183239
0.055765703 0.013228317 0.013351381 0.08381361 0.014965934 0.048881434 -0.0009866174 0.0064381394
0.029760119 0.032675367 0.015530196 -0.04097926 0.029396454 -0.041678343 -0.006360172 0.0653858
-0.012815939 0.009365473 0.01078981 0.014452224 -0.041362062 0.18682659 -0.041957 -0.022269033
0.015854718 -0.008703506 -0.041964676 0.018457517 -0.038664125 -0.022133967 0.015751734 0.012005503
0.00858387 0.03131706 0.028535428 0.07332095 -0.044982553 -0.018446898 -0.0060342676 0.013066262
0.014922055 0.015664944 0.011097671 0.0033381404 0.06358943 0.0044726436 -0.004798594 0.040693358
-0.005385266 0.009372364 0.009605135 0.010731759 0.004603701 0.40091544 0.012529262 -0.0065890555
0.011024447 -0.0050059385 0.01216796 0.011715065 0.0024949736 -0.009550318 0.0056018285 -0.08626505
0.03166223 0.020924658 0.014525211 0.04782373 0.00902917 0.025483064 -0.0047116284 0.01040307
0.046768405 0.052820247 0.012770287 -0.22656927 0.106865235 -0.34113237 -0.0010184353 0.22272655
-0.014520548 0.00021316121 0.002640623 0.010261008 -0.4166628 0.31659114 -0.4408102 -0.03798864
0.013146709 -0.005650159 -0.43926567 0.019094529 -0.19149284 0.093221836 0.049364027 0.24430598
-0.5404436 0.1381073 0.04498513 -0.52648216 -0.3816963 -0.5250663 -0.0002173074 0.0074049267
-0.09010576 -0.09181293 -0.07571543 0.12040768 -0.11541296 0.13170382 0.07399469 -0.25173733
0.08075284 -0.06982018 -0.07109281 -0.07468015 0.14218245 -0.46079755 0.25072333 0.09123193
-0.0758673 0.07633421 0.24848983 -0.07838771 0.1177158 -0.16245545 -0.0990442 -0.32509226
0.33491096 -0.1264042 -0.088965625 0.3676663 0.21764798 0.31319305 0.07361629 -0.07315621
-0.003015127 -0.0040001962 0.024093488 0.034947816 0.054813553 0.040879924 -0.029951917 -0.032276273
-0.022804627 0.030716311 0.029812103 0.025838174 0.04575761 0.0091573475 0.044169907 0.011752124
0.023787413 -0.028149096 0.044474997 0.018618463 0.033455394 -0.012649633 -0.018893996 -0.087003015
0.02900531 0.01921764 -0.0012760794 0.04213524 0.05175464 0.027694827 -0.030183384 0.027594538
00000000: 48cf a23c e5ed b23c cf54 9d3c d59d 57bc
00000010: db5e 3f3d 0d22 3abc e674 8fbc 351f 8b3b
00000020: c761 94bc 9ad3 983c 60d0 9a3c 5a7a 9c3c
00000030: efcd 3cbc e877 4b3e 8809 8d36 b6dd 9abc
00000040: cb9d 9d3c ec30 92bc 5ea6 6bb9 5d51 9f3c
00000050: 941f 6ebc 8c60 a9bc 51e7 e43b 3ee2 a5bd
00000060: 6160 ee3c 7c8b af3c 496e b33c 04db 713d
00000070: c227 47bb d397 6e3c 1210 8fbc 3514 9c3c
00000080: b8db fd3c 7b95 063d e379 1b3d 0460 90bb
00000090: a044 803d 2f0f 213c d71d 23bd 469e 97bc
000000a0: bfb5 18bd cb1a 243d 8c89 223d 88ca 1d3d
000000b0: f612 c03c 92c4 e9bc f4a5 583c 78a3 06bd
000000c0: 3db1 1b3d 972c 1fbd c5e8 573c 35a6 173d
000000d0: 426e 08bc e1c4 55bc 5244 6c3c 8cfd 393d
000000e0: bb06 7b3c 01bb 8b3c 0804 093d 5d57 533c
000000f0: fd81 343c 1bfe 603c 2263 23bd 6933 1f3d
00000100: 4a04 463c c9c4 7c3c 49d0 023c 1bcc 9abb
00000110: c8f1 b93d 8d20 84bb 4723 9aba 2b20 103d
00000120: 6565 88bb 0fc2 913b 4987 a53b 569d f23b
00000130: 1779 44bb cc25 5e3e b11c a53c 5194 09bc
00000140: 6b20 053c f186 19bb ec2e a13c f810 1c3c
00000150: 679e 8abb 1e30 04bd c334 ba3b 7158 2bbd
00000160: 946a 643d 95bb 583c c0bf 5a3c 78a6 ab3d
00000170: ad33 753c e637 483d 6351 81ba 07f7 d23b
00000180: 7ecb f33c 9bd6 053d 5d72 7e3c ded9 27bd
00000190: d5d0 f03c e9b6 2abd fd68 d0bb fee8 853d
000001a0: f2f9 51bc a471 193c bec7 303c 05c9 6c3c
000001b0: 446b 29bd 784f 3f3e 1adb 2bbd 8c6d b6bc
000001c0: c1e1 813c 2699 0ebc 27e3 2bbd 3834 973c
000001d0: 465e 1ebd 4b52 b5bc c809 813c bbb2 443c
000001e0: 5ca3 0c3c 5146 003d 21c3 e93c 4b29 963d
000001f0: a03f 38bd f31d 97bc 1bbb c5bb e013 563c
00000200: a37b 743c c553 803c 02d3 353c b4c4 5a3b
00000210: 2d3b 823d 418f 923b 863d 9dbb 14ae 263d
00000220: e376 b0bb 8b8e 193c db5e 1d3c 42d4 2f3c
00000230: a5da 963b ca44 cd3e 8947 4d3c 01e9 d7bb
00000240: e29f 343c db08 a4bb 205c 473c 8bf0 3f3c
00000250: b682 233b f078 1cbc 8b8f b73b bbab b0bd
00000260: 41b0 013d 306a ab3c 27fb 6d3c d1e2 433d
00000270: 15ef 133c dcc1 d03c 0164 9abb a371 2a3c
00000280: 3a90 3f3d 0b5a 583d 773a 513c c601 68be
00000290: 29dc da3d e7a8 aebe 057d 85ba 6e12 643e
000002a0: 98e7 6dbc 0784 5f39 4d0e 2d3b c91d 283c
000002b0: d454 d5be 3c18 a23e e0b1 e1be fa99 1bbd
000002c0: 4b65 573c f824 b9bb 6ee7 e0be 216c 9c3c
000002d0: b316 44be 17eb be3d ef31 4a3d 592b 7a3e
000002e0: 835a 0abf 006c 0d3e 5442 383d 89c7 06bf
000002f0: b36d c3be bf6a 06bf 03dd 63b9 07a5 f23b
00000300: 5e89 b8bd 6b08 bcbd b110 9bbd 4d98 f63d
00000310: a15d ecbd 5edd 063e 878a 973d b7e3 80be
00000320: bf61 a53d e2fd 8ebd 1b99 91bd e8f1 98bd
00000330: 4798 113e a8ed ebbe cf5e 803e ced7 ba3d
00000340: 5160 9bbd 1c55 9c3d 1e74 7e3e bc89 a0bd
00000350: fb14 f13d b95a 26be afd7 cabd 7e72 a6be
00000360: 7379 ab3e 1a70 01be 9c33 b6bd c23e bc3e
00000370: 1ddf 5e3e d75a a03e 23c4 963d ecd2 95bd
00000380: 7099 45bb 1414 83bb b55f c53c 7125 0f3d
00000390: 2d84 603d b571 273d b95d f5bc 2034 04bd
000003a0: c5d0 babc c6a0 fb3c 8338 f43c 94aa d33c
000003b0: 556c 3b3d b308 163c 81eb 343d fb8b 403c
000003c0: d2dd c23c ef98 e6bc 6a2b 363d bf85 983c
000003d0: 8608 093d 6840 4fbc 95c7 9abc a32e b2bd
000003e0: 8b9c ed3c 506e 9d3c 1f42 a7ba 0096 2c3d
000003f0: acfc 533d 43e0 e23c 2543 f7bc f10d e23c

bias f4 [64]
-0.032124054 -0.011155758 -0.063381925 -0.0797167 -0.12835096 0.052696966 -0.09583286 -0.042424824
-0.06327701 0.11292801 -0.08096924 -0.14886639 -0.15325132 -0.09838712 0.028400162 -0.09952634
0.023317054 -0.06917973 0.12973486 -0.13635021 -0.011610729 -0.06939034 -0.0597823 -0.09639935
0.013999068 -0.10268272 -0.06410955 -0.027665824 -0.031953797 -0.07909043 0.1610453 -0.10611169
-0.013330023 -0.02244972 0.03442202 -0.016723622 0.15692344 -0.10216762 -0.050371267 -0.04909285
-0.02279617 -0.051578145 0.04864278 -0.04783935 -0.03535349 7.077425e-05 -0.04700584 -0.09360435
-0.12576666 -0.12109114 -0.04201435 -0.083081454 -0.0065407 -0.09384855 -0.13302262 -0.03793243
0.071640395 0.14827983 0.009064203 -0.06681987 -0.10343861 -0.03747893 0.029499458 -0.02590947
00000000: 8394 03bd a4c6 36bc 62ce 81bd 8242 a3bd
00000010: 6f6e 03be c6d8 573d 0544 c4bd a7c5 2dbd
00000020: 6197 81bd cd46 e73d 33d3 a5bd 6e70 18be
00000030: eaed 1cbe 307f c9bd 75a7 e83c 77d4 cbbd
00000040: 6803 bf3c 1aae 8dbd 37d9 043e 649f 0bbe
00000050: ed3a 3ebc 861c 8ebd 49de 74bd 066d c5bd
00000060: 595c 653c 514b d2bd de4b 83bd 70a3 e2bc
00000070: fce1 02bd 2afa a1bd 0fe9 243e 1651 d9bd
00000080: 2b66 5abc 7ae8 b7bc 1bfe 0c3d faff 88bc
00000090: 8ab0 203e 423d d1bd 1a52 4ebd 9615 49bd
000000a0: 09bf babc 9b43 53bd a73d 473d 32f3 43bd
000000b0: d2ce 10bd a36c 9438 3289 40bd a3b3 bfbd
000000c0: fac8 00be a2fe f7bd 3d17 2cbd 9c26 aabd
000000d0: 5e53 d6bb ab33 c0bd 1537 08be 095f 1bbd
000000e0: 33b8 923d abd6 173e 0682 143c dbd8 88bd
000000f0: 9fd7 d3bd 8283 19bd d9a8 f13c 1940 d4bc

weight f4 [32, 64]
0.010227497 0.047761064 0.0694654 0.032582484 0.07415705 0.19219846 -0.10685412 0.03406856
0.04359526 0.1945655 0.065909244 0.050283287 0.106088184 0.04587202 0.073969506 0.06632183
0.021518262 0.06599452 0.061961126 0.055984102 -0.008194642 0.02940682 0.033720862 0.056662653
0.05851425 -0.06502573 0.047260888 0.013757009 0.079469636 0.04713718 0.040171117 0.032703057
0.07912039 0.053941872 0.08709054 0.043565955 0.038798843 0.06501685 0.06402883 0.0647634
0.053516828 0.044286072 0.09982479 0.026896669 0.08547903 0.07765123 0.03298701 0.07322973
0.040806636 0.040416375 0.04684729 -0.013285716 -0.0185294 0.043703083 0.07661957 0.033765607
0.11486077 0.04347278 0.083278894 0.062509686 0.094879374 0.021242607 0.09004048 0.062422317
0.06948515 0.21292867 0.025982996 0.14237475 0.032235082 -0.30082497 -0.7092181 0.06430621
0.051795777 -0.3967872 0.0286114 0.02558985 0.18924582 -0.025927601 0.2252385 0.012317253
0.12703694 0.20248194 -0.010252439 0.08401336 0.02803952 0.008248992 0.14958295 0.1399422
0.2100151 -0.6922045 0.021694425 0.044336427 0.27281034 0.08620462 -0.012031497 0.025948044
0.26253697 0.25205117 0.21018565 0.16150278 -0.0043495344 0.18622279 0.10981056 0.04640167
0.19018397 0.18069386 0.28951803 0.15463366 0.2901178 0.21403392 0.15279172 0.10806869
0.012209482 0.09212128 0.13980608 0.08762609 0.070075765 0.09734085 0.0239021 0.0681686
-0.097085595 -0.0001836264 0.088079035 0.1318387 -0.041252036 0.05753303 0.12108836 0.14421119
0.009300981 0.020264294 0.003642514 -0.031632137 0.023275187 -0.07426657 -0.07381074 0.00544943
0.022674192 -0.0013959666 0.0059025646 0.010217902 -0.0020182256 0.029582141 0.008909782 -0.0019215762
0.015996598 0.014980895 -0.09751748 0.018084476 0.0013365776 0.0030641912 0.0015247142 0.006866668
0.022291977 -0.06120236 0.0033838279 0.0041166693 0.010516304 0.016715122 -0.08997621 0.00020002872
-0.008097974 0.0057233055 0.007580104 0.028860915 -0.093426034 -0.00021237129 0.025380863 0.022290474
0.026446993 0.0093477955 0.0040627173 0.017969675 0.014229812 0.02032295 -0.0028091515 0.009345888
0.012293788 0.024917988 0.048726495 0.011968268 -0.00703071 0.0025828534 0.012302078 0.013416709
0.11657366 -0.09700365 0.047206163 0.015890505 -3.6085254e-05 0.026577834 0.026901774 0.015978025
-0.03172412 0.15965115 -0.057924893 0.09085873 -0.10739711 0.097427875 -0.8635057 0.0777851
-0.030438941 0.18973444 -0.006869864 -0.015636802 0.047374792 -0.038344394 0.18930401 -0.0047850343
0.19269049 0.16560006 -0.4343276 0.022154972 0.06161808 0.039943073 0.1787888 -0.008251017
0.19467197 -0.84103066 0.027231937 0.08423696 0.1224765 -0.031452913 -0.33371514 0.006161708
0.28014982 0.16689943 0.10373761 0.13189451 -0.34575856 0.19253464 0.12550649 -0.028531425
0.21318048 0.087548524 0.09052309 0.13253264 0.1650176 0.0859608 0.07047013 -0.023597281
-0.07658691 0.27597973 0.1941489 -0.05120781 0.20001067 0.0771786 0.11898245 0.15772793
0.857273 -0.34927663 0.134319 -0.017571751 -0.31241572 0.16561174 0.009552224 0.16091473
00000000: 3b91 273c 1ba1 433d e043 8e3d 3675 053d
00000010: a7df 973d accf 443e 55d6 dabd 798b 0b3d
00000020: f190 323d 2e3c 473e 6dfb 863d d9f5 4d3d
00000030: c344 d93d 4de4 3b3d 537d 973d bdd3 873d
00000040: 1147 b03c 2328 873d f3ca 7d3d 964f 653d
00000050: d242 06bc 92e6 f03c e31e 0a3d 1917 683d
00000060: a3ac 6f3d 362c 85bd a294 413d 1465 613c
00000070: fac0 a23d ea12 413d 788a 243d a4f3 053d
00000080: df09 a23d 27f2 5c3d 865c b23d 3772 323d
00000090: 89eb 1e3d 8e27 853d 8c21 833d aca2 843d
000000a0: 7634 5b3d 5065 353d f170 cc3d 6756 dc3c
000000b0: a10f af3d 9c07 9f3d 631d 073d 78f9 953d
000000c0: dc24 273d a48b 253d f2e2 3f3d 55ac 59bc
000000d0: f8ca 97bc 0102 333d b9ea 9c3d ce4d 0a3d
000000e0: 203c eb3d 8410 323d 208e aa3d 1405 803d
000000f0: 1e50 c23d fa04 ae3c 2567 b83d 8bae 7f3d
00000100: 3b4e 8e3d f909 5a3e 4bda d43c b0ca 113e
00000110: ef08 043d bb05 9abe 518f 35bf f9b2 833d
00000120: cf27 543d b127 cbbe 7462 ea3c cea1 d13c
00000130: a8c9 413e 1f66 d4bc eca4 663e 4ece 493c
00000140: f915 023e 6d57 4f3e d9f9 27bc 320f ac3d
00000150: 23b3 e53c c826 073c 462c 193e 024d 0f3e
00000160: 330e 573e 5034 31bf 82b8 b13c 1d9a 353d
00000170: ccad 8b3e 0c8c b03d c21f 45bc fe90 d43c
00000180: 3f6b 863e da0c 813e e83a 573e fc60 253e
00000190: 8a86 8ebb 30b1 3e3e 5ce4 e03d ad0f 3e3d
000001a0: 96bf 423e d007 393e b53b 943e 4958 1e3e
000001b0: 528a 943e b52b 5b3e 6f75 1c3e 1e53 dd3d
000001c0: 470a 483c 15aa bc3d 5329 0f3e 4f75 b33d
000001d0: e283 8f3d a45a c73d 56ce c33c fb9b 8b3d
000001e0: d0d4 c6bd d68b 40b9 c862 b43d b900 073e
000001f0: e5f7 28bd c1a7 6b3d 2dfd f73d 19ac 133e
00000200: 2463 183c 4e01 a63c 3fb7 6e3b b390 01bd
00000210: 9bab be3c 1219 98bd 162a 97bd 2291 b23b
00000220: 3abf b93c def8 b6ba 4d6a c13b fd68 273c
00000230: 3544 04bb 3f56 f23c 56fa 113c 66dd fbba
00000240: 4c0b 833c 6e72 753c 3fb7 c7bd e525 943c
00000250: 1a30 af3a 99d0 483b ebd8 c73a c901 e13b
00000260: aa9d b63c 53af 7abd 36c3 5d3b 20e5 863b
00000270: 934c 2c3c 27ee 883c 7245 b8bd cdbe 5139
00000280: 5dad 04bc 918a bb3b 8562 f83b ba6d ec3c
00000290: 2656 bfbd fcaf 5eb9 87eb cf3c 839a b63c
000002a0: 5da7 d83c 7f27 193c 8b20 853b 2435 933c
000002b0: 2824 693c 517c a63c be19 38bb 7f1f 193c
000002c0: e26b 493c cf20 cc3c 6f95 473d 8e16 443c
000002d0: df61 e6bb 1745 293b a88e 493c c2d1 5b3c
000002e0: 2cbe ee3d daa9 c6bd 405b 413d ce2c 823c
000002f0: 3f5a 17b8 c2b9 d93c 1c61 dc3c 59e4 823c
00000300: 27f1 01bd 977b 233e a742 6dbd 2414 ba3d
00000310: 04f3 dbbd 4488 c73d b60e 5dbf cb4d 9f3d
00000320: 165b f9bc bf49 423e 991c e1bb c018 80bc
00000330: 120c 423d 030f 1dbd e9d8 413e c7cb 9cbb
00000340: a850 453e 1093 293e 3060 debe 587e b53c
00000350: 3d63 7c3d 599b 233d 6914 373e 462f 07bc
00000360: 1758 473e c94d 57bf 8315 df3c 6d84 ac3d
00000370: f6d4 fa3d c5d4 00bd b6dc aabe 27e8 c93b
00000380: cc6f 8f3e afe7 2a3e 6274 d43d 5b0f 073e
00000390: 4407 b1be cd27 453e c684 003e bcba e9bc
000003a0: fc4b 5a3e a44c b33d 2b64 b93d a3b6 073e
000003b0: 60fa 283e 370c b03d a552 903d 164f c1bc
000003c0: 99d9 9cbd 374d 8d3e f8ce 463e 48bf 51bd
000003d0: 99cf 4c3e d00f 9e3d 12ad f33d 6e83 213e
000003e0: 3e76 5b3f 63d4 b2be ec8a 093e a2f2 8fbc
000003f0: f4f4 9fbe 2096 293e ee80 1c3c d5c6 243e

bias f4 [32]
-0.18213555 -0.15066484 0.09000155 -0.19679801 0.10409674 -0.038024742 -0.062278192 0.0642353
-0.008258274 -0.2148067 0.06673713 -0.27890772 0.111191414 0.02023878 -0.10927895 -0.053537108
-0.25627282 0.07044633 0.13845775 -0.021636322 -0.17331031 0.12571251 -0.17888439 -0.100328974
-0.08402698 -0.07157936 0.18845241 0.08452694 -0.31919637 -0.0066979895 -0.09254514 -0.14430171
00000000: be81 3abe e247 1abe bc52 b83d 6b85 49be
00000010: ac30 d53d d5bf 1bbd 6b17 7fbd cc8d 833d
00000020: b64d 07bc 4af6 5bbe 7aad 883d fecc 8ebe
00000030: 53b8 e33d cccb a53c a4cd dfbd ba49 5bbd
00000040: 3136 83be 2a46 903d dec7 0d3e a83e b1bc
00000050: 4278 31be c8ba 003e 782d 37be 4779 cdbd
00000060: 5616 acbd 3398 92bd abf9 403e 761c ad3d
00000070: b56d a3be cf7a dbbb 4e88 bdbd d4c3 13be
