checkpoints/bikeshare_honam2_emb32_0.pt (torch, 264998 bytes, 146 tensors)

weight f4 [32, 1]
0	0x3e3b3bde	0.18284556
1	0xbe103c6e	-0.14085552
2	0x3e82efa8	0.25573468
3	0x3eddc140	0.433115
4	0x3d7ab72b	0.06120984
5	0xbec27ef1	-0.37987474
6	0x3e2f4f32	0.17120054
7	0x3e00e852	0.12588623
8	0x3edef31a	0.43544847
9	0xbd8371fd	-0.06418226
10	0x3ec45206	0.3834383
11	0x3edd8f23	0.43273267
12	0x3e917e5d	0.2841672
13	0xbd791b9e	-0.060817353
14	0xbde7acd6	-0.11312263
15	0xbced51e4	-0.028969713
16	0xbe2369ac	-0.1595828
17	0xbee6283f	-0.4495258
18	0xbe01fa69	-0.1269318
19	0xbee5fbc0	-0.44918633
20	0x3e610213	0.21973448
21	0x3ecdb897	0.40179893
22	0xbe3e291c	-0.1857037
23	0x3d91100a	0.07083137
24	0x3ebf877e	0.3740806
25	0x3eac63ac	0.33669794
26	0x3e7e0126	0.24805126
27	0xbd706d27	-0.058697846
28	0x3e278dc8	0.16362679
29	0x3e5cf555	0.21577962
30	0x3d97f735	0.07420198
31	0x3e999c44	0.30002034

bias f4 [32]
0	0xbe7fea65	-0.24991758
1	0xbe2ea6d2	-0.17055824
2	0xbe92f872	-0.28705174
3	0xbef9c4f5	-0.4878308
4	0xbe5cd7ef	-0.21566747
5	0x3edb9f06	0.42894763
6	0x3e39dd40	0.18150806
7	0x3e4af3e9	0.19819607
8	0xbaef472c	-0.0018255464
9	0xbe41b89b	-0.18918078
10	0x3cf05dc6	0.02934159
11	0xbef85d90	-0.48508883
12	0xbe9ce18f	-0.30640838
13	0xbe433f3c	-0.19067091
14	0x3e842f57	0.25817367
15	0x3e74357f	0.23848532
16	0xbe26ca7d	-0.1628818
17	0xbc8a1b07	-0.01685859
18	0x3e86bdea	0.26316768
19	0x3f0ad161	0.54225737
20	0x3e20f03a	0.15716639
21	0x3bfb5701	0.007670284
22	0x3e8fab79	0.2806051
23	0xbe5f3401	-0.21797182
24	0x3d247463	0.040150058
25	0xbeb373be	-0.35049242
26	0xbe90ae40	-0.28257942
27	0xbe438093	-0.19092016
28	0x3e3c57ed	0.18392916
29	0x3e242eda	0.16033497
30	0xbe619aad	-0.2203166
31	0x3dde636b	0.10858806

weight f4 [64, 32]
0	0x3c372ee0	0.011180609
1	0x3d13719c	0.03599702
2	0x3bdcd98f	0.006739802
3	0xbc6a6306	-0.014305836
4	0x3c94af03	0.018149858
5	0x3be2d675	0.006922538
6	0xbd207169	-0.039170656
7	0xbd05e583	-0.032689583
8	0xbe761bbd	-0.24034019
9	0x3ce22a82	0.02760816
10	0xbe05eb4d	-0.13078041
11	0xbc68b926	-0.014204299
12	0x3b94be0c	0.004539257
13	0x3cde08bf	0.02710378
14	0xbc5c3453	-0.013440209
15	0xbc981ac6	-0.018567454
16	0x3d1ead0d	0.038739253
17	0x3e6ba861	0.2301345
18	0xbc4e4ed0	-0.012592033
19	0x3c950d3d	0.018194789
20	0xbd468e35	-0.048475463
21	0xbe1f0686	-0.15529832
22	0xbc18e970	-0.009333
23	0x3c90473e	0.017612096
24	0xbdf74cfb	-0.1207523
25	0xb9c6bfca	-0.00037908397
26	0x3bee4ff9	0.007272717
27	0x3cdda08f	0.0270541
28	0xbd1bbc46	-0.03802135
29	0xbd42a668	-0.04752198
30	0x3c8d2593	0.01722983
31	0xbd94ad60	-0.07259631
32	0xbc158107	-0.009125001
33	0x3cf4ec32	0.029897783
34	0xbc826a02	-0.01591969
35	0xbd1eb4b6	-0.038746558
36	0x3ae97e8b	0.0017814202
37	0x3cfac862	0.030613128
38	0xbd0dd7bb	-0.034629565
39	0xbcccc38e	-0.024995591
40	0xbefc9483	-0.49332055
41	0x3c865459	0.016397642
42	0xbe5cc486	-0.21559343
43	0xbd1e4247	-0.038637426
44	0xbc9bd492	-0.01902226
45	0x3c8279d3	0.015927231
46	0x3b8590f7	0.004076119
47	0xbb716e88	-0.0036839563
48	0x3d0bccf8	0.03413102
49	0x3ee75b39	0.45186785
50	0x3ba9dbe7	0.005183685
51	0x3d25952d	0.04042547
52	0xbd49ebfb	-0.049297314
53	0xbe8ff61d	-0.28117457
54	0x3c26347d	0.01014435
55	0x3a3f03d5	0.0007286643
56	0xbe431302	-0.1905022
57	0xbccf5c48	-0.025312558
58	0xbc775e1d	-0.015098122
59	0x3c7f2208	0.0155720785
60	0xbd070607	-0.032964732
61	0xbd43c383	-0.047793876
62	0x3a0165ae	0.0004936111
63	0xbdb8920b	-0.090122305
64	0x3ce8d705	0.028422842
65	0x3d08d7fb	0.0334091
66	0x3ce07581	0.02739978
67	0x3c88b6ce	0.01668873
68	0x3cf115bf	0.029429315
69	0xbcabd571	-0.0209758
70	0xbd0ddf96	-0.034637056
71	0xbd061642	-0.03273607
72	0xbdf984cc	-0.12183532
73	0x3cff7612	0.03118423
74	0xbd750ce2	-0.05982674
75	0x3c895bc2	0.016767386
76	0x3cda5217	0.026650472
77	0x3cff26fd	0.03114652
78	0xbce7bd1c	-0.028288417
79	0xbceefab6	-0.029172283
80	0x3d0ba142	0.034089334
81	0x3dfd81e7	0.123782925
82	0xbce71b37	-0.02821122
83	0xbc67b4b8	-0.014142208
84	0xbd188310	-0.037234366
85	0xbd88ea08	-0.06685263
86	0xbce1a320	-0.027543604
87	0x3cf01a9c	0.029309563
88	0xbd6af3c8	-0.057361394
89	0x3cc9e6f5	0.024646262
90	0x3ce19823	0.027538365
91	0x3cff003a	0.031128038
92	0xbd0becf0	-0.034161508
93	0xbd17a50a	-0.037022628
94	0x3cf0c12f	0.029388992
95	0xbd36d17b	-0.04463337
96	0x3d539ff1	0.051666204
97	0x3d2dd3dd	0.042438377
98	0x3d4ea7fa	0.050453164
99	0x3d230536	0.03979989
100	0x3d4b7a50	0.049677193
101	0xbd2c466e	-0.042059354
102	0xbd1d82b8	-0.03845474
103	0xbd2763d1	-0.040866677
104	0x3d941f13	0.072324894
105	0x3d3c06fe	0.045905106
106	0x3aef54fc	0.001825958
107	0x3d224fc8	0.039626867
108	0x3d493dc2	0.049131162
109	0x3d3c0156	0.04589971
110	0xbd451ffc	-0.048126206
111	0xbd3d7db2	-0.04626245
112	0x3d29c1a7	0.041444447
113	0xbd9095e2	-0.07059838
114	0xbd45796a	-0.048211493
115	0xbd1fe902	-0.039040573
116	0xbd0eaf1d	-0.03483497
117	0x3c6c7372	0.014431821
118	0xbd48b3c3	-0.04899956
119	0x3d4c521d	0.049882997
120	0xbb562027	-0.0032672973
121	0x3d389ba0	0.04507029
122	0x3d50344b	0.05083112
123	0x3d3c9801	0.0460434
124	0xbd1fb063	-0.038986575
125	0xbd10ced5	-0.0353535
126	0x3d4c5837	0.049888816
127	0xbccd8222	-0.025086466
128	0xbcf3208b	-0.029678604
129	0xbd49a51e	-0.049229734
130	0xbce07fce	-0.027404692
131	0xbca9194a	-0.020641942
132	0xbd0fc809	-0.035102878
133	0x3cc67702	0.02422667
134	0x3d629a9e	0.055323236
135	0x3d4da182	0.050202854
136	0x3e749e80	0.23888588
137	0xbd2f4443	-0.04278971
138	0x3e038a09	0.12845625
139	0xbca834d5	-0.020533005
140	0xbcd9e26b	-0.026597222
141	0xbd2dd37c	-0.042438015
142	0x3d0d7f65	0.03454532
143	0x3d1f2ec3	0.038862955
144	0xbd51b8de	-0.051201694
145	0xbe52b354	-0.20576221
146	0x3d0b064b	0.03394155
147	0x3ca5625d	0.020188505
148	0x3d7fa2ef	0.062411245
149	0x3e1940d5	0.14966138
150	0x3d00bc30	0.03142947
151	0xbd0d4e4f	-0.03449851
152	0x3df5dd24	0.1200507
153	0xbccb9c8e	-0.024854925
154	0xbce24131	-0.027618976
155	0xbd2d56ea	-0.042319216
156	0x3d5f19f3	0.054468106
157	0x3d7d1925	0.061791558
158	0xbd0d8ff5	-0.034561116
159	0x3da68522	0.08130862
160	0x3c91c3f1	0.017793627
161	0x3c83b88f	0.016079215
162	0x3c8e20d6	0.017349642
163	0x3b3a0040	0.0028381497
164	0x3c8a5c78	0.016889796
165	0xbbd7b64a	-0.00658301
166	0xbc3a9e87	-0.011390335
167	0xbc3858e8	-0.011251666
168	0x3cd72a52	0.026265297
169	0x3c843ee1	0.016143264
170	0xbbc7e15d	-0.0060998634
171	0x3b45c020	0.003017433
172	0x3c8893a0	0.016671956
173	0x3c83f8c9	0.016109841
174	0xbc50c778	-0.01274287
175	0xbc455809	-0.012044915
176	0x3c8603bd	0.016359204
177	0xbb665834	-0.0035147788
178	0xbc50ffb1	-0.012756274
179	0x3b45b784	0.0030169198
180	0xbc3f9acd	-0.011694622
181	0xba897a1f	-0.0010488665
182	0xbc58d9a6	-0.013235485
183	0x3c8a44a7	0.01687844
184	0xbbf790e4	-0.007555114
185	0x3c69b9a3	0.014265451
186	0x3c8f4b47	0.01749195
187	0x3c82fa23	0.015988415
188	0xbc3b1a58	-0.011419855
189	0xbc3f6d52	-0.011683779
190	0x3c8a5bcb	0.016889473
191	0xbc3dc835	-0.011583378
192	0xbc8c70a0	-0.017143548
193	0x3bc5d367	0.006037164
194	0xbcb68e98	-0.02228479
195	0xbd3933e8	-0.045215517
196	0xbc2716a6	-0.010198271
197	0x3d14963c	0.036276087
198	0xbc13b59f	-0.00901547
199	0xbb72ebee	-0.0037066895
200	0xbe43a463	-0.19105677
201	0xbabfa3bc	-0.001462094
202	0xbda66265	-0.08124236
203	0xbd3974af	-0.045277294
204	0xbccb66ac	-0.024829231
205	0xbad0ddf9	-0.0015935294
206	0x3c625032	0.013813065
207	0x3c11b71d	0.008893755
208	0x3c087b48	0.008330174
209	0x3e5af882	0.2138386
210	0x3c6fa81c	0.014627483
211	0x3d3ada27	0.045618203
212	0xbc85dcd5	-0.016340652
213	0xbdd0d6ad	-0.10197196
214	0x3c92c4ab	0.017916044
215	0xbc303c8b	-0.010756622
216	0xbd95653e	-0.07294701
217	0xbd00d328	-0.031451374
218	0xbcb015f2	-0.02149484
219	0xbaeb20c6	-0.0017938844
220	0xbc030033	-0.007995653
221	0xbc800727	-0.01562841
222	0xbc331e7f	-0.010932564
223	0xbd0fc8bc	-0.035103545
224	0x3d24828b	0.040163558
225	0x3d10ef95	0.035384733
226	0x3d29695e	0.04136025
227	0x3d4a4734	0.04938431
228	0x3d203231	0.039110366
229	0xbd3cb168	-0.046067625
230	0xbd05b76d	-0.03264563
231	0xbd0c6b9f	-0.034282323
232	0xbc84a0c5	-0.016189942
233	0x3d18c9b6	0.03730174
234	0xbc5de273	-0.013542759
235	0x3d4aa4fd	0.04947375
236	0x3d2c587c	0.042076573
237	0x3d197292	0.03746278
238	0xbd1efc28	-0.038814694
239	0xbd1a565d	-0.03768002
240	0x3d0e6cce	0.034771733
241	0x3d0e1398	0.034686655
242	0xbd1fe0df	-0.039032813
243	0xbd4ce5ca	-0.05002383
244	0xbcfa2449	-0.03053488
245	0xbc1f89ae	-0.009737415
246	0xbd223c35	-0.0396082
247	0x3d20c508	0.039250404
248	0xbc7d67a8	-0.015466608
249	0x3d347f79	0.04406688
250	0x3d284721	0.04108346
251	0x3d19118c	0.03737025
252	0xbd072e53	-0.033003163
253	0xbcfbe072	-0.030746672
254	0x3d210026	0.039306782
255	0xbcccdfff	-0.025009153

bias f4 [64]
0	0x3cfc79a7	0.030819727
1	0x3e5833db	0.21113531
2	0x3c54470e	0.012956394
3	0xbdc351c6	-0.095370814
4	0xbe1204c5	-0.14259632
5	0xbdb50cfb	-0.088403665
6	0x3e370da0	0.17876291
7	0xbd3aaeb9	-0.045576785
8	0xbd211c28	-0.039333493
9	0x3d00ec6e	0.031475477
10	0xbdd4db2c	-0.10393366
11	0xbd1f2c67	-0.038860705
12	0xbd205aad	-0.039148975
13	0x3e47ad94	0.19499809
14	0x3e0b46a4	0.13601166
15	0x3e3e7329	0.18598618
16	0x3e00a5de	0.12563273
17	0xbe1b009e	-0.15136954
18	0xbd525f57	-0.051360454
19	0x3bed16f0	0.0072354004
20	0xbe119d33	-0.14220123
21	0x3cf5d0e9	0.030006843
22	0xbe006676	-0.12539086
23	0x3d89fdb3	0.067378424
24	0x3e662814	0.22476226
25	0xbe0e67a6	-0.13906726
26	0x3e811066	0.25207824
27	0x3d6b4a88	0.057444125
28	0xbda990ed	-0.082795955
29	0x3e4e5c12	0.2015231
30	0xbe10a536	-0.14125523
31	0xbdaf006d	-0.08545003
32	0xbdd4102d	-0.10354648
33	0xbcadfc74	-0.021238543
34	0x3c8c3780	0.017116308
35	0xbd6d8fcd	-0.057998467
36	0xbe15473a	-0.14577952
37	0xbca6c0da	-0.02035563
38	0x3e5bf678	0.21480739
39	0x3e5797e8	0.21054041
40	0x3e4d7dc1	0.20067503
41	0x3cd05ee0	0.025435865
42	0x3b8d9681	0.00432092
43	0xbe06832a	-0.13135973
44	0x3d1c1e1d	0.038114656
45	0xbe3fe82b	-0.18740909
46	0xbda8def5	-0.08245651
47	0xbdcf8ef5	-0.10134689
48	0x3e32a74a	0.17446628
49	0xbcb74692	-0.022372518
50	0xbd91978a	-0.07108982
51	0x3ca20d0b	0.01978161
52	0xbe0f04ee	-0.13966724
53	0xbe00c852	-0.12576416
54	0x3c43bce3	0.01194689
55	0xbd4b5013	-0.04963691
56	0xbc6625b2	-0.014047073
57	0x3dc08b2a	0.094015434
58	0xbe089339	-0.13337411
59	0xbdb4e822	-0.08833338
60	0x3e8615b3	0.2618843
61	0x3cb4adb3	0.022055482
62	0xbcc78cdb	-0.024359157
63	0x3e6224ef	0.22084402

weight f4 [32, 64]
0	0x3e8b6652	0.27226502
1	0xbe1787c7	-0.14797889
2	0x3e7a2f79	0.24432172
3	0xbddfd036	-0.10928385
4	0xbe5f425f	-0.21802662
5	0x3dfa2e54	0.12215868
6	0x3d832e82	0.06405355
7	0xbcd57eb2	-0.02606139
8	0x3d8c814c	0.06860599
9	0x3ce31bf1	0.027723284
10	0x3ddf3a06	0.10899739
11	0xba9fa533	-0.001217997
12	0x3df1aa68	0.118000805
13	0xbe19dda9	-0.15025963
14	0xbcd20b05	-0.02564002
15	0xbd64b50b	-0.05583672
16	0xbcde3921	-0.02712685
17	0xbe8db072	-0.2767368
18	0x3e1f39d8	0.1554941
19	0x3e94a5df	0.290328
20	0xbe6dacf1	-0.23210503
21	0x3e70e203	0.23523717
22	0x3dd58d41	0.10427333
23	0x3d6f71c6	0.058458112
24	0xbd4ecd46	-0.050488733
25	0xbe789191	-0.24274279
26	0x3e1ad42d	0.15120001
27	0x3dfdf675	0.124005236
28	0x3e015970	0.12631774
29	0xbe090752	-0.13381699
30	0xbe8c8cf9	-0.27451304
31	0x3e04fb8b	0.12986581
32	0x3e176e3f	0.1478815
33	0x3b89831f	0.004196539
34	0x3e740d42	0.23833182
35	0x3d18e3c9	0.037326608
36	0x3d4aee6f	0.049543794
37	0x3d92efd6	0.07174651
38	0x3df8743e	0.121315464
39	0xbe256d4b	-0.16154973
40	0xbe21e66f	-0.1581056
41	0x3e57d9e1	0.21079208
42	0x3d69dac7	0.057093408
43	0xbe82ccdf	-0.2554693
44	0x3d018e6e	0.031629972
45	0xbbf1137e	-0.00735706
46	0xbe7739ec	-0.24143189
47	0xbe092a17	-0.13394962
48	0xbdd118dc	-0.1020982
49	0x3d19cc4d	0.037548352
50	0x3d6fdadd	0.058558334
51	0x3e5563ea	0.20838895
52	0xbe7c8ead	-0.24663801
53	0xbf0b469d	-0.5440462
54	0x3e0b57ee	0.13607761
55	0x3d204ab7	0.039133754
56	0x3e82fedf	0.25585076
57	0x3d4e1e3e	0.05032181
58	0xbe8c1836	-0.2736222
59	0x3d8cf202	0.06882097
60	0x3ddd78e5	0.108140744
61	0x3e35c222	0.17749837
62	0x3de1b133	0.11020126
63	0xbde871d0	-0.11349833
64	0x3defec3c	0.1171498
65	0x3d00cc15	0.031444628
66	0x3dc78692	0.09742464
67	0x3d8366c1	0.06416083
68	0x3cc1789f	0.023617087
69	0x3e03d274	0.1287325
70	0xbe5fe442	-0.21864417
71	0x3de0b618	0.109722316
72	0x3dd01cbf	0.10161733
73	0x3db366e4	0.08759859
74	0x3dc81093	0.09768786
75	0x3d2d78eb	0.042351644
76	0x3dff92bb	0.124791585
77	0x3e463676	0.19356713
78	0xbe12cb51	-0.14335372
79	0xbd0676f7	-0.032828297
80	0xbe2e9b08	-0.17051327
81	0x3bfc8845	0.0077066743
82	0x3e0dfdf8	0.13866413
83	0x3dd6236c	0.10455975
84	0x3c9eda94	0.019391336
85	0x3da6c195	0.081423916
86	0x3e213ef6	0.15746674
87	0xbde2c0d9	-0.11071939
88	0xbd00d9e0	-0.03145778
89	0x3c869a75	0.016431073
90	0xbe00ad36	-0.12566075
91	0xbb852f40	-0.0040644705
92	0x3df87599	0.12131805
93	0x3ca36fb5	0.019950727
94	0x3c36ba74	0.011152852
95	0x3d79ee84	0.06101848
96	0x3e0eaab3	0.13932304
97	0x3d9a4fd2	0.07534756
98	0x3dca5979	0.09880347
99	0x3d9ce799	0.07661361
100	0x3e5ed4ed	0.21760912
101	0x3cdbc06a	0.026825149
102	0xbe2815bd	-0.16414542
103	0x3e312ed8	0.17303026
104	0x3e4aa3b6	0.19789013
105	0x3dc5c5c7	0.09656864
106	0x3db7044a	0.08936365
107	0x3c1c79f3	0.009550559
108	0x3cc7b67f	0.024379013
109	0x3e400de2	0.18755296
110	0xbc3804b3	-0.011231589
111	0x3dc86d28	0.09786445
112	0x3adc3265	0.0016799687
113	0x3dac4e7c	0.08413407
114	0x3e0f802b	0.14013736
115	0x3d62a3e8	0.055332094
116	0x3c69b42e	0.01426415
117	0xbd2e1f66	-0.042510413
118	0x3dbd561d	0.092449404
119	0x3dba3ba7	0.09093409
120	0x3d7b5030	0.06135577
121	0xbdd9382a	-0.106064156
122	0x3c154b4a	0.009112189
123	0x3e12165b	0.1426634
124	0xbd9caf0e	-0.076505765
125	0x3cd531fa	0.026024807
126	0x3e0e0c5f	0.13871907
127	0x3e466de9	0.19377865
128	0x3cc7b300	0.024377346
129	0xbe0e4051	-0.13891722
130	0x3ceec69f	0.029147444
131	0x3d84d014	0.06485
132	0x3d2e7b70	0.042598188
133	0x3d21a728	0.039466053
134	0xbd953934	-0.07286301
135	0xbc713f59	-0.014724576
136	0x3cc0aa6b	0.023518762
137	0x3b5d1e60	0.0033740029
138	0x3d064599	0.032781217
139	0x3c98f0f5	0.018669585
140	0x3c9a0531	0.018801304
141	0xbe5d2f8a	-0.21600166
142	0xbd314569	-0.043279085
143	0xbc4cd805	-0.012502675
144	0xbd46b3b1	-0.04851121
145	0x3cb04812	0.02151874
146	0x3cf93b20	0.0304237
147	0x3c87c23f	0.016572116
148	0x3d0f5fb0	0.035003364
149	0x3d0bdd86	0.034146808
150	0xbb9ed752	-0.0048474455
151	0xbd3a4f68	-0.045485884
152	0xbc8b204c	-0.016983174
153	0x3cf990dc	0.030464582
154	0xbda2a5de	-0.07941793
155	0x3cc8ca33	0.024510479
156	0x3cdf7745	0.027278552
157	0xbd691a28	-0.05690971
158	0x3cb7dbf1	0.022443743
159	0x3ceee8ca	0.029163737
160	0x3d595561	0.05305994
161	0x3c4cddbb	0.012504037
162	0x3cd033a3	0.025415247
163	0x3cd34203	0.025788313
164	0x3d41cc49	0.047313962
165	0x3ce36e50	0.027762562
166	0xbd5c9c05	-0.05385973
167	0xbe2c602d	-0.16833563
168	0xbe566b4b	-0.20939367
169	0x3cd4bed1	0.025969895
170	0x3ce324d2	0.027727518
171	0x3cbde38e	0.023179796
172	0x3c83e8a3	0.01610214
173	0x3d4f21a0	0.050569177
174	0x3c9eb555	0.019373575
175	0x3d7fa053	0.062408756
176	0xbdcdbcb8	-0.10045761
177	0x3cbc1ed2	0.022963915
178	0x3cd6c75a	0.026218105
179	0x3c8b1c59	0.01698129
180	0x3ce6becf	0.028167157
181	0x3c3cb911	0.011518733
182	0xbcfb6ca8	-0.03069146
183	0xbca8e41d	-0.020616585
184	0x3c5fac5f	0.013651936
185	0xbd58f86e	-0.052971296
186	0x3ca5c1ae	0.020233955
187	0x3d22bdf0	0.03973192
188	0xbd8e53cd	-0.069495775
189	0xbb9ca9e4	-0.0047809947
190	0x3cc17291	0.0236142
191	0xbea8a788	-0.32940316
192	0xbd9a91a6	-0.075473115
193	0xbed05279	-0.40687922
194	0xbd344956	-0.04401525
195	0x3d1089a0	0.0352875
196	0x3e14fa1a	0.14548531
197	0xbca2eb94	-0.019887723
198	0xbedff5bf	-0.43742177
199	0xbd348ae8	-0.044077784
200	0x3d691ee9	0.056914244
201	0xbce084ba	-0.027407039
202	0x3c9e6894	0.019336976
203	0x3b81c00f	0.0039596627
204	0xbd00733f	-0.031359907
205	0xbeb0ac16	-0.3450629
206	0xbebe76e9	-0.37200096
207	0xbefbb6d1	-0.49162915
208	0xbebd2bde	-0.3694753
209	0x3e1c58ce	0.15268251
210	0xbd4155b8	-0.04720089
211	0xbd3d6cff	-0.046246525
212	0x3e14bcd9	0.14525165
213	0xbd687249	-0.056749616
214	0xbd5b14dd	-0.053486694
215	0xbdffba20	-0.124866724
216	0xbf0c965d	-0.54916936
217	0x3e1a585f	0.15072773
218	0xbf4e67d2	-0.8062717
219	0xbc9493e9	-0.018136935
220	0xbbb234c3	-0.0054384186
221	0xbed20d27	-0.4102566
222	0x3e1cd3d8	0.15315187
223	0x3a2a9e73	0.0006508596
224	0x3d4c3177	0.04985186
225	0xbb4c423c	-0.0031167408
226	0xbd2c9c45	-0.042141218
227	0x3a8f58bb	0.0010936478
228	0x3c48693d	0.012232122
229	0x3c9adc51	0.018903883
230	0xbf160413	-0.58599967
231	0xbead2b8c	-0.33822286
232	0xbeb464b6	-0.35233086
233	0xbd8937a1	-0.067000635
234	0x3c4ca283	0.012489918
235	0x3e15026b	0.14551704
236	0xbcfb1790	-0.030650884
237	0x3ded7f37	0.1159653
238	0x3e0a8fff	0.13531493
239	0x3c987261	0.018609228
240	0xbeba2041	-0.36352733
241	0xbcfc11c0	-0.030770183
242	0xbc88e639	-0.016711341
243	0xbe0ce4ce	-0.13759157
244	0x3e18f859	0.14938487
245	0x3e3ca18c	0.18421
246	0xbcfa0684	-0.030520685
247	0xbd84246a	-0.06452258
248	0xbc0ea509	-0.00870634
249	0xbe11ac41	-0.14225866
250	0x3e190142	0.14941886
251	0xbd2600e7	-0.040528204
252	0xbf561322	-0.83622944
253	0xbdaf7230	-0.085667014
254	0xbd180993	-0.037118506
255	0xbeaf81ec	-0.3427881

bias f4 [32]
0	0xbc997295	-0.018731395
1	0xbc848628	-0.016177252
2	0x3de036a8	0.10947925
3	0xbcef2cd7	-0.029196186
4	0xbe45d436	-0.19319233
5	0x3e004735	0.12527163
6	0xbe6fe2ac	-0.23426312
7	0xbd8e7496	-0.06955831
8	0x3e00ba6a	0.12571111
9	0x3daa29c8	0.083087504
10	0xbdf7e562	-0.12104298
11	0xbdb5ec34	-0.08882943
12	0xbe298552	-0.16554764
13	0x3df0fa92	0.117665425
14	0x3e1e76a9	0.15474953
15	0xbe02e8cc	-0.12784117
16	0xbdd60926	-0.10450964
17	0x3db92243	0.09039738
18	0xbdf92ec8	-0.12167126
19	0x3e5196ad	0.20467634
20	0xbd8ead97	-0.069667034
21	0x3df95c3e	0.12175797
22	0xbe330de9	-0.17485775
23	0xbdfe7c5f	-0.12426066
24	0x3dc8efd6	0.0981137
25	0x3d79953f	0.060933348
26	0x3d810a0b	0.06300744
27	0xbe2f896a	-0.17142263
28	0xbe634556	-0.22194418
29	0xbe49172a	-0.19637743
30	0xbe8c9631	-0.27458337
31	0x3d6dedc8	0.058088094

weight f4 [32, 1]
0	0x3e054376	0.13014016
1	0x3e75ca79	0.24003018
2	0xbe2f691d	-0.17129941
3	0xbe223917	-0.1584209
4	0xbe367a87	-0.17820178
5	0x3eb4ab34	0.35286868
6	0xbea51dd5	-0.32249323
7	0xbd36e9c4	-0.04465653
8	0xbe9f3972	-0.31098515
9	0x3e811029	0.25207642
10	0xbeaf9072	-0.3428989
11	0xbe2d5359	-0.16926326
12	0xbe663bcd	-0.2248375
13	0x3e9c6804	0.30548108
14	0x3ea164c7	0.315222
15	0xbe90d60a	-0.282883
16	0xbe232a3d	-0.15934081
17	0x3e97a432	0.2961746
18	0xbe851c31	-0.2599807
19	0xbe01af41	-0.1266451
20	0x3e15757a	0.14595595
21	0x3e99c25e	0.30031103
22	0xbea896f2	-0.32927662
23	0x3eadaf56	0.33922833
24	0x3e469500	0.19392776
25	0xbdf39fe3	-0.1189573
26	0xbea69e4f	-0.32542655
27	0xbe9919cf	-0.29902503
28	0xbd4b792f	-0.049676117
29	0x3e36eb31	0.17863156
30	0xbd9628bf	-0.073319905
31	0xbe94339b	-0.28945622

bias f4 [32]
0	0x3f141569	0.5784517
1	0x3ee07900	0.43842316
2	0xbef5d2a8	-0.4801228
3	0xbefbadd0	-0.49156046
4	0xbef26649	-0.47343662
5	0xba53ce1b	-0.00080797233
6	0xbdb9cc66	-0.09072189
7	0xbf032b06	-0.51237524
8	0xbe1232de	-0.14277217
9	0x3ed0e9d3	0.40803394
10	0xbc9bff46	-0.019042622
11	0xbef5e234	-0.48024142
12	0xbed039ae	-0.40669006
13	0x3e6365ad	0.22206755
14	0x3e33022f	0.17481302
15	0xbe831c88	-0.25607705
16	0xbefa68cd	-0.48908082
17	0x3e862427	0.26199457
18	0xbea78ab6	-0.32723016
19	0xbf01d721	-0.50718886
20	0x3f11db3c	0.5697515
21	0x3e7a2e14	0.2443164
22	0xbd5b938e	-0.053607516
23	0x3d2dd8ea	0.042443193
24	0x3f05cb3d	0.5226324
25	0xbf02c3d0	-0.51080036
26	0xbd9d3e59	-0.076779075
27	0xbe496b49	-0.19669832
28	0xbf0337c6	-0.5125698
29	0x3f0a4841	0.540165
30	0xbf039352	-0.5139667
31	0xbe6e4f5a	-0.23272458

weight f4 [64, 32]
0	0x3c905c5d	0.017622167
1	0x3d1cadce	0.03825169
2	0xbcc18962	-0.02362508
3	0xbcb1f35c	-0.021722488
4	0xbcca8434	-0.024721242
5	0x3e9cca23	0.30622968
6	0xbdef3c68	-0.116814435
7	0xbc3d7f25	-0.011565958
8	0xbdc1d83e	-0.09465073
9	0x3d2f52c8	0.042803556
10	0xbe473bf4	-0.19456464
11	0xbcbf288c	-0.023334764
12	0xbd0fbbb3	-0.035091113
13	0x3da8377d	0.082137085
14	0x3dc6fe1c	0.09716436
15	0xbd808573	-0.062754534
16	0xbcb3de8c	-0.021956705
17	0x3d9269e1	0.07149101
18	0xbd4673d9	-0.048450325
19	0xbc938cc2	-0.018011454
20	0x3c9e0831	0.019291015
21	0x3d9b64ea	0.07587607
22	0xbe0c2254	-0.1368497
23	0x3e2df00d	0.16986103
24	0x3cd941e6	0.02652068
25	0xbc8d89a3	-0.017277544
26	0xbdfdd870	-0.12394798
27	0xbd9f116e	-0.07766996
28	0xbc40541f	-0.011738806
29	0x3cc2a86d	0.023761952
30	0xbc5a7794	-0.013334174
31	0xbd8b996c	-0.06816372
32	0xbd1c2bda	-0.038127758
33	0xbd4ace22	-0.04951299
34	0x3d2deee6	0.04246416
35	0x3d292abe	0.041300528
36	0x3d2fdaaa	0.042933144
37	0xbeafe100	-0.3435135
38	0x3de5e910	0.11226094
39	0x3d1089a5	0.035287518
40	0x3dbc2c21	0.091881044
41	0xbd563ff8	-0.0523071
42	0x3e672dfa	0.22576132
43	0x3d2ced20	0.042218328
44	0x3d493827	0.049125817
45	0xbd9dfe5b	-0.0771453
46	0xbdb3b1ae	-0.08774124
47	0x3d89c4d5	0.06726996
48	0x3d29af98	0.041427225
49	0xbd8f2935	-0.069902815
50	0x3d6b76dd	0.057486404
51	0x3d1ffe0e	0.039060645
52	0xbd1f5981	-0.038903717
53	0xbd95586d	-0.072922565
54	0x3e087a21	0.13327838
55	0xbe19f105	-0.15033348
56	0xbd2fe726	-0.04294505
57	0x3d1da427	0.038486626
58	0x3df4a60e	0.11945735
59	0x3da03496	0.0782253
60	0x3d10e267	0.035372164
61	0xbd298ea7	-0.04139581
62	0x3d14b5bf	0.03630614
63	0x3d91d9f0	0.071216464
64	0x3b813e81	0.0039442186
65	0x3cbbe76c	0.022937499
66	0xbc100886	-0.008791095
67	0xbbe8fe5d	-0.0071104006
68	0xbc1e99be	-0.00968021
69	0x3e9b3030	0.30310202
70	0xbdd6c2c1	-0.10486365
71	0x3aa77615	0.001277628
72	0xbda561c2	-0.080752864
73	0x3cdee538	0.02720891
74	0xbe51bb6b	-0.2048165
75	0xbc09cc12	-0.008410471
76	0xbc9fe3f7	-0.019517882
77	0x3d8691dc	0.06570789
78	0x3da579f5	0.08079902
79	0xbd40c29a	-0.047060587
80	0xbbe9c107	-0.0071336064
81	0x3d61f5fc	0.05516623
82	0xbd0583f5	-0.032596547
83	0xbb7b0083	-0.0038299866
84	0x3bb4cf01	0.005517841
85	0x3d73929e	0.059465997
86	0xbe026c2e	-0.1273658
87	0x3e1eeac1	0.15519239
88	0x3c4039e9	0.011732557
89	0xbb4fb94c	-0.003169614
90	0xbde6f4e0	-0.11277175
91	0xbd806f66	-0.062712476
92	0x3a8cc4ab	0.0010739764
93	0x3c1afac8	0.009459205
94	0xb8c2dd5c	-9.291872e-05
95	0xbd57b370	-0.05266136
96	0x3c44355f	0.011975615
97	0x3cfcce62	0.03086013
98	0xbc8959c9	-0.016766446
99	0xbc774474	-0.015092004
100	0xbc919325	-0.01777036
101	0x3e9a9321	0.30190375
102	0xbde0ce47	-0.10976844
103	0xbbd5ff5c	-0.0065306854
104	0xbdb1b53e	-0.08677147
105	0x3d1023a8	0.035190254
106	0xbe4f7fa9	-0.20263542
107	0xbc88b481	-0.016687633
108	0xbce11fa9	-0.027480917
109	0x3d95c121	0.07312227
110	0x3db4073c	0.08790442
111	0xbd5f4ed4	-0.054518536
112	0xbc792397	-0.015206239
113	0x3d809a8f	0.0627948
114	0xbd25577a	-0.040366627
115	0xbc42fbdc	-0.011900868
116	0x3c5bbb2c	0.0134113245
117	0x3d895431	0.06705511
118	0xbe0618eb	-0.13095443
119	0x3e234c9b	0.15947191
120	0x3ca298b0	0.019848198
121	0xbc367e68	-0.011138536
122	0xbdf02a03	-0.11726763
123	0xbd8e90e6	-0.06961231
124	0xbbdc1d87	-0.006717387
125	0x3c8ec4fb	0.017427912
126	0xbc03ef1b	-0.008052613
127	0xbd75632e	-0.05990904
128	0xbc4b0686	-0.012391692
129	0xbcbe260a	-0.023211498
130	0x3c8542b5	0.01626716
131	0x3c773c72	0.015090095
132	0x3c89f4ed	0.016840423
133	0xbec01065	-0.37512508
134	0x3db9d053	0.09072938
135	0x3c23612b	0.009971897
136	0x3d89a018	0.067199886
137	0xbcd1cbe6	-0.025609922
138	0x3e754cbb	0.23955052
139	0x3c8388de	0.016056474
140	0x3cb93964	0.022610374
141	0xbd511e8b	-0.05105452
142	0xbd803544	-0.062601596
143	0x3d2670d1	0.040634934
144	0x3c7abfaa	0.015304485
145	0xbd32767a	-0.04357002
146	0x3cfc0631	0.030764671
147	0x3c589feb	0.013221721
148	0xbc592656	-0.013253769
149	0xbd3f06da	-0.046637394
150	0x3df05b25	0.117361344
151	0xbe0dea13	-0.13858823
152	0xbc890789	-0.016727226
153	0x3c536e15	0.012904664
154	0x3dcc1bd5	0.09966246
155	0x3d55dbfb	0.052211743
156	0x3c276e8a	0.010219226
157	0xbc7c5075	-0.015400042
158	0x3c3211b6	0.01086848
159	0x3d36973d	0.044577826
160	0x3cb13d20	0.021635592
161	0x3d2e76e9	0.04259387
162	0xbcd85d73	-0.026411748
163	0xbcc8d4c4	-0.024515517
164	0xbce24e4b	-0.027625224
165	0x3e9f4176	0.3110463
166	0xbdf8a72c	-0.121412605
167	0xbc68dd91	-0.014212982
168	0xbdca8066	-0.09887771
169	0x3d416dcd	0.047223855
170	0xbe4d1aea	-0.20029798
171	0xbcd6ae80	-0.026206255
172	0xbd1c419b	-0.038148504
173	0x3db26696	0.08710973
174	0x3dd19a8f	0.10234558
175	0xbd87a787	-0.0662375
176	0xbccb4349	-0.024812358
177	0x3d9c1860	0.07621837
178	0xbd539add	-0.05166136
179	0xbcaa97a2	-0.020824257
180	0x3cc06e68	0.023490146
181	0x3da56809	0.08076484
182	0xbe11428e	-0.14185545
183	0x3e342345	0.1759158
184	0x3cfa7485	0.030573139
185	0xbca2c03a	-0.019867051
186	0xbe03eb34	-0.12882692
187	0xbda72837	-0.08161967
188	0xbc6e81dd	-0.014557329
189	0x3ce4bdb4	0.027922489
190	0xbc84da89	-0.016217487
191	0xbd9327cc	-0.07185325
192	0xbc48fc79	-0.012267225
193	0xbc9625c1	-0.01832855
194	0x3c6a53ae	0.014302177
195	0x3c5f3d4a	0.013625452
196	0x3c6f6e50	0.014613703
197	0xbe529d70	-0.2056787
198	0x3d5f1eb6	0.054472648
199	0x3c364c8a	0.011126647
200	0x3d2dbfa5	0.042419095
201	0xbca27dd4	-0.01983539
202	0x3df2c406	0.11853795
203	0x3c67b66e	0.014142616
204	0x3c926e54	0.017874874
205	0xbd0cf9af	-0.034417804
206	0xbd27198a	-0.04079584
207	0x3ce619bb	0.028088441
208	0x3c614795	0.013749977
209	0xbcf6eb2c	-0.030141436
210	0x3cb7f981	0.02245784
211	0x3c4e3074	0.012584794
212	0xbc4f36e3	-0.012647363
213	0xbd02b8f8	-0.03191468
214	0x3d886fbd	0.066619374
215	0xbda0b58d	-0.07847128
216	0xbc6ecf55	-0.014575799
217	0x3c4ca5d4	0.012490708
218	0x3d70d9f2	0.0588016
219	0x3d0d25a2	0.034459718
220	0x3c37a268	0.011208154
221	0xbc6235b4	-0.013806749
222	0x3c3b76d1	0.011441902
223	0x3cf8246f	0.03029081
224	0xbd001ec1	-0.03127933
225	0xbd25ba06	-0.04046061
226	0x3d0d11d2	0.034440823
227	0x3d09094d	0.033456136
228	0x3d0f58fb	0.034996968
229	0xbe8b6c65	-0.27231136
230	0x3dbc0a1c	0.09181616
231	0x3cee5e59	0.029097723
232	0x3d9992e8	0.07498723
233	0xbd2eec57	-0.04270586
234	0x3e360a53	0.17777376
235	0x3d0c702b	0.03428666
236	0x3d23655c	0.039891586
237	0xbd81d844	-0.063400775
238	0xbd93fbb8	-0.07225746
239	0x3d5f9717	0.05458745
240	0x3d09b648	0.033621103
241	0xbd6b16bc	-0.057394728
242	0x3d3eef2f	0.046614822
243	0x3d022c9f	0.031780835
244	0xbd034313	-0.03204639
245	0xbd75900a	-0.05995182
246	0x3ddec732	0.10877837
247	0xbdfdcb57	-0.123922996
248	0xbd0ffe4e	-0.035154633
249	0x3d010241	0.03149629
250	0x3dc81cd9	0.09771127
251	0x3d82e0f3	0.06390562
252	0x3cee9665	0.029124448
253	0xbd0b4138	-0.033997744
254	0x3cf3c3f3	0.029756522
255	0x3d6cde26	0.057829045

bias f4 [64]
0	0xbe2d1a5f	-0.16904591
1	0x3df8b84f	0.12144529
2	0xbe0ede27	-0.13951932
3	0xbe1acef1	-0.15118004
4	0x3e1c32be	0.15253732
5	0xbe3fc272	-0.18726519
6	0x3d83c7eb	0.06434616
7	0x3e0782ee	0.1323354
8	0x3c0563e8	0.008141495
9	0xbe44c94b	-0.19217412
10	0xbe2d173f	-0.16903399
11	0x3d3d3f51	0.04620296
12	0xbdec1921	-0.115282305
13	0x3de475a4	0.11155251
14	0x3e0b3a82	0.13596538
15	0xbe172d30	-0.14763331
16	0xbdeb2fc3	-0.11483719
17	0xbe0b0c3b	-0.13578884
18	0x3cd5a4c0	0.026079535
19	0x3e08214e	0.13293955
20	0xbe01186f	-0.12606977
21	0xbca588c3	-0.020206815
22	0x3d9c9285	0.07645134
23	0xbe37c6a6	-0.17946872
24	0x3e33130f	0.17487739
25	0x3cca2e04	0.024680145
26	0x3e2382d3	0.15967874
27	0xbe390ad1	-0.18070532
28	0xbdee333e	-0.116308674
29	0xbdea2235	-0.11432306
30	0x3d7586de	0.059943072
31	0xbdf8c1ce	-0.1214634
32	0xbe111d40	-0.14171314
33	0x3e022b9a	0.12711945
34	0x3dfe07fc	0.12403867
35	0x3e446df4	0.19182569
36	0x3dba8ba6	0.09108667
37	0x3de989b0	0.11403215
38	0xbe1be625	-0.15224512
39	0x3cac289c	0.021015458
40	0xbdefec81	-0.117150314
41	0xbd198f5f	-0.037490245
42	0x3c4ca4de	0.012490479
43	0x3d5b23e4	0.053501025
44	0xbe13de40	-0.1444025
45	0xbde6342d	-0.112404205
46	0xbdfb83a4	-0.12280968
47	0xbdf3ff88	-0.11913973
48	0xbe180fa2	-0.14849713
49	0xbe0f8834	-0.14016801
50	0xbe201e5c	-0.15636581
51	0xbdaf6ea3	-0.08566024
52	0x3bc970bb	0.0061474717
53	0xbe3719ee	-0.17880985
54	0xbe40524c	-0.18781394
55	0x3df3bdf1	0.11901463
56	0xbda30c65	-0.079613484
57	0x3dfbbb7c	0.12291619
58	0x3b82b946	0.0039893715
59	0xbdece6a3	-0.11567428
60	0x3e0828a5	0.13296755
61	0xbdc23de1	-0.09484459
62	0x3dc59083	0.09646704
63	0x3defb380	0.11704159

weight f4 [32, 64]
0	0xbe963987	-0.29340765
1	0x3e050878	0.12991512
2	0xbe9e5676	-0.3092534
3	0xbe97d9b3	-0.2965828
4	0x3d91215f	0.07086443
5	0xbe9723fb	-0.29519638
6	0x3d5f1e60	0.054472327
7	0x3dafec91	0.08590043
8	0x3e144c64	0.14482266
9	0xbe9885b7	-0.29789516
10	0xbe96c495	-0.29446855
11	0x3e8c692d	0.27423993
12	0xbe95b4af	-0.29239413
13	0x3de1027b	0.10986801
14	0x3dc5bbee	0.09654985
15	0xbe9dd81f	-0.3082895
16	0xbe8df895	-0.27728716
17	0x3e042f11	0.1290858
18	0x3e0e1693	0.13875799
19	0x3d883ae0	0.066518545
20	0xbe8a35a7	-0.26994058
21	0x3df94825	0.121719636
22	0x3e94129f	0.28920457
23	0xbe980d8d	-0.29697838
24	0x3d8fa742	0.07014324
25	0x3d2a32b3	0.041552257
26	0x3dbd8f82	0.092558876
27	0xbe9740fd	-0.2954177
28	0xbe964c20	-0.29354954
29	0xbe8ea0c6	-0.27857035
30	0x3d392eda	0.045210697
31	0xbe957545	-0.29191032
32	0xbe9e7fe5	-0.3095695
33	0x3dd91c7f	0.10601138
34	0x3dc82ab5	0.09773771
35	0x3dab2347	0.08356338
36	0x3d9ef552	0.07761635
37	0x3d953399	0.07285232
38	0xbe9dc453	-0.30813846
39	0x3e0f333d	0.1398439
40	0xbe8c50eb	-0.27405486
41	0x3e2de353	0.16981249
42	0x3e588e72	0.21148089
43	0x3e290f00	0.16509628
44	0xbe9dc651	-0.30815366
45	0xbe912c97	-0.28354332
46	0xbe99cc4b	-0.30038676
47	0xbe95fba3	-0.29293546
48	0xbe986d24	-0.29770768
49	0xbe9d64e0	-0.30741024
50	0xbe96cda9	-0.2945378
51	0x3e46ac43	0.1940165
52	0x3e13a5dd	0.1441874
53	0xbe998b45	-0.29989067
54	0xbe9847ab	-0.29742178
55	0x3d7770a6	0.060410164
56	0x3e48f587	0.19624911
57	0x3e01d1ce	0.1267769
58	0x3e7ef8ac	0.24899548
59	0xbe917067	-0.2840607
60	0x3dbb2134	0.09137192
61	0x3e3af61e	0.18257949
62	0x3d8205c6	0.063487574
63	0x3d8e29df	0.0694158
64	0xbda5e8ae	-0.08101021
65	0xbd026252	-0.031832047
66	0xbdae6cd0	-0.08516848
67	0xbda88952	-0.08229317
68	0xbe941d3e	-0.2892856
69	0xbda83907	-0.08214002
70	0x3cb651d7	0.022255821
71	0xbd13e5c9	-0.036107812
72	0x3d5705ba	0.052495696
73	0xbda7c138	-0.081911504
74	0xbda3cf39	-0.07998509
75	0x3de10a71	0.1098832
76	0xbddd445e	-0.10804056
77	0xbd4ac877	-0.049507584
78	0xbd558cb0	-0.052136123
79	0xbdb4f122	-0.08835055
80	0xbdb51f83	-0.08843901
81	0x3e07069e	0.13186118
82	0x3e3f1cfd	0.18663402
83	0xbd25a77d	-0.040442932
84	0xbdc3bbc8	-0.09557301
85	0x3d220293	0.039553236
86	0x3e0cc454	0.13746768
87	0xbda4b63f	-0.08042573
88	0xbe91982f	-0.2843642
89	0x3d3e7a77	0.04650351
90	0xbcb60c87	-0.02222277
91	0xbda9a857	-0.082840614
92	0xbda9af54	-0.08285394
93	0xbdb803eb	-0.08985122
94	0x3cfdd325	0.03098447
95	0xbdc762ad	-0.09735618
96	0xbdb1c3a9	-0.08679897
97	0xbe6f607b	-0.23376648
98	0xbe87afe6	-0.26501387
99	0xbe82069c	-0.25395668
100	0xbc3e6d26	-0.011622703
101	0xbcc56f34	-0.024100877
102	0xbdb12db2	-0.08651294
103	0x3d192a19	0.037393663
104	0xbda3c827	-0.079971604
105	0x3e016679	0.12636746
106	0x3e3bf627	0.18355618
107	0x3dc65135	0.09683458
108	0xbdadbca5	-0.08483247
109	0xbdcfab42	-0.10140087
110	0xbda7297d	-0.0816221
111	0xbd9e0778	-0.07716268
112	0xbda8fd70	-0.08251464
113	0xbdaf5eed	-0.085630275
114	0xbda54551	-0.08069862
115	0x3dea1f8c	0.11431798
116	0x3e1c4e73	0.15264301
117	0xbd9c6c75	-0.07637874
118	0xbdbf8ffc	-0.09353635
119	0xbd06dee5	-0.032927413
120	0x3e0ab140	0.13544178
121	0xbdd6e84a	-0.104935244
122	0x3e32b08a	0.17450157
123	0xbdf04f7b	-0.1173391
124	0xbd5b1a04	-0.053491607
125	0x3e0dd878	0.13852108
126	0xbcc14e29	-0.02359684
127	0xbc8ed100	-0.017433643
128	0x3d8589a6	0.06520395
129	0xbe4843cb	-0.19557111
130	0x3d22d702	0.03975583
131	0x3d38c1d0	0.04510671
132	0xbedd6033	-0.43237457
133	0x3d855ecf	0.06512224
134	0xbddc5c4f	-0.10759794
135	0xbe2db2b2	-0.16962698
136	0xbdb0e2bf	-0.086369984
137	0x3d81ac34	0.06331673
138	0x3d8a51be	0.06753872
139	0xbdb049c1	-0.086078174
140	0x3c53091e	0.012880592
141	0xbe494fec	-0.19659394
142	0xbe41991a	-0.1890606
143	0x3d29581f	0.041343804
144	0x3c8f1a56	0.017468613
145	0xbb5b5d60	-0.0033472404
146	0xbdc16636	-0.09443323
147	0xbe1d9594	-0.15389091
148	0x3c318285	0.010834341
149	0xbd05e988	-0.032693416
150	0xbd8bef08	-0.06832701
151	0x3d7f3e80	0.062315464
152	0xbecc9ebb	-0.39964852
153	0xbd5398c7	-0.05165937
154	0xbe29d351	-0.16584517
155	0x3d7a2e92	0.06107957
156	0x3ced5f30	0.028976053
157	0x3c926ce1	0.017874183
158	0xbdc6e278	-0.09711164
159	0x3c39557a	0.011311883
160	0x3d26cbf1	0.040721837
161	0xbe81d688	-0.25358987
162	0xbe85ec4d	-0.26156846
163	0xbee8d849	-0.45477512
164	0xbe17a2e5	-0.14808233
165	0xbe13a2d5	-0.14417584
166	0x3d31788f	0.043327864
167	0xbd7e5536	-0.062092982
168	0x3c9d0d4d	0.019171381
169	0xba1b41a7	-0.0005922564
170	0xbdb03e00	-0.086055756
171	0xbd952b4a	-0.07283647
172	0x3d253ecf	0.040343102
173	0x3c2cfbb5	0.0105580585
174	0x3d1fb3df	0.038989898
175	0x3c5df83a	0.013547951
176	0x3d33fc19	0.04394159
177	0x3d0e6ec4	0.034773603
178	0x3d4127f0	0.047157228
179	0xbafc668f	-0.0019256639
180	0xbc346cae	-0.011012239
181	0x3d7bdccb	0.06148986
182	0x3d81e702	0.06342889
183	0xbe14ae53	-0.14519624
184	0xbcf56df5	-0.029959658
185	0xbe602bd4	-0.21891719
186	0xbda51a96	-0.080617115
187	0x3c38c7fa	0.011278147
188	0xbe3cf39f	-0.18452309
189	0xbc04db44	-0.008108918
190	0xbdeb562b	-0.114910446
191	0xbe1c78eb	-0.15280502
192	0x3e2c5595	0.16829522
193	0xbe2c3f7b	-0.16821091
194	0x3e1643e6	0.14674339
195	0x3e1d72f9	0.1537589
196	0xbe4b1739	-0.19833077
197	0x3e310546	0.17287168
198	0xbe017a55	-0.12644322
199	0xbe3e619a	-0.1859192
200	0xbdc16ed8	-0.0944497
201	0x3e31ce17	0.17363773
202	0x3e2d33ad	0.16914244
203	0xbe084ac0	-0.13309765
204	0x3de1d4aa	0.110268906
205	0xbe3b91ee	-0.18317387
206	0xbe3f8f05	-0.18706901
207	0x3e192e30	0.14959025
208	0x3df82546	0.12116484
209	0x3d87b675	0.06626598
210	0xbd439f48	-0.047759324
211	0xbe3def2c	-0.18548268
212	0x3df0cf80	0.117583275
213	0xbb9a8909	-0.004716043
214	0xbe07127b	-0.13190643
215	0x3e2f1e8f	0.17101501
216	0xbe47d995	-0.19516595
217	0xbd9dd27a	-0.07706161
218	0xbe251883	-0.16122632
219	0x3e2d4a63	0.16922908
220	0x3e00f8e3	0.12594943
221	0x3df7c601	0.12098313
222	0xbdd5fb0b	-0.10448273
223	0x3ddefee8	0.10888463
224	0x3e187f0e	0.14892218
225	0xbe453a54	-0.19260532
226	0xbe5c8006	-0.21533212
227	0xbe526301	-0.2054558
228	0xbe331ebe	-0.17492196
229	0xbe34c491	-0.17653109
230	0x3e1b80ad	0.15185805
231	0xbd5ef02a	-0.054428257
232	0x3df42bba	0.11922403
233	0xbd84db80	-0.06487179
234	0xbd26895a	-0.040658332
235	0xbd9a2237	-0.07526057
236	0x3e17c54a	0.14821354
237	0x3dead49f	0.114663355
238	0x3e195580	0.14974022
239	0x3dd7dfd6	0.1054074
240	0x3e1b8e63	0.15191035
241	0x3e0ffe53	0.1406186
242	0x3e1fec9c	0.15617603
243	0xbc1fcb69	-0.009753087
244	0xbd77aca7	-0.06046739
245	0x3e3231b7	0.17401777
246	0x3e2a4dd4	0.16631252
247	0xbe3e6d3e	-0.1859636
248	0xbc4e93c6	-0.012608474
249	0xbe47309d	-0.19452138
250	0xbd62b15e	-0.05534493
251	0x3e003439	0.12519921
252	0xbe4a76f1	-0.19771935
253	0x3c82973c	0.015941255
254	0xbe4eaced	-0.20183153
255	0xbe34543e	-0.17610261

bias f4 [32]
0	0xbd6f0f0e	-0.058363967
1	0xbe1f373f	-0.15548418
2	0x3d87f2bf	0.06638097
3	0x3d98f086	0.07467751
4	0x3ce0e993	0.027455127
5	0xbd0088d8	-0.031380504
6	0x3d8388ef	0.064226024
7	0xbc432fe0	-0.01191327
8	0x3cc42e66	0.023947906
9	0xbd1b08a1	-0.037850026
10	0xbdb3ecdc	-0.08785412
11	0x3d101245	0.035173673
12	0xbb1379dd	-0.0022503056
13	0x3d7b2867	0.061317828
14	0x3e5288a3	0.20559935
15	0xbe175d23	-0.14781623
16	0xbe054220	-0.13013506
17	0xbcf89933	-0.030346489
18	0xbd09130f	-0.03346544
19	0xbbdb6fce	-0.0066966778
20	0x3d642570	0.055699766
21	0xbe1b2727	-0.15151654
22	0xbe07394b	-0.1320545
23	0x3d9a8a94	0.07545963
24	0xbc992e03	-0.018698698
25	0x3d67ab7a	0.056560017
26	0x3e27d850	0.1639111
27	0x3e38af01	0.18035509
28	0xbe3a0622	-0.18166402
29	0xbe599733	-0.21249084
30	0xbe1fa487	-0.15590106
31	0xbd356c1b	-0.04429255

weight f4 [32, 1]
0	0x3ec6e870	0.3884921
1	0xbcca61a7	-0.024704767
2	0xbcb90290	-0.02258423
3	0x3e8c2a0f	0.27375838
4	0xbecb1431	-0.39663842
5	0x3ec7d2bd	0.39027968
6	0xbed3f5c9	-0.41398457
7	0x3ec9f9ad	0.394483
8	0xbec581a2	-0.38575464
9	0xbed2e66f	-0.41191432
10	0x3e03bfea	0.12866178
11	0xbf231459	-0.63702923
12	0xbe2675a4	-0.16255814
13	0xbec6e820	-0.38848972
14	0x3e8c1d30	0.27366018
15	0x3e7329fa	0.23746482
16	0xbed1d1fa	-0.40980512
17	0xbecc9af6	-0.39961976
18	0xbf256bb1	-0.6461745
19	0x3eaaad0c	0.3333515
20	0xbec69b06	-0.38790148
21	0x3e88e5ec	0.26737916
22	0x3ebc1148	0.36731935
23	0x3ebeeb89	0.37289074
24	0x3e88db5e	0.26729864
25	0x3e8c78a5	0.27435794
26	0xbeca7c75	-0.39548078
27	0xbecbf097	-0.39831993
28	0x3e86e86b	0.26349196
29	0x3e883a02	0.26606756
30	0xbecb96fa	-0.39763623
31	0x3ea6826c	0.3252138

bias f4 [32]
0	0xbf130145	-0.5742381
1	0xbb32c006	-0.00272751
2	0xbca65568	-0.020304397
3	0xbea5b9b5	-0.32368246
4	0x3f02a5f5	0.5103448
5	0xbf1532cc	-0.58280635
6	0x3ebb5a34	0.36592257
7	0xbf278ac3	-0.6544611
8	0x3ed5d21f	0.41761872
9	0x3f324541	0.69636923
10	0xbe245872	-0.16049364
11	0x3e96dc4b	0.29464945
12	0x3b557779	0.0032572432
13	0x3ecf435d	0.40481082
14	0xbd92f60c	-0.07175836
15	0xbddfb4dc	-0.10923168
16	0x3f25623d	0.64603025
17	0x3f0d5ae3	0.5521681
18	0x3e9a07e7	0.30084154
19	0xbebfb7f6	-0.3744504
20	0x3ecf033d	0.40432158
21	0xbea40d20	-0.32041264
22	0xbec87a45	-0.39155784
23	0xbedda393	-0.4328886
24	0xbd8f871c	-0.07008192
25	0xbe9c1e44	-0.3049184
26	0x3ef478df	0.47748467
27	0x3eff8b91	0.49911168
28	0xbe976ab8	-0.29573607
29	0xbe9042a2	-0.28175837
30	0x3f04bc90	0.51850224
31	0xbec32057	-0.3811061

weight f4 [64, 32]
0	0x3dd4d3a2	0.10391928
1	0xbc2f5928	-0.010702409
2	0xbc01db20	-0.007925779
3	0x3ddff3d2	0.10935177
4	0xbdecb33c	-0.11557624
5	0x3dd542fa	0.104131654
6	0xbe64dbd5	-0.22349484
7	0x3dcd6af8	0.10030168
8	0xbdf29eba	-0.11846681
9	0xbdd3f5e4	-0.10349634
10	0x3da3e75e	0.08003114
11	0xbf60f6db	-0.8787667
12	0xbd7ab981	-0.061212067
13	0xbdf3b4a5	-0.118996896
14	0x3e56f5bc	0.20992178
15	0x3ce5c07f	0.02804589
16	0xbddae557	-0.10688274
17	0xbde52375	-0.111884035
18	0xbf633be6	-0.8876327
19	0x3de600d7	0.11230629
20	0xbdf33003	-0.11874392
21	0x3e0a267e	0.13491246
22	0x3ddb60c9	0.1071182
23	0x3ddf3cab	0.10900243
24	0x3e55b862	0.20871118
25	0x3e01d962	0.12680581
26	0xbdf359d1	-0.118823655
27	0xbdf0f4ff	-0.11765479
28	0x3e03f61e	0.12886855
29	0x3de9fc3a	0.114250615
30	0xbdeb83ac	-0.11499724
31	0x3dccc3f5	0.09998313
32	0x3cc16200	0.0236063
33	0x3ba4c71c	0.0050286185
34	0x3c15691a	0.009119296
35	0x3cc17204	0.023613937
36	0xbcaf1d5f	-0.02137631
37	0x3cc22f12	0.023704085
38	0xbddd3feb	-0.10803207
39	0x3cc419f0	0.02393815
40	0xbc8245fc	-0.015902512
41	0xbcc13c53	-0.023588335
42	0x3c85b141	0.016319873
43	0xbfa177ae	-1.2614648
44	0x3bc7dcc3	0.006099315
45	0xbc56ea9a	-0.013117457
46	0xbd0d04ad	-0.034428287
47	0xbd40f597	-0.047109213
48	0xbcc048f4	-0.023472287
49	0xbcb8a4ae	-0.022539463
50	0xbfa15414	-1.2603784
51	0x3c1a66ba	0.009423906
52	0xbc59b183	-0.013286951
53	0x3ca91396	0.020639222
54	0x3c900eee	0.017585244
55	0x3ca77e6a	0.020446021
56	0xbd0dc7e6	-0.034614466
57	0x3c9d08a0	0.019169152
58	0xbca27776	-0.019832354
59	0xbcaa7a12	-0.02081016
60	0x3cad814f	0.021179823
61	0x3c8ce607	0.01719953
62	0xbcb1477a	-0.021640528
63	0x3c4aea18	0.012384914
64	0x3cf70eda	0.030158449
65	0xbcb95238	-0.022622213
66	0xbb2336bb	-0.0024904448
67	0x3d2ecbfa	0.042674996
68	0xbcf12b48	-0.029439583
69	0x3cf7dacc	0.030255698
70	0xbdd5995b	-0.10429641
71	0x3cee403e	0.029083367
72	0xbccf56b9	-0.025309907
73	0xbce3a5ca	-0.027789015
74	0xbba78d1e	-0.005113258
75	0xbf7df04a	-0.99194777
76	0xbdb5463c	-0.08851287
77	0xbcc53496	-0.024072926
78	0x3e634b62	0.22196725
79	0x3d284542	0.041081674
80	0xbced7af4	-0.028989293
81	0xbcf0c8f6	-0.0293927
82	0xbf802a27	-1.0012864
83	0x3c8b92d8	0.017037794
84	0xbcc4ddb4	-0.024031498
85	0x3d1921de	0.037385814
86	0x3ccf9934	0.025341608
87	0x3ce75152	0.028237019
88	0x3e5cf83d	0.2157907
89	0x3d02ff43	0.031981718
90	0xbcef0006	-0.029174816
91	0xbcf3899b	-0.029728701
92	0x3d10f899	0.03539333
93	0x3cdeb50b	0.027185937
94	0xbcf134ac	-0.029444061
95	0x3c9bd053	0.019020235
96	0x3dbf4333	0.09338989
97	0xbceba9e7	-0.02876754
98	0xbbfb53c4	-0.0076698978
99	0x3e0aeb2f	0.13566278
100	0xbde0edd7	-0.10982864
101	0x3dbef2eb	0.09323677
102	0xbe59b876	-0.21261773
103	0x3db53df9	0.08849711
104	0xbdf13f6b	-0.11779674
105	0xbdbf9f91	-0.09356607
106	0x3d9a9f5a	0.07549925
107	0xbf6834c9	-0.90705544
108	0xbd990b88	-0.074729025
109	0xbdf65921	-0.12028719
110	0x3e835ca9	0.25656632
111	0x3d5d21b6	0.053987227
112	0xbdc86388	-0.09784609
113	0xbdd6dd28	-0.10491401
114	0xbf6a1c5e	-0.91449535
115	0x3de81574	0.11332217
116	0xbdf5b1bb	-0.1199679
117	0x3e0653bd	0.13117881
118	0x3dd057ce	0.101729974
119	0x3dd0282d	0.10163913
120	0x3e82929e	0.25502485
121	0x3dfdd52c	0.12394175
122	0xbdead302	-0.11466028
123	0xbde694b2	-0.1125883
124	0x3e003103	0.12518696
125	0x3de62548	0.112375796
126	0xbddf1b92	-0.108939305
127	0x3dcb2afb	0.09920307
128	0x3dea24d1	0.114328034
129	0x3c8332c5	0.01601542
130	0x3cb68e58	0.022284672
131	0x3e0d8055	0.13818486
132	0xbdf7fcdf	-0.12108778
133	0x3deaf522	0.114725366
134	0xbe4f5a55	-0.20249303
135	0x3de6ad3d	0.11263511
136	0xbdf47519	-0.11936397
137	0xbdebdf46	-0.115171954
138	0x3d85a881	0.0652628
139	0xbf3d8b13	-0.74040335
140	0xbda2497a	-0.07924171
141	0xbdf62274	-0.1201829
142	0x3e6aac8f	0.22917388
143	0xbcc8df08	-0.024520412
144	0xbdf0651b	-0.11738034
145	0xbdf4ee68	-0.11959535
146	0xbf4097f2	-0.7523185
147	0x3de9f56c	0.11423764
148	0xbdf52b11	-0.11971105
149	0x3e095572	0.13411501
150	0x3de141d6	0.10998885
151	0x3de82b6a	0.113364056
152	0x3e63820d	0.22217579
153	0x3e0056b2	0.12533072
154	0xbdfac1c5	-0.1224399
155	0xbdfab23a	-0.12241025
156	0x3e031cc2	0.12803939
157	0x3ded2c28	0.11580688
158	0xbdf79e8e	-0.12090789
159	0x3ddac105	0.10681347
160	0x3cb9d800	0.022686005
161	0xbc892bd3	-0.01674453
162	0xbc3b7f29	-0.011443892
163	0x3cf017b4	0.029308178
164	0xbcbe459d	-0.023226554
165	0x3cba570c	0.022746585
166	0xbdf268bc	-0.11836383
167	0x3cb22d9c	0.021750264
168	0xbc96b214	-0.018395461
169	0xbcae3481	-0.02126527
170	0xbb39386d	-0.0028262392
171	0xbf9b0add	-1.211269
172	0xbdb6589e	-0.08903621
173	0xbc84f4b5	-0.016229967
174	0x3e417197	0.18890987
175	0xbc04bc8a	-0.008101592
176	0xbcb83d83	-0.022490269
177	0xbcbe0de8	-0.02319999
178	0xbf9c89d7	-1.2229565
179	0x3be8889d	0.0070963637
180	0xbc844413	-0.016145742
181	0x3cb500dc	0.022095136
182	0x3c93961d	0.018015916
183	0x3cadefb8	0.02123247
184	0x3e390d6d	0.18071528
185	0x3c8f4472	0.017488692
186	0xbcb8c1b9	-0.022553312
187	0xbcbe1bfa	-0.0232067
188	0x3cafea57	0.021474047
189	0x3c7d4055	0.0154572325
190	0xbcbe0fec	-0.023200952
191	0x3c22a9a1	0.009928138
192	0x3d23f01c	0.040023908
193	0x3dd11f54	0.102110535
194	0x3dbcca44	0.092182666
195	0x3c82dd2d	0.015974605
196	0xbce3d1d3	-0.027810013
197	0x3d257371	0.040393297
198	0xbd54afa4	-0.051925316
199	0x3d399b80	0.045314312
200	0xbc17c815	-0.009264012
201	0xbd374d2f	-0.044751342
202	0x3c9b4eb5	0.018958429
203	0xbf71a266	-0.94388425
204	0x3e2cd401	0.16877748
205	0xbb0ee37d	-0.0021803074
206	0xbe7a6d1b	-0.24455683
207	0xbdb3149b	-0.087441646
208	0xbd2903df	-0.041263457
209	0xbd09710e	-0.033555083
210	0xbf727bc0	-0.9472008
211	0x3a9c9520	0.0011946298
212	0xbb284b2b	-0.002567957
213	0x3c8774a4	0.01653511
214	0x3c779c34	0.015112925
215	0x3cc1fa4d	0.023678923
216	0xbe766404	-0.2406159
217	0x3c5b0f18	0.013370298
218	0xbcaea773	-0.02132008
219	0xbcca884b	-0.024723193
220	0x3c928fbf	0.01789081
221	0x3c265c08	0.010153778
222	0xbcecbb96	-0.028898042
223	0x3b96c8db	0.0046015806
224	0x3d57482f	0.052559074
225	0x3dce676c	0.1007832
226	0x3d9d599e	0.07683109
227	0x3d0fcffd	0.035110462
228	0xbd304bf5	-0.04304119
229	0x3d5840f1	0.052796308
230	0xbdb14e2e	-0.0865749
231	0x3d670f62	0.056411155
232	0xbceb9b61	-0.028760614
233	0xbd64bdaf	-0.05584496
234	0x3d14387a	0.036186673
235	0xbf7912aa	-0.97294104
236	0x3e29c1d7	0.1657785
237	0xbcbb0f8d	-0.022834564
238	0xbe53db67	-0.20689164
239	0xbdc67aea	-0.09691413
240	0xbd598a43	-0.053110372
241	0xbd430e74	-0.047621205
242	0xbf796836	-0.9742464
243	0x3cb11e7b	0.02162098
244	0xbcbde47a	-0.023180235
245	0x3d04f7d8	0.032462925
246	0x3d0a428a	0.033754863
247	0x3d255bbd	0.04037069
248	0xbe4f24aa	-0.2022883
249	0x3cf771db	0.030205658
250	0xbd1b64fe	-0.03793811
251	0xbd26979f	-0.04067194
252	0x3d0dbf2c	0.034606144
253	0x3cf4666c	0.029833995
254	0xbd340fd5	-0.04396041
255	0x3ccf8a99	0.025334643

bias f4 [64]
0	0xbc396cdb	-0.011317457
1	0x3af465ff	0.001864612
2	0xbdbd23dc	-0.09235355
3	0xbd6fe9f8	-0.05857274
4	0xbc893e12	-0.01675323
5	0xbde20545	-0.11036161
6	0x3dd19c23	0.10234859
7	0x3d794c36	0.060863696
8	0xbd82cb90	-0.06386483
9	0xbdfee762	-0.124464765
10	0x3c541cfb	0.012946363
11	0xbe170198	-0.14746702
12	0x3d1b54e5	0.03792276
13	0x3c4a0941	0.012331308
14	0x3cfdaf15	0.030967275
15	0xbcb9e19a	-0.022690583
16	0xbe0f7e01	-0.1401291
17	0xbe1973b7	-0.14985548
18	0xbc73c040	-0.014877379
19	0x3d867e59	0.06567068
20	0xbd66cb64	-0.056346312
21	0xbd852549	-0.06501252
22	0xbd8be3c4	-0.06830552
23	0xbd57102a	-0.05250565
24	0xbdf285da	-0.118419364
25	0xbdfdbf7d	-0.12390039
26	0xbd07d87c	-0.03316544
27	0xbdccccec	-0.10000023
28	0xbdea6257	-0.11444538
29	0xbe238dd2	-0.15972069
30	0xbdc9d741	-0.098555095
31	0xbd27c73f	-0.0409615
32	0xbe2e909d	-0.17047353
33	0xbd21337e	-0.039355747
34	0xbd137bff	-0.036006924
35	0x3b92292d	0.004460475
36	0xbc22dbb5	-0.009940078
37	0xbd23233d	-0.039828528
38	0xbe157422	-0.14595082
39	0xbdd1557e	-0.102213845
40	0x3991412b	0.0002770511
41	0xbaa8a062	-0.0012865181
42	0xbe09a629	-0.13442291
43	0xbdac4d90	-0.084132314
44	0xbb1e0b04	-0.0024115453
45	0xbe005f52	-0.12536362
46	0xbbce283f	-0.006291419
47	0x3d8eb077	0.06967252
48	0xbdeb5305	-0.11490444
49	0xbe131aa4	-0.14365631
50	0xbdfcdaf2	-0.12346448
51	0xbb3cdc88	-0.002881797
52	0x3da53aaf	0.08067834
53	0xbd168be2	-0.036754496
54	0xbdb4d366	-0.088293836
55	0xbdce6e3a	-0.10079618
56	0xbd8dbe27	-0.06921034
57	0xbe009a43	-0.12558846
58	0x3c0bf817	0.008543036
59	0x3d830538	0.0639748
60	0x3d8e7b6d	0.06957135
61	0xbe1f4d7b	-0.155569
62	0xbb88a139	-0.00416961
63	0xbdd55bf8	-0.10417932
