checkpoints/bikeshare_honam2_emb32_4.pt (torch, 264998 bytes, 146 tensors)

weight f4 [32, 1]
-0.5615581 0.43723324 -0.29302484 -0.46252838 -0.5657703 0.3678118 0.09062863 0.6206153
0.6064506 0.2865237 -0.19785665 -0.40546927 -0.5552742 -0.06275149 0.490407 -0.5257721
-0.5877019 -0.31602308 -0.41234472 0.4092131 0.46310574 0.31975082 0.33234543 0.5966388
0.5210406 -0.22550307 0.6440322 0.3726324 -0.307593 0.448776 0.3222478 0.39955878
00000000: 46c2 0fbf 09dd df3e 5a07 96be 85d0 ecbe
00000010: 53d6 10bf d451 bc3e 819b b93d a5e0 1e3f
00000020: 5940 1b3f 3cb3 923e ef9a 4abe ab99 cfbe
00000030: 7326 0ebf da83 80bd a016 fb3e 0099 06bf
00000040: a273 16bf c7cd a1be d91e d3be 6184 d13e
00000050: 321c ed3e 61b6 a33e 2e29 aa3e 52bd 183f
00000060: eb62 053f 47ea 66be 4bdf 243f adc9 be3e
00000070: d47c 9dbe f8c5 e53e aafd a43e f892 cc3e

bias f4 [32]
-0.16917156 0.332455 0.67631966 -0.2950825 -0.16219331 0.3845149 0.43142894 0.063042626
0.09841716 0.420351 0.5415617 -0.34516385 -0.1782183 0.457724 0.27654827 -0.22266434
-0.1227396 0.769746 -0.3410964 0.35429335 0.3076482 -0.7687021 -0.8358267 0.117598325
0.23928447 0.56866693 -0.013652293 0.37989128 -0.3973452 0.3193106 -0.7780488 0.35898945
00000000: 4f3b 2dbe 8b37 aa3e 4923 2d3f 0e15 97be
00000010: 0116 26be 23df c43e 41e4 dc3e 7e1c 813d
00000020: f08e c93d 3f38 d73e caa3 0a3f 51b9 b0be
00000030: dc7e 36be cd5a ea3e bc97 8d3e 1f02 64be
00000040: e65e fbbd 130e 453f 30a4 aebe f065 b53e
00000050: 1184 9d3e a9c9 44bf bdf8 55bf 64d7 f03d
00000060: fd06 753e 2894 113f dead 5fbc 1c81 c23e
00000070: d470 cbbe ae7c a33e 352e 47bf 77cd b73e

weight f4 [64, 32]
0.17683826 -0.110814035 0.08496818 0.11949818 0.1805744 -0.089193866 -0.02835596 -0.2584225
-0.23179781 -0.069686845 0.05790938 0.09965394 0.17191462 0.013670148 -0.13314822 0.15052709
0.20326565 0.0874716 0.10148087 -0.101578966 -0.120650016 -0.08553885 -0.08671107 -0.21798518
-0.14992373 0.06663089 -0.3674137 -0.09076929 0.074623846 -0.115315855 -0.08593007 -0.09888472
0.17205615 -0.11579229 0.0007034582 0.11929466 0.1757433 -0.09776466 -0.05627233 -0.26079494
-0.23287843 -0.0827679 -0.013861642 0.10218103 0.16747186 -0.034362637 -0.13606793 0.1474397
0.1973498 0.0053462214 0.10385365 -0.107769504 -0.12463586 -0.009133979 -0.013120091 -0.21899827
-0.15161723 -0.009650108 -0.40167 -0.09894272 0.0824952 -0.11998503 -0.009898548 -0.10555818
0.24700499 -0.15101664 0.081390455 0.16339768 0.25263175 -0.12117708 -0.044230703 -0.36879107
-0.3284303 -0.09489805 0.05078843 0.13514645 0.23978633 0.0035172023 -0.18330185 0.20838277
0.2863844 0.088184945 0.13771531 -0.13825874 -0.16520368 -0.089543246 -0.0944719 -0.30801964
-0.20738019 0.059938714 -0.5547163 -0.12330993 0.100838535 -0.15767115 -0.0905714 -0.13452528
0.10167099 -0.05017855 0.07811837 0.05911816 0.104290634 -0.034418944 0.0077389036 -0.15605393
-0.13831921 -0.020618083 0.06118783 0.044636574 0.09810769 0.03496371 -0.06678367 0.08215224
0.120987035 0.08108396 0.0459616 -0.043594953 -0.057496965 -0.07684192 -0.07892052 -0.12901591
-0.07906926 0.06634176 -0.21899123 -0.035757303 0.026814172 -0.053768963 -0.077365965 -0.04172737
0.14225987 -0.08653254 0.04307386 0.09520501 0.14542635 -0.0706924 -0.029635891 -0.21817096
-0.18991591 -0.056779534 0.024787184 0.08006297 0.13787395 -0.0029521594 -0.10371528 0.119795926
0.16614352 0.045942236 0.08152918 -0.079728335 -0.09400025 -0.04369104 -0.04527626 -0.17663293
-0.11690122 0.030562209 -0.3537006 -0.07174331 0.061952695 -0.09002527 -0.044058267 -0.07772663
0.22493999 -0.07221491 0.17192446 0.095254324 0.23441328 -0.03490613 0.051532697 -0.4251396
-0.3471114 -0.0038996926 0.14246173 0.05709423 0.21242583 0.09848583 -0.11510842 0.16173933
0.29544243 0.17905393 0.060776476 -0.05589665 -0.09069177 -0.18127884 -0.18627194 -0.31016085
-0.14913192 0.15118045 -0.8064985 -0.03736671 0.014088443 -0.08087291 -0.18237045 -0.05128803
0.19857828 -0.11757361 0.0867995 0.13013138 0.20298527 -0.09280211 -0.026443793 -0.2889457
-0.26049775 -0.070888944 0.06050407 0.1070245 0.19260691 0.017128311 -0.14389652 0.1669545
0.22978395 0.09038338 0.10918406 -0.10694371 -0.12916479 -0.086867936 -0.08929501 -0.24495004
-0.16365421 0.06880194 -0.4045836 -0.09465996 0.07879701 -0.122994855 -0.08751375 -0.10410113
-0.18724892 0.12922221 0.051526137 -0.13726582 -0.19073404 0.114239655 0.08395068 0.2616842
0.23525122 0.10262074 0.060316406 -0.12225413 -0.18252398 0.07121933 0.14648065 -0.16341393
-0.2124116 0.04715928 -0.12367403 0.1224856 0.1367018 -0.046420112 -0.042299766 0.22183561
0.16036819 0.05797214 0.40191132 0.11526084 -0.10566835 0.13254279 -0.045773227 0.12049178
00000000: 1715 353e 78f2 e2bd cc03 ae3d 76bb f43d
00000010: 7fe8 383e 46ab b6bd c24a e8bc f44f 84be
00000020: 685c 6dbe fab7 8ebd 6332 6d3d 5d17 cc3d
00000030: 630a 303e c2f8 5f3c 0258 08be c623 1a3e
00000040: df24 503e 4f24 b33d 34d5 cf3d a208 d0bd
00000050: 5b17 f7bd fe2e afbd 9395 b1bd 8237 5fbe
00000060: 9b85 19be c775 883d a61d bcbe 40e5 b9bd
00000070: 63d4 983d b82a ecbd 1bfc afbd 1284 cabd
00000080: 7d2f 303e 8224 edbd 4868 383a c250 f43d
00000090: 0df6 333e d738 c8bd d17d 66bd ea86 85be
000000a0: af77 6ebe 3782 a9bd f11b 63bc 4a44 d13d
000000b0: be7d 2b3e d6bf 0cbd 6455 0bbe 6ffa 163e
000000c0: 1116 4a3e 5b2f af3b 39b1 d43d 42b6 dcbd
000000d0: 1641 ffbd afa6 15bc a6f5 56bc 1541 60be
000000e0: 8c41 1bbe 7d1b 1ebc b1a7 cdbe 7ba2 cabd
000000f0: 3ef3 a83d b6ba f5bd 852d 22bc e32e d8bd
00000100: e0ee 7c3e 1ba4 1abe 0ab0 a63d b951 273e
00000110: f358 813e b02b f8bd 412b 35bd 2fd2 bcbe
00000120: 0428 a8be e959 c2bd 8707 503d d563 0a3e
00000130: 8c8a 753e dd80 663b 7bb3 3bbe 4b62 553e
00000140: faa0 923e 4f9a b43d 3e05 0d3e b393 0dbe
00000150: 272b 29be 7362 b7bd 7c7a c1bd c0b4 9dbe
00000160: 795b 54be 4c82 753d e301 0ebf eb89 fcbd
00000170: 6f84 ce3d 8c74 21be 807d b9bd ffc0 09be
00000180: e138 d03d 0688 4dbd 86fc 9f3d e225 723d
00000190: 5496 d53d e1fa 0cbd a196 fd3b 9acc 1fbe
000001a0: 8da3 0dbe 41e7 a8bc 17a0 7a3d d7d4 363d
000001b0: afec c83d 1b36 0f3d e0c5 88bd 6f3f a83d
000001c0: 0dc8 f73d 590f a63d 3b42 3c3d 9f90 32bd
000001d0: f081 6bbd 4c5f 9dbd 15a1 a1bd bf1c 04be
000001e0: 10ef a1bd 30de 873d 3d3f 60be 4076 12bd
000001f0: 65a9 db3c d83c 5cbd 0c72 9ebd 52ea 2abd
00000200: 92ac 113e f937 b1bd 376e 303d d8fa c23d
00000210: a5ea 143e 2dc7 90bd f8c6 f2bc 3568 5fbe
00000220: 5179 42be a891 68bd 7e0e cb3c 0ef8 a33d
00000230: d42e 0d3e 0479 41bb ad68 d4bd 9157 f53d
00000240: 8721 2a3e ed2d 3c3d c5f8 a63d 9c48 a3bd
00000250: 3483 c0bd 60f5 32bd 9973 39bd 43df 34be
00000260: e869 efbd 995d fa3c 3f18 b5be 28ee 92bd
00000270: 1cc2 7d3d 2b5f b8bd 7176 34bd 242f 9fbd
00000280: ab56 663e 69e5 93bd f70c 303e b314 c33d
00000290: 090a 703e bbf9 0ebd f313 533d e6ab d9be
000002a0: 96b8 b1be fc91 7fbb 7de1 113e a4db 693d
000002b0: 2886 593e f0b2 c93d f7bd ebbd ff9e 253e
000002c0: 3b44 973e ea59 373e c1f0 783d e3f3 64bd
000002d0: 9bbc b9bd 29a1 39be 12be 3ebe 67cd 9ebe
000002e0: 0ab6 18be 0ccf 1a3e b076 4ebf d60d 19bd
000002f0: 36d3 663c b2a0 a5bd 52bf 3abe 6613 52bd
00000300: 1b58 4b3e 6fca f0bd f0c3 b13d 2941 053e
00000310: 5fdb 4f3e 080f bebd a7a0 d8bc b1f0 93be
00000320: f65f 85be 392e 91bd 1ed3 773d a92f db3d
00000330: bf3a 453e ac50 8c3c 9c59 13be 1ff6 2a3e
00000340: 7c4c 6b3e ec1a b93d e49b df3d 4e05 dbbd
00000350: c643 04be d1e7 b1bd 4de0 b6bd 2fd4 7abe
00000360: f894 27be 08e8 8c3d 9525 cfbe 15dd c1bd
00000370: 5460 a13d bae4 fbbd 693a b3bd f932 d5bd
00000380: 2ebe 3fbe d452 043e 120d 533d 698f 0cbe
00000390: c94f 43be 7bf6 e93d 56ee ab3d 79fb 853e
000003a0: b2e5 703e d32a d23d 560e 773d 6060 fabd
000003b0: 91e7 3abe 71db 913d 06ff 153e fb55 27be
000003c0: 6d82 59be 172a 413d cf48 fdbd bbd9 fa3d
000003d0: 8ffb 0b3e 0423 3ebd 8542 2dbd e028 633e
000003e0: 8f37 243e 3274 6d3d 52c7 cd3e e00d ec3d
000003f0: a668 d8bd 4cb9 073e b57c 3bbd 65c4 f63d

bias f4 [64]
0.17178652 0.03421235 0.071070455 -0.048227005 0.11075906 0.35160205 0.087447286 -0.16433245
-0.07996837 0.023284977 -0.10075242 0.0963164 0.12497494 0.16301724 0.09148275 -0.10312027
-0.0015803109 0.1525012 0.024318196 0.024316685 0.08773604 -0.000110220055 0.1275782 0.063311875
-0.026642764 0.053909104 -0.0019559357 0.27230877 0.047029722 0.033337012 0.12891139 0.11132416
0.1373508 -0.0077661923 0.035804108 0.02348052 -0.001604722 0.28584468 0.045218084 0.116756566
0.30350932 0.13545617 0.04941373 0.071555495 0.12636383 0.25878102 0.127875 -0.06811527
0.027366592 0.07582905 0.11558817 0.052720446 -0.18749781 0.026308404 -0.121336095 -0.08173863
0.06521439 0.12519705 0.30468827 0.29335412 0.09899024 -0.0286115 0.012942139 0.29695824
00000000: cee8 2f3e 4022 0c3d 638d 913d ae89 45bd
00000010: a5d5 e23d 2f05 b43e 9017 b33d c446 28be
00000020: 75c6 a3bd 23c0 be3c 4957 cebd 8841 c53d
00000030: ddf2 ff3d feed 263e 4f5b bb3d b830 d3bd
00000040: 6f22 cfba 4629 1c3e f436 c73c c933 c73c
00000050: f4ae b33d f125 e7b8 dca3 023e a8a9 813d
00000060: ed41 dabc cbcf 5c3d 282f 00bb 0e6c 8b3e
00000070: 3da2 403d 648c 083d 5901 043e ecfd e33d
00000080: b0a5 0c3e 8b7b febb 54a7 123d 385a c03c
00000090: 8955 d2ba 3c5a 923e 9936 393d 111e ef3d
000000a0: 9365 9b3e 06b5 0a3e 0d66 4a3d b08b 923d
000000b0: 8565 013e f27e 843e aaf1 023e 0580 8bbd
000000c0: e72f e03c 434c 9b3d 7eb9 ec3d 65f1 573d
000000d0: 6dff 3fbe b984 d73c 0f7f f8bd 9566 a7bd
000000e0: 1f8f 853d a833 003e 1a00 9c3e 8332 963e
000000f0: 65bb ca3d aa62 eabc 440b 543c e90a 983e

weight f4 [32, 64]
0.25339895 0.23435353 0.34840956 0.13990171 0.19717798 0.17127495 0.27635542 -0.30048463
0.13364518 0.12869218 0.050930053 0.14946714 0.18857022 0.2131657 0.22602166 0.090234786
0.0902746 0.22202034 0.21293761 0.34115046 0.28359732 0.20642515 0.27062824 0.27899477
0.13410299 0.24879046 0.17081174 0.12185072 0.08638319 0.24018304 0.23659495 0.3348099
0.18053362 0.20616409 0.1571775 0.23061123 0.22041278 0.11413522 0.2923989 0.19170463
0.11642438 0.22114022 0.10056533 0.33166248 0.18172082 0.10232999 0.25402793 0.13958204
0.3026167 0.1178867 0.1697488 0.25021863 0.0038211704 0.21475291 0.019363504 0.103241876
0.34831005 0.24129526 0.11849765 0.12100051 0.23594557 0.18021338 0.293878 0.11117506
-0.022663945 0.047004152 0.026378987 -0.02706038 -0.047657244 0.41916224 0.04714754 -0.09478979
-0.027715664 -0.000102142534 -0.01897172 -0.03667228 -0.02981258 -0.045019686 -0.006620364 -0.0017829946
0.013673147 -0.0036714307 0.008910705 -0.0051165386 -0.0137504935 -0.0057631615 0.049454566 0.035145085
-0.017638024 0.044596363 -0.007774768 0.112072706 -0.01894795 -0.04134794 -0.020908138 -0.030912496
-0.0055093765 0.0036487211 0.0069606234 0.021560846 0.024504667 0.09742929 0.022136789 -0.038283326
0.09479945 -0.032295216 0.024117984 -0.021080025 0.004777467 0.062989496 -0.010626292 -0.000109091176
-0.030778434 -0.029324083 -0.004934631 0.043054696 -0.055562485 0.008856023 -0.014680095 0.020919492
0.014994799 -0.024916405 0.11536971 0.11564477 -0.031693555 0.0011495017 -0.005003304 0.0876152
0.17451361 0.13455017 0.15073512 0.0809472 0.1370262 0.15263832 0.22244342 -0.18145238
0.08048022 0.11826435 0.06271028 0.11498309 0.15592968 0.16524939 0.16205937 0.071462885
0.04804583 0.17538215 0.13554394 0.1598227 0.15983212 0.12939648 0.17572673 0.14299996
0.121895485 0.13547525 0.11875007 0.089489594 0.07983556 0.16606453 0.18576972 0.17294015
0.13368437 0.12346047 0.09505106 0.13660505 0.13148968 0.090875864 0.1727422 0.14489241
0.0902269 0.20314635 0.09310293 0.15468365 0.120229326 0.090493426 0.19635673 0.14849606
0.21260181 0.10734601 0.09586747 0.13496006 0.00922385 0.14310512 0.028014818 0.0653594
0.14768986 0.18556784 0.086588524 0.08677332 0.18008062 0.17422499 0.17118913 0.08637335
0.09409307 0.19993885 0.18475094 0.21136177 0.11441939 -0.8017119 0.16208558 -0.124079205
0.2506527 0.121367775 0.3199588 0.12612303 0.107749104 0.0807612 0.17972228 0.25709972
0.25457534 0.13734494 0.23318496 0.15089905 0.16059864 0.2125492 0.071817756 0.20382783
0.17759077 0.20709354 0.20168073 -0.5279676 0.20010164 0.18721783 0.13242248 0.15748455
0.10900903 0.21260743 0.18213546 0.22874491 0.21461926 -0.5226117 0.17864212 0.08528155
-0.513639 0.12496712 0.20204242 0.17981535 0.12164017 -0.5002847 0.13240223 0.18827444
0.14032511 0.136802 0.13057584 0.21030343 0.3359703 0.23033707 0.20073034 0.263614
0.16744961 0.15780628 -0.5279083 -0.53890705 0.16433802 0.14065123 0.1810117 -0.5351267
00000000: 82bd 813e 5ffa 6f3e bd62 b23e 6542 0f3e
00000010: 06e9 493e b362 2f3e 757e 8d3e 1fd9 99be
00000020: 48da 083e e2c7 033e 089c 503d ea0d 193e
00000030: 8d18 413e 1c48 5a3e 3972 673e 04cd b83d
00000040: e4e1 b83d 4d59 633e 510c 5a3e 46ab ae3e
00000050: ab33 913e 1d61 533e c98f 8a3e 67d8 8e3e
00000060: 4b52 093e edc2 7e3e 46e9 2e3e df8c f93d
00000070: abe9 b03d 8bf2 753e f245 723e 346c ab3e
00000080: cedd 383e ae1c 533e 23f3 203e 5a25 6c3e
00000090: e3b3 613e babf e93d 4fb5 953e 384e 443e
000000a0: e86f ee3d 9572 623e 32f5 cd3d aacf a93e
000000b0: 0615 3a3e 6392 d13d f30f 823e 98ee 0e3e
000000c0: 93f0 9a3e 956e f13d a1d2 2d3e a81c 803e
000000d0: 9a6c 7a3b 30e8 5b3e 36a0 9e3c 7a70 d33d
000000e0: b255 b23e 1b16 773e e5ae f23d 1ecf f73d
000000f0: b79b 713e db89 383e 2d77 963e c0af e33d
00000100: bda9 b9bc 6d87 403d bf18 d83c bbad ddbc
00000110: 3e34 43bd 6f9c d63e c71d 413d 2621 c2bd
00000120: f60b e3bc 5b35 d6b8 956a 9bbc ac35 16bd
00000130: 8339 f4bc 9066 38bd a3ef d8bb 5fb3 e9ba
00000140: 5605 603c 639c 70bb 35fe 113c a3a8 a7bb
00000150: c049 61bc e7d8 bcbb df90 4a3d 4bf4 0f3d
00000160: 9e7d 90bc adaa 363d 7bc3 febb 6086 e53d
00000170: bb38 9bbc 755c 29bd 8b47 abbc 343c fdbc
00000180: 0088 b4bb 621f 6f3b f115 e43b 5fa0 b03c
00000190: 03be c83c 0289 c73d 3658 b53c face 1cbd
000001a0: 3726 c23d fd47 04bd 1493 c53c 04b0 acbc
000001b0: 4c8c 9c3b a300 813d e619 2ebc e1c7 e4b8
000001c0: 0e23 fcbc 0f39 f0bc afb2 a1bb 1f5a 303d
000001d0: 7d95 63bd da18 113c c884 70bc 5b5f ab3c
000001e0: bfac 753c 7d1d ccbc f446 ec3d 2ad7 ec3d
000001f0: 1ad1 01bd e0aa 963a c2f2 a3bb 996f b33d
00000200: b2b3 323e 85c7 093e 4f5a 1a3e a5c7 a53d
00000210: 9950 0c3e 384d 1c3e 35c8 633e a7ce 39be
00000220: d0d2 a43d 9434 f23d 3f6e 803d 417c eb3d
00000230: 08ac 1f3e 2337 293e e4f2 253e 225b 923d
00000240: b4cb 443d 6197 333e 08cc 0a3e 90a8 233e
00000250: 08ab 233e 8380 043e b5f1 333e 956e 123e
00000260: 57a4 f93d 06ba 0a3e 3d33 f33d 5246 b73d
00000270: d380 a33d d20c 2a3e 6b3a 3e3e 3917 313e
00000280: 8ee4 083e d8d8 fc3d 21aa c23d 32e2 0b3e
00000290: 3ba5 063e 201d ba3d 55e3 303e ad5e 143e
000002a0: e2c8 b83d 9905 503e c0ac be3d 6465 1e3e
000002b0: cb3a f63d 9e54 b93d bd11 493e 5a0f 183e
000002c0: 4ab4 593e 3ad8 db3d 2a56 c43d f832 0a3e
000002d0: a21f 173c 268a 123e 557f e53c 26db 853d
000002e0: 033c 173e 7f05 3e3e 5355 b13d 36b6 b13d
000002f0: 0e67 383e 0968 323e 344c 2f3e 83e4 b03d
00000300: deb3 c03d c5bc 4c3e 5a2f 3d3e 386f 583e
00000310: b754 ea3d fe3c 4dbf c3f9 253e 3d1d febd
00000320: 8d55 803e ab8f f83d a4d1 a33e 6526 013e
00000330: 90ab dc3d 2166 a53d 1e09 383e 93a2 833e
00000340: b357 823e 27a4 0c3e 0ac8 6e3e 4885 1a3e
00000350: f873 243e 7fa6 593e 3015 933d 3eb8 503e
00000360: 5bda 353e 5410 543e 6585 4e3e e228 07bf
00000370: 72e7 4c3e 08b6 3f3e c299 073e a143 213e
00000380: 2040 df3d c3b5 593e b881 3a3e 1b3c 6a3e
00000390: 27c5 5b3e e1c9 05bf f6ed 363e 18a8 ae3d
000003a0: d87d 03bf c3ee ff3d 35e4 4e3e 8421 383e
000003b0: 7b1e f93d a812 00bf 7394 073e 04cb 403e
000003c0: 63b1 0f3e d315 0c3e acb5 053e c859 573e
000003d0: 4d04 ac3e 7bdd 6b3e 418c 4d3e 6af8 863e
000003e0: e977 2b3e f897 213e 0025 07bf d0f5 09bf
000003f0: 3a48 283e e006 103e 225b 393e 10fe 08bf

bias f4 [32]
-0.00095036 0.15923867 -0.12724899 -0.3635205 -0.4122357 0.111076735 -0.30240235 -0.20553188
-0.124023706 -0.18785916 -0.676021 0.11745696 -0.2954215 0.041113555 -0.087942466 -0.1235758
0.12528324 -0.21450563 0.12671034 0.112762146 0.10064968 -0.14921491 -0.32189432 -0.0033950687
-0.3420348 -0.17234142 -0.13629997 -0.11308212 0.045458764 -0.17810702 -0.23520948 0.06974102
00000000: 9421 79ba 760f 233e 8f4d 02be 5c1f babe
00000010: 8f10 d3be 337c e33d 7bd4 9abe f376 52be
00000020: 2400 febd 275e 40be b60f 2dbf 468d f03d
00000030: 7d41 97be b066 283d 2e1b b4bd 4f15 fdbd
00000040: 404a 003e 5da7 5bbe 5bc0 013e d7ef e63d
00000050: 6b21 ce3d cbcb 18be 55cf a4be cd7f 5ebb
00000060: 2f1f afbe 457a 30be 3892 0bbe 9997 e7bd
00000070: f832 3a3d b061 36be c1da 70be 61d4 8e3d

weight f4 [32, 1]
0.19567758 -0.12112623 0.05205031 0.065450296 -0.08477467 -0.3135057 -0.20690735 -0.10838326
-0.061142556 0.14541328 0.16788912 0.12536503 -0.059756435 0.19807805 -0.19582501 0.043882426
0.31277862 0.12829983 0.14102015 0.103181064 0.1275033 0.029379874 0.09605376 0.30900165
-0.14573394 0.17603825 -0.1911454 -0.0092485035 0.02445921 0.014283109 -0.15530957 -0.032736763
00000000: b45f 483e 0711 f8bd b532 553d ce0a 863d
00000010: 589e adbd d283 a0be 85df 53be 0bf8 ddbd
00000020: 9e70 7abd 38e7 143e 20eb 2b3e b15f 003e
00000030: 2ac3 74bd f9d4 4a3e 5a86 48be 0fbe 333d
00000040: 8524 a03e 0861 033e 9667 103e 9850 d33d
00000050: 3a90 023e 10ae f03c d5b7 c43d 7735 9e3e
00000060: 473b 15be 5f43 343e 9fbb 43be 0987 17bc
00000070: ae5e c83c b403 6a3c 7909 1fbe fc16 06bd

bias f4 [32]
0.10867118 -0.30047885 0.5181356 0.48125586 -0.3863068 0.30783242 -0.044804152 -0.32316098
-0.43831417 0.2607562 0.19591422 0.30872628 -0.4423901 0.015231618 -0.09663944 0.5378017
0.0050171087 0.30788147 0.2729848 0.37558255 0.3071174 0.58184034 0.39610246 0.0053293034
-0.2323483 0.17037335 -0.11120471 -0.5661486 0.58857787 0.6201027 -0.20736654 -0.5116513
00000000: ff8e de3d 5dd8 99be 89a4 043f 2b67 f63e
00000010: 01ca c5be 369c 9d3e 8f84 37bd 5b75 a5be
00000020: b76a e0be d681 853e bd9d 483e 5f11 9e3e
00000030: f580 e2be 098e 793c e6ea c5bd 5fad 093f
00000040: 8f66 a43b a4a2 9d3e aac4 8b3e 5b4c c03e
00000050: 7e3e 9d3e 7df3 143f f1cd ca3e 70a1 ae3b
00000060: b6ec 6dbe 5a76 2e3e 4cbf e3bd 1def 10bf
00000070: 0aad 163f 0dbf 1e3f e557 54be 94fb 02bf

weight f4 [64, 32]
0.037895422 -0.018293757 0.013362126 0.014072317 -0.015132025 -0.2769697 -0.04204538 -0.016877914
-0.013690949 0.022439407 0.027254548 0.019413654 -0.0134764835 0.048252393 -0.03427064 0.012742394
0.20458007 0.019907972 0.021661406 0.017085502 0.019649446 0.01216011 0.016349101 0.20872357
-0.021372635 0.029598193 -0.032207493 -0.011356832 0.011880691 0.011543238 -0.02284147 -0.012361461
-0.104931526 -0.01948419 0.05602901 0.051623225 -0.040294766 0.41251102 0.22807686 -0.02718624
-0.04957105 0.0034549884 -0.026890416 0.020284107 -0.050107695 -0.32188755 0.118602104 0.05815488
-0.6153008 0.018931584 0.008015632 0.035072915 0.019063096 0.062204726 0.038798563 -0.61388576
0.004207417 -0.04344791 0.09801899 -0.064366214 0.063168205 0.06549237 0.01653594 -0.05856197
-0.03825937 0.03694824 -0.03510877 -0.035217755 0.036044594 0.086119555 0.03590745 0.036437012
0.035571888 -0.03685156 -0.037512783 -0.036245063 0.035502095 -0.0239527 0.039099988 -0.034881532
-0.11530918 -0.036387224 -0.036828667 -0.035760492 -0.036358092 -0.034734722 -0.03581558 -0.056068636
0.0375876 -0.037912704 0.03918906 0.034822922 -0.034841444 -0.034732208 0.038017716 0.035031807
0.06532521 -0.03590526 0.02607427 0.027441105 -0.029998356 -0.45267102 -0.078930415 -0.033680454
-0.027241383 0.04158888 0.049265932 0.03681936 -0.027000817 0.08455119 -0.06458191 0.02536613
0.24861138 0.037378833 0.04047161 0.032673217 0.037173063 0.024087766 0.031503037 0.25228485
-0.041653212 0.052890483 -0.060927603 -0.022726862 0.02362857 0.02286347 -0.044471473 -0.024511272
0.06916685 -0.036358193 0.02674434 0.02814875 -0.029833227 -0.4676972 -0.08393615 -0.0337052
-0.026702557 0.043394536 0.051736027 0.038272355 -0.026487691 0.0895892 -0.06806524 0.025886262
0.2559765 0.038906977 0.042215906 0.033708666 0.038833074 0.024535047 0.032557324 0.2590549
-0.04281355 0.05581735 -0.064068474 -0.021690944 0.024068698 0.023129547 -0.045991987 -0.023813711
0.06431417 -0.032645818 0.02309823 0.024586383 -0.026358716 -0.453967 -0.079735085 -0.03033417
-0.023295848 0.039284483 0.047407914 0.034316827 -0.023239547 0.08345743 -0.0641226 0.02219403
0.24948229 0.03478504 0.038023576 0.029913671 0.034695998 0.020994887 0.028630221 0.2515726
-0.03903289 0.051231682 -0.06021348 -0.018500628 0.02058328 0.019802913 -0.04221167 -0.020517493
-0.040550712 0.007759177 0.004927796 0.0034585565 0.0007396411 0.28241155 0.057098154 0.0052301385
-0.0024508424 -0.0131011335 -0.021979883 -0.0076655946 -0.0027791373 -0.055105004 0.041999295 0.0057860143
-0.24316204 -0.008054262 -0.0117442 -0.0026331672 -0.008050603 0.007431231 -0.0013033174 -0.24417755
0.014964961 -0.026409915 0.037979774 -0.007880517 0.007828444 0.008824473 0.0183321 -0.0058786636
0.0044032726 0.015817657 -0.018238489 -0.017613987 0.018064497 0.06668882 -0.009567031 0.016682107
0.019191723 -0.010770132 -0.0064644953 -0.013059105 0.019102626 0.034647483 0.0009977677 -0.018469585
0.020892378 -0.013035209 -0.011470743 -0.015309239 -0.012991023 -0.019124305 -0.015861614 0.01908925
0.013113171 -0.0041467277 0.0029904856 0.020745527 -0.019201014 -0.01955848 0.011775608 0.020165162
00000000: 3b38 1b3d cadc 95bc d2ec 5a3c 938f 663c
00000010: 50ec 77bc f9ce 8dbe c737 2cbd 8d43 8abc
00000020: 0150 60bc d9d2 b73c ee44 df3c 6209 9f3c
00000030: 78cc 5cbc 4da4 453d 5f5f 0cbd 79c5 503c
00000040: 707d 513e 0b16 a33c 4373 b13c e5f6 8b3c
00000050: e0f7 a03c 333b 473c 8dee 853c a2bb 553e
00000060: aa15 afbc e977 f23c 01ec 03bd 0212 3abc
00000070: 3ba7 423c d91f 3d3c 091e bbbc ba87 4abc
00000080: 57e6 d6bd 4f9d 9fbc ad7e 653d e072 533d
00000090: 200c 25bd a534 d33e fb8c 693e adb5 debc
000000a0: 030b 4bbd 166d 623b 4a49 dcbc db2a a63c
000000b0: ba3d 4dbd 72ce a4be a9e5 f23d d033 6e3d
000000c0: 5a84 1dbf 6916 9b3c ff53 033c 9ea8 0f3d
000000d0: 362a 9c3c 62ca 7e3d 3eeb 1e3d 9e27 1dbf
000000e0: 5fde 893b 70f6 31bd 2ebe c83d 6fd2 83bd
000000f0: 555e 813d dd20 863d 6176 873c adde 6fbd
00000100: dbb5 1cbd 0a57 173d 37ce 0fbd 7e40 10bd
00000110: 7fa3 133d 735f b03d b113 133d fa3e 153d
00000120: d4b3 113d a9f1 16bd 01a7 19bd b475 14bd
00000130: a56a 113d 7438 c4bc 4f27 203d f0df 0ebd
00000140: 3827 ecbd c50a 15bd a8d9 16bd 9879 12bd
00000150: 39ec 14bd ff45 0ebd 5cb3 12bd 3aa8 65bd
00000160: 75f5 193d 5a4a 1bbd b584 203d 7ba2 0e3d
00000170: e7b5 0ebd 5c43 0ebd 77b8 1b3d 837d 0f3d
00000180: 39c9 853d 6511 13bd b599 d53c 2bcc e03c
00000190: 1dbf f5bc 7fc4 e7be 45a6 a1bd 84f4 09bd
000001a0: 5229 dfbc 1a59 2a3d 13cb 493d e6cf 163d
000001b0: d130 ddbc 2d29 ad3d 8543 84bd a1cc cf3c
000001c0: fb93 7e3e 8c1a 193d 8fc5 253d 5ad4 053d
000001d0: c842 183d b553 c53c 5409 013d 7b2b 813e
000001e0: 8f9c 2abd b1a3 583d 398f 79bd af2d babc
000001f0: b490 c13c 2c4c bb3c b827 36bd ddcb c8bc
00000200: 59a7 8d3d 54ec 14bd f216 db3c 3598 e63c
00000210: d064 f4bc 0276 efbe b7e6 abbd 770e 0abd
00000220: 52bf dabc 78be 313d 28e9 533d 79c3 1c3d
00000230: b7fc d8bc 8b7a b73d ca65 8bbd 6d0f d43c
00000240: 5a0f 833e ec5c 1f3d 96ea 2c3d 1912 0a3d
00000250: 6e0f 1f3d b9fd c83c d45a 053d d8a2 843e
00000260: 435d 2fbd bca0 643d 5536 83bd 35b1 b1bc
00000270: b82b c53c 2d7a bd3c 1862 3cbd f914 c3bc
00000280: 26b7 833d 9fb7 05bd 8038 bd3c 6269 c93c
00000290: 3cee d7bc 5d6e e8be 264c a3bd 5e7f f8bc
000002a0: efd6 bebc c4e8 203d cd2e 423d cd8f 0c3d
000002b0: dd60 bebc bbeb aa3d b652 83bd 41d0 b53c
000002c0: 4978 7f3e c27a 0e3d 9cbe 1b3d 840d f53c
000002d0: 641d 0e3d 78fd ab3c ed89 ea3c 20ce 803e
000002e0: f4e0 1fbd 50d8 513d 69a2 76bd a18e 97bc
000002f0: 449e a83c b839 a23c 25e6 2cbd 4d14 a8bc
00000300: 8118 26bd b240 fe3b 5979 a13b f3a8 623b
00000310: 79e4 413a 3f98 903e c1df 693d 9561 ab3b
00000320: 509e 20bb 23a6 56bc 280f b4bc ab2f fbbb
00000330: 3022 36bb c9b5 61bd 7407 2c3d 9b98 bd3b
00000340: 78ff 78be 06f6 03bc bf6a 40bc 3791 2cbb
00000350: ade6 03bc af81 f33b 13d4 aaba ae09 7abe
00000360: 992f 753c 9b59 d8bc ae90 1b3d 491d 01bc
00000370: e042 003c 8694 103c 332d 963c cea1 c0bb
00000380: 5449 903b 0894 813c e268 95bc 354b 90bc
00000390: fffb 933c 2694 883d 09bf 1cbc eaa8 883c
000003a0: f637 9d3c 3575 30bc 1ed4 d3bb dbf5 55bc
000003b0: 1c7d 9c3c 85ea 0d3d 87c7 823a 874d 97bc
000003c0: 7e26 ab3c a191 55bc c9ef 3bbc 9ad3 7abc
000003d0: 4dd8 54bc 93aa 9cbc 37f0 81bc 0f61 9c3c
000003e0: a0d8 563c 46e1 87bb 06fc 433b 86f2 a93c
000003f0: 724b 9dbc 1b39 a0bc 7bee 403c 6931 a53c

bias f4 [64]
-0.12634984 0.19918302 -0.011173924 -0.07433724 -0.07307066 -0.0551199 0.14134252 -0.020383013
-0.078239344 -0.07665182 0.009872318 -0.19242807 -0.21244287 0.10571578 0.03021834 0.06669077
-0.065064676 -0.030058265 -0.035072185 0.08256814 -0.008896346 -0.25831872 -0.12398829 0.11186375
-0.008057331 0.056212455 -0.2034178 -0.15677524 0.16160363 0.095056824 -0.055339932 0.1437641
-0.12901573 -0.16712499 -0.10123791 0.102286994 -0.049765818 -0.060811896 0.055258293 0.15951219
0.15045694 -0.17676711 -0.14034265 0.057014346 0.105505005 -0.06671283 0.15586825 0.081042714
-0.0071576135 -0.059887674 -0.09443589 -0.17579731 -0.08818985 -0.08276958 -0.034669526 -0.06672683
0.101940766 -0.012410001 0.06440206 -0.017715782 -0.07066887 -0.05623856 -0.07257685 -0.095499784
00000000: da61 01be a2f6 4b3e d612 37bc 1f3e 98bd
00000010: 12a6 95bd 67c5 61bd 18bc 103e 47fa a6bc
00000020: f33b a0bd a1fb 9cbd 81bf 213c dd0b 45be
00000030: a08a 59be 8481 d83d 748c f73c 2c95 883d
00000040: a140 85bd c03c f6bc daa7 0fbd 7c19 a93d
00000050: fbc1 11bc 5a42 84be 93ed fdbd d218 e53d
00000060: e502 04bc 083f 663d c14c 50be b089 20be
00000070: 6c7b 253e 27ad c23d 20ac 62bd e536 133e
00000080: b31c 04be d022 2bbe d255 cfbd d87b d13d
00000090: 3ed7 4bbd e515 79bd 8556 623d 2a57 233e
000000a0: 6211 1a3e 7002 35be fcb5 0fbe e087 693d
000000b0: 0213 d83d bca0 88bd ed9b 1f3e b9f9 a53d
000000c0: 6a8a eabb c74c 75bd 9b67 c1bd 3604 34be
000000d0: e19c b4bd 1983 a9bd a201 0ebd 14a8 88bd
000000e0: 52c6 d03d 5153 4bbc 3ae5 833d b020 91bc
000000f0: d7ba 90bd 675a 66bd 2ca3 94bd 6495 c3bd

weight f4 [32, 64]
0.03999717 0.02058487 0.052573632 0.020837612 0.014112985 0.016052537 -0.14524962 0.04208144
0.010449883 0.0115259485 0.05180254 0.010775422 0.07195996 -0.1459566 0.027456734 -0.017599821
0.036069203 0.040024962 0.008204848 -0.14121176 0.07035904 0.014498709 0.061485212 -0.13642983
0.033437688 -0.004967174 0.0037550305 0.08934946 -0.1501369 0.07120083 0.001894996 -0.14465666
0.052096877 0.02507307 0.008375594 0.07473266 0.07810015 0.008122871 -0.009037135 -0.1506818
-0.14845642 0.0041198544 0.023880553 -0.15937237 -0.121185206 -0.0027745955 -0.14349839 -0.13864468
-0.007813422 0.018136602 0.012888334 0.0038985896 0.010052516 0.0150520755 -0.013542995 0.0039016844
-0.124200664 0.011247849 -0.013938176 0.02225162 0.015998937 0.0269461 0.016660037 0.0115153575
-0.24445844 0.23098445 -0.078246176 -0.26184103 -0.23527482 -0.26102346 0.26337945 -0.109220296
-0.1994318 -0.22078249 -0.06737593 -0.31703585 -0.3100095 0.16397367 -0.014890881 0.090524286
-0.20162559 -0.09371981 -0.12087005 0.19179364 -0.1105313 -0.3389175 -0.22291791 0.18980217
-0.06490744 0.09048186 -0.29563874 -0.26468566 0.29012337 0.10237488 -0.11369405 0.23674175
-0.31645632 -0.17152122 -0.23989064 0.18135212 -0.14289106 -0.18857133 0.07810148 0.2112354
0.27807894 -0.1835145 -0.19604522 0.11372295 0.19818394 -0.026738297 0.23092161 0.19607672
0.002039278 -0.24014367 -0.285324 -0.21903868 -0.24772374 -0.2790897 -0.013069554 -0.07973371
0.19131704 -0.054934904 0.09689539 -0.07026747 -0.24472274 -0.091223404 -0.2447893 -0.295286
-0.2514935 0.2110925 0.016630145 -0.22499724 -0.23526204 -0.2249904 0.11787097 -0.02737123
-0.23657283 -0.26242104 0.0308153 -0.1843241 -0.062122982 0.09771967 0.002287064 -0.052804697
-0.051384468 -0.02041448 -0.20011742 0.11347003 -0.004493687 -0.105434686 -0.077619016 0.11186206
-0.018760921 -0.056079075 -0.18839511 -0.032449026 0.11151512 0.07047587 -0.22868979 0.11439618
-0.28349167 -0.2240028 -0.25730973 0.07713438 -0.013718257 -0.26791734 -0.054416157 0.10338522
0.11396869 -0.20985697 -0.2294303 0.08382966 0.11172192 0.013675484 0.11287122 0.113666914
0.06352789 -0.246495 -0.24545419 -0.20781289 -0.2543419 -0.25119752 -0.15911745 -0.010054187
0.11123856 0.05513604 -0.052350324 0.025817707 -0.23880766 -0.028312208 -0.2801618 -0.26496583
-0.74936575 0.21125054 0.39956424 -0.76956713 -0.7560711 -0.7579812 0.08656234 0.31748205
-0.7473823 -0.755283 0.24677606 -0.009528536 0.19102484 0.091850944 0.44494033 0.488702
0.27295277 0.3278549 -0.72968286 0.08275965 0.42617947 0.17451118 0.12189174 0.09466229
0.33332142 0.4658415 -0.015686287 0.283532 0.07154431 0.37770256 -0.72232354 0.09483676
-0.7556648 -0.49321127 -0.7537162 0.40245217 0.3574264 -0.7430135 0.459755 0.09165898
0.08593566 -0.20614831 -0.44875598 0.09282738 0.09370042 0.45815656 0.09145043 0.092863716
0.5615646 -0.76051277 -0.7623693 -0.052058693 -0.7535523 -0.76345676 -0.6721143 0.4274099
0.09758086 0.5693066 0.4728228 0.51469207 -0.76126665 0.28532368 -0.7601773 -0.7601647
00000000: 13d4 233d 9aa1 a83c 7357 573d a4b3 aa3c
00000010: 263a 673c 9c80 833c 51bc 14be 975d 2c3d
00000020: fc35 2b3c 55d7 3c3c e62e 543d 658b 303c
00000030: be5f 933d a675 15be f2ec e03c 802d 90bc
00000040: 4dbd 133d 37f1 233d a06d 063c d199 10be
00000050: 6618 903d fe8b 6d3c ebd7 7b3d 43b4 0bbe
00000060: f5f5 083d adc3 a2bb f516 763b dafc b63d
00000070: 7dbd 19be bed1 913d 8461 f83a e020 14be
00000080: 8963 553d 0a66 cd3c ca39 093c 700d 993d
00000090: f9f2 9f3d ca15 053c 7e10 14bc 544c 1abe
000000a0: f604 18be d8ff 863b 26a1 c33c 8332 23be
000000b0: f32f f8bd fdd5 35bb 3ef1 12be dff8 0dbe
000000c0: de03 00bc 3693 943c 9729 533c 7b7f 7f3b
000000d0: 4fb3 243c fb9c 763c 70e3 5dbc 67b3 7f3b
000000e0: eb5c febd e648 383c f35c 64bc 0849 b63c
000000f0: 3410 833c 11be dc3c a17a 883c e9aa 3c3c
00000100: 5053 7abe 3087 6c3e 883f a0bd 0710 86be
00000110: e2eb 70be dea4 85be acd9 863e e4ae dfbd
00000120: da37 4cbe ce14 62be 64fc 89bd 8652 a2be
00000130: 91b9 9ebe b7e8 273e e2f8 73bc cc64 b93d
00000140: f076 4ebe 2cf0 bfbd b78a f7bd 8d65 443e
00000150: 3c5e e2bd 9886 adbe 9844 64be 805b 423e
00000160: 31ee 84bd 8e4e b93d f65d 97be e184 87be
00000170: 0d8b 943e eca9 d13d 6dd8 e8bd 6e6c 723e
00000180: 9006 a2be 42a3 2fbe e4a5 75be 5fb4 393e
00000190: 0952 12be d818 41be abf3 9f3d 184e 583e
000001a0: 5d60 8e3e 3aeb 3bbe 14c0 48be 94e7 e83d
000001b0: bbf0 4a3e 460a dbbc b776 6c3e 56c8 483e
000001c0: 68a5 053b 39e8 75be fd15 92be ad4b 60be
000001d0: 4bab 7dbe d8e4 8ebe af21 56bc 6d4b a3bd
000001e0: 9de8 433e 6c03 61bd 1771 c63d 64e8 8fbd
000001f0: 9998 7abe 56d3 babd 0caa 7abe ba2f 97be
00000200: c2c3 80be a228 583e f13b 883c ad65 66be
00000210: 88e8 70be e263 66be 5666 f13d a139 e0bc
00000220: 2640 72be 0d5c 86be 5e70 fc3c 75bf 3cbe
00000230: ab74 7ebd 4021 c83d 91e2 153b bd49 58bd
00000240: 8578 52bd 443c a7bc 95eb 4cbe fa62 e83d
00000250: c73f 93bb 24ee d7bd b8f6 9ebd f017 e53d
00000260: 81b0 99bc 2cb3 65bd a6ea 40be 45e9 04bd
00000270: 0a62 e43d a755 903d a82d 6abe 8b48 ea3d
00000280: d225 91be fd60 65be 1abe 83be a1f8 9d3d
00000290: 8ac2 60bc 762c 89be 7ae3 5ebd a1bb d33d
000002a0: 6b68 e93d bfe4 56be c7ef 6abe e3ae ab3d
000002b0: 76ce e43d 230f 603c 0729 e73d 33ca e83d
000002c0: e91a 823d 2f69 7cbe 5858 7bbe e7cc 54be
000002d0: 1a39 82be f69c 80be afef 22be 51ba 24bc
000002e0: 0bd1 e33d 54d6 613d 4b6d 56bd a87f d33c
000002f0: ff89 74be 01ef e7bc 5e71 8fbe 9aa9 87be
00000300: 6fd6 3fbf 1052 583e af93 cc3e 5a02 45bf
00000310: e08d 41bf 0e0b 42bf 9947 b13d 028d a23e
00000320: 7254 3fbf 3a5a 41bf ddb2 7c3e 941d 1cbc
00000330: 049c 433e 591c bc3d 38cf e33e 2637 fa3e
00000340: 77c0 8b3e 99dc a73e 7fcc 3abf e47d a93d
00000350: 3234 da3e 0fb3 323e 60a2 f93d 4dde c13d
00000360: 1ba9 aa3e c782 ee3e 8780 80bc 1b2b 913e
00000370: d385 923d 3b62 c13e 32ea 38bf c639 c23d
00000380: 4073 41bf 3086 fcbe 8bf3 40bf 360e ce3e
00000390: 9800 b73e 2236 3ebf 0265 eb3e b4b7 bb3d
000003a0: 09ff af3d 8b18 53be 58c3 e5be 481c be3d
000003b0: 01e6 bf3d 7f93 ea3e 5d4a bb3d 552f be3d
000003c0: b3c2 0f3f f7b0 42bf a22a 43bf 7f3b 55bd
000003d0: cee8 40bf e771 43bf af0f 2cbf 78d5 da3e
000003e0: 79d8 c73d 14be 113f d415 f23e dcc2 033f
000003f0: 5fe2 42bf f215 923e fb9a 42bf 279a 42bf

bias f4 [32]
-0.14271902 0.45973802 0.09849299 -0.4000466 -0.38627017 -0.062397014 -0.36868227 0.1093108
-0.20515203 0.028568473 -0.6882786 0.017530985 -0.1577279 0.07153885 -0.24091749 0.11024379
-0.21152377 -0.57641613 -0.12398166 0.024487728 0.030657556 -0.19386505 -0.19108963 0.10884672
-0.10246169 -0.22744004 0.039669406 -0.16778365 -0.07513492 -0.0734557 0.076224804 -0.32866818
00000000: ef24 12be c862 eb3e b1b6 c93d e8d2 ccbe
00000010: 34c5 c5be 0394 7fbd ecc3 bcbe 57de df3d
00000020: 6013 52be 6e08 ea3c 0733 30bf 249d 8f3c
00000030: 6c83 21be f682 923d 13b3 76be 7fc7 e13d
00000040: b099 58be 0290 13bf 19ea fdbd 7d9a c83c
00000050: 8e25 fb3c 8f84 46be 00ad 43be 07eb de3d
00000060: 6fd7 d1bd 0be6 68be 637c 223d 7acf 2bbe
00000070: 56e0 99bd f16f 96bd c01b 9c3d 3247 a8be

weight f4 [32, 1]
0.15613648 0.5638113 -0.48269197 -0.49351755 -0.2706434 0.46785313 -0.53253514 0.3559528
-0.59504914 0.5793586 0.5806383 0.013409756 0.0055444655 0.742378 0.3881761 0.7624822
0.0031020136 -0.30010748 -0.25998744 -0.026051197 -0.4111962 0.36557072 0.7021041 -0.089515574
-0.25823268 0.3094526 -0.5999202 0.059445687 -0.0047135805 0.6639916 0.4709758 0.30393496
00000000: 3ee2 1f3e f055 103f 6723 f7be 55ae fcbe
00000010: c691 8abe 728a ef3e 3954 08bf 723f b63e
00000020: 2455 18bf d850 143f b6a4 143f 98b4 5b3c
00000030: 59ae b53b 7c0c 3e3f 05bf c63e 0932 433f
00000040: 274b 4b3b b0a7 99be 131d 85be 5269 d5bc
00000050: 4f88 d2be 162c bb3e 18bd 333f f153 b7bd
00000060: 1337 84be 9270 9e3e 5f94 19bf 527d 733d
00000070: 6174 9abb 5afb 293f bd23 f13e 5d9d 9b3e

bias f4 [32]
0.029812837 0.025876995 0.4274018 0.43616003 -0.057971425 -0.29525557 -0.04042411 -0.38481894
0.5175038 -0.6124671 -0.46443242 -0.025857558 -0.017193452 -0.117760144 0.06983626 -0.15708508
-0.0077933487 0.26855546 0.23707502 -0.0221583 -0.06595934 -0.23039073 -0.4409657 -0.015272649
0.23929024 -0.3310675 -0.017737474 -0.012976239 -0.005687533 -0.48092443 0.056092147 0.06965094
00000000: 0d3a f43c fefb d33c 69d4 da3e 5e50 df3e
00000010: 7273 6dbd bd2b 97be c093 25bd fd06 c5be
00000020: 217b 043f a5ca 1cbf 16ca edbe 3bd3 d3bc
00000030: 48d9 8cbc 3b2c f1bd 5006 8f3d e9da 20be
00000040: 595f ffbb 1a80 893e cbc3 723e 5385 b5bc
00000050: b115 87bd 8ceb 6bbe 42c6 e1be 223a 7abc
00000060: 8008 753e ae81 a9be 2e4e 91bc 4b9a 54bc
00000070: 7c5e babb ba3b f6be e1c0 653d 27a5 8e3d

weight f4 [64, 32]
-0.062230386 -0.2613945 0.22902153 0.22126251 0.07604553 0.16845703 0.20447414 -0.19905207
0.14659818 -0.13565432 -0.1219732 -0.0027100826 0.085333474 -1.0282267 -0.108530015 -1.2225639
0.014076352 0.18644196 0.16521989 0.051478833 0.11662816 0.021232175 -0.015641732 0.040785115
0.5624679 -0.19329312 0.30062824 -0.07199506 0.05942883 -0.07087687 -0.15456796 -0.08297985
-0.032287862 -0.008649911 0.06397005 0.062212005 0.02854426 0.08241043 0.0177386 -0.08811895
0.05092133 -0.059254415 -0.39348996 -0.046257205 0.015051867 0.03279116 -0.03284907 -0.0051465766
-0.011609002 0.06784978 0.06881956 0.006975559 0.027460746 -0.1562153 -0.033338334 0.008654751
-0.09191487 -0.0963455 0.0044577643 -0.020052811 0.009279836 -0.11324133 -0.027759297 -0.033876076
0.04932603 0.018129041 -0.030510906 -0.030392999 -0.04582638 -1.2884009 -0.02756899 0.0034358248
-0.016216721 0.007276804 -0.0046125874 -0.031037975 -0.045192372 -0.013044798 0.041455347 0.01545206
0.00081594166 -0.038118023 -0.041769106 -0.013444807 -0.04024769 -0.7577629 -0.95185834 -0.042635687
0.15295851 0.012389113 -0.010484538 0.036646113 -0.030751461 -0.5675733 0.03589489 0.04434567
0.028835587 -0.07622387 0.18899786 0.18293698 -0.021828353 -0.012914989 0.046798717 -0.18281716
0.14621802 -0.1402404 -0.11921768 -0.011171362 -0.027203232 -0.3113048 0.003938754 -0.28856814
-0.01721579 0.1485879 0.124698795 -0.04578484 0.0004992395 -0.062560745 -0.013932487 -0.032199282
0.3726262 -0.18036957 0.0935968 0.017460521 -0.028211113 -0.0574309 -0.020982176 0.018360468
-0.048211 -0.17635831 0.18475322 0.17979945 0.06158298 0.10349594 0.14429918 -0.1606619
0.13330536 -0.11546504 0.009617639 0.028179036 0.050371487 -0.7928072 -0.08392806 -1.2060584
0.027477238 0.13112302 0.11146023 0.014398174 0.09008239 0.122580476 0.08192593 0.022961888
0.5381542 -0.15831205 0.1968407 -0.0529685 0.01725656 0.07247158 -0.113918126 -0.06551217
-0.031728085 -0.04823346 -0.03382992 -0.03531902 0.02937962 0.49130514 0.033631712 0.022348104
-0.047875512 0.031025602 -0.14815009 0.00568631 0.030844573 -0.104293205 -0.037130352 -0.10551019
0.009095743 -0.03556507 -0.03808505 0.011736447 0.031235244 0.1588878 0.21686208 0.023201019
0.012297232 0.025110455 0.035440966 -0.035427097 0.03234253 0.16596256 -0.040833768 -0.035034284
-0.023947665 -0.058062803 0.014050625 0.0095482115 0.027805278 0.69012564 0.046305194 -0.019896265
-0.00444502 -0.013028423 -0.2784929 -0.014932364 0.020983364 -0.119742885 -0.033810414 -0.12844975
0.006654534 0.009935407 0.0065518995 0.004307259 0.03444344 0.1150679 0.20772779 0.01810797
0.061180204 -0.01348497 0.057574783 -0.023134712 0.01940066 0.07061309 -0.041712284 -0.029094324
-0.06508484 -0.23946646 0.2468922 0.24050081 0.08086448 0.13841763 0.1949817 -0.20638041
0.1705235 -0.15224983 -0.0960604 0.018404381 0.070448585 -1.0022293 -0.10995616 -1.4110236
-0.0019918669 0.19918382 0.1806237 0.027332708 0.11879796 0.06915305 0.014535793 0.037217993
0.6046299 -0.20134154 0.26991856 -0.06894404 0.034756966 -0.021352058 -0.15148413 -0.085386224
00000000: 4ae5 7ebd 80d5 85be 9f84 6a3e a492 623e
00000010: c2bd 9b3d 0080 2c3e ab61 513e 4ed4 4bbe
00000020: d51d 163e f7e8 0abe 16cd f9bd a49b 31bb
00000030: 51c3 ae3d ef9c 83bf fc44 debd f97c 9cbf
00000040: 80a0 663c a4ea 3e3e 672f 293e 78db 523d
00000050: bfda ee3d 19ef ad3c 1723 80bc 4b0e 273d
00000060: e5fd 0f3f a2ee 45be f2eb 993e 2572 93bd
00000070: a56b 733d e427 91bd 1047 1ebe 57f1 a9bd
00000080: 4740 04bd 5bb8 0dbc bb02 833d 04d2 7e3d
00000090: a7d5 e93c cdc6 a83d 8a50 913c b577 b4bd
000000a0: e292 503d c2b4 72bd 8477 c9be 3278 3dbd
000000b0: 1b9c 763c 0650 063d bf8c 06bd 9da4 a8bb
000000c0: af33 3ebc d3f4 8a3d 45f1 8c3d 3b93 e43b
000000d0: 5cf5 e03c e7f6 1fbe c78d 08bd a8cc 0d3c
000000e0: dd3d bcbd ca50 c5bd 7012 923b cb45 a4bc
000000f0: 740a 183c 12eb e7bd 7767 e3bc a4c1 0abd
00000100: 170a 4a3d 5b83 943c 02f2 f9bc bdfa f8bc
00000110: 71b4 3bbd 52ea a4bf 5dd8 e1bc 932b 613b
00000120: eed8 84bc 4272 ee3b 3025 97bb 5a43 febc
00000130: a31b 39bd d9b9 55bc 15cd 293d a32a 7d3c
00000140: ebe4 553a a521 1cbd 1516 2bbd 9c47 5cbc
00000150: c3da 24bd c0fc 41bf fdac 73bf c2a2 2ebd
00000160: 28a1 1c3e b5fb 4a3c 57c7 2bbc 3c1a 163d
00000170: 7dea fbbc 7c4c 11bf 8506 133d cea3 353d
00000180: 9c38 ec3c 431b 9cbd a888 413e d553 3b3e
00000190: 60d1 b2bc 6499 53bc 03b0 3f3d 6c34 3bbe
000001a0: 2dba 153e 2e9b 0fbe 6628 f4bd 1708 37bc
000001b0: 50d9 debc 5863 9fbe aa10 813b 34bf 93be
000001c0: 2108 8dbc 6d27 183e 1562 ff3d e288 3bbd
000001d0: 65df 023a d91f 80bd 1645 64bc 65e3 03bd
000001e0: dcc8 be3e cdb2 38be aeaf bf3d 5e09 8f3c
000001f0: fe1a e7bc aa3c 6bbd d0e2 abbc b168 963c
00000200: e678 45bd 4697 34be f32f 3d3e 591d 383e
00000210: 6f3e 7c3d aef5 d33d 2ac3 133e 8e84 24be
00000220: 3381 083e ef78 ecbd 4d93 1d3c b9d7 e63c
00000230: 5552 4e3d 6af5 4abf 7ae2 abbd 1f60 9abf
00000240: f217 e13c 1d45 063e 4345 e43d 52e6 6b3c
00000250: 1e7d b83d 790b fb3d c8c8 a73d 921a bc3c
00000260: 79c4 093f 8e1c 22be 9c90 493e 7ff5 58bd
00000270: a15d 8d3c fb6b 943d e84d e9bd 3f2b 86bd
00000280: 4ff5 01bd 7390 45bd 3e91 0abd adaa 10bd
00000290: 87ad f03c 598c fb3e 68c1 093d 5f13 b73c
000002a0: 1d19 44bd 6729 fe3c a8b4 17be 3a54 ba3b
000002b0: c2ad fc3c ad97 d5bd ff15 18bd ba15 d8bd
000002c0: 5006 153c aeac 11bd 12ff 1bbd 3a4a 403c
000002d0: 0ee1 ff3c 7cb3 223e 1811 5e3e 1010 be3c
000002e0: 547a 493c 71b4 cd3c 8c2a 113d 011c 11bd
000002f0: 9a79 043d 17f2 293e 4f41 27bd 1c80 0fbd
00000300: e52d c4bc 43d3 6dbd 9834 663c 1a70 1c3c
00000310: e5c7 e33c 13ac 303f 84aa 3d3d 7efd a2bc
00000320: 88a7 91bb 2b75 55bc 9f96 8ebe e0a6 74bc
00000330: 4ee5 ab3c c23b f5bd ca7c 0abd 5588 03be
00000340: 470e da3b 1ec8 223c 51b1 d63b e823 8d3b
00000350: 9114 0d3d b8a8 eb3d 98b6 543e 2a57 943c
00000360: 1898 7a3d 10f0 5cbc 89d3 6b3d 0285 bdbc
00000370: 22ee 9e3c 999d 903d 80da 2abd 3857 eebc
00000380: 334b 85bd b236 75be 4fd1 7c3e d845 763e
00000390: 479c a53d 5abd 0d3e 48a9 473e 6355 53be
000003a0: b69d 2e3e 61e7 1bbe 51bb c4bd c9c4 963c
000003b0: 5947 903d 0d49 80bf b230 e1bd 6c9c b4bf
000003c0: fb89 02bb d8f6 4b3e 6bf5 383e d8e8 df3c
000003d0: 584c f33d 1da0 8d3d 8927 6e3c e571 183d
000003e0: 06c9 1a3f 7a2c 4ebe c432 8a3e 8832 8dbd
000003f0: 525d 0e3d 83ea aebc a81e 1bbe f9de aebd

bias f4 [64]
0.15346457 -0.14373316 0.19972518 0.0842163 0.10437647 -0.007001088 -0.049054336 0.123666696
0.16976273 -0.11018809 -0.0038015614 -0.17353135 0.15283799 -0.03516342 -0.18287008 0.15126969
-0.053887766 -0.19165654 -0.1023024 0.011487068 -0.007610233 -0.0362413 -0.08502958 0.018700683
-0.08893178 -0.088331014 0.116785906 -0.18391687 0.18591435 0.11748784 -0.05834749 -0.15322088
0.119178556 0.12335827 -0.06783832 0.18950832 -0.06210415 0.048587 -0.034712546 -0.18170388
-0.06517129 0.17556778 0.08476852 -0.16417427 0.118576236 -0.14745635 -0.14360929 0.21081676
0.18026522 -0.15438713 0.09157433 -0.16949685 -0.14223358 0.17332041 0.059838314 -0.02617537
-0.18393634 -0.14115556 -0.08749962 -0.030366449 0.17047223 -0.14430916 -0.04928958 -0.060584202
00000000: d125 1d3e c92e 13be c284 4c3e 9879 ac3d
00000010: 55c3 d53d 6269 e5bb 33ed 48bd f744 fd3d
00000020: 48d6 2d3e 4baa e1bd 9e23 79bb 34b2 31be
00000030: 9081 1c3e 8507 10bd 4b42 3bbe 71e6 1a3e
00000040: 6bb9 5cbd 9d41 44be ec83 d1bd 4134 3c3c
00000050: 435f f9bb c271 14bd fd23 aebd 2d32 993c
00000060: dd21 b6bd e4e6 b4bd 732d ef3d b454 3cbe
00000070: 5560 3e3e 779d f03d c7fd 6ebd efe5 1cbe
00000080: e313 f43d 43a3 fc3d d1ee 8abd 780e 423e
00000090: ec60 7ebd 2a03 473d be2e 0ebd 9510 3abe
000000a0: 8678 85bd 0ac8 333e 1e9b ad3d 4d1d 28be
000000b0: 19d8 f23d ccfe 16be 500e 13be 59e0 573e
000000c0: 7297 383e a917 1ebe 538b bb3d 9590 2dbe
000000d0: aea5 11be e87a 313e 0519 753d bb6d d6bc
000000e0: cf59 3cbe 158b 10be 0033 b3bd 0fc3 f8bc
000000f0: 4690 2e3e c8c5 13be dfe3 49bd 2427 78bd

weight f4 [32, 64]
0.0031193753 0.032642826 -0.032405045 -0.072536446 -0.003993851 0.02460984 0.0072169257 0.008765012
-0.025586093 0.007404651 0.2362029 0.04324553 0.012077131 0.006718311 0.01516536 -0.014812246
0.018505927 0.014689091 -0.022530552 0.26566353 0.01286523 0.012633646 0.027513338 0.26939246
0.01121524 0.02466527 -0.059128277 0.011233809 -0.009775102 -0.08967845 0.01642089 -0.002746466
-0.092099406 -0.09983945 -0.03109226 -0.028611528 0.010603959 0.25883877 0.045635734 0.0534483
0.001502367 -0.0026083842 -0.016125092 0.01668925 0.007570222 0.033756413 0.01427849 -0.018581035
0.00745349 0.2445523 -0.00841593 0.3712621 0.027753025 -0.02338622 0.23220114 0.22751172
0.003268988 0.036486603 -0.004329608 0.02865685 0.003197492 0.028650377 0.028461995 -8.965673e-05
-0.6005008 0.06704999 -0.10370622 -0.5419143 -0.5923273 0.028561572 0.055375993 -0.48444736
-0.19554994 0.12686816 -0.11107843 0.20898935 -0.52796113 -0.012621874 0.13056819 -0.6359485
0.2707114 0.10293774 0.1255198 -0.07724739 0.019001199 0.059321485 0.26168266 -0.064554855
0.16909924 0.17706433 -0.57860214 0.20281042 -0.61423004 -0.4189449 -0.01970449 0.095470905
-0.42263544 -0.36937723 0.2930986 -0.20869999 0.0918089 -0.0020076074 -0.04417989 0.08802437
0.05273867 -0.6002746 -0.59753495 0.17544545 -0.50350535 0.09402406 0.120393075 -0.2872783
-0.62366533 0.06580662 -0.60394573 0.11689167 0.036649078 -0.5790964 -0.0006121402 0.053860106
0.17116144 0.11800944 -0.031968586 0.008429292 -0.61703426 0.03738798 -0.051442165 0.052668486
0.1825963 0.02683444 -0.06771238 0.038300823 0.14608592 0.10358196 0.099968866 0.1779188
0.0030952871 -0.025080943 0.38560846 0.025922736 0.18325688 0.09236769 -0.0055262386 0.12793216
0.02793897 -0.009890179 -0.024049273 0.41768277 0.05943719 0.09168428 0.021748057 0.421624
0.061836075 0.03620062 0.06191062 -0.018805116 0.14279608 0.011189663 0.082298525 0.0005377387
0.010226043 -0.025812134 -0.0570553 -0.037148044 0.02877137 0.39022774 0.07717467 0.051252466
0.07432278 0.14293432 0.12206763 0.0041623064 0.1728499 0.015685422 0.02408776 -0.031056903
0.17539993 0.1807309 0.1345812 0.30550614 0.029124763 0.117082775 0.36485717 0.17624012
-0.014423763 0.013324822 0.051893555 0.11197867 0.16288367 0.003871776 0.07748728 0.098255575
-0.07687623 0.31212536 -0.4737078 0.07183854 -0.258713 0.39130184 0.47378954 -0.21720533
-0.38228264 0.31625396 -1.132381 0.33652163 -0.17356507 0.39158773 0.3264458 0.009564023
0.39710265 0.3952985 0.4045507 -1.0395985 0.22175926 0.2333686 0.38328055 -1.0178572
0.4114387 0.42746946 0.009616126 0.37950283 0.050971255 -0.0048749167 0.43051067 0.42207944
0.007915062 -0.12043365 -0.048391055 -0.42084527 0.39654005 -0.8688272 0.33477432 0.33558345
0.44208008 0.037278768 -0.30212533 0.33196393 -0.24653086 0.30908647 0.364543 -0.440135
-0.006113606 -0.48070604 -0.2940308 -0.5710751 0.34021142 0.07122565 -0.85343534 -0.39680356
0.3690541 0.25296432 0.32254317 0.36634517 0.003910504 0.29910743 0.38289115 0.46094838
00000000: 6f6e 4c3b 7cb4 053d 27bb 04bd fd8d 94bd
00000010: dade 82bb 939a c93c f67b ec3b 209b 0f3c
00000020: ed99 d1bc b7a2 f23b 2cdf 713e 3a22 313d
00000030: 29df 453c 4725 dc3b 2178 783c 10af 72bc
00000040: be99 973c 83aa 703c fe91 b8bc 0d05 883e
00000050: b0c8 523c 5afd 4e3c a763 e13c cfed 893e
00000060: 20c0 373c d20e ca3c 7e30 72bd 030e 383c
00000070: c027 20bc 56a9 b7bd 1a85 863c 0efe 33bb
00000080: 9d9e bcbd a078 ccbd 32b5 febc b962 eabc
00000090: 3abc 2d3c 8486 843e 89ec 3a3d 9bec 5a3d
000000a0: 12eb c43a 6df1 2abb c518 84bc e5b7 883c
000000b0: a00f f83b 2a44 0a3d 54f0 693c 4137 98bc
000000c0: 683c f43b eb6b 7a3e f8e2 09bc 1116 be3e
000000d0: 505a e33c 7594 bfbc 23c6 6d3e d5f8 683e
000000e0: 853c 563b fa72 153d 62df 8dbb c5c1 ea3c
000000f0: 048d 513b 32b4 ea3c 2129 e93c 1706 bcb8
00000100: 6cba 19bf 8151 893d ed63 d4bd e5ba 0abf
00000110: c3a2 17bf f5f9 e93c f0d1 623d 7c09 f8be
00000120: 3e3e 48be bae9 013e 177d e3bd 4e01 563e
00000130: 7628 07bf facb 4ebc abb3 053e 85cd 22bf
00000140: af9a 8a3e 06d1 d23d 4388 003e e133 9ebd
00000150: 67a8 9b3c 16fb 723d 45fb 853e 5635 84bd
00000160: 5a28 2d3e 5a50 353e 451f 14bf 89ad 4f3e
00000170: 2e3e 1dbf f27f d6be 506b a1bc 4086 c33d
00000180: ac63 d8be 031f bdbe 0511 963e 73b5 55be
00000190: 4e06 bc3d 1092 03bb f9f5 34bd 1f46 b43d
000001a0: 8104 583d 99ab 19bf 0df8 18bf f9a7 333e
000001b0: bae5 00bf b08f c03d a590 f63d 2416 93be
000001c0: 88a8 1fbf 9fc5 863d 309c 1abf e664 ef3d
000001d0: 581d 163d a93f 14bf 0978 20ba 6a9c 5c3d
000001e0: f244 2f3e efae f13d 7ef1 02bd 031b 0a3c
000001f0: f5f5 1dbf 2324 193d 05b5 52bd e9ba 573d
00000200: 86fa 3a3e e6d3 db3c caac 8abd 53e1 1c3d
00000210: 8c97 153e c722 d43d 7abc cc3d 5930 363e
00000220: 4dda 4a3b 8d76 cdbc 796e c53e eb5b d43c
00000230: b1a7 3b3e 452b bd3d 7315 b5bb a600 033e
00000240: 44e0 e43c 6b0a 22bc fb02 c5bc 84da d53e
00000250: 6974 733d f8c4 bb3d fb28 b23c 1adf d73e
00000260: d347 7d3d 1a47 143d fe95 7d3d 300d 9abc
00000270: 2339 123e d954 373c 218c a83d 09f7 0c3a
00000280: 228b 273c f873 d3bc d1b2 69bd 8c28 18bd
00000290: f0b1 eb3c eecb c73e c10d 9e3d 1bee 513d
000002a0: 8b36 983d 605d 123e 98fe f93d f563 883b
000002b0: 90ff 303e b77e 803c b253 c53c 0c6b febc
000002c0: 0a9c 333e 8511 393e a7cf 093e 4d6b 9c3e
000002d0: 0e97 ee3c 18c9 ef3d 8fce ba3e 4a78 343e
000002e0: a651 6cbc 5b50 5a3c 568e 543d 1355 e53d
000002f0: faca 263e 9fbd 7d3b a7b1 9e3d 383a c93d
00000300: 4971 9dbd e5ce 9f3e d489 f2be 1620 933d
00000310: 0876 84be b758 c83e 8b94 f23e 136b 5ebe
00000320: 8dba c3be 0aec a13e dcf1 90bf 904c ac3e
00000330: 0bbb 31be 307e c83e e723 a73e 6cb2 1c3c
00000340: 0a51 cb3e 9164 ca3e 4521 cf3e 9011 85bf
00000350: dc14 633e 2ef8 6e3e 593d c43e 2549 82bf
00000360: 18a8 d23e 47dd da3e f58c 1d3c 324e c23e
00000370: 3cc7 503d c4bd 9fbb e56b dc3e cc1a d83e
00000380: 2dae 013c eba5 f6bd b335 46bd 0879 d7be
00000390: 4c07 cb3e 766b 5ebf 8a67 ab3e 98d1 ab3e
000003a0: 5258 e23e 9fb1 183d 2cb0 9abe 2df7 a93e
000003b0: 9672 7cbe 9540 9e3e 61a5 ba3e 6059 e1be
000003c0: a554 c8bb 1a1f f6be 348b 96be fa31 12bf
000003d0: 3130 ae3e c1de 913d bd7a 5abf d629 cbbe
000003e0: a9f4 bc3e 8a84 813e 6124 a53e 9891 bb3e
000003f0: af23 803b 9c24 993e 4f0a c43e 6d01 ec3e

bias f4 [32]
0.07447076 -0.043176603 0.04136537 -0.20026468 0.0036533875 -0.048283424 -0.52204174 0.106333345
-0.22104686 -0.06921585 -0.6054745 0.1898907 0.0050630877 -0.021030094 -0.019770283 -0.08845893
0.13915615 -0.7318658 -0.19455767 -0.0681142 -0.12060236 -0.26094887 -0.08589444 0.10940759
-0.14104119 -0.26951396 -0.097231865 0.0790412 -0.1870442 -0.19977823 -0.23562476 -0.23168111
00000000: 2084 983d f3d9 30bd bc6e 293d 2f12 4dbe
00000010: ac6d 6f3b d7c4 45bd 87a4 05bf 4cc5 d93d
00000020: 1c5a 62be 0ac1 8dbd 6000 1bbf b572 423e
00000030: 42e8 a53b 4e47 acbc 4af5 a1bc f529 b5bd
00000040: f37e 0e3e 8f5b 3bbf 203a 47be 757f 8bbd
00000050: 5ffe f6bd 179b 85be 6de9 afbd 1611 e03d
00000060: 1a6d 10be bcfd 89be 8021 c7bd 5ae0 a13d
00000070: 8488 3fbe aa92 4cbe 9e47 71be d03d 6dbe

weight f4 [32, 1]
-0.14766216 0.64874476 0.61616904 -0.931551 0.71035594 0.96253777 -0.98106545 0.9607674
-0.9388879 -0.94014066 0.71452945 -0.69972354 0.8060078 -0.7065408 -0.7119189 -0.010027891
-0.897833 -0.89906573 0.7141251 -0.86391115 0.85917145 -0.68543375 0.99333465 0.84316236
0.92770797 -0.9218837 -0.7120158 -0.6990327 0.70907676 0.97858334 -0.9317526 -0.98400617
00000000: c034 17be 2314 263f 41bd 1d3f 207a 6ebf
00000010: e3d9 353f e068 763f 1b27 7bbf daf4 753f
00000020: f55a 70bf 0fad 70bf 67eb 363f 1521 33bf
00000030: 8756 4e3f dcdf 34bf 5140 36bf 064c 24bc
00000040: 62d8 65bf 2c29 66bf e7d0 363f 4829 5dbf
00000050: a9f2 5b3f 9678 2fbf 2e4b 7e3f 7dd9 573f
00000060: 457e 6d3f 9200 6cbf ab46 36bf cff3 32bf
00000070: 0e86 353f 7084 7a3f 5787 6ebf d4e7 7bbf
