checkpoints/bikeshare_honam2_emb32_1.pt (torch, 264998 bytes, 146 tensors)

weight f4 [32, 1]
00000000: 6ff9 e4be ecc1 ff3e 60f2 093f 8e15 ac3e
00000010: 1778 12bf 6d77 803e 0121 abbe 9721 a63e
00000020: be87 19bf 6e83 903e 5a54 febe 9385 d53e
00000030: 37c6 b43e 70c0 bebe f01d b73e 1e78 73be
00000040: 1197 a23e e7be 543e 3198 0c3f 55a2 a43e
00000050: dfb0 c8be a90d 443e a265 1bbf 0603 08bf
00000060: e7ce c63e 23fa cb3e 5a61 d2be 8598 83be
00000070: e2b7 cd3e 42fc debe ea0b d2be b7f8 12bf
-0.44721553 0.49952638 0.5388546 0.33610195 -0.5721449 0.25091115 -0.33423617 0.32447502
-0.5997275 0.28225273 -0.4967373 0.41703472 0.35307476 -0.37256193 0.35765028 -0.2377629
0.3175588 0.20775948 0.54919726 0.321551 -0.39197442 0.19145836 -0.60701954 -0.53129613
0.3882973 0.39839277 -0.41089898 -0.257023 0.40179354 -0.43551832 -0.41024715 -0.5741076

bias f4 [32]
00000000: f80d c83e eae9 0ebf a524 0fbf 042c afbe
00000010: a18c ee3e adac c9bd fd35 a03e 1282 abbe
00000020: 1cc2 083f d45a aebe 9aa8 d83e f4b0 323c
00000030: fe14 bbbe d97e b73e c785 b9be 5191 803e
00000040: 0ac7 18be 9920 abbd 2af0 0ebf 3750 b2be
00000050: 3b7a b13e 6fda 50be bfd8 0a3f c758 df3e
00000060: 7bae 833c bc78 e2be fb1f c63e 2e8d 7a3e
00000070: c155 d7be a541 c83e b2d7 c33e d22c f13e
0.39073157 -0.55825675 -0.5591529 -0.3421327 0.46591666 -0.098473884 0.3129119 -0.33497673
0.5342119 -0.3405367 0.42316133 0.010906447 -0.36539453 0.35838965 -0.36234877 0.25110868
-0.14919677 -0.08355827 -0.5583521 -0.34826824 0.34663567 -0.20395826 0.5423698 0.4362242
0.01607441 -0.44232738 0.38696274 0.24467918 -0.42057613 0.39112583 0.382505 0.47104508

weight f4 [64, 32]
00000000: ae50 31be 58e7 213e a868 253e de56 003e
00000010: 2c76 32be 515c 0cbd a3fc 03be d27f 023e
00000020: b017 2fbe f00e 043e 2b2f 31be d582 5fbc
00000030: 7477 083e c6e3 fdbd ce3e 0a3e dc2f f0bd
00000040: ded5 9bbd 0dde a6bd af8d 073e 558d e53d
00000050: 1e23 06be fc6a 003e dc3b 2fbe 623e 34be
00000060: 89cb 2d3d 662c 193e 399e 2bbe cb1b f6bd
00000070: 2077 1f3e effb 2ebe cbab 2cbe 37f8 31be
00000080: 56ef be3c 0a3d f63b f6cc 5d3c 284f 5cbc
00000090: a534 e03b fb4d a53d 577f 863d 83eb 263d
000000a0: bdf9 a73b 2b06 dfbb 7320 823c e78c 0c3e
000000b0: de03 4f3b 6df1 2e3d 7705 493d caa5 113d
000000c0: 1696 8d3c e041 c13c 65b2 303d 2eea 42bc
000000d0: 42b5 793c 3666 bb3c 3a8f ae3b a987 343c
000000e0: 006e d13d 4ac2 9d3b d86b e13c f58d de3c
000000f0: 6701 ba3b 1218 d43c fd46 dd3c 5558 df3b
00000100: b0ae d53b 691d fd3b ef8b 163c cc7d d13b
00000110: 8fce 723b 0ef1 4cbe 240f 0e3c 40b7 8e3c
00000120: 5dfe 43bb 1b97 993b 2837 873b 0ed6 a0be
00000130: c83a 003c 978a fa3b dc2d 943c e218 e73b
00000140: b389 09be f375 10be b32d cb3c ffde 9c3b
00000150: 1e4d 0f3c 5789 673c dc27 49bb ef68 ad3b
00000160: 5d62 b0be 581e f43b 9a28 903b d2dc 533b
00000170: b3dc ab3b 340d a93b 9c2e b93b 2bfb 4f3b
00000180: 21d8 3d3c 6f2d 123c 3cd4 333c 6c57 4bbc
00000190: e89d f3ba a94f 8f3d 621e 333d fa90 afba
000001a0: 537c bcbb 7560 72bc 71a9 883b 6fed 353e
000001b0: 77b3 61bc 02f4 113d bf14 8b3b 6962 323d
000001c0: 010f 9e3c b6eb 463c a2aa fc3c 1687 2fbc
000001d0: d57c e13c bfcc 583c e63e babb 6083 cf3a
000001e0: 4955 063e 9e9e a539 383d 893c 6545 143d
000001f0: c548 6b3a 7ea7 4f3c b3f3 8f3c fd0c 05bb
00000200: f8e0 80be b59a 483e 1ba4 473e 2b72 413e
00000210: d906 60be c562 86bd 778f 6cbe c320 383e
00000220: 2afa 54be 410f 4a3e b719 74be 3fd0 76bc
00000230: 7db9 403e 9d1d 81be a8fb 523e be41 72be
00000240: c8cb 28bd 8578 3fbd 437e 493e fade 513e
00000250: 24b5 69be 5ee9 463e 45b5 54be 1ab4 6cbe
00000260: 753d 323d 63ed 603e b421 88be e445 4fbe
00000270: 1504 6e3e fcbd 81be 6923 70be 41b0 5ebe
00000280: decc 2abc 6aa6 ac3c f1f3 b73c 7146 8a3c
00000290: 3ec8 44bc 5335 aebd 76af bbbb 92a5 be3c
000002a0: adb2 8ebc dbf5 823c 9382 3cbc 3d46 82be
000002b0: cd58 933c e2b1 1cbc ace4 b43c f62e 39ba
000002c0: 50e1 89bc e34a c1bc 4054 bc3c 2cf7 903c
000002d0: 2407 07bc 9b93 963c 347f 8fbc 94fa 2dbc
000002e0: faa5 96be 93ab ac3c f640 42bc 0cad d4bb
000002f0: d7fb 993c d564 3ebc cc38 3bbc b217 4ebc
00000300: c23e 4d3b 4162 823c eabe 943c ce00 0a3c
00000310: 0a87 70ba 3577 0fbe ef82 ee3b ef73 0e3c
00000320: 606f 3dbc d4d1 8b3b b8cb 5339 9597 bfbe
00000330: 1e46 333c 067c 5a3b 9410 c23b d9c5 993c
00000340: 70b6 0dbd f487 0bbe c9c7 c83c cd36 cd3b
00000350: 435d a63b c2ea 2b3c 2c35 46bc 000a 0d3b
00000360: 66a4 d6be e9fc 5a3c 48c5 bdb9 3c42 753c
00000370: b2bf 223c 1ac0 553a fd5f b33a 5555 eaba
00000380: 7d42 e3bd c997 963d b1f6 ad3d ba1f bc3d
00000390: 3a80 cebd 339a 9fbc b5c6 e3bd 885c b33d
000003a0: 5428 bcbd 9f98 bf3d d6f6 dabd 5fec 9e3d
000003b0: ce86 de3d ec21 eebd a1f2 c23d eb3a d7bd
000003c0: faf9 07bc 7df2 8f3d 7d04 bc3d d946 ca3d
000003d0: d5e2 f3bd 024d 903d 58d9 bebd 6887 dfbd
000003e0: 556c 6c3e a620 963d 01f1 e3bd 662a d4bd
000003f0: 742a ce3d 54ad dfbd 4e8d e6bd 6fd5 ccbd
-0.17315933 0.15810907 0.16153204 0.12533137 -0.17427891 -0.034267727 -0.12889342 0.12744072
-0.1709888 0.12896323 -0.1730315 -0.013642033 0.13326818 -0.1239696 0.1350052 -0.117278785
-0.07609151 -0.081478216 0.13237642 0.112085976 -0.13099334 0.12540811 -0.17112678 -0.17601922
0.042430434 0.14958343 -0.16759576 -0.1201702 0.15572786 -0.17088293 -0.16862409 -0.17379843
0.023307484 0.0075146006 0.013537636 -0.013446607 0.006842213 0.08071514 0.06567257 0.040751945
0.0051262067 -0.006806155 0.015884614 0.13725625 0.0031587998 0.04271071 0.049077477 0.0355585
0.01728348 0.023590982 0.04313888 -0.011896653 0.015240969 0.022875886 0.0053271325 0.011018672
0.10226059 0.004814421 0.027517244 0.0271673 0.0056764367 0.025890384 0.027011389 0.00681595
0.0065210685 0.007724453 0.009188636 0.00639317 0.0037049388 -0.2001383 0.008670602 0.017421365
-0.002990625 0.0046872026 0.004126448 -0.3141331 0.007826515 0.0076459157 0.018088274 0.007052527
-0.13431434 -0.14107494 0.024802065 0.0047873254 0.0087464135 0.014131865 -0.0030693924 0.00529205
-0.34450045 0.0074499063 0.0043993713 0.0032327664 0.0052448153 0.0051590446 0.005651308 0.00317354
0.011587174 0.008921965 0.010975894 -0.01241098 -0.0018586488 0.06997616 0.043730147 -0.0013394647
-0.0057521253 -0.014793505 0.0041705896 0.17766355 -0.013775698 0.035633095 0.0042444165 0.043550882
0.019294264 0.012141159 0.030843083 -0.010713359 0.027525345 0.013232409 -0.0056837676 0.0015832
0.13118471 0.00031589431 0.016752824 0.036198992 0.0008975382 0.012674211 0.01757226 -0.002030193
-0.25171638 0.19590266 0.19496195 0.18891208 -0.21877612 -0.065618075 -0.23101602 0.17981248
-0.20798555 0.19732381 -0.23837934 -0.015064298 0.18820758 -0.25217906 0.20603812 -0.23657891
-0.041209966 -0.046745796 0.19677071 0.20495215 -0.22823006 0.1942496 -0.20772274 -0.23115578
0.04351564 0.21965556 -0.26588213 -0.20241505 0.23243745 -0.2534026 -0.23451008 -0.21746923
-0.010424821 0.021075446 0.022455188 0.016879292 -0.012010632 -0.085062645 -0.0057277037 0.02327231
-0.017419184 0.015986374 -0.011505741 -0.25444213 0.01798668 -0.009563895 0.022081695 -0.00070641877
-0.01683107 -0.02359528 0.022989392 0.017695986 -0.008241449 0.01838093 -0.01751671 -0.0106188245
-0.29423505 0.021077907 -0.011856308 -0.0064903554 0.018796844 -0.01162072 -0.011427116 -0.012578892
0.0031317924 0.015915992 0.018157441 0.008423043 -0.0009175396 -0.14010318 0.007278792 0.008694633
-0.011562198 0.004266957 0.00020198419 -0.37420335 0.01094201 0.0033338084 0.0059223864 0.018771099
-0.034597814 -0.13626081 0.024509327 0.0062626363 0.0050770356 0.010492982 -0.012097638 0.0021520853
-0.419223 0.013365963 -0.00036195875 0.014969405 0.009933399 0.00081539305 0.0013685223 -0.0017878214
-0.11096666 0.073531695 0.08494318 0.09185739 -0.10083051 -0.019482708 -0.11121885 0.08757883
-0.091873795 0.09355282 -0.106916115 0.07759928 0.10865556 -0.11627564 0.09518934 -0.105092846
-0.008299345 0.07028673 0.091805436 0.09876794 -0.11908499 0.07045938 -0.09318799 -0.109144986
0.230882 0.07330446 -0.11129952 -0.10359649 0.10066691 -0.109217316 -0.112574205 -0.10001647

bias f4 [64]
00000000: e78d 3a3b 8b08 18be c554 8dbd 122a 20be
00000010: 24f8 1b3b 7dfa 15bd c6cb cebb d7ed 13be
00000020: 5b0d eebd 3949 a23c c1f1 6bba 6c75 303e
00000030: 7853 f2bd c5b9 05be df84 603d a9bc eebc
00000040: 4c93 0abe f860 97bd d747 56be 5752 31be
00000050: 39cc 04bd 0dc8 bcbd c16b a338 af9d 843d
00000060: 33fb 36bd 5544 1cbe e914 d1bb 5390 38be
00000070: 65b9 36bd 829e 323d 5914 8abd 2e77 00be
00000080: 0d7b 32be d754 1f3c 446e 08bd 6ccb 303e
00000090: ec92 383d 3918 173d 62ca 80bd 13c4 0abe
000000a0: 17e6 32be d9b4 18bd f14d 3c3e e414 b93c
000000b0: 30ef 87bc 6b17 413e 5b68 47ba 8306 33be
000000c0: 3868 14be c162 a9bd 4f68 18be 53f3 ccbd
000000d0: a9e2 0ebe b591 cdbb 3cc9 f4bd a8bd 513e
000000e0: 04dc 33be 408a 68be 702b 123d de0f a2bd
000000f0: 370b 13be c18f e6bd ec2e b9bc 4e7f 45bc
0.0028465928 -0.14847009 -0.06900934 -0.15641049 0.0023799026 -0.036615837 -0.006310913 -0.14446197
-0.11623641 0.019810306 -0.0009000563 0.17232293 -0.11832327 -0.13059147 0.054814216 -0.029142695
-0.13532752 -0.07391542 -0.20925842 -0.17316566 -0.032421324 -0.09217844 7.7925164e-05 0.06475388
-0.044673156 -0.15260442 -0.0063806665 -0.18023805 -0.0446104 0.043608196 -0.06742162 -0.12545463
-0.17429753 0.009724817 -0.033308282 0.172651 0.04506199 0.036888335 -0.062886015 -0.13551359
-0.17470585 -0.037281845 0.18389107 0.02259297 -0.016593546 0.1885659 -0.0007606798 -0.17482953
-0.14492881 -0.08270789 -0.1488354 -0.10007348 -0.13953651 -0.006273473 -0.11952445 0.20482504
-0.17564398 -0.22708988 0.035685956 -0.07913183 -0.14359747 -0.11257888 -0.022605382 -0.012054278

weight f4 [32, 64]
00000000: c41e 0abe 6248 61bb 8f8c 453e baa8 833c
00000010: 296b 17be a05d 0c3e bfe3 5b3e 8e7a e9bd
00000020: 6458 9abd c969 14bd 079b 2ebe 8a3a 323c
00000030: 539a 87bb 97c1 88bd fe14 353d 90b5 063d
00000040: 913d 553e 7060 5dbb e52b 413d 63b8 9d3b
00000050: b9a9 213e 18c2 84bd 66f8 5cbc 6185 7cbe
00000060: cf45 863d 03cd d9bd 744e 19be c47a 453e
00000070: aa41 2bbc 5fa1 be3d e0e8 f2bd 6cde 1d3e
00000080: c5a9 ddbb 7088 9ebd 018a b93d 0c34 863d
00000090: fdc4 63bd a541 c5bc 0233 86bd c1b9 aabd
000000a0: d6b1 7f3e 249b 203e 46d7 72be fa9d f1bd
000000b0: 96d9 08be ca77 1b3d 18d1 3fbe 68b6 6d3e
000000c0: ec94 493e c423 4d3e 7a4b 6e3e d3df 69be
000000d0: 7ffc 5f3e 1b36 34be 883d 4ebd 8ee0 9f3c
000000e0: 00ff 2abd 7066 483d 406d 483d 05db 82bd
000000f0: f764 bfbb 7132 893c e22b 1c3e 587a 11bd
00000100: 2d8b 9a3d d6ab 8c3c 3348 10bd 9c41 f23b
00000110: e9e4 733d 1735 3ebd 212d 91bd c4fe 613d
00000120: dbe2 323d 07a7 323d ba50 803d 960c 5bbd
00000130: dd97 043d 67bd 783d 8eed 9e3b a7f4 7fbd
00000140: b1c6 02bd ad3f 92bd b8bb 5ebb 3614 5c3c
00000150: d7ef 9ebc 512d 513d 2f0d 703c dd10 d63d
00000160: d9a3 c33c c24a 273d 76f5 4d3d 0436 78bd
00000170: 0f58 203d 924d 71bc 3233 6a3d 7c49 0dbd
00000180: aebf d13c 0689 8a3d 6ac9 dfbc ff3c cebd
00000190: 4d4e 2a3d c1c3 d43c ab75 7f3d 95f1 393d
000001a0: b4b9 c2bd 4f11 8abd be26 e53d f492 9e3d
000001b0: e4b9 443d a03d 9bbd 87c3 8c3d f943 56bd
000001c0: 188c f0bc f3c5 9abd b8dc 9ebd fbd0 a4bd
000001d0: 2797 b4bd 2b5e 523d a642 4b3d 99f0 7abd
000001e0: 7e57 4c3d bd40 a73c b771 90bd ae00 163d
000001f0: 948b 023d e432 c13c 8c80 85bd 1d8c 5c3c
00000200: 6c7c 813e e1c9 0c3e d3d1 b73d 77e1 473e
00000210: 4c68 733e 5f69 ed3d 3821 7d3d c360 543e
00000220: 932b 7e3e b208 363e 0dbc 793e 19f8 163d
00000230: c428 3b3e 1c16 873e 5623 293e d47c 8d3d
00000240: 0194 473d c048 263d aa9c 3b3e 0b19 1d3e
00000250: fe0f dc3d e9f9 523e 49ce 89bd 42fd 33bd
00000260: 7d7a ec3d 1ebf acbd 5eae 773e 4768 973d
00000270: 87aa 0e3e 34fc a53d d31d 7d3e a059 9e3d
00000280: 2883 003e 186b 5b3e 0a55 b83d 5118 813d
00000290: f52a 453e 63ce 163e cd4c 7c3e 58f5 7d3e
000002a0: 3524 c73d c69d c13d b1da 75bd 1d99 6c3e
000002b0: e094 823e 77f8 293d 24d7 803e 0882 c63d
000002c0: 2f7c 523d 8243 683d 9216 8e3d f9ef 05bf
000002d0: 850c 773d 7f3d 793e 2d04 463e 928a 0f3d
000002e0: d79a 423e 7181 ce3d 3b0f 2e3d 562e 703e
000002f0: 5d2b 1b3e 4fdf 253e 4fa8 e53d 4639 8abc
00000300: cb6b b73d 18fd 00bc e5d1 ce3b a7b1 b7bc
00000310: afab b73d a759 10bd d7d7 17bd 2887 df3d
00000320: 1a7b 483c fe93 f53d 49a2 c83d 9603 06bd
00000330: 50de bdbc 11c1 c73c a5c6 833d fb67 54bd
00000340: e074 213c 632b 80bc 8207 1dbd e734 27bd
00000350: 55ec 1dbc a55d 033c 6c68 c83d 076b dbbd
00000360: 85a3 923d adac f7bd b35d d13d 0d57 053d
00000370: ef49 d03d 9b0a 083d c439 623d 1daf ae3c
00000380: f8b7 1d3d da82 483d 4bf4 4a3d f10b 9dbd
00000390: 1f56 e93d 2016 e23d a54a 1f3d 0809 593c
000003a0: 2deb e8bb 5e77 afbb f3c7 c0bd 877f bf3d
000003b0: 3e87 193d 1822 48bd c04e d93d 96e4 ecbc
000003c0: c045 963c 0332 a83b 1fcb 5ebd 9b4f babd
000003d0: 54e2 a0bc e976 b63d 37a4 0c3c 7725 32bd
000003e0: 4e27 433d d257 debc 4277 78bd 0538 503d
000003f0: e778 17bc 260b dbba 152f 1cbd 293f 913d
-0.13488299 -0.003437542 0.192919 0.016071666 -0.14786972 0.1370759 0.21473597 -0.114003286
-0.075363904 -0.036233697 -0.17051326 0.010878215 -0.00413827 -0.06677549 0.044209473 0.032887995
0.20824267 -0.0033779405 0.047161 0.0048132404 0.157874 -0.06482333 -0.013486957 -0.24660255
0.06556284 -0.10634806 -0.14971334 0.19285113 -0.010452667 0.09308123 -0.11860824 0.15416878
-0.006764623 -0.07740867 0.09059525 0.06552896 -0.055607785 -0.024079153 -0.06552698 -0.08336211
0.24970183 0.15684181 -0.23714933 -0.1179771 -0.13364252 0.037956037 -0.18732107 0.23214114
0.19685715 0.20033175 0.2327098 -0.22839288 0.21873663 -0.17598765 -0.05035165 0.019516256
-0.041747093 0.048925817 0.048932314 -0.06389431 -0.0058408934 0.016747685 0.15251115 -0.035517067
0.07546077 0.017171782 -0.035225105 0.007393075 0.059544478 -0.04643735 -0.07088686 0.055174604
0.043673377 0.04361632 0.06265397 -0.0534788 0.03237139 0.060727503 0.004850096 -0.062489178
-0.03192777 -0.071410514 -0.00339864 0.013432553 -0.019401474 0.051068608 0.014651581 0.10452435
0.02388184 0.04084278 0.050282918 -0.06059839 0.03914648 -0.014727967 0.05717773 -0.03449391
0.025604095 0.067644164 -0.027317721 -0.10070228 0.04157858 0.025972249 0.062368076 0.045396406
-0.09508076 -0.067415826 0.1118903 0.07742873 0.04802884 -0.075801134 0.068732314 -0.052310918
-0.029363677 -0.07557287 -0.077569425 -0.08047672 -0.088178925 0.051359337 0.049624108 -0.061264608
0.049888127 0.020416612 -0.070529394 0.036621742 0.031871393 0.023583837 -0.06518659 0.01346114
0.2529024 0.13748886 0.08975568 0.19519602 0.23770255 0.115923636 0.061799258 0.20740037
0.2482131 0.17776754 0.24388142 0.036857698 0.1827727 0.26384056 0.16517386 0.06908575
0.048725132 0.040596724 0.18321481 0.15341584 0.10745238 0.20603146 -0.06728799 -0.043942697
0.115468 -0.0843489 0.2418761 0.07392936 0.13932239 0.081047446 0.24718408 0.07731938
0.12550032 0.21427572 0.09000595 0.06303466 0.19254668 0.14727168 0.24638672 0.24800622
0.09723703 0.09453921 -0.060023014 0.23105283 0.25504208 0.04149672 0.2516414 0.0969277
0.051387962 0.056705005 0.06937899 -0.52319294 0.060314674 0.24339865 0.1933753 0.03504426
0.19004379 0.10083283 0.042494994 0.23455176 0.1515326 0.16198467 0.11213743 -0.016873013
0.08956107 -0.007872842 0.0063116425 -0.022423578 0.08968293 -0.03524175 -0.037071075 0.10914451
0.012236381 0.11991118 0.097965784 -0.032718264 -0.023177296 0.024384053 0.06434373 -0.051856976
0.009854525 -0.015645688 -0.038337238 -0.040821936 -0.0096388655 0.008017932 0.09785542 -0.10713773
0.07160095 -0.12093482 0.1022295 0.03255372 0.10170352 0.03321324 0.05523087 0.021323735
0.038505524 0.048952915 0.049549382 -0.07668293 0.113933794 0.11039376 0.038889546 0.013246782
-0.0071081133 -0.005354806 -0.09413137 0.09350496 0.037482493 -0.04886064 0.106107235 -0.028917592
0.018343806 0.005132915 -0.05439293 -0.09097215 -0.019639172 0.08909399 0.008584074 -0.04349276
0.047644906 -0.027141485 -0.060660608 0.050834674 -0.009245134 -0.0016711697 -0.03813084 0.07092125

bias f4 [32]
00000000: 05e4 3ebe ae8e 923d 17c6 9dbe 355c 2cbd
00000010: 74af d43d ba5f 313d 89dc 05be e262 c0be
00000020: 52b0 d63d 4e60 d83d 3712 9abd 3a49 703e
00000030: 5a7b d2be 8dde 013d 5e66 0f3e 68fe a3be
00000040: d93e 3fbd f1d7 44be 29fb 8e3c af99 52bd
00000050: 4b50 42be 767a 30be 1dd0 87ba 6d89 9fbe
00000060: 8a83 103d d987 89be 8184 a7bc 0c93 57bd
00000070: 2f2f 7dbd f926 3a3c 0006 f1bd f350 1abe
-0.1864167 0.0715612 -0.30815193 -0.042080123 0.103850275 0.043304183 -0.13072409 -0.37575442
0.10482849 0.10565244 -0.075230055 0.23465434 -0.41109735 0.03170638 0.14003894 -0.32030034
-0.046690796 -0.19223 0.017453747 -0.051416095 -0.18975942 -0.17234215 -0.0010361705 -0.31159535
0.035281695 -0.26861456 -0.020448925 -0.05263047 -0.061812576 0.011361831 -0.117687225 -0.15069942

weight f4 [32, 1]
00000000: 0198 44be 0468 1abe a75d 843e b638 10be
00000010: 1584 10be 43ef 42be d7c9 243e bf3b 49be
00000020: ace0 4ebe de5e 763e b45e 223e 680a 233e
00000030: 0e0f 40be 97c6 b3be 7c7a 0dbe 0e88 39be
00000040: cb2a 3d3e 2271 08be 7911 16be 0fb6 573e
00000050: 60e0 0ebe 51a0 36be 157c 15be 2bd5 0dbe
00000060: 14ae 47be 1257 6b3e 0f67 30be 6258 32be
00000070: 364d 48be 27d7 39be a25a 283e 9381 7a3e
-0.1919861 -0.15078741 0.258527 -0.14084134 -0.14112885 -0.19036584 0.16092621 -0.19651698
-0.20202893 0.24059626 0.15856439 0.15921938 -0.18755743 -0.3511245 -0.13816255 -0.18118307
0.18473355 -0.13324407 -0.14655103 0.21065544 -0.1395278 -0.17834593 -0.14598115 -0.13850848
-0.195 0.22982433 -0.17226814 -0.17416528 -0.19560704 -0.1814848 0.16440824 0.24463491

bias f4 [32]
00000000: 534a 4bbe 3d30 16bf 9b54 ae3d 2ba2 32bf
00000010: aa3a 31bf aabe 59be a209 4d3f 968d 2abe
00000020: d58e f3bd 48f2 1e3e ec0a 563f f778 523f
00000030: 6b3a 77be 3a88 ab3e 9945 3dbf f570 94be
00000040: 18ff 083f 3d18 4fbf 4adb 21bf c916 aa3e
00000050: c7d2 38bf 1bdf 9ebe e05f 25bf 91e7 3dbf
00000060: 87b8 33be 24e0 5b3e 8711 bbbe 9b81 b4be
00000070: a16a 2abe e07a 90be 07f0 443f bd2e 0d3e
-0.19852571 -0.58667356 0.08512231 -0.697787 -0.6923014 -0.21264139 0.80092824 -0.16655573
-0.118924774 0.1552211 0.83610415 0.8221583 -0.24143378 0.3350237 -0.7393432 -0.2899243
0.5351424 -0.8089636 -0.63225234 0.3322051 -0.7219662 -0.3102959 -0.6459942 -0.7418147
-0.1755086 0.21472222 -0.3653681 -0.3525513 -0.16642238 -0.28218746 0.7692875 0.1378736

weight f4 [64, 32]
00000000: b674 8d3a 24f0 b2bb c570 8e3c 8760 d1bb
00000010: 4fbf cfbb 3718 e939 e88b 463c 58b5 093b
00000020: 7ec7 883b 33ab 593c e84c 483c e23e 463c
00000030: ef57 adb9 f15f 88bd 6701 d7bb 33e4 c7ba
00000040: 49db 423c 3087 e8bb 934c bfbb c440 403c
00000050: 8f2d d8bb ada9 f9ba 6d49 c8bb 8eef dabb
00000060: 3cc2 e53a bff1 483c b791 46bb b096 36bb
00000070: 9a22 133b d311 a4ba 9598 463c 42c1 623c
00000080: 494e 7d3d 8226 1f3d c473 c8bd 03c5 123d
00000090: 6f55 133d 8d2b 773d 85a2 10bd ef0a 873d
000000a0: 0aad 953d 4a82 a3bd ce60 0ebd 0f36 0fbd
000000b0: 04a7 6b3d d605 a53e 88c0 0f3d 3f82 593d
000000c0: 0514 30bd 57de 093d 4bba 193d 0f13 62bd
000000d0: 4496 103d b7f0 523d 5416 183d 3287 0f3d
000000e0: a176 843d 616e 8dbd 067f 443d 8dd0 473d
000000f0: 7a15 873d 74f3 5b3d f9f0 13bd 80d0 abbd
00000100: 3f21 703d 9a53 ab3c 4e89 f8bd 85aa 883c
00000110: 189b 8a3c 8dd6 633d 140f 81bc 4a92 883d
00000120: 97aa a93d e840 adbd c9f3 73bc 1c41 78bc
00000130: cf71 4e3d a671 8e3e d53f 803c d07c 303d
00000140: 49d5 d7bc e5cf 613c c46b 9c3c 7e30 35bd
00000150: e7d3 833c 2736 253d 19b6 973c 13ba 7d3c
00000160: 0a8d 833d c043 87bd c134 0e3d 0836 133d
00000170: ae56 883d bc9e 333d 5c90 88bc 3521 bcbd
00000180: 92e3 393d 2c05 ef3c 32d9 9bbd 0660 dc3c
00000190: 1f3c de3c 77ca 353d d554 d6bc 7b13 463d
000001a0: 0d1a 5c3d 2687 75bd a683 d2bc b640 d4bc
000001b0: 31d5 2c3d 6dd0 833e 2af7 d73c 2ccb 203d
000001c0: 5329 02bd 230b d03c 0b66 e73c 4717 27bd
000001d0: 2fe8 da3c a09a 1b3d 931e e43c bc7a d73c
000001e0: 2074 423d 03d2 51bd 586e 113d 39d2 133d
000001f0: 7cb7 453d fc4a 223d 7e33 dabc 8d73 81bd
00000200: b204 1c3d e325 9d3c 8fb8 92bd 7a27 8c3c
00000210: 189d 8d3c 7688 153d 63cc 71bc 9de3 2d3d
00000220: 8a27 523d 51d6 4abd 3d82 69bc 4b3c 6bbc
00000230: 947a 0a3d efd1 0ebd 45d2 883c 7db6 f53c
00000240: d94f 9dbc 5aa5 803c 8d02 963c a37b e1bc
00000250: bff1 8a3c 3cff ea3c ae86 933c 33ae 873c
00000260: f7a1 283d ef69 1fbd d1f2 d33c 55bc d83c
00000270: 68b8 2d3d 7854 fa3c 4c53 77bc 092a 5dbd
00000280: a90f 823d 9357 123d b253 e9bd 3e23 043d
00000290: 4851 043d 0f24 7c3d 4728 03bd ee93 8c3d
000002a0: ccfd a03d 2ce7 b0bd 5e26 00bd 5770 01bd
000002b0: 0c15 6d3d 3f70 fd3e fd80 003d 32ef 573d
000002c0: bf5a 29bd 110e f33c eb44 0c3d a08b 65bd
000002d0: fa3d 023d 4083 503d 494b 0a3d 602e 003d
000002e0: 8475 893d 2ad8 94bd cff9 3e3d 4312 433d
000002f0: 6162 8c3d dfb3 5a3d 6d40 07bd 9bea bbbd
00000300: a81e 92bd 6ab0 59bd 3ae1 0c3e 24e3 51bd
00000310: 2075 52bd 9639 8fbd afaf 673d 50e3 9abd
00000320: 3361 abbd 4f9a df3d ad13 653d 698b 663d
00000330: fe3f 8abd 57c5 ddbe 6029 50bd aca8 82bd
00000340: 31c9 833d d182 4cbd d484 56bd 50cd 9f3d
00000350: 03a0 50bd a5d6 7fbd aa4a 55bd 1b1c 50bd
00000360: 8214 98bd b923 c23d 827c 74bd 236c 77bd
00000370: 0f56 9abd a763 83bd ce29 6b3d 114b eb3d
00000380: 6371 6d3d 07bc d73c 90d4 cebd b1f6 b73c
00000390: f53b b93c 0d4a 643d 29e1 a0bc 8560 833d
000003a0: 54c4 9a3d 30b5 99bd c06d 9abc 527f 9bbc
000003b0: bbde 523d 5bc1 fd3e afb4 ae3c fcca 3a3d
000003c0: 8fc4 ebbc 2dbd a03c 046a c83c 453c 34bd
000003d0: 8b9b b23c b80a 313d 89f1 c53c e1e1 ae3c
000003e0: 64bb 7e3d f6df 7abd 8084 1d3d bd6a 223d
000003f0: 3d09 833d cd9e 3d3d 073c a7bc 4abe a4bd
0.0010792229 -0.005460756 0.017387757 -0.006389681 -0.0063399444 0.00044459265 0.012118317 0.002101263
0.004174172 0.013285446 0.012225367 0.012099953 -0.00033062647 -0.06658924 -0.0065614465 -0.0015250504
0.011893102 -0.0070961937 -0.005837986 0.011734191 -0.006597228 -0.001904776 -0.0061122687 -0.006681389
0.00175292 0.012264668 -0.0030299255 -0.0027860813 0.0022451044 -0.0012517519 0.012121339 0.013840022
0.061842237 0.038855083 -0.097877055 0.035832416 0.035970148 0.060344268 -0.03531124 0.06593882
0.07308395 -0.07983835 -0.03476029 -0.034963664 0.057532325 0.32231015 0.03509572 0.053102728
-0.042987842 0.033659305 0.03753118 -0.055193957 0.035299554 0.051499095 0.03713067 0.03504104
0.06467939 -0.06905819 0.0479727 0.048782874 0.06595893 0.053698972 -0.03611848 -0.083893776
0.058625456 0.020913888 -0.12135564 0.016682873 0.016919658 0.055624533 -0.01575426 0.066685274
0.082844906 -0.084596455 -0.014889666 -0.015152242 0.050401505 0.27821082 0.015655437 0.04308778
-0.02634682 0.013782476 0.019094355 -0.0442357 0.016092254 0.040334847 0.018519448 0.015486258
0.064233854 -0.06604719 0.03471828 0.0359402 0.06657158 0.043852553 -0.016670398 -0.09186021
0.045383044 0.02917727 -0.07609786 0.026901256 0.027128277 0.04438254 -0.026163498 0.04835842
0.05373578 -0.05994334 -0.02569754 -0.025909763 0.042195503 0.25744954 0.026362974 0.03925626
-0.03177769 0.025395935 0.0282469 -0.040793683 0.026722042 0.03798926 0.02784661 0.026303641
0.047474027 -0.051225673 0.035505623 0.036089156 0.048270687 0.039622292 -0.026635882 -0.06320868
0.038090415 0.019183105 -0.07164108 0.017108668 0.017286822 0.036507092 -0.014758202 0.042453397
0.05130724 -0.049520794 -0.014252243 -0.014357637 0.033808306 -0.034868177 0.016701827 0.029994244
-0.019203113 0.015703846 0.018311763 -0.027524775 0.016960977 0.028686158 0.018008556 0.016562557
0.041170087 -0.038919386 0.02587262 0.026456991 0.04241219 0.030557856 -0.015095543 -0.053995166
0.06350643 0.03572805 -0.11392917 0.032260172 0.03230408 0.061557826 -0.032020833 0.06864153
0.07860908 -0.086378425 -0.03128659 -0.031601276 0.0578814 0.494997 0.031373013 0.05271835
-0.041346308 0.029669793 0.034245413 -0.05604136 0.031797387 0.05090642 0.033763204 0.031294227
0.067118675 -0.072677925 0.046624955 0.047624838 0.06854702 0.053394195 -0.033020426 -0.09175607
-0.071347535 -0.053146757 0.13757792 -0.05124201 -0.05138123 -0.069934055 0.05656403 -0.07562888
-0.08368149 0.10918104 0.055926967 0.056285296 -0.06750487 -0.4331462 -0.05082071 -0.06379828
0.064348586 -0.049929444 -0.05237277 0.07802832 -0.05093385 -0.06246056 -0.05207316 -0.050808053
-0.074257866 0.0947947 -0.059689052 -0.06040586 -0.075359456 -0.064154916 0.057412915 0.11488927
0.057969462 0.026334776 -0.10099137 0.022456499 0.022611598 0.055734683 -0.019638615 0.06414894
0.07556978 -0.07505262 -0.018851161 -0.01898161 0.051481944 0.4956158 0.021326391 0.045603737
-0.02878025 0.019621456 0.024464615 -0.04400279 0.021802684 0.043223113 0.024163025 0.021347942
0.06219043 -0.061248742 0.03845644 0.039652575 0.063982464 0.046294022 -0.020414365 -0.08044107

bias f4 [64]
00000000: dead eabd ed63 9b3d f053 093e b52c 603d
00000010: 885b 15bc e44d 813c 70e6 fdbd d527 6abd
00000020: d3e9 e8bb ef60 313d 061b e13d 7f6a 753d
00000030: b849 073e 025f 04be a866 8e3d 9a1a 9e3c
00000040: 74d4 e8bd 468d 07be dca6 2a3e d2b0 74bd
00000050: 3ed6 fbbd 166b e0bd 2b57 903c b9d2 9c3d
00000060: f88d 96bb b202 75bc f6c4 7abd 237b 093c
00000070: 5dc6 b0bc 7250 223e 9c5e 1b3d aa18 55bd
00000080: b264 3e3d 44ec b0bd c867 d2bd f2e3 57bd
00000090: 6e8f 353e de36 7e3d 333c fdbd 5cde 2c3e
000000a0: db6e d9bd 36b9 953d bfa6 343a e4ae 83bd
000000b0: b0da 0abd c90c c4bd 3870 233e 56f4 76bd
000000c0: f846 8cbd e909 e6bd c790 8d3d e15e 123e
000000d0: 810c 0b3c ea5d 5ebd 4aed cf3c 7e9d 78bd
000000e0: 3205 363e 9867 36bd 61c6 3b3d cf4f 183e
000000f0: b619 3cbd ab4e 1a3e 0cca a63d 72e8 0abd
-0.11458944 0.07587419 0.13410926 0.054730136 -0.009116061 0.015784211 -0.12397468 -0.057166893
-0.007107952 0.043305334 0.109914824 0.059916016 0.13211715 -0.12926868 0.06953174 0.019299794
-0.11368647 -0.13237485 0.16665214 -0.05973894 -0.12296723 -0.10957925 0.01761969 0.0765738
-0.0045945607 -0.014954256 -0.061222993 0.0083911745 -0.021578962 0.15851 0.037932023 -0.052025475
0.04648275 -0.08638814 -0.10273701 -0.05270762 0.17730495 0.062064044 -0.12364998 0.16881698
-0.10616847 0.07310717 0.0006891302 -0.06429842 -0.033899963 -0.09572751 0.15960777 -0.06029161
-0.06849474 -0.11232359 0.0691238 0.14294006 0.008486868 -0.054288782 0.025381703 -0.06069707
0.1777542 -0.04453239 0.045843486 0.14874195 -0.045922957 0.15069072 0.08144006 -0.033913083

weight f4 [32, 64]
00000000: 8d31 013e 7dd4 1f3d 28b5 4bbe 2e7b b03d
00000010: 260b 993d 046f b73d 3855 91bc ec0b cd3d
00000020: 2fa9 c43d 472f 643d 5026 b0bc 2dee 933d
00000030: 475f 4bbe 4225 aebc 8001 943d 0595 d13d
00000040: fc3e 333d 8ef9 cbbc 3d89 50be a1f4 27bd
00000050: 2467 bcbb 439a 42bd 3eae a93d c37a 923d
00000060: 375d c33d 30a4 af3d 3eaf 933d 9a95 ce3d
00000070: 3609 86bd 164c 45be 4015 a83d e862 03bd
00000080: 405f b63d cc4b 893d 380e d23d 91fd 0fbc
00000090: 2abf 51be 8aa5 8b3d dc2f 12bc 67a9 4fbe
000000a0: 4dc6 90bc 1c53 743d ddb0 e63d 1ffa cc3d
000000b0: ddf4 95bd 5182 843d 12e7 31be c967 c0bc
000000c0: 0136 9c3d 6fd5 90bb 18e7 633d 0e35 27be
000000d0: 96c8 ce3d 0dcf 8abd 320d ac3d dc8e 21bd
000000e0: 40a2 47be 1dc7 ee3d c9be ae3d 5c64 4ebe
000000f0: e3ee d13d c6d3 3abe 5591 803d 1f89 9f3d
00000100: b285 e53c a58a 053c 2526 89bc c208 db3c
00000110: 5e91 353d c575 d03c 5831 27bd 21ab c0b9
00000120: 69a7 ba3c c937 84bb 51a5 733c 7b51 963c
00000130: 159e c4bc 92b2 18bd ed91 4cba fd52 053d
00000140: c068 a93d 35ac 02bd 877b 4bbc 4de3 98bd
00000150: b039 34bd 29b9 05bc 9a11 da3c 1f78 2b3c
00000160: 42e2 973d 43bc 0e3d 1b54 893b edf3 663d
00000170: 711c b93c bef8 49bb f52e d7ba 3384 9cbc
00000180: b39a ab3c 187d 3a3c e3c5 0e3d e966 37bd
00000190: 5677 4bbc b8da cd3b 9ed9 43bd d034 92bb
000001a0: 6def 16bd 7fc4 e43a 90b6 2bbb 34c2 f43b
000001b0: 06fc 453a 13ef 6d3d 66c2 6fbc 7eef 79bc
000001c0: e35d 883a 57f4 1abd b42f bf3c 8eea 8cbc
000001d0: 2761 1f3d a453 69bc 6383 8d3c c7bc d4bb
000001e0: 17f3 42bc 59d8 583d d87c 3fbc 6e9a 28bc
000001f0: 9c63 853b 617c f3bb d861 81bc fae7 fe3c
00000200: 4bbd 033e e108 5a3e 7cc7 d03d fd43 333e
00000210: 6a10 d63d 32d7 3c3e ac7c ecbd dddf 553e
00000220: 3011 2e3e cf00 3a3e 5627 ba3c cd9c 4b3e
00000230: 97c3 df3d 7b08 f6bd 6b57 6d3e 6168 3a3e
00000240: 9ab4 473d 0371 00be ddd5 d73d b473 b9bd
00000250: 2191 debd 01f1 21be e6a7 213e 3917 473e
00000260: 9c0a 2b3e 4703 513e d4ea 86bc da6a 383e
00000270: 2f4a 21be b6f1 bf3d 24df 2b3e 9cb2 09be
00000280: bb93 593e 52cf e93d 0eeb 1a3d 0de8 dbbd
00000290: f1ca 5d3d 82de 4f3e fbb7 d9bd d3f0 d83d
000002a0: 560e efbd 768d 473e 949b 083e 7cbb 2f3e
000002b0: 6180 08be 3440 6a3d 9932 333d a546 e7bd
000002c0: 707b 3b3e baee e5bd 3739 3a3e 8b7e a53d
000002d0: b01b 4b3e d56f 0fbe 5b71 483e c91b 12be
000002e0: ddf6 c73d bdc9 973d 4df9 4a3e 2ef7 c03d
000002f0: 2165 083e ca1e 4d3d 5b1b 5e3e e77a 473d
00000300: 3e0e f13d f81b 1a3c f882 12be 50a6 d13c
00000310: cf3a f13d 0b86 2b3b c96d fabc 403a dabc
00000320: 48ae 1a3c 1dc4 04bc d7b2 9fbc 406f 2e3c
00000330: 0be5 f0bd 667b 05bd fed6 033c 0c16 583c
00000340: 9a93 213e 6859 06bd f6a6 f3bd 965c 26be
00000350: f5e5 03bc f0ce 893c bf09 523c 5de2 95b8
00000360: af5d 163d f6df 0f3c ba69 5a3a 322e fd3c
00000370: 997f dd3d b507 febd a29e 1bbc a26a f5bc
00000380: 0499 0dbb 221f 1d3d 27f3 e43d 37f3 8bbc
00000390: 1b36 00be 0470 8bba fbd5 c8bc 4e40 d9bd
000003a0: 9c7b 8ebc 03ae 0abc 1c7d 92bc 8291 6ebb
000003b0: 880a d43c 3ea4 173e f913 09be 6294 b33c
000003c0: cbba 21bb 77e2 0d3c 664c 633c b26d 08be
000003d0: 9ef8 bb3c e1a8 9e3b 6918 6e3a ac94 e1bc
000003e0: 8066 ebbd cbf6 c53d e9d0 2fbc 8962 dcbd
000003f0: 0459 403c e0c5 00be c0b5 73bc 78c3 853d
0.12616558 0.039021004 -0.19893324 0.08617245 0.074728295 0.089567214 -0.01774083 0.100120395
0.09602582 0.05570915 -0.021502644 0.07223163 -0.19860564 -0.021258 0.072268486 0.10233501
0.04376124 -0.02489927 -0.20364852 -0.04100478 -0.0057496 -0.047510397 0.08285187 0.07152321
0.09539264 0.08576238 0.07211159 0.10087128 -0.065447256 -0.19267306 0.08207178 -0.032076746
0.08904886 0.0670391 0.10256618 -0.008788482 -0.2048308 0.068186834 -0.008922543 -0.20279466
-0.017672682 0.05964957 0.11264203 0.10008644 -0.073220946 0.064701684 -0.17373303 -0.023486989
0.07627488 -0.0044199745 0.05564031 -0.16328833 0.100968525 -0.06777773 0.08400954 -0.039442882
-0.19495487 0.116590716 0.08532483 -0.20155472 0.10250642 -0.18244848 0.0627772 0.07789826
0.028017852 0.008150731 -0.016741822 0.026737574 0.044328086 0.025446782 -0.040818542 -0.00036748595
0.022784906 -0.0040349704 0.0148709575 0.0183494 -0.02400116 -0.037279673 -0.0007803727 0.032549847
0.082719326 -0.03190251 -0.012419588 -0.07465229 -0.044000328 -0.008161821 0.026619721 0.010465651
0.07416202 0.03484751 0.0041909344 0.05638497 0.02259657 -0.0030818428 -0.0016417193 -0.019106006
0.02094779 0.011382364 0.03485669 -0.044775877 -0.012418589 0.006282177 -0.047814958 -0.004461862
-0.036849428 0.001745358 -0.0026201345 0.00746944 0.0007552508 0.058089327 -0.014633751 -0.015254853
0.0010403957 -0.037830677 0.023338176 -0.017201688 0.03891101 -0.014241133 0.017274564 -0.0064922306
-0.011898777 0.0529407 -0.01168748 -0.010290725 0.0040707123 -0.0074305986 -0.015793726 0.031116474
0.12865178 0.2129245 0.101942986 0.17506404 0.104523495 0.18441465 -0.11547217 0.20886178
0.16998744 0.18164371 0.022723835 0.19884034 0.10925978 -0.12013336 0.23177879 0.1820388
0.04875622 -0.1254311 0.10538838 -0.09055272 -0.10867525 -0.15814592 0.15786704 0.19442452
0.16703266 0.20411406 -0.016469397 0.1800951 -0.15750955 0.093722746 0.1678434 -0.1344704
0.21247761 0.11416496 0.037821822 -0.107376195 0.054148618 0.20299724 -0.106307946 0.105928086
-0.11672656 0.19487557 0.13340598 0.17161363 -0.13330223 0.057190135 0.043749426 -0.11292771
0.18308806 -0.11227174 0.18185888 0.08080777 0.1983478 -0.14007504 0.19574492 -0.14268412
0.09763882 0.074115254 0.19821663 0.09422146 0.13319828 0.05007819 0.21690123 0.048701193
0.117702946 0.009406082 -0.14307773 0.025592 0.11778795 0.0026172425 -0.030569928 -0.026639104
0.009440966 -0.008103398 -0.019494457 0.010646641 -0.117624365 -0.032588385 0.008046864 0.01318885
0.15778962 -0.03280011 -0.1189708 -0.16246256 -0.0080504315 0.016822308 0.012819706 -7.147037e-05
0.036710437 0.008781424 0.00083317945 0.030905817 0.10815353 -0.12403814 -0.00949827 -0.029958073
-0.0021606097 0.03835977 0.1117919 -0.017083747 -0.1252064 -0.0010638242 -0.024516096 -0.10607968
-0.017392926 -0.008464339 -0.017881922 -0.0036402647 0.025883928 0.14808747 -0.13386525 0.02192134
-0.0024677988 0.00865995 0.013873195 -0.13323095 0.022945698 0.0048419093 0.0009082617 -0.027536713
-0.1149416 0.09666213 -0.01073096 -0.107609816 0.011739973 -0.12575483 -0.014874876 0.06531423

bias f4 [32]
00000000: 9a61 13bd 52a0 2cbd 4a0d 2cbe 1ec6 91bc
00000010: 450e 97bd 2ed9 19be a489 38be 41d8 833d
00000020: b67e 2ebb 3785 b1bd b39a 13bd e2d2 9d3d
00000030: 3102 1c3e d860 f4bb ff2e 33be 0fec 5bbc
00000040: 4153 ffbd 3a12 aa3d 2bf7 02bd 3bc0 d3bd
00000050: 62dc 15be ba94 0ebe 1b4a 553c 0c84 79be
00000060: 980d 873c 1c75 233e 76f2 84be 8aba 91bd
00000070: b06a a6bd 2345 8b3c f51b afba be56 4c3e
-0.035981752 -0.04214508 -0.16801944 -0.017794665 -0.073757686 -0.15024254 -0.18021256 0.064377315
-0.0026625819 -0.08667987 -0.036036205 0.07706238 0.15235211 -0.0074578337 -0.17498396 -0.01342298
-0.12467051 0.08304258 -0.031974 -0.103393994 -0.1463485 -0.13923922 0.013018156 -0.24366778
0.016485974 0.15962642 -0.25966233 -0.07115658 -0.08125818 0.01700074 -0.0013359772 0.19954965

weight f4 [32, 1]
00000000: a0e6 053f b399 ddbe 5f20 f73e 9de2 19bf
00000010: 6c90 00bf 4844 1ebf f437 ba3e 4f6b ef3e
00000020: 04c6 17bf 7006 81be d10d 01bf f203 9bbe
00000030: 4264 02bf 0707 78be dd29 ff3e 621d 0d3f
00000040: 38eb cd3e 1531 77be 4221 0a3f 029f 80be
00000050: 4d34 f33e 2d6f 913e f176 ac3e 16d8 15bf
00000060: 19c2 bc3e f7be 163f aa51 163f 8ac7 bd3e
00000070: b413 e03e 2b31 c23e 2fe2 17bf 0f1c 1b3f
0.5230503 -0.43281326 0.48266885 -0.6011141 -0.5022037 -0.6182294 0.36370814 0.46761557
-0.5928652 -0.25200224 -0.5041171 -0.30276448 -0.5093423 -0.2422143 0.49836627 0.5512296
0.4021852 -0.24139817 0.53957 -0.25121313 0.4750084 0.28405133 0.33684495 -0.58532846
0.36866835 0.5888514 0.5871836 0.370663 0.43765032 0.37928137 -0.59329504 0.6058969

bias f4 [32]
00000000: 8a55 2f3c 9c97 c93e 93d8 f8be ce83 073f
00000010: e0f5 d73e 9a80 183f 0c19 86be 6bfc a9be
00000020: bd34 023f 28b3 733e 44ea d83e 0406 983e
00000030: 686a db3e c9db 583e 81a9 00bf 36d2 3b3c
00000040: 9213 74be 6649 583e 091d 0dbf a1dc 743e
00000050: a2f6 f6be 218a 29be fc70 b4be 24da fc3e
00000060: 9327 cebe c337 e1be 72dc f4be c549 903b
00000070: dd65 a5be e9db d2be e83c 023f 7156 1dbf
0.010701546 0.3937348 -0.48602733 0.52935493 0.42179775 0.5957123 -0.26190984 -0.33200392
0.5086172 0.23798811 0.4236623 0.2969209 0.4285462 0.21177591 -0.5025864 0.011463692
-0.2383559 0.2112175 -0.5512243 0.23912288 -0.4823504 -0.16556598 -0.3524245 0.49385178
-0.40264568 -0.43987855 -0.47824436 0.0044033253 -0.32304278 -0.41183403 0.50874186 -0.61460024

weight f4 [64, 32]
00000000: 88ce 9f3e 38f7 babd cd9c 8e3d e186 2cbd
00000010: d7fd adbd 5b47 ccbc 2cc0 59be 41f7 b5be
00000020: d127 4abd 97bf 38be 968c afbd 5fc4 d8bd
00000030: 95e8 a9bd cd75 78be aea3 5f3d 72a5 a93e
00000040: 70d8 0ebf d34c 80be 73a6 2e3d 116f 35be
00000050: 2878 6b3d 84b4 04bd 6ac0 c53d 353e 66bd
00000060: 190c b13d 9080 1ebd 5580 a13c 5ebe 603e
00000070: 6398 b0ba 8e73 943d 9658 47bd 1c31 083d
00000080: 6bd3 bf3e 68a8 68bd 0458 353d c3ce eabc
00000090: 90fe 56bd dc08 9dbc 4cc8 3b3d 7efa 47be
000000a0: 489d 04bd 9610 10be 4d8d 58bd 5423 8abd
000000b0: 8134 53bd 4524 3fbe a3f0 203d c9a0 cc3e
000000c0: 294d 853e 7ffe 45be 7b2d fb3c 3a9b 0dbe
000000d0: de4b 203d 9c7c 913e d5db 563d 3f32 13bd
000000e0: e8e8 443d 6b50 753c 7924 703d cd94 903e
000000f0: f670 993d a1ec 373d 3d9e 02bd 9d92 bb3c
00000100: 7924 173e 11f3 893c 86c8 3eba 7171 323c
00000110: 805b 913c 0ed1 f73b d83d 1abe b626 12be
00000120: 17c5 3e3c 9b84 4f3d 29b5 8b3c 0c98 663c
00000130: 7191 863c 824b 363d 6dee 59bc f37a 223e
00000140: 574f fcbd f124 353d 61b5 c038 3ccc 5e3d
00000150: 08b2 21bb f092 01be 3490 3339 d8d4 523c
00000160: fa40 9c3a 2941 ebbd 417a aabd 32d0 513d
00000170: b0bb c4bd eaf2 b4ba bd84 383c 501d 7dbb
00000180: 4a16 b93e 7ccb 30bf da37 623e 803e 4bbe
00000190: 6ab4 04bf 0176 0dbe af1f 153f 9957 173f
000001a0: baf8 68be a265 3abf 28fa 05bf 73b1 33bf
000001b0: 44a1 fdbe 9a8c f8be de3e 963e da8f c23e
000001c0: 8c7b 033f 1347 f9be 6516 6e3e b14b 3bbf
000001d0: 9ba1 b93e 31b0 9c3e 5f92 c83e d26c 82be
000001e0: 9303 cc3e 4397 a23e d78d 7a3e aedb 883e
000001f0: e8ae 123f c0d8 d83e 082e 65be bdc1 f33d
00000200: c064 36bb f4d9 60bd 8389 903d fb72 9abd
00000210: c4ec 78bd e58a a5bd abfd 8dbe e4b6 9ebe
00000220: 626f 95bd 03ed 98bd 47ed 7dbd a4f7 8cbd
00000230: e38f 7fbd 9e5a a8bd 0ecc 5d3d 73ef 633c
00000240: 55d8 d1bd d666 acbd b651 9c3d 61dd 98bd
00000250: 4d7c 873d 50ed f5bd 8b40 8d3d af2f 92bd
00000260: adcc db3c 1879 72be 20c7 e2bd d51d 43bd
00000270: 3c3e 83be 4029 5e3d d043 95bd a404 9b3d
00000280: cc14 10bf 5a33 823d 53e0 7cbd 7d36 973d
00000290: c112 a33d 7641 823d f20f e2bd bdd1 9abd
000002a0: 6cac 9e3d fb2f f73d 38f6 a63d 2319 653d
000002b0: 48f0 a73d b2bb 003e 9bf9 70bd 3fb5 0dbf
000002c0: a113 83bf 00ad 033e 63cb 83bd 2e4b f03d
000002d0: dae5 5dbd b363 0dbe 5fe2 25bd 4b1f a63d
000002e0: af8a 3abd c8b0 eebd 481b bcbd 9395 09bf
000002f0: 5f57 d4bd 18c2 29bd 112a 9d3d 5382 81bd
00000300: eb56 9c3e c5c1 cfbd 20d4 a63d 04a3 6bbd
00000310: 259f bdbd 94c1 32bd 6990 11be f570 90be
00000320: c70f 82bd aba9 42be 3a1f bebd 94a4 f5bd
00000330: a2c7 b9bd 18b3 78be bca3 8d3d 81e8 a33e
00000340: 3478 21bf d59e 7ebe 27b0 6c3d a0c0 3fbe
00000350: a542 933d b37a b8bd be2a d53d a934 8cbd
00000360: c780 cb3d d743 f53b c9c1 7c3d 5e0b 5e3e
00000370: 85ad 483d f859 b63d ec59 80bd 0b55 513d
00000380: c58a b93e d02e 32be 1436 143e 63c5 cbbd
00000390: a9f9 43be 1338 73bd 8ee9 96be a723 03bf
000003a0: 81e9 eebd ae92 8abe 5917 47be 63b7 30be
000003b0: 460e 43be b858 babe 72ef a53d 4136 c13e
000003c0: e3f7 0fbd c5e7 c2be 5997 bd3d a3b4 87be
000003d0: 7679 df3d 2006 a43e 0bbb 193e 0852 0abe
000003e0: a932 013e e299 68be f535 303d 4a32 8d3e
000003f0: 2e85 efbd 6b60 eb3d 46b1 e9bd 5ddc 6f3d
0.31212258 -0.091291845 0.06963501 -0.042120818 -0.08495682 -0.024936369 -0.21264714 -0.35540202
-0.049354378 -0.18041836 -0.085717365 -0.1058433 -0.082963146 -0.24263687 0.054599456 0.33134037
-0.5579901 -0.25058612 0.042639207 -0.1771815 0.057487637 -0.032398716 0.09655841 -0.05621167
0.086448856 -0.038696826 0.019714514 0.2194762 -0.0013473149 0.07248603 -0.048668467 0.03324996
0.37465987 -0.05680123 0.04427339 -0.028663045 -0.052488863 -0.019169264 0.045845315 -0.19529149
-0.032376558 -0.14068827 -0.05286913 -0.067450196 -0.051563744 -0.1866618 0.03929199 0.3996642
0.2603543 -0.19335364 0.030661335 -0.13828745 0.039134853 0.28415382 0.052455742 -0.03593659
0.04807368 0.014972786 0.058628533 0.28238526 0.07492249 0.0449034 -0.03188919 0.02289706
0.14760007 0.016839536 -0.0007277805 0.010891304 0.017743826 0.007562763 -0.15062654 -0.1427258
0.01164367 0.05066357 0.017054157 0.014074337 0.016426774 0.044505604 -0.013301474 0.15867214
-0.123198204 0.044224683 9.189058e-05 0.05439399 -0.0024672765 -0.12653708 0.0001712449 0.012868129
0.001192122 -0.11487038 -0.08324099 0.05122394 -0.09606111 -0.0013805304 0.011262116 -0.0038622208
0.36149818 -0.6906049 0.22091618 -0.1984806 -0.5183779 -0.13814546 0.5825147 0.5911804
-0.22751132 -0.7281133 -0.52334833 -0.7019264 -0.49537098 -0.4854477 0.2934484 0.38000375
0.5136039 -0.48687038 0.2325073 -0.7316237 0.36256108 0.30603173 0.39174172 -0.25473648
0.39846477 0.3175603 0.2446817 0.26730102 0.57298136 0.42352867 -0.22380841 0.11902187
-0.0027831048 -0.054895356 0.07057478 -0.07541462 -0.060772672 -0.08083133 -0.27732596 -0.3099891
-0.07296635 -0.074670814 -0.061993863 -0.06883171 -0.06239308 -0.08220409 0.05414968 0.01391207
-0.1024634 -0.08418052 0.076327726 -0.074641 0.06615505 -0.120081544 0.06897076 -0.07138001
0.026830995 -0.23679006 -0.11073136 -0.047635872 -0.2563342 0.054238558 -0.07288325 0.075692445
-0.56281734 0.06357451 -0.06173737 0.0738344 0.079625614 0.06360142 -0.110381976 -0.07559536
0.077477306 0.120696984 0.08152431 0.055932175 0.08200127 0.125716 -0.058831792 -0.55354685
-1.0240365 0.12858963 -0.06435277 0.117330894 -0.05417428 -0.13807563 -0.040499087 0.081114374
-0.045542415 -0.11654812 -0.09184891 -0.5374386 -0.10368227 -0.041444868 0.07674039 -0.063236855
0.30535063 -0.101443805 0.081459284 -0.05752851 -0.0925887 -0.04364164 -0.14215244 -0.2821118
-0.063506655 -0.19010036 -0.092833 -0.119942814 -0.0907128 -0.24287069 0.069159955 0.32013324
-0.6307404 -0.24865277 0.05778518 -0.18725824 0.07190446 -0.09007778 0.10408543 -0.06845982
0.09936672 0.007484894 0.061708245 0.21684024 0.048993606 0.08903879 -0.06267151 0.051106494
0.36238685 -0.1740067 0.14473754 -0.09949758 -0.19138207 -0.05937965 -0.29475063 -0.51226276
-0.11665631 -0.27065033 -0.194425 -0.17257456 -0.19048414 -0.36395812 0.08102311 0.37736705
-0.035148513 -0.3806745 0.09257383 -0.26505002 0.10911839 0.32035923 0.15012757 -0.13507855
0.12616982 -0.22714952 0.043020207 0.2757743 -0.11695324 0.11493 -0.11410765 0.058559764

bias f4 [64]
00000000: 8155 d53c 26f4 573e 7f63 2ebe c51e 75bd
00000010: 4306 3c3c 593d 33be 05d6 233e 6dac 8a3d
00000020: 7813 c83c 7fb3 723e d0cc 34ba 8967 d8bd
00000030: 121e 15be a31f 9cbd 752d cfbd 494c db3d
00000040: 6e3f 483c 66c1 71bd d18f 1fbe e143 f0bc
00000050: 21ed 41be 3ab5 e9bd 0a20 e73c d243 943d
00000060: def0 803d 77e5 3f3e a427 52be 8036 0aba
00000070: 7009 033e d42a b8bd f163 5e3d 1d34 493c
00000080: 0589 313d 44dd c4bd 9260 34be 3214 283e
00000090: 12f1 00bd 01c7 00be 75fb e03c c4c1 853d
000000a0: 6ca8 3dbe c843 3ebd c711 1dbe de27 8dbd
000000b0: e430 803c ea64 16be e9a6 c0bd d14c 5d3d
000000c0: 9c57 d8bd c65e 14be f380 763c 502a 123e
000000d0: 5efb 8cbd 6b7e fc3c 4b33 e03c 530c 1fbe
000000e0: 5230 f3bd e8fd 0c3d 6e9c 08be 1261 1dbd
000000f0: 2f75 09be d653 22be a408 30be c45f 51bc
0.026041748 0.21089229 -0.17030142 -0.059843797 0.011476102 -0.17503871 0.1599961 0.06771169
0.024423346 0.23701285 -0.00068969745 -0.10566623 -0.14562252 -0.07623222 -0.10116092 0.107079096
0.012222154 -0.05902233 -0.15582205 -0.029329242 -0.18938114 -0.11411519 0.02821352 0.07239498
0.06295942 0.18739878 -0.20522934 -0.00052724034 0.12796569 -0.08992544 0.05429453 0.012280491
0.043343563 -0.096125156 -0.17614964 0.16413954 -0.031479903 -0.12575914 0.027463654 0.065310985
-0.18521279 -0.04645136 -0.15338813 -0.0689237 0.015648313 -0.14686933 -0.094068356 0.054028336
-0.10563585 -0.14489278 0.015045392 0.14273953 -0.06883882 0.030822 0.027368208 -0.15532045
-0.11874451 0.03442183 -0.13340923 -0.03842265 -0.13423608 -0.15852293 -0.17190796 -0.01277918

weight f4 [32, 64]
00000000: 64fe 34be e99f e33d fc43 d5bc bc3e d03d
00000010: 83cd 07bd b17e bfbe 372e 22be dca2 263e
00000020: 25be 9bbc 9687 3fbe d393 81bd 5fd4 46bd
00000030: 0e27 eabc 4a73 95bc 6b6e 8ebc 7643 36be
00000040: 6161 cbbd 7ef7 eabb 3ec0 ebbb 693a 0dbc
00000050: 8648 abbd 4e26 0cbd 1297 50bc a8bb 213e
00000060: eb64 2b3e e2d4 e3bd a77a 97bd 29cd 7e3c
00000070: 5c9b ffbd 5d1e bebd c382 f4bb 2e72 00be
00000080: 9c26 adbc 2848 7c3b fc5d 60bd 4052 19be
00000090: c393 dcbc a406 6bbc 04a1 423d 1bfd 54bd
000000a0: 7a50 39bc a571 363c 04af 0bbc 5154 41bd
000000b0: 54f9 59bd c9a9 8cbd f88e e038 9b64 49bc
000000c0: c477 15bc e48b e1bc 3e5b d8bc c823 e2bd
000000d0: d6cd a4bc 956e 3cbd e12c 79bc 6388 47bd
000000e0: 3128 0cbd d847 19bc 0e8c dd3c 7285 91bc
000000f0: 4726 bebc f3be 86bc 165a a63b 75dd d0bd
00000100: 12c2 38be 99ee b3be 7c82 783b 1fb6 8abe
00000110: 1617 513c 665e af3d db9c 74be a46a 8fbe
00000120: 1ee6 db3c 6c3b 20be 1a53 d33a bf98 723d
00000130: 1900 843d 03f1 81bd c326 5e3d 033c 8bbe
00000140: a10b 27be fd66 52bd f2f6 9e3b 37cf dc3d
00000150: c550 f13d 01a8 533d ecbd 253d a940 87be
00000160: e33e 8cbe 09a4 8abe 8c17 413d a0d3 d1bc
00000170: e0fb 84be 7ba7 293d 2636 473d 02e8 cb3d
00000180: fde4 823d 652e ba3d 6517 613c 5e25 3cbe
00000190: 6a2d c23d ab00 2dbd ad7b 80be 7326 93be
000001a0: c203 7f3c fae3 5a3d 4cb7 64bd 3b27 a13d
000001b0: 16f0 af3c a92e 0d3d 5e51 8dbe a09a 603d
000001c0: 1fa8 5fbd 08e5 14bd fd9b a33d 0a1d 71be
000001d0: fef9 98be 422e f03a b5b8 193d 55d6 b53d
000001e0: d99d 353c 837a 8d3d 169b 51bd c2bf c33d
000001f0: a9ec 8bbd fb74 14bd 64a6 0d3c d9df 1bbe
00000200: dbe5 56bf 6d7a 69bf 7475 7bbd 16e2 38bf
00000210: 6a85 eabd 86ae 4e3f 21ce 4dbf 1d65 77bf
00000220: 7e62 d63d fe9d 29bf 3bc8 d6bd c38c d93e
00000230: eca6 56bd 0692 38bd 08b1 92bd 927f 5ebf
00000240: fe3e 4fbf 5b5d 0dba b108 d93b 0fbd dabc
00000250: bef0 bb3e c7af 96bd 5459 803d 9b6b 78bf
00000260: 506f 78bf 632b 38bf 00b1 ef3e ec1f 81bd
00000270: 73e4 54bf 4e0a c33e ed93 0abd 2b54 1e3e
00000280: 0bca 41bd 76db a93d f532 023d 86ed 25bf
00000290: 7644 003e 7395 b93d bfdc 6bbf d910 60bf
000002a0: 676e 503e 7eca c7bd f788 ca3b c467 b13e
000002b0: 3b14 0ebe 6545 ad3e 54ad 32bf 2540 f13c
000002c0: 29d7 cc3d f2f8 88bc ac35 72bc 5fd3 37bf
000002d0: 2ae6 33bf 2673 b7bd 2aee 88bd 8304 933e
000002e0: d9d4 01be aa52 083d d65f c33e 56d1 3dbd
000002f0: 8cd9 483d 4ce3 b73d e343 cd3d d061 3bbf
00000300: 612a 3cbd 8d3d 33bd d899 eabb 7cc1 0bbf
00000310: 45e4 4fbc 9b4d b73d dc5d dfbc 3c64 2bbe
00000320: 30b4 09bd 0756 35bd 849d 22bd f295 393a
00000330: c72b 8fbb 5a8b a5bc 9fb4 6b3b 63bd 95bd
00000340: b686 8abd e289 f2bc f944 c93b e5e0 5dbd
00000350: e1c1 a83c fbc3 c1bb 95db 993c 8351 2bbe
00000360: c83b 2fbe 84c6 12bd 2ab6 c2ba 9b17 c3bb
00000370: cf82 49bd c965 313c 1c78 cb3c eb73 893d
00000380: bdf9 1abd d1a1 11bd 898a 30bd a7b8 33bd
00000390: b710 8cbc 4225 d4bc 8cbd 0dbe fe1e 11bf
000003a0: fb42 38bd 4d36 583c ec30 b8bd 1420 16bc
000003b0: 2407 fb3c c3ff 25bd 6485 22bf fc8c 8c3c
000003c0: efdd e0bd 8cf9 b3bc b097 28bd 7a5b d5bc
000003d0: c7dd 12bf 70ce 003c 0c1e 993d cedf 25bd
000003e0: c258 12bc b218 93bc 8ad2 f4bd ade9 9cbc
000003f0: 3682 76bd 0fa1 1dbd 8eda 79bb cf6e 48bd
-0.17675167 0.11114485 -0.026033394 0.10168216 -0.033154976 -0.37401345 -0.15837942 0.16273063
-0.019011566 -0.18704066 -0.06327023 -0.048542377 -0.028583076 -0.01824345 -0.017386636 -0.17799172
-0.09930683 -0.0071706166 -0.007194548 -0.008619883 -0.08363442 -0.034216218 -0.0127313305 0.15794241
0.16737716 -0.111245885 -0.07396441 0.015551844 -0.12480804 -0.09283135 -0.007461877 -0.12543556
-0.021136574 0.0038495157 -0.05477713 -0.14972782 -0.026925927 -0.014344845 0.047516838 -0.051999193
-0.011310691 0.011135493 -0.008525614 -0.04719955 -0.053216293 -0.068683214 0.00010707782 -0.012292053
-0.009122793 -0.027532525 -0.026410695 -0.11041981 -0.020117681 -0.046003897 -0.015208454 -0.048714053
-0.034218017 -0.009355508 0.027044322 -0.017763827 -0.023211611 -0.016448474 0.005076657 -0.101984896
-0.18042782 -0.35142973 0.0037919572 -0.27092072 0.012761852 0.08562927 -0.2388796 -0.28011048
0.026843127 -0.15647668 0.0016122789 0.0592277 0.06445331 -0.063447975 0.054236185 -0.27194223
-0.1631303 -0.05136775 0.0048512155 0.107817106 0.11782984 0.051673893 0.040464327 -0.2641652
-0.2739173 -0.27078274 0.047141597 -0.025613606 -0.25973415 0.041419487 0.048635624 0.09956361
0.06391332 0.0909088 0.013738488 -0.1837363 0.09481318 -0.042236965 -0.25094357 -0.28740272
0.015564861 0.05344007 -0.055838868 0.07868811 0.021476787 0.034468327 -0.2760114 0.054834962
-0.054603692 -0.036351234 0.07988737 -0.23546234 -0.2987823 0.0018324333 0.037529666 0.08878771
0.011084997 0.06908133 -0.051173292 0.09558059 -0.06832249 -0.036244374 0.008645628 -0.1522211
-0.8394448 -0.9120243 -0.06139131 -0.7221998 -0.11451228 0.8073505 -0.8039265 -0.9663866
0.10468005 -0.662567 -0.1048741 0.42490205 -0.052405283 -0.045061134 -0.07162672 -0.86913407
-0.80955493 -0.0005392634 0.0066233505 -0.026701478 0.3670711 -0.073577456 0.06267038 -0.9703919
-0.9704485 -0.719412 0.46814728 -0.06304917 -0.83161086 0.380938 -0.03383248 0.15461795
-0.047311824 0.08293812 0.031786878 -0.64815557 0.12526116 0.09061708 -0.92133707 -0.8752571
0.20354615 -0.09755419 0.0061808783 0.3464948 -0.13874905 0.33842006 -0.6979573 0.029449532
0.10001976 -0.016720269 -0.014783304 -0.718069 -0.7027308 -0.0895751 -0.06686051 0.2871438
-0.12678851 0.03328196 0.38159055 -0.046342216 0.049035594 0.089789 0.10022714 -0.73196125
-0.045938853 -0.04375987 -0.007159453 -0.5459211 -0.012688701 0.08950349 -0.027266435 -0.16737455
-0.033619106 -0.044271495 -0.039701 0.00070795335 -0.0043692323 -0.02020805 0.0035965813 -0.07311513
-0.06763975 -0.029606763 0.0061422554 -0.054169554 0.020600261 -0.0059132553 0.018781463 -0.16730313
-0.17112648 -0.03583385 -0.0014855315 -0.0059537417 -0.049197014 0.01082749 0.024837546 0.06711563
-0.037835825 -0.03555471 -0.043100867 -0.04387727 -0.017097814 -0.025896672 -0.13841838 -0.56687915
-0.044985753 0.01319654 -0.08993706 -0.009162921 0.030643053 -0.040527117 -0.6348479 0.01715707
-0.109798305 -0.02196958 -0.041160285 -0.026044596 -0.57369655 0.007861719 0.07476434 -0.04049664
-0.008932294 -0.017956112 -0.1195422 -0.019154394 -0.060182773 -0.038483676 -0.0038124654 -0.0489338

bias f4 [32]
00000000: 82e0 303e 83aa bebd 23a4 53be a8c0 ddbd
00000010: f427 223e 7a85 1dbe 2cda 90be 707f 113e
00000020: e0b2 133e 73ad 293e bf0b a5bd dc1a 0b3e
00000030: 9463 a8be ba88 ca3d 2686 41be f9cb 63be
00000040: 3fc9 3abe 57f7 febd 2170 153e 2009 f3bd
00000050: 0377 08be 1fe7 70be 6c3d 9ebd 904b 363e
00000060: c55e 173e b74b 3bbe f0fa 3c3e 13fa 06be
00000070: 0626 05be 0d2a bebd 82dd da3d ef32 c53d
0.17273143 -0.09309866 -0.20668082 -0.10827762 0.15835553 -0.15382949 -0.28291452 0.1420877
0.14423704 0.16570072 -0.08058881 0.13584465 -0.32888472 0.0988936 -0.1889883 -0.22245778
-0.18240832 -0.1244952 0.14593555 -0.11866975 -0.1332665 -0.23525666 -0.07726559 0.17802262
0.14782245 -0.18290602 0.184551 -0.13181333 -0.13002786 -0.09285364 0.106867805 0.096288554

weight f4 [32, 1]
00000000: be87 c23e 4f7e cc3e 839e fabe 302d bb3e
00000010: 3567 9dbe b7cf c8be bf3c debe 47e3 7e3e
00000020: 879d c73e 50b5 9bbe 0c4e c8be 4b53 aa3e
00000030: 9a83 ca3e ab73 febe 67f3 dabe 03e9 a33e
00000040: 9b65 aebe 2690 833e 6a82 b13e 88ff a73e
00000050: ccc8 163f bb5f bd3e 53bb d53e ddab c9be
00000060: 1456 cb3e b9f7 9dbe 897a c4be 4845 d7be
00000070: de0e cabe 218d ffbe d10d fdbe 6bad d13e
0.37994188 0.39940116 -0.4894906 0.36557913 -0.30742803 -0.39220974 -0.4340572 0.24891387
0.3898737 -0.30411768 -0.39122045 0.33266672 0.3955353 -0.49697623 -0.42763826 0.3201371
-0.34061894 0.25695914 0.3466981 0.32812142 0.5890014 0.369871 0.4174448 -0.39388934
0.3971411 -0.3085306 -0.38374737 -0.42045045 -0.39464468 -0.4991236 -0.49424604 0.4095262
