checkpoints/cahousing_honam2_emb32_3.pt (torch, 177750 bytes, 98 tensors)

weight f4 [32, 1]
0.55294347 0.5851686 0.5854873 0.43747962 0.41681418 0.5801768 0.4875287 -0.38832718
-0.28444347 0.35686672 0.6728955 0.5625716 -0.47428283 0.44897178 0.61501 0.45651025
0.35330075 -0.581643 -0.4788875 0.38013288 0.35526925 -0.58308005 -0.53557914 -0.3313967
0.33874008 -0.5839447 -0.43074688 0.41007254 -0.54084456 -0.24231769 0.61302346 0.4037026
00000000: b48d 0d3f 9ccd 153f 7fe2 153f 54fd df3e
00000010: ab68 d53e 7786 143f 5d9d f93e d2d2 c6be
00000020: 93a2 91be 3cb7 b63e e142 2c3f b104 103f
00000030: 33d5 f2be a1df e53e 4c71 1d3f b6bb e93e
00000040: d6e3 b43e 8ee6 14bf be30 f5be c7a0 c23e
00000050: dae5 b53e bc44 15bf b71b 09bf d4ac a9be
00000060: 576f ad3e 667d 15bf db8a dcbe 07f5 d13e
00000070: ca74 0abf 2122 78be 1bef 1c3f 1bb2 ce3e

bias f4 [32]
-0.5594745 -0.65571314 -0.6330207 -0.44550467 -0.30805162 -0.72837895 -0.43071967 0.22719644
0.27058637 -0.18412977 0.007429393 -0.5047279 0.45163536 -0.2322893 -0.5008719 -0.23541205
-0.18251085 0.6749485 0.45587462 -0.4022717 -0.18335107 0.6438685 0.5067326 0.31530657
-0.3703638 0.6072386 0.41014114 -0.41595954 0.5532564 0.20608461 -0.5296394 -0.42956188
00000000: b939 0fbf d1dc 27bf a50d 22bf 3019 e4be
00000010: f1b8 9dbe 0b77 3abf 4a87 dcbe 2fa6 683e
00000020: 4c8a 8a3e 848c 3cbe 4472 f33b d935 01bf
00000030: c03c e73e 3fdd 6dbe 2439 00bf db0f 71be
00000040: 20e4 3abe 6dc9 2c3f 6668 e93e 8ef6 cdbe
00000050: 62c0 3bbe 91d4 243f 3ab9 013f dd6f a13e
00000060: 53a0 bdbe fd73 1b3f 05fe d13e a6f8 d4be
00000070: 36a2 0d3f d807 533e 7396 07bf 89ef dbbe

weight f4 [64, 32]
0.014894465 -0.008806784 -0.0055105 0.05201287 -0.49124208 -0.017917063 0.3258782 -0.32242978
-0.14311807 -0.1691014 0.5593706 0.042143494 -0.051193483 -0.20200665 0.21404044 -0.2147501
-0.16784032 0.013021001 -0.049253784 0.055719066 -0.16848117 0.00867835 -0.026124517 -0.12149276
0.057342235 0.0023945505 -0.07015253 0.046683777 -0.01515311 -0.17339756 0.033932418 0.06051721
0.15765123 0.15975681 0.15875557 0.18203239 0.0855936 0.1620732 -0.055182848 -0.21837713
-0.22202484 0.070182465 0.15746273 0.21450971 -0.17906208 0.075945094 0.13397823 0.053363502
0.07086391 -0.16277024 -0.17716645 0.19913943 0.07026846 -0.16164066 -0.15433691 -0.21459237
0.14359982 -0.15987468 -0.19118384 0.18947537 -0.15930897 -0.24273476 0.13311273 0.18836784
0.41066426 0.19360483 0.22468928 0.21567123 0.5573963 0.14227042 0.16040139 0.21063735
0.10328521 0.18980007 -0.119999446 0.3249234 0.041715186 0.2961721 0.2635446 0.32388306
0.18787943 -0.17282724 0.04133681 0.2979731 0.18873025 -0.2051353 0.03874888 0.07938062
0.35446513 -0.28415444 0.050447877 0.3923879 -0.49397874 0.07643923 0.21346122 0.13062806
1.0764077 0.37486085 0.42996493 0.9836457 0.85370976 0.28084993 0.697796 0.16514888
0.16116196 0.26090413 -0.15862522 0.79401267 0.057833456 0.34303862 0.7833725 0.3597118
0.25892183 -0.3356563 0.056328524 1.0298152 0.25988078 -0.3935231 0.03934064 0.12701984
0.99975044 -0.5285789 0.07102842 1.1337023 -1.8228399 0.15646668 0.71229964 0.945671
0.0065459246 -0.012737245 -0.010187433 0.040318772 -0.5679148 -0.019936373 0.32798356 -0.29288283
-0.12533097 -0.20146209 0.4595936 0.030908216 -0.038014088 -0.2486002 0.19379823 -0.26306197
-0.19923733 0.015758453 -0.03630514 0.040991273 -0.20018372 0.012489539 -0.015802942 -0.10488569
0.038949184 0.0076658223 -0.055958327 0.03281271 -0.006830912 -0.14764726 0.0428268 0.047532007
0.010994692 0.01306872 0.012338121 -0.005709329 0.425815 0.015207245 -0.38947785 0.2347982
0.07287836 0.27141237 -0.18601589 0.022927163 -0.0031121736 0.3178876 -0.15638316 0.33291888
0.27091992 -0.012518761 -0.004349957 0.01724314 0.27117354 -0.011444119 -0.010553109 0.051170763
0.010519979 -0.009836944 0.009830748 0.02533772 -0.00877783 0.09193702 -0.05115492 -0.009726263
-0.008405753 -0.0025276653 -0.0037236847 -0.024953673 0.58042884 0.00075874734 -0.25015983 0.26533055
0.09501693 0.27840292 -0.17931423 -0.06622787 0.018312458 0.32215023 -0.099388 0.33329335
0.2776811 0.0015066066 0.017120669 0.0025208623 0.27792522 0.0032374552 0.010934643 0.07245331
-0.005232861 0.0054969806 0.030521778 0.011069581 0.010053125 0.12198446 -0.100475535 -0.027306944
0.11712142 0.109304614 0.10983595 0.14235006 0.03094247 0.10753856 -0.32375684 -0.2432213
-0.24818838 0.06429864 0.075794265 0.09770888 -0.14994413 0.052380834 -0.039832756 0.03426292
0.06355825 -0.11030112 -0.14880525 0.18130481 0.06360161 -0.11130408 -0.12933344 -0.2418564
0.14615197 -0.11267292 -0.16617563 0.16752753 -0.11918791 -0.26087436 0.06361113 0.14397173
00000000: ea07 743c 544a 10bc 6d91 b4bb 720b 553d
00000010: 1584 fbbe cec6 92bc 82d9 a63e 8415 a5be
00000020: 8b8d 12be eb28 2dbe e932 0f3f a89e 2c3d
00000030: 42b0 51bd d5da 4ebe 6b2d 5b3e 73e7 5bbe
00000040: 55de 2bbe 0956 553c 56be 49bd ad39 643d
00000050: 5486 2cbe a32f 0e3c 1503 d6bc 32d1 f8bd
00000060: b1df 6a3d e4ed 1c3b 21ac 8fbd 7d37 3f3d
00000070: c044 78bc 218f 31be b8fc 0a3d e5e0 773d
00000080: 536f 213e 4a97 233e d290 223e b366 3a3e
00000090: b34b af3d 84f6 253e 6907 62bd 419e 5fbe
000000a0: 7b5a 63be d3bb 8f3d e93d 213e 6fa8 5b3e
000000b0: 0d5c 37be 1a89 9b3d 9731 093e b093 5a3d
000000c0: 1921 913d 3ead 26be 1f6b 35be 35eb 4b3e
000000d0: e9e8 8f3d 2185 25be 7f0a 1ebe 1abe 5bbe
000000e0: d50b 133e 30b6 23be b2c5 43be d505 423e
000000f0: e421 23be 768f 78be b44e 083e 80e3 403e
00000100: 9642 d23e 5840 463e f214 663e ebd8 5c3e
00000110: 86b1 0e3f 56af 113e 4340 243e 51b1 573e
00000120: 3287 d33d f35a 423e 45c2 f5bd 5c5c a63e
00000130: 8bdd 2a3d dfa3 973e 51ef 863e 00d4 a53e
00000140: 7763 403e a0f9 30be c950 293d ee8f 983e
00000150: 8142 413e fd0e 52be 25b7 1e3d 4e92 a23d
00000160: 747c b53e b17c 91be 6fa2 4e3d 11e7 c83e
00000170: c8ea fcbe 2c8c 9c3d 9495 5a3e 5dc3 053e
00000180: bac7 893f c3ed bf3e 5d24 dc3e 34d0 7b3f
00000190: b98c 5a3f 90cb 8f3e c2a2 323f ca1c 293e
000001a0: a407 253e 3a95 853e a66e 22be 6a44 4b3f
000001b0: c6e2 6c3d c2a2 af3e 1a8b 483f 252c b83e
000001c0: 6791 843e 24db abbe bdb8 663d fcd0 833f
000001d0: 180f 853e dc7b c9be a723 213d 7d11 023e
000001e0: a5ef 7f3f f250 07bf 5977 913d 281d 913f
000001f0: d152 e9bf cd38 203e 4559 363f 7f17 723f
00000200: 327f d63b e1af 50bc 31e9 26bc 4c25 253d
00000210: dd62 11bf 9b51 a3bc 76ed a73e bdf4 95be
00000220: c356 00be 144c 4ebe da4f eb3e 3a33 fd3c
00000230: a9b4 1bbd 0d91 7ebe 0b73 463e 0fb0 86be
00000240: df04 4cbe df17 813c b3b4 14bd 77e6 273d
00000250: f6fc 4cbe eca0 4c3c 2c75 81bc 4fce d6bd
00000260: 2e89 1f3d 9431 fb3b 8f34 65bd 9f66 063d
00000270: d8d5 dfbb d830 17be 286b 2f3d ecb0 423d
00000280: 1523 343c 2f1e 563c d525 4a3c 5315 bbbb
00000290: 6c04 da3e cf27 793c a469 c7be f06e 703e
000002a0: 4041 953d 90f6 8a3e f37a 3ebe bfd1 bb3c
000002b0: 9cf5 4bbb 2ac2 a23e e822 20be 5874 aa3e
000002c0: 04b6 8a3e 7d1b 4dbc 168a 8ebb 7c41 8d3c
000002d0: 42d7 8a3e 1d80 3bbc f3e6 2cbc 6f98 513d
000002e0: fd5b 2c3c 222b 21bc 2511 213c 0d91 cf3c
000002f0: e3d0 0fbc 7a49 bc3d d287 51bd e75a 1fbc
00000300: 49b8 09bc 30a7 25bb 1009 74bb a56b ccbc
00000310: fc96 143f ace6 463a f314 80be 68d9 873e
00000320: 3c98 c23d d48a 8e3e 269e 37be 7aa2 87bd
00000330: 0204 963c e0f0 a43e f08b cbbd 6da5 aa3e
00000340: 382c 8e3e 5479 c53a a540 8c3c 0d35 253b
00000350: 374c 8e3e 7c2b 543b 3827 333c 6762 943d
00000360: 6b78 abbb 0420 b43b cf08 fa3c 305d 353c
00000370: ddb5 243c fdd2 f93d 1ec6 cdbd d0b2 dfbc
00000380: 5bdd ef3d 19db df3d acf1 e03d 37c4 113e
00000390: 107b fd3c 2d3d dc3d 75c3 a5be 010f 79be
000003a0: 1825 7ebe 01af 833d 063a 9b3d 981b c83d
000003b0: f48a 19be 498d 563d ac27 23bd 4757 0c3d
000003c0: d42a 823d 8ee5 e1bd 6760 18be f8a7 393e
000003d0: 9041 823d 65f3 e3bd fc6f 04be 34a9 77be
000003e0: dda8 153e 0fc1 e6bd f229 2abe 568c 2b3e
000003f0: ca18 f4bd 5391 85be 8d46 823d 536d 133e

bias f4 [64]
0.22325048 -0.13575372 -0.15432636 -0.22022098 0.16876806 -0.20866062 -0.20395328 -0.07713107
0.20763347 -0.18941246 0.16837254 0.115432486 -0.0019106058 -0.17675585 0.0015002263 -0.20033275
0.1412777 0.11134982 0.25915068 0.06401292 0.17182258 0.22767635 0.20487563 0.18131772
0.23120512 -0.101158984 0.2435782 -0.052909732 0.12756857 -0.13297433 0.22033854 -0.27084035
0.2551432 -0.010504348 -0.16596963 -0.18108958 -0.04763211 -0.12808324 -0.19181943 0.24646641
-0.121497214 0.13753435 -0.04925966 -0.025581418 0.24196297 -0.10062366 0.13247922 0.16321053
0.1886853 0.22876729 0.056907404 -0.026205376 -0.030399809 0.18023695 -0.21192645 0.12930235
-0.15807211 -0.06973104 -0.19036448 -0.14945336 0.12432134 0.1474663 -0.034444943 0.15018782
00000000: c69b 643e 0603 0bbe bb07 1ebe 9c81 61be
00000010: 89d1 2c3e 21ab 55be 21d9 50be e5f6 9dbd
00000020: de9d 543e 57f5 41be da69 2c3e de67 ec3d
00000030: 4b6d faba 7cff 34be 3ea3 c43a 0724 4dbe
00000040: 1aab 103e 600b e43d 66af 843e 3519 833d
00000050: 42f2 2f3e fd23 693e ebca 513e 5aab 393e
00000060: 09c1 6c3e 712c cfbd 906c 793e e0b7 58bd
00000070: 56a1 023e 6c2a 08be 6da0 613e 96ab 8abe
00000080: 21a2 823e 6e1a 2cbc f1f3 29be 8c6f 39be
00000090: e319 43bd 4128 03be 506c 44be b161 7c3e
000000a0: 88d3 f8bd ced5 0c3e 7fc4 49bd 1f90 d1bc
000000b0: 24c5 773e c713 cebd a2a8 073e a920 273e
000000c0: b836 413e f941 6a3e bd17 693d a8ac d6bc
000000d0: 0509 f9bc 0990 383e 3f03 59be d667 043e
000000e0: a8dd 21be 26cf 8ebd e8ee 42be 4d0a 19be
000000f0: 309c fe3d 6801 173e 2416 0dbd d6ca 193e

weight f4 [32, 64]
-0.16742004 0.04945123 0.10163329 0.4482552 -0.18278992 0.14864896 0.12680295 0.037748493
-0.17327479 0.16212608 -0.18486576 -0.054147825 0.03411419 -0.7247797 -0.13000223 0.12156173
-0.1897227 -0.21305047 -0.15871093 -0.09899562 -0.18541287 -0.16535263 -0.17274499 -0.24988538
-0.16383159 0.051727653 -0.16349475 -0.009682317 -0.18939051 0.0074247303 -0.1719263 0.16357964
-0.15038823 -0.025622359 0.03309966 0.09030631 -0.009979708 0.11302252 0.10561972 -0.15542255
-0.5073866 0.015101908 0.04900011 -0.0073882327 -0.16437519 -0.6871177 -0.22278489 -0.18405308
-0.2488052 -0.16511323 0.13411556 -0.014014579 -0.026449034 -0.20979501 0.2200874 -0.18523575
0.083124556 -0.011160067 0.023586951 0.10391877 -0.21820316 -0.1758141 0.06339922 -0.14286977
-0.069084294 0.15737906 0.008915374 0.3156808 -0.07788097 0.04700576 0.054443084 0.18130714
-0.07255799 0.110949665 -0.07316781 -0.016061522 0.25711483 -0.5697117 -0.45887834 0.09589659
-0.077957764 -0.07359432 -0.059012655 0.26758775 -0.07349004 -0.06866574 -0.07417289 -0.086666726
-0.06634912 0.22026812 -0.06343235 -0.3112911 -0.085106924 0.01916356 -0.0683759 -0.546305
-0.054228764 -0.21696368 -0.41585276 0.010872392 -0.30997366 0.079542294 0.11256668 -0.06011034
-0.27738726 -0.24767958 0.22751318 -0.31204015 -0.063375756 -0.25627542 -0.06619559 -0.08064025
-0.08796679 -0.066752486 0.29608515 -0.31802076 -0.35209188 -0.078058206 0.19855934 -0.0723787
0.2975063 -0.32542026 -0.41178763 0.059844825 -0.055547513 -0.04579796 0.10871128 0.060854897
-0.31260595 0.061014775 -0.062934056 -0.33427638 -0.24248739 0.22249617 0.24095587 0.06973362
-0.29761115 0.22777273 -0.23122104 -0.86084586 -2.3743887 -1.5028093 -0.009591378 0.23976067
-0.16963413 0.31489328 -0.34462932 -2.0869565 -0.23302107 -0.31540033 -0.29097092 0.24948107
-0.32062852 0.06365854 -0.32895318 -0.10128397 0.35765713 -0.2939527 -0.30403933 1.0914662
-0.3574777 -0.11035077 0.5549864 0.1480555 -0.11034464 0.0650501 0.22165026 -0.34315392
-1.5239776 -0.44007146 0.052520692 -0.20329453 -0.3264166 -1.6068897 -0.1296755 -0.22677508
0.29456407 -0.31971556 -2.0220635 -0.12988532 -0.14229412 0.19188055 -0.13591857 -0.17403023
0.120237455 -0.15554677 0.5268197 0.13512447 -0.11177889 0.24773926 -0.13923389 0.18119118
0.12242705 -0.090276696 -0.15337887 -0.13279559 0.12563418 -0.10615356 -0.15795952 -0.105064124
0.12186675 -0.17143302 0.11027891 -0.22294089 0.07448216 -0.35386375 0.3613019 -0.13709958
0.12481107 0.09991762 0.12567002 -0.0024815076 0.11146094 0.12857573 0.121373534 -1.5645496
0.129499 -0.05482534 0.121984765 0.06174276 -1.4256876 -0.26735362 0.11626206 -3.0197852
0.14864278 -0.01685964 -0.97752297 -0.1692183 -0.03794804 -0.057808056 -0.119062014 0.13981263
-0.027624412 0.29133853 -0.025641488 0.09632273 0.121457234 -0.061681286 0.19688058 0.1214567
-1.5726116 0.12860097 0.03505333 0.0042167287 -0.045802705 -1.2156727 -0.10716914 0.11564917
-0.12875108 0.06491815 -0.9825041 -0.0052823713 0.20271106 -1.5118768 -0.05606592 0.25676617
00000000: 2970 2bbe 5f8d 4a3d 1d25 d03d b581 e53e
00000010: 482d 3bbe 6f37 183e a2d8 013e 2a9e 1a3d
00000020: f26e 31be 6104 263e 734d 3dbe 1cca 5dbd
00000030: 52bb 0b3d 2a8b 39bf 4e1f 05be 5bf5 f83d
00000040: ab46 42be e729 5abe 1e85 22be 37be cabd
00000050: dfdc 3dbe 3352 29be 10e4 30be f4e1 7fbe
00000060: 78c3 27be 60e0 533d 2b6b 27be 95a2 1ebc
00000070: 96ef 41be 274b f33b 730d 30be 6c81 273e
00000080: 5fff 19be fbe5 d1bc 8293 073d 84f2 b83d
00000090: ee81 23bc 5a78 e73d 274f d83d 1727 1fbe
000000a0: 17e4 01bf fe6d 773c 57b4 483d fd18 f2bb
000000b0: f851 28be f2e6 2fbf b921 64be 6978 3cbe
000000c0: cac6 7ebe 7113 29be 9755 093e 689d 65bc
000000d0: a5ab d8bc 81d4 56be 975e 613e 71ae 3dbe
000000e0: 353d aa3d b7d8 36bc 6c39 c13c 5dd3 d43d
000000f0: a670 5fbe 9d08 34be 73d7 813d 744c 12be
00000100: 117c 8dbd fa27 213e ca11 123c eaa0 a13e
00000110: 0f80 9fbd 1d89 403d b6ff 5e3d 94a8 393e
00000120: 4999 94bd 9439 e33d 01d9 95bd 7493 83bc
00000130: 8ea4 833e a0d8 11bf 1af2 eabe 6e65 c43d
00000140: 52a8 9fbd 9eb8 96bd 41b7 71bd 4301 893e
00000150: f281 96bd a0a0 8cbd f5e7 97bd 537e b1bd
00000160: 0ce2 87bd f78d 613e d2e8 81bd 8c61 9fbe
00000170: 8a4c aebd e6fc 9c3c aa08 8cbd a5da 0bbf
00000180: fb1e 5ebd ba2b 5ebe a7ea d4be 1e22 323c
00000190: deb4 9ebe 12e7 a23d 5c89 e63d 4336 76bd
000001a0: b405 8ebe b79f 7dbe 37f9 683e bac3 9fbe
000001b0: 26cb 81bd 8836 83be 8e91 87bd b726 a5bd
000001c0: ef27 b4bd 87b5 88bd 7998 973e 9ed3 a2be
000001d0: 6345 b4be fbdc 9fbd 2453 4b3e 493b 94bd
000001e0: bf52 983e 7c9d a6be d4d5 d2be d91f 753d
000001f0: ca85 63bd a496 3bbd 05a4 de3d fc42 793d
00000200: e30d a0be a1ea 793d 92e3 80bd 4626 abbe
00000210: 9d4e 78be 09d6 633e 23bd 763e 80d0 8e3d
00000220: 7d60 98be 413d 693e 35c5 6cbe 6560 5cbf
00000230: fcf5 17c0 0e5c c0bf 2825 1dbc d283 753e
00000240: 92b4 2dbe b139 a13e 4173 b0be b290 05c0
00000250: 139d 6ebe 277c a1be 24fa 94be f777 7f3e
00000260: 6c29 a4be 695f 823d 8d6c a8be f86d cfbd
00000270: d61e b73e f880 96be 0bab 9bbe 2ab5 8b3f
00000280: 5107 b7be 96ff e1bd 9713 0e3f dc9b 173e
00000290: 5ffc e1bd fd38 853d 49f8 623e dfb1 afbe
000002a0: b311 c3bf 0c51 e1be f01f 573d 712c 50be
000002b0: 1420 a7be 90ae cdbf a7c9 04be ba37 68be
000002c0: 1ad1 963e c2b1 a3be 7d69 01c0 a800 05be
000002d0: 8db5 11be 567c 443e 3d2e 0bbe fb34 32be
000002e0: 0e3f f63d a747 1fbe a8dd 063f 125e 0a3e
000002f0: 55ec e4bd 5caf 7d3e 5493 0ebe 2e8a 393e
00000300: 08bb fa3d fde2 b8bd 5a0f 1dbe 91fb 07be
00000310: 3fa6 003e 0a67 d9bd 24c0 21be dc2b d7bd
00000320: 4695 f93d 238c 2fbe e9d9 e13d 9e4a 64be
00000330: 1a8a 983d a12d b5be 90fc b83e d563 0cbe
00000340: f29c ff3d 9ca1 cc3d a4af 003e caa0 22bb
00000350: a245 e43d 5ba9 033e b092 f83d 2943 c8bf
00000360: 639b 043e 8990 60bd 26d3 f93d fae5 7c3d
00000370: ee7c b6bf 93e2 88be ce1a ee3d 2944 41c0
00000380: d035 183e 3a1d 8abc f23e 7abf 9047 2dbe
00000390: 676f 1bbd 24c8 6cbd c9d6 f3bd 0b2b 0f3e
000003a0: 974c e2bc 532a 953e 190e d2bc da44 c53d
000003b0: 92be f83d 84a5 7cbd 109b 493e 4abe f83d
000003c0: 564b c9bf f9af 033e 1594 0f3d 7c2c 8a3b
000003d0: 9e9b 3bbd 2a9b 9bbf 7e7b dbbd 79d9 ec3d
000003e0: 53d7 03be cff3 843d 6485 7bbf be17 adbb
000003f0: 7d93 4f3e 2e85 c1bf 61a5 65bd db76 833e

bias f4 [32]
-0.13690977 -0.037274398 -0.36249116 0.10991684 0.1606175 -0.17342287 0.11200022 0.087480694
0.17346784 -0.36226228 0.14597785 0.08717102 -0.20307374 0.092102036 0.021710373 -0.28599426
-0.19331455 0.11517853 0.091459624 -0.31536365 -0.22426511 -0.2308964 0.04927039 0.2959454
0.15575427 -0.29658493 0.018784089 -0.41416025 0.094363995 -0.2008818 -0.2246292 -0.03759302
00000000: 1332 0cbe 0aad 18bd 7198 b9be 151c e13d
00000010: ea78 243e c495 31be 5f60 e53d 1429 b33d
00000020: 8ea1 313e 717a b9be 387b 153e b886 b23d
00000030: 90f2 4fbe fe9f bc3d f4d9 b13c d76d 92be
00000040: 40f4 45be b9e2 eb3d 2f4f bb3d 5877 a1be
00000050: c1a5 65be 1b70 6cbe c0cf 493d 2886 973e
00000060: 0c7e 1f3e fbd9 97be 17e1 993c d00c d4be
00000070: e941 c13d f5b3 4dbe 3205 66be 23fb 19bd

weight f4 [32, 1]
0.66235936 -0.3475858 0.39151874 -0.2650461 -0.5114825 0.48632422 -0.27668542 0.5150069
-0.50014156 -0.33055896 -0.5185124 0.5318145 -0.27787662 0.38913253 -0.583869 0.46055633
-0.49702808 -0.55050355 -0.27816942 0.39837992 -0.5529748 -0.5934635 0.41789442 0.6242219
-0.56239575 -0.22303496 0.49341658 -0.5360373 0.36852917 0.38251737 0.39670712 -0.28578126
00000000: 6290 293f c4f6 b1be 2575 c83e 1fb4 87be
00000010: 84f0 02bf 7dff f83e b6a9 8dbe 7ed7 033f
00000020: 4709 00bf 063f a9be 3bbd 04bf ff24 083f
00000030: d845 8ebe 613c c73e 7078 15bf 0ace eb3e
00000040: 777a febe cded 0cbf 396c 8ebe 74f8 cb3e
00000050: c28f 0dbf 39ed 17bf 42f6 d53e 02cd 1f3f
00000060: 2bf9 0fbf 4763 64be 19a1 fc3e be39 09bf
00000070: dbaf bc3e 51d9 c33e 321d cb3e ec51 92be

bias f4 [32]
-0.61399025 0.32063037 -0.36694402 0.2502767 0.4828569 -0.005698581 0.26226372 -0.52668697
0.36661685 0.30658442 0.48955032 -0.04568351 0.2037767 -0.28679734 0.5515797 -0.47596368
0.36434162 0.40369105 0.26308554 -0.4322972 0.5225293 0.5609448 -0.43080205 -0.5799567
0.5309877 0.18716669 0.018410897 0.5062878 -0.34486613 -0.38441938 -0.29373875 0.2698191
00000000: 772e 1dbf aa29 a43e 16e0 bbbe 4524 803e
00000010: 0539 f73e 2abb babb 6e47 863e f5d4 06bf
00000020: 34b5 bb3e a2f8 9c3e 57a6 fa3e a21e 3bbd
00000030: d7aa 503e 1ad7 92be 5434 0d3f 83b1 f3be
00000040: fc8a ba3e 98b0 ce3e 26b3 863e 0f56 ddbe
00000050: 7bc4 053f 149a 0f3f 1692 dcbe 0b78 14bf
00000060: cfee 073f a0a8 3f3e 73d2 963c 149c 013f
00000070: 4b92 b0be 9ed2 c4be ed64 96be bb25 8a3e

weight f4 [64, 32]
0.6494295 0.05507222 -0.04825969 0.07553512 0.04409474 0.1425167 0.068260014 -0.09048445
-3.607298 0.051965605 0.04412525 0.100433886 -3.325985 -0.85385454 0.040527683 -0.03645845
-3.61003 -3.6130872 0.06770903 -0.08921647 0.042588156 0.03957385 -0.064792454 -0.079802305
0.04208452 0.15175782 0.15527202 0.04355297 -0.05801086 -0.05472501 -0.8689014 0.06467929
0.7614316 -0.13522857 0.7194274 -0.17722142 -0.11277876 0.21902405 -0.17116839 0.06995762
-0.28839764 -0.14543945 -0.11244769 0.24708419 -0.34777635 0.069828734 -0.11108452 0.10760504
-0.28854826 -0.26220852 -0.17003447 0.1148569 -0.11120849 -0.11104664 0.11498421 0.13312234
-0.111147776 -0.18779162 0.15148535 -0.11178244 0.19539116 0.09690997 0.112876594 -0.16638619
-0.562184 -0.0062735085 -0.9623002 -0.006691167 0.023890838 -0.14914604 -0.007896763 -0.049750622
-0.010603964 -0.007016651 0.024633402 -0.21691059 0.007076467 -0.87287205 0.029275708 -0.0260191
-0.010916002 0.0019812693 -0.008095127 -0.027622003 0.027263377 0.029514385 -0.021447148 -0.08733755
0.027890418 0.0108792335 -0.13287759 0.026296249 -0.19642262 -0.010321366 -0.8779396 -0.008248057
0.6195635 -0.13319333 0.30009532 -0.17131631 -0.101281784 0.42837223 -0.16442612 0.07062758
-0.33568007 -0.13774155 -0.10062191 0.49728778 -0.39537722 0.10385377 -0.0941112 0.0816497
-0.33552018 -0.29873005 -0.1629911 0.08659082 -0.096968874 -0.09388183 0.08673897 0.08700359
-0.09635313 -0.18711787 0.4063981 -0.09825958 0.14327829 0.08728071 0.17248496 -0.15886968
-0.2361665 -0.047916096 -0.5405475 -0.037151802 -0.035953153 -0.6264481 -0.039173663 0.05056753
0.07438419 -0.04586226 -0.035630465 -0.766435 0.12610129 -0.53673977 -0.033349138 0.05726613
0.074611634 0.073587045 -0.039603688 0.06244006 -0.03410253 -0.033213396 0.06575123 0.04154929
-0.033822205 -0.016599081 -0.576341 -0.034533888 0.038470734 0.07093565 -0.5329478 -0.040490896
0.43648487 -0.06557931 0.3711915 -0.10823189 -0.033147067 0.2787997 -0.10190705 0.012452464
-0.17586772 -0.072766036 -0.03265077 0.30652523 -0.24085818 -0.16109839 -0.030702138 0.031312834
-0.17622128 -0.14918771 -0.10069561 0.032410137 -0.031365734 -0.030609153 0.038303953 0.046159815
-0.031137034 -0.12801272 0.22484367 -0.03196162 0.084434174 0.038428474 -0.114905365 -0.09674096
0.4378925 -0.07355072 0.36575872 -0.117272355 -0.04062511 0.26328954 -0.11047768 0.019621646
-0.17492542 -0.08082989 -0.040277116 0.2901859 -0.23976524 -0.15306273 -0.03823197 0.04096834
-0.17539848 -0.14828311 -0.10928772 0.041852873 -0.039038174 -0.038082145 0.04602667 0.052034583
-0.03885823 -0.13836373 0.20809962 -0.0396064 0.09531292 0.046434738 -0.106001645 -0.105360664
-0.2164835 -0.03870696 -0.5791769 -0.02916143 -0.021132445 -0.64771813 -0.03141806 0.027419798
0.036237486 -0.03704364 -0.020697009 -0.76313275 0.077972546 -0.6810325 -0.018544925 0.037439734
0.036170177 0.03707438 -0.03168003 0.041000552 -0.018974302 -0.018458216 0.043183617 0.022697907
-0.01876572 -0.00959299 -0.57061136 -0.019571595 0.016506605 0.046344515 -0.6906172 -0.03251596
00000000: 0341 263f 6893 613d f4ab 45bd 28b2 9a3d
00000010: b09c 343d e6ef 113e e8cb 8b3d e94f b9bd
00000020: f8dd 66c0 e3d9 543d aebc 343d 48b0 cd3d
00000030: f0dc 54c0 3696 5abf 5b00 263d 7555 15bd
00000040: bb0a 67c0 d23c 67c0 08ab 8a3d 20b7 b6bd
00000050: eb70 2e3d 3018 223d e8b1 84bd 646f a3bd
00000060: d160 2c3d 6766 1b3e a1ff 1e3e 9964 323d
00000070: cc9c 6dbd 5527 60bd 5270 5ebf 9376 843d
00000080: 2eed 423f 5c79 0abe 652c 383f 8879 35be
00000090: 8df8 e6bd d747 603e c446 2fbe f145 8f3d
000000a0: dba8 93be 14ee 14be f94a e6bd a303 7d3e
000000b0: be0f b2be 5e02 8f3d 4880 e3bd 0860 dc3d
000000c0: 99bc 93be 3240 86be 841d 2ebe 183a eb3d
000000d0: 47c1 e3bd 6c6c e3bd d77c eb3d 3951 083e
000000e0: 72a1 e3bd 724c 40be fa1e 1b3e 31ee e4bd
000000f0: 9f14 483e bc78 c63d d82b e73d 2461 2abe
00000100: 4aeb 0fbf 0192 cdbb 4e59 76bf 9441 dbbb
00000110: b8b6 c33c bdb9 18be 6d61 01bc 4fc7 4bbd
00000120: 40bc 2dbc efeb e5bb fdcb c93c cf1d 5ebe
00000130: b5e1 e73b 8b74 5fbf 9cd3 ef3c 0226 d5bc
00000140: 08d9 32bc 2fd8 013b 6ca1 04bc 8a47 e2bc
00000150: 7257 df3c 27c8 f13c eeb1 afbc 08de b2bd
00000160: 727a e43c d03e 323c 1011 08be 3b6b d73c
00000170: 0323 49be f21a 29bc a6c0 60bf dc22 07bc
00000180: b79b 1e3f d563 08be 18a6 993e 8b6d 2fbe
00000190: d36c cfbd 9b53 db3e 525f 28be 31a5 903d
000001a0: 42de abbe 1f0c 0dbe dc12 cebd 819c fe3e
000001b0: e26e cabe 49b1 d43d 5fbd c0bd f537 a73d
000001c0: 4dc9 abbe 25f3 98be 24e7 26be 8756 b13d
000001d0: 9e97 c6bd 1e45 c0bd 33a4 b13d f02e b23d
000001e0: ca54 c5bd d49b 3fbe 6913 d03e 523c c9bd
000001f0: 8bb7 123e 3bc0 b23d e69f 303e bcae 22be
00000200: a2d5 71be ab43 44bd 5261 0abf 7d2c 18bd
00000210: 9d43 13bd e75e 20bf 9074 20bd e61f 4f3d
00000220: bd56 983d 11da 3bbd 40f1 11bd 1635 44bf
00000230: b220 013e c767 09bf 1b99 08bd e48f 6a3d
00000240: fccd 983d ceb4 963d 7a37 22bd 26c1 7f3d
00000250: 18af 0bbd c50a 08bd 95a8 863d 972f 2a3d
00000260: 2789 0abd ccfa 87bc 158b 13bf 6873 0dbd
00000270: 7d93 1d3d b646 913d 446f 08bf c8d9 25bd
00000280: f27a df3e 724e 86bd d00c be3e aea8 ddbd
00000290: 38c5 07bd d6be 8e3e a5b4 d0bd 6b05 4c3c
000002a0: ab16 34be 5c06 95bd d0bc 05bd e0f0 9c3e
000002b0: 87a3 76be faf6 24be 0d83 fbbc e341 003d
000002c0: 5a73 34be aac4 18be 8039 cebd 7ec0 043d
000002d0: 5b79 00bd 0cc0 fabc 9be4 1c3d 1312 3d3d
000002e0: 1813 ffbc c415 03be 6b3d 663e 30ea 02bd
000002f0: d3eb ac3d 2d67 1d3d 8153 ebbd 2020 c6bd
00000300: 7233 e03e c3a1 96bd ba44 bb3e 7d2c f0bd
00000310: 8466 26bd e3cd 863e 1f42 e2bd 93bd a03c
00000320: a61f 33be 248a a5bd 9ef9 24bd 3f93 943e
00000330: 0585 75be 7abc 1cbe 2099 1cbd 6bce 273d
00000340: a99b 33be 87d7 17be 3dd2 dfbd eb6d 2b3d
00000350: 7ee6 1fbd 06fc 1bbd 7686 3c3d 3722 553d
00000360: cf29 1fbd 39af 0dbe 1118 553e 523a 22bd
00000370: 6c33 c33d 5a32 3e3d 6417 d9bd 55c7 d7bd
00000380: daad 5dbe 308b 1ebd f044 14bf f4e3 eebc
00000390: f31d adbc dbd0 25bf 39b0 00bd 7c9f e03c
000003a0: c26d 143d 12bb 17bd c68c a9bc ab5c 43bf
000003b0: 12b0 9f3d 2558 2ebf 87eb 97bc 685a 193d
000003c0: 2e27 143d 4edb 173d ebc2 01bd 32f0 273d
000003d0: ff6f 9bbc af35 97bc 4ee1 303d f6f0 b93c
000003e0: 91ba 99bc eb2b 1dbc 9613 12bf 9c54 a0bc
000003f0: dc38 873c bfd3 3d3d 4acc 30bf 752f 05bd

bias f4 [64]
0.055186164 0.0036362053 -0.13348395 0.07529288 -0.347393 0.09616625 0.079898156 -0.29783785
-0.26496506 -0.054541256 0.07904268 -0.21270466 -0.017591443 0.14995487 0.13776384 -0.08996018
-0.13199358 -0.014344446 0.1961636 0.029469635 0.1309791 0.059378427 0.027196134 -0.23677623
0.025373008 -0.2509904 -0.25190496 0.118329525 -0.11293294 -0.019438269 -0.35540962 0.0881041
0.18448786 0.046670794 0.14882006 -0.028249482 0.14181162 -0.061966073 0.07221567 0.31297874
0.08619102 -0.13108484 0.020752797 -0.06998594 0.026972804 0.05977378 -0.27209857 -0.17320779
-0.00919602 -0.05758442 0.10636261 0.051818013 0.16142648 0.16945767 0.0071599293 0.12872057
0.08616146 -0.061535154 -0.2608799 -0.046585556 -0.031823635 -0.28037408 0.1345576 0.2993368
00000000: e30a 623d 674d 6e3b 04b0 08be 2733 9a3d
00000010: 7fdd b1be d0f2 c43d a5a1 a33d 347e 98be
00000020: 80a9 87be a766 5fbd 21e1 a13d 40cf 59be
00000030: ee1b 90bc c58d 193e f711 0d3e 0b3d b8bd
00000040: 5329 07be f804 6bbc 1cdf 483e 4e6a f13c
00000050: 631f 063e cb36 733d 6dca de3c 7875 72be
00000060: 0edb cf3c d081 80be b0f9 80be c056 f23d
00000070: 6349 e7bd 013d 9fbc 40f8 b5be ec6f b43d
00000080: 63ea 3c3e e029 3f3d 4964 183e 756b e7bc
00000090: 1137 113e 23d0 7dbd cfe5 933d c03e a03e
000000a0: eb84 b03d 1b3b 06be c501 aa3c ca54 8fbd
000000b0: 12f6 dc3c 5ad5 743d 8150 8bbe 625d 31be
000000c0: e7aa 16bc a4dd 6bbd a4d4 d93d 203f 543d
000000d0: fc4c 253e 5086 2d3e d79d ea3b 53cf 033e
000000e0: 6b75 b03d 490c 7cbd 0d92 85be 7fd0 3ebd
000000f0: 8059 02bd 318d 8fbe 78c9 093e ac42 993e

weight f4 [32, 64]
0.77707416 0.11870536 0.12293796 0.12914547 0.0781605 0.07793055 0.07800252 0.04938466
0.08524658 0.12342963 0.07729368 0.11338153 0.30969626 0.046591662 0.07341681 0.043325894
0.12782641 0.02884554 0.034644227 0.0860247 0.06677754 0.10461646 0.745288 0.06904594
0.11895395 0.07084307 0.09923494 0.06999812 0.07976769 -0.76278424 0.06831435 0.08209077
0.03212916 0.0690695 0.057484128 0.37441882 0.045241483 0.14416225 0.08473971 -0.15384804
0.08594996 0.11131803 0.08132209 -0.23817982 0.071391456 0.071864724 0.078056134 0.11969365
0.10935923 0.3398393 0.07299825 0.21187532 0.048854947 -0.21208112 -1.1933252 0.07935085
0.078092046 0.28331864 0.06722265 0.21843486 0.35676593 0.067445114 -0.014910779 -0.1636298
0.83192784 0.07219042 0.052161228 0.09613404 0.046441056 0.05121047 0.048844665 0.044114627
0.03225004 0.080689445 0.045916103 0.046828125 0.12715398 0.02902176 0.04482896 0.019349277
0.05503621 0.06201261 0.01987874 0.058046203 0.037349116 0.069574766 0.93454254 0.025034321
0.06538669 0.026163293 0.040207244 0.041268345 0.05392447 -0.40184098 0.03080403 0.053798717
0.014877228 0.038425505 0.028460382 0.16167574 0.033900548 0.053505953 0.0563625 -0.14938343
0.059757832 0.05340104 0.11530789 -0.043679677 0.04456906 0.042235713 0.02884134 0.052776746
0.04004524 0.13904561 0.044884082 0.4450875 0.037684146 0.024984095 -0.78418416 0.050847434
0.048979312 0.20519282 0.023915434 0.13033143 0.25694355 0.024996487 -0.044715915 -0.15970334
-0.0513594 -0.9296943 0.1243895 -2.2291667 0.5454627 -0.06648695 -0.039712325 0.45538068
0.28257847 0.031013828 -0.09083741 0.20932308 0.07164115 0.05128923 -0.115815274 0.11406748
0.1257002 0.009699567 0.0668083 -0.113295615 -0.12609509 -1.016102 -0.1304224 0.2969231
-0.8730498 0.30919585 0.25588444 -0.119864024 0.1953368 0.0097647635 0.4673161 -0.091181375
0.020194171 -0.0006197568 -0.1269099 0.08230035 0.15552664 0.03601092 0.021789309 0.45359555
-0.04294301 0.16095376 0.020682046 0.35481688 0.07299726 0.16389605 0.30215362 0.17411683
-0.7510624 0.05670001 -0.0914017 0.017028574 0.12941253 -0.011512014 0.031493444 -0.13366406
0.0053023323 0.018284893 0.32057464 0.036614686 0.066666655 0.34809163 -3.1721156 0.5657129
0.1293585 -0.006314781 0.07991015 -0.032016903 0.039974414 -0.0010176405 -0.0025760129 0.02405927
0.042371143 0.12773006 -0.010032175 0.058712117 0.19735898 -0.0022444746 -0.004328668 0.03317219
0.08129347 0.115702435 -0.0066894544 -0.009804023 -0.009294408 -0.011026305 0.64892226 0.035676762
-0.0018726892 0.035849977 0.04963959 -0.006646422 0.010325322 -0.6639917 0.033869684 8.379208e-05
-0.0134304045 -0.011176547 -0.01628312 0.17648765 0.008491599 0.10700161 0.0006401348 -0.14687917
0.004649694 0.06256164 0.16492866 0.66057223 0.0018499943 -0.0011915494 0.03871903 0.06490063
-0.01480682 0.15650399 -0.003779687 0.3045349 0.010967299 0.6235602 -0.25228536 -0.0018178517
-0.0020808992 0.26459664 0.033510305 0.22623307 0.28156653 0.03246223 -0.11882396 -0.15763283
00000000: 55ee 463f cc1b f33d e6c6 fb3d b63e 043e
00000010: 9d12 a03d 0d9a 9f3d c9bf 9f3d 9247 4a3d
00000020: c295 ae3d adc8 fc3d 264c 9e3d 9334 e83d
00000030: 8290 9e3e e6d6 3e3d 8d5b 963d 7e76 313d
00000040: ede4 023e 7b4d ec3c 1be7 0d3d b82d b03d
00000050: aac2 883d 2841 d63d 32cb 3e3f f567 8d3d
00000060: 219e f33d 2c16 913d b03b cb3d 2d5b 8f3d
00000070: 3e5d a33d d445 43bf 65e8 8b3d 351f a83d
00000080: de99 033d 4f74 8d3d 7a74 6b3d d3b3 bf3e
00000090: 224f 393d 459f 133e 038c ad3d 578a 1dbe
000000a0: 8806 b03d b5fa e33d 328c a63d 69e5 73be
000000b0: af35 923d d02d 933d e5db 9f3d f221 f53d
000000c0: bbf7 df3d 6bff ad3e 1b80 953d d8f5 583e
000000d0: 201c 483d cb2b 59be e1be 98bf b382 a23d
000000e0: b9ee 9f3d 240f 913e 07ac 893d 63ad 5f3e
000000f0: 06aa b63e aa20 8a3d 574c 74bc 928e 27be
00000100: 39f9 543f 92d8 933d 03a7 553d ece1 c43d
00000110: fa38 3e3d 12c2 513d 5811 483d 8ab1 343d
00000120: 9e18 043d 8240 a53d 8612 3c3d d9ce 3f3d
00000130: a734 023e 0bbf ed3c 929e 373d 6082 9e3c
00000140: a66d 613d ef00 7e3d bdd8 a23c dbc1 6d3d
00000150: 63fb 183d 377d 8e3d 2e3e 6f3f c714 cd3c
00000160: 75e9 853d 6754 d63c 5ab0 243d ff08 293d
00000170: e8df 5c3d 1abe cdbe bc58 fc3c 0b5c 5c3d
00000180: 9ebf 733c 1064 1d3d bf25 e93c 538e 253e
00000190: 4ddb 0a3d 0f29 5b3d 5ddc 663d f8f7 18be
000001a0: a1c4 743d 0dbb 5a3d 8b26 ec3d 76e9 32bd
000001b0: 0c8e 363d 5bff 2c3d ad44 ec3c 6e2c 583d
000001c0: 7a06 243d f961 0e3e 5fd8 373d 82e2 e33e
000001d0: b15a 1a3d 72ab cc3c 4bc0 48bf 6645 503d
000001e0: 889e 483d 111e 523e 4dea c33c 9a75 053e
000001f0: 1b8e 833e 6fc5 cc3c 0928 37bd 4689 23be
00000200: 3c5e 52bd 7200 6ebf ecbf fe3d abaa 0ec0
00000210: 72a3 0b3f 4f2a 88bd 64a9 22bd a827 e93e
00000220: 20ae 903e b610 fe3c f708 babd ca58 563e
00000230: 98b8 923d a814 523d 8f30 edbd 369c e93d
00000240: 8eb7 003e efea 1e3c cad2 883d 8807 e8bd
00000250: 121f 01be a10f 82bf 738d 05be 4e06 983e
00000260: 3180 5fbf eb4e 9e3e 4903 833e 457b f5bd
00000270: 5f06 483e 63fc 1f3c 0e44 ef3e 4dbd babd
00000280: 3f6e a53c 2d77 22ba abf4 01be 168d a83d
00000290: 6042 1f3e 3080 133d 7e7f b23c ad3d e83e
000002a0: 02e5 2fbd 10d1 243e 656d a93c 8faa b53e
000002b0: 967f 953d 5ed4 273e e1b3 9a3e af4b 323e
000002c0: a045 40bf 453e 683d d130 bbbd 827f 8b3c
000002d0: b884 043e e39c 3cbc 45ff 003d 3bdf 08be
000002e0: 30bf ad3b 33ca 953c 5c22 a43e 48f9 153d
000002f0: 8788 883d 1139 b23e f103 4bc0 90d2 103f
00000300: 8e76 043e 39ec cebb efa7 a33d 2824 03bd
00000310: 36bc 233d 5962 85ba 53d2 28bb f217 c53c
00000320: 5d8d 2d3d abcb 023e fe5d 24bc 1e7c 703d
00000330: 7918 4a3e 0918 13bb 80d7 8dbb 90df 073d
00000340: 317d a63d 66f5 ec3d 3633 dbbb 0ea1 20bc
00000350: 9347 18bc ada7 34bc c51f 263f cc21 123d
00000360: 0675 f5ba 6dd7 123d e252 4b3d 3bca d9bb
00000370: 8a2b 293c 5cfb 29bf f0ba 0a3d 88b9 af38
00000380: 330b 5cbc d61d 37bc 2d64 85bc 2eb9 343e
00000390: 5920 0b3c a923 db3d b8ce 273a 7e67 16be
000003a0: 765c 983b 5120 803d 0fe3 283e 431b 293f
000003b0: 827b f23a c32d 9cba d897 1e3d 9fea 843d
000003c0: 4e98 72bc 9542 203e a0b4 77bb 00ec 9b3e
000003d0: 30b0 333c a4a1 1f3f 8c2b 81be fb44 eeba
000003e0: b25f 08bb 3679 873e 1a42 093d a4a9 673e
000003f0: 7d29 903e 1ef7 043d fa59 f3bd 806a 21be

bias f4 [32]
-0.071597174 0.044206683 -0.33653867 0.07363299 0.14547756 0.1293499 0.10318496 -0.03539213
-0.34737292 -0.28828627 0.19661634 -0.284147 0.2721721 -0.03760388 0.07166188 -0.24131252
-0.18750644 -0.22351442 -0.05912802 -0.058344707 -0.17469832 -0.24375853 -0.33384696 -0.28873426
-0.42190346 -0.11476658 -0.18378538 0.11874034 -0.20474492 0.14513086 -0.40851417 -0.20798837
00000000: 8aa1 92bd 1112 353d cc4e acbe e5cc 963d
00000010: 12f8 143e 4d74 043e a352 d33d 57f7 10bd
00000020: ddda b1be 429a 93be cb55 493e b77b 91be
00000030: 245a 8b3e 8706 1abd 77c3 923d a11a 77be
00000040: b001 40be f7e0 64be 3930 72bd dcfa 6ebd
00000050: 1ee4 32be d69b 79be fded aabe fad4 93be
00000060: bb03 d8be be0a ebbd 3c32 3cbe 232e f33d
00000070: a7a8 51be 2f9d 143e c528 d1be e7fa 54be

weight f4 [32, 1]
-0.37037614 0.3767974 0.32307515 -0.36758494 0.38871324 -0.35784516 -0.3166174 0.3588684
-0.38480416 -0.3683189 0.49866885 -0.36883423 0.36741844 0.5055408 -0.3227803 0.3446431
-0.37251616 -0.3713887 -0.31739098 -0.36882693 0.36050856 -0.24671665 0.3342885 -0.36407578
0.3489419 -0.3713389 0.36367625 0.27357277 0.37234786 -0.3358396 -0.37064302 -0.34953648
00000000: f1a1 bdbe 97eb c03e 1b6a a53e 1834 bcbe
00000010: 6c05 c73e 7b37 b7be ad1b a2be 99bd b73e
00000020: 0d05 c5be 4b94 bcbe 8651 ff3e d7d7 bcbe
00000030: 451e bc3e 1f6b 013f 7643 a5be 0f75 b03e
00000040: 70ba bebe a926 bebe 1281 a2be e2d6 bcbe
00000050: 9494 b83e 4aa3 7cbe dd27 ab3e 2468 babe
00000060: 83a8 b23e 2220 bebe c633 ba3e bb11 8c3e
00000070: 61a4 be3e 2bf3 abbe ecc4 bdbe 72f6 b2be

bias f4 [32]
0.3720558 -0.2720266 -0.3406768 0.46358556 -0.3919985 0.36020422 0.32236338 -0.29954204
0.3206037 0.33984667 -0.09110846 0.35263738 -0.4540344 -0.0058969534 0.30921596 -0.36723658
0.35941777 0.4519598 0.3113071 0.3696315 -0.3825728 0.2051603 -0.57546943 0.48182952
-0.25133148 0.3090923 -0.40026024 -0.32814607 -0.3993994 0.32384485 0.3642167 0.5302892
00000000: 197e be3e 1247 8bbe 316d aebe 165b ed3e
00000010: 07b4 c8be b06c b83e d00c a53e 935d 99be
00000020: 2b26 a43e 6200 ae3e 1397 babd e38c b43e
00000030: 3277 e8be 3b3b c1bb 8e51 9e3e 6f06 bcbe
00000040: 9b05 b83e 4667 e73e a563 9f3e 5740 bd3e
00000050: 95e0 c3be 8b15 523e f751 13bf 5cb2 f63e
00000060: 85ae 80be 5941 9e3e e9ee ccbe c302 a8be
00000070: 147e ccbe fece a53e 9c7a ba3e 08c1 073f

weight f4 [64, 32]
-0.007593987 0.32649013 0.015219294 -0.012498913 0.0083887195 -0.0070957136 0.0019439576 0.2232871
-0.0007459996 -0.0038903586 -0.07909551 -0.006211525 0.013981586 -0.1306722 0.004900467 0.015505254
-0.005429882 -0.012266386 0.00180124 -0.0054011205 0.017603297 0.017819487 0.011423267 -0.012452173
0.28461495 0.0009044246 0.012620213 0.018828189 0.015063197 -0.0020272355 -0.0068197604 -0.011546679
0.003127177 -0.027791504 -0.018558625 -0.02015482 0.012765796 0.013140714 0.071568 0.0914919
0.029147163 0.022235319 -0.2854302 0.012225009 0.020930197 -0.2875716 0.07804792 -0.0036588958
0.007672047 -0.018889353 0.077224955 0.0040532816 0.008871173 0.1464889 0.030765006 -0.021733452
-0.06538564 0.04637341 0.008461749 -0.050355807 0.0114135565 0.055931725 0.007322961 -0.026296766
-0.00391125 -0.15336671 -0.023948766 -0.02309397 0.01524649 0.007339228 0.08207092 0.10694199
0.024507625 0.016244061 -0.31703958 0.0064496947 0.02181895 -0.31649914 0.088960215 0.0011760519
0.001062464 -0.022058047 0.08755054 -0.0030554153 0.0041559334 0.16825093 0.029939443 -0.02432461
-0.18759803 0.04783204 0.011320432 -0.055578515 0.019711995 0.061303154 0.000826713 -0.028009359
0.14943518 -0.19588304 -0.1551866 0.18327904 -0.17063366 0.13970274 0.16599461 -0.23586854
0.11771003 0.13273646 -0.1287653 0.1366821 -0.18307339 -0.121184595 0.17498899 -0.17647488
0.14541058 0.18163209 0.17929864 0.1474431 -0.17035829 0.17682034 -0.19480728 0.18570109
-0.22755235 0.1350429 -0.16602351 -0.21128085 -0.16406025 0.16083102 0.14475343 0.19039284
-0.0047804113 0.12027983 -0.0019606014 -0.0075525003 0.0084824115 -0.00052405254 0.037128963 0.25635856
0.00680027 0.0033893993 -0.1416367 -0.0009631745 0.0077549443 -0.15111622 0.044063013 0.007599825
-0.0030899772 -0.007509552 0.042245533 -0.004461685 0.008103585 0.13190451 0.007715727 -0.007449641
0.07899734 0.017573833 0.007446492 -0.028344706 0.0130129 0.024590947 -0.0030377677 -0.0076704747
0.04307269 -0.21508925 -0.077701226 -0.0058431393 -0.018079584 0.061920404 0.13875617 -0.076893196
0.08908761 0.075709574 -0.56379944 0.06076469 0.0026829839 -0.7212635 0.16353238 -0.05731942
0.05200059 -0.0028376884 0.15628922 0.04510773 -0.04079234 0.23514585 0.026348775 -0.009484041
-0.18807007 0.1104596 -0.027128536 -0.12960769 -0.021288425 0.11499588 0.051185727 -0.019843733
-0.0004905584 0.010685041 -0.016029477 -0.0091829365 0.005903609 0.004989065 0.051290303 0.091869704
0.016542478 0.01055214 -0.24983613 0.004218669 0.008285373 -0.24262623 0.058813244 -0.004797275
0.0021504909 -0.008598812 0.058495007 -0.00028178646 0.0017421956 0.13586237 0.011753101 -0.009495079
-0.06696991 0.03062196 0.004127042 -0.041227397 0.013785986 0.03788723 0.0017779497 -0.011311919
-0.026163029 0.16079606 0.06529709 0.00803397 0.006717487 -0.039871626 -0.124743275 -0.055718083
-0.0703233 -0.05141008 0.3418623 -0.038642462 -0.0069674533 0.36097974 -0.13333625 0.016778601
-0.033114243 0.0058860118 -0.13194017 -0.028137304 0.01711087 -0.2132766 -0.022230888 0.010299644
0.18845512 -0.09603687 0.014655555 0.11225102 -0.0033607578 -0.102488 -0.031919956 0.016930394
00000000: fbd6 f8bb b729 a73e 585a 793c 3ec8 4cbc
00000010: d770 093c 2983 e8bb 65cc fe3a 60a5 643e
00000020: 308f 43ba 63f5 7ebb d4fc a1bd 0c8a cbbb
00000030: 0613 653c efce 05be 1994 a03b c009 7e3c
00000040: 27ed b1bb f4f8 48bc 9617 ec3a e2fb b0bb
00000050: ca34 903c 2cfa 913c a828 3b3c 3304 4cbc
00000060: 0db9 913e e816 6d3a 03c5 4e3c 933d 9a3c
00000070: a1cb 763c 5edb 04bb 4c78 dfbb 482e 3dbc
00000080: 53f1 4c3b 02ab e3bc 4208 98bc b91b a5bc
00000090: a127 513c 264c 573c 3e92 923d 1b60 bb3d
000000a0: 08c6 ee3c d826 b63c e823 92be 674b 483c
000000b0: ce75 ab3c 963c 93be 96d7 9f3d 16ca 6fbb
000000c0: cb65 fb3b d8bd 9abc 1e28 9e3d 64d1 843b
000000d0: 6558 113c 3001 163e e506 fc3c 5a0a b2bc
000000e0: e8e8 85bd 0bf2 3d3d 26a3 0a3c e441 4ebd
000000f0: edff 3a3c aa18 653d 73f5 ef3b 516c d7bc
00000100: f129 80bb 2a0c 1dbe 3430 c4bc 912f bdbc
00000110: 6acc 793c e87d f03b cc14 a83d 6704 db3d
00000120: 37c4 c83c 4412 853c 0353 a2be f657 d33b
00000130: a8bd b23c 2d0c a2be c630 b63d c125 9a3a
00000140: 6042 8b3a 14b3 b4bc b34d b33d 5d3d 48bb
00000150: 7f2e 883b f949 2c3e 9043 f53c 6844 c7bc
00000160: b319 40be 87eb 433d 5579 393c 4ca6 63bd
00000170: 0d7b a13c 0419 7b3d c5b7 583a e273 e5bc
00000180: 8905 193e 9095 48be 3ce9 1ebe 80ad 3b3e
00000190: 97ba 2ebe 3c0e 0f3e 7efa 293e 8687 71be
000001a0: f511 f13d 11ec 073e 0ddb 03be 64f6 0b3e
000001b0: 9777 3bbe a12f f8bd 5030 333e d5b5 34be
000001c0: 83e6 143e c3fd 393e 109a 373e 53fb 163e
000001d0: 6772 2ebe 6410 353e 8f7b 47be 6d28 3e3e
000001e0: 7c03 69be b048 0a3e 1102 2abe 025a 58be
000001f0: 69ff 27be e3b0 243e 3e3a 143e 57f6 423e
00000200: ffa4 9cbb 4655 f63d 6f7d 00bb f77a f7bb
00000210: d0f9 0a3c 9260 09ba 8a14 183d 6e41 833e
00000220: cdd4 de3b af20 5e3b 3609 11be 8c7d 7cba
00000230: 301d fe3b 36be 1abe 6b7b 343d f407 f93b
00000240: 3781 4abb b012 f6bb a709 2d3d 5433 92bb
00000250: e6c4 043c fa11 073e 36d4 fc3b 1e1c f4bb
00000260: 5bc9 a13d 00f7 8f3c b401 f43b 2833 e8bc
00000270: 0f34 553c f472 c93c 4915 47bb 9b58 fbbb
00000280: fd6c 303d 5b40 5cbe d221 9fbd ce77 bfbb
00000290: a31b 94bc 40a0 7d3d 1916 0e3e 2e7a 9dbd
000002a0: 9173 b63d 9f0d 9b3d 2955 10bf 65e4 783d
000002b0: 00d5 2f3b baa4 38bf 0875 273e c5c7 6abd
000002c0: 92fe 543d 83f8 39bb 480a 203e e2c2 383d
000002d0: de15 27bd 13ca 703e 63d9 d73c f362 1bbc
000002e0: 7195 40be a538 e23d aa3c debc e1b7 04be
000002f0: 1065 aebc f682 eb3d 20a8 513d 538f a2bc
00000300: d198 00ba 4f10 2f3c 4050 83bc 0774 16bc
00000310: 1073 c13b 507b a33b c815 523d 2f26 bc3d
00000320: 1784 873c e2e2 2c3c 0bd5 7fbe c33c 8a3b
00000330: 60bf 073c 0373 78be 28e6 703d 7632 9dbb
00000340: 40ef 0c3b 08e2 0cbc 7698 6f3d bdbc 93b9
00000350: 625a e43a 811f 0b3e 1490 403c 3f91 1bbc
00000360: 8527 89bd e8da fa3c 233c 873b 0fde 28bd
00000370: 9ede 613c a42f 1b3d 180a e93a a155 39bc
00000380: d953 d6bc b9a7 243e 7bba 853d eaa0 033c
00000390: 5d1e dc3b 6e50 23bd 6779 ffbd a538 64bd
000003a0: aa05 90bd 6093 52bd 9308 af3e 8f47 1ebd
000003b0: 3c4f e4bb 56d2 b83e 4c89 08be 4773 893c
000003c0: cda2 07bd 72df c03b 531b 07be 3480 e6bc
000003d0: 182c 8c3c 2e65 5abe 8d1d b6bc d7bf 283c
000003e0: 61fa 403e faae c4bd da1d 703c dde3 e53d
000003f0: 2940 5cbb 3be5 d1bd 80be 02bd 9cb1 8a3c

bias f4 [64]
-0.0033364715 -0.2314571 -0.18933569 0.049698196 -0.13338597 -0.17115256 -0.15864897 0.16942991
0.03768426 -0.1205836 -0.23128434 0.12442032 -0.21938936 -0.20116411 0.20731942 0.2207556
0.0818803 0.18051805 0.16343412 0.019238971 0.16010833 0.2523322 -0.037704203 -0.004915592
0.021784017 -0.16818953 0.16004281 0.16108096 0.05669034 0.14959425 0.10931776 -0.10618174
-0.05501133 0.2501688 0.15560876 -0.17570397 -0.123841494 0.18523581 -0.03347442 -0.19508982
0.13468423 0.18727557 0.058346294 -0.053999472 -0.13026676 -0.08890173 -0.019929498 -0.09152466
-0.0074151377 -0.21963589 -0.07740164 0.067678265 0.09250711 -0.09959891 -0.1488041 0.033460032
-0.051899824 -0.11706117 -0.1588765 -0.15396805 0.12691234 -0.049333066 0.22858474 -0.20987557
00000000: b4a8 5abb 1703 6dbe 37e1 41be 5690 4b3d
00000010: 5596 08be 9e42 2fbe e074 22be 097f 2d3e
00000020: d05a 1a3d 89f4 f6bd cdd5 6cbe 15d0 fe3d
00000030: 9ba7 60be f7fd 4dbe 8b4b 543e c20d 623e
00000040: dcb0 a73d b9d9 383e 465b 273e 0c9b 9d3c
00000050: 70f3 233e b031 813e b96f 1abd f912 a1bb
00000060: 6574 b23c e039 2cbe 43e2 233e 68f2 243e
00000070: 2134 683d 3c2f 193e fde1 df3d d075 d9bd
00000080: 8f53 61bd 2016 803e e757 1f3e beeb 33be
00000090: 9ca0 fdbd 75ae 3d3e 791c 09bd a0c5 47be
000000a0: aaea 093e 2bc5 3f3e 86fc 6e3d 8d2e 5dbd
000000b0: a664 05be 1c12 b6bd 3043 a3bc 4871 bbbd
000000c0: affa f2bb 3be8 60be c084 9ebd e79a 8a3d
000000d0: 5e74 bd3d 83fa cbbd 1a60 18be 630d 093d
000000e0: e994 54bd c4bd efbd 85b0 22be cda9 1dbe
000000f0: 4ff5 013e 7811 4abd 1e12 6a3e 9fe9 56be

weight f4 [32, 64]
0.07095087 0.041243427 0.10430303 -0.10589997 0.08726957 0.106159106 0.08728828 -0.065367915
0.08677858 0.16356272 0.11093746 -0.009079574 0.14126647 0.112313375 -0.052393645 -0.07142975
-0.0059926473 -0.056626145 -0.049714897 0.060177602 -0.019278798 -0.0766965 0.12787561 0.07258542
-0.09158859 0.08283604 -0.032605737 -0.045320172 0.0032889452 -0.036451254 0.0024212527 0.043899953
0.08948581 -0.07455224 -0.050557822 0.08325102 0.21916243 -0.04608219 0.11472658 0.13040097
-0.0056414623 -0.056163456 -0.059789196 0.1376752 0.16312888 0.1317024 -0.047919955 0.10704268
0.061989877 0.11192021 0.037952743 0.0856138 0.0016151357 0.076604545 0.09276478 -0.08979609
0.03895609 0.015317882 0.105753325 0.013658913 -0.043722544 0.096488886 -0.07349343 0.2728372
0.13466251 0.10421493 0.17116125 -0.36378387 0.18041587 -0.3196456 0.117081225 -0.030041087
-0.083026454 -0.3283079 0.159622 -0.19137628 0.14645167 0.18177284 -0.10479378 -0.034341395
-0.21243921 -0.07924007 -0.103153154 0.08321634 -0.268692 -0.034017455 0.1319206 0.13397616
-0.35914811 0.15962918 -0.3700035 -0.1060837 0.10826568 -0.120946184 -0.16715579 -0.36033854
0.08703723 -0.03556605 -0.09648107 0.1619914 -0.6176042 -0.113258794 0.14438505 0.06868032
-0.23013775 -0.08190183 -0.37860763 0.077198766 -0.30637756 0.16904946 -0.40609083 0.10924896
0.32671052 0.13656214 0.2827343 -0.09237134 -0.23407927 0.12869988 0.1299147 -0.33570078
0.15091805 -0.010430501 0.13295937 -0.5721239 -0.08406791 0.38327459 -0.034839924 -0.27807894
-0.043375444 -0.12138989 -0.19879694 0.09254632 -0.09742301 0.31865147 -0.20717148 0.41759643
0.38374376 0.39667657 -0.23583171 0.4625623 -0.22286089 -0.24752074 0.45737782 0.4444472
0.45051584 0.45837548 0.4550168 0.014679466 0.4891958 0.44881162 -0.07619195 -0.050142784
0.105862156 -0.21905808 0.49079347 0.45821118 0.11020846 0.4349924 0.4583699 -0.084669076
-0.22354959 0.45133454 0.45052898 -0.24949487 -0.1490141 0.46286136 0.054649465 0.5216022
0.4774145 0.45975015 -0.4500189 0.009217904 0.37902594 -0.21781196 0.1755631 -0.09515908
0.054610014 -0.2223423 0.10113855 0.35110214 0.49953952 -0.002677698 -0.25604334 0.12566128
0.022599934 0.08549299 0.477725 0.18906228 0.4230819 0.10222995 0.45539302 0.4316865
-0.0610482 -0.14849508 -0.17510563 -0.01937108 -0.15647236 -0.28107506 -0.15580344 0.18967815
0.073220566 -0.24624228 -0.16087954 0.3148511 -0.16491747 -0.1771565 0.18247359 0.18236965
0.34638423 0.1819829 0.18521017 -0.13682206 0.48015216 0.18129508 -0.1208993 -0.08513294
0.01396912 -0.16183482 0.44490835 0.18198077 -0.09305004 0.18713419 0.33419058 -0.20966105
-0.098799266 0.18036066 0.1866544 -0.16058835 -0.3004409 0.17830122 0.028306833 -0.280375
0.41733456 0.17645572 -0.1456742 -0.074279234 -0.25375104 -0.14713362 0.07256552 -0.029103654
-0.036556613 -0.16877 -0.13757667 0.288663 0.43784475 -0.033982016 -0.18972635 -0.010097399
0.09757111 0.11071033 -0.22195141 0.5181194 0.1921914 -0.021658538 0.17840938 -0.5099139
00000000: b14e 913d deee 283d d49c d53d 15e2 d8bd
00000010: 63ba b23d f269 d93d 33c4 b23d 9ddf 85bd
00000020: f8b8 b13d fc7c 273e 2e33 e33d 7ec2 14bc
00000030: 28a8 103e 8e04 e63d b89a 56bd c349 92bd
00000040: f85d c4bb d1f0 67bd d9a1 4bbd ca7c 763d
00000050: 92ee 9dbc 0e13 9dbd d3f1 023e aaa7 943d
00000060: cc92 bbbd f1a5 a93d 988d 05bd a5a1 39bd
00000070: 588b 573b e94d 15bd e1ad 1e3b 70d0 333d
00000080: 5644 b73d d8ae 98bd b815 4fbd 837f aa3d
00000090: 1e6c 603e aec0 3cbd c5f5 ea3d d587 053e
000000a0: 04dc b8bb a70b 66bd 84e5 74bd bafa 0c3e
000000b0: 420b 273e fedc 063e b747 44bd 3139 db3d
000000c0: 19e9 7d3d 6c36 e53d 5674 1b3d 4a56 af3d
000000d0: f6b2 d33a d8e2 9c3d 76fb bd3d 03e7 b7bd
000000e0: 6c90 1f3d dbf7 7a3c 3395 d83d a2c9 5f3c
000000f0: 6916 33bd f79b c53d b983 96bd 51b1 8b3e
00000100: f8e4 093e a36e d53d e544 2f3e e141 babe
00000110: f0be 383e 97a8 a3be 48c8 ef3d ba18 f6bc
00000120: c609 aabd f917 a8be f373 233e 25f8 43be
00000130: 6df7 153e a922 3a3e 1f9e d6bd 90a9 0cbd
00000140: aa89 59be 9e48 a2bd f641 d3bd 546d aa3d
00000150: ff91 89be e355 0bbd 3216 073e 0c31 093e
00000160: 43e2 b7be d575 233e 1971 bdbe 6942 d9bd
00000170: 66ba dd3d a2b2 f7bd e32a 2bbe 4b7e b8be
00000180: 9340 b23d b5ad 11bd de97 c5bd 13e1 253e
00000190: 4f1b 1ebf 3af4 e7bd add9 133e 45a8 8c3d
000001a0: 3ba9 6bbe 26bc a7bd dcd8 c1be 631a 9e3d
000001b0: 85dd 9cbe 4d1b 2d3e 23eb cfbe ebbd df3d
000001c0: 9a46 a73e f2d6 0b3e 8dc2 903e 2f2d bdbd
000001d0: 7ab2 6fbe e7c9 033e 5c08 053e f9e0 abbe
000001e0: 438a 1a3e b1e4 2abc 8026 083e b676 12bf
000001f0: cc2b acbd 913c c43e 4fb4 0ebd 5d60 8ebe
00000200: 73aa 31bd 439b f8bd 6d91 4bbe ed88 bd3d
00000210: b785 c7bd 4926 a33e c324 54be 33cf d53e
00000220: 107a c43e 3119 cb3e de7d 71be f7d4 ec3e
00000230: a535 64be 1476 7dbe 6d2d ea3e 958e e33e
00000240: 03aa e63e 31b0 ea3e f6f7 e83e 2582 703c
00000250: df77 fa3e a3ca e53e 860a 9cbd 8562 4dbd
00000260: 42ce d83d c350 60be 4849 fb3e a89a ea3e
00000270: f9b4 e13d 53b7 de3e 76af ea3e fb66 adbd
00000280: 2fea 64be 5215 e73e bcab e63e 957b 7fbe
00000290: 2797 18be 2afc ec3e 1ed8 5f3d b987 053f
000002a0: ac6f f43e 5f64 eb3e e168 e6be b106 173c
000002b0: b00f c23e 190a 5fbe d0c6 333e c4e2 c2bd
000002c0: c0ae 5f3d b3ad 63be ba21 cf3d a9c3 b33e
000002d0: a5c3 ff3e 517c 2fbb 1d18 83be 5aad 003e
000002e0: 7f23 b93c f316 af3d 5f98 f43e 8b99 413e
000002f0: 319e d83e f05d d13d 4629 e93e 0306 dd3e
00000300: ad0d 7abd 180f 18be e44e 33be 19b0 9ebc
00000310: 4a3a 20be 12e9 8fbe f08a 1fbe fd3a 423e
00000320: aaf4 953d f026 7cbe 9bbd 24be 2a34 a13e
00000330: 20e0 28be 8368 35be 5bda 3a3e 1cbf 3a3e
00000340: 4659 b13e ba59 3a3e bca7 3d3e 151b 0cbe
00000350: 81d6 f53e 6ba5 393e 0d9a f7bd 2e5a aebd
00000360: bcde 643c 07b8 25be 07cb e33e 2b59 3a3e
00000370: 0591 bebd 1ba0 3f3e 071b ab3e 63b1 56be
00000380: 4557 cabd 77b0 383e 5522 3f3e 4671 24be
00000390: 64d3 99be 9894 363e bbe3 e73c 508d 8fbe
000003a0: e0ac d53e cfb0 343e 9e2b 15be b61f 98bd
000003b0: a8eb 81be 32aa 16be 3b9d 943d c96a eebc
000003c0: 63bc 15bd 0bd2 2cbe e6e0 0cbe a3cb 933e
000003d0: 302d e03e ba30 0bbd a047 42be 906f 25bc
000003e0: 5dd3 c73d 19bc e23d 3b47 63be 79a3 043f
000003f0: d3cd 443e 3f6d b1bc f3b0 363e b889 02bf

bias f4 [32]
-0.21292089 -0.3853041 0.16940382 0.10415998 0.20352045 0.009982067 -0.17610599 -0.15622039
-0.16512465 0.42496932 -0.5947432 -0.13209161 -0.064877 -0.2035872 0.10125991 -0.22544706
-0.01203725 0.21688226 -0.2181268 0.057059575 -0.101592734 -0.078776136 -0.19523634 0.08330501
-0.36497226 -0.07953185 0.036681805 0.06437106 -0.16301128 0.17321698 0.02729497 -0.020859586
00000000: ef07 5abe 9446 c5be 3278 2d3e d451 d53d
00000010: aa67 503e d38b 233c 2155 34be 3df8 1fbe
00000020: 7016 29be 9495 d93e 1741 18bf 0643 07be
00000030: 3cde 84bd 2a79 50be 5b61 cf3d 98db 66be
00000040: e337 45bc 6216 5e3e a25c 5fbe 4db7 693d
00000050: da0f d0bd 6255 a1bd 09ec 47be d19b aa3d
00000060: a5dd babe 98e1 a2bd a93f 163d f9d4 833d
00000070: 6eec 26be cb5f 313e b399 df3c b9e1 aabc

weight f4 [32, 1]
-0.47717613 0.25395563 -0.23905171 0.32581294 0.2581833 -0.43498242 0.4753743 0.1294258
-0.22496794 -0.23662347 -0.46057674 -0.34200376 0.31063807 -0.3987431 0.15723296 -0.49263737
0.38630334 0.4669953 0.50442696 0.38610777 0.4386227 0.3432391 0.41783065 -0.25342
0.50427103 0.033168036 -0.0029812497 -0.5046176 0.35856175 -0.3719474 0.4028003 -0.38489246
00000000: 6e50 f4be 7906 823e f9c9 74be f4d0 a63e
00000010: 9a30 843e 04b6 debe 4364 f33e 3288 043e
00000020: ff5d 66be 6c4d 72be b7d0 ebbe 1e1b afbe
00000030: f40b 9f3e 0e28 ccbe ad01 213e f73a fcbe
00000040: 8dc9 c53e 021a ef3e 2022 013f ebaf c53e
00000050: 2893 e03e 09bd af3e e6ed d53e 44c0 81be
00000060: e817 013f 35db 073d 1261 43bb 9e2e 01bf
00000070: 6895 b73e e46f bebe d73b ce3e a010 c5be
