checkpoints/cahousing_honam2_emb32_1.pt (torch, 177750 bytes, 98 tensors)

weight f4 [32, 1]
-0.46378195 0.443108 0.44035688 0.52849567 -0.44485453 0.5422863 -0.42706805 0.5223386
-0.43811706 0.43393692 -0.4549841 0.41543016 0.4551084 -0.467124 0.4528034 -0.34940574
0.48831275 0.5379462 0.43970934 0.42630655 -0.47916865 0.4317817 -0.43675548 -0.44987434
0.10566557 0.46446502 -0.46974698 -0.36022776 0.4666998 -0.4649166 -0.46879858 -0.4437985
00000000: d474 edbe 0ddf e23e 7576 e13e 7e4b 073f
00000010: f9c3 e3be 46d3 0a3f aaa8 dabe fcb7 053f
00000020: e150 e0be fb2c de3e adf3 e8be 43b3 d43e
00000030: f803 e93e e02a efbe d9d5 e73e 4fe5 b2be
00000040: 2104 fa3e d8b6 093f 9521 e13e da44 da3e
00000050: 9855 f5be 7e12 dd3e 6a9e dfbe ee55 e6be
00000060: 3167 d83d 5cce ed3e ad82 f0be c66f b8be
00000070: 47f3 ee3e 8c09 eebe 5e06 f0be 8f39 e3be

bias f4 [32]
0.54859966 -0.76039016 -0.7947159 -0.37386793 0.73440105 -0.024572335 0.4030465 -0.3691669
0.82400256 -0.38553178 0.6246451 0.0011769626 -0.4565482 0.4406159 -0.46503645 0.329444
-0.2567381 -0.024744807 -0.80384666 -0.4341654 0.45165274 -0.2282797 0.83666676 0.66807956
-0.118697576 -0.5531151 0.5060666 0.33969605 -0.5354389 0.53938586 0.50405973 0.7418213
00000000: 0771 0c3f eea8 42bf 8072 4bbf 9e6b bfbe
00000010: b501 3c3f ec4b c9bc 1c5c ce3e 7203 bdbe
00000020: d5f1 523f 6c64 c5be bee8 1f3f 5044 9a3a
00000030: b0c0 e9be 6898 e13e 4219 eebe e2ac a83e
00000040: 2d73 83be 9fb5 cabc e5c8 4dbf ed4a debe
00000050: 073f e73e 27c2 69be cb2f 563f 4307 2b3f
00000060: b717 f3bd f498 0dbf 958d 013f a4ec ad3e
00000070: 8612 09bf 3115 0a3f 0f0a 013f 00e8 3d3f

weight f4 [64, 32]
0.054083306 -0.0537827 -0.053704 -0.09745437 0.05412344 -0.24913827 0.061668005 -0.12673931
0.054079678 -0.10928877 0.05433207 0.07283902 -0.05464523 0.052457955 -0.055712413 0.10202029
-0.13413426 -0.23854502 -0.05379214 -0.056301292 0.05301409 -0.21873756 0.05395209 0.054213893
0.009506495 -0.05388648 0.05390408 0.09627457 -0.053848747 0.05402666 0.053824212 0.05403824
0.0067224014 -0.032226473 -0.034679573 -0.12520629 0.029098116 0.51527035 -0.056037277 -0.15367183
0.03538999 -0.011146775 0.01791109 0.18564628 0.018376702 -0.02442927 0.017058708 -0.12017272
0.4697971 0.51665974 -0.035255846 0.02971436 -0.016242644 0.55016917 0.036225364 0.023213204
0.014961083 -0.009062772 -0.002028115 -0.11132611 -0.00594966 0.0051146024 -0.0019982054 0.029660618
0.09820892 -0.095507786 -0.09517884 -0.09644208 0.09564725 -0.29438245 0.111043945 -0.11466978
0.094879605 -0.0636191 0.09698864 0.09032656 -0.10159244 0.10070352 -0.102547534 0.1535689
-0.06166533 -0.2813388 -0.09512553 -0.10485004 0.100133404 -0.13818768 0.09475538 0.09641419
-0.05200845 -0.09805792 0.09899738 0.14710611 -0.098433636 0.0982712 0.098876186 0.09550933
-0.015411911 0.025334926 0.02582687 0.289035 -0.02237415 0.016403034 0.002200866 0.2933967
-0.023999376 0.14860746 -0.019189896 -0.06988788 0.011702389 -3.8912294e-05 0.011833935 -0.0011998988
0.14357138 0.014659246 0.026027715 0.011145073 -0.0062181894 0.32798445 -0.024271065 -0.020561386
-0.17803487 0.018874815 -0.012586722 0.00042536322 0.018027296 -0.014905141 -0.012440385 -0.022452414
-0.002791832 -0.01345786 -0.014907628 -0.09799158 0.012193556 -0.14803794 -0.024956608 -0.13501446
0.016003635 -0.13000146 0.005069945 0.11612025 0.019132746 -0.02813573 0.01672087 0.009665936
-0.18283956 -0.12089219 -0.015122791 0.023768287 -0.021329815 -0.2991108 0.016411128 0.008436732
0.08495089 0.002223018 -0.009230083 0.0052431915 0.0045149475 -0.003915405 -0.009417376 0.012593381
-0.00713228 -0.017460972 -0.019856926 -0.16442859 0.015043942 0.42106754 -0.06920769 -0.18786626
0.021296853 -0.026247157 0.004045914 0.19341975 0.034176104 -0.03844125 0.032758206 -0.12982236
0.6134702 0.45798826 -0.02044943 0.04673286 -0.030250441 0.62759984 0.022282075 0.009080317
0.09385942 0.006180199 -0.015829055 -0.12249549 0.009356571 -0.00883891 -0.015661554 0.015673142
-0.12679113 0.024459677 0.015383461 0.09105027 -0.03203959 0.5798402 -0.4525806 0.08135182
-0.008480755 0.27248022 -0.076215595 0.44483516 0.26900685 -0.30255538 0.264239 -0.6503825
1.4809389 0.5371156 0.013270243 0.34257534 -0.25114524 1.4860857 -0.005548475 -0.055241592
0.35723758 0.12416863 -0.16962591 -0.6471513 0.139597 -0.13485262 -0.17008561 -0.029374633
-0.016968513 0.02916693 0.03035574 0.07339427 -0.029758869 0.1565661 0.004489428 0.087820314
-0.032834727 0.005640211 -0.023971053 -0.11191604 -0.0014547341 0.00484318 -0.0011081246 -0.025635596
0.13868436 0.14799875 0.0307632 -0.019936433 -0.00018081444 0.25359815 -0.033169564 -0.026561754
-0.07375158 0.015438347 -0.011330281 -0.020598333 0.013260012 -0.015816197 -0.01095658 -0.030129204
00000000: 7586 5d3d 404b 5cbd baf8 5bbd 2896 c7bd
00000010: 8ab0 5d3d 1a1e 7fbe 9797 7c3d f3c7 01be
00000020: a782 5d3d cad2 dfbd 4e8b 5e3d a02c 953d
00000030: add3 5fbd 27de 563d b332 64bd 04f0 d03d
00000040: 7e5a 09be 2545 74be 2655 5cbd 2f9c 66bd
00000050: 4d25 593d bdfc 5fbe defc 5c3d 630f 5e3d
00000060: 21c1 1b3c 12b8 5cbd 86ca 5c3d 9a2b c53d
00000070: 8190 5cbd 0f4b 5d3d c776 5c3d 3457 5d3d
00000080: 9747 dc3b e8ff 03bd 2b0c 0ebd 1436 00be
00000090: 2c5f ee3c c2e8 033f 5887 65bd 265c 1dbe
000000a0: 18f5 103d f7a0 36bc 47ba 923c 0f1a 3e3e
000000b0: bd8a 963c e41f c8bc b4be 8b3c 1d1d f6bd
000000c0: 3f89 f03e d043 043f 6f68 10bd 886b f33c
000000d0: 4b0f 85bc e3d7 0c3f 0c61 143d 9e29 be3c
000000e0: 551f 753c 057c 14bc 20ea 04bb f2fe e3bd
000000f0: 5ef5 c2bb 6598 a73b 53f4 02bb d3fa f23c
00000100: c221 c93d 9699 c3bd 20ed c2bd 6d83 c5bd
00000110: b5e2 c33d 4cb9 96be 026b e33d fdd7 eabd
00000120: 3d50 c23d bb4a 82bd fba1 c63d 22fd b83d
00000130: b20f d0bd a63d ce3d 7104 d2bd 2a41 1d3e
00000140: c994 7cbd a40b 90be 2dd1 c2bd 9ebb d6bd
00000150: be12 cd3d 1281 0dbe 1c0f c23d ce74 c53d
00000160: d006 55bd 97d2 c8bd 23bf ca3d fca2 163e
00000170: 9397 c9bd 6942 c93d 997f ca3d 659a c33d
00000180: 3d82 7cbc 318b cf3c df92 d33c 65fc 933e
00000190: fe49 b7bc a85f 863c 673c 103b 1838 963e
000001a0: 579a c4bc 8e2c 183e 2134 9dbc 6021 8fbd
000001b0: 61bb 3f3c c235 23b8 1fe3 413c ec45 9dba
000001c0: 6004 133e 562d 703c 1338 d53c d399 363c
000001d0: f4c1 cbbb 94ed a73e 1dd4 c6bc 5a70 a8bc
000001e0: c64e 36be 5b9f 9a3c 8a38 4ebc 4903 df39
000001f0: fbad 933c b134 74bc c2d2 4bbc 20ee b7bc
00000200: 2bf7 36bb 5b7e 5cbc 203f 74bc cfaf c8bd
00000210: 7bc7 473c 4297 17be cd71 ccbc 3b41 0abe
00000220: 0e1a 833c 1a1f 05be c821 a63b 74d0 ed3d
00000230: 47bc 9c3c e77c e6bc 35fa 883c e05d 1e3c
00000240: 4b3a 3bbe 5396 f7bd 95c5 77bc b6b5 c23c
00000250: ddbb aebc 0d25 99be a170 863c 383a 0a3c
00000260: bbfa ad3d 0eb0 113b c639 17bc 14cf ab3b
00000270: 20f2 933b cc4c 80bb 564b 1abc 7854 4e3c
00000280: e7b5 e9bb 500a 8fbc feaa a2bc f85f 28be
00000290: de7a 763c 2a96 d73e c3bc 8dbd 0360 40be
000002a0: bd76 ae3c 4704 d7bc 9693 843b d40f 463e
000002b0: 3efc 0b3d 9274 1dbd 782d 063d 27f0 04be
000002c0: 620c 1d3f 707d ea3e 9085 a7bc f56a 3f3d
000002d0: c6cf f7bc 62aa 203f e688 b63c 9cc5 143c
000002e0: 5e39 c03d 4483 ca3b efab 81bc eade fabd
000002f0: 4e4c 193c 13d1 10bc a94c 80bc f664 803c
00000300: 89d5 01be a95f c83c e90a 7c3c 9078 ba3d
00000310: f23b 03bd 6870 143f a5b8 e7be c89b a63d
00000320: ddf2 0abc 8782 8b3e ec16 9cbd 6fc1 e33e
00000330: 44bb 893e 8ae8 9abe 564a 873e 787f 26bf
00000340: 688f bd3f 6880 093f 6f6b 593c 0966 af3e
00000350: 1c96 80be 0e38 be3f fbcf b5bb 0245 62bd
00000360: d8e7 b63e 1f4c fe3d 6ab2 2dbe b5ab 25bf
00000370: 84f2 0e3e ce16 0abe ec2a 2ebe 12a3 f0bc
00000380: 8d01 8bbc 7cef ee3c 9aac f83c bc4f 963d
00000390: dfc8 f3bc dd52 203e 0d1c 933b 23db b33d
000003a0: b57d 06bd 85d1 b83b f15e c4bc 3d34 e5bd
000003b0: c7ac beba 8ab3 9e3b 7e3e 91ba be01 d2bc
000003c0: 4603 0e3e fc8c 173e 1b03 fc3c bb51 a3bc
000003d0: 0299 3db9 9ed7 813e cfdc 07bd 0998 d9bc
000003e0: 120b 97bd 1ff1 7c3c a5a2 39bc d6bd a8bc
000003f0: 8540 593c f890 81bc 3a83 33bc 85d1 f6bc

bias f4 [64]
0.17682919 -0.03189907 0.08217205 -0.17656171 0.16811392 0.080299005 0.20708069 -0.18421212
-0.022567485 0.13000874 0.16265927 0.17286333 -0.049429234 0.066871785 0.1234007 -0.111113384
-0.14602782 -0.17560989 -0.16735028 -0.11208616 -0.047228895 -0.043044474 -0.047012582 -0.014444589
-0.08904714 -0.22749317 0.19596593 -0.01652507 0.06041342 0.1305507 0.105221584 -0.15055384
-0.13953662 0.17864893 0.070881404 0.17461804 0.017214436 0.010972483 0.1000024 0.056270093
-0.14173599 0.07407603 0.1914058 0.16058493 0.171471 0.18987413 0.1824342 -0.0919423
-0.105375536 0.037992578 -0.1487521 0.049790677 -0.13423844 0.16213751 -0.08359125 0.24734414
-0.031318393 -0.19255672 -0.046645574 -0.030289093 -0.1263732 -0.14198595 0.1156536 -0.0651387
00000000: b612 353e 99a8 02bd d249 a83d 98cc 34be
00000010: 0e26 2c3e ce73 a43d f60c 543e 1aa2 3cbe
00000020: 72df b8bc 0321 053e 2790 263e 1603 313e
00000030: 4f76 4abd 13f4 883d 82b9 fc3d 6a8f e3bd
00000040: 5188 15be 14d3 33be df5d 2bbe 6e8d e5bd
00000050: 1673 41bd 674f 30bd 4490 40bd ffa8 6cbc
00000060: 595e b6bd f8f3 68be 4bab 483e 955f 87bc
00000070: 1074 773d 15af 053e 6a7e d73d c92a 1abe
00000080: b0e2 0ebe bfef 363e 452a 913d 12cf 323e
00000090: 4a05 8d3c eec5 333c 0fce cc3d 787b 663d
000000a0: 3d23 11be 2cb5 973d e2ff 433e 6070 243e
000000b0: 1896 2f3e 5d6e 423e 08d0 3a3e 3f4c bcbd
000000c0: 21cf d7bd 1b9e 1b3d 7852 18be 4ff1 4b3d
000000d0: cd75 09be 6007 263e e431 abbd c847 7d3e
000000e0: b747 00bd 972d 45be 6e0f 3fbd d520 f8bc
000000f0: fa67 01be c464 11be cbdb ec3d 7067 85bd

weight f4 [32, 64]
-0.0009814826 -0.00062734087 0.049907796 0.04636631 -0.03723891 0.057980478 0.2788274 0.013400321
-1.3545256 -0.0055900705 -0.031919263 -0.021015711 -0.030491421 0.04126701 0.03707995 0.012780921
-0.023650793 -0.029790726 -0.035401758 -0.013008749 0.020928776 0.038381156 -0.008604169 -0.00015799851
-1.5448495 0.03715027 0.0009526533 -0.036490746 -0.023816386 -0.0018630594 -0.004670247 -0.028693141
-0.024877949 -0.026340228 0.11343993 -0.036988016 0.022078048 0.013999209 0.012363464 0.05699905
-0.02332159 0.080089554 -0.0252772 0.0069793784 -0.036984418 -0.025387958 -0.006006147 0.48040387
-0.0079142675 -0.06047793 -0.03098143 0.060046576 0.05069519 -0.03898999 -0.0010552523 0.017123302
-0.05758506 -0.038996693 0.018411623 -0.0028713145 0.017691862 -0.021692792 0.023431463 0.029877806
-0.25386062 -0.26404542 -0.23577239 0.19603239 -0.25879273 -0.32233155 -0.28003594 0.25807238
-0.084761694 -0.2918626 -0.26238525 -0.25991848 0.13589208 -0.22901952 -0.3115111 0.212819
0.28128806 0.24584651 0.23805082 0.28108808 0.06706224 0.076509506 0.053075146 0.07128179
-0.18082358 0.2254138 -0.26994675 0.38572913 -0.25838763 -0.2945959 -0.28916755 0.30613962
0.20597222 -0.2593448 -0.42325962 -0.2046097 0.040585645 0.1417053 -0.29741472 -0.23266484
0.2891874 -0.36112222 -0.26485437 -0.25489968 -0.20841755 -0.26437694 -0.25583118 -0.31778517
0.19307162 0.4035715 0.2911058 -0.23358425 0.22219582 -0.2118815 0.19053634 -0.30045217
0.3610523 0.24173735 0.08067428 0.103190005 0.179194 0.29535872 -0.30673048 0.110691994
-0.0008800027 0.011549348 -0.03443339 -0.0283092 0.03133567 0.007994987 -0.20245527 -0.02444944
-0.15786612 0.017838456 0.025144108 0.0157546 0.004186027 -0.025660139 0.00410303 -0.010791936
0.010505416 0.023529528 0.014199892 -0.016464856 -0.0060229963 -0.028297637 -0.01386381 -0.016781932
-0.012231708 -0.05886222 0.04746684 -0.0033117782 0.008821432 0.020474482 0.020767828 0.008878746
0.0103953695 0.020236868 0.007887206 0.022245964 0.0003638793 -0.037848905 0.011148965 -0.04053366
0.012040563 0.010685087 0.024881441 -0.0064523234 0.021162787 0.023668684 0.0029973453 -0.24113296
-0.021030018 0.022558428 0.002025279 -0.043906752 -0.044614036 0.021449033 0.0034137263 0.07780069
-0.018478036 0.018563634 -0.01672573 -0.028010849 -0.0053568133 -0.0014022281 0.0068773837 -0.031996038
0.005187392 -0.7330173 0.040756963 0.15757546 -0.045187537 -0.82382935 -0.15275437 0.043100543
-0.23948394 -0.8520885 -0.030642629 -0.015890354 0.18546185 0.029925903 -0.8110944 0.102887474
0.40382296 0.22448161 0.1297787 0.3728476 0.09296322 0.12409396 0.09206409 0.09747126
-0.3385133 0.12218349 -0.23062159 0.051693555 -0.7947529 -0.8910317 -0.85833216 0.2596514
0.08708103 -0.023952011 -0.35885456 -0.14833717 0.089516245 0.12087279 -0.83903325 0.04987512
0.26363933 -0.555394 -0.038323592 0.01503847 -0.12728256 -0.034646742 -0.001382409 0.68026775
0.012945266 0.051396903 0.2670976 0.057961226 0.15905267 -0.09548626 0.4058581 -0.36717737
0.057368778 0.28643078 0.09105465 0.018826842 0.057539817 0.34668255 -0.8424263 0.07879879
00000000: 17a5 80ba 2274 24ba 1e6c 4c3d 9aea 3d3d
00000010: d487 18bd f07c 6d3d 77c2 8e3e 058d 5b3c
00000020: 1861 adbf e92c b7bb c6bd 02bd 2429 acbc
00000030: 25c9 f9bc 9907 293d 25e1 173d 1167 513c
00000040: 4fbf c1bc ae0b f4bc 6f01 11bd a622 55bc
00000050: d372 ab3c 8f35 1d3d 80f8 0cbc 67ac 25b9
00000060: a1bd c5bf e22a 183d 7bbb 793a 5277 15bd
00000070: 951a c3bc e631 f4ba df08 99bb e10d ebbc
00000080: d7cc cbbc 76c7 d7bc 3253 e83d bf80 17bd
00000090: 06dd b43c f05c 653c 2090 4a3c d677 693d
000000a0: eb0c bfbc fe05 a43d 2112 cfbc 45b3 e43b
000000b0: f97c 17bd 68fa cfbc 36cf c4bb 7ff7 f53e
000000c0: d8aa 01bc b5b7 77bd c5cc fdbc 66f3 753d
000000d0: c2a5 4f3d f8b3 1fbd 6450 8aba 2b46 8c3c
000000e0: 50de 6bbd ffba 1fbd f9d3 963c aa2c 3cbb
000000f0: 86ee 903c 15b5 b1bc 57f3 bf3c 4dc2 f43c
00000100: 05fa 81be f630 87be 516e 71be b7bc 483e
00000110: 7b80 84be a408 a5be df60 8fbe 1022 843e
00000120: 8a97 adbd 046f 95be 5c57 86be 0914 85be
00000130: 4b27 0b3e 1884 6abe 627e 9fbe 39ed 593e
00000140: fd04 903e 30bf 7b3e 98c3 733e c7ea 8f3e
00000150: ed57 893d 04b1 9c3d 5365 593d 30fc 913d
00000160: d129 39be e0d2 663e 7636 8abe 4a7e c53e
00000170: 624b 84be 46d5 96be c50d 94be 55be 9c3e
00000180: 62ea 523e d7c8 84be 7cb5 d8be 3585 51be
00000190: 223d 263d 321b 113e be46 98be b13f 6ebe
000001a0: 5f10 943e 03e5 b8be fe9a 87be 3682 82be
000001b0: 696b 55be 6a5c 87be 4efc 82be bdb4 a2be
000001c0: 91b4 453e eca0 ce3e d20b 953e b630 6fbe
000001d0: 4d87 633e 77f7 58be f51b 433e ded4 99be
000001e0: d9db b83e ff89 773e 8f38 a53d 4855 d33d
000001f0: a27e 373e 4239 973e c70b 9dbe 7cb2 e23d
00000200: fbaf 66ba 7a39 3d3c 070a 0dbd b2e8 e7bc
00000210: d559 003d 68fd 023c 6f50 4fbe 314a c8bc
00000220: a8a7 21be f421 923c 04fb cd3c ca0f 813c
00000230: f12a 893b 3635 d2bc b672 863b a9d0 30bc
00000240: e91e 2c3c ffc0 c03c aaa6 683c 4ee1 86bc
00000250: 8e5c c5bb 72d0 e7bc 0925 63bc 437a 89bc
00000260: 8067 48bc 8319 71bd 976c 423d 6b0a 59bb
00000270: c487 103c 1aba a73c 4b21 aa3c 2978 113c
00000280: 5751 2a3c cac7 a53c 5739 013c 2b3d b63c
00000290: 0ec7 be39 7407 1bbd 26aa 363c a006 26bd
000002a0: c845 453c 8110 2f3c 2ad4 cb3c 036e d3bb
000002b0: 955d ad3c d4e4 c13c 1c6f 443b 8feb 76be
000002c0: 2547 acbc 74cc b83c 8bba 043b 91d7 33bd
000002d0: 35bd 36bd e2b5 af3c d3b8 5f3b f855 9f3d
000002e0: 405f 97bc c312 983c 6604 89bc 0277 e5bc
000002f0: 3588 afbb f8ca b7ba ad5b e13b 470e 03bd
00000300: fffa a93b 06a7 3bbf c6f0 263d 765b 213e
00000310: 9116 39bd 7be6 52bf a46b 1cbe 328a 303d
00000320: 473b 75be 7922 5abf 4006 fbbc 7d2c 82bc
00000330: b6e9 3d3e 2b27 f53c e2a3 4fbf abb6 d23d
00000340: e2c1 ce3e 82de 653e b5e4 043e e1e5 be3e
00000350: 8063 be3d f924 fe3d 198c bc3d 039f c73d
00000360: 9e51 adbe 563b fa3d 1128 6cbe 9fbc 533d
00000370: ed74 4bbf a71a 64bf a8bb 5bbf 07f1 843e
00000380: 8a57 b23d 0237 c4bc c9bb b7be b3e5 17be
00000390: 4b54 b73d 278c f73d e2ca 56bf db49 4c3d
000003a0: bcfb 863e 4d2e 0ebf 33f9 1cbd ea63 763c
000003b0: 5c56 02be bee9 0dbd f331 b5ba 0726 2e3f
000003c0: 6218 543c 8f85 523d 04c1 883e c068 6d3d
000003d0: b4de 223e 4d8e c3bd a2cc cf3e acfe bbbe
000003e0: 86fb 6a3d 0ea7 923e dc7a ba3d c03a 9a3c
000003f0: dfae 6b3d 6080 b13e 40a9 57bf 4361 a13d

bias f4 [32]
-0.04711731 -0.17008053 -0.13767198 -0.14600867 0.086230464 0.08708049 0.044714477 -0.14189567
0.11045613 0.11977449 0.23623572 0.2603703 -0.12168894 0.20642656 0.0752872 -0.18739821
0.07763525 -0.076475084 -0.10492452 -0.09706121 0.040266518 0.087492175 0.13011314 -0.24059738
0.155577 -0.18433127 0.06929136 -0.018360645 0.06109331 -0.11738505 -0.13017018 -0.120993026
00000000: 15fe 40bd 9729 2ebe e2f9 0cbe 4c83 15be
00000010: 9999 b03d 4257 b23d 8726 373d 194d 11be
00000020: d336 e23d 544c f53d c7e7 713e 424f 853e
00000030: 0d38 f9bd 7c61 533e 2d30 9a3d 51e5 3fbe
00000040: 3bff 9e3d f89e 9cbd abe2 d6bd 07c8 c6bd
00000050: 81ee 243d 192f b33d 613c 053e 295f 76be
00000060: 944f 1f3e 56c1 3cbe a1e8 8d3d 1069 96bc
00000070: fb3c 7a3d 9367 f0bd 554b 05be 31cb f7bd

weight f4 [32, 1]
0.38317925 0.5346464 -0.21426612 0.57812375 0.57136416 0.2797513 -0.53040826 0.41928223
0.6229708 -0.26940185 -0.5067876 -0.51677287 0.41038758 -0.6015155 0.5573077 0.39043763
-0.51094705 0.51441693 0.5489617 -0.38868356 0.5669263 0.4474698 0.5444464 0.5557046
0.43089867 -0.30978206 0.40544072 0.40778852 0.42260358 0.38443032 -0.5462303 -0.25812644
00000000: 1230 c43e 96de 083f 9468 5bbe ebff 133f
00000010: ec44 123f 903b 8f3e d6c8 07bf 29ac d63e
00000020: 047b 1f3f 0aef 89be d5bc 01bf 3a4b 04bf
00000030: 521e d23e ebfc 19bf b8ab 0e3f 71e7 c73e
00000040: 6dcd 02bf d4b0 033f c188 0c3f 8801 c7be
00000050: 1522 113f c31a e53e d760 0b3f a842 0e3f
00000060: c09e dc3e c19b 9ebe ed95 cf3e a8c9 d03e
00000070: 7f5f d83e 0dd4 c43e c0d5 0bbf 2629 84be

bias f4 [32]
-0.25747737 -0.5375953 0.20212592 -0.5837591 -0.58399636 -0.3033513 0.66126597 -0.1719308
-0.018706957 0.2545421 0.69503653 0.68149316 -0.27593622 -0.03987314 -0.62144715 -0.31684634
0.48393282 -0.6880063 -0.5565312 0.3677113 -0.6048415 -0.3856412 -0.5725076 -0.6225168
-0.17743804 0.29346043 -0.41555873 -0.41412422 -0.1690714 -0.31186375 0.63004947 0.24376181
00000000: 13d4 83be d89f 09bf 19fa 4e3e 3d71 15bf
00000010: c980 15bf dd50 9bbe ba48 293f a10e 30be
00000020: 553f 99bc 5853 823e eaed 313f 5676 2e3f
00000030: 8347 8dbe 0552 23bd 2917 1fbf af39 a2be
00000040: 0bc6 f73e 2e21 30bf d478 0ebf a844 bc3e
00000050: e4d6 1abf c372 c5be dc8f 12bf 435d 1fbf
00000060: 51b2 35be 7240 963e 1dc4 d4be 1708 d4be
00000070: 0e21 2dbe 9bac 9fbe ec4a 213f b29c 793e

weight f4 [64, 32]
-0.6625303 0.00788023 -0.0001251174 0.00023776658 0.00024342179 -0.1923085 0.0030028261 -0.10130469
-0.19135389 0.0038238724 0.0025485689 0.0026632736 -0.24148874 0.09308752 0.00026158482 0.10193813
0.0012136844 0.000458986 0.00048282798 -0.009527547 0.0001236411 0.33439216 0.0004454163 0.00018106698
-0.08651077 -0.0025098466 0.0146028735 0.023625 -0.103605695 0.0898031 0.0033360838 0.00596711
0.84932554 0.013908742 -0.1712776 0.0036830138 0.0046422174 0.33154222 0.006896355 0.1228104
0.56993353 -0.1736831 0.011062884 0.009397095 0.5008625 -0.5279742 -0.0019796873 0.096929245
-0.037315425 -0.01066054 0.013858836 -0.10544419 0.00023309868 -0.027668932 0.011071606 -0.0023689168
0.11067084 -0.1617275 0.07693057 0.075518385 0.12435197 0.10910206 0.0031458542 -0.17682843
0.8555132 0.020048873 -0.19309944 0.007889856 0.008982213 0.34980246 0.0034681105 0.10533514
0.6149826 -0.19303037 0.00806438 0.00628794 0.5383123 -0.55892766 0.0017653937 0.14531869
-0.0449706 -0.0075945035 0.019121693 -0.121311754 0.004274751 -0.004693491 0.01587713 0.0012364888
0.094100684 -0.18366049 0.08923938 0.08835714 0.10701734 0.15814982 -0.00044467833 -0.19653843
0.84980536 0.0073844963 -0.16362365 -0.0023971356 -0.0013425843 0.32570633 0.012839303 0.12450324
0.56246614 -0.1678729 0.017002372 0.015301031 0.49817234 -0.51861846 -0.007968157 0.08753627
-0.030388061 -0.016347757 0.007635412 -0.09734439 -0.005553935 -0.026664233 0.0048129875 -0.008361461
0.11152918 -0.15442918 0.06946171 0.068089545 0.12582487 0.09928881 0.009323923 -0.17021838
0.96236324 0.02817667 -0.20725396 0.005051472 0.0062498003 0.40463886 0.0074282866 0.6452296
0.40062532 -0.22716135 0.011969949 0.010276098 0.53988713 -0.24374956 -0.0016255773 0.31390455
-0.050312366 -0.0110311285 0.018583799 -0.13292295 0.0011702568 0.6343764 0.014759594 -0.002128795
0.6450621 -0.22841804 0.09619025 0.09735049 0.6466857 0.30816343 0.0034881793 -0.224423
0.95268804 0.03529636 -0.19134149 0.014083374 0.015051432 0.39602816 -0.002158903 0.6268361
0.35619545 -0.2087465 0.002043679 0.000337979 0.53549045 -0.29699504 0.007627718 0.32502905
-0.05755974 -0.0014275601 0.027024072 -0.13661295 0.010280063 0.6286939 0.02320346 0.0071813874
0.63616383 -0.21379215 0.10199334 0.10354498 0.625656 0.32030305 -0.006080362 -0.20731246
-0.69336957 0.02911219 0.029511793 -0.007032996 -0.0068335906 -0.21101871 0.0130387535 -0.08559636
-0.21537282 0.030429645 0.012993021 0.01319262 -0.2732978 0.10581775 -0.008693179 0.057479024
0.00019595484 -0.009657096 -0.0033823154 0.0047313 -0.007992278 0.27941683 -0.0039300225 -0.0086967815
-0.07754839 0.023654077 0.002119015 0.0066762236 -0.08841783 0.044559628 0.012815948 0.033596087
-0.21431592 0.08577425 -0.11702032 0.079854436 0.08009692 0.09080937 -0.0782699 0.16492562
0.19417316 -0.112438954 -0.07722556 -0.077479504 -0.2546894 0.0353446 0.07832648 -0.18169665
-0.09688761 0.07618641 0.08239743 -0.107241735 0.07893747 0.011388272 0.082085505 0.078278534
0.15623507 -0.109166555 0.093649045 0.10075283 0.16920565 -0.1873113 -0.07914502 -0.11479359
00000000: 969b 29bf 151c 013c f231 03b9 fb50 7939
00000010: 0a3f 7f39 85ec 44be 10cb 443b d578 cfbd
00000020: 46f2 43be ef99 7a3b e405 273b 518a 2e3b
00000030: d348 77be aba4 be3d 5225 8939 f0c4 d03d
00000040: 7e14 9f3a 0fa4 f039 1324 fd39 6e19 1cbc
00000050: a8a5 0139 7335 ab3e c486 e939 ccdc 3d39
00000060: 8f2c b1bd 3d7c 24bb e440 6f3c 3789 c13c
00000070: 392f d4bd b0ea b73d 33a2 5a3b bf87 c33b
00000080: 666d 593f 7ee1 633c 6563 2fbe b85e 713b
00000090: be1d 983b e7bf a93e d2fa e13b 0584 fb3d
000000a0: 2ae7 113f fcd9 31be 1941 353c 46f6 193c
000000b0: 8638 003f 5129 07bf a4bd 01bb d782 c63d
000000c0: 0fd8 18bd 8ca9 2ebc 2c10 633c 20f3 d7bd
000000d0: f36b 7439 f5a9 e2bc ae65 353c d43f 1bbb
000000e0: 65a7 e23d e59b 25be c68d 9d3d 62a9 9a3d
000000f0: 3fac fe3d e770 df3d ad2a 4e3b 8312 35be
00000100: ea02 5b3f 893d a43c dcbb 45be 7444 013c
00000110: 222a 133c 4f19 b33e 3d49 633b f3b9 d73d
00000120: 806f 1d3f c1a9 45be 7620 043c 100b ce3b
00000130: d6ce 093f e215 0fbf c864 e73a 6cce 143e
00000140: 1833 38bd 50db f8bb 19a5 9c3c 4c72 f8bd
00000150: 3613 8c3b dbcb 99bb c110 823c ae11 a23a
00000160: dcb7 c03d 7f11 3cbe 23c3 b63d 97f4 b43d
00000170: e82b db3d 07f2 213e b723 e9b9 5f41 49be
00000180: d88c 593f a5f9 f13b f58c 27be 4319 1dbb
00000190: a7f9 afba fbc2 a63e f15b 523c 8efb fe3d
000001a0: c8fd 0f3f e0e6 2bbe 8f48 8b3c 2db1 7a3c
000001b0: 7210 ff3e 2ec4 04bf df8c 02bc 3746 b33d
000001c0: 62f0 f8bc bbeb 85bc 7a32 fa3b 7f5c c7bd
000001d0: c9fd b5bb f36e dabc 44b6 9d3b 82fe 08bc
000001e0: 6969 e43d af22 1ebe f141 8e3d 8872 8b3d
000001f0: 3cd8 003e ee57 cb3d 5ec3 183c ba4d 2ebe
00000200: 705d 763f c3d2 e63c 623a 54be d286 a53b
00000210: 20cb cc3b d32c cf3e fc68 f33b c42d 253f
00000220: c31e cd3e fc9c 68be 9b1d 443c 145d 283c
00000230: 0b36 0a3f 7c99 79be 5311 d5ba 19b8 a03e
00000240: 5714 4ebd e8bb 34bc 0d3d 983c f41c 08be
00000250: 4d63 993a 7e66 223f 39d2 713c 4183 0bbb
00000260: ca22 253f 6be6 69be 65ff c43d b25f c73d
00000270: 328d 253f 99c7 9d3e f099 643b 25cf 65be
00000280: 5de3 733f ea92 103d 06ef 43be f4bd 663c
00000290: 489a 763c 34c4 ca3e 627c 0dbb 5578 203f
000002a0: 405f b63e a4c1 55be 3eef 053b c632 b139
000002b0: e715 093f bc0f 98be f0f1 f93b 356a a63e
000002c0: c3c3 6bbd f81c bbba 9661 dd3c 44e4 0bbe
000002d0: b66d 283c 15f2 203f 2f15 be3c d851 eb3b
000002e0: a2db 223f 54ec 5abe e2e1 d03d 640f d43d
000002f0: fe2a 203f c3fe a33e c63d c7bb b849 54be
00000300: ab80 31bf b07c ee3c b7c2 f13c 0c75 e6bb
00000310: 50ec dfbb 4a15 58be 7fa0 553c 254d afbd
00000320: b18a 5cbe 9747 f93c aee0 543c dc25 583c
00000330: b0ed 8bbe fab6 d83d d66d 0ebc 206f 6b3d
00000340: 3a79 4d39 cc38 1ebc d6a9 5dbb 0509 9b3b
00000350: 0bf2 02bc b90f 8f3e 6bc7 80bb f27c 0ebc
00000360: b1d1 9ebd 32c6 c13c 2cdf 0a3b 39c4 da3b
00000370: 6814 b5bd 2884 363d fbf9 513c 0d9c 093d
00000380: a275 5bbe 69aa af3d 59a8 efbd b98a a33d
00000390: db09 a43d 43fa b93d f84b a0bd 43e2 283e
000003a0: 54d5 463e 6546 e6bd 6f28 9ebd 93ad 9ebd
000003b0: a666 82be 80c5 103d a269 a03d b00e 3abe
000003c0: 036d c6bd 9f07 9c3d fcbf a83d 8ea1 dbbd
000003d0: f8a9 a13d e095 3a3c 721c a83d 7f50 a03d
000003e0: 16fc 1f3e b792 dfbd 12cb bf3d 8057 ce3d
000003f0: 3f44 2d3e 89ce 3fbe c916 a2bd e718 ebbd

bias f4 [64]
-0.13912347 0.17387392 0.2081216 0.15222001 0.057423897 0.07734041 -0.16908216 -0.120596305
-0.038677 0.15345934 0.1621072 0.16312449 0.15947697 -0.15832984 0.06336471 0.04247924
-0.14670354 -0.19248508 0.20619488 -0.1185956 -0.02106817 0.0023816933 0.050463777 0.18947768
-0.005833714 0.055455036 0.109285206 0.038069304 0.1494093 0.17967217 0.14619744 -0.11675405
0.13782625 -0.12294973 0.060931027 -0.12988804 0.24194184 0.17394654 -0.16684516 0.14134587
-0.11418084 0.12767547 0.08771453 0.10893277 0.0038458793 -0.18435618 0.15676548 0.09925857
0.100285426 -0.101540454 0.15557398 0.22727033 0.10119813 -0.16415131 0.13245133 -0.14664744
0.15638196 0.016407188 0.14492902 0.23131031 -0.14535806 0.1701988 0.17766784 -0.010598549
00000000: 6276 0ebe 010c 323e d41d 553e 90df 1b3e
00000010: 5235 6b3d a664 9e3d e023 2dbe 32fb f6bd
00000020: c66b 1ebd 7224 1d3e 6eff 253e 1b0a 273e
00000030: ee4d 233e 3821 22be 5bc5 813d b6fe 2d3d
00000040: 7439 16be cf1a 45be c024 533e 40e2 f2bd
00000050: 2897 acbc 2f16 1c3b 1bb3 4e3d 7006 423e
00000060: bd28 bfbb d224 633d ecd0 df3d 8fee 1b3d
00000070: c0fe 183e fbfb 373e c8b4 153e bf1c efbd
00000080: 5322 0d3e 11cd fbbd d092 793d 5f01 05be
00000090: 9abf 773e 0b1f 323e 75d9 2abe f9bc 103e
000000a0: a5d7 e9bd 5cbd 023e ada3 b33d 2518 df3d
000000b0: 260b 7c3b dec7 3cbe 2187 203e 1448 cb3d
000000c0: 7262 cd3d 71f4 cfbd c94e 1f3e 8eb9 683e
000000d0: f740 cf3d 4817 28be 52a1 073e bf2a 16be
000000e0: 9822 203e 5e68 863c 4668 143e 9cdc 6c3e
000000f0: bed8 14be 9848 2e3e 8fee 353e 89a5 2dbc

weight f4 [32, 64]
0.019443193 -0.96697456 -1.0105096 -0.9406435 -0.43986958 -0.355419 0.041534208 -0.11616344
-0.18407291 -0.93130124 -0.37919497 -0.94085264 -0.39451784 0.06364178 -0.1956276 -0.2536619
0.031641554 0.123547085 -0.50033194 0.08656556 0.27457923 0.24746384 -0.15584421 -0.9785145
-0.319604 -0.8411732 0.23399746 -0.20984866 0.21378477 -0.43382245 -0.9000646 0.001415457
-0.8853761 -0.07684419 0.20177335 -0.15995091 -1.0698979 -0.9597789 0.14042352 -0.19184045
0.017883318 -0.30794385 -0.37724835 0.17983767 0.048123058 0.6059059 -0.30763763 0.1967064
0.19038863 0.024671644 -0.2841374 -1.0467112 -0.16744809 -0.26294056 -0.8567369 -0.1577832
-0.19264236 -0.41465154 -0.9159339 -1.0478748 -0.17799266 -0.5426113 -0.96339834 0.022370338
0.13912696 -0.10157618 -0.09594492 -0.10507913 -0.17889877 -0.30105695 0.14623944 0.44660035
0.3112201 -0.107247055 -0.14903453 -0.10555681 -0.14745504 0.15305303 -0.17384578 -0.1996746
0.2470794 0.12606646 -0.13739647 0.19038564 -1.1467584 -1.131229 -0.2161951 -0.09796601
-0.78333557 -0.15512861 -0.78242576 -0.17890626 -0.6461552 -0.14567319 -0.10564256 0.24893166
-0.10041953 0.43240258 -0.6102114 0.45208746 -0.09282686 -0.10036935 0.07210468 -0.16393426
0.16659984 -0.15584293 -0.28298795 -0.5778788 0.31056812 -1.7102785 -0.17189941 -0.6058373
-0.5904653 0.19094138 -0.2697793 -0.09431441 -0.26819858 -0.62268066 -0.105541214 0.43166086
-0.1600832 -0.22320955 -0.10473625 -0.094043694 0.2643955 -0.16751258 -0.09929317 0.2630417
-0.10484972 0.14444809 0.1471977 0.14126265 0.032190163 0.05007436 -0.11932872 -0.05620667
-0.03076492 0.14409326 0.13391553 0.14569995 0.13520293 -0.12062826 0.09269981 0.08946221
-0.09194347 -0.12964287 0.13268381 -0.087515764 -1.2467408 -1.2394087 0.09602974 0.14886011
0.11895 0.11792224 0.25941053 0.10243576 0.157241 0.13224332 0.1452545 -0.049077775
0.14558393 -0.05833234 0.10115035 -0.0317003 0.142931 0.14610612 -0.14909667 0.11893592
-0.11569346 0.13515848 0.08572665 0.09554029 -0.07789877 -0.35984963 0.11037476 0.11129776
0.107951075 -0.10541224 0.10077839 0.14475678 0.14346868 0.6405088 0.14587043 -0.057664976
0.12017247 0.0390807 0.14292577 0.14450178 -0.0018356981 0.1260702 0.1473457 -0.07983573
-0.00067930983 0.01224178 0.017316293 0.010423618 -0.6196362 -0.5737201 -0.027826475 -0.054035947
-0.046374638 0.010026038 -0.048502997 0.012975326 -0.047757413 0.017097784 -0.37713614 -0.37042248
-0.009914389 -0.00047869037 -0.0378019 0.0011923407 0.1786593 0.19568008 -0.3405652 0.01840235
0.070744984 -0.3339573 0.056917038 -0.3677708 0.042104315 -0.04365987 0.015629126 -0.056685664
0.008274694 -0.059905745 0.056771185 -0.030146802 0.023478014 0.014741433 0.012580494 -0.17570154
0.0196691 -0.07894877 -0.67217195 0.05838172 0.015946336 -0.16087571 -0.34548077 0.058189787
0.058878023 -0.006657969 -0.7079304 0.02223525 -0.22001888 -0.006006777 0.004342888 -0.048376225
-0.17266159 -0.6466444 0.014094876 0.021022469 -0.034010965 -0.3288986 0.014140482 0.022007251
00000000: 5547 9f3c a58b 77bf 6158 81bf 03ce 70bf
00000010: 9636 e1be 7bf9 b5be c61f 2a3d 19e7 edbd
00000020: 9c7d 3cbe c269 6ebf d825 c2be b8db 70bf
00000030: 3efe c9be 9f56 823d 9a52 48be f9df 81be
00000040: 939a 013d 4106 fd3d c115 00bf 4949 b13d
00000050: a695 8c3e 2967 7d3e a095 1fbe ed7f 7abf
00000060: 23a3 a3be 2057 57bf 089d 6f3e 91e2 56be
00000070: 65ea 5a3e fa1d debe a26a 66bf db86 b93a
00000080: 02a8 62bf 7d60 9dbd ac9d 4e3e 2cca 23be
00000090: 6af2 88bf 12b4 75bf 2fcb 0f3e d371 44be
000000a0: 0980 923c d1aa 9dbe b226 c1be 5e27 383e
000000b0: af1c 453d a61c 1b3f ae82 9dbe 676d 493e
000000c0: 3df5 423e 301c ca3c 757a 91be a2fa 85bf
000000d0: 8377 2bbe 25a0 86be 1c53 5bbf eb91 21be
000000e0: 0a44 45be 354d d4be a57a 6abf c320 86bf
000000f0: b543 36be 93e8 0abf 46a1 76bf 0042 b73c
00000100: 4c77 0e3e 2c07 d0bd c57e c4bd ba33 d7bd
00000110: 3d31 37be 2324 9abe cbbf 153e cda8 e43e
00000120: 3e58 9f3e 58a4 dbbd 829c 18be 2b2e d8bd
00000130: 74fe 16be efb9 1c3e a104 32be 8077 4cbe
00000140: 6202 7d3e 9117 013e a9b1 0cbe 74f4 423e
00000150: fbc8 92bf 1dcc 90bf 4062 5dbe 67a2 c8bd
00000160: ae88 48bf 09da 1ebe 0e4d 48bf 3433 37be
00000170: 6d6a 25bf 5a2b 15be 205b d8bd f1e7 7e3e
00000180: c1a8 cdbd df63 dd3e d036 1cbf 0278 e73e
00000190: 021c bebd 728e cdbd 9eab 933d 62de 27be
000001a0: 2699 2a3e 4a95 1fbe cce3 90be ddef 13bf
000001b0: c902 9f3e 68ea dabf 6606 30be 2718 1bbf
000001c0: bc28 17bf 2386 433e 8320 8abe ea27 c1bd
000001d0: 5351 89be 0068 1fbf fe25 d8bd a702 dd3e
000001e0: daec 23be 0b91 64be f67f d6bd fb99 c0bd
000001f0: d95e 873e 6b88 2bbe 385a cbbd 67ad 863e
00000200: 73bb d6bd 33ea 133e feba 163e 28a7 103e
00000210: d5d9 033d c61a 4d3d 9e62 f4bd f738 66bd
00000220: b706 fcbc 2f8d 133e 2721 093e 5e32 153e
00000230: a372 0a3e f30b f7bd 66d9 bd3d f737 b73d
00000240: dc4c bcbd 1ac1 04be 44de 073e 773b b3bd
00000250: 3495 9fbf f2a4 9ebf 3eab c43d c96e 183e
00000260: 0f9c f33d 3781 f13d 75d1 843e d7c9 d13d
00000270: c903 213e cb6a 073e 98bd 143e c705 49bd
00000280: f413 153e e4ed 6ebd ea27 cf3d 2cd8 01bd
00000290: 815c 123e d89c 153e ccac 18be ad94 f33d
000002a0: b1f0 ecbd fc66 0a3e 7491 af3d a1aa c33d
000002b0: 6489 9fbd 363e b8be 2a0c e23d 14f0 e33d
000002c0: 7415 dd3d 5fe2 d7bd e764 ce3d 1f3b 143e
000002d0: 74e9 123e 62f8 233f 0f5f 153e 1c32 6cbd
000002e0: fc1c f63d 1613 203d 225b 123e 46f8 133e
000002f0: cf9b f0ba 8c18 013e cbe1 163e ea80 a3bd
00000300: b613 32ba bf91 483c e6da 8d3c d3c7 2a3c
00000310: 7aa0 1ebf 52df 12bf 59f4 e3bc cc54 5dbd
00000320: 55f3 3dbd 4044 243c 14ab 46bd 7696 543c
00000330: 479d 43bd a710 8c3c fd17 c1be 04a8 bdbe
00000340: f66f 22bc bcf8 fab9 2ad6 1abd 5148 9c3a
00000350: 77f2 363e 5c60 483e 905e aebe 86c0 963c
00000360: bfe2 903d 74fc aabe d721 693d 744c bcbe
00000370: 9375 2c3d b1d4 32bd a708 803c 3a2f 68bd
00000380: 9592 073c ba5f 75bd e788 683d 6df6 f6bc
00000390: f754 c03c 0d86 713c 6b1e 4e3c 1beb 33be
000003a0: 1821 a13c e5af a1bd 7613 2cbf ac21 6f3d
000003b0: e4a1 823c 9abc 24be dbe2 b0be 6a58 6e3d
000003c0: 152a 713d 182b dabb ed3a 35bf b326 b63c
000003d0: a14c 61be 7fd4 c4bb c94e 8e3b 2626 46bd
000003e0: 33ce 30be 7d8a 25bf 32ee 663c 5037 ac3c
000003f0: 154f 0bbd 6665 a8be 7bad 673c 8d48 b43c

bias f4 [32]
0.12745708 -0.21446764 0.08555818 0.15217356 0.08138921 -0.099938296 -0.08509873 -0.1736653
0.013947377 -0.17965537 0.053580344 0.08606517 -0.05266877 -0.2060591 -0.006094469 0.06889668
-0.3336605 0.17115922 0.21379447 -0.102613814 -0.13869673 -0.18967955 0.08081102 -0.29853123
0.19991025 0.15703796 -0.17042492 0.06524679 -0.13264652 0.09148058 0.018118026 0.14195582
00000000: 1c84 023e 689d 5bbe 2139 af3d 63d3 1b3e
00000010: 63af a63d 73ac ccbd 3e48 aebd 51d5 31be
00000020: 8a83 643c 94f7 37be 1077 5b3d f042 b03d
00000030: 35bb 57bd 2801 53be 1db4 c7bb b419 8d3d
00000040: 8dd5 aabe 5d44 2f3e f0ec 5a3e 3127 d2bd
00000050: 8406 0ebe 5b3b 42be 4080 a53d 16d9 98be
00000060: 46b5 4c3e 8fce 203e df83 2ebe 1ca0 853d
00000070: 7dd4 07be 2c5a bb3d 416c 943c de5c 113e

weight f4 [32, 1]
0.39747941 -0.112745546 0.2058955 -0.21845065 -0.16441104 -0.23229639 -0.02806138 0.10950808
-0.21229938 0.19061081 -0.16516703 0.086128384 -0.16843152 0.22566016 0.21267231 0.3916268
-0.17021035 0.22661813 0.23111676 0.19055334 0.20319462 -0.22253719 0.060980614 -0.20802753
0.12827301 0.21622068 0.22529623 0.39115635 0.10458607 0.13672015 -0.21412528 0.24785987
00000000: 6c82 cb3e 23e7 e6bd 45d6 523e 87b1 5fbe
00000010: 5e5b 28be 1bdf 6dbe fbe0 e5bc c645 e03d
00000020: 0265 59be 7b2f 433e 8c21 29be 1464 b03d
00000030: 5079 2cbe 7513 673e c5c6 593e 4f83 c83e
00000040: 9f4b 2ebe 950e 683e dfa9 6c3e 6a20 433e
00000050: 4012 503e cae0 63be cfc6 793d 2b05 55be
00000060: 005a 033e f468 5d3e 0eb4 663e a545 c83e
00000070: 3931 d63d 5e00 0c3e a843 5bbe face 7d3e

bias f4 [32]
-0.012807911 0.2398373 -0.41403714 0.5771738 0.34171838 0.6771692 -0.07147385 -0.18577102
0.54285115 -0.0038727869 0.3451071 0.061295487 0.35713995 -0.008307676 -0.44502676 -0.01250275
-0.0015403861 -0.007926645 -0.5509199 -0.0036779228 -0.40279302 -0.015119921 -0.13130566 0.5156646
-0.21062379 -0.45210224 -0.50597495 -0.0125048915 -0.17943577 -0.22435315 0.54421467 -0.67939204
00000000: 46d8 51bc e997 753e adfc d3be aac1 133f
00000010: b6f5 ae3e f65a 2d3f e260 92bd c23a 3ebe
00000020: 4bf8 0a3f 95ce 7dbb e1b1 b03e fa10 7b3d
00000030: 0cdb b63e eb1c 08bc 8cda e3be 56d8 4cbc
00000040: c8e6 c9ba c2de 01bc 1609 0dbf 4e09 71bb
00000050: e33a cebe 8cb9 77bc fe74 06be 9802 043f
00000060: c3ad 57be f279 e7be 9387 01bf 51e1 4cbc
00000070: 03be 37be d5bc 65be a751 0b3f a3ec 2dbf

weight f4 [64, 32]
0.26500127 -0.021377042 0.032122243 -0.032258246 -0.027091907 -0.03343388 0.0046087326 0.02194588
-0.031722233 0.038550943 -0.027079215 0.0056801406 -0.027312512 0.060182855 0.032831885 0.25808814
-0.030496692 0.061904192 0.03442037 0.03830991 0.0320629 -0.059417542 0.016567769 -0.031299617
0.024030533 0.033233713 0.034013428 0.24452028 0.02136509 0.02492994 -0.032027952 0.035821658
-0.42067024 0.019107642 -0.032341525 0.032953046 0.027081754 0.034108296 0.014657974 -0.01859355
0.032449372 -0.10144592 0.027188314 -0.032039985 0.027539898 -0.14965962 -0.033137698 -0.4101175
0.08803983 -0.15553276 -0.03447924 -0.10000558 -0.032113045 0.14850001 -0.008805785 0.032100867
-0.02196424 -0.03359773 -0.03422345 -0.40841144 -0.017663335 -0.023531348 0.03276982 -0.035626244
0.42486706 0.024737187 -0.00957438 0.010705166 0.017211998 0.00915299 -0.049446266 -0.022336263
0.011302599 0.12177945 0.017115388 0.06786869 0.016770063 0.15759851 -0.008835433 0.4120786
-0.106021255 0.160696 -0.0071288683 0.1211842 -0.009840515 -0.15477476 -0.030081693 0.011694508
-0.019446272 -0.008298084 -0.0074047907 0.40899172 -0.022971712 -0.018117225 0.011051736 -0.005552605
0.3652048 0.014558391 -0.001443017 0.00065085327 0.007200418 -0.0009973125 -0.038153432 -0.014105692
0.0012081082 0.10115785 0.007275776 0.053133633 0.006820344 0.13225468 -0.00073660386 0.35261443
-0.08877768 0.13502336 0.001131243 0.10060751 -0.0018514708 -0.13213187 -0.021128248 0.0017689085
-0.011484772 -0.00019516844 0.0007177513 0.3482179 -0.014704675 -0.010328541 0.0009814601 0.0027983547
-0.3275998 0.051012207 -0.0695639 0.07645799 0.0620453 0.08016921 -0.023634253 -0.04562177
0.07485956 -0.025645085 0.0624499 0.015989013 0.06320765 -0.05515853 -0.071498066 -0.31660712
0.017022975 -0.057905678 -0.07696067 -0.02503051 -0.068716764 0.05402204 -0.03687464 0.0737027
-0.049237393 -0.07221622 -0.07518733 -0.3150876 -0.04453193 -0.05110375 0.07529186 -0.08189182
0.36962005 0.02435155 -0.011494325 0.012312397 0.018192159 0.010943548 -0.04206997 -0.022054346
0.012990971 0.101710506 0.018202886 0.0577902 0.017762078 0.13159402 -0.010858672 0.35694283
-0.08782968 0.13397148 -0.009106613 0.10130268 -0.011820973 -0.1286607 -0.02782999 0.013400792
-0.01986007 -0.010314455 -0.009458659 0.35316718 -0.022631252 -0.019014155 0.012639559 -0.0076333093
-0.6694991 0.031092506 -0.04779769 0.048443098 0.041183356 0.04971337 0.016314566 -0.030594934
0.04762577 -0.17444758 0.041238993 -0.042204652 0.041826997 -0.28499693 -0.04857533 -0.6591528
0.147983 -0.30321223 -0.0503041 -0.17060868 -0.047389027 0.272065 -0.017558632 0.047380414
-0.034827825 -0.049249474 -0.050063837 -0.6577078 -0.02934697 -0.036498256 0.0481254 -0.051555704
-0.1586175 -0.01756685 0.016329547 -0.014884757 -0.016026337 -0.014627793 0.029800786 0.01979344
-0.015028907 -0.059922826 -0.01601827 -0.033006042 -0.01601296 -0.06324482 0.01610403 -0.2235516
0.055587225 -0.060244393 0.015582625 -0.06005207 0.016418817 0.062197823 0.022361081 -0.015035001
0.019131552 0.015967818 0.015788427 -0.23913792 0.020011151 0.018667286 -0.0150190005 0.01501606
00000000: 3fae 873e e81e afbc 9d92 033d 3921 04bd
00000010: d9ef ddbc f7f1 08bd da04 973b d9c7 b33c
00000020: 2cef 01bd 98e7 1d3d 3bd5 ddbc 7920 ba3b
00000030: 7dbe dfbc 4c82 763d ba7a 063d 2124 843e
00000040: 33d4 f9bc 408f 7d3d 60fc 0c3d daea 1c3d
00000050: 6354 033d cf5f 73bd 21b9 873c 0734 00bd
00000060: aedb c43c 1320 083d aa51 0b3d 8663 7a3e
00000070: d705 af3c e039 cc3c be2f 03bd bbb9 123d
00000080: 1762 d7be a187 9c3c 8c78 04bd c6f9 063d
00000090: 8eda dd3c 24b5 0b3d 0028 703c 8051 98bc
000000a0: a2e9 043d e1c2 cfbd 07ba de3c 5c3c 03bd
000000b0: 5a9b e13c 5f40 19be 65bb 07bd ecfa d1be
000000c0: 3a4e b43d fb43 1fbe 1b3a 0dbd bacf ccbd
000000d0: f888 03bd 6310 183e 2446 10bc 337c 033d
000000e0: 5aee b3bc c69d 09bd e32d 0cbd 4e1b d1be
000000f0: b3b2 90bc d0c4 c0bc a639 063d d3ec 11bd
00000100: 2d88 d93e a4a5 ca3c dcdd 1cbc b864 2f3c
00000110: 2d00 8d3c 6cf6 153c 2b88 4abd 8afa b6bc
00000120: 892e 393c 8167 f93d 9235 8c3c bdfe 8a3d
00000130: 5f61 893c 8161 213e 7ec2 10bc f7fb d23e
00000140: ac21 d9bd 7e8d 243e 4899 e9bb 6c2f f83d
00000150: 1d3a 21bc 467d 1ebe e26d f6bc 529a 3f3c
00000160: ca4d 9fbc b0f4 07bc e3a3 f2bb 5d67 d13e
00000170: 2c2f bcbc 936a 94bc 5712 353c a0f2 b5bb
00000180: 20fc ba3e 5186 6e3c 9e23 bdba 069e 2a3a
00000190: 7cf1 eb3b 41b8 82ba c646 1cbd 8f1b 67bc
000001a0: 6259 9e3a d92b cf3d a269 ee3b a7a2 593d
000001b0: 317d df3b c56d 073e a618 41ba e189 b43e
000001c0: 13d1 b5bd 9043 0a3e 3746 943a 4f0b ce3d
000001d0: 0dad f2ba 944d 07be 2615 adbc b8da e73a
000001e0: a02a 3cbc 21a6 4cb9 7927 3c3a 9e49 b23e
000001f0: e1eb 70bc 0a39 29bc 56a4 803a 9a64 373b
00000200: 29bb a7be 2df2 503d 8577 8ebd 0296 9c3d
00000210: 3623 7e3d c12f a43d 9f9c c1bc e5dd 3abd
00000220: f84f 993d a415 d2bc 77cb 7f3d 64fb 823c
00000230: 0373 813d e9ed 61bd 946d 92bd 541a a2be
00000240: c473 8b3c 812e 6dbd 8e9d 9dbd c90c cdbc
00000250: 60bb 8cbd 3746 5d3d dd09 17bd 71f1 963d
00000260: 26ad 49bd 19e6 93bd d1fb 99bd 2953 a1be
00000270: 1d67 36bd 2a52 51bd 9e32 9a3d e6b6 a7bd
00000280: d73e bd3e e77c c73c b152 3cbc f0b9 493c
00000290: b907 953c 914c 333c 9051 2cbd 51ab b4bc
000002a0: 15d8 543c 994d d03d 381e 953c 6bb5 6c3d
000002b0: c781 913c 95c0 063e 92e8 31bc 36c1 b63e
000002c0: 0ce0 b3bd d22f 093e e733 15bc c877 cf3d
000002d0: c1ac 41bc a1bf 03be b8fb e3bc ff8e 5b3c
000002e0: 96b1 a2bc f6fd 28bc 7ef8 1abc 54d2 b43e
000002f0: 2d65 b9bc 93c3 9bbc 2716 4f3c d720 fabb
00000300: 4b64 2bbf b6b5 fe3c 83c7 43bd 456c 463d
00000310: e1af 283d 3fa0 4b3d 20a6 853c 3aa2 fabc
00000320: 3d13 433d 63a2 32be 38ea 283d c9de 2cbd
00000330: c952 2b3d 1eeb 91be edf6 46bd 3dbe 28bf
00000340: db88 173e a23e 9bbe ac0b 4ebd 0bb4 2ebe
00000350: ff1a 42bd 1b4c 8b3e 1fd7 8fbc f711 423d
00000360: 9fa7 0ebd d1b9 49bd bd0f 4dbd 8a5f 28bf
00000370: 0f69 f0bc 327f 15bd 241f 453d 132c 53bd
00000380: a06c 22be 5be8 8fbc 8bc5 853c 32df 73bc
00000390: aa49 83bc 69a9 6fbc c720 f43c da25 a23c
000003a0: ce3b 76bc a371 75bd bf38 83bc 5831 07bd
000003b0: 9c2d 83bc 8086 81bd 99ec 833c b6ea 64be
000003c0: 6eaf 633d d3c2 76bd 444e 7f3c 29f9 75bd
000003d0: c180 863c 25c3 7e3d 962e b73c 5d55 76bc
000003e0: c6b9 9c3c f1ce 823c bb56 813c 92e0 74be
000003f0: 6dee a33c 23ec 983c 4112 76bc ec05 763c

bias f4 [64]
-0.05813509 0.20864864 -0.16132382 -0.10917527 0.21099812 -0.15492107 0.182154 -0.027044557
0.011573323 0.18937941 0.18386805 -0.05980647 -0.1242714 0.02465646 -0.10523518 0.19116448
-0.034661856 -0.015472428 -0.12352516 0.012751377 -0.13527513 -0.1316564 0.1482046 -0.009769736
-0.014157906 0.24041057 -0.13342242 0.17505062 0.19725606 -0.049773984 0.045070663 -0.11115529
0.12310724 -0.11344689 -0.15713446 0.0674858 -0.079130895 -0.005756278 -0.029710542 0.07239791
-0.12485143 -0.09286562 -0.11602293 -0.04214558 0.16769376 -0.08697266 0.039360084 0.16749334
-0.053270392 -0.09068676 -0.024795784 0.13996835 0.1312138 0.20693465 0.12041909 -0.14320904
-0.10700916 0.09977879 -0.09961184 0.023909483 -0.11899844 -0.13958815 -0.12740876 -0.19233024
00000000: 0f1f 6ebd fda7 553e 1232 25be 4997 dfbd
00000010: e40f 583e a1a3 1ebe 9486 3a3e 8c8c ddbc
00000020: 099e 3d3c adec 413e e847 3c3e a1f7 74bd
00000030: 0182 febd 58fc c93c 8b85 d7bd 9fc0 433e
00000040: 97f9 0dbd 1180 7dbc c2fa fcbd 27eb 503c
00000050: 9085 0abe efd0 06be f2c2 173e 3e11 20bc
00000060: 90f6 67bc 302e 763e e39f 08be 7840 333e
00000070: 7efd 493e cedf 4bbd 049c 383d 62a5 e3bd
00000080: a61f fc3d d856 e8bd dbe7 20be ff35 8a3d
00000090: 610f a2bd 299f bcbb 8663 f3bc 5b45 943d
000000a0: 1bb2 ffbd 5530 bebd 6e9d edbd d8a0 2cbd
000000b0: eab7 2b3e b91e b2bd 0a38 213d 6083 2b3e
000000c0: 0e32 5abd fbb9 b9bd 8720 cbbc dd53 0f3e
000000d0: e95c 063e ade6 533e 499e f63d 64a5 12be
000000e0: 9e27 dbbd d258 cc3d 4b01 ccbd d2dd c33c
000000f0: 74b5 f3bd 32f0 0ebe 7177 02be 38f2 44be

weight f4 [32, 64]
0.1430013 -0.06186905 0.14083424 0.14466192 -0.07947327 0.13210611 0.15458588 -0.055855136
-0.022617899 -0.11206976 -0.08317921 0.09463749 0.145409 0.098259255 0.12400447 -0.07565161
-0.11355637 -0.08093822 0.14086281 -0.02804059 0.15323046 0.14163756 -0.084589235 -0.06491901
-0.03189927 -0.07600617 0.13065459 -0.08275825 -0.022371646 0.09082073 -0.11304216 0.13295424
-0.07892655 0.14389403 0.1410493 -0.088231035 0.012864754 0.110761605 -0.052765362 -0.08881018
0.14666136 0.02819007 0.14407739 -0.0083242245 -0.103293255 0.0903077 0.1063136 -0.07942756
0.15227884 0.122661844 -0.06926197 -0.06930911 -0.091776505 -0.08426566 -0.11739366 0.14405829
0.13164541 -0.121858604 0.12129891 0.106514275 0.14860378 0.15027232 0.13955784 0.20378321
-0.1442214 0.074179426 -0.2738195 -0.37717414 0.065055296 -0.30962142 0.046715125 0.104045376
-0.007515456 0.04566378 0.077698775 -0.11387134 -0.33268875 -0.19421041 -0.19463502 0.063857995
0.12585585 0.05502577 -0.30928016 0.05376686 -0.46918753 -0.10727657 0.09185662 0.060773622
0.03663804 0.055079576 -0.20814458 0.08244691 0.07719781 -0.11174296 0.08995813 -0.26075494
0.101594694 -0.3125897 -0.30272967 0.06862327 -0.17201589 -0.22513002 0.06511687 0.07245475
-0.42910212 -0.24692728 -0.37225297 0.07164792 0.06439529 -0.11963051 -0.19161405 0.07938054
-0.046823435 -0.18989816 0.10178225 0.08684296 0.109973684 0.080092 0.06574484 -0.39064586
-0.3501278 0.07042736 -0.17776592 -0.21458752 -0.20563294 -0.18464082 -0.26885912 -0.31223544
-0.030626897 -0.010195298 0.020850217 0.015810657 0.008781509 0.013454572 0.0062525976 0.05789867
0.014265193 0.041428205 0.0072548203 -0.010116279 0.01930167 -0.027773468 -0.0054490874 0.015634399
0.01669152 0.035635382 0.016952753 0.004110532 0.022635654 -0.02862849 0.009772873 0.004470484
-0.004882826 0.014881266 -0.0010145048 0.010523827 0.03776697 -0.010188351 0.023027783 -0.0074998513
0.001491227 0.018419603 0.021431398 0.007591277 -0.003715243 -0.034218315 0.006788239 0.040152133
0.015688822 0.021935485 0.017779604 -0.0010344619 0.015335031 -0.002764301 -0.03524843 0.008155764
-0.043741565 -0.0047793565 0.0071455208 -0.012932252 -0.004341836 0.019477848 0.03369709 0.015221538
0.004539569 0.033442784 -0.004135108 -0.031853028 -0.022018293 -0.020921836 0.021336561 -0.048194442
-0.1620107 0.24166737 -0.25669697 -0.238766 -0.030476028 -0.2384121 0.12912284 0.094740756
0.2180681 0.04930987 -0.040096454 -0.1916813 -0.24094433 -0.14720672 -0.2161627 -0.03923536
0.1922593 0.15313047 -0.23843081 0.13753223 -0.24302378 -0.16678591 -0.044406533 0.205414
0.0507344 -0.043413892 -0.20548432 -0.0365807 0.2414467 -0.19015455 0.16388194 -0.18734016
0.21977255 -0.23816621 -0.25915053 0.14793988 0.018427378 -0.14351761 0.13510425 0.1360966
-0.234151 -0.00039812125 -0.23713009 0.0950674 0.014776618 -0.2092903 -0.13935795 -0.039642107
-0.15505871 -0.21394901 0.22007488 0.22454472 -0.022850044 -0.021858264 0.038868196 -0.23360518
-0.22135642 0.038932625 -0.21705721 -0.14662239 -0.17291778 -0.17303649 -0.24492891 0.07047171
00000000: ef6e 123e 676a 7dbd da36 103e 4122 143e
00000010: e2c2 a2bd d346 073e c34b 1e3e 5bc8 64bd
00000020: 2c49 b9bc d584 e5bd dd59 aabd 4dd1 c13d
00000030: 19e6 143e 263c c93d 0ef6 fd3d 3bef 9abd
00000040: 3e90 e8bd f0c2 a5bd 573e 103e 61b5 e5bc
00000050: 72e8 1c3e 7009 113e 1f3d adbd 42f4 84bd
00000060: cfa8 02bd 1fa9 9bbd 51ca 053e 287d a9bd
00000070: be44 b7bc 3800 ba3d a682 e7bd 2825 083e
00000080: 3ea4 a1bd f558 133e 3a6f 103e 79b2 b4bd
00000090: b0c6 523c fbd6 e23d 7e20 58bd 1de2 b5bd
000000a0: 652e 163e ddee e63c 0689 133e 5462 08bc
000000b0: 6a8b d3bd 3ef3 b83d f2ba d93d ebaa a2bd
000000c0: fcee 1b3e 2236 fb3d 38d9 8dbd eff1 8dbd
000000d0: 52f5 bbbd 7993 acbd 166c f0bd 0484 133e
000000e0: 0ece 063e 0191 f9bd 906b f83d 2824 da3d
000000f0: 972b 183e fde0 193e 40e8 0e3e 8cac 503e
00000100: c6ae 13be 62eb 973d 1232 8cbe f81c c1be
00000110: b63b 853d b386 9ebe 5c58 3f3d be15 d53d
00000120: 3744 f6bb f209 3b3d 8920 9f3d 6135 e9bd
00000130: 2e56 aabe 18df 46be 674e 47be fbc7 823d
00000140: 5be0 003e b462 613d f859 9ebe a43a 5c3d
00000150: 5939 f0be d1b3 dbbd 531f bc3d c3ed 783d
00000160: c511 163d 1f9b 613d da23 55be edd9 a83d
00000170: e319 9e3d 7ed9 e4bd f83b b83d ac81 85be
00000180: e110 d03d c20b a0be 62ff 9abe 5b8a 8c3d
00000190: ef24 30be 7c88 66be fe5b 853d 2863 943d
000001a0: 46b3 dbbe 81da 7cbe f197 bebe 25bc 923d
000001b0: aee1 833d d700 f5bd 7936 44be 4492 a23d
000001c0: eec9 3fbd aa74 42be 3673 d03d b9da b13d
000001d0: e239 e13d 4607 a43d 3ba5 863d bc02 c8be
000001e0: f343 b3be 383c 903d 4508 36be d5bc 5bbe
000001f0: 7191 52be 7c12 3dbe e7a7 89be 53dd 9fbe
00000200: 42e5 fabc 2e0a 27bc 13ce aa3c 5a85 813c
00000210: 51e0 0f3c 9170 5c3c 97e2 cc3b 2827 6d3d
00000220: 8eb8 693c 9fb0 293d d8b9 ed3b c0be 25bc
00000230: 891e 9e3c 2f85 e3bc 428e b2bb b613 803c
00000240: a8bc 883c 68f6 113d 80e0 8a3c a4b1 863b
00000250: 686e b93c 4c86 eabc 661e 203c 237d 923b
00000260: 1d00 a0bb 8ed0 733c 22f9 84ba 216c 2c3c
00000270: 8ab1 1a3d 0bed 26bc c3a4 bc3c 50c1 f5bb
00000280: 4675 c33a b5e4 963c e690 af3c 3fc0 f83b
00000290: 6f7b 73bb 8128 0cbd e06f de3b 9076 243d
000002a0: d885 803c 0cb2 b33c 88a6 913c c896 87ba
000002b0: c83f 7b3c 4629 35bb a860 10bd c19f 053c
000002c0: 5b2a 33bd 269c 9cbb f924 ea3b cce1 53bc
000002d0: f645 8ebb 0290 9f3c f605 0a3d c263 793c
000002e0: aac0 943b 4dfb 083d cd7f 87bb 5278 02bd
000002f0: b55f b4bc 4564 abbc 03ca ae3c 8967 45bd
00000300: 22e6 25be a777 773e c96d 83be 137f 74be
00000310: dda8 f9bc 4d22 74be c738 043e 7107 c23d
00000320: 3e4d 5f3e 25f9 493d 2e3c 24bd 1a48 44be
00000330: 1cba 76be 5cbd 16be c159 5dbe 42b5 20bd
00000340: 9fdf 443e 3cce 1c3e 3527 74be 40d5 0c3e
00000350: 3adb 78be edc9 2abe a0e3 35bd 0c58 523e
00000360: e0ce 4f3d c4d2 31bd 7b6a 52be a5d5 15bd
00000370: ce3d 773e e0b7 42be abd0 273e 19d6 3fbe
00000380: 0e0c 613e d8e1 73be 61af 84be 8d7d 173e
00000390: 03f5 963c 48f6 12be c558 0a3e e85c 0b3e
000003a0: 48c5 6fbe eeba d0b9 3bd2 72be b2b2 c23d
000003b0: a119 723c 3250 56be dab3 0ebe c35f 22bd
000003c0: b6c7 1ebe 7315 5bbe 4f5b 613e 0def 653e
000003d0: 0430 bbbc 1a10 b3bc 4234 1f3d 3236 6fbe
000003e0: 42ab 62be d177 1f3d 3f44 5ebe 2e24 16be
000003f0: 5c11 31be 7a30 31be a5ce 7abe 7953 903d

bias f4 [32]
0.18897331 -0.14941938 -0.1364023 -0.22214015 0.113104746 -0.16777824 -0.23401693 -0.08809025
0.12463445 0.08637304 -0.07309855 -0.046523042 0.0007478553 0.18428779 -0.15080664 -0.048837475
-0.36661404 0.18312162 0.12209046 -0.03848646 0.033510294 -0.17544213 -0.1131452 0.14489943
0.16967441 -0.20876127 0.28571936 -0.054740388 0.08370287 -0.123395905 -0.091112435 0.072098136
00000000: 3882 413e 6501 19be 0bad 0bbe b578 63be
00000010: 76a3 e73d 0fce 2bbe 22a2 6fbe a968 b4bd
00000020: 5940 ff3d 59e4 b03d b1b4 95bd f28e 3ebd
00000030: b80b 443a f0b5 3c3e 0e6d 1abe ce09 48bd
00000040: d6b4 bbbe 3c84 3b3e 900a fa3d faa3 1dbd
00000050: 1742 093d 1aa7 33be acb8 e7bd 8460 143e
00000060: 21bf 2d3e 84c5 55be cf49 923e 7537 60bd
00000070: 696c ab3d feb6 fcbd 2899 babd 30a8 933d

weight f4 [32, 1]
0.020152172 0.018189829 -0.1513643 0.022253275 -0.16540648 -0.015453625 -0.058491632 0.3635173
0.019041538 -0.16587028 -0.1411723 0.028210675 0.044752322 -0.15777238 -0.030445531 0.05247925
-0.93866086 0.3563469 0.1350342 0.22725315 0.36460152 0.021993559 0.024593852 -0.14112182
0.019832402 -0.16426042 -0.016809955 -0.024342263 -0.014260352 -0.15560074 -0.15540682 0.022402849
00000000: 2b16 a53c d602 953c 3eff 1abe 804c b63c
00000010: 5160 29be 3331 7dbc ec94 6fbd f11e ba3e
00000020: 00fd 9b3c e6d9 29be 798f 10be 131a e73c
00000030: 364e 373d 158f 21be e868 f9bc 7bf4 563d
00000040: 144c 70bf 1a73 b63e 6846 0a3e 0db5 683e
00000050: 0dad ba3e d62b b43c 0c79 c93c 3d82 10be
00000060: 9077 a23c e233 28be 08b5 89bc 6d69 c7bc
00000070: 40a4 69bc cd55 1fbe f722 1fbe 2e86 b73c
