checkpoints/cahousing_honam2_emb32_2.pt (torch, 177750 bytes, 98 tensors)

weight f4 [32, 1]
0	0x3eb6acfc	0.35678852
1	0xbf445a50	-0.76700306
2	0xbe55c961	-0.20877601
3	0xbe2bdae9	-0.16782726
4	0x3e5bd770	0.21468902
5	0xbe82a153	-0.25513706
6	0xbeb7f622	-0.35929972
7	0x3d81e69c	0.063428134
8	0xbe9d5807	-0.30731222
9	0x3f2525c4	0.6451075
10	0x3e6ba3f9	0.2301177
11	0x3e864913	0.26227626
12	0x3ebed9c1	0.37275508
13	0x3e11f9d1	0.14255454
14	0x3e6d7e1a	0.23192635
15	0xbe55784f	-0.20846675
16	0x3ece0b7c	0.40243137
17	0x3ecee5e3	0.40409765
18	0x3d357a4a	0.044306077
19	0xbf518d2a	-0.81856024
20	0xbf2288c2	-0.63489926
21	0xbe5806ad	-0.21096297
22	0xbeb203cb	-0.3476852
23	0x3f0284aa	0.5098368
24	0xbebc16ff	-0.36736295
25	0xbe5f3c34	-0.2180031
26	0x3ecd4d3c	0.40097988
27	0xbf3f2a39	-0.746738
28	0x3de4daa0	0.11174512
29	0x3f14f935	0.5819276
30	0x3ea7b27b	0.32753357
31	0xbf36b2fe	-0.7136687

bias f4 [32]
0	0x3e041a96	0.12900767
1	0x3ef0d46e	0.4703707
2	0x3e558c42	0.20854285
3	0xbe5dff88	-0.21679509
4	0x3e6f1eab	0.23351543
5	0xbe557b3d	-0.20847793
6	0xbded0751	-0.11573661
7	0xbdb887cd	-0.09010277
8	0xbe336a41	-0.17521001
9	0xbf28a0d8	-0.6587043
10	0x3e6d95e9	0.23201717
11	0x3e5fd99c	0.21860355
12	0x3dd0cb5c	0.10195038
13	0x3e69c308	0.22828305
14	0x3e6c3f6c	0.23071069
15	0x3e553e57	0.20824562
16	0x3cd724cf	0.026262669
17	0xbb6728ae	-0.003527205
18	0x3e3f2717	0.18667255
19	0x3ef44640	0.47709846
20	0x3f014fc3	0.5051233
21	0x3e23de60	0.16002798
22	0xbe062814	-0.13101226
23	0xbb80dcfb	-0.003932593
24	0xbdd1d3e4	-0.10245493
25	0x3e2a4ee6	0.1663166
26	0x3cf8fb47	0.030393256
27	0x3f18fe58	0.597631
28	0x3e6032f5	0.21894439
29	0xbf15764f	-0.5838365
30	0x3e2b67ec	0.16738862
31	0x3f28abe5	0.6588729

weight f4 [64, 32]
0	0xbd23299f	-0.039834615
1	0x3cc709b1	0.024296613
2	0x3e574855	0.21023686
3	0x3bd1c7cc	0.0064019915
4	0xbc2ca4c0	-0.010537326
5	0x3c62f6b4	0.013852764
6	0x3d1dc7cd	0.038520623
7	0xbbafda9b	-0.005366636
8	0x3cb5d64d	0.022196913
9	0x3cc4803a	0.023986924
10	0xbc42724c	-0.011868071
11	0xbc805b10	-0.015668422
12	0xbd4a222e	-0.049349003
13	0xbbb2e8d2	-0.0054598833
14	0xbc450175	-0.012024273
15	0x3e56bbaf	0.20970033
16	0xbdb595a6	-0.08866434
17	0xbddfde5b	-0.10931083
18	0xbaa24fb4	-0.0012383373
19	0x3d7b7190	0.0613876
20	0xbe63b146	-0.22235593
21	0xbd8586c5	-0.06519846
22	0x3d09cf63	0.033645045
23	0xbe82e7cb	-0.2556747
24	0x3d2e964a	0.042623796
25	0xbd8f278f	-0.06989967
26	0xbdaef546	-0.08542876
27	0xbd0679b3	-0.032830905
28	0xbb811a98	-0.003939938
29	0x3d077b7d	0.033076752
30	0xbcea53cd	-0.028604412
31	0xbcc3650c	-0.023851894
32	0x3da3b4f2	0.07993497
33	0xbda03ae7	-0.07823735
34	0xbeb05bf5	-0.34445158
35	0xbcc8ead9	-0.024526047
36	0x3cfafece	0.030639078
37	0xbd225b7b	-0.039638024
38	0xbdad5bee	-0.084648
39	0x3c0b5ccb	0.00850601
40	0xbd628286	-0.055300258
41	0x3c5e0279	0.013550394
42	0x3d080abf	0.033213373
43	0x3d234cc7	0.039868142
44	0x3dc1cd29	0.09462959
45	0x3caaf74f	0.020869879
46	0x3d099f0d	0.03359895
47	0xbeb0090a	-0.34381896
48	0x3e1b2d47	0.1515399
49	0x3e39fd88	0.18163121
50	0x3c35594b	0.011068652
51	0xbddc4f45	-0.10757307
52	0x3e08049c	0.13283008
53	0x3d0d25d7	0.034459915
54	0xbd9be73a	-0.07612462
55	0x3ea1db8c	0.31612813
56	0xbdbcb5ee	-0.09214388
57	0x3d19c836	0.03754445
58	0x3e16d835	0.14730914
59	0xbbffd287	-0.0078070792
60	0x3c8f37fd	0.017482752
61	0x3c45397d	0.012037632
62	0x3d7ecc1a	0.062206365
63	0xbc489128	-0.012241639
64	0xbd3daf34	-0.046309665
65	0x3be449ca	0.006966804
66	0x3e805b69	0.2506974
67	0x3bf510c4	0.0074788053
68	0xbc4a75ac	-0.012357157
69	0x3c871e12	0.01649383
70	0x3d3675c5	0.044545908
71	0xbc135552	-0.00899251
72	0x3cd6fd5b	0.026243856
73	0x3bd4941f	0.006487384
74	0xbc6774c2	-0.014126958
75	0xbc96bf55	-0.018401781
76	0xbd68f17b	-0.05687092
77	0xbbcbf28b	-0.0062239817
78	0xbc6bb558	-0.014386497
79	0x3e8076f7	0.25090763
80	0xbdcb1325	-0.09915761
81	0xbdf8a3f3	-0.12140646
82	0xb9ee6467	-0.00045469703
83	0x3d1185fb	0.035528164
84	0xbe3cecb7	-0.18449675
85	0xbd43af19	-0.047774408
86	0x3d206b6b	0.03916494
87	0xbe896192	-0.26832253
88	0x3d48cf91	0.049026076
89	0xbd5242d4	-0.051333264
90	0xbdc454a7	-0.09586459
91	0xbc5964c2	-0.013268651
92	0xbb87cc01	-0.004144192
93	0x3c4e54fb	0.012593503
94	0xbd095bf1	-0.033534948
95	0xbbc9f121	-0.006162778
96	0xbd2dc024	-0.042419568
97	0x3c45c374	0.012070525
98	0x3e4fdc47	0.20298873
99	0x3c0e5a00	0.00868845
100	0xbc5a6773	-0.013330328
101	0x3c84a8fb	0.016193857
102	0x3d2656fd	0.040610302
103	0xbb49f0a4	-0.00308136
104	0x3cc7c1c1	0.024384381
105	0x3cdc533a	0.026895154
106	0xbc71be53	-0.0147548495
107	0xbc96174e	-0.01832166
108	0xbd547494	-0.05186899
109	0xbc0a619b	-0.0084461225
110	0xbc75e0e5	-0.015007232
111	0x3e4f59f6	0.20249161
112	0xbdb9e083	-0.09076025
113	0xbde3cafa	-0.11122699
114	0xbb86cf6a	-0.004114081
115	0x3d4b4574	0.049626783
116	0xbe6b4aca	-0.22977749
117	0xbd8f5400	-0.069984436
118	0x3d1316af	0.035910305
119	0xbe83b013	-0.2572027
120	0x3d36dc85	0.044643898
121	0xbd9889fd	-0.07448194
122	0xbdb35f9c	-0.087584704
123	0xbd14fcc2	-0.03637386
124	0xbbdccf07	-0.006738547
125	0x3d14034f	0.036135968
126	0xbcffb32b	-0.031213364
127	0xbcdf5035	-0.027259925
128	0xbd9165db	-0.070995055
129	0xbcf58a09	-0.029973047
130	0x3e463bf2	0.19358805
131	0x3d0089ea	0.031381525
132	0xbd1b9236	-0.037981234
133	0x3d253af7	0.040339436
134	0x3d8ae44d	0.06781826
135	0x3c488770	0.012239322
136	0x3d4c5cc3	0.049893152
137	0x3d133a96	0.035944544
138	0xbd225124	-0.039628163
139	0xbd3413ed	-0.043964315
140	0xbda6c670	-0.08143318
141	0xbd0366b2	-0.03208036
142	0xbd2358ca	-0.039879598
143	0x3e46b93f	0.19406603
144	0xbdfbf4c1	-0.123025425
145	0xbe143f52	-0.1447728
146	0xbcd6f301	-0.02623892
147	0x3bc2d296	0.005945514
148	0xbe81ce9b	-0.2535294
149	0xbdb75e0f	-0.08953487
150	0x3d8030b7	0.062592916
151	0xbe9657b0	-0.29363775
152	0x3d93e48d	0.07221327
153	0xbdc0f592	-0.09421839
154	0xbdf5233e	-0.119696125
155	0xbd3fa9b4	-0.0467927
156	0xbcf6b193	-0.03011397
157	0x3d302750	0.04300624
158	0xbd701206	-0.05861094
159	0xbd1b2a83	-0.03788234
160	0x3d9e36c9	0.07725293
161	0xbd9ed022	-0.07754542
162	0xbea95301	-0.3307114
163	0xbcc64c00	-0.024206161
164	0x3cf4bd45	0.029875407
165	0xbd1da181	-0.0384841
166	0xbda77f20	-0.08178544
167	0x3bed4570	0.0072409436
168	0xbd5b4ad8	-0.053538173
169	0x3c1081e2	0.008820029
170	0x3d04986a	0.032371916
171	0x3d1f2fa5	0.038863797
172	0x3dbb2c44	0.091393024
173	0x3ca97363	0.020684903
174	0x3d0608e6	0.03272333
175	0xbea901e9	-0.3300927
176	0x3e160e83	0.14653973
177	0x3e341114	0.1758464
178	0x3c3801bf	0.011230885
179	0xbddd8397	-0.108161144
180	0x3e13cc81	0.14433481
181	0x3d21690c	0.03940682
182	0xbd96a510	-0.07355702
183	0x3e9e6e18	0.3094337
184	0xbdb62b96	-0.08895032
185	0x3d2e7e09	0.042600665
186	0x3e11da6e	0.1424348
187	0xbb2d852a	-0.0026477077
188	0x3c8f2610	0.017474204
189	0x3bd79a0e	0.006579644
190	0x3d766c97	0.060162153
191	0xbbf24652	-0.0073936367
192	0xbddb81fc	-0.10718152
193	0x3cfe7ae9	0.031064468
194	0x3e8e75dd	0.27824298
195	0x3d5a8af9	0.05335519
196	0xbd85cb4f	-0.06532919
197	0x3d84ae44	0.06478551
198	0x3dcaaa51	0.098957665
199	0x3cd5b332	0.026086424
200	0x3d9cf5f8	0.07664102
201	0x3d13b41d	0.03606044
202	0xbd8a5a23	-0.067554735
203	0xbd95d52f	-0.07316052
204	0xbdf518d8	-0.11967629
205	0xbd69cf4b	-0.057082456
206	0xbd8af577	-0.067851
207	0x3e8ead1f	0.27866456
208	0xbe2bb7e5	-0.16769369
209	0xbe43aaa4	-0.19108063
210	0xbd491f34	-0.049102023
211	0x3d80e03f	0.062927715
212	0xbe5210ce	-0.20514223
213	0xbdb63951	-0.08897651
214	0x3dbd5ed8	0.09246606
215	0xbeb8fcb4	-0.36130297
216	0x3dd5d4b7	0.10440963
217	0xbdbe804a	-0.09301813
218	0xbe28140e	-0.164139
219	0xbd40e1e7	-0.047090437
220	0xbd5ee586	-0.05441811
221	0x3d2078b8	0.039177626
222	0xbdbbe00b	-0.09173592
223	0xbd278312	-0.040896483
224	0xbe136f51	-0.14397933
225	0x3e0c16f4	0.13680631
226	0x3efa523b	0.48890862
227	0x3ae8d731	0.0017764327
228	0xbc627b15	-0.01382329
229	0x3d1919ef	0.037378248
230	0x3e22abaf	0.15885805
231	0xbd2944c5	-0.04132535
232	0x3da003e9	0.07813246
233	0xbe00516a	-0.12531057
234	0xbca3036a	-0.019899089
235	0xbd17062b	-0.036871117
236	0xbe3f10e7	-0.18658791
237	0x3c0f25ec	0.008737069
238	0xbcaa553d	-0.020792598
239	0x3efe4408	0.4966128
240	0xbec16cde	-0.37778372
241	0xbf02f006	-0.51147497
242	0x3ce80a58	0.028325245
243	0x3e0a42cb	0.13502042
244	0x3e04c1cc	0.12964553
245	0x3d8575e6	0.06516628
246	0x3e0a6cd2	0.13518074
247	0xbf53b641	-0.8269997
248	0x3e394b00	0.18095016
249	0x3d879647	0.0662046
250	0xbeb985df	-0.36234948
251	0x3dfca7cc	0.12336692
252	0x3c81f01e	0.015861567
253	0xbe001948	-0.12509644
254	0xbdc1c77a	-0.09461875
255	0x3dfcc951	0.123430856

bias f4 [64]
0	0xbe15b36e	-0.14619228
1	0x3df4d5aa	0.11954816
2	0xbdb6790d	-0.08909807
3	0xbe0a882a	-0.13528505
4	0xbda33dd7	-0.079707794
5	0x3e01048b	0.1259939
6	0xbd52c762	-0.051459678
7	0x3e4e2a61	0.20133354
8	0xbdad6e4a	-0.084683016
9	0xbe2581e1	-0.16162826
10	0xbe2350b4	-0.15948755
11	0xbe811fef	-0.25219676
12	0xbd588bd1	-0.052867714
13	0x3df49903	0.11943247
14	0x3d83abf9	0.064292856
15	0xbd74dcc9	-0.05978087
16	0xbd0c6ca2	-0.034283288
17	0xbd5bade3	-0.05363263
18	0xbd153b15	-0.0364333
19	0x3e02298e	0.12711164
20	0xbe2234d8	-0.15840471
21	0x3e04a19f	0.12952279
22	0xbd8ceaf1	-0.06880749
23	0xbd2c302d	-0.04203813
24	0xbd6c0e79	-0.05763099
25	0xbdef0351	-0.116705544
26	0xbe25e5c1	-0.16200925
27	0x3c7a9427	0.015294111
28	0xbde4492e	-0.111467704
29	0x3d910792	0.07081522
30	0x3ca95177	0.020668728
31	0xbbb214a2	-0.0054345885
32	0x3e077b65	0.13230665
33	0x3c75be3c	0.014998969
34	0x3d92443d	0.07141922
35	0xbdad84ed	-0.08472619
36	0x3dcedcb2	0.10100688
37	0xbd95a1e4	-0.07306269
38	0x3d8ba44a	0.06818445
39	0xbd952450	-0.07282317
40	0x3c5a0923	0.013307842
41	0x3e0bd15d	0.13654085
42	0xbe2d1170	-0.16901183
43	0x3e03ea23	0.12882285
44	0xbdbebe13	-0.093135975
45	0xbde56589	-0.11201007
46	0x3dbd3822	0.09239222
47	0xbd539885	-0.051659126
48	0x3dd2505a	0.10269232
49	0xbe089484	-0.13337904
50	0xbe7fbe35	-0.24974902
51	0x3d804c20	0.0626452
52	0x3d30911c	0.043107137
53	0xbd8fdab9	-0.0702414
54	0x3dd40b13	0.10353675
55	0x3db72fa3	0.08944633
56	0x3d6a97ea	0.057273783
57	0xbd901f21	-0.07037187
58	0xbd5a7c03	-0.053340923
59	0xbdaa7aed	-0.083242275
60	0x3e0450c0	0.12921429
61	0xbe7423f9	-0.23841847
62	0x3d8e808c	0.06958112
63	0xbd2c6c76	-0.042095624

weight f4 [32, 64]
0	0xbdffce66	-0.12490539
1	0x3d9e6363	0.077338
2	0xbdccc416	-0.09998338
3	0xbe039ca8	-0.12852728
4	0xbe287742	-0.16451743
5	0x3db783cd	0.08960686
6	0xbe17d07a	-0.14825621
7	0xbe32ad6b	-0.17448966
8	0xbe5550e1	-0.20831634
9	0xbe082c2d	-0.13298102
10	0xbe1a64b7	-0.15077482
11	0xbe1f9647	-0.1558467
12	0xbe88e1ce	-0.26734775
13	0x3da7f136	0.08200304
14	0x3d6560eb	0.05600063
15	0xbda43cd5	-0.08019415
16	0xbe0ce34d	-0.13758583
17	0xbe89341b	-0.26797566
18	0xbdd1c706	-0.10243039
19	0x3dc04940	0.09388971
20	0xbe05c91f	-0.13065003
21	0x3dc04dee	0.09389864
22	0xbe83f9a5	-0.257764
23	0xbe1bb35c	-0.15205139
24	0xbcef1c40	-0.029188275
25	0xbe86ecde	-0.2635259
26	0xbe15e7dc	-0.14639229
27	0x3e82f644	0.2557851
28	0xbe87f2d1	-0.26552442
29	0x3d673ef4	0.05645652
30	0x3e8bf28d	0.2733349
31	0x3e6c3657	0.23067604
32	0x3dcfb28a	0.101414755
33	0x3e87f63b	0.26555046
34	0x3d672500	0.05643177
35	0xbe4a18ab	-0.19735973
36	0x3d892e82	0.06698324
37	0xbe185e6c	-0.14879769
38	0x3d49511a	0.04914961
39	0xbe8aa6c6	-0.27080363
40	0x3e2a2291	0.16614749
41	0x3dd40b96	0.10353772
42	0xbe1b319a	-0.1515564
43	0x3dcbec82	0.0995722
44	0xbe77cfd2	-0.24200371
45	0xbe0dc96a	-0.13846365
46	0x3d95252c	0.072824806
47	0xbda5e28a	-0.080998495
48	0xbe0e4615	-0.13893922
49	0xbdf367d6	-0.118850395
50	0xbdfec044	-0.124390155
51	0xbe0b3a36	-0.13596424
52	0x3d801a58	0.06255025
53	0xbe82bb73	-0.25533637
54	0x3db2a306	0.087225005
55	0x3d90436d	0.070441104
56	0x3e41c3ed	0.18922396
57	0xbe33e414	-0.17567474
58	0xbe8beedd	-0.27330676
59	0xbe8b01f6	-0.27149934
60	0x3dbfa675	0.09357921
61	0xbe12a564	-0.14320904
62	0x3d552b06	0.052042983
63	0xbe190c93	-0.14946203
64	0x3dbf3741	0.09336711
65	0xbe7e9643	-0.24862008
66	0x3df76343	0.120794795
67	0x3db64f3a	0.0890183
68	0x3dafc595	0.08582608
69	0xbe502d6d	-0.20329829
70	0x3dce1d98	0.10064238
71	0x3e42c09b	0.19018786
72	0x3ce6f9af	0.02819523
73	0x3db8dd13	0.090265416
74	0x3da156d5	0.0787789
75	0x3c66a25f	0.014076798
76	0x3cac90cb	0.021065136
77	0xbe6ccfcb	-0.23126142
78	0xbec448c4	-0.38336766
79	0x3dd6e5ef	0.10493075
80	0x3de854a1	0.11344267
81	0x3cb3a63b	0.02192985
82	0x3e16b6ca	0.14718166
83	0xbe3f0774	-0.18655187
84	0x3db8c01b	0.09021016
85	0xbe3d6130	-0.18494105
86	0x3c980580	0.01855731
87	0x3dbb49d5	0.09144942
88	0x3e93f91c	0.28900993
89	0x3cdeb181	0.02718425
90	0x3da71e6a	0.08160098
91	0x3e1087cc	0.14114302
92	0x3d11f2eb	0.035632055
93	0xbec30658	-0.38090777
94	0x3e11add1	0.14226462
95	0x3e123cc6	0.14280996
96	0xbe17d2d5	-0.1482652
97	0x3e12620f	0.14295219
98	0xbec42802	-0.38311774
99	0x3d03d861	0.032188777
100	0xbe9b2b11	-0.30306295
101	0xbd00eda8	-0.031476647
102	0xbed1dd4c	-0.4098915
103	0x3d005749	0.03133324
104	0xbd92f55a	-0.07175703
105	0xbe11b70d	-0.14229985
106	0x3d9e22b2	0.07721461
107	0xbe1efc83	-0.15526013
108	0x3d0b3ab3	0.033991527
109	0x3db84e01	0.08999253
110	0xbe8fd5e7	-0.28092882
111	0x3c3ca24c	0.011513304
112	0x3e917b68	0.28414464
113	0xbcfc9ace	-0.030835535
114	0x3cfe12e2	0.031014863
115	0x3e91f91e	0.28510374
116	0xbebd2861	-0.3694487
117	0x3cc61326	0.024179053
118	0xbe580cc3	-0.21098618
119	0xbe9773e5	-0.29580608
120	0xbd483da9	-0.04888693
121	0x3d9efc94	0.07763019
122	0x3cbec057	0.023285074
123	0x3c8cdd57	0.017195387
124	0xbe3f3443	-0.1867228
125	0x3d05a215	0.032625277
126	0xbec63fdf	-0.38720605
127	0x3dc58f5c	0.09646484
128	0x3c8007a5	0.015628645
129	0x3ca7304c	0.020408772
130	0x3b6785e6	0.0035327612
131	0x3c944a6b	0.018101892
132	0x3ca3e4c8	0.020006552
133	0x3c83b0fe	0.016075607
134	0x3d48adac	0.04899375
135	0xbf455349	-0.7708021
136	0x3cef9fd2	0.029251013
137	0x3cb68360	0.022279441
138	0x3ce4db5f	0.027936636
139	0x3def1484	0.11673835
140	0x3cba08e8	0.022709325
141	0x3c974330	0.018464655
142	0x3cffac56	0.031210106
143	0x3c379e62	0.011207195
144	0x3d189561	0.037251834
145	0x3caee514	0.021349467
146	0x3c347d62	0.011016222
147	0x3c42132d	0.011845392
148	0x3c9568e5	0.018238494
149	0x3c42e7ee	0.011896117
150	0x3c9b9eb3	0.018996572
151	0x3d9579af	0.072986
152	0xbc80755f	-0.015680967
153	0x3cb0b727	0.021571709
154	0x3cce0c1b	0.025152257
155	0xbf3ea4dc	-0.74470305
156	0x3c8cf375	0.017205933
157	0x3cf07473	0.029352402
158	0xbf3bb492	-0.73322403
159	0xbf3c792f	-0.7362241
160	0x3aa4daa4	0.0012577367
161	0xbf3f2b70	-0.74675655
162	0x3cee2faf	0.029075472
163	0x3d35143e	0.044208758
164	0x3cce272d	0.025165165
165	0x3db5c107	0.08874708
166	0x3d0c4eb7	0.034254756
167	0x3c2186f4	0.0098588355
168	0xbdf3b20e	-0.118991956
169	0xb954bdaf	-0.00020288558
170	0x3ce1dd81	0.027571442
171	0x3b4ae89b	0.0030961398
172	0x3c53a788	0.0129183605
173	0x3c98888c	0.018619798
174	0x3cacc14d	0.021088267
175	0x3d8fbbf0	0.07018268
176	0xbf2b88a2	-0.6700536
177	0x3d1cfb4f	0.038325604
178	0x3dce24f4	0.10065642
179	0xbf2cb8eb	-0.6746966
180	0x3cf12f8f	0.029441623
181	0x3c823a7d	0.01589703
182	0x3c65f2c8	0.014034934
183	0x3cb70093	0.022339141
184	0xbe17ed64	-0.14836651
185	0x3d85a2fc	0.065252274
186	0x3c8cded4	0.017196096
187	0x3cc2aacc	0.023763083
188	0x3c493acf	0.0122820875
189	0x3dd82a5e	0.10554956
190	0x3d02e2b2	0.031954475
191	0x3d887612	0.06663145
192	0x3e2d5f08	0.16930783
193	0xbe60caf9	-0.21952428
194	0x3e3b8ee3	0.18316226
195	0x3e2de04e	0.16980097
196	0x3e3c3874	0.1838091
197	0xbe59c108	-0.21265042
198	0x3e540732	0.2070587
199	0x3e238630	0.15969157
200	0x3dabe855	0.08393923
201	0x3e283946	0.16428098
202	0x3e259b62	0.16172555
203	0x3c61b135	0.01377516
204	0x3d94eb37	0.07271426
205	0xbe5e9a0b	-0.2173845
206	0xbe803608	-0.25041223
207	0x3e2ba70e	0.16762945
208	0x3e5c60d2	0.21521309
209	0x3d984917	0.07435816
210	0x3e54c595	0.20778497
211	0xbe53ecbb	-0.20695774
212	0x3e29b545	0.16573055
213	0xbe535396	-0.20637354
214	0x3d939a70	0.07207191
215	0x3e4b8f6b	0.19878928
216	0x3e522e97	0.20525585
217	0x3d9b4d42	0.07583095
218	0x3e252fa6	0.16131458
219	0xbf04e468	-0.5191102
220	0x3db37190	0.08761895
221	0xbe7964ab	-0.24354808
222	0xbf02a423	-0.510317
223	0xbf0403ac	-0.515681
224	0xbe447c48	-0.19188035
225	0xbf049f7f	-0.5180587
226	0xbe78cb32	-0.24296263
227	0x3db40b44	0.08791211
228	0xbe6b87f2	-0.23001078
229	0xbcb79652	-0.022410545
230	0xbe84581f	-0.2584848
231	0x3daf9972	0.08574189
232	0xbe7fd183	-0.24982266
233	0xbe420a4e	-0.18949243
234	0x3e2391cb	0.15973584
235	0xbe47ebcd	-0.19523545
236	0x3dba2041	0.09088183
237	0x3e3382fb	0.17530434
238	0xbe66efd7	-0.22552429
239	0x3dc3aba1	0.0955422
240	0x3e1f7a58	0.15574014
241	0x3d171c53	0.036892246
242	0xbcb7b742	-0.022426251
243	0x3e181c6d	0.14854594
244	0xbe89c05d	-0.26904574
245	0x3d9c8749	0.07642991
246	0xbe5a8c7e	-0.21342656
247	0xbe699a0c	-0.2281267
248	0xbe46f9f8	-0.19431293
249	0x3e456e6c	0.19280404
250	0x3d9bb249	0.076023646
251	0x3d8fd735	0.07023469
252	0xbe5419ea	-0.2071301
253	0x3c608538	0.013703637
254	0xbe8529b9	-0.26008394
255	0x3e4edb73	0.202009

bias f4 [32]
0	0x3d7ec074	0.062195256
1	0xbd9183bd	-0.07105205
2	0xbe3e8962	-0.18607095
3	0xbd43079e	-0.047614686
4	0xbe20a0bc	-0.15686315
5	0xbe29b0f4	-0.16571409
6	0x3d46ce32	0.048536487
7	0xbea2cd33	-0.3179718
8	0x3d9d08a3	0.07667663
9	0xbc245bc9	-0.010031649
10	0xbe8380c0	-0.25684166
11	0x3e9be81a	0.30450517
12	0xbdd4a6f6	-0.10383408
13	0xbdd6b4ee	-0.10483728
14	0xbe1e567a	-0.15462676
15	0x3d8f7325	0.07004384
16	0xbe8c1188	-0.27357125
17	0x3da9578b	0.082686506
18	0xbe6ed2f3	-0.23322658
19	0xbc8bd586	-0.01706959
20	0x3ccede67	0.025252534
21	0xbe264e91	-0.16240908
22	0xbe3ae883	-0.18252759
23	0xbe211fa0	-0.1573472
24	0xbdec7b2b	-0.1154693
25	0xbeee04bd	-0.4648799
26	0x3e2a779a	0.16647187
27	0xbe839e12	-0.25706536
28	0xbd63397c	-0.055474743
29	0xbe2fb1cf	-0.17157672
30	0x3d04eeb8	0.032454222
31	0xbdfc0605	-0.12305836

weight f4 [32, 1]
0	0x3e5f55aa	0.21810022
1	0x3ed3a359	0.41335562
2	0x3e0e9fcc	0.13928145
3	0xbea67d90	-0.32517672
4	0x3e88dc1a	0.26730424
5	0xbe9e27a0	-0.30889606
6	0xbe99b0e7	-0.30017778
7	0x3ecc8a4e	0.39949268
8	0xbeb5e7e1	-0.35528472
9	0x3e9cfb5e	0.30660528
10	0xbecf14cc	-0.40445554
11	0x3e9ad99e	0.30244154
12	0xbe93f5f8	-0.28898597
13	0xbecb0eb0	-0.39659643
14	0xbeb70214	-0.35743773
15	0x3f258e20	0.6466999
16	0xbea86cc0	-0.3289547
17	0x3e157ffc	0.14599603
18	0x3ed3024a	0.41212684
19	0xbe37c4dd	-0.17946191
20	0xb9bf8d9b	-0.00036535863
21	0x3eec297c	0.461254
22	0x3e81ce75	0.25352827
23	0x3eafc6fd	0.34331504
24	0x3ec088ba	0.37604314
25	0xbe518fe2	-0.20465043
26	0x3e139f54	0.14416248
27	0xbe2562af	-0.16150926
28	0x3e889f44	0.2668401
29	0x3e7b54ee	0.24544117
30	0xbe63a61f	-0.22231339
31	0xbe6401f0	-0.22266364

bias f4 [32]
0	0xbe63a20b	-0.22229783
1	0xbbd2b22d	-0.0064299316
2	0xbe1ea983	-0.15494351
3	0x3e9ee4c7	0.31033918
4	0xbe46e031	-0.1942146
5	0xbdf81f53	-0.121153496
6	0x3e94786d	0.28998128
7	0xbed28e9e	-0.41124433
8	0x3f1188ab	0.56849164
9	0x3dec31ed	0.1153296
10	0x3ec5d614	0.3863989
11	0x3df307d4	0.118667275
12	0x3e93c6cb	0.28862604
13	0x3edcf6ca	0.43157035
14	0xbdad8bcd	-0.084739305
15	0xbd5e70b2	-0.054306693
16	0xbddfd631	-0.10929526
17	0xbe1e326e	-0.15448925
18	0xba4a54c6	-0.00077183207
19	0x3e317fd0	0.17333913
20	0xbdaf9b06	-0.0857449
21	0xbd1fdbc6	-0.03902795
22	0x3e0e1026	0.13873348
23	0x3db76dbe	0.089564785
24	0xbeff8e07	-0.49913046
25	0xbe19f3dd	-0.15034433
26	0x3e0c78ea	0.13718
27	0xbe161f2a	-0.14660326
28	0xbe8b72e5	-0.27236095
29	0x3e112165	0.14172895
30	0xbe1a9d02	-0.15098956
31	0x3e5ad798	0.21371305

weight f4 [64, 32]
0	0x3dea645b	0.114449225
1	0xbe1c6f9b	-0.15276949
2	0x3dbe9f82	0.093077675
3	0xbe13209c	-0.14367908
4	0x3e89bb43	0.26900682
5	0x3dfbebe9	0.12300856
6	0xbe13b7f2	-0.14425638
7	0x3e028593	0.12746267
8	0xbdf949d8	-0.12172288
9	0xbdfd5237	-0.12369197
10	0xbe06df56	-0.13171133
11	0xbdfc6519	-0.1232397
12	0x3dfe3366	0.12412147
13	0xbe026a76	-0.12735924
14	0x3e070fd5	0.13189633
15	0xbec29ae9	-0.38008812
16	0x3e015578	0.1263026
17	0x3dd91c74	0.1060113
18	0xbe1c0114	-0.15234786
19	0xbe01b3c0	-0.12666225
20	0x3dc414b6	0.09574263
21	0xbe1a8416	-0.1508945
22	0xbdef9b05	-0.116994895
23	0xbe0599e9	-0.13046993
24	0x3dfc50e9	0.1232012
25	0x3de427e3	0.1114042
26	0xbddba499	-0.10724754
27	0x3ddd3006	0.10800175
28	0x3de7c3b0	0.11316621
29	0xbdedd8a3	-0.11613586
30	0x3de77662	0.113018766
31	0xbe0bc33e	-0.13648698
32	0xbd867577	-0.065653734
33	0xbeb24f90	-0.34826326
34	0xbd5afe4b	-0.05346517
35	0x3d9ab22b	0.07553514
36	0xbdb2ff1d	-0.08740065
37	0x3df20fdb	0.118194304
38	0x3d9ad373	0.07559862
39	0xbd85b155	-0.06527964
40	0x3d7daadf	0.061930533
41	0xbdf5e6ba	-0.12006898
42	0x3d8a29b3	0.06746235
43	0xbdedf709	-0.11619384
44	0x3f14513c	0.57936454
45	0x3d840906	0.064470336
46	0x3e2e051e	0.1699414
47	0xbf647799	-0.8924499
48	0x3e0aeaae	0.13566086
49	0xbd682f2a	-0.056685604
50	0xbeabbd6d	-0.33542958
51	0x3d85e7cb	0.065383516
52	0x3c4e4b50	0.012591198
53	0xbee7f109	-0.45301083
54	0xbdadda9d	-0.08488963
55	0xbe2113cb	-0.15730207
56	0xbd7eb5ee	-0.06218522
57	0x3d8000e7	0.06250172
58	0xbd392928	-0.045205265
59	0x3d4871ca	0.048936643
60	0xbd943cd7	-0.07238167
61	0xbda4f4f6	-0.08054535
62	0x3d8ccefd	0.068754174
63	0x3d9229f8	0.07136911
64	0x3d081203	0.033220302
65	0xbc8d2897	-0.017231269
66	0x3b828fef	0.0039844434
67	0x3ba0283d	0.0048876093
68	0x3c416bb6	0.011805465
69	0x3c565029	0.013080635
70	0x3b959855	0.0045652785
71	0x3ba5e1bf	0.0050623114
72	0xbbcd6772	-0.006268435
73	0xbc416272	-0.011803256
74	0xbb6cb597	-0.0036118978
75	0xbc3ea4d8	-0.0116359815
76	0xbcaaf4c0	-0.020868659
77	0xbba4842b	-0.0050206385
78	0x3c6f7f64	0.014617775
79	0x3dc2817c	0.094973534
80	0x3c607ff9	0.013702386
81	0x3b5224c6	0.0032065376
82	0xbc895629	-0.016764717
83	0x3c2db16d	0.010601384
84	0x3c3478f2	0.011015164
85	0x3a4e6b82	0.0007874296
86	0xbc3230f4	-0.010875929
87	0xbc4ea54f	-0.012612655
88	0x3bd35247	0.006449017
89	0x3c3ec643	0.011643949
90	0xbc24b19e	-0.010052113
91	0x3c3b39c8	0.01142735
92	0x3c874119	0.016510533
93	0xbc325382	-0.010884168
94	0x3c415753	0.011800605
95	0x3c10a180	0.008827567
96	0x3d26943a	0.040668704
97	0x3c516ba6	0.012782013
98	0xbba7fdc5	-0.005126687
99	0xbc9505f5	-0.018191317
100	0x3e011949	0.12607302
101	0x3b86484f	0.0040979753
102	0xbc890521	-0.016726078
103	0x3ca6e240	0.020371556
104	0xbc483218	-0.0122189745
105	0xba871684	-0.0010306393
106	0xbca77145	-0.020439753
107	0xbaaa0816	-0.001297238
108	0xbdcae79b	-0.099074565
109	0xbc8c3774	-0.017116286
110	0x3a8af259	0.001060079
111	0x3e07470b	0.13210694
112	0x3b426064	0.0029659504
113	0x3caa436d	0.020784104
114	0x3c434ec0	0.011920631
115	0x3bf59333	0.007494354
116	0x3c6925e8	0.014230229
117	0x3d425204	0.047441497
118	0xbb5f9075	-0.0034113203
119	0x3aa6845d	0.0012704242
120	0x3c846c96	0.016165059
121	0x3c03581d	0.008016613
122	0xbbd8e037	-0.0066185254
123	0x3c147a60	0.00906238
124	0x3d4fec5b	0.050762516
125	0xbb6efe7c	-0.0036467602
126	0x3bf0409a	0.00733192
127	0x3c0743fb	0.008255954
128	0x3e0edb82	0.13950923
129	0xbe3b0247	-0.18262587
130	0x3de8b24d	0.11362133
131	0xbe2af804	-0.16696173
132	0x3e8ae902	0.27130896
133	0x3e177df2	0.14794138
134	0xbe2ba619	-0.1676258
135	0x3e18d5f7	0.14925371
136	0xbe13ea57	-0.14444862
137	0xbe191dab	-0.14952724
138	0xbe1ddfc9	-0.15417399
139	0xbe186a95	-0.14884408
140	0x3de372b8	0.11105865
141	0xbe1971da	-0.14984837
142	0x3e21a0a5	0.15783937
143	0xbed8cee3	-0.42345342
144	0x3e1b1edd	0.15148492
145	0x3e0270ae	0.12738296
146	0xbe3a3a8d	-0.18186398
147	0xbe188bf3	-0.14897136
148	0x3df217ba	0.11820932
149	0xbe3bd5b1	-0.18343236
150	0xbe115e61	-0.14196159
151	0xbe208bfd	-0.15678401
152	0x3e14d961	0.14536048
153	0x3e0a8d58	0.13530481
154	0xbe06492b	-0.13113849
155	0x3e06c072	0.1315935
156	0x3e0d27f6	0.13784775
157	0xbe104ec3	-0.14092545
158	0x3e0c464e	0.13698694
159	0xbe234229	-0.15943207
160	0x3ebd821e	0.37013334
161	0x3dd072d3	0.10178151
162	0x3ea99eba	0.3312891
163	0xbf84f36e	-1.0386789
164	0x3ec856c5	0.391287
165	0xbd1c1ea7	-0.03811517
166	0xbf8467c0	-1.0344162
167	0x3e3c1e06	0.18370828
168	0xbdc6264d	-0.09675274
169	0x3d1f302e	0.038864307
170	0xbe811f7c	-0.25219333
171	0x3d199414	0.037494734
172	0xbf80d59f	-1.0065192
173	0xbe1f9de8	-0.1558758
174	0xbd6153c1	-0.055011515
175	0x3e921b3b	0.285364
176	0xbd34782d	-0.04405992
177	0x3e279dab	0.1636874
178	0x3dcaaea9	0.09896595
179	0xbf5127cd	-0.81701356
180	0x3c14155e	0.009038297
181	0x3e1ef41a	0.15522805
182	0x3cd1c162	0.025604907
183	0x3d53557d	0.0515952
184	0x3dea845c	0.11451027
185	0xbc8836db	-0.01662772
186	0x3c0eb967	0.008711196
187	0xbc2dcbf5	-0.010607709
188	0x3ed27866	0.41107482
189	0x3cc3ba07	0.023892416
190	0xbc9cd979	-0.019146668
191	0xbf71225c	-0.94193053
192	0xbbc867f6	-0.0061159087
193	0xbceeb27d	-0.029137844
194	0x3c573717	0.013135693
195	0xbbc1b2a9	-0.0059111905
196	0x3e8ecab4	0.27889025
197	0xbc98ded4	-0.01866094
198	0xbc2a61b1	-0.010399268
199	0xbcb5a3a0	-0.022172749
200	0x3d178997	0.03699645
201	0x3ca008bd	0.019535417
202	0x3c9d4f91	0.01920298
203	0x3ca5c76c	0.020236693
204	0x3f0c4d85	0.54805785
205	0x3ccda717	0.025104089
206	0xbb9c80d2	-0.0047760988
207	0xbec1a492	-0.3782087
208	0xbc62d7bb	-0.013845379
209	0xbb4a57bd	-0.003087505
210	0xbce32a2e	-0.027730074
211	0xbcd5b07c	-0.02608513
212	0xbcea2bbb	-0.028585305
213	0xbd8d4d76	-0.0689954
214	0x3ce54126	0.027985167
215	0x3c219c74	0.0098639615
216	0xbcfe9068	-0.031074718
217	0xbd01ab51	-0.03165752
218	0x3d0c2d65	0.03422298
219	0xbd08dc52	-0.03341324
220	0xbd29e137	-0.041474547
221	0x3cec9451	0.028879317
222	0xbcf85456	-0.030313652
223	0xbccf1e4a	-0.025282998
224	0xbbf76bc3	-0.007550688
225	0x3bba2245	0.005680355
226	0xbcb21710	-0.021739513
227	0x3ca47454	0.020075
228	0x3d81ae36	0.06332056
229	0xbbaa9649	-0.0052059037
230	0x3c9e2eb8	0.019309387
231	0xbcd20aa5	-0.025639841
232	0x3cc7bb51	0.024381312
233	0x3bce8432	0.00630238
234	0x3cdea424	0.027177878
235	0x3bd446ed	0.0064781816
236	0x3d6914b6	0.056904517
237	0x3cddbc09	0.027067201
238	0xbb81f2a1	-0.003965691
239	0x3dd954f5	0.106119074
240	0xbb9b4aec	-0.004739156
241	0xbc1fafdc	-0.009746518
242	0x3babebac	0.0052466
243	0x3cacb56e	0.021082606
244	0xbc25ac91	-0.010111944
245	0x3d272015	0.04080208
246	0x3bf124a4	0.007359104
247	0x3bb33210	0.0054686144
248	0xbcc546f3	-0.024081683
249	0xbbe530fa	-0.006994364
250	0x3c0f85e2	0.0087599475
251	0xbbf2f724	-0.0074147154
252	0xbadeb381	-0.0016990752
253	0x3bf29157	0.0074025798
254	0xbbdab270	-0.0066741034
255	0x3caea32a	0.021318037

bias f4 [64]
0	0xbd6ef760	-0.058341384
1	0x3e710085	0.23535354
2	0xbd257ada	-0.040400364
3	0xbe29f877	-0.16598688
4	0xbdc2438a	-0.09485538
5	0xbe3b5b63	-0.1829658
6	0x3e339b1a	0.17539635
7	0xbe1d7d1b	-0.15379755
8	0x3d0de98f	0.034646567
9	0xbdf35170	-0.11880767
10	0xbd682903	-0.056679737
11	0xbe1fc0bb	-0.15600865
12	0xbca1a689	-0.01973273
13	0xbd098524	-0.03357424
14	0x3e9d1a9f	0.30684373
15	0x3e129378	0.14314067
16	0xbd960c6c	-0.07326588
17	0x3e9598ed	0.29218236
18	0xbe24c341	-0.16090108
19	0xbe1fcd0d	-0.15605564
20	0xbd0380bb	-0.03210519
21	0xbe42e8c4	-0.19034106
22	0xbd9f1161	-0.07766987
23	0xbd8db10d	-0.069185354
24	0x3d25c855	0.040474255
25	0x3e470ccd	0.19438477
26	0xbdacc0e2	-0.08435227
27	0xbd1526ed	-0.036414076
28	0xbd0ca3c5	-0.03433587
29	0x3e1478ff	0.14499281
30	0xbe10cd0f	-0.14140724
31	0x3d5843b6	0.05279895
32	0xbc94049e	-0.018068608
33	0xbe491f87	-0.19640933
34	0xbe2d4293	-0.16919927
35	0x3e9474a4	0.2899524
36	0x3e3c3578	0.18379772
37	0xbe14e260	-0.1453948
38	0xbdc12455	-0.09430758
39	0x3e3b07eb	0.18264739
40	0xbcb53b12	-0.022122893
41	0xbe4f6d79	-0.20256604
42	0xbd47f469	-0.048817072
43	0x3e72e4ee	0.23720142
44	0xbcec74cc	-0.028864287
45	0xbdee44ef	-0.11634242
46	0xbd4bc84b	-0.04975156
47	0xbd0d92c8	-0.03456381
48	0x3e4dae27	0.20085965
49	0xbe1aa1e5	-0.1510082
50	0xbd2993ed	-0.04140084
51	0x3c425408	0.011860855
52	0xbd22b635	-0.039724547
53	0x3e8f68ff	0.28009793
54	0xbdbe84be	-0.09302662
55	0xbcf491c1	-0.029854657
56	0x3e991417	0.2989814
57	0xbd2ed90a	-0.042687453
58	0xbeab196a	-0.33417827
59	0x3d9ac8a3	0.075578
60	0x3e72edf4	0.23723584
61	0xbe32885f	-0.17434834
62	0x3c349de4	0.011023972
63	0x3db997ad	0.09062133

weight f4 [32, 64]
0	0xbd4d6df4	-0.050153688
1	0xbe839da1	-0.257062
2	0xbd10bd33	-0.035336684
3	0x3c822a1d	0.015889222
4	0xbd327d9e	-0.04357683
5	0x3f0f896e	0.56069076
6	0xbde803a4	-0.113288194
7	0xbccd1bef	-0.025037734
8	0x3da709dc	0.081561774
9	0x3bf760ed	0.0075493963
10	0x3da4798f	0.08030998
11	0xbc4a05ce	-0.0123304855
12	0xbd655720	-0.055991292
13	0xbc57520f	-0.013142123
14	0xbbe2d1c9	-0.006921981
15	0xbe43a027	-0.19104062
16	0xbd439497	-0.04774913
17	0xbc1a0354	-0.009400208
18	0x3cda03a7	0.02661307
19	0x3d383318	0.0449706
20	0xbd270e4e	-0.040785126
21	0xbbd16b11	-0.006390937
22	0xbd2babd1	-0.041911904
23	0xb99cbada	-0.00029893854
24	0x3d66fb4b	0.056391995
25	0xbdd67781	-0.10472012
26	0xbc90d6a1	-0.017680468
27	0xbd239d0e	-0.0399447
28	0x3d9e84a6	0.077401444
29	0xbe8d160b	-0.2755588
30	0x3d1c7bf4	0.03820415
31	0x3b4eb702	0.0031542187
32	0x3db37235	0.08762018
33	0x3d6052f0	0.054766595
34	0xbc012f75	-0.00788485
35	0xbc3ce544	-0.011529271
36	0xbdede7f0	-0.11616504
37	0x3c7aefcf	0.015315964
38	0xbd367f5d	-0.044555057
39	0xbdd8b43c	-0.10581252
40	0x3da617a8	0.08109981
41	0x3cf2289f	0.029560385
42	0x3d9ad9a3	0.07561042
43	0xbedde607	-0.4333956
44	0x3daf86e1	0.08570648
45	0x3d2009ce	0.03907185
46	0x3dbe1cb4	0.092828184
47	0x3d9e7715	0.07737557
48	0xbde2a68f	-0.11066925
49	0x3ebc02d3	0.36720905
50	0xbd5e79d1	-0.054315392
51	0x3d98e44c	0.07465419
52	0xbd6d1fc5	-0.057891626
53	0xbb52e7f8	-0.0032181721
54	0xbd2f333a	-0.042773463
55	0xbd60e116	-0.05490216
56	0xbca5c236	-0.020234209
57	0xbd65e69c	-0.05612813
58	0x3f85f589	1.0465556
59	0x3ce041be	0.027375098
60	0xbe70c6b6	-0.23513302
61	0x3cffe363	0.031236356
62	0x3ca234d2	0.019800577
63	0xbe94295c	-0.28937805
64	0x3d7516b5	0.05983611
65	0x3e0a0c37	0.13481222
66	0x3c0ae97c	0.008478519
67	0x3dc09fda	0.09405489
68	0x3d812612	0.063060895
69	0x3e81112e	0.2520842
70	0xbd8dd61e	-0.06925605
71	0x3cca017b	0.024658909
72	0xbc1bbaab	-0.009504954
73	0x3c413071	0.0117913345
74	0xbcb896eb	-0.0225329
75	0x3d829245	0.06375555
76	0x3d526028	0.051361233
77	0x3d4faf56	0.050704323
78	0x3dd6d85d	0.10490487
79	0xbf8c63a7	-1.0967911
80	0x3d6e0482	0.058109768
81	0x3dda9329	0.106726
82	0x3d83f564	0.06443289
83	0x3d2cfbb5	0.042232234
84	0x3d6534ac	0.055958435
85	0x3dacc388	0.08435732
86	0x3d7f5841	0.062340025
87	0x3d774705	0.060370464
88	0xbd131d85	-0.035916824
89	0xbd88d9da	-0.06682177
90	0x3bfb321e	0.0076658865
91	0x3d8a8efd	0.06765554
92	0xbc9bbf5b	-0.019012144
93	0xbfe202c1	-1.765709
94	0x3d8ff075	0.070282854
95	0xbbb24c59	-0.0054412303
96	0xbc3e0734	-0.011598397
97	0x3db2d113	0.08731284
98	0x3d328857	0.043587055
99	0x3dd1bb2a	0.10240777
100	0xbd8f8684	-0.07008079
101	0x3c810a93	0.015752112
102	0x3d82794c	0.06370792
103	0xbd8dff62	-0.06933476
104	0xbc6390b4	-0.01388948
105	0x3d4e2d15	0.050335962
106	0xbcbd01a1	-0.023072066
107	0x3e770ce1	0.24126007
108	0xbc4449bf	-0.011980473
109	0x3d2493bd	0.040179957
110	0xbc9fdcb3	-0.019514417
111	0xbc9affa3	-0.018920725
112	0xbd8ef0c8	-0.06979519
113	0x3e8b9253	0.27260074
114	0x3d5346c2	0.05158115
115	0xbc8f61e9	-0.017502742
116	0x3d48b863	0.04900397
117	0x3de0572c	0.10954127
118	0x3d8157b0	0.06315553
119	0x3d434385	0.047671814
120	0x3dd0455c	0.10169479
121	0x3d58bc5b	0.052914005
122	0x3ed58eae	0.41710418
123	0x3b4709b7	0.003037078
124	0x3e06de01	0.13170625
125	0x3d3b09db	0.045663696
126	0xbd3e1209	-0.04640392
127	0xbf9200b9	-1.140647
128	0x3d78c007	0.060730007
129	0x3ed7caed	0.42147008
130	0x3dd4452c	0.10364756
131	0x3de4fb34	0.11180726
132	0x3d689beb	0.05678932
133	0x3e40d740	0.18832111
134	0xbebfd51b	-0.37467274
135	0x3df6d9a2	0.12053229
136	0xbdde8dfc	-0.10866925
137	0x3d729125	0.05922045
138	0xbc452f0c	-0.012035143
139	0x3d6344bd	0.055485476
140	0x3d7129d4	0.05887778
141	0x3c2f4056	0.010696491
142	0x3cc5887c	0.024112932
143	0x3e35a93b	0.17740338
144	0x3d6ee021	0.058319215
145	0x3c8431cf	0.016137032
146	0x3e02ea11	0.12784602
147	0x3e2a48ad	0.16629286
148	0x3d663e2d	0.05621164
149	0x3e458213	0.192879
150	0x3d6e86d4	0.05823405
151	0x3e05fb94	0.1308425
152	0xbd8fd73b	-0.07023474
153	0xbec854c1	-0.39127162
154	0x3d537055	0.0516208
155	0x3d758a1e	0.059946172
156	0xbd35057e	-0.04419469
157	0x3e49bfdb	0.19702093
158	0x3e4ae001	0.19812013
159	0x3d2cbe8d	0.04217391
160	0xbd77b232	-0.060472675
161	0x3e1fc813	0.15603666
162	0x3e00975f	0.12557743
163	0xbbfe8f3d	-0.00776854
164	0xbec06142	-0.37574202
165	0x3da465da	0.08027239
166	0x3d648dc2	0.055799253
167	0xbecae4ba	-0.3962763
168	0xbd7ecc31	-0.06220645
169	0x3df5089f	0.11964535
170	0xbc83c891	-0.016086848
171	0x3edaf5fe	0.42765802
172	0xbd77b89c	-0.06047879
173	0x3dcfd73e	0.10148476
174	0xbb69dbb7	-0.0035683939
175	0xbd354875	-0.044258554
176	0xbecab601	-0.39591983
177	0x3d276744	0.040869966
178	0x3d765340	0.060137987
179	0xbdb68f92	-0.089141026
180	0x3d6dbe4c	0.05804281
181	0x3d40f780	0.047111034
182	0x3d6e8983	0.05823661
183	0x3d6e8837	0.058235373
184	0xbd6f5bf6	-0.05843731
185	0x3d7a7c78	0.06115386
186	0x3ec2cc29	0.38046387
187	0x3d8518f1	0.06498898
188	0x3ed9bc76	0.42526597
189	0x3d6b4a88	0.057444125
190	0xbcd27293	-0.025689399
191	0x3d655dbc	0.055997595
192	0xbc0f41cb	-0.008743714
193	0xbede8b34	-0.4346558
194	0x3c9c0686	0.01904608
195	0x3c6cb3b7	0.014447144
196	0x3ba7ff41	0.005126864
197	0xbd18894b	-0.037240308
198	0xbcd89309	-0.0264373
199	0x3d17ea27	0.03708854
200	0xbd17e251	-0.037081067
201	0x3d2473a9	0.040149365
202	0xbc8a17e5	-0.016857097
203	0x3be0c8a3	0.0068598553
204	0xbc5cdce2	-0.013480397
205	0x3a141e93	0.0005650308
206	0xbe1c9bb4	-0.15293771
207	0xbdea7607	-0.11448293
208	0xbac8d093	-0.0015320949
209	0xbe1a6ebb	-0.15081303
210	0x3c77a3fc	0.0151147805
211	0x3cf31959	0.029675173
212	0xbbc8bf47	-0.0061263177
213	0x3c5e2865	0.0135594355
214	0xbaf42ace	-0.001862848
215	0x3d13f555	0.03612264
216	0xba49510c	-0.00076796184
217	0xbcaaecb0	-0.020864815
218	0x3d1979d9	0.03746972
219	0xbc1339a8	-0.008985914
220	0xbcf83d22	-0.030302588
221	0xbbbf4498	-0.0058370344
222	0x3cf910b4	0.030403472
223	0xbd3db25d	-0.04631268
224	0xbd1e39ac	-0.03862922
225	0xbb2583dd	-0.0025255599
226	0x3cfa729f	0.030572234
227	0xbe162f30	-0.14666438
228	0xbcf3a547	-0.029741896
229	0x3c9e2817	0.019306226
230	0x3bb215d2	0.00543473
231	0xbcc22e47	-0.023703707
232	0xbcc47395	-0.023980895
233	0x3d03ddf4	0.032194093
234	0xbc9698a9	-0.01838334
235	0xbeee6c7a	-0.46567136
236	0xbd006df8	-0.031354874
237	0x3c974efa	0.018470276
238	0xbc811478	-0.01575683
239	0xbcf8a7f9	-0.030353533
240	0xbcb093bc	-0.02155482
241	0xbede16bd	-0.43376723
242	0xbc2fc36b	-0.010727744
243	0xbcc95762	-0.0245778
244	0xbc4982ed	-0.012299282
245	0xbe24df46	-0.16100797
246	0x3b795fe4	0.003805154
247	0xbc44e01d	-0.012016323
248	0xbe1148b9	-0.14187898
249	0xbc460b2e	-0.012087626
250	0xbefbc9cd	-0.491774
251	0xbd15c56d	-0.036565233
252	0xbedf3ea6	-0.43602484
253	0x3cc181c6	0.023621451
254	0x3ce9f0ab	0.028557142
255	0x3c2610de	0.010135857

bias f4 [32]
0	0xbbb67ace	-0.0055688387
1	0xbc6df0ff	-0.01452279
2	0xbd6a92c1	-0.05726886
3	0xbc0d573b	-0.008626754
4	0x3dfc95d6	0.123332664
5	0xbd57131d	-0.052508462
6	0x3c94c5ac	0.018160664
7	0x3db2ee12	0.087368146
8	0x3d076e8c	0.03306441
9	0xbd9cabec	-0.07649979
10	0x3da4b7e6	0.08042888
11	0x3dcc612d	0.09979472
12	0xbbfccfc6	-0.007715198
13	0x3d43ee9e	0.047834985
14	0xbdcc18b8	-0.09965652
15	0x3dd3d449	0.103432246
16	0xbe159f86	-0.14611635
17	0x3cfb289b	0.03065901
18	0x3debb1f5	0.11508552
19	0xbb554be4	-0.0032546455
20	0xbbeb5a30	-0.007182382
21	0x3d9ef18b	0.077609144
22	0xbcf4402e	-0.02981576
23	0xbdaba1a2	-0.083804384
24	0xbd642ebe	-0.05570864
25	0xbe5e749e	-0.21724173
26	0xbe0014ff	-0.1250801
27	0xbe7c3618	-0.2463001
28	0x3e4db19f	0.20087288
29	0x3c75f418	0.01501181
30	0x3d5b7b1c	0.053584203
31	0x3d6d638b	0.05795626

weight f4 [32, 1]
0	0x3ec2529a	0.37953645
1	0x3ee38e2c	0.44444406
2	0x3ef39b06	0.4757921
3	0xbeae2966	-0.3401596
4	0x3ea997b2	0.33123547
5	0xbea4758f	-0.3212094
6	0xbf109445	-0.5647624
7	0x3eadad55	0.33921304
8	0xbefcf56c	-0.49405992
9	0x3f12eeaf	0.5739545
10	0x3f09aebc	0.5378225
11	0x3ef92185	0.48658386
12	0xbe9d2a6c	-0.30696428
13	0x3eb7f7eb	0.35931334
14	0xbe6f3720	-0.23360872
15	0xbed93733	-0.42424926
16	0x3ef6943d	0.48159972
17	0xbf0a38b3	-0.53992766
18	0xbe70d0f1	-0.23517205
19	0x3ee4cbc2	0.44686705
20	0xbeb13ea0	-0.34618092
21	0x3eb116ef	0.3458781
22	0x3eb2b366	0.34902495
23	0x3ea9723f	0.33094975
24	0xbe3fbb54	-0.18723804
25	0x3e8702a2	0.26369196
26	0x3ec3f631	0.38273767
27	0x3e9dfada	0.30855447
28	0xbe7e4675	-0.24831565
29	0xbe597139	-0.21234597
30	0xbf11066f	-0.5665044
31	0x3f042373	0.5161659

bias f4 [32]
0	0xbece0cdb	-0.40244183
1	0xbec47acc	-0.38374937
2	0xbf0620f5	-0.5239404
3	0x3eac2aee	0.33626503
4	0xbec64863	-0.38727102
5	0x3ea23c60	0.31686687
6	0x3f14b1c8	0.5808377
7	0xbc3357be	-0.010946212
8	0x3efa040c	0.48831213
9	0xbf173f02	-0.5908052
10	0xbf164d3a	-0.5871159
11	0xbf09b694	-0.5379422
12	0x3e9a9683	0.30192956
13	0xbd2523b1	-0.04031724
14	0x3e6c45a9	0.23073448
15	0x3ed66893	0.4187666
16	0xbf039848	-0.5140424
17	0x3f095923	0.53651637
18	0x3e6c9697	0.2310432
19	0xbeff04fa	-0.49808484
20	0x3eaf5249	0.34242466
21	0xbcea5155	-0.028603235
22	0xbebd0d8a	-0.36924392
23	0xbc6683e6	-0.014069533
24	0x3e3cde78	0.1844424
25	0xbe996f91	-0.2996793
26	0xbed91ac9	-0.42403248
27	0xbd6385bf	-0.055547472
28	0x3e78363f	0.24239443
29	0x3e477a83	0.19480328
30	0x3f172e55	0.5905507
31	0xbf0ae0fd	-0.54249555

weight f4 [64, 32]
0	0x3cd72d97	0.026266856
1	0x3cd22c1e	0.025655802
2	0x3d426530	0.04745978
3	0x3b9db3d1	0.0048126956
4	0x3c270679	0.010194414
5	0x3caf82da	0.0214247
6	0xbd73248e	-0.059361033
7	0x3d8d5249	0.0690046
8	0xbd203acb	-0.03911857
9	0x3d687705	0.05675413
10	0x3d200dbd	0.0390756
11	0x3d44faa4	0.048090592
12	0x3cd4fe45	0.026000151
13	0x3cf3e3d2	0.02977172
14	0x3c481ec8	0.01221437
15	0xbca5256e	-0.02015945
16	0x3d3df4d1	0.046376053
17	0xbd4c26fb	-0.049841862
18	0x3cddfc53	0.027097857
19	0x3d214379	0.039370988
20	0x3a45c9de	0.0007545034
21	0x3d92863d	0.0715451
22	0x3c64b825	0.013959919
23	0x3d868dc4	0.065700084
24	0xba0e2d99	-0.00054236647
25	0x39afd129	0.00033534438
26	0x3d1d731c	0.038439855
27	0x3d13a37e	0.03604459
28	0x3cc5cc8f	0.024145393
29	0x3c55ec4f	0.013056829
30	0xbd7a6a61	-0.061136607
31	0x3d482ed7	0.048872795
32	0xbd836d73	-0.0641736
33	0xbe94c9bb	-0.29060158
34	0xbd787504	-0.06065847
35	0x3d5e7822	0.054313786
36	0xbd8a8477	-0.06763547
37	0x3d633f4f	0.055480298
38	0x3d6f3e59	0.05840907
39	0xbd75fb62	-0.06005419
40	0x3d5deb9b	0.05417977
41	0xbd6e05f3	-0.058111142
42	0xbd361402	-0.044452675
43	0xbd705e6b	-0.058683794
44	0x3d66b742	0.056327112
45	0xbd0461aa	-0.032319702
46	0x3d95054a	0.072763994
47	0x3d58ad87	0.052899864
48	0xbd6ff6e5	-0.058585066
49	0x3d6868f3	0.056740712
50	0x3d8ef914	0.06981102
51	0xbd6106e2	-0.054938205
52	0x3d640a9c	0.05567418
53	0xbd6bb600	-0.057546616
54	0xbd7aa621	-0.06119359
55	0xbd8c9711	-0.06864751
56	0x3d6fcfdd	0.058547843
57	0xbdab8c4b	-0.08376368
58	0xbd7ecb63	-0.062205683
59	0xbd0a0f90	-0.033706248
60	0x3d9bb55f	0.07602953
61	0x3d52d77b	0.05147503
62	0x3d70da49	0.058801923
63	0xbd731433	-0.059345435
64	0xbbb6ed41	-0.005582482
65	0x3ecf05d8	0.40434146
66	0x3beb916f	0.007188968
67	0x3c5a5c3f	0.013327657
68	0x3ad0dd7b	0.0015935147
69	0x3cca0c6e	0.02466413
70	0xbc5c1581	-0.013432861
71	0x3d3f1eef	0.04666036
72	0xbaec917f	-0.0018048732
73	0x3c3fe393	0.011711973
74	0x3cb7289d	0.022358233
75	0x3c1161d4	0.008873422
76	0x3cfbb4b1	0.030725809
77	0x3c9a7905	0.018856535
78	0x3d64ec3a	0.055889346
79	0x3bdb47ca	0.0066919075
80	0x3bf42ebc	0.0074518602
81	0xbbd446f1	-0.0064781834
82	0x3d806b06	0.06270413
83	0x3b66e786	0.0035233214
84	0x3c32a158	0.010902725
85	0x3d37aec6	0.04484441
86	0xb9b673db	-0.00034800064
87	0x3d50ce49	0.05097798
88	0x3cb95b76	0.02262662
89	0xbd2822bb	-0.041048747
90	0x3b0b87b1	0.0021290595
91	0x3cdbba2a	0.026822168
92	0x3d48f117	0.049058046
93	0x3d41af5f	0.047286388
94	0xbc6b786e	-0.014371974
95	0x3c05563d	0.008138237
96	0xbc88cef7	-0.016700251
97	0x3cffccbe	0.031225558
98	0x3bfa1385	0.0076317214
99	0x3cda47fa	0.02664565
100	0x3b930c45	0.0044875466
101	0x3d0f89c9	0.03504351
102	0xbbf435bc	-0.0074526947
103	0x3d82b7a0	0.0638268
104	0x3c010818	0.007875465
105	0x3c013de0	0.007888287
106	0x3c527e2c	0.0128474645
107	0x3c2fc835	0.010728885
108	0x3d2b63a6	0.04184308
109	0x3ce2286c	0.027607165
110	0x3ce86205	0.028367052
111	0x3c1ff009	0.009761819
112	0x3bda8e9e	0.0066698333
113	0x3af8953c	0.0018965374
114	0x3d17f8e5	0.0371026
115	0x3c0e4733	0.008683967
116	0x3cc7ec1e	0.024404582
117	0x3d7bfcf3	0.061520528
118	0xbc3885a5	-0.011262332
119	0x3d8debeb	0.069297634
120	0x3cf29428	0.029611662
121	0xbbd94fbe	-0.0066318205
122	0x3c649b1d	0.0139529975
123	0x3d28934a	0.04115609
124	0x3d17767f	0.03697824
125	0x3d125979	0.03572986
126	0xbc243963	-0.010023448
127	0x3c0c14d3	0.008549887
128	0xbc45e9c5	-0.012079661
129	0x3e273dd1	0.16332175
130	0x3b413216	0.0029479316
131	0x3d0ca01e	0.034332387
132	0xbc61e5b4	-0.013787676
133	0x3d371bb2	0.044704147
134	0xbbe37da5	-0.006942468
135	0x3dbea393	0.09308543
136	0x3b0cb8d2	0.0021472466
137	0x3c0fd2da	0.008778298
138	0x3ba734aa	0.0051027136
139	0x3b9cd695	0.0047863224
140	0x3d614df0	0.055005968
141	0x3d4f57a6	0.050620697
142	0x3d47d020	0.048782468
143	0x3c391087	0.011295444
144	0x3b6775fb	0.0035318125
145	0xbb71d411	-0.0036900083
146	0x3d5f46e4	0.054510966
147	0xb9c0c30d	-0.00036766418
148	0x3d00b90e	0.031426482
149	0x3dbb0276	0.09131329
150	0xbc8278dc	-0.01592677
151	0x3dc98e74	0.09841624
152	0x3d03b7dd	0.032157768
153	0xbd0a6e47	-0.033796575
154	0xbc1ba72a	-0.009500304
155	0x3d8f8807	0.07008367
156	0x3d595f0f	0.05306917
157	0x3d372402	0.044712074
158	0xbbf1db4d	-0.007380879
159	0x3b8799f6	0.0041382266
160	0x3e752b49	0.23942293
161	0x3eba3e2d	0.3637556
162	0x3e3678d4	0.1781953
163	0xbec7fa46	-0.3905813
164	0x3e8a4ab9	0.27010134
165	0xbee5a6e3	-0.44853887
166	0xbdee86bb	-0.116467915
167	0x3ea676fb	0.3251265
168	0xbe53ee64	-0.20696408
169	0x3deda7d1	0.11604274
170	0x3df15182	0.117831245
171	0x3e31d97c	0.1736812
172	0xbefe5ae1	-0.4967871
173	0x3ec229e6	0.3792259
174	0xbf2a1af3	-0.6644737
175	0xbe8db466	-0.27676696
176	0x3e39f3b9	0.18159379
177	0xbe1b14a7	-0.15144597
178	0xbf2b3473	-0.66876906
179	0x3e530917	0.20608936
180	0xbec053e9	-0.37564018
181	0x3ea592e0	0.3233862
182	0x3e830191	0.25587133
183	0x3eab65cf	0.3347611
184	0xbf0d9b8e	-0.5531548
185	0x3ebf86a8	0.37407422
186	0x3e72715a	0.23676053
187	0x3e92d872	0.2868076
188	0xbf304f24	-0.6887076
189	0xbf28d479	-0.6594921
190	0xbde33578	-0.11094183
191	0x3e23d1ed	0.15998049
192	0x3ccc0f78	0.02490972
193	0x3ef6ad53	0.4817911
194	0x3ce642eb	0.02810808
195	0x3cc2e868	0.02379246
196	0x3b6dd497	0.0036290043
197	0x3d09aeff	0.033614155
198	0xbc97ab5d	-0.01851433
199	0x3d3cf040	0.046127558
200	0x3c38748b	0.011258255
201	0x3ca35f7e	0.019942995
202	0x3c46a127	0.012123383
203	0x3afbc01a	0.0019207031
204	0x3d3eb530	0.046559513
205	0x3aec44ae	0.0018025839
206	0x3d39e3fc	0.04538344
207	0x3c786eb5	0.015163113
208	0xbb16013c	-0.002288892
209	0x3bed14e4	0.0072351564
210	0x3d5c2b31	0.053752128
211	0xbb94f474	-0.0045457426
212	0x3c996125	0.01872308
213	0x3d372bdc	0.044719562
214	0x3c22267b	0.00989687
215	0x3d4e2030	0.050323665
216	0x3ce79251	0.028268011
217	0x3ab34b8f	0.0013679134
218	0x3a49f335	0.0007703782
219	0x3d2363f1	0.039890233
220	0x3d4465ae	0.04794853
221	0x3d38f056	0.045151077
222	0xbcb5169c	-0.022105508
223	0x3cb47493	0.022028243
224	0x3cc147ec	0.023593865
225	0x3f1b5dcc	0.6069
226	0x3d08e5f0	0.03342241
227	0x3c75b319	0.0149963135
228	0x3b9b069b	0.004731012
229	0x3c9f55d3	0.019450104
230	0xbd490858	-0.049080223
231	0xbe9054fb	-0.28189835
232	0xbd083405	-0.033252735
233	0x3d47626f	0.048677858
234	0x3d3cee8f	0.046125945
235	0x3d13a848	0.036049157
236	0x3cb64ebe	0.022254344
237	0xbe77a4dd	-0.24183984
238	0x3d1377ee	0.036003046
239	0xbc3f2324	-0.011666093
240	0x3d0c666f	0.034277376
241	0xbd364954	-0.044503525
242	0x3d090362	0.03345049
243	0x3cd35041	0.025795104
244	0x3c520019	0.012817406
245	0xbe8b7959	-0.27241018
246	0x3c0eebf3	0.008723247
247	0xbe954bfd	-0.29159537
248	0x3cf6b81a	0.030117083
249	0xbb9832a9	-0.004644711
250	0x3c5816a6	0.013188994
251	0xbe30e62a	-0.172753
252	0x3d001d83	0.031278145
253	0x3d0ca15e	0.03433358
254	0xbd4bcd59	-0.04975638
255	0x3d1f395a	0.038873054

bias f4 [64]
0	0xbdf35c76	-0.1188287
1	0x3dd2e2b1	0.10297144
2	0xbdf71e4f	-0.12066328
3	0xbe0cd432	-0.13752821
4	0xbe1bd0f1	-0.15216424
5	0x3d94f948	0.07274109
6	0xbe49552e	-0.196614
7	0xbdcea902	-0.100908294
8	0x3cd2237e	0.02565169
9	0x3d865cec	0.06560692
10	0xbe135e38	-0.1439141
11	0xbe350d5e	-0.1768088
12	0xbe11c7ad	-0.14236327
13	0xbdd8b09c	-0.105805606
14	0x3d82c311	0.06384862
15	0xbdfbed06	-0.12301068
16	0x3dc0a277	0.09405988
17	0xbde64810	-0.112442136
18	0x3d8d6176	0.06903355
19	0xbe29141e	-0.1651158
20	0x3e0e642f	0.13905405
21	0xbe09fcbd	-0.13475318
22	0xbcb996e3	-0.022654956
23	0xbe16e17c	-0.14734453
24	0x3ddbc6fd	0.107313134
25	0xbe2ff396	-0.17182764
26	0x3c46a468	0.012124158
27	0x3c0a8e8c	0.008456837
28	0x3df141d4	0.11780134
29	0xbdff433d	-0.124639966
30	0x3df9d271	0.12198342
31	0xbdf3fe15	-0.11913697
32	0x3def8183	0.11694624
33	0x3ddbf779	0.10740561
34	0x3d8620cc	0.06549224
35	0x3dc4c1f4	0.09607306
36	0x3dd60bfa	0.10451503
37	0xbe2bb2fb	-0.16767494
38	0xbdf39c41	-0.118950374
39	0xbde1572e	-0.11002956
40	0x3e320075	0.17382987
41	0xbdfa5375	-0.122229494
42	0x3d8e6138	0.06952137
43	0xbde1caba	-0.11024995
44	0x3c7c176c	0.015386444
45	0x3cd0852e	0.02545413
46	0xbc58560e	-0.013204111
47	0xbdfbd2ab	-0.12296041
48	0xbe2317e4	-0.15927082
49	0xbe25b67a	-0.1618289
50	0x3dc8c6c7	0.09803539
51	0xbe08d04e	-0.13360712
52	0x3d93b49e	0.07212184
53	0xbe1607a8	-0.14651358
54	0xbe37b7af	-0.17941163
55	0xbd04d02b	-0.032425087
56	0x3de440ba	0.11145158
57	0x3d9b1cfe	0.07573889
58	0x3c81d4bf	0.015848516
59	0x3df75b5a	0.12077971
60	0xbe0f944b	-0.14021413
61	0xbc2808fe	-0.01025605
62	0x3cc74918	0.024326846
63	0xbd7a398f	-0.06109005
