checkpoints/cahousing_honam2_emb32_4.pt (torch, 177750 bytes, 98 tensors)

weight f4 [32, 1]
000000 ae 6b 10 bf 71 a4 ce 3e 2a d6 ae be 67 55 ed be
       -0.56414306 0.40359834 -0.3414777 -0.4635422
000010 e8 8f 11 bf fa 65 39 3e 3a ae 90 be 34 fe 1c 3f
       -0.5686021 0.18105307 -0.28257924 0.61325383
000020 7d 42 18 3f 68 f2 4c be 2d 14 a8 be 4a f5 c1 be
       0.59476453 -0.20014346 -0.32827893 -0.37882453
000030 7c eb 0e bf 57 ee a2 be 9d 31 f2 3e c2 7d 07 bf
       -0.5582807 -0.31822464 0.47303477 -0.52926266
000040 17 f5 17 bf 75 89 b3 be ad fa c8 be 59 48 b0 3e
       -0.5935835 -0.3506581 -0.3925375 0.34430197
000050 a3 ee e0 3e 19 53 b5 3e 82 51 b8 3e 0e 01 15 3f
       0.43932065 0.3541496 0.35999686 0.58204734
000060 e3 35 01 3f f5 e0 a8 be 9d a7 3a 3f 80 6e 52 3e
       0.5047285 -0.3298413 0.7291201 0.20549965
000070 0a 0a 0b 3e 37 43 d7 3e 62 3f b5 3e 00 d8 a3 3e
       0.13578048 0.42043468 0.3539992 0.32000732

bias f4 [32]
000000 db 9d 2a be e0 c6 75 3e 83 33 38 3f 47 32 83 be
       -0.1666178 0.24001646 0.719536 -0.25624296
000010 68 ce 23 be 6d 89 c1 3c b8 83 fa 3e e2 d5 5b 3d
       -0.15996706 0.0236251 0.48928618 0.05367077
000020 e1 dc b6 3d c6 b8 44 3e b9 ad 23 3f 65 de 6d be
       0.08928848 0.1921111 0.63936955 -0.23229368
000030 28 8c 33 be fe 5f 15 3f 70 48 76 3e 53 94 5b be
       -0.17533934 0.583496 0.2405107 -0.214433
000040 06 15 f9 bd 9f cc 48 3f 7e e8 77 be 72 31 4b 3e
       -0.12162213 0.78437227 -0.24209782 0.1984308
000050 0b 73 7d 3e 6e 1a 47 bf 37 78 54 bf fd d1 de 3d
       0.24750917 -0.77774704 -0.82995933 0.10879896
000060 32 28 60 3e f9 77 27 3f d1 fe e5 bc 02 31 46 3d
       0.21890333 0.6541744 -0.028075607 0.04838658
000070 00 54 37 be 5e 9b 79 3e 48 41 48 bf 07 75 33 3e
       -0.17903137 0.24375674 -0.7822461 0.17525111

weight f4 [64, 32]
000000 54 43 3d 3e 8a 5a 02 be e3 d5 b8 3c 59 25 0d 3e
       0.18482715 -0.1272985 0.022562927 0.13783778
000010 38 7e 40 3e a3 f9 cd bd 35 b2 8c 3c 9f 4f 7e be
       0.18798149 -0.1005738 0.01717482 -0.2483506
000020 b9 93 67 be 4c ce b8 3c 2a 31 c6 3c 97 83 f7 3d
       -0.22614945 0.022559308 0.024193365 0.12085646
000030 8b 24 39 3e 6d cd cd 3c a2 c1 14 be 3f fc 26 3e
       0.18080346 0.025122369 -0.1452699 0.16307162
000040 c7 26 54 3e 6f 73 aa 3c 79 23 fb 3d 85 b0 f2 bd
       0.20717917 0.020806996 0.12262625 -0.11850075
000050 03 68 0a be 00 dc ae bc 88 1f a1 bc 93 87 5b be
       -0.1351624 -0.021345139 -0.019668356 -0.21438436
000060 dd 60 22 be 4d a0 c0 3c 9e 0c a1 be 17 96 d4 bd
       -0.15857263 0.023513937 -0.3145494 -0.1038019
000070 28 cc 5b 3c b7 00 06 be 35 b0 ab bc 9c c6 ec bd
       0.013415374 -0.1308621 -0.020958045 -0.11561319
000080 c7 b4 49 3e c0 df fd bd 35 95 3c 3d f0 df 0d 3e
       0.19697867 -0.123961926 0.046040732 0.13854957
000090 6c e8 4d 3e 90 d0 b8 bd ea 43 fb 3c af f3 8c be
       0.20108193 -0.09024155 0.030672032 -0.27529666
0000a0 41 a9 7c be 6d fa 63 3d 50 1b 39 3d 2e 52 f1 3d
       -0.2467394 0.055658747 0.045192063 0.11783253
0000b0 79 9f 44 3e 00 aa 36 3d 52 64 15 be 5d ef 2d 3e
       0.19201459 0.04459572 -0.1458905 0.16985841
0000c0 66 9b 66 3e 24 dd 3a 3d 42 1e f6 3d 8c 6a e8 bd
       0.22520217 0.045621052 0.1201749 -0.11348447
0000d0 54 b0 08 be 2e 4b 3e bd 36 a4 39 bd a7 8e 6d be
       -0.13348514 -0.046458416 -0.04532262 -0.23198949
0000e0 67 e0 25 be a8 be 37 3d ea 5f de be 1d 85 c2 bd
       -0.16198884 0.04485956 -0.43432552 -0.094980456
0000f0 f7 20 56 bc 9a 95 03 be b3 9c 3c bd 8d b4 e1 bd
       -0.013069383 -0.12850037 -0.046047878 -0.110207655
000100 ad 4b 2a 3e 54 8c da bd f8 c2 1a 3d 7c 32 f1 3d
       0.1663043 -0.10671297 0.037783593 0.11777207
000110 66 db 2d 3e a9 bd 9b bd ca 1a 19 3d a6 7e 76 be
       0.16978225 -0.07604534 0.037379064 -0.2407175
000120 eb 15 5b be 48 f8 8a 3d 0c 32 24 3d 61 bf ce 3d
       -0.2139508 0.06785637 0.04008679 0.100950964
000130 6b e1 25 3e c2 b4 2a 3d 9e 18 00 be 47 eb 12 3e
       0.16199271 0.04167629 -0.1250939 0.14347564
000140 3e 6c 43 3e de 0a 13 3d 20 45 d2 3d bc 04 c9 bd
       0.1908426 0.035899036 0.10267091 -0.09815356
000150 e4 fa ea bd a1 23 0e bd 3e f6 06 bd 10 10 4d be
       -0.11473635 -0.034701947 -0.03294968 -0.20025659
000160 fe 01 0e be 78 85 20 3d e8 76 98 be bf 2b a6 bd
       -0.13867947 0.039189786 -0.29778218 -0.08113813
000170 41 19 c2 bc 96 16 e2 bd c2 ef 0c bd 38 e6 c2 bd
       -0.023693683 -0.11039464 -0.03440834 -0.09516567
000180 f6 ca 4e 3e 70 72 01 be a3 e0 41 3d a5 ec 10 3e
       0.20194611 -0.1264131 0.04733337 0.14152773
000190 19 e0 52 3e ec 7a c4 bd 49 94 12 3d 91 ac 8f be
       0.20593299 -0.09593758 0.035785947 -0.28061345
0001a0 7b a6 80 be df 41 6d 3d 8d 5c 42 3d 13 01 f7 3d
       -0.25127015 0.057924148 0.047451545 0.12060752
0001b0 82 5c 49 3e b8 e6 42 3d a6 ff 17 be c4 fb 31 3e
       0.19664195 0.04758331 -0.14843616 0.17381197
0001c0 fa 00 6d 3e 90 a1 3d 3d 6f a9 fb 3d 1b d1 ed bd
       0.23144904 0.046296656 0.12288176 -0.11612149
0001d0 3b 47 0b be 5e a0 3f bd 0f 60 3a bd 42 b0 71 be
       -0.13601391 -0.046783797 -0.045501765 -0.23602393
0001e0 24 bc 28 be cc 0f 40 3d 3e ce d3 be d1 f0 cb bd
       -0.1647802 0.046890065 -0.41368288 -0.099580415
0001f0 f3 54 a8 bc 3d 05 06 be 43 46 3e bd 37 f8 e6 bd
       -0.02054832 -0.13087936 -0.046453726 -0.11277812
000200 5c 54 70 3e a6 42 22 be e9 73 b0 3c b7 4a 30 3e
       0.2346968 -0.15845737 0.021539645 0.17216001
000210 ab 8d 74 3e 5f 71 fe bd 48 f5 0e 3c 41 f1 a3 be
       0.23882167 -0.124239676 0.008725472 -0.3202
000220 a8 9e 94 be e3 35 95 3c db 78 b1 3c da 9e 19 3e
       -0.29027295 0.018214172 0.021664074 0.15002003
000230 fd aa 6a 3e cc 22 b0 3c da 61 3a be ba 5a 52 3e
       0.2291679 0.021500967 -0.1820139 0.20542422
000240 e4 89 87 3e 79 08 a8 3c e3 23 1c 3e fa d0 16 be
       0.2647239 0.020511853 0.15248065 -0.14728156
000250 12 bb 2c be 65 37 b4 bc 6f b4 a7 bc 66 98 8c be
       -0.16868237 -0.02199907 -0.02047178 -0.2746002
000260 da 2b 4c be 69 c6 ae 3c 41 6e e1 be 61 5d 03 be
       -0.19938603 0.021334844 -0.4402943 -0.1282859
000270 be 1b bd 3c 0a 27 27 be b8 68 b0 bc 3f 13 13 be
       0.023084518 -0.16323486 -0.021534309 -0.1436281
000280 59 f6 95 3d d9 d9 1a 3c 8f d8 03 3e dc fc da 3b
       0.07322378 0.009451353 0.1287558 0.006682975
000290 46 da 9f 3d 61 6e c8 3c fa 95 d7 3d 27 9d 29 be
       0.07805304 0.024466695 0.10526653 -0.16563855
0002a0 7d 61 03 be e8 08 87 3d e7 43 fe 3d f1 2f 53 bc
       -0.12830158 0.065934956 0.12415295 -0.012889848
0002b0 59 db 88 3d d8 b2 f6 3d 19 b2 3b bc e0 e8 27 3d
       0.06682462 0.120458305 -0.011456036 0.04099357
0002c0 6e ca df 3d a4 53 06 3e ab f8 2f bc a8 81 91 3c
       0.10927282 0.13117844 -0.010740439 0.01776202
0002d0 26 72 4d 3a d0 fb 06 be 49 47 08 be c0 8a df bd
       0.0007837139 -0.13181996 -0.13308443 -0.10915136
0002e0 b9 d1 e7 bc a7 4b ff 3d d0 2b de be 73 de c8 3c
       -0.028298246 0.124656014 -0.433928 0.024520135
0002f0 5e 00 c7 bc 1a fa b6 3b bd ea 06 be 43 a9 a3 3c
       -0.024292167 0.0055840136 -0.13175483 0.019978171
000300 ab 0c 3d 3e 0d 8d e7 bd 8a 37 16 3d 85 8b 01 3e
       0.18461864 -0.113062 0.03667406 0.12650879
000310 d0 18 41 3e c7 a2 a5 bd 01 ce 93 3c 13 3d 88 be
       0.18857121 -0.08087688 0.018042566 -0.26609096
000320 cb bb 71 be 4a 4c 14 3d ec 3a 0e 3d de 33 da 3d
       -0.23606794 0.036205567 0.03472416 0.10654424
000330 e3 a8 37 3e fa 00 07 3d d8 55 09 be 4c 29 21 3e
       0.17935519 0.032959916 -0.13411653 0.1573841
000340 e6 9a 5a 3e 58 a0 18 3d 3e c9 de 3d db c8 d2 bd
       0.21348152 0.03726229 0.10878228 -0.102922164
000350 06 4b fa bd 63 c2 1e bd 11 3c 1e bd 99 b1 61 be
       -0.12221341 -0.0387596 -0.038631503 -0.22040404
000360 6e 8e 19 be 04 3e 0d 3d f2 7f ed be d8 93 ae bd
       -0.14995739 0.03448297 -0.46386677 -0.08524293
000370 3b 3b c4 3b 7f d0 ef bd ec a0 1d bd d3 57 cc bd
       0.005988506 -0.11709689 -0.038483545 -0.09977689
000380 5d 3a 2b bd 4a b9 5b bc 1d 2b 1f be b0 c4 a4 3b
       -0.041803706 -0.013410876 -0.1554379 0.00502833
000390 95 5c 38 bd 2d e9 cf bc 33 f9 0f be 96 ba e5 3d
       -0.045010168 -0.025379742 -0.14059906 0.11217229
0003a0 a7 f7 b3 3d 94 f0 c5 bd ba 5b 1e be 54 11 a5 3c
       0.0878747 -0.09665027 -0.15464678 0.020149864
0003b0 a2 15 1a bd 5a 50 1d be ed 91 70 3b 55 14 a2 bc
       -0.037618287 -0.15362683 0.0036708072 -0.019785086
0003c0 90 8d 84 bd 28 10 1f be d5 e6 98 3c f2 96 a7 bc
       -0.064723134 -0.15533507 0.018664757 -0.020457719
0003d0 1f fa c9 bb 44 46 20 3e 92 a4 1f 3e 6f 0c 9a 3d
       -0.00616385 0.15651804 0.15590122 0.07521903
0003e0 4f 19 8b 3c 40 34 1e be 62 7b 88 3e b2 09 d1 bc
       0.016979842 -0.1544962 0.26656634 -0.025517318
0003f0 fa a8 28 3c ab 56 25 bc ef ea 1f 3e 13 a2 b6 bc
       0.010294193 -0.010091464 0.15616964 -0.02229408

bias f4 [64]
000000 54 af b7 3d 8c 7a da 3a be 69 a8 bc 3d a5 ea bd
       0.08968988 0.0016668602 -0.020558234 -0.11457298
000010 78 53 3a 3d 91 7c 93 3e 15 19 e3 3c af bc 93 be
       0.04548976 0.28805974 0.027721921 -0.28854892
000020 e4 73 b8 bd de d2 31 bd f2 f9 3a be 83 e7 31 3d
       -0.090064794 -0.04341399 -0.18259409 0.043433677
000030 fc 01 8a 3d 54 bc b6 3d 67 b7 10 3d d3 77 17 be
       0.0673866 0.089226395 0.035331156 -0.14791803
000040 7c 32 21 bc 68 89 69 3d f9 d0 ba bd 70 da 8d bd
       -0.009838697 0.057015806 -0.091218896 -0.06926429
000050 65 c6 10 3d c8 09 90 bd 16 23 61 3e 6a 0d 87 bd
       0.035345454 -0.070331156 0.2198604 -0.065943554
000060 1f 62 2a be 5c b5 76 bc d1 eb 9a bd ae 6d cc 3d
       -0.16638993 -0.015057888 -0.0756451 0.09981857
000070 88 7a 1e 3c 35 6e fd bd 4a fd 5f 3d 4e eb 4a 3c
       0.009672768 -0.12374536 0.054684915 0.012385203
000080 7d 86 36 3d c2 ab 0b be 51 95 4d bc 59 08 bf bd
       0.04456185 -0.13639739 -0.012547807 -0.09327764
000090 be 68 31 be 5d fd ee 3d 4e 14 32 bd 21 71 a1 3d
       -0.17325112 0.11669419 -0.043476395 0.07882906
0000a0 7b cb 97 3e 2a 19 3f 3d a8 e4 ce 3c 1d b6 9d 3b
       0.2964743 0.046654858 0.025255516 0.0048129694
0000b0 8b aa 92 3d ca 0c b6 3d 5b 6d 10 3d e5 64 fd bd
       0.07161435 0.08889158 0.03526054 -0.1237276
0000c0 f9 9e a2 bd 29 5d f2 3c 57 b0 3e 3d cd a4 40 3d
       -0.07940478 0.029585438 0.04655489 0.047032166
0000d0 5d f9 93 be ed 35 0b bc 90 d4 00 be f4 0f c0 bd
       -0.28901187 -0.008496744 -0.12581086 -0.09378043
0000e0 97 1d 1c be 32 a4 58 3e b2 76 94 3e 1a 2e fc 3d
       -0.15245663 0.21156386 0.28996807 0.12313481
0000f0 1d b8 e5 3c f0 f1 04 be f8 5d a8 bd aa eb 03 3e
       0.028041894 -0.12982917 -0.08221048 0.12882867

weight f4 [32, 64]
000000 27 e3 f2 be 9a 6a 1a bf 79 7c 03 bf 3a 0f 10 bf
       -0.47438928 -0.6031891 -0.51361805 -0.56273234
000010 43 d3 15 bf bb a4 55 bd 17 94 27 bf 7b df 68 be
       -0.58525485 -0.052159052 -0.6546034 -0.22741501
000020 6b e9 20 3f 11 25 0c bf dd fa 46 be 18 dc 10 bf
       0.6285617 -0.5474406 -0.19431634 -0.56585836
000030 bb 69 14 bf 7a 64 13 bf cc 2c 22 bf 35 4c 3d 3f
       -0.5797383 -0.5757519 -0.63349605 0.7394441
000040 e3 f5 20 be 2e 72 15 bf 81 dd ab be ef 3d f8 be
       -0.15718798 -0.5837735 -0.33567432 -0.48484752
000050 27 fc 1e bf 54 4f c4 be d3 22 da be 5a bf 07 bf
       -0.62103504 -0.38341773 -0.42604694 -0.53026354
000060 6d cd af be e3 1f ce bd ea f1 0c bf ef 4b 0a bf
       -0.34336415 -0.10064676 -0.5505663 -0.54022115
000070 fa 99 1f bf bc ff 53 be 14 1c 14 bf 66 ef 1c bf
       -0.62344325 -0.20703024 -0.57855344 -0.61302793
000080 6f bf 10 bf eb ef 0e bf 09 74 19 bf 65 9a 19 be
       -0.56542104 -0.55834836 -0.5994268 -0.15000303
000090 12 d7 a7 be 6b 3d 11 bf 4d f0 15 bf 00 8e 16 bf
       -0.32781273 -0.5673434 -0.58569795 -0.58810425
0000a0 1b 7c 54 bd 7c 54 1e bf c9 37 27 bf 33 fc 20 bf
       -0.05187617 -0.6184766 -0.65319496 -0.62884825
0000b0 ae ac 15 bf d8 8f 10 bf 36 95 15 bf 56 5b 06 bf
       -0.58466613 -0.5646949 -0.584308 -0.5248312
0000c0 da c1 0f bf 96 76 1c bf 52 72 15 bf db 9d 29 bf
       -0.5615517 -0.6111845 -0.58377564 -0.66256493
0000d0 4f a7 7b be 32 65 25 bf 89 cb 2c be bd a3 10 bf
       -0.24575542 -0.64607537 -0.16874518 -0.56499845
0000e0 1e 81 4d be 77 1c f4 be b7 9d 4e bd 75 71 04 bf
       -0.20068786 -0.47677967 -0.050443377 -0.5173562
0000f0 72 85 1a bf 18 55 39 3f 1a b7 0f bf 33 95 02 bf
       -0.6035987 0.7239547 -0.56138766 -0.5100891
000100 09 9b 29 bd 19 3c 32 bd 2d 9d 4a bd 0b 14 76 bd
       -0.04140762 -0.043514345 -0.0494663 -0.06007771
000110 af 19 3d bd d8 55 bd 3c 90 21 33 bd 31 b5 c7 bd
       -0.046167072 0.023112223 -0.04373318 -0.097513564
000120 cf d4 57 3d 95 7c 93 bd 48 56 91 bd 77 56 23 bd
       0.052693184 -0.072014965 -0.07096535 -0.03987738
000130 19 34 14 bd 91 61 18 bd 4a bc 15 bd 23 b0 b3 3d
       -0.036182497 -0.03720242 -0.03655652 0.0877383
000140 65 41 ca bc e0 d2 27 bd d1 f6 85 bd cf 4e 63 bd
       -0.024689386 -0.04097259 -0.06541217 -0.05549508
000150 71 89 72 bd ba a1 6d bd 71 c4 ed bd ca fe 55 bd
       -0.059213106 -0.058015563 -0.11609734 -0.05224494
000160 ed ac 95 bd c6 63 62 bd 5e 6a 59 bd 7d 25 27 bd
       -0.073083736 -0.055270933 -0.053079955 -0.040807236
000170 a1 46 12 bd be b5 9a bd 01 fd 1b bd 32 a1 23 bd
       -0.03571189 -0.07554196 -0.03808308 -0.03994865
000180 5b fc 22 bd 69 e1 76 bd b5 a8 86 bd 54 76 1e bd
       -0.039791446 -0.06027356 -0.06575147 -0.038687065
000190 6d 32 9e bd a4 16 24 bd 51 5d 92 bd 2c 01 07 bd
       -0.07724462 -0.040060654 -0.07146705 -0.032960102
0001a0 c2 a4 b3 3c 91 0c 20 bd 6d e0 2f bd 28 02 97 bd
       0.021929149 -0.039074484 -0.04293864 -0.07373458
0001b0 f7 cf 18 bd 3d 44 2e bd d9 45 1e bd f1 e0 04 bd
       -0.037307706 -0.042545546 -0.03864083 -0.032441083
0001c0 02 b0 5b bd 0b 9f 0a bd fe 3d 24 bd 4c 0b 87 bd
       -0.05363465 -0.03384308 -0.040098183 -0.065939516
0001d0 80 3b c6 bd 9f d3 80 bd e2 bd 54 bd 46 21 44 bd
       -0.096793175 -0.062903635 -0.0519389 -0.047883295
0001e0 c3 3f bb bd d4 2c b7 bd 63 3d c8 3c 14 19 23 bd
       -0.09143021 -0.08944097 0.024443334 -0.03981884
0001f0 aa 4a 1a bd f4 ed 40 3d be 5b 5c bd 36 ca 25 bd
       -0.03766886 0.04710193 -0.05379843 -0.040476047
000200 05 30 1a 3d 7a 92 3b 3d b5 fc 25 3d 60 09 0f 3d
       0.03764345 0.045793988 0.040524203 0.03492105
000210 59 f8 74 3d 74 9c a4 bd de 0e 3b 3d c5 e3 04 3b
       0.059807155 -0.080376536 0.045668475 0.0020277363
000220 b2 10 20 bd d4 fd c2 3c 34 4b 85 3c e7 48 5a 3d
       -0.039078422 0.023802675 0.016271211 0.05329218
000230 4c d0 61 3d 9e a7 6c 3d 3c 8e 5e 3d 7d 1a 99 3c
       0.055130288 0.05777704 0.054334864 0.018689388
000240 94 30 53 3d bb 4e 6c 3d b7 e7 ea 3c db 31 f3 3c
       0.05156 0.05769227 0.028674943 0.029686859
000250 dc 41 09 3d 6e c7 8b 3c e0 ff 3c be 7f 59 34 3d
       0.033510074 0.017062869 -0.18456984 0.044030663
000260 ae 32 15 3c d2 50 ab 3c 02 fb 28 3d cc 80 30 3d
       0.009106321 0.020912562 0.041255005 0.04309158
000270 43 40 6d 3d 96 7c 8a 3c 11 26 60 3d 9a 17 6a 3d
       0.057922613 0.01690511 0.054723803 0.057151414
000280 c7 87 5a 3d 35 6b 28 3d d9 7b c2 3c 4f 3d fc 3c
       0.053352144 0.041117866 0.023740696 0.030790953
000290 0f 8b bf 3c 3a dd 37 3d da 70 84 3c 44 87 79 3d
       0.023381738 0.044888712 0.016167093 0.060920015
0002a0 43 a5 a6 bd 0d 96 67 3d ee ea 3b 3d c4 11 5f 3c
       -0.0813699 0.056539584 0.045878343 0.0136150755
0002b0 8c 6f 69 3d c0 77 3f 3d dd 31 63 3d bc b7 fc 3c
       0.056991145 0.046745062 0.055467475 0.03084933
0002c0 0b 04 09 3d d9 30 6f 3d 8a ec 68 3d 19 ec f5 3c
       0.03345112 0.058396194 0.056866206 0.030019807
0002d0 e2 f4 8a 3a 5a 82 85 3d bb 77 62 3c 75 99 26 3d
       0.0010601545 0.06519003 0.013822491 0.04067369
0002e0 c1 67 91 3b fa 53 23 be f8 7e a1 bd 4f d8 16 3d
       0.0044374173 -0.15950003 -0.078855455 0.03682738
0002f0 2b 43 6b 3d 31 43 0d bc ba bf 09 3d 13 31 14 3d
       0.057437103 -0.008621977 0.03363011 0.036179613
000300 4f 29 ef 3d 6a 9c 22 3e 22 2c 03 3e 24 f3 44 3e
       0.11677801 0.1587998 0.12809804 0.19233376
000310 03 78 03 3e ce 41 cc bd 4e e5 2b 3e 88 58 38 3e
       0.1283875 -0.09973489 0.16786692 0.18002522
000320 14 5b 2e be c2 2f 16 3e 03 4f 05 3e 83 a3 0e 3e
       -0.17026931 0.14666656 0.13018422 0.13929562
000330 6a e3 10 3e 5e 25 00 3e 2a a6 1c 3e e6 d1 55 be
       0.14149252 0.12514254 0.15297762 -0.20880851
000340 6d c7 c7 3d 54 dd 15 3e d5 08 34 3e 7e 03 b3 3d
       0.09754834 0.14635211 0.17581494 0.087409005
000350 92 a2 3b 3e 78 7b 16 3e a2 03 26 3e 94 37 30 3e
       0.18323734 0.14695537 0.16212323 0.17208701
000360 7f 93 25 3e 27 e0 89 3d 35 8b 40 3e e2 70 03 3e
       0.16169547 0.06732207 0.18803103 0.1283603
000370 fb ba 1d 3e b0 73 1f 3e db 76 0a 3e b0 4e 24 3e
       0.15403359 0.15571475 0.13521902 0.16045642
000380 cf be 0e 3e 06 42 39 3e 16 5e 55 3e b4 b5 a1 3d
       0.13939975 0.18091592 0.20836672 0.07895985
000390 24 10 e9 3d ea bd f7 3d 15 81 4f 3e a3 37 cf 3d
       0.11380032 0.1209677 0.20264085 0.10118034
0003a0 bd e9 d1 bd 86 2b 0f 3e 32 e0 2c 3e 2c 9f 5b 3e
       -0.1024966 0.13981447 0.16882399 0.21447438
0003b0 11 59 10 3e 6c 33 07 3e e2 c4 12 3e d7 b0 12 3e
       0.14096476 0.1320321 0.14332917 0.14325272
0003c0 a8 f2 3c 3e b4 4f 11 3e d6 3d 0f 3e c9 97 32 3e
       0.18451941 0.1419056 0.13988432 0.17440714
0003d0 c9 8b 43 3e 7f d1 94 3d 41 0f ca 3d 04 76 34 3e
       0.19096293 0.07266521 0.09866191 0.17623144
0003e0 97 29 33 3e 97 d2 1c 3e 04 b1 cf bd 56 35 c7 3d
       0.17496334 0.15314709 -0.10141185 0.0972697
0003f0 41 ea 1e 3e 38 02 80 be 9e 2d 3d 3e d5 75 ed 3c
       0.15519048 -0.25001693 0.18474433 0.02898685

bias f4 [32]
000000 fa 68 d0 3e 5b 45 03 3e b0 12 20 be 4f e4 1a be
       0.4070509 0.12819426 -0.15632129 -0.15126155
000010 82 5f f3 be 96 5d 37 be 4f 60 1b 3e d6 04 f8 bd
       -0.47533804 -0.17906794 0.15173458 -0.121102974
000020 8f a3 16 be b1 c1 89 be 7f df 28 be 0f 15 1b 3e
       -0.1471083 -0.26905587 -0.16491507 0.15144752
000030 65 24 3e be a7 db 39 3e b8 da 73 be f7 5d 52 be
       -0.18568571 0.18150197 -0.23813903 -0.20543657
000040 58 90 2f 3e d6 f5 dd 3d 9a fb 21 3e e5 fd 36 3e
       0.17144907 0.10837905 0.15818635 0.1787029
000050 4a 56 8d 3d 7f 95 63 be c1 bf 9e be 3b 25 99 be
       0.06901224 -0.22224997 -0.31005672 -0.29911217
000060 0a 5b 12 be a0 27 67 bd 77 32 50 be b4 f3 c5 3d
       -0.14292541 -0.056434274 -0.20331751 0.09665623
000070 68 15 51 3e c7 4f 83 be 2b a1 21 3d d6 63 5d 3e
       0.20418322 -0.25646803 0.039460342 0.21620116

weight f4 [32, 1]
000000 33 5a 32 3f 15 27 f6 be 43 cb da be 37 d2 d2 be
       0.69668883 -0.48076692 -0.427332 -0.41176006
000010 63 5f 87 be 64 1b 44 3f 15 c2 39 bf ee b2 dd be
       -0.26439962 0.76604295 -0.7256177 -0.43300575
000020 44 50 9b 3d 95 30 0f 3f 29 39 20 3f 4b 3e fa 3e
       0.07583669 0.55933505 0.6258722 0.4887565
000030 6b ba 28 3d d9 03 41 3f 82 3a 31 bf 9b 14 e6 be
       0.041193407 0.75396496 -0.692299 -0.44937596
000040 75 48 11 bf 00 f2 fc 3e a2 2a 0b 3f 92 28 b8 3e
       -0.56751186 0.4940338 0.5436193 0.35968453
000050 4a 09 fd 3e 77 a7 e9 be 8a 37 97 3e 59 20 ab bf
       0.4942115 -0.45635578 0.2953456 -1.3369247
000060 63 e3 11 bf e8 ff 25 3f b2 63 2e bf e6 aa f8 3e
       -0.5698759 0.64843607 -0.6812087 0.48567885
000070 ec dc ef be c4 39 01 bf c1 bb 18 bf c8 80 e5 3e
       -0.46848238 -0.5047877 -0.5966149 0.44824815

bias f4 [32]
000000 c1 bf e8 3a 06 62 ef bd 46 8c ce 3e cc 07 85 3e
       0.0017757342 -0.11688618 0.40341395 0.2598251
000010 d3 5d 7f bd d9 53 06 bd 70 51 07 bc 85 7f e4 bd
       -0.062345337 -0.032794807 -0.008259162 -0.11157135
000020 18 2e 9c bd 70 c1 cd 3d 44 87 83 3d 7e 24 e6 3d
       -0.07625979 0.10046661 0.06422284 0.11237429
000030 c1 a2 b3 bd 7f 6a 03 bd 25 b5 6c bb 09 3f d9 3e
       -0.08771277 -0.032083984 -0.0036118713 0.42430905
000040 08 1f ad 3e cb ae e9 3d 59 34 d7 3d aa 5a cf 3d
       0.33812737 0.11410292 0.105080314 0.10124715
000050 fb 10 e9 3d 85 cd dd 3e cb b6 a0 3d 65 9e 4a 3e
       0.11380192 0.4332086 0.07847365 0.19786985
000060 92 e4 c2 bd fb ca 42 3d 06 51 76 bc ec 6a d4 be
       -0.095162526 0.04755686 -0.015033966 -0.41487825
000070 17 f7 e3 3e e6 35 f6 3e f3 a0 a6 bd 69 91 9b be
       0.44524452 0.48087996 -0.081361674 -0.30384377

weight f4 [64, 32]
000000 ab af 62 bd e4 e8 49 3e ea ee f1 be 6c c2 c4 be
       -0.05534331 0.19717747 -0.4725259 -0.38429582
000010 4f bd 6e 3e 22 6b da 3d 02 fb 99 3c 14 df 54 3e
       0.23314403 0.10664965 0.018796448 0.20788223
000020 a4 3b 86 3e 65 fd 2a be b3 90 02 be ea bc 44 be
       0.26217377 -0.16698225 -0.12750511 -0.1921269
000030 c8 b1 90 3e a2 7a 2a 3d 5a ef 84 3d 54 0c f0 be
       0.28260636 0.041620858 0.06490965 -0.46884406
000040 6a 7f fb be ea c9 43 be 63 c9 31 be be e5 63 be
       -0.49120647 -0.19119993 -0.17361979 -0.22255608
000050 f1 c8 43 be e1 1b e8 be 04 fe 6c be 87 6b 14 3f
       -0.19119622 -0.4533377 -0.23143774 0.57976574
000060 3d 8b 27 3e b9 41 e0 bd 03 28 a1 3d 0d d4 d1 3e
       0.16361709 -0.109500356 0.0786896 0.40982094
000070 03 86 e7 be 11 0f e4 be 9f bf 18 3e 92 73 b8 3f
       -0.4521943 -0.44542745 0.14916848 1.4410269
000080 16 56 30 be 22 cc 3f 3d 09 93 a8 3d 9b c6 8d 3d
       -0.17220339 0.046825536 0.0823117 0.069226466
000090 f7 47 9b 3c 70 be f4 be a6 6c 6c 3e d3 04 1e 3d
       0.018955214 -0.47801542 0.23088321 0.03857882
0000a0 2c 05 04 bc d3 e0 8b bd 77 99 ce bd 1a c7 48 bd
       -0.008057874 -0.06829991 -0.10087865 -0.049018003
0000b0 ed ca b1 bc 4d 47 9c be f2 50 2e 3e b8 e8 a8 3d
       -0.021703208 -0.30523148 0.17023066 0.082475126
0000c0 45 32 47 3f 1b 3c 4c bd 38 13 81 bd 64 8f e3 bc
       0.7781108 -0.04986201 -0.06302494 -0.027778335
0000d0 70 e7 4c bd 99 f3 a0 3d 35 25 ad bc 8a c6 cb 3f
       -0.050025403 0.078589626 -0.021135906 1.5919964
0000e0 3b 88 95 3d 09 7d f0 bd 5c 6e 1e 3e 74 ea 93 bd
       0.073013745 -0.117425986 0.15471786 -0.07222453
0000f0 00 52 a0 3d 1b ae 99 3d 1f d7 ae 3d 4c bc 86 3e
       0.0782814 0.07503911 0.08537125 0.26315534
000100 2a 09 48 be ba a9 76 3e 4b 7b f2 be b8 12 d3 be
       -0.19534746 0.24088183 -0.4735969 -0.4122522
000110 40 77 7e 3e e1 fe 66 be b2 ce 36 3e b2 36 79 3e
       0.24850178 -0.22558166 0.17852286 0.24337271
000120 df e5 88 3e c2 cf 71 be 5e bf 62 be 46 04 7a be
       0.26737878 -0.2361441 -0.22143313 -0.24415693
000130 0f 61 8a 3e 00 b9 3f be 45 d7 3f 3e 9a ef ee be
       0.27027175 -0.18722916 0.18734463 -0.46667176
000140 8b 77 0a bf e6 31 7a be 5d 3a 74 be 15 d5 81 be
       -0.5408866 -0.24433097 -0.23850389 -0.2535788
000150 7e 17 7a be 37 c9 dc be 26 9a 82 be 47 31 b1 bd
       -0.24423024 -0.43122265 -0.2550823 -0.08651977
000160 ff 87 69 3e 8b 25 5c be 17 b9 45 3e e7 fb d4 3e
       0.22805785 -0.21498697 0.19308887 0.41598436
000170 37 9b da be f1 bf d3 be 90 89 63 3e de 38 61 3f
       -0.42696545 -0.41357377 0.22220445 0.879774
000180 81 89 81 be c1 8b c1 3e 03 34 2f bf 51 61 15 bf
       -0.2530022 0.37801936 -0.6843874 -0.5835162
000190 9f 49 d0 3e 64 b9 58 be fc c3 5b 3e ad c4 c5 3e
       0.40681168 -0.21164471 0.21461481 0.38626614
0001a0 a4 df db 3e 5c 0d b6 be c8 5d a3 be a5 33 c1 be
       0.42944062 -0.35557067 -0.31907487 -0.37734714
0001b0 b6 b2 e3 3e 13 5f 3a be e5 37 82 3e 8f 57 2d bf
       0.44472283 -0.1820033 0.2543327 -0.6771173
0001c0 f1 e2 59 bf c9 10 c1 be 91 06 b9 be 9f dd ce be
       -0.8511191 -0.3770812 -0.36137822 -0.40403458
0001d0 5d fc c0 be 4e f9 27 bf 6b 61 d2 be 5e af 1f bc
       -0.37692538 -0.65614784 -0.4108995 -0.009746401
0001e0 d8 d4 b1 3e 5a ef 9a be 4e e7 88 3e ca 14 1c 3f
       0.347327 -0.30260736 0.2673897 0.6096922
0001f0 8f b7 27 bf e9 04 26 bf d2 d4 aa 3e 78 11 f1 3f
       -0.65514463 -0.6485124 0.33365494 1.8833456
000200 f2 35 17 be c8 92 80 3e c4 30 f4 be 5b 34 d8 be
       -0.14766672 0.25111985 -0.47693455 -0.42227444
000210 9a d2 89 3e 48 f8 d0 bd 30 03 f9 3d a0 5d 83 3e
       0.2691849 -0.10203606 0.12158811 0.25657368
000220 62 8f 90 3e f2 bf 6d be bd 30 50 be 51 fe 7d be
       0.28234392 -0.23217753 -0.20331092 -0.24804045
000230 63 52 98 3e aa d0 af bd 37 92 1d 3e d6 02 f5 be
       0.29750356 -0.085847214 0.15387808 -0.47853726
000240 12 75 57 bf e5 f8 7d be a2 2c 72 be 23 80 88 be
       -0.8416301 -0.24801977 -0.23649839 -0.2666026
000250 8d b1 7d be d0 96 ee be e2 84 8a be 68 b0 82 3c
       -0.24774761 -0.46599436 -0.27054507 0.015953258
000260 83 e5 69 3e 08 41 42 be 40 af 28 3e a1 79 de 3e
       0.22841458 -0.1897012 0.16473103 0.4345217
000270 ef 58 ee be cf fb eb be 66 13 5f 3e ac 89 f6 3f
       -0.46552226 -0.46090552 0.21784744 1.9260764
000280 ff d2 af 3d 4c 87 85 bc 34 4e 95 3d 15 fc 0d 3e
       0.08585166 -0.016299866 0.07290307 0.13865693
000290 1b 14 b7 3b 4e fe 3c 3e 69 97 d9 bd f6 4f 29 bc
       0.0055871136 0.18456385 -0.10624582 -0.010334006
0002a0 85 91 8c bb be 50 07 3d 7c be 54 3d d3 d8 a4 3c
       -0.004289808 0.033035986 0.051939473 0.020122921
0002b0 6c f1 8f ba dc f2 0d 3e 92 a1 a2 bd e6 4a 83 3d
       -0.0010981984 0.13862175 -0.07940973 0.0641077
0002c0 d1 cb 25 3e 0b c5 a9 3c fd 7b f3 3c b1 a5 7c 3b
       0.16191031 0.02072384 0.029722208 0.0038550908
0002d0 8f 99 aa 3c 96 a3 9d 3c 81 d4 0d bb 14 3b 15 bf
       0.020825176 0.019243043 -0.0021641555 -0.5829327
0002e0 26 01 06 bd 17 80 77 3d 1d 22 95 bd cd 79 c1 3c
       -0.03271594 0.06042489 -0.07281897 0.02361765
0002f0 db 04 3f 3c 2b 5c fa bb c5 54 22 bd 65 23 92 3f
       0.0116588725 -0.007640382 -0.039631624 1.1417052
000300 3e f8 a0 bd a2 5a e5 3d a7 87 56 be 9c c5 3f be
       -0.078598484 0.111989275 -0.20950185 -0.18727726
000310 57 e3 f1 3d b6 a1 15 be 05 6b a1 3d f6 b0 e8 3d
       0.1181094 -0.14612469 0.078817405 0.113618776
000320 2a ce 04 3e 10 73 d7 bd d1 30 c3 bd 8c 8b e2 bd
       0.1296927 -0.10519993 -0.09530795 -0.11061773
000330 74 fa 04 3e 01 22 9a bd 08 59 a5 3d 31 73 58 be
       0.12986165 -0.07526017 0.08073622 -0.21137692
000340 d0 f0 86 3c a9 c5 e2 bd 91 a4 da bd ce 60 f1 bd
       0.01647225 -0.11072857 -0.1067592 -0.11786042
000350 f4 ba e2 bd 9a 1c 60 be 0e 36 f4 bd ff 0c cb 3e
       -0.11070815 -0.2188591 -0.119243726 0.39658353
000360 fa 94 d4 3d f9 a8 ba bd f4 7a ab 3d ba 7e 71 3e
       0.103799775 -0.0911426 0.08373061 0.23583499
000370 3c 09 61 be c0 6e 5e be ed d1 cc 3d 82 27 a6 3f
       -0.21976179 -0.21721935 0.10000978 1.2980807
000380 c9 6b f2 bd 83 99 20 3e 3c 2a cb be fa 82 b2 be
       -0.11836965 0.1568356 -0.3968066 -0.34865552
000390 1f 3c 29 3e 8f dd 14 be 93 30 e0 3d f4 47 23 3e
       0.1652684 -0.14537643 0.10946765 0.15945417
0003a0 b9 3c 48 3e 57 e4 1b be 19 0c 0f be 8c 51 23 be
       0.19554414 -0.15223823 -0.13969459 -0.15949076
0003b0 77 9e 54 3e 3f cf e9 bd 4a 7c e8 3d 9c 54 c7 be
       0.20763575 -0.11416482 0.11351831 -0.3893174
0003c0 9c 6a 2a bf 87 80 23 be 81 01 1e be 95 e2 2c be
       -0.66568923 -0.15966998 -0.15430261 -0.16883309
0003d0 a4 5c 23 be b9 93 b5 be a0 c6 2e be d5 18 4e be
       -0.15953308 -0.35464266 -0.17067957 -0.2012666
0003e0 47 42 15 3e f8 78 09 be 5e 14 f1 3d 68 a3 aa 3e
       0.14576064 -0.13425052 0.11771463 0.33327794
0003f0 e5 8d b2 be f4 b2 a9 be d1 33 10 3e 27 39 92 3f
       -0.34873882 -0.33144343 0.14082266 1.1423692

bias f4 [64]
000000 48 e0 02 bf f3 cd 2d 3e ea 80 9f be a6 55 2a bf
       -0.51123476 0.16973095 -0.3115304 -0.6653694
000010 c8 f5 02 bf 47 f0 da bd b2 12 8c bd c2 c4 72 be
       -0.5115628 -0.106903605 -0.06839503 -0.2370787
000020 ae 99 00 bf 27 a0 0f bf e3 95 8b 3d b9 44 cc be
       -0.50234497 -0.5610375 0.06815698 -0.3989618
000030 9f 8f 44 be 6f 23 c0 be da e1 b9 3d e4 0c 5b 3e
       -0.19195412 -0.37527034 0.09076281 0.21391636
000040 43 7b 91 be ed 5e ea be 71 0a af be b9 5c 9c 3d
       -0.28414354 -0.45775548 -0.34187654 0.07634873
000050 c2 f2 10 be d5 31 0d bf 57 8f d8 bd c8 4b c9 be
       -0.14155105 -0.5515416 -0.10574215 -0.3931563
000060 69 ec 81 be 3f 1e 53 3e bc bc 2f be ce 8b 72 be
       -0.2537568 0.20617007 -0.1716184 -0.23686144
000070 4f fe 2f 3e 97 f1 aa 3d 82 6b 10 bf d8 8e 22 3e
       0.17186855 0.08346861 -0.56414044 0.15874803
000080 b4 cf 36 bf a1 37 14 bf b6 fb b4 be 18 de 41 3e
       -0.7141068 -0.5789738 -0.3534829 0.18932378
000090 e7 f5 12 bf 27 b4 00 bf 37 9a 52 3e 38 af 76 3e
       -0.5740647 -0.5027489 0.20566641 0.24090278
0000a0 0f 88 1b 3e 37 19 d8 be 7e 17 c3 be 1d 8a c9 bd
       0.15188621 -0.42206737 -0.3810386 -0.09840796
0000b0 fb 7c b1 be 4c 6e ff be 0b 37 4e 3e 5f 99 9a 3d
       -0.34665665 -0.49888837 0.20138185 0.075487845
0000c0 a1 d3 df be 70 11 c1 3d e8 b0 35 bf a4 ec 02 bf
       -0.43716148 0.09427154 -0.7097306 -0.51142335
0000d0 93 f7 07 be b3 d2 0b bf 61 2b cc be d8 e6 37 bf
       -0.13278036 -0.54618376 -0.39876845 -0.71836615
0000e0 e0 de aa be f4 36 0a bf a7 6f 29 3e ec a3 ee be
       -0.33373165 -0.539901 0.16546498 -0.46609437
0000f0 4e b8 16 be 91 94 25 bf 5f 26 14 bf f1 5f 29 bf
       -0.14718744 -0.6467982 -0.5787105 -0.6616202

weight f4 [32, 64]
000000 e9 3c b5 3c 8b f0 82 3e b4 4f 12 be 73 c0 de bd
       0.02212377 0.25574145 -0.14288217 -0.108765505
000010 41 1b 76 bd 45 98 08 3f 70 f3 b5 bd 08 7a af bd
       -0.060084585 0.53357345 -0.08884323 -0.085681975
000020 c0 12 4e bd 26 86 84 bd ea 7b c2 be 65 e5 c0 3d
       -0.05031085 -0.06470899 -0.37985164 0.094187535
000030 b4 e9 13 3f 0c d9 ea bd a8 d0 08 bf fe 99 2a be
       0.5777848 -0.1146718 -0.53443384 -0.16660306
000040 61 d0 c1 3d ed ab f0 bd bc 5a ed 3c 1b 1c 32 bf
       0.09463573 -0.11751542 0.02897393 -0.69574136
000050 d5 b3 6d bd 02 5d 31 bc 1b 24 06 3f e0 ba c5 bd
       -0.05803283 -0.010825397 0.5239884 -0.09654784
000060 69 72 a4 3d f4 28 21 be 3c fa 20 3f 43 f4 8b 3f
       0.080296345 -0.15738279 0.6288183 1.0933918
000070 80 da 77 3e 26 41 ab 3e 45 e4 fd bd d3 3d e3 3d
       0.24204445 0.33448142 -0.123970546 0.110957764
000080 8a de 94 bd 40 b2 16 bd 2b d6 64 3d ab 95 f5 be
       -0.072690085 -0.036791086 0.05586831 -0.4796575
000090 6a 73 fe bd b1 7f 00 be b0 03 f5 bd 0a 54 47 be
       -0.12424357 -0.1254871 -0.11963594 -0.19465652
0000a0 9e f5 65 3d 1a 95 ad 3d 47 d8 aa 3d 4b 22 6f be
       0.056142442 0.084757045 0.08342033 -0.23352925
0000b0 64 0e 01 be fc bf 69 bd 63 3d 3c bd b3 be 08 bf
       -0.12603146 -0.057067856 -0.04595698 -0.53415984
0000c0 eb 71 0d be db e9 b1 3d 9a fa bc bd e1 c0 de 3b
       -0.13812988 0.086871825 -0.09227486 0.0067978953
0000d0 fd 8d 0a 3f 40 b1 a2 bd 4c 7d 9b bc 72 93 e1 bd
       0.54122907 -0.07943964 -0.018980645 -0.11014451
0000e0 7e 8d d3 bd 4f 0d e5 bd 12 be 17 3e 27 b4 f0 bd
       -0.10329722 -0.11184179 0.148186 -0.11753111
0000f0 33 92 7c 3f 5e d8 f8 bd 96 14 c7 bd 17 66 83 bd
       0.9866058 -0.12150644 -0.09720723 -0.064159565
000100 bf 4d 86 bc 50 5b 92 bd 0c 75 97 bd 36 56 82 bd
       -0.016394494 -0.07146323 -0.07395372 -0.063641
000110 f9 13 2e bd 55 90 3f 3d f9 54 36 bd 81 6c 69 bd
       -0.042499516 0.046768505 -0.04451463 -0.056988243
000120 cf 17 48 bd 29 8c 48 bd bb b6 c8 bc d6 56 19 bd
       -0.04885083 -0.048961792 -0.024501195 -0.03743633
000130 02 77 97 3d d2 46 4f bd 78 71 09 bc a7 bf 2c bc
       0.07395746 -0.05060465 -0.008388869 -0.01054374
000140 25 35 38 bd 23 f7 8b bd 15 4c 50 bd df 0d 5e 3c
       -0.044972558 -0.06834247 -0.050853807 0.013553112
000150 d9 12 49 bd e4 2a 3e bd 7b 7e aa 3d e8 86 3f bd
       -0.04909024 -0.046427622 0.083249055 -0.046759516
000160 1a ed 05 bd 6e b9 59 bc 6f f5 10 3e ae 67 90 be
       -0.03269682 -0.013288839 0.14156125 -0.282041
000170 d5 5f ac bd 88 01 27 3d ab e3 9d bd fb 0f af bd
       -0.08416716 0.040772945 -0.0770944 -0.0854797
000180 1d e8 78 bd 98 eb 38 bd 64 ff ec bc de 54 f3 3c
       -0.060768235 -0.045146555 -0.028930373 0.029703554
000190 3c 7e ab bd b5 fc 92 bd 5c 5c db 3b bb c2 85 b9
       -0.08373687 -0.07177106 0.0066943597 -0.00025512822
0001a0 a5 6c ae bd a5 3f 42 bd 87 a6 3a bd 0d 5f 51 bd
       -0.08516816 -0.047423977 -0.04556897 -0.051116038
0001b0 a6 e3 3f bd 07 1d 29 bd 1d c5 fa bc ef 55 4f bc
       -0.04684796 -0.04128745 -0.030611569 -0.0126547655
0001c0 59 60 b4 bd 87 ee 8a 3d ee 7b 7f bd 13 38 28 bd
       -0.08807439 0.06783777 -0.062374048 -0.0410691
0001d0 b3 06 85 3d 19 61 41 bd a8 3f 1b bd e1 d5 83 bd
       0.064954184 -0.04721174 -0.037902504 -0.064372785
0001e0 a8 04 3f bd 05 59 a0 bd c3 39 93 bd 6c 2d 94 bd
       -0.0466353 -0.07829479 -0.071887515 -0.07235226
0001f0 2a 38 88 3e 91 6b a4 bd 49 12 52 bd 62 91 5e bd
       0.2660535 -0.08028329 -0.05128697 -0.054337867
000200 e6 b6 88 3c 51 a8 df bd 41 b1 65 bd 8e 2e 25 bd
       0.016688775 -0.10920776 -0.056077246 -0.0403276
000210 ee cb 90 bc bf 81 58 3d 2d c2 ce bc da b7 15 bd
       -0.017675366 0.05285811 -0.025239075 -0.036552288
000220 86 38 b7 bc ee 49 c1 bc 34 6a 0d bd a5 07 89 bb
       -0.02236582 -0.023594823 -0.03452511 -0.0041818195
000230 68 f3 ab 3d 25 42 fa bc ec 68 4b bc b3 74 89 bd
       0.083960354 -0.030549118 -0.012415152 -0.06711712
000240 1c 4d 25 bc c6 dd 45 bd 4f 16 ab bc aa b4 37 3c
       -0.010089185 -0.048307203 -0.020884661 0.011212507
000250 41 b0 e2 bc fa 7c 86 bc 2b 5e ae 3d 4f f9 c6 bc
       -0.027671935 -0.016417015 0.08514055 -0.024288801
000260 5a 12 b1 b9 df 19 89 bd f5 30 17 3e f2 f3 7f be
       -0.00033773744 -0.06694388 0.1476477 -0.24995402
000270 2d b1 ef bd d2 34 94 3d 05 49 64 bd 44 d9 a8 bd
       -0.117037155 0.07236637 -0.0557337 -0.08244565
000280 8b 9d 06 bd 29 f8 87 bc 40 e1 18 3b ae 5e e5 3d
       -0.03286509 -0.016597824 0.002332762 0.11199699
000290 e9 2a 7d bd 63 fe 49 bd fd 57 42 bd cc b1 4d bd
       -0.0618085 -0.049314868 -0.047447193 -0.05021839
0002a0 33 b2 b2 bd 89 4c 67 bc 77 0a 44 bc 17 04 24 bd
       -0.08725395 -0.0141173685 -0.011965386 -0.040042963
0002b0 35 91 e2 bc 53 88 51 bc 96 3c 9b bd 6e 54 8a bc
       -0.02765713 -0.01278885 -0.07579915 -0.016885962
0002c0 45 db 83 bd 54 83 29 3d cc b0 14 bd 2a e9 2a bc
       -0.06438307 0.04138501 -0.03630142 -0.010431567
0002d0 ff 58 97 3d 31 58 bc bc af 1c 3c bc c1 c5 26 bd
       0.073900215 -0.022991272 -0.011481448 -0.040715937
0002e0 0a 37 d7 bc bd 85 5d bd 94 c9 91 bd b7 1d 55 bd
       -0.026271362 -0.05408262 -0.07118526 -0.05203029
0002f0 59 b7 92 3e 78 db 67 bd ee 18 ee bc 43 82 d3 bc
       0.28655508 -0.056605786 -0.029064622 -0.02581895
000300 3f db 92 3c 12 ab 0f 3c 06 89 1f 3e f3 8a e7 3d
       0.01792681 0.008768814 0.15579614 0.11305799
000310 53 14 8d 3d 21 76 61 be 5a dc d2 3d c6 7d 0e 3e
       0.06888642 -0.22017719 0.10295935 0.13915166
000320 f2 62 83 3d 0c 1b a1 3d fe 7e 1d 3e f9 1f 27 3c
       0.06415357 0.07866487 0.15380475 0.010200494
000330 0a 51 85 be 1c f1 c8 3d c0 e9 04 3e 73 f7 97 3d
       -0.2603839 0.09811613 0.12979794 0.07420244
000340 f5 ac 31 3d ed 2f 09 3e 86 01 5e 3d 35 15 a6 3d
       0.043377835 0.13397188 0.05420067 0.08109514
000350 0c 73 d7 3d 9c 71 50 3d e2 67 88 be c3 74 93 3d
       0.1051999 0.050889596 -0.26641756 0.07200005
000360 e5 61 0e 3d 91 72 6a 3d f6 c7 aa be 73 ae 97 3d
       0.03476133 0.057238165 -0.33355683 0.074063204
000370 65 2f 36 3c c1 5d 6b bf fe ae 0b 3e a6 4e 01 bd
       0.011119698 -0.9193993 0.13640973 -0.031569146
000380 9c be b5 3d 33 fd 76 3d 72 e2 a9 3c 3e eb e3 bd
       0.088742465 0.060300063 0.02073786 -0.11128853
000390 37 fb 11 3e 01 65 fb 3d 93 06 16 3d 6b a8 89 3d
       0.14255987 0.12275124 0.036627363 0.06721576
0003a0 78 c9 06 bd 47 63 e5 3c 3b b8 cb 3c 15 a2 16 3e
       -0.03290698 0.02800144 0.024868121 0.14710267
0003b0 d2 62 d1 3d 70 68 8c 3d 67 85 30 3d 68 58 10 3e
       0.102239266 0.06855857 0.043095972 0.14096224
0003c0 d3 b8 14 3e 91 5c 24 be f0 9a d1 3d 5f 01 27 3d
       0.1452363 -0.16050936 0.1023463 0.040772792
0003d0 1e 0d 79 be 60 8f a8 3d 80 85 72 3d 18 64 e0 3d
       -0.2432141 0.082304716 0.059209347 0.10956591
0003e0 4a b6 ca 3d 85 e9 04 3e e1 1a b3 bb eb 57 0d 3e
       0.0989805 0.12979706 -0.0054658507 0.1380307
0003f0 b3 e3 0f bf 6b 3b 0a 3e eb 47 c7 3d ad 6f aa 3d
       -0.56206816 0.13499229 0.09730514 0.08322082

bias f4 [32]
000000 03 a1 04 3c 6f 01 d7 3d 30 ec a8 3d c3 3b c8 bd
       0.008095029 0.1049832 0.08248174 -0.09777024
000010 81 b6 41 be 35 61 00 be 9e ed 3b be 12 00 9c 3b
       -0.18917276 -0.12537082 -0.18352363 0.0047607506
000020 db bc 19 be 6e 5f 1d be 80 63 20 be fa f3 68 3d
       -0.15013449 -0.15368435 -0.15662956 0.0568733
000030 82 dd 03 be df 83 9d 3e 31 4e 99 be 4c 3b d4 bd
       -0.12877467 0.30764672 -0.29942468 -0.103628725
000040 de 04 67 3e 94 b8 da be e8 bb 84 bc 6d db c2 3e
       0.2256045 -0.42718947 -0.016202882 0.38058034
000050 b2 b9 77 be 55 d4 b1 be 01 27 7a 3e 48 2e 20 3f
       -0.24191931 -0.3473231 0.24428941 0.6257062
000060 76 6d e1 3d ac a1 8b be 3c 98 48 be e2 cd ad 3d
       0.11007206 -0.27271783 -0.19589323 0.08486535
000070 4f d8 43 3e 71 37 e8 3d 19 f4 12 3e 3b 9c b4 bd
       0.19125484 0.113386996 0.14350928 -0.08818861

weight f4 [32, 1]
000000 82 44 ad be 5c e7 5c be a7 aa d4 be 3b 04 db be
       -0.3384133 -0.21572632 -0.41536447 -0.42776665
000010 ab 77 9e 3e 0d 94 c9 3e c7 31 8c 3e ba 44 cb 3e
       0.30950674 0.39370766 0.27381727 0.39700872
000020 01 96 de be 86 46 de 3e e7 6f dd 3e d5 9a b3 3e
       -0.4347382 0.4341318 0.43249437 0.35079065
000030 6a 9c a7 3e 8f 80 25 be 1c ef 9a be 60 df 3c be
       0.32736522 -0.16162322 -0.3026055 -0.18444586
000040 cf 18 ae 3e 13 98 c1 be 70 58 bf be 10 99 aa 3e
       0.34003302 -0.37811336 -0.3737216 0.33319902
000050 e4 01 87 3e 37 32 ba 3e e9 be dd 3e 74 9b ab 3e
       0.2636863 0.36366436 0.43309715 0.3351704
000060 c0 2e 16 be f4 d5 c6 3e a8 30 cb 3e c7 b0 b1 be
       -0.14666271 0.38835108 0.3968556 -0.34705183
000070 32 6a d1 3e 8c b8 dd 3e 73 1e 89 be e6 74 a3 be
       0.40901333 0.4330486 -0.26781043 -0.31925124

bias f4 [32]
000000 fb cf a7 3e cf 5c 4e 3e 13 e0 d4 3e 49 00 d8 3e
       0.32775864 0.20152591 0.41577205 0.42187718
000010 5c 91 a5 be 4b cc cc be c7 f5 6c be 13 36 cf be
       -0.32337463 -0.39999613 -0.23140632 -0.40470943
000020 6b a4 09 3f dc 39 19 bf e4 63 f4 be 9e 7f bb be
       0.53766507 -0.5985391 -0.4773246 -0.36620802
000030 67 a9 b7 be c1 ba 17 3e cf d8 94 3e c4 4d 27 3e
       -0.3587143 0.14817335 0.29071662 0.16338259
000040 28 e7 b5 be 23 b7 bc 3e 80 e9 ba 3e d5 d5 b7 be
       -0.3552792 0.36858472 0.3650627 -0.35905328
000050 6e 2a 94 be 69 72 c8 be 73 63 02 bf 60 cc b2 be
       -0.2893862 -0.39149788 -0.50933 -0.3492155
000060 dc ae 0b 3e c3 ec ca be d4 47 6e 3c 2f 02 ae 3e
       0.13640922 -0.3963376 0.014543492 0.3398604
000070 49 3f b1 be ec cf 03 bf 6d cf 82 3e a6 ad 9f 3e
       -0.34618595 -0.5148914 0.25548878 0.3118717

weight f4 [64, 32]
000000 ef 56 5b bd ba 65 e8 bd b8 df 85 bc ae 3f 56 bc
       -0.053549703 -0.11347528 -0.016342029 -0.013076706
000010 f7 5f 2e 3d 77 e2 2c 3c ff cd 76 3e bc e3 7c 3c
       0.042571988 0.01055204 0.24102019 0.0154351555
000020 cf 6e 69 3b e2 a3 20 bc 93 db 16 3b 16 95 87 3c
       0.0035619026 -0.009804698 0.002301906 0.016550582
000030 8a c9 13 3d 5e 14 02 be 28 75 a4 bd 89 27 03 be
       0.036080875 -0.12703082 -0.08030158 -0.1280805
000040 5a 12 c5 3c f5 04 09 bd b6 4b 0d bd af 50 14 3d
       0.024056602 -0.033451993 -0.03449603 0.03620976
000050 d2 1b 45 3d b7 2f 01 3d de 1f bd ba 55 00 95 3c
       0.048122235 0.031539645 -0.0014429053 0.018188635
000060 7b a3 01 be 9e 83 90 3c f2 cb 84 3e 82 3b 41 bd
       -0.12660019 0.017640885 0.25936848 -0.04717589
000070 d0 27 c9 3d 58 84 0c bb 53 7c c1 bd 93 92 85 bd
       0.09822047 -0.0021441188 -0.09447541 -0.065220974
000080 59 41 25 3d 18 08 f5 3d a4 c5 e5 3b 07 ee 8f 3b
       0.040345524 0.119644344 0.007012086 0.0043923887
000090 99 10 05 bd 54 3c 69 3b 80 52 74 be f1 86 89 bb
       -0.032486532 0.0035588937 -0.23859596 -0.0041969945
0000a0 ea c0 16 bc 67 69 7b 3c d1 75 ba 3b 32 08 16 bc
       -0.009201268 0.015344954 0.0056903143 -0.009157227
0000b0 d3 dc b7 bc 20 f9 15 3e f9 6c 8b 3d 90 fd 11 3e
       -0.022444164 0.14645815 0.06807894 0.14256883
0000c0 27 a1 95 bc 06 31 aa 3c ad a0 b4 3c ee 5f b5 bc
       -0.01826532 0.02077533 0.022049272 -0.02214047
0000d0 a2 c6 15 bd 9f 3f 93 bc ef c2 0e 3c 9e 01 1b bc
       -0.036566384 -0.017974673 0.008713468 -0.009460835
0000e0 8c fa 19 3e 21 f5 d7 bb a5 02 85 be 6b 2a 0e 3d
       0.15036982 -0.006590501 -0.2597858 0.03470842
0000f0 cf 6f 9f bd 4c 16 15 3c 08 06 b9 3d e4 3c 54 3d
       -0.07784998 0.009099554 0.090343535 0.051815882
000100 d3 ba 6c bd e8 8c 04 be 9a 81 cb bc 4f 1d ba bc
       -0.057795357 -0.12944376 -0.024842072 -0.022719054
000110 92 50 5f 3d 29 4e 99 3c 98 6d 50 3e 4a d6 c7 3c
       0.054520197 0.018714027 0.20354307 0.024394173
000120 38 bf 3c bc 5c c4 d1 3b 2f 7f 72 3c 6b 6b f5 3c
       -0.0115201995 0.0064015817 0.014800831 0.029958447
000130 3a e1 39 3d 4c 73 17 be ec b1 af bd bf 0c 17 be
       0.04538081 -0.14790076 -0.08578858 -0.14750956
000140 f7 1e 17 3d 21 90 1c bd 2c 1f 22 bd f9 e5 35 3d
       0.036894765 -0.03822339 -0.03958051 0.044408772
000150 13 e2 88 3d e3 1d 21 3d 73 8b 48 3c 4b 3b 04 3d
       0.06683745 0.039335143 0.012240279 0.03228311
000160 9b 02 19 be 8f 00 d8 3c b9 e9 75 3e 10 87 52 bd
       -0.149424 0.026367454 0.2401494 -0.051398337
000170 4d 0a ef 3d 8e 05 41 3c ca 20 d5 bd f9 64 8d bd
       0.116718866 0.0117811095 -0.10406645 -0.06904025
000180 6d 63 a9 be ae bc cc be fd 14 e3 bd 0a 5f ac bd
       -0.33083668 -0.399877 -0.110879876 -0.08416565
000190 c6 54 46 3e 01 d1 10 3e 31 39 c9 3e c7 04 f1 3d
       0.19368276 0.14142229 0.39301446 0.11768489
0001a0 10 1a d0 3c c1 74 4e bd 1d 1b 3c 3c 74 fd 26 3e
       0.025403053 -0.050404314 0.011481074 0.16307622
0001b0 bf 42 48 3e 58 37 d2 be 1e 10 c8 be 8d 33 ce be
       0.19556712 -0.4105785 -0.39074796 -0.40273705
0001c0 e4 d0 30 3e 31 d4 81 be 5a ad 87 be ed 63 5f 3e
       0.17267185 -0.25357202 -0.26499444 0.21815462
0001d0 bb b4 3e 3e 58 53 3c 3e 5a 13 31 bc 56 eb 28 3e
       0.1862363 0.18391168 -0.010807836 0.16496024
0001e0 88 62 d6 be 44 9e 0b 3e 14 2a d1 3e 6c a9 a1 be
       -0.41872048 0.13634592 0.40852416 -0.3157457
0001f0 1a be ad 3e 8f a9 67 bc 54 74 cf be 14 fc b6 be
       0.33934098 -0.014139547 -0.4051844 -0.35739195
000200 90 e0 3f bd 96 e2 db bd 70 1a 10 bc 6f c3 b8 bb
       -0.04684502 -0.10736577 -0.008795366 -0.005638532
000210 12 7a 14 3d 18 2e b5 3b ae 64 78 3e 4e 85 03 3c
       0.036249228 0.0055291764 0.24257156 0.008027388
000220 98 90 33 3c c4 fc 88 bc ed 1e 96 bb 2b 5c 1e 3c
       0.010959767 -0.01672209 -0.0045813234 0.009665529
000230 6d 05 f0 3c 4b 69 f0 bd 4f 66 99 bd 57 5a f5 bd
       0.029299462 -0.11738833 -0.07490217 -0.119801216
000240 4d 60 90 3c 55 d0 d6 bc bb d2 de bc 89 16 f4 3c
       0.017624045 -0.026222387 -0.027200093 0.029795902
000250 50 09 31 3d e8 ac d9 3c 96 8d 07 bc f2 f0 26 3c
       0.04322177 0.026571706 -0.008273503 0.010189282
000260 32 a8 ed bd 8e 2f 31 3c 77 6f 84 3e 73 f6 25 bd
       -0.11604346 0.010814561 0.2586629 -0.040518235
000270 94 f3 c9 3d bc 55 13 bc a0 43 b7 bd 4b 2c 70 bd
       0.09860912 -0.008992609 -0.08948445 -0.05863599
000280 4c c9 a3 be 8b 9a 11 bf fb 92 ee bd 49 72 d5 bd
       -0.31989515 -0.5687644 -0.11649128 -0.10422189
000290 6f 89 9d 3e 5b 92 d9 3d 29 5f 53 3f ef 66 09 3e
       0.30768916 0.10623618 0.8256708 0.13418172
0002a0 11 fa 4d bd f2 5f 14 3d 7a 10 8a 3d ce 18 60 3e
       -0.05028731 0.036224313 0.06741424 0.21884462
0002b0 a8 05 77 3e ec d5 16 bf b3 fa f2 be 77 95 1d bf
       0.24123251 -0.5892017 -0.47456893 -0.6155619
0002c0 73 4c 65 3e 67 06 49 be b8 29 52 be c9 fd 6f 3e
       0.22392444 -0.19631349 -0.20523727 0.23436655
0002d0 6c 0c b1 3e f7 29 24 3e 2b 80 67 3d 99 9e 83 3e
       0.3457979 0.16031633 0.056518715 0.25706938
0002e0 80 5d 0f bf d1 7e 0d 3e 10 8c a4 3e 6b aa 8f be
       -0.56002045 0.13817908 0.3213811 -0.28059706
0002f0 f4 36 dc 3e 12 b0 60 3d d8 f6 05 bf ff d1 c6 be
       0.43010676 0.054855414 -0.5232978 -0.3883209
000300 ed 99 b4 bb 84 1f 0d 3d bb 53 0a 3a 66 5d 22 3a
       -0.0055115134 0.034453884 0.0005276759 0.0006193727
000310 45 51 5f bc 92 dd cc 3b 93 cd ff be e2 f1 89 3b
       -0.013630216 0.006251999 -0.49961528 0.004209743
000320 bc b8 1c 3b 09 df 0d bb db 3e 65 37 94 8c 15 3c
       0.0023913821 -0.0021647832 1.3664098e-05 0.009127755
000330 1e 8b c7 3b 3d 7e 04 3d 52 e4 40 3c 46 79 3c 3d
       0.006089582 0.032346953 0.011773186 0.046014093
000340 53 af 51 3c 87 62 93 bb c8 47 ae bb 29 27 8d 3b
       0.012798148 -0.0044978294 -0.0053186156 0.004307647
000350 ff 28 09 bd 8e 55 28 3c de e1 28 ba d1 c4 2f 3c
       -0.033486363 0.010274304 -0.0006442348 0.010728077
000360 8e b3 a9 3c f9 03 ca 3b cf 5a de bd ee da f2 bb
       0.020715501 0.0061650244 -0.10857164 -0.0074113524
000370 ab ea 28 be cf 41 3e ba 96 e0 d4 3c fe 52 04 3b
       -0.16495769 -0.0007257731 0.025985997 0.0020191069
000380 ea 42 41 bd c4 17 dd bd da 31 17 bc d8 b7 c4 bb
       -0.047182955 -0.107955486 -0.009228194 -0.006003361
000390 e6 a7 16 3d 29 16 b8 3b 4b 43 77 3e 1b c2 0f 3c
       0.036781214 0.005617876 0.24146764 0.008774306
0003a0 55 5b 28 3c d2 ac 80 bc 87 e2 7d bb 67 99 29 3c
       0.0102756815 -0.015707407 -0.0038739757 0.010351515
0003b0 94 ad f3 3c 43 ea f1 bd 19 c4 99 bd 2f 91 f6 bd
       0.029745854 -0.1181226 -0.07508106 -0.1203941
0003c0 04 8e 97 3c 53 77 d8 bc 13 57 e2 bc 61 b8 f5 3c
       0.018500336 -0.026424086 -0.02762941 0.029995145
0003d0 14 d8 32 3d 27 fb dd 3c ce 87 f7 bb f9 bb 31 3c
       0.0436631 0.027097298 -0.007554031 0.010848039
0003e0 24 2e ef bd 5b 93 3c 3c 6b aa 83 3e e0 60 26 bd
       -0.116787225 0.011509742 0.25715956 -0.04061973
0003f0 45 da c7 3d 16 94 04 bc 98 a3 b7 bd 34 aa 70 bd
       0.097584285 -0.008091947 -0.0896675 -0.05875607

bias f4 [64]
000000 d1 11 27 3e d8 18 4a be 8c 88 51 3e 28 a8 30 3e
       0.1631539 -0.1973604 0.20462245 0.17251647
000010 f1 25 09 3e bb 33 a2 3d 8c 9b 02 bd 90 38 0b 3e
       0.1339338 0.07920023 -0.031886622 0.13595796
000020 b9 9c 3f 3e c7 3c e5 3c 35 b6 f5 3d 96 46 48 be
       0.18712129 0.027983082 0.11997644 -0.19558176
000030 20 db 2e 3e 3f 60 36 3c 2f d6 45 be 4d 60 23 3e
       0.17075777 0.011131345 -0.19319986 0.15954705
000040 c1 27 e3 3d 12 ba 62 be 02 57 49 3d 64 66 0d 3e
       0.11091567 -0.22141293 0.049155243 0.1380859
000050 b0 6b c0 bc ab 55 07 3e 63 0e 57 be 4d f7 12 3e
       -0.02348885 0.13216273 -0.21001582 0.1435215
000060 d3 6f 4c be 82 85 35 3d 42 6c 07 3e 6f d1 49 be
       -0.19964533 0.044316776 0.13224891 -0.19708799
000070 af 19 2d 3e 60 d2 f5 3d 98 87 27 bd b8 94 27 be
       0.16904329 0.120030165 -0.040900797 -0.16365325
000080 4f b5 f7 3d 9e d3 01 3e a3 af 2f 3d 17 98 43 3e
       0.12095129 0.12678382 0.04289211 0.19100986
000090 e1 80 55 3d 06 45 32 3e 8f f1 2a bc a5 db 50 be
       0.05212486 0.17409143 -0.010433569 -0.20396288
0000a0 fd f7 4b be f0 91 33 3e f8 13 fb 3d c8 d7 3b be
       -0.19918819 0.1753614 0.12259668 -0.18344033
0000b0 ef f6 09 3e 9b 68 46 be 28 d6 24 be d1 c1 4a 3e
       0.13473104 -0.19375841 -0.16097319 0.19800498
0000c0 06 bc 42 3e 0e 21 3f 3c 4d 47 05 3e 05 7c 0b 3d
       0.19017038 0.011665596 0.1301548 0.03405382
0000d0 41 28 5d be 81 bb 32 3e 01 8d 3a 3e 0a 94 34 3d
       -0.21597387 0.1745434 0.18217851 0.044086494
0000e0 ca 38 62 be 7d ca 29 be 6d fb e2 bd 9e 36 e1 3d
       -0.22091976 -0.1658115 -0.11083112 0.109967455
0000f0 42 05 3a 3e e2 4a 57 be 27 4e 6a bd 01 ec 59 ba
       0.18166068 -0.2102466 -0.057203438 -0.00083130604
