checkpoints/cahousing_honam2_emb32_0.pt (torch, 177750 bytes, 98 tensors)

weight f4 [32, 1]
0	0x3ef11ac8	0.47090745
1	0x3ed5f6d6	0.41789883
2	0x3ef1cd35	0.47226873
3	0x3ef27500	0.4735489
4	0x3eeff37e	0.46865457
5	0xbef1f430	-0.47256613
6	0xbed56147	-0.4167578
7	0xbee06dc5	-0.43833748
8	0xbea8fb80	-0.3300438
9	0x3f1747c7	0.590939
10	0xbed2376c	-0.4105791
11	0x3ef278c4	0.47357762
12	0x3ef1fc93	0.4726301
13	0x3f153a8c	0.5829246
14	0xbef0e9a0	-0.47053242
15	0xbef00659	-0.46879843
16	0x3ed27640	0.41105843
17	0x3f0d4bae	0.55193603
18	0xbef0feb3	-0.4706932
19	0xbef15eec	-0.47142732
20	0xbecfcbb4	-0.405851
21	0xbec62586	-0.38700503
22	0xbef1423e	-0.4712085
23	0x3ef00025	0.4687511
24	0xbe966719	-0.29375532
25	0x3ef24d7f	0.4732475
26	0x3ef190a7	0.47180673
27	0x3edf81ad	0.43653622
28	0xbed6fece	-0.41991276
29	0xbed1620d	-0.4089512
30	0x3ef00d45	0.46885124
31	0xbeb49215	-0.35267702

bias f4 [32]
0	0xbf0f5ef7	-0.5600428
1	0xbedb38fa	-0.42816907
2	0xbf1a7145	-0.60329086
3	0xbf4f0d7a	-0.8087994
4	0xbf0144cb	-0.50495595
5	0x3f3f9d02	0.7484895
6	0x3ed5de9a	0.41771394
7	0x3ee10ae8	0.43953633
8	0x3e51cb25	0.2048765
9	0xbec11a20	-0.37715244
10	0x3e8315d9	0.25602606
11	0xbf4e6fc1	-0.8063927
12	0xbf1fc3b7	-0.6240801
13	0xbebe6c95	-0.37192217
14	0x3f0c636a	0.54839194
15	0x3f0280e1	0.50977904
16	0xbed75797	-0.42059013
17	0x3d599885	0.05312397
18	0x3f0e5345	0.5559581
19	0x3f5dda1a	0.8666092
20	0x3ec4fb87	0.3847315
21	0x3e76d7a8	0.24105704
22	0x3f152e4a	0.58273757
23	0xbf025eee	-0.509261
24	0x3e7fe0d4	0.24988109
25	0xbf2b60be	-0.6694449
26	0xbf193eec	-0.59861636
27	0xbef21af0	-0.47286177
28	0x3ed7ac39	0.42123583
29	0x3ec68264	0.38771355
30	0xbf032658	-0.5123038
31	0x3eaa9ce8	0.33322835

weight f4 [64, 32]
0	0x3e25a7fd	0.16177364
1	0x3e36db05	0.17856987
2	0x3e2264f9	0.1585883
3	0x3e127d90	0.14305711
4	0x3e27816c	0.16357964
5	0xbe18ba88	-0.14914906
6	0xbe38e7ca	-0.1805717
7	0xbe2ed01c	-0.17071575
8	0xbeb42c0a	-0.3518985
9	0x3e1c062d	0.15236731
10	0xbe9b8728	-0.30376554
11	0x3e12b09b	0.14325182
12	0x3e2096b2	0.15682486
13	0x3dbf8e44	0.09353307
14	0xbe2a5e04	-0.16637427
15	0xbe2bccf3	-0.167774
16	0x3e3b5bff	0.18296812
17	0x3e8c3b81	0.27389148
18	0xbe29c052	-0.1657727
19	0xbe10f4ac	-0.14155835
20	0xbe341352	-0.17585495
21	0xbea35bfb	-0.31906113
22	0xbe276cfc	-0.16350168
23	0x3e279a7b	0.16367523
24	0xbe772d24	-0.24138314
25	0x3e1caade	0.15299556
26	0x3e22aba0	0.15885782
27	0x3e2f6744	0.17129236
28	0xbe36fdbc	-0.1787023
29	0xbe32d6e2	-0.17464784
30	0x3e2775c1	0.16353513
31	0xbe4f348e	-0.20234892
32	0x3cb6492d	0.02225169
33	0x3d5061f8	0.05087468
34	0x3c988211	0.018616708
35	0x3be12254	0.0068705473
36	0x3ce4ffc8	0.027953997
37	0xbc1debfc	-0.009638783
38	0xbd574930	-0.05256003
39	0xbd2c862a	-0.042120136
40	0xbf1c682a	-0.6109644
41	0xbe5efe91	-0.21776797
42	0xbf088c4d	-0.5333908
43	0x3be77cac	0.0070644226
44	0x3c8b342b	0.016992649
45	0xbe468ede	-0.19390437
46	0xbcc3a9bc	-0.023884647
47	0xbce4d140	-0.02793181
48	0x3d63cd81	0.055615906
49	0x3ea5d0fb	0.32386002
50	0xbcbe1a66	-0.023205947
51	0xbb9bbbfe	-0.004752635
52	0xbd8e0a11	-0.06935514
53	0xbf11301a	-0.5671402
54	0xbca8f126	-0.020622801
55	0x3cdfa5b6	0.027300697
56	0xbe0b8d9b	-0.13628237
57	0x3c64432d	0.013932032
58	0x3c9b13d7	0.018930359
59	0x3d1885cb	0.03723697
60	0xbd4fa11d	-0.05069076
61	0xbd8b26be	-0.06794499
62	0x3cdd7a2d	0.027035797
63	0xbdd23db6	-0.10265677
64	0x3e0d05cc	0.13771743
65	0x3e21585d	0.15756364
66	0x3e0b892b	0.13626544
67	0x3e0434cf	0.1291077
68	0x3e0ef015	0.13958772
69	0xbe080ea9	-0.13286842
70	0xbe25c2aa	-0.1618754
71	0xbe1bf53b	-0.15230267
72	0xbeb2b6e7	-0.34905168
73	0x3dd3fde1	0.10351158
74	0xbe9bd981	-0.3043938
75	0x3e044b08	0.12919247
76	0x3e0ac325	0.13551004
77	0x3d819719	0.06327648
78	0xbe10d105	-0.14142235
79	0xbe126c58	-0.14299142
80	0x3e2449e9	0.1604382
81	0x3e7f9d7e	0.24962422
82	0xbe108933	-0.14114837
83	0xbe03efad	-0.12884398
84	0xbe34114b	-0.17584722
85	0xbea2fc41	-0.3183308
86	0xbe0f2dc8	-0.13982308
87	0x3e0ebadf	0.13938473
88	0xbe781ac6	-0.24228963
89	0x3e090992	0.13382557
90	0x3e0b9a6a	0.13633123
91	0x3e177e7d	0.14794345
92	0xbe23d86e	-0.1600053
93	0xbe32dc37	-0.17466818
94	0x3e0ebd3d	0.13939376
95	0xbe4f0260	-0.2021575
96	0x3cc80895	0.024418155
97	0x3cae9884	0.02131296
98	0x3cce4bbd	0.0251826
99	0x3cd10299	0.025513934
100	0x3cb62475	0.022234181
101	0xbcc33962	-0.023831073
102	0xbc8b9af7	-0.017041666
103	0xbc88e988	-0.016712919
104	0x3db5b17b	0.08871742
105	0x3e7d0120	0.2470746
106	0x3da1ba0d	0.078968145
107	0x3cd14aee	0.025548425
108	0x3cd07b83	0.02544952
109	0x3e06b588	0.13155186
110	0xbcb17a54	-0.021664776
111	0xbca31791	-0.019908698
112	0x3cabdac4	0.020978339
113	0xbd4040f1	-0.046936933
114	0xbcb28613	-0.021792447
115	0xbcbf7339	-0.023370372
116	0xbc445697	-0.011983535
117	0x3da8d87d	0.08244417
118	0xbcb931c4	-0.022606738
119	0x3cb7bc80	0.022428751
120	0xbcc2a9f4	-0.02376268
121	0x3cd292bd	0.025704736
122	0x3cceb7f5	0.025234202
123	0x3ca6092c	0.020268045
124	0xbc8c28af	-0.017109243
125	0xbc470752	-0.012147741
126	0x3cb8b788	0.022548452
127	0xbc4780ef	-0.012176736
128	0x3c6716a2	0.014104517
129	0x3c5ab30c	0.013348352
130	0x3c63b4f7	0.013898126
131	0x3c5ba438	0.013405852
132	0x3c673c80	0.014113545
133	0xbbbeb1f6	-0.0058195544
134	0xbb4b36b6	-0.0031007952
135	0xbb8791f4	-0.004137272
136	0x3da6669a	0.081250384
137	0x3f2ae67c	0.6675794
138	0x3d879a2c	0.06621203
139	0x3c5dc7ba	0.013536388
140	0x3c6219f8	0.013800137
141	0x3f13e71f	0.5777454
142	0xbba14600	-0.0049216747
143	0xbb9a53e3	-0.004709707
144	0x3c639377	0.013890139
145	0xbe61a1fb	-0.22034447
146	0xbba316c9	-0.0049770814
147	0xbbc6e192	-0.0060693705
148	0xba0d7794	-0.00053965417
149	0x3d8e2180	0.06939983
150	0xbba82917	-0.0051318514
151	0x3c68ed13	0.014216679
152	0x3cca7790	0.024715215
153	0x3c62619d	0.013817218
154	0x3c6495fd	0.013951776
155	0x3c665ae9	0.014059761
156	0xbb4ed9db	-0.0031562957
157	0xba16ec00	-0.00057572126
158	0x3c6627a1	0.014047534
159	0xb98c6c78	-0.00026783696
160	0x3e5a0aab	0.21293132
161	0x3ea924f1	0.33035997
162	0x3e4431ca	0.19159618
163	0x3e11d8d7	0.14242874
164	0x3e85bd4e	0.2612099
165	0xbe189e60	-0.14904165
166	0xbece27cf	-0.40264747
167	0xbec874cb	-0.39151606
168	0xbea7952e	-0.32731003
169	0x3e5028aa	0.20328012
170	0xbe9cd49b	-0.30630955
171	0x3e1242a1	0.1428323
172	0x3e3c193d	0.18369003
173	0x3e51b1c6	0.20477971
174	0xbe601729	-0.21883835
175	0xbe823ad6	-0.25435513
176	0x3eae46bf	0.3403835
177	0x3ed9e55b	0.42557797
178	0xbe5ab582	-0.21358302
179	0xbe06bc81	-0.13157846
180	0xbe636c29	-0.22209229
181	0xbe9fc909	-0.31208065
182	0xbe4b0663	-0.19826655
183	0x3e82d48f	0.25552794
184	0xbe8b8a11	-0.27253774
185	0x3e2dbede	0.16967341
186	0x3e45fbda	0.19334355
187	0x3e921070	0.28528166
188	0xbecd25fe	-0.40068048
189	0xbe6215ea	-0.22078672
190	0x3e8102af	0.2519736
191	0xbe77fb1b	-0.24216883
192	0x3c966ae3	0.018361514
193	0x3d4fe649	0.050756726
194	0x3c624633	0.013810682
195	0xb98010a7	-0.0002442647
196	0x3cd08969	0.025456147
197	0xbb5c6f12	-0.003363554
198	0xbd5cfbb1	-0.05395097
199	0xbd2e1e18	-0.04250917
200	0xbf206810	-0.62658787
201	0xbe8fc481	-0.28079608
202	0xbf141465	-0.5784362
203	0xb8b61943	-8.683142e-05
204	0x3c45a791	0.012063877
205	0xbe79b8b2	-0.24386862
206	0xbca8a9ad	-0.02058872
207	0xbcd1ee30	-0.025626272
208	0x3d64a7f6	0.055824243
209	0x3ebe5daa	0.37180835
210	0xbca0901a	-0.019599963
211	0x3b28c1dd	0.0025750317
212	0xbd972547	-0.07380157
213	0xbf1ad0f8	-0.6047511
214	0xbc874838	-0.016513929
215	0x3ccb3d2b	0.02480944
216	0xbe28a008	-0.16467297
217	0x3c064e58	0.00819739
218	0x3c6aa2b9	0.014321023
219	0x3d13d614	0.036092833
220	0xbd541450	-0.051777184
221	0xbd93fa66	-0.07225494
222	0x3cc79d63	0.02436704
223	0xbde0c8fe	-0.10975836
224	0x3e622b5a	0.2208685
225	0x3e957554	0.29191077
226	0x3e53d212	0.20685604
227	0x3e25c705	0.16189201
228	0x3e7646e0	0.24050474
229	0xbe31dbb7	-0.17368971
230	0xbe99ecb9	-0.30063418
231	0xbe8d63f2	-0.27615315
232	0xbef1746f	-0.47159144
233	0x3e84c6e9	0.25933006
234	0xbee2abba	-0.44271642
235	0x3e264098	0.16235578
236	0x3e4d8dab	0.20073573
237	0x3e69dcc1	0.22838117
238	0xbe6b4b2d	-0.22977896
239	0xbe7a5b2c	-0.24448842
240	0x3e99c0ce	0.3002991
241	0x3ea52475	0.32254377
242	0xbe685b47	-0.2269107
243	0xbe1eb1e7	-0.15497552
244	0xbea76878	-0.3269689
245	0xbee6365c	-0.44963348
246	0xbe5e38a5	-0.21701296
247	0x3e74b172	0.23895815
248	0xbeddd9c1	-0.43330196
249	0x3e413d38	0.1887101
250	0x3e54fb0c	0.20798892
251	0x3e812a8a	0.25227767
252	0xbe97baf5	-0.29634824
253	0xbea5c5f8	-0.323776
254	0x3e738be6	0.23783836
255	0xbebc8684	-0.36821377

bias f4 [64]
0	0xbdb4c44b	-0.088265024
1	0x3e3ddec7	0.18542014
2	0xbda1de6d	-0.079037525
3	0xbd54282e	-0.05179613
4	0xbe2245f5	-0.15846999
5	0xbe141a46	-0.14463148
6	0x3e2bce07	0.16777812
7	0xbd80ccd3	-0.06289067
8	0xbdb7dd06	-0.08977704
9	0xbd1d5364	-0.038409606
10	0xbe050036	-0.12988362
11	0xbd91918f	-0.07107841
12	0xbd3ead3f	-0.04655194
13	0x3e1935d9	0.14961948
14	0x3e379c43	0.17930703
15	0x3e1ed0cc	0.15509337
16	0x3e77c7e0	0.2419734
17	0xbe43af44	-0.19109827
18	0xbde6406d	-0.11242757
19	0xbd5845c8	-0.052800924
20	0xbee4ccf4	-0.44687617
21	0xbd4a0742	-0.049323328
22	0xbdd96b79	-0.10616202
23	0x3e166c16	0.14689669
24	0x3e37fe64	0.17968136
25	0xbe1215ce	-0.1426613
26	0x3e3f857c	0.18703264
27	0xbcbfc515	-0.023409406
28	0x3b41b8e9	0.0029559678
29	0x3e394a1d	0.18094678
30	0xbdf5bdaf	-0.1199907
31	0xbdf4207a	-0.11920257
32	0xbdc0a766	-0.09406929
33	0xbdbd582c	-0.09245333
34	0xbd959047	-0.07302909
35	0xbd6697f3	-0.056297254
36	0xbd1f1a8b	-0.038843673
37	0x3d56f2f0	0.052477777
38	0x3e2f71b5	0.1713322
39	0x3e3dd9b8	0.18540084
40	0x3e1f2ac5	0.15543659
41	0xbd8abde4	-0.067745
42	0x38aac982	8.1437654e-05
43	0xbe151f4d	-0.14562722
44	0xbd1faf19	-0.038985346
45	0xbe46a487	-0.193987
46	0xbddd9b7a	-0.108206704
47	0xbde7d796	-0.11320417
48	0x3e785dec	0.24254578
49	0xbdb9f345	-0.09079603
50	0xbe0ba670	-0.1363771
51	0xbd95be20	-0.07311654
52	0xbe2102c0	-0.15723705
53	0xbdd0c90f	-0.10194599
54	0x3c302570	0.010751113
55	0xbd8cd948	-0.068773806
56	0xbdcc7b99	-0.09984512
57	0x3d9f47cf	0.07777368
58	0xbe24567b	-0.16048615
59	0xbe13c3a1	-0.14430095
60	0x3e04316e	0.12909481
61	0xbd5f44e3	-0.054509055
62	0xbd98a657	-0.07453602
63	0x3e0950b6	0.13409695

weight f4 [32, 64]
0	0xbd47e0da	-0.04879842
1	0x3d3395ba	0.043843962
2	0xbd34dac8	-0.04415396
3	0x3c770f9b	0.015079404
4	0x3c6196a3	0.013768825
5	0x3cff058e	0.031130578
6	0x3d7cfdea	0.06176559
7	0x3d0190c6	0.031632207
8	0x3d4e705b	0.05040012
9	0xbcc70c13	-0.02429775
10	0x3c5281c4	0.012848321
11	0x3d44a57a	0.048009373
12	0x3d525ba5	0.05135693
13	0x3da0b83f	0.07847642
14	0x3d5878a5	0.05284943
15	0x3d7108c1	0.05884624
16	0x3dca886a	0.098893
17	0xbbdb3d46	-0.006690654
18	0xbd28d61d	-0.04121982
19	0xbd3b8203	-0.045778286
20	0x3e82b60c	0.25529516
21	0xbbf16f61	-0.0073680137
22	0x3d0f0e0e	0.034925513
23	0x3dc6362d	0.09678302
24	0x3d52b67c	0.051443562
25	0x3ca2afe6	0.019859266
26	0x3d8106d5	0.06300131
27	0xbc2bd994	-0.010488886
28	0x3d861ffb	0.065490685
29	0x3d360097	0.044434156
30	0x3c3f9b21	0.0116947
31	0xbdb26573	-0.08710756
32	0xbdfec3aa	-0.12439664
33	0x3d76afe5	0.06022634
34	0xbd1cec6d	-0.03831141
35	0x3c9fa762	0.019488994
36	0x3d86fd04	0.06591228
37	0xbe857edf	-0.26073357
38	0x3d66058a	0.056157626
39	0x3da33e36	0.0797085
40	0x3db697f6	0.08915703
41	0xbd32e979	-0.043679688
42	0xbe9212e8	-0.2853005
43	0xbd2e1f67	-0.042510416
44	0x3d356e71	0.04429478
45	0xbcf91ec7	-0.030410184
46	0xbce49d02	-0.027906898
47	0xbc954926	-0.018223356
48	0xbd3f6054	-0.046722725
49	0x3d101031	0.03517169
50	0xbd44e97e	-0.048074238
51	0xbd1c7a26	-0.038202427
52	0x3cda034f	0.026612906
53	0xbd2a032b	-0.041506927
54	0xbee24f1f	-0.4420099
55	0x3d819402	0.063270584
56	0x3d74481b	0.059639078
57	0xbed99891	-0.4249921
58	0xbbcab59d	-0.006186201
59	0xbc90786a	-0.017635543
60	0xbf99c883	-1.2014316
61	0xbd100a5f	-0.03516614
62	0x3cddcb04	0.027074344
63	0x3d2f70bf	0.042832132
64	0xbdbf6b26	-0.09346609
65	0x3df9aa88	0.121907294
66	0xbdcb1655	-0.09916369
67	0xbcb641a0	-0.02224809
68	0xb981fda1	-0.00024793766
69	0xbd5bfe51	-0.053709332
70	0x3dd4134b	0.10355242
71	0xbe08a276	-0.13343224
72	0xbdbf169e	-0.09330486
73	0x3ca400b2	0.020019863
74	0xbb03e910	-0.002012793
75	0xbdf1e4b8	-0.11811203
76	0xbdd3167c	-0.10307023
77	0x3e1ed516	0.15510973
78	0x3df49b6f	0.11943709
79	0x3dde398c	0.1085082
80	0x3d0052fd	0.031329144
81	0x3d3afdde	0.045652263
82	0xbddfc2af	-0.10925805
83	0xbdb022e0	-0.08600402
84	0x3f24558d	0.6419304
85	0xbce7293c	-0.028217904
86	0xbdc5944e	-0.096474275
87	0x3e07c8fb	0.13260262
88	0x3e092238	0.1339196
89	0x3bff9d12	0.0078007067
90	0x3dfa8840	0.12233019
91	0xbdf3f773	-0.119124316
92	0x3de0c3c5	0.1097484
93	0x3d83f7d8	0.06443757
94	0xbd538a56	-0.0516456
95	0xbe1d7f6a	-0.15380636
96	0xbe2ea8f8	-0.17056644
97	0xbdecea6b	-0.11568149
98	0xbda97549	-0.082743235
99	0xbc5121e0	-0.012764424
100	0x3de35e03	0.11101916
101	0x3e031cec	0.12804002
102	0x3dea1e1a	0.11431523
103	0x3e199ba8	0.15000784
104	0x3e1f712f	0.1557052
105	0xbdd8768f	-0.10569488
106	0xbe42266f	-0.18959974
107	0xbdec113c	-0.11526725
108	0xbd9ff23c	-0.078098744
109	0xbdd13462	-0.10215069
110	0xbe1017e3	-0.14071612
111	0xbde4a6a0	-0.11164594
112	0xbc0f1e92	-0.008735316
113	0xbdd7f935	-0.10545579
114	0xbddf37f7	-0.10899346
115	0xbdbd4a96	-0.09242742
116	0x3c2e6ed2	0.010646539
117	0xbdd23c00	-0.1026535
118	0xbe673486	-0.2257863
119	0x3bf08ab7	0.007340755
120	0xbc94b8e3	-0.018154567
121	0xbe718a84	-0.23587996
122	0x3ca5e8d6	0.020252626
123	0xbdb7fc16	-0.089836285
124	0x3ec310d2	0.3809877
125	0xbcd6f4d4	-0.02623979
126	0xbe203d60	-0.15648413
127	0x3e0cb4bc	0.1374082
128	0xbdfae1db	-0.1225011
129	0xbd8b9ab6	-0.06816618
130	0xbdec5bec	-0.1154097
131	0xbcc51d06	-0.024061691
132	0xbcf47b6b	-0.029844007
133	0xbd8d17b4	-0.06889287
134	0xbd6c9f92	-0.057769366
135	0xbd862927	-0.06550818
136	0xbd8a16c7	-0.06742626
137	0xbdcbb4a9	-0.099465676
138	0xbcc63b57	-0.024198217
139	0xbd6b30e3	-0.05741967
140	0xbcf7764b	-0.030207774
141	0xbd4b67f7	-0.049659695
142	0xbd8b080e	-0.06788646
143	0xbd8729e8	-0.0659979
144	0xbcdc6baa	-0.026906807
145	0xbcfb9991	-0.030712875
146	0xbde917cf	-0.11381494
147	0xbdec9a16	-0.11552827
148	0x3d370a10	0.04468733
149	0xbdb94f92	-0.0904838
150	0xbd7d91f3	-0.061906766
151	0xbd2d9e53	-0.042387318
152	0xbd91859b	-0.07105561
153	0xbc0d08d4	-0.008608062
154	0xbd86e7fa	-0.06587215
155	0xbdb26937	-0.087114744
156	0x3e095a9c	0.13413471
157	0xbd76f610	-0.060293257
158	0xbd0b0d6b	-0.033948343
159	0xbdcc8076	-0.099854395
160	0xbdc5a2db	-0.09650203
161	0xbd7701fd	-0.06030463
162	0xbddb4e3e	-0.10708283
163	0xbd20d97c	-0.03926991
164	0x3e0cada5	0.13738115
165	0xbe5d1fbc	-0.21594137
166	0xbd85439e	-0.065070376
167	0xbd56a7fa	-0.05240629
168	0xbd4e24d6	-0.0503281
169	0xbdf16464	-0.11786726
170	0xbddf5333	-0.10904541
171	0xbde5b1ba	-0.11215539
172	0xbd8d4256	-0.06897418
173	0xbdce6bfb	-0.100791894
174	0xbdcf9896	-0.10136525
175	0xbdc91731	-0.098188765
176	0xbc1e1883	-0.009649399
177	0xbd8e1a4d	-0.0693861
178	0xbdefbb64	-0.11705664
179	0xbdda855d	-0.10669968
180	0xbcdc6b91	-0.02690676
181	0xbdef8642	-0.116955295
182	0xbdb7d9f2	-0.08977117
183	0xbd7f7088	-0.062363178
184	0xbd7891a0	-0.060685754
185	0xbd80258f	-0.06257164
186	0xbd4d8be8	-0.050182253
187	0xbdc8f0f4	-0.09811583
188	0xbf0e2580	-0.5552597
189	0xbdd556b4	-0.10416928
190	0xbd6e27c0	-0.058143377
191	0xbd9c5b89	-0.076346464
192	0xbd383489	-0.044971976
193	0x3e0039b9	0.1252202
194	0xbd1597c9	-0.036521707
195	0x3c588f42	0.013217749
196	0x3d6052c3	0.054766428
197	0xbd00b54e	-0.031422906
198	0x3dcc5bd6	0.09978454
199	0xbd871e77	-0.065976076
200	0xbd06839d	-0.03284036
201	0x3c553305	0.013012652
202	0x3d311daa	0.04324118
203	0xbd5b27e5	-0.053504843
204	0xbd64605a	-0.05575595
205	0x3e118566	0.14211044
206	0x3df1751a	0.117899135
207	0x3ddc3963	0.10753133
208	0x3d1c9dcd	0.038236428
209	0x3db6b82a	0.08921845
210	0xbd73ddc9	-0.059537683
211	0xbd18f9a5	-0.037347455
212	0x3f0bb2c6	0.5456966
213	0xbc844518	-0.016146228
214	0xbcaa049a	-0.020754147
215	0x3df09bdb	0.11748477
216	0x3e08bd75	0.13353522
217	0x3d482054	0.048858956
218	0x3dec8d72	0.11550416
219	0xbd435249	-0.047685895
220	0x3d78fb62	0.060786612
221	0x3d641612	0.05568511
222	0x3b1551aa	0.0022784271
223	0xbe1eb012	-0.15496853
224	0xbe558626	-0.20851955
225	0xbd5ca66a	-0.053869642
226	0xbcd7822a	-0.026307184
227	0x3d44c864	0.04804267
228	0x3d866ed8	0.065641105
229	0xbdefa4f4	-0.11701384
230	0x3de5e68c	0.11225614
231	0x3e018cd0	0.12651372
232	0x3e09b7e0	0.13449049
233	0xbd40ccda	-0.04707036
234	0xbe840223	-0.2578288
235	0xbd87b882	-0.06626989
236	0xbd3b2fa3	-0.045699727
237	0xbd5163cd	-0.051120568
238	0xbdbf131e	-0.09329818
239	0xbd5696d9	-0.052389953
240	0xbda592bd	-0.08084629
241	0xbd45a859	-0.048256252
242	0xbd7d37ed	-0.061820913
243	0xbd013d79	-0.031552766
244	0x3d9243b1	0.07141817
245	0xbd6e8578	-0.058232754
246	0xbe9c047b	-0.30472168
247	0x3bb1f816	0.0054311855
248	0xbc46261c	-0.012094047
249	0xbe9d793a	-0.3075655
250	0x3da39b3e	0.079885945
251	0xbd5ee347	-0.054415967
252	0x3e9d2d5d	0.30698672
253	0xbba77479	-0.00511032
254	0xbdaf3638	-0.08555263
255	0x3e16308d	0.14666958

bias f4 [32]
0	0x3ddb774c	0.107161134
1	0x3e0d18bf	0.13778971
2	0x3e5e23be	0.21693322
3	0x3dcc2440	0.09967852
4	0xbca4b210	-0.020104438
5	0x3e04a37c	0.1295299
6	0xbdd66142	-0.10467769
7	0x3d1f9b78	0.038966626
8	0x3cc99e0f	0.024611501
9	0x3dc4ac6c	0.09603199
10	0xbe5b50b2	-0.21417502
11	0xbd860c40	-0.06545305
12	0xbe1fd6e3	-0.15609317
13	0x3d9ebd7d	0.07750986
14	0xbd3cd9a5	-0.046106
15	0xbe277568	-0.1635338
16	0x3d30530a	0.043047942
17	0x3d56b248	0.052416116
18	0x3c6b6b48	0.01436884
19	0x3e05da1e	0.13071486
20	0x3dec98be	0.11552571
21	0xbdea35c9	-0.1143604
22	0xbdfeec53	-0.12447419
23	0xbe0d954f	-0.13826488
24	0xbda55f90	-0.08074868
25	0x3e8dff3d	0.27733794
26	0x3d3165f0	0.043310106
27	0x3c7edb00	0.015555143
28	0xbe2bcc11	-0.16777064
29	0xbe9dc38c	-0.30813253
30	0xbe23b402	-0.15986636
31	0xbdac8e76	-0.0842561

weight f4 [32, 1]
0	0xbe57448d	-0.21022244
1	0x3e611065	0.2197891
2	0x3e80d261	0.25160506
3	0x3e7c7c55	0.24656804
4	0x3e81e36a	0.25368816
5	0x3f20d47b	0.6282422
6	0xbf0ea4fc	-0.55720496
7	0x3e5df02b	0.21673648
8	0xbf09fc84	-0.53900933
9	0x3eb389c8	0.35066056
10	0xbf8aef34	-1.0854249
11	0x3e805a0d	0.25068703
12	0x3e45f796	0.19332728
13	0x3f0610cf	0.523694
14	0x3f0a7194	0.54079556
15	0xbef5e6db	-0.4802769
16	0x3e7cadcd	0.24675675
17	0x3f019990	0.5062494
18	0xbecd1e12	-0.40062004
19	0x3e71c74e	0.23611185
20	0xbe56ee4b	-0.20989339
21	0x3f03aaca	0.5143248
22	0xbf11a950	-0.56898975
23	0x3f140835	0.5782502
24	0xbe52dc2e	-0.20591804
25	0x3e6ec3eb	0.23316924
26	0xbf0fd014	-0.5617688
27	0xbf040953	-0.5157673
28	0x3e5eaea5	0.21746309
29	0xbe55c8ed	-0.20877428
30	0x3e632d55	0.22185262
31	0xbefe0822	-0.4961558

bias f4 [32]
0	0x3f3ced0c	0.73799205
1	0x3e2baf3b	0.16766064
2	0xbf130bf1	-0.57440096
3	0xbf1e7949	-0.61903816
4	0xbf0bab36	-0.5455812
5	0xbdb86b97	-0.09004896
6	0xbd5a1ffa	-0.05325315
7	0xbf543a2f	-0.8290128
8	0xbdd6d8af	-0.10490548
9	0x3e747645	0.23873241
10	0x3e85cff1	0.2613521
11	0xbf140723	-0.5782339
12	0xbdc9adb0	-0.098475814
13	0x3e3b5ff5	0.18298323
14	0x3e0d2ef3	0.13787441
15	0xbe4a8c84	-0.19780165
16	0xbf1d0d19	-0.6134811
17	0x3e5ed8c6	0.2176238
18	0xbe519cd0	-0.20469975
19	0xbf32adba	-0.69796336
20	0x3f31bd90	0.69429874
21	0x3e4fad34	0.20280915
22	0xbc7940d4	-0.01521321
23	0x3a5d4383	0.0008440541
24	0x3ef3c441	0.47610667
25	0xbf374f7c	-0.7160566
26	0xbd1fb4f2	-0.038990922
27	0xbe1d8fd8	-0.15386903
28	0xbf528efa	-0.82249415
29	0x3f10c0fa	0.5654446
30	0xbf4a31c2	-0.78982174
31	0xbe3b0346	-0.18262967

weight f4 [64, 32]
0	0xbd4a2271	-0.049349252
1	0x3ca79f87	0.02046181
2	0x3d5eac5a	0.054363586
3	0x3d69fc82	0.057125576
4	0x3d55966d	0.05214541
5	0x3f01dee6	0.5073074
6	0xbe40143a	-0.18757716
7	0x3d88084a	0.06642206
8	0xbe11622f	-0.1419761
9	0x3cfb5310	0.030679256
10	0xbf15bc7b	-0.58490723
11	0x3d5f1e8d	0.054472495
12	0xbb359026	-0.0027704327
13	0x3ddd44eb	0.10804161
14	0x3e0c116a	0.13678518
15	0xbd971e73	-0.073788546
16	0x3d67fa3d	0.05663513
17	0x3db3c83a	0.087784246
18	0xbd2dbf1f	-0.042418595
19	0x3d7ab10f	0.061204012
20	0xbd3d53cd	-0.046222497
21	0x3dc5212d	0.096254684
22	0xbe6adfdd	-0.2293696
23	0x3e884f42	0.2662297
24	0xbce642b2	-0.028107975
25	0x3d7d9586	0.061910175
26	0xbe4f11cc	-0.20221633
27	0xbdd84c98	-0.10561484
28	0x3d87b47a	0.0662622
29	0xbd130cb3	-0.035900783
30	0x3d852bdf	0.06502508
31	0xbdaf1358	-0.085486114
32	0xbd3dbf3c	-0.046324953
33	0xbd172817	-0.036903467
34	0x3d501fb7	0.050811496
35	0x3d4c29ca	0.04984454
36	0x3d51654e	0.051122002
37	0xbebe5da1	-0.37180808
38	0x3d35777d	0.044303406
39	0x3d3ac4aa	0.04559771
40	0x3d3393fb	0.043842297
41	0xbd1ec50d	-0.03876214
42	0xbf6fe9c9	-0.937161
43	0x3d4f8515	0.050664026
44	0x3dc0d85e	0.09416269
45	0xbd311d24	-0.04324068
46	0xbd3531b4	-0.044236854
47	0x3d2b5fb0	0.0418393
48	0x3d4ccf9e	0.050002687
49	0xbd2d1ddb	-0.0422648
50	0x3d2475ab	0.04015128
51	0x3d450855	0.04810365
52	0xbd3ee6de	-0.04660689
53	0xbd2ef310	-0.04271227
54	0x3d333ef9	0.043761227
55	0xbd355271	-0.044268075
56	0xbd3be52c	-0.045872852
57	0x3d42fa37	0.047601905
58	0x3d34ee9b	0.044172864
59	0x3d2f93f9	0.042865727
60	0x3d3ae3da	0.045627452
61	0xbd406000	-0.046966553
62	0x3d3d3e64	0.04620208
63	0x3d2d66aa	0.042334236
64	0xbdf72c54	-0.12069002
65	0xbd8e12bf	-0.06937169
66	0x3e0110ad	0.12604018
67	0x3e036b8f	0.12833999
68	0x3dfe4db9	0.12417168
69	0x3db18ba4	0.086692125
70	0xbcc68d8c	-0.024237417
71	0x3e08f320	0.13373995
72	0x3b9834af	0.0046449522
73	0xbd882fd2	-0.06649746
74	0xbf72ff4f	-0.9492082
75	0x3e01515c	0.12628692
76	0x3da9ea1f	0.08296608
77	0xbcc8617b	-0.024460545
78	0xbbe32474	-0.006931836
79	0x3d39555b	0.045247417
80	0x3e033f17	0.12817036
81	0xbd14d117	-0.036332216
82	0x3d7dbde9	0.06194869
83	0x3e067eea	0.13134351
84	0xbdf2435c	-0.11829254
85	0xbd00ee1f	-0.03147709
86	0xbd544037	-0.051819053
87	0x3da388d5	0.07985083
88	0xbdd2b515	-0.10288445
89	0x3e06f787	0.13180362
90	0xbd0a2e9a	-0.03373585
91	0x3cdadbe2	0.026716176
92	0x3e08e0a2	0.1336694
93	0xbde12a57	-0.10994404
94	0x3e087362	0.13325265
95	0x3d1e1eec	0.03860371
96	0x3d3b71e2	0.045762904
97	0x3dae345d	0.08506081
98	0xbd1aad0d	-0.03776269
99	0xbd1b3c21	-0.03789914
100	0xbd1b0b25	-0.037852425
101	0x3eb27d57	0.34861252
102	0xbe3d471e	-0.1848416
103	0xbd1d1385	-0.038348693
104	0xbe1f9c0f	-0.15586875
105	0x3dbe88fc	0.093034714
106	0xbf88cba5	-1.0687147
107	0xbd1bb18d	-0.038011122
108	0xbea34ff7	-0.31896946
109	0x3e0e1994	0.13876945
110	0x3e2007e7	0.15628015
111	0xbdebdae9	-0.11516363
112	0xbd1b4a5d	-0.037912715
113	0x3e01db63	0.12681346
114	0xbdc696fb	-0.09696766
115	0xbd1ca656	-0.038244568
116	0x3d3de409	0.04636005
117	0x3e06eca0	0.13176203
118	0xbe59bf13	-0.21264295
119	0x3e7691c6	0.24079046
120	0x3d4ee193	0.050508093
121	0xbd1caed8	-0.03825268
122	0xbe471a52	-0.19443634
123	0xbe091888	-0.13388264
124	0xbd1d12bd	-0.03834795
125	0x3d473469	0.048633967
126	0xbd1d8e81	-0.03846598
127	0xbdf9b2a1	-0.12192274
128	0xbc978587	-0.018496288
129	0xbd0c4408	-0.034244567
130	0x3cafc9d7	0.02145855
131	0x3ca7856d	0.020449365
132	0x3cb450e6	0.022011232
133	0xbec9226d	-0.39284077
134	0x3d9ff7f2	0.07810964
135	0x3c8e142a	0.0173436
136	0x3d850ba9	0.064963646
137	0xbd10242a	-0.03519074
138	0xbe92ddb7	-0.2868478
139	0x3caefea8	0.021361664
140	0x3e9bf47f	0.30459973
141	0xbd55ec9d	-0.052227605
142	0xbd7513b5	-0.059833247
143	0x3d423ecc	0.04742317
144	0x3ca99b90	0.02070406
145	0xbd4166e8	-0.04721728
146	0x3d275207	0.04084971
147	0x3c9d1b5f	0.01917809
148	0xbc9d4784	-0.01919914
149	0xbd49e54c	-0.04929094
150	0x3dbafb6b	0.091299854
151	0xbdcbbf77	-0.099486284
152	0xbcaf954b	-0.021433493
153	0x3c9b910f	0.018990068
154	0x3da95b0b	0.08269318
155	0x3d622ba6	0.055217408
156	0x3c8fb371	0.017541619
157	0xbca9e1e7	-0.020737601
158	0x3c921247	0.017830981
159	0x3d4d36c6	0.050101064
160	0xbc914987	-0.017735256
161	0x3d284d84	0.04108955
162	0x3ce1cfbf	0.027564881
163	0x3ce9d38c	0.028543256
164	0x3cd81dfa	0.026381481
165	0x3edfbf87	0.4370081
166	0xbe25ce4b	-0.16191976
167	0x3cf6cffb	0.03012847
168	0xbe02858c	-0.12746257
169	0x3d4b6de3	0.049665343
170	0xbe4fdf49	-0.2030002
171	0x3ce12adf	0.027486263
172	0xbd760347	-0.06006172
173	0x3dda32a3	0.106541894
174	0x3e02f1fd	0.12787624
175	0xbd9e97c6	-0.07743792
176	0x3ce76abd	0.028249139
177	0x3dbb9162	0.09158589
178	0xbd6060d9	-0.05477986
179	0x3cf10de7	0.029425574
180	0xbc822f5e	-0.015891727
181	0x3dc86ae3	0.09786012
182	0xbe470a8e	-0.1943762
183	0x3e698256	0.22803625
184	0xbb424480	-0.002964288
185	0x3cf31373	0.02967236
186	0xbe317bb5	-0.17332347
187	0xbdce1ef6	-0.10064499
188	0x3cf60b5e	0.030034717
189	0xbc160719	-0.009156966
190	0x3cf44698	0.029818818
191	0xbdb007f7	-0.08595269
192	0xbd4c07f5	-0.049812276
193	0xbd375772	-0.04476113
194	0x3d5db84d	0.05413084
195	0x3d59ece6	0.05320444
196	0x3d5f25ce	0.054479413
197	0xbed8086c	-0.42193925
198	0x3d935f8e	0.0719596
199	0x3d471b2c	0.048609897
200	0x3d851ba9	0.064994164
201	0xbd438220	-0.04773152
202	0xbf4ce3a4	-0.8003485
203	0x3d5d3a66	0.05401077
204	0x3dca569c	0.09879801
205	0xbd7b2ab9	-0.06132004
206	0xbd88369b	-0.0665104
207	0x3d5faa56	0.054605804
208	0x3d5acefc	0.053420052
209	0xbd6cb114	-0.057786062
210	0x3d4b8260	0.049684882
211	0x3d52f966	0.051507376
212	0xbd4d85e7	-0.050176527
213	0xbd72cc1d	-0.05927669
214	0x3d9fdec2	0.078061596
215	0xbdbbb995	-0.09166256
216	0xbd4a5a9b	-0.049402814
217	0x3d51b989	0.05120233
218	0x3d97f65b	0.074200355
219	0x3d730ead	0.059340168
220	0x3d47e59d	0.04880296
221	0xbd4e8613	-0.050420832
222	0x3d4a696c	0.049416944
223	0x3d66af52	0.056319542
224	0xbd504af7	-0.050852742
225	0xbd2cddc8	-0.042203695
226	0x3d5e1f0e	0.054228835
227	0x3d5a49d1	0.053293053
228	0x3d600776	0.054694615
229	0xbeca58ce	-0.39520878
230	0x3d57289a	0.052528955
231	0x3d4a8df8	0.0494518
232	0x3d4f3b3e	0.050593607
233	0xbd356415	-0.0442849
234	0xbf65886e	-0.896613
235	0x3d5dcf58	0.054152817
236	0x3dcf44ca	0.10120542
237	0xbd4eed7b	-0.050519448
238	0xbd5665e1	-0.052343253
239	0x3d400d76	0.046887837
240	0x3d5b2a8d	0.053507376
241	0xbd4923e3	-0.04910649
242	0x3d37258e	0.04471355
243	0x3d53fc28	0.051754147
244	0xbd521e15	-0.05129822
245	0xbd4beb41	-0.049784902
246	0x3d5bd399	0.053668592
247	0xbd6f2653	-0.05838616
248	0xbd4da5ee	-0.05020707
249	0x3d52c3d3	0.051456284
250	0x3d58f6b7	0.05296966
251	0x3d482727	0.048865464
252	0x3d4aabd0	0.04948026
253	0xbd52ddde	-0.05148112
254	0x3d4ccf7f	0.05000257
255	0x3d42f72c	0.047599003

bias f4 [64]
0	0xbe7fddb2	-0.24986914
1	0x3dddecb9	0.10836167
2	0xbe6e2bd4	-0.23258907
3	0xbdbf5f15	-0.09344307
4	0x3e0e5233	0.13898544
5	0xbe53a0a0	-0.20666742
6	0x3d1a00a8	0.037598282
7	0x3de60dce	0.11233102
8	0xbda94a10	-0.082660794
9	0xbeab1871	-0.33417085
10	0xbea68c3f	-0.32528874
11	0xbd70f77e	-0.058829777
12	0xbe0cf88e	-0.13766691
13	0x3e8971ca	0.26844627
14	0x3e0ff111	0.14056803
15	0xbe169509	-0.1470529
16	0xbe08d064	-0.13360745
17	0xbe801c47	-0.25021574
18	0x3d5e6067	0.054291155
19	0x3e0bc821	0.13650562
20	0xbdbd9a2c	-0.092579216
21	0x3c071836	0.008245518
22	0xbcc2308e	-0.023704793
23	0xbe86ee84	-0.26353848
24	0x3e2118ff	0.15732192
25	0x3d413c31	0.047176544
26	0x3e173fb1	0.1477039
27	0xbd9edc5b	-0.07756873
28	0xbe479962	-0.19492105
29	0xbe1b5ab8	-0.15171325
30	0x3d15ee36	0.03660413
31	0xbd42d003	-0.047561657
32	0xbe8f2f24	-0.27965653
33	0x3dff93f6	0.12479393
34	0x3e92ebf8	0.28695655
35	0x3e23d2ec	0.15998429
36	0x3df01de9	0.11724455
37	0x3e2f8f86	0.17144594
38	0xbe038b1e	-0.12846038
39	0x3da5c9ec	0.08095154
40	0xbe38913c	-0.18024153
41	0xbe5a9f4e	-0.21349832
42	0xbc754b08	-0.014971502
43	0x3d6bf028	0.057602078
44	0xbde1257d	-0.109934784
45	0xbde9d30f	-0.11417209
46	0xbd8f0741	-0.069838054
47	0xbdf705cf	-0.12061655
48	0xbe85ee84	-0.26158535
49	0xbe25c57d	-0.16188617
50	0xbe2db4b0	-0.16963458
51	0xbe7129aa	-0.2355105
52	0xbd194da3	-0.037427556
53	0xbe815201	-0.25257877
54	0xbeaad89e	-0.3336839
55	0x3df022fe	0.11725424
56	0xbe2cf0dc	-0.16888756
57	0x3ddd7b74	0.108145624
58	0xbdbbc32f	-0.09168088
59	0xbdd886a0	-0.10572553
60	0x3e0b5981	0.13608362
61	0xbe817f20	-0.252923
62	0x3da9db23	0.0829375
63	0x3dd0bb1e	0.1019194

weight f4 [32, 64]
0	0xbeb1515e	-0.3463239
1	0xbdea83f1	-0.11450947
2	0xbe12fe19	-0.14354743
3	0x3c97b105	0.018517027
4	0xbd9cfb2a	-0.07665093
5	0x3d90931c	0.07059309
6	0xbdc4aabc	-0.096028775
7	0xbddee4cc	-0.10883483
8	0xbdec4423	-0.115364335
9	0xbe0a7b48	-0.1352359
10	0xbe0d5cd7	-0.13804947
11	0xbe085376	-0.13313088
12	0xbe095035	-0.13409503
13	0x3e4865df	0.1957011
14	0xbddf6d51	-0.10909522
15	0x3d9fa6fd	0.07795522
16	0xbddaa46f	-0.106758945
17	0xbeac783f	-0.3368549
18	0xbdccedfa	-0.10006328
19	0xbddc5dfc	-0.107601136
20	0x3d8a6e60	0.067593336
21	0xbdcb1546	-0.09916167
22	0xbcf53e38	-0.029936895
23	0xbe01173d	-0.12606521
24	0xbe015c94	-0.12632972
25	0xbddba47e	-0.10724734
26	0xbe0e55e5	-0.13899954
27	0x3dc2b72d	0.09507594
28	0xbdd449b8	-0.10365623
29	0xbdc239d1	-0.09483684
30	0xbdbf8be3	-0.09352853
31	0xbdd0cfe9	-0.10195906
32	0xbdfb65f0	-0.122753024
33	0xbe06e097	-0.13171612
34	0x3e4702be	0.1943464
35	0xbe029022	-0.12750295
36	0xbdfa3ba4	-0.12218407
37	0xbfa4d2b6	-1.2876804
38	0xbdeb2823	-0.11482265
39	0xbdfbb380	-0.12290096
40	0xbdcbcefa	-0.09951587
41	0xbd9bf68d	-0.07615385
42	0xbdcd965d	-0.10038445
43	0xbdf6a26e	-0.120427
44	0x3d62742e	0.05528658
45	0xbe0cb823	-0.13742118
46	0x3db0dae9	0.08635504
47	0x3ddd3349	0.108007975
48	0xbdf84bf4	-0.12123862
49	0xbe28d3e2	-0.16487077
50	0x3d89c9d2	0.06727947
51	0xbed4968a	-0.41521102
52	0xbe492a6c	-0.19645089
53	0xbe9a0c2c	-0.3008741
54	0xbdc08080	-0.093995094
55	0xbdfe4327	-0.12415152
56	0x3d693845	0.05693843
57	0xbdeab3fe	-0.11460112
58	0xbdd33e2c	-0.10314593
59	0xbd817a56	-0.06322162
60	0xbe029142	-0.12750724
61	0xbde7fd99	-0.11327667
62	0xbdcd7ca2	-0.100335374
63	0xbdf81902	-0.12114145
64	0xbd859a6d	-0.06523595
65	0xbd8fad74	-0.070155054
66	0xbdf2287b	-0.11824127
67	0x3e31c309	0.17359556
68	0xbdd0e40d	-0.10199747
69	0xbd844709	-0.064588614
70	0xbd8a3654	-0.067486435
71	0xbd930b40	-0.0717988
72	0xbd109478	-0.03529784
73	0xbdf3d26f	-0.119053714
74	0xbdd18387	-0.10230165
75	0xb757b980	-1.2858189e-05
76	0xbd81385c	-0.06309578
77	0x3da3d061	0.079987295
78	0xbda54e7e	-0.08071612
79	0x3d1bcfaf	0.03803986
80	0xbd8d1777	-0.06889241
81	0xbdb30821	-0.08741785
82	0xbd45340c	-0.04814534
83	0xbd82327b	-0.06357285
84	0x3da3e0c4	0.08001855
85	0xbd821bd1	-0.06352962
86	0xbd8662ac	-0.06561789
87	0xbdbf6738	-0.09345859
88	0xbcfc860f	-0.030825643
89	0xbd3c3655	-0.045950253
90	0xbd334225	-0.043764252
91	0x3df9899a	0.121844485
92	0xbdbc0fc0	-0.091826916
93	0xbdc802e3	-0.097661756
94	0xbd892c14	-0.0669786
95	0xbd6ee1e6	-0.058320902
96	0xbdeaff02	-0.1147442
97	0xbd445152	-0.047929116
98	0x3dc4e8ac	0.09614691
99	0xbd64ba6b	-0.055841845
100	0xbd782a21	-0.060587052
101	0x3e450b8f	0.1924269
102	0xbd656d3d	-0.05601238
103	0xbdc0e054	-0.09417787
104	0xbe013ba5	-0.12620409
105	0xbfb0041b	-1.3751253
106	0xbd893ef4	-0.067014605
107	0xbd30f720	-0.043204427
108	0x3d858482	0.065194145
109	0xbd3ed397	-0.046588507
110	0x3df8a63f	0.12141084
111	0xbdb45916	-0.08806054
112	0xbdbb8fe2	-0.09158303
113	0xbd2b22b5	-0.041781146
114	0xbca5cd22	-0.020239417
115	0x3c5faf2b	0.013652603
116	0x3d3a5b1d	0.04549705
117	0xbe066c56	-0.13127264
118	0xbfb6973a	-1.4264901
119	0xbcb37405	-0.021905908
120	0xbcbd33ed	-0.02309605
121	0xbda7d49a	-0.081948474
122	0xbd968467	-0.073494725
123	0xbdd0bd1e	-0.10192321
124	0xbd4a9bdd	-0.04946505
125	0xbdedf70d	-0.11619387
126	0xbd780b0d	-0.060557414
127	0xbd613a74	-0.054987386
128	0xbee3508b	-0.44397387
129	0x3dfa45f4	0.12220374
130	0x3e034f39	0.1282319
131	0xbdd88815	-0.105728306
132	0x3dd1dcbf	0.10247182
133	0xbe06435b	-0.13111632
134	0x3e119501	0.14216997
135	0x3dfc7648	0.12327248
136	0x3dc0e511	0.09418691
137	0x3e06a8cf	0.13150333
138	0x3dd5983c	0.10429427
139	0x3dbc5101	0.09195138
140	0x3e18d721	0.14925815
141	0xbdf2ad21	-0.11849428
142	0x3e03639f	0.12830971
143	0xbdf5e451	-0.120064385
144	0x3e15832c	0.1460082
145	0xbedd9617	-0.43278572
146	0x3e1fc220	0.15601397
147	0x3e0a68fa	0.13516608
148	0xbe0070b1	-0.12542988
149	0x3e1eac58	0.15495431
150	0x3dba1222	0.0908549
151	0x3e016b9d	0.12638707
152	0x3df69c25	0.12041501
153	0x3e147727	0.14498578
154	0x3e054251	0.13013579
155	0xbe011f95	-0.12609704
156	0x3df20130	0.11816633
157	0x3e182c41	0.14860632
158	0x3e14514f	0.14484142
159	0x3e2ae15c	0.1668753
160	0x3df33059	0.11874456
161	0x3e0ea7bd	0.13931175
162	0xbe051b80	-0.12998772
163	0x3e04e7ea	0.12979093
164	0x3e1733b2	0.14765814
165	0xbe95f046	-0.29284877
166	0x3dee325f	0.11630701
167	0x3e37e583	0.17958646
168	0x3e07421a	0.1320881
169	0x3cafc145	0.021454463
170	0x3e168937	0.14700781
171	0x3e28327d	0.1642551
172	0xbddd31b5	-0.108004965
173	0x3ded1c32	0.115776435
174	0xbe0d1f65	-0.13781507
175	0xbdd6a7c4	-0.104812175
176	0x3de5a370	0.11212814
177	0x3e1b90f8	0.1519202
178	0xbde99908	-0.114061415
179	0xbf00be57	-0.50290436
180	0x3e5b0d57	0.21391807
181	0xbeccee38	-0.40025496
182	0x3c6e573c	0.0145471655
183	0x3df67f03	0.12035944
184	0xbe09a5db	-0.13442175
185	0x3e05978a	0.13046089
186	0x3e0e1da6	0.13878497
187	0x3e1a86fc	0.15090555
188	0x3e06e929	0.13174881
189	0x3dc7c758	0.09754819
190	0x3e13ffbb	0.14453022
191	0x3e0a260d	0.13491078
192	0x3e573f2e	0.21020195
193	0x3d846bd9	0.06465883
194	0xbc269203	-0.010166648
195	0x3d8ddb71	0.06926621
196	0x3cb5cef5	0.022193411
197	0xbd230a73	-0.039804887
198	0x3cbb49f2	0.022862408
199	0x3d65c773	0.056098413
200	0x3d30f058	0.04319796
201	0x3c202dc2	0.0097765345
202	0x3d17fbd9	0.037105415
203	0x3dae8c6f	0.08522879
204	0x3d6d440e	0.05792623
205	0xbda2a69c	-0.079419345
206	0x3d437d2d	0.0477268
207	0x3ced41e2	0.02896208
208	0x3cc713e8	0.024301484
209	0x3e3d628a	0.18494621
210	0x3c9e80cd	0.019348526
211	0x3d1bf9cb	0.038080018
212	0x3cdf1321	0.027230801
213	0xbc2183e4	-0.009858105
214	0xbb1591aa	-0.0022822418
215	0x3d07386b	0.03301279
216	0x3d8c4c1f	0.068504564
217	0x3ce28635	0.027651886
218	0x3d93fb0d	0.072256185
219	0x3d96b564	0.07358816
220	0x3c8f2a0d	0.017476106
221	0xbab42cc0	-0.0013746247
222	0x3c935b8a	0.017987985
223	0x3c2b2a1f	0.010447054
224	0xbad91ce6	-0.0016564399
225	0x3d74ba0d	0.059747744
226	0xbd52993f	-0.051415678
227	0x3d7fd0c6	0.06245496
228	0x3d365813	0.044517588
229	0x3f183d2c	0.5946834
230	0x3cadb026	0.021202158
231	0xbcc7725e	-0.024346527
232	0xbcd4f8d5	-0.025997559
233	0x3e337b27	0.17527448
234	0x3bf762de	0.0075496277
235	0x3c9c6252	0.019089852
236	0x3caaf04d	0.020866537
237	0x3d849717	0.064741306
238	0x3d276c79	0.040874932
239	0xbd780b1f	-0.06055748
240	0x3d2e229d	0.04251348
241	0x3d99d277	0.07510846
242	0xbcd7c864	-0.02634067
243	0x3e8e2d72	0.27769047
244	0x3deeb49d	0.11655543
245	0x3e152af7	0.14567171
246	0x3e3a9ccb	0.18223874
247	0x3d859ba4	0.06523827
248	0xbca80f39	-0.020515071
249	0x3d704935	0.058663566
250	0x3c9b9a00	0.018994331
251	0x3cce7ad5	0.025205055
252	0x3d692d51	0.056927983
253	0x3c1b9e82	0.00949824
254	0x3d02d9db	0.031946044
255	0x3d6aafd5	0.057296593

bias f4 [32]
0	0x3e70c9a7	0.23514424
1	0x3dbf607b	0.09344574
2	0xbdb57433	-0.08860054
3	0x3d870c50	0.06594145
4	0xbd8a1b47	-0.06743484
5	0xbd04603a	-0.03231833
6	0x3df55574	0.119791895
7	0x3db8410e	0.08996783
8	0xbdae9aef	-0.08525645
9	0x3e18f6e5	0.14937933
10	0x3bbed537	0.005823757
11	0xbdec59ed	-0.115405895
12	0xbdac478b	-0.08412083
13	0xbd179cf4	-0.037014917
14	0x3eb1453d	0.34623137
15	0xbe106410	-0.14100671
16	0xbe0e092c	-0.13870686
17	0x3c97cdfc	0.018530838
18	0x3d1a3d06	0.037655853
19	0xbe14e59b	-0.14540713
20	0xbe262341	-0.16224386
21	0xbe7dc50e	-0.24782202
22	0xbe065ec7	-0.13122092
23	0x3d91c6e8	0.071180165
24	0x3d7d5444	0.06184794
25	0x3e155e65	0.1458679
26	0x3dd7cded	0.10537324
27	0x3e785705	0.24251945
28	0xbdf2047a	-0.1181726
29	0xbe59b2bc	-0.21259588
30	0xbe324689	-0.1740972
31	0xbdf879ee	-0.12132631

weight f4 [32, 1]
0	0x3ea871d5	0.32899347
1	0x3e953524	0.29142106
2	0xbf096c4f	-0.5368089
3	0x3dc53835	0.09629861
4	0xbe7cc85d	-0.24685808
5	0x3eae2050	0.34009027
6	0xbdcff289	-0.10153682
7	0x3ec227d9	0.37921026
8	0xbe34559c	-0.17610782
9	0xbeb88be4	-0.36044228
10	0xbb80c698	-0.003929924
11	0x3e8f077b	0.27935395
12	0x3ed8012d	0.42188397
13	0xbe28f12e	-0.16498253
14	0xbea17936	-0.3153779
15	0xbd12ef10	-0.03587252
16	0xbeaf3c67	-0.3422577
17	0xbe8d89fe	-0.27644342
18	0x3e9d0164	0.30665123
19	0x3e1e2973	0.15445499
20	0xbe2be732	-0.16787413
21	0x3df31c45	0.11870626
22	0x3e36dc19	0.17857398
23	0x3e64559c	0.22298282
24	0x3e6f4da1	0.23369457
25	0x3db1967a	0.08671279
26	0xbe674828	-0.22586119
27	0xbe7abb4c	-0.2448551
28	0x3dc55c60	0.0963676
29	0x3d953e9f	0.07287335
30	0xbe81617a	-0.2526968
31	0x3e1d5762	0.15365365

bias f4 [32]
0	0xbeb00950	-0.34382105
1	0xbe84af2e	-0.25914901
2	0x3e2a224d	0.16614647
3	0xbe0f1819	-0.13974036
4	0x3e9b3f86	0.30321902
5	0xbeb2b5ec	-0.3490442
6	0x3e29ff51	0.16601302
7	0xbeda433e	-0.42629427
8	0x3e6c1677	0.23055445
9	0x3eeae04f	0.4587426
10	0xbba76d45	-0.0051094615
11	0x3a833b59	0.0010012194
12	0x3c24b5cd	0.01005311
13	0x3e60b6f0	0.21944785
14	0x3e635f0f	0.2220423
15	0xbc3d74d4	-0.0115634985
16	0x3ed14093	0.4086958
17	0x3eaca0b6	0.33716363
18	0xbb6b0ac5	-0.0035864573
19	0xbe2a2c3e	-0.1661844
20	0x3e5d95f6	0.21639237
21	0xbdf6dd9c	-0.120539874
22	0xbe548530	-0.20753932
23	0xbe6c047b	-0.23048584
24	0xbd243370	-0.040088117
25	0xbe00dbeb	-0.12583892
26	0x3e8c326c	0.2738222
27	0x3e93a99b	0.28840336
28	0xbde6b9fd	-0.11265943
29	0xbdc8762e	-0.09788166
30	0x3e9e9254	0.30971014
31	0xbe2895e8	-0.16463435

weight f4 [64, 32]
0	0xbc199a58	-0.009375177
1	0x3f4eae10	0.8073435
2	0xbf43c8a7	-0.76478046
3	0xbbac7ce8	-0.0052639134
4	0x3c1fa99b	0.009745027
5	0xbbbfd5ac	-0.005854329
6	0x3caf7d2b	0.02142199
7	0xbaf35fc8	-0.0018567974
8	0x3c6aeca7	0.014338649
9	0x3bb50555	0.0055243173
10	0xbd0e4bf7	-0.034740414
11	0x3eb001fc	0.34376514
12	0x3ee372f2	0.44423634
13	0x3c7adff5	0.015312185
14	0xbf13403f	-0.57519907
15	0xbd6bee19	-0.057600114
16	0x3bb7ba23	0.005606906
17	0x3c0a7857	0.008451543
18	0x3ebea29f	0.37233445
19	0x3c5a5cd4	0.013327796
20	0x3c7330f9	0.014843219
21	0xbb55a8d3	-0.0032601848
22	0x3a5041ca	0.00079443736
23	0x3c19bf97	0.0093840575
24	0x3e551064	0.20807034
25	0xbb694c9e	-0.0035598646
26	0x3c311938	0.010809235
27	0x3c1cafa0	0.009563357
28	0xbafe179e	-0.00193857
29	0x3c2144a3	0.009843024
30	0x3c1b90bb	0.009494956
31	0x3c58f935	0.013243009
32	0xbc97512b	-0.018471321
33	0x3fcbc73f	1.592018
34	0xbf375dd5	-0.7162755
35	0x3b3dffba	0.0028991536
36	0x3b0d7b64	0.002158844
37	0x3b62d919	0.0034614264
38	0x39ca9701	0.0003864095
39	0xbc38bca4	-0.011275444
40	0x3a801388	0.0009771446
41	0x3b6c5f68	0.0036067609
42	0x3beb5428	0.007181663
43	0x3decf421	0.115700014
44	0x3e6fee10	0.23430657
45	0x3a78b1cf	0.0009486945
46	0x3e0539ff	0.13010405
47	0xbbcc40f9	-0.0062333313
48	0x3b55dd3c	0.0032633087
49	0x3b25379c	0.0025210148
50	0x3e0961c3	0.134162
51	0xbb4ea1aa	-0.0031529465
52	0x3a3e3842	0.0007256308
53	0x3b49f1de	0.003081433
54	0xbc413559	-0.011792504
55	0x3c90ca9e	0.01767474
56	0x3c600119	0.013672137
57	0x3b0a90da	0.0021143467
58	0x3ad97ad0	0.0016592387
59	0x3aebb2ef	0.0017982404
60	0x3bc201f6	0.005920644
61	0x3d128f43	0.035781156
62	0x3b1091ee	0.0022059637
63	0x3ca4a917	0.02010016
64	0xbd03229f	-0.03201544
65	0x3fcd1aaf	1.6023768
66	0xbf04cc23	-0.5187399
67	0xbbd84986	-0.0066005616
68	0x3c899c96	0.016798299
69	0xbc303288	-0.010754235
70	0x3bfe08e2	0.0077525238
71	0xbd16c625	-0.03681006
72	0x3c4f2059	0.01264199
73	0x3caf6dcb	0.021414658
74	0x3ca4bfb2	0.020110939
75	0x3da9c585	0.08289627
76	0x3e34b677	0.1764773
77	0x3c43fad8	0.011961661
78	0x3e99876a	0.29986125
79	0x3c8b5038	0.017006025
80	0x3cadc4c0	0.021211982
81	0x3c95a13d	0.018265361
82	0x3de93429	0.11386902
83	0xbcd7a781	-0.02632499
84	0x3c449fb4	0.012000967
85	0xbc017c93	-0.007903236
86	0xbcece40a	-0.028917331
87	0x3c03f5f4	0.008054245
88	0xbca66577	-0.020312054
89	0xbbd4e4fe	-0.0064970246
90	0x3c8030b9	0.015648233
91	0x3c89afdb	0.016807487
92	0x39f0817d	0.00045872843
93	0x3d0db6c8	0.034598142
94	0x3c8ce2b8	0.017197952
95	0x3c385298	0.011250161
96	0x3d63347f	0.055469986
97	0xbfd3e7fe	-1.6555173
98	0x3e577e93	0.21044378
99	0x3d185585	0.037190933
100	0xbd1fc4a8	-0.039005905
101	0x3d0de89c	0.03464566
102	0xbd19965e	-0.037496917
103	0x3d389a58	0.04506907
104	0xbd1c3de2	-0.038144954
105	0xbd25b531	-0.040456
106	0x3d1b4148	0.037904054
107	0xbe0727d5	-0.13198788
108	0xbe6ea0d9	-0.23303546
109	0xbd1b5b3a	-0.037928797
110	0xbd9cb936	-0.07652514
111	0x3d8a5db1	0.067561515
112	0xbd2452ef	-0.040118154
113	0xbd2137f5	-0.039360005
114	0xbe1875eb	-0.14888732
115	0x3cfe6036	0.031051736
116	0xbd1b455d	-0.037907947
117	0x3d165141	0.036698584
118	0x3d3620dc	0.04446493
119	0x3cfd0f5c	0.030891113
120	0xbd3e9c0f	-0.046535548
121	0x3d1a4d50	0.037671387
122	0xbd1e69d2	-0.038675137
123	0xbd1f0b52	-0.038829155
124	0x3d15778a	0.036490954
125	0x3bbe5601	0.0058085923
126	0xbd1fb201	-0.038988117
127	0x3cc229c4	0.023701556
128	0xbc36aea8	-0.01115004
129	0x3fbce89e	1.4758489
130	0xbf49948c	-0.7874229
131	0x3b84af38	0.004049208
132	0xba838c32	-0.0010036288
133	0x3b973984	0.0046150107
134	0x3a473ce5	0.00076003216
135	0xbb482727	-0.0030540915
136	0xba0007bd	-0.00048839656
137	0xba8916a1	-0.0010459014
138	0xba1d6274	-0.00060037454
139	0x3e2bd656	0.16780981
140	0x3e94d5c4	0.2906934
141	0xb9f79b34	-0.00047227147
142	0xbd327b62	-0.0435747
143	0xbca0e1aa	-0.019638855
144	0xba9df998	-0.0012052534
145	0xba8be111	-0.0010671933
146	0x3e426366	0.1898323
147	0x3c12069d	0.00891271
148	0xba0ab6fe	-0.000529155
149	0x3ba7dc6e	0.005122713
150	0xbb5d3251	-0.0033751915
151	0x3c8a52a0	0.016885102
152	0x3d48b664	0.049002066
153	0x3b8d8971	0.004319363
154	0xba94cc61	-0.0011352414
155	0xbaa8e1f1	-0.0012884719
156	0x3bdfb7ba	0.006827322
157	0x3d09ba81	0.03362513
158	0xba7c982a	-0.00096357113
159	0x3cb21c72	0.02174208
160	0x3ccda6cf	0.025103955
161	0xbfcaf776	-1.5856769
162	0x3eab65cb	0.334761
163	0x3bfed31c	0.007776631
164	0xbba5c83c	-0.00505927
165	0x3b1e62d8	0.0024167802
166	0xbb5ea0d4	-0.0033970373
167	0x3c6d183e	0.014471112
168	0xbb85d5e8	-0.0040843375
169	0xbbcde017	-0.006282817
170	0xbb73f1e6	-0.003722304
171	0xbdfe25a8	-0.12409526
172	0xbe6a3328	-0.22871077
173	0xbb8707fc	-0.004120825
174	0xbd9de858	-0.07710332
175	0x3ca124cd	0.019670868
176	0xbbc0159c	-0.005861951
177	0xbbb00c02	-0.005372525
178	0xbe1503ba	-0.14552203
179	0x3bb78ce0	0.0056015104
180	0xbb7629b2	-0.0037561473
181	0x3bead05e	0.0071659526
182	0x3c3f9147	0.011692352
183	0xba0474df	-0.00050528155
184	0x3cc5ba0d	0.024136567
185	0x3bfe17b5	0.007754291
186	0xbb930a6c	-0.0044873264
187	0xbb951406	-0.004549506
188	0x3bb5a64d	0.0055435062
189	0xbcabe403	-0.020982748
190	0xbba3fc38	-0.005004432
191	0xbc2ab53c	-0.010419186
192	0x3dc7d5a1	0.09757543
193	0xbf47497d	-0.7784651
194	0x3d3d892f	0.046273407
195	0x3db27ba9	0.087149926
196	0xbdcd4379	-0.10022635
197	0x3dadde48	0.084896624
198	0xbdd370b0	-0.10324228
199	0x3dba5176	0.09097569
200	0xbdcf315d	-0.10116837
201	0xbdd091d1	-0.10184062
202	0x3dcd2eb7	0.10018676
203	0xbcaf9acd	-0.02143612
204	0x3db3a482	0.08771612
205	0xbdcf71ba	-0.101291135
206	0xbe2a4d75	-0.1663111
207	0x3e03d8cb	0.12875669
208	0xbdcc69b3	-0.09981098
209	0xbdcd1fe3	-0.100158475
210	0xbbd06a1f	-0.006360307
211	0x3da6ae3c	0.08138701
212	0xbdce7ea7	-0.10082751
213	0x3da6565b	0.0812194
214	0x3dbba9a5	0.091632165
215	0x3dab817d	0.08374307
216	0xbde865ab	-0.113475166
217	0x3daffc20	0.08593011
218	0xbdcc4912	-0.099748746
219	0xbdca7664	-0.098858625
220	0x3da51439	0.08060498
221	0x3d389675	0.045065362
222	0xbdcd3251	-0.10019363
223	0x3da5adbc	0.08089778
224	0x3d7062cd	0.058687974
225	0xbf96276f	-1.1730784
226	0x3ddf4a40	0.10902834
227	0x3d0d6244	0.03451754
228	0xbd1e5f13	-0.03866489
229	0x3d11396d	0.035455156
230	0xbd090d2a	-0.03345982
231	0x3d36b20e	0.0446034
232	0xbd1612ca	-0.036639012
233	0xbd27da9c	-0.040979967
234	0x3c419ce2	0.011817189
235	0xbd199dfc	-0.03750418
236	0xbde64e0f	-0.11245357
237	0xbd13aaf2	-0.036051698
238	0xbe213ab7	-0.15745054
239	0x3c9f586f	0.019451348
240	0xbd26d3fa	-0.0407295
241	0xbd2207f7	-0.039558377
242	0xbd4409a8	-0.04786077
243	0x3d286f97	0.041122045
244	0xbd1472d2	-0.036242314
245	0x3d1143ff	0.035465237
246	0x3d34577c	0.044028744
247	0x3cece715	0.028918782
248	0x3b203e40	0.0024451166
249	0x3d0c2ddc	0.034223422
250	0xbd1be63a	-0.038061358
251	0xbd1e2eb9	-0.038618777
252	0x3d08e644	0.033422723
253	0x3a7add6b	0.0009569737
254	0xbd1f5f71	-0.03890938
255	0x3cc0e124	0.023544855

bias f4 [64]
0	0x3d5aa72a	0.053382076
1	0x3ca3a3e7	0.019975616
2	0xbd8ab8d8	-0.067735374
3	0xbd3f704c	-0.046737954
4	0x3d82caea	0.06386359
5	0xbde91c6f	-0.113823764
6	0x3d622eb4	0.05522032
7	0x3dc547c8	0.09632832
8	0xbddb44a6	-0.10706453
9	0xbdf18ef2	-0.11794843
10	0x3d1b81e5	0.037965674
11	0xbdcea91e	-0.1009085
12	0x3d8f1714	0.06986824
13	0x3d8bd665	0.06828002
14	0x3d92ad82	0.07162
15	0x3c87606f	0.016525475
16	0xbd388c3f	-0.045055624
17	0xbe219d43	-0.15782647
18	0x3d5ba95b	0.053628307
19	0x3dbb20a4	0.09137085
20	0xbd0edd32	-0.034878917
21	0xbcefcad0	-0.029271513
22	0xbd85099d	-0.06495974
23	0x3c8f84eb	0.017519435
24	0xbdb90564	-0.09034231
25	0xbe10c399	-0.14137115
26	0xbcfbdd6b	-0.030745229
27	0xbd55f13e	-0.05223202
28	0xbd9b50e3	-0.07583787
29	0xbdf824cd	-0.12116394
30	0xbd1e5c5c	-0.0386623
31	0xbc6758d8	-0.014120303
32	0xbe034d3d	-0.12822433
33	0xbca103ae	-0.019655075
34	0xbd2c05ff	-0.041997906
35	0x3d850392	0.064948216
36	0x3d8c8a23	0.06862285
37	0x3dba69af	0.09102189
38	0xbdfcb753	-0.12339654
39	0xbd6a186c	-0.057152197
40	0xbe3d6516	-0.18495592
41	0xbc1a3c3d	-0.009413776
42	0xbddb6dd8	-0.107143104
43	0xbe15fca2	-0.14647153
44	0x3d3b8dca	0.045789517
45	0xbdccfebd	-0.10009525
46	0x3d16c557	0.03680929
47	0x3da4b474	0.08042231
48	0xbe268d95	-0.16264947
49	0xbdec166c	-0.11527714
50	0xbe07627c	-0.13221163
51	0x3daa5fb4	0.08319035
52	0x3df1fc05	0.11815647
53	0x3c454b0d	0.012041819
54	0xbdf95b44	-0.12175611
55	0xbdaa120b	-0.08304223
56	0xbdd5ee7c	-0.10445878
57	0xbe2f65eb	-0.17128722
58	0x3d86f92a	0.06590493
59	0x3dc10bd4	0.09426084
60	0x3df8a6a1	0.12141157
61	0xbe1afae1	-0.15134765
62	0x3d860e2e	0.06545673
63	0xbd6b3c93	-0.057430815
