checkpoints/click_honam2_emb32_4.pt (torch, 242802 bytes, 134 tensors)

weight f4 [32, 1]
000000 c7 17 a4 be 7c 2c 45 3d 88 70 3b be c4 0c 05 3e
       -0.3204939 0.048138127 -0.18304646 0.12993151
000010 7a 38 a7 be d0 9a 30 bd ac a3 f8 bd 8a ea bf 3e
       -0.32660276 -0.04311639 -0.12140593 0.37483627
000020 e9 2e ba 3e f3 a2 a1 bd 37 55 25 be b3 98 14 3e
       0.36363915 -0.07892408 -0.16145788 0.14511375
000030 75 56 9f be 14 7a 12 be a0 f8 5c 3e 4a 18 7c be
       -0.3112065 -0.14304382 0.21579218 -0.2461864
000040 a2 5d b5 be 0b 13 56 be 1f 66 0e 3e bb 82 73 bc
       -0.35423 -0.20905702 0.13906144 -0.014862712
000050 77 9c 0e 3e b9 3d 2a 3f 5f 56 27 3f 13 49 b6 3e
       0.13926874 0.6650043 0.65366167 0.35602626
000060 a8 f0 8a 3e a8 9e 2a be 07 9d ca 3e 43 26 20 bd
       0.2713673 -0.16662085 0.39572927 -0.03909899
000070 6b ce 20 3f 6a c9 c7 3d a3 0d 2a 3f 2d ff b6 bc
       0.6281497 0.097552136 0.6642706 -0.022338474

bias f4 [32]
000000 02 36 40 be 8b ec be 3e fe f1 30 3f 93 f2 2b be
       -0.18770602 0.37289843 0.6911925 -0.16791753
000010 c8 b1 3c be 93 a1 da 3e 3b 8b 13 3f c6 67 18 3e
       -0.18427193 0.42701396 0.57634324 0.14883336
000020 f3 ce 3a 3e 01 aa fd 3e 18 69 26 3f b0 00 95 be
       0.18243007 0.49543765 0.6500411 -0.29102087
000030 3d eb 43 be 5e ac 1d 3f 83 c5 ac 3e cf d9 4c be
       -0.19132705 0.61591136 0.3374444 -0.20004962
000040 74 d5 24 be a6 5b 37 3f df 38 8e be ed 03 c8 3e
       -0.16097051 0.7162422 -0.27777764 0.39065495
000050 95 74 b6 3e 62 3c 70 bf 6c 3d 7a bf a0 e9 4d 3e
       0.3563582 -0.93842137 -0.9774997 0.20108652
000060 dc d8 9e 3e 4f d6 28 3f c9 ff 0e 3d 2b c4 d7 3e
       0.31024826 0.6595201 0.034911904 0.42141852
000070 0c 27 13 bf 6f f4 ba 3e 9d 47 71 bf ed 3b cb 3e
       -0.57481456 0.36514613 -0.942499 0.39694157

weight f4 [64, 32]
000000 d9 8f e1 3c ef c5 a6 bc cf 35 81 bc fe f7 66 3c
       0.027534412 -0.020358054 -0.015772728 0.014097212
000010 58 2e e2 3c 3d 53 8e bc 51 d6 81 bc c0 69 0d bd
       0.027609989 -0.017373675 -0.015849264 -0.03452468
000020 c1 d5 05 bd 77 bd 87 bc c6 9b 80 bc 3d dc 4b 3c
       -0.032674555 -0.016569836 -0.015699279 0.012442646
000030 65 e8 e0 3c 32 2c 81 bc 37 2c cb bc 57 a9 d6 3c
       0.027454564 -0.015768144 -0.024801357 0.026203794
000040 8f 3a e4 3c db 9b 7f bc c5 e0 4e 3c 36 33 97 bc
       0.027859954 -0.015601124 0.012626831 -0.018457036
000050 c3 38 b9 bc 49 6a d4 3c b8 cc d2 3c 13 a5 01 bd
       -0.022610074 0.025929587 0.025732383 -0.031651568
000060 94 f7 db bc 52 be 80 bc 43 77 44 bd 80 d1 8f bc
       -0.026851453 -0.015715752 -0.0479653 -0.017555952
000070 d3 42 20 c0 92 b1 af bc 10 84 d4 3c 36 4a 94 bc
       -2.5040786 -0.021446977 0.025941879 -0.018101793
000080 01 fb 80 3d 23 40 c0 bc 34 01 39 3c 0f 36 e4 3c
       0.06297875 -0.023468083 0.011291791 0.027857808
000090 1e c7 83 3d 9b bd 35 bc d8 a3 6d 3b c5 08 d1 bd
       0.06434463 -0.011092569 0.0036260989 -0.10206751
0000a0 41 78 b1 bd bb 52 53 bb 84 f0 0d 3c 66 cd 2e 3c
       -0.08665515 -0.0032245356 0.0086633 0.010669088
0000b0 f7 c8 7b 3d 8d 38 d6 3b 6b 65 18 bd 35 ec 59 3d
       0.061470952 0.006537503 -0.037206095 0.05320378
0000c0 4b 1e 92 3d 47 b8 69 3c 93 4d 47 3c 2e 39 90 bc
       0.07134684 0.014265127 0.012164491 -0.01760539
0000d0 6b 9b f4 bc 54 3d f6 bc 33 c0 e7 bc 3c c6 a2 bd
       -0.029859265 -0.03005854 -0.02828989 -0.079479665
0000e0 32 1a 3b bd 92 40 19 3c 7f 05 4a be c4 21 46 bc
       -0.04567928 0.009353774 -0.19728659 -0.012093011
0000f0 e8 ab 38 c0 fb 5a dc bc 8a 2c f5 bc 03 aa 85 bc
       -2.8854923 -0.026898852 -0.029928464 -0.01631642
000100 ea e0 74 3d a5 15 d4 bc 9b 38 0d bc 4d 55 29 3d
       0.059784807 -0.025889227 -0.008619453 0.041341115
000110 b6 e5 77 3d 6c ed a5 bc b6 72 52 bc 23 71 3a bd
       0.060521804 -0.020254813 -0.012844732 -0.04551805
000120 41 9f 30 bd 23 ff 85 bc 2c a6 21 bc ac 9b 0e 3d
       -0.043120626 -0.01635701 -0.009866279 0.03481643
000130 ff 93 71 3d 94 53 37 bc bc 6b fa bc 09 75 61 3d
       0.05897903 -0.01118936 -0.03056895 0.055043254
000140 2c ff 83 3d d7 de ea bb 7e 23 11 3d 7b d2 bf bc
       0.064451545 -0.007167678 0.03543424 -0.023415795
000150 0b 62 e7 bc aa a8 e2 bb 5c 95 b1 bb e0 69 2a bd
       -0.028244993 -0.006917079 -0.0054194164 -0.041604877
000160 44 68 07 bd 6f 98 1e bc b3 1d 45 bd 6f 27 a9 bc
       -0.03305842 -0.009679898 -0.048124027 -0.020648686
000170 9a bc 77 3f cb 10 dd bc 39 3d df bb 4e dd b8 bc
       0.9677216 -0.026985547 -0.006812718 -0.022566464
000180 c3 89 13 bc 0d a4 2c 3c cf 71 24 3c 81 24 2c 3c
       -0.009005013 0.01053716 0.0100369 0.01050675
000190 56 f4 17 bc 2c 66 ed 3b 4c a9 f2 3b 88 72 2b 3d
       -0.009274563 0.007244846 0.0074054357 0.041857272
0001a0 d4 05 0e 3d 38 48 dd 3b 24 e2 0f 3c 46 24 ec 3b
       0.034673527 0.006752994 0.0087819435 0.0072064726
0001b0 68 9e 10 bc 17 09 06 3c a2 3f 88 3c f9 41 f7 bb
       -0.0088268295 0.008180878 0.016631905 -0.0075457064
0001c0 99 8c 22 bc ce 93 34 3c 7c dd f5 3b 8f 75 06 3c
       -0.009921216 0.0110215675 0.0075032096 0.008206739
0001d0 bf b6 5c 3c 62 c6 4b bd bc cc 3d bd 06 2b 01 3d
       0.013471304 -0.04974974 -0.046337828 0.03153517
0001e0 ea 34 a1 3c fc e3 13 3c 97 9a be 3d ea 8c ef 3b
       0.019678552 0.009026524 0.093068294 0.0073104994
0001f0 8d 67 58 40 1d 31 48 3c 4b db 4a bd b0 9a 03 3c
       3.3813202 0.012218741 -0.04952554 0.008032486
000200 54 87 91 3d 9a 5b 2d bd 66 6f 95 bc 89 37 3a 3d
       0.0710589 -0.042323686 -0.018241595 0.04546312
000210 e9 eb 92 3d b4 0e 09 bd ca ab c0 bc 3f ea bc bd
       0.071739025 -0.033461288 -0.023519415 -0.092243664
000220 91 b2 a9 bd 56 c0 e4 bc fd 09 a4 bc 60 5b 08 3d
       -0.08286012 -0.027923744 -0.020024294 0.033290267
000230 cb 2f 8f 3d c9 19 b0 bc 1c b2 53 bd e2 82 83 3d
       0.06991538 -0.02149667 -0.05168353 0.06421448
000240 c3 2b 9c 3d 2c 1a 84 bc 68 b5 0c 3d 63 81 1c bd
       0.076255344 -0.016125761 0.03435269 -0.03820933
000250 bd 46 3f bd 77 e9 ff 3b 72 ec 17 3c 28 c5 a0 bd
       -0.04669832 0.0078098136 0.009272682 -0.078501046
000260 8f 9f 6a bd 68 2e 9f bc d1 24 17 be 5d ca 0b bd
       -0.057281073 -0.019431308 -0.14760138 -0.034128536
000270 a1 71 1a c0 98 af 36 bd 2f cf 02 3c 84 42 18 bd
       -2.4131854 -0.044601053 0.007983967 -0.03717281
000280 2c 09 42 bd da e5 13 3b ce 69 13 bd ff 3e e0 ba
       -0.04737203 0.0022567422 -0.035989575 -0.0017108618
000290 e1 8c 49 bd 81 28 19 bc 78 ae ca bc 20 4f 63 3d
       -0.04920662 -0.009348036 -0.024741396 0.05549538
0002a0 05 ba 41 3d db ef 8b bc 2e 70 02 bd 51 d3 8d 3c
       0.047296543 -0.017082145 -0.031845264 0.017312678
0002b0 0d 7f 39 bd 5e 2a e9 bc 37 17 52 3c 7a f4 0c bd
       -0.04528718 -0.028462585 0.012822918 -0.03441284
0002c0 f1 a0 74 bd b3 b0 26 bd 26 9e 7e 3c d6 fd 45 bb
       -0.0597238 -0.040695857 0.015540635 -0.0030211112
0002d0 f8 b7 f4 3b 74 a0 1c 3e fe c7 14 3e 3d e5 2f 3d
       0.00746822 0.15295583 0.14529416 0.042943228
0002e0 04 79 9d 3c 30 25 06 bd 3c be bb 3d 59 de 08 bc
       0.019222744 -0.03275031 0.09167144 -0.008353793
0002f0 8a 07 31 c0 83 9e 9f 3b 5d c0 1b 3e f3 ae 8b bb
       -2.7660851 0.004871191 0.152101 -0.004262799
000300 71 8b 13 3d 7f 07 46 bc f2 32 50 3b c2 d4 42 3c
       0.036021654 -0.012086748 0.0031768647 0.011891546
000310 2e ef 15 3d 5b cb be bb 5d 74 89 39 b6 fa 50 bd
       0.036605053 -0.0058225817 0.00026217374 -0.051020347
000320 37 5b 33 bd 8d 5e 27 bb 7d 38 1c 3b aa ba 80 3b
       -0.04378816 -0.0025538534 0.002383738 0.003928502
000330 5e 7d 0f 3d f1 55 c6 3a 01 8e a3 bc 0a cc f9 3c
       0.03503167 0.0015131814 -0.019965174 0.030492801
000340 da 29 25 3d 47 a1 91 3b cc 0e 9b 3b 92 fb 0e bc
       0.040323116 0.0044442746 0.0047319885 -0.008726971
000350 fe a9 82 bc c1 b0 3e bb 12 14 21 bb b6 fd 24 bd
       -0.0159502 -0.0029097053 -0.0024578613 -0.04028102
000360 77 6b c7 bc b0 1d 24 3b e5 ef ca bd 66 28 ce bb
       -0.024343235 0.002504211 -0.099090375 -0.006291437
000370 1b 30 1e c0 8e af 64 bc 66 2d 40 bb b5 7a 05 bc
       -2.4716861 -0.013957871 -0.0029323935 -0.008146931
000380 ca 0a 94 bd 4d d6 4c 3d 45 37 a5 3c 41 a4 cc bc
       -0.0722862 0.05000906 0.020167956 -0.024980666
000390 72 c8 98 bd 98 08 21 3d 2c d0 e0 3c 5c 76 14 3e
       -0.07460107 0.039314836 0.027443014 0.14498276
0003a0 7b e2 ff 3d ca dc 07 3d 83 b8 b9 3c 69 72 52 bc
       0.124943696 0.033169545 0.02267099 -0.01284466
0003b0 a3 9a 8d bd 72 ab cb 3c fc af 82 3d 46 07 64 bd
       -0.0691426 0.024862025 0.063812226 -0.055671
0003c0 e7 c8 b6 bd 77 c2 8d 3c 3e 4f 62 bc ab 7d 37 3d
       -0.08925038 0.017304642 -0.013812838 0.04479758
0003d0 c8 a5 65 3d a2 d1 b8 3c fa c1 ba 3c 8b 50 ec 3d
       0.056066304 0.022560898 0.022797573 0.115388
0003e0 03 d4 96 3d b5 13 b4 3c 55 7a 81 3e f2 30 25 3d
       0.07364657 0.021982053 0.25288644 0.04032988
0003f0 2e 34 32 40 69 f9 59 3d a9 7b b8 3c c4 e9 32 3d
       2.7844348 0.05321637 0.022519903 0.043679968

bias f4 [64]
000000 75 dc bd 3d 0e 11 52 3c e7 89 b2 bc 99 de d1 bd
       0.092705645 0.012821449 -0.021794273 -0.10247535
000010 82 d5 52 3d d8 8f 01 3e 80 95 bf 3c ca ab 3b be
       0.05147315 0.12652528 0.023386717 -0.18327251
000020 ff d4 51 bd 4d 8f 40 be 7b 53 ce bd ea 8d 7d 3d
       -0.05122852 -0.18804665 -0.100745164 0.061902918
000030 85 5b 4c 3d 97 6e 59 3d c1 5c 79 3b 2c c5 1a be
       0.049891967 0.053083982 0.003804967 -0.15114278
000040 7a 83 ff ba fc c2 55 3d ef ea 0c be 46 c5 73 bd
       -0.0019494139 0.052187905 -0.13761495 -0.059514306
000050 08 6a bd 3b e3 42 d3 bd fd 49 76 3d a1 f7 50 bd
       0.005780462 -0.10315492 0.060129154 -0.051017407
000060 ae 33 b7 bd c8 91 4e 3b 25 b8 90 bc 79 a3 ae 3d
       -0.08945404 0.0031519998 -0.017665932 0.08527274
000070 93 ff 80 bb e4 b7 81 bd 81 9f 97 3d 1f b7 8f 3c
       -0.003936717 -0.063339025 0.0740347 0.017543374
000080 12 3f 8c 3d bb cf d8 bd 2e 02 44 be 78 27 81 be
       0.06847967 -0.105864964 -0.19141456 -0.25225425
000090 83 d5 d7 bd b3 de db 3d c5 69 86 bd fb ce a7 3d
       -0.10538771 0.10735836 -0.06563143 0.08193775
0000a0 d4 9b 12 3e 41 5f e5 3c ec 8f 0b 3c d9 e3 b2 bc
       0.14317256 0.027999522 0.0085182 -0.021837162
0000b0 9d b0 67 3d b0 1c 9f 3d e7 9c 7d 3c eb f4 1e be
       0.056564916 0.077691436 0.015479303 -0.15523116
0000c0 45 69 de bd 55 d4 14 3d e2 da 46 3d 67 0d 6c bc
       -0.10859922 0.036335308 0.048548587 -0.014407492
0000d0 2b 1a 3f be 5f 76 4a bd 1b 9f 1b be e4 e2 02 be
       -0.18662326 -0.049429294 -0.15197413 -0.12781864
0000e0 f9 42 33 bd b5 71 20 3d 74 75 06 3e 39 ba d3 3d
       -0.043765042 0.03917094 0.13130742 0.103382535
0000f0 74 5e 87 3c 6c 20 d3 bd a2 5d 25 be 66 49 ed 3d
       0.016524531 -0.10308918 -0.16149 0.11586265

weight f4 [32, 64]
000000 f5 17 30 3c f3 74 b7 bc 38 4f d7 bc 0c c6 05 3c
       0.010747899 -0.022394633 -0.026282892 0.008164894
000010 20 2f a9 bc b4 24 d5 3d 53 dd 20 bb b6 4c 0a bc
       -0.020652354 0.10407391 -0.0024545982 -0.008441141
000020 23 d9 16 bd 12 a5 59 bf 86 f2 c3 39 7a 46 93 bc
       -0.03682817 -0.850175 0.00037373992 -0.017977942
000030 a0 00 d9 3c 52 bc f0 3d ed 50 3a bd 24 cb 4f 3b
       0.026489556 0.11754669 -0.045487333 0.0031706775
000040 24 e2 7f bc 4c d1 54 bc 04 2a 0e bf 24 bd 38 3c
       -0.015617881 -0.012989353 -0.5553286 0.011275563
000050 26 91 c4 3c 1d 70 53 bd a7 a9 b5 bc 0d a2 29 bd
       0.023994993 -0.05162059 -0.022175623 -0.04141431
000060 b4 8b ec bc 6c d3 7f bc 73 c0 1e bd f8 9c 81 3c
       -0.02887521 -0.015614372 -0.038757753 0.015821919
000070 7d a2 23 3c 3f ed 23 be f5 5d 8e bc fe 99 19 bd
       0.009987471 -0.16008471 -0.017378787 -0.037500374
000080 9b 6f 90 bc 03 7c a2 3c 83 93 53 bf 46 db 8d bf
       -0.017631343 0.019834524 -0.8264696 -1.1082542
000090 a4 db 24 3c 9b 09 de 3d 4e 7e 60 bd 3e 4f 2b bd
       0.010062132 0.10841676 -0.054807954 -0.041823618
0000a0 be d0 dc 3d 3f 33 32 3b 82 bf 0c 3d 73 a6 50 bd
       0.10782002 0.002719119 0.034362324 -0.05093999
0000b0 b4 55 17 3d 85 fc 80 3d f5 fc 74 3c e2 ae 57 3b
       0.036946967 0.06298164 0.014952888 0.0032910635
0000c0 6b 19 0b bd 3f ec 94 bc 7a 74 5c bc 8a 95 6f bd
       -0.033959787 -0.018179057 -0.013455505 -0.05849222
0000d0 cc f9 b1 bb 95 ca 0b bd 0f 51 9b bc aa 98 22 ba
       -0.0054313894 -0.034128744 -0.01895955 -0.0006202558
0000e0 e3 da cf bc 5a 07 bf bc df 8b d8 3d c2 d9 c5 3d
       -0.025372928 -0.023318935 0.10573553 0.09660675
0000f0 7c 50 05 3d aa 97 36 3a d1 35 21 bd 1e 59 df 3d
       0.03254746 0.0006965349 -0.039357964 0.1090567
000100 1f 13 07 3c 45 54 95 3c 85 00 8d 3c 7d ac 52 3d
       0.008244305 0.01822866 0.017212162 0.05143403
000110 ac 0f 01 3d 6a d4 8b bd e1 f0 5c 3c 8a ed aa 3d
       0.031509086 -0.06827624 0.013485164 0.08346088
000120 b1 e2 81 3b 89 26 2a 3f c7 5a 91 3d a3 38 f2 3c
       0.0039637913 0.6646505 0.070973925 0.029568022
000130 22 3c a2 bc 83 07 39 be 68 d8 78 3b 92 91 84 3d
       -0.019804064 -0.18069272 0.0037970785 0.06473078
000140 bc 90 93 3c 40 53 3a 3d 83 0c 82 3e d5 14 55 3b
       0.01801335 0.04548955 0.2540017 0.0032513638
000150 19 ef 0d bd 54 5a 42 bd 83 46 a9 3c 7e 6c 9f 3c
       -0.03465185 -0.047449425 0.020663505 0.019460913
000160 87 4a bb 3b f9 89 32 3d 81 fb 76 3d f9 1a 16 bd
       0.0057156715 0.043588612 0.060298447 -0.036646817
000170 d7 80 b6 bc 12 a9 d1 bd 5d 7e fd 3c 75 12 34 3d
       -0.022278232 -0.10237326 0.030944044 0.043962914
000180 a1 5b 00 3d f0 ec 6a 3c a3 0f 2e 3f e1 3b 71 3f
       0.031337384 0.014338717 0.6799261 0.9423199
000190 1e 92 4e 3d cf bf 88 bd 1a e0 c0 3d dc 7f 83 bc
       0.050432317 -0.066772096 0.09417744 -0.016052179
0001a0 0a 6f 85 bd ee 36 10 bc 56 25 08 bc 20 39 ef bb
       -0.0651532 -0.008802159 -0.008309683 -0.007300511
0001b0 8e e3 87 bc eb e3 a7 bc b3 48 57 bc 21 a3 84 3d
       -0.016587999 -0.020494422 -0.013139891 0.06476427
0001c0 e3 17 01 bb af 2e ef 3c 03 37 9e 3b 4c 88 d4 3c
       -0.0019698075 0.029197065 0.0048283353 0.025943898
0001d0 90 94 a1 3d 0d 12 e4 bc 55 71 c6 3d 38 10 92 3d
       0.07889664 -0.027840639 0.09689585 0.07132
0001e0 90 a3 e9 3b f2 2a 8e 3c f2 dc 84 bd cd 5a 91 bd
       0.007130094 0.017354462 -0.064874545 -0.07097397
0001f0 b4 45 aa bc 45 d2 95 3d fd d4 8a 3c 46 c9 8e bd
       -0.02078519 0.07315496 0.016947264 -0.069719836
000200 c3 37 86 3e d2 4a a2 3e 60 d0 85 3d 95 63 d3 be
       0.26214418 0.31697708 0.06533885 -0.41286913
000210 be cd 97 3e 6b 9c b1 3d 1c 23 93 3e 9f 9d df be
       0.29649156 0.086724125 0.28737724 -0.43674943
000220 8a d8 21 3e 5e 95 a8 bf 08 8f c5 be 68 10 95 3e
       0.1580526 -1.3170583 -0.38585687 0.2911408
000230 3e 86 54 3e d6 2d 9a be 93 3c 2c 3e 55 db dc be
       0.20754334 -0.30113095 0.16819982 -0.43136087
000240 b0 fa 97 3e 95 67 92 3e 3c 44 80 bf 91 af 36 3e
       0.29683447 0.28594652 -1.0020823 0.17840411
000250 c4 f3 49 3e 00 6c 7e bb 47 df 92 3e 0b 94 1d 3e
       0.19721895 -0.0038821697 0.28685972 0.15388505
000260 79 15 8b 3e cd 83 89 3e 55 66 a2 3e 9e 73 3b 3e
       0.2716482 0.2685837 0.31718698 0.18305823
000270 76 ea 7d 3e 46 26 23 bf 03 f4 97 3e d3 15 c7 3e
       0.24796471 -0.63730276 0.29678354 0.38883838
000280 2d cc 91 3e 35 2d 00 bf db ea a5 bf c2 e5 cb bf
       0.28476086 -0.5006898 -1.2962297 -1.5929492
000290 17 b1 e1 be 31 5b d3 3d 58 06 d0 3d df 19 31 3e
       -0.4408042 0.10320128 0.1015746 0.17295025
0002a0 8c ae ee 3d 45 f8 7e 3e 4c 92 91 3e 7a d3 f7 3d
       0.11654386 0.24899395 0.28431928 0.12100883
0002b0 c7 aa 95 3e 5d b8 94 3e f2 e7 67 3e be b6 dc be
       0.29231855 0.29046908 0.22647074 -0.4310817
0002c0 b4 e4 ea bb 79 cc a0 3e 2c 9f 4e 3e 32 52 3e 3e
       -0.007168377 0.31406 0.20177907 0.18586043
0002d0 59 45 de be f1 29 99 3c e2 a4 e2 be 4b 89 dd be
       -0.43412283 0.018696757 -0.4426642 -0.4326881
0002e0 38 53 5e 3e fd e4 97 3e 7e 6c d2 3d 03 5a 4a 3d
       0.21711433 0.29666892 0.102745995 0.049402248
0002f0 03 4c 80 3e 2c 81 c3 be 0a 27 e9 bd 50 ba b4 3d
       0.25057992 -0.38184488 -0.11384399 0.08824599
000300 75 db ab 3d f3 60 9d 3d 89 53 85 bb 60 53 27 be
       0.083914675 0.07684507 -0.004068796 -0.16340399
000310 fd 82 9a 3d bb a7 66 3d d3 42 89 3d 1e 44 4f be
       0.07544515 0.056312304 0.06702199 -0.20240828
000320 6c 71 50 3d 32 c0 3a bf 3d bc 34 be 40 16 95 3d
       0.050889418 -0.72949517 -0.17649932 0.072796345
000330 0b 84 73 3d 88 59 e4 bd 42 1a 4f 3d 1b 87 3e be
       0.059452098 -0.11149889 0.05056215 -0.18606226
000340 b2 cc 98 3d 0f 36 69 3d 5d ce b5 be 30 af 35 3d
       0.074609175 0.05693632 -0.35509005 0.044356525
000350 7a 08 83 3d 52 6e 47 3d fe 3b ab 3d 22 04 22 3d
       0.06398101 0.048689194 0.08361052 0.039554723
000360 92 6f 98 3d b6 e3 67 3d fb be 36 3d b6 d9 00 3e
       0.07443155 0.056613646 0.044615727 0.1258305
000370 53 f9 7c 3d 22 d2 15 bd 95 b2 93 3d 73 08 b7 3d
       0.06176121 -0.03657735 0.07211796 0.089371584
000380 71 e0 a3 3d 62 08 28 be d1 48 3c bf a6 bb 81 bf
       0.08001793 -0.16409448 -0.7354861 -1.0135391
000390 dd 66 36 be 62 34 68 3d 1e ae ee bc 4b ef 83 3d
       -0.17812677 0.05669058 -0.02913576 0.06442126
0003a0 29 26 83 3d 7c 87 5e 3d 2a 98 a3 3d fc 86 28 3d
       0.06403763 0.054328427 0.07988007 0.041144356
0003b0 da a9 a2 3d ec 00 a6 3d 74 f8 87 3d 93 e6 3e be
       0.07942553 0.081056446 0.066391855 -0.18642645
0003c0 89 5e db 3c e9 63 93 3d 83 57 22 3d 90 1d 28 3d
       0.026778476 0.07196791 0.03963424 0.041043818
0003d0 35 e9 47 be 92 97 03 3d 20 f7 56 be f7 f6 46 be
       -0.19522555 0.03212697 -0.20992708 -0.19430147
0003e0 b8 a3 7d 3d 85 30 b5 3d fc 8c 7d 3d 34 fe fe 3c
       0.061923712 0.08847145 0.06190203 0.031127073
0003f0 19 95 77 3d 12 76 36 be 01 e4 05 bd c0 6e 6f 3d
       0.060444925 -0.17818478 -0.032688145 0.05845523

bias f4 [32]
000000 bb 62 1f 3e 15 ed 9f 3d eb 97 11 be 06 cd fe bc
       0.15565006 0.07808892 -0.14218108 -0.031103622
000010 33 bd 0b be 37 56 8f bc 00 47 b5 3d 20 41 b9 bc
       -0.13646393 -0.017497165 0.08851433 -0.022614062
000020 25 8a 5f bd fd 15 0a be 2b 08 d6 ba 2e d6 cc 3d
       -0.054575104 -0.1348495 -0.0016329339 0.10001789
000030 d4 15 29 be 6b 16 aa 3c 3d f5 63 bc 2f 43 cf 3c
       -0.16512233 0.020762643 -0.01391345 0.02530059
000040 bf 87 01 3e 0f 98 92 3c 05 59 e7 bb dd 06 f6 3d
       0.1264944 0.017894773 -0.0070601725 0.12013028
000050 03 3d 0b 3e 0e 16 75 bd 86 eb 8b bd ef c6 41 be
       0.13597493 -0.059835486 -0.06832032 -0.18923543
000060 dc 1f db bd 96 74 14 be ac af cb bc fc bd 20 3d
       -0.10699436 -0.14497599 -0.02486404 0.039243683
000070 de f5 3c 3e 58 53 80 bc 24 dd 5f be 75 cd 89 3d
       0.18453166 -0.015664741 -0.21861702 0.06728641

weight f4 [32, 1]
000000 c9 e2 38 3f db f2 df 3e 40 76 fb be aa 0e ff be
       0.72221047 0.43739972 -0.49113655 -0.49815875
000010 4d 09 f2 3e 4c 59 36 3f 59 55 fb 3e 04 b2 e9 3e
       0.4727272 0.71230006 0.49088553 0.45643628
000020 61 c7 f3 3e dc cc f0 be 07 b9 65 bf 5e e2 f3 be
       0.47613052 -0.47031295 -0.89735454 -0.47633642
000030 0f 81 f3 3e 86 bf 35 3f ea b1 14 3f ec 70 f9 be
       0.475594 0.70995367 0.58083975 -0.48718965
000040 9f 4d 4c bf 86 c7 f3 be 13 8c f1 be a1 eb f8 be
       -0.7980594 -0.47613162 -0.4717718 -0.4861727
000050 c0 ca f3 be cf 22 f5 be be ba fa be 6d 7a 4f bf
       -0.47615623 -0.4787812 -0.48970598 -0.8104618
000060 31 51 d8 3e e3 7a 37 3f f4 14 16 3f 89 1a ea 3e
       0.42249444 0.71671885 0.5862572 0.4572337
000070 cd 3a f4 be 33 02 f1 be 9b a7 d3 3e d0 53 ee 3e
       -0.4770111 -0.4707199 0.4133881 0.4654832

bias f4 [32]
000000 54 fc fc 3d b5 0b e5 be 22 aa 0c 3f ec 36 05 3f
       0.12352815 -0.44735494 0.549471 0.5203693
000010 a1 97 f9 be d9 22 25 3b 50 86 55 be c0 5f ee be
       -0.48748496 0.0025197773 -0.20852017 -0.46557426
000020 20 bb 05 bf dd d9 f0 3e b9 21 0c 3f 7b af f3 3e
       -0.52238655 0.47041216 0.54738957 0.47594818
000030 e8 7b 06 bf 1c 50 46 3d d5 8d 7c be 2b 22 11 3f
       -0.52532816 0.048416242 -0.2466348 0.5669276
000040 b7 49 6d 3e 2b a7 f3 3e 13 88 f1 3e 8e c7 f8 3e
       0.23172651 0.47588477 0.4717413 0.48589748
000050 be d3 f3 3e 30 a2 1b 3f 00 83 fa 3e eb 71 9e 3e
       0.47622484 0.60794353 0.4892807 0.30946288
000060 29 bd db be d8 ef 23 3e 9e 14 7f be 76 73 26 bf
       -0.42917755 0.16009462 -0.24910209 -0.6501993
000070 43 ef 1d 3f 5c fc 25 3f 5d a0 de be 2a 36 17 bf
       0.6169321 0.64838195 -0.43481722 -0.5906702

weight f4 [64, 32]
000000 ed 08 8a 3e 5f 8a 9f 3e 7a 79 07 be ac 6f 28 be
       0.26959935 0.31160256 -0.13229933 -0.1644885
000010 f2 ac 47 3e 8d 59 e2 3e db be 58 3f e0 d1 90 3e
       0.19499567 0.44208947 0.8466622 0.28285122
000020 74 b8 0f 3e 91 39 3f bf 62 ea 39 bf 54 6d f1 be
       0.14035207 -0.74697214 -0.72623265 -0.47153723
000030 dd cd 0c 3e 06 df b0 3e b2 29 5d 3f 37 d5 f2 bd
       0.13750406 0.34545153 0.86391747 -0.11857074
000040 ca 9e 95 be ab dd f7 be 7e 32 28 bf bc bc a1 be
       -0.2922271 -0.48411307 -0.65702045 -0.31589305
000050 8e b8 f7 be 8a b8 c1 bd 82 9e 8d be c6 a6 2a bf
       -0.48382992 -0.09459026 -0.27659994 -0.66660726
000060 6c 0b f2 3e 06 6a 69 3e 56 55 57 3f f0 b5 91 3d
       0.4727434 0.22794351 0.8411459 0.0711478
000070 a8 52 b9 bd f4 00 9f bd e9 df 0c 3f c5 d3 c0 3d
       -0.090489686 -0.07763854 0.5502916 0.09415392
000080 e9 a5 84 3c 22 78 96 bc 77 c3 4f 3d 22 b1 4d 3d
       0.016192393 -0.01836783 0.05072352 0.050217755
000090 94 09 5a bd f0 5a d5 bd 12 ad 62 be 63 e3 46 bd
       -0.05323179 -0.104177356 -0.22136334 -0.048556697
0000a0 c5 fd 5b bd 5c 2a de 3c 21 13 c8 3d 63 7a 10 3d
       -0.05370881 0.027119808 0.097692735 0.035272967
0000b0 b9 0a 5c bd aa 73 cf bc f8 72 5e be 9a e9 4f 3d
       -0.053721163 -0.025323708 -0.21723545 0.05075989
0000c0 44 a7 76 3d 6f 21 0e 3d 57 91 ed 3c 84 91 34 3d
       0.06021811 0.034699854 0.028999968 0.044084087
0000d0 2a 3c 0d 3d c3 9c 52 3d e1 1e 3f 3d 21 50 58 3d
       0.034481205 0.05141903 0.046660308 0.052810792
0000e0 89 c4 14 bd 75 9f 1f 3d c5 19 46 be 17 81 5f bd
       -0.036320243 0.03897043 -0.19345768 -0.05456647
0000f0 7f ff 52 3d 13 61 54 3d 33 5e 1a bd b2 2a 5d bd
       0.05151319 0.05185039 -0.03768749 -0.053995796
000100 0f e9 74 3d 12 b0 94 3d ba 63 9e bd 0d 04 af bd
       0.059792574 0.07260145 -0.07733865 -0.085456945
000110 c7 04 b0 3d 07 14 12 3e cf 79 91 be b1 3c bb 3d
       0.08594661 0.14265452 -0.28413245 0.09142435
000120 7b 65 99 3d 49 fd bc bd e9 af 2e bf 5c 87 bf bd
       0.07490059 -0.09227998 -0.6823717 -0.093519896
000130 0f f1 97 3d c3 89 bc 3d 4f 3e 8d be 05 47 96 bd
       0.07419025 0.092059635 -0.275866 -0.07337765
000140 ee 13 84 bf aa 21 bf bd f6 7b b9 bd e7 a3 d4 bd
       -1.0318582 -0.09332593 -0.09056847 -0.103828244
000150 d7 e8 be bd 89 dd 87 bd cd 3d d4 bd 4c 51 de bf
       -0.093217544 -0.06634051 -0.1036335 -1.736856
000160 63 ba a4 3d 7b fd 2f 3d 36 da 6b be b6 7a 69 3d
       0.08043363 0.042966347 -0.2303246 0.057001792
000170 1e a5 85 bd 54 de 7a bd df bd a9 3d 40 a4 81 3d
       -0.06525634 -0.061247185 0.08288168 0.06330156
000180 9d 13 1b bb 91 6c 5b 3d 1d f8 6e bd ae 99 83 bd
       -0.0023662813 0.053570334 -0.058342088 -0.064257964
000190 c8 1e 96 3d c8 d8 12 3d 91 9c af 3d 8b 19 9d 3d
       0.0733009 0.03585127 0.085747845 0.076708876
0001a0 2d 66 88 3d 3a f9 9f bd 7d ae 01 bf be 2b a1 bd
       0.066601135 -0.07811208 -0.50656873 -0.07869671
0001b0 50 bf 87 3d 42 fe 12 3c 55 dc d4 3d 33 d7 63 bd
       0.06628287 0.008971753 0.103935875 -0.05562515
0001c0 8a bc c1 be 87 31 a0 bd db 6f 9e bd e5 61 a4 bd
       -0.37839156 -0.078219466 -0.077361785 -0.080264844
0001d0 93 a8 9f bd b1 cf 50 bd 2d 12 a1 bd 90 6b 89 be
       -0.07795825 -0.05097932 -0.07864795 -0.26839876
0001e0 92 d0 96 3d e8 7f e6 bb f9 7c bb 3d 9f c8 64 3d
       0.073640004 -0.0070342906 0.09154696 0.05585539
0001f0 09 d1 4d bd 23 96 43 bd 65 67 99 3d 8f 5a 74 3d
       -0.05024818 -0.047750603 0.07490424 0.059656676
000200 ce bb 59 bd 89 fb f2 bc 5b ee 6e 3c 85 4a b8 3c
       -0.05315762 -0.029660957 0.014583196 0.022496471
000210 bc 6c 1a bc 42 c4 d4 bb 0d ac 63 3e ba 27 ad bc
       -0.009425338 -0.0064931223 0.22233601 -0.021137107
000220 98 7e 78 39 f2 02 b4 3d 92 fd 4c be a8 8f 9b 3d
       0.00023698283 0.08789624 -0.20018604 0.0759576
000230 2e d8 58 3a 5b bf 22 bd ee 83 7c 3e 87 6e 34 3c
       0.00082719594 -0.039733272 0.24659702 0.01101268
000240 3f 30 d4 be 7c 89 9d 3d 03 e7 b0 3d a0 d8 64 3d
       -0.4144306 0.07692239 0.08637812 0.055870652
000250 cf 13 9d 3d c1 89 9c 3b 3e 4f 46 3d 0f d2 3e 3d
       0.07669794 0.0047771637 0.048415415 0.046587046
000260 b0 7e 18 bd 50 b6 81 bd 9f a1 60 3e 60 9c 63 3c
       -0.037230194 -0.063336015 0.21936654 0.013892263
000270 3b 76 6b 3b d2 5c aa 38 d0 2d 0e bd 3c 03 14 3c
       0.0035928625 8.123521e-05 -0.03471166 0.009033974
000280 49 4d c8 3c 18 89 7c 3d fd 6f a9 bd bc 03 b4 bd
       0.024450915 0.06165418 -0.08273313 -0.08789775
000290 e9 fa a6 3d 22 66 15 3e f9 4a 31 bd 0a fa ab 3d
       0.08153326 0.14589742 -0.04328439 0.083973005
0002a0 0f 00 99 3d db 5d 8b bd 7b 08 33 bf 70 25 a0 bd
       0.07470714 -0.06805011 -0.69934815 -0.07819641
0002b0 ee ef 97 3d 65 1d 92 3d fd 3c 29 bd 6b be a4 bd
       0.0741881 0.07134513 -0.04131793 -0.08044132
0002c0 1a fd c2 be 45 67 9c bd 26 1f 8c bd d5 93 c7 bd
       -0.38083726 -0.076368846 -0.068418786 -0.097449936
0002d0 60 44 9c bd 64 e4 9b bd 90 d6 c9 bd 0b 90 43 bf
       -0.07630229 -0.076119214 -0.09855378 -0.7639167
0002e0 85 6d 95 3d 84 67 28 bb 5a d9 e4 bb 7d a7 83 3d
       0.0729628 -0.0025696466 -0.006983918 0.0642843
0002f0 94 75 9a bd 07 b3 95 bd 42 4e 91 3d 3d c5 8a 3d
       -0.075419575 -0.073095374 0.070950046 0.067759015
000300 f0 ec 59 3d 20 1b 2e 3a 14 9f 2d 3d 03 f9 1a 3d
       0.053204477 0.0006641615 0.042388037 0.037835132
000310 24 84 18 bd b0 25 75 bd 01 f6 8c be de 01 e8 bc
       -0.037235394 -0.059850395 -0.27531436 -0.028321203
000320 4d bd 34 bd d5 17 1c 3a 6f 59 27 3d 2d 00 34 3c
       -0.044125844 0.0005954479 0.040856775 0.01098637
000330 c1 f9 36 bd 2a d0 7d 3c 32 3f 8d be 93 ae 36 3d
       -0.044671778 0.015491525 -0.27587277 0.04460008
000340 9a cc 20 3d 38 b1 29 3c 40 73 43 3b 4a e7 b6 3c
       0.039257623 0.010357194 0.0029823333 0.022327084
000350 81 34 27 3c 4f 2d 48 3d d7 01 d5 3c 4b be fc bc
       0.010205389 0.048871335 0.026001854 -0.030852458
000360 20 0c 57 bc b4 21 97 3d 86 1b 4a be d3 81 62 bd
       -0.013125449 0.07379475 -0.19737062 -0.05529959
000370 78 95 4b 3d f0 89 55 3d 34 78 6e bc 2e 4d 52 bd
       0.04970309 0.0521335 -0.014555026 -0.051343136
000380 41 ac 37 3c 2a be 9b 3d be ba be bd 95 bc cc bd
       0.011210502 0.0760463 -0.09312962 -0.09996907
000390 91 42 c8 3d bd 30 d4 3d c1 0d 0f bd 82 9e d1 3d
       0.097783215 0.103608586 -0.034925226 0.10235311
0003a0 36 85 b6 3d 67 23 ab bd 33 78 56 bf ab 5c c3 bd
       0.08912127 -0.08356362 -0.8377716 -0.095391594
0003b0 3a 29 b5 3d f1 78 3a 3d 93 88 aa bc 4a 3f b8 bd
       0.08845754 0.045525495 -0.020817077 -0.089964464
0003c0 44 96 14 bf 54 00 bb bd 62 f6 ac bd 1e 8d f0 bd
       -0.5804179 -0.09130922 -0.08445431 -0.11745666
0003d0 08 4c bb bd a2 2d ad bd 26 94 ef bd 84 ad 6f bf
       -0.09145361 -0.084559694 -0.11698179 -0.9362414
0003e0 de b1 b4 3d 06 0f 0f bc a1 83 1a bd 09 5e 9b 3d
       0.08822988 -0.008731609 -0.037723187 0.07586295
0003f0 68 33 ab bd 4e 19 a5 bd 73 71 a2 3d a6 bf a4 3d
       -0.08359414 -0.08061467 0.07931795 0.080443665

bias f4 [64]
000000 a5 1a b8 bd 8a 7f 34 3e 87 f9 20 3b 51 ac f1 bd
       -0.08989457 0.17626777 0.0024562792 -0.11800445
000010 ca f6 f1 bd 06 b5 f6 bd 4e ac 47 3e 1a 32 49 bd
       -0.118146494 -0.12046246 0.19499323 -0.049120046
000020 04 28 37 be 88 b8 3e be d2 93 72 bc d8 d3 88 be
       -0.17886358 -0.1862508 -0.014805751 -0.26724124
000030 d1 c0 9a be 20 ec 4f bc e7 02 5c bd a5 ed 6d 3e
       -0.30225232 -0.012690574 -0.053713705 0.23235185
000040 85 b0 f2 bd 9f 50 86 ba 55 d3 09 be af 93 7a bc
       -0.11850075 -0.0010247416 -0.13459523 -0.015294
000050 9f 30 ba bd 47 46 43 be ee e5 1e be 3a fe 2e bd
       -0.09091305 -0.19069777 -0.15517399 -0.042722918
000060 59 7c 56 bc b5 3a 7b bb 0f 03 53 be 6d 9f 2a be
       -0.01309117 -0.0038334553 -0.20606636 -0.16662379
000070 0d b8 bf 3c db b5 e5 bc 15 74 02 bd 3d 5f 40 3e
       0.023403192 -0.028040817 -0.031848986 0.1878633
000080 ec 2d 6f 3c 42 8c 5e be 9b e8 11 be 69 e0 6a 3e
       0.014598351 -0.21733192 -0.14248888 0.22937168
000090 a6 7e e2 bc 01 1d 17 be 0d 32 56 3e b2 91 74 3e
       -0.027648281 -0.14757158 0.2091753 0.23883703
0000a0 a9 87 90 b8 12 60 59 be 2f a4 4a be cf 88 f4 3b
       -6.891724e-05 -0.21228054 -0.19789194 0.007462598
0000b0 60 21 ad bd e1 30 3d be f3 42 54 3e 82 79 5e bd
       -0.084536314 -0.18475677 0.20728664 -0.054315098
0000c0 56 63 bc bd b8 07 40 be f1 60 6b be 82 4e 61 be
       -0.09198634 -0.18752944 -0.22986199 -0.22002605
0000d0 40 d9 44 be f3 05 27 be 75 c8 05 be d5 9c 4f be
       -0.192235 -0.16310863 -0.1306475 -0.2027467
0000e0 a8 39 74 bd 41 55 d2 bc 6d 21 51 3e 18 cf 0f be
       -0.059625298 -0.025675418 0.20422907 -0.14043844
0000f0 0b 9d 3d be 5d f9 3c be e2 8c 6f be cf d4 39 be
       -0.18516938 -0.184545 -0.23393586 -0.18147586

weight f4 [32, 64]
000000 40 7e 9e be 87 29 d4 bd f5 11 5c 3e ab eb 05 3e
       -0.30955696 -0.10359483 0.21491225 0.13078181
000010 39 30 c5 3d ec cb 33 3e c6 dd c1 bd c2 a6 4e 3e
       0.09628338 0.17558259 -0.09466128 0.201808
000020 71 66 ec 3d 5f cf 22 3e c2 55 67 bd e0 e5 66 bf
       0.11542977 0.15899418 -0.05647827 -0.9019451
000030 26 59 36 3e 2b 80 c8 3d ff 54 15 3e 03 fa b3 bd
       0.17807445 0.09790071 0.14583205 -0.0878792
000040 ae 7f d9 3d 7d b1 1d 3e 78 e7 21 3e 14 69 22 3d
       0.10620056 0.15399738 0.15810955 0.03965099
000050 1e f7 04 3e 7b 96 a8 3d 9c fe 95 be 22 8a f9 3d
       0.12984893 0.08231827 -0.29295814 0.1218455
000060 b7 ba 45 bc 37 fe 26 3e 67 c4 cf 3d 52 e2 c1 3d
       -0.012068442 0.16307913 0.10144883 0.09466995
000070 f4 99 24 3e ec de 17 3e 21 45 12 be ec f6 c8 bd
       0.16074353 0.14831132 -0.14284183 -0.098127216
000080 c7 5f 31 3b 8e c8 93 be f6 ae 4f be e0 04 b3 bd
       0.0027065144 -0.2886395 -0.20281586 -0.08741164
000090 f3 c9 58 bd 57 ba 21 3e 13 f7 bb bd b0 09 b5 bd
       -0.05292697 0.1579374 -0.09177985 -0.08839738
0000a0 7b 38 32 3e 43 3a 1d 3e 88 59 46 3d f6 f6 57 bd
       0.17404358 0.15354256 0.048425227 -0.052725755
0000b0 37 9a e8 3d bf 72 47 3e 2c 9c bf bd 8e b0 31 3e
       0.11357539 0.19477366 -0.09355959 0.17352507
0000c0 18 c0 ab 3d 96 1a 07 3e 33 7c c8 3d 88 11 be 3d
       0.08386248 0.13193735 0.09789314 0.092806876
0000d0 d2 0d eb 3d 0e 20 15 3e 61 13 d8 3d b8 18 4b 3e
       0.114772454 0.14563009 0.10550571 0.19833648
0000e0 6d 46 02 3e 3b 91 40 bd 8d bf c0 bd d6 91 0b 3e
       0.12722178 -0.047013503 -0.094115354 0.13629851
0000f0 4f 82 d8 3d 78 67 6f 3e 96 e8 78 3e 8f 26 d2 3d
       0.105717294 0.23379314 0.24307474 0.10261261
000100 24 1b 3d bb 69 ab a4 3d f1 84 1f 3d 11 25 45 bd
       -0.0028855288 0.080405064 0.038945142 -0.048131052
000110 93 9e 39 bd 19 8e 79 bd df ac b5 3d 9d e4 0b bd
       -0.045317244 -0.06092653 0.08870863 -0.03415357
000120 0e 28 b0 bd 3b 68 c2 bd c9 d6 3f bc e8 c6 65 be
       -0.0860139 -0.09492537 -0.011708924 -0.22439158
000130 db 73 51 bf fe af d2 bd 86 a0 de bd a4 54 c2 3d
       -0.81817406 -0.10287474 -0.10870461 0.094888
000140 70 fd cc bd 2a c1 07 bd dc df a4 bd 62 40 f0 bc
       -0.10009277 -0.0331432 -0.0805051 -0.029327575
000150 00 92 e8 bd 2f a8 b3 bd 18 43 9e be 12 9a e0 bd
       -0.11355972 -0.08772313 -0.30910563 -0.109668866
000160 86 bc 3d bd c4 25 d3 bd 81 af 9d bd a6 95 0a be
       -0.046322368 -0.103099376 -0.0769949 -0.13533649
000170 37 f6 e5 bd 3c 44 d5 bd 37 5c a4 3d bd 23 ad 3d
       -0.112286024 -0.10413405 0.08025401 0.08454082
000180 70 ed 0e 3e 82 ec 1e be 5c e3 16 be 47 85 bc 3d
       0.13957763 -0.15519908 -0.14735168 0.09205108
000190 54 f4 85 bc e7 c5 95 bd 0e 96 b7 3d 56 b9 c1 3d
       -0.016351856 -0.073131375 0.089641675 0.09459178
0001a0 6a 91 bb bd 45 0a 84 bd d2 67 09 be 67 1d 9f bc
       -0.09158595 -0.06447271 -0.1341851 -0.0194232
0001b0 8f 4c ca bd 5b 44 a3 be 9e f9 b0 3d b2 92 c3 bd
       -0.09877884 -0.3188809 0.08641361 -0.09549464
0001c0 56 09 02 be 14 6f e8 bd a9 e8 ee bd dc c7 ce bd
       -0.12698874 -0.113493115 -0.1166547 -0.10096714
0001d0 06 c9 ef bd 10 8d 9a bd 14 0e d8 bd 15 f7 ca be
       -0.11708264 -0.07546437 -0.1054956 -0.39641634
0001e0 5d 54 ca bd 7a 8e a2 bc 49 34 af 3d 96 28 15 be
       -0.09879372 -0.019843329 0.085548945 -0.14566264
0001f0 1f 2a 01 be 8c 41 f9 be d1 f9 79 bf 21 28 c7 bd
       -0.12613724 -0.4868282 -0.97646815 -0.09724451
000200 0c 6f c0 3e 06 49 1d bc 40 3b b2 3e d2 0e 64 3d
       0.37584722 -0.00959993 0.3481083 0.055678196
000210 27 c6 06 be 13 d9 de 3d 34 d3 da 3b 3e 3a fd 3d
       -0.13161527 0.10881247 0.0066780094 0.123646244
000220 39 bd 48 3d 3e 9c 9f bc 20 0c 12 3d 30 ab a2 bf
       0.04900858 -0.019483682 0.035656095 -1.2708492
000230 9d c1 f3 bd ef 04 e8 3b a7 c0 3a bd 58 79 7c 3c
       -0.11902163 0.0070806663 -0.045593884 0.01540979
000240 5a 29 35 bd cc 25 1f 3e a4 97 72 bd d4 95 3c bf
       -0.04422889 0.15541762 -0.059226647 -0.7366612
000250 0b 43 f8 bc 9c c8 9f 3c 0a 3d c8 3e 11 07 fc bc
       -0.030305406 0.019504838 0.3910907 -0.030765088
000260 c9 4c 24 3e 4b 74 6e bd 61 d8 24 bd 28 53 d9 bd
       0.16044916 -0.058216374 -0.040245418 -0.10611564
000270 a5 54 70 3d da 96 0f bc 68 b6 9f be 97 ff 07 b9
       0.058674473 -0.008763993 -0.31193852 -0.00012969818
000280 2e 1b 23 3d 7f 90 e3 3d e5 c2 ed 3e 39 6a 6f 3c
       0.039820842 0.11111545 0.46437755 0.014612728
000290 ff cf 28 3d 3f 2f ef 3d 33 bd 05 3c 28 e8 76 3c
       0.041213986 0.11678933 0.008162784 0.015069999
0002a0 f4 8c 37 bd 24 ad 50 3d 71 be c6 bd fa dd b2 3d
       -0.044812158 0.05094637 -0.097042926 0.08733745
0002b0 5a 0f c5 3a 8e c6 8b 3e d9 e0 c8 3b cc bd 36 bd
       0.0015034482 0.27299923 0.0061303196 -0.0446146
0002c0 a9 2b 59 bd a9 95 2e 3c 21 c3 5c 3c a0 30 9a bd
       -0.053020153 0.010655799 0.013474257 -0.07528806
0002d0 d3 a9 0d 3c d4 82 b4 3d 54 b9 a9 3a 3f eb a0 3e
       0.008646446 0.08814016 0.0012948909 0.3142948
0002e0 03 85 58 bc 4a 27 93 3d aa a1 b4 3b c8 0c 06 3e
       -0.013215306 0.07185228 0.005512436 0.13090813
0002f0 bd 2c cb bc 06 c9 ca 3e fc 48 89 bc ef c7 84 bc
       -0.024801606 0.39606494 -0.016758434 -0.016208617
000300 e0 6f 43 be d5 1b 12 3e cc a0 ca 39 ff 1f e3 bd
       -0.19085646 0.1426843 0.00038648245 -0.11090087
000310 e7 59 42 bd 44 d8 bc bd 91 fb 1c 3e b1 df 99 bd
       -0.04744902 -0.09220937 0.1533034 -0.07513369
000320 a4 b4 07 bc f5 61 45 be b8 25 91 be b9 a1 fc bd
       -0.008282814 -0.19275649 -0.2834909 -0.12335534
000330 cf 0d c6 bd d2 e8 d2 bd b4 fb 83 be 29 fe 2c 3e
       -0.096706025 -0.10298313 -0.25777972 0.1689383
000340 2f 21 5c be 76 31 50 3e 35 30 94 be b3 48 5f be
       -0.21497034 0.20331368 -0.2894303 -0.21805076
000350 46 c6 86 be 05 03 dd 38 2b 0e a3 bc 90 25 70 be
       -0.26323146 0.000105386636 -0.019904217 -0.23451829
000360 f5 db 87 be 2b e3 8c be 5d 4b ea bd c1 cb ba bd
       -0.26535 -0.27517065 -0.11440156 -0.09120894
000370 08 43 c6 bd 23 67 3e be 7a 83 77 3d fe 24 16 3e
       -0.09680754 -0.18594031 0.06042812 0.14662549
000380 21 4a 65 bf 89 72 2a bd c5 e3 ff bb c8 84 22 3e
       -0.89566237 -0.041613135 -0.0078091347 0.15870965
000390 62 6a 91 be 53 e6 fd bd f4 b6 1d 3e a5 4c 2c 3e
       -0.28401476 -0.123974465 0.15401822 0.16826113
0003a0 29 5c 46 be ac 82 d9 bd 24 25 26 be eb 6e 90 be
       -0.19371094 -0.10620627 -0.16225106 -0.28209624
0003b0 04 99 23 be fd fa c2 bd 48 3d 17 3e 51 ac 5b be
       -0.1597634 -0.095205285 0.1476947 -0.21452452
0003c0 d4 bb 50 be 7c e6 f6 bd 6b 16 c5 bd d9 4e 2d be
       -0.2038415 -0.1205568 -0.096234165 -0.16924609
0003d0 8c 4b 0d be 2f 16 ed bd 9c c2 30 be bd a4 06 be
       -0.1379835 -0.11576497 -0.17261738 -0.1314878
0003e0 76 34 3f be c0 c5 91 be 47 33 16 3e 09 48 ed bd
       -0.18672356 -0.28471184 0.14667998 -0.11586005
0003f0 2f ca 29 be 7e b9 f8 bd c3 b6 e6 bd 11 2c 19 be
       -0.16581033 -0.12144755 -0.11265328 -0.14958216

bias f4 [32]
000000 45 85 30 be f5 c4 0a 3e 6f 72 bc 3d f0 15 d5 3d
       -0.17238338 0.13551696 0.09201514 0.10404575
000010 5e f9 c4 3b 6f c3 30 3d 93 3c 8d be 5b ae a4 be
       0.006011172 0.04315513 -0.27585277 -0.32164273
000020 e9 40 b8 bc 0e af 03 bd 6a 0f 79 be 0f 3a cc 3d
       -0.02249189 -0.032149367 -0.24322286 0.09972011
000030 8c 99 01 3e 7f 64 1f 3e 8f 1a 30 be a9 22 a0 bd
       0.1265623 0.1556568 -0.17197631 -0.07819111
000040 b5 84 17 be ee 7a 92 be d7 52 05 be 6a c9 33 3e
       -0.14796717 -0.28609413 -0.13019882 0.17557302
000050 d7 32 45 3d ff de 91 3c 0e 1a c8 3d 76 7f eb 3d
       0.048144188 0.017806528 0.097705945 0.114989206
000060 3e de dd 3d 42 d8 aa be 20 42 19 be df 01 cc 3d
       0.10833405 -0.33368117 -0.14966631 0.099612944
000070 28 3e c4 3d c4 16 12 3e 0f d4 25 3e ff 7f e2 bd
       0.09582168 0.14266497 0.16194175 -0.110595696

weight f4 [32, 1]
000000 e6 cc e7 3d 3c 43 fe 3e 7a 17 ed 3b 22 12 0f 3b
       0.11318378 0.4966067 0.0072354646 0.0021830876
000010 37 27 c4 bd 0f 6e bd 3b dd ce 19 bf ef 4d 3e 3c
       -0.09577792 0.0057809423 -0.60081273 0.0116152605
000020 cf bd e5 bc b2 a0 5d 3d c2 94 19 3d da 7a d2 bc
       -0.02804461 0.05410833 0.037495382 -0.025693346
000030 d4 27 44 bd b5 fa 0a 3f 40 f0 66 3e 1d 58 0d 3f
       -0.047889546 0.542888 0.22552586 0.55212575
000040 a9 1f 19 bd e0 5e 3b 3d f0 91 4b 3d 6f a8 26 bd
       -0.03738371 0.045744777 0.049699724 -0.040687975
000050 a2 ea 44 be d1 46 0c bc 15 39 2d 3d f8 4e 45 bd
       -0.1923013 -0.008561806 0.042290766 -0.048171014
000060 78 f6 2e 3f b4 eb c7 3b 0f a3 30 bf 87 0f ba 3d
       0.6834483 0.006101096 -0.6899881 0.09084993
000070 0f 0c 38 bd 09 26 32 3d ab f8 ad 3e 84 8c 23 3e
       -0.044933375 0.043493304 0.3397878 0.15971571

bias f4 [32]
000000 9d 14 58 3e c5 4e ac bc 52 61 f4 3e c4 74 00 3f
       0.21101613 -0.021033654 0.477305 0.5017817
000010 d9 40 33 be 3a 19 d8 be 35 04 61 3d c5 b5 e6 be
       -0.17505206 -0.42206746 0.054935653 -0.45060554
000020 01 dd 2c 3f 50 ed 44 bf 9c 9b 1b bf 65 81 a0 be
       0.67524725 -0.7692461 -0.60784316 -0.3134872
000030 dc cd 84 be 04 f8 09 bc 59 c1 ac 3d ac a7 0f bc
       -0.25938308 -0.008420948 0.08435316 -0.008768003
000040 2f f1 90 be 93 05 b2 3e 6f 3d ac 3e 6b f2 8c be
       -0.28309008 0.34769878 0.3364062 -0.275287
000050 33 82 94 bd 1a 2a bc be ac ac 26 bf 25 50 84 be
       -0.07251396 -0.3675087 -0.65107226 -0.25842395
000060 d5 88 31 be d1 f6 d9 be 2f 72 81 3d 87 3d 7d 3e
       -0.17337354 -0.42571118 0.06320607 0.24730502
000070 20 f5 86 be 6d ae 28 bf 90 f5 fc b9 4d f3 19 3e
       -0.2635889 -0.6589115 -0.00048248144 0.15034218

weight f4 [64, 32]
000000 71 21 11 bd 96 c7 0b 3e b1 18 8a bd 02 c1 8c bd
       -0.035432283 0.13650355 -0.06742991 -0.06872751
000010 63 18 0a 3d 5b 2b 8b 3d 7f 23 bc bd af 69 8e 3d
       0.033714663 0.06795379 -0.09186458 0.06953751
000020 91 dd 9a bd da db a3 3d 85 16 9c 3d ff 9b 6e 3d
       -0.07561792 0.08000918 0.07621483 0.05825424
000030 8b d9 4f 3d d0 44 97 3d 9a a7 bb 3b 07 23 d5 3d
       0.050744575 0.07386172 0.005726767 0.104070716
000040 86 d3 5e 3d 3f 23 69 bd 13 1f 64 bd 21 e8 59 3d
       0.054400943 -0.05691838 -0.055693697 0.05319989
000050 74 90 58 bb 71 72 82 3d 10 a8 9e 3d 70 5e 4f 3d
       -0.0033045085 0.06369484 0.07746899 0.050627172
000060 a1 e7 87 3f 04 3b 8b 3d 34 3a f1 bd 9f 0d 2f bd
       1.0617563 0.06798366 -0.117786795 -0.0427376
000070 80 a5 53 3d ae 0b 9f 3d 91 b4 6c 3d 37 8e 9e bc
       0.051671505 0.077658996 0.05778939 -0.019354923
000080 43 c4 08 3e c5 a7 24 be dd 57 44 3e 07 0e 47 3e
       0.13356118 -0.16079624 0.19174142 0.19438945
000090 3c 95 00 be 08 33 42 be 6f 33 39 bd f2 1e 46 be
       -0.12556928 -0.1896478 -0.045215067 -0.19347742
0000a0 13 21 56 3e 3d 29 5f be 7a d9 55 be 83 13 2e be
       0.20911054 -0.21793075 -0.20883742 -0.1699963
0000b0 94 a8 1f be f0 6d 22 be ab 80 8c 3d aa 4b 3f be
       -0.15591651 -0.1586225 0.06860479 -0.18681207
0000c0 c0 72 26 be 5a 5d 2f 3e bd 1e 2d 3e 87 3c 24 be
       -0.16254711 0.17125455 0.16906257 -0.16038714
0000d0 54 f6 86 bd 60 33 39 be 78 a4 58 be 2a 5e 1f be
       -0.06589952 -0.18086004 -0.2115649 -0.15563264
0000e0 53 0c c6 bf c3 c9 42 be 2a 50 ac 3d 5a 9f 15 3e
       -1.5472511 -0.19022278 0.084137276 0.14611569
0000f0 b3 31 21 be 88 54 59 be 35 33 0e bc 80 16 dc 3d
       -0.15741615 -0.21223652 -0.008679201 0.10746479
000100 ae f9 eb bc 57 d5 d6 be 6f 79 c7 3b 3d 04 fe 3b
       -0.02880558 -0.4195964 0.006087474 0.00775197
000110 4f 7f f4 3c 61 87 b8 bb 39 b2 74 3e 45 49 f7 bb
       0.029845862 -0.005631373 0.23896112 -0.007546576
000120 28 f7 89 3c 41 b0 b1 bc c6 02 86 bc e3 a3 aa 3b
       0.016841486 -0.02169049 -0.016358744 0.005207525
000130 00 be 53 3c d5 83 26 bf bf 83 97 bd 65 c1 1f bf
       0.0129237175 -0.6504491 -0.073981754 -0.6240447
000140 75 d0 18 3c 83 f7 c6 bb f4 ee f4 bb b8 db 2a 3c
       0.009327044 -0.006071986 -0.0074747745 0.010428362
000150 b8 5c 8b 3d 37 31 4b ba 70 9d 93 bc 4a a5 55 3c
       0.06804794 -0.0007751169 -0.018019408 0.013039896
000160 c1 7a 64 3e 1f 23 bb bb 22 46 cd 3e 6c 3b ac bc
       0.22312452 -0.005710974 0.4009257 -0.021024428
000170 3c 33 44 3c dc 44 96 bc 4a cb 17 be b5 ac 3b bd
       0.011975106 -0.018343382 -0.14823642 -0.045819003
000180 21 cf ed bb a2 0d 56 3c dc 9b 08 bc 88 00 05 bc
       -0.0072573577 0.013064774 -0.008337941 -0.008117802
000190 57 b1 9e 3c d5 8b 9a 3c 94 be 30 be 94 b7 95 3c
       0.019371672 0.018865505 -0.172602 0.018276013
0001a0 60 9c c9 bb 5b e7 57 3c f5 70 80 3c e0 de a5 3c
       -0.0061526746 0.013177718 0.015678862 0.020247877
0001b0 bc 2e a8 3c b1 db a0 bb 27 ea bf 3b 82 58 8d bc
       0.020530097 -0.0049090018 0.0058567706 -0.017254118
0001c0 49 9c a8 3c c3 9a 18 bc 2b 01 17 bc 6e 62 a8 3c
       0.020582335 -0.009314242 -0.009216587 0.020554747
0001d0 cd 27 40 3c f6 73 a1 3c cd 32 75 3c b8 4f a8 3c
       0.011728239 0.019708615 0.014965725 0.020545825
0001e0 3e 36 1d bf c7 d9 99 3c fe 5e 44 be 51 8d 0a bc
       -0.6141089 0.018780602 -0.19176862 -0.008456544
0001f0 67 aa a8 3c 52 d6 74 3c ea 33 0a 3d 71 74 5f bb
       0.020589067 0.014943676 0.033740915 -0.0034096504
000200 e2 6a e4 bc 41 1a 00 3b a2 71 01 bd 33 7f 02 bd
       -0.027882997 0.0019546899 -0.03160251 -0.031859588
000210 99 db 18 3d f4 44 1a 3d f2 72 b6 bd dc 5e 19 3d
       0.0373188 0.037663415 -0.08908643 0.03744398
000220 88 25 06 bd 55 b4 17 3d 07 86 18 3d d4 05 1a 3d
       -0.032750636 0.037037212 0.037237193 0.037603214
000230 33 1c 1a 3d ef 68 06 3e a4 4a bc bc 05 b0 8e 3d
       0.03762455 0.13125966 -0.02298481 0.06967167
000240 1f f3 19 3d d5 11 f9 bc ba 0f f7 bc 9a 22 1a 3d
       0.037585374 -0.03040401 -0.030158866 0.037630655
000250 e5 8f 13 3d 11 6b 1a 3d 60 c7 18 3d ab 9e 19 3d
       0.0360259 0.037699763 0.037299514 0.037504833
000260 e4 e2 b8 be 61 0e 1a 3d be 96 91 bd ee 02 ec bc
       -0.36110604 0.03761137 -0.0710883 -0.02880999
000270 49 36 1a 3d 9d 73 18 3d 0e 28 85 bc 04 b1 d4 bc
       0.037649427 0.037219632 -0.016254451 -0.025963314
000280 b6 ae df bc 1b 80 01 be 69 03 5b bc 7a 9b 4e bc
       -0.027304988 -0.12646525 -0.013367512 -0.012610311
000290 37 0f fc 3c a2 8a 8e 3c b5 33 8f bc 96 63 86 3c
       0.030768974 0.01740009 -0.01748071 0.016404908
0002a0 f4 3b 05 bc a8 28 16 3c 2c 6c 45 3c aa 30 b4 3c
       -0.00813197 0.009164967 0.012049716 0.021995861
0002b0 25 d5 cc 3c 2c a8 54 be 6d d1 28 bd 22 9f 47 be
       0.025003979 -0.20767277 -0.04121535 -0.19494298
0002c0 64 29 c2 3c da d9 99 bc de 32 9e bc a2 a2 c4 3c
       0.023701377 -0.018780638 -0.019311365 0.02400333
0002d0 68 c8 28 3d 9c a4 9f 3c 20 7c 36 3c a2 ff cc 3c
       0.041206747 0.019487672 0.011137992 0.025024239
0002e0 31 1b 00 be 25 3a 8d 3c c8 f1 93 3c 7b 4b ca bc
       -0.12510373 0.01723964 0.018059626 -0.024694195
0002f0 e6 bf c9 3c 59 04 35 3c d4 8d 72 bd 1f 7d 07 bd
       0.024627637 0.0110484 -0.05921729 -0.03307831
000300 cc 11 1a bc a5 2c 43 bd ea 9a a6 bb 72 2f 9c bb
       -0.009403657 -0.04765 -0.005084385 -0.004766398
000310 d3 80 cc 3c a0 c7 a1 3c d0 0f 08 be 68 8f 9b 3c
       0.024963772 0.019748509 -0.13287282 0.01898928
000320 38 84 0c bb 4d a1 4d 3c a9 e9 7b 3c a3 cc b7 3c
       -0.0021441113 0.012550664 0.015375533 0.022436446
000330 ca a8 c1 3c 59 46 e7 bd 6d 30 02 bc 0c bb e8 bd
       0.023640055 -0.112927146 -0.007946116 -0.11363801
000340 ab 85 be 3c b6 78 f9 bb b7 24 fb bb 74 85 bf 3c
       0.023257097 -0.007613267 -0.007664289 0.023379065
000350 12 c5 b8 3c 7f 4f ad 3c 2e 4d 6f 3c d8 cd c2 3c
       0.022554908 0.02115607 0.014605803 0.023779795
000360 71 9d 43 bf 69 ff a0 3c 38 0b fd bd 57 06 15 bc
       -0.7641211 0.019653039 -0.123556554 -0.00909575
000370 b2 0e c2 3c 45 0f 6d 3c 36 19 9f 3a 29 0f 1d bc
       0.023688648 0.014468973 0.0012138251 -0.009586134
000380 66 b0 24 bd 11 00 96 bd ce fd 02 bd ec 69 00 bd
       -0.04020729 -0.073242314 -0.03198033 -0.031351015
000390 8e e7 49 3d 05 10 23 3d c1 32 b9 3c a0 e9 1e 3d
       0.049293093 0.0398102 0.02260721 0.03879702
0003a0 e0 e0 e4 bc 28 cf 00 3d bf 53 0d 3d 75 23 33 3d
       -0.02793926 0.03144756 0.034503695 0.043734986
0003b0 39 6e 3b 3d a6 30 d6 bd e6 f5 34 bd c0 c4 e8 bd
       0.045759413 -0.10458498 -0.04417982 -0.11365652
0003c0 3e a5 37 3d ee 97 11 bd be e6 12 bd 69 b5 38 3d
       0.04483532 -0.035545282 -0.035864584 0.04509488
0003d0 41 42 53 3d 38 6d 2a 3d 24 c1 09 3d 9f dc 3b 3d
       0.051576857 0.041608065 0.03363146 0.045864698
0003e0 55 4c 1d bf 83 ad 22 3d 93 6e 91 bd 63 57 1f bd
       -0.614446 0.039716255 -0.071011685 -0.038901698
0003f0 fd f2 3a 3d 22 79 09 3d 0f 4e 1c bd a7 07 2d bd
       0.045641888 0.033562787 -0.03816038 -0.042243626

bias f4 [64]
000000 51 f5 a1 3c fa d4 d1 3d ec 6b 5b 3e 9c ab a5 bb
       0.019770296 0.102457 0.21427888 -0.005055858
000010 31 81 09 3d 7c b1 10 3d 98 1b 05 bd 05 a5 6e 3d
       0.033570472 0.035325512 -0.03249702 0.058262844
000020 f0 fd 0b 3e 8a 5b d6 bd fa 0c 33 3c f4 39 2e be
       0.13671088 -0.104666784 0.010928387 -0.17014295
000030 7a 56 3a 3d 0b 0f 89 bc 3b 03 4d be 3e 6e a1 3c
       0.045492627 -0.016730806 -0.20020764 0.019705888
000040 21 87 bc bc 47 6d 02 be ea 8d 28 bd d5 ff 3b 3d
       -0.023013653 -0.12736998 -0.041150965 0.045898277
000050 05 19 77 bb f9 db d6 3c b8 dd ca bc 1f 4e a1 bd
       -0.0037704122 0.026227938 -0.024763927 -0.078762285
000060 7f c4 55 bd 91 3d 70 bd 50 1b 2c 3d 42 d4 0e be
       -0.052189346 -0.058652464 0.042018235 -0.13948157
000070 67 dd 8d 3d af 4d dc 3d 60 e3 1a bd ad 6b f7 bd
       0.06926995 0.107570045 -0.037814498 -0.120810844
000080 a8 d2 53 3e 2f 3d 39 3d ab a2 2a be d0 b8 63 3e
       0.20685828 0.045224365 -0.16663615 0.22238469
000090 4d 90 7b be 1b 05 f2 3d 3d 07 82 bc b8 47 2c be
       -0.24566765 0.1181738 -0.015872592 -0.16824234
0000a0 b7 c2 6b bd 7d 4c aa 3d a9 95 45 3d 69 a7 35 be
       -0.05755874 0.0831537 0.04823843 -0.17739643
0000b0 5b ad fb 3c 2f 15 fd bd ea 88 fd bd 0a 1c 54 3e
       0.03072231 -0.12357556 -0.1237963 0.20713821
0000c0 8b c3 88 3d 96 1a d4 bd 5d 0f 90 3d 48 12 f3 bd
       0.06677922 -0.10356633 0.0703418 -0.11868721
0000d0 13 85 36 be e1 2a eb 3d 95 fd 0d 3e 7d f3 e7 bb
       -0.17824201 0.11482788 0.13866265 -0.0070785866
0000e0 04 85 2f be e0 e2 ee bd 89 ab 93 bd a0 76 01 bc
       -0.17140585 -0.11664367 -0.07210452 -0.007901818
0000f0 56 5d f8 3d 43 a7 45 be 76 ec 54 be 0b 5c 23 be
       0.121271774 -0.19302087 -0.20793328 -0.1595308
