checkpoints/click_honam2_emb32_1.pt (torch, 242802 bytes, 134 tensors)

weight f4 [32, 1]
-0.38474095 0.40635628 0.40797022 0.3623189 -0.40615726 0.27494726 -0.36228806 0.3599929
-0.41563153 0.35483325 -0.3936792 0.31175953 0.36776173 -0.3702653 0.36831895 -0.3182587
0.30049044 0.26866773 0.40819722 0.36141896 -0.37315035 0.3405721 -0.4168738 -0.39859307
0.2842171 0.38448095 -0.37964407 -0.32524 0.38200808 -0.38357183 -0.3792948 -0.4069112
00000000: c4fc c4be ee0d d03e 79e1 d03e dd81 b93e
00000010: d8f3 cfbe e3c5 8c3e d27d b9be fd50 b83e
00000020: a8cd d4be b4ac b53e 5290 c9be f29e 9f3e
00000030: 444b bc3e 6a93 bdbe 4d94 bc3e cef2 a2be
00000040: e2d9 993e d18e 893e 3aff d03e e80b b93e
00000050: 900d bfbe 775f ae3e 7c70 d5be 6414 ccbe
00000060: e784 913e b0da c43e b560 c2be db85 a6be
00000070: 9096 c33e 8763 c4be ee32 c2be aa56 d0be

bias f4 [32]
0.5710793 -0.7483294 -0.77840155 -0.4164132 0.7525486 -0.210962 0.3844015 -0.40311223
0.8394221 -0.37291485 0.64539057 -0.04629842 -0.4500852 0.45193067 -0.453222 0.32017866
-0.31084132 -0.12666117 -0.78630465 -0.41211048 0.47514606 -0.26664463 0.85206103 0.6880431
-0.05417205 -0.5589323 0.5290329 0.32707405 -0.54229236 0.56215274 0.5273638 0.75979
00000000: 4132 123f 8492 3fbf 5345 47bf 1c34 d5be
00000010: 06a7 403f 6c06 58be 46d0 c43e ba64 cebe
00000020: 5ee4 563f b2ee bebe 5138 253f 69a3 3dbd
00000030: 9171 e6be 7563 e73e b70c e8be 75ee a33e
00000040: 9826 9fbe 77b3 01be 434b 49bf 2500 d3be
00000050: 5846 f33e a585 88be ac20 5a3f 9823 303f
00000060: 83e3 5dbd 3016 0fbf b36e 073f 4076 a73e
00000070: acd3 0abf 3ee9 0f3f 5001 073f 9981 423f

weight f4 [64, 32]
-0.13784376 0.07449286 0.069219336 0.21325926 -0.09276411 0.45299634 -0.34500057 0.23240137
-0.08039469 0.30570868 -0.11443041 0.3053601 0.17760108 -0.21254934 0.17527601 -1.6235251
0.75202066 0.26467523 0.06769198 0.21837495 -0.19144796 0.58795226 -0.07891334 -0.10412875
0.2595634 0.119479686 -0.15639472 -1.4802469 0.12527907 -0.140979 -0.15671663 -0.09145731
-0.005545066 0.011247065 0.00974162 0.048253447 0.0004297393 -0.19661196 -0.032538798 0.0520387
0.0016571118 0.06271703 -0.0023987181 -0.0446487 0.040235713 -0.016852101 0.039579388 -0.054736786
0.08219795 -0.027839303 0.009379471 0.04923794 -0.013456185 -0.2906491 0.0017862231 -0.0010740584
-0.0067574433 0.024493033 -0.008376756 -0.056191783 0.026286667 -0.0060775955 -0.008575541 0.0003717563
-0.0153858205 0.030841416 0.031815544 0.009290682 -0.026439307 0.182523 0.031917337 0.007264043
-0.029154208 0.00089928927 -0.021223007 0.03601566 0.013855084 0.003502343 0.014140068 0.13572888
-0.025399504 0.03021122 0.032049343 0.008649478 -0.0018032545 0.2541356 -0.029443622 -0.023510965
0.032628436 0.022967376 -0.010778705 0.13412139 0.021850733 -0.014628823 -0.010495228 -0.026699834
0.010307823 0.015897531 0.015188633 0.031435743 0.0051579676 -0.22255576 0.017512789 0.03257619
0.0034445277 0.035985697 0.007821745 -0.09181026 0.02839841 0.01476947 0.028316332 0.036159854
0.036318563 -0.093522735 0.015098227 0.031713583 0.013964967 -0.21501382 0.0031514668 0.0066231946
-0.051190477 0.021931954 0.011674029 0.031853043 0.022850564 0.01039404 0.0116899405 0.0050331005
-0.13210669 0.06932414 0.06419037 0.20433217 -0.08817082 0.44775882 -0.33323973 0.2227578
-0.07616725 0.29395851 -0.10945142 0.30387962 0.16966109 -0.20467152 0.16744314 -1.519524
0.69376 0.26375446 0.062946096 0.20924428 -0.18433645 0.5801491 -0.0746986 -0.09927905
0.25846305 0.11306822 -0.1501853 -1.384284 0.118678175 -0.13502742 -0.15052545 -0.08683761
-0.007127907 0.013842125 0.014945019 -0.0051646433 -0.014297504 0.082966916 0.022149637 -0.0066187214
-0.01622028 -0.011360604 -0.010902055 0.011896169 -0.0014999022 0.0052807415 -0.0013754519 0.060681544
-0.025165323 -0.056787413 0.015239632 -0.005549176 0.0017217406 0.15703343 -0.016328065 -0.012447181
-0.034702823 0.006099253 -0.0040233512 0.059373595 0.005189295 -0.0065021724 -0.0037015453 -0.014525694
-0.115638465 0.06943244 0.06588072 0.14771837 -0.08599368 0.36114725 -0.21442522 0.15578777
-0.07749045 0.18237916 -0.10046923 0.22749761 0.13062526 -0.1586579 0.1293956 -0.8922269
0.526092 0.1874003 0.06499382 0.14971201 -0.14729068 0.491268 -0.07649692 -0.093526855
0.18523315 0.098114915 -0.1269286 -0.7108517 0.10162177 -0.11754251 -0.1271091 -0.084961526
0.010424159 -0.004107987 -0.0054521775 0.031230431 0.01540977 -0.17886321 -0.016360914 0.035249155
0.01643489 0.046633374 0.013056172 -0.024780333 0.023291973 -0.00017604054 0.022683326 -0.042620182
0.068163425 -0.004972487 -0.005676334 0.032449305 0.0030525047 -0.30050233 0.01657268 0.014148067
0.013584208 0.008241816 0.007839131 -0.045417424 0.009908247 0.009932192 0.007800128 0.0153959915
00000000: ea26 0dbe b68f 983d dec2 8d3d a360 5a3e
00000010: 1cfb bdbd 23ef e73e eaa3 b0be a0fa 6d3e
00000020: f9a5 a4bd d985 9c3e 7e5a eabd 2958 9c3e
00000030: 0fdd 353e 89a6 59be 8e7b 333e accf cfbf
00000040: 6d84 403f 8383 873e 18a2 8a3d af9d 5f3e
00000050: ef0a 44be 0a84 163f 519d a1bd 7441 d5bd
00000060: 7ee5 843e c4b1 f43d f025 20be bb78 bdbf
00000070: 2849 003e cd5c 10be 537a 20be f84d bbbd
00000080: 63b3 b5bb 9c45 383c 519b 1f3c 68a5 453d
00000090: a24e e139 a554 49be 6747 05bd 8826 553d
000000a0: 7233 d93a c971 803d d033 1dbb 8ee1 36bd
000000b0: 34ce 243d 6b0d 8abc ff1d 223d ae33 60bd
000000c0: 6657 a83d 400f e4bc 5aac 193c b9ad 493d
000000d0: 5577 5cbc f5cf 94be b41f ea3a 6bc7 8cba
000000e0: 8b6d ddbb 9da5 c83c a93e 09bc 5b29 66bd
000000f0: 2357 d73c 9126 c7bb 6d80 0cbc 49e8 c239
00000100: cf14 7cbc 23a7 fc3c 0451 023d f237 183c
00000110: 3f97 d8bc 4fe7 3a3e c1bb 023d 3607 ee3b
00000120: ced4 eebc 48be 6b3a dfdb adbc 2885 133d
00000130: 6f00 633c 9187 653b beab 673c 83fc 0a3e
00000140: 9f12 d0bc 857d f73c 2c46 033d 8ab6 0d3c
00000150: 2e5b ecba 101e 823e c033 f1bc 119a c0bc
00000160: 65a5 053d 1426 bc3c 2a99 30bc 1e57 093e
00000170: 4f00 b33c bbad 6fbc 2df4 2bbc 9cb9 dabc
00000180: 25e2 283c 8a3b 823c bfd9 783c c4c2 003d
00000190: 2b04 a93b a8e5 63be fb76 8f3c 9c6e 053d
000001a0: 96bd 613b bd65 133d c726 003c 0507 bcbd
000001b0: c8a3 e83c a6fb 713c a7f7 e73c 5b1c 143d
000001c0: c6c2 143d d988 bfbd 8e5e 773c 1ae6 013d
000001d0: 51cd 643c 952c 5cbe d788 4e3b 6207 d93b
000001e0: 1bad 51bd a4aa b33c 6d44 3f3c 5678 023d
000001f0: 1b31 bb3c c34b 2a3c 2a87 3f3c b5ec a43b
00000200: fa46 07be d1f9 8d3d 3e76 833d 743c 513e
00000210: e792 b4bd a540 e53e 669e aabe 9f1a 643e
00000220: 93fd 9bbd bb81 963e 1128 e0bd 1c96 9b3e
00000230: a3bb 2d3e 6995 51be 3776 2b3e c37f c2bf
00000240: 419a 313f d30a 873e e2e9 803d 2244 563e
00000250: b2c2 3cbe a784 143f 94fb 98bd d152 cbbd
00000260: 4555 843e 5090 e73d 2dca 19be 3830 b1bf
00000270: 8b0d f33d a144 0abe 5823 1abe ebd7 b1bd
00000280: 3891 e9bb 15ca 623c f4db 743c 2b3c a9bb
00000290: 1440 6abc 8fea a93d 2873 b53c dce1 d8bb
000002a0: 65e0 84bc d421 3abc 889e 32bc 26e8 423c
000002b0: 5e98 c4ba 120a ad3b 8248 b4ba 368d 783d
000002c0: 8227 cebc eb99 68bd a6af 793c ddd5 b5bb
000002d0: 07ac e13a 5fcd 203e 6fc2 85bc 43ef 4bbc
000002e0: 8c24 0ebd 3edc c73b 51d6 83bb ba31 733d
000002f0: f60a aa3b 2d10 d5bb a095 72bb 2dfd 6dbc
00000300: dcd3 ecbd 9832 8e3d 79ec 863d 7c43 173e
00000310: 741d b0bd 4be8 b83e 4992 5bbe d486 1f3e
00000320: 50b3 9ebd 9ac1 3a3e d0c2 cdbd 22f5 683e
00000330: a1c2 053e 3777 22be 4880 043e fb68 64bf
00000340: f7ad 063f dde5 3f3e 7b1b 853d 1b4e 193e
00000350: 5ed3 16be 7b87 fb3e 6baa 9cbd 028b bfbd
00000360: c2ad 3d3e 79f0 c83d 92f9 01be 61fa 35bf
00000370: 131f d03d 21ba f0bd e328 02be 4f00 aebd
00000380: 17ca 2a3c 4b9c 86bb 2ea8 b2bb f6d6 ff3c
00000390: 4379 7c3c eb27 37be 5307 86bc 6b61 103d
000003a0: 76a2 863c a302 3f3d 8ee9 553c 2000 cbbc
000003b0: cfce be3c 8697 38b9 62d2 b93c 8092 2ebd
000003c0: 4499 8b3d 3ff0 a2bb 8a00 babb 90e9 043d
000003d0: 880c 483b 71db 99be 6ec3 873c 4bcd 673c
000003e0: 4c90 5e3c af08 073c b36f 003c 9f07 3abd
000003f0: 3356 223c a2ba 223c 3798 ff3b 783f 7c3c

bias f4 [64]
0.12386722 -0.10954078 -0.04583189 -0.15351902 0.13340393 -0.013619854 0.05235539 -0.117519684
-0.02696483 0.08230384 0.09133075 0.1478622 -0.06535871 -0.052065797 0.07892042 -0.024617065
-0.03626704 -0.21484464 -0.22124343 -0.057392307 -0.011143416 -0.030257955 -0.022774938 0.0021494187
-0.048019458 -0.23155575 0.14697914 -0.13392079 -0.05030718 0.04717743 -6.347927e-05 -0.044769686
-0.05815634 0.13326399 -0.030959386 0.11403214 0.09688011 0.09807318 0.0052752113 -0.083011866
-0.083391294 -0.012299092 0.19007835 0.10709063 0.19112793 0.14994 0.15241632 -0.060541376
-0.058123063 0.0098602995 -0.0570813 -0.10484382 -0.021470487 0.17759813 0.037120752 0.15168978
-0.12418845 -0.23577453 -0.02282003 0.006667842 -0.034550894 -0.05568642 0.04810198 -0.06443016
00000000: 19ae fd3d eb56 e0bd 38ba 3bbd 1734 1dbe
00000010: 0a9b 083e cf25 5fbc 9b72 563d 29ae f0bd
00000020: 59e5 dcbc ea8e a83d 9e0b bb3d 3069 173e
00000030: cada 85bd f242 55bd 07a1 a13d baa9 c9bc
00000040: bf8c 14bd 3c00 5cbe a38d 62be 3214 6bbd
00000050: e092 36bc 88df f7bc 8292 babc 43dd 0c3b
00000060: 0db0 44bd f31c 6dbe b381 163e 8822 09be
00000070: e70e 4ebd 1f3d 413d 2c20 85b8 6b60 37bd
00000080: 5835 6ebd 5b76 083e 8a9e fdbc af89 e93d
00000090: 1469 c63d 97da c83d aedb ac3b 2002 aabd
000000a0: 0ec9 aabd 2182 49bc e6a3 423e 5552 db3d
000000b0: 0ab7 433e df89 193e 0613 1c3e 3cfa 77bd
000000c0: 7312 6ebd 188d 213c 15ce 69bd 5bb8 d6bd
000000d0: e0e2 afbc 49dc 353e ee0b 183d 9154 1b3e
000000e0: 8456 febd e16e 71be 12f1 babc ea7d da3b
000000f0: 3d85 0dbd 7217 64bd 9506 453d f6f3 83bd

weight f4 [32, 64]
0.76318777 -0.21270292 0.20000382 0.06716225 0.72773284 0.18477827 0.8320447 -0.2036328
0.13722293 0.74620533 0.913674 0.35111082 0.11104997 0.16580968 0.7409111 -0.47468856
-0.41894186 0.09771836 0.1073159 -0.41663 0.13461752 0.12571734 0.13398826 0.12159855
0.13721807 0.105465434 0.8386621 -0.22459736 0.2739863 0.8497119 0.080335185 -0.40140158
-0.41681674 0.920354 0.12663278 0.79793334 0.6500442 0.5803899 0.14662555 0.10522366
-0.33036286 0.13724266 -0.02546147 0.7357135 0.27488673 0.5400889 0.30230805 -0.4133759
-0.40874553 -0.03359513 -0.41732305 0.12100358 -0.45792356 0.2767164 -0.060522016 0.029154245
-0.17318474 0.10991133 0.13453604 0.16468348 -0.42131245 -0.4137161 0.80619174 0.25492448
0.7111376 -0.09206499 0.1773497 0.08915013 0.62611294 0.1783472 0.7500695 -0.09157444
0.17992304 0.69567126 0.64524555 0.2195137 0.17012559 0.2325377 0.65817165 -0.45450443
-0.40105683 0.09549113 0.10617788 -0.37957025 0.19590782 0.18254755 0.19023679 0.1887953
0.12593387 0.10424755 0.9016586 -0.1072171 0.18121326 0.7690095 0.03052499 -0.37329763
-0.3159167 0.9158761 0.18437256 0.6275673 0.44059417 0.4003694 0.19559659 0.1116529
-0.30744916 0.18792596 -0.0022486008 0.6492369 0.16182937 0.4399879 0.20894288 -0.3683109
-0.36504287 -0.005289522 -0.3788712 0.15779933 -0.4427692 0.1561042 -0.032500345 0.08219482
-0.06873894 0.105847284 0.19211169 0.18799137 -0.40619645 -0.3762923 0.63898516 0.18251717
-0.17433423 -0.26290724 -0.0050927796 -0.256387 -0.019294016 -0.099741265 -0.5946859 -0.27246317
-0.30683908 -0.031095672 -0.65627575 0.13628696 -0.014567255 0.025466979 -0.010349642 -0.0030163322
-0.020493684 -0.32942244 -0.33744943 -0.0505505 -0.3214189 -0.3193782 -0.32098702 -0.3262689
-0.052404504 -0.33760843 -0.33525404 -0.30232987 0.027246393 -0.6235516 -0.033171892 -0.03333489
-0.34091 -0.4168089 -0.31983444 -0.6373856 0.09422048 0.19910519 -0.30348969 -0.11025012
-0.029441329 -0.3032333 0.34556514 -0.020680238 0.3758127 -0.066808 0.2831082 -0.07167084
-0.06919002 0.3404869 -0.05306731 -0.29258695 0.006750658 0.33814386 0.37694234 0.35849068
-0.28497726 -0.3268849 -0.33019868 -0.32340184 -0.011679337 -0.05147233 -0.30474192 -0.039684415
-0.40423563 0.012458224 -0.014835785 0.003421862 -0.413302 -0.02858448 -0.58340836 -0.007919562
-0.11005668 -0.46561685 -0.62442094 -0.6885478 -0.009441761 -0.017959652 -0.43926919 0.037584607
0.02229458 -0.11524344 -0.1189522 0.020748375 -0.1035368 -0.098740906 -0.10988138 -0.077636875
0.023607993 -0.1149697 -0.53399163 0.025794484 0.0026053044 -0.6004711 -0.03475246 0.021301934
-0.12830912 -0.5711621 -0.10651147 -0.555376 -0.5151869 -0.50589395 -0.08255499 0.008123544
0.013782901 -0.10364441 0.19816041 -0.5218467 -0.11165793 -0.5357315 -0.45370412 0.0141042685
0.013869782 0.1773328 0.02009571 -0.10772026 0.038865 -0.17826308 0.20918345 0.1033976
0.0068250727 -0.12153978 -0.09837151 -0.046517562 0.023520708 0.020000158 -0.52342117 -0.028570676
00000000: 4660 433f cbce 59be cdcd 4c3e 5d8c 893d
00000010: b34c 3a3f 8436 3d3e e200 553f 1e85 50be
00000020: 2b84 0c3e 5007 3f3f 8ae6 693f ccc4 b33e
00000030: 2b6e e33d 03ca 293e 5aac 3d3f 610a f3be
00000040: 8c7f d6be 9020 c83d 70c8 db3d 8750 d5be
00000050: 2dd9 093e 0cbc 003e 3834 093e a908 f93d
00000060: e582 0c3e 43fe d73d 8fb2 563f dafc 65be
00000070: ef47 8c3e b886 593f c686 a43d 8284 cdbe
00000080: 0169 d5be 529c 6b3f 06ac 013e 5c45 4c3f
00000090: 4c69 263f 6f94 143f 0225 163e 817f d73d
000000a0: 5225 a9be 5789 0c3e 9394 d0bc b857 3c3f
000000b0: f4bd 8c3e 4443 0a3f 1fc8 9a3e 02a6 d3be
000000c0: 1847 d1be 0c9b 09bd 5eab d5be bad0 f73d
000000d0: f574 eabe c6ad 8d3e efe5 77bd e2d4 ee3c
000000e0: 5757 31be 3119 e13d d1c3 093e c9a2 283e
000000f0: 44b6 d7be 99d2 d3be 9562 4e3f 7685 823e
00000100: 1d0d 363f 928c bcbd 299b 353e 5894 b63d
00000110: f048 203f a6a0 363e 8e04 403f 618b bbbd
00000120: bf3d 383e 8317 323f d02e 253f 33c8 603e
00000130: 6735 2e3e 5d1e 6e3e f07d 283f ceb4 e8be
00000140: 5257 cdbe db90 c33d ca73 d93d 0857 c2be
00000150: 0f9c 483e bfed 3a3e 6fcd 423e 8e53 413e
00000160: cff4 003e bd7f d53d 19d3 663f a494 dbbd
00000170: f88f 393e cedd 443f 8b0f fa3c de20 bfbe
00000180: d5bf a1be db76 6a3f 29cc 3c3e 40a8 203f
00000190: 8f95 e13e 38fd cc3e 794a 483e 47aa e43d
000001a0: fa69 9dbe aa6f 403e 435d 13bb 6434 263f
000001b0: 99b6 253e 1846 e13e 1ff5 553e 3f93 bcbe
000001c0: e6e6 babe ba53 adbb 68fb c1be 2696 213e
000001d0: a5b2 e2be c8d9 1f3e 151f 05bd c255 a83d
000001e0: 00c7 8cbd 76c6 d83d edb8 443e cf80 403e
000001f0: fbf8 cfbe 62a9 c0be 8894 233f c8e5 3a3e
00000200: ac84 32be c79b 86be 55e1 a6bb 2845 83be
00000210: 7c0e 9ebc 2645 ccbd 563d 18bf 4b80 8bbe
00000220: 031a 9dbe 5abc febc b001 28bf cf8e 0b3e
00000230: 7fab 6ebc 20a0 d03c 8b91 29bc a8ad 45bb
00000240: 5fe2 a7bc 0faa a8be 2cc6 acbe 0b0e 4fbd
00000250: 0591 a4be 8a85 a3be 6958 a4be b80c a7be
00000260: 1ba6 56bd 03db acbe 6ba6 abbe fbca 9abe
00000270: d433 df3c 14a1 1fbf 40df 07bd 2a8a 08bd
00000280: c18b aebe fa67 d5be 57c1 a3be b42b 23bf
00000290: abf6 c03d 3be2 4b3e 0063 9bbe d1ca e1bd
000002a0: f12e f1bc 6541 9bbe eaed b03e 9a69 a9bc
000002b0: 866a c03e a2d2 88bd 8ff3 903e 29c8 92bd
000002c0: 7fb3 8dbd 4d54 ae3e 1c5d 59bd f5cd 95be
000002d0: a034 dd3b 3121 ad3e 96fe c03e 178c b73e
000002e0: 8ae8 91be 755d a7be cd0f a9be ed94 a5be
000002f0: b15a 3fbc a6d4 52bd 2207 9cbe 208c 22bd
00000300: f9f7 cebe 941d 4c3c cb11 73bc 5141 603b
00000310: 529c d3be 002a eabc 405a 15bf 0dc1 01bc
00000320: 6665 e1bd 5565 eebe 0dda 1fbf ab44 30bf
00000330: 9eb1 1abc 1f20 93bc e4e7 e0be 51f2 193d
00000340: 1fa3 b63c c104 ecbd 369d f3bd 7ff8 a93c
00000350: 1a0b d4bd ac38 cabd 7d09 e1bd 1500 9fbd
00000360: 8d65 c13c 3c75 ebbd adb3 08bf f44e d33c
00000370: c1bd 2a3b 79b8 19bf 9858 0ebd 6581 ae3c
00000380: 7763 03be ae37 12bf b022 dabd 1f2d 0ebf
00000390: 4ae3 03bf 4482 01bf 9712 a9bd 9d18 053c
000003a0: add1 613c 8543 d4bd 90ea 4a3e bf97 05bf
000003b0: eaac e4bd b325 09bf e84b e8be 9715 673c
000003c0: 153e 633c bb96 353e c29f a43c 719c dcbd
000003d0: e830 1f3d 998a 36be 3034 563e 1fc2 d33d
000003e0: dca4 df3b d9e9 f8bd 0177 c9bd 3389 3ebd
000003f0: 80ae c03c 5fd7 a33c eefe 05bf 0d0d eabc

bias f4 [32]
-0.30580214 -0.1755156 0.119127974 0.07849402 0.0565026 0.028935453 0.03331855 -0.2413403
0.058093563 -0.13539217 0.09263835 0.097033076 -0.013956969 0.022947183 -0.16650346 -0.4084733
0.0373311 0.09682716 0.05287419 0.11579213 -0.077150494 0.14178741 0.22263789 -0.23497742
0.124231316 -0.29162958 -0.17534329 -0.2645772 -0.119439594 0.025144408 -0.049381703 0.05447244
00000000: 1992 9cbe 5dba 33be 5ef9 f33d 79c1 a03d
00000010: 456f 673d 0b0a ed3c 0879 083d e921 77be
00000020: 84f3 6d3d 3fa4 0abe 2db9 bd3d 47b9 c63d
00000030: c5ab 64bc bbfb bb3c e27f 2abe 6a23 d1be
00000040: 7fe8 183d 514d c63d 9b92 583d 6d24 ed3d
00000050: 1401 9ebd b830 113e 30fb 633e ec9d 70be
00000060: fd6c fe3d 7950 95be 318d 33be aa76 87be
00000070: bf9c f4bd a5fb cd3c 7844 4abd 7e1e 5f3d

weight f4 [32, 1]
0.2544779 0.43388394 -0.5426577 0.48467544 0.43298295 0.22378911 -0.6091231 0.23515312
0.19057116 -0.59711635 -0.5869079 -0.59613615 0.25710118 1.0407358 0.28213483 0.3172813
-0.46243843 0.06050416 0.39858264 -0.36797884 0.28764972 0.30189383 0.3475938 0.37627506
0.22729297 -0.70019096 0.32335913 0.4362421 0.23262163 0.30654842 -0.6120199 -0.5779859
00000000: ed4a 823e 0926 de3e 9deb 0abf 6127 f83e
00000010: f1af dd3e f928 653e 7eef 1bbf fbcb 703e
00000020: 1625 433e 9edc 18bf 993f 16bf 619c 18bf
00000030: c4a2 833e d536 853f fa73 903e b272 a23e
00000040: bbc4 ecbe 36d3 773d 0613 cc3e b967 bcbe
00000050: d346 933e d491 9a3e d1f7 b13e 20a7 c03e
00000060: 7dbf 683e b73f 33bf 548f a53e 205b df3e
00000070: 5d34 6e3e eaf3 9c3e 56ad 1cbf e2f6 13bf

bias f4 [32]
-0.27705958 -0.3910436 0.32370102 -0.33980727 -0.44411883 -0.2345259 0.6091113 -0.2536558
-0.19661471 0.3568732 0.58679444 0.59624594 -0.26484475 0.1228116 -0.32071313 -0.38833997
0.4623796 -0.3610372 -0.36277127 0.36862347 -0.29175782 -0.324826 -0.3685565 -0.34545904
-0.23433329 0.41901937 -0.38269994 -0.4022093 -0.25803426 -0.2773898 0.61201245 0.3453069
00000000: c1da 8dbe de36 c8be 24bc a53e 38fb adbe
00000010: 8b63 e3be 8f27 70be b8ee 1b3f 2cdf 81be
00000020: 5e55 49be 16b8 b63e 2938 163f 93a3 183f
00000030: bb99 87be a684 fb3d 8334 a4be 7fd4 c6be
00000040: 05bd ec3e ded9 b8be 28bd b9be 37bc bc3e
00000050: 4861 95be 984f a6be 70b3 bcbe 02e0 b0be
00000060: 11f5 6fbe b589 d63e 3ff1 c3be 61ee cdbe
00000070: 111d 84be 0906 8ebe d9ac 1c3f 11cc b03e

weight f4 [64, 32]
0.1887455 0.013113653 0.23578818 0.18234994 0.13674518 0.05722592 -0.08127821 0.18433605
0.12533565 0.202819 -0.081659906 -0.08159219 0.059386183 0.07616272 0.055586047 0.3075063
-0.075084694 0.00809583 -0.05065196 -0.063237354 0.05854814 0.0629626 0.063095085 -0.1898854
0.118912645 0.16607341 0.06286213 -0.53622156 0.18212229 0.026938833 -0.08086145 0.21111618
-0.29602304 -0.013339221 -0.28330857 0.17282571 -0.2686952 -0.008608362 0.040811617 -0.271055
-0.15485108 -0.23741935 0.041413102 0.041148204 -0.013155831 0.07518904 -0.031248039 -0.6405426
0.03374478 0.004593023 0.10568051 0.019325547 -0.029950194 -0.02029902 -0.031092739 0.3653184
-0.15288419 -0.20659105 -0.027253984 0.95406735 -0.2690578 -0.004455938 0.04043316 -0.24474645
-0.27252334 0.01010685 -0.2462093 0.18391304 -0.20513403 -0.0027880687 0.038413424 -0.2500342
-0.13482791 -0.19944921 0.039203666 0.038912416 -0.0061220955 0.011077641 -0.021034665 -0.5650111
0.03159806 0.034130476 0.16168274 0.01791322 -0.023097035 -0.014843828 -0.024646265 0.4397955
-0.1438029 -0.17017335 -0.02157361 1.0723135 -0.2478059 0.015613579 0.038102526 -0.20735589
-0.19363996 0.009627031 -0.33868253 1.0229237 0.021283412 0.05855781 -0.047507267 -0.17390141
-0.07214364 -0.293131 -0.046487223 -0.046953302 0.04605503 0.4682932 0.031380724 -0.39677435
-0.055314224 -0.06899196 0.015287431 -0.069057025 0.039388236 0.048118908 0.035716414 0.053855564
-0.056684017 -0.25851732 0.03816632 0.47053123 -0.17679183 0.036145173 -0.047948662 -0.30098164
-0.26179317 -0.01914761 -0.30792466 0.58803755 -0.0046281726 0.006020711 0.003010044 -0.23759606
-0.1385517 -0.25981656 0.0054134494 0.004336119 -0.0048204875 0.546452 -0.035124302 -0.3563108
-0.004017608 -0.11012652 0.015637755 -0.015671927 -0.021848299 -0.0004404453 -0.013657414 0.054817848
-0.11143763 -0.24500698 -0.008899944 0.27604347 -0.23798096 -0.0060995836 0.0021962645 -0.26242146
-0.3128523 -0.06736531 -0.9132219 0.3401048 -0.5412176 -0.09673171 0.14767504 -0.29580757
-0.17159693 -0.88149214 0.14779179 0.14769967 -0.10404171 0.1846953 -0.11370809 -0.75347435
0.13930595 -0.06905294 -0.061789073 0.124205284 -0.11518281 -0.11478413 -0.12273813 -0.0332547
-0.19456565 -0.8604846 -0.12219871 0.50585264 -0.2906294 -0.08017225 0.14742422 -0.88619184
0.20100705 0.036106627 0.17197283 0.09863704 0.037675306 0.0653219 -0.074132256 0.1970302
0.13606818 0.13857807 -0.075075686 -0.07453591 0.067196995 0.06414289 0.061013605 0.20578168
-0.0692606 0.0148177985 -0.049639814 -0.05774203 0.06490487 0.06676896 0.06585697 -0.21756358
0.1289845 0.11380436 0.06801431 -0.74122137 0.19476312 0.043224294 -0.07379496 0.14853315
-0.10891072 -0.04657824 0.35345596 0.04626422 -0.029760664 -0.078223035 0.057084445 -0.118803464
-0.12078179 0.32352936 0.05345906 0.05538177 -0.071582064 -0.55958265 -0.0017402864 -0.10501847
0.060433853 0.041973505 -0.027634183 0.10174099 -0.0075109736 -0.062198907 -0.02701572 0.007969963
-0.10288345 0.2699603 -0.05846508 -0.0409075 -0.118699975 -0.061610993 0.058196224 0.33711204
00000000: 8046 413e a6da 563c 7572 713e f1b9 3a3e
00000010: ee06 0c3e ba65 6a3d 3175 a6bd 97c2 3c3e
00000020: fd57 003e c9af 4f3e 4f3d a7bd ce19 a7bd
00000030: ed3e 733d 33fb 9b3d 32ae 633d 7771 9d3e
00000040: 01c6 99bd 5fa4 043c 6e78 4fbd 9682 81bd
00000050: 2dd0 6f3d 89f2 803d ff37 813d 5171 42be
00000060: 7988 f33d 260f 2a3e dcbd 803d d145 09bf
00000070: 447e 3a3e d4ae dc3c b09a a5bd d72e 583e
00000080: 5590 97be bf8c 5abc d20d 91be 39f9 303e
00000090: 6b92 89be 160a 0dbc 152a 273d b9c7 8abe
000000a0: 4891 1ebe 0f1e 73be c9a0 293d 058b 283d
000000b0: 8e8b 57bc b6fc 993d e3fb ffbc 9afa 23bf
000000c0: f737 0a3d 1281 963b 066f d83d 9c50 9e3c
000000d0: 1c5a f5bc 214a a6bc 33b6 febc 030b bb3e
000000e0: ac8d 1cbe 9b8c 53be bf43 dfbc c23d 743f
000000f0: f2c1 89be 1e03 92bb 3e9d 253d d09e 7abe
00000100: 2e88 8bbe 3497 253c 4a1e 7cbe b353 3c3e
00000110: a80e 52be 08b8 36bb 6557 1d3d 7c04 80be
00000120: 5410 0abe 6a3c 4cbe 0694 203d a062 1f3d
00000130: dc9b c8bb fe7e 353c e450 acbc 91a4 10bf
00000140: f86c 013d 66cc 0b3d 2990 253e bfbe 923c
00000150: fe35 bdbc 8733 73bc f7e6 c9bc e02c e13e
00000160: 1141 13be ec41 2ebe 24bb b0bc 9241 893f
00000170: d4c0 7dbe 19d0 7f3c 6511 1c3d 1a55 54be
00000180: 8e49 46be b2ba 1d3c cc67 adbe 2aef 823f
00000190: 8d5a ae3c 50da 6f3d fb96 42bd 3613 32be
000001a0: 0bc0 93bd 4415 96be 6369 3ebd 1b52 40bd
000001b0: 33a4 3c3d 20c4 ef3e 1389 003d 0226 cbbe
000001c0: 2b91 62bd a84b 8dbd 2278 7a3c c56d 8dbd
000001d0: 8f55 213d 5518 453d 604b 123d a797 5c3d
000001e0: 802d 68bd 625c 84be 4a54 1c3d 78e9 f03e
000001f0: eb08 35be f60c 143d d165 44bd 441a 9abe
00000200: c109 86be 73db 9cbc 4da8 9dbe a189 163f
00000210: eda7 97bb 6249 c53b 2944 453b 624c 73be
00000220: 7fe0 0dbe ad06 85be 4e63 b13b 0116 8e3b
00000230: 2ef5 9dbb 47e4 0b3f 80de 0fbd 5f6e b6be
00000240: 23a6 83bb 038a e1bd c01a 803c 6a62 80bc
00000250: 34fb b2bc 91eb e6b9 59c3 5fbc ae88 603d
00000260: 6a39 e4bd 1ce3 7abe 12d1 11bc 9255 8d3e
00000270: 48b1 73be 04df c7bb 34ef 0f3b 1b5c 86be
00000280: 2d2e a0be d3f6 89bd e9c8 69bf 3722 ae3e
00000290: 3d8d 0abf 461b c6bd 2038 173e 1774 97be
000002a0: 1bb7 2fbe 78a9 61bf bb56 173e 953e 173e
000002b0: d213 d5bd c420 3d3e c9df e8bd b2e3 40bf
000002c0: 38a6 0e3e a16b 8dbd 8a16 7dbd 575f fe3d
000002d0: f7e4 ebbd f113 ebbd 215e fbbd 1536 08bd
000002e0: 383c 47be b848 5cbf 5143 fabd 8f7f 013f
000002f0: 60cd 94be 5931 a4bd 60f6 163e 78dd 62bf
00000300: cbd4 4d3e 8be4 133d a519 303e 3702 ca3d
00000310: 6c51 1a3d 7dc7 853d a7d2 97bd 49c2 493e
00000320: 7555 0b3e 69e7 0d3e 48c1 99bd 48a6 98bd
00000330: 949e 893d 595d 833d 67e9 793d 6fb8 523e
00000340: 80d8 8dbd 5ac6 723c 1e53 4bbd e882 6cbd
00000350: d8ec 843d 2abe 883d 05e0 863d fdc8 5ebe
00000360: 8314 043e 4312 e93d 164b 8b3d afc0 3dbf
00000370: fc6f 473e f50b 313d d021 97bd 1319 183e
00000380: 950c dfbd d3c8 3ebd 2ef8 b43e 8d7f 3d3d
00000390: a3cc f3bc 6633 a0bd 61d1 693d 3b4f f3bd
000003a0: 715c f7bd a4a5 a53e e3f7 5a3d ffd7 623d
000003b0: 9e99 92bd cf40 0fbf 521a e4ba ec13 d7bd
000003c0: 7d89 773d 69ec 2b3d 1561 e2bc 955d d03d
000003d0: 9d1e f6bb 48c4 7ebd 1250 ddbc 7394 023c
000003e0: 8fb4 d2bd 3d38 8a3e 1479 6fbd 9f8e 27bd
000003f0: f918 f3bd cf5b 7cbd 2a5f 6e3d f399 ac3e

bias f4 [64]
-0.11681252 0.09204499 0.088829786 0.1793614 0.15861948 0.105084665 -0.15144305 -0.1261465
0.24467988 0.15482718 0.08476604 0.14185059 0.08016519 -0.32650897 0.13146357 0.071041174
-0.072452575 -0.17817941 0.12499619 -0.1655401 -0.16446416 -0.14019623 0.02663366 0.094201624
-0.06442026 -0.122638494 -0.17985037 0.02093538 -0.1484008 0.100793384 0.14965516 -0.18755631
0.30268708 -0.16632278 -0.093290165 -0.16862673 0.105681576 0.07827513 -0.17992346 0.104469396
-0.12914649 0.09155844 -0.08038741 -0.11307874 0.12874086 -0.11249852 0.12467331 -0.09555705
-0.0658077 -0.13654724 0.09004276 0.106147625 0.15346317 -0.104015104 0.170896 -0.10871056
0.13681711 -0.12654066 0.07004175 0.097514 -0.044435687 0.09776411 0.09929727 0.13961658
00000000: 673b efbd 1582 bc3d 64ec b53d 84aa 373e
00000010: 256d 223e a136 d73d e313 1bbe 8c2c 01be
00000020: 5d8d 7a3e 048b 1e3e d199 ad3d 4841 113e
00000030: a62d a43d 2f2c a7be 639e 063e 097e 913d
00000040: 0462 94bd aa74 36be 01fe ff3d 5883 29be
00000050: 4b69 28be 9a8f 0fbe d52e da3c c8ec c03d
00000060: c5ee 83bd e429 fbbd b22a 38be ad80 ab3c
00000070: 61f6 17be c36c ce3d 343f 193e c30e 40be
00000080: cdf9 9a3e 8550 2abe ea0e bfbd 7cac 2cbe
00000090: 956f d83d b64e a03d db3d 38be 0df4 d53d
000000a0: fa3e 04be fe82 bb3d 28a2 a4bd d495 e7bd
000000b0: a5d4 033e a065 e6bd b854 ff3d 6ab3 c3bd
000000c0: 30c6 86bd 0ad3 0bbe 5768 b83d ed63 d93d
000000d0: 7325 1d3e df05 d5bd 5cff 2e3e a4a3 debd
000000e0: c919 0c3e e093 01be 0d72 8f3d 6cb5 c73d
000000f0: 3202 36bd 8d38 c83d 5e5c cb3d a6f7 0e3e

weight f4 [32, 64]
-0.093460426 0.03820096 0.028248942 -0.091269016 -0.043394107 0.3607285 -0.050416205 0.15287548
-0.1491368 -0.04644024 0.040338602 -0.058288064 0.032124814 0.31304047 -0.0369986 0.060923357
-0.09639505 -0.027570274 0.0030605583 -0.20250402 -0.12590377 0.03705264 0.81147563 0.04226954
-0.27817452 -0.67973465 -1.2042261 0.7891327 -1.2067469 0.019807959 -0.0451672 -0.17634785
-0.27579463 -0.20797117 -0.0711897 -0.21654859 0.034610286 0.026556848 -0.10656117 0.027921664
-0.08494568 0.051749527 -0.26125562 0.17254692 0.1409828 -0.14661248 -0.004241631 -0.02605589
0.08627328 -0.07711154 0.05425357 0.028247252 0.010535682 0.14215377 -0.012116786 -0.19678359
-0.021995073 0.15613173 0.03863968 0.038216338 0.12378078 0.0217868 0.018979762 0.26421666
-0.046935942 0.13575403 0.07892556 0.3079191 0.10136138 0.2142649 -0.021121556 0.29842645
-0.110472985 0.124468885 0.081554234 0.1478072 0.07353892 -0.018630898 0.1443491 0.11827135
-0.028721176 -0.086719096 0.13311552 -0.13585266 -0.06858744 0.087909386 0.29023635 0.07534255
-0.111526884 -0.2454167 -1.0893425 0.28626153 -1.0982399 0.09237309 0.1301782 -0.12069369
-3.8877113 -0.13672347 -0.025567312 -0.1440649 0.08686049 0.09295952 -0.06779517 0.078268245
-0.0753289 0.056920283 -0.09800818 0.30727896 0.3298603 -0.06197515 0.11516972 -0.048803788
0.17963661 -0.063260354 0.07139575 0.103651516 0.029217554 0.2875163 0.2126686 -0.05192188
0.11794963 0.30291232 0.09231666 0.07472422 0.14143674 0.08755428 0.08815796 0.30307475
0.302608 -0.76557 -0.74675876 -1.2476076 -0.88829136 -0.92659736 0.2361344 0.17067108
-0.90774393 -0.93658143 -0.67982143 -0.97931087 -0.71238405 0.38915303 -0.9474464 -0.7663217
0.30613312 0.43328258 -0.89487207 0.27979526 0.2653181 0.162744 -0.48768678 -0.6713428
0.07679004 0.15791933 -0.66243577 -0.40902492 -0.74703234 -0.7710479 -0.93680197 0.24574915
-1.6296163 0.2777622 0.15163545 0.27658844 -0.758208 -0.80927944 0.2979899 -0.7138048
0.23449723 -0.5816612 0.08024439 0.18923308 -1.0963773 0.22740237 -0.8951452 0.23507255
-0.047536775 0.32999155 -0.64006054 -0.7100672 -0.21894233 0.17526065 -1.3149031 0.2539639
-0.88429433 0.17300345 -0.55350727 -0.73050827 -0.23190369 -0.75642145 -0.6388491 -1.0142049
-0.08703278 0.07260339 0.06835752 -0.07682817 0.08547802 -0.10012416 -0.13448955 -0.09427739
0.04407394 0.04304886 0.077716954 0.031434357 0.07171723 0.21084934 0.028998142 0.039260805
-0.018278973 -0.10150169 0.040344782 0.2864997 -0.092092186 0.2980462 0.03617501 0.06741652
0.018691903 -0.04943042 0.12687975 0.04694001 0.098410316 0.065643094 0.042185616 0.25036535
-0.010908261 0.2826716 -0.11009913 0.28686792 0.06486266 0.07106518 -0.098300494 0.06660893
-0.13266025 0.07104403 0.029013883 -0.103770316 -0.061063394 -0.10896183 0.04900082 -0.09171035
0.15603717 -0.11327291 0.070983216 0.0673315 0.04636643 -0.0755102 -0.069514446 -0.08819251
0.039047338 -0.08752047 0.07195208 0.069460265 -0.41492206 0.0642795 0.06647484 -0.09669186
00000000: 2e68 bfbd 9c78 1c3d 536a e73c 40eb babd
00000010: 05be 31bd 68b1 b83e 3981 4ebd 648b 1c3e
00000020: 51b7 18be 1f38 3ebd 173a 253d 77bf 6ebd
00000030: 4f95 033d d746 a03e d88b 17bd c58a 793d
00000040: c56a c5bd 0edb e1bc a693 483b 375d 4fbe
00000050: ebec 00be 82c4 173d debc 4f3f d322 2d3d
00000060: e46c 8ebe 1703 2ebf 1524 9abf 9a04 4a3f
00000070: af76 9abf 4d44 a23c 3e01 39bd 8894 34be
00000080: f434 8dbe 65f6 54be e8cb 91bd eabe 5dbe
00000090: 84c3 0d3d bf8d d93c be3c dabd f9bb e43c
000000a0: 00f8 adbd 50f7 533d 4cc3 85be 24b0 303e
000000b0: cc5d 103e 9521 16be 61fd 8abb 2973 d5bc
000000c0: 0cb0 b03d a8ec 9dbd fe38 5e3d c866 e73c
000000d0: da9d 2c3c c290 113e 7c85 46bc a381 49be
000000e0: 032f b4bc ffe0 1f3e a444 1e3d bc88 1c3d
000000f0: c780 fd3d 3b7a b23c 727b 9b3c 6847 873e
00000100: e73f 40bd 1b03 0b3e b9a3 a13d 93a7 9d3e
00000110: 8e96 cf3d 4268 5b3e 1d07 adbc 5acb 983e
00000120: a93f e2bd 8be9 fe3d e805 a73d c55a 173e
00000130: 939b 963d d39f 98bc 40d0 133e 4038 f23d
00000140: ac48 ebbc c899 b1bd 6f4f 083e f61c 0bbe
00000150: 9277 8cbd d609 b43d dc99 943e 324d 9a3d
00000160: 3568 e4bd 844e 7bbe 936f 8bbf df90 923e
00000170: 2093 8cbf 1a2e bd3d 6f4d 053e 412e f7bd
00000180: 43d0 78c0 3d01 0cbe 8a72 d1bc c085 13be
00000190: eae3 b13d 9061 be3d 32d8 8abd 1a4b a03d
000001a0: 0a46 9abd 3e25 693d 83b8 c8bd ab53 9d3e
000001b0: 73e3 a83e a8d9 7dbd 1ade eb3d 7be6 47bd
000001c0: a9f2 373e a58e 81bd ef37 923d 3f47 d43d
000001d0: a759 ef3c 5635 933e ccc5 593e 0aac 54bd
000001e0: 938f f13d 5317 9b3e 8410 bd3d 0309 993d
000001f0: cbd4 103e a94f b33d 298c b43d 9d2c 9b3e
00000200: 70ef 9a3e 65fc 43bf 952b 3fbf 9bb1 9fbf
00000210: 1067 63bf 7c35 6dbf 37cd 713e 66c4 2e3e
00000220: e861 68bf cdc3 6fbf c708 2ebf 1eb4 7abf
00000230: cd5e 36bf 113f c73e d98b 72bf a92d 44bf
00000240: 7bbd 9c3e 37d7 dd3e 5616 65bf 5341 8f3e
00000250: c6d7 873e 5da6 263e 15b2 f9be 1fdd 2bbf
00000260: 1944 9d3d 9bb5 213e 6495 29bf b76b d1be
00000270: 833d 3fbf 6563 45bf 41d2 6fbf aaa5 7b3e
00000280: 4497 d0bf d936 8e3e 5346 1b3e 009d 8d3e
00000290: eb19 42bf f02c 4fbf 2292 983e e9bb 36bf
000002a0: 0b20 703e c0e7 14bf 2c57 a43d 51c6 413e
000002b0: 1756 8cbf 2bdc 683e 3c28 65bf dcb6 703e
000002c0: ecb5 42bd a7f4 a83e 02db 23bf f7c6 35bf
000002d0: 6b32 60be 8777 333e bf4e a8bf 8e07 823e
000002e0: 1d61 62bf d127 313e a7b2 0dbf 9702 3bbf
000002f0: 2978 6dbe d6a4 41bf 9d8b 23bf 77d1 81bf
00000300: 3e3e b2bd 16b1 943d 07ff 8b3d 1658 9dbd
00000310: 1a0f af3d e50d cdbd a1b7 09be 8114 c1bd
00000320: e086 343d 0054 303d 112a 9f3d 50c1 003d
00000330: 7ce0 923d e4e8 573e 838d ed3c f0cf 203d
00000340: c9bd 95bc 1ee0 cfbd 9240 253d 17b0 923e
00000350: d49a bcbd 8399 983e 3f2c 143d ac11 8a3d
00000360: c31f 993c 8d77 4abd c4ec 013e 2b44 403d
00000370: 598b c93d e36f 863d d3ca 2c3d e32f 803e
00000380: 90b8 32bc 55ba 903e a77b e1bd 5ae0 923e
00000390: b7d6 843d 9f8a 913d c551 c9bd 436a 883d
000003a0: 17d8 07be 887f 913d 86ae ed3c 8885 d4bd
000003b0: 9c1d 7abd 6127 dfbd 15b5 483d a3d2 bbbd
000003c0: 35c8 1f3e a1fb e7bd a65f 913d 19e5 893d
000003d0: baea 3d3d 17a5 9abd 975d 8ebd 469e b4bd
000003e0: 1af0 1f3d ef3d b3bd 9d5b 933d 2f41 8e3d
000003f0: aa70 d4be f8a4 833d f623 883d 6206 c6bd

bias f4 [32]
0.055200968 0.1412979 -0.36032194 0.1613616 0.06664568 -0.061575778 -0.11821847 -0.28524268
0.12711781 -0.15399662 -0.033213086 0.5015594 -0.12933189 -0.07291553 -0.28479367 0.106304295
-0.14540076 0.15548208 -0.0064867605 -0.18214281 -0.18401583 -0.24162392 0.1502437 0.054273523
-0.053989895 0.0610964 -0.23593226 0.045786865 -0.27040544 -0.010701747 -0.24922854 0.116360925
00000000: 691a 623d 66b0 103e 1e7c b8be fa3b 253e
00000010: 887d 883d e236 7cbd 861c f2bd 540b 92be
00000020: 2c2b 023e 4ab1 1dbe 720a 08bd 3266 003f
00000030: 946f 04be bd54 95bd 7ad0 91be 11b6 d93d
00000040: f0e3 14be b236 1f3e e48e d4bb a583 3abe
00000050: a56e 3cbe 436c 77be 7cd9 193e ea4d 5e3d
00000060: 8224 5dbd 3840 7a3d 3a98 71be 028b 3b3d
00000070: 9572 8abe 6156 2fbc c435 7fbe a34e ee3d

weight f4 [32, 1]
-1.7337648 -0.63009727 0.52895653 -0.61569667 -0.5278913 -0.5779428 0.49384332 0.4188571
-0.5828686 -0.39520457 -0.56560564 -0.4081696 -0.5360145 -0.32380486 0.5644807 -1.7317599
0.17235735 -0.32163274 0.480915 -0.3967942 0.5293252 0.7491089 0.3371821 -0.5819055
0.36691788 0.4683636 0.48448503 0.671592 0.35770786 0.44596058 -0.58280236 0.48566973
00000000: 01ec ddbf 0e4e 21bf b269 073f 4c9e 1dbf
00000010: e223 07bf 0ff4 13bf 08d9 fc3e 7074 d63e
00000020: e036 15bf 4158 cabe 88cb 10bf 9bfb d0be
00000030: 3f38 09bf c0c9 a5be cf81 103f 4faa ddbf
00000040: 727e 303e 0cad a4be 7e3a f63e 9c28 cbbe
00000050: db81 073f 9ac5 3f3f 22a3 ac3e c2f7 14bf
00000060: a9dc bb3e 5bcd ef3e 6c0e f83e 74ed 2b3f
00000070: 7c25 b73e f254 e43e 8932 15bf b4a9 f83e

bias f4 [32]
-0.2841619 0.49872118 -0.4410103 0.5595481 0.5149686 0.5640925 -0.37041754 -0.35849407
0.56880915 0.34113595 0.51281315 0.36761045 0.52301043 0.2915035 -0.47349182 -0.28746048
-0.24397643 0.29136705 -0.4937959 0.34232017 -0.45458287 -0.16319005 -0.36321858 0.5665288
-0.39689195 -0.4726873 -0.48824605 -0.14622362 -0.37397194 -0.38262886 0.56743693 -0.5093572
00000000: ab7d 91be 6258 ff3e 1acc e1be 8b3e 0f3f
00000010: fbd4 033f 5e68 103f 5ea7 bdbe 898c b7be
00000020: 7a9d 113f 5fa9 ae3e b947 033f 7037 bc3e
00000030: 03e4 053f f23f 953e 856d f2be 052e 93be
00000040: f5d4 79be 102e 953e d1d2 fcbe 9744 af3e
00000050: 16bf e8be 4b1b 27be c9f7 b9be 0808 113f
00000060: 6c35 cbbe 1204 f2be 63fb f9be a5bb 15be
00000070: 4079 bfbe eee7 c3be 8c43 113f 3c65 02bf

weight f4 [64, 32]
-0.3131355 -0.29413083 -0.11615507 -0.0023150519 -0.06257949 0.05905424 0.08314023 0.2545105
-0.005062407 -0.3590136 -0.07291844 -0.14692286 -0.058408085 -0.21424459 -0.026502412 -0.31631258
0.10681632 -0.22195242 -0.021334799 -0.3602144 -0.0050811497 0.5156361 0.18305345 -0.014318592
-0.037923105 0.0028093148 0.00616639 0.5091915 0.03570657 0.097792335 -0.0041411384 -0.09160885
-0.40964085 -0.040899735 -0.05521275 0.053177558 0.011381791 0.06076059 -0.084610224 0.40244925
0.033676937 -0.05493784 0.022611454 -0.00817581 0.012576148 0.011426008 -0.20762873 -0.39221653
0.013978274 0.011409898 -0.034022354 -0.05616559 0.16275425 -0.122424364 0.08118713 0.02992225
-0.013478014 -0.022370605 -0.035642 -0.110774785 -0.00020812935 0.22641139 0.034272052 -0.05808281
0.2041834 0.15404887 0.19900438 0.002252224 0.01967474 -0.004011544 0.5581286 -0.079462565
0.012282366 0.06656579 0.014148533 0.021929292 0.019640638 0.0004623407 0.44951305 0.2062467
0.025629306 0.0025661932 0.014050125 0.06759735 0.0022324212 -0.04966561 0.0039847693 0.013896632
0.013338808 0.011480399 0.017149827 -0.0603759 0.011910589 -0.06524794 0.012436251 0.036384538
0.24394433 0.35838467 0.16630068 -0.01806058 0.008977448 -0.04927588 0.9829558 0.12586679
0.0012348401 0.09547005 -0.00015783717 -0.008842608 0.009502581 -0.02647744 0.786639 0.24220955
0.02048418 -0.012385734 0.019499695 0.100519076 0.14979082 -0.22235817 0.18993442 0.003963608
0.019414693 0.018242175 0.023338359 -0.2185602 0.018434238 0.10643896 0.0017183938 0.08024474
-0.7680791 -0.2590421 0.075938776 -0.024637602 -0.0617026 0.020106506 -0.34191528 0.40247762
-0.038183592 -0.17311525 -0.05738193 -0.086845666 -0.060576215 -0.07580021 -0.37517872 -0.7565852
0.061368037 -0.08062219 0.01679905 -0.17615628 0.21603216 -0.07613211 0.05657287 -0.042976867
0.035701603 0.032233696 0.014611255 -0.0739777 0.04917638 0.27237502 -0.037787493 -0.07807896
0.17550313 0.17057888 0.16578577 0.00060259114 0.026100677 -0.003344107 0.36292696 -0.23877923
0.009856539 0.056348797 0.0220416 0.032888554 0.025665293 0.008926572 0.34637073 0.17790216
0.003974819 0.009621856 0.008123129 0.05930236 -0.079102375 0.117145985 0.0115366485 0.013337561
0.010058008 0.0023465732 0.009647894 0.099751845 0.0013373309 -0.1293965 0.009796828 0.029484576
-0.8070644 -0.1863635 -0.022982134 -0.026121698 -0.054741815 0.009149352 -0.2412736 0.50758445
-0.032532346 -0.17985202 -0.054751873 -0.1056488 -0.05324175 -0.091297284 -0.2539207 -0.79112554
0.07299728 -0.092445344 0.014573738 -0.18208699 0.20227726 -0.20214252 0.15379228 -0.036179528
0.03464182 0.028911814 0.013891991 -0.18580753 0.048347563 0.29054785 -0.032066558 -0.05263237
-0.28811687 -2.0262234 -0.003457949 -0.14950617 -0.24007073 0.023673821 0.352647 0.2573023
-0.11204445 -1.2379782 -0.29523057 -0.40218228 -0.2384704 -0.5571611 0.17281753 -0.2952351
0.109597124 -0.5832137 0.04493313 -1.2423645 0.067861184 0.3293506 0.18411864 -0.13271706
0.012459419 0.082531616 0.11074221 0.32531214 0.13979493 0.11888034 -0.11051503 -0.076024
00000000: 4c53 a0be 5198 96be b6e2 edbd 20b8 17bb
00000010: ad29 80bd dce2 713d 6d45 aa3d 334f 823e
00000020: 8ce2 a5bb a1d0 b7be 4356 95bd f272 16be
00000030: 513d 6fbd ef62 5bbe 961b d9bc b9f3 a1be
00000040: 84c2 da3d 7f47 63be 51c6 aebc 066e b8be
00000050: c67f a6bb ba00 043f 5d72 3b3e 8798 6abc
00000060: 4255 1bbd 7b1c 383b 6e0f ca3b 605a 023f
00000070: 0d41 123d 5947 c83d 63b2 87bb 6c9d bbbd
00000080: 72bc d1be 7b86 27bd c426 62bd b6d0 593d
00000090: b17a 3a3c 19e0 783d 2048 adbd d40d ce3e
000000a0: d4f0 093d 8006 61bd a83b b93c d5f3 05bc
000000b0: 300c 4e3c 2734 3b3c a09c 54be 9bd0 c8be
000000c0: 2105 653c 95f0 3a3c 065b 0bbd e40d 66bd
000000d0: 0da9 263e a0b9 fabd 7045 a63d 821f f53c
000000e0: e3d2 5cbc 8f42 b7bc 59fd 11bd e4dd e2bd
000000f0: 4c3d 5ab9 63d8 673e da60 0c3d 3ee8 6dbd
00000100: 7415 513e fdbe 1d3e cec7 4b3e 0c9a 133b
00000110: ec2c a13c 4573 83bb 84e1 0e3f 45bd a2bd
00000120: fa3b 493c a553 883d 40cf 673c 0fa5 b33c
00000130: 67e5 a03c 5166 f239 9326 e63e 5632 533e
00000140: 8df4 d13c 942d 283b 7f32 663c 7b70 8a3d
00000150: d04d 123b 2b6e 4bbd ab92 823b b3ae 633c
00000160: 048b 5a3c 4918 3c3c cb7d 8c3c b84c 77bd
00000170: a224 433c b6a0 85bd 6bc1 4b3c f407 153d
00000180: 8bcc 793e 327e b73e ba4a 2a3e c8f3 93bc
00000190: 2516 133c 81d5 49bd fea2 7b3f 39e3 003e
000001a0: 5cda a13a cd85 c33d 1881 25b9 96e0 10bc
000001b0: b7b0 1b3c 37e7 d8bc 2c61 493f c805 783e
000001c0: 70ce a73c 89ed 4abc d3bd 9f3c f2dc cd3d
000001d0: c462 193e dcb1 63be 2b7e 423e 27e1 813b
000001e0: 900b 9f3c 9d70 953c 1630 bf3c 3fce 5fbe
000001f0: 6603 973c abfc d93d ba3b e13a 5b57 a43d
00000200: d5a0 44bf 2ba1 84be ca85 9b3d ccd4 c9bc
00000210: debb 7cbd 66b6 a43c 850f afbe 8c11 ce3e
00000220: 6666 1cbd 2045 31be 5109 6bbd 24dc b1bd
00000230: c41e 78bd 243d 9bbd 6d17 c0be 91af 41bf
00000240: 0d5d 7b3d 3f1d a5bd 299e 893c 5062 34be
00000250: 8937 5d3e 27eb 9bbd f4b8 673d 8308 30bd
00000260: d83b 123d 7b07 043d 0c64 6f3c 9f81 97bd
00000270: 2c6d 493d bd74 8b3e 0fc7 1abd dde7 9fbd
00000280: 18b7 333e 3bac 2e3e bfc3 293e 35f7 1d3a
00000290: 16d1 d53c ce28 5bbb 90d1 b93e 8b82 74be
000002a0: 527d 213c ffcd 663d 9690 b43c 26b6 063d
000002b0: 0540 d23c c240 123c 8157 b13e fc2b 363e
000002c0: 333f 823b fda4 1d3c df16 053c 08e7 723d
000002d0: 6d00 a2bd 3cea ef3d 3604 3d3c c985 5a3c
000002e0: 58ca 243c f7c8 193b 3312 1e3c b24a cc3d
000002f0: 6149 af3a 8480 04be e082 203c a389 f13c
00000300: c69b 4ebf 13d6 3ebe 0745 bcbc 2cfd d5bc
00000310: f438 60bd 2ae7 153c 6d10 77be 0ef1 013f
00000320: a340 05bd 212b 38be 8043 60bd 665e d8bd
00000330: 0514 5abd 12fa babd e501 82be 3487 4abf
00000340: 997f 953d fc53 bdbd b0c6 6e3c 0375 3abe
00000350: c521 4f3e 73fe 4ebe b97b 1d3e fc30 14bd
00000360: 95e4 0d3d 78d8 ec3c 3c9b 633c 5444 3ebe
00000370: 1808 463d b0c2 943e 3958 03bd 0a95 57bd
00000380: 0e84 93be a5ad 01c0 c29e 62bb 2518 19be
00000390: 1ad5 75be 9aef c13c 268e b43e 21bd 833e
000003a0: 9077 e5bd 1276 9ebf 7628 97be d6ea cdbe
000003b0: 9631 74be 1ca2 0ebf 14f7 303e 0e29 97be
000003c0: 7574 e03d 7e4d 15bf cd0b 383d cd05 9fbf
000003d0: cefa 8a3d a4a0 a83e 9989 3c3e fbe6 07be
000003e0: 9722 4c3c 5606 a93d d0cc e23d 508f a63e
000003f0: 6726 0f3e 8977 f33d b455 e2bd 79b2 9bbd

bias f4 [64]
0.17915557 0.28125772 -0.25745982 -0.29398426 0.38984174 -0.25552243 0.3691659 0.18676573
-0.104285926 0.27312273 0.06155481 -0.20818634 -0.25887352 -0.15625201 -0.26181033 0.06794705
-0.06415462 -0.055912547 0.020186756 0.013564996 -0.32529062 -0.14918202 -0.042959753 0.043741077
-0.080088094 0.37317303 -0.21137226 0.06901406 0.41472358 -0.096862234 0.14714119 -0.02876667
0.052077875 -0.14524655 -0.25089154 0.22032121 -0.025624996 -0.12996562 -0.10739869 0.069878265
-0.19788574 -0.042078365 -0.22395846 -0.061345086 0.07049028 -0.023875887 0.09357348 0.18881758
-0.07770312 -0.2308264 -0.091114014 0.061136995 -0.08364914 0.23201472 0.22244395 -0.45942232
-0.09576644 0.14170712 -0.18577887 -0.16684608 0.051200442 -0.16316032 -0.18621786 -0.17944163
00000000: 8f74 373e 0301 903e c6d1 83be 1b85 96be
00000010: 5699 c73e d6d3 82be 5003 bd3e 843f 3f3e
00000020: dc93 d5bd bed6 8b3e e520 7c3d cd2e 55be
00000030: 128b 84be 8700 20be 010c 86be d327 8b3d
00000040: 7f63 83bd 8e04 65bd b25e a53c b83f 5e3c
00000050: 7e8c a6be 2cc3 18be 91f6 2fbd d829 333d
00000060: 3a05 a4bd 8910 bf3e f871 58be 3e57 8d3d
00000070: a656 d43e b55f c6bd 2eac 163e 14a8 ebbc
00000080: 9c4f 553d 83bb 14be db74 80be e29b 613e
00000090: 83eb d1bc b515 05be d8f3 dbbd 561c 8f3d
000000a0: 8fa2 4abe 5d5a 2cbd 5e55 65be fc44 7bbd
000000b0: 355d 903d 5d97 c3bc 74a3 bf3d 6559 413e
000000c0: d022 9fbd c15d 6cbe fc99 babd c96a 7a3d
000000d0: 3e50 abbd 4495 6d3e 59c8 633e 6739 ebbe
000000e0: 3221 c4bd ac1b 113e d13c 3ebe b3d9 2abe
000000f0: 8eb7 513d 8013 27be e5af 3ebe 8cbf 37be

weight f4 [32, 64]
0.024693126 -0.03331944 0.05856744 0.075849056 -0.07236484 0.021786124 -0.053498346 0.53562635
-1.0072441 -0.0066025066 0.36512288 -0.05185524 0.057738304 0.013789874 0.09568359 0.36696452
-0.029794704 -0.042374592 -0.034799352 0.11993564 -0.044422425 0.07896349 -0.06315628 0.06736661
-0.021234972 -0.045898385 0.112357326 0.37290043 -0.46903285 -0.014167576 0.12294359 0.03793463
0.36497864 0.021717232 0.06293154 -0.08305694 0.052641697 0.066803314 0.08231146 0.37988114
0.043045547 0.012221966 0.05763117 0.052066483 0.38110405 0.24927445 0.45566046 -0.20087855
0.008602663 0.05924612 -0.05386064 0.36840057 -0.047416106 -0.018964343 -0.08612878 -0.727844
0.026622271 -0.1221117 0.07854744 -0.043185737 -0.46878785 -0.012720208 0.11724858 0.054787304
0.1881877 -0.011145852 0.035020057 0.12385019 -0.02643834 0.04771226 0.012684142 0.51510286
-0.88603956 -0.041328646 -0.15034167 0.35627463 0.1584667 0.11649781 0.111233175 -0.14925413
0.36932126 0.45885983 0.07482054 0.04876952 0.28738263 0.056961462 0.46544427 0.1122796
0.40223292 0.035006728 0.041606013 -0.12884693 0.0138133485 0.36455014 0.39460227 -0.42797467
-0.14468475 0.17738889 0.068977796 0.29575357 0.024487369 0.09730276 0.09350716 -0.118340775
0.1707665 0.2109875 0.15969454 0.16947387 -0.11547837 0.49926156 0.23568095 -0.08597823
0.37165543 0.13424224 0.40506646 -0.14517806 0.41743246 -0.03516227 0.31775457 -0.18954185
0.17204146 0.146867 0.07947026 0.35626635 0.28215128 0.27665272 -1.7873358 0.07806289
-0.5614212 -0.16453657 0.19326709 0.25020552 -0.10542784 0.17608461 -0.10239225 0.3360947
1.2282716 -0.16578637 0.29271904 0.51016825 0.2561317 0.2767825 0.26084298 0.2937818
0.42099798 0.45001352 0.5440551 -1.405993 0.4152586 0.22512604 0.47505435 -1.1053913
0.39150596 -0.08267149 -1.1095233 0.26843488 -0.058479298 0.39475104 0.0144537985 -0.33292356
0.28265122 0.27895755 0.19690555 0.17877237 0.2221469 0.20402473 0.2138987 0.25653794
0.27628538 0.30327752 0.263467 0.2753208 0.2552057 -1.0137645 0.061087623 -0.29074866
0.39043897 0.26128024 0.4365179 0.2865954 0.46685827 -0.19454533 0.19421698 -0.94671404
0.29270542 0.6621466 0.21044774 0.5412444 -1.4884067 0.36977923 -0.64548063 0.26151797
-0.1326587 -0.2468053 0.33712733 0.6116694 -0.22087184 0.3567257 -0.1490268 0.6317246
1.1091844 -0.34639344 0.8722866 1.3546643 0.6625665 0.74220634 0.59861535 0.86388385
1.1302774 1.0247333 0.6417599 0.3391708 1.2610106 0.41730478 1.2852151 0.19107282
1.0197052 -0.16186486 0.2784025 0.8244222 0.008727452 1.0250437 0.31284773 -0.89432037
0.8540151 0.6170266 0.5395425 0.2135797 0.2620207 0.4215003 0.55158466 0.8112171
0.7106129 0.6844131 0.6525048 0.65272325 0.8088828 -0.852339 0.717633 -0.26372543
1.062664 0.6661352 1.1957022 0.8574024 1.2742465 -0.33574367 0.21390224 0.11356793
0.65651166 0.725051 0.43009847 1.423348 -0.6014168 0.93574023 -0.3016729 0.41911837
00000000: 3d49 ca3c f779 08bd 69e4 6f3d c056 9b3d
00000010: 0434 94bd d078 b23c 1521 5bbd cf1e 093f
00000020: 60ed 80bf d759 d8bb 63f1 ba3e 2966 54bd
00000030: 007f 6c3d ecee 613c c2f5 c33d c6e2 bb3e
00000040: 0614 f4bc fb90 2dbd c489 0ebd d1a0 f53d
00000050: 4af4 35bd 9cb7 a13d 1458 81bd 81f7 893d
00000060: f7f4 adbc f2ff 3bbd 991b e63d ceec be3e
00000070: 1325 f0be 1f1f 68bc d9c9 fb3d 5861 1b3d
00000080: 7bde ba3e 56e8 b13c 40e2 803d c219 aabd
00000090: d29e 573d 2dd0 883d e992 a83d c87f c23e
000000a0: 8750 303d a43e 483c a90e 6c3d aa43 553d
000000b0: 1220 c33e cd41 7f3e 544c e93e 1bb3 4dbe
000000c0: 2ff2 0c3c 0fac 723d f99c 5cbd 009f bc3e
000000d0: 6437 42bd 1c5b 9bbc 4964 b0bd fc53 3abf
000000e0: f316 da3c b315 fabd 7bdd a03d 87e3 30bd
000000f0: f604 f0be 6b68 50bc 0620 f03d a768 603d
00000100: 47b4 403e 179d 36bc 3171 0f3d 2ba5 fd3d
00000110: 3895 d8bc ee6d 433d 26d1 4f3c c8dd 033f
00000120: 7dd3 62bf 3a48 29bd 2bf3 19be a169 b63e
00000130: 1845 223e 6796 ee3d 38ce e33d 13d6 18be
00000140: ad17 bd3e adef ea3e 833b 993d 8cc2 473d
00000150: d123 933e 6c50 693d b64e ee3e d9f2 e53d
00000160: 79f1 cd3e 3763 0f3d 116b 2a3d 73f0 03be
00000170: 6251 623c 51a6 ba3e 4f09 ca3e 7f1f dbbe
00000180: 3d28 14be 6fa5 353e 3b44 8d3d 036d 973e
00000190: bc99 c83c ab46 c73d af80 bf3d a65c f2bd
000001a0: 6add 2e3e 1b0d 583e f786 233e 8f8a 2d3e
000001b0: ec7f ecbd 369f ff3e 5956 713e 5b15 b0bd
000001c0: 9f49 be3e cc76 093e df64 cf3e 8fa9 14be
000001d0: b5b9 d53e 5006 10bd bab0 a23e 4217 42be
000001e0: a32b 303e 4e64 163e 4ec1 a23d 8b68 b63e
000001f0: 2276 903e 6da5 8d3e 6bc7 e4bf 70df 9f3d
00000200: 4db9 0fbf 467c 28be cfe7 453e f01a 803e
00000210: 8dea d7bd 864f 343e 07b3 d1bd 9b14 ac3e
00000220: 0138 9d3f e7c3 29be 45df 953e 639a 023f
00000230: b223 833e 70b6 8d3e 368d 853e 916a 963e
00000240: 0c8d d73e 2c68 e63e 3247 0b3f 94f7 b3bf
00000250: c69c d43e 7187 663e 533a f33e 767d 8dbf
00000260: 7873 c83e ac4f a9bd dc04 8ebf 4c70 893e
00000270: fd87 6fbd cf1c ca3e a0cf 6c3c f574 aabe
00000280: a9b7 903e 86d3 8e3e 9ca1 493e 1b10 373e
00000290: 7a7a 633e dceb 503e 4308 5b3e f158 833e
000002a0: 4775 8d3e 3147 9b3e 26e5 863e d9f6 8c3e
000002b0: 52aa 823e 09c3 81bf 0437 7a3d 02dd 94be
000002c0: 9ee7 c73e 86c6 853e 467f df3e a2bc 923e
000002d0: 0c08 ef3e e436 47be d1e0 463e da5b 72bf
000002e0: 7cdd 953e 7182 293f 9d7f 573e fe8e 0a3f
000002f0: 1c84 bebf b453 bd3e 383e 25bf afe5 853e
00000300: afd7 07be 87ba 7cbe f49b ac3e 5e96 1c3f
00000310: 3a2c 62be c0a4 b63e 7b9a 18be b4b8 213f
00000320: c1f9 8d3f 7b5a b1be 2d4e 5f3f a465 ad3f
00000330: f59d 293f 3c01 3e3f db3e 193f 7e27 5d3f
00000340: eeac 903f 762a 833f 604a 243f cca7 ad3e
00000350: cc68 a13f f9a8 d53e ee81 a43f 98a8 433e
00000360: b385 823f e7bf 25be c68a 8e3e 550d 533f
00000370: 96fd 0e3c a234 833f 942d a03e 2ef2 64bf
00000380: bca0 5a3f 75f5 1d3f 751f 0a3f a3b4 5a3e
00000390: 9427 863e e3ce d73e a734 0d3f edab 4f3f
000003a0: baea 353f b235 2f3f 8e0a 273f df18 273f
000003b0: f112 4f3f e432 5abf ccb6 373f 0507 87be
000003c0: 6005 883f d687 2a3f c50c 993f b97e 5b3f
000003d0: 821a a33f 98e6 abbe 3009 5b3e 4e96 e83d
000003e0: 2611 283f f19c 393f de35 dc3e 4430 b63f
000003f0: 74f6 19bf ac8c 6f3f df74 9abe af96 d63e

bias f4 [32]
0.071128756 -0.15487808 -0.31084862 -0.41227648 0.1560073 -0.27805483 -0.27288792 -0.11406627
0.109740414 0.036977164 0.05838662 0.22670014 -0.09185415 0.10503341 -0.2273092 -0.17883933
-0.2404542 -0.2497092 0.16045041 -0.21366718 -0.17876549 -0.04017421 -0.12286246 0.09247843
0.19957402 -0.23627262 0.095286995 -0.17995018 -0.1799715 -0.13710894 -0.0614657 0.32162857
00000000: f4ab 913d 5c98 1ebe 8d27 9fbe e715 d3be
00000010: 61c0 1f3e 345d 8ebe f7b7 8bbe 949b e9bd
00000020: 95bf e03d 5e75 173d cf26 6f3d 1524 683e
00000030: 071e bcbd c21b d73d bec3 68be a821 37be
00000040: a039 76be c5b3 7fbe 1d4d 243e 92cb 5abe
00000050: 4d0e 37be b68d 24bd 509f fbbd 5565 bd3d
00000060: 225d 4c3e 73f1 71be d425 c33d dc44 38be
00000070: 734a 38be 4966 0cbe 75c3 7bbd 80ac a43e

weight f4 [32, 1]
0.5259624 0.53529596 0.52855366 0.5786906 -0.80533415 -0.56181973 -0.41444698 -0.55005383
0.59854096 -0.8087066 0.36962616 0.26064086 0.34483892 0.48803788 -0.453538 0.5026771
-0.27999532 -0.55724794 0.4244183 0.41044727 -1.9244987 0.56080025 0.39986002 0.39510065
0.4657098 -0.8068816 -0.5996061 -0.4692039 -0.5556936 0.46361682 0.5118353 0.4097655
00000000: 79a5 063f 2809 093f 4b4f 073f 1125 143f
00000010: 612a 4ebf 6bd3 0fbf 6532 d4be 54d0 0cbf
00000020: fb39 193f 6507 4fbf a43f bd3e b872 853e
00000030: ba8e b03e 1ae0 f93e 2236 e8be 72af 003f
00000040: 8c5b 8fbe cda7 0ebf 5b4d d93e 2526 d23e
00000050: f955 f6bf 9b90 0f3f 74ba cc3e a24a ca3e
00000060: 8471 ee3e cb8f 4ebf c97f 19bf 7e3b f0be
00000070: f041 0ebf 2f5f ed3e a307 033f c9cc d13e
