checkpoints/click_honam2_emb32_0.pt (torch, 242802 bytes, 134 tensors)

weight f4 [32, 1]
0.30080554 0.105977274 0.30757165 0.3485753 0.2945213 -0.26860765 0.2684743 0.097711906
0.47729814 0.27923796 0.4597486 0.34851605 0.31233397 0.2789195 -0.25786877 -0.26706395
-0.0040382235 -0.43968424 -0.2579478 -0.27783835 0.34825382 0.46609515 -0.26166612 0.2954483
0.45618784 0.3223849 0.30642512 0.2788905 0.2508618 0.3423823 0.29574412 0.41832563
00000000: 2f03 9a3e 9d0a d93d 087a 9d3e 7678 b23e
00000010: 7fcb 963e f186 89be 7775 893e 2e1d c83d
00000020: 6c60 f43e 47f8 8e3e 2b64 eb3e b270 b23e
00000030: 3dea 9f3e 89ce 8e3e 6007 84be 9bbc 88be
00000040: 1353 84bb 4b1e e1be bc11 84be d440 8ebe
00000050: 534e b23e 06a4 ee3e 1af9 85be 0045 973e
00000060: 7491 e93e a20f a53e c1e3 9c3e bcca 8e3e
00000070: f570 803e bc4c af3e c66b 973e c72e d63e

bias f4 [32]
-0.64968294 -0.15498675 -0.7073893 -0.9953412 -0.56236345 0.8779411 0.13942559 0.041585267
-0.16962425 -0.41235605 -0.003746312 -0.99225986 -0.72920924 -0.42014876 0.56111866 0.44979042
-0.020143287 0.020777162 0.5769903 1.0220505 0.14613064 -0.03224298 0.6332309 -0.5703949
0.010987434 -0.7633694 -0.7013979 -0.42225316 0.13267043 0.14759298 -0.5753716 0.09882481
00000000: 9f51 26bf d9b4 1ebe 7717 35bf aece 7ebf
00000010: 0df7 0fbf bfc0 603f 95c5 0e3e 5055 2a3d
00000020: fbb1 2dbe 5520 d3be b084 75bb be04 7ebf
00000030: 75ad 3abf bd1d d7be 79a5 0f3f ee4a e63e
00000040: 8903 a5bc de34 aa3c a3b5 133f 8dd2 823f
00000050: 45a3 153e 3711 04bd 6c1b 223f 6605 12bf
00000060: a304 343c 2d6c 43bf d08e 33bf 9131 d8be
00000070: c2da 073e 9d22 173e 8e4b 13bf a964 ca3d

weight f4 [64, 32]
0.01166883 0.02821881 0.01156171 0.0089164125 0.011233604 -0.012455845 -0.09208032 -0.079370424
-0.2740921 0.010605083 -0.13263266 0.008942742 0.011066809 0.0106936125 -0.0111883115 -0.006353399
0.059259083 0.033457637 -0.01152742 -0.011280939 -0.10300982 -0.13713175 -0.011827641 0.011314049
-0.13552581 0.009776903 0.011641854 0.01085534 -0.09038401 -0.10204086 0.011249477 -0.12376479
0.069474466 0.07719344 0.06732045 0.058185056 0.072942264 -0.049917184 -0.042496566 -0.05089582
-0.113560624 0.0754962 -0.020751316 0.058364417 0.06642208 0.07545606 -0.055404473 -0.055815704
0.05919206 0.09985536 -0.055438116 -0.04733559 -0.04052319 -0.021075038 -0.05486661 0.07256419
-0.02648715 0.06505348 0.06759016 0.07529244 -0.043077856 -0.04085125 0.07254774 -0.039497405
0.032614358 0.039244615 0.03212471 0.029022494 0.03342775 -0.01851092 -0.020944158 -0.031957857
0.026708758 0.03639071 0.043496106 0.029040696 0.031770542 0.03630586 -0.016664108 -0.015541083
0.040491287 0.14301406 -0.016807806 -0.0188202 -0.015437558 0.058269776 -0.016815513 0.033300057
0.033490803 0.031062122 0.03217321 0.036280308 -0.021684738 -0.016057637 0.03338627 -0.0031553388
0.079068996 0.1694164 0.07730334 0.07514969 0.08551489 -0.055217315 0.045132082 0.029757455
0.32053658 0.10778755 0.1396829 0.07526567 0.07777863 0.104681045 -0.062261995 -0.07883756
-0.03740166 -0.20193008 -0.06104036 -0.055645544 0.057851005 0.15896933 -0.0595487 0.0848855
0.13083573 0.07988998 0.077357605 0.10409589 0.043102525 0.056513615 0.084262915 0.084592015
-0.007614228 -0.02453922 -0.0066465056 -0.0024198175 -0.009464917 0.022624116 -0.007889028 -0.015225145
0.17403296 -0.0133840535 0.022597777 -0.0023460465 -0.006296801 -0.01275626 0.037358403 0.049051974
0.0094105685 0.24446994 0.03639444 0.018120075 -0.005099746 0.03027908 0.033525724 -0.009232343
0.019554585 -0.0053423233 -0.0067078164 -0.012637266 -0.008387726 -0.005198832 -0.009315782 0.002671388
0.047455862 0.1111951 0.046072405 0.044175155 0.053359967 -0.021246508 0.07179297 0.054048344
0.32684904 0.071787655 0.15981139 0.044303868 0.04653872 0.06926673 -0.02648389 -0.0402747
-0.06213496 -0.23277506 -0.02557945 -0.0220314 0.084617235 0.17671157 -0.024568088 0.052738834
0.15217522 0.048535384 0.046045817 0.06856578 0.069714 0.08336358 0.052319277 0.11016097
0.062430356 0.05863059 0.0606466 0.05282521 0.06483671 -0.046111945 -0.031829875 -0.04345998
-0.05091252 0.063869216 0.0009563526 0.052940723 0.060093552 0.06428575 -0.050561782 -0.049351726
0.05242079 0.1737305 -0.050573982 -0.043532643 -0.027900388 0.02380257 -0.050390545 0.06471108
-0.007081745 0.058710746 0.060998224 0.06425308 -0.03256634 -0.028363746 0.0646749 -0.023947628
0.038966976 0.05023311 0.03811064 0.03316757 0.040154498 -0.02271782 -0.037299033 -0.04339735
-0.12831658 0.042013727 -0.023894023 0.03329287 0.037649266 0.04199024 -0.022836085 -0.02186681
0.043556582 -0.05952876 -0.022991985 -0.021882707 -0.03810151 -0.0010559706 -0.023177365 0.040105786
-0.033738475 0.036644883 0.03809408 0.04182008 -0.037527975 -0.03795646 0.04005222 -0.04145209
00000000: 9f2e 3f3c 222b e73c 546d 3d3c 2516 123c
00000010: 260d 383c 9a13 4cbc 9b94 bcbd f68c a2bd
00000020: cd55 8cbe f1c0 2d3c dbd0 07be 9484 123c
00000030: 9051 353c 4334 2f3c 2e4f 37bc 2c30 d0bb
00000040: a7b9 723d e00a 093d 81dd 3cbc b0d3 38bc
00000050: d0f6 d2bd 446c 0cbe b9c8 41bc 905e 393c
00000060: 47c7 0abe 4e2f 203c 7abd 3e3c 99da 313c
00000070: 401b b9bd ccfa d0bd ba4f 383c 6578 fdbd
00000080: a148 8e3d 9817 9e3d 4edf 893d 7453 6e3d
00000090: c162 953d f675 4cbd e110 2ebd 2378 50bd
000000a0: 7992 e8bd c09d 9a3d aafe a9bc 870f 6f3d
000000b0: 4d08 883d b588 9a3d cdef 62bd 029f 64bd
000000c0: 6073 723d f880 cc3d 1413 63bd f7e2 41bd
000000d0: a5fb 25bd 8fa5 acbc cfbb 60bd 899c 943d
000000e0: 94fb d8bc c23a 853d b66c 8a3d ec32 9a3d
000000f0: 6872 30bd a453 27bd e993 943d 08c8 21bd
00000100: a296 053d f6be 203d 3395 033d 95c0 ed3c
00000110: 89eb 083d 37a4 97bc 1593 abbc 3ee6 02bd
00000120: 53cc da3c 6d0e 153d f928 323d c1e6 ed3c
00000130: d421 023d 74b5 143d 2b83 88bc 07a0 7ebc
00000140: 31da 253d 4772 123e 86b0 89bc d22c 9abc
00000150: d0ed 7cbc 4aac 6e3d b0c0 89bc a465 083d
00000160: a72d 093d fe75 fe3c 0ec8 033d a99a 143d
00000170: 31a4 b1bc 4e8b 83bc 0bc0 083d cdc9 4ebb
00000180: edee a13d 7e7b 2d3e 3751 9e3d 15e8 993d
00000190: 6e22 af3d 8d2b 62bd 6bdc 383d e8c5 f33c
000001a0: 5f1d a43e b8bf dc3d 0909 0f3e e324 9a3d
000001b0: 674a 9f3d 0463 d63d 6f06 7fbd 9675 a1bd
000001c0: 7c32 19bd c2c6 4ebe 7505 7abd 95ec 63bd
000001d0: 2df5 6c3d dbc8 223e 56e9 73bd 73d8 ad3d
000001e0: cdf9 053e 5c9d a33d aa6d 9e3d 3a30 d53d
000001f0: 468c 303d d27a 673d 0992 ac3d 943e ad3d
00000200: c680 f9bb 7906 c9bc eeca d9bb cd95 1ebb
00000210: bd12 1bbc 3656 b93c fb40 01bc e372 79bc
00000220: b235 323e ca48 5bbc f91e b93c 21c0 19bb
00000230: 6555 cebb a2ff 50bc 2005 193d b9ea 483d
00000240: c92e 1a3c 5456 7a3e 5612 153d 8d70 943c
00000250: c51b a7bb d50b f83c 4552 093d 4143 17bc
00000260: f030 a03c a80e afbb 3ecd dbbb 890c 4fbc
00000270: ac6c 09bc f75a aabb 39a1 18bc 7412 2f3b
00000280: 1461 423d 42ba e33d 6bb6 3c3d 02f1 343d
00000290: fb8f 5a3d 280d aebc 3108 933d cc61 5d3d
000002a0: c258 a73e 6805 933d 99a5 233e f977 353d
000002b0: 639f 3e3d b7db 8d3d bef4 d8bc 15f7 24bd
000002c0: 3a81 7ebd 965c 6ebe ff8b d1bc 327b b4bc
000002d0: cd4b ad3d e1f3 343e 0443 c9bc ad04 583d
000002e0: d2d3 1b3e 0acd 463d 8a9a 3c3d 376c 8c3d
000002f0: 37c6 8e3d 86ba aa3d bd4c 563d 139c e13d
00000300: f9b6 7f3d a126 703d 9268 783d 3f5f 583d
00000310: 1cc9 843d e1df 3cbd 0b60 02bd 1803 32bd
00000320: a689 50bd ddcd 823d bdb3 7a3a 5fd8 583d
00000330: a824 763d 3fa8 833d df19 4fbd 0925 4abd
00000340: 2fb7 563d 68e6 313e aa26 4fbd 494f 32bd
00000350: 5b8f e4bc 9bfd c23c 5166 4ebd 3e87 843d
00000360: fc0d e8bb ae7a 703d 46d9 793d 1e97 833d
00000370: 4864 05bd 165b e8bc 4674 843d d12d c4bc
00000380: d69b 1f3d 3cc1 4d3d e719 1c3d b8da 073d
00000390: 0b79 243d b91a babc dfc6 18bd 6bc1 31bd
000003a0: 6c65 03be 9616 2c3d 66bd c3bc 1b5e 083d
000003b0: 1e36 1a3d f5fd 2b3d be12 bbbc 0622 b3bc
000003c0: 6368 323d 6ed4 73bd b059 bcbc 5d43 b3bc
000003d0: 5410 1cbd 7e68 8aba 75de bdbc f745 243d
000003e0: 5b31 0abd f218 163d 8a08 1c3d 884b 2b3d
000003f0: efb6 19bd 3c78 1bbd cc0d 243d abc9 29bd

bias f4 [64]
0.0018679369 0.1337023 -0.0021699287 -0.09048686 -0.16389106 -0.117397904 0.107646674 -0.018769357
-0.014488898 0.068612725 -0.1895879 -0.0035869603 -0.095559165 0.094000384 0.12792145 0.10834781
0.12638667 -0.23046559 -0.13118276 0.004702606 -0.19144653 0.052529734 -0.16406722 0.07844033
0.13339113 -0.18855853 0.12033176 0.06062113 -0.18811132 0.15080681 -0.19560711 -0.18615223
-0.11795243 -0.014590898 0.022845212 -0.090021886 -0.3992454 -0.023584398 0.12390336 0.1055203
0.07146804 0.005663071 0.0141144935 -0.16599071 0.072034314 -0.42435017 -0.13774632 -0.08720247
0.09621422 -0.014114895 -0.11915545 0.021379683 -0.1747933 -0.081087425 0.053681508 -0.014201263
-0.03090713 0.086956896 -0.20688094 -0.16065225 0.15581392 0.03786955 -0.035866775 0.09045349
00000000: 90d5 f43a 41e9 083e 5d35 0ebb 2d51 b9bd
00000010: 0fd3 27be 506e f0bd dc75 dc3d 32c2 99bc
00000020: d862 6dbc d484 8c3d 5523 42be 3513 6bbb
00000030: 86b4 c3bd 4683 c03d d7fd 023e 75e5 dd3d
00000040: 826b 013e 2cff 6bbe c654 06be 5118 9a3b
00000050: 8f0a 44be 6b29 573d 3d01 28be 53a5 a03d
00000060: af97 083e 7d15 41be 7f70 f63d dd4d 783d
00000070: 41a0 40be 1a6d 1a3e 3b4d 48be b19e 3ebe
00000080: 0b91 f1bd a90e 6fbc e225 bb3c 655d b8bd
00000090: e569 ccbe 1134 c1bc 0bc1 fd3d 071b d83d
000000a0: d65d 923d 4891 b93b 7a40 673c 78f9 29be
000000b0: ba86 933d 6d44 d9be 5f0d 0dbe 3597 b2bd
000000c0: f60b c53d 2942 67bc c607 f4bd 7224 af3c
000000d0: 04fd 32be 2a11 a6bd 24e1 5b3d 6aac 68bc
000000e0: f330 fdbc 7516 b23d 99d8 53be 0682 24be
000000f0: af8d 1f3e 1a1d 1b3d 0ae9 12bd ae3f b93d

weight f4 [32, 64]
-0.07568534 -0.02346699 -0.048936438 0.10851528 0.035810042 0.1067153 -0.03183176 -0.05690538
-0.0638423 -0.023110615 0.0752095 -0.0613255 0.05426534 -0.035480347 -0.017026568 -0.03913124
-0.01121853 0.003694964 0.04157463 -0.037581675 0.059440173 -0.021830335 0.06896734 -0.0154408775
-0.022327125 0.042446252 -0.011673455 0.01361184 0.0804247 -0.04971119 0.03527747 0.05456232
0.11014181 -0.053422533 -0.011769638 0.058527395 -1.8110031 -0.035749216 -0.018096887 -0.020730559
0.022209575 -0.005747066 0.006563646 0.080887124 -0.011601494 -3.315503 0.03852333 0.06651884
-0.032658935 -0.048875377 0.06158916 -0.037694342 0.053624276 0.046355154 -0.040078253 -0.042894013
-0.066569015 -0.022505544 0.07010775 0.06709317 -0.046842795 -0.005651021 -0.058755115 -0.012352375
-0.07413263 -0.1344517 -0.05459156 0.13868603 0.07538968 0.123899065 -0.070662305 -0.065317735
-0.05943016 -0.11178587 0.14578214 -0.063956104 0.08040738 -0.0870036 -0.086193144 -0.09813963
-0.1255094 0.22792216 0.11213912 -0.026693124 0.11910988 -0.10731482 0.10347336 -0.0961565
-0.11765264 0.052408945 -0.12312351 -0.05543945 0.13886185 -0.106839776 0.05731757 0.13211517
0.1319037 -0.0502574 -0.020066043 0.0620875 -2.3795726 -0.06291114 -0.10793367 -0.08990475
-0.055376522 -0.060596395 -0.091494106 0.0579311 -0.10328419 -4.1968384 0.089267895 0.0848412
-0.11179434 -0.08274863 0.07701032 -0.058020186 0.08750465 0.056373585 -0.10744575 -0.07145991
-0.085432775 -0.09845359 0.16683343 0.18973283 -0.108614266 -0.061277457 -0.030201264 -0.09379599
-0.050679766 0.0022373735 0.033666786 0.03525009 0.070938356 0.054744795 -0.036912244 -0.012865384
0.004123111 -0.024988411 0.03429245 0.014715375 0.006073173 0.011789002 0.007817786 0.025662243
-0.0102604 0.07048792 0.017118001 0.047748595 0.08665656 -0.008438763 0.020289332 0.016178252
-0.010360042 0.054340664 0.00091035524 -0.028484287 0.041743994 0.0017935359 0.09518839 0.020283096
0.049949363 -0.030137228 0.007537438 0.013784449 1.0627127 -0.0005402447 0.0064260582 -0.009903156
0.0076992507 0.017779376 0.019624824 0.054185547 0.009413617 1.6679133 0.0064472375 0.031141616
0.008796159 0.01735747 0.006632436 -0.0073705516 0.09857167 0.009747257 -0.045242652 0.010923811
0.0015649381 -0.0027143985 0.022421584 0.042442735 -0.011253178 0.008784709 0.0051872954 -0.0021956428
-0.06302325 -0.02947737 -0.012819445 0.09878097 0.027457071 0.09121001 -0.008083679 -0.060441013
-0.03643726 0.0070399875 0.03234326 -0.070732675 0.056870833 0.0015248876 -0.048365865 0.025511784
-0.0046963044 -0.0043859244 0.057333943 -0.021243539 -0.004141733 0.015435362 0.028058194 0.010070653
-0.02825226 0.024845907 -0.025218122 0.021731235 0.031796355 -0.016972452 -0.019194724 0.0242736
0.08817003 -0.10202853 0.0008020207 0.05170921 -0.09198909 -0.07531766 -0.0076234112 -0.013664998
0.017677037 -0.0010326055 0.045352552 0.02651317 0.018010734 1.1783237 0.06353867 0.03515231
0.0046613077 -0.047622237 0.040883556 -0.007844063 -0.014216616 0.069195084 0.011207498 -0.07974872
-0.052569173 -0.02980736 0.014543532 0.06758503 -0.01341629 0.009769861 -0.061116084 0.00033405688
00000000: ea00 9bbd d83d c0bc 9371 48bd 423d de3d
00000010: 8dad 123d 8d8d da3d 0562 02bd 9e15 69bd
00000020: c0bf 82bd 7952 bdbc 7007 9a3d 7330 7bbd
00000030: 5545 5e3d d753 11bd 4d7b 8bbc 1448 20bd
00000040: edcd 37bc 3627 723b 294a 2a3d 3eef 19bd
00000050: 8a77 733d 88d5 b2bc c03e 8d3d bcfb 7cbc
00000060: 60e7 b6bc 1fdc 2d3d 0542 3fbc 3204 5f3c
00000070: b5b5 a43d f69d 4bbd 1c7f 103d bd7c 5f3d
00000080: 0792 e13d 96d1 5abd 71d5 40bc 6cba 6f3d
00000090: f3ce e7bf c56d 12bd ec3f 94bc 22d3 a9bc
000000a0: dbf0 b53c e251 bcbb da13 d73b 26a8 a53d
000000b0: 3114 3ebc 3331 54c0 a4ca 1d3d 083b 883d
000000c0: 60c5 05bd 8c31 48bd ea44 7c3d 6265 1abd
000000d0: 21a5 5b3d e7de 3d3d 1829 24bd a2b1 2fbd
000000e0: 5655 88bd 8c5d b8bc a794 8f3d 2568 893d
000000f0: 3bde 3fbd 332c b9bb 34a9 70bd 9e61 4abc
00000100: d9d2 97bd b5ad 09be 669b 5fbd b603 0e3e
00000110: e865 9a3d cbbe fd3d 66b7 90bd 4ec5 85bd
00000120: 0a6d 73bd fdef e4bd ea47 153e 6bfb 82bd
00000130: a0ac a43d f22e b2bd 0886 b0bd 6efd c8bd
00000140: 8985 00be 6d64 693e 32a9 e53d 8aab dabc
00000150: e1ef f33d dfc7 dbbd d7e9 d33d b3ed c4bd
00000160: def3 f0bd c3aa 563d 2e28 fcbd 7a14 63bd
00000170: cd31 0e3e d0ce dabd d4c5 6a3d 3349 073e
00000180: c311 073e b4da 4dbd 8b61 a4bc 764f 7e3d
00000190: eb4a 18c0 8ed7 80bd 540c ddbd fb1f b8bd
000001a0: 7ed2 62bd ed33 78bd 4361 bbbd 2949 6d3d
000001b0: a986 d3bd 804c 86c0 16d2 b63d 39c1 ad3d
000001c0: 6ef4 e4bd 1d78 a9bd 96b7 9d3d 93a6 6dbd
000001d0: a335 b33d fde7 663d 840c dcbd 9359 92bd
000001e0: 61f7 aebd 09a2 c9bd 62d6 2a3e 5349 423e
000001f0: 2871 debd 12fe 7abd a468 f7bc 1d18 c0bd
00000200: 9695 4fbd e6a0 123b 2fe6 093d 6662 103d
00000210: 2148 913d 143c 603d 4b31 17bd 55c9 52bc
00000220: 291b 873b 7fb4 ccbc 3d76 0c3d c218 713c
00000230: 7801 c73b a926 413c 2c16 003c a039 d23c
00000240: 3d1b 28bc f85b 903d 0d3b 8c3c 0894 433d
00000250: ff78 b13d bd42 0abc d035 a63c 4188 843c
00000260: 2abd 29bc 5194 5e3d e8a4 6e3a e157 e9bc
00000270: c0fb 2a3d 1415 eb3a 21f2 c23d bc28 a63c
00000280: b497 4c3d 59e2 f6bc 9dfc f63b 2bd8 613c
00000290: f806 883f 359f 0dba af91 d23b d940 22bc
000002a0: ff49 fc3b 0ea6 913c 3dc4 a03c aaf1 5d3d
000002b0: 923b 1a3c 2f7e d53f 5943 d33b b41c ff3c
000002c0: c41d 103c 4131 8e3c e854 d93b ab84 f1bb
000002d0: f2df c93d f6b2 1f3c 5c50 39bd c9f9 323c
000002e0: 9c1e cd3a 0de4 31bb 78ad b73c 6fd8 2d3d
000002f0: 405f 38bc bded 0f3c 30fa a93b c6e4 0fbb
00000300: 5512 81bd 877a f1bc a608 52bc ad4d ca3d
00000310: a7ed e03c 50cc ba3d 6871 04bc ff90 77bd
00000320: 3d3f 15bd b2af e63b 5e7a 043d 4bdc 90bd
00000330: 64f1 683d bdde c73a 491b 46bd 17fe d03c
00000340: 75e3 99bb cdb7 8fbb ffd6 6a3d ee06 aebc
00000350: 60b7 87bb 9ae4 7c3c 4cda e53c 61ff 243c
00000360: 4971 e7bc a589 cb3c 3c96 cebc b405 b23c
00000370: e53c 023d d009 8bbc 413e 9dbc 6ed9 c63c
00000380: 7d92 b43d 55f4 d0bd b33e 523a 09cd 533d
00000390: c764 bcbd 2540 9abd cfcd f9bb 28e3 5fbc
000003a0: 6fcf 903c 7e58 87ba 99c3 393d 2632 d93c
000003b0: 3f8b 933c 50d3 963f 9020 823d defb 0f3d
000003c0: e2bd 983b 890f 43bd 8475 273d 6384 00bc
000003d0: cfec 68bc 27b6 8d3d a79f 373c 4c53 a3bd
000003e0: c652 57bd 912e f4bc ff47 6e3c 056a 8a3d
000003f0: 00d0 5bbc c411 203c dc54 7abd 5b24 af39

bias f4 [32]
0.16499092 0.20782302 0.081515044 0.108238444 -0.0046857274 -0.115463294 -0.1353467 -0.012240112
-0.012827543 0.0004986271 0.07163322 0.12060934 0.027826829 -0.008342472 0.015553554 -0.16173448
-0.045138236 0.082228735 0.12030228 0.081800476 -0.25604022 0.09802501 -0.049223986 0.107792065
0.102642044 0.06122147 0.04016784 0.040578704 -0.09010303 -0.046544697 -0.09316404 0.00844258
00000000: 61f3 283e 8fcf 543e 5cf1 a63d 1eac dd3d
00000010: bb8a 99bb 0578 ecbd 5398 0abe c08a 48bc
00000020: 9d2a 52bc 4cb6 023a 70b4 923d 0802 f73d
00000030: 17f5 e33c ddae 08bc 55d4 7e3c b99d 25be
00000040: dfe2 38bd 8a67 a83d 0b61 f63d 0287 a73d
00000050: b417 83be 56c1 c83d 179f 49bd 16c2 dc3d
00000060: fe35 d23d 5dc3 7a3d 0887 243d db35 263d
00000070: f087 b8bd a7a5 3ebd cacc bebd bf52 0a3c

weight f4 [32, 1]
-0.71599084 0.28661606 0.73876244 0.74263686 0.7700062 0.9245032 -1.1172613 0.88041526
-0.8306511 0.36391562 -0.85338247 0.7518845 0.6531351 0.8278254 0.8846391 -0.5801413
0.7492192 0.7528394 -0.14766076 0.8139446 -0.6402833 0.7887562 -0.8763383 0.9349387
-0.31793228 0.808911 -0.8798625 -0.73764026 0.8662289 -0.5110348 0.8509676 -0.6463578
00000000: 2d4b 37bf 57bf 923e 891f 3d3f 731d 3e3f
00000010: 201f 453f 3eac 6c3f 6b02 8fbf e562 613f
00000020: 8da5 54bf 2653 ba3e 4677 5abf 817b 403f
00000030: dd33 273f 5eec 533f b577 623f 2484 14bf
00000040: d4cc 3f3f 15ba 403f 6234 17be ac5e 503f
00000050: 9be9 23bf edeb 493f b557 60bf 2558 6f3f
00000060: 05c8 a2be cb14 4f3f ab3e 61bf fed5 3cbf
00000070: 2dc1 5d3f 2dd3 02bf 03d9 593f b477 25bf

bias f4 [32]
0.71251315 -0.026265243 -0.7699475 -0.6943637 -0.7238813 -0.020920362 0.08911762 -0.8241221
-0.0063251527 -0.024234647 -0.0016743942 -0.7616294 -0.5276054 -0.01898075 -0.02016508 -0.0036719742
-0.7634228 -0.01961319 -0.0033805019 -0.76009786 0.63712233 -0.020423442 -0.0010926345 -0.021249276
0.22342487 -0.7548886 -0.0012111499 -0.0011216316 -0.849706 0.36008483 -0.7946004 -0.0064683794
00000000: 4367 363f 352a d7bc 481b 45bf d2c1 31bf
00000010: 4950 39bf 2e61 abbc 4c83 b63d aaf9 52bf
00000020: 3a43 cfbb bd87 c6bc 5977 dbba 25fa 42bf
00000030: 2611 07bf 857d 9bbc 3d31 a5bc 81a5 70bb
00000040: ad6f 43bf d7ab a0bc 698b 5dbb c695 42bf
00000050: 731a 233f 104f a7bc bb36 8fba f612 aebc
00000060: 7dc9 643e 6140 41bf 72bf 9eba b603 93ba
00000070: 5586 59bf 0a5d b83e ef6a 4bbf b3f4 d3bb

weight f4 [64, 32]
-0.7056753 0.16677052 0.68027025 0.5471093 0.60806185 0.40066853 -0.22995631 0.23951557
-0.21892975 0.17428268 -0.24536276 0.660848 0.008336201 0.21927418 0.2348273 -0.2112719
0.6261183 0.20817493 -0.18033354 0.19216278 -0.7577161 0.21276334 -0.23348822 0.30270693
-2.7041843 0.12834494 -0.230049 -0.21327749 0.40409377 -4.4977393 0.040078405 -0.21153787
0.109610304 -0.11179773 -0.12599549 -0.11332886 -0.13822097 -0.77278864 -0.40302104 -0.13229059
0.23436622 -0.12477686 0.42683092 -0.124843486 -0.59529305 -0.2045484 -0.24039853 0.1937841
-0.12558068 -0.18106274 0.0737447 -0.15902072 0.10810282 -0.19083427 0.30211607 -0.43972528
0.09011315 -0.16224825 0.27797168 0.20768502 -0.11529365 0.11784698 -0.16089842 0.19874467
-0.006341186 -0.009757085 0.007563151 0.028840102 -0.033292744 0.07968913 0.07063128 -0.061526343
0.026219917 -0.011051896 0.02416477 0.010009927 0.43055817 -0.017104674 -0.015914846 0.027080944
0.02089447 -0.017045278 0.024818605 -0.11219534 -0.0018177248 -0.017278116 0.022541257 0.0017665802
-0.03744886 -0.14799583 0.024575083 0.026546491 0.014296825 -0.019794734 -0.12214888 0.027385332
0.054987974 -0.023237284 -0.031025138 0.09038945 -0.18456233 0.08205729 0.00040101993 -0.20611088
0.041880127 -0.023464264 0.034525514 -0.03333325 0.78422654 -0.024665821 -0.02256748 0.045343734
-0.019843685 -0.025355082 0.045053367 -0.2743521 0.060670327 -0.025178608 0.037086766 -0.0022382876
0.023879357 -0.30664685 0.038446043 0.04288945 -0.013528245 0.05256168 -0.28309613 0.04471652
0.11116494 -0.11886902 -0.12693743 -0.11332829 -0.13904709 -0.77721095 -0.43169048 -0.13337557
0.24238981 -0.13098606 0.43109637 -0.12576832 -0.6054968 -0.21082658 -0.24721618 0.20216867
-0.12649177 -0.18720245 0.078553796 -0.1603259 0.109510824 -0.19699834 0.30991614 -0.4491498
0.093441054 -0.1630534 0.2860193 0.21583615 -0.11600098 0.12071252 -0.16228314 0.2069145
0.009749359 -0.043126516 -0.0054513575 -0.09806222 -0.059676528 0.11341604 0.031124333 -0.088581234
0.0447022 -0.04385413 0.020889334 0.001534396 0.40041623 -0.03719017 -0.030871226 0.048691258
0.019596295 -0.040832542 0.038911242 -0.21795507 0.019357452 -0.039427597 0.03414953 0.010091322
-0.01137454 -0.25963122 0.03783031 0.047256373 0.07544298 0.01598699 -0.23422201 0.048471626
0.10574647 0.043182533 -0.11817878 -1.5557915 -0.35386238 -0.22009954 -0.07453493 -0.38279432
-0.045530114 0.046731815 0.05402857 -0.1177745 -0.5732603 0.042396896 0.034642648 -0.055100325
-0.12206191 0.046446767 -0.029806934 -0.68072385 0.1029635 0.04490563 -0.017953828 -0.022331113
0.07073595 -1.1737454 -0.027884457 -0.052204017 -0.115279496 0.027796963 -0.7301848 -0.054860055
0.33832365 -0.09813862 -0.3571057 -0.37062055 -0.35749316 -0.660001 0.31354827 -0.30986786
0.24153322 -0.10825831 0.410236 -0.35430676 -0.31374666 -0.19081917 -0.22639029 0.1989134
-0.35234845 -0.16662237 0.13265042 -0.3340819 0.33909762 -0.17674221 0.31934878 -0.39578345
0.20864242 -0.3305314 0.29703504 0.21473502 -0.31075597 0.35828185 -0.31521627 0.20204675
00000000: 23a7 34bf e4c5 2a3e 3126 2e3f 5b0f 0c3f
00000010: f1a9 1b3f 6d24 cd3e ab79 6bbe 9243 753e
00000020: 1f2f 60be 2977 323e 6040 7bbe 562d 293f
00000030: 9094 083c 6989 603e 9176 703e a957 58be
00000040: 4a49 203f cf2b 553e 5ba9 38be 52c6 443e
00000050: aff9 41bf a2de 593e 8917 6fbe 67fc 9a3e
00000060: 5b11 2dc0 db6c 033e f791 6bbe 6a65 5abe
00000070: 61e5 ce3e 7bed 8fc0 4129 243d 629d 58be
00000080: 5e7b e03d 35f6 e4bd f604 01be f618 e8bd
00000090: cc89 0dbe 7ad5 45bf c658 cebe 2f77 07be
000000a0: b3fd 6f3e 038b ffbd 9589 da3e f1ad ffbd
000000b0: 2065 18bf 2375 51be 082b 76be 576f 463e
000000c0: 3998 00be 8368 39be 7607 973d 54d6 22be
000000d0: 0365 dd3d 0f6a 43be f5ae 9a3e ac23 e1be
000000e0: 3e8d b83d 6824 26be 4e52 8e3e 62ab 543e
000000f0: 141f ecbd c259 f13d 8ec2 24be b983 4b3e
00000100: b9c9 cfbb 2edc 1fbc 4fd4 f73b 1442 ec3c
00000110: f95d 08bd 0e34 a33d 22a7 903d 0c03 7cbd
00000120: 27cb d63c 0313 35bc 32f5 c53c ad00 243c
00000130: 1f72 dc3e 1a1f 8cbc da5f 82bc dbd8 dd3c
00000140: e12a ab3c 8aa2 8bbc 6350 cb3c acc6 e5bd
00000150: b940 eeba d68a 8dbc 71a8 b83c 988c e73a
00000160: fa63 19bd 388c 17be af51 c93c 0778 d93c
00000170: 3b3d 6a3c 9128 a2bc 3129 fabd 3457 e03c
00000180: 123b 613d 1e5c bebc 6e28 febc 1b1e b93d
00000190: e8fd 3cbe a70d a83d fc3f d239 bb0e 53be
000001a0: 7f8a 2b3d 2138 c0bc a06a 0d3d 7288 08bd
000001b0: 12c3 483f fa0f cabc 70df b8bc 5aba 393d
000001c0: 398f a2bc 76b5 cfbc e189 383d e177 8cbe
000001d0: 7381 783d 5e43 cebc 4be8 173d 3cb0 12bb
000001e0: a49e c33c d100 9dbe 9979 1d3d d9ac 2f3d
000001f0: 92a5 5dbc eb4a 573d faf1 90be ab28 373d
00000200: 72aa e33d 9a71 f3bd e3fb 01be aa18 e8bd
00000210: 5c62 0ebe 4cf7 46bf 8906 ddbe 9b93 08be
00000220: 0935 783e 3621 06be aab8 dc3e 69c9 00be
00000230: d701 1bbf ece2 57be 3d26 7dbe 4e05 4f3e
00000240: 0f87 01be 00b2 3fbe d0e0 a03d 792c 24be
00000250: 3647 e03d efb9 49be 54ad 9e3e f6f6 e5be
00000260: 065e bf3d 78f7 26be 1f71 923e 2704 5d3e
00000270: ec91 edbd 2038 f73d 8d2d 26be 65e1 533e
00000280: c7bb 1f3c 6ea5 30bd 4da1 b2bb d8d4 c8bd
00000290: 606f 74bd ab46 e83d 75f8 fe3c 146a b5bd
000002a0: a719 373d 63a0 33bd 1c20 ab3c c91d c93a
000002b0: 5b03 cd3e b854 18bd a7e5 fcbc 7c70 473d
000002c0: 6988 a03c 0640 27bd 6561 1f3d 9d2f 5fbe
000002d0: 8593 9e3c d57e 21bd 61e0 0b3d 1256 253c
000002e0: 475c 3abc 62ee 84be f5f3 1a3d e68f 413d
000002f0: d981 9a3d 26f7 823c e5d7 6fbe 2f8a 463d
00000300: 9b91 d83d 2be0 303d b707 f2bd 2d24 c7bf
00000310: 732d b5be c661 61be c5a5 98bd 9efd c3be
00000320: c97d 3abd dc69 3f3d 104d 5d3d c233 f1bd
00000330: 30c1 12bf 5ea8 2d3d 73e5 0d3d e1b0 61bd
00000340: 98fb f9bd f73e 3e3d ac2d f4bc eb43 2ebf
00000350: 87de d23d f7ee 373d e813 93bc bdef b6bc
00000360: 02de 903d 4a3d 96bf f26d e4bc e1d3 55bd
00000370: a817 ecbd 75b6 e33c 64ed 3abf f0b4 60bd
00000380: c238 ad3e e7fc c8bd 8fd6 b6be fac1 bdbe
00000390: 5809 b7be d3f5 28bf 6689 a03e 00a7 9ebe
000003a0: 7c54 773e 88b6 ddbd 740a d23e b267 b5be
000003b0: 67a3 a0be 1a66 43be dbd2 67be f4af 4b3e
000003c0: 0467 b4be 0e9f 2abe 83d5 073e c80c abbe
000003d0: 349e ad3e e9fb 34be af81 a33e 21a4 cabe
000003e0: 5ca6 553e 693b a9be fa14 983e 7fe3 5b3e
000003f0: 681b 9fbe b870 b73e 0764 a1be 58e5 4e3e

bias f4 [64]
-0.16882883 0.20856786 -0.10943612 -0.120425865 0.21323936 -0.23261794 0.18000658 0.31849715
-0.054830298 -0.16546838 -0.16047071 -0.06826272 -0.10070055 0.26644316 0.32184705 -0.11199446
-0.03927696 -0.18584014 0.014873932 0.25539157 -0.08605078 0.0008665887 0.0020219402 -0.15509567
0.2646267 0.1232803 0.29465294 -0.13872825 -0.09678048 -0.23028484 0.13930638 -0.06320563
-0.14013533 0.13006438 0.29932806 0.26561552 0.21024789 0.19117507 -0.21332832 -0.087845206
-0.19149333 -0.0076292604 -0.06846175 0.12685661 -0.20504372 -0.1176106 -0.13505864 -0.065695144
-0.13203645 -0.15907662 -0.24845159 -0.12207529 -0.0010470031 -0.16430484 -0.2351512 0.19791926
-0.12559748 0.19707943 0.00300163 -0.008293743 0.23871146 -0.15473825 0.1626293 0.15540919
00000000: 77e1 2cbe d092 553e 0b20 e0bd d6a1 f6bd
00000010: 6b5b 5a3e 6633 6ebe a553 383e 0f12 a33e
00000020: bc95 60bd 8b70 29be 6f52 24be 53cd 8bbd
00000030: 173c cebd 3d6b 883e 23c9 a43e 5a5d e5bd
00000040: e1e0 20bd e14c 3ebe cbb1 733c afc2 823e
00000050: 643b b0bd c92b 633a 8782 043b 66d1 1ebe
00000060: 277d 873e 627a fc3d c0dc 963e c70e 0ebe
00000070: d834 c6bd cacf 6bbe 55a6 0e3e f471 81bd
00000080: a37f 0fbe 992f 053e 8741 993e c2fe 873e
00000090: 394b 573e 66c3 433e bd72 5abe 30e8 b3bd
000000a0: d416 44be e0fe f9bb ad35 8cbd b3e6 013e
000000b0: fbf6 51be d4dd f0bd d04c 0abe 2d8b 86bd
000000c0: 9034 07be fbe4 22be 186a 7ebe 9c02 fabd
000000d0: 983b 89ba 873f 28be 7acb 70be 59ab 4a3e
000000e0: a09c 00be 31cf 493e ffb6 443b 7be2 07bc
000000f0: c770 743e b473 1ebe 4c88 263e 9623 1f3e

weight f4 [32, 64]
0.022838226 0.19531849 -0.00664157 -0.0561258 0.19375868 -0.029042665 0.07355461 -0.20264508
0.10468577 -0.02610887 -0.026967281 -0.015914382 -0.051396195 0.05103253 -0.16074198 -0.044480704
0.0033607006 -0.016478177 0.18618669 -0.18932943 -0.08298512 0.022938907 -0.004479831 -0.05586131
0.032061968 0.23836924 0.043999705 -0.017378928 -0.07674199 -0.051423702 0.24164999 -0.009056346
-0.10150541 0.042286858 0.040763136 0.032962468 0.037028078 0.19971983 -0.0059944033 -0.047448196
-0.08078831 -0.036681894 0.010252535 0.2411746 0.0053147445 -0.03864995 -0.076128386 -0.0800703
-0.08286867 -0.014109835 0.06603625 -0.048026916 -0.03243531 -0.023902664 -0.006215115 0.1966138
-0.03471326 0.19749539 -0.022283686 0.03792375 0.03439898 -0.035793334 0.22158068 0.679918
0.13241242 0.06659265 0.034811135 0.00619519 0.06601314 0.01507925 -0.061595257 -1.7206825
0.045692645 -0.024806773 0.0103736445 -0.04071301 -0.06037769 0.05273464 -1.5708003 0.0100422995
-0.0066966177 -0.0020637854 -0.044214915 1.8715264 0.022696555 0.03044146 0.027118774 0.016707169
0.031061897 0.026229745 0.055885367 0.027345851 0.031322427 0.071645945 0.024469169 -0.01896856
0.03324837 0.0008685324 0.034366477 0.031381708 0.022607714 0.06898492 -0.00330772 -0.17085044
-0.27007142 0.030275274 0.018664991 0.019909179 -0.044452045 -0.19665796 -0.0055340645 0.026912976
-0.009497811 0.011107177 -0.032061324 0.004536732 0.03536072 -0.026807996 -0.014334719 0.069508165
-0.09481942 0.06761775 0.053415947 0.03458003 0.027683256 0.027598055 0.048190538 -0.06183767
0.31892577 -0.27151978 0.21929613 0.2913746 -0.26678118 0.24433853 -1.0955597 -0.14256859
0.016133338 0.3376104 0.275307 0.36814684 0.13706137 -0.61246794 -0.14582293 0.20520705
0.1941737 0.31781718 -0.19730963 0.07721827 0.30939007 0.10416024 0.14591236 0.2940688
-0.29107442 -0.34363118 -0.475446 0.24877003 0.13664 0.11195266 -0.32991502 0.29493347
0.1549417 -0.057268165 -1.1715143 -0.30186287 -0.3535781 -0.2895278 0.35909158 -0.34345868
0.42060885 0.20185088 0.2438373 -0.34321898 0.4067158 -0.22565413 0.2333059 0.24054767
0.1421768 0.3732937 0.6109162 0.14771506 0.16532013 0.09670882 0.2647257 -0.28274626
0.08153635 -0.28377485 -0.05417102 0.06516932 -0.33390918 0.18676454 -0.30977204 0.14293079
0.23788182 -0.1403015 -0.21470846 -0.2371574 -0.1364121 -0.21788043 0.062103417 -0.31206515
-0.10461606 -0.2334913 -0.20673065 -0.04717706 0.025029963 0.19978727 -0.29829755 -0.21668324
-0.10170973 -0.21581551 -0.29958555 -0.035561215 -0.1847028 -0.11515985 -0.129391 -0.24152356
0.22334208 -0.2589242 0.20822187 -0.21135011 -0.17514864 -0.27445394 -0.24703842 -0.111893825
-0.19485906 -0.1115537 0.15283029 0.22077337 0.21698537 -0.16048129 -0.14473201 -1.0863012
-0.28802755 -0.13873686 -0.10073728 -0.26134276 -0.16715355 -1.0201737 -0.24128236 -0.20965551
-0.21330966 -0.16637012 -0.17319924 -0.19316301 -0.13291858 -0.022297893 -0.2117382 -0.15240334
0.035304375 -0.1519299 -0.102052234 -0.09544354 0.21357423 -0.2345961 -0.2037651 -0.2312726
00000000: 3b17 bb3c 9201 483e 87a1 d9bb 2be4 65bd
00000010: ad68 463e e2ea edbc cda3 963d 3182 4fbe
00000020: 7e65 d63d 45e2 d5bc 7dea dcbc e15e 82bc
00000030: d184 52bd 7c07 513d 8c99 24be 6631 36bd
00000040: 333f 5c3b 3efd 86bc b9a7 3e3e 93df 41be
00000050: 1af4 a9bd 60ea bb3c 8ccb 92bb d4ce 64bd
00000060: 6953 033d 1117 743e 0939 343d 415e 8ebc
00000070: e82a 9dbd a9a1 52bd 1873 773e 1161 14bc
00000080: 12e2 cfbd fc34 2d3d 3ff7 263d a703 073d
00000090: c1aa 173d 5b83 4c3e b36c c4bb 0a59 42bd
000000a0: 5774 a5bd c13f 16bd 40fa 273c 79f6 763e
000000b0: 4f27 ae3b 694f 1ebd 33e9 9bbd e6fb a3bd
000000c0: 0db7 a9bd f02c 67bc 033e 873d dfb7 44bd
000000d0: e3da 04bd 85cf c3bc 2aa8 cbbb 2155 493e
000000e0: 7e2f 0ebd 3b3c 4a3e 478c b6bc ef55 1b3d
000000f0: f2e5 0c3d 089c 12bd 0ce6 623e 1b0f 2e3f
00000100: 1f97 073e ba61 883d 1f96 0e3d 0501 cb3b
00000110: e631 873d f50e 773c 4f4b 7cbd 533f dcbf
00000120: 3628 3b3d 9337 cbbc 38f6 293c afc2 26bd
00000130: 994e 77bd 4700 583d fc0f c9bf 7588 243c
00000140: 4d6f dbbb 9340 07bb b31a 35bd 2d8e ef3f
00000150: 20ee b93c 5e60 f93c 3128 de3c 79dd 883c
00000160: 8575 fe3c c3df d63c 0ee8 643d 6804 e03c
00000170: f24b 003d 1cbb 923d 9173 c83c f463 9bbc
00000180: 712f 083d 39ae 633a ddc3 0c3d 1b8a 003d
00000190: d033 b93c f747 8d3d 55c6 58bb 6bf3 2ebe
000001a0: cd46 8abe da03 f83c 53e7 983c 9318 a33c
000001b0: 5913 36bd b460 49be 1957 b5bb 9a78 dc3c
000001c0: b59c 1bbc e0fa 353c bc52 03bd dea8 943b
000001d0: 67d6 103d 719c dbbc 2bdc 6abc 4c5a 8e3d
000001e0: af30 c2bd 2d7b 8a3d aeca 5a3d caa3 0d3d
000001f0: ffc7 e23c 5115 e23c 7163 453d 7f49 7dbd
00000200: 3d4a a33e a404 8bbe 2a8f 603e 0d2f 953e
00000210: 8b97 88be e133 7a3e 4d3b 8cbf 80fd 11be
00000220: 102a 843c 45db ac3e 0af5 8c3e be7d bc3e
00000230: d159 0c3e b3ca 1cbf 9b52 15be cc21 523e
00000240: 78d5 463e efb8 a23e 890b 4abe 9d24 9e3d
00000250: 6068 9e3e f751 d53d 0d6a 153e 3090 963e
00000260: b507 95be 6df0 afbe a86d f3be 92bd 7e3e
00000270: 5beb 0b3e 7047 e53d 9fea a8be 8501 973e
00000280: 09a9 1e3e 0692 6abd 2ef4 95bf c58d 9abe
00000290: 3008 b5be fd3c 94be dada b73e d1d9 afbe
000002a0: 0b5a d73e ffb1 4e3e 7cb0 793e 66ba afbe
000002b0: 0e3d d03e e011 67be bee7 6e3e 2152 763e
000002c0: cc96 113e 5a20 bf3e 0165 1c3f 9e42 173e
000002d0: ae49 293e 460f c63d 208a 873e 1ec4 90be
000002e0: 88fc a63d f04a 91be 6ee2 5dbd 7e77 853d
000002f0: 25f6 aabe 343f 3f3e 719a 9ebe 735c 123e
00000300: 4b97 733e 32ab 0fbe 89dc 5bbe 64d9 72be
00000310: 9daf 0bbe 0c1c 5fbe 2760 7e3d 01c7 9fbe
00000320: f240 d6bd 5818 6fbe 33b1 53be bc3c 41bd
00000330: a30b cd3c 0995 4c3e 75ba 98be 36e2 5dbe
00000340: 314d d0bd befe 5cbe 4763 99be a3a8 11bd
00000350: bb22 3dbe edd8 ebbd 137f 04be f451 77be
00000360: c9b3 643e b691 84be 1d38 553e 2a6c 58be
00000370: 2a5a 33be 3a85 8cbe a4f7 7cbe 9728 e5bd
00000380: 2289 47be 4476 e4bd 8b7f 1c3e 6a12 623e
00000390: 6a31 5e3e 3555 24be a134 14be eb0b 8bbf
000003a0: 5978 93be 0911 0ebe 594f cebd b8ce 85be
000003b0: 4d2a 2bbe 0d95 82bf b912 77be efaf 56be
000003c0: d96d 5abe ee5c 2abe 245b 31be 86cc 45be
000003d0: cf1b 08be 12aa b6bc e6d1 58be 9f0f 1cbe
000003e0: 529b 103d 8393 1bbe c300 d1bd e777 c3bd
000003f0: 34b3 5a3e f639 70be cca7 50be b9d2 6cbe

bias f4 [32]
0.10236843 0.0036536518 -0.12458514 0.22817078 -0.111552015 -0.53209054 -0.1440393 0.11626942
-0.09729788 0.18564233 -0.29761946 -0.20542002 0.027390778 -0.17773412 0.15350854 -0.16727988
-0.30037722 0.11537634 0.19635886 -0.3921403 -0.27786347 -0.46436882 -0.17713101 0.18298034
0.18384966 0.10832069 0.15878208 0.08365824 0.030917875 -0.44869903 -0.09151027 -0.2768266
00000000: 8aa6 d13d 1b72 6f3b 7e26 ffbd 9aa5 693e
00000010: 6275 e4bd 1637 08bf 0a7f 13be a91e ee3d
00000020: 1c44 c7bd 0619 3e3e 9461 98be a059 52be
00000030: a062 e03c efff 35be 5831 1d3e 6b4b 2bbe
00000040: 0bcb 99be 6e4a ec3d 4c12 493e 9dc6 c8be
00000050: 1f44 8ebe c0c1 edbe d561 35be 335f 3b3e
00000060: 1643 3c3e 3dd7 dd3d c597 223e 0355 ab3d
00000070: 7c47 fd3c e1bb e5be bd69 bbbd 37bc 8dbe

weight f4 [32, 1]
0.5749834 0.28907153 0.22126561 0.624079 -0.6020449 0.60908204 -0.49577662 0.6221034
-0.5532923 -0.6979741 0.31693763 0.33858147 0.690025 -0.54397196 -0.3470031 0.51720834
-0.6720877 -0.62424165 0.7175112 0.49814707 -0.5438751 0.5267114 0.5574385 0.5861219
-0.34721783 0.51621157 -0.5843501 -0.59533197 0.50805265 0.47198966 -0.6062998 0.46505898
00000000: 1d32 133f 2f01 943e 7493 623e a4c3 1f3f
00000010: 9d1f 1abf cdec 1b3f 6fd6 fdbe 2b42 1f3f
00000020: 90a4 0dbf 6eae 32bf a645 a23e 8d5a ad3e
00000030: 7aa5 303f bf41 0bbf 64aa b1be c467 043f
00000040: f10d 2cbf 4dce 1fbf d0ae 373f 220d ff3e
00000050: 663b 0bbf 8fd6 063f 4ab4 0e3f 160c 163f
00000060: 89c6 b1be 7126 043f f897 15bf ad67 18bf
00000070: bd0f 023f a1a8 f13e 7736 1bbf 361c ee3e

bias f4 [32]
-0.58496255 -0.20462179 -0.22942661 -0.377662 0.58953565 -0.58260673 0.48774943 -0.62544143
0.5424815 0.683714 -0.3253362 -0.20395987 -0.076585256 0.5336706 0.30325553 -0.31088582
0.65741295 0.61092716 -0.07951375 -0.46389347 0.5335652 -0.3897859 -0.49330473 -0.5184696
0.3034589 -0.38199082 0.572605 0.58319575 -0.37580228 -0.41786915 0.5936013 -0.47064984
00000000: 1bc0 15bf 6088 51be cfee 6abe ea5c c1be
00000010: cfeb 163f b725 15bf 4bba f93e ee1c 20bf
00000020: 11e0 0a3f e107 2f3f 7792 a6be dbda 50be
00000030: bbd8 9cbd a39e 083f 4f44 9b3e 6d2c 9fbe
00000040: 374c 283f b965 1c3f 1bd8 a2bd 7283 edbe
00000050: bb97 083f 0492 c7be 7092 fcbe 6cba 04bf
00000060: f75e 9b3e 4d94 c3be 3e96 123f 514c 153f
00000070: 2869 c0be f2f2 d5be 41f6 173f 04f9 f0be

weight f4 [64, 32]
0.10587179 0.1047802 0.008729446 0.16191971 -0.02681069 0.10616544 0.12975952 0.12626493
0.00076902617 -0.15909038 -0.019251803 0.046675235 -0.6790435 0.0032243559 0.259535 0.0016952434
-0.12887877 -0.06083738 -0.68642014 0.44075468 0.003558524 0.15707426 0.45263824 0.3669237
0.257095 0.15731806 -0.00794561 -0.01889279 0.14101407 0.31358507 -0.032556586 -0.051638726
0.12818822 0.36961073 0.22897719 0.59567654 -0.4401354 0.12539367 -0.46386567 0.04513367
-0.6289284 -0.16658014 0.37586844 0.39246857 0.3103487 -0.5878386 -2.3449795 0.37512365
-0.2230057 -0.36289293 0.3287924 0.8391513 -0.5881597 0.7340582 0.01995194 -0.181581
-2.34463 0.75419074 -0.50606257 -0.46364856 0.7378664 -0.018338226 -0.42551747 0.3147147
0.06943626 0.05419247 -0.007901335 0.054639556 -0.02556558 0.1013315 0.15942222 0.07594005
-0.0029105789 -0.12100054 -0.018130084 -0.042608637 -0.2336369 0.0022480737 0.27529258 0.02969407
-0.09906044 -0.049597993 -0.2983524 0.6387645 0.002727082 0.089479506 0.6024682 0.4866308
0.27497476 0.08915146 -0.0115993135 -0.019814057 0.08093131 0.44086808 -0.029695561 -0.07470804
0.08205269 0.3127282 0.13744003 0.46423396 -0.430256 0.1146021 -0.18798245 0.008922035
-0.59875983 -0.14786115 0.31827283 0.27712062 0.3386525 -0.5473466 -2.1849737 0.30141652
-0.20789115 -0.35389152 0.35766706 0.66566044 -0.54703504 0.5397386 0.110086344 -0.030483996
-2.187167 0.5579227 -0.49008748 -0.4517932 0.5379059 0.114930704 -0.41654658 0.26685882
0.0912574 0.100938626 0.018666668 0.12179728 -0.03522162 0.079097524 0.08898009 0.09799114
-0.011975838 -0.13192034 -0.022411374 0.05595409 -0.6333405 -0.010316733 0.23215394 0.009769658
-0.10914398 -0.062591955 -0.64162713 0.38286248 -0.009880008 0.16677774 0.42048094 0.3296631
0.22794028 0.16684723 -0.018863467 -0.028318053 0.15038629 0.2840356 -0.040328693 -0.052978445
0.09900521 -0.04408044 0.059880808 -0.07147135 -0.093022056 0.12686452 -0.058738492 0.09351474
-0.088340215 -0.11313687 0.029732179 -0.22051144 -0.014418688 -0.087704405 -0.09454834 -0.28148544
-0.10768938 -0.09777558 0.111844726 0.6554982 -0.08764252 0.05647532 0.5355927 0.43046513
-0.09360059 0.05079992 -0.08974624 -0.09164828 0.06568769 0.4148557 -0.09385721 0.006614512
0.12554091 0.29900506 0.22036274 0.307517 -0.19314854 0.21380477 -0.3745036 0.1178325
-0.25169507 -0.12456766 0.3997271 0.23092972 0.32142013 -0.2681643 -1.1056981 0.30451602
-0.13734472 -0.17201704 0.35543874 0.4424292 -0.2690662 0.39491862 0.7350789 0.78562516
-1.0852209 0.4035342 -0.21221277 -0.19968776 0.3864787 0.80092484 -0.18878146 0.27549082
0.1561155 0.22408554 0.20749426 0.19378403 -0.20375845 0.11526322 -0.3200321 0.14588015
-0.2448774 -0.16304314 0.27563572 0.16350599 0.27113703 -0.25447935 -1.1408616 0.32485026
-0.17007585 -0.19050147 0.31017607 0.03213113 -0.25509682 0.3236886 -0.46177745 -0.4311746
-1.1186999 0.33160695 -0.21627016 -0.20801573 0.31507587 -0.17894578 -0.20108068 0.20893422
00000000: 4fd3 d83d 0097 d63d f305 0f3c 48ce 253e
00000010: 18a2 dbbc 446d d93d aedf 043e 984b 013e
00000020: 7998 493a 97e8 22be f5b5 9dbc 882e 3f3d
00000030: cbd5 2dbf b74f 533b c6e1 843e ee32 de3a
00000040: ccf8 03be 9e30 79bd 3bb9 2fbf 99aa e13e
00000050: 2036 693b 13d8 203e 33c0 e73e 6cdd bb3e
00000060: f5a1 833e fc17 213e 4e2e 02bc 0dc5 9abc
00000070: fe65 103e 398e a03e 0e5a 05bd 2183 53bd
00000080: c643 033e 9e3d bd3e ff78 6a3e 427e 183f
00000090: 6d59 e1be 3367 003e cd7f edbe 15de 383d
000000a0: 7401 21bf fc93 2abe d471 c03e a4f1 c83e
000000b0: 06e6 9e3e 977c 16bf 2514 16c0 3510 c03e
000000c0: 9b5b 64be 1acd b9be 7a57 a83e 9fd2 563f
000000d0: a291 16bf 3deb 3b3f 4072 a33c 5ff0 39be
000000e0: 6b0e 16c0 a512 413f 518d 01bf 5863 edbe
000000f0: d0e4 3c3f 0c3a 96bc 6ddd d9be 4922 a13e
00000100: 9934 8e3d ecf8 5d3d 9a74 01bc bacd 5f3d
00000110: e86e d1bc e486 cf3d 943f 233e 7586 9b3d
00000120: 69bf 3ebb 22cf f7bd 8b85 94bc 6586 2ebd
00000130: 833e 6fbe 6b54 133b 26f3 8c3e fa40 f33c
00000140: 33e0 cabd 4427 4bbd a5c1 98be 1286 233f
00000150: d8b8 323b 0841 b73d 5b3b 1a3f ac27 f93e
00000160: 7ec9 8c3e 0a95 b63d 0c0b 3ebc 1751 a2bc
00000170: 51bf a53d 76b9 e13e 1b44 f3bc 8700 99bd
00000180: 3e0b a83d e91d a03e 14bd 0c3e 13b0 ed3e
00000190: 844a dcbe 81b4 ea3d 797e 40be ba2d 123c
000001a0: 5348 19bf ea68 17be a8f4 a23e c1e2 8d3e
000001b0: dc63 ad3e e81e 0cbf 9cd6 0bc0 4453 9a3e
000001c0: 6be1 54be 4531 b5be 2320 b73e b968 2a3f
000001d0: 7d0a 0cbf 4f2c 0a3f f374 e13d 93b9 f9bc
000001e0: 8bfa 0bc0 06d4 0e3f bfec fabe 7051 e7be
000001f0: 33b4 093f ca60 eb3d 9845 d5be b8a1 883e
00000200: 29e5 ba3d e9b8 ce3d d7ea 983c da70 f93d
00000210: 8c44 10bd e2fd a13d 323b b63d 94af c83d
00000220: 4e36 44bc 2016 07be 0f98 b7bc 1e30 653d
00000230: 9a22 22bf 8407 29bc c3b9 6d3e ea10 203c
00000240: e186 dfbd 3630 80bd ad41 24bf 8d06 c43e
00000250: c2df 21bc c9c7 2a3e 4749 d73e 9ac9 a83e
00000260: 2d69 693e 00da 2a3e 8f87 9abc 43fb e7bc
00000270: ddfe 193e 1d6d 913e b32f 25bd edff 58bd
00000280: 3ec3 ca3d b18d 34bd 9445 753d 925f 92bd
00000290: 5982 bebd c6e8 013e c697 70bd a884 bf3d
000002a0: b7eb b4bd 4eb4 e7bd e690 f33c c0cd 61be
000002b0: 5c3c 6cbc 5e9e b3bd 8fa2 c1bd dc1e 90be
000002c0: 408c dcbd 903e c8bd d90e e53d bbce 273f
000002d0: ec7d b3bd aa52 673d 9a1c 093f ed65 dc3e
000002e0: abb1 bfbd 9413 503d e0cc b7bd 18b2 bbbd
000002f0: 4587 863d f767 d43e 3538 c0bd 8cbe d83b
00000300: cc8d 003e 3117 993e c5a6 613e de72 9d3e
00000310: bbc8 45be a3ef 5a3e f0be bfbe 2a52 f13d
00000320: 2dde 80be 541d ffbd 08a9 cc3e d778 6c3e
00000330: 2e91 a43e d54c 89be 8487 8dbf 86e9 9b3e
00000340: 18a4 0cbe 3c25 30be 11fc b53e 1586 e23e
00000350: 0cc3 89be c632 ca3e 212e 3c3f bb1e 493f
00000360: 85e8 8abf 099c ce3e 4e4e 59be f37a 4cbe
00000370: 89e0 c53e 6909 4d3f ed4f 41be 220d 8d3e
00000380: bedc 1f3e ae76 653e 6079 543e 526f 463e
00000390: 0ea6 50be 200f ec3d 3fdb a3be 9b61 153e
000003a0: 24c1 7abe c8f4 26be 2020 8d3e 1d6e 273e
000003b0: 79d2 8a3e 1e4b 82be c107 92bf c652 a63e
000003c0: 5d28 2ebe d112 43be 66cf 9e3e ef9b 033d
000003d0: 0d9c 82be 83ba a53e 186e ecbe ebc2 dcbe
000003e0: 8f31 8fbf 63c8 a93e ed75 5dbe 1302 55be
000003f0: a051 a13e 903d 37be 18e8 4dbe daf2 553e

bias f4 [64]
-0.34326395 0.08013194 -0.3485404 0.050985664 -0.29011673 -0.28988343 0.12727337 0.03140786
-0.27564162 -0.33902878 -0.303831 -0.45353794 0.036383837 0.043442834 -0.333482 0.14100629
-0.2962145 -0.3591629 -0.34302744 0.007012282 -0.25366813 -0.16721168 -0.47523013 -0.24996023
-0.252832 -0.036653813 0.078146435 -0.2386755 -0.31335273 -0.33831212 -0.09861155 -0.29346275
-0.46107617 -0.18895647 -0.3601651 -0.3197594 0.2183319 -0.020634908 -0.38526255 -0.032991294
-0.34643465 -0.21650054 -0.36874297 -0.39764887 -0.28883427 -0.12486617 -0.19606248 0.11178234
-0.47547138 -0.49574295 -0.17499572 0.036621783 0.34604967 -0.3244987 -0.17549199 -0.3258328
-0.18754458 -0.47172603 -0.34582388 0.09196577 0.100367114 -0.3230831 -0.3555615 -0.26083207
00000000: 4bc0 afbe 371c a43d e373 b2be 58d6 503d
00000010: 2e8a 94be 9a6b 94be f353 023e 87a5 003d
00000020: e620 8dbe 2e95 adbe bd8f 9bbe 2036 e8be
00000030: 3807 153d 1df1 313d 27be aabe f463 103e
00000040: 6da9 97be 33e4 b7be 4ba1 afbe 49c7 e53b
00000050: cae0 81be 8a39 2bbe 5d51 f3be 93f5 7fbe
00000060: 3273 81be 4f22 16bd 3d0b a03d 5a67 74be
00000070: c56f a0be 3f37 adbe daf4 c9bd c040 96be
00000080: 2d12 ecbe ce7d 41be 8f67 b8be 81b7 a3be
00000090: 6692 5f3e 8a0a a9bc 2241 c5be e121 07bd
000000a0: e25f b1be 51b2 5dbe e1cb bcbe a298 cbbe
000000b0: 16e2 93be d6b9 ffbd 9ac4 48be 24ee e43d
000000c0: fc70 f3be 05d2 fdbe 1432 33be b900 163d
000000d0: 6c2d b13e b224 a6be 2cb4 33be 8fd3 a6be
000000e0: b00b 40be 1386 f1be d40f b1be 8d58 bc3d
000000f0: 468d cd3d 266b a5be 280c b6be c88b 85be

weight f4 [32, 64]
0.0089210905 -0.6974214 -0.0060575637 -0.64713615 -0.029047482 0.09452154 -0.57055885 -0.39982355
0.063988715 0.083790466 -0.02944177 0.021729449 -0.5311017 -0.6006833 0.017456219 -0.4824219
0.07862985 0.08502911 -0.017637253 -0.35103887 0.086529106 -0.054890193 0.03283255 0.0761612
0.09498548 -0.13999148 -0.6358611 0.07140825 -0.03677476 0.084737405 -0.17450078 -0.004174109
0.04006096 0.095083386 0.030710949 -0.017886048 -0.3493489 -0.8920657 -0.024096426 -0.25138354
0.083761305 0.07951784 0.045261793 0.010372112 -0.017607812 -0.019301644 0.060348082 -0.55522066
0.056010053 -0.0031679464 -0.25575563 -0.39235651 -0.0420561 0.0014573431 -0.23881142 0.016510973
0.03765708 0.0056724953 0.020600365 -0.6280804 -0.4518221 0.030066887 0.0372793 0.11343857
-0.16689439 -0.1333767 -0.14681338 -0.08491687 -0.15718067 -0.088633776 0.08157688 -0.053452723
-0.12482826 -0.11416296 -0.13363662 -0.206424 -0.093080595 -0.14644668 -0.16792837 -0.009603287
-0.11166951 -0.11514124 -0.15040009 0.06786362 -0.1217313 -0.121707335 -0.21427459 -0.14259309
-0.0811459 0.11222305 -0.119466394 -0.10805067 -0.117248386 -0.09225447 -0.4094048 -0.16660725
-0.17610015 -0.12827687 -0.21367192 -0.14715324 -0.0459108 -0.32510185 -0.12757944 -0.11187332
-0.10465609 -0.1319457 -0.15401939 -0.14903708 -0.12031083 -0.05433949 -0.12743725 0.10579719
-0.18621446 -0.15209587 -1.0329123 -0.068534225 0.22038148 -0.1902395 -0.7499714 -0.137037
-0.08600547 -0.17405668 -0.17800233 0.048367526 0.1146551 -0.11495676 -0.18422778 -0.085500956
0.19821371 -0.20408647 0.16891643 -0.22015046 0.19582373 0.033418324 0.1798902 0.20267531
0.050747972 0.058207586 0.17970154 0.19356476 0.26275337 0.059807505 0.20445666 -0.41411975
0.05884486 0.056236103 0.21342479 0.20377587 0.054751698 0.05415962 0.177567 0.06196856
0.0077656195 0.0072472976 -0.22582564 0.06121275 0.15990035 0.045517266 0.11835122 0.18617955
0.20779437 0.016130837 0.14935231 0.17442952 -0.1518646 0.013981946 0.15907885 -0.13602675
0.04995478 0.0589428 0.18638103 0.22517292 0.1864345 -0.11401847 0.06563107 0.17627612
0.18337066 0.20952566 0.90660506 0.39821982 -0.1279488 0.1984171 1.0435019 0.1097682
0.01177419 0.21594365 0.20956491 0.1618832 0.27391744 0.089023605 0.22121696 0.047893293
0.08921074 -0.28032705 -0.00707212 -0.2900233 0.07485063 -0.13014331 -0.16477577 -0.16514729
-0.117366634 -0.12334258 0.025384199 0.11138478 -0.1707731 -0.17285882 0.10053133 -0.3238918
-0.12059154 -0.11025975 0.07535164 -0.18494497 -0.14108182 -0.05986953 0.19724266 -0.13279152
-0.15140295 0.29851273 -0.30650163 -0.12262519 -0.028770981 -0.1105906 0.13320851 0.03465436
0.18584238 -0.16760306 0.11056456 0.098575495 0.23373827 -0.16137075 -0.059375968 0.2340706
-0.12303436 -0.14911112 0.34399936 0.055103622 0.03987936 -0.03397733 -0.13096938 -0.16761869
0.2696206 0.023517307 -0.3609996 -0.16530307 -2.1594427 0.09860817 -0.34435877 -0.04651846
-0.077677846 0.10230136 0.15155861 -0.16726738 -0.16097847 -0.05582026 0.082047395 -0.13668972
00000000: c429 123c 358a 32bf 877e c6bb b7aa 25bf
00000010: fcf4 edbc 8294 c13d 2510 12bf acb5 ccbe
00000020: 840c 833d 569a ab3d de2f f1bc f501 b23c
00000030: 48f6 07bf 61c6 19bf 5800 8f3c 0100 f7be
00000040: b008 a13d be23 ae3d 007c 90bc 5ebb b3be
00000050: 2c36 b13d 8ad4 60bd 6d7b 063d 67fa 9b3d
00000060: bf87 c23d ed59 0fbe cbc7 22bf 7d3e 923d
00000070: 21a1 16bd ce8a ad3d 55b0 32be f7c6 88bb
00000080: f616 243d 14bb c23d 8795 fb3c c385 92bc
00000090: dcdd b2be 6b5e 64bf de65 c5bc 58b5 80be
000000a0: 0c8b ab3d 40da a23d 6e64 393d caef 293c
000000b0: 423e 90bc 7b1e 9ebc 8d2f 773d f122 0ebf
000000c0: cc6a 653d 529d 4fbb 67f2 82be f4e2 c8be
000000d0: 0443 2cbd 5204 bf3a fb8a 74be 0542 873c
000000e0: 4f3e 1a3d 57e0 b93b 19c2 a83c e1c9 20bf
000000f0: 3a55 e7be d54e f63c 2eb2 183d 7b52 e83d
00000100: 5de6 2abe e793 08be 3f56 16be e5e8 adbd
00000110: f8f3 20be a085 b5bd c711 a73d 3ef1 5abd
00000120: f5a5 ffbd 45ce e9bd 0ad8 08be d060 53be
00000130: 0aa1 bebd 1ef6 15be 6af5 2bbe 1b57 1dbc
00000140: fcb2 e4bd 2ccf ebbd 7b02 1abe 15fc 8a3d
00000150: 434e f9bd b241 f9bd cc6a 5bbe ec03 12be
00000160: d22f a6bd 33d5 e53d ccaa f4bd ab49 ddbd
00000170: ec1f f0bd e9ef bcbd 829d d1be 179b 2abe
00000180: 9953 34be 035b 03be d0cc 5abe 57af 16be
00000190: f70c 3cbd c073 a6be 2fa4 02be d71d e5bd
000001a0: ef55 d6bd c61c 07be 42b7 1dbe 2d9d 18be
000001b0: 8665 f6bd 1693 5ebd e97e 02be 32ac d83d
000001c0: 01af 3ebe 05bf 1bbe 7836 84bf ac5b 8cbd
000001d0: afab 613e 25ce 42be 20fe 3fbf 6d53 0cbe
000001e0: a323 b0bd ea3b 32be 3e46 36be 071d 463d
000001f0: 4bd0 ea3d 736e ebbd 35a6 3cbe 201b afbd
00000200: 89f8 4a3e 0bfc 50be 6ef8 2c3e 1f6f 61be
00000210: 0486 483e a7e1 083d 2335 383e 1e8a 4f3e
00000220: 1bdd 4f3d 146b 6e3d ae03 383e d735 463e
00000230: 9c87 863e b7f8 743d 165d 513e 8107 d4be
00000240: 4f07 713d d457 663d 078c 5a3e 9faa 503e
00000250: 5143 603d 7ad6 5d3d 20d4 353e bfd2 7d3d
00000260: bd76 fe3b bd7a ed3b d63e 67be 38ba 7a3d
00000270: ebbc 233e 5070 3a3d 2062 f23d daa5 3e3e
00000280: 0cc8 543e d124 843c d0ef 183e a79d 323e
00000290: 6582 1bbe 8814 653c 91e5 223e 994a 0bbe
000002a0: 629d 4c3d 016e 713d abda 3e3e bb93 663e
000002b0: b0e8 3e3e 8482 e9bd 9569 863d ba81 343e
000002c0: 85c5 3b3e e58d 563e 4517 683f 78e3 cb3e
000002d0: 0305 03be da2d 4b3e 7891 853f 26ce e03d
000002e0: 88e8 403c 5520 5d3e 2f98 563e b6c4 253e
000002f0: e83e 8c3e 0252 b63d b386 623e c22b 443d
00000300: 1fb4 b63d 0787 8fbe 3ebd e7bb ef7d 94be
00000310: 494b 993d 4a44 05be fbba 28be 5f1c 29be
00000320: eb5d f0bd 099b fcbd 86f2 cf3c b41d e43d
00000330: 25df 2ebe e701 31be 5fe3 cd3d 25d5 a5be
00000340: b3f8 f6bd ddcf e1bd f651 9a3d 3762 3dbe
00000350: c177 10be c139 75bd fbf9 493e 80fa 07be
00000360: 6009 1bbe a9d6 983e c8ed 9cbe ea22 fbbd
00000370: 1fb1 ebbc 537d e2bd d067 083e bbf1 0d3d
00000380: 774d 3e3e 23a0 2bbe ac6f e23d f3e1 c93d
00000390: 1659 6f3e 603e 25be 3734 73bd 34b0 6f3e
000003a0: 70f9 fbbd 96b0 18be af20 b03e 56b4 613d
000003b0: 8a58 233d d02b 0bbd d61c 06be 3ca4 2bbe
000003c0: b60b 8a3e 5ea7 c03c f1d4 b8be 3545 29be
000003d0: 4f34 0ac0 15f3 c93d cb4f b0be 248a 3ebd
000003e0: 9015 9fbd 6083 d13d 2e32 1b3e 2448 2bbe
000003f0: 8ad7 24be c9a3 64bd 7708 a83d 64f8 0bbe

bias f4 [32]
-0.20142715 0.16557692 -0.24349667 -0.056927774 -0.13475522 0.23702247 -0.07005985 -0.14725997
-0.3260321 0.2752291 0.085116684 -0.23988733 0.37090734 -0.20787723 0.18378767 0.084670074
-0.22147883 0.09614578 0.09656145 -0.6920457 -0.0015341998 -0.24558134 0.2596146 -0.089729264
-0.21561854 0.19823338 0.28244978 -0.16959749 0.15746903 -0.36656767 0.18065132 -0.14969404
00000000: eb42 4ebe ff8c 293e 3157 79be 192d 69bd
00000010: 46fd 09be 05b6 723e 8a7b 8fbd 51cb 16be
00000020: aeed a6be d4ea 8c3e a851 ae3d 06a5 75be
00000030: 91e7 bd3e c5dd 54be d632 3c3e 8167 ad3d
00000040: 59cb 62be 14e8 c43d 02c2 c53d e829 31bf
00000050: 3417 c9ba ad79 7bbe 34ec 843e fac3 b7bd
00000060: 1bcb 5cbe b1fd 4a3e 429d 903e f7aa 2dbe
00000070: 903f 213e c2ae bbbe a9fc 383e 6549 19be

weight f4 [32, 1]
0.16077277 -0.6836104 -0.84475845 1.0402251 0.57042736 0.5941308 -0.44440454 -0.73271036
0.050113246 -0.6202125 -0.32686588 -0.69238806 -1.4143014 -0.6691287 -0.6460755 -0.6845249
-0.84829724 -0.15681513 0.28399137 -0.6041981 -1.7660499 -0.31413424 -0.04457234 -0.51602554
-0.13149038 0.06709808 0.54221904 0.018397478 -0.5321043 0.12692384 -0.77677053 0.046728194
00000000: 9ea1 243e 1701 2fbf 1742 58bf 1926 853f
00000010: 8707 123f f518 183f fe88 e3be e892 3bbf
00000020: 8c43 4d3d 3fc6 1ebf f75a a7be 5840 31bf
00000030: d407 b5bf 054c 2bbf 3465 25bf 063d 2fbf
00000040: 022a 59bf 2594 20be 5167 913e baac 1abf
00000050: ec0d e2bf 34d6 a0be 7c91 36bd 401a 04bf
00000060: 6aa5 06be b86a 893d dece 0a3f 4fb6 963c
00000070: fd37 08bf 53f8 013e 6fda 46bf 1066 3f3d
