checkpoints/click_honam2_emb32_3.pt (torch, 242802 bytes, 134 tensors)

weight f4 [32, 1]
0	0x3eac837c	0.33694065
1	0x3eb4a78e	0.35284084
2	0x3eb2ba1b	0.34907612
3	0x3e852abd	0.2600917
4	0xbeadf3cc	-0.33975065
5	0x3eb7159c	0.35758674
6	0x3e460b64	0.19340283
7	0x3ee719c9	0.4513686
8	0x3ed41f16	0.41429967
9	0xbec96bd4	-0.3934008
10	0xbecf6125	-0.40503803
11	0x3ea71be0	0.32638454
12	0xbc6671a4	-0.01406518
13	0xbeb373e4	-0.35049355
14	0x3ea94308	0.33058953
15	0xbeb4694b	-0.35236582
16	0xbeca104d	-0.39465562
17	0xbeab1e65	-0.33421627
18	0xbb7661a6	-0.0037594824
19	0xbce0ac63	-0.02742595
20	0xbec96bbf	-0.39340016
21	0xbea77cd7	-0.32712433
22	0xbe68711a	-0.22699395
23	0x3ec70da2	0.3887759
24	0xbe76a5fc	-0.24086756
25	0xbea2c184	-0.31788266
26	0x3e85bea3	0.26122007
27	0x3e5ec2c4	0.21753985
28	0xbe8ec101	-0.27881625
29	0x3ee11d88	0.43967843
30	0x3ead8bb0	0.33895636
31	0x3e3cb800	0.18429565

bias f4 [32]
0	0xbf4625e4	-0.77401567
1	0xbf739ea5	-0.9516395
2	0xbf6bb794	-0.92076993
3	0xbeff83fb	-0.4990538
4	0xbd6bf74c	-0.057608888
5	0xbf85de3c	-1.0458446
6	0xbeb3311c	-0.34998405
7	0xbdf17146	-0.11789183
8	0xbbb7cbe2	-0.0056090215
9	0x3ae28c1f	0.0017284191
10	0xba992a1b	-0.0011685522
11	0xbf335822	-0.70056355
12	0xbca586fb	-0.020205965
13	0xbd364597	-0.04449996
14	0xbf3c16dd	-0.73472387
15	0xbd391c8c	-0.04519324
16	0xbae4ab4c	-0.001744607
17	0x3f78e0bd	0.97217923
18	0xbc6115ab	-0.013738076
19	0xbba99b0d	-0.005175954
20	0xbb810f9e	-0.0039386293
21	0x3f6dd5c3	0.929043
22	0x3f1e4497	0.6182341
23	0x3d845fe4	0.06463602
24	0xbd80dbbe	-0.062919125
25	0x3f5fb9d2	0.87392914
26	0x3e05155c	0.12996429
27	0xbe607945	-0.2192126
28	0x3f3b1775	0.7308267
29	0xbdbef8bf	-0.09324788
30	0xbf4aeec9	-0.7927061
31	0xbe5a29ee	-0.21305057

weight f4 [64, 32]
0	0x3e40a45e	0.18812701
1	0x3e374d14	0.17900497
2	0x3e37da03	0.17954259
3	0x3e1d7be3	0.1537929
4	0xbdcf1010	-0.101104856
5	0x3e322edc	0.17400688
6	0x3da97585	0.08274368
7	0x3eddfa8a	0.4335521
8	0x3e667c89	0.22508444
9	0xbe5d0400	-0.21583557
10	0xbe7eb269	-0.24872746
11	0x3e431e76	0.19054589
12	0xbcf7e454	-0.030260243
13	0xbdefed4e	-0.11715184
14	0x3e41318a	0.18866554
15	0xbdf29d64	-0.11846426
16	0xbe63b6c5	-0.2223769
17	0xbe2b8ac3	-0.16752152
18	0xbca9945d	-0.020700628
19	0x3ae9e6b1	0.0017845241
20	0xbe609504	-0.21931845
21	0xbe2a7f8c	-0.16650218
22	0xbdebadb4	-0.115077406
23	0x3e11f33c	0.14252943
24	0xbd25f020	-0.040512204
25	0xbe290122	-0.16504338
26	0x3d116262	0.035494216
27	0x3e07bf0d	0.13256474
28	0xbe17c4e0	-0.14821196
29	0x3eb7f298	0.35927272
30	0x3e3fa451	0.18715025
31	0x3e5227ec	0.20523041
32	0x3d37c4f5	0.044865567
33	0x3d34b19d	0.044114698
34	0x3d35b6f8	0.044363946
35	0x3d439f64	0.04775943
36	0x3d8809c4	0.06642488
37	0x3d33b12c	0.043870136
38	0x3d540329	0.051760826
39	0xbd9639a0	-0.0733521
40	0xbcd4d305	-0.025979528
41	0x3d9a0cac	0.07521948
42	0x3b97d84e	0.00463394
43	0x3d38d224	0.04512228
44	0xbd838a35	-0.06422845
45	0x3d867988	0.06566149
46	0x3d38bc4e	0.045101456
47	0x3d86bda0	0.06579137
48	0x3d4d6fb4	0.050155357
49	0xbcd72f06	-0.02626754
50	0xbd546390	-0.051852763
51	0x3d486abc	0.048929915
52	0x3d78b279	0.06071708
53	0xbcd59e0a	-0.026076335
54	0xbce48b73	-0.027898526
55	0xbd4e1e4d	-0.050321866
56	0x3d858717	0.06519907
57	0xbcd3bb55	-0.025846163
58	0xbd6efa31	-0.05834407
59	0x3d43c4db	0.047795158
60	0xbcd5264d	-0.02601924
61	0xbcbb4286	-0.02285887
62	0x3d370107	0.044678714
63	0x3d3ff2cb	0.046862405
64	0x3cb8518a	0.022499818
65	0x3cac9f67	0.021072103
66	0x3cafb207	0.021447195
67	0x3d26c048	0.040710717
68	0x3df4a4f4	0.11945525
69	0x3cab2c0d	0.020895028
70	0x3d87f923	0.06639316
71	0xbeb821c3	-0.35963258
72	0xbe62621e	-0.22107741
73	0xbb14c747	-0.0022701786
74	0xbdb96a28	-0.09053451
75	0x3cc393dd	0.023874218
76	0xbd9b09c4	-0.07570222
77	0x3df35a5c	0.11882469
78	0x3cbf8c74	0.023382403
79	0x3df44d58	0.11928815
80	0x3da329c7	0.07966953
81	0x392b0a19	0.00016311592
82	0xbd85b570	-0.06528747
83	0x3d800372	0.06250657
84	0x3da16fbe	0.07882641
85	0xba948705	-0.0011331743
86	0xbd105f6a	-0.035247244
87	0xbe5e1feb	-0.21691863
88	0x3de0112f	0.109407775
89	0xbb423aff	-0.0029637215
90	0xbe0aa7ec	-0.1354062
91	0x3d9fb448	0.07798058
92	0xbc7a181b	-0.015264536
93	0xbe9caef1	-0.3060222
94	0x3cb5934a	0.02216496
95	0x3da3679f	0.079787485
96	0x3b9c1527	0.0047632637
97	0x3b496669	0.0030731207
98	0x3b6afe51	0.003585715
99	0x3cb91489	0.0225928
100	0x3dee315d	0.11630509
101	0x3b409a21	0.0029388743
102	0x3d42740a	0.047473945
103	0xbec887c2	-0.39166075
104	0xbe8adc08	-0.27120996
105	0x3cd74122	0.026276175
106	0x3c4d4396	0.012528321
107	0x3bce862f	0.006302617
108	0xbdc09bf5	-0.094047464
109	0x3df470e7	0.11935597
110	0x3bbc3764	0.0057439078
111	0x3df557c8	0.119796336
112	0x3d8a5665	0.0675476
113	0x3ca1222c	0.019669615
114	0xbda86f96	-0.08224408
115	0x3da9213e	0.082582936
116	0x3dd906bc	0.105969876
117	0x3c9638b3	0.018337583
118	0xbc7bc19e	-0.015365986
119	0xbe5d728f	-0.21625732
120	0x3dc876e7	0.09788304
121	0x3c8771cd	0.016533757
122	0xbdfb576a	-0.12272532
123	0x3d6e6e12	0.05821044
124	0x3b8d9785	0.004321041
125	0xbeac71ea	-0.3368066
126	0x3b93ed06	0.0045143394
127	0x3d781aa8	0.060572296
128	0x3e31eabf	0.17374705
129	0x3e29a2d6	0.16566023
130	0x3e29fba0	0.16599894
131	0x3e08b56b	0.13350455
132	0xbdfb8922	-0.122820154
133	0x3e24c25a	0.16089764
134	0x3d6dea42	0.058084734
135	0x3eea59c1	0.45771602
136	0x3e8005a4	0.25004303
137	0xbe78729a	-0.24262467
138	0xbe8f4049	-0.27978733
139	0x3e33a4e3	0.17543368
140	0x3c989aab	0.018628439
141	0xbe0f089b	-0.13968126
142	0x3e31fee8	0.17382395
143	0xbe103d27	-0.14085828
144	0xbe7df751	-0.24801375
145	0xbe1d659e	-0.15370795
146	0xbcb517bf	-0.02210605
147	0xbc7bdfc1	-0.015373171
148	0xbe7af869	-0.24508823
149	0xbe1becf9	-0.15227117
150	0xbdc4d5a7	-0.096110635
151	0x3e29d4ec	0.1658513
152	0xbd6f8261	-0.05847395
153	0xbe19df03	-0.15026478
154	0x3d5d1efc	0.053984627
155	0x3db32b5f	0.08748507
156	0xbe07021f	-0.13184403
157	0x3ec3e3ee	0.38259834
158	0x3e3103f3	0.17286663
159	0x3e0209e6	0.12699088
160	0xba97e07e	-0.001158729
161	0xbb5a1fb6	-0.0033283061
162	0xbb351e95	-0.0027636637
163	0x3c8d9029	0.017280655
164	0x3db21cc4	0.08696893
165	0xbb7d1cc1	-0.0038621875
166	0x3d2a754b	0.041615766
167	0xbebd9680	-0.37028885
168	0xbe729ef7	-0.23693453
169	0xbc826ae6	-0.015920114
170	0xbd2b917b	-0.041886788
171	0x3a56e18f	0.0008197063
172	0xbdb13449	-0.08652551
173	0x3db25d98	0.08709258
174	0x38c059dd	9.172012e-05
175	0x3db37b16	0.08763711
176	0x3d606c0c	0.05479054
177	0x3cf9c674	0.030490138
178	0xbdabf443	-0.083961986
179	0x3d7b1b62	0.06130541
180	0x3d924c11	0.07143415
181	0x3cef84ad	0.02923807
182	0xbbbfd345	-0.0058540427
183	0xbe48a18f	-0.1959288
184	0x3d9ce5a3	0.07660987
185	0x3ce1e331	0.027574154
186	0xbdea8e9d	-0.114529826
187	0x3d59200d	0.05300908
188	0x3c79941a	0.015233064
189	0xbea23a2d	-0.3168501
190	0xbab4cac4	-0.0013793339
191	0x3d62be8e	0.05535751
192	0x3b059261	0.0020381438
193	0xb9b80970	-0.00035102246
194	0x3937557b	0.00017484084
195	0x3caa3af6	0.020780068
196	0x3df35501	0.118814476
197	0xba6cd1df	-0.0009033959
198	0x3d3ca0b8	0.04605171
199	0xbed6edad	-0.41978207
200	0xbe9434a3	-0.2894641
201	0xbaefb86e	-0.0018289217
202	0x3cbe920f	0.023263006
203	0x3b80f942	0.003935964
204	0xbda839fd	-0.082141854
205	0x3df6b33b	0.12045904
206	0x3b4e4a6b	0.0031477462
207	0x3df7a64a	0.12092264
208	0x3d9fc85e	0.07801889
209	0x3cf0263c	0.029315107
210	0xbd9cf4c4	-0.07663873
211	0x3d96ae22	0.07357432
212	0x3dc7b195	0.09750668
213	0x3ce6b32f	0.028161613
214	0xbbe47383	-0.006971778
215	0xbe78df95	-0.2430404
216	0x3dd188d7	0.10231178
217	0x3cd7e05a	0.026352096
218	0xbe07ef49	-0.13274874
219	0x3d6f3b32	0.058406062
220	0x3c6ab57c	0.014325496
221	0xbebb7a6a	-0.36616832
222	0x3ad41f1c	0.0016183588
223	0x3d7861ca	0.060640134
224	0x3cb29363	0.021798795
225	0x3caa5d33	0.020796394
226	0x3cab6b5a	0.020925213
227	0x3cd13526	0.025538038
228	0x3d1efb95	0.038814146
229	0x3ca76f2b	0.020438751
230	0x3cf6a409	0.030107515
231	0xbd3ac9db	-0.04560266
232	0x3c446d9a	0.011989022
233	0x3d0dacbf	0.03458857
234	0x3d05edb4	0.032697394
235	0x3cb83007	0.022483839
236	0xbcabe1cc	-0.020981692
237	0x3d1bacda	0.03800664
238	0x3cb619a0	0.022229016
239	0x3d1b5d98	0.037931055
240	0x3d051d50	0.032498658
241	0xbbb26003	-0.0054435744
242	0xbc05a478	-0.008156888
243	0x3d0212ee	0.031756334
244	0x3cfc45cf	0.030795006
245	0xbbb08645	-0.0053871
246	0xbbd69222	-0.006548182
247	0xbbd1cbff	-0.006402492
248	0x3d29aa76	0.04142233
249	0xbbab0fb2	-0.005220377
250	0xbca1944d	-0.019724036
251	0x3cf0d38e	0.029397752
252	0xbbaafe0e	-0.005218274
253	0x3c6621df	0.014046161
254	0x3cb140fd	0.021637434
255	0x3cd6b82c	0.026210867

bias f4 [64]
0	0x3c738d1c	0.014865186
1	0xbcd00b0f	-0.025395898
2	0xbded4fb8	-0.11587471
3	0xbde32ce1	-0.11092544
4	0xbc7cf2ce	-0.0154387485
5	0xbe28ecce	-0.16496584
6	0xbe2e11cb	-0.16998975
7	0xbadafc35	-0.0016707244
8	0xb9333ae0	-0.00017092703
9	0xbe19d58c	-0.15022868
10	0xbb6d7ed1	-0.0036238919
11	0xbdee295d	-0.11628983
12	0xbd771196	-0.060319506
13	0x3d6ca9f7	0.05777928
14	0xbdd8d1e3	-0.10586908
15	0xbe1cfbcd	-0.1533043
16	0xbd701be5	-0.058620352
17	0xbd95d05a	-0.073151305
18	0x3df13a9f	0.11778759
19	0xbdbe7f5d	-0.09301636
20	0xbc3ce027	-0.011528051
21	0x3cb917a6	0.022594284
22	0xb98c96bb	-0.00026815184
23	0xbd9aaec1	-0.07552863
24	0x3cbd3d82	0.023100618
25	0xbda6db2e	-0.08147274
26	0x3db381c3	0.087649845
27	0xbdef1ce9	-0.11675436
28	0x3d80558a	0.06266315
29	0xbdb99523	-0.09061649
30	0x3c8d11f8	0.017220482
31	0xbe269da6	-0.16271076
32	0x3de460fd	0.111513115
33	0x3c92cce8	0.017919973
34	0xbdf90e8a	-0.12160976
35	0xbdce2dce	-0.1006733
36	0xbd99813e	-0.07495354
37	0xbdb43264	-0.08798674
38	0xbe0a12f6	-0.13483796
39	0x3d89076a	0.06690867
40	0xbdf0a82d	-0.11750827
41	0x3d5a9718	0.05336675
42	0xbd2b5f8d	-0.04183917
43	0xbd8ab7f2	-0.06773366
44	0x3d6dc630	0.058050334
45	0xbd95e1b0	-0.07318437
46	0xbd1c6f21	-0.03819192
47	0xbd27cf9e	-0.040969484
48	0xbda6a17b	-0.08136269
49	0x3cbe7fac	0.023254238
50	0xbdf7e1d3	-0.121036194
51	0xbd8ca2ea	-0.06867011
52	0x3c81a8fc	0.015827648
53	0xbd739aff	-0.059473988
54	0xbdaee640	-0.085400105
55	0xbd1849cc	-0.037179753
56	0xbde8edca	-0.1137348
57	0xbc82c8c9	-0.015964882
58	0xbe11b68a	-0.1422979
59	0xbdbb7300	-0.09152794
60	0xbd42f72b	-0.047599
61	0xbde4bf15	-0.111692585
62	0xbdd2a269	-0.102848835
63	0xbd93b52e	-0.07212292

weight f4 [32, 64]
0	0x3e7b2048	0.24524033
1	0x3bd603ff	0.006531238
2	0xbd3a4013	-0.045471262
3	0xbd27b10c	-0.04094033
4	0x3ee38dc5	0.444441
5	0xba29bbae	-0.0006474805
6	0xbad17b59	-0.0015982195
7	0x3bb66edc	0.0055674147
8	0x3e948e8e	0.2901501
9	0xbb8549a1	-0.004067615
10	0x3ea505f2	0.32231098
11	0x3f435ad0	0.76310444
12	0x3ee89874	0.45428813
13	0xbebf4321	-0.37355903
14	0xbcfe1a5b	-0.031018427
15	0xbb80b9d9	-0.0039284048
16	0x3f4ddf8e	0.8041924
17	0x3f71459e	0.9424685
18	0x3caf3212	0.02138618
19	0x3f1eb244	0.6199076
20	0x3ea35748	0.31902528
21	0x3e5b5142	0.21417716
22	0x3e9462f1	0.28981736
23	0x3f63956c	0.88899875
24	0x3e5be05a	0.21472302
25	0x3e87b3dc	0.2650441
26	0x3d0bab1f	0.03409874
27	0xbccc13c0	-0.024911761
28	0xbebcbfa6	-0.36864966
29	0xbd5624a0	-0.052281022
30	0x3e1dc396	0.15406641
31	0xbc425d48	-0.01186306
32	0x3cc3af41	0.023887279
33	0xbe921b37	-0.28536388
34	0xbc294b55	-0.010332902
35	0xbd33ba7d	-0.04387902
36	0xbd6dc195	-0.058045942
37	0xbd2f25a8	-0.04276052
38	0xbc7a7aa4	-0.015288029
39	0x3d699e08	0.057035476
40	0x3f2e98c6	0.68201864
41	0xbec368b0	-0.38165808
42	0x3e6da829	0.2320868
43	0xbd82862b	-0.06373247
44	0x3d71c1b8	0.059022635
45	0x3eee650d	0.4656147
46	0x3f2df09a	0.67945254
47	0x3f589b61	0.8461209
48	0x3f5d4ef7	0.86448616
49	0x3e381279	0.17975797
50	0x3f5ff693	0.8748562
51	0xbd7c36f3	-0.06157584
52	0xbe932ebf	-0.28746602
53	0x3f378f24	0.7170279
54	0x3f31ff34	0.69530034
55	0x3ea88515	0.32914034
56	0xbc3fbf6d	-0.011703354
57	0xbe58a144	-0.21155268
58	0xbc6fd55d	-0.014638272
59	0xbd19d16c	-0.037553236
60	0x3f6140eb	0.8798968
61	0x3f22ed35	0.636432
62	0x3f3ac05f	0.72949785
63	0x3f6938a3	0.91102046
64	0xbe706d30	-0.23479152
65	0x3d63d5b4	0.055623725
66	0x3e9ad0af	0.30237338
67	0x3ea48516	0.32132787
68	0xbec9421a	-0.39308244
69	0x3ea05b01	0.3131943
70	0x3eb7cbcd	0.35897675
71	0x3cfb4cf3	0.03067634
72	0xbe4217cb	-0.18954389
73	0x3ea9b05b	0.3314236
74	0xbec08992	-0.37604958
75	0xbe63c8b9	-0.22244538
76	0xbe74ad7b	-0.23894303
77	0x3d1e83d4	0.03869994
78	0x3e9ef4da	0.31046182
79	0x3ec0d7f8	0.3766477
80	0xbdd07b0c	-0.10179719
81	0xbdd96d54	-0.10616556
82	0xbf2f0e8a	-0.6838156
83	0xbddf5dca	-0.10906561
84	0xbebfee77	-0.37486622
85	0xbe82fcf8	-0.25583625
86	0xbe9ae902	-0.30255896
87	0xbd948ff6	-0.07254021
88	0xbe8e12c3	-0.2774869
89	0x3bcc7060	0.006238982
90	0xbf2438f4	-0.64149404
91	0x3eab1ec9	0.33421925
92	0x3d258a79	0.04041526
93	0x3eb85e13	0.36009273
94	0xbeddd7d3	-0.43328723
95	0x3ebf4039	0.37353685
96	0xbf2abdd7	-0.6669592
97	0xbb172f61	-0.0023069012
98	0x3e7d22e3	0.2472034
99	0x3ec38bf6	0.3819272
100	0x3e99d2c6	0.3004362
101	0x3ea7b386	0.32754153
102	0x3eb182f3	0.3467022
103	0xbf1e82f3	-0.6191856
104	0xbe22fb64	-0.1591621
105	0x3d033492	0.032032557
106	0x3bc57269	0.0060256016
107	0x3eace622	0.33769327
108	0xbf1e362d	-0.61801416
109	0xbdc8ea14	-0.09810272
110	0xbd96fdd0	-0.0737263
111	0xbdde6b64	-0.10860327
112	0xbdb094e6	-0.0862215
113	0xbec73e1d	-0.38914576
114	0xbe462244	-0.19349009
115	0x3eaf373a	0.34221822
116	0xbb16020d	-0.0022889406
117	0xbdb03dc0	-0.08605528
118	0xbddcc661	-0.10780025
119	0xbebc735c	-0.36806762
120	0x3e87bbef	0.2651057
121	0x3cc79054	0.024360813
122	0x3eb83dbf	0.3598461
123	0x3e9c24df	0.3049688
124	0xbded0ec9	-0.11575086
125	0xbe7aac55	-0.24479802
126	0xbe91d8ae	-0.28485626
127	0xbdc500f3	-0.09619322
128	0x3ed6833c	0.41897
129	0xbbaef578	-0.0053393207
130	0x3e080b4a	0.13285556
131	0x3dd2e60b	0.102977835
132	0x3f0be6a9	0.54648834
133	0x3ddc77ed	0.107650615
134	0x3dd81c05	0.10552219
135	0x3d4f198c	0.050561473
136	0x3ef55450	0.47915888
137	0x3dc58755	0.09644953
138	0x3f02dcd0	0.51118183
139	0x3f809d24	1.0047956
140	0x3f1dae09	0.6159368
141	0xbe47ebb7	-0.19523512
142	0x3db562ee	0.0885676
143	0x3de2687f	0.11055087
144	0x3f8828b3	1.063742
145	0x3f982c87	1.1888589
146	0xbdb16552	-0.086619034
147	0x3f5dab90	0.8658991
148	0x3f03448d	0.51276475
149	0x3ec8d538	0.39225173
150	0x3f20fcad	0.6288555
151	0x3f886ab2	1.0657561
152	0x3ec0106a	0.37512523
153	0x3e29868c	0.16555232
154	0xbca354c2	-0.019937877
155	0x3dc0853a	0.09400411
156	0xbe439737	-0.19100653
157	0x3e02650f	0.12733863
158	0x3e505b81	0.20347406
159	0x3dd33f4a	0.10314806
160	0xbd567325	-0.052355904
161	0xbe6f19e1	-0.23349716
162	0x3d0ef1d9	0.034898613
163	0x3de81909	0.113329
164	0x3dfa8c29	0.12233765
165	0x3dc5ae32	0.09652366
166	0x3de3bb22	0.11119677
167	0x3d09d5f8	0.033651322
168	0x3f426c5e	0.75946605
169	0xbe4740ab	-0.19458263
170	0x3de1b2b2	0.110204116
171	0x3ddc0f0c	0.107450575
172	0x3d08b751	0.03337795
173	0x3f3bd450	0.7337084
174	0x3f793a2b	0.9735438
175	0x3f8f6308	1.1202097
176	0x3f86fdb3	1.0546173
177	0x3e87e41a	0.26541215
178	0x3f8233ba	1.0172036
179	0x3dde8ca1	0.108666666
180	0xbe6effd7	-0.23339783
181	0x3f917fa5	1.1367079
182	0x3f32a700	0.6978607
183	0x3f00398b	0.50087804
184	0x3d6a2387	0.057162788
185	0xbe89b009	-0.26892117
186	0x3dd3643c	0.103218526
187	0x3da33ace	0.079702005
188	0x3f935d75	1.1512896
189	0x3f3bfccc	0.7343261
190	0x3f47c319	0.7803207
191	0x3f96869f	1.1759833
192	0xbe9473ab	-0.28994498
193	0x3d6ddbea	0.058071055
194	0x3de02c6c	0.10945973
195	0x3df0b3e8	0.117530644
196	0xbe3ad773	-0.1824625
197	0x3df95742	0.12174846
198	0x3e09bd4e	0.1345112
199	0x3cd488ad	0.025944078
200	0xbe9036bd	-0.28166762
201	0x3e00173e	0.12508866
202	0xbe3af1c6	-0.18256292
203	0xbef2fdbd	-0.47459212
204	0xbe1d9287	-0.15387927
205	0xbe09798e	-0.13425276
206	0x3df845d0	0.12122691
207	0x3e071d79	0.13194837
208	0xbda7f43f	-0.08200883
209	0xbe853d0f	-0.26023147
210	0xbde2bd2f	-0.1107124
211	0x3d7c2e99	0.061567876
212	0xbe3a861d	-0.18215223
213	0xbe98fb84	-0.2987939
214	0xbe83dcd7	-0.25754425
215	0xbe4ddf05	-0.20104606
216	0xbe9520c4	-0.2912656
217	0x3e291a41	0.16513921
218	0xbdbd73e4	-0.0925062
219	0x3dfe952e	0.124307975
220	0xbe072357	-0.13197075
221	0x3de2efa9	0.11080868
222	0xbe7ffc73	-0.24998645
223	0x3df53154	0.11972299
224	0xbdc8e063	-0.09808423
225	0xbe226cb1	-0.15861775
226	0x3d8dbf15	0.06921212
227	0x3e069fa6	0.13146839
228	0x3e02b9c0	0.1276617
229	0x3de9c279	0.11414046
230	0x3de71855	0.11283938
231	0xbdc10c4f	-0.09426176
232	0xbe291558	-0.16512048
233	0xbe0d848a	-0.13820091
234	0x3e087c21	0.13328601
235	0x3dfe41da	0.12414904
236	0xbdc1a7b8	-0.09455818
237	0x3d920d65	0.07131461
238	0xbe8178c4	-0.2528745
239	0xbe398eb5	-0.18120845
240	0xbe731b97	-0.23740993
241	0xbe8b9d6f	-0.2726855
242	0xbef4a973	-0.4778553
243	0x3decf9b1	0.11571062
244	0xbe229c5b	-0.15879957
245	0xbe7c9b10	-0.24668527
246	0x3d90d2c7	0.070714526
247	0xbe4312ad	-0.19050093
248	0x3cf9ed98	0.030508801
249	0xbe1fcaa4	-0.15604645
250	0x3e07244b	0.13197438
251	0x3dde3ad9	0.10851068
252	0xbe8429f7	-0.25813267
253	0xbe2fcd1e	-0.1716809
254	0xbe47a05e	-0.19494769
255	0xbe6de0b2	-0.23230246

bias f4 [32]
0	0xbe50a4eb	-0.20375411
1	0xbc7e11c4	-0.015507165
2	0xbe62b873	-0.22140674
3	0xbde2e844	-0.110794574
4	0x3db1bc9d	0.08678553
5	0xbd397b1b	-0.04528342
6	0x3e2261e1	0.1585765
7	0xbe72628a	-0.23670402
8	0xbe3fb120	-0.18719912
9	0xbe2357d2	-0.1595147
10	0xbd269ff6	-0.040679894
11	0xbc8f849a	-0.017519284
12	0xbe979072	-0.2960239
13	0x3de0c457	0.10974949
14	0x3dbcfcca	0.09227903
15	0xbe1c28dd	-0.15249963
16	0xbe69f924	-0.22848946
17	0xbe05a218	-0.13050115
18	0x3e1f0c17	0.15531956
19	0xbe48c173	-0.19605045
20	0xbe534e93	-0.20635442
21	0xbe311388	-0.17292607
22	0x3e29f7b8	0.16598403
23	0xbda4d674	-0.08048716
24	0x3bd48371	0.0064853956
25	0xbe004a3c	-0.12528318
26	0xbe1353dc	-0.14387459
27	0xbe68e9ce	-0.2274544
28	0x3bf51c01	0.007480145
29	0xbdec3e5e	-0.11535333
30	0xbe4acbe7	-0.19804345
31	0xbe00076a	-0.12502828

weight f4 [32, 1]
0	0x3e86c1d6	0.2631976
1	0xbf122d03	-0.5709993
2	0x3f02a884	0.51038384
3	0xbf0b1adb	-0.54337853
4	0xbefc0956	-0.49225873
5	0x3ec9b395	0.39394823
6	0xbf110281	-0.56644446
7	0x3ec8c048	0.392092
8	0xbecc9cf4	-0.39963496
9	0xbf2630e6	-0.64918363
10	0xbefcb082	-0.49353415
11	0x3e0cb7a2	0.13741925
12	0xbf2a5b53	-0.665456
13	0x3f12d43f	0.5735511
14	0xbede7925	-0.434518
15	0x3ed04852	0.40680176
16	0xbecaad03	-0.39585122
17	0xbeec10d0	-0.46106577
18	0xbf104947	-0.5636181
19	0x3eeaaf4d	0.4583687
20	0xbeed89da	-0.46394235
21	0xbed9b40a	-0.4252017
22	0x3ecd14fa	0.40055066
23	0x3e4e3a02	0.20139316
24	0xbee9402f	-0.4555678
25	0xbf06a252	-0.5259143
26	0xbef11fe3	-0.4709464
27	0xbef5d27c	-0.4801215
28	0x3f248b87	0.642754
29	0x3f303476	0.6883005
30	0x3ee41615	0.44548097
31	0xbf143151	-0.5788775

bias f4 [32]
0	0xbf0b73c4	-0.5447352
1	0x3edbdd45	0.42942253
2	0xbecb9152	-0.39759308
3	0x3e8d02ff	0.27541348
4	0x3efcca25	0.49372974
5	0xbe2f7f95	-0.17138512
6	0x3e933c64	0.28757012
7	0xbed07f0d	-0.40721932
8	0x3ecf1b81	0.4045067
9	0x3eaca029	0.33715943
10	0x3eff5e9c	0.4987687
11	0xbe133c97	-0.14378582
12	0x3e86b18c	0.26307333
13	0xbe7fa16b	-0.2496392
14	0x3f1a1e7b	0.6020276
15	0xbed84360	-0.42238903
16	0x3ecd130b	0.4005359
17	0x3eee47ff	0.46539304
18	0x3e952960	0.2913313
19	0xbed20028	-0.41015744
20	0x3f0d36f7	0.55161995
21	0x3f1dfd1f	0.6171436
22	0xbee38686	-0.4443857
23	0xbf20ec96	-0.62861
24	0x3f110772	0.56651986
25	0x3e8b72a7	0.2723591
26	0x3e67e3e4	0.22645527
27	0x3f0669d3	0.52505225
28	0xbebf62c1	-0.3738003
29	0xbebf0884	-0.37311184
30	0xbeb1a0cd	-0.34692994
31	0x3e9939f7	0.29927036

weight f4 [64, 32]
0	0x3e2dc5c2	0.1696997
1	0x3f147ac4	0.57999825
2	0x3ff9fd3a	1.9530404
3	0x3b0a10e5	0.0021067199
4	0xbe34d0d3	-0.17657785
5	0xbc070a97	-0.008242271
6	0x3b961d50	0.004581131
7	0x3df92a5e	0.12166284
8	0xbe36dac2	-0.17856887
9	0x3ce72373	0.028215146
10	0xbe37ba63	-0.17942195
11	0x3d408345	0.04700019
12	0x3e2b0cb4	0.16704065
13	0x3b5f38da	0.0034060986
14	0xbe470d3f	-0.19438647
15	0x3de8d3f7	0.11368554
16	0xbe37f5df	-0.17964886
17	0xbe389d35	-0.1802872
18	0x3ad7a821	0.0016453305
19	0xbd8c78e5	-0.06858996
20	0xbe427e67	-0.18993531
21	0xbe48073e	-0.19534013
22	0x3ddf37ea	0.10899337
23	0x3e33b5aa	0.17549768
24	0xbe443b5b	-0.19163267
25	0x3d080d5a	0.033215858
26	0xbd4dfcd6	-0.05028995
27	0xbe3e2014	-0.18566924
28	0xbdf038ed	-0.11729608
29	0xbe3fe7b5	-0.18740733
30	0x3ffb3967	1.9626893
31	0x3b88a5f0	0.004170172
32	0xbd6e023d	-0.058107603
33	0x3db6a889	0.08918864
34	0x3ec5805c	0.38574493
35	0xbe8aca28	-0.27107358
36	0x3d96d76d	0.07365308
37	0xbe9808a6	-0.29694098
38	0xbe7e3ca0	-0.24827814
39	0xbd98b060	-0.07455516
40	0x3d92d5df	0.07169699
41	0xbe3cee29	-0.18450226
42	0x3d94c427	0.072639756
43	0xbd34337b	-0.043994408
44	0xbee89037	-0.45422527
45	0xbe967671	-0.2938724
46	0x3d86cb60	0.065817595
47	0xbd9fa196	-0.07794492
48	0x3d928dbd	0.07155941
49	0x3d9e2de3	0.07723596
50	0xbe739fb7	-0.23791395
51	0xbdb050e3	-0.08609178
52	0x3d8c874a	0.06861742
53	0x3d857025	0.065155305
54	0xbd9deecc	-0.077115625
55	0xbd65a77e	-0.056067936
56	0x3d8a9102	0.06765939
57	0xbea97cae	-0.33102936
58	0xbef54e89	-0.4791148
59	0x3d900bb5	0.07033483
60	0xbe84ed2d	-0.259622
61	0xbf2d1469	-0.6760927
62	0x3eab849d	0.33499613
63	0xbe6e8e96	-0.2329658
64	0x3d1ae32f	0.037814315
65	0xbd9216ab	-0.0713323
66	0xbf84fde7	-1.0389985
67	0x3ce3b405	0.027795801
68	0xbcbf6b30	-0.02336654
69	0xbc066a05	-0.008203988
70	0x3c6b8653	0.014375287
71	0x3d27550e	0.0408526
72	0x3ad4aa49	0.0016225065
73	0xbcc2ae91	-0.02376488
74	0xbcc1d755	-0.023662249
75	0x3c0d1880	0.008611798
76	0x3e20078f	0.15627883
77	0xbc84e73f	-0.016223548
78	0xbcd4b15f	-0.025963483
79	0x3cfb8e81	0.0307076
80	0x3b2dc8da	0.0026517422
81	0xbc2dd492	-0.010609763
82	0x3c1c171f	0.009526997
83	0x3e45a2f7	0.19300447
84	0xbccdcd28	-0.02512224
85	0xbcd6689e	-0.026172932
86	0x3d11714e	0.035508446
87	0x3d183b8d	0.037166167
88	0xbccf13c3	-0.025277978
89	0x3ddea105	0.10870556
90	0x3e3700ff	0.17871474
91	0xbcc83ece	-0.02444401
92	0xbded2953	-0.115801476
93	0xbd4429d2	-0.047891445
94	0xbf85cfc6	-1.0454032
95	0x3ba055dc	0.0048930477
96	0x3cab414e	0.020905163
97	0xbdcff55c	-0.101542205
98	0xbffa21e9	-1.9541599
99	0xbac1518c	-0.0014749034
100	0x3a67a364	0.0008836298
101	0xbc5b4daa	-0.013385216
102	0xbbf78d44	-0.007554682
103	0x3cc46f32	0.023978803
104	0x3c83eded	0.016104663
105	0xbc962049	-0.018325942
106	0x3a674588	0.00088223116
107	0x3d2f1704	0.04274656
108	0x3d41887c	0.047249302
109	0xbd0e960f	-0.034811076
110	0x3b1719bb	0.0023056108
111	0x3cbfeccc	0.023428343
112	0x3c86b086	0.016441595
113	0x3c5b84c3	0.013398352
114	0xbc7b1673	-0.0153251765
115	0x3ea34f33	0.31896362
116	0x3adf9384	0.0017057513
117	0x3b190515	0.0023348976
118	0x3caebceb	0.021330317
119	0x3c9a4ff0	0.018836945
120	0x3af7c1a2	0.0018902312
121	0xbc3c1b17	-0.011481068
122	0xbbd3b540	-0.0064608157
123	0x3ab990c4	0.0014157523
124	0xbe913801	-0.2836304
125	0xbe38b16a	-0.18036428
126	0xbff45294	-1.9087701
127	0xbc74447c	-0.014908906
128	0x3c9a7fc9	0.01885976
129	0xbe3f1e53	-0.18663912
130	0xbfa88c97	-1.3167905
131	0xbd278820	-0.040901303
132	0xbbf2f2c2	-0.007414193
133	0xbdf7486e	-0.12074362
134	0xbd6b9144	-0.057511583
135	0x3ccd8e56	0.025092285
136	0x3c3d57ba	0.01155656
137	0xbdbbad76	-0.091639444
138	0xbbf482af	-0.0074618678
139	0xbc77e60d	-0.015130532
140	0x3dc21206	0.09476094
141	0xbdf85726	-0.12125997
142	0xbbf6a07a	-0.0075264545
143	0x3ba86354	0.005138794
144	0x3c4987d4	0.01230045
145	0x3aa26801	0.0012390615
146	0xbd7d23d7	-0.061801758
147	0x3e66ca58	0.22538126
148	0xbbf379bb	-0.007430283
149	0xbbf543b7	-0.007484879
150	0x3cb77022	0.022392336
151	0x3c8d4e29	0.017249184
152	0xbbf3bbd8	-0.007438164
153	0x3d0388bd	0.032112826
154	0x3dc8bf17	0.098020725
155	0xbbf047e8	-0.0073327906
156	0xbe7a2f62	-0.24432138
157	0xbe341456	-0.17585883
158	0xbfaa106a	-1.3286259
159	0xbd87943d	-0.06620071
160	0xbdaa889d	-0.08326838
161	0x3d65462e	0.05597513
162	0x3e784bbf	0.24247645
163	0xbe4f3499	-0.20234908
164	0x3d823187	0.06357103
165	0xbe3935a2	-0.18086866
166	0xbe433d2f	-0.19066308
167	0xbd751dad	-0.059842754
168	0x3d4b552a	0.049641766
169	0xbe181233	-0.14850692
170	0x3d850e98	0.06496924
171	0xbca6b3f9	-0.02034949
172	0xbec9929d	-0.3936967
173	0xbe3ed487	-0.1863576
174	0x3d9aba8f	0.075551145
175	0xbd80a557	-0.06281536
176	0x3d49d812	0.049278326
177	0x3d606cf1	0.054791395
178	0xbe416bd9	-0.18888797
179	0xbccd8096	-0.025085729
180	0x3d91aa86	0.07112603
181	0x3d9d3dfd	0.07677839
182	0xbd773069	-0.060348902
183	0xbdb6a26b	-0.089176975
184	0x3d948491	0.072518475
185	0xbe8db9f9	-0.27680948
186	0xbece80ae	-0.4033255
187	0x3d8b9541	0.06815577
188	0xbef63f2b	-0.48095068
189	0xbf1b6e82	-0.60715497
190	0x3e652ed4	0.22381145
191	0xbe3cd828	-0.18441832
192	0xbdc7ab53	-0.097494744
193	0xbcafabfb	-0.021444311
194	0x3ee185f9	0.44047526
195	0xbe979638	-0.29606795
196	0x3d80e2a6	0.0629323
197	0xbe842dda	-0.25816232
198	0xbe9305aa	-0.2871526
199	0xbd67f554	-0.056630448
200	0x3c7cca4f	0.0154290935
201	0xbe7e30b0	-0.2482326
202	0x3d850b77	0.06496327
203	0xbb5978fc	-0.0033183685
204	0xbf0fc8a1	-0.5616551
205	0xbe86c798	-0.26324153
206	0x3da77ab5	0.081777014
207	0xbd338cce	-0.043835454
208	0x3c791bf9	0.015204423
209	0x3cafa557	0.021441145
210	0xbe920673	-0.28520545
211	0xbb96dff2	-0.004604333
212	0x3d98cd24	0.074610025
213	0x3dabb558	0.08384198
214	0xbcff5d70	-0.031172484
215	0xbddc540a	-0.10758217
216	0x3d9d3118	0.076753795
217	0xbedbf79f	-0.42962357
218	0xbefef420	-0.49795628
219	0x3d8f69ca	0.070025995
220	0xbec47688	-0.38371682
221	0xbf29af40	-0.66283035
222	0x3ec6271d	0.38701716
223	0xbe905296	-0.28188008
224	0x3d18d9b6	0.037317
225	0xbcfff5b5	-0.031245092
226	0xbf003b33	-0.5009033
227	0x3d9d21db	0.07672473
228	0xbbfc8d36	-0.0077072633
229	0x3e87fb56	0.26558942
230	0x3d815d6a	0.063166454
231	0x3cbc59af	0.022991983
232	0x3c6afc1a	0.014342332
233	0x3cd82005	0.026382456
234	0xbc3b6514	-0.011437673
235	0x3cd1b839	0.02560054
236	0x3e509f5d	0.20373292
237	0x3e781023	0.24224906
238	0xbcd3728f	-0.025811462
239	0x3c9f2124	0.019424982
240	0x3c6a4510	0.014298692
241	0x3c0e0c27	0.0086698895
242	0x3d6fb256	0.058519684
243	0xbe0b52dc	-0.13605827
244	0xbcb5156d	-0.022104943
245	0xbcd750fc	-0.026283734
246	0x3cc44493	0.02395848
247	0x3d0ddec4	0.034636274
248	0xbcc12cc4	-0.023580916
249	0x3e04ebed	0.12980624
250	0x3e565feb	0.20935027
251	0xbc9411f2	-0.018074963
252	0x3e06754c	0.13130683
253	0x3e913eba	0.2836817
254	0xbed04916	-0.4068076
255	0x3d5eacee	0.054364137

bias f4 [64]
0	0xbe5ad9c2	-0.2137213
1	0x3e03810b	0.12842195
2	0xbe3a0b11	-0.18168284
3	0xbcf9bdf6	-0.030486088
4	0xbe071a52	-0.13193634
5	0x3e465639	0.19368829
6	0x3e5ebad2	0.21750954
7	0xbe25d7c2	-0.16195586
8	0xbe1dd7d4	-0.15414363
9	0x3e3669fa	0.17813864
10	0x3e1cb610	0.15303826
11	0xbe0c3322	-0.1369138
12	0xbde16c7d	-0.110070206
13	0x3e70fd34	0.2353409
14	0x3e459ff3	0.19299297
15	0xbe505d07	-0.20347987
16	0xbe284c79	-0.16435422
17	0xbcab9da1	-0.020949187
18	0x3e6e7c7d	0.23289676
19	0x3dbc3a06	0.091907546
20	0x3e2db33c	0.16962904
21	0x3e46c7ab	0.19412105
22	0x3e4572d0	0.19282079
23	0xbe18abe9	-0.14909329
24	0x3e06464d	0.13112755
25	0xbd2a6bed	-0.041606832
26	0xbe382c28	-0.17985594
27	0x3e0b37da	0.13595524
28	0xbd57f786	-0.05272629
29	0xb8b7523f	-8.7414395e-05
30	0xbe9483ba	-0.2900675
31	0x3e6a9410	0.22908044
32	0x3e2791d5	0.16364224
33	0x3e243f75	0.16039832
34	0x3e586406	0.21131906
35	0x3c878107	0.016541017
36	0x3e281f55	0.16418202
37	0xbc8136c7	-0.01577319
38	0x3e1d0155	0.1533254
39	0x3e83f274	0.25770915
40	0x3e3bd8ae	0.18344375
41	0xbc1e1671	-0.009648905
42	0x3e1c1bcb	0.15244977
43	0x3c92acbc	0.017904632
44	0x3e49e2e3	0.19715457
45	0x3e2a7797	0.16647182
46	0xbe6d5c70	-0.23179793
47	0xbe24f186	-0.16107759
48	0x3dc39b6e	0.0955113
49	0xbca15c16	-0.01969723
50	0x3e6d0c3e	0.23149201
51	0xbe0f5fe7	-0.14001428
52	0x3e2df738	0.16988838
53	0x3dc5f486	0.0966578
54	0x3c9cc979	0.019139038
55	0x3e1916a1	0.14950038
56	0x3e086746	0.13320646
57	0xbca6593c	-0.020306222
58	0xbe419836	-0.1890572
59	0xbc585746	-0.013204401
60	0xbadbbbbf	-0.0016764327
61	0xbe5361bb	-0.2064275
62	0xbe0de60d	-0.13857289
63	0x3e53e608	0.20693219

weight f4 [32, 64]
0	0x3c2914fd	0.010319945
1	0x3d82fd53	0.06395974
2	0xbdbbb59b	-0.09165498
3	0xbe27676f	-0.1634805
4	0xbe05627f	-0.13025855
5	0x3d55d1be	0.05220198
6	0xbc306082	-0.010765197
7	0xbd8f94b3	-0.07010784
8	0xbdef4399	-0.11682815
9	0xbd10dcf2	-0.03536696
10	0x3da408a8	0.080094635
11	0xbdc8d4a0	-0.0980618
12	0xbf9dc361	-1.232525
13	0x3cad3c2d	0.021146858
14	0x3db9ed18	0.09078425
15	0x3c7c1ae8	0.015387274
16	0xbd9d8f08	-0.07693297
17	0xbd424949	-0.04743317
18	0x3dc4dcde	0.096124396
19	0x3e568323	0.20948462
20	0x3dbec371	0.09314621
21	0xbc1facd2	-0.009745793
22	0x3d2acc6c	0.04169886
23	0xbde1a4a6	-0.11017732
24	0x3df1e27d	0.11810777
25	0x3da7d6c7	0.081952624
26	0xbde6ad4c	-0.112635225
27	0x3db0d52e	0.08634411
28	0xbe1de1a6	-0.1541811
29	0x3dabd45c	0.08390114
30	0x3eeeda4f	0.4665093
31	0xbcafbeda	-0.02145331
32	0x3df19ce5	0.117975034
33	0x3b2dc021	0.0026512223
34	0x3db53dc9	0.08849675
35	0x3db761f4	0.0895423
36	0x3d8c9e76	0.068661615
37	0x3dc30f14	0.0952436
38	0x3db2644a	0.08710535
39	0x3db8d59d	0.090251185
40	0x3d2db06c	0.042404577
41	0x3dc74062	0.09729077
42	0xbc616800	-0.013757706
43	0x3d7654b5	0.060139377
44	0xbab34e1e	-0.0013679897
45	0x3c5ff496	0.013669154
46	0xbd61eae8	-0.055155665
47	0xbdf01fe1	-0.117248304
48	0x3e2ec966	0.17069015
49	0x3dca8120	0.0988791
50	0x3cc48fbd	0.023994321
51	0xbfc4c6b3	-1.5373138
52	0x3dbae4e8	0.09125692
53	0x3e411324	0.18854958
54	0x3dac620b	0.08417138
55	0x3d5d55f0	0.054037035
56	0x3d69fea3	0.057127606
57	0x3dbe2288	0.0928393
58	0xbb68dc12	-0.0035531563
59	0x3dc477de	0.09593175
60	0x3dc4acde	0.09603284
61	0xbcfac7ce	-0.030612852
62	0x3cb143d0	0.02163878
63	0x3da972bc	0.08273837
64	0xbd68a822	-0.05680097
65	0x3c366a2e	0.011133714
66	0x3dfa5708	0.12223631
67	0x3df500c1	0.119630344
68	0x3e356d8a	0.17717567
69	0x3d8133c6	0.06308703
70	0x3d8b73a0	0.06809163
71	0x3c503daf	0.012710019
72	0x3db6a53b	0.08918234
73	0x3e7b1374	0.2451914
74	0xbbdb2e94	-0.006688902
75	0x3d2fa48c	0.042881534
76	0x3fde4b1b	1.736667
77	0x3de41879	0.1113748
78	0xbd55c197	-0.052186575
79	0xbd38e1f1	-0.04513735
80	0x3e03eb12	0.12882641
81	0xbcf49663	-0.029856866
82	0xbd96e709	-0.07368285
83	0xbb9f4763	-0.004860805
84	0xbd4f637e	-0.050631993
85	0x3e1be403	0.15223698
86	0x3dbd21c8	0.09234959
87	0x3e23cc5e	0.15995929
88	0x3be447a3	0.0069665476
89	0x3d8c302b	0.06845125
90	0x3e0b5751	0.13607527
91	0xbd0fa141	-0.035065893
92	0x3e3aa070	0.18225265
93	0x3dac80de	0.08423017
94	0xbee9d3e0	-0.4566946
95	0x3e036488	0.12831318
96	0xbdad019a	-0.08447571
97	0x3dedfe7c	0.11620805
98	0xbd6e8f5b	-0.058242183
99	0x3d834010	0.06408703
100	0x3d0b3c37	0.033992972
101	0x3db38ecc	0.08767471
102	0x3c77c8ed	0.015123588
103	0xbd9e0bc6	-0.07717089
104	0x3db8c085	0.09021095
105	0x3d83f67f	0.064435
106	0x3e06884b	0.13137929
107	0x3dcfc19a	0.101443484
108	0x3dd77616	0.1052057
109	0x3d3e8e55	0.046522457
110	0xbcd37244	-0.025811322
111	0x3e174009	0.14770521
112	0x3c97af51	0.018516215
113	0x3db9da0c	0.09074792
114	0x3ddaac4a	0.10677393
115	0x4005cf68	2.090784
116	0xbd2b4f0e	-0.04182344
117	0xbc7707bf	-0.01507753
118	0x3d8cd301	0.06876183
119	0x3bbe96e3	0.005816327
120	0x3cd32fc5	0.025779614
121	0x3db8d5d3	0.09025159
122	0xbe28421d	-0.1643147
123	0x3d850607	0.0649529
124	0x3d6ead70	0.05827087
125	0x3c1c1df9	0.00952863
126	0xbd9f16d2	-0.077680245
127	0xbd953404	-0.07285312
128	0x3e1f9769	0.15585102
129	0xbe0f19f4	-0.13974744
130	0x3e28ef45	0.16497524
131	0x3b725201	0.0036975148
132	0x3e17c07f	0.14819525
133	0xbe5da023	-0.21643119
134	0xbd242505	-0.040074367
135	0x3d19bdbf	0.03753447
136	0x3e074f5b	0.13213865
137	0xbd043c5c	-0.032284126
138	0x3d4e62ee	0.050387315
139	0x3d9c4888	0.07631022
140	0xbee0b091	-0.4388471
141	0xbea32817	-0.31866524
142	0xbe8b36ea	-0.27190334
143	0x3e08d934	0.13364106
144	0x3e2dce1f	0.1697316
145	0x3d870e21	0.06594492
146	0xbbc9d16c	-0.0061589982
147	0xbe3b58de	-0.18295619
148	0xbe877f2d	-0.26464215
149	0x3ccc4142	0.024933461
150	0xbe7cf1b1	-0.24701573
151	0x3e16f078	0.14740169
152	0xbdcbefc3	-0.0995784
153	0x3d7f0cd5	0.062268097
154	0x3dd3d2f3	0.1034297
155	0xbe5e8f3e	-0.2173433
156	0xbbd57386	-0.0065140156
157	0x3d9329d0	0.071857095
158	0x3d8a0ac9	0.06740338
159	0xbf63093e	-0.8868598
160	0xbd8d9ddc	-0.06914875
161	0x3d9ce299	0.076604076
162	0xbe8d9f54	-0.2766062
163	0x3dab4d0f	0.08364307
164	0xbe140836	-0.14456257
165	0x3d8d9d21	0.069147356
166	0xbde3ad6a	-0.111170605
167	0xbc059796	-0.008153817
168	0xbe6732e2	-0.22578004
169	0x3d80fc5f	0.06298136
170	0x3f0fa74d	0.56114656
171	0x3dc9e33e	0.09857796
172	0xbe83b07f	-0.25720593
173	0x3d869096	0.06570546
174	0x3dfbf452	0.1230246
175	0x3e403801	0.18771364
176	0xbd9c7f2d	-0.07641444
177	0x3d71de6a	0.05905
178	0xbec0907f	-0.37610242
179	0xbe13d086	-0.14435014
180	0x3cd0c1e4	0.02548308
181	0x3e894665	0.2681152
182	0x3db1fe81	0.08691121
183	0xbde92d0f	-0.11385547
184	0xbcc45bbe	-0.023969527
185	0x3d857261	0.06515957
186	0x3f9730b5	1.1811739
187	0x3d82aeaf	0.063809745
188	0x3d8d2704	0.06892207
189	0x3d8d7f70	0.069090724
190	0x3e25d05e	0.16192767
191	0xbdabded6	-0.08392112
192	0x3d4746bf	0.048651453
193	0x3dfbbbd0	0.12291682
194	0xbbe42147	-0.006961975
195	0xbd93dc8d	-0.07219801
196	0xbd0bba4a	-0.034113206
197	0x3d2e6d09	0.042584453
198	0x3d34a95d	0.04410683
199	0x3addee63	0.0016932007
200	0xbc8c7358	-0.017144844
201	0xbe821886	-0.25409335
202	0x3e072b42	0.13200095
203	0xbcb311d9	-0.021859096
204	0x3cfca73e	0.030841466
205	0x3ce52f1c	0.027976565
206	0x3b9d19d7	0.00479434
207	0x3d8df7f3	0.06932058
208	0xbc16d4c7	-0.0092060035
209	0x3d15ab86	0.03654053
210	0x3d137491	0.03599984
211	0xbe091445	-0.13386638
212	0x3c9293ff	0.017892836
213	0xbe9b233f	-0.30300328
214	0x3d0ca339	0.03433535
215	0xbc0586ab	-0.008149783
216	0xbf21546d	-0.6301945
217	0x3d42d446	0.04756572
218	0x3a451969	0.000751874
219	0x3cd6e708	0.026233211
220	0xbc2108d0	-0.009828761
221	0x3d7171fa	0.058946587
222	0xbf105ab1	-0.56388384
223	0x3d5062d6	0.050875507
224	0x3d9cdc13	0.07659163
225	0xbf35d4ac	-0.71027637
226	0xb9e88c95	-0.0004435523
227	0x3d1ab5eb	0.037771147
228	0x3d3a1e84	0.04543926
229	0x3d822e9b	0.063565455
230	0x3d5f8bc8	0.054576665
231	0x3c6cae90	0.014445916
232	0x3cf00e2e	0.029303636
233	0x3d266b94	0.04062994
234	0xbe6e1d9c	-0.23253483
235	0x3d94a695	0.072583355
236	0x3d93bff1	0.07214344
237	0x3db2f5e3	0.087383054
238	0x3c790913	0.015199917
239	0x3cb3e4d4	0.0219597
240	0xbe18aeaa	-0.14910379
241	0x3d7c134f	0.06154185
242	0x3d0128a3	0.031532895
243	0xbd478376	-0.048709355
244	0x3d67d5e4	0.056600466
245	0x3e11bdb0	0.14232516
246	0x3d279a2e	0.04091852
247	0x3cbd619f	0.023117838
248	0x3deec6b2	0.11658992
249	0x3d838ce8	0.0642336
250	0xbd4250a3	-0.047440182
251	0x3d2a285b	0.041542392
252	0x3d0f974f	0.03505641
253	0xbb1cb59f	-0.0023911966
254	0x3dc777c0	0.097396374
255	0x3d44fadd	0.048090804

bias f4 [32]
0	0x3d9db624	0.07700756
1	0x3d2d1ea3	0.042265546
2	0xbe273e50	-0.16332364
3	0x3d732c1a	0.05936823
4	0xbc87141e	-0.016489085
5	0xbdc7e315	-0.09760109
6	0x3e15bd81	0.14623071
7	0xbe521416	-0.20515475
8	0xbe93433d	-0.28762236
9	0x3de47431	0.11154974
10	0xbe11177c	-0.14169115
11	0xbe44d7e2	-0.19222978
12	0x3d6b0a0d	0.057382632
13	0x3cb563fb	0.022142401
14	0x3df5e28f	0.12006103
15	0xbe0eab9f	-0.13932656
16	0x3d9e3059	0.07724065
17	0xbdf1f7f9	-0.11814875
18	0xbe0faea5	-0.14031465
19	0xbdc23672	-0.09483041
20	0xbe91d208	-0.28480554
21	0xbe463ca0	-0.19359064
22	0xbc8c6e23	-0.017142361
23	0xbebdaf82	-0.37047964
24	0xbda34cff	-0.0797367
25	0xbdbcd399	-0.092200466
26	0xbe3eb146	-0.18622312
27	0x3da2a2e9	0.07941229
28	0xbe3e4f01	-0.18584825
29	0x3dfea1c8	0.12433201
30	0x3d98768e	0.074444875
31	0xbdfcbf29	-0.123411484

weight f4 [32, 1]
0	0xbf1d1170	-0.6135473
1	0x3ece9b2b	0.4035276
2	0x3ee13c9a	0.43991548
3	0xbf1d5ca3	-0.6146948
4	0x3f1bd7c7	0.60876125
5	0xbf1ae198	-0.6050048
6	0xbeec0ea2	-0.46104914
7	0x3e8fcf0a	0.28087646
8	0xbf0f1758	-0.55894995
9	0xbf16b8b9	-0.58875614
10	0x3ef8fcd7	0.48630401
11	0xbf1b5b22	-0.6068593
12	0x3f00ba63	0.50284404
13	0x3f2a753e	0.6658515
14	0xbee967cd	-0.45587006
15	0x3f0d1256	0.55106103
16	0xbf1858e1	-0.5951062
17	0xbf1c2a41	-0.61001974
18	0xbeeab84c	-0.45843732
19	0xbf1c2045	-0.6098674
20	0x3f0e3c13	0.55560416
21	0xbeaafde6	-0.33396834
22	0x3f08fd93	0.53511924
23	0xbf1d8ce8	-0.6154313
24	0x3eb1d6c8	0.34734178
25	0xbefe4681	-0.49663165
26	0x3f131765	0.5745757
27	0x3ec541a0	0.3852663
28	0x3f19478d	0.598748
29	0xbef9027e	-0.48634714
30	0xbf178a82	-0.5919572
31	0xbf21e9b5	-0.63247234

bias f4 [32]
0	0x3f04a18b	0.51808995
1	0xbe99e5d4	-0.30058157
2	0xbe9cf43d	-0.3065509
3	0x3f1a6be7	0.60320896
4	0xbedd1960	-0.43183422
5	0x3ef813cd	0.48452607
6	0x3ecda9ad	0.40168515
7	0xbe992682	-0.29912192
8	0x3ee57b62	0.44820696
9	0x3ef0eb9e	0.47054762
10	0xbe32c424	-0.17457634
11	0x3ef8de4c	0.486071
12	0xbf02c2f1	-0.51078707
13	0xbdb2b182	-0.08725263
14	0x3ec8a48d	0.39188042
15	0xbef4766e	-0.47746605
16	0x3f008c57	0.5021414
17	0x3f196470	0.5991888
18	0x3ec72dc5	0.38902107
19	0x3f03c855	0.5147756
20	0xbed2e7fd	-0.41192618
21	0x3e907b45	0.28219047
22	0xbf0c4397	-0.54790634
23	0x3f1cf2d5	0.6130803
24	0xbe81378f	-0.252377
25	0x3ed63887	0.41840002
26	0xbeda8702	-0.42681128
27	0xbe91f458	-0.28506732
28	0xbed6000a	-0.41796905
29	0x3ed8fe62	0.4238158
30	0x3f021a2b	0.5082118
31	0x3f2110d8	0.62916327

weight f4 [64, 32]
0	0xbe229b13	-0.15879469
1	0xbf0bd82c	-0.5462673
2	0xbdcf43e6	-0.101203725
3	0xbdf8e5b4	-0.121531874
4	0xbe7ef527	-0.24898206
5	0xbe45a651	-0.19301726
6	0xbe69ad00	-0.228199
7	0x3bc69267	0.006059933
8	0xbe4e7bad	-0.20164366
9	0xbe54bf3c	-0.20776075
10	0x3ebe9604	0.37223828
11	0xbe455254	-0.19269687
12	0x3dab81fc	0.08374402
13	0x3e772ffc	0.24139398
14	0xbe6cb96f	-0.23117612
15	0xbe0a4f57	-0.13506828
16	0xbe252b7e	-0.16129872
17	0xbdfd0a5b	-0.12355491
18	0xbe6cab3a	-0.23112193
19	0xbe23364c	-0.15938681
20	0xbec8e4f8	-0.3923719
21	0xbeb5d768	-0.35515904
22	0x3d932e23	0.07186534
23	0xbdf22d4b	-0.11825045
24	0xbe907f72	-0.28222233
25	0xbe4b95db	-0.19881384
26	0xbe9fd679	-0.31218317
27	0xbed38dd4	-0.41319144
28	0xbe3fb46d	-0.1872117
29	0xbe6245ca	-0.22096935
30	0xbe24ddb8	-0.16100204
31	0xbde4589e	-0.11149715
32	0x3d15bc99	0.036556814
33	0xbe1262e6	-0.1429554
34	0x3da80346	0.08203749
35	0xbb024062	-0.00198748
36	0x3d0072cb	0.031359475
37	0x3d7b607a	0.061371304
38	0x3d7f344c	0.062305734
39	0xbbe37f01	-0.0069426303
40	0x3d8b492c	0.06801066
41	0x3d8b021e	0.06787513
42	0xbe01cc0f	-0.12675498
43	0x3d7a818a	0.061158694
44	0x3d028010	0.03186041
45	0xbeead124	-0.45862687
46	0x3d7e7fdf	0.062133666
47	0xbe4edede	-0.20202205
48	0x3d16583a	0.036705233
49	0xba352c89	-0.00069112383
50	0x3d80601b	0.06268331
51	0x3d17985f	0.037010547
52	0xbd4e3bed	-0.05035012
53	0x3dad2ce0	0.08455825
54	0x3d4d7de4	0.050168887
55	0xbba60d5d	-0.005067511
56	0x3d026362	0.03183306
57	0x3d66f1d3	0.056382965
58	0xbd3b7d6a	-0.0457739
59	0xbdb3dc72	-0.08782281
60	0x3d79bc91	0.060970847
61	0x3d79ad1b	0.060956102
62	0x3d1212d6	0.035662495
63	0xbc48aa66	-0.012247657
64	0x3dbfded1	0.09368671
65	0xbf75aa6c	-0.9596317
66	0xbd701fd5	-0.058624107
67	0x3d884c42	0.0665517
68	0x3ed5e9f4	0.41780055
69	0x3de81325	0.113317765
70	0x3e2fe41c	0.1717686
71	0xbdd3da74	-0.10344401
72	0x3e08c678	0.1335696
73	0x3e01d1c0	0.1267767
74	0xbf63ba17	-0.88955826
75	0x3de6a135	0.112612166
76	0xbd3b220e	-0.045686774
77	0x3e9fb95e	0.3119611
78	0x3e3067e0	0.17227125
79	0xbe06f584	-0.13179594
80	0x3dcd1250	0.100132585
81	0x3d8ba8e4	0.06819323
82	0x3e30adef	0.1725385
83	0x3dc2bb61	0.09508396
84	0xbe6236e8	-0.22091258
85	0x3e573456	0.21016058
86	0xbd084c88	-0.03327611
87	0x3d834efc	0.064115494
88	0x3f1ddbac	0.6166332
89	0x3e101a9a	0.14072648
90	0xbd5a6a71	-0.053324167
91	0x3dae070d	0.084974386
92	0x3dcaf9b5	0.09910909
93	0x3e2e1f84	0.1700421
94	0x3dcbda7f	0.09953784
95	0x3d706da2	0.058698304
96	0xbd7b6af2	-0.061381288
97	0x3e007961	0.12546302
98	0x3ce89f6b	0.028396329
99	0xbde7d14d	-0.11319218
100	0x3b824a96	0.0039761765
101	0xbcb1c9b2	-0.021702621
102	0xbc2c8794	-0.010530371
103	0x3ca99bda	0.020704199
104	0xbc13235d	-0.008980599
105	0xbc00ea44	-0.007868353
106	0x3eab9c03	0.33517465
107	0xbcb41351	-0.021981867
108	0x3dd8521a	0.10562535
109	0xbeaff3e2	-0.34365755
110	0xbc467c4f	-0.012114598
111	0xbe0c1dd7	-0.13683258
112	0xbd684378	-0.05670497
113	0xbde248b4	-0.11049023
114	0xbc46604b	-0.012107919
115	0xbd740985	-0.05957939
116	0x3c89f245	0.016839156
117	0x3ccebdef	0.025237052
118	0x3e0390ec	0.12848252
119	0xbdf12f65	-0.11776618
120	0xbda71808	-0.081588805
121	0xbc981173	-0.018563008
122	0xbd1f24f2	-0.038853593
123	0xbd42fa39	-0.047601912
124	0x3ca5617c	0.020188086
125	0xbc350078	-0.011047475
126	0xbd6a5aaa	-0.05721537
127	0xbe01b82c	-0.12667912
128	0xbd911675	-0.070843615
129	0x3e06e9a0	0.13175058
130	0x3d4cd3b7	0.050006595
131	0xbdf19d56	-0.117975876
132	0x3cc3c70d	0.023898626
133	0xbcf1196c	-0.029431067
134	0xbc10a491	-0.008828298
135	0x3d0885f6	0.03333088
136	0xbc6ff6f0	-0.014646277
137	0xbc5ba836	-0.013406804
138	0x3e97ab07	0.2962267
139	0xbcf3013a	-0.02966367
140	0x3ddf00a7	0.10888796
141	0xbea29da2	-0.3176089
142	0xbc1930aa	-0.009349981
143	0xbd647c4d	-0.055782605
144	0xbd882c5b	-0.06649085
145	0xbded6be1	-0.11592842
146	0xbc153283	-0.009106281
147	0xbd8d96ba	-0.069135144
148	0x3c867c40	0.016416669
149	0x3dab59e2	0.08366753
150	0x3e01cebf	0.12676524
151	0xbdf8a681	-0.12141133
152	0xbd673bae	-0.0564534
153	0xbccba1aa	-0.02485736
154	0xbcde952f	-0.027170746
155	0xbd42d1ec	-0.04756348
156	0x3d1bc14b	0.038026135
157	0xbc3be39b	-0.01146784
158	0xbd89c823	-0.06727626
159	0xbe02fddd	-0.12792154
160	0xbd6aff25	-0.05737223
161	0x3d2f8d6b	0.042859476
162	0x3d8e64c4	0.06952813
163	0xbe1270c7	-0.14300834
164	0x3d167e77	0.0367417
165	0x3c5d3ebd	0.0135037275
166	0x3d123329	0.03569332
167	0xbc50d03a	-0.012744958
168	0x3d199836	0.037498675
169	0x3d20829e	0.039187066
170	0x3eb84af6	0.3599469
171	0x3c51f6e0	0.012815207
172	0x3dacb0cb	0.08432158
173	0xbdec73e9	-0.115455456
174	0x3d080f5d	0.033217777
175	0xbcd362ad	-0.025803888
176	0xbd48188d	-0.04885154
177	0xbe0ef7ce	-0.13961717
178	0x3d09015d	0.033448566
179	0xbd5fc1fd	-0.05462836
180	0xbcfab451	-0.03060356
181	0x3d4605aa	0.048345245
182	0x3dee902b	0.116485916
183	0xbe18b7d4	-0.14913875
184	0xbd0a3b3a	-0.03374789
185	0x3c3486a6	0.011018431
186	0xbd47a8b6	-0.04874488
187	0xbdc54f78	-0.09634298
188	0x3d632bdc	0.05546175
189	0x3d14a973	0.036294412
190	0xbd4fc6bb	-0.050726634
191	0xbe26144e	-0.16218683
192	0xbe26139d	-0.1621842
193	0xbecf138d	-0.40444604
194	0xbae07bd4	-0.0017126747
195	0xbe18c1f1	-0.14917733
196	0xbdd50557	-0.10401409
197	0xbe2912b0	-0.16511035
198	0xbe29ef9c	-0.1659531
199	0x3c986c08	0.0186062
200	0xbe24d6cd	-0.16097565
201	0xbe2a2ed2	-0.16619423
202	0x3f147310	0.5798807
203	0xbe2906fb	-0.16506569
204	0x3de6ae78	0.11263746
205	0x3ecaf8d7	0.39642975
206	0xbe2bb35c	-0.16767639
207	0xbdd7f72d	-0.10545192
208	0xbe25c379	-0.16187848
209	0xbe194762	-0.14968637
210	0xbe2c1479	-0.16804685
211	0xbe25e9ab	-0.16202419
212	0xbe56a3c7	-0.20960914
213	0xbe473f7f	-0.19457816
214	0x3de76ece	0.11300431
215	0xbe184e51	-0.14873625
216	0xbe147cb2	-0.14500692
217	0xbe24d58a	-0.16097084
218	0xbe382a0f	-0.17984794
219	0xbe80818a	-0.2509883
220	0xbd812209	-0.0630532
221	0xbe2767a5	-0.16348131
222	0xbe25bf32	-0.16186216
223	0xbe16b8ed	-0.14718981
224	0xbf594de5	-0.8488448
225	0xbe724c61	-0.23661949
226	0x3cf5a386	0.0299852
227	0x3e6a9749	0.22909273
228	0x3dae574c	0.08512744
229	0xbe21028f	-0.15723632
230	0xbf99543d	-1.1978832
231	0xbe94c421	-0.29055884
232	0x3e393a51	0.18088652
233	0xbecc5256	-0.39906567
234	0xbcbb1b05	-0.022840032
235	0xbe1d610c	-0.15369052
236	0xbe3c92c5	-0.18415363
237	0x3d1829fa	0.037149407
238	0xbf9d3c2e	-1.228399
239	0xc0337ec1	-2.8046114
240	0xbf4aa5f7	-0.7915949
241	0x3e6750b2	0.22589377
242	0xbf9c4d95	-1.2211176
243	0xbf5928ac	-0.84827685
244	0xbdc3b320	-0.0955565
245	0xbf9a8412	-1.2071555
246	0xbdbf8572	-0.093516245
247	0x3e65e812	0.22451809
248	0xbce8c259	-0.028412985
249	0xbf982718	-1.188693
250	0xbe04e456	-0.12977728
251	0xbe079fdd	-0.13244577
252	0x3e4540ff	0.19263075
253	0xbf99f6e0	-1.2028465
254	0xbf49d423	-0.7883932
255	0x3e37396b	0.17892997

bias f4 [64]
0	0xbd6f36c2	-0.05840183
1	0xbebe98ff	-0.37226102
2	0xbe0a5f44	-0.13512903
3	0xbedcdd0d	-0.43137398
4	0xbeaff357	-0.3436534
5	0xbed7410c	-0.42041814
6	0xbe9282e3	-0.28615484
7	0x3dd6131d	0.10452864
8	0x3dcbacd9	0.099450774
9	0x3c7720ca	0.015083501
10	0xbea84f6a	-0.32873088
11	0x3dedd750	0.11613333
12	0xbef3c59d	-0.47611704
13	0xbec27ded	-0.379867
14	0x3e09d732	0.13460997
15	0x3e93c2b4	0.28859484
16	0x3e123d3c	0.14281172
17	0x3e053fb7	0.13012587
18	0x3ea922eb	0.33034453
19	0x3ca24158	0.019806549
20	0x3ddf28c3	0.108964466
21	0x3e037ad8	0.1283983
22	0xbdb04da4	-0.08608559
23	0xbd7d2926	-0.06180682
24	0xbec0bc37	-0.37643597
25	0xbf033264	-0.51248765
26	0x3dd4056e	0.10352598
27	0x3e8b2b25	0.27181354
28	0xbc53fb0e	-0.012938274
29	0x3e6b74e3	0.22993807
30	0xbb6f66df	-0.0036529822
31	0xbe44596f	-0.19174741
32	0xbd80f136	-0.06296007
33	0x3e1c75bf	0.15279292
34	0x3e4e9c12	0.20176724
35	0xbe51be42	-0.20482734
36	0xbe28301a	-0.164246
37	0x3e84bef3	0.25926933
38	0x3b7124b1	0.0036795551
39	0xbe163c68	-0.1467148
40	0x3e877d64	0.26462853
41	0x3e122ce1	0.14274932
42	0xbe44425a	-0.19165936
43	0x3e055e72	0.1302431
44	0xbd77311f	-0.06034958
45	0xbe18949b	-0.14900438
46	0xbe24e8b5	-0.16104396
47	0xbe119500	-0.14216995
48	0x3e235aca	0.15952602
49	0xbf1035b6	-0.56331956
50	0x3e1cd42b	0.1531531
51	0xbb649053	-0.0034876063
52	0x3c6762a5	0.01412264
53	0xbdcad0ba	-0.09903093
54	0xbe8d888c	-0.2764324
55	0xbe53d36b	-0.20686118
56	0xbd191f46	-0.03738334
57	0xbe46d584	-0.19417387
58	0xbdc2193e	-0.09477471
59	0xbedfc50b	-0.4370502
60	0x3bd8789b	0.006606174
61	0xbbf7c6fb	-0.007561562
62	0xbe1873bd	-0.148879
63	0xbe81a57d	-0.2532157
