checkpoints/click_honam2_emb32_2.pt (torch, 242802 bytes, 134 tensors)

weight f4 [32, 1]
0	0x3e96e949	0.29474857
1	0xbd483790	-0.048881114
2	0x3eb08d7f	0.34482953
3	0x3dd3aed9	0.10336084
4	0xbdd3da6b	-0.10344394
5	0x3e29bee9	0.16576733
6	0xbe81ca5e	-0.25349706
7	0x3d9b4e00	0.07583237
8	0xbdbf5caf	-0.0934385
9	0x3df9957d	0.12186716
10	0xbd811efd	-0.06304739
11	0x3dfc10fd	0.12307928
12	0x3e9d8625	0.30766407
13	0xbe1a0e5f	-0.15044545
14	0xbd75df6f	-0.060027536
15	0x3eb35e0a	0.35032684
16	0x3ea92e87	0.3304331
17	0x3eac40c9	0.33643177
18	0xbddd65d4	-0.10810438
19	0xbd3dadff	-0.046308514
20	0xbd1fd069	-0.039017115
21	0xbd996a7a	-0.07491012
22	0xbe7112da	-0.23542348
23	0xbea26741	-0.317194
24	0xbe874f67	-0.26427767
25	0xbd9b0555	-0.075693764
26	0x3ea8a081	0.32934955
27	0xbcf6c13d	-0.03012144
28	0xbe07044a	-0.1318523
29	0x3debae7d	0.115078904
30	0x3e8827f2	0.26592976
31	0xbd004227	-0.031313088

bias f4 [32]
0	0x3ddca8fd	0.107744195
1	0x3f14938f	0.58037657
2	0xbe02aa5d	-0.12760301
3	0xbeb977bc	-0.36224163
4	0x3dd5e71a	0.1044447
5	0xbe4c30c7	-0.19940482
6	0xbdb0a1ad	-0.08624587
7	0xbefeee02	-0.4979096
8	0xbd7acf54	-0.06123288
9	0xbf78ba3f	-0.9715919
10	0x3cd317d7	0.025768204
11	0x3e0afab2	0.13572195
12	0x3d9fde1b	0.07806035
13	0x3e8af56a	0.2714036
14	0x3cd988ba	0.026554454
15	0xbe41acdf	-0.18913601
16	0xbbf82426	-0.0075726686
17	0xbd312652	-0.043249436
18	0x3ebef6ee	0.37297767
19	0x3f18f2de	0.59745586
20	0x3f289641	0.6585427
21	0x3eecc538	0.46244216
22	0xbdc6afa8	-0.097014725
23	0xbbbb7d72	-0.0057217414
24	0xbd991d7e	-0.07476328
25	0x3eec5381	0.46157458
26	0xba737061	-0.000928646
27	0x3f680d9c	0.90645766
28	0x3ea1b38f	0.31582305
29	0xbf692642	-0.91074
30	0x3e169e65	0.1470886
31	0x3f72a56b	0.9478366

weight f4 [64, 32]
0	0x3dd81689	0.10551173
1	0x3c7c60eb	0.015403966
2	0x3ea60067	0.32422182
3	0xbae7a7b3	-0.001767388
4	0xbbb3024b	-0.00546292
5	0x3cc8c732	0.024509046
6	0xbd985f38	-0.074400365
7	0x3939781d	0.0001768772
8	0xbd26ba37	-0.040704932
9	0x3c9118b3	0.017711973
10	0x3d1ad5f5	0.0378017
11	0x3d633db9	0.055478785
12	0x3df9c910	0.12196553
13	0x3c639206	0.013889795
14	0x3d1c7eb3	0.038206767
15	0x3eee6617	0.46562263
16	0x3e3ed0ab	0.18634288
17	0x3e6244a5	0.22096498
18	0x3c9b6d00	0.018972874
19	0x3c7257e2	0.014791461
20	0x3c4eed4c	0.012629818
21	0x3c9a0ee0	0.018805921
22	0xbd886ceb	-0.066613995
23	0xbe37f140	-0.17963123
24	0xbda66a21	-0.08125711
25	0x3c9ae17c	0.018906347
26	0x3e39d27d	0.18146701
27	0x3b94fe38	0.004546907
28	0x3c8cc85c	0.017185383
29	0x3c863eb8	0.016387329
30	0x3dae4a0d	0.08510218
31	0x3b580c2a	0.0032966235
32	0xbd95aee2	-0.07308747
33	0x3d184667	0.037176516
34	0xbeb4038e	-0.35158962
35	0xbd12088c	-0.035652682
36	0x3bf95192	0.007608601
37	0xbd2fae57	-0.042890873
38	0x3d5dd352	0.05415661
39	0xbd321cb4	-0.043484405
40	0x3c1e5ac4	0.009665195
41	0xbd96ffb5	-0.07372991
42	0xbab68606	-0.001392544
43	0xbc2cb43f	-0.010541021
44	0xbdc390d7	-0.095491104
45	0x3cddbab2	0.027066562
46	0xba80d725	-0.0009829743
47	0xbef95b9a	-0.487027
48	0xbe3ff7c5	-0.1874686
49	0xbe73ed27	-0.23820935
50	0x3ce15468	0.027506068
51	0x3d1b6af8	0.03794381
52	0x3d298bed	0.04139321
53	0x3cfc82db	0.030824115
54	0x3d2f7dd7	0.04284462
55	0x3e637c7e	0.22215459
56	0x3d82fcec	0.06395897
57	0x3cfa1548	0.030527726
58	0xbe3866f6	-0.18008026
59	0x3d59c72c	0.05316846
60	0x3cd9c367	0.026582433
61	0xbd924e02	-0.07143785
62	0xbd3bef1f	-0.04588234
63	0x3d609d97	0.05483779
64	0x3dc58cc5	0.0964599
65	0x3c193367	0.009350634
66	0x3e95ceaa	0.29259235
67	0x3aa5923b	0.0012632081
68	0xbb991fa2	-0.0046729604
69	0x3cc934ee	0.024561372
70	0xbd90dc04	-0.07073215
71	0x3b8762ef	0.004131667
72	0xbd174010	-0.03692633
73	0x3cb908df	0.022587238
74	0x3d04eb6b	0.032451075
75	0x3d46f40b	0.04857258
76	0x3de5399e	0.1119263
77	0x3c105542	0.00880939
78	0x3d059d38	0.03262064
79	0x3ed7f815	0.4218146
80	0x3e2ed650	0.17073941
81	0x3e4de432	0.20106581
82	0x3c5d0323	0.013489517
83	0x3c114f7f	0.008869051
84	0x3bd30d06	0.0064407615
85	0x3c5369b6	0.012903621
86	0xbd80b26e	-0.06284033
87	0xbe2b02d4	-0.16700298
88	0xbd9f121e	-0.077671275
89	0x3c5986d9	0.013276779
90	0x3e2a439d	0.16627355
91	0xbaf58852	-0.0018732643
92	0x3c44b3c0	0.012005746
93	0x3cac53e3	0.021036094
94	0x3d9dd54d	0.077066995
95	0xbb50cd1f	-0.0031860543
96	0x3dd06ee4	0.10177401
97	0x3c509574	0.012730945
98	0x3e9e6dc9	0.30943134
99	0x39a32878	0.00031119934
100	0xbbda1a56	-0.0066559715
101	0x3cd5d95d	0.026104623
102	0xbd940b8f	-0.07228767
103	0x3b3e8b5d	0.0029074766
104	0xbd1e2b4d	-0.038615514
105	0x3cab6224	0.02092082
106	0x3d11d404	0.035602584
107	0x3d5894cf	0.05287629
108	0x3df0f585	0.11765579
109	0x3c3d866e	0.011567695
110	0x3d12c164	0.035828963
111	0x3ee3fb0e	0.44527477
112	0x3e3751bc	0.17902273
113	0x3e5897bb	0.2115163
114	0x3c891c39	0.01673709
115	0x3c4ae6fa	0.012384171
116	0x3c2541e4	0.01008651
117	0x3c84f069	0.016227918
118	0xbd83c5a0	-0.06434178
119	0xbe30efde	-0.17279002
120	0xbda2215e	-0.079165205
121	0x3c87eb84	0.016591795
122	0x3e32940f	0.17439292
123	0x3ad8a886	0.0016529716
124	0x3c76b5b6	0.015057972
125	0x3ca020ef	0.019546954
126	0x3da7d468	0.0819481
127	0x39b6879f	0.0003481479
128	0x3dd0537c	0.101721734
129	0x3c4365d6	0.011926135
130	0x3e934c60	0.28769207
131	0xbb82494f	-0.003976024
132	0x3c11597b	0.008871431
133	0x3c2c6424	0.010521922
134	0xbd9e5694	-0.07731357
135	0x399dce10	0.00030098902
136	0xbd29755c	-0.04137169
137	0x3ca07fe0	0.019592226
138	0x3d0ae195	0.033906538
139	0x3d51f027	0.051254418
140	0x3df1b049	0.11801202
141	0x3c6422c7	0.013924307
142	0x3d0d333e	0.034472696
143	0x3ed04946	0.40680903
144	0x3e35676a	0.1771523
145	0x3e523282	0.2052708
146	0x3c8eee18	0.017447516
147	0x3c38ae03	0.011271956
148	0x3c0f5b1e	0.008749751
149	0x3c835376	0.016031008
150	0xbd8c8918	-0.06862086
151	0xbe33a4e7	-0.17543374
152	0xbdadc12a	-0.08484109
153	0x3c86037f	0.016359089
154	0x3e312325	0.17298563
155	0xb9f400b9	-0.00046539845
156	0x3c85ee40	0.016348958
157	0x3c9064e6	0.017626237
158	0x3da5dea0	0.08099103
159	0xbae313af	-0.0017324592
160	0xbd97ba19	-0.07408542
161	0x3d17988b	0.03701071
162	0xbeb3ed9f	-0.35142228
163	0xbd12fdb2	-0.035886474
164	0x3bf76568	0.0075499304
165	0xbd30101c	-0.042984113
166	0x3d5f0874	0.05445142
167	0xbd322106	-0.043488525
168	0x3c1b620d	0.009483826
169	0xbd962503	-0.07331278
170	0xbab1cd27	-0.0013565168
171	0xbc2ae316	-0.010430118
172	0xbdc6ded0	-0.09710467
173	0x3cde4ee9	0.027137237
174	0xba7eaf74	-0.00097154756
175	0xbef8f2e8	-0.48622823
176	0xbe42ae22	-0.19011739
177	0xbe75b82b	-0.23996036
178	0x3ce085de	0.027407583
179	0x3d1b229f	0.037874814
180	0x3d294474	0.041325048
181	0x3cfd4fbe	0.030921813
182	0x3d2ff2a9	0.042956028
183	0x3e63b2d1	0.22236182
184	0x3d841d86	0.06450944
185	0x3cfa0d56	0.030523937
186	0xbe3b25ff	-0.18276213
187	0x3d58faa5	0.05297341
188	0x3cda6f10	0.026664287
189	0xbd918797	-0.0710594
190	0xbd3dba2f	-0.046320137
191	0x3d606715	0.054785807
192	0xbd2840a9	-0.04107729
193	0xbbb8af5e	-0.00563614
194	0xbe5e3a1e	-0.21701857
195	0x3c70cd7b	0.014697428
196	0xbcacf163	-0.021111196
197	0x3c8cc336	0.017182928
198	0x3ca00956	0.019535702
199	0x3c41164a	0.011785099
200	0x3c6ffcdc	0.014647689
201	0x3ad65ffa	0.0016355508
202	0xbca4b3af	-0.020105211
203	0xbc9fcc13	-0.01950649
204	0xbd454827	-0.048164513
205	0xbc1a0e26	-0.009402787
206	0xbc94be11	-0.018157037
207	0xbebf0b0f	-0.37313125
208	0xbd9d9351	-0.07694114
209	0xbdcf463e	-0.101208195
210	0xbc18de12	-0.009330289
211	0xbbae2c60	-0.0053153485
212	0xbb7f339f	-0.003894068
213	0xbc041e8e	-0.008063925
214	0x3c999772	0.018748973
215	0x3caaa52c	0.020830713
216	0x3ca28cff	0.019842623
217	0xbc07f4b1	-0.008298085
218	0xbd993a7a	-0.07481857
219	0x3a2f8fee	0.00066971674
220	0xbc1cdd03	-0.009574178
221	0x3b232b95	0.0024897803
222	0xbd03b8db	-0.032158714
223	0x3abd60a2	0.0014448354
224	0xbd803708	-0.062604964
225	0x3d330b9e	0.04371225
226	0xbeac52d7	-0.33656952
227	0xbd2ad8a1	-0.0417105
228	0x3c473fbe	0.012161193
229	0xbd423316	-0.047412
230	0x3d39997f	0.0453124
231	0xbd4a135a	-0.04933486
232	0x3afd5432	0.001932746
233	0xbda0a9e3	-0.07844903
234	0x3bb186de	0.0054176887
235	0xbaeda0f9	-0.0018129639
236	0xbdad4852	-0.0846106
237	0x3d0aa9f6	0.033853494
238	0x3bc85ad4	0.006114343
239	0xbef0de13	-0.4704443
240	0xbe32c3c9	-0.17457499
241	0xbe65b96a	-0.22434011
242	0x3d0d15ab	0.034444492
243	0x3d36ce48	0.04463032
244	0x3d4484f6	0.047978364
245	0x3d1aa1e9	0.037752066
246	0x3d0c2740	0.03421712
247	0x3e59c5f1	0.21266915
248	0x3d61f1b0	0.05516213
249	0x3d196059	0.0374454
250	0xbe2b864b	-0.16750447
251	0x3d730644	0.059332147
252	0x3d099d05	0.03359701
253	0xbd9bf114	-0.076143414
254	0xbd14f2ed	-0.036364485
255	0x3d793bf3	0.060848188

bias f4 [64]
0	0xbe3e6106	-0.18591699
1	0x3e6fcc12	0.2341769
2	0xbe128fd8	-0.14312685
3	0xbe342247	-0.17591201
4	0xbdd9c0e6	-0.106324956
5	0x3e736df9	0.2377242
6	0xbca2db31	-0.01987991
7	0x3e2dc672	0.16970232
8	0x3c611842	0.013738694
9	0xbe415b85	-0.18882568
10	0xbe3a7cbe	-0.18211648
11	0xbdb862fe	-0.09003256
12	0x3e2bdc1e	0.16783187
13	0x3e703011	0.23455836
14	0x3e37740a	0.17915359
15	0xbdfe221f	-0.12408852
16	0x3c9884df	0.018618045
17	0x3e260604	0.16213232
18	0xbdbcf7ef	-0.09226977
19	0x3e7274ce	0.2367737
20	0xbe447446	-0.1918498
21	0x3e743272	0.23847368
22	0x3d5d4a89	0.05402616
23	0xbcb3e859	-0.021961378
24	0xbdea8b90	-0.11452401
25	0x3bb80f72	0.0056170756
26	0xbe3e8821	-0.18606617
27	0x3e3b1627	0.18270169
28	0x3d12d8da	0.035851337
29	0x3e3f34b6	0.18672451
30	0x3e3ee218	0.18640935
31	0x3e24eee3	0.16106753
32	0x3e71fb33	0.23630981
33	0x3e3bc906	0.18338403
34	0x3e40cfb9	0.1882924
35	0x3bff166f	0.0077846567
36	0x3e5efaeb	0.21775405
37	0x3e393203	0.18085484
38	0x3e424fbd	0.1897573
39	0x3d5a5f61	0.053313617
40	0xbd5b1692	-0.05348832
41	0x3e77364d	0.24141808
42	0xbe408a14	-0.18802673
43	0x3e6e05e7	0.23244439
44	0x3cd1567d	0.025553936
45	0xbe166b50	-0.14689374
46	0x3e55cd63	0.2087913
47	0xbd12c8c7	-0.035836007
48	0xbccb760a	-0.024836559
49	0x3c4aa8b6	0.012369325
50	0xbd196559	-0.03745017
51	0xbde902b3	-0.11377468
52	0x3e22d901	0.15903093
53	0x3d07c4a1	0.033146504
54	0x3e5b67cd	0.21426316
55	0x3e4c102d	0.19928046
56	0xbd06ebeb	-0.032939833
57	0xbd4c7400	-0.049915314
58	0x3e249712	0.16073254
59	0x3d7fefce	0.062484555
60	0x3e74ba26	0.23899135
61	0xbdc43dd7	-0.095821075
62	0x3e43903d	0.19097991
63	0x3c5350b6	0.012897661

weight f4 [32, 64]
0	0x3d3c670c	0.04599671
1	0xbc8d57f7	-0.017253859
2	0x3d5ac439	0.05340979
3	0x3d4aabad	0.04948013
4	0x3d8628a8	0.06550723
5	0xbc9c2895	-0.01906232
6	0xbce461c2	-0.027878646
7	0xbc6a966c	-0.01431809
8	0xbc9d1ab6	-0.019177776
9	0x3d2efa2b	0.042719048
10	0x3d3baafe	0.045817368
11	0x3d94ea51	0.07271255
12	0xbc2a6303	-0.010399583
13	0xbca55930	-0.02018413
14	0xbc70079b	-0.014650251
15	0x3d7779a8	0.060418755
16	0xbcf9646d	-0.030443395
17	0xbc66f57c	-0.014096614
18	0xbc781f6a	-0.015144208
19	0xbcac5770	-0.021037787
20	0x3d3dea9f	0.04636633
21	0xbc9cc057	-0.019134684
22	0xbc4b23b0	-0.012398645
23	0xbd19c8d0	-0.037545025
24	0x3d720c73	0.059093904
25	0xbcaae553	-0.020861303
26	0x3d3c742c	0.046009228
27	0xbc504076	-0.012710681
28	0xbca5553e	-0.020182248
29	0xbc5220e5	-0.0128252255
30	0xbc799da7	-0.015235341
31	0xbc4e1e06	-0.0125804
32	0xbca1d254	-0.019753613
33	0xbc80314b	-0.015648505
34	0xbc5e2577	-0.013558737
35	0xbd1d33f5	-0.03837963
36	0xbc86e3ce	-0.016466048
37	0xbc5ce344	-0.013481919
38	0xbc80c406	-0.015718471
39	0xbc74d60a	-0.014943609
40	0xbd1c1f8e	-0.03811603
41	0xbca00e85	-0.019538173
42	0x3d34eee8	0.04417315
43	0xbc9ea4ee	-0.019365754
44	0xbd0d21e2	-0.03445614
45	0x3d540869	0.051765833
46	0xbc7fb863	-0.015607926
47	0xbcbf4d87	-0.023352398
48	0xbcd0aa16	-0.025471728
49	0xbd055f3d	-0.03256153
50	0xbce796f8	-0.02827023
51	0x3d714d81	0.058911804
52	0xbc3ab4fa	-0.011395687
53	0xbc9327dd	-0.017963344
54	0xbc848ad9	-0.016179489
55	0xbc9dcbd4	-0.019262232
56	0xbcf3d8fd	-0.029766554
57	0xbd2bea00	-0.041971207
58	0xbc45ca68	-0.012072183
59	0xbc39b0e6	-0.01133368
60	0xbc9aa3da	-0.018876959
61	0x3d973144	0.073824435
62	0xbc8fd1a3	-0.017556017
63	0xbd1b0e88	-0.037855655
64	0xbc686299	-0.014183664
65	0xbd3e09d1	-0.04639608
66	0xb997562c	-0.00028865167
67	0xbc52d98e	-0.012869252
68	0x3bd3b276	0.006460483
69	0xbd3e2486	-0.04642155
70	0x3ba3c705	0.00499809
71	0xbd2c379a	-0.042045213
72	0xbc2411fa	-0.010014052
73	0xbd13a520	-0.036046147
74	0xbcc36193	-0.023850238
75	0xbbfff6d5	-0.007811407
76	0xbd351a99	-0.04421482
77	0xbd391290	-0.04518372
78	0xbd416995	-0.04721983
79	0x3c0fe205	0.008781915
80	0x3b854fb0	0.0040683374
81	0xbd27156a	-0.040791906
82	0x3d4faa86	0.050699733
83	0xbd4a557f	-0.04939794
84	0xbcd377a7	-0.02581389
85	0xbd4003f8	-0.046878785
86	0xbd074be3	-0.033031356
87	0x3d33dc0e	0.043911032
88	0x3c33a16b	0.010963778
89	0xbcb84919	-0.022495793
90	0xbcc995b7	-0.024607522
91	0xbd30e761	-0.04318941
92	0x3b873225	0.0041258507
93	0xbd3f6c87	-0.04673436
94	0xbd31a36c	-0.043368742
95	0xbd26c16c	-0.040711805
96	0xbd4c92ea	-0.049944796
97	0xbd2a3390	-0.04155308
98	0xbd3e7e2f	-0.046507057
99	0x3c956654	0.01823727
100	0xbd42fe87	-0.047606017
101	0xbd438b02	-0.04773999
102	0xbd2fe580	-0.042943478
103	0xbd0ec8c8	-0.03485945
104	0x3cbebfbd	0.023284787
105	0xbd49c42a	-0.049259342
106	0xbcf061a6	-0.029343437
107	0xbd4e4dc5	-0.050367136
108	0xbabc4a45	-0.0014365396
109	0xb9d3eadd	-0.00040420043
110	0xbd3f4a6c	-0.046701834
111	0x3ce16a96	0.027516644
112	0x3c94e2eb	0.01817461
113	0xb948ba00	-0.00019142777
114	0x3c0ca3b5	0.008583953
115	0x3c3b8d89	0.011447319
116	0xbd403735	-0.04692765
117	0xbca754ad	-0.020426119
118	0xbd42f248	-0.04759434
119	0xbd48e499	-0.049046133
120	0x3c5396a6	0.012914335
121	0x3d113f58	0.0354608
122	0xbd28ee9f	-0.04124319
123	0xbcd468df	-0.025928913
124	0xbd411a74	-0.04714437
125	0xbb16705e	-0.002295516
126	0xbd318dcf	-0.04334813
127	0xbb1cc613	-0.0023921772
128	0x3d6dec67	0.05808678
129	0xbe475d40	-0.19469166
130	0x3d8d6068	0.06903154
131	0x3d84f09c	0.06491205
132	0x3dac429e	0.08411144
133	0xbe46eab0	-0.19425464
134	0xbd37b625	-0.04485144
135	0xbe5fec26	-0.21867427
136	0xbd3f8d93	-0.046765875
137	0x3d63a1d9	0.05557427
138	0x3d6a1b72	0.05715508
139	0x3db8fd40	0.090326786
140	0xbe5047b4	-0.20339853
141	0xbe45be61	-0.19310905
142	0xbe595152	-0.21222427
143	0x3d9559da	0.072925285
144	0xbd368039	-0.044555876
145	0xbe5eb685	-0.21749313
146	0x3d8b2ae8	0.06795293
147	0xbe460fc1	-0.19341947
148	0x3d6f3eb9	0.058409426
149	0xbe498950	-0.19681287
150	0xbd052bd2	-0.032512493
151	0xbd57470c	-0.05255799
152	0x3d920521	0.071298845
153	0xbd3bf7be	-0.045890562
154	0x3d6ac59e	0.05731737
155	0xbe5552f1	-0.20832421
156	0xbd4c1550	-0.049825013
157	0xbe52cf8b	-0.20586984
158	0xbe5a810c	-0.2133829
159	0xbe5c7f20	-0.2153287
160	0xbe4b095c	-0.19827789
161	0xbe528032	-0.20556715
162	0xbe4ceb64	-0.2001167
163	0xbd9cd01d	-0.07656882
164	0xbe4837d5	-0.19552548
165	0xbe591509	-0.2119943
166	0xbe52ad32	-0.20573881
167	0xbd1781dc	-0.036989078
168	0xbd44fa9f	-0.048090573
169	0xbe499f49	-0.19689669
170	0x3d605746	0.05477073
171	0xbe4e39c0	-0.20139217
172	0xbd3aff60	-0.0456537
173	0x3d88e146	0.066835925
174	0xbe49219a	-0.19641724
175	0xbd08b674	-0.033377126
176	0xbd218bd5	-0.039439995
177	0xbd2fcb1d	-0.042918313
178	0xbd1a1e69	-0.037626658
179	0x3d919af3	0.07109632
180	0xbe5e299d	-0.21695562
181	0xbd3cdd31	-0.046109382
182	0xbe48b918	-0.19601858
183	0xbe574a07	-0.21024333
184	0xbd0e0913	-0.034676623
185	0xbcc88a38	-0.02447997
186	0xbe5db351	-0.21650435
187	0xbcf57dbe	-0.029967185
188	0xbe4911a6	-0.19635639
189	0x3dc07b71	0.093985446
190	0xbe561fc0	-0.20910549
191	0xbd4fa0b4	-0.050690368
192	0x3d76afd5	0.06022628
193	0xbf599cee	-0.8500508
194	0x3d62161f	0.055196878
195	0x3d73af8c	0.059493586
196	0x3d4a68cb	0.049416345
197	0xbf5b3705	-0.8563083
198	0x3cb651b9	0.022255765
199	0xbf5933ee	-0.84844863
200	0x3c8846b3	0.016635275
201	0x3dae97e0	0.085250616
202	0x3d93562d	0.07194171
203	0x3d895ff4	0.06707755
204	0xbf653a21	-0.8954182
205	0xbf5e7018	-0.8688979
206	0xbf5e96d8	-0.8694892
207	0x3d1a2f26	0.03764262
208	0xbd05b403	-0.032642376
209	0xbf5de503	-0.8667757
210	0x3e8e265c	0.2776364
211	0xbf57db5d	-0.84319097
212	0x3d9a0c24	0.07521847
213	0xbf5a974e	-0.8538712
214	0xbca5a350	-0.020219475
215	0x3d50e528	0.05099979
216	0x3d0eb097	0.034836378
217	0x3bc23648	0.005926881
218	0x3d952df3	0.07284155
219	0xbf5d7f47	-0.86522335
220	0xbc247fae	-0.010040207
221	0xbf5e5fa2	-0.86864674
222	0xbf5d2016	-0.86377084
223	0xbf5bd4fc	-0.85871863
224	0xbf580d74	-0.8439553
225	0xbf5d8c0f	-0.8654184
226	0xbf5f4f8c	-0.87230754
227	0x3d3700c6	0.044678472
228	0xbf5e1a86	-0.8675922
229	0xbf5a2055	-0.85205585
230	0xbf5ce3b9	-0.8628498
231	0xbc6f2b76	-0.014597764
232	0x3d6dfa8d	0.058100272
233	0xbf592406	-0.8482059
234	0x3da03517	0.07822626
235	0xbf5689a8	-0.83803797
236	0xbc67f476	-0.014157405
237	0x3d4f4b82	0.05060912
238	0xbf6099b6	-0.87734544
239	0x3d12ee1d	0.035871614
240	0x3d4fd710	0.05074221
241	0xbd02d786	-0.03194382
242	0x3cd80b6b	0.026372632
243	0x3d0cc884	0.034370914
244	0xbf5a6cb1	-0.853221
245	0xbb81e95e	-0.003964587
246	0xbf5c2dcb	-0.86007375
247	0xbf5987ba	-0.8497273
248	0x3d84f38c	0.064917654
249	0x3d3776f2	0.04479117
250	0xbf5d2fa7	-0.86400837
251	0xbcc2a250	-0.023759037
252	0xbf5a140d	-0.85186845
253	0x3d7ba37f	0.06143522
254	0xbf5bee63	-0.85910624
255	0xbd7ca785	-0.061683197

bias f4 [32]
0	0xbd6de215	-0.058076937
1	0xbce90280	-0.028443575
2	0xbdc684fd	-0.09693334
3	0xbdf9bd07	-0.12194257
4	0xbe49b2f9	-0.19697179
5	0xbed840a4	-0.42236817
6	0x3dcd7674	0.10032359
7	0xbd3b6607	-0.045751598
8	0xbda4c98f	-0.08046257
9	0xbcc702f8	-0.024293408
10	0xbe19fdb5	-0.15038188
11	0x3e1b8a20	0.1518941
12	0xbca1880a	-0.019718189
13	0x3d65b36a	0.056079306
14	0xbeb8c5a0	-0.36088276
15	0x3c83a4af	0.016069738
16	0xbe004e54	-0.1252988
17	0x3dc14e3b	0.094387494
18	0xbdf669a3	-0.12031867
19	0xbd33f897	-0.043938246
20	0xbe18edbe	-0.14934441
21	0xbdaaf803	-0.08348086
22	0xbd27d153	-0.04097111
23	0xbe1ee8e2	-0.15518525
24	0xbdc49af4	-0.095998675
25	0xbd92f4b7	-0.07175582
26	0x3d97b198	0.0740692
27	0xbe5c204b	-0.21496694
28	0xbd33e71b	-0.04392157
29	0x3ca76f2b	0.020438751
30	0xbe226f4c	-0.15862769
31	0xbdf3ac0d	-0.118980505

weight f4 [32, 1]
0	0x3f0472a2	0.51737416
1	0x3f48b5af	0.7840223
2	0x3f00b776	0.5027994
3	0xbeff8f47	-0.49914
4	0x3f00b059	0.50269085
5	0x3eadb455	0.33926645
6	0xbefec1fe	-0.4975738
7	0x3f05ca11	0.52261454
8	0xbef67d70	-0.48142576
9	0xbeb42fc9	-0.35192707
10	0xbefbda3e	-0.49189943
11	0xbeb6cdc3	-0.3570386
12	0x3f4dd639	0.80405
13	0xbef9f407	-0.4881899
14	0x3eb3a046	0.35083216
15	0xbf0874d8	-0.5330329
16	0x3ea2ccea	0.31796962
17	0x3ef945b5	0.48685995
18	0x3f48268d	0.78183824
19	0xbef58a5a	-0.47957116
20	0x3eef18f5	0.46698728
21	0x3f4ba23f	0.7954444
22	0xbeca778d	-0.39544335
23	0x3f2b47aa	0.66906226
24	0x3f04eb9a	0.51922
25	0x3ecc6edc	0.3992833
26	0xbedb5ddf	-0.42845055
27	0x3ed4134b	0.4142097
28	0x3f0599e8	0.5218797
29	0xbecc5d9f	-0.39915177
30	0x3ed2d532	0.4117828
31	0xbef8254c	-0.48465955

bias f4 [32]
0	0xbf055165	-0.52077323
1	0x3d40c752	0.047065087
2	0xbf02b68b	-0.5105979
3	0x3effad1e	0.49936765
4	0xbf040ede	-0.51585186
5	0xbeb5600c	-0.3542484
6	0x3efcf6c6	0.49407023
7	0xbf171d81	-0.59029394
8	0x3f1a1860	0.60193443
9	0x3eb2f659	0.34953573
10	0x3f09b0d8	0.5378547
11	0x3eb59823	0.35467634
12	0xbc5f91e0	-0.013645619
13	0x3f0d4c01	0.551941
14	0xbe868664	-0.26274407
15	0x3ea48eb9	0.3214014
16	0xbea8b832	-0.3295303
17	0xbf0789e0	-0.52944756
18	0x3d4a2ecd	0.04936104
19	0x3ef40237	0.4765794
20	0xbef28836	-0.47369546
21	0x3cc66885	0.02421976
22	0x3ec9516c	0.39319932
23	0x3d237f20	0.039916158
24	0xbf1ea185	-0.6196521
25	0xbed3497a	-0.41266996
26	0x3eda33d4	0.42617667
27	0xbed56c5b	-0.4168423
28	0xbf07b9c4	-0.5301783
29	0x3ecb3bf0	0.39694166
30	0xbedb96e3	-0.42888555
31	0x3ef6c77f	0.48199078

weight f4 [64, 32]
0	0x3ccbec06	0.024892818
1	0xbe1366db	-0.14394705
2	0x3cbc5ea4	0.022994347
3	0xbd050984	-0.032479778
4	0x3cc013ea	0.023446996
5	0x3bd08409	0.006363396
6	0xbd02add6	-0.031904064
7	0x3cf4b715	0.029872457
8	0xbd1c3f8a	-0.038146533
9	0xbb0b1cc9	-0.0021226874
10	0xbd0fd772	-0.035117574
11	0xbb2542bf	-0.0025216786
12	0xbe8810a6	-0.26575202
13	0xbd13c467	-0.036075976
14	0x3e710482	0.23536876
15	0x3e78e82e	0.2430732
16	0x3ebbf93f	0.36713597
17	0x3cbfd231	0.023415657
18	0xbe11c510	-0.1423533
19	0xbce80c92	-0.028326306
20	0x3c8f1065	0.017463872
21	0xbe25bca4	-0.16185242
22	0xbb96056e	-0.004578284
23	0xbdc98542	-0.0983987
24	0x3cfee412	0.031114612
25	0x3c3e4e68	0.011615373
26	0xbc642b41	-0.013926328
27	0x3d2fd1ed	0.04292481
28	0x3cd3732a	0.02581175
29	0xbbb3404c	-0.0054703113
30	0x3c28de43	0.010306898
31	0xbcf1e421	-0.029527726
32	0xbd7db9ff	-0.061944958
33	0xbd884942	-0.06654598
34	0xbd81f53d	-0.063456036
35	0x3d6b9333	0.057513427
36	0xbd816afe	-0.06319235
37	0xbd95af37	-0.0730881
38	0x3d6dc297	0.058046903
39	0xbd6c8baa	-0.05775038
40	0x3d5bedc1	0.053693537
41	0x3d8a3671	0.06748665
42	0x3d6367a3	0.055518758
43	0x3d8b31ad	0.06796584
44	0xbe654c3d	-0.22392364
45	0x3d6072c3	0.054796945
46	0xbf80f219	-1.0073882
47	0x3ecf2f3d	0.40465727
48	0xbc9dee44	-0.019278653
49	0xbd81fbe3	-0.06346872
50	0xbd82f6ad	-0.06394706
51	0x3d77235f	0.060336467
52	0xbd8bd3d5	-0.06827513
53	0xbdbac543	-0.09119656
54	0x3d8a339d	0.06748126
55	0x3ad9afc1	0.0016608165
56	0xbd68fff5	-0.056884725
57	0xbd8f18f5	-0.06987182
58	0x3d89fd53	0.06737771
59	0xbd917e65	-0.07104186
60	0xbd7a6669	-0.061132822
61	0x3d89f57f	0.06736278
62	0xbd8e8c4e	-0.06960355
63	0x3d738d5d	0.059460986
64	0x3d8a48bd	0.06752155
65	0x3eaa0ee0	0.33214474
66	0x3da3aaeb	0.079915844
67	0xbd47e130	-0.04879874
68	0x3d9e6a08	0.077350676
69	0x3e972e8e	0.29527706
70	0xbd58d24e	-0.052934937
71	0x3d053966	0.032525443
72	0xbc528965	-0.01285014
73	0xbeb19ceb	-0.3469003
74	0xbcff8f30	-0.031196207
75	0xbead6456	-0.33865613
76	0x3ef773a6	0.4833042
77	0xbcd0d6e6	-0.025493097
78	0x3f29ff65	0.66405326
79	0xc021b2a2	-2.526528
80	0xbf483920	-0.78212166
81	0x3da2046e	0.07911001
82	0x3ea87627	0.32902643
83	0xbd983d32	-0.07433547
84	0x3dfdfea6	0.12402086
85	0x3eb911f6	0.36146516
86	0xbe84c608	-0.25932336
87	0x3e804b3f	0.25057408
88	0x3cc68616	0.024233859
89	0x3e4026bc	0.18764776
90	0xbe308596	-0.17238459
91	0xbd9ce598	-0.07660979
92	0x3d771878	0.06032607
93	0xbe7c4503	-0.24635701
94	0x3e4427bd	0.19155784
95	0xbd88fd7b	-0.066889726
96	0x3e5adb89	0.21372809
97	0x3d977460	0.07395244
98	0x3e7053d8	0.23469484
99	0xbe3ff6f4	-0.18746549
100	0x3e69d02a	0.22833315
101	0x3f24ed8b	0.6442496
102	0xbe48a452	-0.19593933
103	0x3e28bf09	0.16479124
104	0xbe18f785	-0.14938171
105	0xbf856314	-1.0420861
106	0xbe29b7cd	-0.1657402
107	0xbf829212	-1.0200827
108	0x3e60aeed	0.21941729
109	0xbe23e789	-0.16006292
110	0x3ecca569	0.39969948
111	0xbe1bc285	-0.15210922
112	0x3f55d405	0.8352664
113	0x3e58c347	0.21168242
114	0x3d9198b3	0.07109203
115	0xbe821bb0	-0.2541175
116	0x3e9fe472	0.31228977
117	0x3dccf200	0.10007095
118	0xbf5d5e4c	-0.8647201
119	0xbb4b59c7	-0.0031028853
120	0x3e20c4aa	0.15700021
121	0x3ed4fe00	0.41600037
122	0xbf1023ef	-0.5630483
123	0x3f152b3a	0.58269083
124	0x3e4d52fa	0.20051184
125	0xbf54917a	-0.8303448
126	0x3efff97e	0.49995035
127	0xbe6dbeb2	-0.23217276
128	0x3d173b83	0.03692199
129	0xbe24dbfc	-0.16099542
130	0x3d102821	0.03519452
131	0xbd2a9536	-0.041646205
132	0x3d124b21	0.03571618
133	0x3cbbe49e	0.022936162
134	0xbd2799d8	-0.0409182
135	0x3d2d772f	0.04234999
136	0xbd46463d	-0.04840683
137	0xbc63b246	-0.013897484
138	0xbd37b259	-0.04484782
139	0xbc66e695	-0.014093061
140	0xbe7c4685	-0.24636276
141	0xbd3c1e34	-0.04592724
142	0x3e82f8d9	0.2558048
143	0x3e26777f	0.16256522
144	0x3e7b16e9	0.24520458
145	0x3d11c2ec	0.035586283
146	0xbe235535	-0.15950473
147	0xbd185126	-0.037186764
148	0x3cf424de	0.029802736
149	0xbe3435e3	-0.17598681
150	0xbc73cf98	-0.014881037
151	0xbe008305	-0.1254998
152	0x3d33c0d3	0.043885063
153	0x3cd2dce7	0.0257401
154	0xbcb3a558	-0.021929428
155	0x3cc28456	0.023744743
156	0x3d1c240b	0.03812031
157	0xbc7c02d9	-0.015381538
158	0x3ccc1789	0.024913566
159	0xbd1db67d	-0.038504113
160	0x3d0ae6ca	0.033911504
161	0x3caabd09	0.020842092
162	0x3d089cfa	0.03335283
163	0xbd2c5d93	-0.042081427
164	0x3d097bbf	0.03356528
165	0x3d17a6d0	0.03702432
166	0xbd2b68e8	-0.041848093
167	0x3d127357	0.035754528
168	0xbd34d466	-0.04414787
169	0xbd5ef82d	-0.054435898
170	0xbd2ff9d3	-0.04296286
171	0xbd57dc0a	-0.05270008
172	0x3e0bc2da	0.13648549
173	0xbd313753	-0.043265652
174	0x3e59b6bc	0.21261114
175	0xbe74a8f0	-0.2389257
176	0x3d59e1ca	0.053193845
177	0x3d0a5ea7	0.033781674
178	0x3c99cdb7	0.01877485
179	0xbd265fe1	-0.04061878
180	0x3d04c749	0.032416616
181	0x3d24a8ad	0.040199924
182	0xbd340cfe	-0.043957703
183	0xbd2067f6	-0.039161645
184	0x3d14752f	0.036244567
185	0x3d07814d	0.033082295
186	0xbd22fe8a	-0.03979353
187	0x3d51c94d	0.051217366
188	0x3d0c1e8a	0.03420881
189	0xbd3039f5	-0.043024022
190	0x3d09eaf4	0.033671334
191	0xbd27d085	-0.040970344
192	0xbd39a3e2	-0.045322306
193	0xbeb1a34d	-0.346949
194	0xbd4a1da2	-0.049344666
195	0x3d14e946	0.03635528
196	0xbd4610e6	-0.04835596
197	0xbdb8d8c5	-0.090257205
198	0x3d1a6c2c	0.037700817
199	0xbd0a1689	-0.033712897
200	0x3cc5bba9	0.024137335
201	0x3db1977a	0.0867147
202	0x3cface64	0.030615993
203	0x3db0ce50	0.08633101
204	0xbf4dc987	-0.8038563
205	0x3ce9cc7e	0.028539892
206	0xbe04a67a	-0.12954131
207	0x3f0374a2	0.5134984
208	0xbdd0a238	-0.10187191
209	0xbd48a7d3	-0.048988175
210	0xbeae1534	-0.34000552
211	0x3d35725c	0.044298515
212	0xbd7fa952	-0.062417336
213	0xbed4f2dd	-0.4159154
214	0x3da72ee4	0.081632406
215	0xbe481b56	-0.19541678
216	0xbcfb3b86	-0.030668031
217	0xbd9f0c40	-0.077660084
218	0x3d8f8eac	0.070096344
219	0xbd9fdd8e	-0.0780593
220	0xbd3023c1	-0.043002848
221	0x3da4da13	0.08049407
222	0xbd9f3bb0	-0.07775056
223	0x3d2c4e2e	0.042066745
224	0x3d3eb54f	0.046559628
225	0x3ca4cb59	0.020116495
226	0x3d3c3518	0.04594907
227	0xbd7fb0c9	-0.062424455
228	0x3d3ceba1	0.04612315
229	0x3d16f62c	0.03685586
230	0xbd7ff5d8	-0.062490314
231	0x3d44682a	0.0479509
232	0xbd7f755b	-0.06236778
233	0xbd748865	-0.05970039
234	0xbd7f0a15	-0.062265474
235	0xbd7aa1b7	-0.06118938
236	0x3e134d87	0.14385043
237	0xbd7e9fad	-0.062163997
238	0x3e22f94b	0.1591541
239	0xbe87da79	-0.2653387
240	0x3e9f116a	0.31067973
241	0x3d3d2237	0.046175208
242	0x3c91f505	0.01781703
243	0xbd7eddbf	-0.062223192
244	0x3d32ee12	0.043684073
245	0x3d271776	0.04079386
246	0xbd8507b7	-0.06495612
247	0xbd27b13f	-0.04094052
248	0x3d45f95e	0.04833352
249	0x3d2aeb65	0.041728396
250	0xbd843db3	-0.06457081
251	0x3e029f5d	0.12756105
252	0x3d3f3b56	0.046687447
253	0xbd852e6c	-0.06502995
254	0x3d2ab244	0.041673914
255	0xbd7eea33	-0.06223507

bias f4 [64]
0	0xbc9c2c6f	-0.019064156
1	0x3e4c68b0	0.1996181
2	0x3d2a706d	0.041611124
3	0xbe830a88	-0.25593972
4	0xbd4667d6	-0.04843887
5	0xbe307edb	-0.17235892
6	0x3d807259	0.0627181
7	0xbe719ab5	-0.23594172
8	0xbd8a1267	-0.06741791
9	0xbe1dcb5d	-0.15409608
10	0xbdc74243	-0.09729435
11	0xbe7d5d7c	-0.24742693
12	0x3e031e0d	0.12804432
13	0x3d18a81a	0.03726969
14	0x3e60bfe1	0.21948196
15	0x3d5d1961	0.05397928
16	0x3c91426a	0.017731864
17	0x3e44f2bf	0.19233225
18	0xbe39912f	-0.1812179
19	0xbe2845fa	-0.16432944
20	0xbcea45d3	-0.028597748
21	0xbe57a7a0	-0.21060038
22	0xbcd3fce9	-0.025877433
23	0xbdc629b1	-0.09675921
24	0x3949654f	0.00019206594
25	0x3ddf8928	0.10914832
26	0xbdaafae4	-0.08348635
27	0xbcf8bdb0	-0.030363888
28	0xbe05e52a	-0.130757
29	0x3d4d4882	0.050117977
30	0xbe456f5e	-0.19280764
31	0x3db206de	0.08692716
32	0xbdeddaae	-0.116139755
33	0xbe5d91e8	-0.2163769
34	0xbe568da5	-0.2095247
35	0x3e37b16a	0.17938772
36	0x3ddd483c	0.10804793
37	0xbd781dde	-0.06057536
38	0xbd196454	-0.037449196
39	0x3d877843	0.06614735
40	0xbe1e4e24	-0.15459496
41	0xbe64b68a	-0.22335258
42	0xbe164579	-0.14674939
43	0x3e40ad66	0.18816146
44	0xbe07f0b4	-0.13275415
45	0xbe25252e	-0.16127464
46	0xbe3fa177	-0.18713938
47	0xbe050e7f	-0.12993811
48	0x3e11a18d	0.14221783
49	0xbe679299	-0.22614516
50	0x3da7042e	0.08155094
51	0xbde32bd4	-0.11092344
52	0x3dd3cc59	0.103417106
53	0x3e3da52b	0.18520038
54	0xbd2f1ff5	-0.042755086
55	0x3e08a020	0.13342333
56	0x3e3fb92b	0.1872298
57	0x3d698a32	0.05701656
58	0xbe51a64d	-0.20473595
59	0x3e16a54d	0.14711495
60	0x3e54cd60	0.2078147
61	0xbdbec334	-0.09314576
62	0xbd4bee76	-0.04978796
63	0x3c4d2587	0.012521154

weight f4 [32, 64]
0	0xbdb34222	-0.08752848
1	0x3d8e6c47	0.06954246
2	0x3e579a4d	0.21054955
3	0xbf6531a2	-0.8952886
4	0xbdaeec2a	-0.085411385
5	0xbe0b30a5	-0.13592775
6	0xbcd1d15a	-0.025612522
7	0xbe056c52	-0.13029602
8	0xbdc801d6	-0.09765975
9	0xbe04a0b5	-0.1295193
10	0xbe8d040d	-0.27542153
11	0xbf6bb43c	-0.9207189
12	0xbfb6c5f6	-1.4279163
13	0x3e09dbd3	0.13462763
14	0x3e11bc5a	0.14232007
15	0xbd398446	-0.04529216
16	0xbd20da01	-0.039270405
17	0x3d9ab26d	0.07553563
18	0xbddf3ae5	-0.10899905
19	0xbe015ce3	-0.1263309
20	0xbdb3a4d8	-0.08771676
21	0xbe0d7318	-0.13813436
22	0xbdb8e2e1	-0.09027649
23	0xbdeaf23a	-0.11471982
24	0xbdc4e6aa	-0.09614308
25	0xbe88c710	-0.26714373
26	0xbdd5519e	-0.10415958
27	0xbdbd0522	-0.09229495
28	0xbe09c9bc	-0.13455862
29	0xbd094754	-0.03351529
30	0x3eb73076	0.3577916
31	0xbf760b5f	-0.961111
32	0xbe0dc6bd	-0.13845344
33	0xbe096881	-0.13418771
34	0xbe037e17	-0.12841068
35	0x3dabe360	0.08392978
36	0x3d8440ed	0.06457696
37	0x3da84771	0.08216751
38	0xbdab2513	-0.08356681
39	0xbcc1049d	-0.02356177
40	0xbde5bfea	-0.11218245
41	0xbe08a4a1	-0.13344051
42	0xbe0e3617	-0.13887821
43	0xbebf651a	-0.37381822
44	0xbdedbe58	-0.11608571
45	0xbdde9d30	-0.10869825
46	0xbdf44951	-0.119280465
47	0xbe0197d3	-0.12655573
48	0xbdb85794	-0.09001079
49	0xbef36488	-0.47537637
50	0xbd8dc56c	-0.06922421
51	0xbdc45672	-0.09586801
52	0x3d8efaf4	0.06981459
53	0xbec41dbf	-0.38303944
54	0xbdac280a	-0.08406074
55	0xbd938874	-0.07203761
56	0x3db47d9d	0.08813021
57	0xbd16c288	-0.036806613
58	0xbda73b47	-0.08165603
59	0xbdb9b16d	-0.090670444
60	0x3d927991	0.07152093
61	0xbecff2a3	-0.40614805
62	0xbddddc4d	-0.10833035
63	0xbdc8014b	-0.097658716
64	0xbdc2e32d	-0.095159866
65	0x3e13c382	0.14430049
66	0xbf2eaafa	-0.6822964
67	0xbd9872cd	-0.074437715
68	0xbdb85f4e	-0.09002553
69	0xbe21c606	-0.15798196
70	0xbe0ad65e	-0.13558337
71	0xbe1fd6b7	-0.15609251
72	0xbdb8e5ea	-0.090282276
73	0xbe2210ef	-0.15826772
74	0xbde1088d	-0.10987959
75	0xbd194721	-0.03742135
76	0x3df5bc70	0.11998832
77	0x3e0f2f4a	0.13982883
78	0x3e1c5002	0.15264896
79	0xbdf407e2	-0.11915566
80	0xbddd04b9	-0.107919164
81	0x3e1b02e3	0.1513782
82	0xbe1eb85d	-0.15500017
83	0xbe1b28c9	-0.15152277
84	0xbdb092f8	-0.08621782
85	0xbe213301	-0.15742113
86	0xbdc2f83e	-0.09520005
87	0xbe33c03e	-0.17553803
88	0xbd9c66a4	-0.07636765
89	0x3df5c523	0.120004915
90	0xbdea2676	-0.11433117
91	0xbdc2df91	-0.09515298
92	0xbe161fd4	-0.14660579
93	0xbe01201f	-0.1260991
94	0xbe0e68ac	-0.13907117
95	0x3ded5323	0.11588123
96	0xbe25204d	-0.16125603
97	0xbe20792c	-0.15671223
98	0xbe2af868	-0.16696322
99	0x3e1ba95a	0.15201321
100	0x3dfcc5f3	0.12342443
101	0x3db98187	0.090579085
102	0xbde9d74b	-0.11418017
103	0xbe0969bc	-0.1341924
104	0xbe32484b	-0.1741039
105	0xbe1a4300	-0.15064621
106	0xbe1815b1	-0.14852025
107	0x3e148267	0.1450287
108	0xbe273879	-0.16330136
109	0xbe1a3bc0	-0.15061855
110	0xbe2bcd6b	-0.1677758
111	0xbe1cf259	-0.15326823
112	0x3e0880e5	0.1333042
113	0x3dc23e63	0.094845556
114	0x3b4966f2	0.0030731526
115	0xbe03838d	-0.12843151
116	0x3e0008ef	0.12503408
117	0x3e191dee	0.14952824
118	0xbdbc659c	-0.09199068
119	0x3e0d2a5b	0.13785689
120	0x3e1b896b	0.1518914
121	0xbe042953	-0.12906389
122	0xbe15300f	-0.14569114
123	0x3e04874c	0.12942237
124	0x3e19b755	0.15011342
125	0xbee8102a	-0.45324832
126	0xbdd80d52	-0.10549416
127	0xbda9b7dd	-0.08287022
128	0xbd1e3a8a	-0.038630046
129	0x3e3be2aa	0.18348184
130	0x3f293bf0	0.6610708
131	0xbf9d7556	-1.2301433
132	0xbc94da8a	-0.018170614
133	0xbc3a4fc1	-0.011371554
134	0xbd87cbac	-0.06630644
135	0xbd442ac8	-0.047892362
136	0xbe0a4548	-0.13502991
137	0xbbb28588	-0.005448047
138	0xbe0e2eab	-0.1388499
139	0xbf93a861	-1.153576
140	0xbeb5367a	-0.35393125
141	0xbfd3ed26	-1.6556747
142	0x3d010298	0.031496614
143	0xbdc548ce	-0.09633027
144	0xbd531b30	-0.0515396
145	0x3e58ed46	0.21184263
146	0xbb672e24	-0.0035275305
147	0xbb43ee18	-0.0029896554
148	0xbcef1c74	-0.029188372
149	0xbd0b8ca1	-0.03406966
150	0xbd4daa84	-0.050211444
151	0xbce5cb29	-0.028050976
152	0x3c0e74c6	0.008694833
153	0xbf592023	-0.8481466
154	0xbe6480b0	-0.22314715
155	0xbd6b2fb9	-0.05741856
156	0x3bc0d92f	0.0058852653
157	0xbdb3b4f1	-0.08774746
158	0xbe045c5d	-0.12925859
159	0xbefce308	-0.4939196
160	0x3c89858a	0.01678731
161	0xbd0d98d5	-0.03456958
162	0xbcdcb6a6	-0.026942562
163	0x3e422faf	0.18963502
164	0xbf73a46c	-0.9517276
165	0x3ecc00c0	0.39844322
166	0x3b0dae7a	0.0021618889
167	0xbd80e7fe	-0.06294249
168	0xbd6382fd	-0.055544842
169	0xbcc234a8	-0.02370675
170	0xbcb08d63	-0.021551793
171	0x3db82fac	0.08993468
172	0xbcb43478	-0.021997675
173	0xbd03a5fb	-0.032140713
174	0xbc8b7afc	-0.017026417
175	0xbc584b87	-0.013201601
176	0xbfccc4f7	-1.5997609
177	0xbf91cfc4	-1.139153
178	0xbd956997	-0.0729553
179	0xbe5b41ef	-0.2141187
180	0xbf6e0489	-0.9297567
181	0x3d49a558	0.04922995
182	0xbc7af38e	-0.015316857
183	0xbf16ba64	-0.5887816
184	0x3e3abc28	0.18235838
185	0xbdb52eac	-0.088467926
186	0x3aec21d8	0.0018015457
187	0xbfbc86be	-1.472862
188	0x3e660ada	0.22465077
189	0xbf3b1859	-0.73084027
190	0xbb5f5c11	-0.0034081975
191	0x3b32fd44	0.0027311603
192	0xbb894d9e	-0.004190161
193	0x3be17ca9	0.0068813157
194	0x3d4e8cc6	0.05042722
195	0xbeda0fdf	-0.42590234
196	0xbb035065	-0.0020036933
197	0xbc170cb7	-0.00921934
198	0xbb273269	-0.0025512225
199	0x3b883867	0.0041571143
200	0x3b7d9d9e	0.0038698683
201	0xbc83ade8	-0.016074136
202	0xbd6dacd1	-0.05802614
203	0xbeef0b5c	-0.46688354
204	0xbd8160d2	-0.06317295
205	0xbc16b678	-0.009198777
206	0x3c1cb160	0.009563774
207	0x3c8d8358	0.017274544
208	0x3cd745d9	0.026278423
209	0x3c048fca	0.008090923
210	0xbb248517	-0.0025103742
211	0xbc0ffef1	-0.00878881
212	0xbb26fad5	-0.0025479097
213	0xbabab79c	-0.0014245394
214	0xbba2b914	-0.0049659107
215	0x3c75f782	0.015012624
216	0xbcf19ed4	-0.02949468
217	0xbd05876b	-0.032599848
218	0x3d805350	0.062658906
219	0xbbad3fa3	-0.005287127
220	0xbbfa4a4d	-0.007638252
221	0x3c17b723	0.009259972
222	0x3e72c371	0.23707367
223	0xbcff6927	-0.03117807
224	0xbc97e977	-0.018543942
225	0xbb4077f5	-0.0029368375
226	0xbaa78cdf	-0.0012783072
227	0x3c2955a1	0.010335357
228	0xbcb8a81d	-0.0225411
229	0xbdb921c7	-0.09039646
230	0xbb04f367	-0.002028668
231	0xbbce9426	-0.0063042818
232	0x3c2365fc	0.009973045
233	0xbc9963be	-0.018724319
234	0xbc084990	-0.00831832
235	0xbd7d4431	-0.06183261
236	0xb9cb51ad	-0.0003878003
237	0xbb6fca83	-0.0036589212
238	0x3bacc630	0.005272649
239	0xbcea00a4	-0.028564759
240	0xbc10169e	-0.008794455
241	0xbe6928ce	-0.22769472
242	0xbbd38977	-0.006455596
243	0x3d16b708	0.036795646
244	0xbcc04316	-0.023469489
245	0xbd7b7fae	-0.06140106
246	0xbb605df5	-0.003423569
247	0xbc7ce2aa	-0.0154349
248	0x3c2c1278	0.01050245
249	0x3c23f734	0.010007668
250	0x393d66bc	0.00018062716
251	0xbc4fa035	-0.012672474
252	0x3bdebd56	0.006797473
253	0xbea15cb1	-0.3151603
254	0xbaa79400	-0.0012785196
255	0xbc41496d	-0.011797291

bias f4 [32]
0	0x3dbd8235	0.09253351
1	0x3e4f095d	0.20218416
2	0x3e3a8a34	0.18216783
3	0xbcc68b24	-0.02423627
4	0xbe3ed2d8	-0.18635118
5	0xbce6e5d3	-0.02818576
6	0xbe2fac7d	-0.17155643
7	0x3c38c019	0.011276268
8	0x3d699d17	0.05703458
9	0xbbf7b7a0	-0.0075597316
10	0x3e099493	0.13435583
11	0x3db41260	0.08792567
12	0x3e03c74c	0.12868994
13	0xbdbb7f8b	-0.09155186
14	0xbc4b485c	-0.012407389
15	0x3e3e5c49	0.18589891
16	0x3dffb7f4	0.12486258
17	0xbe64e9a5	-0.22354753
18	0x3ddd6fe5	0.10812358
19	0xbdd8131e	-0.10550521
20	0x3db5fb8a	0.08885868
21	0xbe0e762a	-0.13912264
22	0xbd416492	-0.047215052
23	0xbe243bfa	-0.16038504
24	0x3e07da2d	0.13266821
25	0xbe40a7c4	-0.18813998
26	0x3d8e6326	0.06952505
27	0xbebc7615	-0.3680884
28	0x3e37e071	0.17956711
29	0xbd080263	-0.0332054
30	0x3e756796	0.23965296
31	0x3dd2bbbc	0.10289714

weight f4 [32, 1]
0	0x3efaff3e	0.4902286
1	0x3ecd17b7	0.40057155
2	0x3ea24273	0.31691322
3	0xbeb38099	-0.3505905
4	0x3ef4354c	0.47696912
5	0xbead6d17	-0.3387229
6	0xbe703621	-0.23458149
7	0x3e7f1565	0.24910505
8	0xbea70bd0	-0.326262
9	0x3e6a11a4	0.22858292
10	0x3e7a54b2	0.24446371
11	0x3e9940a5	0.29932132
12	0xbea46a2a	-0.32112247
13	0x3f004467	0.50104374
14	0xbe781a62	-0.24228814
15	0xbecbeec4	-0.398306
16	0x3ea3f6f8	0.3202436
17	0xbe870ec3	-0.2637845
18	0xbe765409	-0.24055494
19	0x3ebb976e	0.3663897
20	0xbeb53248	-0.35389924
21	0x3ef1fe82	0.47264487
22	0x3e99cf68	0.3004105
23	0x3ee62457	0.449496
24	0xbe5aaae3	-0.2135425
25	0x3ee22307	0.4416735
26	0x3f0253a9	0.50908905
27	0xbf7a02e4	-0.9766066
28	0xbe96129f	-0.29311082
29	0xbe7652c3	-0.24055009
30	0xbe6b93c2	-0.23005584
31	0x3e8dec90	0.27719545

bias f4 [32]
0	0xbea6472c	-0.32476175
1	0xbea52b00	-0.3225937
2	0xbf00def0	-0.50340176
3	0x3eab6a17	0.33479378
4	0xbea5ec7e	-0.32406992
5	0x3ea6063b	0.32426628
6	0x3f300a4b	0.68765706
7	0xbe52a6e9	-0.20571484
8	0x3ef97a27	0.48726007
9	0xbf3525f0	-0.70761013
10	0xbf28c807	-0.6593022
11	0xbf08f62b	-0.5350062
12	0x3e9d7a1b	0.30757222
13	0xbe4a3050	-0.19744992
14	0x3e6a3db1	0.22875096
15	0x3ec308fa	0.38092786
16	0xbefee30b	-0.49782595
17	0x3f1b2066	0.6059631
18	0x3e68cd85	0.2273465
19	0xbedd54e2	-0.43228823
20	0x3ead0939	0.337961
21	0xbd79ee35	-0.061018188
22	0xbeb10580	-0.3457451
23	0xbd6fb425	-0.05852141
24	0x3e4733fd	0.19453426
25	0xbe9aea6d	-0.30256978
26	0xbeb121dd	-0.34596148
27	0x3e7001a2	0.23438123
28	0x3e8890dc	0.2667302
29	0x3e600b44	0.21879297
30	0x3f339130	0.70143414
31	0xbf13f36b	-0.577933

weight f4 [64, 32]
0	0x3e8e20cf	0.27759406
1	0x3e1959b6	0.14975628
2	0x3c757be5	0.014983152
3	0xbf22824b	-0.6348006
4	0x3eedf8a6	0.46478766
5	0xbf5bfca7	-0.8593239
6	0x3c1b1b81	0.009467007
7	0x3fd6720c	1.6753554
8	0xbccee755	-0.025256792
9	0xbc5a00fc	-0.013305899
10	0xbc0f4b97	-0.008746049
11	0x3c0acdb0	0.008471891
12	0xbf6a46fd	-0.9151457
13	0x3ef53eec	0.47899568
14	0xbfc27312	-1.5191367
15	0xbe56c33d	-0.20972915
16	0x3c84953e	0.016184445
17	0xba12867f	-0.00055894995
18	0xbfa66773	-1.300032
19	0x3d155d00	0.036465645
20	0xbf13e001	-0.5776368
21	0x3ed357ed	0.4127802
22	0x3e73228f	0.23743652
23	0x3edbd7d1	0.42938092
24	0xbfc68651	-1.550974
25	0x3f4c80c6	0.7988399
26	0x3e977b90	0.29586458
27	0xbe8fa33e	-0.2805423
28	0xbfda4cfb	-1.7054743
29	0xbfca1a59	-1.5789291
30	0x3c32691b	0.010889317
31	0x3a9f0d9e	0.0012134796
32	0x3e881c2f	0.26584002
33	0x3e106372	0.14100435
34	0x3dd6ce3d	0.104885556
35	0xbe1120df	-0.14172696
36	0x3e992b66	0.29915923
37	0xbe151821	-0.14559986
38	0xbe12bd10	-0.14329934
39	0x3e120ae1	0.14261962
40	0xbe0e976e	-0.13924953
41	0x3def1536	0.116739675
42	0x3deb0bc3	0.11476853
43	0x3ddc65da	0.10761614
44	0xbe1926f9	-0.14956273
45	0x3ea19dcb	0.315657
46	0xbe06f2cc	-0.13178557
47	0xbe0807db	-0.13284247
48	0x3dd6059c	0.10450289
49	0xbe11ed7a	-0.14250746
50	0xbe0a0598	-0.13478696
51	0x3dc729c1	0.09724761
52	0xbe100d1d	-0.14067502
53	0x3c6e7f73	0.014556753
54	0x3da83e85	0.0821505
55	0x3c25ab83	0.010111692
56	0xbe02cabb	-0.12772648
57	0x3e473317	0.19453083
58	0x3e814e91	0.25255254
59	0x3f21832e	0.6309079
60	0xbe00f194	-0.12592155
61	0xbe01cda8	-0.12676108
62	0xbe12be2e	-0.1433036
63	0x3de22c73	0.11043634
64	0x3cb968f2	0.02263305
65	0xbd193edd	-0.037413467
66	0x3c8382e1	0.016053619
67	0x3c78bcdb	0.015181745
68	0x3de15a21	0.11003519
69	0x3ca9687c	0.020679705
70	0xbc02ab17	-0.007975361
71	0xbe488426	-0.1958166
72	0xbb457f1a	-0.0030135573
73	0x3c8bfdf9	0.017088877
74	0x3c8a6014	0.016891517
75	0x3c86ee43	0.016471034
76	0x3ce287ef	0.027652709
77	0x3e132591	0.14369799
78	0x3d3c91b0	0.046037376
79	0x3c0b6893	0.008508819
80	0x3c830ee7	0.015998317
81	0xbbda7318	-0.0066665523
82	0x3d3d3128	0.046189457
83	0x3c705c96	0.014670512
84	0x3c68a68b	0.014199863
85	0xbe014a4b	-0.12625997
86	0x3c8ca604	0.017169006
87	0xbe39422c	-0.18091649
88	0x3d584f3e	0.052809946
89	0x3e7561f4	0.23963147
90	0x3d5860a1	0.052826528
91	0xbe3be871	-0.18350388
92	0x3d1bcc00	0.038036346
93	0x3d41db1f	0.04732811
94	0xbc05196d	-0.008123738
95	0x3c882390	0.01661852
96	0xbd34de65	-0.044157404
97	0xbcaa53c3	-0.020791894
98	0xbde7d61f	-0.11320137
99	0x3c833546	0.016016614
100	0x3b7a8e19	0.003823167
101	0xbd153159	-0.036424015
102	0x3e05e601	0.13076021
103	0x3ec2bb44	0.38033497
104	0x3dec31d8	0.115329444
105	0xbe018234	-0.12647325
106	0xbdfd7fbd	-0.1237788
107	0xbdecd717	-0.11564463
108	0xbdb9aefd	-0.090665795
109	0xbdae2ddd	-0.085048415
110	0xbe9cc90d	-0.3062214
111	0x3dc5ea10	0.096637845
112	0xbde6c632	-0.112682715
113	0x3e008e08	0.1255418
114	0xbe9c4978	-0.30524802
115	0xbdd9c5f1	-0.106334575
116	0x3ce6948a	0.028147
117	0x3eec387b	0.4613684
118	0xbd7a7b56	-0.06115278
119	0x3ec14de8	0.3775475
120	0xbe97e10e	-0.2966389
121	0x3eb7f1e7	0.35926744
122	0xbcd82f1c	-0.026389651
123	0xc06dae82	-3.713776
124	0xbea42833	-0.3206192
125	0xbe9e5963	-0.30927572
126	0x3e06b569	0.1315514
127	0xbdf34ff1	-0.11880482
128	0x3e0a6907	0.13516627
129	0x3dbd2df7	0.09237283
130	0x3d159b03	0.036524784
131	0xbd798b31	-0.06092376
132	0x3e49dcb1	0.19713093
133	0xbda0a0f8	-0.07843202
134	0xbcf9571e	-0.030437049
135	0xbe5918ca	-0.21200863
136	0xbd1375fb	-0.036001187
137	0x3d0ce300	0.03439617
138	0x3d0ee62f	0.03488749
139	0x3d14b619	0.036306474
140	0xbdad57ef	-0.084640376
141	0xbdf70a21	-0.12062479
142	0xbe539eba	-0.20666018
143	0xbd139cfd	-0.036038388
144	0x3d151246	0.03639438
145	0xbd053288	-0.032518893
146	0xbe4dcd29	-0.20097794
147	0x3d143e77	0.036192384
148	0xbd6515a5	-0.055928845
149	0x3e12b337	0.14326178
150	0x3d3259a6	0.043542527
151	0x3da1bf85	0.078978576
152	0xbe5254fe	-0.20540234
153	0x3e8d6579	0.2761648
154	0x3e1151bb	0.14191334
155	0xbf65f211	-0.8982249
156	0xbe66a322	-0.22523168
157	0xbe60076f	-0.21877836
158	0xbcf614d4	-0.030039228
159	0x3d13630e	0.035983138
160	0x3e1598a3	0.14609008
161	0x3e03d15f	0.12872837
162	0x3dae0bbb	0.08498331
163	0xbdd1ee52	-0.10250534
164	0x3e1d1574	0.15340215
165	0xbde580e1	-0.11206222
166	0xbdb61701	-0.088911064
167	0x3e7e67f7	0.24844347
168	0xbdb7c5b6	-0.08973257
169	0x3db0e853	0.08638062
170	0x3db0ec88	0.08638865
171	0x3daf3a4c	0.08556041
172	0xbdf5fe14	-0.12011352
173	0xbb605c14	-0.003423457
174	0xbe1530ef	-0.14569448
175	0xbda39305	-0.07987026
176	0x3dada026	0.084778115
177	0xbdb78ac4	-0.08962014
178	0xbe1fc795	-0.15603478
179	0x3da82ef7	0.08212083
180	0xbdcbb68e	-0.09946929
181	0x3dafe665	0.08588866
182	0x3db915e6	0.0903738
183	0x3d8b4089	0.067994185
184	0xbe16ecf2	-0.14738825
185	0x3e06e317	0.13172565
186	0x3e063529	0.13106216
187	0x3df3df31	0.11907805
188	0xbe1b4d3c	-0.15166181
189	0xbe172aef	-0.14762472
190	0xbdb59178	-0.088656366
191	0x3db05e0f	0.0861169
192	0x3d9af295	0.075658
193	0xbc3119e7	-0.010809398
194	0x3c966381	0.018357994
195	0xba800737	-0.0009767775
196	0x3d9b29e7	0.075763516
197	0xbb935603	-0.0044963374
198	0xbc1af55d	-0.009457913
199	0xbe96245f	-0.29324624
200	0xbb9916e1	-0.004671917
201	0x3cb0e80d	0.021595025
202	0x3cad53ad	0.021158064
203	0x3c9d3f4e	0.019195225
204	0xbc1dcd94	-0.009631533
205	0x3e517207	0.20453654
206	0xbd08a643	-0.033361685
207	0x3b6263f2	0.0034544435
208	0x3c94ee40	0.018180013
209	0xbc0afe81	-0.00848353
210	0xbd0c058f	-0.03418499
211	0x3c77ccda	0.015124524
212	0xb95dd0cd	-0.00021153987
213	0xbc16bbe7	-0.009200073
214	0x3bfd6034	0.0077324156
215	0xbd957b3e	-0.07298897
216	0xbd241b33	-0.040065
217	0x3d06ebd6	0.032939754
218	0x3d797562	0.06090296
219	0xbe855bce	-0.26046604
220	0xbca409ba	-0.02002417
221	0xbd01a2e1	-0.031649474
222	0xbc1cf363	-0.009579512
223	0x3ca68a3f	0.020329593
224	0xbf61d8c6	-0.88221395
225	0xbd88bcae	-0.06676613
226	0xbd3baedb	-0.045821052
227	0x3ddb98b5	0.10722486
228	0xbfd5fafe	-1.6717222
229	0x3e019274	0.12653524
230	0x3d3c7444	0.046009317
231	0x3e8c70cd	0.2742981
232	0x3d541a6b	0.051783007
233	0xbd288c17	-0.041149225
234	0xbd2c5764	-0.04207553
235	0xbd38341e	-0.044971578
236	0x3e11af8d	0.14227124
237	0x3e000582	0.12502101
238	0x3e6566fb	0.22402565
239	0x3d831ee3	0.064023755
240	0xbd3be867	-0.045875933
241	0x3d44f1b7	0.04808208
242	0x3e662141	0.22473623
243	0xbd429a61	-0.04751051
244	0x3dd0a97b	0.10188576
245	0xbdec4518	-0.11536616
246	0xbd9946bf	-0.07484197
247	0xbd046364	-0.03232135
248	0x3e52ce11	0.2058642
249	0xc0364629	-2.8480322
250	0xbf94de05	-1.1630255
251	0x3fc9f71b	1.5778536
252	0x3e704e81	0.23467447
253	0x3e5dd8b3	0.21664695
254	0x3d3b0cb0	0.045666397
255	0xbd338bfc	-0.04383467

bias f4 [64]
0	0x3d2c092f	0.042000946
1	0xbdd6ac5d	-0.104820944
2	0xbdb6b33c	-0.08920905
3	0x3da17ede	0.07885526
4	0xbe097d00	-0.1342659
5	0xbd891905	-0.06694225
6	0xbe196a84	-0.14982039
7	0x3c7d8a4c	0.015474867
8	0xbd9df8f0	-0.07713497
9	0x3dab48ab	0.0836347
10	0xbdc1b3da	-0.09458132
11	0xbe20cffd	-0.15704341
12	0xbdf10d16	-0.11770074
13	0xbddeb0f1	-0.10873593
14	0x3d9cca22	0.07655741
15	0xbd9d466f	-0.0767945
16	0x3d8566b8	0.06513733
17	0xbdb04248	-0.08606392
18	0x3db94892	0.09047045
19	0xbde54656	-0.11195056
20	0xb949ded0	-0.00019251858
21	0xbde7f161	-0.11325336
22	0xbe13d8ac	-0.14438123
23	0xbdb02233	-0.08600273
24	0x3d669256	0.0562919
25	0xbe0eea7e	-0.13956639
26	0xbda30bff	-0.079612724
27	0xbd5404d2	-0.05176241
28	0x3d763607	0.06011012
29	0xbdc403c5	-0.095710315
30	0x3d939fc5	0.07208208
31	0xbdddb8f2	-0.10826291
32	0xbd8f23a0	-0.06989217
33	0xbd3de581	-0.04636145
34	0x3dae0404	0.0849686
35	0x3d3375e6	0.04381361
36	0x3e22fa22	0.1591573
37	0x3c92555b	0.017862966
38	0xbd772aff	-0.06034374
39	0x3d0b06bc	0.03394197
40	0x3e1f1817	0.15536533
41	0xbd93aaf8	-0.07210344
42	0x3d8612e8	0.06546575
43	0xbd8feb5b	-0.07027312
44	0x3e20157b	0.15633194
45	0x3d546780	0.051856518
46	0xbc1dbe1d	-0.009627846
47	0xbd11fb3a	-0.03563998
48	0xbde3a01e	-0.11114524
49	0xbdf07ed6	-0.11742942
50	0xbdf768e8	-0.12080556
51	0xbdfc6f78	-0.123259485
52	0xbdd63ea2	-0.10461165
53	0xbda9b7e8	-0.082870305
54	0xbe468675	-0.19387229
55	0x3ccb339d	0.024804885
56	0xbcfaa208	-0.03059484
57	0x3d984540	0.074350834
58	0x3d99cd8f	0.0750991
59	0xbddaf7f4	-0.106918246
60	0xbddc70f1	-0.10763729
61	0xbd1bf6e7	-0.03807726
62	0x3dcb1540	0.099161625
63	0xbda3966a	-0.079876736
