checkpoints/credit_honam2_emb32_3.pt (torch, 657266 bytes, 362 tensors)

weight f4 [32, 1]
00000000: 01fe a2bc 449d a2bc de38 a3bc 9481 a0bc
00000010: 3dce 9abc 9217 a4bc 6ff7 a0bc 80af a13c
00000020: 4659 be3c c010 91bc 0d09 8cbc 3e38 a2bc
00000030: 71a8 c23c d15c 99bc 4ad1 a1bc a824 9abc
00000040: 72fc 90bc c3a6 c13c 66f1 c03c 075c 9ebc
00000050: 1b0b 91bc 0ff9 c03c 883f c03c 1863 bf3c
00000060: 6a9c 9cbc dc84 c13c 2ac0 c13c 1f75 9fbc
00000070: 2909 c13c 2842 b63c 0f3e a2bc a8e9 9ebc
-0.01989651 -0.01985038 -0.019924577 -0.019593038 -0.01889717 -0.02003077 -0.019649236 0.019737005
0.023235928 -0.017708182 -0.01709416 -0.019802209 0.02376196 -0.018721016 -0.019753117 -0.018816307
-0.0176985 0.023639088 0.023552608 -0.019330991 -0.01770549 0.02355626 0.023467794 0.023362681
-0.019117553 0.023622923 0.023651201 -0.019465027 0.023563938 0.022248343 -0.019804982 -0.019398525

bias f4 [32]
00000000: 2351 34bf 0b51 61bf b495 59bf 0d26 f3be
00000010: aead 7abe cc80 79bf 9fe2 e6be 2979 e4b9
00000020: cfbd 163e ff28 febd 75ae bfbd 6a33 22bf
00000030: 79b9 fd3e 0114 64be 5db0 2abf 2e14 64be
00000040: 4083 f6bd 275d 683f dd14 013f 78d7 c5be
00000050: ff07 fbbd 66e7 5d3f 5d12 203f 63bd 6d3e
00000060: 18b2 aebe 62a8 503f 7cc3 d23e a529 dbbe
00000070: 5b62 313f 6a70 543d 7603 39bf 8916 dabe
-0.70436305 -0.88014287 -0.84994054 -0.47489968 -0.24480316 -0.97462153 -0.45094773 -0.0004357782
0.14720844 -0.12410163 -0.09359447 -0.633597 0.49555567 -0.22273256 -0.6667536 -0.22273323
-0.12036753 0.9076714 0.5042246 -0.38640952 -0.122573845 0.8668121 0.6252802 0.23216777
-0.3412025 0.8150693 0.41164768 -0.4280521 0.69290704 0.05186502 -0.72270906 -0.42595318

weight f4 [64, 32]
00000000: 9107 483c 13af 4c3c 2b08 4c3c 6e36 3f3c
00000010: 9a1a 293c 1749 4f3c b807 3e3c a84c 90bb
00000020: 1e3e 47bc dab7 093c a332 f23b 0976 453c
00000030: 6a62 56bc 64cf 253c f994 463c fc0a 253c
00000040: 3f4c 073c 4969 58bc 6d21 57bc e251 3b3c
00000050: dd3e 093c 8894 58bc 4b42 57bc 6639 4ebc
00000060: 8089 343c 9bcd 59bc af6d 53bc 6501 3e3c
00000070: 22cc 56bc 6144 2bbc 67ff 483c e485 3c3c
00000080: 485b 163b efcd 183b 3640 1d3b c98f ef3a
00000090: 62a4 3f3a 1147 1f3b 6bce ed3a 82a9 7e3c
000000a0: 76e0 2bb9 bd70 90ba fc08 02bb 1ee5 0b3b
000000b0: 47ed 0dbb 577a f539 abdf 143b 9b9c 033a
000000c0: 2fd0 9aba 0a35 23bb 449b 0dbb 9a04 c03a
000000d0: 2768 8cba 8cc2 21bb 0b44 11bb 9a08 90ba
000000e0: d641 bd3a a7cf 21bb 14ec 01bb 0d58 e83a
000000f0: 54d7 1cbb d1df 503b 24e7 0f3b c03a e53a
00000100: 09cb 9d3b 989f 853b 0283 863b fb99 b83b
00000110: 0652 cd3b 3295 6d3b c0e5 bd3b 2b15 50bb
00000120: 3f1c f83b 8315 c63b df1a ba3b 8c32 a33b
00000130: a284 323c 667c cd3b 4c0a a03b 262b cf3b
00000140: 6716 c53b e00b 3f3c baef 333c 3a55 c33b
00000150: 175a c23b 4c3b 3e3c 37f6 383c e62c 143c
00000160: cca4 cb3b 078a 3d3c 663e 2c3c 54a5 c13b
00000170: 91ef 3a3c e39f 753b 087a 973b 9922 c23b
00000180: a6cc 933b 5dc5 753b a10e 7f3b 8d0d b03b
00000190: cf86 c93b 4527 623b 481d b63b 0dc0 1ebb
000001a0: 44e4 0e3c 899e c23b ed83 b43b 6cc3 9b3b
000001b0: eb19 433c 3cf3 c83b ba27 983b 1569 ca3b
000001c0: 21ae bf3b 4396 533c 521d 433c d20c be3b
000001d0: af91 c23b f6e2 513c 10e2 493c 5bf6 273c
000001e0: ed25 c23b 5f2d 513c 6ff5 3d3c 8cd9 b83b
000001f0: 1cd3 4b3c d7ca 983b aa37 913b 0472 b83b
00000200: 64f3 1f3c 8ed2 233c dfab 223c bd82 183c
00000210: a425 023c 195e 253c 0a5e 163c fc68 a5ba
00000220: f73f 16bc 9f76 cc3b 8056 ab3b 89b5 1e3c
00000230: 858b 29bc 20a0 fd3b 70de 1d3c 7e62 013c
00000240: 2a50 c73b 842e 2dbc 4def 29bc f7ae 103c
00000250: 873d ca3b 130b 2bbc e4f2 29bc 635d 21bc
00000260: 3d92 0f3c b300 2abc 50b5 27bc 2fb1 153c
00000270: 719a 2bbc 0eec f1bb 84ed 1f3c a75b 133c
00000280: 3def 823b c112 563b 6434 5e3b 00ff a73b
00000290: e72d c63b b5f8 353b 984b ad3b 5365 5dba
000002a0: d5f0 2f3c 016e bc3b 8dd4 b23b 5a48 913b
000002b0: 048b 633c c9fb c23b 7e37 8c3b bcaf c83b
000002c0: 0c00 c03b ecff 703c 3254 633c d42a b23b
000002d0: 1119 bd3b 1d6c 6f3c 8ac7 693c c244 493c
000002e0: 3233 b83b a469 6f3c 6b75 5d3c 7f29 af3b
000002f0: 8348 6a3c e0b2 db3b 6452 833b 0ce1 ad3b
00000300: 005e 843b ba51 553b 3e2b 593b af66 a73b
00000310: d23c c53b a117 393b 9a9a a93b 224e 22ba
00000320: 8dd1 373c acce bf3b 7ffa b23b 28b4 8d3b
00000330: 3724 743c ff5f c43b 65c7 873b 1dad c53b
00000340: 6f03 bd3b 182d 823c c5c9 733c 18a0 b13b
00000350: 4c2b bb3b 611a 823c 32da 7b3c 9f55 533c
00000360: 2ed7 ba3b fdc5 803c e41b 6e3c 6b1c ad3b
00000370: d12a 803c 7551 e03b 0ba4 7d3b b24f ae3b
00000380: 8ce5 e33a 855f 013b 3c2b f53a ff47 a73a
00000390: d77e 74b7 d7da 0c3b f454 973a 0a45 873c
000003a0: bf5a 2e39 e43b e6ba 5824 3dbb e85c e83a
000003b0: 95e2 f0ba bcaa 57b8 e931 ec3a e4ae 17b9
000003c0: f2e8 00bb 1c1f 18bb 7ea5 03bb ec27 6d3a
000003d0: 85a6 f1ba 5faf 1bbb a493 0dbb 2553 5fba
000003e0: 99db 503a e4c1 1abb 09c8 d5ba 8c2f 9a3a
000003f0: 0ddd 0fbb ef84 6a3b cbc4 e13a 5860 953a
0.012208835 0.012492913 0.012453119 0.011670692 0.010321284 0.012651703 0.01159852 -0.0044036694
-0.012160806 0.00840565 0.0073912903 0.012052068 -0.013084987 0.010120247 0.012120479 0.01007342
0.008257925 -0.013208696 -0.013130528 0.011433097 0.008376804 -0.013219006 -0.013138364 -0.012586927
0.011019111 -0.013293649 -0.012904569 0.011597012 -0.0131101925 -0.0104533145 0.012267924 0.011506531
0.0022942591 0.0023316105 0.0023994572 0.0018277104 0.0007310567 0.0024303833 0.0018143182 0.0155433435
-0.00016391449 -0.0011019927 -0.001984178 0.0021346281 -0.002165632 0.00046821192 0.0022716324 0.00050205895
-0.0011811311 -0.002490344 -0.0021607438 0.0014649809 -0.0010712192 -0.002468261 -0.00221658 -0.0010988892
0.0014439176 -0.002469042 -0.0019824551 0.0017726436 -0.0023932057 0.0031871686 0.002195784 0.0017488822
0.0048154634 0.004077863 0.004104973 0.0056335903 0.0062658815 0.0036252257 0.0057952106 -0.0031750898
0.0075717266 0.006045045 0.005679473 0.004980391 0.01089588 0.006270933 0.00488404 0.0063222824
0.0060146335 0.011660546 0.010982448 0.0059610875 0.0059311497 0.011610817 0.011289171 0.009043908
0.0062147137 0.011568553 0.010512924 0.005909601 0.011409656 0.0037479333 0.0046227016 0.0059245345
0.00451048 0.003750167 0.0038918632 0.005372709 0.0061501036 0.003450827 0.00555769 -0.0024223358
0.008721415 0.005939309 0.005508891 0.0047535207 0.011908035 0.0061325114 0.0046434077 0.0061770775
0.005849615 0.012914243 0.011908846 0.005799868 0.005937777 0.012810459 0.012321964 0.010251607
0.0059249313 0.012767165 0.01159416 0.005641168 0.012440469 0.0046628523 0.0044316845 0.005628826
0.009762619 0.009998931 0.009928673 0.009308514 0.007943545 0.010093235 0.009177694 -0.0012619789
-0.009170524 0.0062397267 0.0052288175 0.009686836 -0.010348205 0.0077400357 0.009635553 0.0078970175
0.0060825543 -0.010570172 -0.010371995 0.008830777 0.0061718854 -0.010439652 -0.010372851 -0.009848925
0.008762893 -0.010376143 -0.010236099 0.009136482 -0.010473833 -0.0073828762 0.009761218 0.00899402
0.0039958046 0.0032664987 0.003390574 0.005126834 0.0060479525 0.002776665 0.0052885525 -0.00084455794
0.010738571 0.005750418 0.005457467 0.004433674 0.013888124 0.0059504253 0.004279076 0.006124465
0.0058593806 0.014709454 0.013875054 0.0054372344 0.0057708104 0.014613179 0.014268765 0.01228446
0.0056213373 0.014612589 0.013516764 0.005345523 0.014299515 0.006704673 0.0040076245 0.0053063687
0.004039526 0.0032549934 0.0033137347 0.0051086764 0.0060192132 0.0028242844 0.0051759006 -0.0006191452
0.011219394 0.0058534946 0.0054619904 0.004324455 0.014901212 0.005992889 0.0041436427 0.0060325996
0.0057682316 0.015890643 0.014879649 0.005420696 0.0057119485 0.015881719 0.015371846 0.012898832
0.005701921 0.015719408 0.014533017 0.0052829287 0.015645416 0.006845648 0.0038702514 0.005319559
0.0017387136 0.0019740772 0.0018704901 0.0012762545 -1.45730655e-05 0.0021492743 0.0011545704 0.016512413
0.00016627739 -0.0017565456 -0.0028860774 0.0017727884 -0.0018378074 -5.1419003e-05 0.0018020245 -0.00014465634
-0.0019670096 -0.0023211902 -0.0020087655 0.00090467813 -0.0018436468 -0.0023755652 -0.0021602893 -0.00085191644
0.0007967293 -0.0023614103 -0.0016310225 0.0011763438 -0.0021951825 0.00357848 0.0017224787 0.001139651

bias f4 [64]
00000000: c338 f73d 8fee f73b 3d0b aebd a873 c8bd
00000010: ace7 a43d 5874 21be c2bd 23be 80c9 d53b
00000020: e417 dc3d 0923 1ebe 37fe bf3d 9d87 a6bc
00000030: 29b5 cb3c 71b2 5ebd abbf cabd 26bc 21be
00000040: 0069 7c3d ed79 e13c 8179 233e 32f8 963c
00000050: 4614 b43d c0c6 013e 96ac d73d 6dfb ac3c
00000060: 8af3 033e 94c5 62bc ae2c 163e 981f d6bd
00000070: fc31 2fbd 2a7e b3bd c260 fe3d 572c 16be
00000080: b7bc 223e c44d 73bd 5197 fdbd 7ad7 b3bd
00000090: 026f 95bd 2f30 abbd 5d29 03be a243 1a3e
000000a0: 13da 61bc add7 43bd 45f2 94ba 0a67 80bd
000000b0: b252 113e d6a0 cf3c 007e 873d 6103 983d
000000c0: 8ad2 803c 8494 053e 335d 92bb 781a 71bd
000000d0: e231 7bbd 3e9f 2c3d 643b b43b 5f90 823d
000000e0: 09a5 dbbd ccbc e0bd a271 11be 3b07 bdbd
000000f0: aaf8 723d 5dc3 b4bc d633 94bc cb4f e03c
0.12071373 0.00756628 -0.08498237 -0.09787685 0.080520004 -0.15767038 -0.15990356 0.006524265
0.10746744 -0.15443052 0.093746595 -0.020328337 0.024866657 -0.054369394 -0.09899839 -0.15794429
0.061623573 0.027523959 0.15964319 0.018428896 0.08792929 0.12673473 0.10530965 0.021115983
0.12885872 -0.013841052 0.14665481 -0.10455245 -0.04277228 -0.08764298 0.12420799 -0.14665352
0.15892301 -0.059400335 -0.12382377 -0.08781333 -0.07296564 -0.083588 -0.12808748 0.15064862
-0.013784903 -0.047813106 -0.0011363706 -0.06269653 0.14191702 0.025345247 0.066158295 0.074225195
0.015725393 0.13044935 -0.0044666766 -0.058863133 -0.06132687 0.042144053 0.005500244 0.06375193
-0.10724837 -0.1097351 -0.14203504 -0.09229895 0.059319176 -0.022065813 -0.018091124 0.027381798

weight f4 [32, 64]
00000000: 4b48 05bc 6da0 18b8 a9ab 383c 09b3 3d3c
00000010: 7190 e0bb 40ac 4f3c 62c2 513c ee3b fa39
00000020: 7c29 fabb 5f23 503c 8d33 ffbb 1cf2 42ba
00000030: 37e9 a5bb 7408 2d3c 27f5 3d3c 82a9 513c
00000040: 1ce4 cbbb 59b5 d8bb 2e65 1ebc f5fc b2bb
00000050: 8795 e2bb ae69 0abc 28e7 04bc 515b 60bb
00000060: 3acc 0abc f501 1f3c 7dec 16bc 5ce4 3e3c
00000070: 57c8 273c 4d1c 383c 4721 07bc 8711 4e3c
00000080: 3b7c 1abc 8ee3 2e3c bf7a 453c 72d5 383c
00000090: 196b 343c 05a0 393c 9aa4 463c 0aae 16bc
000000a0: dd1d 413c bf14 2a3c 9a20 203c 41c5 2f3c
000000b0: 3a78 11bc fe1a d9bb f9d0 f4bb f9a9 d6bb
000000c0: e7f0 aebb 4d57 11bc 907b 273b 829e 303c
000000d0: c999 303c 90ae c4bb 7e69 16bb 091c cebb
000000e0: c96d 3f3c 1c6e 413c 5728 4a3c 2c17 3b3c
000000f0: 6c1c f5bb 1cd5 163c e120 223c ce07 acbb
00000100: 33a0 3f3c 881a 293c 8b2a 33bc c5f9 37bc
00000110: 5d53 323c 6343 4abc 157e 48bc 5fee 283c
00000120: 645f 3b3c 2c43 46bc 0672 323c b6ba 183d
00000130: f619 283c df3a 24bc 04fe 39bc 5e24 4bbc
00000140: 5ac3 2c3c 8754 233c a21f 453c 2196 253c
00000150: 29d6 353c 53b6 3f3c 0bcb 353c de50 283c
00000160: b733 413c 4ab3 31bc f391 413c 8cdb 38bc
00000170: 84fd 20bc eaef 38bc fdc7 3f3c d3b0 47bc
00000180: 4a4d 483c 98ba 2cbc dd6c 3fbc 6c61 38bc
00000190: 283b 34bc 4cb6 31bc 8a95 40bc 562a 453c
000001a0: 8701 10bc 60c8 29bc c7fe f8bb 8c84 2abc
000001b0: 6fd7 433c 4340 233c 1a6c 2c3c 91c6 323c
000001c0: da98 233c 30d9 3b3c c30d 853b fe23 27bc
000001d0: d918 2abc c7b0 2e3c 2f6a 223c 5027 2f3c
000001e0: fa05 3bbc 397a 3fbc 8c74 44bc 8eb2 33bc
000001f0: 1c2d 2b3c 346d a7bb 017d 363b 3d15 2a3c
00000200: c7ba 82bc 53b7 73bc 1d9a 743c 7b55 753c
00000210: bb9b 7dbc bc68 7d3c d1ed 7c3c 1e4f 73bc
00000220: 40be 80bc 74d8 7b3c 86f6 7abc fa43 0e3c
00000230: 6d68 7dbc 0ab6 763c 408f 783c 40e4 7e3c
00000240: 31a6 7dbc c8e8 70bc 87d1 83bc cbd7 6ebc
00000250: 91c1 7ebc 1d40 82bc 5197 7dbc ebe6 79bc
00000260: a015 83bc cdb1 6c3c 8f4b 82bc b4e3 783c
00000270: 0c43 6f3c 2637 783c 5225 83bc 575c 7c3c
00000280: 1ee1 84bc 694b 743c 270a 793c 34fc 763c
00000290: 86bb 773c c024 753c 25d9 783c fe6a 84bc
000002a0: 227c 653c 8326 743c 9863 4a3c be44 703c
000002b0: 6e71 84bc b6fe 6fbc b27a 77bc 8a4c 7fbc
000002c0: 0e1b 6dbc f279 81bc 79ef 9ebb 277e 723c
000002d0: d3d8 723c 345f 7bbc 673d 6bbc 2466 7ebc
000002e0: 8170 773c f8ac 7a3c 36bc 7c3c e5c3 743c
000002f0: 494e 76bc 279d 673c d449 553c fd7c 7bbc
00000300: 4bcd 973b b835 da3b 6eab 8bbb d36a 8dbb
00000310: b6c8 8a3b b7e1 acbb 0a18 acbb a32b df3b
00000320: d47e 923b 5ce7 a7bb 8ef0 883b f0ee 063d
00000330: 79f8 963b 17d8 59bb b054 97bb 10a5 b1bb
00000340: 089d 843b b4d5 a13b 4510 a53b 1f1e d03b
00000350: 5b5f 8e3b c369 9f3b 26df 8a3b 123e a53b
00000360: 94ef 9d3b 0e98 cfba ac45 9f3b b54c 90bb
00000370: 7329 45bb c523 92bb f003 9d3b 050e abbb
00000380: e65c ad3b 0564 86bb fdf4 9cbb 6fd8 8fbb
00000390: ec80 8abb 3035 89bb f058 9ebb 48f9 a83b
000003a0: 480c 11bb cf3d 7cbb bd3d c5ba bc50 81bb
000003b0: 9596 a23b f7b5 af3b 8f5a 8e3b 492a 853b
000003c0: 138f d53b c693 973b 31ac a83b a4a7 80bb
000003d0: 83c9 81bb 39e6 923b 8f93 fc3b f393 823b
000003e0: 6c4b 92bb d1e6 9bbb 1f90 a9bb a255 8bbb
000003f0: 0313 8f3b f208 863b 90e8 633c 9a9f 923b
-0.008134912 -3.6389032e-05 0.011271396 0.01157833 -0.0068531563 0.012675345 0.012802692 0.00047728367
-0.00763434 0.012703746 -0.0077881278 -0.000743659 -0.0050632018 0.010561097 0.011594093 0.0127967615
-0.006222261 -0.006613415 -0.009667678 -0.0054622837 -0.0069147977 -0.008448048 -0.008111753 -0.0034234116
-0.008471543 0.009705056 -0.009211657 0.011651125 0.010240636 0.011237216 -0.00824768 0.012577421
-0.009429033 0.01067437 0.012053191 0.011281358 0.011011862 0.011329656 0.012124205 -0.009196768
0.011786905 0.010380923 0.009773398 0.010728181 -0.008878762 -0.006625532 -0.0074712005 -0.006551024
-0.0053387764 -0.008870912 0.0025555827 0.010779979 0.010778853 -0.006002255 -0.0022951062 -0.006289963
0.01168389 0.011806037 0.012338719 0.011419099 -0.007480195 0.009206083 0.009895534 -0.005249954
0.011695909 0.010321267 -0.010935436 -0.011228983 0.010884133 -0.012345168 -0.012237092 0.010310738
0.011436317 -0.012100976 0.010891443 0.037287436 0.010260096 -0.010023802 -0.011352066 -0.012398807
0.010544622 0.009968883 0.012031468 0.010106594 0.011098423 0.011701184 0.0110957725 0.0102731865
0.011792115 -0.0108459685 0.011814582 -0.011282813 -0.009826068 -0.011287669 0.011705396 -0.012188154
0.012225458 -0.010542534 -0.01168367 -0.011253696 -0.011000432 -0.010846686 -0.011754403 0.012034019
-0.008789427 -0.0103627145 -0.007598731 -0.010407578 0.011953219 0.009964052 0.01052382 0.0109116
0.009985173 0.011465356 0.0040604784 -0.010201452 -0.010381901 0.010662264 0.009913011 0.010690525
-0.011414999 -0.011686855 -0.011990678 -0.010967864 0.010447767 -0.0051094536 0.0027845504 0.01038104
-0.015958203 -0.014875251 0.014929322 0.014973993 -0.015479024 0.015466865 0.015437559 -0.014850406
-0.015715718 0.015371431 -0.015317565 0.008683199 -0.015466792 0.01505805 0.015170872 0.015557349
-0.015481518 -0.014703937 -0.016091121 -0.014577816 -0.0155490795 -0.015899712 -0.015477971 -0.015252809
-0.016001523 0.014446688 -0.01590517 0.015191007 0.014603388 0.015149867 -0.016009007 0.015402875
-0.016220625 0.014910557 0.015200174 0.015074778 0.015120393 0.014962375 0.01518849 -0.0161643
0.014006646 0.01490176 0.012352847 0.014664827 -0.016167369 -0.01464813 -0.015104936 -0.015582213
-0.014471782 -0.015805218 -0.0048503247 0.014800585 0.014822203 -0.015342522 -0.014357901 -0.015527282
0.015102507 0.015300028 0.015425732 0.014939283 -0.015033313 0.014136589 0.01301809 -0.015349624
0.004632627 0.006659236 -0.0042623794 -0.004315713 0.0042353524 -0.0052759307 -0.005251889 0.006810622
0.0044706855 -0.0051240157 0.004179067 0.032942712 0.004607257 -0.0033240372 -0.00461825 -0.0054212883
0.00404704 0.0049388055 0.00503734 0.006351247 0.0043448634 0.0048649027 0.004238027 0.0050427997
0.0048198197 -0.0015838163 0.0048606005 -0.0044036754 -0.003008452 -0.0044598305 0.004791729 -0.005220177
0.0052906154 -0.0041012787 -0.004789947 -0.0043898146 -0.0042267945 -0.0041872486 -0.0048323795 0.0051566698
-0.0022132564 -0.003848899 -0.0015048307 -0.003946392 0.0049617984 0.005362268 0.0043442915 0.0040638787
0.0065173 0.0046257703 0.00514748 -0.0039262343 -0.0039607896 0.004483011 0.00770802 0.003984922
-0.0044645574 -0.00475774 -0.0051746513 -0.0042521516 0.00436628 0.004090422 0.013910428 0.0044745924

bias f4 [32]
00000000: a53a 68bd b985 903c dbef 97bd be38 ba3c
00000010: 24dc 8a3d 34bf 003d aae4 263d e7a3 0bbd
00000020: e13b 00bd 80e8 c1bd ac8b a4bc eeb9 6dbd
00000030: ea99 89bd ffbd eb3c 0db2 613d a915 e7bd
00000040: 866b b1bc 518f e83b fd37 763d de18 debd
00000050: 7e6f 01be ecf5 02be f4ee 563d dcd6 7b3c
00000060: 6825 9b3d 9552 a9bd f8dc 5d3c 2fa0 d1bd
00000070: 8716 043e d5c5 d1bc 1f95 a2bd 3927 38bd
-0.056696553 0.017641889 -0.07418796 0.022732135 0.0678027 0.031432346 0.040745415 -0.034091856
-0.031307105 -0.09468174 -0.020086132 -0.058038644 -0.0671881 0.02877712 0.055101443 -0.11283428
-0.021657716 0.007097163 0.06011199 -0.10844587 -0.12640187 -0.12789124 0.052473977 0.015371051
0.07575494 -0.082677044 0.013541453 -0.10235631 0.12899218 -0.025607029 -0.07938599 -0.04495928

weight f4 [32, 1]
00000000: d4f5 f9bd 3b03 de3d 3801 19be e6b9 173e
00000010: 0745 a93d a240 dfbe f582 0f3e a1ee 00be
00000020: e96f d73d 2942 e73d 328a a83d 7e1b 4bbe
00000030: 86ee 973e de4b 25be f253 a23d 7b2f 04be
00000040: ed55 d93d 9664 c23d d83f 0e3e 22df 09be
00000050: 0562 a43d 8175 a13d 15db 08be e084 f7bd
00000060: 5971 a43d 3691 603e edf7 e63e a66e a63d
00000070: 541c 14be b460 0dbe 0814 23be 74aa 093e
-0.12205091 0.1084046 -0.14941871 0.14817008 0.08265119 -0.43603998 0.140148 -0.1259103
0.10519392 0.11291916 0.08229484 -0.19834706 0.29674166 -0.16142222 0.079261675 -0.12908737
0.10612092 0.094918415 0.13891542 -0.13464025 0.08026508 0.0788374 -0.13364823 -0.12085891
0.08029432 0.21930394 0.45111027 0.08126573 -0.14463931 -0.1380642 -0.1592561 0.13443929

bias f4 [32]
00000000: 64a5 64bf ebf0 ad3e 300d a7be 78b2 2b3e
00000010: 66fe 3a3f f202 0b3e 2913 433e 7ea8 43bf
00000020: 0511 b93e 65e2 993e c2ed 3e3f e5e1 50bd
00000030: 1ae3 a43c f449 5cbe 7c48 623f 3fde 2cbf
00000040: a870 b63e 4217 f33e 34ed 453e 6d8e 0dbf
00000050: 94ab 513f 2c88 673f 04f1 11bf 81f0 71bf
00000060: f9bc 563f 779b 733d 39be 61bd e56f 483f
00000070: 650c c4be fef0 f6be 53b1 6dbe d614 543e
-0.89314866 0.33972868 -0.3262725 0.16767299 0.7304443 0.13575342 0.19050278 -0.76428974
0.36145797 0.30055538 0.7458154 -0.05099668 0.020127822 -0.21512586 0.8839185 -0.6752662
0.35632825 0.47478682 0.19328767 -0.5529545 0.8190243 0.90442157 -0.57008386 -0.94507605
0.838821 0.059474435 -0.05511305 0.7829574 -0.38290706 -0.48230737 -0.23212175 0.20711073

weight f4 [64, 32]
00000000: 64a5 a93c 14b3 6abc ccac d83c f55d bebc
00000010: a3a6 06bc acc3 803a 26bf aebc f7a1 b13c
00000020: 0df9 5fbc fbd5 7bbc c5a7 02bc 1ae9 ee3c
00000030: 718a a6bd 47e2 e43c a919 e8bb 011e b93c
00000040: 8db0 62bc 75e9 34bc cd9f adbc 71b5 c33c
00000050: 8e37 f3bb 9856 e9bb 5983 c13c 4e97 a53c
00000060: 7d85 f1bb eef4 29bd c69a 5dbe 1d49 fbbb
00000070: 56b7 d33c 9d4d ca3c 7c05 e33c 8f11 a5bc
00000080: feca 7d3c 4631 4dbc 690b 283c 500f ecbb
00000090: 25cf 81bc 6345 23bd 50ab 09bc 80ea 743c
000000a0: 7fa1 53bc 438d 41bc cd7b 82bc 8ede 09bc
000000b0: b0b1 c73c 3d65 d93b 6d59 86bc 7a0a 6c3c
000000c0: 47fc 51bc 1744 6abc 62bd 0bbc c692 5d3c
000000d0: 85f6 83bc 8ab9 86bc c0ce 5f3c af37 813c
000000e0: a00e 85bc 5607 3a3b 0e3d 4e3e fa40 84bc
000000f0: 376b 393c f7a2 513c 28bf f03b 6a2e 14bc
00000100: 14f1 bd3b aa51 4b3a a5ee 153c 9cff 1dbb
00000110: 85f7 7d3b b024 a3bc 55db edba 26ec d33b
00000120: 0ef2 923a 0dac ec39 6dd9 823b 4e92 2e3c
00000130: 25ff afbc c4cf 203c 0eb8 8c3b 8a7a e33b
00000140: 7729 9a3a a4c3 143b 4b6c eaba f093 f63b
00000150: 27e6 863b 5446 903b d68f f63b 998c b93b
00000160: 0607 8c3b cd4a cebb b78e 36be ed4a 853b
00000170: ab55 103c 8230 043c d329 1f3c 3e29 c5ba
00000180: 1de1 b03c 691c 2dbc 8a00 073d 32cb e0bc
00000190: 405f aab9 fc1f 1a3e 944c c3bc e260 c03c
000001a0: b5cb 1bbc 39c1 51bc e9c0 81b9 4ef7 2c3d
000001b0: 01a6 0dbe 1544 143d 8c62 a93a dbb0 cd3c
000001c0: 2bc8 1dbc 9cf7 aabb e0dd bebc a737 e13c
000001d0: 9e45 153a 6415 bc3a 42dd dd3c ba50 aa3c
000001e0: 3d02 413a 25d2 86bd ee34 8bbe 93da 8639
000001f0: ce56 003d 48f5 ec3c a6dc 113d 4515 b0bc
00000200: cea3 393c d78c 6fbb cc3e 613c 3696 38bc
00000210: 4000 d63a d082 5f3d 2714 1ebc e4f5 433c
00000220: fb04 4cbb 98d4 9bbb 53d6 d63a cb2c 613c
00000230: b00e 5cbd ac25 673c 7092 193b a3e8 4a3c
00000240: dca8 4dbb 9ffa 84ba 5e4d 1dbc 566d 513c
00000250: 7165 0b3b fbd3 243b df0b 513c 3562 363c
00000260: d764 103b ebad d0bc 6b47 57be 89ac 023b
00000270: 261b 5d3c f8ce 573c 3506 673c 58e4 0dbc
00000280: 0629 883c c159 5cbc 3065 343c 2068 fdbb
00000290: e298 8cbc b595 58bd 69d2 13bc 7c56 833c
000002a0: 6a9b 60bc 587b 4fbc 9054 8cbc 0a41 11bc
000002b0: aeb5 ce3c 5102 e93b 6a16 91bc 341c 7e3c
000002c0: 3139 5fbc 4d9c 7abc 5c44 16bc e3c6 6d3c
000002d0: 2fa9 8ebc 50c6 91bc 08bc 6e3c 7a2c 8a3c
000002e0: 153a 8fbc ad01 3f3b 3047 593e c910 8ebc
000002f0: 5063 473c da66 603c abab 003c 95b9 1ebc
00000300: cf22 723c 6f49 2cbc a4de 103c f93f 8ebb
00000310: a695 70bc cd46 7ebd 1fa8 b4bb 0aaa 683c
00000320: 9250 34bc c3e5 20bc 9fed 72bc e9f3 47bc
00000330: c34d 123d 5ae8 9a3b 0711 7bbc 0428 5e3c
00000340: 49cd 32bc 3773 50bc 09b9 babb 6f45 4e3c
00000350: 38a6 77bc da84 7bbc 4e4e 4f3c eb79 753c
00000360: 9883 79bc a989 093c 9d83 6b3e 52a2 75bc
00000370: 2648 263c 747e 413c e118 b93b 1d9d d3bb
00000380: be88 e93b ffa4 d0bb 6cb3 1d3c f1b6 19bc
00000390: f619 82bb 9ba8 bdbc b353 0fbc b65f f93b
000003a0: d6a4 c9bb b56b dfbb 3bda 83bb b7a1 313c
000003b0: 872c fdbc b2fc 283c 6a15 72bb 5591 023c
000003c0: e05b ccbb 9ba9 a7bb c993 0dbc 618a 0c3c
000003d0: 4d47 70bb 7e96 6abb 2c5d 0b3c 72e2 e33b
000003e0: 5221 71bb bb3f 6abc f771 31be f920 7dbb
000003f0: 234e 1a3c 786f 113c 2a7e 283c 8690 09bc
0.020708747 -0.014324922 0.026449583 -0.023238162 -0.00821844 0.000982394 -0.021331381 0.021683676
-0.013670218 -0.015370841 -0.00797457 0.029163886 -0.08131874 0.027939929 -0.007083137 0.022597315
-0.013836038 -0.011041989 -0.021194363 0.023890229 -0.007422394 -0.0071209185 0.023622202 0.02021375
-0.0073706494 -0.04149335 -0.21641073 -0.007668628 0.025844257 0.024695212 0.027712576 -0.020149974
0.015490292 -0.012523955 0.010256627 -0.007203974 -0.015845845 -0.039861094 -0.0084026605 0.014948487
-0.012916922 -0.011813465 -0.015928173 -0.008414878 0.02437672 0.006634383 -0.016400063 0.014406795
-0.012816495 -0.01429846 -0.008529039 0.013523763 -0.01610876 -0.016445894 0.013660133 0.015773622
-0.016242325 0.002838572 0.20140478 -0.016144264 0.011317066 0.0127952015 0.0073470064 -0.009044269
0.005796561 0.00077560043 0.009151136 -0.0024108654 0.003875227 -0.019914955 -0.0018147031 0.00646736
0.0011211054 0.00045141616 0.0039932043 0.010654999 -0.021483967 0.00981516 0.004294402 0.006942098
0.0011761625 0.0022699619 -0.0017885057 0.0075249597 0.0041167918 0.004402915 0.007524471 0.0056625125
0.004273298 -0.006295538 -0.17827879 0.0040677697 0.008809487 0.008068206 0.0097145615 -0.0015042198
0.021591717 -0.010565856 0.0329595 -0.027440641 -0.00032495894 0.15051264 -0.023840226 0.023483697
-0.009509017 -0.0128024155 -0.00024748527 0.042228036 -0.13832857 0.03619774 0.0012923046 0.025108745
-0.009630243 -0.0052175056 -0.023299158 0.027492357 0.00056942727 0.0014349637 0.027083043 0.020790447
0.0007362699 -0.06583051 -0.2718882 0.00025721322 0.031332783 0.028925553 0.035610817 -0.021494517
0.011330558 -0.0036552453 0.013747882 -0.011266282 0.0016326979 0.054568112 -0.009648359 0.01196048
-0.0031130898 -0.0047555678 0.0016390778 0.01374359 -0.053724945 0.014108103 0.002343323 0.0123845665
-0.0031381166 -0.0010145492 -0.009600965 0.012782415 0.002127018 0.0025150764 0.012759178 0.011131813
0.0022032761 -0.025473556 -0.21023338 0.0019939265 0.013495242 0.013171904 0.014100601 -0.008660398
0.016621124 -0.013449133 0.011010453 -0.00773336 -0.017162744 -0.052877147 -0.009022334 0.01603245
-0.013708929 -0.012663685 -0.017130166 -0.008865604 0.025233116 0.007110872 -0.017710883 0.015509654
-0.013624475 -0.015296054 -0.009171572 0.01451275 -0.017414657 -0.017794758 0.014571197 0.016866911
-0.01748375 0.0029145286 0.21218562 -0.017341988 0.012169674 0.013696397 0.007853429 -0.009687801
0.014778807 -0.010515555 0.008842144 -0.004341122 -0.0146841165 -0.06207924 -0.0055132057 0.014200697
-0.011005538 -0.009820404 -0.014827161 -0.012204149 0.03571869 0.0047274055 -0.015323884 0.013559345
-0.010913202 -0.012722782 -0.0056983274 0.012589796 -0.015115313 -0.0153514985 0.012652947 0.014982681
-0.015229128 0.008394637 0.22999425 -0.014992313 0.010149037 0.011809934 0.0056487177 -0.0064579383
0.0071268966 -0.0063673253 0.009625297 -0.009381996 -0.00397038 -0.023151686 -0.008747983 0.0076102866
-0.006153683 -0.0068182596 -0.004023818 0.0108417785 -0.030905021 0.0103141535 -0.0036939033 0.00796922
-0.0062365383 -0.005116654 -0.008641192 0.008577914 -0.0036663592 -0.0035795267 0.008506101 0.0069544846
-0.0036793542 -0.014297421 -0.1732863 -0.003862439 0.009418043 0.008876674 0.010283986 -0.0083962735

bias f4 [64]
00000000: 81d4 edbc 2045 2d3d f453 0abe 429e adbc
00000010: c329 e0bd 7307 713d d862 663d 2711 0abe
00000020: 8abd 18be 5d1f 123c 341d 2d3d 68fb 1abe
00000030: e810 adbb d954 9a3d 2eac da3d 8815 8cbb
00000040: 4c05 08be 1be3 e9bb 3f02 023e 50f7 db3c
00000050: 1b05 d23d 2b82 893c 560d 363d 2039 f6bd
00000060: ad3e a03d a5b4 09be 91b8 19be 727e b03d
00000070: afbd 82bc 1e13 b9bd fac8 16be fb97 4a3d
00000080: 6cfc ea3d 2db3 b93c bb44 013e 1aff 00bd
00000090: 0403 7b3d f165 adbd 387f 403d 7161 163e
000000a0: 241e 483d 1b2f b1bd 3c09 46bc 5426 1bbd
000000b0: c39e 353d 4197 843d 8d05 19be dace 05be
000000c0: e5cb d53c c16b d5bd b68a 963d 7562 f2bc
000000d0: 100e a33d bea7 c93c 9b42 1cbd bc77 c63d
000000e0: 4f60 583d 6b87 babd 4eae 07be 1003 bdbd
000000f0: cd45 94bd eca3 0abe ef5a eebc 5cf5 0f3e
-0.029031994 0.04230225 -0.13508588 -0.021193627 -0.109454654 0.058844995 0.05624661 -0.13483106
-0.14916053 0.00891861 0.04226418 -0.15134966 -0.0052815564 0.07535715 0.10677372 -0.0042750277
-0.1328327 -0.007137669 0.1269617 0.026851326 0.1025488 0.016785702 0.044446312 -0.120226145
0.078244545 -0.13447817 -0.15011813 0.086178675 -0.015959589 -0.090368494 -0.14725104 0.049461346
0.11473927 0.022668445 0.12623875 -0.031493284 0.061282173 -0.084667094 0.046996325 0.14685608
0.04885687 -0.08651563 -0.012087163 -0.03787835 0.04434086 0.06474162 -0.14943524 -0.13067189
0.026098201 -0.10420943 0.07350676 -0.029587964 0.079616666 0.024616119 -0.038149457 0.09690806
0.052826222 -0.0910786 -0.13250086 -0.092291 -0.07239876 -0.13539094 -0.029096095 0.14058441

weight f4 [32, 64]
00000000: 527f aebd ae8b 483d 49c6 2bbd e9a6 eabd
00000010: 5d85 0fbd e470 4a3d 123a 4d3d 912d 35bd
00000020: 1c19 31bd 1efb 473d 6c43 4a3d 9754 34bd
00000030: 6fc6 693d 2273 3f3d f916 3c3d 3edd 88bc
00000040: 7a97 2bbd 5da5 6ebc 3c13 433d 5db4 553d
00000050: d21a 433d 937d 473d 40b3 403d 1767 2fbd
00000060: 3655 423d 5f4e 35bd df2e 27bd bcf9 413d
00000070: 7283 88bd 3332 eabc c742 37bd ff1e 463d
00000080: d66f 3e3d cbb4 423d e348 413d 45ce 74bd
00000090: 4ea4 3d3d da48 35bd c35b 383d 88c4 3d3d
000000a0: 2205 393d 23d1 26bd 0565 563d 0799 dfbd
000000b0: b798 493d 7099 433d 7a57 30bd 309b 22bd
000000c0: 6d9b 453d 4cff 3bbd 42a9 313d ca2d 96bd
000000d0: f0f2 3c3d d1de 483d 4ef9 e3bd 34f0 3f3d
000000e0: 9e0d 483d 2c34 35bd b677 28bd 6215 1abd
000000f0: 7892 a2bd 597c 2ebd 581e d1bd 1eda 3e3d
00000100: 6d44 413b d8ba 7d3c 67b7 77bc ae8d cdba
00000110: 0f51 f73c 1cd6 803c f739 863c c6ef 69bc
00000120: c59c 77bc c00f 893c 396c 803c da5b 69bc
00000130: 7614 ec3b b90f 843c 11c4 7e3c 148d 663b
00000140: 5511 79bc 400b 42b8 5719 6b3c ec68 843c
00000150: 19bc 7f3c 67b0 873c e2ff 8b3c 337c 7bbc
00000160: 59f2 823c 5d55 6cbc 24bd 74bc ed19 823c
00000170: 2232 933b b800 bdbc a579 63bc ce03 7b3c
00000180: 71c0 783c 5a85 813c b8e0 6a3c 69d5 fd3a
00000190: 53bb 893c 322c 4dbc 450d 843c 09b5 6b3c
000001a0: 9067 893c b362 78bc cd27 913c 1c93 13bb
000001b0: 3015 7e3c 6218 873c bf4e 77bc 40c8 78bc
000001c0: 2df2 8b3c d609 5abc ea23 863c 286a 19bb
000001d0: e050 843c 32a3 853c ca12 c4ba 59a6 803c
000001e0: af53 883c 6f48 69bc f049 77bc 68e7 f33c
000001f0: b372 6abc b8d9 78bc ab04 e139 b5f6 653c
00000200: 3fbf 26bd 25b5 6dbc 6c22 713c 67f0 4fbd
00000210: 8e29 7d3c ebd5 6bbc d008 6ebc 9204 733c
00000220: 96a7 743c 9ea5 70bc 7216 6ebc 53ec 6e3c
00000230: 8f1d 34bc 2157 69bc e66a 68bc bd76 84bb
00000240: f8b2 6f3c aa60 7fbd e3ec 66bc 28e7 74bc
00000250: f44d 6cbc 00bf 70bc e362 6ebc 2db3 773c
00000260: 464f 6dbc 2227 753c 13c5 6f3c 7fa6 6cbc
00000270: b3ac 86bd dd89 b33c a881 6c3c ec33 69bc
00000280: 8fe1 67bc 4324 69bc 0d8e 69bc 1677 71bd
00000290: a9ac 6ebc 62bb 653c 0b3f 6fbc 7a75 6abc
000002a0: b87c 6abc 6863 7d3c 8491 62bc c666 3ebd
000002b0: fa5c 6dbc 70a9 6dbc ec5c 793c 2ef3 6b3c
000002c0: 8ac2 76bc 39e4 6d3c 5b4e 66bc 8347 1abd
000002d0: 04a0 6bbc e976 70bc 4bbe 4ebd 3df6 68bc
000002e0: f2bb 71bc 0d79 6d3c 7e4f 753c e11b 7d3c
000002f0: 67ea 5a3b 75a7 763c 5558 3fbd 37de 65bc
00000300: 19d5 9e3b 9f81 713c 9182 2fbc d18b a73b
00000310: 2c2b 173d 3d47 6e3c 52a2 743c 2ab1 1fbc
00000320: 749d 33bc 3e34 953c 0998 743c 996b 20bc
00000330: 84fe 1c3c f92e 6f3c 9ff7 603c ed45 8b3b
00000340: be4f 2fbc c3a1 303c d533 3f3c 5f4e 773c
00000350: fbef 5c3c 3994 8c3c efb2 863c 1ce1 39bc
00000360: 96f4 6e3c d6fe 1ebc a5b9 29bc 80c7 6b3c
00000370: 07f9 383b c3a6 7cbc 1df3 21bc 5f04 693c
00000380: c8e2 543c 35de 813c ca68 3d3c 0755 323b
00000390: 9853 813c f2f2 09bc 27fd 7f3c ef8d 393c
000003a0: e4fc 813c c6b3 33bc 93ea a03c 40ec ad3b
000003b0: 6877 703c d249 793c 947d 36bc 493a 2fbc
000003c0: 268e 893c 8453 03bc d424 7b3c 455c be37
000003d0: 9fe1 743c 14a4 853c bae6 a93b 4892 603c
000003e0: cdd1 7f3c bd2c 24bc 842a 36bc 2cdb 0c3d
000003f0: 2826 13bc 77b8 38bc 4c29 873b 328e 373c
-0.08520378 0.048961334 -0.041937146 -0.11457617 -0.035039295 0.049424067 0.05010421 -0.04423291
-0.043236837 0.04882347 0.049380705 -0.044025984 0.057074007 0.04674066 0.045920346 -0.016707059
-0.041892506 -0.014565793 0.047625765 0.05217396 0.047633 0.04870374 0.047045946 -0.042822924
0.047444545 -0.044264194 -0.040816184 0.047357306 -0.06665696 -0.02858839 -0.04474142 0.048369404
0.046493374 0.0475357 0.04718865 -0.059767026 0.04629927 -0.04425893 0.045009386 0.046330005
0.04517091 -0.040726792 0.052342433 -0.109178595 0.049217906 0.04775375 -0.043052174 -0.03969878
0.04824393 -0.045897767 0.043374307 -0.07332952 0.04613012 0.04904062 -0.111315355 0.046859935
0.04884111 -0.044239208 -0.04112979 -0.03761805 -0.07938093 -0.042599056 -0.10210866 0.04659473
0.0029490248 0.015486442 -0.01511941 -0.0015682483 0.030190019 0.015727095 0.016385062 -0.014278358
-0.01511306 0.016731143 0.015676605 -0.0142430905 0.0072045876 0.016120778 0.015549676 0.0035179304
-0.015201886 -4.626368e-05 0.014349303 0.016163312 0.015608811 0.016563607 0.017089788 -0.015349436
0.015984701 -0.014424649 -0.014937673 0.015881503 0.0044920603 -0.023071632 -0.013883983 0.015320731
0.0151826 0.015810657 0.014335804 0.0019365969 0.016812956 -0.012522744 0.016119609 0.014386424
0.016773015 -0.0151602505 0.017719174 -0.0022518104 0.015507981 0.016491119 -0.015094458 -0.015184462
0.017083252 -0.013308009 0.016374547 -0.0023409221 0.016151845 0.01631317 -0.0014959213 0.01570432
0.016641466 -0.014238461 -0.015093312 0.029773429 -0.014309573 -0.015188627 0.00042918822 0.01403587
-0.04070973 -0.01450852 0.0147176795 -0.050766375 0.015451802 -0.014394264 -0.014528468 0.014832633
0.014932534 -0.014687924 -0.014531719 0.014582711 -0.010993375 -0.014241965 -0.014185643 -0.004042475
0.014630072 -0.062348045 -0.014094564 -0.01494769 -0.014422882 -0.014693975 -0.014549944 0.015118402
-0.014484232 0.014962943 0.0146343885 -0.014443993 -0.065759085 0.021916324 0.014435209 -0.014233571
-0.014152898 -0.014229837 -0.014255059 -0.05895146 -0.014567533 0.014021726 -0.014602433 -0.014310235
-0.014311962 0.015465595 -0.013828639 -0.04648473 -0.014487499 -0.014505729 0.015219908 0.01440124
-0.01506103 0.014519745 -0.014056767 -0.037665855 -0.014381412 -0.014676788 -0.050474446 -0.014218864
-0.014754282 0.014494193 0.014972566 0.015448541 0.0033403875 0.015054573 -0.0467151 -0.014030031
0.0048471806 0.014740377 -0.010712282 0.005113103 0.036906406 0.014543352 0.014931278 -0.009746829
-0.010962833 0.018213388 0.014928826 -0.009791278 0.009582166 0.0145986015 0.0137309125 0.004250279
-0.010700164 0.0107807545 0.011670073 0.015094369 0.01348495 0.017160522 0.016442744 -0.011345174
0.014584681 -0.009704312 -0.0103592025 0.014390826 0.0028224604 -0.0154206185 -0.009884623 0.014222234
0.012993522 0.015853027 0.011560628 0.0027211325 0.01578693 -0.008419739 0.015624321 0.0113253435
0.015867658 -0.010968154 0.019643104 0.005307704 0.014676906 0.015215354 -0.011138339 -0.010695049
0.016791414 -0.008015517 0.015328605 2.2692731e-05 0.01494637 0.01631359 0.0051849755 0.013706751
0.015613985 -0.010020432 -0.011118535 0.034388706 -0.008981265 -0.011274449 0.004124796 0.011203336

bias f4 [32]
00000000: 4e06 7f3d 6d01 be3d 75e2 663c e8d5 bc3d
00000010: 9214 903d 1c5c 4e3d f3f4 d63d fc31 51bd
00000020: c87f 10be 6c26 32bd 7fde 333d 8b7a 15be
00000030: 08dd 623d 9f99 93bd 4a6e ed3d 7a44 4ebd
00000040: 2057 ba3c 902c 82bd d9c0 efbd 1ec2 513d
00000050: a63b 26be 6ce0 0cbe 8a73 c2bc 98e8 a7bd
00000060: 1b81 27bc f0d9 28bd a939 8dbd 7c66 563d
00000070: 332e 6cbd 2c0a 903d b9ee 18bd f4c9 723b
0.062261872 0.09277616 0.0140920775 0.09220487 0.070351735 0.05038081 0.10495939 -0.05107306
-0.14111245 -0.043493673 0.04391336 -0.14597528 0.055386573 -0.07207035 0.115933016 -0.050358273
0.022746623 -0.06356156 -0.11706705 0.051210515 -0.16233692 -0.13757485 -0.023736734 -0.081986606
-0.010223652 -0.041223466 -0.068957634 0.05234383 -0.057661247 0.0703319 -0.03733704 0.0037046643

weight f4 [32, 1]
00000000: a747 1ebe a244 223e e958 193e 6ace 1abe
00000010: 7813 113e eb3b 20be 39c7 29be 58ba 1e3e
00000020: 01c2 22be 90ca 21be 580c 2b3e 41c0 1fbe
00000030: e9d8 0f3e f97c ef3d 5e66 2bbe d755 153e
00000040: 85be 1ebe 2e97 1abe 2032 2bbe 341b 1ebe
00000050: 425c 133e 1972 34be fe3f 0e3e 999c 1abe
00000060: b8ad 263e 3c20 26be b9dc 113e f6da 1f3e
00000070: 0c7d 113e 7d2b 28be 275c 1fbe c8c2 19be
-0.1545702 0.15846494 0.14975323 -0.15117803 0.14167583 -0.15647857 -0.16579904 0.15500772
-0.15894319 -0.15799928 0.16703928 -0.15600683 0.14047588 0.116937585 -0.16738269 0.14583527
-0.15502365 -0.15096733 -0.1671834 -0.15440065 0.14390662 -0.1762165 0.13891599 -0.150988
0.16277206 -0.16223234 0.14244355 0.1561087 0.14207858 -0.1642284 -0.15562497 -0.1501571

bias f4 [32]
00000000: 694b 233f 6e0b 87be 5c35 d2be e68f 583f
00000010: c0a3 3dbf 8654 0e3f b20f 983e 8dda 9ebe
00000020: 4402 ed3e c7d5 003f 4d9c 33be 5d71 0f3f
00000030: ad62 54bf d6df 0cbe 734b 8f3e 1b54 0abf
00000040: 6637 193f 2ccb 543f a740 8f3e b6f4 203f
00000050: b6f8 1dbf 24a1 923d 539c 78bf 536c 5e3f
00000060: b6ae 5dbe 4480 c13e a2c5 33bf e319 99be
00000070: 1271 36bf bafd af3e 6b3d 1a3f 7443 6d3f
0.6378694 -0.26375908 -0.41056335 0.8459457 -0.7407799 0.5559772 0.29699475 -0.31026116
0.4629079 0.503262 -0.17540093 0.56032354 -0.8296307 -0.13757262 0.2798725 -0.54034585
0.59850156 0.83122516 0.27979013 0.628734 -0.6170763 0.071596414 -0.9711353 0.8688404
-0.21648678 0.3779317 -0.7022344 -0.29902562 -0.7126628 0.34373266 0.60249966 0.9268105

weight f4 [64, 32]
00000000: abee 15bb e2c3 2c3c d311 243c d623 d9ba
00000010: 74da 123c 2d66 28bb 906c 5abb 6f34 2b3c
00000020: d0c5 3dbb 82b3 35bb a03a 2f3c 8cfa 27bb
00000030: a5ad 0e3c e99b 2e3c ebf5 62bb 9a09 1d3c
00000040: 226b 18bb b002 d6ba 923b 5ebb 7f83 14bb
00000050: 2191 173c 9012 edbc 4076 063c c7b2 cdba
00000060: 6596 2c3c ba89 4dbb 5fcb 133c b79f 2b3c
00000070: 7770 143c ab12 5fbb 68a9 1bbb 283f c3ba
00000080: 80dc 5b3c 401e 263c d6bd 0a3c b54e 7c3c
00000090: 5ee7 b13b 74ed 493c dfb2 bc3b 2d21 1b3c
000000a0: 4598 303c 365f 3e3c dc16 353c dd89 4b3c
000000b0: 1379 983b 9c39 3a3c 2dd8 a53b 9e7a ea3b
000000c0: 99b2 553c 8ce7 783c 43d3 a43b deb4 5a3c
000000d0: 2e0c d43b 75e6 02bd b0ad 713b c9b6 7d3c
000000e0: fb9e 2c3c ad06 0e3c fbfa be3b d473 1f3c
000000f0: f2b7 bb3b 528b f53b 1b59 563c 298e 813c
00000100: b415 413c a1d0 233c 528f 0c3c f22c 5e3c
00000110: 3d8d b43b 1182 323c feff 9e3b 20e8 1b3c
00000120: 7b04 1b3c 6330 263c 0122 343c 28ad 333c
00000130: ec93 9f3b 79cb 393c e5d5 863b e400 f03b
00000140: e953 3a3c 5e46 5c3c d940 863b ae12 3f3c
00000150: fec2 d53b c795 00bd 5a9c 7e3b ea42 5f3c
00000160: bd61 2d3c 3ade f83b b104 c43b e1f1 1f3c
00000170: 6f4d bd3b ad68 d53b a3da 3b3c ac25 633c
00000180: 2681 7b3c 8537 213c 19e4 063c 16f3 8c3c
00000190: 0166 a63b 118c 6a3c e7ff 003c f194 193c
000001a0: 4ba4 503c 5281 5c3c b16e 303c a1ef 6a3c
000001b0: fdcb 923b 4929 343c 02e1 e73b 6c41 e43b
000001c0: 701d 743c 0cd1 8b3c f15e e63b 7af3 7a3c
000001d0: 9da0 c93b 5261 eebc 6116 623b 7f74 8d3c
000001e0: dea8 283c 18e4 2c3c d2ca b43b 048b 1b3c
000001f0: 2a67 af3b 5f28 1d3c 0ac2 753c 5914 913c
00000200: 0739 1f3c 4382 213c 1c8f 0c3c e5cf 363c
00000210: febc be3b ac00 113c 644c 773b 650f 1c3c
00000220: d7de f63b 5a9a 063c 588d 2f3c ba46 123c
00000230: bb13 a83b d4b0 333c 6f74 473b 6533 f23b
00000240: bb76 1a3c f1cf 353c 93de 443b 5e90 1f3c
00000250: 76a0 de3b f382 f3bc 870e 8a3b 352b 393c
00000260: c6ce 273c df7d c53b cb03 c63b 452c 1c3c
00000270: 3010 c23b a75a a73b 0709 1a3c 9f9e 3e3c
00000280: 7471 853b 403a 283c 2c4d 163c 6962 ac3b
00000290: f8de d93b a70c 583b e23e a3ba 7041 243c
000002a0: 51bc 103b 21ac 313b 0c7c 343c 0460 533b
000002b0: 2dc4 cc3b 0d48 393c 84ba d9ba b123 053c
000002c0: 14dc 753b 6070 a63b df0e edba 1608 7c3b
000002d0: c469 fa3b e113 09bd c209 af3b 81d9 af3b
000002e0: fae6 303c 6e75 433a 527a e33b a876 263c
000002f0: 178b e13b 2e17 eeb8 b431 743b 0077 b33b
00000300: 44a7 413c 8d45 253c e091 0d3c f43c 5a3c
00000310: d8dc b73b dd0c 2f3c a1eb 9c3b 072f 1c3c
00000320: 8709 173c f84d 233c 42e9 343c 5a4a 303c
00000330: 50d1 a43b 8685 383c 18a4 853b c365 f33b
00000340: b57d 3a3c 3fed 5a3c 7f48 813b ec42 3e3c
00000350: f670 dc3b 1a55 01bd a3b8 843b bfaf 5e3c
00000360: 0506 2d3c 606c f33b c5d2 c53b fd8d 1e3c
00000370: 9563 c13b 5b7f cf3b e160 3a3c 98c0 613c
00000380: eed5 42bc 934e 443b f96b fa3b 735a 57bc
00000390: 096d 423c 3548 34bc 8751 c5bb 6abc a13b
000003a0: 1772 21bc c7cb 29bc e8ae 16bb b7b2 34bc
000003b0: 052d 4c3c 195a 0abc 5c9c abbb d210 213c
000003c0: 43a0 3bbc f357 58bc b110 aebb 9cf7 3fbc
000003d0: df43 323c fdfb 023d d498 583c 320c 5bbc
000003e0: 8bc3 173a 916a 06bc 6f0c 3c3c 1d53 943b
000003f0: 83c8 3f3c e1ef f0bb dddf 3cbc 7c04 5ebc
-0.0022877853 0.010544749 0.010014015 -0.0016566466 0.008963216 -0.0025695667 -0.0033328868 0.010449513
-0.0028957017 -0.0027725403 0.01069513 -0.0025631515 0.008708392 0.010657289 -0.0034631442 0.009584809
-0.0023257216 -0.0016327705 -0.0033910018 -0.0022661386 0.00925091 -0.028939515 0.008206904 -0.0015693539
0.010533904 -0.003136261 0.009020655 0.010475091 0.009060017 -0.0034038227 -0.0023752097 -0.0014896141
0.0134192705 0.010139048 0.008468112 0.015399625 0.0054291924 0.01232468 0.005758628 0.009468359
0.010778491 0.01161938 0.011052813 0.012423006 0.004653105 0.011366274 0.0050611706 0.0071557304
0.013043069 0.015191924 0.005030067 0.013348786 0.0064711785 -0.031958062 0.0036877207 0.015485474
0.010535951 0.008668584 0.005828259 0.009732205 0.005728715 0.007493415 0.013082768 0.015814858
0.01178496 0.0099984715 0.008579092 0.0135605205 0.005510001 0.010895268 0.004852294 0.009515792
0.009461517 0.010143372 0.010994435 0.010966577 0.0048699286 0.011340016 0.0041148537 0.007324325
0.011372545 0.013444511 0.004097086 0.011662168 0.006523489 -0.03139284 0.0038850517 0.013626793
0.010582385 0.007594851 0.0059820046 0.009762258 0.005777053 0.0065127225 0.011465701 0.013863962
0.015350616 0.009839897 0.008233094 0.017205756 0.005078078 0.014315621 0.007873512 0.009373889
0.012734483 0.013458567 0.010768578 0.014339359 0.0044798837 0.010996171 0.0070763836 0.0069658067
0.014899597 0.017067455 0.007030361 0.015316838 0.00615318 -0.02909914 0.0034498202 0.017267464
0.010294167 0.010552429 0.005517342 0.009493593 0.0053528743 0.009592145 0.014999876 0.017709898
0.009718186 0.009857717 0.008579042 0.011157964 0.0058208695 0.008850258 0.0037734741 0.009525155
0.007533889 0.008215511 0.010714851 0.008927995 0.005129305 0.010967452 0.003043439 0.0073913806
0.009427722 0.01109694 0.003003989 0.00973901 0.006794031 -0.029725527 0.0042131576 0.011301805
0.01024217 0.006026968 0.0060429326 0.009532039 0.00592234 0.005107242 0.009401566 0.011634498
0.0040723626 0.010267794 0.009173673 0.005260755 0.0066488944 0.0032966526 -0.0012454654 0.010025367
0.0022084902 0.0027110653 0.011015903 0.0032253275 0.006248972 0.011308682 -0.0016611372 0.008126185
0.003751521 0.005079314 -0.0018086097 0.0038456968 0.007642003 -0.033466224 0.0053417394 0.0053665047
0.010797257 0.0007456158 0.006942072 0.010160126 0.006883036 -0.00011353042 0.003726107 0.0054768324
0.011819664 0.010087383 0.008640736 0.013320196 0.0056110434 0.010684219 0.0047888313 0.009532697
0.00921858 0.00996732 0.011041941 0.010759914 0.005029835 0.011262303 0.0040783994 0.0074279024
0.01138251 0.013362228 0.00394541 0.011612635 0.006727333 -0.0315753 0.0040503307 0.013591706
0.010560517 0.007428691 0.0060370886 0.009677407 0.0059017637 0.0063323206 0.011375637 0.013778828
-0.011891825 0.002995406 0.007642266 -0.013144123 0.011866816 -0.011003544 -0.0060216817 0.004935791
-0.009853861 -0.010363526 -0.0022992436 -0.011028937 0.012461905 -0.0084443325 -0.0052371453 0.00983067
-0.011451784 -0.0132045625 -0.0053120484 -0.0117167495 0.01088044 0.031978596 0.013220031 -0.013369607
0.0005789331 -0.008204118 0.011477574 0.0045265094 0.011705521 -0.0073528145 -0.011527983 -0.013550874

bias f4 [64]
00000000: fc0a d6bb dc4c 19be b475 e1bd 1291 1abe
00000010: 1ba3 d4bd eef6 8cbd 697a e1bd df60 af3d
00000020: c611 363d 7e72 65bb a8fc 15be 0f5e da3d
00000030: 01fd 1dbe 91a7 08be 9780 183e 917e fa3d
00000040: fd44 6a3d 72cc fe3d 4200 df3d 71c7 4a3d
00000050: f49c ac3d 9bba 173e 4fe7 b4bc 8b3c c83c
00000060: 5730 18be 6f70 e4bd cca3 aa3d 2e91 e43d
00000070: 1aaf f53b bd67 d93d 35c4 0a3d ee54 65bd
00000080: 71b6 75bd 0a05 1d3e 6053 d23d 1cf8 c4bd
00000090: 343f a2bd ce43 0a3e cea2 d83c c2e9 98bd
000000a0: a6e8 ba3d 0831 0c3e 93f7 c6bd 3226 bdbc
000000b0: 83bb ffbc 335a adbd d1ca adbd c6f3 76bd
000000c0: 7ecf 5d3d 6c11 1ebe 03a6 b23b d080 573c
000000d0: dce2 253d 07c7 54bd 6aaa a4bd 7081 dcbd
000000e0: 761e f5b9 01aa cdbd 938c 0bbd 0151 1abe
000000f0: b3af 8e3d f18f 1d3c 31e4 0a3e 5872 7fbd
-0.006532071 -0.14970726 -0.11008778 -0.15094402 -0.103826724 -0.068830356 -0.11009676 0.085633986
0.044450544 -0.003501087 -0.14647162 0.106624715 -0.15428545 -0.13345172 0.14892803 0.12231172
0.0571947 0.124413386 0.10888721 0.04950661 0.08428374 0.14817278 -0.022082953 0.024442932
-0.1486219 -0.111542575 0.08332023 0.11160503 0.0074976804 0.1061549 0.033878524 -0.0559892
-0.059988443 0.15333953 0.10269809 -0.096176356 -0.07922211 0.13502428 0.026444819 -0.07466461
0.091264054 0.13690579 -0.0971519 -0.023089502 -0.031217342 -0.0846447 -0.0848595 -0.060291074
0.054152958 -0.15436333 0.005451919 0.01315327 0.040499553 -0.05194762 -0.080403164 -0.10766876
-0.00046752737 -0.10042191 -0.03406961 -0.15069963 0.06967106 0.009616838 0.1356361 -0.062364906

weight f4 [32, 64]
00000000: 35f7 203a 9a41 713b 250a 473b ddbf 843b
00000010: 9570 613b f145 123b 1d06 3d3b e7ae 3cb8
00000020: 6ac2 5e3b 4bbe 80b9 a2ea 803b 6353 29bb
00000030: 10e7 6c3b 8a2f 773b 6ea1 7dbb a37a 55bb
00000040: 692c 253b 18b5 f9ba 5633 1ebb 08fd 353b
00000050: c176 2439 38f3 80bb cf9b 2d3b 195a b03b
00000060: 685d 7d3b f14f 4c3b 092e 1839 4b73 bfba
00000070: 2716 0a3c c4c9 a3ba 567a b23b 61f6 333b
00000080: b13a 393c a951 40bb 4852 22bb 7da5 523b
00000090: c1fe 303c bd45 1abb ef21 c23b 07d1 243b
000000a0: 2707 aaba 988e 72bb 391f 563b 3e1e 053b
000000b0: 675b 0b3b d457 2d3c e0f1 3f3b 4a41 3a3c
000000c0: 6071 153b b201 7c3b 0e6c 363c de87 273c
000000d0: f721 933b d72f 283b be77 1d3b 9d3e 473b
000000e0: c141 623c 9869 5a3b ccc1 2d3b 6173 7b3b
000000f0: 7f9c c63a 5939 1f3c b5d0 19bb 90cc 023b
00000100: 1c7b 5b3b 0de2 2cba d975 42b9 16b9 00ba
00000110: 05db cc39 4fb0 4c3a aa4d 5bb9 2b42 e4b8
00000120: c83e dcba e6fe 713b ba11 deb9 18b5 23b9
00000130: 0a36 34ba db93 a2b9 41fd e639 5f49 b138
00000140: 6e96 33ba 9045 133a 3dd0 feb8 6b30 d9ba
00000150: 243a c8b8 31ad df39 d62a 603b 03ee 68bc
00000160: 23d0 10ba c911 e6b8 c15d 75b8 6c23 a539
00000170: 6e3c f4bb 0bb3 6639 bc14 bdba bd59 cf3a
00000180: 958a 463b 4dc2 5c3a 84b4 35b9 f3cc db39
00000190: b240 533b 908b 153a 3f4b 1bbb 0e97 0f3a
000001a0: 964a d9b9 576b cc39 6378 e739 f8b7 753b
000001b0: 864d 3d3b f889 1d3b 0884 423a 5df1 403b
000001c0: 1fae 54ba 7ed7 47ba e826 eabb f317 04bb
000001d0: ae3b 9dba 32f3 d23a 813a d639 92e5 f3b7
000001e0: bd65 33bb b3eb c339 5e36 3d3b 3c3d 23ba
000001f0: 59d1 d4b9 88f0 56bb f071 2d3a 52b9 503a
00000200: 0e3f cd3c e820 9e3c bd04 9d3c 55c1 9b3c
00000210: 1d66 9b3c 1d86 9e3c a8d8 9c3c 0f62 9dbc
00000220: 4130 9abc a829 bb3c d499 9c3c 1cff 9bbc
00000230: 0225 9e3c 26d0 9c3c ecb4 9bbc d1b6 9abc
00000240: 378b 9cbc 448a 9dbc 8c54 9bbc fcfe 9abc
00000250: 8a2a 9dbc 9d62 9cbc cb74 d53c c95c a0bc
00000260: 29bd 9b3c c67b 9c3c b565 9dbc a882 9dbc
00000270: 5095 9bbc f70a 9dbc 6be9 9ebc a326 9f3c
00000280: 0303 883c 83eb 9dbc 0e1f 9bbc 6b28 9c3c
00000290: a755 873c 0212 9dbc 5986 9ebc 6b17 9d3c
000002a0: f984 9bbc 4c51 9bbc 9732 9c3c 74c0 bf3c
000002b0: 801c b33c 4384 873c ce3b 9d3c cc24 883c
000002c0: 0bfc 9dbc 3a1c 9e3c 5719 9fbc 6788 9fbc
000002d0: 8e31 9fbc e4be 9f3c 408e 9e3c fbad 9c3c
000002e0: eb71 a0bc 177f 9b3c f244 bf3c 996f 9d3c
000002f0: c892 9cbc 4864 a4bc 1dbd 9cbc f21f 9e3c
00000300: 9c1a ab38 3d63 dfbb 4c49 d0bb 3974 dbbb
00000310: 9988 c9bb 3ca2 a8bb eeaa ccbb a517 d23b
00000320: 1d29 d93b c8b2 8c39 65d4 d9bb f4c8 db3b
00000330: 4a03 ddbb 83e5 d5bb ffbe dd3b ccfb de3b
00000340: fb8e be3b d870 d43b b89b dd3b 64fe cb3b
00000350: 56f2 cf3b 326b df3b 3944 38b9 db62 c93b
00000360: 0a66 dcbb ba9c cebb ca20 d23b f0d7 d33b
00000370: 54f2 a63b 6525 d63b c20a ac3b 7bbc a0bb
00000380: c2de 923c 7eb1 e13b ca7f d73b f54f bbbb
00000390: 3d0a 8f3c cd2a da3b d68d c53b 1aa7 b1bb
000003a0: 85b6 d03b 0f48 e23b ea54 b8bb 48be 8238
000003b0: 5c43 d2ba 472b 803c 8052 b6bb 0396 923c
000003c0: 580f c03b 1891 dabb c51b 9f3b a58e c33b
000003d0: 2afb b03b b2a7 a0bb 2a6e babb 2a28 cfbb
000003e0: e388 b53b 08b4 c3bb 9337 9aba 54c1 d9bb
000003f0: 32f8 c53b 1bc0 ba3b 4c11 dd3b 2c06 acbb
0.00061403523 0.0036812783 0.0030371037 0.004051192 0.003439938 0.002231952 0.0028842755 -4.4985583e-05
0.0033990392 -0.00024555842 0.0039342204 -0.0025837056 0.0036148466 0.0037717544 -0.0038700956 -0.0032574318
0.0025203472 -0.0019051163 -0.0024139485 0.0027769227 0.00015684498 -0.003935244 0.0026490574 0.005381834
0.003866041 0.0031175578 0.00014512999 -0.0014606504 0.008428133 -0.0012496044 0.0054467125 0.0027460086
0.011305497 -0.0029345548 -0.0024768282 0.0032142096 0.010802926 -0.0023540102 0.0059244554 0.0025149004
-0.0012972102 -0.0037011262 0.0032672419 0.0020312215 0.0021264197 0.010580022 0.0029288456 0.011368105
0.0022803172 0.003845316 0.011134161 0.010225264 0.004490133 0.002566328 0.002402767 0.003040231
0.013809622 0.00333271 0.0026513217 0.0038368332 0.0015152841 0.009718263 -0.0023470346 0.0019958355
0.0033490127 -0.00065949635 -0.00018545183 -0.00049103925 0.00039073094 0.00078082544 -0.000209144 -0.00010884212
-0.0016803378 0.0036925613 -0.00042356347 -0.00015612354 -0.00068745075 -0.0003100921 0.00044057707 8.453684e-05
-0.0006850724 0.00056179706 -0.00012150451 -0.0016570216 -9.547573e-05 0.00042662912 0.003420522 -0.014216903
-0.0005524179 -0.000109705674 -5.8499867e-05 0.00031497644 -0.007453493 0.00022001208 -0.0014425735 0.0015819591
0.0030295004 0.0008421287 -0.00017328752 0.00041923634 0.0032234606 0.00057046954 -0.0023695973 0.0005477526
-0.00041445036 0.00038989887 0.00044149449 0.0037493687 0.002888532 0.0024038535 0.0007420187 0.0029440739
-0.0008113104 -0.00076233584 -0.0071457513 -0.0020155876 -0.0011995935 0.0016094206 0.0004086085 -2.907476e-05
-0.0027373873 0.00037368908 0.0028871517 -0.0006227081 -0.00040591767 -0.0032797176 0.0006616404 0.0007962185
0.02505448 0.0193028 0.019167298 0.019013086 0.01896959 0.01935106 0.019146279 -0.019211797
-0.018821837 0.022847012 0.01911632 -0.019042544 0.019304756 0.019142222 -0.019007169 -0.018886002
-0.019109352 -0.01923097 -0.018961214 -0.018920414 -0.019185323 -0.019089991 0.026056668 -0.019575493
0.019011097 0.019101989 -0.019213537 -0.01922734 -0.018992096 -0.019170268 -0.019398412 0.019427603
0.016602999 -0.01927734 -0.018935706 0.019062242 0.016520334 -0.019173626 -0.019351171 0.019176206
-0.018984305 -0.018959664 0.019067092 0.023407198 0.021864176 0.01654256 0.019193556 0.016619109
-0.019285223 0.019300569 -0.019421263 -0.019474221 -0.01943281 0.019500203 0.01935494 0.01912593
-0.01958557 0.0189815 0.023348305 0.019218253 -0.01911296 -0.02006735 -0.019133145 0.019302342
8.158872e-05 -0.00681725 -0.006356394 -0.0066972044 -0.006150317 -0.005146293 -0.0062459623 0.00641151
0.0066272155 0.00026836083 -0.006647634 0.006707305 -0.006744777 -0.006527604 0.0067671533 0.006804919
0.0058153844 0.0064831786 0.006762948 0.006225394 0.0063460274 0.0068181986 -0.00017573022 0.0061458177
-0.006726031 -0.0063053044 0.0064126 0.0064649507 0.0050948057 0.0065352195 0.005250306 -0.004905281
0.017928485 0.006887614 0.006576513 -0.0057163187 0.017460937 0.0066579343 0.006028871 -0.0054215314
0.0063694143 0.0069055627 -0.005625357 6.234326e-05 -0.0016041803 0.015645636 -0.005564034 0.017893797
0.005861204 -0.0066701286 0.0048556053 0.0059679323 0.005401035 -0.0049028033 -0.005689402 -0.0063219266
0.00554 -0.005972389 -0.001176583 -0.006645361 0.00604155 0.0056991703 0.0067464467 -0.005249759
