checkpoints/credit_honam2_emb32_4.pt (torch, 657266 bytes, 362 tensors)

weight f4 [32, 1]
0.0093089165 -0.024770088 -0.025687296 0.010723772 0.009385987 -0.025524402 -0.025518127 -0.021744983
-0.022594057 -0.02541778 -0.026154546 0.011143848 0.009631023 -0.025821378 -0.024586683 0.010351535
0.008465132 -0.025775637 0.011427532 -0.025184331 -0.024979675 0.012432594 0.012479479 -0.023449834
-0.024575042 -0.025567643 -0.015392094 -0.024995333 0.011600934 -0.024560662 0.012461444 -0.025352536
00000000: 6d84 183c a4ea cabc 2a6e d2bc c3b2 2f3c
00000010: afc7 193c 8d18 d1bc 640b d1bc 8922 b2bc
00000020: 2c17 b9bc f338 d0bc 0f42 d6bc b094 363c
00000030: 70cb 1d3c 5b87 d3bc 036a c9bc 7c99 293c
00000040: 56b1 0a3c 6e27 d3bc 8b3a 3b3c 5f4f cebc
00000050: 2da2 ccbc 14b2 4b3c bb76 4c3c de19 c0bc
00000060: 9951 c9bc 3c73 d1bc 1f2f 7cbc 03c3 ccbc
00000070: d811 3e3c 7133 c9bc 162b 4c3c 1fb0 cfbc

bias f4 [32]
-0.36889842 0.57694936 0.8879434 -0.53474367 -0.35981897 0.647711 0.76960677 0.22859989
0.27157333 0.70435125 0.8394735 -0.60163397 -0.38106033 0.80522513 0.50386685 -0.43862915
-0.30943504 0.9341988 -0.59541744 0.6070615 0.54406655 -0.9277725 -0.9669222 0.29607657
0.45414546 0.8501396 0.08937114 0.6422204 -0.6797634 0.5609267 -0.93209684 0.6147986
00000000: 41e0 bcbe f4b2 133f 4250 633f f6e4 08bf
00000010: 313a b8be 63d0 253f f304 453f 1716 6a3e
00000020: a90b 8b3e 5d50 343f bce7 563f af04 1abf
00000030: 571a c3be 3c23 4e3f 6bfd 003f 0094 e0be
00000040: 456e 9ebe a727 6f3f 476d 18bf 6268 1b3f
00000050: f247 0b3f 8082 6dbf 3788 77bf 5997 973e
00000060: c185 e83e c0a2 593f 3708 b73d 8e68 243f
00000070: f904 2ebf e498 0f3f e69d 6ebf 7163 1d3f

weight f4 [64, 32]
0.0022112618 -0.0036846038 -0.0036288667 0.0024779192 0.002199855 -0.0035807798 -0.0035321452 -0.003616322
-0.0036626654 -0.0036467528 -0.0036273426 0.0025715593 0.0022999211 -0.003632558 -0.0035029855 0.002345852
0.0020554091 -0.0036576164 0.002471332 -0.003633636 -0.0035774228 0.002701648 0.0027188933 -0.0035811476
-0.0036239466 -0.0036222967 -0.003058732 -0.003601565 0.002603721 -0.0034933595 0.0027345803 -0.0035524375
0.0015821847 -0.0019404568 -0.0021148107 0.0018642858 0.0017005154 -0.0020852499 -0.0019806805 -0.0013658301
-0.0014808076 -0.0021068165 -0.0022035767 0.001852705 0.0017522522 -0.0020084966 -0.0019141091 0.001756221
0.0013925111 -0.0021583128 0.0018936066 -0.001902801 -0.0019310603 0.0020243744 0.0021999653 -0.0017396904
-0.0017907935 -0.00211052 -0.00054830534 -0.0020382763 0.001992624 -0.00205583 0.002004498 -0.0019657474
0.0059001367 -0.0014352471 -0.0014949018 0.0057163024 0.005999509 -0.0015145723 -0.001454548 -0.0015115986
-0.0015337695 -0.0013818747 -0.0013446484 0.005525104 0.005910473 -0.0013998899 -0.0014592056 0.0059074983
0.0061552944 -0.0014735712 0.0054395655 -0.0015035975 -0.0014677709 0.004741525 0.0047945213 -0.0013786613
-0.0013514077 -0.0015209253 -0.002007589 -0.001468696 0.0053269975 -0.0013339693 0.0047065765 -0.0013143676
0.0050401227 0.0034309782 0.0037211257 0.004334167 0.004923811 0.0036357231 0.003496986 0.0028295037
0.0029967523 0.003484965 0.0035491495 0.0041434257 0.004988222 0.0036615494 0.003425251 0.0048463014
0.0052672215 0.0037086317 0.0041561085 0.0034594894 0.0033809536 0.0032007887 0.003091818 0.0031100262
0.0033953802 0.003532816 0.0017647339 0.0035127515 0.0039763665 0.0034510598 0.0030951903 0.0035904676
0.0006420527 -0.0011107876 -0.0010314145 0.00080280524 0.00051454647 -0.0010962674 -0.0011735861 -0.0010545362
-0.0009893008 -0.0010062476 -0.001179768 0.0007475523 0.0006139037 -0.0011183155 -0.0010646487 0.00059576245
0.00039197816 -0.0009876109 0.0007873143 -0.0011433449 -0.0010583595 0.0007669483 0.0008585639 -0.0011457751
-0.0010237687 -0.000968703 -0.0005831357 -0.0010221752 0.0007389982 -0.0010753372 0.0008138597 -0.0010679048
0.0040160115 -0.0052229455 -0.0052843033 0.00424201 0.0039321603 -0.005353402 -0.005257589 -0.0050941054
-0.005134328 -0.0052809874 -0.005318727 0.0042968825 0.0039180345 -0.0052384897 -0.0052916445 0.0041659367
0.0037291378 -0.0052148094 0.004434598 -0.0053147385 -0.00522443 0.0046405513 0.004613526 -0.0052228165
-0.005296413 -0.0052386797 -0.0045797615 -0.0052362224 0.0044034314 -0.005259285 0.004538797 -0.0052568805
0.0024916648 -0.0037071728 -0.0038481895 0.002765569 0.00240222 -0.0036468646 -0.0036996095 -0.0031030863
-0.0032874558 -0.003658993 -0.0037289113 0.0028796715 0.0024218806 -0.0036783675 -0.0035148119 0.002633708
0.0022289713 -0.0037933206 0.0028687937 -0.0036280777 -0.0036841962 0.0033298156 0.0031761087 -0.0033068855
-0.0034502435 -0.0038250445 -0.002194247 -0.003665078 0.0030813594 -0.0035326288 0.0032478455 -0.003688011
0.004749251 0.004175678 0.0044419193 0.0040873243 0.0047903364 0.0041738194 0.004254345 0.0036624018
0.0037784067 0.0043373657 0.0044118357 0.0037364257 0.0047354707 0.004376457 0.004098224 0.0045395754
0.0050224042 0.004274444 0.0038088735 0.0041739866 0.0041261325 0.0026177822 0.0026419181 0.0038846305
0.0041673714 0.004283151 0.0023734788 0.004294044 0.0035220215 0.0041827722 0.002580398 0.0041526696
00000000: d1ea 103b 6579 71bb 48d2 6dbb 9664 223b
00000010: 712b 103b 84ab 6abb 907b 67bb d1ff 6cbb
00000020: 5409 70bb 5cfe 6ebb b6b8 6dbb 9b87 283b
00000030: 46ba 163b 3610 6ebb 5892 65bb debc 193b
00000040: 0bb4 063b 9fb4 6fbb 12f6 213b 4c22 6ebb
00000050: 3273 6abb 220e 313b 762f 323b b0b1 6abb
00000060: bc7f 6dbb 0e64 6dbb 0275 48bb 3c08 6cbb
00000070: 31a3 2a3b d9f0 64bb a536 333b 03d0 68bb
00000080: 4f61 cf3a ed56 feba a398 0abb 0d5b f43a
00000090: d4e3 de3a b0a8 08bb 4ece 01bb a705 b3ba
000000a0: a817 c2ba 8412 0abb e269 10bb 77d6 f23a
000000b0: d4ab e53a fba0 03bb d8e2 faba 0031 e63a
000000c0: eb84 b63a 7b72 0dbb e532 f83a 6867 f9ba
000000d0: a21b fdba 5eab 043b 4b2d 103b 5306 e4ba
000000e0: 0fb9 eaba a650 0abb 26bc 0fba 9a94 05bb
000000f0: af96 023b 1bbb 06bb e55d 033b c5d3 00bb
00000100: ef55 c13b e71e bcba 95f0 c3ba d24f bb3b
00000110: 8797 c43b 9d84 c6ba 88a6 beba d520 c6ba
00000120: c408 c9ba 0520 b5ba ea3e b0ba ee0b b53b
00000130: a4ac c13b 837c b7ba d142 bfba b093 c13b
00000140: 5ab2 c93b d824 c1ba 623e b23b 5c14 c5ba
00000150: 3862 c0ba cb5e 9b3b 5c1b 9d3b 32b4 b4ba
00000160: b821 b1ba c959 c7ba c191 03bb 4381 c0ba
00000170: 188e ae3b 95d8 aeba a039 9a3b dc46 acba
00000180: 9d27 a53b 43da 603b 21de 733b a105 8e3b
00000190: ec57 a13b 5045 6e3b b12d 653b 326f 393b
000001a0: 2965 443b 0364 643b d998 683b 93c5 873b
000001b0: 3d74 a33b 9bf6 6f3b 2d7a 603b b9cd 9e3b
000001c0: a898 ac3b 840c 733b f72f 883b 9ab8 623b
000001d0: fd92 5d3b 53c4 513b 19a0 4a3b 95d1 4b3b
000001e0: 0785 5e3b d186 673b a54e e73a 3136 663b
000001f0: 2e4c 823b 2d2b 623b add8 4a3b 0d4e 6b3b
00000200: 6d4f 283a d997 91ba 8730 87ba 5973 523a
00000210: a1e2 063a a1b0 8fba 04d3 99ba 5d38 8aba
00000220: 6dab 81ba 11e4 83ba 72a2 9aba 63f7 433a
00000230: 61ee 203a 7194 92ba af8b 8bba f12c 1c3a
00000240: 6b82 cd39 b972 81ba c563 4e3a 4adc 95ba
00000250: a7b8 8aba 070d 493a 3f11 613a d52d 96ba
00000260: fa2f 86ba 8ff0 7dba 93dd 18ba 82fa 85ba
00000270: 54b9 413a 54f2 8cba 3359 553a f0f8 8bba
00000280: bf98 833b 3e25 abbb f327 adbb 8f00 8b3b
00000290: 5ad9 803b 976b afbb da47 acbb 74ec a6bb
000002a0: dd3d a8bb 220c adbb b748 aebb ddcc 8c3b
000002b0: db62 803b a3a7 abbb 8865 adbb 6982 883b
000002c0: 8d64 743b fee0 aabb 1b50 913b 4227 aebb
000002d0: b231 abbb c40f 983b 102d 973b 2924 abbb
000002e0: 888d adbb 3ba9 abbb d311 96bb 9e94 abbb
000002f0: a94a 903b 1556 acbb 30ba 943b e941 acbb
00000300: 334b 233b 0af4 72bb e831 7cbb 8c3e 353b
00000310: 906e 1d3b 3c00 6fbb 2675 72bb 265d 4bbb
00000320: 5b72 57bb b7cb 6fbb c060 74bb dfb8 3c3b
00000330: 6ab8 1e3b c410 71bb c258 66bb 4a9a 2c3b
00000340: ef13 123b 5c99 78bb 5f02 3c3b 0bc5 6dbb
00000350: 8e72 71bb 0939 5a3b 4326 503b 55b8 58bb
00000360: 7b1d 62bb 99ad 7abb 5bcd 0fbb ce31 70bb
00000370: a2f0 493b ad83 67bb ced9 543b 8fb2 71bb
00000380: 9b9f 9b3b 20d4 883b 858d 913b f6ee 853b
00000390: 41f8 9c3b 89c4 883b 0868 8b3b e804 703b
000003a0: 259f 773b 7620 8e3b 2991 903b d2de 743b
000003b0: 022c 9b3b 6268 8f3b 654a 863b b8c0 943b
000003c0: fb92 a43b a310 8c3b 4b9e 793b f0c5 883b
000003d0: 8234 873b 198f 2b3b 0824 2d3b 4995 7e3b
000003e0: 728e 883b ad59 8c3b 5e8c 1b3b 0db5 8c3b
000003f0: b7d1 663b a30f 893b e51b 293b 1e13 883b

bias f4 [64]
0.11385686 0.0020964146 -0.0122523755 -0.10617744 0.07704106 0.16149387 0.023407102 -0.16734922
-0.07985412 -0.019699052 -0.11562957 0.08345597 0.08320807 0.11568775 0.042816114 -0.12541407
0.0015500489 0.079505034 -0.02483979 -0.07925076 0.032286663 -0.07354405 0.067517035 -0.014289617
-0.08014143 -0.009262839 -0.05176151 0.120279804 0.02101608 -0.06658884 0.082379244 0.018649753
0.08428197 -0.07482868 -0.020530134 -0.058858383 -0.0745997 0.13630652 -0.05667792 0.08674162
0.17236523 0.06083455 0.027134694 -0.01814529 0.08593793 0.12297732 0.06367767 -0.12999482
-0.094078615 0.04230291 0.074181244 -0.009073164 -0.16874658 -0.014002138 -0.13495925 -0.10283944
-0.01766438 0.04597154 0.16367614 0.14130442 0.032790113 -0.11920141 -0.097458124 0.15155257
00000000: c92d e93d 0064 093b 30be 48bc 8f73 d9bd
00000010: b4c7 9d3d a65e 253e 40c0 bf3c 985d 2bbe
00000020: 8f8a a3bd e85f a1bc 32cf ecbd f7ea aa3d
00000030: fe68 aa3d b3ed ec3d f35f 2f3d 8c6c 00be
00000040: 032b cb3a 89d3 a23d d17c cbbc 394e a2bd
00000050: 053f 043d 439e 96bd 5f46 8a3d ff1e 6abc
00000060: 3121 a4bd 2ac3 17bc e103 54bd 4255 f63d
00000070: ea29 ac3c bb5f 88bd 73b6 a83d 5ec7 983c
00000080: 079c ac3d c73f 99bd d02e a8bc 7d15 71bd
00000090: bac7 98bd f093 0b3e 1b27 68bd 97a5 b13d
000000a0: 8380 303e a62d 793d 9449 de3c 6ea5 94bc
000000b0: 3a00 b03d 88db fb3d 7069 823d 5d1d 05be
000000c0: 4aac c0bd d145 2d3d 56ec 973d 9ca7 14bc
000000d0: e7cb 2cbe 3969 65bc c232 0abe 7c9d d2bd
000000e0: e4b4 90bc a74c 3c3d b89a 273e 1bb2 103e
000000f0: ed4e 063d de1f f4bd 2098 c7bd 9930 1b3e

weight f4 [32, 64]
0.0037436923 0.0026827818 0.0005101716 -0.0030906713 0.0035985995 0.0041485503 0.0021494287 -0.003914458
-0.0026304445 -0.00025607567 -0.00317822 0.0031798545 0.0037015132 0.004045916 0.0014686282 -0.0035691054
0.005059191 0.0036121644 0.0007752093 -0.0026543401 0.0007635823 -0.0025473328 0.0034644173 0.00015924286
-0.0027948914 0.0039262827 -0.0011779623 0.0039118016 0.0017842316 -0.0022717472 0.0031192752 0.004145469
0.0032235796 -0.0022488765 -0.00026575112 -0.0016159588 -0.0025579722 0.004093524 -0.0014961443 0.0036765547
0.004401011 0.003232252 0.002027751 -2.1431194e-06 0.0033268165 0.0039521265 0.0025443344 -0.0035650756
-0.0027814663 0.0015067612 0.0034227557 0.0021306868 -0.00381757 0.00026067172 -0.003456205 -0.0029980415
0.0018404179 0.0018562427 0.0042709783 0.0041357013 0.0008487392 -0.003405641 -0.0030888447 0.004235019
0.008146483 0.005005295 -0.0042374623 -0.007341985 0.008191736 0.008482169 0.0046591926 -0.00814706
-0.007095626 -0.0050808936 -0.0076297363 0.007834369 0.008301318 0.008411142 0.0067277392 -0.007811307
0.0069617373 0.008277801 -0.0040434273 -0.007095637 0.0062070126 -0.0071007204 0.008083027 -0.004632801
-0.007204727 0.0031380204 -0.005818468 0.008336568 0.0068942336 -0.006871046 0.0077864714 0.0062223496
0.00788458 -0.0067110974 -0.005001478 -0.006169574 -0.0070386888 0.008495219 -0.006131429 0.008296906
0.0086059915 0.007979301 0.0071667177 -0.004930287 0.007837073 0.008370482 0.007433211 -0.007859715
-0.00720423 0.006618724 0.008169223 -0.0027163115 -0.007957852 -0.004615227 -0.0077217887 -0.0073781773
-0.003066075 0.0067918664 0.008512921 0.008505285 0.006151497 -0.0075641307 -0.0074357083 0.008688853
-0.0160344 -0.017292565 0.011457469 0.013478517 -0.016872702 -0.015789494 -0.016477289 0.014226495
0.0136013655 0.012371221 0.013577546 -0.016293455 -0.016744994 -0.016468218 -0.017255057 0.013959291
-0.017119605 -0.016834639 0.011346437 0.013812576 -0.01763436 0.01364139 -0.017031543 0.011810836
0.013871885 -0.0044480693 0.012590555 -0.016039444 -0.018458739 0.013435051 -0.016287036 -0.01681223
-0.0162013 0.0132113835 0.012519135 0.012869716 0.01369211 -0.015842961 0.0129166255 -0.016739583
-0.01606627 -0.017089844 -0.018092088 0.012293522 -0.01622633 -0.016052235 -0.016687157 0.013997863
0.013356638 -0.01713392 -0.0169514 0.009186407 0.013847209 0.011985474 0.013820788 0.013516422
0.010054656 -0.01700169 -0.01570219 -0.015916524 -0.017620573 0.013837067 0.0139324935 -0.016273266
-0.016839234 -0.02038452 0.015510235 0.015330016 -0.017720753 -0.016255358 -0.019315263 0.015508097
0.015614522 0.015811587 0.015159941 -0.017375587 -0.017704168 -0.017153978 -0.019168658 0.015555526
-0.020108411 -0.017713016 0.015282827 0.015642041 -0.020119967 0.015738389 -0.018116754 0.01571895
0.015772829 -0.004393287 0.0151998475 -0.0166977 -0.020555815 0.015664456 -0.017430617 -0.019923002
-0.017245198 0.015320127 0.015896235 0.015246827 0.015591146 -0.016637044 0.015331421 -0.017514171
-0.016592998 -0.018340074 -0.019970587 0.015875386 -0.017282892 -0.016767453 -0.018038517 0.0155326305
0.015139693 -0.019167066 -0.017891608 0.013951332 0.015178185 0.015794968 0.01512786 0.015172597
0.014485457 -0.01883711 -0.016377216 -0.016554527 -0.019850127 0.015345177 0.015584787 -0.016698932
00000000: bc58 753b 9cd1 2f3b 09bd 053a dc8c 4abb
00000010: 7bd6 6b3b 90f0 873b 6edd 0c3b db44 80bb
00000020: 8963 2cbb e541 86b9 af49 50bb 1b65 503b
00000030: 1695 723b 9a93 843b fc7e c03a a7e7 69bb
00000040: 92c7 a53b 10ba 6c3b 6a37 4b3a 70f4 2dbb
00000050: 242b 483a 27f1 26bb 470b 633b 6efa 2639
00000060: 7f2a 37bb 0ca8 803b db65 9aba 922e 803b
00000070: e1dc e93a 98e1 14bb c16c 4c3b b7d6 873b
00000080: b142 533b e361 13bb 8354 8bb9 94ce d3ba
00000090: a7a3 27bb f822 863b 461a c4ba 5af2 703b
000000a0: 5b36 903b 31d4 533b 04e4 043b 83d2 0fb6
000000b0: b806 5a3b d780 813b d9be 263b 0ba4 69bb
000000c0: 4349 36bb 847e c53a 5050 603b fea2 0b3b
000000d0: 3230 7abb c4aa 8839 7f81 62bb ca7a 44bb
000000e0: 2d3a f13a 2b4d f33a 90f3 8b3b c784 873b
000000f0: ec7d 5e3a 2d31 5fbb 376e 4abb eac5 8a3b
00000100: d478 053c 7503 a43b 69da 8abb 0995 f0bb
00000110: a236 063c ccf8 0a3c 24ac 983b 3f7b 05bc
00000120: 6d82 e8bb a07d a6bb de02 fabb ba5b 003c
00000130: 4002 083c e3ce 093c 5e74 dc3b fef5 ffbb
00000140: 491f e43b 9d9f 073c ba7e 84bb 8482 e8bb
00000150: 3264 cb3b 29ad e8bb ac6e 043c c0ce 97bb
00000160: a115 ecbb 3fa7 4d3b d9a8 bebb 1a96 083c
00000170: 06e9 e13b 8326 e1bb a825 ff3b dae4 cb3b
00000180: 532e 013c c4e8 dbbb 70e3 a3bb 232a cabb
00000190: cda4 e6bb 882f 0b3c 28ea c8bb bfef 073c
000001a0: 2500 0d3c 9dbb 023c c9d6 ea3b 3f8e a1bb
000001b0: 1167 003c 5924 093c 4b92 f33b 09c6 00bc
000001c0: 7611 ecbb e2e1 d83b 34d8 053c 2504 32bb
000001d0: a761 02bc 553b 97bb 0f07 fdbb a3c4 f1bb
000001e0: 34f0 48bb 4e8e de3b c779 0b3c c059 0b3c
000001f0: 7f92 c93b 87dc f7bb 3ea7 f3bb b15b 0e3c
00000200: 935a 83bc 23a9 8dbc 1cb8 3b3c ffd4 5c3c
00000210: 9f38 8abc f858 81bc 61fb 86bc 3f16 693c
00000220: 43d8 5e3c a9b0 4a3c 5b74 5e3c da79 85bc
00000230: cc2c 89bc 5be8 86bc 7a5a 8dbc 83b5 643c
00000240: 6a3e 8cbc cce8 89bc 68e6 393c 254e 623c
00000250: ef75 90bc 2380 5f3c bc85 8bbc 3d82 413c
00000260: e746 633c 1cc1 91bb 9d48 4e3c 2765 83bc
00000270: c836 97bc b01e 5c3c 646c 85bc cdb9 89bc
00000280: 97b8 84bc 8f74 583c 0f1d 4d3c 80db 523c
00000290: df54 603c 19c9 81bc 41a0 533c 7321 89bc
000002a0: 699d 83bc 0000 8cbc dc35 94bc c56a 493c
000002b0: 15ed 84bc fa7f 83bc 81b3 88bc 4b57 653c
000002c0: cdd5 5a3c 6f5c 8cbc aadd 8abc 9582 163c
000002d0: 67df 623c b95e 443c 9670 623c fc73 5d3c
000002e0: 49bc 243c 2147 8bbc e1a1 80bc 5f63 82bc
000002f0: 0559 90bc deb4 623c 1d45 643c 834f 85bc
00000300: 6ff2 89bc 70fd a6bc a41e 7e3c bf2a 7b3c
00000310: 1d2b 91bc f529 85bc 0b3b 9ebc ac15 7e3c
00000320: 0dd4 7f3c 4d87 813c 6761 783c 3f57 8ebc
00000330: 5508 91bc 8086 8cbc 9707 9dbc 9bdc 7e3c
00000340: 65ba a4bc e31a 91bc d364 7a3c bd23 803c
00000350: a1d2 a4bc cbed 803c 9669 94bc 07c5 803c
00000360: 0536 813c 90f5 8fbb c808 793c 9dc9 88bc
00000370: ab64 a8bc bf52 803c a7ca 8ebc 9035 a3bc
00000380: cd45 8dbc 4501 7b3c d238 823c d4cd 793c
00000390: 0272 7f3c 694a 88bc a430 7b3c e179 8fbc
000003a0: 0aee 87bc ec3d 96bc 5b99 a3bc 190d 823c
000003b0: da94 8dbc e65b 89bc 83c5 93bc 937c 7e3c
000003c0: 7a0c 783c 4004 9dbc 6c91 92bc 2194 643c
000003d0: ecad 783c 7364 813c d8da 773c 7c96 783c
000003e0: 6954 6d3c 4850 9abc 8329 86bc 5c9d 87bc
000003f0: bc9c a2bc 566a 7b3c 5657 7f3c 33cc 88bc

bias f4 [32]
0.072585806 0.11235397 -0.108390726 -0.023032611 -0.13936773 -0.0021795854 -0.001832719 -0.08157788
-0.037392013 -0.13917424 -0.04938842 0.04861935 -0.085059516 0.040283926 0.0069507896 -0.013629773
0.070446014 0.09184067 0.018190807 0.103851065 0.074431926 -0.064203404 -0.057577655 -0.058578923
-0.09596675 -0.102955 -0.023652975 0.105758205 0.03863907 -0.04978692 -0.042513233 0.080278635
00000000: dea7 943d d719 e63d f5fb ddbd e3ae bcbc
00000010: 6ab6 0ebe 60d7 0ebb d837 f0ba 4e12 a7bd
00000020: 5e28 19bd b183 0ebe 834b 4abd 1525 473d
00000030: af33 aebd c200 253d 73c3 e33b 694f 5fbc
00000040: 0046 903d f616 bc3d e304 953c deaf d43d
00000050: c46f 983d 137d 83bd 8cd6 6bbd 74f0 6fbd
00000060: 378a c4bd 12da d2bd e2c3 c1bc c297 d83d
00000070: 0044 1e3d 5fed 4bbd 5b22 2ebd 2069 a43d

weight f4 [32, 1]
0.15551089 -0.036515776 -0.053606242 -0.048354328 -0.012024338 0.35421473 -0.19273823 -0.028537415
-0.002377356 0.03657306 0.08517677 0.005993588 -0.0014454405 0.23993845 -0.1502882 -0.055919778
-0.23017238 0.0058406405 0.02761056 -0.022926288 0.0059812055 -0.059965603 -0.030803751 -0.3834331
-0.064765915 0.10531427 -0.13953127 0.012294408 -0.060994014 -0.06318831 -0.07853218 0.0069348305
00000000: 3f3e 1f3e 9191 15bd 3892 5bbd 300f 46bd
00000010: bb01 45bc a25b b53e 2c5d 45be 4cc7 e9bc
00000020: 6acd 1bbb a2cd 153d 2971 ae3d dc65 c43b
00000030: ef74 bdba 6db2 753e 26e5 19be 230c 65bd
00000040: 4fb2 6bbe d862 bf3b 8b2f e23c e9cf bbbc
00000050: fdfd c33b 7e9e 75bd 2658 fcbc 5851 c4be
00000060: fea3 84bd 02af d73d 49e1 0ebe 7c6e 493c
00000070: dcd4 79bd df68 81bd 7bd5 a0bd 933d e33b

bias f4 [32]
0.14794695 -0.41150892 0.6648077 0.61144245 -0.53612435 0.0006509564 -0.09625063 -0.44739476
-0.6152617 0.31263515 0.23891063 0.37575683 -0.62076527 0.06168968 -0.15391575 0.69379824
0.21709147 0.37127352 0.32718483 0.46305537 0.37129915 0.75555485 0.49090484 0.35992312
-0.32112762 0.21170345 -0.17080653 -0.8029683 0.7678839 0.8115258 -0.28896168 -0.72146046
00000000: 687f 173e 4cb1 d2be d630 2a3f 7e87 1c3f
00000010: 723f 09bf f2a4 2a3a 0d1f c5bd ed10 e5be
00000020: ca81 1dbf b711 a03e fda4 743e 3363 c03e
00000030: 79ea 1ebf 51ae 7c3d 179c 1dbe c39c 313f
00000040: 3a4d 5e3e 9017 be3e c584 a73e 9815 ed3e
00000050: ec1a be3e 0b6c 413f e157 fb3e d847 b83e
00000060: d76a a4be cac8 583e e8e7 2ebe 558f 4dbf
00000070: 0a94 443f 28c0 4f3f c9f2 93be a2b1 38bf

weight f4 [64, 32]
-0.006016187 0.0057207965 -0.0004850532 -0.0007172774 0.005288605 -0.049544062 0.006971953 0.005732251
0.0050106896 -0.002329564 -0.0033428401 -0.0018630773 0.0051243636 -0.015070714 0.0068839714 -0.0005908561
0.040636413 -0.0017485416 -0.0022184756 -0.0012119643 -0.0018969007 -0.00031227272 -0.0011681956 0.2802966
0.006149587 -0.003930035 0.006907876 0.004540128 -0.00034976107 -0.00018001912 0.0064240713 0.004661934
0.013786569 0.001832473 -0.0059752744 -0.0057161488 0.0037494593 0.11718079 -0.024722934 0.0023842182
0.004550725 -0.00088474894 0.00316766 -0.0026086115 0.0046133893 0.043098394 -0.012956605 -0.0062962025
-0.35217747 -0.0026591602 -0.0013061251 -0.004311538 -0.0027492354 -0.0064669303 -0.0047463914 -0.65430003
-0.00060817105 0.0053177685 -0.010661523 0.005780024 -0.006572556 -0.0067748283 -0.0018200618 0.005407331
0.047416694 -0.025782598 0.022197483 0.022451445 -0.024169654 0.18939513 -0.059143126 -0.02533448
-0.023631578 0.027276808 0.032497693 0.025125481 -0.023626836 0.08947779 -0.043722503 0.022239067
-0.32084712 0.025086317 0.026470616 0.023592362 0.025081925 0.022114815 0.023039086 -0.510544
-0.028365174 0.0354454 -0.040756952 -0.022928096 0.021898735 0.021870935 -0.029800242 -0.02327913
-0.016139327 0.009731479 -0.009227701 -0.009414297 0.0098755965 -0.06303998 0.008863582 0.00973974
0.009879283 -0.011200129 -0.012491273 -0.010551466 0.009962413 -0.026906755 0.00922553 -0.009087822
0.066322625 -0.010530659 -0.010933661 -0.009888956 -0.010595999 -0.008941251 -0.00979063 0.28270462
0.0097209755 -0.013321837 0.0094633475 0.009923853 -0.00899541 -0.00890517 0.009737179 0.009932126
-0.012514787 0.008556604 -0.005947867 -0.0061820047 0.008511344 -0.059753504 0.008254625 0.008707776
0.008499271 -0.007861498 -0.009087261 -0.0072096204 0.00853336 -0.023119505 0.008582273 -0.0059088394
0.07558788 -0.0071461694 -0.0075635263 -0.0066596437 -0.0070713786 -0.0057584844 -0.006467024 0.28041616
0.008642227 -0.009743812 0.008766961 0.0083731385 -0.005795878 -0.0058309496 0.008671142 0.008305746
-0.050363645 0.047046196 -0.038509645 -0.038808145 0.0476203 -0.11773706 0.038508773 0.04716314
0.047842074 -0.042417917 -0.044559985 -0.041190773 0.047731474 -0.067246996 0.041570198 -0.038448364
0.08324919 -0.041320633 -0.042095155 -0.040050443 -0.041260753 -0.038001534 -0.039868142 0.27629834
0.04606124 -0.045859538 0.042363238 0.04778828 -0.037961103 -0.037755616 0.045523953 0.047757626
0.013750331 0.001665513 -0.0061611366 -0.005652839 0.0035295836 0.11531083 -0.02479976 0.0023132141
0.0043925964 -0.00088486995 0.0031221006 -0.0027404856 0.0043197116 0.04253694 -0.01314886 -0.006322734
-0.3397851 -0.002630221 -0.0014807872 -0.004317448 -0.0027244478 -0.0065281107 -0.0047061453 -0.64802533
-0.00074301794 0.005293065 -0.010904276 0.005670816 -0.006550708 -0.006669039 -0.0021855666 0.005073141
0.05003277 -0.025650805 0.021411564 0.02168064 -0.023733063 0.20712629 -0.0641193 -0.024847459
-0.022909274 0.02739234 0.033178713 0.024874933 -0.022998856 0.097269826 -0.046261795 0.021371573
-0.32851383 0.024812521 0.026524097 0.022977496 0.024851112 0.021110816 0.022527754 -0.52222055
-0.02853307 0.036608145 -0.0429893 -0.02205287 0.021080717 0.020993005 -0.030269803 -0.02235907
00000000: 6f23 c5bb 8575 bb3b bd4e feb9 ac07 3cba
00000010: 094c ad3b b7ee 4abd fb74 e43b 9bd5 bb3b
00000020: b630 a43b 99ab 18bb 8d13 5bbb 8032 f4ba
00000030: 47ea a73b 28eb 76bc f092 e13b afe3 1aba
00000040: 5e72 263d 522f e5ba d863 11bb c6da 9eba
00000050: 6da1 f8ba 89b8 a3b9 241e 99ba 0983 8f3e
00000060: 7a82 c93b 86c7 80bb 775b e23b 5bc5 943b
00000070: 2360 b7b9 84c3 3cb9 0481 d23b 23c3 983b
00000080: 10e1 613c 972f f03a 3ccc c3bb 884e bbbb
00000090: 7db9 753b 7bfc ef3d c087 cabc 8b40 1c3b
000000a0: 401e 953b 7fee 67ba 8498 4f3b 3df5 2abb
000000b0: ea2b 973b f187 303d f147 54bc 6050 cebb
000000c0: 9b50 b4be 4e45 2ebb 4932 abba cd47 8dbb
000000d0: 842c 34bb 8be8 d3bb 9e87 9bbb 3580 27bf
000000e0: ab6d 1fba ad40 ae3b abad 2ebc 5b66 bd3b
000000f0: 995e d7bb 61ff ddbb 248f eeba fb2f b13b
00000100: 0238 423d 0736 d3bc 7fd7 b53c 18ec b73c
00000110: 70ff c5bc ccf0 413e 1040 72bd 418a cfbc
00000120: 0397 c1bc 9d73 df3c 4d1c 053d f4d3 cd3c
00000130: 118d c1bc 2240 b73d 5e16 33bd b42e b63c
00000140: 1346 a4be d281 cd3c e8d8 d83c c544 c13c
00000150: 9c78 cd3c 212a b53c 77bc bc3c 03b3 02bf
00000160: 155e e8bc 322f 113d c3f0 26bd b4d3 bbbc
00000170: fa64 b33c ad2a b33c a31f f4bc e0b3 bebc
00000180: 9f36 84bc c870 1f3c c92f 17bc 6c3e 1abc
00000190: 41cd 213c 1b1b 81bd 8f38 113c 6e93 1f3c
000001a0: b7dc 213c bf80 37bc 32a8 4cbc 0ee0 2cbc
000001b0: 6439 233c 8e6b dcbc ad26 173c 17e5 14bc
000001c0: 28d4 873d c988 2cbc 1923 33bc 4a05 22bc
000001d0: d79a 2dbc 537e 12bc e168 20bc a9be 903e
000001e0: ba44 1f3c d643 5abc 280c 1b3c a897 223c
000001f0: 7c61 13bc fde6 11bc b088 1f3c 5bba 223c
00000200: d20a 4dbc 0031 0c3c 53e6 c2bb 6a92 cabb
00000210: 2a73 0b3c 17c0 74bd 683e 073c 0fab 0e3c
00000220: 8740 0b3c 83cd 00bc bce2 14bc ae3e ecbb
00000230: 82cf 0b3c 1e65 bdbc a99c 0c3c f09e c1bb
00000240: d2cd 9a3d 6a2a eabb 75d7 f7bb 2439 dabb
00000250: 06b7 e7bb abb1 bcbb 54e9 d3bb b592 8f3e
00000260: 2198 0d3c 82a4 1fbc 4da3 0f3c 7d2f 093c
00000270: 59eb bdbb 8d11 bfbb 6811 0e3c d314 083c
00000280: 1c4a 4ebd 83b3 403d 4abc 1dbd 4af5 1ebd
00000290: 810d 433d 2120 f1bd 60bb 1d3d 232e 413d
000002a0: 0df6 433d 69be 2dbd 8884 36bd a8b7 28bd
000002b0: 1482 433d cbb8 89bd 8345 2a3d 087c 1dbd
000002c0: 8d7e aa3d d33f 29bd f86b 2cbd ef0b 24bd
000002d0: 0901 29bd 7fa7 1bbd c74c 23bd fa76 8d3e
000002e0: b6aa 3c3d 36d7 3bbd 1385 2d3d a5bd 433d
000002f0: 1a7d 1bbd a2a5 1abd 5377 3a3d 809d 433d
00000300: 1149 613c 584d da3a 5ce3 c9bb 733b b9bb
00000310: 9650 673b 1628 ec3d de28 cbbc 4b99 173b
00000320: c5ef 8f3b 9ef6 67ba 289c 4c3b b899 33bb
00000330: 5e8c 8d3b 373b 2e3d 516e 57bc f02e cfbb
00000340: 50f8 adbe c95f 2cbb f916 c2ba 6179 8dbb
00000350: a68c 32bb c3e9 d5bb 0236 9abb fde4 25bf
00000360: 17c7 42ba 7371 ad3b d9a7 32bc 41d2 b93b
00000370: 52a7 d6bb f487 dabb b93b 0fbb 973c a63b
00000380: 29ef 4c3d a321 d2bc 4e67 af3c 999b b13c
00000390: d76b c2bc ea18 543e fb50 83bd e68c cbbc
000003a0: 3bac bbbc e765 e03c 67e6 073d 84c6 cb3c
000003b0: 1968 bcbc 6735 c73d 027d 3dbd 7013 af3c
000003c0: f732 a8be a143 cb3c 1049 d93c 4d3b bc3c
000003d0: 8f94 cb3c 97f0 ac3c 208c b83c 3fb0 05bf
000003e0: 2fbe e9bc 6cf2 153d 8c15 30bd 38a8 b4bc
000003f0: 78b1 ac3c 86f9 ab3c 61f8 f7bc 5e2a b7bc

bias f4 [64]
-0.12763609 0.10036565 0.04671808 -0.09369741 -0.089158125 -0.0979866 0.10090089 0.027740179
-0.09228772 -0.09407776 0.024924187 -0.14306897 -0.18373282 0.08115087 0.05679258 0.12258981
-0.047812358 0.02724615 -0.048547883 0.05134376 0.049904555 -0.13954099 -0.14244406 0.078446425
0.009143981 0.116106585 -0.1523964 -0.08480508 0.10746966 0.10331074 -0.07446966 0.10184256
-0.13865714 -0.15182014 -0.11877808 0.13193862 0.015533331 -0.08248759 0.1143366 0.13058536
0.09954618 -0.14726298 -0.117278636 0.039439462 0.071333304 -0.08332162 0.12248364 0.047073044
-0.010497887 -0.08284119 -0.111847766 -0.14162013 -0.10718744 -0.10524899 -0.06114601 -0.06738692
0.07026416 0.033767495 0.11961116 0.0017533482 -0.09126339 -0.06049164 -0.10555492 -0.11162004
00000000: 09b3 02be 828c cd3d 755b 3f3d 6de4 bfbd
00000010: 8998 b6bd 33ad c8bd 20a5 ce3d 5f3f e33c
00000020: 5801 bdbd d7ab c0bd cf2d cc3c ac80 12be
00000030: 7524 3cbe 6d32 a63d 569f 683d 5e10 fb3d
00000040: e4d6 43bd 5133 df3c 25da 46bd d64d 523d
00000050: b868 4c3d d5e3 0ebe dbdc 11be 85a8 a03d
00000060: a3d0 153c 4ac9 ed3d cd0d 1cbe 49ae adbd
00000070: 0e19 dc3d 9594 d33d 8d83 98bd d592 d03d
00000080: 23fc 0dbe bd76 1bbe ec41 f3bd eb1a 073e
00000090: 837f 7e3c 41ef a8bd 4f29 ea3d 2bb8 053e
000000a0: dede cb3d 1bcc 16be c82f f0bd 468b 213d
000000b0: 3217 923d 87a4 aabd b4d8 fa3d aacf 403d
000000c0: 54ff 2bbc a4a8 a9bd 7110 e5bd de04 11be
000000d0: 1785 dbbd c88c d7bd 3d74 7abd 2702 8abd
000000e0: a8e6 8f3d c94f 0a3d b2f6 f43d 9ad0 e53a
000000f0: 4de8 babd 15c6 77bd 2e2d d8bd 0c99 e4bd

weight f4 [32, 64]
-0.0023618853 0.0018887375 -0.0013768382 -0.0010230318 0.00010232889 -0.0064189793 0.0019775112 -0.0026767298
-0.0012622102 -0.0010336249 -0.0021489563 -0.001984153 -0.0061673066 0.001984749 0.00093854516 0.0029659902
0.012817099 -0.002764009 0.0031147557 -0.00022545284 -0.0005313211 -0.0021577706 -0.0049909875 0.0012504762
-0.0018965836 0.0028392174 -0.0020908548 -0.0034717894 0.0021481942 0.0019453355 -0.00010969793 0.0019818845
-0.0019969244 -0.002184274 -0.00087339594 0.0026606694 -0.010877245 -0.002023461 0.0022297103 0.0029475312
0.0018707119 0.002453891 -0.0019275708 0.00023340654 0.0017532423 0.004155288 0.0027897183 0.00095261645
0.009060847 0.00025497892 -0.001065726 -0.0021652149 -0.0012234777 -0.00079352275 -0.0022747389 -0.013493795
0.00072765094 -0.009409394 0.002352958 -0.008195388 -0.0007259847 0.0017467424 -0.00092206127 -0.010126314
-0.0094314 0.021310672 -0.004463866 -0.010315396 0.007920821 -0.005058463 0.021279981 -0.004623995
-0.001368018 -0.0012777317 0.0218479 -0.003678203 -0.030827083 0.021721933 0.020858606 0.019160973
0.009882481 -0.004904875 0.012567881 0.018869236 0.013499081 -0.0034147382 -0.019759238 0.021733688
0.02326079 0.019294802 -0.0034009984 -0.038124405 0.021193506 0.020242179 0.0012087822 0.02089381
-0.004604144 -0.0028463595 0.0035869016 0.018785559 0.0200293 -0.03224279 0.020696322 0.018210307
0.022289872 -0.0010112566 -0.010662728 0.018242804 0.022292294 0.012484356 0.019675354 0.02561475
-0.0017077537 -0.009925906 -0.0029276132 -0.010580908 -0.0015092954 -0.00034618395 -0.020466765 -0.002156616
0.020790642 -0.013762019 0.019645063 0.04539986 -0.0013035539 0.005183584 -0.008134246 0.0037285401
0.015857548 -0.015615397 -0.016969444 0.017542014 0.014896221 0.020953646 -0.015720183 -0.018450204
0.015640184 0.015640648 -0.017856296 0.0150991045 0.02474817 -0.015935104 -0.016350612 -0.015665242
-0.0037525948 -0.018730126 0.0029207896 -0.016237607 -0.016195882 0.0152860135 0.019730907 -0.015745336
-0.018813804 -0.015648738 0.015095779 0.01775423 -0.015632685 -0.015554601 0.016295671 -0.01555683
0.015330269 0.01525248 0.015090248 -0.015362954 -0.009957575 0.021639002 -0.015465521 -0.015526953
-0.015661474 0.009827094 0.016008824 -0.017154457 -0.0162575 0.01281125 -0.015576004 -0.016824134
-0.002790741 0.017263904 0.015782345 0.015749006 0.015509395 0.015376151 0.025108496 0.034291912
-0.015945924 -0.09600168 -0.015455137 -0.023561817 0.015857937 0.017224448 0.018039942 0.032305956
0.014829899 -0.014224358 -0.013385772 0.01462831 0.014611879 0.012740785 -0.014289421 -0.011792433
0.014972301 0.015036241 -0.015013289 0.014381927 0.014377617 -0.014563874 -0.015106606 -0.014808545
0.014262416 -0.01163119 0.014032214 -0.0148135945 -0.014850055 0.0147995455 0.014235128 -0.01417933
-0.015892161 -0.014788735 0.014571933 0.013677126 -0.014368734 -0.014360345 0.015113862 -0.014255307
0.014415558 0.014543069 0.01461243 -0.014476176 -0.007437556 0.014947849 -0.014323888 -0.014725448
-0.01432431 0.014204151 0.013706073 -0.015680684 -0.0146463765 0.019903995 -0.014746283 -0.014774396
-0.003304069 0.014759782 0.014581314 0.014365017 0.014858681 0.014672109 0.014806473 0.011897553
-0.014530996 -0.047385447 -0.014412747 -0.001261958 0.014857682 0.014716609 0.014639829 0.013211406
00000000: dcc9 1abb 848f f73a 0677 b4ba 4017 86ba
00000010: 6899 d638 4d56 d2bb 2299 013b 136c 2fbb
00000020: bf70 a5ba b27a 87ba 81d5 0cbb 9008 02bb
00000030: 1e17 cabb 9012 023b b308 763a 0f61 423b
00000040: cffe 513c 6024 35bb ee20 4c3b 8967 6cb9
00000050: 5b48 0bba 6269 0dbb 708b a3bb 05e7 a33a
00000060: c996 f8ba 2a12 3a3b b906 09bb f686 63bb
00000070: b8c8 0c3b a1fa fe3a a10d e6b8 81e2 013b
00000080: d5de 02bb 0926 0fbb 9cf4 64ba a05e 2e3b
00000090: 7936 32bc 0b9c 04bb 5520 123b 5e2b 413b
000000a0: ad32 f53a 76d1 203b 8ba6 fcba 97be 7439
000000b0: 0dcd e53a 1529 883b b5d3 363b 02b9 793a
000000c0: f273 143c b1ae 8539 d5af 8bba 47e6 0dbb
000000d0: 195d a0ba 6904 50ba c913 15bb 1415 5dbc
000000e0: d4bf 3e3a dc29 1abc 1634 1a3b f345 06bc
000000f0: 0250 3eba f3f2 e43a 7cb6 71ba d7e8 25bc
00000100: 2986 1abc b893 ae3c 9f45 92bb e801 29bc
00000110: 55c6 013c 77c1 a5bb 5b53 ae3c e284 97bb
00000120: 114f b3ba 9079 a7ba 5efa b23c 020e 71bb
00000130: 1489 fcbc 32f2 b13c abdf aa3c 79f7 9c3c
00000140: 21ea 213c 13b9 a0bb 83e9 4d3c a893 9a3c
00000150: 402b 5d3c cdc9 5fbb 20de a1bc d90a b23c
00000160: 6a8d be3c 2210 9e3c 49e3 5ebb 5628 1cbd
00000170: 019e ad3c edd2 a53c 0070 9e3a 7f29 ab3c
00000180: 5cde 96bb fd89 3abb 3912 6b3b 2ce4 993c
00000190: 7d14 a43c 0411 04bd 558b a93c c82d 953c
000001a0: 4099 b63c 248c 84ba b9b2 2ebc ef71 953c
000001b0: 549e b63c 2f8b 4c3c 352e a13c 06d6 d13c
000001c0: b5d6 dfba 44a0 22bc 33dd 3fbb 8b5b 2dbc
000001d0: 8dd3 c5ba 0680 b5b9 eba9 a7bc 0356 0dbb
000001e0: 2351 aa3c 177a 61bc afee a03c 34f5 393d
000001f0: 03dc aaba 0edb a93b 8045 05bc 865a 743b
00000200: b0e7 813c b9d7 7fbc 8103 8bbc 45b4 8f3c
00000210: 480f 743c fba6 ab3c 9dc7 80bc e224 97bc
00000220: d81f 803c d120 803c 5e47 92bc 3c62 773c
00000230: adbc ca3c 568a 82bc b8f1 85bc 6554 80bc
00000240: 18ee 75bb ec6f 99bc b86a 3f3b bb04 85bc
00000250: 3aad 84bc 3072 7a3c b6a2 a13c 5dfc 80bc
00000260: 681f 9abc c831 80bc 4954 773c 5271 913c
00000270: 1e10 80bc bad8 7ebc 807e 853c 13e2 7ebc
00000280: cf2b 7b3c 8ae5 793c 163d 773c e6b4 7bbc
00000290: 1925 23bc 4744 b13c 1963 7dbc c364 7ebc
000002a0: 7e4c 80bc d201 213c f024 833c 8187 8cbc
000002b0: 732e 85bc 47e6 513c 7f32 7fbc c4d2 89bc
000002c0: dde4 36bb 086d 8d3c fa49 813c 0f04 813c
000002d0: 1e1b 7e3c 40ec 7b3c 55b0 cd3c ad75 0c3d
000002e0: 07a1 82bc 879c c4bd 8b37 7dbc b604 c1bc
000002f0: 81e8 813c 491a 8d3c 80c8 933c 4053 043d
00000300: 1bf9 723c 480d 69bc ff4f 5bbc 94ab 6f3c
00000310: aa66 6f3c babe 503c 2d1e 6abc 0d35 41bc
00000320: 624e 753c 915a 763c 4cfa 75bc 2da2 6b3c
00000330: 1990 6b3c 519d 6ebc b381 77bc 8a9f 72bc
00000340: e9ac 693c bf90 3ebc 5fe7 653c b8b4 72bc
00000350: a54d 73bc cb79 723c 743a 693c 6c50 68bc
00000360: 4730 82bc 734c 72bc 1ebf 6e3c 0616 603c
00000370: d76a 6bbc a747 6bbc 22a0 773c 178f 69bc
00000380: 3c2f 6c3c 0d46 6e3c f968 6f3c 7c2d 6dbc
00000390: beb6 f3bb d3e7 743c beae 6abc 0143 71bc
000003a0: 83b0 6abc 87b8 683c 708f 603c c774 80bc
000003b0: 5bf7 6fbc b40d a33c 659a 71bc 4f10 72bc
000003c0: 1489 58bb 03d3 713c 77e6 6e3c 405b 6b3c
000003d0: d371 733c 4963 703c d996 723c f4ed 423c
000003e0: 6a13 6ebc 3e17 42bd 7123 6cbc 4968 a5ba
000003f0: a36d 733c ef1d 713c e5db 6f3c a774 583c

bias f4 [32]
-0.0346294 0.094824456 0.06811035 -0.0709574 -0.11261766 -0.0026396147 -0.17755136 -0.03227822
-0.073631704 -0.11310987 -0.041705023 0.008532124 -0.05249784 0.095794864 -0.11484143 -0.057130825
0.05690497 -0.1347705 -0.039659105 0.056251008 -0.08785136 -0.10773244 0.075577356 -0.011248523
0.0901749 -0.010828389 -0.009138285 0.0772422 0.05652539 0.045875005 0.113154136 -0.057079576
00000000: 8fd7 0dbd 5333 c23d 707d 8b3d 1d52 91bd
00000010: 16a4 e6bd 63fd 2cbb 06d0 35be 2b36 04bd
00000020: 38cc 96bd 26a6 e7bd e3d2 2abd 52ca 0b3c
00000030: fa07 57bd 1930 c43d fc31 ebbd 0302 6abd
00000040: 3015 693d 4701 0abe 9671 22bd 7567 663d
00000050: 6aeb b3bd d3a2 dcbd 4dc8 9a3d ba4b 38bc
00000060: 9ead b83d 8e69 31bc bfb8 15bc 2931 9e3d
00000070: 2b87 673d 6ee7 3b3d 5bbd e73d 46cc 69bd

weight f4 [32, 1]
-0.14166313 -0.14357647 -0.14368396 -0.14408009 0.13021377 0.13155471 0.13024025 0.13178007
-0.14432552 0.13254148 0.13205643 0.13104051 0.13069037 -0.09038289 -0.14069976 -0.10295231
0.13104004 -0.14293791 -0.14275956 0.13070078 0.12998448 0.13135014 0.1324594 0.13063924
-0.08743558 0.13173074 0.15188858 -0.14200312 0.13096085 0.13235696 -0.14032559 -0.14135358
00000000: 2410 11be b605 13be e321 13be bb89 13be
00000010: c256 053e 47b6 063e b35d 053e 5bf1 063e
00000020: 12ca 13be f4b8 073e cd39 073e 7c2f 063e
00000030: b2d3 053e aa1a b9bd 9913 10be a9d8 d2bd
00000040: 5c2f 063e 515e 12be 902f 12be 6dd6 053e
00000050: a71a 053e a780 063e 70a3 073e 4bc6 053e
00000060: 6d11 b3bd 6ce4 063e ae88 1b3e 4469 11be
00000070: 9a1a 063e 9588 073e 83b1 0fbe febe 10be

bias f4 [32]
0.3982878 0.11056652 0.63578653 0.65811116 -0.36159953 -0.57926035 -0.1647252 -0.6054717
0.8231987 -0.9094579 -0.7539659 -0.48083255 -0.43341106 0.06941299 0.29151475 0.079126775
-0.45395866 0.5173926 0.50733554 -0.4472694 -0.27678737 -0.5293837 -0.79515946 -0.43261376
0.06096105 -0.58239806 -0.09599189 0.42949778 -0.43683738 -0.8027316 0.2184551 0.346278
00000000: 61ec cb3e b370 e23d e8c2 223f f979 283f
00000010: 9323 b9be 684a 14bf b9ad 28be 3100 1bbf
00000020: 26bd 523f 3cd2 68bf e903 41bf af2f f6be
00000030: 0ee8 ddbe 6628 8e3d 6c41 953e 380d a23d
00000040: 456d e8be d773 043f bee0 013f 7f00 e5be
00000050: 13b7 8dbe b185 07bf 928f 4bbf 8d7f ddbe
00000060: 4bb2 793d 0a18 15bf 6597 c4bd 22e7 db3e
00000070: 26a9 dfbe d17f 4dbf b2b2 5f3e 5a4b b13e

weight f4 [64, 32]
-0.007900349 -0.003027948 -0.007372817 -0.0073082144 0.006520805 0.006770562 0.0058851936 0.0066182604
-0.007248371 0.00688241 0.0066685383 0.006719148 0.0065561025 -0.0032250877 -0.008593439 -0.0015422419
0.006707314 -0.007613748 -0.007625482 0.0065976176 0.006453401 0.00672788 0.006788651 0.006566811
-0.0071274 0.006619172 0.015000427 -0.0077617294 0.006672302 0.006746717 -0.009593359 -0.008162935
0.0075835786 -0.0009651731 0.007520731 0.007400625 0.007477225 0.006497806 0.008304815 0.006341262
0.007321643 0.0049920226 0.005582171 0.006847125 0.007125658 -0.008983123 0.0077900295 -0.0065660495
0.0070034866 0.007576949 0.007659621 0.007112859 0.007823925 0.006682649 0.005528356 0.007156637
-0.01141734 0.0063384585 -0.013510927 0.007703911 0.007054576 0.0053692423 0.00798241 0.0077276607
-0.011982763 -0.008561729 -0.010806606 -0.010727825 0.009209498 0.009022221 0.009450847 0.009194072
-0.010366689 0.009142731 0.009021467 0.009095118 0.009203433 -0.010014237 -0.013212794 -0.0077754646
0.009206179 -0.01121251 -0.011329774 0.0091640605 0.009274258 0.009046295 0.009031263 0.00917217
-0.0146874515 0.009183125 0.026662009 -0.011613144 0.009063113 0.0090250075 -0.014716215 -0.01248277
-0.0014795376 -0.013621691 0.00055949355 0.0006259337 0.008269548 0.007368807 0.008884555 0.007158512
0.0014446756 0.0059326147 0.006598466 0.007694685 0.007937794 -0.021986177 -0.0036168366 -0.019312931
0.007939464 -0.00029369548 -0.0002659006 0.007920332 0.008577955 0.007594259 0.006419876 0.00794877
-0.024815604 0.0073435283 0.016174799 -0.0011092438 0.007936267 0.006483788 -0.005817501 -0.002376652
-0.0072571477 -1.5764686e-05 -0.0074061546 -0.0075091934 0.0051390976 0.0062038433 0.002127807 0.0061024986
-0.00752713 0.006711328 0.006448893 0.005732323 0.005578852 0.0017169467 -0.0071640923 0.002350261
0.0055978987 -0.0074133105 -0.0073020887 0.0056372164 0.004315304 0.006032641 0.006643332 0.005458421
-0.0008100842 0.0061659142 -0.0008326584 -0.007365243 0.005583632 0.0065879165 -0.0069841985 -0.0071842186
-0.0013349825 0.008409516 -0.0026241266 -0.002704179 8.549841e-05 0.001826584 -0.0048404266 0.001928406
-0.0031122677 0.0029603855 0.0024453497 0.0011846173 0.0008673686 0.013191383 -0.00021442068 0.012296184
0.0010916851 -0.0021822578 -0.002114362 0.00091788353 -0.0012812988 0.0014827793 0.0025439798 0.00082460616
0.012687106 0.0017896604 -0.031512998 -0.0016939885 0.0008127916 0.002646512 0.0010898196 -0.0009826395
0.003639621 -0.007896884 0.0050863116 0.005066583 0.007905196 0.0068598306 0.008547674 0.0067022094
0.005627962 0.005399951 0.005961865 0.0072355364 0.0074223615 -0.016765496 0.0022898405 -0.014013339
0.0074599567 0.0043316353 0.0044237697 0.007437965 0.008292869 0.007106112 0.0058677285 0.0075388784
-0.01961893 0.006850584 0.0039028414 0.0038688409 0.0075178253 0.0058425358 0.00070037704 0.002942005
-0.0061417557 0.00037096927 -0.0060154865 -0.005957415 0.004593737 0.005179636 0.0025801477 0.005127014
-0.00595041 0.005582211 0.00528312 0.004957596 0.004688764 0.0016413725 -0.006203157 0.0026545872
0.0047749886 -0.0059930515 -0.0059723924 0.0047191684 0.004003543 0.004984523 0.0054005063 0.0047505517
-0.0011142629 0.005203849 0.003101969 -0.00607395 0.004744945 0.005511426 -0.006372513 -0.006122412
00000000: 7770 01bc 8a70 46bb ac97 f1bb bf79 efbb
00000010: 7aac d53b 97db dd3b 95d8 c03b fedd d83b
00000020: be83 edbb d785 e13b c183 da3b 4c2c dc3b
00000030: 93d4 d63b fe5b 53bb 7fcb 0cbc 0d25 caba
00000040: 07c9 db3b bf7c f9bb 2edf f9bb d430 d83b
00000050: 0d77 d33b 8c75 dc3b 5573 de3b 672e d73b
00000060: f78c e9bb a4e5 d83b 5ac4 753c 1b56 febb
00000070: 53a3 da3b 9013 dd3b 772d 1dbc d5bd 05bc
00000080: ab7f f83b ac03 7dba 7770 f63b f180 f23b
00000090: 8203 f53b 8ceb d43b eb10 083c 5cca cf3b
000000a0: 65ea ef3b 1f94 a33b a5ea b63b d95d e03b
000000b0: 5a7e e93b f32d 13bc 8143 ff3b 0428 d7bb
000000c0: 817d e53b 0e48 f83b 8ffd fa3b fc12 e93b
000000d0: ec2f 003c 1ffa da3b 3627 b53b 3982 ea3b
000000e0: cb0f 3bbc d8b2 cf3b ef5c 5dbc 1771 fc3b
000000f0: 132a e73b 78f0 af3b a7c8 023c 5138 fd3b
00000100: 5a53 44bc 7f46 0cbc 310e 31bc c2c3 2fbc
00000110: 6fe3 163c f0d1 133c bad7 1a3c bca2 163c
00000120: 0cd9 29bc 65cb 153c c6ce 133c b103 153c
00000130: ffc9 163c c112 24bc 7a7a 58bc 53c9 febb
00000140: 83d5 163c adb4 37bc 84a0 39bc db24 163c
00000150: 0ff3 173c e936 143c ddf7 133c df46 163c
00000160: a3a3 70bc d174 163c 496a da3c 0e45 3ebc
00000170: 737d 143c a0dd 133c 481c 71bc 8884 4cbc
00000180: 0bed c1ba 832d 5fbc faaa 123a b315 243a
00000190: 007d 073c 0976 f13b 8690 113c f391 ea3b
000001a0: 455b bd3a 6166 c23b f237 d83b b223 fc3b
000001b0: 850d 023c 5b1c b4bc 7308 6dbb 2736 9ebc
000001c0: 8714 023c 24fb 99b9 9368 8bb9 48c4 013c
000001d0: 8d8a 0c3c 43d9 f83b d35d d23b 8f3b 023c
000001e0: 184a cbbc fba1 f03b 0381 843c 0c64 91ba
000001f0: 1e07 023c f575 d43b bca0 bebb 9bc1 1bbb
00000200: 5ecd edbb 683e 84b7 54af f2bb ae0f f6bb
00000210: e065 a83b 9c49 cb3b ad72 0b3b 78f7 c73b
00000220: 25a6 f6bb b3ea db3b 3c51 d33b 36d6 bb3b
00000230: cdce b63b 2c0b e13a c3c0 eabb d606 1a3b
00000240: 946e b73b 5beb f2bb 5c46 efbb 66b8 b83b
00000250: 6567 8d3b 76ad c53b 4fb0 d93b 8edc b23b
00000260: d55b 54ba 700b ca3b c246 5aba 2358 f1bb
00000270: e6f6 b63b 73df d73b b4db e4bb 9869 ebbb
00000280: 94fa aeba 11c8 093c 8af9 2bbb 9838 31bb
00000290: 9c4d b338 fd69 ef3a 719c 9ebb 91c2 fc3a
000002a0: 30f7 4bbb 0703 423b 2942 203b 2945 9b3a
000002b0: 1f60 633a ac20 583c 1dd6 60b9 ef75 493c
000002c0: e016 8f3a 3604 0fbb 1c91 0abb 1f9e 703a
000002d0: 41f1 a7ba d159 c23a e6b8 263b 622a 583a
000002e0: 94dd 4f3c 0a93 ea3a c613 01bd d208 deba
000002f0: 8511 553a 1a71 2d3b 47d8 8e3a e9cb 80ba
00000300: b586 6e3b ef61 01bc 13ab a63b 9405 a63b
00000310: cc84 013c 6ec8 e03b 8b0b 0c3c 359e db3b
00000320: c46a b83b 12f2 b03b c05b c33b 1418 ed3b
00000330: 4837 f33b cb57 89bc 2611 163b 3498 65bc
00000340: a772 f43b 64f0 8d3b 45f5 903b 2cba f33b
00000350: d0de 073c 63da e83b 1346 c03b b208 f73b
00000360: e1b7 a0bc dd7a e03b d0c6 7f3b 618c 7d3b
00000370: 1758 f63b be72 bf3b 8299 373a a7ce 403b
00000380: c840 c9bb a77e c239 8f1d c5bb 6b36 c3bb
00000390: 0f87 963b f0b9 a93b b217 293b 8300 a83b
000003a0: a8fb c2bb fbea b63b 061e ad3b 5473 a23b
000003b0: 34a4 993b 5223 d73a da43 cbbb 95f8 2d3b
000003c0: 8277 9c3b 5c61 c4bb 0fb4 c3bb 41a3 9a3b
000003d0: 2730 833b 3655 a33b bbf6 b03b 84aa 9b3b
000003e0: 750c 92ba 0d85 aa3b 674a 4b3b fc07 c7bb
000003f0: 7c7b 9b3b 3199 b43b 83d0 d0bb 849e c8bb

bias f4 [64]
0.09863244 -0.13324542 0.16266 -0.006046344 0.06129305 0.023853052 -0.034689948 0.066343404
0.13931862 -0.0866779 0.042821907 -0.14614473 0.10987593 -0.0049497616 -0.15260312 0.09195745
-0.002035646 -0.15502386 -0.06049044 0.06789966 0.010383786 0.02488613 -0.04302338 0.07476839
-0.035018593 -0.05206298 0.058849793 -0.13689607 0.108917736 0.040912956 -0.021175671 -0.11763727
0.03922167 0.04680765 -0.039801877 0.14340712 -0.04411305 0.12137463 0.0014360881 -0.15300182
-0.03435705 0.12491775 0.04606415 -0.1309888 0.061463412 -0.12454581 -0.12151778 0.15470125
0.14386053 -0.07624115 0.054323133 -0.0848554 -0.16035269 0.12248029 0.1334136 -0.051975895
-0.16186166 -0.10790915 -0.04245584 0.028936032 0.1270531 -0.14735802 0.011862677 -0.026422035
00000000: ceff c93d 7d71 08be 5890 263e 6920 c6bb
00000010: 6c0e 7b3d 7a67 c33c 0c17 0ebd 0ddf 873d
00000020: 8aa9 0e3e 2f84 b1bd 0666 2f3d f7a6 15be
00000030: a206 e13d 9c31 a2bb fe43 1cbe 3054 bc3d
00000040: 7968 05bb 93be 1ebe d3c4 77bd fa0e 8b3d
00000050: c120 2a3c ffdd cb3c 4939 30bd 2b20 993d
00000060: a86f 0fbd fe3f 55bd 7b0c 713d 7c2e 0cbe
00000070: 4310 df3d 5894 273d 9a78 adbc cfeb f0bd
00000080: e7a6 203d 61b9 3f3d 4b07 23bd 51d9 123e
00000090: e3af 34bd 4393 f83d 1f3b bc3a 82ac 1cbe
000000a0: fab9 0cbd e1d4 ff3d c3ad 3c3d ee21 06be
000000b0: 0fc1 7b3d e011 ffbd 50de f8bd 016a 1e3e
000000c0: 2d50 133e 5224 9cbd ef81 5e3d abc8 adbd
000000d0: 7f33 24be f2d6 fa3d 939d 083e ade4 54bd
000000e0: 10bf 25be 79ff dcbd 2de6 2dbd 420b ed3c
000000f0: 351a 023e 05e5 16be ac5b 423c 0673 d8bc

weight f4 [32, 64]
0.0032013848 -0.0046091145 0.0053731278 0.0032302337 0.00070692535 -0.0022166066 0.0012634244 0.001332533
0.004743655 -0.0027874887 -0.00078767346 -0.0050901854 0.0036585338 -0.0038850599 -0.0052597905 0.0027622376
0.0025825773 -0.00521429 -0.001133671 0.0015139739 -0.003368717 -0.0019962746 0.00015180999 0.0016664964
0.0008321421 -0.00037716617 0.000586408 -0.004781178 0.0035380048 -0.0006039013 0.002167664 -0.0040247967
-0.0010871162 -0.0004023597 0.000470506 0.0047652144 0.00032180405 0.004011692 -0.002876581 -0.0052420045
0.0013373409 0.004189225 -0.00012752939 -0.0046990197 0.0009320311 -0.00443287 -0.0043655504 0.0051043564
0.004779641 -0.0022273362 0.00017508141 -0.0025670985 -0.005524261 0.004037756 0.0043667937 -0.00035665682
-0.005576953 -0.0036388945 0.00027922276 -0.0017533586 0.0042679873 -0.005103167 -0.0030653027 0.0018827689
0.007879064 -0.00916398 0.009845249 -0.0006651702 0.005497998 0.0024779097 -0.0033311206 0.0059837867
0.009201408 -0.007207508 0.0040570917 -0.009510408 0.008261071 -0.001135865 -0.009677981 0.0074997977
9.926493e-05 -0.009731944 -0.005685361 0.0061339727 0.00077187276 0.0024968905 -0.0044459994 0.0064105038
-0.003565744 -0.004874394 0.0054202853 -0.009266159 0.008296147 0.0040320945 -0.0022882565 -0.0085529685
0.0037180812 0.0043405145 -0.0040903226 0.0093991095 -0.0043154242 0.008618562 -0.0006310001 -0.009698878
-0.0034043405 0.0087168375 0.0045619276 -0.009049698 0.0057564843 -0.008912689 -0.008733024 0.009680641
0.009438069 -0.006810845 0.0051112836 -0.007127009 -0.00991613 0.0086745 0.009149013 -0.004858939
-0.00979654 -0.008314077 -0.004206559 0.0029220984 0.008839545 -0.009517033 0.00096929737 -0.0024553682
-0.016277662 0.016134495 -0.015904812 0.017988235 -0.016089117 -0.017258078 0.016212596 -0.01641968
-0.016204061 0.01599732 -0.016388286 0.015835207 -0.016286962 -0.018357886 0.015928647 -0.016033014
0.017637651 0.016062139 0.016337 -0.016432881 -0.018031742 -0.01727894 0.01658962 -0.016121706
0.016704634 0.016190562 -0.016070854 0.016031511 -0.016142832 -0.016718552 0.017142707 0.015932936
-0.016423076 -0.016192636 0.016609292 -0.015978014 0.016185211 -0.0160254 -0.018083075 0.015955143
0.016318202 -0.016136814 -0.016733969 0.016166432 -0.016437242 0.016048701 0.016003517 -0.016163751
-0.016237795 0.016172148 -0.01610399 0.016011624 0.016101638 -0.016002078 -0.015912268 0.016133247
0.016026922 0.015982626 0.016380798 -0.017018152 -0.015918413 0.01610791 -0.017947657 0.016418554
-0.016353223 0.016063858 -0.015839871 0.020035813 -0.016685605 -0.018272001 0.01720854 -0.016752616
-0.016164886 0.016449612 -0.017052362 0.015804159 -0.016351542 -0.020504301 0.015889749 -0.016237564
0.020817788 0.015818937 0.01684312 -0.01668877 -0.019449063 -0.018239971 0.0172428 -0.016360776
0.01749452 0.016787168 -0.016676778 0.01597643 -0.016347725 -0.017441137 0.018239623 0.016007917
-0.017162362 -0.016942024 0.01746437 -0.015818872 0.01690008 -0.016085612 -0.020315636 0.01573759
0.017309044 -0.016132392 -0.017181348 0.016116228 -0.016863102 0.016145555 0.01612088 -0.016081205
-0.01597924 0.01662096 -0.016689006 0.016209548 0.015799629 -0.015993811 -0.015931465 0.01669331
0.015965812 0.016113063 0.017243322 -0.017921345 -0.015924055 0.016013192 -0.019241342 0.017753689
00000000: 53ce 513b 0e08 97bb 1011 b03b 54b2 533b
00000010: f550 393a 7d44 11bb 7d99 a53a 63a8 ae3a
00000020: aa70 9b3b 4dae 36bb df7b 4eba 92cb a6bb
00000030: 03c4 6f3b 7d9c 7ebb 525a acbb a806 353b
00000040: 7540 293b a3dc aabb b097 94ba 8970 c63a
00000050: b1c5 5cbb eed3 02bb 2f2f 1f39 576e da3a
00000060: 1c24 5a3a 63be c5b9 2db9 193a 6eab 9cbb
00000070: dfdd 673b 214f 1eba 5e0f 0e3b 71e2 83bb
00000080: 917d 8eba cef3 d2b9 3fae f639 8425 9c3b
00000090: cfb7 a839 8374 833b 0585 3cbb 1fc5 abbb
000000a0: b749 af3a c445 893b 69b9 05b9 3cfa 99bb
000000b0: 8c53 743a 9c41 91bb e40c 8fbb 7242 a73b
000000c0: 899e 9c3b 80f8 11bb 0f96 3739 c43c 28bb
000000d0: dc04 b5bb 274f 843b 5217 8f3b abfd bab9
000000e0: dfbe b6bb 857a 6ebb a564 9239 f4d0 e5ba
000000f0: 79da 8b3b 7838 a7bb 3fe3 48bb 3ec7 f63a
00000100: 3117 013c 8524 16bc f84d 213c d15e 2eba
00000110: 8d28 b43b 6d64 223b ee4e 5abb a413 c43b
00000120: 81c1 163c f62c ecbb 5af1 843b 8bd1 1bbc
00000130: 7159 073c 4ee1 94ba 6590 1ebc ddc0 f53b
00000140: 742c d038 bb72 1fbc 444c babb 7eff c83b
00000150: 8157 4a3a dfa2 233b bfaf 91bb 340f d23b
00000160: 42af 69bb 61b9 9fbb a69c b13b 16d1 17bc
00000170: 90ec 073c a91f 843b 93f6 15bb c021 0cbc
00000180: 0dab 733b e03a 8e3b 1d08 86bb b9fe 193c
00000190: 6768 8dbb de34 0d3c b369 25ba 0be8 1ebc
000001a0: 5b1b 5fbb 11d1 0e3c 397c 953b 2f45 14bc
000001b0: e4a0 bc3b 8706 12bc f514 0fbc 8d9b 1e3c
000001c0: 21a2 1a3c 822d dfbb 8e7c a73b af89 e9bb
000001d0: 4477 22bc 7d1f 0e3c bee5 153c bc37 9fbb
000001e0: ab81 20bc c437 08bc 2dd7 89bb ad80 3f3b
000001f0: bdd3 103c 54ed 1bbc 7218 7e3a 3eea 20bb
00000200: bb58 85bc 7d2c 843c cf4a 82bc 105c 933c
00000210: 53cd 83bc d060 8dbc 47d0 843c 9182 86bc
00000220: 61be 84bc d00c 833c ba40 86bc d6b8 813c
00000230: 3c6c 85bc 4763 96bc cb7c 823c ab57 83bc
00000240: d67c 903c bf94 833c 2cd5 853c 409e 86bc
00000250: 4eb7 93bc 908c 8dbc f4e6 873c ab11 84bc
00000260: 28d8 883c 12a2 843c 06a7 83bc 8454 833c
00000270: f93d 84bc 58f5 88bc dd6e 8c3c ca85 823c
00000280: b089 86bc 6ba6 84bc 3610 883c 53e4 82bc
00000290: d996 843c b347 83bc f522 94bc 5cb4 823c
000002a0: c0ad 853c 5a31 84bc ad15 89bc 776f 843c
000002b0: 65a7 86bc 9178 833c cf19 833c d869 84bc
000002c0: 2005 85bc 747b 843c 84ec 83bc cf2a 833c
000002d0: 95e7 833c ca16 83bc 725a 82bc df29 843c
000002e0: e44a 833c ffed 823c 0631 863c a769 8bbc
000002f0: 5567 82bc bcf4 833c f706 93bc 3480 863c
00000300: 32f7 85bc 5a98 833c 9ec2 81bc 2522 a43c
00000310: 40b0 88bc 2aaf 95bc edf8 8c3c c83c 89bc
00000320: 396c 84bc 56c1 863c 65b1 8bbc b977 813c
00000330: abf3 85bc a3f8 a7bc 382b 823c a404 85bc
00000340: 118a aa3c b796 813c 95fa 893c e3b6 88bc
00000350: a453 9fbc fe6b 95bc c640 8d3c 0907 86bc
00000360: ab50 8f3c 3e85 893c bd9d 88bc 01e1 823c
00000370: aaeb 85bc b7e0 8ebc 436b 953c 0923 833c
00000380: 1598 8cbc 00ca 8abc 7011 8f3c 9496 81bc
00000390: 0972 8a3c f9c5 83bc fa6c a6bc 1eec 803c
000003a0: b2cb 8d3c 1428 84bc e6bf 8cbc 2e06 843c
000003b0: 7d24 8abc af43 843c f00f 843c bbbc 83bc
000003c0: e5e6 82bc ae28 883c 62b7 88bc e3c9 843c
000003d0: 396e 813c 7405 83bc b482 82bc 69c0 883c
000003e0: bcca 823c 8bff 833c de41 8d3c c9cf 92bc
000003f0: 2a73 82bc 192e 833c 05a0 9dbc 2f70 913c
