checkpoints/credit_honam2_emb32_1.pt (torch, 657266 bytes, 362 tensors)

weight f4 [32, 1]
0	0x3d5c1ab5	0.053736407
1	0xbd3eaeb6	-0.046553336
2	0xbd3cbf80	-0.046081066
3	0xbd699936	-0.05703088
4	0x3d4c2fa6	0.04985013
5	0xbdd19e25	-0.10235242
6	0x3d83831f	0.06421494
7	0xbd6e7f46	-0.058226846
8	0x3d44a017	0.048004236
9	0xbd777aaf	-0.060419735
10	0x3d5230cd	0.05131607
11	0x3ecd9462	0.4015227
12	0xbd61953c	-0.05507396
13	0x3d72dd24	0.059292927
14	0xbd607144	-0.05479552
15	0x3da0e381	0.07855893
16	0xbd963114	-0.0733358
17	0xbe0a966a	-0.13533941
18	0xbd3c3a8d	-0.045954276
19	0xbd6c364b	-0.057668965
20	0x3d6e67ff	0.058204647
21	0xbda5d3e9	-0.08097059
22	0x3d4238a6	0.047417305
23	0x3d51885d	0.051155437
24	0xbe5f9590	-0.21834397
25	0xbd4f9893	-0.050682615
26	0x3d669e7f	0.056303497
27	0x3d9a149d	0.07523463
28	0xbd5213bd	-0.051288355
29	0x3d614937	0.055001464
30	0x3d647114	0.055771902
31	0x3d4bdcba	0.049771048

bias f4 [32]
0	0x3f1fc9e3	0.6241743
1	0xbf619c62	-0.88129246
2	0xbf6bd1e9	-0.9211717
3	0xbee567ea	-0.44805843
4	0x3f585623	0.84506434
5	0xbdece9f7	-0.11568063
6	0x3ec66030	0.3874526
7	0xbedc2b9a	-0.43002015
8	0x3f72ca86	0.94840276
9	0xbec65689	-0.38737896
10	0x3f36fc31	0.71478564
11	0xbc8e6e15	-0.017386476
12	0xbefc92e9	-0.49330834
13	0x3ef37b00	0.4755478
14	0xbefea774	-0.49737132
15	0x3e7d907f	0.24762152
16	0xbe7e128e	-0.24811766
17	0xbd4ac0a9	-0.04950014
18	0xbf6e8a71	-0.93179995
19	0xbee27fee	-0.44238228
20	0x3f015217	0.50515884
21	0xbe4c4c72	-0.19951037
22	0x3f7681ef	0.9629201
23	0x3f447f0f	0.76756376
24	0xba63914d	-0.00086810143
25	0xbf22c483	-0.63581103
26	0x3f12ab3e	0.57292545
27	0x3e87600a	0.2644046
28	0xbf1d4daf	-0.6144666
29	0x3f1d3626	0.6141075
30	0x3f120db4	0.5705216
31	0x3f5a9765	0.8538726

weight f4 [64, 32]
0	0xbca6e69c	-0.020373635
1	0x3caa9e27	0.020827366
2	0x3cac054b	0.020998618
3	0x3c8de058	0.01731889
4	0xbcaf8e59	-0.021430181
5	0x3b767a45	0.00376095
6	0xbc90ee00	-0.017691612
7	0x3c8bff81	0.017089607
8	0xbcb16910	-0.021656543
9	0x3c86bcdd	0.016447479
10	0xbcaa8f67	-0.020820333
11	0x3e3bc4bb	0.18336765
12	0x3c9309cf	0.017949013
13	0xbc9b9cbe	-0.018995639
14	0x3c93f38f	0.018060474
15	0xbc6b1470	-0.014348134
16	0x3c4b5c22	0.012412103
17	0xbbdb39a1	-0.0066902195
18	0x3cab82c7	0.020936383
19	0x3c8dd299	0.017312335
20	0xbc9e434f	-0.019319205
21	0x3c271cab	0.010199706
22	0xbcb25ea5	-0.021773646
23	0xbcac6dd5	-0.021048466
24	0xbd155a64	-0.036463156
25	0x3c9f5fce	0.019454863
26	0xbca32f2b	-0.019919952
27	0xbc74947a	-0.014927978
28	0x3c9d83e5	0.019227931
29	0xbca608cb	-0.020267865
30	0xbca297e2	-0.019847814
31	0xbcafffdc	-0.021484308
32	0xbb1fb1ce	-0.0024367454
33	0x3c262dd2	0.01014276
34	0x3c22a72b	0.009927551
35	0x3c49d0a8	0.012317814
36	0xba9757f2	-0.0011546595
37	0x3c56ed61	0.013118119
38	0xbba9dce6	-0.005183804
39	0x3c4bc9d3	0.012438255
40	0xba5d5bc2	-0.0008444154
41	0x3c4c8fac	0.012485426
42	0xbaf6e9f0	-0.0018838029
43	0xbe21d8ac	-0.1580531
44	0x3c441a16	0.01196911
45	0xbb7c3fe1	-0.0038490223
46	0x3c431898	0.011907719
47	0xbc0e4f7a	-0.008685941
48	0x3c556ae9	0.013025978
49	0x3c4bdee6	0.01244328
50	0x3c22214d	0.009895635
51	0x3c48492a	0.012224475
52	0xbb6111f5	-0.0034342979
53	0x3c582019	0.013191246
54	0xba535ee0	-0.00080631487
55	0xbac08309	-0.0014687489
56	0x3c2b84b4	0.010468651
57	0x3c380fe6	0.011234259
58	0xbb42596a	-0.0029655346
59	0xbc02bd48	-0.0079796985
60	0x3c39fd6b	0.011351923
61	0xbb23d084	-0.0024996111
62	0xbb412c3f	-0.0029475836
63	0xbaa62ae5	-0.0012677578
64	0xbaf1aedb	-0.0018438952
65	0x3b32e7fd	0.002729892
66	0x3b339d1c	0.0027406877
67	0x3b4d9399	0.0031368493
68	0xbaeee30e	-0.0018225627
69	0x3b8b5b9a	0.004252863
70	0xbb10d2b1	-0.0022098238
71	0x3b5659e0	0.0032707378
72	0xbae25d9f	-0.0017270333
73	0x3b55278d	0.0032524795
74	0xbaf2c284	-0.0018521105
75	0xbd249548	-0.04018143
76	0x3b4c301c	0.0031156605
77	0xbb053c79	-0.0020330234
78	0x3b47e4fa	0.003050147
79	0xbb2b0525	-0.0026095596
80	0x3b727164	0.0036993856
81	0x3b97f358	0.004637163
82	0x3b322905	0.0027185094
83	0x3b4c4539	0.003116919
84	0xbaffd5a7	-0.0019518629
85	0x3b7de612	0.003874187
86	0xbadadccb	-0.0016697882
87	0xbadfecb4	-0.0017084093
88	0x3bb327b8	0.0054673813
89	0x3b450220	0.003006108
90	0xbb034a41	-0.0020033272
91	0xbb251ad2	-0.0025192988
92	0x3b40232c	0.002931784
93	0xbb00b2e4	-0.0019637877
94	0xbaf8ff0a	-0.0018996906
95	0xbaec4dbf	-0.0018028541
96	0x3c31799a	0.010832215
97	0x3bbab33a	0.005697635
98	0x3bae2ddb	0.005315525
99	0x3c1d9f0f	0.009620442
100	0x3c46a7f1	0.012125001
101	0x3c49d49f	0.012318759
102	0x3bfcab79	0.007710871
103	0x3c1e2e11	0.009654538
104	0x3c4ef395	0.012631317
105	0x3c27618a	0.010216126
106	0x3c3aea97	0.01140847
107	0xbe20ae91	-0.15691592
108	0x3c1333d0	0.008984521
109	0x3c17057f	0.009217619
110	0x3c153f64	0.009109352
111	0x3b610d76	0.0034340299
112	0x3c3c3dc4	0.011489335
113	0x3c4507ff	0.012025832
114	0x3bad9d15	0.0052982667
115	0x3c1c60b6	0.009544542
116	0x3c1ce0fc	0.009575125
117	0x3c4152d0	0.011799529
118	0x3c4f2509	0.012643107
119	0x3c4204b0	0.011841938
120	0x3c2aab3c	0.010416802
121	0x3bfc4e2a	0.0076997476
122	0x3c26e265	0.010185813
123	0x3b874efa	0.004129288
124	0x3c03087d	0.007997629
125	0x3c2df205	0.010616784
126	0x3c28bebb	0.01029938
127	0x3c491047	0.012271947
128	0xbc4be62d	-0.012445015
129	0x3c54d604	0.012990478
130	0x3c57bb8e	0.013167275
131	0x3c15659d	0.009118465
132	0xbc60ffbc	-0.013732847
133	0xbbef17a5	-0.00729652
134	0xbc1821b1	-0.009285376
135	0x3c0e1dac	0.0086740665
136	0xbc671cf7	-0.014106027
137	0x3c0160ea	0.007896641
138	0xbc57bd33	-0.013167667
139	0x3e8bf3e7	0.2733452
140	0x3c20d1d7	0.009815655
141	0xbc2fb483	-0.01072419
142	0x3c236ebb	0.009975131
143	0xbba2984e	-0.004962004
144	0x3b5994c7	0.003320025
145	0xbca952e3	-0.020669406
146	0x3c5abd1f	0.013350754
147	0x3c1419cf	0.009039356
148	0xbc38a121	-0.011268885
149	0x3a325927	0.0006803446
150	0xbc68d21b	-0.014210249
151	0xbc5a2678	-0.013314836
152	0xbd85f72a	-0.065412834
153	0x3c3b52a9	0.011433282
154	0xbc4354b5	-0.011922051
155	0xbbbb66af	-0.005719028
156	0x3c36c5b0	0.011155531
157	0xbc47a80f	-0.012186064
158	0xbc42c0c5	-0.01188678
159	0xbc610bbc	-0.013735708
160	0xbb844136	-0.004036094
161	0x3b8b9c93	0.0042606085
162	0x3b8f1f79	0.0043677655
163	0x3b2b06df	0.0026096625
164	0xbb933ee3	-0.0044935807
165	0xbb50b41a	-0.003184563
166	0xbb351578	-0.0027631205
167	0x3b2c7ea7	0.0026320608
168	0xbb9b26dc	-0.004734857
169	0x3b0aa467	0.002115512
170	0xbb8ca643	-0.004292281
171	0x3db53882	0.08848669
172	0x3b45fc37	0.0030210146
173	0xbb5ab91f	-0.00333745
174	0x3b3da714	0.0028938698
175	0xbaaa74e2	-0.0013004804
176	0x39d6e824	0.0004099022
177	0xbbf3dc08	-0.0074420013
178	0x3b8fc3ac	0.0043873396
179	0x3b2d214b	0.002641755
180	0xbb67838e	-0.0035326215
181	0xb9d53dbb	-0.0004067252
182	0xbb980fe9	-0.0046405685
183	0xbb91b7ed	-0.0044469745
184	0xbcaa472c	-0.02078589
185	0x3b6e47bb	0.0036358673
186	0xbb7be303	-0.003843487
187	0xbac78f62	-0.0015225227
188	0x3b688e6d	0.0035485283
189	0xbb8321ef	-0.004001848
190	0xbb740084	-0.0037231753
191	0xbb965539	-0.004587796
192	0xbbde3c25	-0.006782072
193	0x3c0277e4	0.007963154
194	0x3c048563	0.0080884425
195	0x3b98a0c6	0.0046578376
196	0xbc0305d8	-0.007996999
197	0xbc20ebee	-0.009821875
198	0xbb809d8a	-0.00392503
199	0x3b8d70da	0.0043164315
200	0xbc083d83	-0.008315447
201	0x3b6ea99b	0.003641701
202	0xbbeec69d	-0.00728686
203	0x3e89509f	0.26819322
204	0x3baccef2	0.0052736932
205	0xbbadd8ee	-0.005305401
206	0x3bacf202	0.005277873
207	0x3969ce16	0.00022297385
208	0xb9e9d586	-0.0004460031
209	0xbcb500eb	-0.022095164
210	0x3c0653c4	0.008198682
211	0x3b91c4c3	0.0044485047
212	0xbbb3d65c	-0.0054882
213	0xbb38ba05	-0.0028187048
214	0xbc0a7d00	-0.008452654
215	0xbbf68293	-0.00752289
216	0xbd832869	-0.06404192
217	0x3bda0f78	0.006654676
218	0xbbc8defa	-0.0061300965
219	0xba01c790	-0.00049506966
220	0x3bd62c78	0.006536063
221	0xbbda6fcf	-0.0066661607
222	0xbbc9afd8	-0.0061549954
223	0xbc020732	-0.007936286
224	0x3b33b3a3	0.0027420304
225	0x3bffb7c8	0.007803891
226	0x3bf6f449	0.0075364453
227	0x3c2fbe6b	0.0107265515
228	0x3b803512	0.0039125765
229	0x3c4dc1d2	0.012558417
230	0xb8ed7910	-0.0001132359
231	0x3c346c54	0.011012156
232	0x3b8c075c	0.0042733382
233	0x3c370981	0.0111716995
234	0x3b52acb0	0.0032146387
235	0xbe1f6db1	-0.15569188
236	0x3c2a4f7d	0.010394928
237	0x3aa3ac30	0.0012487229
238	0x3c29d379	0.01036536
239	0xbb704ad5	-0.0036665697
240	0x3c49215b	0.012276019
241	0x3c4ab7da	0.012372935
242	0x3bf8898d	0.0075847567
243	0x3c31d6eb	0.010854463
244	0x3ad2eab3	0.0016091674
245	0x3c4b1f0f	0.012397542
246	0x3b8e91a3	0.0043508573
247	0x3b6cc805	0.0036129963
248	0x3c28fccc	0.010314178
249	0x3c1b5653	0.0094810305
250	0x3b0e4170	0.0021706484
251	0xbb464d64	-0.003025853
252	0x3c1d824e	0.009613587
253	0x3b2f235d	0.002672396
254	0x3b19fe92	0.0023497683
255	0x3b7de4de	0.0038741152

bias f4 [64]
0	0x3dd319fe	0.10307692
1	0xbdeba02c	-0.1150516
2	0xbbbcc4c2	-0.00576076
3	0xbe037b74	-0.12840062
4	0x3def94d4	0.116983086
5	0x3b868eba	0.00410637
6	0x3d8b7cd6	0.0681092
7	0xbe06d76d	-0.13168116
8	0x3aea0fe2	0.0017857517
9	0x3d7a4538	0.06110117
10	0x3dd1fa1a	0.10252781
11	0x3de721fc	0.11285779
12	0x3cb5f63b	0.022212138
13	0x3c345f9e	0.011009125
14	0x3d2ce56c	0.04221098
15	0xbd683375	-0.0566897
16	0xbd84aae4	-0.06477907
17	0xbe14f6c7	-0.14547263
18	0xbe1f3233	-0.15546493
19	0xbdc8c65e	-0.098034605
20	0x3c007a68	0.007841684
21	0x3aa6884b	0.0012705413
22	0x3a5ff051	0.0008542585
23	0x3c3d4044	0.011550967
24	0xbbff11e8	-0.007784117
25	0xbe2081e3	-0.15674548
26	0x3e0e26cc	0.13881987
27	0xbdf472d3	-0.119359635
28	0xbb9ad96c	-0.0047256257
29	0x3d731c39	0.059353087
30	0x3cf13df8	0.029448494
31	0xbd8e30c1	-0.06942893
32	0xbe0d2380	-0.13783073
33	0x3dfcb634	0.1233944
34	0xba247b22	-0.0006274452
35	0x3e11287d	0.14175601
36	0x3d8ff21a	0.07028599
37	0x3d82af61	0.06381107
38	0x3cc0881b	0.0235024
39	0xbc1b14c5	-0.009465401
40	0xbde6b1ca	-0.11264379
41	0x3bef8169	0.007309128
42	0x3e1926bc	0.14956182
43	0x3dbb3b27	0.09142142
44	0x3e112beb	0.1417691
45	0x3e160db8	0.14653671
46	0x3df78f06	0.120878264
47	0xbdc8375b	-0.09776183
48	0xbdb1cef1	-0.08682049
49	0xbbfbbc72	-0.0076823765
50	0xbdc61960	-0.09672809
51	0xbd2ca7bc	-0.04215215
52	0xbd230b0f	-0.03980547
53	0x3e0b2c1c	0.13591045
54	0xbcc9ceff	-0.024634836
55	0x3e1a6df8	0.15081012
56	0xbdfb81bf	-0.122806065
57	0xbe1fa60b	-0.15590684
58	0x3c39f400	0.011349678
59	0x3ca7e017	0.020492597
60	0xbd81e8cb	-0.0634323
61	0xbdc22ffd	-0.09481809
62	0x3d0cde8c	0.034391925
63	0x3be32072	0.006931358

weight f4 [32, 64]
0	0xbc96a345	-0.0183884
1	0x3c8be094	0.01707486
2	0xba6cb80a	-0.00090301095
3	0x3c8cc531	0.017183872
4	0xbc96f8b8	-0.018429145
5	0xbca5eb20	-0.020253718
6	0xbc9f1a9d	-0.01942187
7	0x3c8e53ad	0.017373884
8	0xbcb1ae92	-0.021689687
9	0xbc9fef5c	-0.019523315
10	0xbc964369	-0.01834269
11	0xbc99151d	-0.018686825
12	0x3c11198d	0.008856189
13	0x3c3e952a	0.011632243
14	0xbca14a47	-0.019688739
15	0x3c90df13	0.017684495
16	0x3c8e73b7	0.017389162
17	0x3c8b8ac9	0.017033951
18	0x3c8dbead	0.017302835
19	0x3c8f1899	0.017467784
20	0xbcb29a1e	-0.021802004
21	0xbcb1cd4b	-0.021704337
22	0xbcb1d1c3	-0.021706467
23	0xbcafa8c3	-0.021442777
24	0x3c5360ca	0.012901494
25	0x3c8c6885	0.017139683
26	0xbc961bde	-0.018323835
27	0x3c8e194b	0.017346045
28	0xbba013c9	-0.004885171
29	0xbc9fac1b	-0.019491246
30	0xbca6518b	-0.020302555
31	0x3c8cb3c9	0.017175572
32	0x3c8be82f	0.017078487
33	0xbc966edc	-0.018363409
34	0xbcacdcdc	-0.021101408
35	0xbc94955d	-0.018137628
36	0xbc9e65b8	-0.019335613
37	0xbc9f4e38	-0.019446477
38	0xbca7ec8f	-0.020498542
39	0x3c3bb612	0.011456983
40	0x3c8c2dbe	0.017111655
41	0xbcb3530d	-0.021890188
42	0xbc9443e0	-0.018098772
43	0xbc997313	-0.01873163
44	0xbc97134f	-0.018441824
45	0xbc959e43	-0.018263942
46	0xbc9855b9	-0.018595563
47	0x3c8f11e6	0.01746459
48	0x3c8a3a82	0.016873602
49	0xbb73c741	-0.0037197622
50	0x3c8dd123	0.017311638
51	0x3c915096	0.017738622
52	0x3c6c81a2	0.014435204
53	0xbc96db4b	-0.018415114
54	0x3c592c20	0.013255149
55	0xbc94434e	-0.0180985
56	0x3c8b4ffa	0.01700591
57	0x3c8be238	0.017075643
58	0xbcace35c	-0.021104507
59	0xbca7ea7e	-0.020497557
60	0x3c8ed0e8	0.017433599
61	0x3c8f68b8	0.017505988
62	0xbca3d7ef	-0.020000426
63	0xbc746bfa	-0.014918322
64	0xbc97a987	-0.018513454
65	0x3c9d6ce5	0.019216964
66	0x3ab341ad	0.0013676189
67	0x3c9a1482	0.018808607
68	0xbc9a160b	-0.018809339
69	0xbc804b9f	-0.015661059
70	0xbc9d5280	-0.019204378
71	0x3c9c9dd8	0.019118235
72	0xbc9a5f52	-0.01884428
73	0xbc9e6af4	-0.019338109
74	0xbc968cf0	-0.018377751
75	0xbc9b6937	-0.018971069
76	0x3cc84e73	0.02445147
77	0x3c80a1b1	0.0157021
78	0xbc9b0ac4	-0.018926032
79	0x3d3a453c	0.045476183
80	0x3d28e286	0.041231655
81	0x3c9928b6	0.01869617
82	0x3c98a5d9	0.01863377
83	0x3ca0d3e4	0.019632287
84	0xbc99b352	-0.018762264
85	0xbc9a5c7b	-0.018842926
86	0xbc9b0936	-0.01892529
87	0xbc9a588c	-0.01884105
88	0x3c81d1b4	0.015847065
89	0x3c974841	0.01846707
90	0xbc9a8598	-0.01886253
91	0x3c9a7664	0.018855281
92	0xbb877bdb	-0.004134638
93	0xbc9ebe79	-0.019377934
94	0xbc9ae29d	-0.018906886
95	0x3cbf6135	0.023361782
96	0x3c98eea8	0.018668488
97	0xbc9a27c0	-0.018817782
98	0xbc806c06	-0.01567651
99	0xbc99b7c3	-0.018764382
100	0xbc9e9a5d	-0.019360716
101	0xbc9fe17b	-0.019516697
102	0xbc9b12a0	-0.01892978
103	0x3c762fb7	0.015026025
104	0x3ca1b04b	0.019737383
105	0xbc98869c	-0.018618874
106	0xbc9a0cd4	-0.018804945
107	0xbc9ca7be	-0.019122954
108	0xbc9b676d	-0.018970216
109	0xbc9a2a50	-0.018819004
110	0xbc9adc60	-0.018903911
111	0x3c9eb85f	0.019375024
112	0x3cbd3919	0.023098515
113	0xbb4bf50b	-0.0031121399
114	0x3ca2dd50	0.01988092
115	0x3d2d7fbd	0.04235815
116	0x3c92fc82	0.01794267
117	0xbc9a93f4	-0.018869378
118	0xbc5a2b6d	-0.013316018
119	0xbc990d4b	-0.018683096
120	0x3c9a2d49	0.018820422
121	0x3c972f79	0.018455254
122	0xbc9bb28e	-0.01900604
123	0xbc9b67f5	-0.018970469
124	0x3d29c329	0.041445885
125	0x3ca0aaf6	0.01961277
126	0xbc9a5743	-0.018840438
127	0xbc3b412d	-0.011429113
128	0xbc948b46	-0.018132817
129	0x3c978506	0.018496048
130	0x3b67f9d1	0.0035396705
131	0x3c9953db	0.018716743
132	0xbc989286	-0.018624555
133	0xbc4d8fa7	-0.012546456
134	0xbc9a5b1f	-0.018842278
135	0x3c99e7ed	0.018787349
136	0xbc995495	-0.01871709
137	0xbc9898c7	-0.018627537
138	0xbc9630d8	-0.018333837
139	0xbc9ccf73	-0.019141888
140	0xbbfd7298	-0.007734608
141	0x3be9d6fd	0.0071362243
142	0xbc98f634	-0.018672086
143	0x3c9319bf	0.017956613
144	0x3c8aed22	0.016958777
145	0x3c998345	0.018739352
146	0x3c9a121d	0.018807465
147	0x3c977dd3	0.018492615
148	0xbc95baa5	-0.018277476
149	0xbc9a25a4	-0.018816777
150	0xbc990001	-0.01867676
151	0xbc96f11f	-0.018425522
152	0x3becc8d0	0.007226087
153	0x3c9ac82f	0.018894283
154	0xbc9ab718	-0.018886134
155	0x3c99dabe	0.018781062
156	0xbb8aecf5	-0.0042396733
157	0xbc9698f9	-0.01838349
158	0xbc977911	-0.018490346
159	0x3c765713	0.015035409
160	0x3c993afb	0.018704882
161	0xbc9970fa	-0.01873063
162	0xbc4ab471	-0.012372122
163	0xbc9a9594	-0.018870153
164	0xbc9af7ad	-0.01891693
165	0xbc9d422d	-0.019196594
166	0xbc99977b	-0.01874899
167	0x3be92eff	0.007116198
168	0x3c94bfcb	0.01815786
169	0xbc94c87d	-0.018162007
170	0xbc9b34ae	-0.018946018
171	0xbc95fc55	-0.018308798
172	0xbca0b55c	-0.019617729
173	0xbc9f32fe	-0.019433495
174	0xbc9bed26	-0.01903398
175	0x3c975d82	0.018477205
176	0x3c7648c9	0.015032002
177	0xbb0c7624	-0.0021432722
178	0x3c9800b2	0.018555019
179	0x3c8bbe16	0.017058413
180	0x3b78cd27	0.0037964077
181	0xbc9f4716	-0.019443076
182	0x3c60c478	0.013718717
183	0xbc9b738e	-0.018976
184	0x3c98f138	0.01866971
185	0x3c990740	0.018680215
186	0xbc9993b4	-0.018747188
187	0xbc99785d	-0.018734151
188	0x3c8b42ec	0.016999684
189	0x3c979e14	0.018507995
190	0xbc98caf2	-0.01865146
191	0xbc1dfe56	-0.009643158
192	0xbc9a077c	-0.018802397
193	0x3c630898	0.013857029
194	0x3aaddfc9	0.0013265546
195	0x3ca2e039	0.019882308
196	0xbc9be457	-0.01902978
197	0xbca92c5d	-0.020651037
198	0xbc9c387b	-0.0190699
199	0x3ca35d1e	0.019941863
200	0xbca5d757	-0.020244284
201	0xbc9d84ef	-0.019228427
202	0xbc99febd	-0.018798226
203	0xbca5206e	-0.020157065
204	0x3b5377c3	0.0032267428
205	0xbb991389	-0.004671518
206	0xbc9ddd3d	-0.019270534
207	0xbc3df50c	-0.011594068
208	0xbc316e1c	-0.010829475
209	0x3ca040f3	0.01956222
210	0x3ca91621	0.020640435
211	0x3c0bbf98	0.008529566
212	0xbca81a36	-0.02052031
213	0xbca6e0ae	-0.020370807
214	0xbca6a5e6	-0.020342778
215	0xbca595a0	-0.020212948
216	0xbbb280fe	-0.005447506
217	0x3ca9b711	0.020717176
218	0xbca4b377	-0.020105107
219	0x3ca0d90e	0.01963475
220	0xbb75886e	-0.0037465352
221	0xbc9e724f	-0.019341616
222	0xbca0440d	-0.0195637
223	0xbc4b7b06	-0.012419468
224	0x3c9f9a64	0.019482799
225	0xbc9e05be	-0.019289847
226	0xbcaf1a1a	-0.02137475
227	0xbca6bf74	-0.020354964
228	0xbc9d648c	-0.019212984
229	0xbc9d6c05	-0.019216547
230	0xbca22c20	-0.019796431
231	0xbbac74c0	-0.005262941
232	0xbbc64c64	-0.006051587
233	0xbca87580	-0.02056384
234	0xbca93749	-0.020656245
235	0xbc98c430	-0.018648237
236	0xbcafcd9f	-0.021460352
237	0xbcb0bf75	-0.021575669
238	0xbca918ec	-0.020641766
239	0x3c6b6e82	0.014369609
240	0xbc5225f5	-0.0128264325
241	0xbb1a6f34	-0.0023564817
242	0xbad6eed0	-0.0016398076
243	0xbc25c472	-0.010117637
244	0xbbe44b79	-0.006967005
245	0xbcac810c	-0.021057628
246	0x3c7bf932	0.015379237
247	0xbcaa1eca	-0.020766634
248	0x3c9bb43a	0.019006837
249	0x3ca187ed	0.019718135
250	0xbca46fb9	-0.020072805
251	0xbca2a650	-0.019854695
252	0xbc2f1290	-0.010685578
253	0x3c08e59a	0.0083555225
254	0xbc9fd41b	-0.01951032
255	0xbc822713	-0.015887773

bias f4 [32]
0	0xbdce1ca3	-0.10064056
1	0x3d1306ec	0.035895273
2	0xbdf3a73f	-0.11897134
3	0xbdbfac99	-0.09359092
4	0x3da8b9aa	0.082385376
5	0x3d29a7fb	0.041419964
6	0xbd1bc56c	-0.038030073
7	0xbe0f3383	-0.13984494
8	0x3d2cb858	0.04216799
9	0x3da960e8	0.082704365
10	0xbd4f8a94	-0.050669268
11	0x3db4f0bc	0.08834979
12	0xbd8985dc	-0.06714985
13	0x3dd21bd5	0.10259215
14	0x3d1b0d05	0.037854213
15	0xbdc99c50	-0.09844267
16	0x3cb3865b	0.021914652
17	0xbd600ccc	-0.054699704
18	0xbd8ea1d3	-0.06964459
19	0xbba8aece	-0.0051477915
20	0xbddf0a76	-0.10890667
21	0x3d6797df	0.05654132
22	0x3d8dbbac	0.06920561
23	0xbc0ae9cc	-0.008478593
24	0x3d225324	0.03963007
25	0xbe048969	-0.12943043
26	0x3acf9fe4	0.0015840498
27	0xbd631a3e	-0.05544495
28	0xbb93a12f	-0.0045052986
29	0xbd79ac26	-0.06095519
30	0xbca24372	-0.019807551
31	0xbdae5810	-0.0851289

weight f4 [32, 1]
0	0x3da60880	0.0810709
1	0x3da66bb1	0.08126009
2	0xbdb8669b	-0.090039454
3	0x3da6b9dd	0.08140919
4	0x3da6ec2f	0.08150517
5	0x3da6182e	0.08110081
6	0xbdbc6892	-0.09199633
7	0x3da5ff55	0.08105341
8	0x3da70199	0.081546016
9	0xbdb8cc58	-0.090233505
10	0xbdbc08d5	-0.09181372
11	0xbdbbe080	-0.09173679
12	0x3da57155	0.08078257
13	0x3e67074e	0.2256138
14	0x3da71197	0.08157652
15	0x3da5dafa	0.08098407
16	0xbdbbd3e5	-0.09171275
17	0x3da75439	0.08170361
18	0x3da6a3b7	0.08136695
19	0xbdb983d0	-0.09058344
20	0x3da6ca76	0.08144085
21	0x3da5f1da	0.0810277
22	0x3da63be8	0.08116895
23	0x3da6ae5b	0.081387244
24	0x3da622e7	0.08112126
25	0xbdbc7733	-0.09202423
26	0x3da5d390	0.08096993
27	0x3da5b086	0.0809031
28	0x3da66e57	0.081265144
29	0x3da5771c	0.08079359
30	0xbdb96e24	-0.09054211
31	0xbdba9ab3	-0.09111538

bias f4 [32]
0	0xbe7d82da	-0.24756947
1	0xbf355ece	-0.70847785
2	0x3da18e11	0.07888425
3	0xbf55a1de	-0.83450115
4	0xbf541451	-0.828435
5	0xbe87daae	-0.26534027
6	0x3f6a19ca	0.914456
7	0xbe53e1fc	-0.20691675
8	0xbe142162	-0.1446586
9	0x3e2c7e82	0.16845134
10	0x3f740270	0.9531622
11	0x3f7031a7	0.93825763
12	0xbe9a1baa	-0.3009923
13	0x3dbd055c	0.09229538
14	0xbf61715e	-0.8806361
15	0xbeb884e2	-0.36038882
16	0x3f1dca2d	0.6163662
17	0xbf75367d	-0.9578627
18	0xbf42af5f	-0.76048845
19	0x3ec31823	0.38104352
20	0xbf5c7c13	-0.8612682
21	0xbec55399	-0.38540342
22	0xbf46a32e	-0.7759274
23	0xbf621268	-0.88309336
24	0xbe5fa2bf	-0.21839426
25	0x3e741017	0.23834263
26	0xbee72021	-0.451417
27	0xbedf2789	-0.4358485
28	0xbe53e6e7	-0.20693551
29	0xbeb410b1	-0.35168985
30	0x3f61552c	0.88020587
31	0x3e14f0ed	0.14545031

weight f4 [64, 32]
0	0x3c3e3560	0.011609405
1	0x3c13393d	0.008985815
2	0x3bb0c443	0.00539449
3	0x3c05191f	0.008123665
4	0x3c05f1b1	0.0081752995
5	0x3c3a8bfa	0.011385912
6	0x3c12f788	0.008970149
7	0x3c3db770	0.011579379
8	0x3c3adc48	0.011405058
9	0x3bef3705	0.00730026
10	0x3c14b559	0.00907644
11	0x3c12af3b	0.008952911
12	0x3c3997b3	0.011327672
13	0x3d82977f	0.06376552
14	0x3c02423b	0.007950361
15	0x3c345041	0.011005462
16	0x3c0ed72a	0.008718291
17	0x3bf17899	0.0073691127
18	0x3c0ddab2	0.008658098
19	0x3c064d39	0.008197122
20	0x3c01c549	0.007920572
21	0x3c32b4a5	0.010907327
22	0x3c09946e	0.008397205
23	0x3c004cf8	0.007830851
24	0x3c3d11aa	0.011539856
25	0x3bfcf439	0.0077195433
26	0x3c2a5f2a	0.010398665
27	0x3c2c8cdf	0.010531633
28	0x3c3f1f7f	0.011665224
29	0x3c366a45	0.011133735
30	0x3c12e2de	0.008965222
31	0x3bea7198	0.0071546547
32	0x3c04e765	0.008111809
33	0x3c3ea42e	0.011635823
34	0xbb9a5689	-0.004710023
35	0x3c41f0b5	0.011837174
36	0x3c420aa4	0.011843357
37	0x3c0b3a85	0.008497839
38	0xbc4f5497	-0.012654445
39	0x3becd1c9	0.007227157
40	0x3bac7384	0.005262794
41	0xbc0d8d1f	-0.008639603
42	0xbc51e7d5	-0.012811621
43	0xbc51144b	-0.012761186
44	0x3c14dff9	0.009086602
45	0xbe400ac0	-0.18754101
46	0x3c45252d	0.012032789
47	0x3c1de7b6	0.009637764
48	0xbc47eecc	-0.01220293
49	0x3c453d31	0.012038515
50	0x3c406c51	0.011744575
51	0xbc37c136	-0.011215499
52	0x3c41fa42	0.011839451
53	0x3c21a7fc	0.009866711
54	0x3c3fa2b1	0.0116965035
55	0x3c44ad27	0.012004173
56	0x3bf56093	0.007488319
57	0xbc224109	-0.009903201
58	0x3c2abaa5	0.010420476
59	0x3c28b214	0.010296363
60	0x3bf1e8d7	0.007382493
61	0x3c1dc1fa	0.009628767
62	0xbc50265b	-0.012704457
63	0xbc044735	-0.008073618
64	0x3c54ab77	0.0129803335
65	0x3c905bcb	0.017621895
66	0xbbed746c	-0.0072465446
67	0x3c92da25	0.017926285
68	0x3c934def	0.017981498
69	0x3c5b1312	0.013371246
70	0xbc9caa6c	-0.019124232
71	0x3c400349	0.011719533
72	0x3c157516	0.009122154
73	0xbc584805	-0.013200765
74	0xbc9d9283	-0.019234901
75	0xbc9cd56c	-0.019144736
76	0x3c66fa40	0.01409775
77	0xbe4f129a	-0.2022194
78	0x3c952259	0.018204855
79	0x3c778a87	0.015108711
80	0xbc967cae	-0.018369999
81	0x3c9613a0	0.018319905
82	0x3c921415	0.017831841
83	0xbc8b8059	-0.017028974
84	0x3c942bab	0.018087229
85	0x3c7abe49	0.015304157
86	0x3c917403	0.017755514
87	0x3c940b0a	0.01807167
88	0x3c475bd3	0.012167889
89	0xbc780998	-0.015139006
90	0x3c840148	0.016113892
91	0x3c822f56	0.015891712
92	0x3c41e513	0.011834401
93	0x3c737191	0.014858619
94	0xbc9bacfe	-0.019003388
95	0xbc479398	-0.012181185
96	0x3bd471a4	0.0064832736
97	0x3c1e2c58	0.009654127
98	0xbb3f2541	-0.0029166492
99	0x3c1f88c4	0.009737197
100	0x3c21b229	0.009869137
101	0x3be1ce6b	0.006891062
102	0xbc2bb737	-0.010480694
103	0x3bba5d44	0.0056873877
104	0x3b812512	0.0039411867
105	0xbbde0178	-0.0067750774
106	0xbc2ca053	-0.010536271
107	0xbc2d11b9	-0.010563307
108	0x3bebe727	0.0071991864
109	0xbe3bd1b3	-0.18341713
110	0x3c21ee5d	0.00988349
111	0x3c01d182	0.007923486
112	0xbc24df98	-0.0100630745
113	0x3c238c51	0.0099821845
114	0x3c201666	0.009770965
115	0xbc16172d	-0.009160799
116	0x3c230447	0.00994975
117	0x3c0310e9	0.007999637
118	0x3c1dad65	0.00962386
119	0x3c213f3f	0.009841739
120	0x3bc3a407	0.0059704813
121	0xbbff0bce	-0.0077833897
122	0x3c0adfd3	0.008476215
123	0x3c09386c	0.008375268
124	0x3bbbbfdd	0.005729659
125	0x3c00a2e4	0.007851336
126	0xbc2a2e03	-0.010386947
127	0xbbc7164f	-0.0060756574
128	0x3c2f0a6b	0.010683636
129	0x3c56804f	0.013092115
130	0xbc5066e6	-0.012719845
131	0x3c5875d1	0.013211683
132	0x3c59e61c	0.013299491
133	0x3c32160e	0.010869516
134	0xbc6aec4b	-0.014338563
135	0x3c2753d5	0.010212858
136	0x3c175441	0.009236396
137	0xbc60b230	-0.013714358
138	0xbc68fca7	-0.014220393
139	0xbc685eff	-0.014182805
140	0x3c384883	0.011247757
141	0x3dc4d660	0.09611201
142	0x3c5c4859	0.013444983
143	0x3c3ee654	0.011651594
144	0xbc680a5e	-0.014162628
145	0x3c5bcaca	0.013415048
146	0x3c585124	0.013202939
147	0xbc672cb0	-0.014109775
148	0x3c5c2c46	0.01343829
149	0x3c41b467	0.011822796
150	0x3c577f84	0.013152961
151	0x3c5a7133	0.013332653
152	0x3c2ae84f	0.010431363
153	0xbc655a06	-0.013998514
154	0x3c484e1e	0.012225656
155	0x3c464e4b	0.012103627
156	0x3c282494	0.010262627
157	0x3c3f5f0c	0.011680376
158	0xbc69df12	-0.0142743755
159	0xbc5fda87	-0.013662941
160	0x3b482118	0.0030537304
161	0x3badf2d2	0.0053084875
162	0xb8eb4a02	-0.00011219458
163	0x3bb42361	0.0054973816
164	0x3bb0e5c2	0.005398483
165	0x3b573096	0.0032835356
166	0xbbc17438	-0.005903747
167	0x3b16b49d	0.0022995837
168	0x3a8bd06e	0.0010666975
169	0xbb449784	-0.0029997537
170	0xbbc4bfc0	-0.0060043037
171	0xbbc55e39	-0.006023195
172	0x3b62e4e1	0.0034621286
173	0xbe320800	-0.17385864
174	0x3bb96744	0.005658062
175	0x3b82d961	0.0039931987
176	0xbbb8767d	-0.0056293593
177	0x3bb70f3b	0.0055865324
178	0x3bb2a951	0.005452313
179	0xbba1029c	-0.004913641
180	0x3bb87aa7	0.0056298557
181	0x3b8bda06	0.004267934
182	0x3baf49e2	0.0053493837
183	0x3bb75af7	0.0055955607
184	0x3b2af8f6	0.0026088334
185	0xbb7b28e2	-0.0038323929
186	0x3b95e7a3	0.0045747324
187	0x3b939b08	0.004504565
188	0x3b1f22d0	0.0024282224
189	0x3b82debc	0.003993837
190	0xbbc3e4aa	-0.0059781866
191	0xbb24848d	-0.002510342
192	0x3c33ebc2	0.010981502
193	0x3be24491	0.0069051464
194	0x3bb4528f	0.005503006
195	0x3bbca552	0.0057570124
196	0x3bbc0be9	0.0057387245
197	0x3c31a6e6	0.010843014
198	0x3c99eeaf	0.018790571
199	0x3c35faf1	0.011107192
200	0x3c370e82	0.0111728925
201	0x3c41791d	0.011808661
202	0x3c9ab70a	0.018886108
203	0x3c9b9a39	0.018994438
204	0x3c2d6bf1	0.010584817
205	0x3dabbad9	0.08385248
206	0x3badeaa1	0.005307511
207	0x3c24dcef	0.01006244
208	0x3c91f830	0.01781854
209	0x3b9c0f66	0.004762578
210	0x3bcfe051	0.0063438793
211	0x3c84f444	0.016229756
212	0x3bb70add	0.005586012
213	0x3c20ec88	0.009822018
214	0x3bd0559d	0.006357862
215	0x3bae5133	0.0053197383
216	0x3c351dc5	0.011054461
217	0x3c637caa	0.013884703
218	0x3c1765d8	0.00924059
219	0x3c197c7e	0.00936806
220	0x3c3469ea	0.01101158
221	0x3c25d588	0.010121711
222	0x3c99d7fd	0.018779749
223	0x3c308b55	0.010775407
224	0x3c4feeb8	0.012691192
225	0x3c4db73a	0.012555892
226	0x3b94219d	0.0045206086
227	0x3c48c149	0.012253114
228	0x3c48fdf3	0.012267577
229	0x3c51bdd1	0.012801603
230	0xbbfa9f34	-0.007648373
231	0x3c4d6b2b	0.012537758
232	0x3c44072a	0.011964599
233	0xbaaff8dc	-0.0013425606
234	0xbbfd3615	-0.0077273943
235	0xbbf75696	-0.0075481636
236	0x3c50c557	0.012742362
237	0x3d00554a	0.031331338
238	0x3c46d0b9	0.012134724
239	0x3c53d6fe	0.012929676
240	0xbbdfa640	-0.0068252385
241	0x3c44485c	0.011980142
242	0x3c4944a8	0.012284435
243	0xbbba4d76	-0.0056855036
244	0x3c478234	0.012177039
245	0x3c50dd89	0.012748131
246	0x3c4a9055	0.012363513
247	0x3c477aed	0.012175304
248	0x3c4d4d68	0.012530662
249	0xbb6b1d1e	-0.003587551
250	0x3c520a1b	0.012819792
251	0x3c537f66	0.012908792
252	0x3c4db381	0.012555004
253	0x3c53374d	0.012891603
254	0xbbf5ef69	-0.0075053466
255	0xb96d463e	-0.00022628249

bias f4 [64]
0	0xbdef9369	-0.11698038
1	0x3da55a2d	0.0807384
2	0x3dd91763	0.10600164
3	0x3d67f757	0.056632366
4	0xbc9002b3	-0.017579412
5	0x3caa83d5	0.020814816
6	0xbe1384a0	-0.14406061
7	0xbd85dcb5	-0.06536237
8	0x3c4eb3c7	0.012616104
9	0x3d7cd13c	0.06172298
10	0x3dddb927	0.10826331
11	0x3d8da392	0.06915964
12	0x3dd60721	0.104505785
13	0xbe1bc3a8	-0.15211356
14	0x3d8a7174	0.06759921
15	0x3cd79d21	0.026320042
16	0xbda2ef1e	-0.07955764
17	0xbe1fb1bc	-0.15595144
18	0x3e0eed17	0.1395763
19	0xbd891d28	-0.06695014
20	0xbe0e326e	-0.13886425
21	0xbde2a00b	-0.11065682
22	0x3d0b802f	0.034057792
23	0x3dbb0f78	0.0913381
24	0x3c49b6fd	0.012311694
25	0x3caa52ba	0.0207914
26	0xbd0bd546	-0.03413894
27	0x3cb6f447	0.022333277
28	0xbd002a55	-0.03129037
29	0x3df15a44	0.11784795
30	0x3d672581	0.05643225
31	0xbd978f41	-0.074003704
32	0x3d591b72	0.05300469
33	0xbd96cf61	-0.07363773
34	0xbde07e44	-0.10961583
35	0xbd8e9c56	-0.069634125
36	0x3e037dc2	0.12840942
37	0x3da341eb	0.07971557
38	0xbe130336	-0.14356694
39	0x3e06cd96	0.13164362
40	0xbdef299d	-0.11677859
41	0x3dcbcf5b	0.09951659
42	0x3c89a80c	0.016803764
43	0xbd524660	-0.051336646
44	0xbd0a0948	-0.033700258
45	0xbdc74039	-0.097290464
46	0x3e09a034	0.13440019
47	0xbda99b22	-0.08281542
48	0xbd853289	-0.065037794
49	0xbdfd0692	-0.12354769
50	0x3dc40c5f	0.09572672
51	0x3df2dde1	0.11858726
52	0x3cacd0ab	0.021095594
53	0xbd3a3e61	-0.045469645
54	0x3d3fd02e	0.046829395
55	0xbd9751b5	-0.07388631
56	0x3e203165	0.15643843
57	0xbd79770c	-0.060904548
58	0x3d577e59	0.05261073
59	0x3df7f8c0	0.12107992
60	0xbd3c37c1	-0.04595161
61	0x3decc760	0.11561465
62	0x3dab87f4	0.083755404
63	0xbc496d6b	-0.012294154

weight f4 [32, 64]
0	0x3c73fb51	0.0148914615
1	0xbc764c04	-0.015032772
2	0xbc735114	-0.0148508735
3	0xbc782a46	-0.0151467975
4	0xbb7fc045	-0.0039024514
5	0xbc81ed54	-0.015860237
6	0x3c736632	0.014855908
7	0x3c7d3e53	0.015456754
8	0xbc8414d8	-0.01612322
9	0xbc7c2696	-0.015390059
10	0xbc7562c1	-0.014977158
11	0xbc7b760b	-0.015347968
12	0xbc76a017	-0.015052817
13	0x3c72239d	0.014778999
14	0xbc787471	-0.015164481
15	0xbc80df21	-0.015731396
16	0x3c67cd43	0.014148059
17	0x3c73feff	0.014892339
18	0xbc7297ba	-0.014806682
19	0x3c7aeeb8	0.015315704
20	0x3c7619dd	0.015020815
21	0x3c7342b9	0.014847451
22	0xbc7a909e	-0.0152932685
23	0xbc74c783	-0.014940145
24	0xbc80fe5c	-0.015746288
25	0xbc82ba66	-0.015958022
26	0x3c6124a6	0.013741648
27	0xbc80fadf	-0.015744625
28	0x3c83508d	0.01602962
29	0xbc754aa3	-0.014971408
30	0xbc7d032f	-0.015442654
31	0x3c728c80	0.014804006
32	0xbc7af529	-0.01531724
33	0x3c791a63	0.015204045
34	0x3c74b85c	0.014936533
35	0x3c6cf1f7	0.014461986
36	0xbc748802	-0.014925005
37	0xbc756b5c	-0.01497921
38	0x3c7516ac	0.014959019
39	0xbc73fce5	-0.014891838
40	0x3c74f2a3	0.014950427
41	0xbc77a6d5	-0.015115459
42	0xbc8263ae	-0.015916672
43	0x3c7e302d	0.015514416
44	0x3c7d23b8	0.015450411
45	0x3c762bf7	0.0150251305
46	0xbc76a0e8	-0.0150530115
47	0x3c77e1f0	0.015129551
48	0x3c7cca30	0.015429065
49	0x3c772389	0.015084156
50	0xbc74ec98	-0.0149489865
51	0xbc72c288	-0.014816888
52	0xbc806cc7	-0.01567687
53	0x3c820418	0.015871093
54	0xbc7bc5f4	-0.01536702
55	0x3c69d531	0.01427202
56	0xbc7393e4	-0.014866803
57	0x3c7beb40	0.015375912
58	0xbc78f41c	-0.015194919
59	0xbc72b138	-0.01481276
60	0x3c7d0a43	0.015444341
61	0xbc771114	-0.015079755
62	0xbc76db94	-0.015067
63	0xbb8718dc	-0.0041228365
64	0x3c79c50b	0.015244733
65	0xbc739173	-0.014866221
66	0xbc7c917a	-0.015415544
67	0xbc73db52	-0.014883833
68	0xbb795a9f	-0.00380484
69	0xbc77412b	-0.015091221
70	0x3c7eba56	0.015547356
71	0x3c7a811b	0.01528957
72	0xbc745578	-0.014912955
73	0xbc73faf0	-0.014891371
74	0xbc7ff33c	-0.015621956
75	0xbc73501c	-0.0148506425
76	0xbc805d49	-0.015669482
77	0x3c7e74bd	0.015530762
78	0xbc72d5da	-0.014821494
79	0xbc755309	-0.01497341
80	0xbada98b9	-0.0016677595
81	0x3c8025e8	0.015643075
82	0xbc7e443f	-0.015519201
83	0x3c7cad12	0.015422123
84	0x3c7f6e9e	0.015590338
85	0x3c7d77a8	0.015470423
86	0xbc73aeaf	-0.014873191
87	0xbc799060	-0.015232176
88	0xbc737485	-0.014859323
89	0xbc76014f	-0.01501496
90	0x3ca3c51c	0.01999145
91	0xbc779fff	-0.01511383
92	0x3c80ad15	0.015707532
93	0xbc7d6c4c	-0.0154677145
94	0xbc7574e6	-0.014981484
95	0x3ba92644	0.0051620323
96	0xbc76a5c8	-0.015054174
97	0x3c78c107	0.01518274
98	0x3c7529ed	0.014963609
99	0xbb20601b	-0.0024471346
100	0xbc7e5b1b	-0.015524651
101	0xbc71e053	-0.014762956
102	0x3c80db80	0.015729666
103	0xbc7eff05	-0.015563731
104	0x3c80a748	0.015704766
105	0xbc7ee205	-0.015556817
106	0xbc758e75	-0.014987578
107	0x3c846404	0.016160972
108	0x3ba792ba	0.0051139267
109	0x3c76ae29	0.015056171
110	0xbc7f66fd	-0.015588519
111	0x3c71fb77	0.014769427
112	0x3c7d72c2	0.015469255
113	0x3c807da4	0.01568491
114	0xbc7b520d	-0.015339387
115	0xbc7d8941	-0.015474618
116	0xbc733fd7	-0.014846764
117	0x3c7c4ad6	0.015398702
118	0xbc75a562	-0.014993044
119	0xbae4907b	-0.0017438078
120	0xbc7b3dec	-0.015334588
121	0x3c7dd5a2	0.015492829
122	0xbc736bb0	-0.014857218
123	0xbc7d727b	-0.015469189
124	0x3c85d292	0.01633576
125	0xbc7f894d	-0.0155967
126	0xbc78c86a	-0.015184501
127	0xbb8b64f0	-0.004253976
128	0x3c927af8	0.017880902
129	0xbc1e23b0	-0.009652063
130	0xbc3a70c7	-0.011379427
131	0xbc14e629	-0.009088078
132	0xbb50f7fc	-0.0031886091
133	0xbbb4fae5	-0.005523073
134	0x3c94db98	0.018171117
135	0x3c88e8a7	0.0167125
136	0xbb7fcfaf	-0.0039033701
137	0xbc239295	-0.009983678
138	0xbc44519a	-0.011982346
139	0xbc1d0c1f	-0.009585409
140	0xbc3e0b22	-0.011599334
141	0x3c955b20	0.018231928
142	0xbc230277	-0.009949318
143	0xbbd72def	-0.006566755
144	0x3cbb73aa	0.022882301
145	0x3c956fa7	0.018241717
146	0xbc543d4b	-0.0129540665
147	0x3c895010	0.01676181
148	0x3c95814c	0.01825013
149	0x3c93749e	0.017999943
150	0xbbd3f0b6	-0.006467904
151	0xbc279457	-0.010228238
152	0xbab660aa	-0.0013914306
153	0xbbb5333a	-0.0055297883
154	0x3b4568b4	0.0030122222
155	0xbbbf5096	-0.005838464
156	0x3c696ca2	0.0142470915
157	0xbc471b6c	-0.012152534
158	0xbc1ee9b4	-0.009699274
159	0x3cb22dc6	0.021750342
160	0xbc18298d	-0.00928725
161	0x3c87e5f0	0.016589135
162	0x3c90fd01	0.017698767
163	0x3cbaf666	0.02282257
164	0xbc4f3744	-0.012647454
165	0xbc2616b0	-0.010137245
166	0x3c958553	0.01825205
167	0xbc507f8e	-0.012725724
168	0x3c94992f	0.01813945
169	0xbc3b6119	-0.011436724
170	0xbb9b9c6b	-0.004748871
171	0x3c89eaab	0.016835531
172	0x3c4e6892	0.012598174
173	0x3c909052	0.017646942
174	0xbc514898	-0.012773655
175	0x3c891cb3	0.016737318
176	0x3c877b05	0.016538152
177	0x3c940430	0.018068403
178	0xbc2e5310	-0.010639921
179	0xbc4596d9	-0.012059891
180	0xbb8106f2	-0.0039375955
181	0x3c7f0f37	0.015567592
182	0xbc123737	-0.008924297
183	0x3cbb47d4	0.022861399
184	0xbc54c1b7	-0.012985638
185	0x3c893e81	0.016753437
186	0xbc0c77e7	-0.008573509
187	0xbc494331	-0.012284086
188	0x3c88b9ec	0.016690217
189	0xbc47998c	-0.0121826045
190	0xbc260acd	-0.010134411
191	0xbb52df57	-0.0032176578
192	0x3c9c3fa9	0.019073324
193	0xbca22b53	-0.01979605
194	0xbc9ff5f7	-0.019526465
195	0xbca70054	-0.020385899
196	0x39bd6b55	0.00036128858
197	0xbcc2e826	-0.023792338
198	0x3c992934	0.018696405
199	0x3cb502dd	0.022096092
200	0xbcd1c13b	-0.025604835
201	0xbca59d72	-0.020216677
202	0xbca0294b	-0.01955094
203	0xbca63f59	-0.020293878
204	0xbca11170	-0.019661635
205	0x3c985a21	0.018597664
206	0xbca2b735	-0.01986275
207	0xbcbae867	-0.022815896
208	0xbc8b8cbc	-0.01703488
209	0x3c97ab6e	0.018514361
210	0xbc9af4a2	-0.018915478
211	0x3cb26656	0.021777313
212	0x3c990ee6	0.018683862
213	0x3c99f38c	0.01879289
214	0xbcb67d51	-0.022276552
215	0xbca219d4	-0.019787706
216	0xbce3bf9b	-0.027801326
217	0xbcc2fa7e	-0.023801085
218	0x3bf573ed	0.007490626
219	0xbcc0097e	-0.023442026
220	0x3ceec1a6	0.029145073
221	0xbc9d6a1b	-0.019215634
222	0xbca84e29	-0.020545082
223	0xbc374cab	-0.011187713
224	0xbca85148	-0.02054657
225	0x3cb72d18	0.02236037
226	0x3c9f02b5	0.01941047
227	0xbc87cba7	-0.016576601
228	0xbc9d163d	-0.019175643
229	0xbca0cddf	-0.019629417
230	0x3c99976b	0.01874896
231	0xbc9c171e	-0.019053992
232	0x3c9aa3a0	0.01887685
233	0xbca12474	-0.019670703
234	0xbcc9ee07	-0.024649633
235	0x3cb217f6	0.021739941
236	0x3b07a5e9	0.0020698255
237	0x3ca0731d	0.01958614
238	0xbc9dfda6	-0.019285988
239	0x3cb5b678	0.022181734
240	0x3cb85528	0.022501543
241	0x3c9ab7e4	0.018886514
242	0xbca1a9fe	-0.019734379
243	0xbc9e6eaa	-0.019339878
244	0xbccaaf0e	-0.024741676
245	0x3cd332d0	0.025781065
246	0xbcab65bb	-0.020922532
247	0xbc897ed5	-0.016784111
248	0xbc9d2d34	-0.019186594
249	0x3cb39b12	0.02192453
250	0xbcaa5871	-0.020794125
251	0xbc9d15a8	-0.019175366
252	0x3cb2ae1b	0.021811536
253	0xbc9f1398	-0.019418523
254	0xbca4c4c6	-0.02011336
255	0xbb04a61e	-0.0020240615

bias f4 [32]
0	0x3ca76349	0.020433085
1	0x3c513023	0.012767824
2	0xbd90f3d8	-0.070777595
3	0x3dc9ce4a	0.098538
4	0x3d0e9835	0.034813125
5	0xbcc37638	-0.023860082
6	0xbd233759	-0.039847706
7	0xbdb3fba5	-0.08788232
8	0x3d397180	0.045274258
9	0xbd2d7437	-0.04234716
10	0x3db97eb6	0.09057371
11	0x3d0353be	0.032062285
12	0xbaeef99f	-0.0018232352
13	0xbdce29a4	-0.10066536
14	0xbe08d8f8	-0.13364017
15	0x3da30acc	0.07961044
16	0xbd75a376	-0.05997034
17	0x3e0fbee3	0.14037661
18	0x3d8731a9	0.06601269
19	0xbd22b965	-0.039727587
20	0xbd840fc2	-0.06448318
21	0xbdccb8d8	-0.09996194
22	0x3d36c33d	0.044619787
23	0xbdc52705	-0.09626583
24	0x3c1a8818	0.009431861
25	0x3da2c517	0.07947748
26	0xbe1262cd	-0.14295502
27	0xbb441dd0	-0.0029924996
28	0xbb9886a5	-0.0046547228
29	0x3c2b50ad	0.010456246
30	0xbcaac872	-0.020847533
31	0x3d99135e	0.07474397

weight f4 [32, 1]
0	0x3ee31600	0.44352722
1	0xbe033e53	-0.12816744
2	0x3df89caa	0.12139256
3	0xbe0951a6	-0.13410053
4	0xbe04c066	-0.12964019
5	0xbe0a0e57	-0.13482033
6	0x3deff5e9	0.117168255
7	0x3df2ed69	0.11861689
8	0xbe089f3c	-0.13341993
9	0xbe0010e8	-0.12506449
10	0xbe04fcf7	-0.12987123
11	0xbdfdc4b4	-0.12391034
12	0xbe056c0f	-0.13029502
13	0xbe048138	-0.12939918
14	0x3df9563f	0.12174653
15	0x3ebf63a7	0.37380716
16	0x3df0d188	0.11758715
17	0xbe04f559	-0.12984218
18	0x3dfc7e72	0.12328805
19	0xbdffcddb	-0.12490436
20	0x3df88ff6	0.12136833
21	0x3df543a7	0.11975794
22	0x3df1ab9d	0.11800311
23	0xbe07d882	-0.13266185
24	0x3df36a26	0.118854806
25	0x3df946a4	0.12171677
26	0x3dfabb98	0.12242812
27	0x3e953015	0.29138246
28	0x3df2ecd2	0.11861576
29	0x3df4023c	0.11914489
30	0xbe07f9b9	-0.13278855
31	0x3dfed7ca	0.12443502

bias f4 [32]
0	0xbc097820	-0.008390456
1	0x3f030768	0.51183176
2	0xbf325f7d	-0.69676954
3	0x3f547028	0.82983637
4	0x3f1bee53	0.6091053
5	0x3f6cd55b	0.92513055
6	0xbeb3e4b7	-0.35135433
7	0xbef7912f	-0.48352954
8	0x3f4c14e9	0.79719406
9	0x3e4ad4c7	0.1980773
10	0x3f1cb455	0.61212665
11	0x3e9c218c	0.30494344
12	0x3f1f85c1	0.6231347
13	0x3e214029	0.15747131
14	0xbf39afcd	-0.72533876
15	0xbc55799b	-0.013029481
16	0xbe62c90a	-0.22147003
17	0x3e1d7249	0.15375628
18	0xbf5300ca	-0.8242308
19	0x3e4cb985	0.19992645
20	0xbf2fadc6	-0.6862453
21	0xbe2301b1	-0.15918614
22	0xbedaf3a5	-0.4276401
23	0x3f458b2e	0.77165496
24	0xbf02052f	-0.5078916
25	0xbf3b5483	-0.7317583
26	0xbf4832e7	-0.7820267
27	0xbd9beb43	-0.07613232
28	0xbef47178	-0.4774282
29	0xbf056254	-0.5210316
30	0x3f4c7bfb	0.7987668
31	0xbf721532	-0.9456359

weight f4 [64, 32]
0	0x3ea15f80	0.31518173
1	0xbcf0787b	-0.029354325
2	0x3cecc5d2	0.028902922
3	0xbcc4f84e	-0.024044182
4	0xbcddd521	-0.027079167
5	0xbcbd42ac	-0.02310308
6	0x3d2512fc	0.040301308
7	0x3d0b7a38	0.034052104
8	0xbcc7c82f	-0.024387447
9	0xbd811461	-0.06302715
10	0xbcdcdfbe	-0.026962157
11	0xbd26fe7a	-0.04077003
12	0xbcdaf3ad	-0.026727522
13	0xbdaedc86	-0.08538155
14	0x3ce96a67	0.02849312
15	0x3e8af85b	0.27142605
16	0x3d608470	0.054813802
17	0xbdb30689	-0.08741481
18	0x3cde8201	0.0271616
19	0xbd7e8572	-0.062138982
20	0x3cefe671	0.029284688
21	0x3d9197de	0.071090445
22	0x3d14a498	0.03628978
23	0xbcc91198	-0.024544522
24	0x3d082ff1	0.033248845
25	0x3ce83536	0.028345685
26	0x3ce2a28a	0.027665395
27	0x3e7d2aee	0.24723408
28	0x3d0c51c2	0.034257658
29	0x3d068f38	0.032851428
30	0xbcc74319	-0.024323987
31	0x3cd4c0ca	0.025970835
32	0xbec3128c	-0.38100088
33	0x3b7362dc	0.0037137782
34	0xbb79f4e8	-0.003814036
35	0x3b625087	0.0034532861
36	0x3b6c8cfb	0.0036094773
37	0x3b60e765	0.003431761
38	0xbb97a21a	-0.0046274783
39	0xbb87a18c	-0.004139131
40	0x3b68dd9e	0.0035532485
41	0x3b83f09e	0.0040264865
42	0x3b6d2efc	0.0036191335
43	0x3b807f26	0.0039214073
44	0x3b6b4791	0.0035900811
45	0x3b8908f2	0.0041819746
46	0xbb80710e	-0.003919727
47	0xbe987b89	-0.2978175
48	0xbbad4a7b	-0.00528842
49	0x3b8c1967	0.004275489
50	0xbb706aaf	-0.0036684682
51	0x3b8660db	0.0041009015
52	0xbb7c069c	-0.0038456088
53	0xbbbf9813	-0.005846986
54	0xbb8cbee1	-0.0042952155
55	0x3b69357a	0.0035584853
56	0xbb8640b4	-0.0040970687
57	0xbb7bfcfb	-0.0038450349
58	0xbb766fd8	-0.0037603285
59	0xbe84e185	-0.25953308
60	0xbb883329	-0.0041564894
61	0xbb8ab4ff	-0.004233002
62	0x3b69fe74	0.0035704644
63	0xbb6cee5c	-0.0036152815
64	0x3e4c7c79	0.19969358
65	0xbaee033d	-0.0018158924
66	0x3c56ffe6	0.013122534
67	0xbac94a29	-0.0015357184
68	0xbae686b6	-0.0017587754
69	0xbacea5fb	-0.0015766019
70	0x3c64ec1f	0.013972311
71	0x3c5faca2	0.013651999
72	0xbadbb3ac	-0.001676192
73	0xba9e9a70	-0.0012100469
74	0xbae5f2e5	-0.0017543702
75	0xbae1fded	-0.0017241813
76	0xbadfb2fd	-0.0017066892
77	0xba0736ba	-0.0005157996
78	0x3c554ccb	0.013018797
79	0x3e1bf731	0.15231015
80	0x3c63d4bb	0.013905699
81	0xb9c69fee	-0.0003788466
82	0x3c4e858f	0.012605085
83	0xba9724b9	-0.001153133
84	0x3c579846	0.013158863
85	0x3c578d3f	0.013156234
86	0x3c6522e5	0.01398537
87	0xbae36759	-0.0017349526
88	0x3c5f4d3d	0.013629255
89	0x3c54741a	0.012967134
90	0x3c5327b1	0.012887881
91	0x3df2ee0d	0.11861811
92	0x3c623a83	0.013807896
93	0x3c60ab9a	0.013712788
94	0xbad20ea0	-0.0016026087
95	0x3c4aacfa	0.012370342
96	0x3e627bb6	0.22117504
97	0xbc198064	-0.00936899
98	0x3ce9ec1b	0.028554967
99	0xbc0572d3	-0.008145052
100	0xbc13ca03	-0.009020331
101	0xbc047724	-0.008085046
102	0x3d021aca	0.03176383
103	0x3cfa5b99	0.030561255
104	0xbc09a1d2	-0.008400397
105	0xbc7bc0a9	-0.015365758
106	0xbc10ba42	-0.00883347
107	0xbc3d2e0d	-0.011546624
108	0xbc11022a	-0.008850614
109	0xbca8a37f	-0.020585774
110	0x3ce6df0e	0.028182533
111	0x3e32a816	0.17446932
112	0x3d01244d	0.03152876
113	0xbcae3aef	-0.021268336
114	0x3cdece46	0.027197968
115	0xbc792341	-0.015206159
116	0x3ce9ce7a	0.028540839
117	0x3cea496e	0.028599467
118	0x3cffacb8	0.031210288
119	0xbc08f8c9	-0.008360096
120	0x3cf83b8b	0.03030183
121	0x3ce632a2	0.028100315
122	0x3ce27785	0.027644882
123	0x3e132da6	0.14372882
124	0x3cfbc3cc	0.030733012
125	0x3cf73a5d	0.030179197
126	0xbc08007b	-0.008300896
127	0x3cd78d05	0.02631236
128	0xbeb2c279	-0.34913996
129	0x3a1806e3	0.0005799366
130	0xba4f7384	-0.00079136365
131	0x38df043c	0.00010634257
132	0x39d8f963	0.00041384538
133	0xb6a16e7f	-4.8110373e-06
134	0xbae4dcec	-0.0017460859
135	0xbaa73e41	-0.0012759642
136	0x3918cdd8	0.00014572532
137	0x3a9dea2d	0.0012047939
138	0x3a11123e	0.00055340293
139	0x3a866029	0.0010252047
140	0x39c04e74	0.00036679546
141	0x3ab6a6b3	0.0013935178
142	0xba27cabd	-0.0006400755
143	0xbe8670cc	-0.26257932
144	0xbb392df9	-0.0028256162
145	0x3acd522d	0.0015664749
146	0xb9e801ff	-0.00044251975
147	0x3a9af5ee	0.001182256
148	0xba3ddf68	-0.0007243068
149	0xbb78d28a	-0.0037967288
150	0xbabd11fa	-0.0014424913
151	0x39805bda	0.00024482497
152	0xba960418	-0.0011445312
153	0xba1d4eb2	-0.0006000801
154	0xba2c1796	-0.0006564794
155	0xbe5e044a	-0.21681324
156	0xba98ee6f	-0.0011667738
157	0xba8fbf29	-0.0010967004
158	0x398f3312	0.00027313136
159	0xb9ed8368	-0.00045302068
160	0x3e4b6f30	0.19866633
161	0xbb51bd27	-0.0032003613
162	0x3c58c918	0.013231538
163	0xbb4f6594	-0.0031646239
164	0xbb565747	-0.003270583
165	0xbb4d02bb	-0.0031282145
166	0x3c67c782	0.014146687
167	0x3c618a23	0.0137658445
168	0xbb4f2475	-0.0031607423
169	0xbb085fdd	-0.0020809092
170	0xbb4fc666	-0.0031703948
171	0xbb36e3db	-0.0027906809
172	0xbb564f67	-0.0032701136
173	0xba8b7be3	-0.001064178
174	0x3c560179	0.013061875
175	0x3e1ae064	0.1512466
176	0x3c65336a	0.013989309
177	0xba8084a0	-0.000980515
178	0x3c50aace	0.0127360355
179	0xbb04e099	-0.0020275472
180	0x3c582287	0.013191826
181	0x3c5a1874	0.013311494
182	0x3c6391eb	0.01388977
183	0xbb4feb91	-0.0031726102
184	0x3c614c1f	0.013751059
185	0x3c5686ba	0.013093645
186	0x3c54893a	0.0129721705
187	0x3df13307	0.11777311
188	0x3c61c76b	0.013780455
189	0x3c5f359d	0.013623622
190	0xbb53fb38	-0.0032345783
191	0x3c4b4e4e	0.012408806
192	0xbebb6614	-0.36601317
193	0xbab38ddc	-0.0013698894
194	0x3ad03fc4	0.0015888144
195	0xbaea05f8	-0.0017854562
196	0xbac68559	-0.0015145942
197	0xbafe6e5a	-0.001941155
198	0x39fc7403	0.0004815162
199	0x3a7ec25b	0.0009718292
200	0xbaf4e5da	-0.0018684224
201	0xb7447428	-1.1709555e-05
202	0xbacfd80d	-0.0015857235
203	0xba4539cc	-0.0007523566
204	0xbac30d94	-0.0014881366
205	0x3a1b997a	0.00059356506
206	0x3adadea0	0.0016698427
207	0xbe8fa211	-0.28053334
208	0xba52142d	-0.00080138707
209	0x3a37f9f0	0.00070181396
210	0x3af8d10a	0.0018983197
211	0xb8b78506	-8.7508975e-05
212	0x3adb7381	0.0016742797
213	0xbb0b4cb6	-0.002125544
214	0x3a49432a	0.000767755
215	0xbada4cbd	-0.001665495
216	0x3a92b919	0.0011194079
217	0x3ad59ed0	0.001629794
218	0x3adef818	0.0017011194
219	0xbe73d355	-0.23811086
220	0x3a81f3bd	0.0009914559
221	0x3aa7249b	0.0012751998
222	0xbae1bb9e	-0.0017222052
223	0x3b07d654	0.0020727115
224	0x3ea449cb	0.3208755
225	0xbbd12a31	-0.0063832034
226	0x3be0eb4d	0.0068639875
227	0xbae3e94e	-0.0017388256
228	0xbb8cb914	-0.004294524
229	0xba71eb3d	-0.00092284736
230	0x3c897690	0.016780168
231	0x3c3a6dbb	0.011378701
232	0xbb04245e	-0.0020163278
233	0xbcfa91f3	-0.030587172
234	0xbb8c5c56	-0.0042834682
235	0xbc7fdee9	-0.015617111
236	0xbb89c518	-0.0042044036
237	0xbd18cb37	-0.037303176
238	0x3bd38009	0.006454472
239	0x3e8e68ce	0.27814335
240	0x3ce2cf37	0.027686698
241	0xbd14f0fb	-0.03636263
242	0x3baf1015	0.0053424933
243	0xbcf761bf	-0.030197976
244	0x3be736f3	0.007056111
245	0x3d0f50b4	0.034989074
246	0x3c5a6a5f	0.013331025
247	0xbb0cb1ab	-0.0021468203
248	0x3c3117ca	0.010808894
249	0x3bd02ed4	0.0063532386
250	0x3bbe9e15	0.0058171847
251	0x3e7ea7c8	0.24868691
252	0x3c3d8f70	0.011569843
253	0x3c299bc1	0.010352076
254	0xbb00a5d7	-0.0019630098
255	0x3b86b040	0.004110366

bias f4 [64]
0	0xbd1b6d64	-0.03794612
1	0x3e33c70d	0.175564
2	0xbe2ba143	-0.16760735
3	0xbde5c842	-0.11219837
4	0x3ddec5b2	0.10877551
5	0xbe28a7eb	-0.16470306
6	0x3e034aca	0.12821499
7	0xbc0d555a	-0.008626306
8	0x3ced766d	0.028987134
9	0x3e2910a4	0.16510254
10	0x3d9fa583	0.07795241
11	0xbdaa73e9	-0.08322889
12	0xbe1f69fb	-0.15567772
13	0xbd755c41	-0.059902433
14	0xbde0c980	-0.10975933
15	0x3db2d573	0.087321185
16	0xbc2e0fb7	-0.010623864
17	0xbcd65a38	-0.026166067
18	0xbe112f99	-0.14178313
19	0x3c45b55c	0.012067165
20	0xbe241041	-0.16021825
21	0xbdf0fcba	-0.11766954
22	0x3d415a33	0.04720516
23	0xbccf8186	-0.025330316
24	0xbc4047de	-0.0117358845
25	0x3e129211	0.14313532
26	0xbe32c01b	-0.17456095
27	0x3d8bb409	0.06821448
28	0x3e03f039	0.12884606
29	0xbdab757d	-0.083720185
30	0x3d762a0e	0.0600987
31	0xbdcdf568	-0.10056573
32	0x3d81b9c2	0.063342586
33	0xbdf3a74d	-0.118971445
34	0xbe261c95	-0.1622184
35	0x3db71a03	0.08940508
36	0xbcc756d9	-0.024333404
37	0xbdafae33	-0.08578148
38	0xbccc2599	-0.024920272
39	0x3dbcdc26	0.092216775
40	0xbe10c642	-0.1413813
41	0xbd38ac12	-0.045085974
42	0xbe0a477b	-0.1350383
43	0xbccd8253	-0.025086557
44	0x3dba14fd	0.090860344
45	0xbdd24e12	-0.10268797
46	0xbd88e9d4	-0.06685224
47	0x3d858e30	0.06521261
48	0xbd18b049	-0.037277494
49	0xbde54622	-0.111950174
50	0x3bd8adc0	0.0066125095
51	0x3da8b295	0.08237187
52	0x3cfb842d	0.030702675
53	0x3dfeb7dc	0.12437412
54	0x3d943f33	0.07238617
55	0xbe2e7163	-0.17035441
56	0xbde40cef	-0.111352794
57	0x3d24077c	0.0400462
58	0xbe018323	-0.12647681
59	0xbd450f2f	-0.048110183
60	0xbdd02ddc	-0.10164997
61	0xbe0697a5	-0.13143785
62	0xbe1bbf3b	-0.15209667
63	0xbe1a734b	-0.15083043
