checkpoints/fico_honam2_emb32_4.pt (torch, 504282 bytes, 278 tensors)

weight f4 [32, 1]
000000 ef e7 ca 3e 48 c7 fb be 21 6e 1b bf c7 e7 d8 3e
       0.39630076 -0.49175477 -0.6071492 0.42364332
000010 2a 37 e1 3e ce e9 05 bf 8a 5b 13 bf 6a 80 9b be
       0.439874 -0.5230988 -0.5756155 -0.3037141
000020 e7 75 a6 be 1b 41 0c bf c6 6b 1c bf ae ee 02 3f
       -0.32511827 -0.54786843 -0.6110195 0.51145446
000030 cd e6 ab 3e 2b ff 17 bf e8 5f e8 be 6b 88 c3 3e
       0.33574525 -0.5937373 -0.4538567 0.38190016
000040 fa 41 93 3e ee 3f 14 bf a8 20 e1 3e c1 1b 01 bf
       0.28761274 -0.5791005 0.43970227 -0.50432974
000050 a1 76 f3 be f2 83 9b 3e 15 8b 7d 3e cf 32 ae be
       -0.47551444 0.30374104 0.24760087 -0.3402314
000060 64 59 db be 93 0e 1d bf 20 2c 84 be d2 55 05 bf
       -0.42841637 -0.61350363 -0.25814915 -0.52084076
000070 43 c8 17 3f 56 ab f7 be 62 24 97 3e 74 34 02 bf
       0.5928995 -0.48372906 0.29519945 -0.5086129

bias f4 [32]
000000 5f 84 ab be 73 6e e9 3e 44 45 11 3f 66 e5 e4 be
       -0.3349943 0.4559208 0.56746316 -0.44706267
000010 2f 35 8b be 7f e0 f8 3e 4d 13 09 3f c9 ec 8e 3e
       -0.27189013 0.48608777 0.53545076 0.27915028
000020 ce 3a 9a 3e 58 46 02 3f 78 b5 11 3f ba bd e2 be
       0.3012299 0.50888586 0.56917524 -0.44285375
000030 ff a9 b7 be cb 57 0d 3f 80 a2 d8 3e 35 64 c6 be
       -0.35871884 0.55212086 0.42311478 -0.38748327
000040 d8 71 a1 be 9d 4c 0a 3f 94 f8 f6 be e8 78 f0 3e
       -0.31532168 0.5402315 -0.48236525 0.46967244
000050 92 9f e2 3e 43 46 35 bf 99 62 49 bf 5c 70 a0 3e
       0.44262367 -0.70810336 -0.78666073 0.31335723
000060 ec af cb 3e 42 c6 12 3f 51 3d 74 3e af 7a f7 3e
       0.39782655 0.5733377 0.23851515 0.48335788
000070 80 cc d9 be 28 50 e6 3e 2e 03 38 bf 5e de f1 3e
       -0.42538834 0.4498303 -0.7187985 0.47239965

weight f4 [64, 32]
000000 7f 6b 8e 3e e2 be 2b be a1 7f 09 be 1b 82 0a 3e
       0.27816388 -0.16772035 -0.13427593 0.13526194
000010 d3 72 55 3e 51 70 06 be 8d 00 09 be 11 61 f4 be
       0.20844583 -0.13128783 -0.13379116 -0.47730306
000020 d6 a5 ea be 1b 71 00 be 70 60 18 be ac 7f 98 3d
       -0.45829648 -0.12543146 -0.14880538 0.074462265
000030 82 3e 53 3e 82 d8 0f be 87 de 72 be ab d0 50 3e
       0.20629314 -0.14047435 -0.237177 0.203921
000040 6f 7f 1c 3e 95 68 b2 bd 2c df d5 3d ee 9b 15 be
       0.15282987 -0.08711354 0.10442957 -0.14610264
000050 8d 9c 4e be 0f cf 3b 3d 64 b3 27 3d e9 19 e3 be
       -0.20176907 0.045851763 0.040942565 -0.44355705
000060 c1 a8 98 be 9a 7c 18 be 15 76 f4 be 47 40 08 be
       -0.2981625 -0.14891282 -0.4774634 -0.1330577
000070 75 8a 97 3d 83 ed 3b be 32 18 39 3d 2f 9a 11 be
       0.073994555 -0.18352322 0.04518909 -0.14218973
000080 fc 75 83 bd 61 ab 7d bc 92 1f 48 bb 52 02 a4 3c
       -0.06418988 -0.015482754 -0.0030536395 0.020020638
000090 08 14 ae bc 4d 0b 8c bc 32 6c be bb dd 30 a9 bc
       -0.021249786 -0.017095232 -0.0058112377 -0.020653183
0000a0 d7 29 99 bc 37 42 6e bc b4 e9 0f bb d8 f2 89 3c
       -0.018696709 -0.014542154 -0.0021959366 0.01683943
0000b0 e5 28 e2 3c d8 e3 37 bb 48 c0 14 bc 8b 5f b4 3c
       0.02760739 -0.002805939 -0.009079047 0.022018215
0000c0 77 80 1d 3d 71 ef 1c bc 37 97 84 3d 85 2b 8b bc
       0.03845259 -0.009578572 0.064741544 -0.016988525
0000d0 74 c0 3a bc 60 5c b3 3c a6 0e ae 3c 9d 27 85 bc
       -0.011398423 0.021894634 0.02124722 -0.01625424
0000e0 51 ed 4d bb 16 85 e8 ba 9c 3c 07 bd e9 5f 8d bc
       -0.003142197 -0.0017739858 -0.033016786 -0.017257648
0000f0 ce 2b 3f 3c bd e6 6b bc e4 5a b2 3c a6 ca 8a bc
       0.011668159 -0.014398274 0.021771856 -0.016942333
000100 b2 42 64 be 51 e5 36 bc 09 1d f3 3a 65 31 2f 3c
       -0.22291067 -0.011163072 0.0018548082 0.010692929
000110 9e 0f 92 bd 9f 32 02 bc 3a f9 d1 ba ca bf 78 bd
       -0.07131885 -0.007946639 -0.001601971 -0.06072978
000120 fb ea 5d bd 9d ee ad bb c8 2f 08 3b 56 2c 17 bd
       -0.054179173 -0.005307986 0.0020780433 -0.036907516
000130 0d ac dd 3c 2b 83 2b 3a 6e 3f 7e bc 6c 96 a0 3c
       0.02705958 0.0006542678 -0.0155180525 0.019602977
000140 63 95 27 3d 37 73 34 bb 5d db a6 3b 05 a3 24 bc
       0.04091395 -0.0027534494 0.005092068 -0.0100486325
000150 04 0c 52 bc 66 79 a6 bb 18 10 ee bb 14 f5 4a bd
       -0.012820248 -0.00508039 -0.007265102 -0.04955013
000160 ef 30 cc bc db e2 1e 3b 05 fe a6 bd ab 95 08 bc
       -0.024925677 0.0024244103 -0.08153919 -0.008336465
000170 bb c0 7f bc 19 46 42 bc 60 65 b2 bb 0d f1 16 bc
       -0.015609915 -0.011857533 -0.0054442137 -0.009212744
000180 44 90 08 bd dc 55 36 3c 68 c0 07 3c d7 95 e5 3a
       -0.033340707 0.011128869 0.008285619 0.0017515969
000190 0d 1a 0a bd 8a 58 1c 3c a5 d2 ed 3b 12 e3 af 3c
       -0.03371625 0.009542594 0.007257777 0.02147058
0001a0 b2 a3 a2 3c 50 6d 06 3c 4e 01 03 3c 1a a7 0a 3e
       0.019853447 0.008204773 0.0079959165 0.13540307
0001b0 0b 14 a4 b8 85 61 f8 3b 94 63 5d 3c 80 cb 57 bb
       -7.823863e-05 0.0075799846 0.013512511 -0.0032927692
0001c0 6e 6d 13 3c 03 9d f9 3b 71 86 0e b9 84 9e 28 3c
       0.008998258 0.007617594 -0.00013592259 0.010291699
0001d0 63 d5 42 3c 49 1f 66 3b d6 27 88 3b c0 5c 9f 3c
       0.011891696 0.0035113862 0.0041551394 0.019453406
0001e0 7b 08 7c 3c 7d 44 04 3c 78 c4 24 3d 2a 6b 1c 3c
       0.015382881 0.0080729695 0.04022643 0.009547034
0001f0 ab 30 0d 3e 31 3d 3b 3c 69 e5 65 3b d6 88 27 3c
       0.13788097 0.011428163 0.0035079366 0.010225495
000200 e2 9f 8a 3e 05 a6 10 be 90 e6 bc bd 91 bd e4 3d
       0.27075106 -0.14125831 -0.09223664 0.111689694
000210 f9 be 53 3e bd e1 e1 bd 32 bb d0 bd 99 60 e0 be
       0.20678319 -0.11029384 -0.10191955 -0.43823698
000220 c8 eb d0 be d7 fd d1 bd 68 31 d4 bd e3 69 4f 3d
       -0.40804887 -0.10253494 -0.10360986 0.05063809
000230 6c e6 3e 3e 89 06 cf bd 1a 45 46 be e0 dd 37 3e
       0.18642586 -0.10108668 -0.19362298 0.17955732
000240 e3 16 1b 3e c2 41 84 bd ea 33 ae 3d b7 a0 fd bd
       0.1514545 -0.06457855 0.085059956 -0.123841695
000250 84 37 2c be 95 9f 16 3d ac 9a 03 3d a2 5d c6 be
       -0.16818053 0.036773283 0.03212993 -0.3874331
000260 d3 9d 74 be de 87 d1 bd 75 c9 ff be 65 5b e5 bd
       -0.2388833 -0.10230993 -0.49958387 -0.11199073
000270 f5 fc 3e 3d b0 32 1d be 0d 2a 14 3d 4c ef f5 bd
       0.046627957 -0.15351367 0.036172915 -0.12008533
000280 f9 a7 10 3e 17 81 4e bc db ea 04 3c d4 8b 8a 3c
       0.14126576 -0.01260402 0.0081126345 0.016912378
000290 3d f4 1b 3e 8a c2 12 bb 60 a5 ea 3b 9a ba 26 be
       0.15229888 -0.0022393786 0.0071608275 -0.1628212
0002a0 83 dc 11 be 13 d1 60 3b 09 1a ee 3b 77 a8 c1 bd
       -0.14244275 0.0034304305 0.007266287 -0.0945596
0002b0 4d 70 7f 3d 99 44 fc 3b d1 21 f6 bc 20 12 3c 3d
       0.062362958 0.007698607 -0.030045422 0.045915723
0002c0 82 a4 90 3d 38 c6 33 3c 18 5b dd 3b ee 6e 01 bc
       0.070626274 0.010972552 0.006755244 -0.007899983
0002d0 28 0c 9f bc e3 f2 7f bc 36 38 9c bc 95 59 02 be
       -0.019414976 -0.015621874 -0.019069772 -0.12729485
0002e0 ce 52 40 bd e3 81 ec 3b 01 6b 3e be c5 c3 3c bb
       -0.04695397 0.007217632 -0.18595506 -0.0028803211
0002f0 2d 72 f5 bd cb 59 81 bc f1 7f 84 bc ae d6 d2 bb
       -0.11984668 -0.015789887 -0.016174288 -0.006434283
000300 69 31 59 bd 9b 1d ed bb 03 9e 9a 3c ba 0a 84 3c
       -0.053025637 -0.0072361953 0.018874174 0.016118396
000310 db 7d f5 3c 94 39 3d bc 9e 9a d1 3b b9 56 4e bd
       0.02996724 -0.011549372 0.0063966056 -0.050375674
000320 8e e3 32 bd 52 a3 f1 bb 25 7b a7 3c 74 35 c6 3c
       -0.043674044 -0.0073742056 0.020444462 0.02419541
000330 7f e1 e1 3c e8 8f 63 3c 1d 93 82 3a 22 98 f2 3c
       0.027573345 0.01388929 0.0009962056 0.029613558
000340 ef 92 40 3d 9b 0b 29 bc 7e c0 80 3d a9 6c 2b bc
       0.047015127 -0.010317708 0.06286715 -0.010462918
000350 31 d4 59 bb 73 fd 80 3d b7 0c 81 3d a3 88 1c bd
       -0.0033238048 0.062983416 0.06301253 -0.038216244
000360 bd 3f ac bb ee 61 af 3c 85 54 8b bd e4 ad 3d bc
       -0.0052566216 0.021409001 -0.0680323 -0.011577103
000370 1a be 8a 3c 4e 7f a5 bb 8c fe 80 3d ac af 32 bc
       0.01693635 -0.0050505763 0.06298551 -0.010906141
000380 27 01 e6 bd 5f a6 be 3d e1 9a 75 3d d2 c4 a7 bd
       -0.112306885 0.093090765 0.059962157 -0.08191837
000390 07 69 dd be 72 32 a3 3d 5f 9b 88 3d 79 c1 87 3e
       -0.43244192 0.07968606 0.0667026 0.26514795
0003a0 fc bb 71 3e ef 5c 95 3d 1b 2a 7c 3d f4 1c 94 bd
       0.23606867 0.07293116 0.061563592 -0.07232085
0003b0 0b b4 0c be 4a 49 83 3d 5f ae e4 3d 7f e7 e8 bd
       -0.13740556 0.06410463 0.11166071 -0.113722794
0003c0 9a 78 30 be ab 79 78 3d c7 e5 8a bd b8 b0 b1 3d
       -0.17233506 0.060662907 -0.06782108 0.086762846
0003d0 c5 f3 ce 3d d1 10 dc bc 4d 6a b1 bc b0 3c 60 3e
       0.10105089 -0.026863487 -0.021657133 0.2189815
0003e0 6f d3 04 3e f3 4d 79 3d 30 00 b2 3e ba 4c a5 3d
       0.1297128 0.060865354 0.34765768 0.08071275
0003f0 2c 83 b7 bd 02 f0 c6 3d c7 88 d6 bc 0b 5d ae 3d
       -0.08960566 0.097137466 -0.026188267 0.0851384

bias f4 [64]
000000 08 52 dd 3d 98 8c 45 bc 57 38 2a 3c 50 f1 e4 bd
       0.10806662 -0.012057446 0.010389409 -0.11178839
000010 cb ae ae 3d 54 67 5b 3e dd 62 d7 bc b9 c4 40 be
       0.08529433 0.21426135 -0.026292259 -0.18825044
000020 33 93 a0 bd e0 ce 99 bc f3 08 ab bd 64 b4 2c bd
       -0.07840576 -0.018775403 -0.08351316 -0.04216422
000030 1e 4d 1c 3e 01 68 e3 3d a2 2e db bc 70 91 11 be
       0.15263793 0.111038215 -0.026755635 -0.14215636
000040 81 24 1c bd ca 87 b9 3d f5 f4 88 bc c2 e1 9a bd
       -0.03812075 0.09059103 -0.016718367 -0.07562591
000050 5c fb d0 bc 06 15 8e bd 12 02 f7 3d c5 39 19 3c
       -0.025510482 -0.06937604 0.12060942 0.009352152
000060 19 66 a6 bd 1b 28 96 bc 44 a9 ad bd 41 5f 51 3e
       -0.08124942 -0.01832967 -0.084795505 0.20446493
000070 01 a3 8f bc a6 5d 77 bd 05 9e 89 bc c5 b5 e1 3d
       -0.017533781 -0.060392044 -0.016798982 0.11020998
000080 3b 6c 04 bd 9e a6 8c bd 99 35 74 bc c7 e2 f2 bd
       -0.03232978 -0.06867717 -0.014905357 -0.118596606
000090 75 b2 56 bd fe 09 61 3e e8 07 b7 bd 40 cb fd 3d
       -0.052416284 0.21976468 -0.08937055 0.123922825
0000a0 8c 72 5c 3e 15 9c 0e bd 0a bc 8e bc a9 1a aa bd
       0.21528071 -0.03481682 -0.017423648 -0.08305866
0000b0 2c 78 26 3e 7c 82 53 3e ff 08 09 3e 11 8c bc bd
       0.1625678 0.20655245 0.13382338 -0.09206403
0000c0 4b 25 c5 bd 50 81 08 bd 04 30 0c 3e 4f cf 20 bc
       -0.09626254 -0.033326447 0.13690192 -0.009815051
0000d0 36 02 42 be 3e 6f 62 3b 6d 7e fc bd f7 d8 97 bd
       -0.18946156 0.0034551169 -0.12328801 -0.0741443
0000e0 ef a1 80 bc 36 99 c6 3d 91 e9 64 3e 1f cf 6c 3e
       -0.015702216 0.096971914 0.22354724 0.23125885
0000f0 d8 c0 20 bd 2e fe 9e bd 61 84 af bd 49 b7 6f 3e
       -0.03924641 -0.07763325 -0.08570171 0.23409761

weight f4 [32, 64]
000000 61 1f 59 3e be c1 64 bb c2 41 a3 bc 6b 11 e4 3b
       0.21203376 -0.0034905518 -0.019928817 0.006960084
000010 a5 3a 4e 3e 7d ad b2 3d ba df 11 bd 2f 39 e3 bd
       0.20139559 0.087244965 -0.035613753 -0.11094891
000020 71 d9 cb bc d9 07 59 bd 8e 20 1b bc c0 cf 24 3a
       -0.024883958 -0.052986 -0.009468211 0.00062870607
000030 01 b2 a9 3d 22 d9 64 3e 34 61 ba bc 4a f3 b5 3b
       0.08285905 0.22348455 -0.022751428 0.005552684
000040 3d 2d 47 3d 79 38 61 3e ae 07 d1 ba 84 bf de 3b
       0.048627127 0.21994199 -0.0015947723 0.006797733
000050 fd c3 d2 bc 2e b6 2a 3b bb dc 8a 3d 50 68 a4 bc
       -0.02572822 0.002604853 0.06780382 -0.020069271
000060 fe 9b 78 bc b6 7d 92 bc d3 06 82 3c b6 b2 df 3d
       -0.01517391 -0.01788221 0.015872395 0.10922758
000070 6e 5b 21 bd a6 bb d7 3b ac 20 84 3c 70 0c 9e 3d
       -0.039393835 0.0065836487 0.01612886 0.07717216
000080 be 63 cd bc ad 85 06 3d 1b e9 2c bd c7 3c 53 bd
       -0.025071975 0.032842327 -0.042214494 -0.051571634
000090 1f e3 b5 bb 82 05 ec 3d de 28 30 bd 09 15 93 3d
       -0.0055507566 0.11524488 -0.043007724 0.071817465
0000a0 ad 6a 20 3e 1a 8b a7 bb b0 dc bb bc 80 57 94 bc
       0.15665694 -0.0051130177 -0.02293238 -0.01810813
0000b0 a7 05 a2 3d c7 e9 e1 3d ec 50 dc 3d b2 a9 27 3c
       0.07911234 0.110309176 0.10757622 0.01023333
0000c0 d0 7e a8 ba 10 ae eb bc 5e 62 97 3d fb cc de bc
       -0.0012855176 -0.028769523 0.07391809 -0.027197352
0000d0 2b 2b e3 bd 23 1b a5 bc ab 8c 11 bd 0c a5 6d 3c
       -0.11092218 -0.020154541 -0.035534542 0.014504682
0000e0 57 dd 9a bc 4e d6 5b 3d 8c ed c6 3d ac 28 09 3e
       -0.018904371 0.053671174 0.09713277 0.13394421
0000f0 97 9e c8 bc ef e5 03 3c cd c2 bf bc e5 20 03 3e
       -0.024489684 0.008050426 -0.023408318 0.12805517
000100 fd f4 73 3e 67 9e cb bb da 51 c7 bc 8d 01 5c 3c
       0.23823924 -0.0062139514 -0.024331022 0.013428104
000110 d0 c6 6f 3e c7 5f 2e 3d 27 39 03 bd e2 6a d9 bd
       0.23415685 0.04257181 -0.032036927 -0.106160894
000120 2a a2 53 3c a5 55 2d bd d3 63 fe 3c 53 fc c3 bc
       0.012917081 -0.042318005 0.03105346 -0.023924029
000130 0e 18 32 3d b2 a9 80 3e 01 e4 7b bc ae 48 3e 3d
       0.04347997 0.25129467 -0.015374185 0.04645603
000140 7e d3 f8 3c 51 96 76 3e 5b d5 e1 3b a3 4a 96 3c
       0.030374285 0.24080779 0.006891889 0.018346136
000150 ec 5a 70 bc 85 44 65 3c 73 60 81 3d 5d 00 f1 bc
       -0.014670115 0.013993387 0.06317224 -0.029419119
000160 67 36 4f bc 7b a7 9d bc ff dd 07 3d 7f ab 89 3d
       -0.012647248 -0.0192449 0.033170696 0.067221634
000170 55 1a 30 bd a3 a2 c1 3c 16 83 a6 3c 48 6a c3 3d
       -0.042993862 0.023637122 0.020326179 0.09541756
000180 9a 0d 51 bd 17 8c 0c 3d b9 bc 43 bd 87 6c 65 bd
       -0.051038362 0.034313288 -0.0477874 -0.056011703
000190 5b 18 85 3a e0 62 99 3d 04 d3 ce bc bc ae 5d 3d
       0.0010154353 0.07489562 -0.025247104 0.054121718
0001a0 e3 d8 14 3e ee cc e2 bc 60 fb 4d bc c2 82 de bc
       0.1453586 -0.027685609 -0.0125721395 -0.02716196
0001b0 d0 10 14 3d dd 24 8e 3d ca 28 67 3d da 54 f2 3c
       0.036148846 0.06940625 0.056435384 0.029581476
0001c0 19 90 99 3c 6b 03 95 bc b1 5b 09 3d 16 ae ec bc
       0.018745469 -0.018190106 0.03353471 -0.028891604
0001d0 5d ab d8 bd 81 9c 98 bc 70 f7 f4 bc 7b 3b 06 3d
       -0.1057956 -0.018629314 -0.029903144 0.03277157
0001e0 5a de 85 bc 05 fd 95 3d fa 30 55 3d 2d 7e bf 3d
       -0.016341377 0.0732365 0.05204866 0.09350238
0001f0 75 59 65 bc 01 9e 04 3d 7f 07 21 bc d8 64 ad 3d
       -0.013998379 0.032377247 -0.009828447 0.084665
000200 e1 c2 6d 3e 34 ab 3d 3d ab 5e 44 3d b3 72 01 bb
       0.23218872 0.04630585 0.047941845 -0.0019752204
000210 08 ac 6d 3e c6 8e b6 3d 5c a6 88 3d 34 6a 84 be
       0.23210156 0.089139506 0.066723555 -0.25862277
000220 c6 f6 db bc e0 3f 7a 3d 25 fd 5f 3d 8a fa 9e 3d
       -0.02685107 0.061096072 0.054684777 0.0776263
000230 5d 80 e3 3d cf bd 7c 3e 3e 76 5c 3d 75 1b 95 bb
       0.11108468 0.24681781 0.053823702 -0.0045503923
000240 4b db 8a bd 2c 4a 73 3e 6d 9b d1 3c de 4c 08 3d
       -0.06780108 0.23758763 0.025586808 0.03327643
000250 2e fb 56 3d 77 51 1d bc 58 2a ad 3d b8 c0 0e bd
       0.052485637 -0.009601942 0.08455342 -0.03485176
000260 a2 55 be 3a ce a8 74 3d d1 b7 52 3d ac 39 eb 3d
       0.001452137 0.059731297 0.051444832 0.114856094
000270 71 54 81 3d a9 49 05 3d 3b 67 81 3d 2d 87 0d 3e
       0.06314934 0.03254095 0.06318518 0.13821097
000280 34 17 54 3d ff 9a 43 3d 75 61 8a 3d 5b 3e 35 be
       0.05177994 0.047755238 0.0675687 -0.17699568
000290 fd b4 25 3c 68 19 f2 3d 32 cb 4f bc c4 7e d6 3d
       0.010113952 0.11821252 -0.012682723 0.104733974
0002a0 d3 6d 0b 3e 2e fc 85 3d fb b9 81 3d 09 50 05 be
       0.13616113 0.0654224 0.06334301 -0.13018812
0002b0 82 03 c6 3d eb ac ea 3d 40 90 fd 3d ac a7 81 3c
       0.09668638 0.11458763 0.12381029 0.015827022
0002c0 f4 0f f2 3c 5d ab 4a 3d 71 47 ca 3d a1 9f a0 3d
       0.029548623 0.04947983 0.098769076 0.07842947
0002d0 bd 74 85 be b4 83 91 3d 92 6c 38 bc 9c 44 5a bb
       -0.26065627 0.071051985 -0.011256354 -0.0033305055
0002e0 ae 9b a3 3d 4f bf db 3d b7 9a bf 3d e3 3b 07 3e
       0.07988678 0.107298486 0.093556814 0.13206439
0002f0 11 8d 55 3d 2e 73 d6 3c 04 4b 46 3c bf be fc 3d
       0.052136485 0.026177969 0.012102846 0.123410694
000300 70 f8 65 bd 65 61 bf bc c1 ac 0a bd 68 15 fc 3b
       -0.05614513 -0.023361871 -0.033856157 0.0076929815
000310 85 43 cf bd e9 cd 4a 3b 59 85 35 bd 5c 5f 1a 3e
       -0.101203 0.0030945486 -0.044316623 0.15075439
000320 b6 47 dc bb 3c 8d 22 bd a0 34 f2 ba 63 cd cd bd
       -0.006722416 -0.039685473 -0.0018478818 -0.1004894
000330 f3 51 31 3b fd 61 7e bd f8 d4 97 bd c4 1f cc 3c
       0.0027056902 -0.062105168 -0.074136674 0.02491749
000340 01 21 37 3d 44 90 8c bd 49 87 0d bd e5 cf 74 3b
       0.04470921 -0.06863454 -0.034552846 0.003735536
000350 d0 22 86 bd 59 87 af 3c c4 ec 62 bd d0 f3 92 bd
       -0.06549609 0.021426843 -0.05540158 -0.0717541
000360 69 56 9d 3b 1b 7e c3 bc 26 b4 41 3d bf 30 ec bc
       0.0048015607 -0.023863843 0.047290944 -0.028831838
000370 38 b7 f9 bc 6a 58 71 3a c2 82 de bd 4c fa 7c bd
       -0.030482873 0.0009206595 -0.10864784 -0.06176214
000380 f1 a8 75 bd 65 f6 7a bc 2d e4 8a 3b be 7d e5 3d
       -0.05997557 -0.015317534 0.0042386265 0.11205624
000390 20 76 d4 3c be 07 14 bd 60 b6 f8 bc d2 b1 8a 3a
       0.025935233 -0.036140196 -0.0303604 0.0010581559
0003a0 14 5d f3 bd b4 3b da 3b 84 1f 72 bd 37 c0 ab 3d
       -0.118829876 0.006659949 -0.059112087 0.083862714
0003b0 bc 0b 12 bd 63 ea eb bc c5 96 9b 3d ec fd 92 bb
       -0.035655722 -0.028798288 0.075971164 -0.0044858363
0003c0 75 b7 b4 3c 50 3a 8b bd 11 83 08 3c 3f fa 2e bd
       0.022060135 -0.067982316 0.00833203 -0.042719122
0003d0 a5 01 19 3e a4 b2 54 bc 9f 06 d2 3c aa db 91 3c
       0.14942034 -0.012982044 0.025637923 0.01780494
0003e0 e8 0b 05 bd 80 91 ab bd 82 cb 82 bb dd 0f 4f bd
       -0.032482058 -0.08377361 -0.003991545 -0.050552238
0003f0 dc 71 86 bd e7 a1 c7 3c d3 a2 9c 3c 8b a8 03 bd
       -0.06564686 0.024369193 0.01912061 -0.032143157

bias f4 [32]
000000 f3 3e 28 3e c0 3d 29 3e 00 5a 75 bd 3f c8 1c 3c
       0.16430263 0.16527462 -0.059900284 0.009569227
000010 c4 fb 86 bd 68 a2 1d 3d ae c3 df 3d ea c5 90 3d
       -0.06590989 0.03848496 0.10925995 0.07068999
000020 6d 9b 29 bc 8f b4 40 be e1 87 c1 bd d6 0d b0 3d
       -0.010351998 -0.18818878 -0.09449745 0.08596389
000030 87 99 b7 bc e0 9f 0f 3e ea a6 05 3d e4 4f 97 3d
       -0.022412075 0.14025831 0.032629885 0.07388285
000040 53 0e 00 3e 36 93 e5 3d 97 98 60 bd 45 09 1c 3e
       0.12505464 0.11209719 -0.05483302 0.15237911
000050 52 96 3f 3e 43 04 c7 bc 66 fe b5 3b 44 0e 94 bd
       0.18709686 -0.024294024 0.0055540083 -0.072292835
000060 5c a6 3e bd fe 60 3f be 96 2e 9f 3a 9e c4 09 3d
       -0.04654537 -0.18689343 0.0012144621 0.033634774
000070 34 4d e5 3d 8f 7a af be 0e 7b a2 3d 17 3b 0b bd
       0.11196366 -0.34273192 0.07933627 -0.0339919

weight f4 [32, 1]
000000 3b ca 95 be 08 ee c1 3e c3 2c cc be 45 86 ca be
       -0.29255852 0.37876916 -0.398779 -0.39555565
000010 1a 3c d8 3e 8e f5 44 be de e4 5c 3e 6c cd cf 3e
       0.42233354 -0.19234297 0.21571681 0.40586412
000020 98 f1 de 3e 8c 2d c0 be a5 6c b8 be 2e af c2 be
       0.43543696 -0.3753475 -0.3602039 -0.38024276
000030 c4 76 df 3e f1 48 61 be 7c 55 8f 3e 57 18 cd be
       0.43645298 -0.22000481 0.27994907 -0.40057632
000040 6a 06 96 3e 2f 8d c2 be ca da c0 be a9 e0 c5 be
       0.2930177 -0.3799834 -0.37666923 -0.38647965
000050 35 97 c2 be 4b ab ce be f7 d9 c6 be 41 59 ab 3e
       -0.38005987 -0.4036506 -0.3883817 0.33466533
000060 eb d1 cb 3e a7 99 b3 be b5 c8 8d 3e 61 f3 ec 3e
       0.39808592 -0.35078165 0.2769219 0.46279433
000070 c1 05 cf be d8 15 d0 be 34 11 a2 3e ca 25 e7 3e
       -0.40434077 -0.40641665 0.3165375 0.45146018

bias f4 [32]
000000 b5 94 76 3e 04 9a cd be 79 cb 38 3f 04 62 2c 3f
       0.24080165 -0.40156567 0.72185475 0.6733706
000010 49 bd f9 be a0 3f 29 3e 55 1f 37 be 87 24 d6 be
       -0.48777226 0.16528177 -0.17883046 -0.41824743
000020 5c e6 0c bf f2 33 c7 3e 6d 96 a0 3e c3 9e e7 3e
       -0.55039 0.3890682 0.31364766 0.45238313
000030 e8 0c 0e bf d7 0c 41 3e 5e 1f 6a be 1f 7d 3f 3f
       -0.55488443 0.18852554 -0.22863528 0.74800295
000040 38 19 2b bd c2 02 e6 3e 33 3d cf 3e ea 5a 09 3f
       -0.041772097 0.4492398 0.4047638 0.5365435
000050 94 f1 e5 3e a9 e7 4d 3f cc 2d 10 3f 60 b2 41 bd
       0.44910872 0.8043161 0.5631988 -0.047289252
000060 a2 f9 9e be b3 cc 92 3e da cd 69 be e4 f6 33 bf
       -0.3104983 0.28671798 -0.22832432 -0.702986
000070 f1 cd 50 3f ec 03 5b 3f 8a 8c a8 be be e3 22 bf
       0.8156424 0.8555286 -0.32919723 -0.63628757

weight f4 [64, 32]
000000 e0 dc 92 3d fd 82 96 ba 13 e0 30 3b a0 1e 89 3b
       0.07171035 -0.0011483129 0.0026989027 0.004184559
000010 a9 fa 67 3b ab 64 02 3e 2c 9d 86 be 26 a5 4a 3a
       0.0035397208 0.12733714 -0.26291788 0.00077302975
000020 f1 c6 b1 3b 95 35 be 3c 9f c5 04 3d 27 63 86 3c
       0.005425327 0.02321891 0.03241503 0.016404701
000030 52 d6 b9 3b b2 d6 ea 3d 8f 75 b6 be 40 b2 e7 3a
       0.005671301 0.11466731 -0.35636565 0.0017677024
000040 83 75 5d be ba b3 89 3c 54 c0 ae 3c 7e 88 2b 3c
       -0.21626858 0.016809333 0.021331944 0.010469554
000050 02 f5 88 3c b5 ea e4 39 e2 a5 11 3c fc 92 54 be
       0.016718391 0.0004366242 0.008889647 -0.20759195
000060 60 80 da bd 30 c5 1c 3d e9 a0 38 be 8e e9 0c 3c
       -0.10669017 0.03827399 -0.18030132 0.008600606
000070 20 4b 01 39 4b 68 2d ba 8a 28 45 bc d6 51 f0 3b
       0.00012330385 -0.0006614967 -0.012033591 0.0073339744
000080 67 62 18 bd 8d 14 6f 3d c2 0a 1a bd 03 3a 1b bd
       -0.03720322 0.058369208 -0.037607916 -0.03789712
000090 62 d0 53 3d 84 fa 5f 3c b4 6f e1 3d 4f c1 66 3d
       0.0517124 0.013670567 0.11007634 0.056336697
0000a0 46 bb 49 3d de dd 30 bd 5c 81 54 bd 5b 75 23 bd
       0.049250863 -0.04318034 -0.05188118 -0.03990684
0000b0 61 34 49 3d 4c 04 a8 bc a0 d7 10 3e 51 53 1a bd
       0.049122218 -0.020509861 0.14144754 -0.037677113
0000c0 5f 4e 13 bd 08 18 24 bd 96 45 2b bd c9 09 1f bd
       -0.035963412 -0.04006198 -0.04181441 -0.03882769
0000d0 da 85 24 bd eb e6 18 bd 67 3b 1e bd 13 b8 9d bd
       -0.040166713 -0.037329596 -0.03863087 -0.07701125
0000e0 c6 81 1c 3e bf 69 49 bd 17 66 87 3e 29 48 3b 3d
       0.1528388 -0.049173113 0.26445076 0.045723114
0000f0 58 ee 18 bd ff 92 18 bd 22 48 89 3d a3 d1 40 3d
       -0.037336677 -0.03724956 0.06703211 0.047074925
000100 c3 02 e0 bc a6 11 ea 3c 27 c3 2d bc be 82 38 bc
       -0.027345067 0.028572869 -0.01060561 -0.01126164
000110 4b c3 ca 3c 16 19 16 bb 6c ba 75 3d 8b 0e e1 3c
       0.024751326 -0.0022903136 0.05999224 0.027472755
000120 ba 9d b9 3c 48 ab 9f bc fa db c2 bc 4e d3 88 bc
       0.022658218 -0.019490853 -0.023786534 -0.01670232
000130 ef 2c b8 3c f5 f0 b4 bc 59 fc 3c 3d d4 44 26 bc
       0.022482364 -0.022087554 0.046139095 -0.010148246
000140 0b bc ed bc 1a 00 8a bc 05 48 9a bc 89 c1 65 bc
       -0.02902033 -0.016845752 -0.01883317 -0.014023193
000150 05 2b 8a bc ae ff 1a bc 29 cd 5d bc d4 1a 96 bd
       -0.016866216 -0.009460373 -0.0135376835 -0.07329336
000160 c6 e3 5a 3d ff b5 c8 bc ce 27 cf 3c e2 86 9a 3c
       0.053439878 -0.024500845 0.025287535 0.018863145
000170 3c fe 1b bc 35 d0 14 bc 8c 6b e0 3c 4c a9 a5 3c
       -0.009521063 -0.009082844 0.027395032 0.020222329
000180 8a 3d fd b8 08 4f b7 3c b4 cb 8c bb 10 06 90 bb
       -0.00012075443 0.022376552 -0.0042967442 -0.004395254
000190 ac 1c 9e 3c 70 3e ce 3c 63 e8 67 3d ba 06 b2 3c
       0.019300781 0.025176257 0.056618106 0.021731723
0001a0 b6 ff 90 3c 09 42 15 bc a7 2c 1a bb 8d 25 cd bb
       0.017700057 -0.009109982 -0.002352515 -0.00626058
0001b0 42 ed 90 3c ce 26 b4 3b 8d ea 65 3d 12 d0 89 bb
       0.017691258 0.00549779 0.05613189 -0.004205712
0001c0 ad 0e 2c 3e 02 f8 ce bb fe 3f 04 bc 66 61 9e bb
       0.16802473 -0.006316186 -0.008071898 -0.004833388
0001d0 37 01 d1 bb b9 95 88 bb 16 1f 9a bb 34 1a 09 3e
       -0.0063783186 -0.004168239 -0.0047034128 0.13388902
0001e0 8f 66 d5 3d f8 df 28 3b 19 dc b1 bd 08 2c 7d 3c
       0.10419952 0.0025768261 -0.086845584 0.015452392
0001f0 14 00 8b bb c4 fb 89 bb e0 7c 9f 3c 72 46 85 3c
       -0.0042419527 -0.004210921 0.019468725 0.016268943
000200 e0 4d eb 3c 78 ce 41 3c 34 d4 0d bc c6 a3 fe bb
       0.028723657 0.011829011 -0.00865655 -0.007770988
000210 68 8e 6a 3c b0 a6 04 3e b6 3d 99 be 28 5e 54 3c
       0.014316179 0.12954211 -0.29929894 0.012961902
000220 9c 79 7b 3c be 29 88 3b e9 a7 d7 3b ac 1b 67 36
       0.015348818 0.0041553667 0.0065812957 3.443779e-06
000230 1e 07 7d 3c ea 19 a6 3d 13 94 be be 3e 08 16 bc
       0.015443591 0.081104115 -0.37222347 -0.0091572385
000240 82 e2 28 be 6c 25 81 39 41 f9 4e 3b aa fd 78 bb
       -0.16492656 0.0002463268 0.0031581672 -0.0037992992
000250 0d 7c c5 39 97 c8 24 bc 5b 77 99 bb bd b5 44 be
       0.00037667193 -0.01005759 -0.0046834177 -0.19209953
000260 73 9d f7 bd 66 be e3 3b 51 6d 62 be fe 38 8b 3c
       -0.12090578 0.0069501875 -0.22112013 0.01699495
000270 43 43 28 bc 4f f8 32 bc 8e 81 99 ba a2 10 85 3c
       -0.010269943 -0.010923459 -0.0011711584 0.016243283
000280 7f 1a 05 3e d7 59 29 bd 11 15 2d 3d a4 ad 33 3d
       0.12998389 -0.041345444 0.04225642 0.04386677
000290 b4 ad 13 bd 54 53 80 3e 87 a1 32 be 91 2d 1f bd
       -0.036054328 0.25063574 -0.1744443 -0.038861815
0002a0 89 4f 0c bd 63 f0 80 3d 0b 73 9f 3d 0e 50 66 3d
       -0.034255538 0.0629585 0.077856146 0.05622869
0002b0 4e 63 0c bd 1d 7d 4b 3e 74 ae 80 be c6 91 29 3d
       -0.03427439 0.19871946 -0.25133097 0.041398786
0002c0 47 1e 5d be 52 16 67 3d e3 5e 7a 3d 0f 5a 4d 3d
       -0.21593581 0.05641777 0.061125647 0.050134715
0002d0 bc a3 67 3d b2 04 24 3d ef bd 46 3d 85 de 5f be
       0.056552634 0.04004354 0.04852098 -0.21862228
0002e0 ff 0d 40 bd 6a b0 b3 3d 01 0f 8e bd 03 50 01 bd
       -0.046888348 0.08773883 -0.069364555 -0.031570446
0002f0 36 ef 22 3d da 65 1f 3d 34 7e 6b bd 5e d3 05 bd
       0.03977891 0.038915493 -0.057493404 -0.03267228
000300 8e a6 c5 3b a2 b0 a7 3c d5 af e5 bc 4c 82 de bc
       0.0060318178 0.020469967 -0.028037945 -0.02716174
000310 17 3a cb 3c 7e 50 00 3c 42 dd ea bd 9d 47 b6 3c
       0.024807973 0.007831691 -0.11467983 0.022250945
000320 04 41 d8 3c ff 87 84 bc c3 5e b9 bb a7 7c a9 bc
       0.02639819 -0.01617813 -0.0056570484 -0.020689322
000330 88 ec d7 3c 46 4e 0e 3c 1c 9b 05 be 76 76 e8 bc
       0.026357904 0.008685654 -0.13047451 -0.0283768
000340 01 67 c0 bd cb 66 a7 bc db e7 8f bc f5 2b c6 bc
       -0.093946464 -0.020434758 -0.017566612 -0.024190882
000350 a9 1a a8 bc 8a b7 ec bc cd 5f cc bc 7f 7b 02 be
       -0.020520525 -0.028896112 -0.024948025 -0.12742423
000360 1d 29 17 3d fe 5d 08 bb b7 f5 13 be 69 60 ea 3c
       0.036904443 -0.0020807977 -0.14449202 0.028610425
000370 fa 4b ed bc 62 ef ef bc 58 eb 39 3c 7a f3 e2 3c
       -0.028966893 -0.029288951 0.011347614 0.02770399
000380 77 95 d0 3b 00 42 ad 3c df d0 b9 bc 56 33 b2 bc
       0.006365474 0.021149635 -0.022682605 -0.021752995
000390 02 f2 c3 3c ac d8 45 3d ec 15 53 be 67 89 b6 3c
       0.02391911 0.048302338 -0.20613831 0.022282315
0003a0 6e 7e ce 3c 74 88 29 bc db 0e 71 bb 12 03 6d bc
       0.02520677 -0.010347474 -0.0036782536 -0.014466064
0003b0 2b cd cd 3c 4f a8 b4 3c 81 1a 85 be 97 eb bc bc
       0.025122246 0.022052912 -0.25996783 -0.023061557
0003c0 30 f2 3a be 45 38 6b bc b8 5a 3d bc d1 a0 94 bc
       -0.1825645 -0.014356677 -0.011557274 -0.01814309
0003d0 46 3a 6a bc 4d 81 c4 bc 9c d3 9b bc c3 85 66 be
       -0.01429612 -0.023987437 -0.019021802 -0.22511964
0003e0 c6 2c 6d bd a1 3e 26 bb 62 29 2e be 34 d2 dc 3c
       -0.057904027 -0.002536692 -0.17007974 0.026955701
0003f0 de 98 c5 bc f9 cf c9 bc 55 b5 30 3c 20 69 d7 3c
       -0.024120744 -0.024635302 0.01078542 0.026295245

bias f4 [64]
000000 c1 d9 16 be 14 30 9d 3d fa cb ce 3c 89 6c ba bd
       -0.14731504 0.07675186 0.025243748 -0.09102733
000010 7c f0 da bd e3 a3 30 bd 63 68 9a 3d bd d1 dd bc
       -0.106904 -0.043125045 0.075394414 -0.02707755
000020 7a 5a e1 bd 91 78 b5 bd e7 0b c1 3d 47 26 fd bd
       -0.11003585 -0.08860887 0.09426098 -0.123608164
000030 80 dc 06 be 77 0c 57 3d 40 f2 05 3e bf cc a1 3d
       -0.13170052 0.05250212 0.13080692 0.0790038
000040 a5 df 29 bd 60 24 52 bb 1d f1 27 bd 33 0d b6 3c
       -0.04147305 -0.0032065138 -0.041001428 0.02222309
000050 cd 80 19 3c 34 1b 0b be 7b 0f 1c be 55 fd 48 3d
       0.009369087 -0.13584596 -0.1524028 0.04906972
000060 5e 2a 2e bc ab 70 b4 3d be 8f fd bd f8 16 f7 bd
       -0.010630218 0.08810552 -0.12380932 -0.12064928
000070 f5 43 9e 3d c7 92 b8 3d 99 03 d5 bd 70 57 b8 3d
       0.077278055 0.090123706 -0.10401077 0.090010524
000080 9d 70 01 be f0 cb ec bd 39 12 d0 bd 0b cf b3 3d
       -0.12640615 -0.115623355 -0.10159726 0.08779725
000090 7f a0 a2 3b 53 12 8b bd bf ce b8 3d 5f 5a c2 3d
       0.0049629803 -0.067906044 0.09023809 0.09489893
0000a0 b2 16 b0 3d 0b 43 f3 bd 89 1f ed bd bd 42 ad 3c
       0.08598079 -0.11878022 -0.115782805 0.021149987
0000b0 63 e6 57 3d 71 a7 8d bd 2d 2a be 3d 5a 49 f9 3d
       0.05270995 -0.069167025 0.09285388 0.12172194
0000c0 93 19 5a bc f3 0f c2 bd 2f ef a6 bd dc 0f e4 bd
       -0.013311761 -0.09475698 -0.081510894 -0.111358374
0000d0 be 7c 19 be c7 1a cc bd 1f a1 27 bd e1 56 84 bd
       -0.14988992 -0.09966045 -0.04092514 -0.06461883
0000e0 63 44 4a 3d 94 54 ff bc b0 e3 a9 3d 80 66 ac 3a
       0.049381625 -0.03116826 0.08295381 0.0013153106
0000f0 37 b8 fd bd 3c 36 5b bd ee 09 bd bd 83 74 d5 bd
       -0.12388652 -0.05351852 -0.092304096 -0.104226135

weight f4 [32, 64]
000000 13 81 05 3c 42 7f d8 bb 39 f0 96 3c 23 9e 96 3c
       0.0081484495 -0.006606967 0.018425094 0.018385952
000010 f6 f0 41 3d 9b 0e aa 3c 90 f4 1c bc 8c 9c d8 3c
       0.04734894 0.020758918 -0.009579793 0.026441835
000020 b1 56 18 3c 98 bd e1 ba 38 13 90 bd b5 10 95 3c
       0.009298013 -0.0017222641 -0.07034916 0.018196443
000030 9a b8 14 bd 8b 8e 53 bc bd 2c 7a bd e9 e6 53 bc
       -0.036308862 -0.012912403 -0.061077822 -0.012933471
000040 42 39 89 3b b3 d4 a8 bb 3c 8f 8a 3c 61 b5 f8 bb
       0.004187734 -0.005152309 0.016914003 -0.0075899814
000050 01 2a c7 bc 09 89 9b 3c 2f 71 e3 bc 70 f4 92 bb
       -0.024312021 0.018986242 -0.027763931 -0.0044847056
000060 bf 46 04 3c bc 40 47 bc db ae 44 bd dd 4e 75 3d
       0.008073508 -0.01216143 -0.048018318 0.059889663
000070 d7 48 73 bc 41 19 01 3b d7 81 b4 bc 4e 05 46 bc
       -0.014848909 0.001969889 -0.022034569 -0.012086226
000080 83 35 f4 3c b7 eb 04 bd 8d 4d ac 3c ca d9 58 3c
       0.029810673 -0.032451358 0.021033073 0.013235519
000090 b7 c0 ea 3c ef a1 e7 3b cb c2 93 bc d1 4a 95 bc
       0.028656347 0.0070688645 -0.01803722 -0.018224152
0000a0 9c b5 0a bd 36 e5 16 bd ef 57 d8 3c 63 81 8f bb
       -0.033864602 -0.036839686 0.026409118 -0.004379438
0000b0 32 d6 1b 3d d7 4c 80 3c 96 4c ec bb d5 9d 8f bd
       0.03804607 0.01566164 -0.007211278 -0.07012526
0000c0 be 2a 44 3c e7 ec e4 3c 90 ad 5c bc d0 7c ef 3c
       0.011973081 0.027944995 -0.013469115 0.02923432
0000d0 42 ee 00 3c da 9f 7e 3b 4c 50 51 bc 8f 61 8b bc
       0.007869305 0.0038852603 -0.012775492 -0.017014293
0000e0 f8 46 5d bc 78 b8 96 3c 34 db 6b 3c 68 df 7a 3c
       -0.01350569 0.018398508 0.014395524 0.015312053
0000f0 27 11 86 3d 32 bb e0 3b 86 80 f8 3b 04 24 f3 3c
       0.0654624 0.006858253 0.0075836806 0.02968026
000100 80 4c 25 3d 6c b2 f3 3c 62 6a b1 3a 99 fa 3a 3c
       0.04035616 0.029748164 0.0013535733 0.011412286
000110 67 df 61 bb d3 bb a0 3c f2 75 02 bc 7b 85 a9 bb
       -0.0034465434 0.019620812 -0.007962691 -0.005173383
000120 97 5d 17 3c 95 3e 65 3c e4 a0 ce bd 9a 16 29 3b
       0.009238622 0.0139919715 -0.10089281 0.0025800825
000130 ad 1b 02 bd a0 69 67 bc 97 54 b6 bd 6d 77 ea bb
       -0.031764675 -0.014124304 -0.08902853 -0.00715535
000140 34 fb 84 bc 7e 0f d3 3c eb 67 40 3c fa 6f ab 3c
       -0.016233064 0.025764223 0.011743526 0.020927418
000150 f4 de 45 bd 3d 8e 90 3b bd d3 ac bd 8f e3 e2 3c
       -0.048308328 0.0044114874 -0.08438823 0.027696399
000160 6a 4c 14 3d bd 7d e9 bb 41 b2 31 bd c6 2d 8e 3c
       0.036205687 -0.007125585 -0.043382887 0.01735581
000170 8a 4e a7 bb 4c b0 00 3d 20 c6 b3 3c 45 98 85 bc
       -0.005105798 0.03141813 0.02194506 -0.01630796
000180 15 e8 3d 3c f1 93 e9 bc ad 0b 31 bb 10 cd 42 3c
       0.011590977 -0.028512927 -0.0027015016 0.011889711
000190 7c 4f 85 3c f3 c1 3c 3d 09 42 b8 bb 4e 7c 0e bc
       0.016273253 0.046083402 -0.0056231064 -0.008696629
0001a0 18 ac 52 3c 1b 76 06 bd e3 3d a8 3c 6a 15 81 3b
       0.012858413 -0.032827478 0.020537322 0.0039393203
0001b0 6e c2 1d 3d 7c 69 37 3c df 3a 54 3c 4d 97 c0 bd
       0.0385155 0.011194583 0.012953489 -0.09403858
0001c0 19 4d 31 bc 19 d0 39 bd 5a e0 12 bc d6 f0 47 3c
       -0.010821604 -0.045364473 -0.008964622 0.012203416
0001d0 af fd 32 3d 25 06 44 bc a1 1d f8 3c 0a 22 31 3b
       0.043698963 -0.011964356 0.030287566 0.0027028346
0001e0 7c f6 a0 bc e8 00 03 3d e9 a4 06 3d 98 a2 1e bc
       -0.019648783 0.031983286 0.032872114 -0.00968232
0001f0 d1 19 72 3c ca 7b 9a 3b b3 5e 3a b9 91 52 93 3c
       0.014776663 0.004714464 -0.0001777362 0.017983707
000200 11 ba f0 3b 82 30 81 bc 84 e4 83 bc 98 ae 79 3c
       0.0073463996 -0.0157702 -0.016100176 0.01523938
000210 dd ba 36 bc 40 80 38 3c 6f cb 70 bc 0c bc 95 bc
       -0.01115295 0.011261046 -0.01469694 -0.018278144
000220 cd 5e 82 3b 53 76 ce bb 79 46 5f bd 3f 75 df bc
       0.0039785863 -0.0063007264 -0.054510567 -0.027277587
000230 fa e6 17 bd c6 73 be bc 40 33 41 bd 36 21 e0 bb
       -0.03708551 -0.023248564 -0.047168016 -0.0068398966
000240 5b e7 27 bc 29 49 cd 3b 20 91 c2 bb ac 9f 1a bc
       -0.010248031 0.006264825 -0.0059377104 -0.009437483
000250 6e e9 5e bd 58 4a 77 bc 88 41 11 be 79 59 cf 3c
       -0.054421835 -0.0150934085 -0.14185154 0.025311219
000260 02 43 86 3c 10 f7 00 bc 60 32 47 bd 4c 75 0c 3c
       0.016389374 -0.007871404 -0.048632026 0.008572888
000270 e0 ff a9 bb 1c 1b 73 3c d0 de c4 bc 38 85 be bb
       -0.0051879734 0.014838006 -0.024032027 -0.0058142208
000280 a6 cf dd bb 97 cd 06 bd 29 cd d4 bc c0 e4 63 3c
       -0.0067691384 -0.03291091 -0.025976734 0.013909519
000290 ec 7e a5 3a c3 3f ab 3a ec c3 34 bc 11 a6 72 bc
       0.0012626327 0.0013065267 -0.01103304 -0.014810101
0002a0 65 a1 07 3b 11 bf 18 bd 00 eb 00 3c 72 22 5d bc
       0.0020695564 -0.03729159 0.007868528 -0.013496982
0002b0 32 1e e1 3c 91 e0 be bb 1a bf 49 3c 2a 1b 60 bd
       0.027480219 -0.0058251102 0.012313629 -0.054713406
0002c0 57 ad 0e 3c ea 0c 82 bd 8d bc 76 bc 58 68 bc 39
       0.00870832 -0.063501194 -0.015059602 0.00035935896
0002d0 c6 5b 35 3c b3 f7 1e bc 71 84 c6 3c 8f 08 ae bb
       0.011069244 -0.009702611 0.024233075 -0.005311079
0002e0 26 a1 79 bc 51 d9 fc 3c 73 67 f0 3c 56 d6 4d bc
       -0.015236175 0.030865343 0.029346203 -0.012563309
0002f0 22 bc c2 bc 87 39 e5 3a 9c 52 d5 3b 17 92 56 3c
       -0.02377135 0.0017488458 0.006510092 0.013096354
000300 55 d6 b0 3d 36 7b 47 3d df dc 54 3d 0c 30 28 3d
       0.086346306 0.048701487 0.05196845 0.041061446
000310 a2 d1 29 3d 94 98 58 bd 89 80 b6 3c 2c 29 30 3d
       0.041459687 -0.052879885 0.022278087 0.043008015
000320 0b bd 3c 3d d0 c8 99 3d 3f 7e b6 bd a1 61 84 3d
       0.046078723 0.07509005 -0.08910798 0.06463934
000330 fa 8a a6 bc fd 77 80 3d ea 59 ad bd c9 04 28 3d
       -0.020329941 0.06272886 -0.08464415 0.04102019
000340 59 cb 6f 3d 66 ee 45 3d 1d 4b 3a 3d 89 21 1f 3d
       0.058543537 0.048323058 0.04548179 0.03885034
000350 65 e8 94 3d f9 60 4b 3d b4 37 d3 bc bf 19 08 3d
       0.07270888 0.049653027 -0.025783397 0.03322768
000360 b0 ba 85 3d cb 97 1d 3d 32 36 07 bc 7d d5 4c 3d
       0.065297484 0.03847484 -0.008252667 0.050008286
000370 cd 84 72 3d 59 05 66 3c ab 7c 9c 3d 38 d5 2e 3d
       0.05920868 0.014039361 0.07640966 0.04268381
000380 38 b3 07 3d 19 da d8 bc d1 b8 cc 3c 53 54 87 3c
       0.0331299 -0.026471185 0.024990471 0.016519701
000390 21 58 17 3d aa 3e 78 3d 67 20 3c 3d 40 8e 1e 3d
       0.03694928 0.060606636 0.04592934 0.03870988
0003a0 74 9c 3c 3d f9 e6 7f bc b3 d5 92 3c f6 f7 7b 3d
       0.046047643 -0.015619033 0.017924165 0.06151577
0003b0 68 61 f1 bb e9 f4 6e 3d 3a 09 ff 3c 08 25 a7 bd
       -0.007366348 0.058339033 0.03113233 -0.0816136
0003c0 c8 5d 8a 3d 2e c4 1a 3d 04 05 03 bd be 6b 27 3d
       0.067561686 0.037784748 -0.031987205 0.040874235
0003d0 3c 3a a2 3d 37 f3 a6 3d 53 3e f5 3c 52 c0 84 3d
       0.079212636 0.08151858 0.029936945 0.06481995
0003e0 f0 6f aa 3c bc a0 91 3c 6b 80 ec 3c 9f 20 6e 3d
       0.02080533 0.01777684 0.028869828 0.05813658
0003f0 fa 52 03 3d 87 35 36 3d db 12 82 3d 7d d1 99 bc
       0.032061554 0.04448464 0.06351253 -0.01877665

bias f4 [32]
000000 17 43 35 bd 8b 44 b3 3d 01 b7 e5 3d 96 26 22 be
       -0.044253435 0.08753308 0.11216546 -0.15835032
000010 b5 eb 96 be 75 03 a0 bd a7 d4 29 be d6 5b 2c 3d
       -0.29476705 -0.078131594 -0.16585027 0.04207977
000020 6f cc 20 be 4e 24 f7 bd e5 f9 c4 3d 94 c3 62 3d
       -0.15702985 -0.120674714 0.09617976 0.0553623
000030 0d 96 1c be 1a 52 ba 3d ff ba 6d be 28 f5 b2 bd
       -0.15291615 0.09097691 -0.23215865 -0.08738166
000040 dc 93 7d 3d 95 bb 40 be 15 b3 22 be f0 55 0d 3e
       0.061908588 -0.18821557 -0.15888627 0.13802314
000050 9a 9d a2 bd 08 ad 56 be fd 34 96 3d b0 7c 23 be
       -0.07940216 -0.20964444 0.073343255 -0.15965533
000060 70 d1 05 3d f3 f6 9c bd 15 f5 23 be e9 ab 60 be
       0.03267044 -0.07664289 -0.1601146 -0.21940579
000070 fa 4c ff 3b 82 f6 90 bd 74 e6 c8 3d 38 6f d6 be
       0.0077911587 -0.07078268 0.098095804 -0.41881728

weight f4 [32, 1]
000000 7e 67 46 be 65 7b 1b be c9 51 6a be bb ee 6a be
       -0.19375417 -0.1518379 -0.22882761 -0.22942631
000010 da 28 13 3e 74 8e 33 3e 18 54 ce 3d 48 7c 35 3e
       0.14371052 0.1753481 0.10074633 0.17723191
000020 ce 5e 71 be b1 26 4a 3e 6c c0 41 3e c9 4e 27 3e
       -0.23571321 0.19741322 0.1892106 0.16338648
000030 cc fb 1f 3e 0f 21 de bd b2 8e 4c be 6c 90 f3 bd
       0.15623397 -0.10846149 -0.19976309 -0.11892781
000040 f5 13 23 3e 58 c5 61 be 5f ed 60 be d2 48 22 3e
       0.15925582 -0.22047937 -0.2196555 0.15848091
000050 d6 2b 1b 3e 3a 8e 2d 3e 21 fc 43 3e 3c ed 1f 3e
       0.15153441 0.16948786 0.19139148 0.15617841
000060 e9 fd bb bd 84 4d 33 3e b3 9f 43 3d d2 e0 67 be
       -0.09179289 0.17510039 0.047759723 -0.22644356
000070 f3 9d 20 3e 25 59 44 3e e7 2e 41 be 17 24 67 be
       0.15685253 0.19174631 -0.18865548 -0.22572361

bias f4 [32]
000000 8e 07 49 3e 9c 05 94 ba 9f 41 c6 3e d1 1a d1 3e
       0.19631788 -0.0011293176 0.3872194 0.40840772
000010 d3 4b 5e be d5 f4 c4 be 76 61 01 be 99 a0 d0 be
       -0.21708612 -0.38468042 -0.12634835 -0.40747526
000020 bb 53 10 3f f0 88 2e bf 2b cf 09 bf bd 0a 9c be
       0.5637776 -0.681777 -0.5383174 -0.30476943
000030 ca 60 89 be 4b 7e be bb 04 ea cf 3d af 90 2e bb
       -0.26831657 -0.005813395 0.10152057 -0.002663653
000040 b5 7e 91 be cb 53 90 3e 63 03 8c 3e ad a9 8e be
       -0.28416982 0.2818893 0.27346334 -0.27863827
000050 31 a9 20 be 81 f9 af be b1 80 13 bf 9a 15 89 be
       -0.15689541 -0.34370044 -0.5761824 -0.26774293
000060 ef e9 8e bb 8d 94 c6 be 4c da e3 bd 7e eb 47 3e
       -0.004361383 -0.3878521 -0.11125621 0.19523427
000070 88 d4 8a be 72 39 15 bf 0e ac 71 3d d6 9d 06 3e
       -0.27115273 -0.5829078 0.059001975 0.13146147

weight f4 [64, 32]
000000 d2 86 7d bd 65 b9 3b bd 9c 4a 71 bd 67 f2 6f bd
       -0.061896153 -0.045831103 -0.058909044 -0.058580782
000010 7f 4c 7d 3d 44 bd 72 3d 8c a2 86 3d 23 99 70 3d
       0.06184053 0.05926253 0.06573972 0.058739793
000020 6f 83 69 bd c9 7b 66 3d 4d 6e 6a 3d 98 0b 78 3d
       -0.05701011 0.056270394 0.057234097 0.06055793
000030 0e 3a 7a 3d 3f b0 51 bd c1 75 2c bd 7b 19 55 bd
       0.06109052 -0.051193472 -0.042104486 -0.052026253
000040 c0 8d 79 3d eb d1 77 bd fd 4a 78 bd e9 94 79 3d
       0.0609262 -0.060502928 -0.06061839 0.060933027
000050 6b 17 81 3c 86 31 75 3d 4c 7f 69 3d b6 40 7a 3d
       0.015758237 0.059861682 0.057006165 0.06109687
000060 b1 81 52 bd 85 ce 71 3d 14 9f 80 3d 78 e8 77 bd
       -0.051393215 0.059034843 0.06280342 -0.060524434
000070 d0 6f 7a 3d 7c 10 69 3d 92 f4 30 bd 38 be 39 bd
       0.06114179 0.056900486 -0.04320199 -0.045347422
000080 ea aa a0 3c d1 c8 ea 3c 46 13 ec 3c be ea ef 3c
       0.019612748 0.02866021 0.028817784 0.029286738
000090 74 a5 6f bb 7e 57 3b bc fa 81 94 3b 6a 9c 48 bc
       -0.0036567124 -0.011434434 0.004532096 -0.012244323
0000a0 3f 1b 04 3d 19 17 97 bc dd fd 80 bc 81 d8 0a bc
       0.032252546 -0.018443631 -0.015746051 -0.00847447
0000b0 5e 0d db bb d8 e3 ab 3c e8 e8 0d 3b 59 7b b3 3c
       -0.006684943 0.020982668 0.0021653716 0.021909403
0000c0 ef 60 f6 bb 30 18 cd 3c d0 6e ca 3c 92 78 ea bb
       -0.0075188796 0.025035948 0.024711043 -0.0071554864
0000d0 6b 23 ad bd 16 77 24 bc b1 a8 86 bc 1c 13 d9 bb
       -0.08454021 -0.010038158 -0.01643786 -0.0066245925
0000e0 19 4a 55 3c 67 df 3f bc 37 ab 2a bc 12 41 a6 3c
       0.013018155 -0.011710978 -0.010416797 0.0202947
0000f0 49 eb e1 bb e0 d3 88 bc 21 65 0a ba 70 e6 6d 3b
       -0.0068945033 -0.016702592 -0.00052793516 0.0036300682
000100 a2 66 09 bd 1c 7d 84 bb 56 d5 ad bd 99 03 b1 bd
       -0.033545144 -0.0040432345 -0.08487956 -0.08643264
000110 0c 0c 77 3d 26 d0 a9 3d c6 d5 57 3c 6f 48 ad 3d
       0.060314223 0.08291654 0.013173526 0.08461081
000120 96 cb be bd 05 0f c0 3d 85 68 b8 3d 68 cc 9b 3d
       -0.09316175 0.09377865 0.090043105 0.07607347
000130 f7 0f 92 3d 56 26 83 bb 4e 79 e2 3c b5 8a 85 bb
       0.07131951 -0.0040023727 0.027645733 -0.004075373
000140 d4 e7 96 3d 65 76 93 bd cc 09 90 bd eb 26 95 3d
       0.073684365 -0.07200316 -0.070331186 0.07282814
000150 a4 f1 fc 3c a8 b0 a3 3d c1 c7 ba 3d fd c4 91 3d
       0.030876942 0.07992679 0.09120131 0.07117651
000160 4e 5d d8 3a 42 bb aa 3d fc 9e a8 3c ab 16 2a bd
       0.0016507299 0.08336498 0.020583622 -0.041525524
000170 44 aa 92 3d 27 28 bb 3d 5c 2e 46 3b c8 4e ac 3b
       0.07161382 0.09138518 0.0030240035 0.005258415
000180 13 02 c1 bc 0d 4e 48 3c 93 b5 d3 bc e3 6c d4 bc
       -0.02356056 0.01222564 -0.025843417 -0.025930827
000190 50 d6 04 3d 18 ab 02 3d 84 a4 ea 3c 9c c3 01 3d
       0.032430947 0.03190145 0.0286429 0.03168069
0001a0 78 dc d3 bc 53 f1 f7 3c c6 31 fe 3c 5d ef 03 3d
       -0.025861964 0.03026644 0.031029593 0.032210696
0001b0 1f a2 04 3d 75 73 a6 3c c9 e2 b9 bc 79 58 8c 3c
       0.032381173 0.020318726 -0.022691147 0.01713203
0001c0 ae c8 04 3d c0 69 d0 bc b2 e6 ce bc c1 aa 04 3d
       0.032417946 -0.02544105 -0.025256488 0.032389406
0001d0 a6 7d 61 3c f3 9b 03 3d 6d 7b fc 3c 4e aa 04 3d
       0.013762867 0.032131147 0.030820573 0.032388978
0001e0 c8 81 cb 3c 35 91 02 3d f8 0e 01 3d a7 d8 c6 bc
       0.024842158 0.03187676 0.031508416 -0.02427323
0001f0 3e 9b 04 3d 05 ff fc 3c 9e eb 55 bb 4d 89 c3 bc
       0.032374613 0.030883322 -0.003264166 -0.023869181
000200 8f 13 72 3a fb 2f a8 3c ca bf dd bc 57 c0 e8 bc
       0.0009234482 0.020530691 -0.027068991 -0.028412027
000210 80 50 c7 3c a3 b9 09 3d 2a 31 09 3d 7a 68 0c 3d
       0.024330378 0.033624303 0.033494152 0.034279324
000220 a6 d4 0b bd 05 9a 22 3d dc 47 19 3d 40 76 f7 3c
       -0.034138344 0.039697666 0.037422046 0.030207753
000230 58 6b e7 3c de 77 40 3d 94 8d d2 3c e5 e3 15 3d
       0.028249428 0.046989314 0.025702275 0.03659429
000240 41 b6 ee 3c 9a df 95 bc 3d be 8c bc cf 69 ec 3c
       0.02913964 -0.018295098 -0.017180556 0.028859047
000250 f4 d6 16 bd ca 9f 03 3d 17 a9 1c 3d 6c 05 e6 3c
       -0.03682609 0.03213481 0.038247194 0.028078757
000260 25 5a 54 3d e5 34 0a 3d c3 49 f1 3c 15 df b8 bb
       0.05184378 0.03374185 0.029454118 -0.005641828
000270 23 a9 e8 3c e7 db 1c 3d b1 03 29 3c f5 bb 6d 3c
       0.028400963 0.038295653 0.0103158215 0.0145101445
000280 8d be db bc fb 09 b8 bc 55 61 fd bc bc 67 fe bc
       -0.02682426 -0.022465697 -0.0309302 -0.031055324
000290 ac 6e f8 3c c7 b8 07 3d f5 09 d4 3c 5b 15 08 3d
       0.03032621 0.0331352 0.025883654 0.03322349
0002a0 49 f9 00 bd e7 c8 09 3d 18 02 09 3d 89 f6 04 3d
       -0.031487737 0.03363886 0.033449262 0.032461677
0002b0 83 ec 02 3d 3f 57 19 bd 60 59 8d bc 8e ad 28 bd
       0.031963836 -0.03743672 -0.017254531 -0.04118114
0002c0 3a 4e 04 3d 2c 49 f6 bc 28 3b f5 bc c6 6b 03 3d
       0.032301165 -0.030064188 -0.029935434 0.032085203
0002d0 9f 47 f7 bc 4c 70 06 3d 80 15 09 3d 1b b1 02 3d
       -0.030185519 0.03282194 0.03346777 0.031907182
0002e0 63 30 f4 bc 29 9c 07 3d ff 7e ec 3c a0 40 ea bc
       -0.029808229 0.03310791 0.02886915 -0.028595269
0002f0 3b ce 02 3d 72 6d 09 3d 2c 88 08 3c e3 ee e7 bc
       0.031934958 0.03355164 0.008333247 -0.028312152
000300 07 ca 9a 3a 33 f7 ad bb bf f7 ea 3b 25 e9 f8 3b
       0.0011809476 -0.0053090095 0.007170647 0.0075961524
000310 b6 65 9c 3b 96 51 f5 b9 63 b3 41 3c 8e c9 8b ba
       0.004772867 -0.00046790828 0.011822554 -0.0010664926
000320 6b eb 2a 3c cc bd b7 bb 30 40 6d bb 41 a5 cb 3a
       0.010432105 -0.0056073423 -0.0036201589 0.001553692
000330 50 14 2f 3b b9 e4 8f bc 2f f7 fd bb bb 00 5b bc
       0.0026714988 -0.017565118 -0.007750414 -0.013366873
000340 5f ad 14 3b 56 0b 80 3b 6e 6f 76 3b e6 23 1e 3b
       0.0022686345 0.0039076013 0.0037603038 0.0024130284
000350 90 6d 4a 3c 22 c4 0e 3a 1a 0c 88 bb 55 3c 38 3b
       0.012355223 0.0005446096 -0.0041518332 0.0028112133
000360 33 bf 9c bc 79 97 14 ba 22 b2 16 3c 15 1c 94 39
       -0.01913414 -0.0005668323 0.009197744 0.00028249683
000370 8b 30 30 3b 16 2a 8b bb c2 8f ee bb 79 76 da bb
       0.0026884403 -0.0042469604 -0.007280321 -0.006666955
000380 9b 07 d9 bc 5f 07 7c bc f4 f5 13 bd 3d 5d 16 bd
       -0.026492884 -0.015382617 -0.03612323 -0.036710013
000390 44 2c 13 3d d3 a3 26 3d df 1e 1a 3d 57 d0 27 3d
       0.035930887 0.04068358 0.037627097 0.040970173
0003a0 10 0b 23 bd 5b c5 32 3d e4 bf 2d 3d 9a fb 1f 3d
       -0.039805472 0.043645244 0.04241933 0.039058305
0003b0 06 28 1b 3d 68 b0 05 bc 67 ad 9e bc 7b 46 30 bc
       0.037879966 -0.008159734 -0.019369794 -0.010758991
0003c0 65 5e 1d 3d b4 d6 01 bd ca 6d ff bc 2e 6c 1c 3d
       0.0384201 -0.031698897 -0.031180281 0.038189106
0003d0 13 61 b8 bc eb 4e 23 3d 47 71 2f 3d cc 50 1b 3d
       -0.022507226 0.039870184 0.04283264 0.03791885
0003e0 12 da 27 3b 04 11 27 3d 3d 5b f3 3c 52 5b d6 bc
       0.0025612158 0.04078771 0.029706592 -0.026166592
0003f0 ad c0 1b 3d f3 18 30 3d a7 0a ca bc 5c 6a 8e bc
       0.038025547 0.042992543 -0.024663283 -0.0173847

bias f4 [64]
000000 a7 67 5d 3d 05 55 c9 bd 3c 0f 85 3d d0 df 0c bd
       0.05405393 -0.09830669 0.06497046 -0.03439313
000010 3e ff a1 3c 3d e7 65 bb 44 c9 a1 bc 95 a2 c2 3c
       0.01977503 -0.0035080456 -0.019749291 0.023759166
000020 1e 4b 69 3d 8e fe 91 bd 33 7d 2b 3c 09 41 d8 bd
       0.056956403 -0.071286306 0.010466862 -0.105592795
000030 59 48 28 3d bc 8c 39 bc 82 17 bd bd 51 0e 06 3d
       0.04108462 -0.011325058 -0.092329994 0.032728497
000040 22 57 b1 b9 50 25 01 be da f5 3a bd af e9 c6 3c
       -0.0003382499 -0.1261189 -0.04564462 0.02428135
000050 53 a0 e1 3b 38 db f9 3b a6 30 49 bd a2 7d 06 3d
       0.006885567 0.00762501 -0.04911866 0.032834657
000060 63 99 97 bc ed 30 49 bd c5 91 f0 3c 49 dc c9 bd
       -0.018505758 -0.049118925 0.029366383 -0.09856469
000070 d1 19 60 3d 4e fe 72 3b ef 66 aa bc 21 17 e1 bd
       0.05471212 0.0037077847 -0.020801036 -0.109907396
000080 03 0d 1d 3c 13 92 86 3c bd 38 2c bd 26 84 30 3d
       0.009585622 0.016427075 -0.042046297 0.043094777
000090 d0 7f c9 bc f5 cf 1b 3d b6 0a 8d bc e0 e7 dd bd
       -0.024597079 0.03804012 -0.017217021 -0.10835242
0000a0 6d 90 e3 bc 7b 27 55 3d 16 ba 41 3d 71 33 bb bd
       -0.027778829 0.052039605 0.047296606 -0.09140671
0000b0 d6 42 c5 3c 5d 88 d1 bd 1f 4b f7 bd c3 4c 45 3d
       0.024079721 -0.10231087 -0.12074875 0.04816891
0000c0 1e f9 40 3d e3 56 96 bd a3 83 c5 3c 61 86 b9 bd
       0.047112577 -0.07340791 0.02411062 -0.09058834
0000d0 42 4c fe bd 13 ad 7e 3d 26 22 be 3d 69 6c 30 bd
       -0.12416889 0.062176775 0.09283857 -0.043072138
0000e0 01 64 02 be 91 59 b2 bd ff 9a 82 bd d5 96 54 3c
       -0.12733461 -0.0870849 -0.063772194 0.012975414
0000f0 31 06 55 3d e2 4d f0 bd 08 35 eb bb 59 79 38 bd
       0.052007858 -0.11733605 -0.0071779527 -0.0450376
