checkpoints/fico_honam2_emb32_0.pt (torch, 504282 bytes, 278 tensors)

weight f4 [32, 1]
0	0xbde292db	-0.11063167
1	0xbea2a0c8	-0.3176329
2	0x3d801aa7	0.062550835
3	0x3e931280	0.28725052
4	0xbe65dec6	-0.22448263
5	0xbed41bba	-0.41427404
6	0x3ea9d27e	0.33168405
7	0x3ea1da24	0.3161174
8	0x3ed973bd	0.42471114
9	0xbe9364b6	-0.28787774
10	0x3ecbea67	0.39827272
11	0x3e965533	0.29361877
12	0x3d6d9dc1	0.058011774
13	0xbe9247b9	-0.28570345
14	0x3e594cdd	0.21220727
15	0x3e827a4a	0.25483924
16	0xbea6d3c3	-0.32583436
17	0xbed87c3a	-0.42282277
18	0x3e4d7679	0.20064725
19	0xbebb1f4f	-0.36547324
20	0x3eb28bfe	0.3487243
21	0x3eceb3d0	0.4037156
22	0x3e215f9d	0.1575913
23	0xbe5fbb7b	-0.21848862
24	0x3eca9559	0.39567068
25	0x3e092883	0.1339436
26	0x3d4e0cc6	0.05030515
27	0xbe91de15	-0.28489748
28	0x3ea8ad1b	0.3294457
29	0x3eb1b8da	0.34711343
30	0xbe59aa95	-0.21256478
31	0x3ebf4ae6	0.3736183

bias f4 [32]
0	0xbe7c8f3f	-0.24664019
1	0xbe8ffeaf	-0.28123996
2	0xbd90e892	-0.07075609
3	0xbeee5ca0	-0.46555042
4	0xbe9df763	-0.30852804
5	0x3e2c5d6f	0.16832517
6	0x3e9370f9	0.2879713
7	0x3e9f4518	0.31107402
8	0xbd59bf6e	-0.053161077
9	0xbe9b7097	-0.30359337
10	0x3d938b51	0.07204307
11	0xbee9c001	-0.456543
12	0xbd739a7a	-0.059473492
13	0xbe9bc9ca	-0.3042739
14	0x3eb25a79	0.3483465
15	0x3eb313cc	0.3497604
16	0xbe8b6af3	-0.27230033
17	0xbc501d0c	-0.012702238
18	0x3eb0599d	0.3444337
19	0x3ef52ef3	0.47887382
20	0x3e827b64	0.25484765
21	0x3d2def45	0.042464513
22	0x3ea6fbd0	0.32613993
23	0xbe9d504f	-0.30725333
24	0x3db24450	0.08704436
25	0xbe263381	-0.16230585
26	0xbdbaa666	-0.09113769
27	0xbe9bf4d5	-0.3046023
28	0x3e9572f7	0.29189274
29	0x3e8470fb	0.25867447
30	0xbe9c0484	-0.30472195
31	0x3e3bb306	0.18330011

weight f4 [64, 32]
0	0x3c19fc1b	0.0093984855
1	0x3c4cf27a	0.012508983
2	0x3c4b8797	0.012422464
3	0x3b07dfae	0.0020732689
4	0x3c113898	0.008863591
5	0xbbbe09f2	-0.0057995254
6	0xbc2a05bf	-0.010377347
7	0xbc0e2fff	-0.008678435
8	0xbdf4db81	-0.119559295
9	0x3c2d05c5	0.010560458
10	0xbd22b7f2	-0.039726205
11	0x3b0dc59d	0.002163268
12	0x3be9ddc2	0.0071370313
13	0x3c28ea55	0.010309775
14	0xbba47d91	-0.0050198515
15	0xbbb900d0	-0.005645849
16	0x3c59f8e4	0.013303969
17	0x3dce266a	0.10065921
18	0xbba1ae7f	-0.0049341316
19	0x3a41c424	0.0007391593
20	0xbc54b8dc	-0.012983527
21	0xbd48f068	-0.049057394
22	0xbba30ed1	-0.0049761315
23	0x3c1130be	0.008861719
24	0xbd143ab6	-0.036188804
25	0x3c160476	0.009156337
26	0x3c5afc97	0.013365886
27	0x3c2a4278	0.010391824
28	0xbc255839	-0.010091835
29	0xbc500685	-0.012696867
30	0x3c0eb8a2	0.008711012
31	0xbca5280c	-0.020160697
32	0xb8350b64	-4.316437e-05
33	0x3d0d95da	0.034566738
34	0xbc4a3f59	-0.012344205
35	0xbcca6064	-0.024704166
36	0x3c3dac22	0.011576684
37	0x3d110aeb	0.035410803
38	0xbd178f28	-0.03700176
39	0xbcef7660	-0.02923125
40	0xbec889fe	-0.3916778
41	0x3cc45ff4	0.023971535
42	0xbe226f4e	-0.15862772
43	0xbcc97325	-0.024591038
44	0xbc9310ac	-0.017952286
45	0x3cc03261	0.023461523
46	0xbba5f7fa	-0.0050649615
47	0xbc3f08c1	-0.011659802
48	0x3d1cb5b8	0.038259238
49	0x3ea82864	0.32843316
50	0xbb762719	-0.0037559925
51	0x3ce2623e	0.027634736
52	0xbd493a6a	-0.049127974
53	0xbe450754	-0.19241077
54	0x3a424357	0.0007410547
55	0x3c2db71b	0.010602738
56	0xbe14211c	-0.14465755
57	0xbd01f36c	-0.031726286
58	0xbc30fca6	-0.010802424
59	0x3cbdade4	0.023154207
60	0xbd129d13	-0.03579433
61	0xbd43bbd3	-0.047786545
62	0x3c238c47	0.009982175
63	0xbda3e6a2	-0.08002974
64	0x3ae15e36	0.0017194215
65	0x3bf2dbeb	0.00741147
66	0x3bb2c14b	0.005455171
67	0xbb06fbba	-0.0020596818
68	0x3b285629	0.002568612
69	0x3c6c7f27	0.014434612
70	0xbb7f3045	-0.0038938683
71	0xbb02b27a	-0.0019942806
72	0xbdf24039	-0.11828656
73	0x3ba12b5c	0.004918499
74	0xbd2254a2	-0.039631493
75	0xbb0050f4	-0.0019579502
76	0x3c8762b7	0.016526563
77	0x3b9e8fd8	0.004838925
78	0x3b3c44a1	0.002872743
79	0x3ae9362b	0.0017792633
80	0x3c07cf82	0.00828922
81	0x3de8e641	0.113720424
82	0x3b433d31	0.0029791112
83	0x3bcd0bd0	0.0062575117
84	0xbbdaa2bf	-0.006672233
85	0xbd564fa2	-0.052322038
86	0x3b6af10d	0.0035849244
87	0x3b1e2ad4	0.0024134414
88	0xbd0ecbb4	-0.034862235
89	0x3cba2b4f	0.02272573
90	0x3b804104	0.0039140005
91	0x3b9d79ac	0.004805764
92	0xbb61d017	-0.0034456307
93	0xbbd10006	-0.0063781766
94	0x3b215e29	0.0024622774
95	0xbc766760	-0.015039295
96	0x3b9b8424	0.004745977
97	0xbcde3a4e	-0.027127411
98	0x3c60c7c7	0.013719506
99	0x3caa154a	0.020762105
100	0xbbb7eb85	-0.005612793
101	0xbd1626a3	-0.03665794
102	0x3d02f4da	0.03197179
103	0x3cc781ce	0.024353888
104	0x3e8d836f	0.27639338
105	0xbc8cd3f0	-0.017190903
106	0x3e119fa6	0.14221057
107	0x3ca8c1af	0.020600168
108	0x3c60fa56	0.01373156
109	0xbc89761b	-0.01677995
110	0x3ab0dee5	0.0013494162
111	0x3bf9065c	0.007599635
112	0xbcfb8a83	-0.030705696
113	0xbe8aecda	-0.27133828
114	0x39463146	0.00018901107
115	0xbcb8a5d5	-0.022540012
116	0x3d325684	0.04353954
117	0x3e2dd656	0.16976294
118	0xbb825b87	-0.003978196
119	0xbb9f0759	-0.004853171
120	0x3e0543c0	0.13014126
121	0x3c9b7782	0.018977884
122	0x3c5b530a	0.013386497
123	0xbc8724e3	-0.016497081
124	0x3cfae098	0.030624673
125	0x3d2c38ab	0.04204623
126	0xbb8a19dc	-0.0042145085
127	0x3d947709	0.07249267
128	0xbcdf44ba	-0.027254451
129	0xbd755959	-0.05989966
130	0xbc3c7d0e	-0.011504425
131	0xbc3f5985	-0.011679058
132	0xbd1ea072	-0.03872723
133	0xbc654229	-0.013992825
134	0x3d906d29	0.07052071
135	0x3d80a349	0.06281144
136	0x3ea9cb97	0.3316314
137	0xbd4ea4f5	-0.050450284
138	0x3e3a95df	0.18221234
139	0xbc3e0d12	-0.011599796
140	0xbc0c3d74	-0.008559573
141	0xbd4bf745	-0.04979636
142	0x3d2207b3	0.039558124
143	0x3d3cb9d3	0.046075653
144	0xbd81f286	-0.06345086
145	0xbea00773	-0.31255683
146	0x3d1c375a	0.038138725
147	0x3c546542	0.012963595
148	0x3da80683	0.08204367
149	0x3e5829bb	0.21109669
150	0x3d09de6e	0.03365939
151	0xbd1ad4d3	-0.03780062
152	0x3e2e0ffa	0.16998282
153	0xb8c97322	-9.605872e-05
154	0xbc63a23c	-0.01389366
155	0xbd4b355c	-0.049611434
156	0x3d8e01e6	0.06933956
157	0x3da56e58	0.08077687
158	0xbd189594	-0.037252024
159	0x3de3d83b	0.11125227
160	0xbb8e6bca	-0.0043463456
161	0xbd1e311e	-0.03862106
162	0x3c16e540	0.009209931
163	0x3c748b7a	0.014925832
164	0xbc8226a1	-0.01588756
165	0xbd278b99	-0.040904615
166	0x3d3da582	0.04630042
167	0x3d1cda22	0.038293965
168	0x3ea226f7	0.31670353
169	0xbce7493f	-0.028233169
170	0x3e2768f0	0.16348624
171	0x3c740139	0.01489287
172	0x3c562a5b	0.013071622
173	0xbce29657	-0.027659578
174	0x3c610c9a	0.013735915
175	0x3ca746c4	0.020419486
176	0xbd2d70ee	-0.042344026
177	0xbe9dc83d	-0.30816832
178	0x3c4a0c22	0.012331994
179	0xbc7fcd25	-0.015612875
180	0x3d6f808d	0.058472205
181	0x3e46503b	0.19366543
182	0x3bfcfd64	0.007720636
183	0xbc77d82b	-0.015127222
184	0x3e1a505d	0.15069719
185	0x3cc9f3d2	0.024652395
186	0x3bfae669	0.0076568616
187	0xbce1e4b5	-0.027574876
188	0x3d382831	0.044960205
189	0x3d6974db	0.056996208
190	0xbc6a6477	-0.014306179
191	0x3db69bab	0.0891641
192	0x3cf17a2e	0.029477205
193	0x3cf0b6ec	0.029384099
194	0x3d232495	0.03982981
195	0x3d0f0f67	0.0349268
196	0x3ce5d323	0.02805478
197	0xbd610a5c	-0.05494152
198	0xbce6d8c9	-0.028179543
199	0xbce09d81	-0.027418854
200	0xbde5a749	-0.11213548
201	0x3ce90bcc	0.028448008
202	0xbd390562	-0.04517115
203	0x3d106889	0.035255942
204	0x3d50c8dd	0.05097281
205	0x3cea1abe	0.028577205
206	0xbcd5a0df	-0.026077686
207	0xbcd5e735	-0.026111225
208	0x3cf41b37	0.029798133
209	0x3dc83d29	0.097772904
210	0xbcd5a891	-0.026081355
211	0xbd110bd2	-0.035411663
212	0xbcf11e5f	-0.029433427
213	0xbd53b171	-0.051682893
214	0xbcd8d2dd	-0.026467735
215	0x3ce62548	0.028093949
216	0xbd2f0e68	-0.04273835
217	0x3d42845e	0.047489516
218	0x3d17e9d4	0.03708823
219	0x3ce9a4ae	0.028520908
220	0xbce53b70	-0.027982444
221	0xbceff71f	-0.029292641
222	0x3ce690a2	0.028145138
223	0xbd07ce87	-0.033155944
224	0x3c25e31b	0.010124947
225	0x3bab32b7	0.0052245515
226	0x3c9b2ece	0.018943217
227	0x3c00c42e	0.007859273
228	0x3be75c70	0.00706058
229	0xbcb6ede6	-0.022330236
230	0xbab7d618	-0.0014025597
231	0xbaefe9ed	-0.0018303968
232	0x3caee920	0.021351397
233	0x3bbdb0e7	0.0057889107
234	0x3a1cfce9	0.0005988614
235	0x3c03c078	0.008041494
236	0x3d0a7f10	0.033812582
237	0x3bc19c9e	0.005908563
238	0xbb8e56e0	-0.0043438524
239	0xbb54f623	-0.0032495342
240	0x3ba74b19	0.005105388
241	0x394126d9	0.00018420386
242	0xbb98920d	-0.0046560825
243	0xbbcbe32f	-0.0062221508
244	0xba940307	-0.0011292406
245	0x3a98c887	0.0011656441
246	0xbbb9d573	-0.005671197
247	0x3bed3190	0.0072385743
248	0x399fe1d2	0.00030495093
249	0x3d126d6c	0.035748884
250	0x3c8a4514	0.016878642
251	0x3bbdc93e	0.005791812
252	0xbaca0ea0	-0.0015415736
253	0xba959740	-0.0011412874
254	0x3bf1ac52	0.0073752785
255	0xb9af9f3d	-0.00033497243

bias f4 [64]
0	0x3cd4a1fc	0.025956146
1	0x3e68b44f	0.22725032
2	0x3d236df3	0.039899778
3	0xbde07fac	-0.109618515
4	0xbe3ba964	-0.18326336
5	0xbe2306d9	-0.15920581
6	0x3de6a8f1	0.11262692
7	0xbc269011	-0.010166184
8	0xbc417faa	-0.011810223
9	0x3d7d1f56	0.061797462
10	0xbe2932a9	-0.16523232
11	0xbc8640e5	-0.016388366
12	0xbe0160b4	-0.12634546
13	0x3da4be29	0.08044083
14	0x3e5c904b	0.21539418
15	0x3da052a4	0.078282624
16	0x3e58fad8	0.2118944
17	0xbe488d42	-0.19585136
18	0xbe0a904e	-0.1353161
19	0x3ac09fba	0.001469604
20	0xbe3b3138	-0.18280494
21	0x3d0ea948	0.034829408
22	0xbe2c5ee2	-0.1683307
23	0x3d7c7502	0.061635025
24	0x3ddd58f5	0.10807983
25	0xbe3934cb	-0.18086545
26	0x3e64127d	0.22272678
27	0x3d7d11d2	0.061784573
28	0xbe2c9cdb	-0.1685671
29	0x3e73978d	0.23788281
30	0xbe2c2381	-0.16810419
31	0xbe2c4455	-0.16822942
32	0xbe1e5f6c	-0.15466088
33	0xbd3ba304	-0.04580976
34	0x3cde6f6c	0.02715274
35	0xbde3bcae	-0.11119972
36	0xbe4dc503	-0.20094685
37	0xbd429c8d	-0.04751258
38	0x3dd0044d	0.1015707
39	0x3e543388	0.20722783
40	0x3d8df09e	0.0693066
41	0x3ce968be	0.028492328
42	0x3d1367bf	0.03598761
43	0xbe00a49e	-0.12562796
44	0x3d9037c8	0.070418894
45	0xbe54205a	-0.20715466
46	0xbe11294e	-0.14175913
47	0xbdd7374d	-0.10508595
48	0x3e5671b7	0.20941816
49	0xbaf49fa1	-0.0018663296
50	0xbdf7487c	-0.12074372
51	0x3c831702	0.016002182
52	0xbe42e8ff	-0.19034193
53	0xbdeec610	-0.11658871
54	0x3d0ad4a0	0.03389418
55	0xbdd8920e	-0.10574733
56	0xbdb7df57	-0.089781456
57	0x3db03f6e	0.08605848
58	0xbe20d972	-0.15707949
59	0xbe1923b4	-0.14955026
60	0x3e749eff	0.23888777
61	0x3ca16e1a	0.01970582
62	0xbca8b239	-0.020592796
63	0x3d326461	0.04355276

weight f4 [32, 64]
0	0x3c055918	0.008138917
1	0x3e3a1b9c	0.18174595
2	0x3cfca681	0.030841114
3	0xbcedbe22	-0.029021326
4	0xbd5142f6	-0.05108925
5	0xbda93e07	-0.08263784
6	0x3d091279	0.033464883
7	0x3ad18520	0.0015985109
8	0xbd2314b6	-0.039814673
9	0x3c6c2270	0.014412507
10	0xbde78f16	-0.11306588
11	0xbdb600cd	-0.088868715
12	0xbd0b734c	-0.034045503
13	0x3d08e338	0.033419818
14	0x3e38bc06	0.18040475
15	0xbd374f23	-0.044753205
16	0x3e3655e3	0.178062
17	0xbd4f7587	-0.050649192
18	0xbdc3a8a2	-0.095536485
19	0x3cb70db3	0.0223454
20	0xbe13f06e	-0.14447185
21	0x3ccb8b08	0.024846569
22	0xbd5abf30	-0.053404987
23	0xbd25c6b4	-0.0404727
24	0xbcb5373e	-0.022121068
25	0xbd425c37	-0.047451224
26	0x3e36a9f4	0.1783827
27	0xbd4ef6f8	-0.050528497
28	0xbd0f1161	-0.034928683
29	0x3e47abfc	0.194992
30	0xbe04a9ff	-0.12955473
31	0xbdac6371	-0.084174044
32	0xbd9c2e12	-0.07625975
33	0xbc941cb6	-0.018080097
34	0x3d57cfc8	0.05268839
35	0xbdc73f88	-0.097289145
36	0xbdba4fea	-0.09097274
37	0x3beb297d	0.0071765766
38	0xbc07e873	-0.008295166
39	0x3e2f0773	0.17092685
40	0xbb9dddb4	-0.004817689
41	0x3d0e3a7d	0.034723748
42	0xbbe6894e	-0.007035411
43	0xbd30346e	-0.04301875
44	0x3d2b61d2	0.041841336
45	0xbdb45662	-0.08805539
46	0xbd181f18	-0.03713903
47	0xbdb48a23	-0.0881541
48	0x3e2e7546	0.17036924
49	0xbbd94115	-0.006630073
50	0xbdc871a7	-0.097873025
51	0xbd52cadf	-0.051463004
52	0xbdc6e2d1	-0.097112305
53	0xbda58fb5	-0.080840506
54	0xbd5d5e41	-0.054044966
55	0xb96d377c	-0.00022622751
56	0xbccf3353	-0.025293028
57	0x3ccdec70	0.025137156
58	0xbde064ae	-0.10956703
59	0xbe25cadf	-0.1619067
60	0x3e3b3532	0.18282011
61	0x3c43cbea	0.011950472
62	0x39b90353	0.00035288426
63	0x3c0b5d05	0.008506064
64	0x3ce80497	0.028322501
65	0x3d9e4e6a	0.077298
66	0x3d277984	0.04088737
67	0xbd8be897	-0.06831472
68	0xbdc05378	-0.093909204
69	0xbdd9ad16	-0.10628717
70	0x3d659b5f	0.056056377
71	0x3c1ffcb0	0.009764835
72	0xbc5375ed	-0.012906534
73	0x3c5a6c62	0.013331505
74	0xbd79452e	-0.06085699
75	0x3d81ed75	0.063441195
76	0xbcfb9a28	-0.030713156
77	0x3d20b050	0.039230645
78	0x3d8aff25	0.06786946
79	0x3c16765d	0.009183493
80	0x3d8dfaf8	0.06932634
81	0xbdbfd6ac	-0.09367117
82	0xbdf92675	-0.12165538
83	0x3d00a848	0.031410486
84	0xbdd517cf	-0.10404932
85	0x3d167935	0.036736686
86	0xbdb0623c	-0.08612487
87	0x3b5aac7c	0.003336697
88	0x3b9f9ae9	0.0048707617
89	0xbdc3bdd1	-0.09557689
90	0x3d99d3f4	0.0751113
91	0x3ad08b5d	0.0015910674
92	0xbda07316	-0.07834451
93	0x3d99c9b4	0.07509175
94	0xbcb3a660	-0.02192992
95	0xbdc8bd25	-0.098017015
96	0xbdd506c8	-0.10401684
97	0x3c435f07	0.011924512
98	0x3c85781a	0.01629262
99	0xbd23bdf3	-0.03997607
100	0xbe045575	-0.12923224
101	0x3d831357	0.06400173
102	0x3cca8fc6	0.02472676
103	0x3d8921e1	0.06695915
104	0x3d041bf7	0.03225323
105	0x3d62b623	0.05534948
106	0xbbabfaaf	-0.0052483897
107	0x3d081e5b	0.033232074
108	0xbc8cf323	-0.01720578
109	0xbe029cdf	-0.12755154
110	0xbcb8f76f	-0.022578923
111	0xbce36715	-0.027759114
112	0x3d9fff77	0.07812398
113	0x3cd97bcd	0.02654829
114	0xbd59c068	-0.05316201
115	0x3b153dfa	0.0022772537
116	0xbdddbdff	-0.108272545
117	0xbdc5bfca	-0.096557215
118	0x3bedae94	0.0072534773
119	0x3ac61b47	0.001511433
120	0x3becdbc7	0.007228348
121	0x3c5e6a05	0.013575082
122	0xbd66cc50	-0.05634719
123	0xbd815544	-0.06315091
124	0x3d9a0a55	0.07521502
125	0x3d663796	0.056205355
126	0xbc8f5ea2	-0.01750118
127	0x3c388132	0.011261271
128	0x3cf02c5b	0.029318025
129	0x3e61ad7c	0.22038835
130	0x3d8fea94	0.07027164
131	0xbe02dd22	-0.12779668
132	0xbdd6f3a1	-0.10495687
133	0xbe38e476	-0.18055901
134	0x3d21f3ee	0.03953927
135	0xbca5db7d	-0.020246262
136	0x3bf9f6dd	0.0076283053
137	0x3cc5e18c	0.0241554
138	0xbe292c3c	-0.1652078
139	0x3ce71ede	0.02821296
140	0xbd91ad59	-0.071131416
141	0x3d222252	0.03958351
142	0x3e576329	0.2103392
143	0xbc6a86dd	-0.0143143805
144	0x3e619ef8	0.22033298
145	0xbdfd980e	-0.12382518
146	0xbe5b5139	-0.21417703
147	0x3cc246ad	0.023715341
148	0xbe5a2829	-0.21304382
149	0x3ca26964	0.019825645
150	0xbe118738	-0.14211738
151	0xbcec9507	-0.028879656
152	0xbad13863	-0.0015962239
153	0xbdc60929	-0.09669716
154	0x3e67ff54	0.22655994
155	0xbcf1623d	-0.029465789
156	0xbe16a089	-0.14709677
157	0x3e65fcf1	0.2245977
158	0xbe05f7e5	-0.13082846
159	0xbe44cf9a	-0.19219819
160	0xbe37169b	-0.17879717
161	0xbca21785	-0.019786606
162	0x3ca888cc	0.020573042
163	0xbd93ce3c	-0.072170705
164	0xbe1e9f39	-0.15490426
165	0x3c09326f	0.008373841
166	0x3c714f8e	0.01472844
167	0x3e541c65	0.20713957
168	0x3c424f0c	0.011859667
169	0x3d4daab1	0.050211612
170	0xbc8e96a9	-0.017405825
171	0xbcda5114	-0.02664999
172	0x3d135674	0.03597112
173	0xbe1bd8ee	-0.15219471
174	0xbd845ab9	-0.064626165
175	0xbd5f942e	-0.054584675
176	0x3e6ee31b	0.23328821
177	0xbbd738e5	-0.0065680617
178	0xbdb0f1f8	-0.08639902
179	0xbd379059	-0.044815395
180	0xbe52bde8	-0.20580256
181	0xbe3ea005	-0.1861573
182	0xbc8f7f98	-0.017516896
183	0xbc5d6fbd	-0.01351541
184	0xb97491fa	-0.00023324034
185	0x3c31c341	0.010849775
186	0xbdd12a6e	-0.10213171
187	0xbe305d76	-0.17223153
188	0x3e61caf7	0.22050081
189	0xbaac9c41	-0.0013169126
190	0xbcd3dbfd	-0.025861735
191	0x3bd0941a	0.0063653113
192	0x3d812060	0.06305003
193	0xbde7ba26	-0.11314802
194	0x3d28e13c	0.041230425
195	0x3cad14e9	0.021128135
196	0x3d8b2107	0.06793409
197	0x3d5d04aa	0.053959526
198	0x3d0ab12a	0.033860363
199	0x3cf5d006	0.03000642
200	0x3c35f6b7	0.011106185
201	0x3d12a3a6	0.0358006
202	0x3bb25dd1	0.0054433127
203	0x3cf332db	0.029687336
204	0xbbd05ba7	-0.006358582
205	0x3cf2fd22	0.029661719
206	0xbdcf41a4	-0.10119942
207	0x3d247554	0.040150955
208	0xbdc8e560	-0.09809375
209	0x3d9a0421	0.07520319
210	0x3cf0f95c	0.029415779
211	0x3d1a11f9	0.037614796
212	0xba87192b	-0.0010307183
213	0x3d1f963c	0.038961634
214	0x3d5c07df	0.053718444
215	0x3d6f0c20	0.058361173
216	0x3d0c1a10	0.034204543
217	0x3d907b85	0.070548095
218	0xbddd7e6c	-0.10815129
219	0x3d82c73a	0.06385656
220	0x3cb46503	0.022020822
221	0xbdec133b	-0.115271054
222	0x3d49ca43	0.049265157
223	0x3cc8eb62	0.024526302
224	0x3d4419fe	0.04787635
225	0xbc6e7288	-0.014553674
226	0x3d30dc2f	0.043178733
227	0x3b846412	0.0040402496
228	0x3de82cbc	0.113366574
229	0xbc39e286	-0.011345511
230	0x3d1ec434	0.038761333
231	0xbdd1ab45	-0.10237745
232	0x3d32b2d8	0.04362759
233	0x3d2c9407	0.042133357
234	0x3d999fd2	0.075011864
235	0x3da81f25	0.08209065
236	0x3d27e9e3	0.040994536
237	0x3de4c2d6	0.111699745
238	0xbbf355dd	-0.007426007
239	0x3b380ac4	0.0028082589
240	0xbdf42205	-0.11920551
241	0x3d4e2c54	0.050335243
242	0xba20c863	-0.00061333756
243	0x3d7d9ee4	0.061919108
244	0x3d0ea8ec	0.034829065
245	0x3b4f6654	0.0031646686
246	0x3d1d5b16	0.038416944
247	0xbc13f49c	-0.009030487
248	0x3cb0b876	0.021572333
249	0xbb951ac1	-0.0045503085
250	0xbc20d020	-0.009815246
251	0x3bfb4c58	0.007669013
252	0xbdee87fa	-0.11647029
253	0x3d202934	0.039101794
254	0x3c524a87	0.0128351515
255	0x3cec490f	0.02884343

bias f4 [32]
0	0x3e4debe2	0.20109513
1	0x3e10f4c2	0.14155868
2	0x3e823539	0.2543123
3	0x3d268e22	0.040662892
4	0xbe294304	-0.1652947
5	0xbae11542	-0.0017172473
6	0xbda52a6e	-0.080647334
7	0xbb9f87f1	-0.0048685004
8	0x3e04c6b4	0.12966424
9	0x3cbd0cda	0.023077417
10	0xbe43b5cf	-0.19112323
11	0xbce8299b	-0.028340152
12	0xbd37745e	-0.04478871
13	0x3de81e95	0.11333958
14	0x3e067a89	0.13132681
15	0xbec93df2	-0.39305073
16	0xbc017eac	-0.007903736
17	0x3dde9ea5	0.10870103
18	0x3b9b5343	0.00474015
19	0x3e297a5d	0.16550584
20	0xbdf955ad	-0.121745445
21	0x3c816f49	0.015800135
22	0xbde4ac51	-0.11165679
23	0x3d985455	0.0743796
24	0xbdb20ec5	-0.08694223
25	0x3e0c44fa	0.13698187
26	0x3ccdc909	0.025120275
27	0xbb9fa8e1	-0.004872427
28	0xbe188ba8	-0.14897025
29	0xbd0df9e6	-0.03466215
30	0xbba4c99b	-0.005028916
31	0x3c86aa97	0.016438765

weight f4 [32, 1]
0	0xbe892eda	-0.26793557
1	0x3e7863b5	0.24256785
2	0x3e7c326e	0.24628612
3	0x3e643321	0.22285129
4	0x3e2e465e	0.1701903
5	0x3f07c1d1	0.53030115
6	0xbee36603	-0.44413766
7	0x3ecb9106	0.39759082
8	0xbed6a158	-0.4191997
9	0x3e8e40f1	0.2778392
10	0xbefc73c7	-0.4930708
11	0x3e1905b4	0.14943582
12	0xbd92dd62	-0.07171132
13	0x3ecc8dd2	0.3995195
14	0x3ed6f07d	0.41980353
15	0xbeb1a449	-0.34695652
16	0x3e5b708f	0.21429656
17	0x3ec2cccf	0.38046882
18	0xbe8b4fa6	-0.27209204
19	0x3e93c80f	0.2886357
20	0xbe780a02	-0.24222568
21	0x3ec76488	0.38943887
22	0xbeebce3e	-0.46055788
23	0x3eef77c4	0.4677106
24	0x3d4c217c	0.04983662
25	0x3ededc8a	0.43527633
26	0xbee6941e	-0.4503488
27	0xbec70d19	-0.3887718
28	0x3ec4452a	0.38334018
29	0xbd6c2703	-0.057654392
30	0x3eb8ffcc	0.36132658
31	0xbebac40e	-0.36477703

bias f4 [32]
0	0x3e675ec1	0.2259474
1	0x3ec39acf	0.38204047
2	0xbe05d269	-0.13068546
3	0xbe69d6de	-0.22835872
4	0xbe2e8a51	-0.17044951
5	0xbda75d31	-0.08172072
6	0xbdc67942	-0.09691097
7	0xbecdedc3	-0.4022046
8	0xbe144751	-0.1448033
9	0x3ebd459c	0.3696717
10	0xbc01527e	-0.007893203
11	0xbe3c31fa	-0.1837844
12	0xbe569f59	-0.20959224
13	0x3e662632	0.22475508
14	0x3e38fb6e	0.18064663
15	0xbe700aa3	-0.23441558
16	0xbe5cf674	-0.2157839
17	0x3e854d0e	0.2603535
18	0xbe8902b2	-0.2675987
19	0xbe998053	-0.29980716
20	0x3e505f37	0.20348822
21	0x3e7aeab9	0.24503602
22	0xbd7be064	-0.061493292
23	0x3d4d34c8	0.050099164
24	0x3eae2863	0.34015188
25	0xbe6ccfb6	-0.2312611
26	0xbdab5069	-0.083649464
27	0xbe42db8a	-0.1902906
28	0xbecc10e0	-0.39856625
29	0x3e8d8695	0.2764174
30	0xbec0756c	-0.37589586
31	0xbe5f5960	-0.21811438

weight f4 [64, 32]
0	0xbb1b2860	-0.0023675188
1	0x3cfa15bd	0.030527944
2	0x3ccdd5ed	0.025126422
3	0x3c11f6dc	0.0089089535
4	0x3b91dc15	0.0044512847
5	0x3f00839e	0.5020083
6	0xbe122ece	-0.14275667
7	0x3d5f8970	0.05457443
8	0xbddad89b	-0.106858455
9	0x3d153b31	0.036433402
10	0xbe9c0537	-0.3047273
11	0x3c1cf844	0.0095806755
12	0xbc71495f	-0.014726966
13	0x3db15e61	0.086605795
14	0x3ddb79eb	0.107166134
15	0xbd6efc07	-0.05834582
16	0x3cbe58f6	0.02323578
17	0x3d94f179	0.0727262
18	0xbd197910	-0.03746897
19	0x3ce0c76c	0.027438842
20	0x3a239444	0.000624005
21	0x3da0cf74	0.078520685
22	0xbe369f05	-0.17834099
23	0x3e5a4e3c	0.21318907
24	0x3c64be33	0.013961363
25	0x3dcd9c9e	0.10039638
26	0xbe1e96f6	-0.15487275
27	0xbda4581b	-0.08024617
28	0x3d5b09e7	0.05347624
29	0x3c1341b2	0.008987831
30	0x3d4582cb	0.048220437
31	0xbd87a882	-0.06623937
32	0x3c78e218	0.015190624
33	0x397603cb	0.00023461801
34	0xbca25fb7	-0.019821031
35	0xbcaabf09	-0.020843046
36	0xbc7b7ca5	-0.015349542
37	0xbf438b40	-0.76384354
38	0x3de40869	0.111344166
39	0xbd37c5e2	-0.04486645
40	0x3d9b6993	0.07588496
41	0xbb905826	-0.0044050394
42	0x3e93fdc0	0.28904533
43	0xbc6fbc8f	-0.014632358
44	0xbb5aae2a	-0.003336797
45	0xbd3c8389	-0.04602388
46	0xbd839c4a	-0.06426294
47	0x3cfd102b	0.030891499
48	0xbc9bbe7f	-0.019011734
49	0xbd0aff7d	-0.03393506
50	0x3c5271b7	0.012844495
51	0xbce2470a	-0.027621765
52	0x3c65677e	0.014001725
53	0xbd1fe801	-0.039039616
54	0x3e17bfea	0.14819303
55	0xbe2b77dc	-0.16744941
56	0x3c335c74	0.0109473355
57	0xbd7190a5	-0.058975834
58	0x3dfd4f61	0.12368656
59	0x3d4fe8e5	0.050759215
60	0xbd35ef27	-0.044417527
61	0x3c5278d1	0.012846188
62	0xbd2434f6	-0.04008957
63	0x3d1bd9c8	0.03804949
64	0xbc9e591f	-0.019329606
65	0xbc93012c	-0.017944895
66	0x3c37f610	0.011228099
67	0x3d1e447f	0.03863954
68	0x3d1c28cd	0.03812485
69	0x3d53024c	0.051515862
70	0x3c6f99e6	0.014624095
71	0x3cc91512	0.02454618
72	0x3c90a7ee	0.0176582
73	0xbc89e0fc	-0.016830914
74	0x3b7df3c8	0.0038750041
75	0x3d049932	0.03237266
76	0x3cf1c76e	0.02951404
77	0xbc16158d	-0.009160412
78	0xbbd1ff7a	-0.006408629
79	0x3cb9ba11	0.022671731
80	0x3d09b9f2	0.033624597
81	0xbc34acfb	-0.01102757
82	0x3cd18f72	0.025581095
83	0x3d02a5ce	0.031896405
84	0xbc8a0943	-0.01685012
85	0xbc295f79	-0.010337704
86	0x3c44e568	0.012017585
87	0x3bb2cef0	0.005456798
88	0xbcb19476	-0.021677237
89	0x3df2ed53	0.11861672
90	0x3c6177b9	0.013761454
91	0x3ca615de	0.020274099
92	0x3cd71790	0.026256353
93	0xbcaba85e	-0.020954307
94	0x3ce7498a	0.028233308
95	0x3cb2c4c4	0.02182234
96	0x3c3bdd9a	0.011466408
97	0x3c32e052	0.01091774
98	0x3c7c8461	0.015412421
99	0x3c57e22b	0.013176481
100	0x3b50976b	0.0031828533
101	0x3d8e522e	0.06949268
102	0x3c0efbbd	0.008727011
103	0xbd2881ca	-0.0411394
104	0x3be67d7d	0.0070340023
105	0x3c2cc1be	0.010544239
106	0x3b66e2e8	0.0035230462
107	0xbc39f294	-0.011349339
108	0x38f9bd2a	0.0001190848
109	0x3bed47ce	0.007241226
110	0x3bcdf529	0.006285329
111	0x3b3bb1bb	0.002863987
112	0xbbb5b8c6	-0.0055457084
113	0x3c050964	0.008119915
114	0x3a5fed41	0.00085421285
115	0xbcca5188	-0.02469708
116	0x3c20da07	0.009817607
117	0x3bfbb1d7	0.0076811123
118	0x3c1a6d1f	0.009425431
119	0x3bacdc32	0.0052752728
120	0x3c34428b	0.011002193
121	0x3d3a0183	0.045411598
122	0x3c155d2f	0.009116455
123	0x3ba2c46b	0.0049672625
124	0xbd21b230	-0.039476573
125	0x3c289875	0.010290255
126	0xbd12e99f	-0.03586733
127	0x3b75ac41	0.0037486705
128	0xbd5e2807	-0.05423739
129	0xbd3d9842	-0.046287782
130	0x3d4bdc30	0.049770534
131	0x3d9f7173	0.077853106
132	0x3d58bdf4	0.05291553
133	0xbd9424c2	-0.072335735
134	0x3d4db5d4	0.050222233
135	0x3d5878d8	0.05284962
136	0x3d48cf51	0.049025837
137	0xbd3b57cf	-0.045738038
138	0x3d7ccd5f	0.061719295
139	0x3d5aa9ca	0.05338458
140	0x3d545e2e	0.05184763
141	0xbd38bb85	-0.045100708
142	0xbd39e9cb	-0.045388978
143	0x3d46538d	0.048419524
144	0x3d80fcc1	0.06298209
145	0xbd38b276	-0.04509207
146	0x3d48521d	0.048906434
147	0x3d59b06e	0.053146772
148	0xbd59137a	-0.05299709
149	0xbd38a861	-0.045082454
150	0x3d550f96	0.052016817
151	0xbd489488	-0.048969775
152	0xbd4607d2	-0.0483473
153	0x3d6100ee	0.054932527
154	0x3d50443a	0.050846316
155	0x3d466556	0.048436485
156	0x3d59b077	0.053146806
157	0xbd4b5546	-0.04964187
158	0x3d5a3e1b	0.053281885
159	0x3d45b4c9	0.048268113
160	0xbc9f6303	-0.019456392
161	0xbbc46f45	-0.0059947097
162	0x3c7060ec	0.0146715455
163	0x3d807b76	0.06273548
164	0x3d88f111	0.06686605
165	0x3e17e4f9	0.1483344
166	0x3ba4fe64	0.0050352085
167	0x3c64fd40	0.013976395
168	0x3c152c96	0.009104868
169	0xbba02c5d	-0.004888101
170	0xbc9cea5f	-0.019154726
171	0xbc8da000	-0.017288208
172	0x3caa6d45	0.020804057
173	0x3b7b2375	0.0038320695
174	0x3bf4362e	0.007452748
175	0x3c664a57	0.01405581
176	0x3ce63081	0.0280993
177	0x3ab1b3b5	0.0013557585
178	0x3c863fdc	0.016387872
179	0x3c4daaa9	0.012552896
180	0xbc95caa8	-0.01828511
181	0x3b1c9821	0.0023894387
182	0x39d01e57	0.00039695457
183	0x3cefd5b2	0.029276703
184	0xbc26cfab	-0.010181348
185	0x3d7087b9	0.058723185
186	0x3b603d3f	0.0034216193
187	0x3c421fd1	0.011848406
188	0x3c65bcd6	0.014022073
189	0xbc48d1c3	-0.012257042
190	0x3c499f75	0.012306084
191	0x3c590c78	0.013247602
192	0xbcd6de5d	-0.026229078
193	0xbc9564a8	-0.018236473
194	0x3cd2ffa6	0.025756668
195	0x3cf176fd	0.029475683
196	0x3cfa7d6c	0.030577384
197	0xbcf14cbf	-0.02945554
198	0x3c62fc8a	0.013854155
199	0x3cd786e0	0.02630943
200	0x3c7b8272	0.015350925
201	0xbc8e5b6c	-0.017377578
202	0x3c606528	0.0136959925
203	0x3ced3b22	0.02895886
204	0x3cc72565	0.024309823
205	0xbc3d5066	-0.011554813
206	0xbc1bcd44	-0.009509388
207	0x3c972e45	0.01845468
208	0x3cfb3663	0.030665582
209	0xbc55309e	-0.0130120795
210	0x3ca6ef34	0.020377733
211	0x3cd62dd8	0.026144907
212	0xbcd1f810	-0.02563098
213	0xbc4b3a5b	-0.01240405
214	0x3c504d18	0.012713693
215	0xba62adc7	-0.00086471107
216	0xbcaf4ef1	-0.021399947
217	0x3d92fc76	0.07177059
218	0x3c5cce4d	0.01347692
219	0x3c89794e	0.016781475
220	0x3cd71b9c	0.026258282
221	0xbcbb0aee	-0.02283236
222	0x3cd58274	0.026063181
223	0x3c918a10	0.017766029
224	0xbd83542c	-0.06412539
225	0xbd86c6b6	-0.0658087
226	0x3c64eec5	0.013972943
227	0x3d927b95	0.07152478
228	0x3d8d6228	0.069034874
229	0xbdad75d5	-0.0846974
230	0x3d7bac15	0.061443407
231	0x3da1a403	0.07892611
232	0x3d7e9d5f	0.0621618
233	0xbd85ecfa	-0.0653934
234	0x3d8ba374	0.068182856
235	0x3d822aa5	0.0635579
236	0x3d889424	0.066688806
237	0xbd7ea05f	-0.06216466
238	0xbd7a533f	-0.061114546
239	0x3d8373aa	0.064185455
240	0x3d8cc409	0.06873328
241	0xbd80d8c1	-0.062913425
242	0x3d86030d	0.06543551
243	0x3d8f416e	0.069949016
244	0xbd837e6a	-0.06420596
245	0xbd805dd1	-0.06267894
246	0x3d7a7b95	0.061153013
247	0xbd6d198b	-0.057885688
248	0xbd89e295	-0.0673267
249	0xbd4a6556	-0.049413048
250	0x3d7ae79e	0.061256044
251	0x3d81880f	0.06324779
252	0x3da09894	0.07841602
253	0xbd89e653	-0.06733384
254	0x3d9c43cb	0.07630118
255	0x3d8295fd	0.06376264

bias f4 [64]
0	0xbe31b999	-0.17355956
1	0x3e416c3c	0.18888944
2	0xbde379c7	-0.111072116
3	0xbdc3a1ab	-0.0955232
4	0x3dcd3519	0.10019893
5	0xbe340f30	-0.17583919
6	0x3d245b8d	0.040126372
7	0x3d9c1d69	0.07622797
8	0xbc828721	-0.015933575
9	0xbe444fb8	-0.19171035
10	0xbe325916	-0.17416796
11	0xbd143cfa	-0.036190964
12	0xbcaf7e03	-0.021422392
13	0x3da3ecc7	0.08004146
14	0x3dbcdd35	0.092218794
15	0xbe148993	-0.14505605
16	0xbdf13cd8	-0.11779183
17	0xbe3626d1	-0.17788245
18	0x3cdf609d	0.027267748
19	0x3dae842b	0.08521303
20	0xbdff453a	-0.12464376
21	0x3c23b96c	0.0099929385
22	0xbca93c56	-0.020658653
23	0xbe2df0c4	-0.16986376
24	0x3de47546	0.11155181
25	0x3cf2af1c	0.029624514
26	0x3e01e8a3	0.126864
27	0xbe2766e3	-0.16347842
28	0xbe0129bc	-0.12613577
29	0xbdef45f5	-0.11683265
30	0x3cab409b	0.02090483
31	0xbd010347	-0.031497266
32	0xbe01fa34	-0.12693101
33	0x3dd6d90b	0.104906164
34	0x3e450b59	0.1924261
35	0x3dfbd035	0.12295572
36	0x3d7c5bad	0.061610866
37	0x3d783343	0.060595762
38	0xbdae96f0	-0.08524883
39	0x3c910db4	0.01770673
40	0xbdd67961	-0.1047237
41	0xbaed184f	-0.001808891
42	0x3bd876d8	0.006605964
43	0x3d16fdfd	0.036863316
44	0xbdf4849e	-0.11939357
45	0xbc5f55f1	-0.01363133
46	0xbde6a9a2	-0.11262824
47	0xbd9ec53f	-0.077524655
48	0xbdd615ac	-0.10453352
49	0xbda09293	-0.07840457
50	0xbe0a52dc	-0.13508171
51	0xbde2b14f	-0.11068975
52	0xbc49dbde	-0.012320487
53	0xbe43a974	-0.1910761
54	0xbe2c28f3	-0.16812496
55	0x3dbd77ee	0.092513904
56	0xbe3597ee	-0.17733738
57	0x3da1cfe8	0.07900983
58	0x37a968e7	2.0195219e-05
59	0xbc2c2af4	-0.010508288
60	0x3e433e96	0.19066843
61	0xbe3108ab	-0.17288463
62	0x3d6ace1a	0.05732546
63	0x3dadffaa	0.0849603

weight f4 [32, 64]
0	0xbf0e946a	-0.5569521
1	0x3db56834	0.08857766
2	0x3b93d70e	0.0045117205
3	0x3c0bd80b	0.008535395
4	0x3c6b4647	0.014360017
5	0xbd9772f2	-0.07394971
6	0x3d239085	0.039932746
7	0x3cbbd623	0.022929257
8	0x3c66a459	0.0140772695
9	0xbbb7eb17	-0.0056127417
10	0xbf0f696b	-0.5602023
11	0x3c8448b0	0.016147941
12	0x3dc7c3f2	0.097541705
13	0x3baab948	0.0052100755
14	0x3c9909f6	0.018681508
15	0xbd0aa050	-0.033844292
16	0xbe4deca1	-0.20109798
17	0xbf15f4f4	-0.58576894
18	0xbbf9dee9	-0.00762545
19	0x3cf03aa7	0.029324843
20	0xbe276825	-0.16348322
21	0x3c9998d9	0.018749641
22	0xbd248535	-0.0401661
23	0xbd446a3d	-0.04795288
24	0xbba21dde	-0.004947408
25	0x3bd25ff1	0.0064201285
26	0x3c1dc7d9	0.009630167
27	0xbd067934	-0.032830432
28	0xbe837100	-0.2567215
29	0xbe3d5d06	-0.18492517
30	0x3c876d7c	0.016531698
31	0x3cd269a5	0.02568514
32	0xbd9bcf7d	-0.076079346
33	0xbcf81523	-0.030283516
34	0x3ddaec12	0.10689558
35	0xbc82e919	-0.01598029
36	0xbd3b887c	-0.04578446
37	0xbd1e3e5c	-0.03863369
38	0x3c27b014	0.010234851
39	0x3cb935ba	0.022608627
40	0xbea987cc	-0.33111417
41	0x3ce5b653	0.02804104
42	0x3d92b410	0.071632504
43	0xbbc204e4	-0.005920993
44	0xbd2d7619	-0.042348955
45	0xbd590b4e	-0.052989297
46	0xbd1c26e5	-0.03812303
47	0xbd580d60	-0.05274713
48	0xbcba7ebb	-0.022765508
49	0x3bea6a7e	0.007153808
50	0xbd1d2ef1	-0.038374845
51	0x3c1dd658	0.009633623
52	0xbd101efa	-0.03518579
53	0xbd1f0b3d	-0.038829077
54	0xbcecccd7	-0.028906269
55	0x3d01833b	0.03161929
56	0xbf0d2664	-0.55136704
57	0xbc06bd8a	-0.008223901
58	0x3a86fd74	0.0010298924
59	0xbb078021	-0.0020675736
60	0x3dc5bc08	0.09655005
61	0xbf02245c	-0.5083673
62	0x3c9fa7da	0.019489218
63	0xbc904752	-0.017612133
64	0xbe325212	-0.1741412
65	0xbc8b145e	-0.016977485
66	0x3d63eb43	0.055644285
67	0x3d142e81	0.036177162
68	0xbd353d59	-0.04424796
69	0x3c5827f6	0.013193121
70	0xbc4db11f	-0.012554436
71	0x3cd068ab	0.025440535
72	0x3bbc98ef	0.005755536
73	0xbb18c9f3	-0.002331373
74	0xbe344aff	-0.17606734
75	0x3d35d33f	0.044390913
76	0x3c79478a	0.01521481
77	0xbadd7571	-0.0016895962
78	0xba62f1c6	-0.0008657243
79	0x3d1e6b2f	0.038676437
80	0xbd8f710e	-0.07003985
81	0xbe300db7	-0.17192732
82	0x3d401861	0.04689825
83	0x3cbe726f	0.023247926
84	0xbd7d3758	-0.061820358
85	0x3cc3195d	0.023815805
86	0x3d010e4e	0.031507783
87	0x3d4ef2d2	0.05052454
88	0x3b294632	0.0025829193
89	0x3cefb2d2	0.029260073
90	0x3d253c28	0.040340573
91	0x3d359755	0.044333775
92	0xbdc785aa	-0.09742291
93	0xbd8e937d	-0.06961725
94	0x3c8e10cc	0.017341994
95	0x3d815c13	0.0631639
96	0x3bef5838	0.0073042177
97	0x3c5b6b79	0.013392323
98	0xbc593815	-0.013258
99	0xbc9beff7	-0.019035323
100	0xbb2083d7	-0.0024492645
101	0xbc199a59	-0.009375178
102	0x3d25e01b	0.040496927
103	0x3d1d546e	0.038410597
104	0xbde5cc5d	-0.1122062
105	0x3ca00a56	0.019536179
106	0x3d68b233	0.05681057
107	0xb9eee08b	-0.00045562195
108	0x3b511716	0.003190463
109	0x3d891836	0.06694071
110	0x3c6dda3d	0.014517364
111	0x3c9d79f3	0.019223189
112	0x3da7f636	0.08201258
113	0x3d93d07e	0.07217501
114	0x3d26ea3d	0.04075073
115	0x3d771da4	0.060331002
116	0x3bb0e6cc	0.005398607
117	0x3d140cdd	0.03614508
118	0x3d611faa	0.054961838
119	0x3b4f0cde	0.0031593363
120	0xbe28039c	-0.16407627
121	0xba0f87a2	-0.0005475228
122	0x3ce0d73f	0.027446387
123	0x3d1369b3	0.035989475
124	0xbc4bc53e	-0.012437163
125	0xbe1c43a2	-0.15260175
126	0x3c5d942e	0.013524098
127	0x3c8abd52	0.016935978
128	0xbe048d5a	-0.12944546
129	0xba147c40	-0.00056642666
130	0x3e1470fb	0.14496224
131	0x3d61dfb3	0.055144977
132	0xbccaccee	-0.024755921
133	0x3d922c88	0.071374
134	0x3c761c33	0.015021372
135	0x3d789331	0.060687248
136	0x3c94b3fc	0.01815223
137	0x3d89ce75	0.06728832
138	0xbe084374	-0.13306981
139	0x3c5ac9dd	0.013353792
140	0x3d0a8114	0.033814505
141	0x3cf25dcf	0.029585747
142	0x3cd941c0	0.02652061
143	0x3e1b1f4f	0.15148662
144	0x3cd149ee	0.025547948
145	0xbe00fcb5	-0.125964
146	0x3da7c4c8	0.0819183
147	0x3cfc4a88	0.030797258
148	0x3cb33936	0.021877866
149	0xbcf8e741	-0.030383708
150	0x3d31bf8a	0.043395557
151	0x3e27ad1d	0.16374631
152	0x3c82eb45	0.015981326
153	0x3da316e4	0.079633504
154	0x3cabe797	0.020984454
155	0x3dd1c90f	0.10243427
156	0x3cd906fd	0.02649259
157	0x3cf659a2	0.030072037
158	0x3d573187	0.052537467
159	0x3dc7e4d8	0.09760445
160	0xbab3ae1d	-0.0013708506
161	0x3c985aff	0.018598078
162	0x3bf6c74a	0.0075310813
163	0xbc95287a	-0.018207777
164	0xbca9f58d	-0.02074697
165	0x3c25a6ff	0.010110616
166	0x3d5b4a8d	0.053537894
167	0x3da356ed	0.07975564
168	0xbd80ea07	-0.06294637
169	0x3d2a5c82	0.04159213
170	0x3d3e30d3	0.04643328
171	0xbbdcd891	-0.006739684
172	0x3cf35daa	0.029707748
173	0x3da919c6	0.08256869
174	0x3d10fd7a	0.035397984
175	0x3db349b5	0.08754293
176	0x3e22ce4c	0.15899009
177	0x3dc1be0e	0.09460078
178	0x3deda9fa	0.11604686
179	0x3dd38186	0.10327439
180	0x3d1de6c3	0.03855015
181	0x3dea7845	0.11448721
182	0x3e1f31b5	0.15546305
183	0x3cf2430c	0.029572986
184	0xbdcfd485	-0.10147957
185	0x3cbf0c7d	0.023321385
186	0x3d713f4f	0.058898266
187	0x3d7805df	0.060552474
188	0x3c294748	0.010331936
189	0xbde1f287	-0.110325865
190	0x3d71fd4d	0.059079457
191	0x3d233508	0.039845496
192	0x3ccdc20c	0.025116943
193	0xbde5d849	-0.11222894
194	0x3b638b38	0.0034720432
195	0x3cbfeb0a	0.023427505
196	0x3d6a3d26	0.057187222
197	0x3d387e0f	0.045042094
198	0x3cb6db85	0.022321472
199	0x3cfb6975	0.030689934
200	0x3c11b3d5	0.008892973
201	0x3d630342	0.05542303
202	0x3cd354a2	0.025797192
203	0xbb8f0e5e	-0.0043657264
204	0x3baafdef	0.0052182595
205	0x3ca39063	0.01996631
206	0x3bc6db52	0.0060686255
207	0x3d1b9628	0.037984997
208	0xbd4bd3d2	-0.049762554
209	0x3cc7611f	0.024338303
210	0x3d12b278	0.035814732
211	0x3bacd98c	0.005274957
212	0xbd4c1c2c	-0.049831554
213	0x3d1f1de7	0.038846876
214	0xbc8a6044	-0.016891606
215	0x3cf91bc1	0.030408742
216	0x3ba02a72	0.0048878724
217	0x3cbe82d5	0.023255745
218	0x3c17c03e	0.009262143
219	0x3d171870	0.03688854
220	0xbd368c70	-0.044567525
221	0xbd479ae9	-0.04873172
222	0x3c00c399	0.007859134
223	0x3d1c0c3d	0.03809761
224	0xbd0ba63b	-0.034094077
225	0xbc1dbece	-0.009628011
226	0xbe0acaa9	-0.13553871
227	0x3c445178	0.011982314
228	0xbad1970c	-0.001599045
229	0x3c1de7c1	0.009637774
230	0x3c604e52	0.013690548
231	0x3c32f9d7	0.010923824
232	0xbd123ac0	-0.03570056
233	0xbc89b8a5	-0.016811678
234	0x3c10755a	0.008817041
235	0x3c5ed7df	0.013601272
236	0x3c64515b	0.013935412
237	0x3b8070d2	0.003919699
238	0x3ca51907	0.020153536
239	0x3d654c0c	0.055980727
240	0x3c36e792	0.011163609
241	0x3c952d61	0.018210115
242	0x3cf9ea6b	0.030507287
243	0x3ce6552a	0.028116781
244	0xbbac0bd4	-0.0052504335
245	0x3d12ef2f	0.035872635
246	0x3c9bc5d2	0.019015227
247	0x3caa61e8	0.020798638
248	0x3c9db8e2	0.019253198
249	0xbae4d42a	-0.0017458249
250	0x3cfd66ec	0.030932866
251	0x3d0bdbd1	0.03414518
252	0xbe07b037	-0.13250814
253	0x3c731356	0.014836153
254	0x3c634e81	0.013873697
255	0xbab99035	-0.0014157357

bias f4 [32]
0	0x3e114732	0.14187315
1	0xbd5386b3	-0.05164213
2	0xbe22052e	-0.15822288
3	0xbaf32616	-0.0018550779
4	0x3d8dd367	0.069250874
5	0xbe8574f9	-0.26065806
6	0xbd372a07	-0.044717815
7	0x3d23cc98	0.039990038
8	0xbd805335	-0.062658705
9	0x3ca98dd3	0.02069751
10	0xbe00706d	-0.12542887
11	0xbe5fd3c5	-0.21858127
12	0x3cdafe56	0.026732605
13	0x3db6053c	0.08887717
14	0x3e0f4f55	0.13995107
15	0xbed3a6fd	-0.4133834
16	0xbde37c22	-0.11107661
17	0xbd868b25	-0.065695085
18	0xbccfd050	-0.025367886
19	0xbec7e5eb	-0.390426
20	0xbe52b104	-0.20575339
21	0xbde3e22c	-0.11127123
22	0xbe093a11	-0.13401057
23	0x3de7d573	0.11320009
24	0x3e148224	0.1450277
25	0x3e1140fd	0.14184947
26	0x3cc51158	0.024056122
27	0x3d3bdb44	0.045863405
28	0xbdcf76e4	-0.101300985
29	0xbe3de28e	-0.18543455
30	0xbdc3cd71	-0.09560669
31	0xbe361c49	-0.17784227

weight f4 [32, 1]
0	0x3e3715be	0.17879388
1	0xbd0886f3	-0.033331823
2	0xbc9fdb6c	-0.019513808
3	0x3e07d91b	0.13266413
4	0xbe4abf21	-0.19799472
5	0x3e377637	0.17916189
6	0xbe3ba6d1	-0.18325354
7	0x3e3b3908	0.18283474
8	0xbe43b599	-0.19112243
9	0xbe509885	-0.20370682
10	0x3c2fd2b2	0.010731386
11	0xbd09b037	-0.033615317
12	0xbd06960a	-0.032857932
13	0xbe41b329	-0.18916
14	0x3cec90a5	0.028877566
15	0x3d6d5ace	0.057947926
16	0xbe4fddd2	-0.20299461
17	0xbe4c9931	-0.19980313
18	0x3b6e613c	0.0036373874
19	0x3e17f9ad	0.14841338
20	0xbe41c9bc	-0.18924612
21	0x3e06b909	0.13156523
22	0x3e21ee54	0.15813571
23	0x3e290639	0.1650628
24	0x3d05f1ef	0.03270143
25	0x3de7bcc1	0.11315299
26	0xbe490bc0	-0.19633389
27	0xbe4a8657	-0.19777809
28	0x3de8dcfb	0.11370274
29	0x3e0071ec	0.12543458
30	0xbe4b1ca7	-0.19835149
31	0x3e184cc6	0.14873037

bias f4 [32]
0	0xbef20fee	-0.47277778
1	0xbcef8411	-0.029237779
2	0xbce7d4cf	-0.028299717
3	0xbe294405	-0.16529854
4	0x3eb9e6e8	0.3630898
5	0xbef6e03f	-0.4821796
6	0x3e0e2c55	0.13884099
7	0xbf110669	-0.56650406
8	0x3e7d095a	0.24710599
9	0x3f171bb2	0.59026635
10	0xbd966b8d	-0.073447324
11	0xbd00f429	-0.03148285
12	0xbcbd09f4	-0.023076035
13	0x3e6b51ac	0.22980374
14	0xbd2133c8	-0.039356023
15	0xbd8d0b18	-0.068868816
16	0x3f07830d	0.5293434
17	0x3ed4e59e	0.41581434
18	0xbd48cd49	-0.0490239
19	0xbe59a1d8	-0.21253145
20	0x3e6ac31d	0.22925992
21	0xbe2604df	-0.16212796
22	0xbe84aa67	-0.25911257
23	0xbe9cfc69	-0.30661324
24	0xbd156e78	-0.036482304
25	0xbe233a8b	-0.15940301
26	0x3ea463b5	0.3210732
27	0x3eb1ed2e	0.34751266
28	0xbe238ec8	-0.15972435
29	0xbe0d77cf	-0.13815235
30	0x3ebf398f	0.373486
31	0xbe5c7ad2	-0.21531227

weight f4 [64, 32]
0	0x3d0ac045	0.03387477
1	0x3d4b7506	0.04967215
2	0xbcd220a5	-0.025650332
3	0x3cb1aad5	0.021687904
4	0xbce9aabd	-0.028523797
5	0x3d0bdd6c	0.03414671
6	0xbc5f09af	-0.013613149
7	0x3d0f1306	0.03493025
8	0xbcc4bf87	-0.024017109
9	0xbd045471	-0.032307092
10	0x3c85bd24	0.01632554
11	0xbce4d271	-0.027932378
12	0xbc27cb71	-0.010241375
13	0xbcbbd458	-0.022928402
14	0x3c952834	0.018207647
15	0xbd5647b8	-0.05231449
16	0xbd011303	-0.03151227
17	0xbcf2a118	-0.029617831
18	0x3c40c9f3	0.011766898
19	0x3cd77470	0.026300639
20	0xbcbb7291	-0.022881778
21	0x3cace02f	0.021102993
22	0x3ced2f9c	0.028953366
23	0x3cfc3b87	0.030790104
24	0x3c5c68c6	0.013452714
25	0x3c9f390b	0.01943638
26	0xbcdea0a5	-0.02717621
27	0xbce4f201	-0.027947428
28	0x3c9f4da2	0.019446198
29	0x3cfc94aa	0.030832607
30	0xbceb7a25	-0.028744766
31	0x3cd95abc	0.026532523
32	0x3c1c043f	0.009522497
33	0x3c84db4d	0.016217852
34	0xbbc3c3c4	-0.005974265
35	0x3c368c4a	0.011141846
36	0xbbfc8ade	-0.007706984
37	0x3c1cf040	0.009578764
38	0xbc02d26d	-0.00798474
39	0x3c1a233c	0.009407815
40	0xbbf623c1	-0.0075115864
41	0xbc04a025	-0.008094822
42	0x3c8d58aa	0.017254192
43	0xbc972f37	-0.018455131
44	0x3be745ab	0.0070578656
45	0xbbeff5f7	-0.0073230225
46	0x3a1b8b08	0.0005933498
47	0x3bef22da	0.007297856
48	0xbc04859e	-0.008088497
49	0xbc00eab5	-0.0078684585
50	0x3aa50c09	0.0012592088
51	0x3c2c6a60	0.010523409
52	0xbbf1feb3	-0.007385099
53	0x3c372b0b	0.011179696
54	0x3c27bf1b	0.010238434
55	0x3c24647f	0.010033726
56	0xbb5f4fb4	-0.0034074606
57	0x3c3ccc7f	0.011523365
58	0xbbfb881f	-0.007676139
59	0xbbff2ae2	-0.0077870945
60	0x3c3d184a	0.0115414355
61	0x3ca36e7e	0.019950148
62	0xbbfe4ffe	-0.0077610007
63	0x3c2e8983	0.010652903
64	0xbb10ba5f	-0.0022083742
65	0x3c17c16f	0.009262427
66	0xbc79b029	-0.015239754
67	0x3bc4aa98	0.0060017817
68	0x3be9cf82	0.0071353326
69	0xbb1ee415	-0.0024244834
70	0x3ab216b5	0.001358709
71	0xbb7a4b45	-0.0038191837
72	0x3b98a386	0.0046581654
73	0x3c26f2ab	0.0101896925
74	0x3c2b58d3	0.010458189
75	0xbc4306d3	-0.0119034825
76	0x3c857604	0.016291626
77	0x3b8a9749	0.0042294604
78	0x3b886792	0.004162737
79	0x3c034cbd	0.008013901
80	0x3c1a5e11	0.009421841
81	0x3c02ad09	0.007975825
82	0x3cd2f74d	0.025752688
83	0x3b8545cc	0.0040671583
84	0x3b890274	0.0041812006
85	0x3bc9ace1	0.006154642
86	0x3b208566	0.0024493574
87	0x3a96d8c2	0.0011508691
88	0x3b66f533	0.0035241365
89	0x3bd8526f	0.0066016237
90	0x3bcf6e90	0.0063303187
91	0x3be1210e	0.0068703955
92	0x3bd9c81f	0.0066461707
93	0x3c5d3c7b	0.013503189
94	0x3bf30fc9	0.007417653
95	0x3b80cd80	0.0039307475
96	0x3b0b50c0	0.0021257848
97	0x3d519a57	0.05117258
98	0x3c0b7026	0.008510625
99	0x3b38f2f2	0.0028220979
100	0x3aa65351	0.0012689625
101	0x3b04bcc3	0.0020254112
102	0x3b360b85	0.0027777862
103	0x3afb4e77	0.0019173165
104	0x3af2d784	0.0018527363
105	0x3a51e11d	0.0008006262
106	0x3bd1e137	0.0064050215
107	0x3ce43cf9	0.027861105
108	0xbc906ac0	-0.017629027
109	0x3b06e1b4	0.0020581307
110	0xbc033302	-0.008007767
111	0xbb8ecc75	-0.0043578693
112	0x3a63d0e2	0.0008690489
113	0x3a93ed80	0.001128599
114	0x3c4efa52	0.012632923
115	0x3b29594b	0.0025840576
116	0x3b054c3a	0.0020339624
117	0x3b3a2444	0.0028402964
118	0x3b210248	0.002456801
119	0x3b1b5a5f	0.0023704988
120	0xba33ffc4	-0.000686642
121	0x3b397080	0.0028295815
122	0x3aba481d	0.0014212165
123	0x3aada366	0.0013247549
124	0x3b43a7fc	0.0029854765
125	0x3b8398b2	0.0040160054
126	0x3aad100b	0.0013203634
127	0x3b312e96	0.0027035824
128	0x3cf7b4d4	0.030237593
129	0x3d498a72	0.049204297
130	0x3cde366b	0.027125558
131	0x3cf116fa	0.029429901
132	0xbccffdeb	-0.025389632
133	0x3cf8b64d	0.030360365
134	0xbcafef35	-0.021476367
135	0x3cf6c415	0.030122796
136	0xbcc1d738	-0.023662195
137	0xbcd7720d	-0.0262995
138	0x3d30f4ac	0.043202087
139	0x3c7c9e94	0.015418667
140	0x3d73b728	0.059500843
141	0xbcbf3bab	-0.023343882
142	0x3d0edbff	0.034877773
143	0x3cb54ee5	0.022132346
144	0xbcd5acb0	-0.02608332
145	0xbcd2b3ff	-0.025720594
146	0x3d1ed013	0.038772654
147	0x3cf7f83f	0.03026974
148	0xbcbd8b66	-0.02313776
149	0x3cef486d	0.02920934
150	0x3cf9d2d1	0.030496033
151	0x3cfaf8b8	0.030636176
152	0x3ca9fdd3	0.020750916
153	0x3d077996	0.033074938
154	0xbccd2e5f	-0.025046526
155	0xbccedda6	-0.025252175
156	0x3d07bc27	0.03313842
157	0x3d48b3b3	0.0489995
158	0xbcd01e36	-0.02540503
159	0x3cf887bc	0.03033816
160	0xbbe1c60d	-0.0068900646
161	0x3c95734a	0.01824345
162	0x3d569ef8	0.0523977
163	0x3ad9d07e	0.0016617922
164	0x3c85b2d8	0.01632063
165	0xbbe6c5f6	-0.0070426418
166	0x3c484376	0.012223115
167	0xbc054db6	-0.0081362035
168	0x3c749dc6	0.014930194
169	0x3c9405dc	0.0180692
170	0x3c2a04d0	0.010377124
171	0x3d5b5479	0.053547356
172	0x3cea666f	0.028613297
173	0x3c6cc6b2	0.0144516695
174	0x3cf35d95	0.02970771
175	0x3caf1ccc	0.021376036
176	0x3c8ff752	0.017573986
177	0x3c89a5a6	0.01680262
178	0x3c4f9301	0.012669326
179	0xb9e6c727	-0.000440174
180	0x3c6e3b0b	0.014540444
181	0x3aee6ebb	0.0018190959
182	0xbafa3dd6	-0.0019091915
183	0xbb5fbf29	-0.003414104
184	0x3cdab110	0.026695758
185	0x3b244c74	0.0025069984
186	0x3c8304d0	0.015993506
187	0x3c85108c	0.016243242
188	0x3b1b1a3e	0.0023666765
189	0xbba56f00	-0.0050486326
190	0x3c87687f	0.01652932
191	0xba04edb1	-0.0005070819
192	0x3d7d32e1	0.0618161
193	0x3d5540ac	0.05206363
194	0xbb986552	-0.00465075
195	0x3d5accfa	0.053418137
196	0xbd60555c	-0.054768905
197	0x3d7dd078	0.06196639
198	0xbd2ae0b8	-0.041718215
199	0x3d80e0f4	0.062929064
200	0xbd4b23a8	-0.04959455
201	0xbd74fe44	-0.0598128
202	0x3dbf6841	0.09346057
203	0xbc61782b	-0.01376156
204	0x3be45bdb	0.006968958
205	0xbd4686ee	-0.048468523
206	0x3c82d4bd	0.015970582
207	0x3cc2d041	0.023780944
208	0xbd712f44	-0.058882967
209	0xbd66c85b	-0.056343418
210	0x3c40198e	0.011724843
211	0x3d6272b3	0.055285167
212	0xbd46e117	-0.048554506
213	0x3d598179	0.05310199
214	0x3d699df8	0.057035416
215	0x3d6fcbd0	0.05854398
216	0x3c217a48	0.009855814
217	0x3d5b488a	0.053535976
218	0xbd59ec30	-0.05320376
219	0xbd5d745b	-0.054066043
220	0x3d5b57c4	0.053550497
221	0x3c9398cf	0.0180172
222	0xbd61bbc9	-0.055110727
223	0x3d63a4da	0.055577137
224	0x3d602aae	0.054728203
225	0x3d215f12	0.039397307
226	0x3d88bbd9	0.06676454
227	0x3d2da4d8	0.042393535
228	0xbd60a965	-0.054849047
229	0x3d60c6cb	0.054877084
230	0xbd26484b	-0.040596288
231	0x3d646038	0.055755824
232	0xbd4e0dcc	-0.050306126
233	0xbd6c8e44	-0.057752863
234	0x3d11e825	0.03562178
235	0x3d93f52b	0.072244965
236	0x3cca1581	0.024668457
237	0xbd484ef3	-0.048903417
238	0xbc79b6da	-0.015241349
239	0x3d561785	0.052268524
240	0xbd6a7c41	-0.057247404
241	0xbd659e44	-0.056059137
242	0x3d057f0e	0.032591872
243	0x3d3d6732	0.046240993
244	0xbd4883a9	-0.048953686
245	0x3d2c5195	0.04206999
246	0x3d4907bb	0.049079638
247	0x3d5131b1	0.05107278
248	0xbc8c7933	-0.017147636
249	0x3d2e0e0e	0.042493872
250	0xbd5bb1a5	-0.053636212
251	0xbd5ef652	-0.054434128
252	0x3d2dc6fa	0.042426087
253	0x3ccc20ee	0.024918046
254	0xbd620409	-0.05517963
255	0x3d3e7314	0.046496466

bias f4 [64]
0	0x3ca11ef0	0.019668072
1	0x3c4dfae8	0.012572028
2	0xbd83af36	-0.06429903
3	0xbbad9202	-0.0052969465
4	0x3d3165ce	0.04330998
5	0xbdafd4a8	-0.08585483
6	0x3dd52d1c	0.104089946
7	0x3d9d0fc0	0.0766902
8	0xbda35812	-0.079757825
9	0xbdca36af	-0.09873711
10	0xbb623910	-0.0034518875
11	0xbdf11be2	-0.11772896
12	0x3d08f479	0.033436272
13	0x3d8a116f	0.067416064
14	0x3d1e126a	0.03859178
15	0x3b3d4edb	0.0028886113
16	0xbd93c85c	-0.0721595
17	0xbde75a3d	-0.112965085
18	0xb98ccb9e	-0.00026854587
19	0x3d88c24e	0.06677686
20	0xb8a7d6a5	-8.003161e-05
21	0xbcb54282	-0.02212644
22	0xbd60e347	-0.05490425
23	0xba904dc4	-0.0011009504
24	0xbd410c17	-0.04713067
25	0xbddac238	-0.106815755
26	0x3b98b1ce	0.004659868
27	0xbd542f18	-0.051802725
28	0xbdb4f3c3	-0.08835556
29	0xbde5fdcd	-0.11230049
30	0xbd8e2542	-0.069407
31	0xbb3ed62a	-0.002911935
32	0xbdcee8d5	-0.10103003
33	0x3baf52a3	0.0053504272
34	0xbd5d75b2	-0.05406732
35	0x3d1c00fd	0.03808688
36	0x3d2b6c3e	0.041851275
37	0xbd07f725	-0.03319468
38	0xbe20da6e	-0.15708324
39	0xbd301ac8	-0.04299429
40	0xbdcd6887	-0.10029703
41	0x3c10cebd	0.008838353
42	0xbe0d7269	-0.13813175
43	0xbde6881f	-0.11256432
44	0x3d74e074	0.059784368
45	0xbd818f5a	-0.0632617
46	0x3c0376d7	0.008023939
47	0x3db0d38d	0.086341
48	0xbdbf93fa	-0.09354396
49	0xbe1340c2	-0.14380172
50	0xbde94273	-0.11389627
51	0x3d60bff6	0.05487057
52	0x3dbce76f	0.0922383
53	0x3c965f9d	0.018356139
54	0xbdc0cd5e	-0.09414171
55	0xbdaaf9b2	-0.08348407
56	0xbda195b1	-0.078898795
57	0xbdfb469b	-0.12269326
58	0x3cb6d40d	0.02231791
59	0x3d99bff9	0.07507319
60	0x3dc5524e	0.09634839
61	0xbe07be68	-0.13256228
62	0x3d15766a	0.03648988
63	0xbcb34976	-0.021885615
