checkpoints/fico_honam2_emb32_2.pt (torch, 504282 bytes, 278 tensors)

weight f4 [32, 1]
0.32901853 0.10897777 0.3579822 -0.23754089 0.2817006 -0.2746458 -0.31613573 -0.14754528
-0.29659367 0.017532961 0.28616053 0.2971963 0.33485633 0.2609354 0.2868676 0.35967633
0.34791577 0.35256323 0.23855355 0.08496955 0.002499009 0.20499195 -0.31192848 -0.32953423
-0.31947666 0.20309995 0.3474384 -0.0533352 0.25320977 0.044574462 0.31906185 -0.040394485
00000000: 1e75 a83e bd2f df3d 7149 b73e eb3d 73be
00000010: 103b 903e 609e 8cbe 8bdc a1be 1c16 17be
00000020: 20db 97be 49a1 8f3c a283 923e 1d2a 983e
00000030: 4a72 ab3e 5399 853e 4fe0 923e 7f27 b83e
00000040: 0422 b23e 2b83 b43e 6247 743e 8404 ae3d
00000050: 6ac6 233b 69e9 513e 17b5 9fbe b6b8 a8be
00000060: 7292 a3be 6ff9 4f3e 72e3 b13e 0376 5abd
00000070: b6a4 813e b693 363d 135c a33e b074 25bd

bias f4 [32]
0.14650269 0.3343233 -0.029866926 -0.2930026 0.30953243 -0.25397632 -0.12874061 -0.28598088
-0.20405683 -0.7505919 0.30078793 0.27308103 0.11426063 0.34139937 0.29873016 -0.030004537
0.030872274 0.003874378 0.36155388 0.31624708 0.2685988 0.3720762 -0.14750384 0.05816728
-0.11321926 0.37212178 0.03557596 0.6450159 0.3499695 -0.6311373 0.19559224 0.7129222
00000000: cd04 163e 6c2c ab3e 7cab f4bc 7004 96be
00000010: 097b 9e3e 2f09 82be 94d4 03be 166c 92be
00000020: 46f4 50be ca26 40bf e000 9a3e 47d1 8b3e
00000030: 7a01 ea3d e6cb ae3e 29f3 983e 13cc f5bc
00000040: dae7 fc3c 47e9 7d3b 971d b93e 23eb a13e
00000050: c885 893e c680 be3e 3f0b 17be d040 6e3d
00000060: 80df e7bd bf86 be3e 19b8 113d c31f 253f
00000070: 342f b33e 3792 21bf 5549 483e 1282 363f

weight f4 [64, 32]
0.09228451 0.01786733 0.2142389 -0.02774147 0.043652374 -0.03949842 -0.0815654 -0.016370144
-0.053782012 0.00239811 0.04580994 0.05214968 0.10718198 0.03642805 0.04625869 0.21915805
0.16178617 0.18657222 0.031133331 0.016309552 0.012147502 0.026083605 -0.073616125 -0.20141564
-0.08902333 0.025754586 0.15805502 0.006216168 0.0343269 -0.0001792844 0.07403286 0.0051646843
-0.08390946 -0.0014144006 -0.2556893 0.022997275 -0.02935196 0.036184344 0.08553751 0.009862594
0.052772276 -0.015784198 -0.0315979 -0.038812347 -0.10135426 -0.021455819 -0.03206396 -0.26397222
-0.17097455 -0.20616177 -0.015803237 9.038463e-05 0.005061249 -0.010295432 0.076055065 0.19679293
0.09438629 -0.010057486 -0.16566639 0.014158152 -0.019290578 -0.013130178 -0.062859766 0.015198282
0.108264394 0.025264155 0.25398704 -0.038181536 0.053636793 -0.051078554 -0.098128416 -0.025733713
-0.06687384 -0.005268591 0.055844463 0.06313068 0.1255824 0.045551106 0.05627333 0.260019
0.19111834 0.22097647 0.039784294 0.023692613 0.018789956 0.034150615 -0.08910056 -0.22749618
-0.10670543 0.03406794 0.18648225 0.012803575 0.043350425 -0.008009036 0.08752656 0.011695738
0.09098392 0.0129727 0.22325629 -0.024486503 0.039905887 -0.036573414 -0.080685295 -0.01249267
-0.05155269 0.0070774253 0.042043798 0.048863545 0.10683927 0.03223609 0.042409953 0.22864899
0.16596723 0.19302033 0.026880192 0.011655658 0.007301924 0.021413008 -0.07216827 -0.20848499
-0.08859801 0.021335922 0.16186415 0.0008564216 0.030256053 0.004450269 0.071752824 -0.0002746323
-0.04603663 0.008658554 -0.16797851 0.0056037484 -0.007814658 0.012667133 0.03656257 -0.00065643206
0.021194413 -0.016626898 -0.009274119 -0.014148546 -0.059047703 -0.0026381197 -0.0096042445 -0.17485593
-0.11221926 -0.14050983 0.0010605194 0.009132772 0.010581033 0.004288077 0.03223166 0.1139359
0.040330745 0.0045378543 -0.10808279 0.018398175 -0.001222494 -0.014052468 -0.031022435 0.019613164
-0.06840325 0.0044575445 -0.21034576 0.013070588 -0.020302854 0.02490711 0.06823249 0.0015360493
0.039515123 -0.018241098 -0.022265565 -0.028527144 -0.08369692 -0.013181474 -0.02268945 -0.21810879
-0.14351703 -0.17293495 -0.008343072 0.0059197946 0.010267526 -0.0032553957 0.059960846 0.1752479
0.07600809 -0.0031449276 -0.13902032 0.015931245 -0.011260232 -0.015817199 -0.0498984 0.016967347
0.097043045 0.011623556 0.2678707 -0.029069547 0.04030089 -0.04238402 -0.091499045 -0.016305832
-0.05891155 0.005565829 0.042613752 0.049970474 0.11539316 0.032191858 0.043069467 0.27694833
0.18742758 0.22341363 0.026293652 0.010018931 0.005530625 0.02065155 -0.08199806 -0.24369545
-0.10055083 0.020208905 0.18210985 -0.0015770128 0.029821534 0.0024848406 0.0753994 -0.002663715
-0.030593192 -0.014602212 -0.091695234 0.018672137 -0.019464575 0.020967124 0.030173171 0.016398024
0.024103211 0.012837485 -0.019894723 -0.02116138 -0.034623474 -0.017780676 -0.019821879 -0.09712052
-0.05381668 -0.06658816 -0.016827341 -0.014344746 -0.014037169 -0.015812742 0.028431775 0.056521308
0.032047894 -0.015810305 -0.05220638 -0.012718918 -0.017376322 0.013568845 -0.026195347 -0.012601645
00000000: a9ff bc3d 825e 923c 7161 5b3e 1442 e3bc
00000010: d5cc 323d 18c9 21bd c30b a7bd ae1a 86bc
00000020: 874a 5cbd 9c29 1d3b 34a3 3b3d e79a 553d
00000030: 3a82 db3d 9435 153d c179 3d3d f86a 603e
00000040: 46ab 253e ca0c 3f3e 540b ff3c 9c9b 853c
00000050: 5106 473c 49ad d53c 0dc4 96bd e73f 4ebe
00000060: dd51 b6bd 48fb d23c 2dd9 213e ffb0 cb3b
00000070: 5d9a 0c3d 4afe 3bb9 8a9e 973d 833c a93b
00000080: b9d8 abbd 6963 b9ba b5e9 82be c864 bc3c
00000090: 8673 f0bc 0936 143d 4a2e af3d b896 213c
000000a0: be27 583d dd4d 81bc cd6c 01bd b2f9 1ebd
000000b0: d392 cfbd 1dc4 afbc 8055 03bd 5e27 87be
000000c0: f413 2fbe 121c 53be ca75 81bc e18c bd38
000000d0: d5d8 a53b 2cae 28bc c2c2 9b3d 1684 493e
000000e0: 994d c13d 27c8 24bc 73a4 29be 98f7 673c
000000f0: 4607 9ebc f51f 57bc 9fbc 80bd 3702 793c
00000100: b9b9 dd3d c6f6 ce3c 970a 823e 3e64 1cbd
00000110: 41b2 5b3d bf37 51bd 8df7 c8bd 82cf d2bc
00000120: 27f5 88bd 25a4 acbb 2abd 643d a84a 813d
00000130: ac98 003e cc93 3a3d dd7e 663d 3621 853e
00000140: 87b4 433e a847 623e dbf4 223d 0317 c23c
00000150: 65ed 993c 84e1 0b3d 5b7a b6bd c2f4 68be
00000160: 6088 dabd d38a 0b3d 34f5 3e3e 16c6 513c
00000170: 3790 313d 5538 03bc 2041 b33d 7b9f 3f3c
00000180: c755 ba3d 738b 543c 4c9d 643e eb97 c8bc
00000190: 5b74 233d 01ce 15bd 553e a5bd 0eae 4cbc
000001a0: ea28 53bd bfe9 e73b 1e36 2c3d 2425 483d
000001b0: 8cce da3d fe09 043d 0fb6 2d3d f622 6a3e
000001c0: 50f3 293e 1fa7 453e d933 dc3c 5ff7 3e3c
000001d0: fa44 ef3b 556a af3c f5cc 93bd 177d 55be
000001e0: e072 b5bd acc8 ae3c b7bf 253e 7b81 603a
000001f0: 8bdb f73c 90d3 913b 25f3 923d 86fc 8fb9
00000200: e890 3cbd 9cdc 0d3c 8f02 2cbe a69f b73b
00000210: 0d09 00bc ce89 4f3c a2c2 153d 6914 2cba
00000220: e89f ad3c 2235 88bc 79f2 17bc 4ecf 67bc
00000230: 01dc 71bd 4ee4 2cbb 1f5b 1dbc 6f0d 33be
00000240: 36d3 e5bd cfe1 0fbe 2001 8b3a 9fa1 153c
00000250: 125c 2d3c ff82 8c3b 5805 043d 3a57 e93d
00000260: da31 253d 48b2 943b 835a ddbd c5b7 963c
00000270: 173c a0ba 533c 66bc c322 febc c9ab a03c
00000280: 0117 8cbd 9810 923b e164 57be 0526 563c
00000290: 2c52 a6bc ff09 cc3c 7abd 8b3d 4355 c93a
000002a0: 9cda 213d 5b6e 95bc 4666 b6bc c2b1 e9bc
000002b0: 4a69 abbd 1cf7 57bc 3adf b9bc e957 5fbe
000002c0: 21f6 12be dc15 31be 61b1 08bc d6fa c13b
000002d0: 2039 283c 7a58 55bb 8199 753d 2f74 333e
000002e0: 21aa 9b3d 211b 4ebb 585b 0ebe 3e82 823c
000002f0: d67c 38bc 1293 81bc 4462 4cbd 1bff 8a3c
00000300: 81be c63d ba70 3e3c 5926 893e 4223 eebc
00000310: 8c12 253d de9a 2dbd da63 bbbd cf93 85bc
00000320: 3d4d 71bd 8f61 b63b c28b 2e3d d7ad 4c3d
00000330: 4053 ec3d 9cdb 033d 9c69 303d 2ccc 8d3e
00000340: 04ed 3f3e 8bc6 643e c965 d73c 7126 243c
00000350: 3f3a b53b 702d a93c 99ee a7bd 4d8b 79be
00000360: 98ed cdbd 258d a53c 017b 3a3e c5b3 ceba
00000370: 4a4c f43c b5d8 223b 006b 9a3d b991 2ebb
00000380: 939e fabc 1e3e 6fbc b6ca bbbd 4ff6 983c
00000390: 2c74 9fbc 3fc3 ab3c ba2d f73c 2655 863c
000003a0: 1974 c53c 5154 523c 42fa a2bc a15a adbc
000003b0: 58d1 0dbd c8a8 91bc 7e61 a2bc 20e7 c6bd
000003c0: e16e 5cbd 605f 88bd 7ed9 89bc 3a06 6bbc
000003d0: 27fc 65bc b989 81bc c1e9 e83c e382 673d
000003e0: a744 033d 9d84 81bc 5bd6 55bd 0263 50bc
000003f0: ca58 8ebc dc4f 5e3c a097 d6bc 2177 4ebc

bias f4 [64]
-0.19441897 0.19444726 -0.13886617 -0.18655989 -0.03103849 0.1994842 -0.07358877 0.07235635
0.021881433 -0.20014432 -0.19219269 -0.08608171 0.07250858 0.19492829 0.084570795 -0.12432805
-0.0639915 0.065550424 -0.08236201 0.20002191 -0.20097817 0.20173575 0.020673689 -0.067331955
-0.11353573 0.029486977 -0.1950512 0.14290433 0.0336016 0.1500637 0.09436213 0.07166492
0.20070595 0.085243754 0.08631211 0.042073093 0.17576087 0.08391799 0.14691296 0.045622483
-0.093399785 0.19821726 -0.19800076 0.20011231 -0.0049594296 -0.15042703 0.1756414 -0.081184946
-0.07828021 0.021518929 -0.08805139 -0.1288416 0.06650631 0.044146392 0.17824289 0.16863593
-0.07949892 -0.07376853 0.07304912 0.04479746 0.20202751 -0.10937802 0.15715362 -0.05236408
00000000: c415 47be 2f1d 473e ef32 0ebe 8e09 3fbe
00000010: 6e44 febc 9645 4c3e b6b5 96bd 912f 943d
00000020: b140 b33c a2f2 4cbe 29ce 44be 9c4b b0bd
00000030: 617f 943d 489b 473e 7433 ad3d b49f febd
00000040: fa0d 83bd 4d3f 863d 6aad a8bd 8bd2 4c3e
00000050: 39cd 4dbe d193 4e3e de5b a93c 56e5 89bd
00000060: 6c85 e8bd ac8e f13c 80bb 47be 8355 123e
00000070: d5a1 093d 4caa 193e ef40 c13d 0fc5 923d
00000080: dc85 4d3e 4794 ae3d 67c4 b03d d654 2c3d
00000090: a8fa 333e 32dd ab3d 5a70 163e a4de 3a3d
000000a0: 6348 bfbd 77f9 4a3e b6c0 4abe 3eea 4c3e
000000b0: b682 a2bb 8b09 1abe 57db 333e 4b44 a6bd
000000c0: 6051 a0bd 7748 b03c 4a54 b4bd 0def 03be
000000d0: 7634 883d d9d2 343d 4e85 363e e6ae 2c3e
000000e0: 54d0 a2bd f413 97bd c79a 953d 8b7d 373d
000000f0: 4de0 4e3e 9501 e0bd e1ec 203e b87b 56bd

weight f4 [32, 64]
0.09827604 -0.117845 0.09351763 0.09631905 -0.023384796 -0.049487744 0.07744046 0.00055882975
0.0065238797 0.08157013 0.09949437 0.0018507099 -0.007373766 -0.074181676 -0.044220887 0.09635283
0.07485137 -0.010674356 0.07882238 -0.06275861 0.081731915 -0.05799301 0.007005299 0.03888838
0.09368955 0.007094627 0.09244024 -0.05822405 -0.012242953 -0.113504246 -0.034985438 -0.012217844
-0.054613445 -0.02388891 0.0035815877 -0.02503567 -0.059594348 -0.022831267 -0.06765529 0.0018132813
0.07942079 -0.04546579 0.07722661 -0.044259947 0.004165319 0.07838621 -0.09750645 0.078150615
0.07845988 -0.03256295 0.07881585 0.07419352 -0.014692983 0.00588524 -0.046903938 -0.04620721
0.077838436 0.07716709 -0.032017156 -0.0023864931 -0.07610351 0.024251841 -0.09693045 0.0071644536
0.1301942 -0.17377621 0.11707751 0.12709945 -0.046383724 -0.06370813 0.10823244 -0.08722357
-0.058005255 0.118256815 0.13003434 0.02859366 -0.08559982 -0.10335839 -0.11581104 0.10897525
0.10472063 -0.08787387 0.109985255 -0.07745029 0.11838477 -0.07238612 -0.05041302 0.067762956
0.11333074 -0.07651477 0.12792589 -0.08098925 -0.025151376 -0.22454078 -0.111624494 -0.073960215
-0.07010265 -0.10695004 -0.073185354 -0.06713969 -0.07721526 -0.10834868 -0.09515343 -0.050057106
0.11070745 -0.049605478 0.11417151 -0.040977057 -0.047216434 0.10904519 -0.13784407 0.10907776
0.109337196 -0.06875399 0.1097515 0.10469836 -0.07888732 -0.08395556 -0.050627414 -0.05367902
0.10872093 0.108256936 -0.09460744 -0.04995779 -0.105574556 0.051995933 -0.17704006 0.047730368
0.055092018 -0.11976306 0.060046878 0.065196015 -0.00580276 -0.095173515 0.043472767 0.05142274
0.06253562 0.030995073 0.057841145 0.0033783577 -0.001235062 -0.10204682 -0.000920332 0.06164916
0.041257184 0.018304264 0.045025177 -0.106568545 0.030998 -0.10245123 0.03256746 0.031677518
0.05863914 0.05516714 0.04401114 -0.09903345 -0.010838157 -0.13022314 -0.0027415862 -0.003030187
-0.10011915 0.010205219 0.03485333 0.0041671596 -0.09864675 0.015690535 -0.09470393 0.031982884
0.04693007 -0.103247315 0.024226036 -0.09889632 0.025567852 0.049596008 -0.106943585 0.04466533
0.044301905 -0.001830328 0.045956176 0.04619135 0.022313386 0.034668386 -0.097723775 -0.09900561
0.044332422 0.043406412 0.03345828 0.03092365 -0.12578855 -0.01173995 -0.10328753 0.013366562
0.044553988 -0.06915138 0.025231134 0.03958727 0.062297203 -0.046578307 0.00527481 0.029863589
0.061880607 0.017885143 0.045590278 -0.041324142 0.031329717 -0.06883675 0.0326216 0.026823474
0.0027838168 0.031580538 0.006966077 -0.052556973 0.017746314 -0.04899446 0.042683057 -0.019432506
0.024904752 0.06497436 0.033572376 -0.06897224 0.027968105 -0.08634784 0.026449809 0.019641532
-0.0551052 0.03458216 0.025185911 0.050881635 -0.06397159 0.0350209 -0.07389735 0.04006669
0.0088542905 -0.01422932 0.012247546 -0.046173166 0.03551575 0.011776887 -0.094078705 0.0065243617
0.0063265795 0.049092226 0.008217956 0.0072775255 0.024958882 0.048766445 -0.059891276 -0.068408445
0.006256609 0.0048505776 0.038005237 0.040395755 -0.044962447 -0.027861144 -0.0965343 -0.018394949
00000000: f344 c93d b858 f1bd 2c86 bf3d ec42 c53d
00000010: 7991 bfbc a9b3 4abd 1b99 9e3d 6e7e 123a
00000020: 45c6 d53b 3e0e a73d b4c3 cb3d 8593 f23a
00000030: a29f f1bb 90ec 97bd f620 35bd a254 c53d
00000040: ad4b 993d 7ee3 2ebc a16d a13d 9687 80bd
00000050: 1063 a73d 148a 6dbd b58c e53b 6c49 1f3d
00000060: 4fe0 bf3d 0b7a e83b 4f51 bd3d 577c 6ebd
00000070: ab96 48bc ea74 e8bd e44c 0fbd 5a2d 48bc
00000080: 59b2 5fbd adb2 c3bc 12b9 6a3b 9b17 cdbc
00000090: 3419 74bd a308 bbbc db8e 8abd a0ab ed3a
000000a0: 5ea7 a23d 563a 3abd fc28 9e3d eb49 35bd
000000b0: 3a7d 883b f388 a03d 76b1 c7bd 6e0d a03d
000000c0: 93af a03d ba60 05bd 346a a13d c6f2 973d
000000d0: d6ba 70bc f9d8 c03b 581e 40bd c543 3dbd
000000e0: c269 9f3d c709 9e3d 6c24 03bd b666 1cbb
000000f0: 28dc 9bbd ccab c63c 7983 c6bd cbc3 ea3b
00000100: a151 053e 64f2 31be 55c6 ef3d 5c26 023e
00000110: dcfc 3dbd 6879 82bd f8a8 dd3d 45a2 b2bd
00000120: eb96 6dbd a130 f23d b927 053e 403d ea3c
00000130: f54e afbd 90ad d3bd 572e edbd 6a2e df3d
00000140: c577 d63d 37f7 b3bd f33f e13d 429e 9ebd
00000150: b773 f23d 2d3f 94bd e27d 4ebd 4ec7 8a3d
00000160: f219 e83d c7b3 9cbd 01ff 023e b1dd a5bd
00000170: 420a cebc 05ee 65be 629b e4bd 7478 97bd
00000180: fa91 8fbd 9f08 dbbd 34e2 95bd 8980 89bd
00000190: 0923 9ebd eae5 ddbd cddf c2bd ae08 4dbd
000001a0: 96ba e23d 1d2f 4bbd c1d2 e93d 8fd7 27bd
000001b0: 0566 41bd 1653 df3d ff26 0dbe 2964 df3d
000001c0: 2eec df3d e4ce 8cbd 65c5 e03d 186c d63d
000001d0: ad8f a1bd e5f0 abbd b15e 4fbd 88de 5bbd
000001e0: 14a9 de3d d0b5 dd3d 8cc1 c1bd 8aa0 4cbd
000001f0: 7937 d8bd b0f9 543d fd49 35be eb80 433d
00000200: 2ba8 613d 5646 f5bd b7f3 753d 7d85 853d
00000210: 1425 bebb 55ea c2bd 8010 323d a7a0 523d
00000220: ad12 803d 61e9 fd3c d6ea 6c3d 7067 5d3b
00000230: cee1 a1ba ecfd d0bd 6f42 71ba d483 7c3d
00000240: 4bfd 283d d3f2 953c 526c 383d 9c40 dabd
00000250: 85ef fd3c f3d1 d1bd 7565 053d 49c0 013d
00000260: 982f 703d f0f6 613d 0645 343d 0dd2 cabd
00000270: 8692 31bc 3759 05be 2fac 33bb 1a96 46bb
00000280: 450b cdbd ca33 273c 5ec2 0e3d ab8c 883b
00000290: 4f07 cabd 7089 803c 22f4 c1bd 7c00 033d
000002a0: bf39 403d 5473 d3bd ae75 c63c 278a cabd
000002b0: ac73 d13c 2f25 4b3d 3d05 dbbd fef2 363d
000002c0: ea75 353d 9ee7 efba 8b3c 3c3d 2433 3d3d
000002d0: 90ca b63c 7000 0e3d 6723 c8bd 74c3 cabd
000002e0: ea95 353d ecca 313d 8d0b 093d 9853 fd3c
000002f0: b7ce 00be eb58 40bc 6a88 d3bd 6dff 5a3c
00000300: 3e7e 363d 3d9f 8dbd 86b1 ce3c 4326 223d
00000310: 5a2b 7f3d e5c8 3ebd 50d8 ac3b 7ca4 f43c
00000320: 8576 7d3d dd83 923c dfbc 3a3d 8143 29bd
00000330: 9753 003d 48fa 8cbd 3a9e 053d e7bc db3c
00000340: b270 363b 985a 013d b043 e43b fb45 57bd
00000350: b860 913c 6aae 48bd 6ed4 2e3d eb30 9fbc
00000360: 0d05 cc3c 4711 853d 3083 093d 5141 8dbd
00000370: 5e1d e53c 23d7 b0bd 45ad d83c 47e7 a03c
00000380: fdb5 61bd 06a6 0d3d af52 ce3c 4369 503d
00000390: 8903 83bd 1372 0f3d 7e57 97bd f81c 243d
000003a0: 9611 113c 1822 69bc eea9 483c 1320 3dbd
000003b0: f778 113d d8f3 403c 56ac c0bd 50ca d53b
000003c0: 324f cf3b ee14 493d 9ba4 063c 4f78 ee3b
000003d0: 9276 cc3c 53bf 473d 8e50 75bd ba19 8cbd
000003e0: 3e04 cd3b 98f1 9e3b 61ab 1b3d 0576 253d
000003f0: 8b2a 38bd 0e3d e4bc c6b3 c5bd 01b1 96bc

bias f4 [32]
-0.052717816 -0.0030416972 -0.15159823 -0.05312686 -0.111285746 -0.23093687 0.028076937 -0.1790535
-0.0963991 -0.067725286 -0.14422466 0.1487247 -0.014875411 -0.21619219 -0.04215449 0.046494745
-0.12374094 -0.06555535 -0.0784723 -0.01214845 -0.110066645 -0.13520156 -0.1558248 -0.08544565
-0.08059324 -0.22160387 0.056463294 -0.16757716 -0.06943086 -0.067749396 -0.14438888 -0.13311012
00000000: a3ee 57bd 3657 47bb 913c 1bbe 8d9b 59bd
00000010: c8e9 e3bd b77a 6cbe 9b01 e63c cd59 37be
00000020: e46c c5bd 8eb3 8abd a1af 13be 4a4b 183e
00000030: ffb7 73bc 7c61 5dbe 30aa 2cbd 4671 3e3d
00000040: e46b fdbd e241 86bd 16b6 a0bd 4b0a 47bc
00000050: 9f6a e1bd 4772 0abe 8990 1fbe 21fe aebd
00000060: 120e a5bd 20ec 62be 0e46 673d 5999 2bbe
00000070: c431 8ebd 32c0 8abd aeda 13be 054e 08be

weight f4 [32, 1]
0.4346087 -0.41719988 0.42785838 -0.43746543 0.42918438 0.3137661 -0.43539366 0.46021348
-0.46452266 -0.38871127 -0.44824588 -0.38331524 -0.35044834 -0.4524348 0.23385987 0.33195803
0.29880825 0.42854422 -0.41714534 -0.42588565 0.39885896 -0.4123387 -0.37826803 -0.42824408
0.46945542 0.37790126 -0.3907102 0.40094063 0.43902802 -0.3776896 0.32110944 -0.42898268
00000000: 0885 de3e 399b d5be 4110 db3e 78fb dfbe
00000010: 0ebe db3e f3a5 a03e ebeb debe 1aa1 eb3e
00000020: ead5 edbe 2a05 c7be 7c80 e5be e541 c4be
00000030: f76d b3be 89a5 e7be f678 6f3e 67f6 a93e
00000040: 65fd 983e 266a db3e 1394 d5be af0d dabe
00000050: 3e37 cc3e 0f1e d3be 59ac c1be cf42 dbbe
00000060: 765c f03e 467c c13e 2b0b c8be 1748 cd3e
00000070: 48c8 e03e 8860 c1be 7568 a43e 9ea3 dbbe

bias f4 [32]
-0.50844496 0.13790987 -0.48342797 0.5616335 -0.48900557 -0.28298044 0.5523812 -0.5909329
0.6712145 0.2444322 0.6082953 0.2509858 0.115674675 0.625526 -0.24791573 -0.05749161
-0.26939014 -0.48585296 0.13926233 0.50915116 -0.41148764 0.13614063 0.295175 0.19132152
-0.61609644 -0.32749414 0.3620142 -0.3478923 -0.5235008 0.30274767 -0.33397272 0.5235999
00000000: 7329 02bf 3f38 0d3e df83 f7be 37c7 0f3f
00000010: f05e fabe d0e2 90be db68 0d3f 6147 17bf
00000020: b7d4 2b3f 6f4c 7a3e 3eb9 1b3f 3681 803e
00000030: d8e6 ec3d 7922 203f 9fdd 7dbe 537c 6bbd
00000040: 81ed 89be b8c1 f8be c99a 0e3e bb57 023f
00000050: 82ae d2be 7368 0b3e 2d21 973e cae9 433e
00000060: 7fb8 1dbf 50ad a7be ed59 b93e f11e b2be
00000070: 2604 06bf be01 9b3e 79fe aabe a50a 063f

weight f4 [64, 32]
0.018526172 -0.014881114 0.017704852 -0.018961623 0.017877141 0.0064930953 -0.01881199 0.020435877
-0.021153077 -0.0027380544 -0.019951267 -0.0029297618 -0.02286146 -0.020374525 0.009771077 -0.08380556
-0.010463906 0.017812556 -0.014273274 -0.017474152 0.015114033 -0.01608679 -0.0068332166 -0.0039535747
0.020850852 0.011189148 -0.011057001 0.015867617 0.018857144 -0.007290061 0.011036969 -0.01791426
0.008857513 -0.34077856 0.010564113 -0.008664915 0.010248071 0.111475736 -0.009102021 0.004184913
-0.0032608989 -0.06174288 -0.00621172 -0.058710627 -0.5233863 -0.005408728 0.057352073 0.29536277
0.097570114 0.0104022045 -0.32635126 -0.011947895 0.017544536 -0.44356787 -0.042218927 -0.10095726
0.0028877978 0.024980891 -0.028405597 0.03237667 0.007866025 -0.04043872 0.031941805 -0.011027219
-0.031797945 0.17648746 -0.033214796 0.032935064 -0.032877956 -0.07288864 0.03334318 -0.027830793
0.028155686 0.07375503 0.030730072 0.07247421 0.28408948 0.030077215 -0.0774893 -0.34823564
-0.076795384 -0.03316135 0.17274787 0.035951283 -0.039047495 0.22937933 0.061990596 0.08498977
-0.026716521 -0.050875362 0.050011892 -0.04650207 -0.03088531 0.06037329 -0.052235167 0.034931548
-0.032680184 0.24931169 -0.034652583 0.037230924 -0.03423986 -0.08349536 0.038004927 -0.027623106
0.030700913 0.09514004 0.034228202 0.092558295 0.3827737 0.033227675 -0.086296454 -0.43900326
-0.08637405 -0.034419797 0.24359253 0.04135601 -0.042420328 0.309816 0.07713475 0.1199937
-0.026168428 -0.056177907 0.06105976 -0.051995423 -0.031729475 0.07519662 -0.058102284 0.040212296
0.025334882 -0.01487208 0.024502223 -0.024052223 0.024791526 -0.047723472 -0.023737673 0.0277922
-0.027435422 -0.005683882 -0.025659133 -0.0056725917 0.0068141124 -0.026219642 0.020875834 -0.14184704
-0.045427367 0.024594111 -0.013605751 -0.022120757 0.021095896 -0.012530838 -0.009469037 -0.008165894
0.028482715 -0.022414993 -0.01249349 -0.018385507 0.025985627 -0.009770226 0.018680148 -0.022739686
-0.02775802 0.24268308 -0.029787585 0.03151936 -0.029374918 -0.080281325 0.032178476 -0.022213783
0.024897981 0.090156175 0.028468251 0.08763366 0.3809214 0.027357228 -0.081774086 -0.45941648
-0.08353604 -0.029553887 0.23713595 0.035691805 -0.037771188 0.30298 0.07201518 0.11513048
-0.020811202 -0.05241706 0.055694126 -0.047792096 -0.026716806 0.0700553 -0.054177783 0.03445721
0.04613853 -0.006758066 0.045018353 -0.048536688 0.04543973 0.06633961 -0.048305236 0.04824078
-0.049864072 -0.005496355 -0.049216002 -0.0062386966 -0.0067621283 -0.04951343 0.030719634 0.03306311
0.0746312 0.045170117 -0.0066291024 -0.047008757 0.03985869 -0.0048044245 -0.013212394 -0.008564736
0.04870568 0.037545606 -0.03319805 0.016262153 0.046697002 -0.014804195 0.031211969 -0.047454063
-0.006952861 -0.0038277342 -0.005544646 0.016434623 -0.005916829 0.039878752 0.015969198 -0.010998868
0.020166393 -0.008931164 0.018233389 -0.008089754 0.01474579 0.0188175 0.010946821 0.31128007
0.030167032 -0.0058199745 -0.003479305 0.0140687805 -0.0005058124 -0.0028218476 -0.0037376685 -0.009161935
-0.012109882 0.030558905 0.0030339353 0.018427782 -0.00789547 -0.0032680228 0.0056318184 0.014785348
00000000: 33c4 973c eacf 73bc c409 913c 6855 9bbc
00000010: 1573 923c 08c4 d43b 9a1b 9abc 2469 a73c
00000020: 3849 adbc ee70 33bb d770 a3bc 3f01 40bb
00000030: f547 bbbc 7ae8 a6bc de16 203c 40a2 abbd
00000040: ce70 2bbc a3eb 913c 73da 69bc f425 8fbc
00000050: d9a0 773c 72c8 83bc 2de9 dfbb fd8c 81bb
00000060: 68cf aa3c b052 373c 6c28 35bc cefc 813c
00000070: 4c7a 9a3c 77e1 eebb 67d4 343c edc0 92bc
00000080: 1a1f 113c 877a aebe 1a15 2d3c 4af7 0dbc
00000090: 86e7 273c 644d e43d a520 15bc 9821 893b
000000a0: ceb4 55bb 1ae6 7cbd af8b cbbb 8e7a 70bd
000000b0: a5fc 05bf b33b b1bb 02ea 6a3d ca39 973e
000000c0: d7d2 c73d 026e 2a3c 8317 a7be 1bc1 43bc
000000d0: 8fb9 8f3c 541b e3be c1ed 2cbd aec2 cebd
000000e0: 3541 3d3b baa4 cc3c dbb2 e8bc 669d 043d
000000f0: 80e0 003c 12a3 25bd 69d5 023d 82ab 34bc
00000100: 903e 02bd 21b9 343e 3d0c 08bd ebe6 063d
00000110: 09ab 06bd a446 95bd dc92 083d 67fd e3bc
00000120: c1a6 e63c e10c 973d a2bd fb3c 5c6d 943d
00000130: 2d74 913e 7e64 f63c b6b2 9ebd f14b b2be
00000140: e646 9dbd 32d4 07bd d1e4 303e a741 133d
00000150: 44f0 1fbd 6ae2 6a3e dae9 7d3d 1e0f ae3d
00000160: 9bdc dabc af62 50bd 45d9 4c3d f478 3ebd
00000170: 3103 fdbc fc49 773d 8bf4 55bd 6214 0f3d
00000180: a8db 05bd 904b 7f3e deef 0dbd 747f 183d
00000190: 183f 0cbd 9eff aabd 0eab 1b3d da49 e2bc
000001a0: 7b80 fb3c c8d8 c23d df32 0c3d 348f bd3d
000001b0: eafa c33e be19 083d 32bc b0bd 09c5 e0be
000001c0: e1e4 b0bd c6fb 0cbd 5270 793e eb64 293d
000001d0: f0c0 2dbd 34a0 9e3e d3f8 9d3d 42bf f53d
000001e0: 2c5f d6bc ce1a 66bd cd19 7a3d 27f9 54bd
000001f0: c4f6 01bd af00 9a3d a9fc 6dbd a6b5 243d
00000200: 198b cf3c 06aa 73bc e3b8 c83c 2b09 c5bc
00000210: 9917 cb3c b079 43bd 8275 c2bc 78ac e33c
00000220: 40c0 e0bc dc3f babb 1a33 d2bc 26e1 b9bb
00000230: eb48 df3b 93ca d6bc cc03 ab3c 5a40 11be
00000240: 0c12 3abd 9779 c93c a8ea 5ebc 9736 b5bc
00000250: 4dd1 ac3c 254e 4dbc 0524 1bbc 3eca 05bc
00000260: 9554 e93c a69f b7bc 7fb1 4cbc 349d 96bc
00000270: cfdf d43c 4c13 20bc 1c07 993c 9448 babc
00000280: ca64 e3bc ea81 783e 1805 f4bc 721a 013d
00000290: aba3 f0bc 896a a4bd 94cd 033d aef9 b5bc
000002a0: daf6 cb3c cda3 b83d 4036 e93c 4779 b33d
000002b0: 2108 c33e 441c e03c 2c79 a7bd a338 ebbe
000002c0: f114 abbd fe1a f2bc c4d3 723e 9231 123d
000002d0: f6b5 1abd 3220 9b3e b27c 933d 87c9 eb3d
000002e0: 417c aabc 45b3 56bd 861f 643d a5c1 43bd
000002f0: 34dd dabc 2779 8f3d 86e9 5dbd 0123 0d3d
00000300: c1fb 3c3d c472 ddbb 2a65 383d 68ce 46bd
00000310: 031f 3a3d 10dd 873d b6db 45bd 2098 453d
00000320: 453e 4cbd c41a b4bb b896 49bd fb6d ccbb
00000330: d894 ddbb 98ce 4abd bea7 fb3c 2f6d 073d
00000340: 3ed8 983d 4d04 393d f138 d9bb 418c 40bd
00000350: de42 233d 6f6e 9dbb cc78 58bc 1b53 0cbc
00000360: 9b7f 473d 6cc9 193d aefa 07bd 3538 853c
00000370: 5b45 3f3d 4b8d 72bc 3eb0 ff3c 315f 42bd
00000380: d3d4 e3bb b9da 7abb ddaf b5bb e7a1 863c
00000390: f6e1 c1bb e757 233d d6d1 823c 9934 34bc
000003a0: fe33 a53c 0454 12bc 305e 953c e38a 04bc
000003b0: 5398 713c 2827 9a3c 4c5a 333c 1a60 9f3e
000003c0: da20 f73c 7cb5 bebb 0d05 64bb be80 663c
000003d0: 7f98 04ba bfee 38bb acf3 74bb f11b 16bc
000003e0: 8768 46bc ab56 fa3c fdd4 463b dcf5 963c
000003f0: 005c 01bc 532c 56bb 1e8b b83b 3f3e 723c

bias f4 [64]
0.008634987 0.17458716 -0.024080014 -0.15125956 -0.022132842 -0.12638654 0.026531056 -0.13065863
-0.040374137 -0.09116561 -0.095934145 -0.0709822 0.13016509 -0.034349523 0.17523888 0.023593348
0.014690316 0.15921941 -0.14441526 -0.12555784 0.014262383 -0.10957101 0.003896593 -0.03717624
0.004182553 0.105122074 0.022349324 -0.002140467 -0.06694932 0.034409754 -0.10017786 0.02711531
-0.024283074 -0.16899434 -0.13951445 0.14929081 0.04655961 -0.15994488 0.004696077 0.029097363
-0.054052822 -0.12963818 -0.08064346 0.16537559 -0.07289196 -0.08084099 -0.07170775 -0.060104627
0.05032729 -0.098123364 0.02846523 -0.03321084 0.027978357 0.16579051 0.0044873985 0.032199893
0.15605949 0.019941619 -0.15715098 0.13589379 0.1722619 -0.13613622 -0.00082106434 0.012912419
00000000: c379 0d3c fac6 323e 7343 c5bc c9e3 1abe
00000010: ef4f b5bc 796b 01be a857 d93c 60cb 05be
00000020: 5a5f 25bd 09b5 babd 1f79 c4bd 1e5f 91bd
00000030: ff49 053e 16b2 0cbd d271 333e d646 c13c
00000040: a7af 703c 6a0a 233e 98e1 13be 3c92 00be
00000050: c5ac 693c c466 e0bd fc5d 7f3b 1d46 18bd
00000060: cc0d 893b 3e4a d73d ee15 b73c 1447 0cbb
00000070: ba1c 89bd 3ef1 0c3d 0d2a cdbd ed20 de3c
00000080: 4ced c6bc da0c 2dbe e0dc 0ebe b1df 183e
00000090: 4ab5 3e3d 97c8 23be 8de1 993b 985d ee3c
000000a0: 7e66 5dbd dfbf 04be 6628 a5bd 3858 293e
000000b0: 6148 95bd f68f a5bd 83db 92bd 4530 76bd
000000c0: fd23 4e3d e7f4 c8bd ea2f e93c 1708 08bd
000000d0: de32 e53c fdc4 293e 070b 933b 09e4 033d
000000e0: 0fce 1f3e 9b5c a33c 30ec 20be be27 0b3e
000000f0: 6c65 303e 4b67 0bbe b23c 57ba 9c8e 533c

weight f4 [32, 64]
-0.0008245565 -0.010730687 0.07848654 -0.10276139 0.02507399 -0.08902327 -0.011331257 -0.015615649
-0.08452066 -0.02647976 -0.01812151 -0.024718978 -0.026576094 -0.06548816 -0.012329551 -0.032658447
-0.014561191 -0.011997779 -0.025210528 -0.17326064 -0.01687571 0.06441789 -0.028457208 -0.07817821
-0.019211935 -0.10055586 -0.13093802 0.027226401 -0.003353304 -0.020537136 -0.03514206 -0.0074180188
0.021060057 -0.05427451 0.019428898 -0.012776664 -0.021829406 -0.10283123 -0.020790223 -0.01911497
-0.005548104 -0.026134478 -0.04422425 -0.012862408 -0.044527475 -0.029459529 -0.028196864 -0.025860792
-0.023556452 -0.015578306 -0.0135121215 -0.014001181 -0.043214325 -0.008027365 0.01154871 -0.03958122
-0.013035815 -0.040408753 0.013348716 -0.021369463 -0.01048531 0.018792585 -0.022161987 -0.014726485
-0.009331776 -0.00578207 -0.3224006 -0.29401508 -0.022284104 -0.31140265 -0.0133821415 0.041732896
0.23255312 -0.0018720422 -0.003380702 0.074777335 -0.0021191444 0.13148445 -0.005743521 0.010560168
0.014251064 -0.0064099664 0.009912466 -0.2583589 -0.010803538 0.0055654002 -0.0029510239 0.18382621
0.01861148 -0.086047925 0.19179916 -0.035296872 0.017812468 0.012623435 0.046894774 -0.016260423
0.032986823 0.012754258 0.03537507 -0.0057768524 -0.017961146 -0.29317173 -0.006498007 -0.022664925
0.027311603 0.09863001 0.1037476 -0.005929215 0.15414019 0.1403361 0.07731048 0.04434065
-0.016901063 0.016989062 -0.027253954 -0.024962464 -0.015434295 -0.006690079 -0.00439994 -0.013581651
-0.006018422 -0.005004424 0.025690537 -0.0036334132 -0.00521278 0.1016276 -0.011489411 -0.011401533
0.0127566885 -0.015295346 0.0100815995 -0.07139764 0.0052176258 -0.06545149 0.004819469 0.017183527
-0.008628399 0.004202622 0.02331821 -0.042981733 -0.032361925 -0.00686104 -0.014811893 -0.010637891
-0.0014292846 -0.015763579 -0.0011482316 -0.097603045 0.0040284153 0.05531607 -0.017672505 -0.020658514
-0.02397713 -0.034260906 0.018161431 0.047554906 -0.0017545227 -0.01262019 0.0069857747 0.00430235
0.055385668 0.004400669 0.032755233 -0.01801311 -0.008271534 -0.07222833 -0.008794511 -0.012207185
0.018544134 0.006489503 0.0063601723 -0.018066775 -0.0016951753 0.0022069437 0.012515686 0.006882038
-0.012439321 -0.004101251 0.0032687744 0.012513165 -0.009457811 -0.011375147 0.0277491 -0.0080829505
-0.018140594 -0.01636125 0.022937851 -0.026877236 -0.014085067 0.03134747 -0.010308593 0.0051882197
-0.0031977773 -0.020149032 -0.01702852 -0.040761746 0.00032314364 -0.039558455 -0.0022296289 0.00774241
0.019937275 -0.0105416635 0.015651364 0.011226652 -0.023691889 0.0037258787 -0.018406093 -0.003338271
-0.004338214 -0.021296017 0.0054696305 -0.02927604 -0.0035964602 0.027288334 -0.0038269246 0.0147840455
-0.00919777 -0.008980697 -0.020283137 0.012630077 0.0019283454 -0.0033918445 0.010505394 -0.0048645395
-0.006206703 9.716788e-06 0.03408854 -0.023088904 -0.0031844699 -0.04169355 -0.0041558295 -0.003954619
0.02322503 0.010647405 0.022722647 -0.019246701 0.011908678 0.012189903 0.0073987423 -0.0011196712
-0.0039259586 -0.0026344985 -0.0020214259 0.00720895 -0.0040260265 -0.01914349 -0.0020592157 -0.004015085
-0.019875359 -0.0044678007 0.0290702 -0.022333637 -0.019780772 0.013013517 -0.004029678 -0.002137786
00000000: 0d27 58ba c3cf 2fbc 8dbd a03d 9074 d2bd
00000010: f867 cd3c d551 b6bd bda6 39bc c7d8 7fbc
00000020: 2b19 adbd 15ec d8bc 9073 94bc 747f cabc
00000030: 1cb6 d9bc a81e 86bd e301 4abc ddc4 05bd
00000040: 1092 6ebc 5592 44bc 4f86 cebc 3d6b 31be
00000050: ee3e 8abc 87ed 833d 171f e9bc e61b a0bd
00000060: 5962 9dbc 3bf0 cdbd 9e14 06be e709 df3c
00000070: 1bc3 5bbb 7f3d a8bc 1ff1 0fbd da12 f3bb
00000080: 2486 ac3c f34e 5ebd 5a29 9f3c 3755 51bc
00000090: 95d3 b2bc 2e99 d2bd 4250 aabc ff96 9cbc
000000a0: dfcc b5bb f917 d6bc 7d24 35bd d9bc 52bc
000000b0: 7162 36bd 1c55 f1bc 1cfd e6bc 03da d3bc
000000c0: 76f9 c0bc 273c 7fbc f261 5dbc 3665 65bc
000000d0: 8101 31bd 3685 03bc cd36 3d3c eb1f 22bd
000000e0: 2c94 55bc a683 25bd 93b4 5a3c 030f afbc
000000f0: 94ca 2bbc e8f2 993c 0e8d b5bc 5b47 71bc
00000100: 4ee4 18bc 8577 bdbb b111 a5be 2589 96be
00000110: 278d b6bc 2b70 9fbe c540 5bbc 1df0 2a3d
00000120: 6822 6e3e 505f f5ba c58e 5dbb dc24 993d
00000130: 58e1 0abb dca3 063e 2534 bcbb 8e04 2d3c
00000140: 4b7d 693c b20a d2bb e567 223c 9e47 84be
00000150: 5301 31bc f65d b63b f765 41bb f03c 3c3e
00000160: 1a77 983c e539 b0bd 0067 443e 7493 10bd
00000170: 74eb 913c 86d2 4e3c bc14 403d 9434 85bc
00000180: 311d 073d 3cf7 503c 73e5 103d c04b bdbb
00000190: 4123 93bc 9b1a 96be 3ced d4bb cbab b9bc
000001a0: 95bc df3c 88fe c93d 9f79 d43d dc49 c2bb
000001b0: edd6 1d3e 44b4 0f3e f554 9e3d 8b9e 353d
000001c0: 1974 8abc a52c 8b3c af43 dfbc 157e ccbc
000001d0: 20e0 7cbc 7338 dbbb 5f2d 90bb 9385 5ebc
000001e0: 2f36 c5bb 27fc a3bb f674 d23c 8f1e 6ebb
000001f0: f8cf aabb 2222 d03d 153e 3cbc 7fcd 3abc
00000200: 6e01 513c 5599 7abc 4b2d 253c ed38 92bd
00000210: 9ef8 aa3b 6e0b 86bd a3ec 9d3b 78c4 8c3c
00000220: 215e 0dbc 26b6 893b d505 bf3c 9d0d 30bd
00000230: f08d 04bd 93d2 e0bb 95ad 72bc 8c4a 2ebc
00000240: d556 bbba 9f22 81bc 4280 96ba 1be4 c7bd
00000250: cc00 843b 1a93 623d eec5 90bc 0b3c a9bc
00000260: b06b c4bc 2a55 0cbd 48c7 943c efc8 423d
00000270: 03f8 e5ba eac4 4ebc ede8 e43b bafa 8c3b
00000280: 15dc 623d 7d33 903b 5a2a 063d 3b90 93bc
00000290: 5485 07bc 72ec 93bd da16 10bc a500 48bc
000002a0: dee9 973c e6a5 d43b fe68 d03b c600 94bc
000002b0: a530 deba 5fa2 103b 980e 4d3c b882 e13b
000002c0: 4bce 4bbc c963 86bb ef38 563b 0504 4d3c
000002d0: eff4 1abc d35e 3abc 1552 e33c 5a6e 04bc
000002e0: 959b 94bc 0708 86bc 29e8 bb3c a62d dcbc
000002f0: 0ec5 66bc 3466 003d 5fe5 28bc f101 aa3b
00000300: cd91 51bb 950f a5bc 657f 8bbc caf5 26bd
00000310: 9b6b a939 0c08 22bd f71e 12bb 0bb4 fd3b
00000320: 7f53 a33c f1b6 2cbc 4a37 803c feef 373c
00000330: 7e15 c2bc df2d 743b 60c8 96bc e5c6 5abb
00000340: 9427 8ebb fc74 aebc 963a b33b 4ed4 efbc
00000350: 97b2 6bbb c98b df3c 24cd 7abb c838 723c
00000360: 3eb2 16bc c623 13bc d228 a6bc 62ee 4e3c
00000370: 89c0 fc3a b549 5ebb d11e 2c3c b766 9fbb
00000380: 9961 cbbb 4905 2337 6da0 0b3d f124 bdbc
00000390: 8ab2 50bb dbc6 2abd a02d 88bb c095 81bb
000003a0: 6b42 be3c 7472 2e3c d824 ba3c 42ab 9dbc
000003b0: 9e1c 433c 29b8 473c 2671 f23b eec1 92ba
000003c0: 54a5 80bb 8da7 2cbb e679 04bb 0e39 ec3b
000003d0: c2ec 83bb cfd2 9cbc e8f3 06bb f990 83bb
000003e0: a6d1 a2bc a166 92bb a124 ee3c 08f5 b6bc
000003f0: 490b a2bc a536 553c 640b 84bb 191a 0cbb

bias f4 [32]
0.03489702 -0.09186416 0.032588415 -0.0053958315 -0.27459797 -0.19020768 -0.21491824 0.020986633
-0.10149929 0.0014105333 0.09163919 0.09435621 -0.011391285 0.15356655 -0.082616284 0.07552598
0.094913185 -0.34135866 0.09219478 -0.084538125 0.092916936 -0.17046815 -0.11456852 -0.10871189
-0.08260943 -0.21493965 0.121454686 -0.1472829 0.12122643 -0.03675467 0.028227398 0.112695836
00000000: 2df0 0e3d 4723 bcbd 6e7b 053d 84cf b0bb
00000010: 1b98 8cbe cdc5 42be 8713 5cbe 29ec ab3c
00000020: dcde cfbd a5e1 b83a 54ad bb3d d43d c13d
00000030: 83a2 3abc 8d40 1d3e ba32 a9bd 5dad 9a3d
00000040: d861 c23d 90c6 aebe 9ed0 bc3d 5322 adbd
00000050: 3c4b be3d 348f 2ebe e6a2 eabd 57a4 debd
00000060: 222f a9bd 2419 5cbe 3cbd f83d 54d1 16be
00000070: 9045 f83d 118c 16bd 253d e73c 13cd e63d

weight f4 [32, 1]
0.017154481 0.016336275 0.03050054 -0.0003555299 0.010122161 0.010634435 -0.039383344 -0.14469106
-0.03312517 0.03581739 0.035602935 0.03209769 0.019795774 -0.0968545 0.088595375 -0.023530884
0.030300172 -0.0374174 0.08724833 0.02875336 -0.0026132115 -0.21554346 0.010405277 -0.3520391
0.15888111 -0.023517469 0.019887067 0.17586386 0.07443896 0.13152876 -0.039667632 0.03334309
00000000: 8e87 8c3c a7d3 853c 45dc f93c 6a66 bab9
00000010: 6cd7 253c 0e3c 2e3c 6e50 21bd e529 14be
00000020: 42ae 07bd 41b5 123d 62d4 113d de78 033d
00000030: bf2a a23c a75b c6bd 7e71 b53d d7c3 c0bc
00000040: 1138 f83c fd42 19bd 41af b23d 2b8c eb3c
00000050: 6a42 2bbb 6db7 5cbe e57a 2a3c 783e b4be
00000060: bbb1 223e b5a7 c0bc 34ea a23c a815 343e
00000070: 7473 983d 7aaf 063e 877a 22bd c492 083d

bias f4 [32]
-0.3473937 -0.328009 -0.58368057 0.19133537 -0.27109557 0.14346144 0.7327363 0.0024398095
0.5484288 -0.76595664 -0.7210232 -0.61133534 0.10961293 -0.0051900973 -0.0059925765 0.38894954
-0.57923305 0.65578437 -0.004551396 -0.5221261 0.20724575 0.052886993 -0.28109026 0.030720359
-0.053649835 -0.118566014 -0.36778364 -0.055936854 0.009115803 -0.03947382 0.7449592 -0.64883107
00000000: 96dd b1be ccf0 a7be 176c 15bf 6bed 433e
00000010: 0acd 8abe 8ee7 123e 9b94 3b3f 36e5 1f3b
00000020: d465 0c3f bc15 44bf fa94 38bf 7980 1cbf
00000030: be7c e03d b111 aabb 605d c4bb 6524 c73e
00000040: 9e48 14bf 7ce1 273f e023 95bb 0eaa 05bf
00000050: 3b38 543e 08a0 583d 10eb 8fbe 43a9 fb3c
00000060: eebf 5bbd bdd2 f2bd 234e bcbe 0b1e 65bd
00000070: 735a 153c 4daf 21bd a5b5 3e3f cb19 26bf

weight f4 [64, 32]
0.0071199033 0.0071787084 0.006460023 -0.008941011 0.0072994973 -0.00951421 -0.0069537912 -0.00027473498
-0.0074343476 0.0062135723 0.006369402 0.0064086467 -0.009746618 0.004319962 -0.01089782 -0.007938737
0.006481871 -0.0072248527 -0.01096469 0.0066084564 -0.008973751 0.07348511 0.007230749 0.04978617
-0.007984984 0.007594087 0.0070563573 -0.005575401 -0.010840739 -0.008183194 -0.006918533 0.006407495
0.033207115 0.033231948 0.032658927 -0.033048965 0.033277407 -0.03350624 -0.031562656 0.024524534
-0.031859983 0.032433044 0.032512512 0.032770533 -0.03389297 0.031619918 -0.036510196 -0.032099437
0.032788143 -0.03156621 -0.03658334 0.032874122 -0.03311349 -0.0026416006 0.03324055 -0.021423364
-0.04373957 0.033277106 0.0331518 -0.03513279 -0.036082994 -0.044989143 -0.03148985 0.032568693
-0.0028812867 -0.0025348037 -0.0063650585 0.0046433886 -0.0013864266 0.002239807 0.01199862 0.018151255
0.010921849 -0.007871162 -0.0077177417 -0.006582141 -0.00012537005 0.012147183 -0.015841378 0.009394006
-0.0063038575 0.011575759 -0.015691664 -0.005731636 0.005279793 -0.022647966 -0.0014429356 0.044715162
-0.042973176 0.0040830974 -0.00339654 -0.04339183 -0.013286924 -0.03142865 0.012073075 -0.0071187033
-0.007985455 -0.0076739658 -0.011144159 0.013359183 -0.0065259147 0.01232525 0.018478023 0.0024316614
0.017551847 -0.012679822 -0.012213369 -0.01134236 0.011137076 0.002858085 0.00439866 0.016362902
-0.0109968465 0.018117543 0.0045239115 -0.010360394 0.013769011 0.00225079 -0.006705653 0.013168689
-0.009664055 -0.0025824003 -0.00835314 -0.052523434 0.0056485916 -0.00025182264 0.01850379 -0.011713445
0.010969485 0.011260715 0.0089663705 -0.0018949722 0.011775177 -0.0018144313 -0.0016232772 0.0062508164
-0.0016848334 0.007812426 0.007942904 0.008733211 -0.0014998338 0.012911973 0.0027576424 -0.001955941
0.008863374 -0.0016505596 0.0026052648 0.009296866 -0.00193349 0.14707734 0.011739321 -0.06259216
0.034154043 0.013745613 0.010697291 0.05141773 0.0012201683 0.014138493 -0.0015629324 0.00852746
0.025460983 0.025309263 0.026003227 -0.02388725 0.024931608 -0.022995595 -0.025882645 0.0040490036
-0.025636716 0.026132762 0.02612476 0.026006935 -0.022213517 0.01178922 -0.008738008 -0.025233658
0.025944928 -0.02577832 -0.00912479 0.026029173 -0.0241649 0.052096665 0.024988234 -0.011022513
0.030653017 0.022206208 0.025427256 0.06204785 -0.012779505 0.012734295 -0.025781702 0.026102273
-0.0036608793 -0.0035231784 -0.0062257852 0.014148854 -0.0026042557 0.014411455 0.014256339 -0.0011932461
0.014078313 -0.0074568847 -0.007312717 -0.006521393 0.014537333 0.0012243384 0.018842375 0.014135978
-0.0061715883 0.014147125 0.018692534 -0.0056178183 0.014137389 0.14737202 -0.0027901419 -0.011144676
0.044457328 0.00014266084 -0.0040535284 0.09511118 0.017534053 0.029519444 0.014258217 -0.006634855
0.03242009 0.032543693 0.031051705 -0.027527876 0.033049483 -0.027668137 -0.02706401 0.041596003
-0.027169125 0.030585209 0.030707004 0.031008685 -0.027749453 0.038276702 -0.028322997 -0.027283175
0.031133441 -0.027128348 -0.028188609 0.031434048 -0.027427936 0.14189121 0.033036422 0.012979777
-0.026278093 0.03499762 0.03222907 -0.02577319 -0.028084077 -0.027693821 -0.027057558 0.030970672
00000000: 144e e93b 5f3b eb3b 9aae d33b 517d 12bc
00000010: 9f30 ef3b 7de1 1bbc a1dc e3bb 4e0a 90b9
00000020: d49b f3bb 399b cb3b 6bb6 d03b a0ff d13b
00000030: 47b0 1fbc 788e 8d3b c58c 32bc 7a11 02bc
00000040: e065 d43b 75be ecbb 3ea5 33bc c08b d83b
00000050: a406 13bc 5d7f 963d ebef ec3b 95ec 4b3d
00000060: 73d3 02bc d2d7 f83b 0439 e73b dab1 b6bb
00000070: 5b9d 31bc ce12 06bc dcb4 e2bb f7f5 d13b
00000080: 2f04 083d 391e 083d 5ec5 053d 5a5e 07bd
00000090: e44d 083d d73d 09bd d847 01bd ade7 c83c
000000a0: 9d7f 02bd 83d8 043d d72b 053d 653a 063d
000000b0: 5bd3 0abd e383 013d b78b 15bd b37a 03bd
000000c0: dc4c 063d 924b 01bd 6ad8 15bd 04a7 063d
000000d0: 03a2 07bd b41e 2dbb 3e27 083d 0d80 afbc
000000e0: 4328 33bd 934d 083d 2fca 073d 67e7 0fbd
000000f0: c3cb 13bd 8946 38bd 80fb 00bd c066 053d
00000100: f8d3 3cbb f31e 26bb fb91 d0bb 9127 983b
00000110: c2b8 b5ba bac9 123b dc95 443c f1b1 943c
00000120: 8ef1 323c 0cf6 00bc 1ce5 fcbb 00af d7bb
00000130: c475 03b9 fa04 473c c7c5 81bc 51e9 193c
00000140: 9790 cebb 41a8 3d3c ce8b 80bc 73d0 bbbb
00000150: 1d02 ad3b 3a88 b9bc e220 bdba 3f27 373d
00000160: a404 30bd 81cb 853b 7c98 5ebb a2bb 31bd
00000170: 66b1 59bc 54bb 00bd 26ce 453c 0344 e9bb
00000180: 6dd5 02bc e475 fbbb fe95 36bc 7ae0 5a3c
00000190: 57d7 d5bb d8ef 493c 395f 973c 825c 1f3b
000001a0: e4c8 8f3c 07bf 4fbc 951a 48bc 4ed5 39bc
000001b0: 4878 363c b64e 3b3b a222 903b 7e0b 863c
000001c0: 1e2c 34bc 3e6b 943c 523d 943b a4be 29bc
000001d0: 6b97 613c fd81 133b 18bb dbbb 7cc1 573c
000001e0: fc55 1ebc 7d3d 29bb 9cdb 08bc d022 57bd
000001f0: d217 b93b 1007 84b9 4395 973c c0e9 3fbc
00000200: 5bb9 333c dd7e 383c afe7 123c b760 f8ba
00000210: acec 403c 36d2 edba 25c4 d4ba a6d3 cc3b
00000220: a1d5 dcba 61ff ff3b f422 023c be15 0f3c
00000230: 1296 c4ba bd8c 533c 90b9 343b 3f2f 00bb
00000240: af37 113c 9757 d8ba 17bd 2a3b e251 183c
00000250: 296d fdba 719b 163e 4856 403c 5230 80bd
00000260: 1ce5 0b3d 4835 613c b143 2f3c 669b 523d
00000270: 0eee 9f3a 23a5 673c 4fdb ccba c2b6 0b3c
00000280: 8d93 d03c 5f55 cf3c b804 d53c 32af c3bc
00000290: 5f3d cc3c 4261 bcbc d707 d4bc 81ad 843b
000002a0: 1704 d2bc 6014 d63c 9803 d63c 7f0c d53c
000002b0: 1ff9 b5bc 9327 413c dd29 0fbc d1b6 cebc
000002c0: 758a d43c 0e2d d3bc 2580 15bc 223b d53c
000002d0: 78f5 c5bc 5063 553d 20b4 cc3c c597 34bc
000002e0: 091c fb3c cbe9 b53c d24c d03c e325 7e3d
000002f0: 2161 51bc 81a3 503c 2634 d3bc 6fd4 d53c
00000300: 5deb 6fbb 20e5 66bb ac01 ccbb 98d0 673c
00000310: 29ac 2abb 061e 6c3c 6b93 693c b266 9cba
00000320: b9a8 663c e258 f4bb 849f efbb 69b1 d5bb
00000330: fe2d 6e3c fb79 a03a 535b 9a3c 979a 673c
00000340: 093b cabb 58c9 673c 1621 993c ad15 b8bb
00000350: 82a0 673c b1e8 163e d0da 36bb 2998 36bc
00000360: e318 363d 3a97 1539 76d3 84bb a6c9 c23d
00000370: 93a3 8f3c c3d2 f13c 4c9b 693c 3369 d9bb
00000380: eeca 043d 894c 053d 2560 fe3c 2482 e1bc
00000390: e55e 073d 4aa8 e2bc 58b5 ddbc 9260 2a3d
000003a0: c991 debc d58d fa3c 418d fb3c ed05 fe3c
000003b0: d252 e3bc 08c8 1c3d a105 e8bc f780 dfbc
000003c0: 8f0b ff3c 453c debc cceb e6bc fdc0 003d
000003d0: 8db0 e0bc ee4b 113e 3351 073d 21a9 543c
000003e0: 2845 d7bc aa59 0f3d a102 043d 4c22 d3bc
000003f0: 9410 e6bc 27de e2bc d0a7 ddbc 35b6 fd3c

bias f4 [64]
-0.023316028 0.0039007002 -0.0613697 -0.075671524 -0.12753338 -0.014737093 -0.13063444 -0.03562791
-0.06414078 0.08418679 -0.08325789 -0.1378771 -0.11566657 -0.068525404 0.06332925 -0.071615264
0.05557541 -0.05456863 0.09153173 -0.11293115 -0.00024115403 -0.091482885 -0.061531954 -0.075478755
0.037953258 -0.12817568 -0.059841685 -0.018827282 0.04484222 -0.056875106 0.127861 -0.07585843
-0.00064373855 0.004213217 0.07421618 0.007969055 0.12597078 -0.09327447 -0.037798055 -0.0025657082
0.007171185 -0.025589565 0.089884385 -0.020017724 0.017291924 0.05090108 -0.04680566 -0.06866014
-0.091946356 -0.14871284 0.016361328 -0.122908525 -0.00014556551 -0.10607441 -0.11877757 -0.06413166
0.031702556 0.10086512 0.06644829 -0.037600935 -0.07817138 -0.00028594464 0.06985468 0.012966277
00000000: 4101 bfbc e4a2 7f3b cb5e 7bbd acf9 9abd
00000010: 1c98 02be d973 71bc 09c5 05be 92ee 11bd
00000020: 3e5c 83bd 206a ac3d 1d83 aabd a82f 0dbe
00000030: 98e2 ecbd 0c57 8cbd c4b2 813d 06ab 92bd
00000040: 0ba3 633d 5b83 5fbd fd74 bb3d 7248 e7bd
00000050: 4bde 7cb9 615b bbbd ee08 7cbd 9b94 9abd
00000060: e074 1b3d 7c40 03be 8e1c 75bd ac3b 9abc
00000070: 7aac 373d dff5 68bd feed 023e aa5b 9bbd
00000080: 90c0 28ba 070f 8a3b a7fe 973d a490 023c
00000090: 7cfe 003e af06 bfbd 22d2 1abd 7125 28bb
000000a0: 43fc ea3b 35a1 d1bc 4e15 b83d 36fc a3bc
000000b0: cba7 8d3c a77d 503d 4bb7 3fbd b09d 8cbd
000000c0: 5f4e bcbd 2e48 18be 3108 863c 77b7 fbbd
000000d0: f2a2 18b9 8a3d d9bd a841 f3bd 7657 83bd
000000e0: 8ada 013d 5f92 ce3d 0b16 883d 7003 1abd
000000f0: 5118 a0bd d7ea 95b9 f80f 8f3d 8270 543c

weight f4 [32, 64]
0.0042802244 0.021818422 0.016045928 0.020577252 0.003361465 0.007817275 -0.003325772 -0.0077005443
-0.019926041 0.010318115 -0.003532728 0.025740106 -0.009688505 -0.011551697 0.0116955675 0.0011549569
0.01331395 0.0026965057 6.916399e-05 -0.0007783058 -0.03348127 -0.0122280335 -0.003790439 0.0030490204
0.013549008 0.0087814545 0.039261412 0.0073353783 0.012763961 -0.00032354225 0.01075934 0.021903517
-0.0065001263 0.03965571 0.012364716 0.013486683 0.012223006 0.01903692 -0.013024671 0.048531942
-0.011798804 -0.0009655907 0.01054129 0.006785156 -0.01209662 0.012462116 0.018311225 -0.0057520587
0.0046447413 0.0124324905 0.00825784 -0.00070628006 0.004449407 -0.0111649055 0.017736532 0.0021723055
0.003190867 0.009019691 0.0112276105 0.0028879598 0.023279779 0.012732604 0.011665662 0.0045013083
0.069478184 -0.07310707 0.11054063 0.0544014 0.10091708 -0.03783348 0.0661656 0.03549963
-0.20424539 -0.13012305 0.08381431 0.13660371 0.16104895 0.059920866 -0.12111487 0.04000554
-0.12505203 0.06286394 -0.113518104 0.054607406 -0.010918956 0.070479006 0.09506266 0.12649955
-0.13120566 0.18331501 0.11013469 -0.11012661 -0.12399991 0.069541134 -0.1573911 0.107297845
-0.011735324 -0.03495351 -0.12916313 0.012261127 -0.1522774 0.12925677 0.074389175 0.009623936
-0.041639432 0.01679311 -0.13709949 -0.13354386 -0.06320403 -0.11826444 0.057718717 0.087914094
0.057461884 0.05178536 -0.07399601 0.06520718 -0.01623804 0.0057361596 0.07586663 0.035175037
-0.0078028664 -0.14494482 -0.12963067 0.05626514 0.042451177 -0.0024196627 -0.13944799 -0.025541287
0.028982194 0.03808914 0.03937672 0.029781085 0.03087402 0.025204096 0.0072803465 0.009388956
-0.03768471 0.000604781 0.0082750935 0.048440024 0.01667507 0.00045252757 0.0030585777 0.0072312704
0.0039615417 0.020560723 -0.00524349 0.0077443863 -0.033009093 0.0063527017 0.012249378 0.019577889
0.003910937 0.04968373 0.076775044 0.0051606484 0.003718359 0.02600605 -0.0025540185 0.041514527
0.0022207354 0.035196938 0.003075397 0.034959238 -0.001158786 0.0500856 0.0002257536 0.053158473
-0.01572366 0.000799141 0.0004269706 0.0023448402 -0.023642702 0.0038547684 0.04060556 0.011657794
0.013883074 0.03664141 0.010581212 0.01491218 0.033655405 0.0006338678 0.031330388 0.01685836
0.0047674766 -0.0012440924 0.002320257 0.037466597 0.049382586 0.032093663 0.0023201178 0.008662272
0.023515806 0.026674572 0.032042403 0.028100843 0.033310965 0.0120924385 0.0113469595 0.0028448051
-0.059897278 -0.0071372497 0.016315898 0.05111316 0.018834358 0.006921274 -0.0041217045 0.012259904
-0.004276659 0.01481254 -0.0135079045 0.011413366 -0.035315532 -0.00042289245 0.02121769 0.021539312
-0.004890757 0.040416423 0.05918464 -0.001178995 -0.004401535 0.024010247 -0.009407626 0.03416916
-0.004872569 0.03638984 -0.0037724394 0.021337047 -0.008272196 0.041496783 -0.0017784985 0.04024667
-0.015882613 -0.0014868947 -0.007035933 -0.0029317949 -0.023421325 -0.0035666747 0.022592425 0.019511372
0.020018235 0.030029107 0.0040844735 0.017115932 0.013492653 0.0008962258 0.034623943 0.0033364776
0.0013042955 -0.009328086 -0.00489189 0.015323454 0.040248413 0.01843271 -0.0046886182 0.002300021
00000000: 2041 8c3b 8cbc b23c c072 833c a091 a83c
00000010: 064c 5c3b 0714 003c 32f5 59bb d954 fcbb
00000020: f03b a3bc 500d 293c 5785 67bb eadc d23c
00000030: 89bc 1ebc 5443 3dbc c49e 3f3c ec61 973a
00000040: c122 5a3c dcb7 303b 220c 9138 3807 4cba
00000050: a823 09bd 1758 48bc 0469 78bb 13d2 473b
00000060: a9fc 5d3c 17e0 0f3c 93d0 203d 9d5d f03b
00000070: ef1f 513c 1ba1 a9b9 f147 303c 016f b33c
00000080: 03ff d4bb 076e 223d 6195 4a3c 40f7 5c3c
00000090: 0143 483c 51f3 9b3c 6e65 55bc 6ec9 463d
000000a0: c54f 41bc b21f 7dba 60b5 2c3c 0456 de3b
000000b0: e730 46bc e72d 4c3c 6c01 963c c47b bcbb
000000c0: ea32 983b a5b1 4b3c e44b 073c a725 39ba
000000d0: 55cc 913b 02ed 36bc 344c 913c 3d5d 0e3b
000000e0: dd1d 513b 53c7 133c 03f4 373c ed43 3d3b
000000f0: 3cb5 be3c 699c 503c 5521 3f3c b67f 933b
00000100: 944a 8e3d 29b9 95bd 2063 e23d 01d4 5e3d
00000110: 9dad ce3d 47f7 1abd d581 873d 0f68 113d
00000120: b425 51be fa3e 05be d6a6 ab3d d8e1 0b3e
00000130: 04ea 243e 956f 753d 130b f8bd d9dc 233d
00000140: a40d 00be cfbe 803d 2e7c e8bd 04ac 5f3d
00000150: 6ce5 32bc 4c57 903d 36b0 c23d 1989 013e
00000160: c75a 06be eeb6 3b3e 4c8e e13d 0f8a e1bd
00000170: aaf3 fdbd 956b 8e3d 222b 21be f9be db3d
00000180: 8445 40bc 692b 0fbd 5743 04be e5e2 483c
00000190: 9bee 1bbe e35b 043e 5a59 983d b7ad 1d3c
000001a0: 1c8e 2abd b491 893c cf63 0cbe b9bf 08be
000001b0: 1d71 81bd a034 f2bd 766a 6c3d 4e0c b43d
000001c0: 275d 6b3d e31c 543d 388b 97bd 588b 853d
000001d0: a305 85bc 65f6 bb3b f75f 9b3d b313 103d
000001e0: 30af ffbb 6a6c 14be e7bd 04be 4776 663d
000001f0: 49e1 2d3d 3493 1ebb 74cb 0ebe f63b d1bc
00000200: 116c ed3c 5c03 1c3d 7c49 213d 76f7 f33c
00000210: 83eb fc3c d278 ce3c f98f ee3b 23d4 193c
00000220: 485b 1abd 2a8a 1e3a 4294 073c 0c69 463d
00000230: 289a 883c 3941 ed39 6b72 483b 4bf4 ec3b
00000240: d2cf 813b f66e a83c 95d1 abbb 9fc4 fd3b
00000250: 8b34 07bd 532a d03b 9db1 483c cf61 a03c
00000260: 5127 803b 2b81 4b3d 3c3c 9d3d a81a a93b
00000270: b6af 733b a40a d53c 5261 27bb 230b 2a3d
00000280: c289 113b aa2a 103d 9a8c 493b 6b31 0f3d
00000290: 68e2 97ba 8f26 4d3d 45b8 6c39 b3bc 593d
000002a0: e8ce 80bc 727d 513a 06db df39 e4ab 193b
000002b0: 57ae c1bc 48a0 7c3b 0452 263d 5500 3f3c
000002c0: d575 633c 4e15 163d d25c 2d3c 3752 743c
000002d0: 40da 093d 262a 263a 4b54 003d 8b1a 8a3c
000002e0: 7e38 9c3b d010 a3ba 740f 183b 9376 193d
000002f0: 6545 4a3d a574 033d 1e0d 183b 34ec 0d3c
00000300: 38a4 c03c a284 da3c e53e 033d bd33 e63c
00000310: 1471 083d 5d1f 463c 99e8 393c e96f 3a3b
00000320: d956 75bd 97df e9bb eba8 853c 085c 513d
00000330: 834a 9a3c dbcb e23b 5d0f 87bb c4dd 483c
00000340: 3723 8cbb 4cb0 723c 4250 5dbc 20ff 3a3c
00000350: 05a7 10bd aab7 ddb9 b9d0 ad3c 3673 b03c
00000360: a542 a0bb b18b 253d 986b 723d 8288 9aba
00000370: c03a 90bb 23b1 c43c 7222 1abc f6f4 0b3d
00000380: 12aa 9fbb 830d 153d 083b 77bb 08cb ae3c
00000390: 1b88 07bc 88f8 293d 821c e9ba b1d9 243d
000003a0: 411c 82bc e8e3 c2ba af8d e6bb 5b23 40bb
000003b0: 14de bfbc dfbe 69bb c013 b93c 50d6 9f3c
000003c0: 48fd a33c 9aff f53c 0cd7 853b b636 8c3c
000003d0: 4a10 5d3c b2f0 6a3a d6d1 0d3d cea8 5a3b
000003e0: e5f4 aa3a d4d4 18bc 264c a0bb 390f 7b3c
000003f0: 85db 243d 3200 973c fba2 99bb f3bb 163b

bias f4 [32]
-0.10584397 -0.3103227 0.007836187 -0.15924352 -0.025406066 -0.017960748 -0.18933438 -0.007899909
-0.054303963 -0.11909412 0.07784142 0.0025788546 -0.023303378 -0.06620404 -0.08530692 -0.056089547
-0.10759608 -0.020400418 0.05929468 -0.036681518 -0.11479203 0.07008894 -0.19095795 -0.0712836
-0.017401561 -0.17807661 0.074615955 -0.0011104349 -0.11559713 -0.014015619 -0.17527093 -0.047868315
00000000: b9c4 d8bd 9ee2 9ebe 5a63 003c bc10 23be
00000010: 6220 d0bc 6b22 93bc dfe0 41be 9f6e 01bc
00000020: d56d 5ebd 9ee7 f3bd 536b 9f3d 0002 293b
00000030: bae6 bebc fc95 87bd 65b5 aebd 27be 65bd
00000040: 555b dcbd c71e a7bc fade 723d 5c3f 16bd
00000050: 1518 ebbd ca8a 8f3d 7b8a 43be 23fd 91bd
00000060: b88d 8ebc b759 36be 40d0 983d 038c 91ba
00000070: 30be ecbd c4a1 65bc 397a 33be 9111 44bd
