checkpoints/fico_honam2_emb32_1.pt (torch, 504282 bytes, 278 tensors)

weight f4 [32, 1]
-0.3188006 0.339829 0.34336957 0.31104478 -0.3321658 0.3163703 -0.3085708 0.30996126
-0.3394265 0.30897546 -0.32411474 -0.19021477 0.31311068 -0.31158668 0.31358787 -0.28299955
0.26084867 0.30782905 0.34426892 0.3107075 -0.31288633 0.21726638 -0.34054515 -0.3268199
0.3177954 0.3213833 -0.3164103 -0.2918669 0.32006362 -0.31801137 -0.31573653 -0.332683
00000000: d539 a3be 11fe ad3e 23ce af3e 4341 9f3e
00000010: a311 aabe 4afb a13e fefc 9dbe 3eb3 9e3e
00000020: 4fc9 adbe 0832 9e3e 5ef2 a5be a9c7 42be
00000030: 0b50 a03e 4a88 9fbe 978e a03e 51e5 90be
00000040: f58d 853e c59b 9d3e 0444 b03e 0e15 9f3e
00000050: a332 a0be 147b 5e3e ef5b aebe f054 a7be
00000060: 14b6 a23e 5a8c a43e 8800 a2be 946f 95be
00000070: 61df a33e 63d2 a2be 38a8 a1be 6d55 aabe

bias f4 [32]
0.5965303 -0.8176197 -0.8534804 -0.42718542 0.79808867 -0.031421088 0.38112137 -0.41084763
0.89317507 -0.37289268 0.67979926 0.18113552 -0.46800214 0.46096689 -0.47176096 0.26836383
-0.27822325 -0.025306378 -0.8628818 -0.42207927 0.48763072 -0.23581165 0.9069974 0.7270455
0.016630733 -0.59669113 0.5492857 0.2786357 -0.5774549 0.58659863 0.5471855 0.8061479
00000000: 36b6 183f 864f 51bf b17d 5abf 0cb8 dabe
00000010: 8a4f 4c3f 66b3 00bd 5722 c33e 9f5a d2be
00000020: 1fa7 643f caeb bebe 5307 2e3f 977b 393e
00000030: fa9d efbe da03 ec3e a78a f1be fc66 893e
00000040: 4773 8ebe 524f cfbc d2e5 5cbf c61a d8be
00000050: bcaa f93e 9c78 71be fb30 683f a71f 3a3f
00000060: 2d3d 883c c0c0 18bf fd9d 0c3f 57a9 8e3e
00000070: 16d4 13bf 542b 163f 5914 0c3f b55f 4e3f

weight f4 [64, 32]
-0.029195106 0.021501986 0.02087147 0.038415335 -0.02319362 0.13768661 -0.04548404 0.040053893
-0.021328427 0.045107033 -0.026137564 -0.13403387 0.034887068 -0.03704523 0.034739032 -0.074679
0.07562599 0.1275606 0.020594127 0.038981874 -0.035077576 0.06519732 -0.021183584 -0.024689436
0.14862113 0.027777659 -0.031460833 -0.06926836 0.028550427 -0.029576112 -0.031317182 -0.023032283
0.0004883701 0.0019000308 0.0014112194 0.013220692 0.0037052114 0.12173412 -0.008949462 0.014319863
0.004487802 0.017334305 0.0020264057 -0.098208 0.010780293 -0.00390967 0.01057392 -0.020475058
0.029007971 0.1504347 0.001314274 0.013421322 -0.0026683968 0.029433038 0.0045670024 0.0028895366
0.20541084 0.0060132933 -0.0007728903 -0.019220086 0.006572661 0.00033056655 -0.00082107564 0.0036387253
-0.004649613 -0.0065156487 -0.007416994 0.016681569 0.004762622 0.19220372 -0.030326232 0.018842183
0.007601713 0.025188921 -2.7385304e-05 -0.232573 0.012056166 -0.017088149 0.011721262 -0.07493145
0.061512638 0.21233788 -0.0076873517 0.017271662 -0.013926543 0.06456346 0.007973386 0.0023919528
0.25293326 0.0023865118 -0.008344664 -0.066934176 0.0034261446 -0.0053407745 -0.00818681 0.0050674737
0.06397156 -0.04427603 -0.043186907 -0.07439314 0.051971402 -0.23263404 0.094209164 -0.07715592
0.048465844 -0.08538884 0.058047388 0.28316522 -0.06847948 0.078962006 -0.06799464 0.13923128
-0.13191251 -0.23974913 -0.0427962 -0.075324036 0.07525996 -0.15925665 0.048004176 0.055216614
-0.20731094 -0.055686507 0.06831962 0.1314293 -0.057070274 0.06458065 0.06823089 0.051698282
-0.028628778 0.02236912 0.021870546 0.035412364 -0.024094436 0.12192066 -0.04108379 0.03650539
-0.022728337 0.04038198 -0.02645529 -0.11418304 0.032695726 -0.034515478 0.032639567 -0.0641939
0.06585787 0.11215511 0.021872353 0.03581066 -0.033180922 0.05450427 -0.022608904 -0.025227744
0.12510179 0.027198954 -0.030373236 -0.05955019 0.02775108 -0.02879114 -0.030261237 -0.023918545
-0.040362056 0.030682873 0.03009211 0.04535606 -0.033810776 0.17507686 -0.05701411 0.046763465
-0.03194253 0.050414722 -0.037171908 -0.19408575 0.042628948 -0.048522897 0.042304482 -0.08805831
0.06901758 0.18278201 0.029923731 0.04582075 -0.0465343 0.07810085 -0.031590816 -0.035658304
0.1686324 0.036467962 -0.042783868 -0.082442604 0.037192054 -0.04078804 -0.042622548 -0.033692088
-0.027845101 0.01587053 0.014798428 0.04331668 -0.018167013 0.15497321 -0.05428567 0.04581647
-0.015269456 0.05379009 -0.022940379 -0.16247813 0.03763225 -0.040623136 0.03723516 -0.09971544
0.098922834 0.16099432 0.014590688 0.04398577 -0.037247743 0.09190211 -0.015011261 -0.020609915
0.1688228 0.026015526 -0.03135568 -0.0918326 0.02740424 -0.028474081 -0.03131605 -0.017782269
0.06367774 -0.043587644 -0.042422894 -0.074535824 0.051531345 -0.25020343 0.09424977 -0.0770557
0.04787824 -0.08576391 0.05764052 0.2784638 -0.06829071 0.07882154 -0.067964636 0.14009273
-0.13249743 -0.2559461 -0.04197595 -0.07526526 0.075113304 -0.14611223 0.0474855 0.0547594
-0.21909493 -0.055142853 0.068111554 0.13223256 -0.056683812 0.06442771 0.06808196 0.05107144
00000000: 932a efbc ef24 b03c a5fa aa3c 6659 1d3d
00000010: 8c00 bebc b8fd 0c3e 794d 3abd 8d0f 243d
00000020: f4b8 aebc 27c2 383d 721e d6bc 2d40 09be
00000030: bee5 0e3d bdbc 17bd 844a 0e3d 4ef1 98bd
00000040: cde1 9a3d 3f9f 023e 04b5 a83c 75ab 1f3d
00000050: 81ad 0fbd 2c86 853d 3289 adbc 8041 cabc
00000060: 2330 183e f98d e33c 13dd 00bd 92dc 8dbd
00000070: 96e2 e93c 9a49 f2bc 7246 00bd 33ae bcbc
00000080: f605 003a 740a f93a aaf8 b83a 9a9b 583c
00000090: 22d3 723b bd4f f93d c4a0 12bc dc9d 6a3c
000000a0: 690e 933b ac00 8e3c 72cd 043b 4721 c9bd
000000b0: d39f 303c b01c 80bb 3c3e 2d3c 4fbb a7bc
000000c0: 20a2 ed3c 8e0b 1a3e b843 ac3a 1be5 5b3c
000000d0: 45e0 2ebb 8e1d f13c cba6 953b 615e 3d3b
000000e0: 3857 523e 290b c53b ca9b 4aba 7173 9dbc
000000f0: 7a5f d73b e44f ad39 743d 57ba ae77 6e3b
00000100: c85b 98bb 3981 d5bb 410a f3bb c9a7 883c
00000110: c50f 9c3b 0dd1 443e b86e f8bc ec5a 9a3c
00000120: ca17 f93b ff58 ce3c 7eb9 e5b7 9e27 6ebe
00000130: 3a87 453c 72fc 8bbc 890a 403c a975 99bd
00000140: adf4 7b3d 1a6f 593e 2ee6 fbbb 4d7d 8d3c
00000150: 282c 64bc d939 843d cea2 023c 4fc2 1c3b
00000160: 7880 813e 0667 1c3b 0fb8 08bc c914 89bd
00000170: 2b89 603b aa01 afbb f821 06bc 0d0d a63b
00000180: 8503 833d c85a 35bd c1e4 30bd 6e5b 98bd
00000190: f7df 543d 9e37 6ebe bcf0 c03d ec03 9ebd
000001a0: 1f84 463d 58e0 aebd 19c3 6d3d 08fb 903e
000001b0: f83e 8cbd d5b6 a13d c640 8bbd a592 0e3e
000001c0: 1314 07be cc80 75be 114b 2fbd 7d43 9abd
000001d0: e521 9a3d 2d14 23be 07a0 443d d12a 623d
000001e0: 5249 54be 8917 64bd 28eb 8b3d 6795 063e
000001f0: 85c2 69bd dc42 843d a3bc 8b3d 94c1 533d
00000200: e686 eabc 723f b73c dc29 b33c 8e0c 113d
00000210: b261 c5bc 8ab1 f93d 7a47 28bd ad86 153d
00000220: c730 babc 9367 253d c4b8 d8bc ccd8 e9bd
00000230: f4eb 053d 1a60 0dbd 11b1 053d 1778 83bd
00000240: 7ee0 863d 94b1 e53d a62d b33c 33ae 123d
00000250: b8e8 07bd df3f 5f3d 4f36 b9bc 6aaa cebc
00000260: af1a 003e 57d0 de3c 4bd1 f8bc e6ea 73bd
00000270: 3c56 e33c 66db ebbc 6ae6 f7bc d3f0 c3bc
00000280: af52 25bd a65a fb3c bb83 f63c 47c7 393d
00000290: 2b7d 0abd 5947 333e a187 69bd 0c8b 3f3d
000002a0: 2cd6 02bd ab7f 4e3d 9241 18bd 6abe 46be
000002b0: b19b 2e3d f2bf 46bd 7747 2d3d ea57 b4bd
000002c0: 1759 8d3d 352b 3b3e 9d22 f53c 8aae 3b3d
000002d0: c09a 3ebd 57f3 9f3d 5f65 01bd 710e 12bd
000002e0: f9ad 2c3e 6e5f 153d 233e 2fbd abd7 a8bd
000002f0: b256 183d 5c11 27bd fb94 2ebd b700 0abd
00000300: 691b e4bc ea02 823c 1b75 723c d56c 313d
00000310: fdd2 94bc 4cb1 1e3e a75a 5ebd 0daa 3b3d
00000320: be2c 7abc ff52 5c3d 76ed bbbc ab60 26be
00000330: 4624 1a3d 7264 26bd e583 183d 9c37 ccbd
00000340: 0e98 ca3d b2db 243e c80d 6f3c 6c2a 343d
00000350: 1791 18bd 2c37 bc3d cbf1 75bc 20d6 a8bc
00000360: e2df 2c3e 831e d53c d06e 00bd bb12 bcbd
00000370: db7e e03c 7a42 e9bc 4245 00bd 1fac 91bc
00000380: 7a69 823d f588 32bd a1c3 2dbd 3da6 98bd
00000390: 8812 533d aa1a 80be 0606 c13d 61cf 9dbd
000003a0: f91b 443d fda4 afbd 7718 6c3d cf92 8e3e
000003b0: 00dc 8bbd 306d a13d 0b31 8bbd 7874 0f3e
000003c0: 68ad 07be 5e0b 83be f9ee 2bbd ac24 9abd
000003d0: 01d5 993d 729e 15be 2880 423d 654b 603d
000003e0: 6c5a 60be 79dd 61bd 127e 8b3d f967 073e
000003f0: 492d 68bd adf2 833d 8e6e 8b3d 4930 513d

bias f4 [64]
0.11854401 -0.10444338 0.024525084 -0.12273106 0.12081495 -0.0072946725 0.084713444 -0.118825875
0.052103475 0.09615269 0.14226861 0.12680589 -0.030285362 0.00037040436 0.041012295 -0.06962481
-0.0687225 -0.13873428 -0.14766608 -0.08458169 0.004667958 -0.018676162 0.04770518 -0.0028336411
-0.041892573 -0.14917405 0.18831803 -0.11869711 0.033671863 0.085781656 0.030041488 -0.0651869
-0.18339634 0.16070417 0.003946661 0.19024552 0.105064 0.09607538 0.024330886 -0.053785443
-0.08915204 0.014324114 0.19833618 0.111916125 0.19040339 0.19514796 0.14864084 -0.08556219
-0.10764923 0.021823034 -0.07994541 -0.0101261735 -0.0676074 0.17898376 -0.048798103 0.20002343
-0.11445913 -0.14984095 0.025047828 0.025298307 -0.059436183 -0.09471079 0.024352461 -0.007698259
00000000: 34c7 f23d 69e6 d5bd d4e8 c83c 6c5a fbbd
00000010: d46d f73d 2608 efbb 3e7e ad3d fb5a f3bd
00000020: 746a 553d b4eb c43d ddae 113e 67d9 013e
00000030: 0219 f8bc d532 c239 82fc 273d 7497 8ebd
00000040: 62be 8cbd 5c10 0ebe c735 17be 2a39 adbd
00000050: abf5 983b c0fe 98bc 8266 433d 9cb4 39bb
00000060: 8c97 2bbd 15c1 18be 71d6 403e 7817 f3bd
00000070: 82eb 093d 4bae af3d 9119 f63c b680 85bd
00000080: 40cc 3bbe a28f 243e fe52 813b b9cf 423e
00000090: cb2b d73d 2bc3 c43d 9151 c73c 204e 5cbd
000000a0: 5895 b6bd b0af 6a3c a418 4b3e 4834 e53d
000000b0: 1bf9 423e ded4 473e 4e35 183e 3b3b afbd
000000c0: 3377 dcbd 38c6 b23c 6bba a3bd 40e8 25bc
000000d0: c075 8abd 8547 373e 85e0 47bd f1d2 4c3e
000000e0: 8c69 eabd e86f 19be 1a31 cd3c 653e cf3c
000000f0: 5b73 73bd bbf7 c1bd d07e c73c ad41 fcbb

weight f4 [32, 64]
-0.0037176977 -0.03751388 -0.051918704 0.12518398 -0.015784925 -0.041370768 0.03537952 0.11344696
-0.0060239932 -0.0016583917 -0.011662094 0.0024739944 0.08807832 -0.03128459 -0.009905891 0.0121182725
0.07080565 0.10878889 0.111692965 -0.059952307 0.0013988827 0.011821189 0.021822419 0.018963797
-0.074926585 0.10562681 -0.054148022 -0.03459866 0.0010976647 0.031673174 -0.012733433 0.09464809
0.010504676 -0.022219572 -0.016944695 -0.03446125 0.008944519 0.0014141316 -0.036795467 -0.057301044
0.103638075 0.001755122 -0.05572812 0.010877434 -0.04728837 -0.058431175 -0.007911199 0.08022179
-0.054639332 -0.05805691 0.10894109 -0.0156323 0.012599926 -0.016207868 0.03557178 -0.05812349
0.124334045 0.106411904 -0.008431106 -0.016431354 0.09410638 -0.045525707 0.0044903257 -0.022535652
-0.019533934 -0.0016431652 -0.0641168 0.076280415 -0.0097583635 0.03278585 -0.028367829 0.06334103
-0.11814405 -0.08796731 -0.079152405 -0.015006237 0.039664365 -0.0277666 -0.002178387 0.04851199
0.037861284 0.059251327 0.062295254 0.024057297 0.04036133 0.04168348 -0.07285805 0.0538421
-0.012087527 0.05655986 -0.12703705 0.03299554 -0.10826414 -0.038911186 0.024608186 0.037820987
0.098056644 -0.09887211 0.021115504 -0.11969153 -0.08517315 -0.08152152 0.0016832586 0.005550882
0.06317272 0.040006753 -0.13138418 -0.050723955 -0.12943204 -0.12772928 -0.07579951 0.043677982
0.02755941 -0.06505096 0.06875324 -0.090391085 0.049058113 -0.09907464 0.0941639 -0.12675321
0.07126776 0.05917454 0.0247741 0.026418358 0.035721295 0.022645261 0.02983572 0.014878399
0.028417163 -0.04381118 -0.025620107 0.16406757 0.017381579 -0.078079976 0.054550413 0.15092354
0.010597998 0.024320444 0.006504486 0.031028645 0.12229465 -0.01603446 0.03144017 -0.03564899
0.10721317 0.14643425 0.14934295 -0.09773173 -0.018372726 -0.00800003 0.038548563 0.00169527
-0.110376805 0.14339764 -0.03474476 -0.05895565 0.018845284 0.047901053 -0.047134217 0.13108517
-0.026461687 0.0027029477 -0.06997524 -0.011677607 0.030788152 0.022586055 -0.050605908 -0.08098634
0.14070933 -0.04923401 -0.036545377 0.041054122 -0.025587084 -0.038300067 0.014760313 0.11763361
-0.078087814 -0.03503112 0.1461742 0.014788931 -0.035872214 0.002350842 -0.015905423 -0.038131893
0.16222331 0.14485182 -0.040306833 -0.03568305 0.12976828 -0.0137915695 -0.0020083317 -0.057395883
-0.021642616 -0.047568813 -0.08040688 0.14698872 -0.029318783 -0.058302067 0.017705224 0.13335678
-0.025858177 -0.025286747 -0.03269483 -0.014299456 0.10528376 -0.05115871 -0.019443318 0.004731158
0.090841845 0.12866896 0.13207483 -0.07324125 -0.010943584 0.015019082 0.009709552 0.008473942
-0.096200936 0.12561156 -0.0710903 -0.043985173 -0.015543664 0.016529674 -0.02029338 0.117100924
0.017464822 -0.048656944 -0.018912923 -0.050763253 -0.009095827 -0.016657026 -0.08006515 -0.07631816
0.11784728 -0.018800296 -0.07263753 -0.028084984 -0.06468667 -0.0751142 -0.028383318 0.09257295
-0.07444055 -0.08317112 0.12328118 -0.048163738 0.0048786183 -0.030865427 0.039683416 -0.07488698
0.1443294 0.12739098 -0.007913453 -0.022154415 0.114722855 -0.056894284 0.003707251 -0.019715998
00000000: 9ea4 73bb 27a8 19bd b5a8 54bd 3b30 003e
00000010: 634f 81bc 6574 29bd 1eea 103d e156 e83d
00000020: eb64 c5bb 645e d9ba 5e12 3fbc bd22 223b
00000030: 6862 b43d 4524 00bd 514c 22bc b88b 463c
00000040: 8d02 913d b6cc de3d 48bf e43d 8d90 75bd
00000050: b75a b73a a9ad 413c eec4 b23c f759 9b3c
00000060: 1c73 99bd de52 d83d 51ca 5dbd 53b7 0dbd
00000070: 84df 8f3a bbbb 013d e49f 50bc dcd6 c13d
00000080: ce1b 2c3c d205 b6bc 9acf 8abc 3d27 0dbd
00000090: 088c 123c 625a b93a d8b6 16bd 80b4 6abd
000000a0: 3340 d43d 1f0c e63a 2b43 64bd 4437 323c
000000b0: 73b1 41bd 8755 6fbd f99d 01bc 524b a43d
000000c0: 7ecd 5fbd 15cd 6dbd 821c df3d 4f0f 80bc
000000d0: ec6f 4e3c 5dc6 84bc b7b3 113d e612 6ebd
000000e0: d9a2 fe3d 7cee d93d 9f22 0abc 0c9b 86bc
000000f0: d9ba c03d 2a79 3abd 9523 933b b09c b8bc
00000100: a105 a0bc 7a5f d7ba ab4f 83bd e838 9c3d
00000110: 8be1 1fbc 754a 063d a663 e8bc f1b8 813d
00000120: 82f5 f1bd 3428 b4bd a81a a2bd b8dc 75bc
00000130: 1a77 223d c876 e3bc 45c3 0ebb 82b4 463d
00000140: 6f14 1b3d 85b1 723d 4f29 7f3d cf13 c53c
00000150: ec51 253d 4cbc 2a3d 9a36 95bd 8989 5c3d
00000160: c30a 46bc 50ab 673d 0016 02be 5526 073d
00000170: 97b9 ddbd 5661 1fbd 1b97 c93c 2eea 1a3d
00000180: ecd1 c83d 767d cabd 6cfa ac3c d520 f5bd
00000190: 436f aebd c1f4 a6bd c9a0 dc3a 2ce4 b53b
000001a0: b360 813d 1fde 233d 9389 06be ecc3 4fbd
000001b0: d589 04be 77cb 02be c63c 9bbd afe7 323d
000001c0: 46c4 e13c 7039 85bd 80ce 8c3d f61e b9bd
000001d0: 29f1 483d a5e7 cabd 01d9 c03d 98cb 01be
000001e0: d5f4 913d 0161 723d 0ef3 ca3c 506b d83c
000001f0: 7e50 123d 8e82 b93c 0a6a f43c 87c4 733c
00000200: 1ccb e83c 5a73 33bd 42e1 d1bc 5401 283e
00000210: d063 8e3c 65e8 9fbd 4170 5f3d b38b 1a3e
00000220: 3aa3 2d3c ab3b c73c 9523 d53b c92f fe3c
00000230: 9e75 fa3d b35a 83bc 68c7 003d ad04 12bd
00000240: 9492 db3d dcf2 153e 5ced 183e 9327 c8bd
00000250: 6682 96bc 8f12 03bc 19e5 1d3d d233 de3a
00000260: 3c0d e2bd d5d6 123e 8550 0ebd 7b7b 71bd
00000270: 6d61 9a3c e533 443d cf0f 41bd 313b 063e
00000280: 2ec6 d8bc f023 313b 2e4f 8fbd 6f53 3fbc
00000290: 6f37 fc3c 6406 b93c 2448 4fbd 2bdc a5bd
000002a0: 1b16 103e 9aa9 49bd 9bb0 15bd 5e28 283d
000002b0: 019c d1bc 88e0 1cbd 3dd5 713c e4e9 f03d
000002c0: 81ec 9fbd cb7c 0fbd b1ae 153e 464d 723c
000002d0: beee 12bd 9610 1a3b 174c 82bc 3030 1cbd
000002e0: de1d 263e 0954 143e c718 25bd 6428 12bd
000002f0: fae1 043e 09f6 61bc 379e 03bb f217 6bbd
00000300: db4b b1bc 84d7 42bd 5dac a4bd 3684 163e
00000310: f22d f0bc 26ce 6ebd 8c0a 913c ae8e 083e
00000320: 87d4 d3bc 2726 cfbc 04eb 05bd 4448 6abc
00000330: 039f d73d cc8b 51bd 9847 9fbc d407 9b3b
00000340: 4a0b ba3d ccc1 033e a03e 073e 82ff 95bd
00000350: b84c 33bc 9912 763c d014 1f3c 4ad6 0a3c
00000360: ff04 c5bd 51a0 003e cb97 91bd cc29 34bd
00000370: daaa 7ebc 3d69 873c 4d3e a6bc 9cd2 ef3d
00000380: 6312 8f3c 814c 47bd 46ef 9abc 21ed 4fbd
00000390: aa06 15bc 5174 88bc 33f9 a3bd b24c 9cbd
000003a0: ea59 f13d 1403 9abc fcc2 94bd 7b12 e6bc
000003b0: 727a 84bd 79d5 99bd 2284 e8bc e396 bd3d
000003c0: 4974 98bd 9f55 aabd d87a fc3d 5747 45bd
000003d0: d1dc 9f3b 7ed9 fcbc 148b 223d 585e 99bd
000003e0: 16cb 133e c872 023e 6da7 01bc 2d7d b5bc
000003f0: d1f3 ea3d fb09 69bd 5af5 723b 7283 a1bc

bias f4 [32]
-0.049609363 0.009130576 -0.0417404 -0.022353986 0.06452149 0.03311513 -0.013528311 -0.16715701
0.056252047 0.0959275 0.025438637 0.11751917 -0.025532942 0.09759109 0.10819315 -0.19421913
0.11263322 -0.16819777 -0.07756079 0.039450686 -0.039789673 0.031932984 0.093511015 -0.013155208
0.049550623 -0.065109804 -0.01769968 -0.14504956 0.01737406 -0.015183367 -0.024860118 0.04489073
00000000: 3033 4bbd 6998 153c fbf7 2abd b51f b7bc
00000010: d823 843d bba3 073d d9a5 5dbc 352b 2bbe
00000020: 8c68 663d a375 c43d b064 d03c e4ad f03d
00000030: 762a d1bc d6dd c73d 5f94 dd3d 61e1 46be
00000040: 3fac e63d 093c 2cbe 31d8 9ebd 0b97 213d
00000050: 7ffa 22bd 29cc 023d b482 bf3d f188 57bc
00000060: 98f5 4a3d 4a58 85bd ebfe 90bc df87 14be
00000070: 0b54 8e3c a8c3 78bc 72a7 cbbc 58df 373d

weight f4 [32, 1]
0.3164972 0.31667843 -0.21665518 0.31750578 0.3175325 0.29087836 -0.32133654 0.23597412
0.33030102 -0.26159155 -0.32144704 -0.32139668 0.31331885 -0.16056886 0.31773025 0.31347558
-0.3192018 0.31826088 0.31714 -0.31616375 0.31774512 0.31378844 0.31704965 0.31768453
0.24988727 -0.3045614 0.31451294 0.31423634 0.37186426 0.31320596 -0.3208023 -0.25048313
00000000: ec0b a23e ad23 a23e dbda 5dbe 1e90 a23e
00000010: 9f93 a23e 02ee 943e 3986 a4be 33a3 713e
00000020: 371d a93e 54ef 85be b594 a4be 1b8e a4be
00000030: 546b a03e 2a6c 24be 8aad a23e df7f a03e
00000040: 6b6e a3be 17f3 a23e 2d60 a23e 37e0 a1be
00000050: 7daf a23e e1a8 a03e 5554 a23e 8ca7 a23e
00000060: 73e2 7f3e 79ef 9bbe d707 a13e 96e3 a03e
00000070: fe64 be3e 885c a03e 3340 a4be 533f 80be

bias f4 [32]
-0.22255862 -0.67261726 0.18023302 -0.7938201 -0.7881161 -0.2693227 0.88057464 -0.23878698
-0.040139742 0.21786158 0.9179885 0.9033969 -0.2889457 0.13197848 -0.83873445 -0.34827283
0.59264517 -0.9136659 -0.72259945 0.3710787 -0.8198732 -0.3706132 -0.73717374 -0.84094566
-0.2557808 0.25224653 -0.4306897 -0.41636175 -0.047987178 -0.34023482 0.84579724 0.20830007
00000000: 68e6 63be a530 2cbf 018f 383e cb37 4bbf
00000010: fac1 49bf aae4 89be 576d 613f 9384 74be
00000020: 9269 24bd 1b17 5f3e 4b01 6b3f 0545 673f
00000030: b1f0 93be 5e25 073e 4db7 56bf d150 b2be
00000040: 98b7 173f 02e6 69bf 47fc 38bf 07fe bd3e
00000050: 36e3 51bf 03c1 bdbe 6bb7 3cbf 3748 57bf
00000060: b3f5 82be 7526 813e 5c83 dcbe 5e2d d5be
00000070: 348e 44bd 4233 aebe 2b86 583f 9d4c 553e

weight f4 [64, 32]
0.00770124 0.0029491156 0.035494763 0.0018478477 0.0019007418 0.0030132676 0.00604338 0.0066312696
0.0010016687 0.010970135 0.006151694 0.006028108 0.0008597573 0.072091326 0.0016263578 0.00771296
0.005704907 0.0010083925 0.0024920446 0.0049326215 0.0016120335 0.007219933 0.002215834 0.0015110974
0.0081935115 0.0047266963 0.0058688293 0.0061911037 0.0079629915 0.008016572 0.0060129245 0.0145219
0.064703636 0.04730357 -0.097511105 0.04655495 0.04661344 0.056065436 -0.045934867 0.059038837
0.06500003 -0.06264659 -0.045877367 -0.04590732 0.061616298 -0.19487822 0.04646197 0.04904585
-0.047735795 0.046033166 0.047004614 -0.049250428 0.04639384 0.049081214 0.04681109 0.04640777
0.06734369 -0.052011367 0.048908666 0.048934728 0.0012006542 0.04902763 -0.04613935 -0.06798587
0.042088315 0.04105876 -0.09873838 0.04032854 0.040438924 0.042489484 -0.04139449 0.05331114
0.012950661 -0.06314791 -0.041291714 -0.04128094 0.04081949 -0.19657947 0.040308986 0.045119453
-0.04306634 0.039984442 0.040814076 -0.046112254 0.040319696 0.044461142 0.040580057 0.04014867
0.043860864 -0.052742302 0.043472994 0.043588683 0.0030862845 0.045141343 -0.041424587 -0.069310136
-0.002203055 0.029491708 -0.029975584 0.03021846 0.030329801 -0.0081647625 -0.03312083 0.020007111
0.011219651 -0.027030125 -0.033259366 -0.033252977 -0.010528874 -0.1470992 0.030552605 0.022955215
-0.031428717 0.030909231 0.029907884 -0.026730279 0.030541988 0.023691986 0.029831162 0.030514464
0.0231309 -0.025964618 0.025563179 0.025169834 0.027768515 0.02261201 -0.032916654 -0.027606668
0.029780246 0.016331049 -0.003918703 0.016282056 0.016377661 0.015434529 -0.015017525 0.012647074
0.013015284 -0.0053470237 -0.0149528645 -0.01489562 0.01994822 0.10486938 0.016445663 0.012857872
-0.014077371 0.016295627 0.016377404 -0.011214998 0.016466908 0.0136712445 0.016308479 0.016329959
0.013096872 -0.005274106 0.0150134 0.014743416 -0.010476437 0.012599683 -0.014895012 -0.006118848
0.018908158 0.0327729 -0.01600533 0.033205997 0.033098057 0.020387143 -0.031714812 0.024740309
-0.035923548 -0.019359691 -0.03190014 -0.03188584 0.019778686 0.14159839 0.03343036 0.028533218
-0.030323435 0.033439703 0.03303228 -0.026882408 0.033374067 0.029348267 0.032959692 0.033369146
0.02367618 -0.022206431 0.030624699 0.030372884 0.018730564 0.028307565 -0.031694442 -0.018735385
-0.007212627 -0.011427673 0.04933496 -0.012053506 -0.0121038025 -0.007864053 0.020128129 -0.006354948
-0.0070842705 0.03461124 0.019982917 0.020182103 -0.009640564 0.0938293 -0.012302931 -0.008874456
0.02186504 -0.012503907 -0.011786572 0.025035746 -0.012111872 -0.009167801 -0.011694284 -0.012273085
-0.007882557 0.029703135 -0.009783156 -0.00964692 -0.020660382 -0.0087718405 0.020312749 0.037014164
-0.006529518 0.033882305 -0.033967517 0.033050135 0.033084095 0.018654218 -0.028252738 0.042911462
-0.0007444052 -0.032997604 -0.028277183 -0.028116278 0.019358581 -0.07270231 0.03278174 0.038135577
-0.02807959 0.03241752 0.033365265 -0.028271034 0.032883953 0.037416957 0.033382546 0.032816917
0.027788144 -0.031200642 0.036365643 0.03668933 -0.04392056 0.03831248 -0.028149014 -0.033864655
00000000: af5a fc3b f345 413b f562 113d 7b33 f23a
00000010: 5022 f93a 3e7a 453b 8c07 c63b 1f4b d93b
00000020: 6d4a 833a 15bc 333c 2694 c93b 6f87 c53b
00000030: 5661 613a 9ea4 933d 832b d53a ffbc fc3b
00000040: 3af0 ba3b 0a2c 843a 9251 233b d4a1 a13b
00000050: de4a d33a 3095 ec3b 8737 113b 0410 c63a
00000060: 143e 063c 67e2 9a3b 4f4f c03b bede ca3b
00000070: 3577 023c f157 033c 1108 c53b 43ed 6d3c
00000080: 5783 843d 63c1 413d e7b3 c7bd 67b0 3e3d
00000090: bced 3e3d dfa4 653d 3326 3cbd b5d2 713d
000000a0: bc1e 853d db4c 80bd e8e9 3bbd 5009 3cbd
000000b0: 5f61 7c3d 288e 47be e84e 3e3d 4de4 483d
000000c0: 9c86 43bd 468d 3c3d e987 403d d1ba 49bd
000000d0: 7807 3e3d 6209 493d fcbc 3f3d 1316 3e3d
000000e0: 7deb 893d df09 55bd 7454 483d c86f 483d
000000f0: 455f 9d3a 32d1 483d 9dfc 3cbd 2d3c 8bbd
00000100: cc64 2c3d 3b2d 283d 5937 cabd 8a2f 253d
00000110: 49a3 253d 7409 2e3d 458d 29bd c85c 5a3d
00000120: 022f 543c b153 81bd 8021 29bd 3416 29bd
00000130: 5632 273d 214c 49be 091b 253d 2dcf 383d
00000140: 5566 30bd bac6 233d a92c 273d 34e0 3cbd
00000150: 4426 253d e31c 363d 4637 263d ef72 243d
00000160: 73a7 333d 5008 58bd bd10 323d 0c8a 323d
00000170: 4343 4a3b 21e6 383d d4ac 29bd 79f2 8dbd
00000180: 2161 10bb 9898 f13c 5b8f f5bc b48c f73c
00000190: 3476 f83c 7fc5 05bc b5a9 07bd f4e5 a33c
000001a0: a1d2 373c 486e ddbc f93a 08bd 4634 08bd
000001b0: 4c81 2cbc 2ca1 16be 7549 fa3c 930c bc3c
000001c0: 66bb 00bd 5b35 fd3c 6101 f53c 75f9 dabc
000001d0: 3133 fa3c b215 c23c 7b60 f43c 78f9 f93c
000001e0: 037d bd3c c0b3 d4bc df69 d13c f830 ce3c
000001f0: cc7a e33c d23c b93c 9dd3 06bd 6127 e2bc
00000200: b4f5 f33c b1c8 853c 7768 80bb f261 853c
00000210: 722a 863c 1be1 7c3c 110c 76bc ac35 4f3c
00000220: 0f3e 553c 1636 afbb dcfc 74bc c20c 74bc
00000230: 736a a33c c2c5 d63d 0eb9 863c d3a9 523c
00000240: c6a4 66bc 687e 853c e829 863c 1cbf 37bc
00000250: 9ce5 863c 5bfd 5f3c 5c99 853c 68c6 853c
00000260: 4394 563c 68d2 acbb c4fa 753c 5e8e 713c
00000270: 5da5 2bbc e76e 4e3c 350a 74bc 9e80 c8bb
00000280: 48e5 9a3c e03c 063d 9c1d 83bc 0303 083d
00000290: d491 073d f002 a73c 64e7 01bd 30ac ca3c
000002a0: 9224 13bd 3798 9ebc b9a9 02bd ba9a 02bd
000002b0: e906 a23c 2bff 103e 46ee 083d 7fbe e93c
000002c0: da68 f8bc 12f8 083d db4c 073d 7f38 dcbc
000002d0: 3fb3 083d c76b f03c be00 073d 16ae 083d
000002e0: 8cf4 c13c 43ea b5bc a6e0 fa3c 8ed0 f83c
000002f0: d770 993c 44e5 e73c 08d2 01bd f37a 99bc
00000300: e757 ecbb 223b 3bbc 7413 4a3d 127c 45bc
00000310: 074f 46bc 3bd8 00bc bfe3 a43c 2b3d d0bb
00000320: 2b23 e8bb 84c4 0d3d 37b3 a33c f054 a53c
00000330: 75f3 1dbc 9329 c03d 3c92 49bc 2b66 11bc
00000340: 501e b33c 30dd 4cbc 771c 41bc c417 cd3c
00000350: e070 46bc 8b34 16bc 6299 3fbc 0d15 49bc
00000360: d725 01bc fd53 f33c 8849 20bc 1d0e 1ebc
00000370: f63f a9bc c4b7 0fbc ec66 a63c 2a9c 173d
00000380: 91f5 d5bb 2cc8 0a3d 8621 0bbd 945f 073d
00000390: 3083 073d bbd0 983c 4972 e7bc eec3 2f3d
000003a0: 3024 43ba 7f28 07bd 8da5 e7bc 1c54 e6bc
000003b0: e395 9e3c f3e4 94bd 2546 063d 0d34 1c3d
000003c0: 2b07 e6bc 3cc8 043d 04aa 083d a898 e7bc
000003d0: 53b1 063d 8642 193d 23bc 083d 086b 063d
000003e0: f6a3 e33c 7d98 ffbc 24f4 143d 8d47 163d
000003f0: 0ce6 33bd 8ced 1c3d c398 e6bc aab5 0abd

bias f4 [64]
-0.11957064 0.052891415 0.0886934 0.032718293 -0.018698383 -0.006838451 -0.14751399 -0.08457799
0.0016804422 0.04722626 0.10107606 0.053904712 0.08300816 -0.15506053 0.054719668 -0.0053990944
-0.08464071 -0.17856477 0.1369501 -0.057176523 -0.14395595 -0.121137835 0.02538479 0.08021431
0.012649597 0.009846217 -0.020841064 0.017339831 -0.023823064 0.121911906 0.045395434 -0.0737446
0.03696304 -0.060449556 -0.10405813 -0.06912716 0.09883181 0.06659955 -0.14943543 0.12811162
-0.092280895 0.07670429 -0.010717593 -0.044211492 -0.016902681 -0.07447267 0.12833679 -0.07574933
-0.04713378 -0.1247563 0.0798844 0.09628799 -0.0024272746 -0.0407896 0.025865568 -0.081670575
0.14429021 -0.06742958 0.032576334 0.11926782 -0.043838963 0.08682231 0.063299716 -0.007159838
00000000: 74e1 f4bd aba4 583d e3a4 b53d 9e03 063d
00000010: 5a2d 99bc 1615 e0bb e80d 17be 3a37 adbd
00000020: 4942 dc3a 5370 413d f700 cf3d 30cb 5c3d
00000030: 2f00 aa3d 30c8 1ebe bb21 603d e3ea b0bb
00000040: 1c58 adbd afd9 36be a63c 0c3e ee31 6abd
00000050: 3069 13be 1d17 f8bd c3f3 cf3c 6647 a43d
00000060: 4140 4f3c 0752 213c e1ba aabc 430c 8e3c
00000070: 9628 c3bc f3ac f93d 90f0 393d 6907 97bd
00000080: 8e66 173d f499 77bd 6e1c d5bd 8a92 8dbd
00000090: 5568 ca3d 5865 883d 9a05 19be b12f 033e
000000a0: c4fd bcbd 2417 9d3d d898 2fbc 1c17 35bd
000000b0: 7e77 8abc 2185 98bd b86a 033e 7722 9bbd
000000c0: 5a0f 41bd 3b80 ffbd 6f9a a33d a332 c53d
000000d0: e912 1fbb ff12 27bd 07e4 d33c e742 a7bd
000000e0: d0c0 133e 8518 8abd c36e 053d b042 f43d
000000f0: 7c90 33bd e5cf b13d 48a3 813d 139d eabb

weight f4 [32, 64]
-0.012539137 -0.046161916 -0.020035222 -0.018432735 -0.026216099 -0.009897246 0.013127783 0.018416243
0.004652922 -0.01402543 -0.06365225 -0.015317164 -0.029354049 0.015094149 -0.011030065 -0.04119498
0.026761005 -0.0042821085 -0.07679188 -0.020996457 0.008601042 -0.0045539755 -0.015649129 -0.014076089
-0.000810884 -0.006864325 -0.006255758 -0.0053393245 -0.035275847 -0.09765421 -0.016473165 0.015215848
-0.02076432 0.002286866 -0.00021722424 -0.023334768 -0.07282657 -0.024839364 0.018330721 -0.09880407
0.1560872 -0.07077634 -0.010864115 0.007413425 -0.06148768 0.14124823 -0.08333978 0.08981194
0.0058887894 0.008253327 -0.018915093 -0.027611187 -0.022965245 0.006675148 -0.05136748 -0.00047482728
-0.089246415 0.08845018 0.015047664 -0.08929041 -0.010883215 -0.0696243 -0.026497217 -0.029253708
-0.009211327 -0.03178431 -0.009192449 -0.01615959 -0.028840482 -0.0093320785 0.0030442346 0.02391664
0.0014502315 -0.013557982 -0.03519364 -0.013481645 -0.008191866 0.0075546815 -0.010462959 -0.04502474
0.027930744 -0.0064117806 -0.047138166 -0.014256337 0.00041166792 0.0023555534 -0.012203429 -0.002028551
-0.0006723217 -0.004404559 -0.005317317 -0.0056754127 -0.034368414 -0.06491422 -0.014221793 0.016248431
-0.017827168 0.009877356 0.004603971 -0.020788824 -0.053956423 -0.013357803 0.008966736 -0.06275175
0.13611506 -0.044957463 -0.020280382 0.0108208675 -0.03888954 0.11678048 -0.05013564 0.068979055
0.009030995 0.0065645976 -0.008369972 -0.010489729 -0.028355673 0.011909207 -0.046314433 -0.009219239
-0.062176418 0.06951177 0.015323828 -0.055801786 -0.0049959323 -0.051767442 -0.016514275 -0.025183413
0.01939301 -0.0049378606 -0.0064944043 0.01199334 0.038522296 -0.017024377 0.011017912 0.030379215
0.0040231547 0.006360155 0.026340872 0.007779325 0.006167923 0.010277091 0.0047904635 -0.009531486
0.0063599925 0.04681662 0.01646249 0.010131647 0.016750503 0.0357457 0.01301141 -0.0072627743
0.0054068356 0.01201558 0.0006213801 0.00874031 -0.025033515 0.017409923 0.010401717 0.008879093
0.012838122 0.035970967 0.023081718 0.058968972 0.0019278381 -0.003917965 0.020187754 0.0092525305
-0.048180252 -0.0012953986 0.03923982 0.001362561 0.06256598 -0.08454311 0.010585069 -0.08674556
0.002906019 0.02632482 -0.0061434056 -0.00024538953 0.024461297 0.005332612 0.03044709 0.0720235
0.01626591 -0.10291189 0.022266405 0.017423872 0.026944032 0.0052260663 -0.0010150614 0.04696668
-0.011522606 -0.017734848 -0.013354665 0.004631286 0.022473002 -0.023897564 0.010295628 0.02878643
0.005554931 0.0027266624 -0.0038989075 0.0020208184 -0.0019979784 0.015401012 0.0011223195 -0.016101435
0.024854843 0.020426568 -0.013477099 0.0056216023 0.012309432 0.018666921 0.0073403255 -0.010700574
0.0043462585 0.008465417 -0.0013486409 0.0063464604 -0.029932316 -0.020502603 0.003725385 0.016158894
0.00432695 0.030074159 0.016368054 0.026103381 -0.01389627 -0.012874846 0.0227126 -0.023073277
0.06454325 -0.016158558 0.015169508 0.0053178435 0.020615393 0.04414621 -0.014554018 0.01481996
0.0056917532 0.023383403 -0.012587344 -0.008514174 0.0021919608 0.008927402 0.013308619 0.055081073
-0.017594175 0.0036229587 0.020247981 -0.017405983 0.023768459 -0.011112508 -0.009893483 0.01842868
00000000: f470 4dbc 4714 3dbd e820 a4bc 3f00 97bc
00000010: 25c3 d6bc 0f28 22bc ea15 573c a9dd 963c
00000020: 8a77 983b ebca 65bc 1c5c 82bd d8f4 7abc
00000030: e777 f0bc 734d 773c 72b7 34bc 11bc 28bd
00000040: e539 db3c ee50 8cbb 1045 9dbd c300 acbc
00000050: 63eb 0c3c 8439 95bb 9a32 80bc 659f 66bc
00000060: 8191 54ba 22ee e0bb 1afd ccbb 80f5 aebb
00000070: 687d 10bd eefe c7bd bbf2 86bc e44b 793c
00000080: ef19 aabc 3fdf 153b b0c6 63b9 8e28 bfbc
00000090: 1926 95bd ec7b cbbc 4f2a 963c ca59 cabd
000000a0: 53d5 1f3e 30f3 90bd 67ff 31bc 51ec f23b
000000b0: 81da 7bbd 60a3 103e 0cae aabd 53ef b73d
000000c0: bff6 c03b f638 073c d3f3 9abc db30 e2bc
000000d0: 9c21 bcbc 33bb da3b b566 52bd 3df2 f8b9
000000e0: d3c6 b6bd 5e25 b53d 7a8a 763c e4dd b6bd
000000f0: 834f 32bc 2f97 8ebd b110 d9bc 79a5 efbc
00000100: 1beb 16bc 4430 02bd ed9b 16bc 1e61 84bc
00000110: e042 ecbc 93e5 18bc c881 473b d4ec c33c
00000120: b215 be3a 4c22 5ebc 3527 10bd 1ee2 5cbc
00000130: 2d37 06bc 438d f73b d56c 2bbc dd6b 38bd
00000140: 04cf e43c ea19 d2bb f313 41bd 6993 69bc
00000150: 22d5 d739 a15f 1a3b e4f0 47bc 70f1 04bb
00000160: bf3e 30ba 1e54 90bb e33c aebb d0f8 b9bb
00000170: e5c5 0cbd bff1 84bd 8602 69bc 6e1b 853c
00000180: 480a 92bc a2d4 213c e8dc 963b 534d aabc
00000190: 6901 5dbd b0da 5abc 37e9 123c fd83 80bd
000001a0: bf61 0b3e 5125 38bd 0b23 a6bc 024a 313c
000001b0: a34a 1fbd 9b2a ef3d 075b 4dbd e444 8d3d
000001c0: bdf6 133c d61b d73b 3522 09bc 1ddd 2bbc
000001d0: 284a e8bc d61e 433c 34b4 3dbd 4a0c 17bc
000001e0: b3ac 7ebd 305c 8e3d cb10 7b3c 6a90 64bd
000001f0: ebb4 a3bb 190a 54bd f248 87bc 724d cebc
00000200: 17de 9e3c c7cd a1bb 03cf d4bb b77f 443c
00000210: 8ec9 1d3d b576 8bbc 7984 343c d5dd f83c
00000220: abd4 833b d968 d03b d0c8 d73c b5e9 fe3b
00000230: 4a1c ca3b 3e61 283c 52f9 9c3b f329 1cbc
00000240: 7c67 d03b c9c2 3f3d 58dc 863c 35ff 253c
00000250: 5a38 893c 156a 123d cf2d 553c 91fc edbb
00000260: d32b b13b ffdc 443c 1de4 223a 8433 0f3c
00000270: 1613 cdbc 419f 8e3c f76b 2a3c 9e79 113c
00000280: fd56 523c 4b56 133d df15 bd3c 7389 713d
00000290: 83af fc3a 4662 80bb ca60 a53c ed97 173c
000002a0: a858 45bd 5dca a9ba efb9 203d f697 b23a
000002b0: 9822 803d f024 adbd ff6c 2d3c a8a7 b1bd
000002c0: e972 3e3b 26a7 d73c 9f4e c9bb a0a7 80b9
000002d0: 0f63 c83c 31bd ae3b 2d6c f93c 0f81 933d
000002e0: 1640 853c 78c3 d2bd 0968 b63c 82bc 8e3c
000002f0: bbb9 dc3c 6c3f ab3b cf0b 85ba 2260 403d
00000300: 50c9 3cbc ac48 91bc 86cd 5abc 0bc2 973b
00000310: 4d19 b83c d3c4 c3bc feae 283c 85d1 eb3c
00000320: 2306 b63b ceb1 323b d084 7fbb b56f 043b
00000330: 84f0 02bb 8754 7c3c cb1a 933a 28e7 83bc
00000340: 629c cb3c 9e55 a73c 0dcf 5cbc 6b35 b83b
00000350: 80ad 493c 5feb 983c 1d87 f03b 7651 2fbc
00000360: 0f6b 8e3b 88b2 0a3c e1c4 b0ba f8f5 cf3b
00000370: 9e34 f5bc 13f5 a7bc 9725 743b a85f 843c
00000380: 16c9 8d3b 155e f63c 4c16 863c c2d6 d53c
00000390: 2ead 63bc 05f1 52bc c60f ba3c 2b04 bdbc
000003a0: 402f 843d f45e 84bc 8789 783c 4e41 ae3b
000003b0: 9de1 a83c a8d2 343d fa73 6ebc 6bcf 723c
000003c0: e381 ba3b 8d8e bf3c 263b 4ebc 097f 0bbc
000003d0: 00a7 0f3b 3d44 123c 650c 5a3c b19c 613d
000003e0: a921 90bc 296f 6d3b 18df a53c fe96 8ebc
000003f0: 12b6 c23c 3d11 36bc 4618 22bc bef7 963c

bias f4 [32]
0.03191745 0.01967096 -0.11692497 0.08142684 -0.0054338216 -0.09221626 -0.100785054 -0.11702649
0.06381173 -0.0893612 0.07565368 0.04911014 0.021977505 -0.13387635 -0.13531947 -0.005794481
-0.054961734 0.07204168 0.050589375 -0.08068265 -0.14872621 -0.16655241 0.051281754 -0.26854327
-0.014642042 0.08085496 -0.1726039 -0.08460473 -0.015288633 -0.022440964 -0.15683897 0.07779301
00000000: dfbb 023d fe24 a13c 5c76 efbd 1dc3 a63d
00000010: 330e b2bb e1db bcbd 6568 cebd 96ab efbd
00000020: b9af 823d 0103 b7bd 51f0 9a3d b727 493d
00000030: 2b0a b43c e216 09be 3091 0abe a1df bdbb
00000040: 8e1f 61bd 978a 933d ce36 4f3d f23c a5bd
00000050: af4b 18be b78c 2abe d10c 523d 817e 89be
00000060: 2de5 6fbc 4997 a53d 14bf 30be 3f45 adbd
00000070: 2d7d 7abc 1dd6 b7bc 659a 20be f151 9f3d

weight f4 [32, 1]
-0.01124965 -0.12753345 0.12735647 -0.12963593 -0.12863564 -0.12993796 0.12231506 0.12644252
-0.12936117 -0.10868055 -0.12867214 -0.12224166 -0.12879643 -0.08210313 0.12719381 0.0044409633
0.0923497 -0.07871069 0.12729047 -0.10863979 0.12719347 0.104688086 0.12526064 -0.12939711
0.12674566 0.12772092 0.12727529 0.023115816 0.12634675 0.1269065 -0.12955122 0.1269426
00000000: 7450 38bc 2198 02be bc69 023e 48bf 04be
00000010: 10b9 03be 750e 05be 5180 fa3d 267a 013e
00000020: 4177 04be e893 debd a1c2 03be d659 fabd
00000030: 36e3 03be b025 a8bd 183f 023e 8085 913b
00000040: d721 bd3d 1233 a1bd 6f58 023e 8a7e debd
00000050: 013f 023e b566 d63d 5344 003e ad80 04be
00000060: 9dc9 013e 46c9 023e 7454 023e 615d bd3c
00000070: 0b61 013e c7f3 013e 13a9 04be 3efd 013e

bias f4 [32]
-0.030529479 0.3801636 -0.55882883 0.71040297 0.4813661 0.8071735 -0.20379193 -0.33806938
0.67668533 0.051916692 0.48456126 0.15964076 0.4961974 0.03460598 -0.58849144 -0.023121938
-0.09933642 0.03454645 -0.6905419 0.053615533 -0.54811245 -0.04179765 -0.28074446 0.64986634
-0.36314714 -0.5946614 -0.6468631 -0.031554043 -0.331737 -0.3767982 0.677423 -0.8153744
00000000: f518 fabc cea4 c23e 680f 0fbf f8dc 353f
00000010: 9e75 f63e eca2 4e3f d5ae 50be 6e17 adbe
00000020: 403b 2d3f 99a6 543d 6a18 f83e de78 233e
00000030: 960d fe3e 00bf 0d3d 60a7 16bf 386a bdbc
00000040: e570 cbbd 9480 0d3d 5bc7 30bf f69b 5b3d
00000050: 1951 0cbf 0334 2bbd bdbd 8fbe a45d 263f
00000060: 6cee b9be bb3b 18bf d298 25bf d03e 01bd
00000070: 6fd9 a9be b2eb c0be 986b 2d3f 60bc 50bf

weight f4 [64, 32]
0.026110975 -0.008031983 0.009816194 -0.0065123686 -0.007532433 -0.006276202 0.013810084 0.011819897
-0.0066500823 -0.016360618 -0.0074170595 -0.011290552 -0.007272645 -0.018053439 0.009669681 0.00870975
0.016230837 -0.01788527 0.009070097 -0.016163116 0.010065272 0.03435069 0.012605785 -0.0066732666
0.011540664 0.009598013 0.009314762 0.008060022 0.011867775 0.011362719 -0.006716008 0.008639894
0.012239074 -0.038468175 0.036474288 -0.039059974 -0.038735133 -0.039093245 0.032999065 0.035092797
-0.038941596 -0.030751374 -0.03873358 -0.036829405 -0.03878031 -0.025485244 0.036451045 0.018825218
0.027878152 -0.0248805 0.03693801 -0.030890893 0.036414307 0.053261776 0.03442196 -0.038922373
0.035314996 0.036539175 0.036750466 0.04640335 0.035035886 0.035269883 -0.03891616 0.037191037
0.022120487 0.008368992 0.0032507458 0.010367716 0.009165358 0.010573471 0.009934133 0.0066425446
0.01011647 -0.0018159491 0.009193255 0.004624173 0.009309028 -0.0050997674 0.0028688947 0.005662595
0.013709314 -0.005346236 0.0016312659 -0.0015671914 0.003387179 0.0031072902 0.008069237 0.009967178
0.0061955457 0.0027653517 0.0022483997 0.001464106 0.0069061094 0.006061398 0.010190333 0.00060661806
0.022044936 0.0082112355 -0.00040366247 0.010331497 0.008942428 0.010498095 0.005078757 0.002365115
0.010020253 -0.003043586 0.009145037 0.0037875548 0.009169928 -0.0052610575 -0.0008068878 0.002206667
0.0074885185 -0.0048465016 -0.0018266559 -0.0028643128 -0.00041140697 0.019517338 0.0034910925 0.010005838
0.0019516383 -0.00088559685 -0.001371675 -0.026799925 0.0025801065 0.0017452433 0.0101043675 -0.0026394376
0.011384044 -0.02285117 0.021733202 -0.023747284 -0.023218095 -0.023889197 0.019604383 0.020711605
-0.02368967 -0.020063397 -0.02308545 -0.021011243 -0.023292618 -0.019168945 0.02193295 0.009204446
0.01761378 -0.018745225 0.022270352 -0.020046188 0.02178407 0.003424326 0.020320088 -0.023567665
0.020922065 0.021973446 0.02199761 0.037920084 0.020800745 0.021013765 -0.023552297 0.02238445
0.024333645 0.013851567 -0.0030419552 0.01498885 0.014246526 0.01519096 0.0020997592 -0.00048049734
0.014919499 0.009233161 0.014361284 0.012002808 0.014305128 0.007720914 -0.0034056448 0.009806797
0.0056315903 0.0075412192 -0.0043076077 0.009377065 -0.0030101594 0.013672981 0.00043888958 0.014847309
-0.0007964357 -0.0034108858 -0.0038392458 0.049672782 -0.00038816905 -0.0010790651 0.014844882 -0.00518497
0.022622883 -0.03688299 0.035474245 -0.03650897 -0.03671854 -0.036502883 0.03527609 0.035375617
-0.036648855 -0.038166724 -0.036783222 -0.03725614 -0.03665915 -0.036139514 0.035500597 0.022335662
0.03360537 -0.035711497 0.035565276 -0.038190313 0.03558108 0.010181808 0.03533989 -0.03649253
0.035449605 0.035445496 0.035430852 0.018568687 0.03541743 0.03556851 -0.036492534 0.03556831
0.027911482 -0.011806175 0.012940244 -0.011404685 -0.0116342725 -0.011376091 0.014435893 0.013629123
-0.011437169 -0.014169906 -0.011636427 -0.012725149 -0.011671668 -0.015398004 0.012871802 0.019432537
0.015657948 -0.015486681 0.0127380965 -0.014234114 0.012976894 0.017515948 0.01395524 -0.011394934
0.013666785 0.012858268 0.012848942 0.0087598525 0.013642687 0.013482689 -0.011502599 0.012506259
00000000: afe6 d53c 9498 03bc 1ad4 203c b565 d5bb
00000010: a1d2 f6bb 99a8 cdbb b143 623c 3ea8 413c
00000020: efe8 d9bb b406 86bc ce0a f3bb 02fc 38bc
00000030: 5e4f eebb cee4 93bc 956d 1e3c 57b3 0e3c
00000040: 88f6 843c 2184 92bc be9a 143c 8368 84bc
00000050: d0e8 243c 4fb3 0c3d 7f88 4e3c 6bab dabb
00000060: 0e15 3d3c fc40 1d3c f29c 183c 2f0e 043c
00000070: 0e71 423c b32a 3a3c f511 dcbb 588e 0d3c
00000080: 6686 483c ce90 1dbd 1066 153d 5afd 1fbd
00000090: bba8 1ebd 3d20 20bd 072a 073d 77bd 0f3d
000000a0: 3981 1fbd 4eea fbbc 1aa7 1ebd 6eda 16bd
000000b0: 1ad8 1ebd 6ec6 d0bc b14d 153d 5837 9a3c
000000c0: b960 e43c 31d2 cbbc 504c 173d e60e fdbc
000000d0: 2b27 153d 0529 5a3d 0bfe 0c3d 116d 1fbd
000000e0: 75a6 103d 1aaa 153d a887 163d 7011 3e3d
000000f0: ca81 0f3d 2777 103d 8d66 1fbd a155 183d
00000100: 0636 b53c 191e 093c 770a 553b 5add 293c
00000110: 4c2a 163c 5a3c 2d3c c6c2 223c b4a9 d93b
00000120: 8dbf 253c 2405 eeba 4e9f 163c 6086 973b
00000130: e584 183c f31b a7bb 1104 3c3b 4a8d b93b
00000140: 089d 603c 7a2f afbb 33d0 d53a 386a cdba
00000150: 6ffb 5d3b aea3 4b3b d534 043c 604d 233c
00000160: 0104 cb3b e73a 353b e359 133b 3fe7 bf3a
00000170: a54c e23b b19e c63b 5bf5 263c 7305 1f3a
00000180: 9597 b43c 6b88 063c a9a2 d3b9 7045 293c
00000190: 4383 123c 3400 2c3c b46b a63b 0c00 1b3b
000001a0: fd2b 243c e676 47bb 11d5 153c a038 783b
000001b0: 773d 163c f364 acbb 5385 53ba bb9d 103b
000001c0: 3f62 f53b 67cf 9ebb 676c efba 32b7 3bbb
000001d0: 1cb2 d7b9 d3e2 9f3c d0ca 643b 87ef 233c
000001e0: 1dce ff3a 6627 68ba c7c9 b3ba 848b dbbc
000001f0: 0117 293b a6c0 e43a ca8c 253c 6afa 2cbb
00000200: 2484 3a3c 6032 bbbc d409 b23c aa89 c2bc
00000210: e033 bebc 47b3 c3bc 5f99 a03c 62ab a93c
00000220: d710 c2bc fe5b a4bc b31d bdbc c51f acbc
00000230: 29d0 bebc 3108 9dbc bbac b33c 3fce 163c
00000240: c64a 903c 968f 99bc 5070 b63c e737 a4bc
00000250: 8274 b23c a86a 603b 5076 a63c fa10 c1bc
00000260: c064 ab3c a801 b43c 5534 b43c 1752 1b3d
00000270: 5366 aa3c 0f25 ac3c bff0 c0bc 985f b73c
00000280: 5a57 c73c aff1 623c 8a5b 47bb cb93 753c
00000290: 436a 693c 81e3 783c 1d9c 093b 43eb fbb9
000002a0: ea70 743c af46 173c 974b 6b3c 6da7 443c
000002b0: 0e60 6a3c b9ff fc3b 3d31 5fbb b0ac 203c
000002c0: 3489 b83b 551c f73b d526 8dbb 43a2 193c
000002d0: 1846 45bb a404 603c c31a e639 2142 733c
000002e0: e5c7 50ba 2b89 5fbb db9b 7bbb b075 4b3d
000002f0: 2b83 cbb9 6b6f 8dba f337 733c aee6 a9bb
00000300: a053 b93c 9e12 17bd 714d 113d 6e8a 15bd
00000310: 2e66 16bd 0c84 15bd a97d 103d 06e6 103d
00000320: 1c1d 16bd b654 1cbd 01aa 16bd e599 18bd
00000330: e827 16bd 0707 14bd 1369 113d 47f9 b63c
00000340: c9a5 093d 3846 12bd e5ac 113d 726d 1cbd
00000350: 77bd 113d 99d1 263c 8fc0 103d 3179 15bd
00000360: 9b33 113d 4c2f 113d f11f 113d 5c1d 983c
00000370: de11 113d 49b0 113d 3279 15bd 14b0 113d
00000380: 9fa6 e43c b06e 41bc 5103 543c b7da 3abc
00000390: ad9d 3ebc c962 3abc 8684 6c3c af4c 5f3c
000003a0: f762 3bbc e528 68bc b6a6 3ebc 257d 50bc
000003b0: 863a 3fbc e947 7cbc 40e4 523c fc30 9f3c
000003c0: 1945 803c d9bb 7dbc 73b3 503c 3436 69bc
000003d0: 0a9d 543c 9b7d 8f3c 85a4 643c d1b1 3abc
000003e0: a7ea 5f3c 7cab 523c 5e84 523c 7c85 0f3c
000003f0: 9485 5f3c 7fe6 5c3c 6675 3cbc 0de7 4c3c

bias f4 [64]
-0.026126744 0.13330251 -0.1534374 -0.092713654 0.08512729 -0.14526834 0.09559692 -0.025031105
0.01771425 0.13043016 0.06838265 -0.062086556 -0.119559415 -0.034737002 -0.0848824 0.045869127
-0.041907627 -0.0085163815 -0.12490067 -0.019503763 -0.14072867 -0.12030119 0.037641075 -0.028757462
-0.022775913 0.10897416 -0.14508095 0.045318738 0.08861969 -0.074377954 0.021621026 -0.093646266
0.052488953 -0.10552305 -0.14141347 0.06754814 -0.032101233 -0.06706212 -0.029863805 0.07123377
-0.12362097 -0.029687766 -0.113383085 -0.030950174 0.07228456 -0.08180372 -0.025645906 0.05518835
-0.012250957 -0.07585651 0.0022867557 0.05075851 0.00420161 0.09242292 0.04626472 -0.12837137
-0.08756615 0.020254364 -0.10726994 -0.028869784 -0.0806768 -0.10605771 -0.13228145 -0.12960167
00000000: c107 d6bc 7480 083e b21e 1dbe a8e0 bdbd
00000010: 3757 ae3d 39c1 14be 51c8 c33d 080e cdbc
00000020: 7a1d 913c 7c8f 053e 340c 8c3d 794e 7ebd
00000030: 91db f4bd 6348 0ebd d3d6 adbd 44e1 3b3d
00000040: 55a7 2bbd 4b88 0bbc eccb ffbd 5bc6 9fbc
00000050: 2d1b 10be 7860 f6bd 872d 1a3d c594 ebbc
00000060: 8d94 babc d82d df3d 1a90 14be 24a0 393d
00000070: 3d7e b53d 7853 98bd 941e b13c 9dc9 bfbd
00000080: a8fe 563d 781c d8bd b1ce 10be ae56 8a3d
00000090: 957c 03bd dd57 89bd f0a4 f4bc 03e3 913d
000000a0: fe2c fdbd c233 f3bc 6435 e8bd 388b fdbc
000000b0: ed09 943d b588 a7bd 5d17 d2bc 2e0d 623d
000000c0: 3db8 48bc a85a 9bbd 65dd 153b 28e8 4f3d
000000d0: a9ad 893b 3a48 bd3d 1380 3d3d c973 03be
000000e0: e255 b3bd 7bec a53c 58b0 dbbd 5380 ecbc
000000f0: e139 a5bd c934 d9bd ca74 07be 4db6 04be

weight f4 [32, 64]
0.016599098 0.0021294893 0.012057069 0.011624698 0.0030269877 0.014272955 -0.0028718456 0.018956902
-0.004128063 0.00029976707 0.020713674 0.0022674827 0.01459782 0.010490043 -0.0019080963 -0.036448058
0.029409619 0.0030417177 0.016794084 0.040606044 0.016311418 0.030745381 0.0046715797 -0.009767095
0.007844602 0.002920746 0.01002895 -0.00396438 -0.0074142246 -0.0148874335 -0.032607183 0.012865525
0.0038097885 0.01476364 0.007193798 0.017496202 0.0007911765 0.022083327 0.0066709663 -0.011070716
0.016117355 0.009739513 0.01048193 0.0035672789 0.0039924 0.005001128 0.0011452403 -0.001568454
0.0039148815 0.0018913238 0.019409724 -0.017183837 -0.018684363 0.0021959662 -0.005755921 0.009882696
0.013294715 -0.0024461949 0.033673268 0.005168387 0.011124795 0.014145251 0.014858381 0.015581985
0.027922954 0.0024025028 0.025159178 0.018973492 0.003307844 0.021662187 -0.0025738133 0.022411587
-0.0004807486 -0.0010916304 0.020392003 0.0019506293 0.01893274 0.017397666 0.012411281 -0.03724725
0.036454264 0.006306791 0.021607347 0.0474946 0.022310784 0.039918564 0.00677365 -0.0077088103
0.009865722 0.00923481 0.018455146 0.001499226 -0.004499067 -0.011829804 -0.030459052 0.01339486
0.0062626353 0.018968051 0.010600985 0.02088629 0.00020170616 0.02571348 0.008507431 -0.012704455
0.02091168 0.016199466 0.009486634 0.0056924447 0.0036732126 0.0050103115 0.0038263656 -0.00066521845
0.005889648 0.0023194104 0.026966652 -0.013104964 -0.014516832 0.004037704 -0.0005188649 0.01798643
0.018187815 0.00086050085 0.043746732 0.004377094 0.015364426 0.018302731 0.019211013 0.020545699
0.013805213 0.0006645742 0.03169351 0.027475044 0.00069173716 0.015248437 0.0005245842 0.010567129
-0.0031092393 -0.0014827072 -0.00767573 0.0015998146 -0.0008654851 0.0061914697 -0.008509911 -0.03747801
0.03272634 0.008255661 0.0067300424 0.009241039 0.008325081 0.021242088 0.002669251 -0.01612102
-0.0017188301 -0.005893401 0.022521904 -0.005422408 -0.009666006 -0.027888289 0.0033730986 -0.036733825
0.0013367597 -0.0040404904 0.009721098 -0.009865009 -0.00028508078 0.034538083 0.015910735 -0.014129976
0.005316013 0.0024813993 -0.036168635 0.0058223493 0.00064561877 -0.004916528 -0.0009432215 0.0009426734
0.0099068275 0.009012658 0.010505766 -0.008332012 -0.04419007 0.0012662725 -0.006972974 0.028004762
0.016914578 0.008423057 0.04596252 0.00737416 -0.027436534 -0.003076955 0.0004453502 0.0023024713
0.016574252 0.0022488928 0.023737473 0.02274076 0.0021245065 0.011362573 -0.001111928 0.009129155
-0.003980275 -0.0009526526 0.006377635 0.0018167836 -0.0012479039 0.005655292 0.007504312 -0.037705645
0.037412647 0.006948106 0.0050031324 0.027999863 0.0069048605 0.035724074 0.003768154 -0.010730917
0.0014352667 0.008072382 0.014948347 -0.004272799 -0.008428171 -0.019833218 -0.010935054 -0.006434453
0.0027063147 -0.0036218613 0.0074988436 0.0036314088 0.00027994253 0.03175497 0.012052012 -0.016342506
0.0039516683 0.0025567622 -0.02001162 0.004905876 0.0020620364 0.0040577264 -0.0008538965 0.001039879
0.008079867 0.0068672826 0.01559009 -0.010227583 -0.031033989 0.0037357204 -0.0060510426 0.02137086
0.0184255 0.006249523 0.045675863 0.0060066585 -0.011063063 -0.0029620044 0.00027495026 0.0015945222
00000000: d5fa 873c e78e 0b3b 038b 453c 8475 3e3c
00000010: 6d60 463b 1dd9 693c 9335 3cbb 814b 9b3c
00000020: b444 87bb 0e2a 9d39 b9af a93c 0c9a 143b
00000030: b22b 6f3c 6ede 2b3c 1619 faba 8f4a 15bd
00000040: 71ec f03c 8e57 473b bf93 893c 8652 263d
00000050: 869f 853c bddd fb3c 0d14 993b 2a06 20bc
00000060: a586 003c fd69 3f3b 7750 243c a1e7 81bb
00000070: 06f3 f2bb 6cea 73bc 1c8f 05bd ecc9 523c
00000080: a5ad 793b 32e3 713c f4b9 eb3b 3254 8f3c
00000090: f566 4f3a 18e8 b43c 1f98 da3b f361 35bc
000000a0: 8b08 843c 7a92 1f3c 67bc 2b3c 02c9 693b
000000b0: aed2 823b 81e0 a33b e31b 963a 9594 cdba
000000c0: 6848 803b 4ce6 f73a 2401 9f3c 1ec5 8cbc
000000d0: f30f 99bc 33ea 0f3b 2a9c bcbb 08eb 213c
000000e0: 14d2 593c 5750 20bb fbec 093d 935b a93b
000000f0: c644 363c 7cc1 673c 9170 733c 954b 7f3c
00000100: aebe e43c 4f73 1d3b 9f1a ce3c 4c6e 9b3c
00000110: 6ac8 583b e674 b13c 6cad 28bb 8198 b73c
00000120: fc0c fcb9 0a15 8fba 210d a73c 42ac ff3a
00000130: d518 9b3c 8d85 8e3c af58 4b3c 9390 18bd
00000140: 1151 153d 33a9 ce3b e401 b13c b389 423d
00000150: 1bc5 b63c a681 233d 7ff5 dd3b 309a fcbb
00000160: d6a3 213c 9a4d 173c 3f2f 973c ad81 c43a
00000170: e96c 93bb cbd1 41bc 4385 f9bc 1d76 5b3c
00000180: cb36 cd3b e362 9b3c c1af 2d3c ba19 ab3c
00000190: 1681 5339 13a5 d23c c062 0b3c 5926 50bc
000001a0: f94e ab3c beb4 843c d46d 1b3c b087 ba3b
000001b0: 48ba 703b 8a2d a43b c3c3 7a3b 0e62 2eba
000001c0: f3fd c03b 4001 183b 2be9 dc3c 34b6 56bc
000001d0: 02d8 6dbc b74e 843b 6f04 08ba 4758 933c
000001e0: 9dfe 943c 3c93 613a c62f 333d ba6d 8f3b
000001f0: 13bb 7b3c 9cef 953c 6a60 9d3c 744f a83c
00000200: 432f 623c d236 2e3a 0ed1 013d 5813 e13c
00000210: b255 353a 95d4 793c 4084 093a c021 2d3c
00000220: 61c4 4bbb 6657 c2ba b184 fbbb dfb0 d13a
00000230: b9e1 62ba d0e1 ca3b 276d 0bbc 8b82 19bd
00000240: 0e0c 063d c142 073c b087 dc3b ba67 173c
00000250: ec65 083c e303 ae3c 9aee 2e3b 3b10 84bc
00000260: 5e4a e1ba 6e1d c1bb db7f b83c 75ae b1bb
00000270: 2b5e 1ebc fb75 e4bc 340f 5d3b 3576 16bd
00000280: 3636 af3a 1766 84bb 3d45 1f3c d9a0 21bc
00000290: e576 95b9 ce77 0d3d 3b57 823c 6a81 67bc
000002a0: f331 ae3b f99e 223b 9025 14bd 68c9 be3b
000002b0: be3e 293a d31a a1bb 8642 77ba be1d 773a
000002c0: 3f50 223c d4a9 133c 6020 2c3c fe82 08bc
000002d0: a600 35bd 0ef9 a53a 8c7d e4bb 3e6a e53c
000002e0: 7190 8a3c dd00 0a3c 3243 3c3d f0a2 f13b
000002f0: 95c2 e0bc bda6 49bb e47d e939 0fe5 163b
00000300: bac6 873c 2962 133b 1775 c23c d54a ba3c
00000310: 4e3b 0b3b 162a 3a3c 1dbe 91ba 7492 153c
00000320: f76c 82bb 6fbb 79ba 7bfb d03b 2421 ee3a
00000330: b590 a3ba 0750 b93b bbe6 f53b 3c71 1abd
00000340: 013e 193d f0ac e33b 51f1 a33b f85f e53c
00000350: 2b42 e23b 6853 123d 22f3 763b bad0 2fbc
00000360: 8f1f bc3a 0642 043c e9e9 743c d602 8cbb
00000370: 5016 0abc 4679 a2bc f128 33bc 1bd8 d2bb
00000380: 6d5c 313b c05c 6dbb dcb8 f53b eefc 6d3b
00000390: 40c5 9239 8011 023d cd75 453c b8e0 85bc
000003a0: ff7c 813b 5a8f 273b 69ef a3bc 78c1 a03b
000003b0: 3b23 073b adf6 843b 06d8 5fba 8d4c 883a
000003c0: 6b61 043c f106 e13b 946d 7f3c 9891 27bc
000003d0: fe3a febc fdd2 743b d347 c6bb f111 af3c
000003e0: 13f1 963c ccc8 cc3b 9d16 3b3d 81d3 c43b
000003f0: d941 35bc 301e 42bb 3327 9039 49ff d03a

bias f4 [32]
0.087374635 -0.06702946 -0.13163541 -0.15542991 0.060829308 -0.17339937 -0.10165621 -0.009175181
0.084013805 0.058063403 -0.030564219 0.10832114 -0.051707637 0.07187461 -0.08435655 -0.112032056
-0.09189864 -0.12937081 0.044778224 -0.078344576 -0.1255617 -0.08088467 -0.0629814 -0.0009783291
0.04005105 -0.1419925 0.10644381 -0.17065904 -0.15202543 -0.15258801 -0.047556818 0.09627651
00000000: 79f1 b23d be46 89bd 6fcb 06be 0529 1fbe
00000010: 2728 793d 9b8f 31be 2231 d0bd 8053 16bc
00000020: 6e0f ac3d e4d3 6d3d d061 fabc 79d7 dd3d
00000030: 63cb 53bd ff32 933d 20c3 acbd 1071 e5bd
00000040: 5b35 bcbd c879 04be 5f69 373d 1f73 a0bd
00000050: 3f93 00be dda6 a5bd 64fc 80bd 473b 80ba
00000060: 920c 243d 7b66 11be 36ff d93d 3ec1 2ebe
00000070: 8eac 1bbe 0840 1cbe f0ca 42bd 9e2c c53d
