checkpoints/fico_honam2_emb32_3.pt (torch, 504282 bytes, 278 tensors)

weight f4 [32, 1]
0.2710167 0.27246276 0.27184135 0.27026558 0.24227236 0.273703 0.27044633 0.3063766
-0.20856796 0.27985644 0.2738843 0.27057916 -0.27153012 0.28579095 0.27052897 0.2875551
0.27393228 -0.27503783 -0.2714743 0.27079812 0.28016424 -0.27438194 -0.27195635 -0.25418857
0.27114564 -0.27406055 -0.27128524 0.27087188 -0.27262536 -0.16878454 0.27075756 0.27023342
00000000: b3c2 8a3e 3d80 8b3e ca2e 8b3e 4060 8a3e
00000010: 3f16 783e cd22 8c3e f177 8a3e 65dd 9c3e
00000020: d792 55be 5849 8f3e 903a 8c3e 5a89 8a3e
00000030: ff05 8bbe 3153 923e c682 8a3e 6c3a 933e
00000040: da40 8c3e c2d1 8cbe aefe 8abe 0da6 8a3e
00000050: b071 8f3e ca7b 8cbe dd3d 8bbe 0125 82be
00000060: 9ad3 8a3e aa51 8cbe e6e5 8abe b8af 8a3e
00000070: 8d95 8bbe dbd5 2cbe bca0 8a3e 095c 8a3e

bias f4 [32]
-0.685719 -0.8573819 -0.8278303 -0.4611664 -0.255761 -0.94964445 -0.43771836 0.016391063
0.20002729 -0.03707899 -0.027457368 -0.6164838 0.48689467 -0.18497796 -0.64890784 -0.18507636
-0.03631135 0.8905443 0.49559665 -0.37450284 -0.03703644 0.850492 0.61445117 0.23800826
-0.33020103 0.8001338 0.40455228 -0.4153524 0.68027294 0.16187723 -0.703559 -0.4131886
00000000: 488b 2fbf 617d 5bbf b0ec 53bf 011e ecbe
00000010: 1bf3 82be e61b 73bf 9f1c e0be 8d46 863c
00000020: f4d3 4c3e 24e0 17bd 46ee e0bc e2d1 1dbf
00000030: 424a f93e dd6a 3dbe d31e 26bf a884 3dbe
00000040: 36bb 14bd b6fa 633f d8be fd3e d6be bfbe
00000050: 86b3 17bd d8b9 593f ac4c 1d3f 70b8 733e
00000060: 1c10 a9be 92d5 4c3f 7a21 cf3e 12a9 d4be
00000070: 5e26 2e3f 25c3 253e 711c 34bf 758d d3be

weight f4 [64, 32]
0.015342949 0.007436215 0.008443581 0.03639566 0.1093511 0.0045796833 0.040161174 0.2546682
-0.16080521 0.20393366 0.20804456 0.01993806 -0.033594362 0.20549662 0.01755606 0.19254333
0.20420675 -0.006342228 -0.03245911 0.05305077 0.20427904 -0.0077407164 -0.020438038 -0.11633399
0.065346636 -0.009924793 -0.047140013 0.044448193 -0.015873969 -0.1788418 0.014217495 0.04439135
0.024918236 0.025259681 0.025289953 0.023613648 0.020343237 0.02546917 0.023449656 -0.049109593
-0.016296877 -0.032468658 -0.031216944 0.02457618 -0.02249307 -0.04905694 0.024806863 -0.046066172
-0.03304125 -0.024248958 -0.022542834 0.022573965 -0.032207437 -0.024153257 -0.023221374 -0.017838009
0.022030475 -0.024043566 -0.021597901 0.023237893 -0.023643421 -0.012447548 0.024861919 0.023208708
-0.057437252 -0.05414545 -0.054659113 -0.06573006 -0.09201472 -0.05298321 -0.06704195 -0.16071771
0.14622998 -0.12338383 -0.11534339 -0.059430122 0.07547779 -0.12290297 -0.058424447 -0.10750621
-0.12165334 0.058767397 0.07484626 -0.07163832 -0.1235948 0.059647113 0.067668706 0.11788145
-0.075716734 0.06101878 0.08316212 -0.06853972 0.06487968 0.1591286 -0.057070147 -0.06851909
-0.06462721 -0.060986876 -0.06143067 -0.07397898 -0.102054715 -0.059548847 -0.075465575 -0.17459047
0.15159543 -0.14457181 -0.13711347 -0.06677544 0.084767096 -0.1592084 -0.06566261 -0.1424303
-0.1447465 0.06717338 0.08401318 -0.080646 -0.14399883 0.06807147 0.07650558 0.12790285
-0.08546186 0.0695445 0.092905745 -0.07721107 0.073522605 0.16229713 -0.06409035 -0.07722578
0.006699621 -0.0014000412 -0.00040600557 0.028377203 0.10402243 -0.004361369 0.03219923 0.25497064
-0.16103972 0.20571713 0.2116925 0.011477 -0.027017089 0.20392102 0.008921846 0.1904584
0.20658875 0.00083466276 -0.025823059 0.04532993 0.20607772 -0.00045198938 -0.013463281 -0.11295824
0.05843026 -0.0025428878 -0.04106429 0.03657797 -0.008914687 -0.18272062 0.005490166 0.03647259
-0.016775217 -0.009463298 -0.010430834 -0.034470145 -0.0819279 -0.006778149 -0.03741431 -0.25802082
0.20831774 -0.16827299 -0.18232706 -0.020725446 0.04475472 -0.14353977 -0.01865301 -0.13245814
-0.16456246 0.01134078 0.043234885 -0.047495846 -0.16902962 0.012950702 0.028430989 0.15955794
-0.056872312 0.015529586 0.06226765 -0.04075053 0.022801807 0.22276928 -0.015665265 -0.040856108
-0.006367118 -0.0003416629 -0.0012120691 -0.02085544 -0.061232496 0.0019489086 -0.023315178 -0.22924028
0.1811272 -0.13705885 -0.1514036 -0.009752198 0.029736198 -0.115990505 -0.008072089 -0.101142764
-0.13353686 0.0014335385 0.028419998 -0.03132293 -0.13798669 0.0028782382 0.015888514 0.13156578
-0.038672477 0.004923974 0.044746555 -0.025963798 0.011325659 0.19554873 -0.005609833 -0.025966486
0.027877944 0.02734413 0.027345821 0.02944174 0.033093292 0.027235541 0.02967747 -0.030646747
-0.034991927 0.0002497295 -0.022973863 0.028356997 -0.028395658 -0.008589017 0.02816097 -0.006106189
0.00030553006 -0.026425991 -0.028453177 0.030636374 -0.00047924469 -0.026604535 -0.027515227 -0.03444077
0.031682324 -0.026770327 -0.029473128 0.030087283 -0.027149534 -0.035433583 0.027755141 0.030072534
00000000: fe60 7b3c 7eab f33b f256 0a3c 9e13 153d
00000010: 78f3 df3d 2b11 963b 0b80 243d df63 823e
00000020: 1faa 24be fcd3 503e a209 553e 2455 a33c
00000030: 3e9a 09bd b56d 523e bad1 8f3c 142a 453e
00000040: 931b 513e 77d2 cfbb d8f3 04bd c44b 593d
00000050: 862e 513e d6a5 fdbb ac6d a7bc 8440 eebd
00000060: 75d4 853d 999b 22bc e315 41bd 4f0f 363d
00000070: 200a 82bc 4e22 37be 7ff0 683c b4d3 353d
00000080: 5421 cc3c 64ed ce3c e02c cf3c 6971 c13c
00000090: dca6 a63c b9a4 d03c 7e19 c03c 2427 49bd
000000a0: 0781 85bc dbfd 04bd adba ffbc fc53 c93c
000000b0: 6343 b8bc eeef 48bd c337 cb3c e2af 3cbd
000000c0: 4356 07bd c0a5 c6bc c0ab b8bc 09ed b83c
000000d0: f2eb 03bd 0ddd c5bc c03a bebc 0421 92bc
000000e0: 4179 b43c 03f7 c4bc 15ee b0bc 655d be3c
000000f0: d9af c1bc cdf0 4bbc 39ab cb3c 3020 be3c
00000100: 5343 6bbd 9fc7 5dbd 3ce2 5fbd 7b9d 86bd
00000110: 3772 bcbd ec04 59bd 4a4d 89bd 2f93 24be
00000120: 50bd 153e a9b0 fcbd 2839 ecbd 006d 73bd
00000130: 1994 9a3d 8db4 fbbd 794e 6fbd 372c dcbd
00000140: 6325 f9bd 15b6 703d ff48 993d 1db7 92bd
00000150: 451f fdbd 8850 743d e495 8a3d d46b f13d
00000160: 6011 9bbd d4ee 793d e750 aa3d 8d5e 8cbd
00000170: a3df 843d 9cf2 223e 63c2 69bd bd53 8cbd
00000180: 455b 84bd 60cd 79bd ba9e 7bbd 4b82 97bd
00000190: 1002 d1bd 7ee9 73bd b28d 9abd d8c7 32be
000001a0: d53b 1b3e a20a 14be 7967 0cbe 90c1 88bd
000001b0: 5f9a ad3d 8707 23be 1e7a 86bd 40d9 11be
000001c0: 6d38 14be 3292 893d 1a0f ac3d bb29 a5bd
000001d0: 6e74 13be 0e69 8b3d f5ae 9c3d f7f8 023e
000001e0: a106 afbd 596d 8e3d 5e45 be3d d620 9ebd
000001f0: 0593 963d 3831 263e cd41 83bd 8d28 9ebd
00000200: 7f88 db3b 9681 b7ba 25dd d4b9 4f77 e83c
00000210: b609 d53d d1e9 8ebb 57e3 033d 838b 823e
00000220: 99e7 24be 83a7 523e ebc5 583e 070a 3c3c
00000230: f152 ddbc acd0 503e ef2c 123c 8707 433e
00000240: 008c 533e 45cd 5a3a e18a d3bc e0ab 393d
00000250: 0a06 533e fdf8 ecb9 1895 5cbc a656 e7bd
00000260: 9154 6f3d 94a6 26bb 0733 28bd c8d2 153d
00000270: e80e 12bc 1d1b 3bbe dae6 b33b 4864 153d
00000280: 2e6c 89bc f30b 1bbc 17e6 2abc 9130 0dbd
00000290: d1c9 a7bd 3c1b debb bf3f 19bd 4e1b 84be
000002a0: 3f51 553e c14f 2cbe f2b3 3abe 69c8 a9bc
000002b0: ba50 373d 17fc 12be 32ce 98bc 1ba3 07be
000002c0: 1083 28be aece 393c 1017 313d 018b 42bd
000002d0: 1a16 2dbe 2e2f 543c 1be8 e83c 2863 233e
000002e0: f1f2 68bd ce6f 7e3c 5d0c 7f3d 07ea 26bd
000002f0: dbca ba3c a11d 643e 7154 80bc bc58 27bd
00000300: 42a3 d0bb 3821 b3b9 4ade 9eba 07d9 aabc
00000310: edce 7abd 8572 ff3a 79ff bebc f7bd 6abe
00000320: 6979 393e 2859 0cbe 8c09 1bbe afc7 1fbc
00000330: 5499 f33c 6e8c edbd cc40 04bc f023 cfbd
00000340: e3bd 08be 92e5 bb3a 0ed1 e83c 794c 00bd
00000350: 624c 0dbe d3a0 3c3b a128 823c 2eb9 063e
00000360: 0867 1ebd 4a59 a13b 2a48 373d 08b2 d4bc
00000370: 428f 393c ed3d 483e b1d2 b7bb abb7 d4bc
00000380: 4960 e43c cc00 e03c 5804 e03c ce2f f13c
00000390: d58c 073d 121d df3c 2a1e f33c e30e fbbc
000003a0: b253 0fbd 20ee 8239 af33 bcbc ef4c e83c
000003b0: 039e e8bc f3b8 0cbc d6b1 e63c 6d16 c8bb
000003c0: 8d2f a039 527b d8bc a316 e9bc 22f9 fa3c
000003d0: 2243 fbb9 c1f1 d9bc 9d67 e1bc c411 0dbd
000003e0: 53c5 013d 724d dbbc a171 f1bc 9b79 f63c
000003f0: b368 debc ce22 11bd c05e e33c ad5a f63c

bias f4 [64]
0.1548952 -0.015678983 -0.056425545 -0.06386957 0.1197839 -0.19290383 -0.20122136 -0.015496977
0.1441328 -0.20952824 0.1304768 -0.014122296 0.05689826 -0.013280363 -0.06349218 -0.20323904
0.10342148 0.04724807 0.1949008 0.0030392506 0.12559552 0.16096187 0.14297193 0.037242662
0.16258106 -0.04505939 0.17976788 -0.13813502 -0.014207896 -0.119243145 0.15731232 -0.17231995
0.19176953 -0.09062136 -0.08605864 -0.053695284 -0.045544915 -0.11482331 -0.09170251 0.18196797
-0.028052388 -0.08236414 0.04104886 -0.10708179 0.17425111 0.044949282 0.109901324 0.11287833
0.012372288 0.16489488 0.04177352 -0.09044801 -0.09985755 0.08688197 -0.006501043 0.10471535
-0.14214192 -0.07413876 -0.1624763 -0.05870111 0.10409434 -0.04028812 -0.03190746 0.058393843
00000000: d99c 1e3e 3671 80bc 791e 67bd 0dce 82bd
00000010: 4351 f53d 9588 45be f90c 4ebe 08e7 7dbc
00000020: 8c97 133e 928e 56be b69b 053e 3461 67bc
00000030: 260e 693d e195 59bc 3008 82bd e51d 50be
00000040: a4ce d33d 3187 413d 1394 473e 2a2e 473b
00000050: 1d9c 003e 30d3 243e 3c67 123e c38b 183d
00000060: a67b 263e 3290 38bd 1215 383e 4473 0dbe
00000070: 3cc8 68bc c035 f4bd 7b16 213e a474 30be
00000080: 3b5f 443e b197 b9bd 833f b0bd 96ef 5bbd
00000090: 4e8d 3abd 7c28 ebbd 87ce bbbd d055 3a3e
000000a0: 1fce e5bc 88ae a8bd d922 283d b34d dbbd
000000b0: e26e 323e bd1c 383d f213 e13d c12c e73d
000000c0: 23b5 4a3c 34da 283e b61a 2b3d ce3c b9bd
000000d0: 1d82 ccbd 2def b13d b406 d5bb 0075 d63d
000000e0: a78d 11be 10d6 97bd 3060 26be 9370 70bd
000000f0: 6a2f d53d 2805 25bd 66b1 02bd 622e 6f3d

weight f4 [32, 64]
-0.048047032 0.0034113817 0.09259133 0.09966849 -0.061467834 -0.03643018 -0.015771726 -0.023751015
-0.04799566 0.020272486 -0.054804944 -0.050366364 0.024684208 0.13769297 0.100600824 -0.017041057
-0.068202175 0.01779415 0.010587167 0.0008845043 -0.058457404 -0.05065054 -0.04748204 0.017933737
-0.051396657 -0.026084907 -0.004601213 -0.014508539 0.11096751 -0.025521465 -0.04744085 -0.019071806
0.009447812 -0.029213512 0.085457355 0.11402667 0.12459274 -0.026514912 0.08258562 -0.036222693
-0.07775352 -0.021747971 -0.06825882 -0.008535155 -0.02675585 0.019401195 -0.06397808 -0.057680663
-0.008627215 -0.046627317 -0.06871091 -0.029654095 -0.024564927 -0.06652233 -0.019170828 -0.06042036
-0.020699354 0.094475634 0.038232688 0.11295324 -0.066648796 -0.029583437 -0.01433451 0.02004095
0.06963607 -0.015241302 -0.05927845 -0.023177756 0.098726146 -0.03312322 -0.053406365 0.0124986265
0.07497927 -0.055584006 0.08096843 0.056032535 0.052999165 -0.07781164 -0.020252392 -0.053811766
0.11359025 0.047661994 0.061016962 -0.008388474 0.09305775 0.07399749 0.07568515 0.047303837
0.07300831 -0.06449301 0.06383492 -0.066189595 -0.038295917 -0.070556946 0.06841879 -0.05464885
0.06156439 -0.07856299 -0.052813154 -0.024791524 -0.06890004 -0.070348926 -0.05615482 0.066281125
0.008601589 -0.0860153 0.12715103 -0.084123224 0.06402254 0.03955846 0.10756966 0.09277168
-0.0003870871 0.06728759 0.12808819 -0.07796525 -0.08155486 0.11477918 -0.0043468657 0.10060455
-0.064033754 -0.038239285 -0.058845885 -0.02593999 0.11328682 -0.06758652 -0.034780644 0.0704713
0.07471249 -0.025233515 -0.0443751 -0.048299972 0.08305226 -0.016031336 -0.036522906 -0.022152385
0.07785395 -0.038493335 0.08088706 0.05371009 0.038235757 -0.10999047 -0.04865812 -0.036452416
0.08612864 0.042460836 0.05106666 -0.019900152 0.08235293 0.07746773 0.07812527 0.044852715
0.07701078 -0.030484 0.06135352 -0.03614626 -0.07527059 -0.031082358 0.07356901 -0.03846602
0.052505698 -0.028673079 -0.03292187 -0.06572429 -0.09030247 -0.030704329 -0.030842958 0.06996005
-0.0025975448 -0.030850003 0.09407238 -0.034435913 0.06633507 0.037283137 0.08560006 0.08129553
0.0025626179 0.07286799 0.09450855 -0.028475879 -0.031082466 0.08550646 -0.033719134 0.0831591
-0.034409117 -0.044372752 -0.041072674 -0.06515603 0.086458385 -0.029806849 -0.041715786 0.046760798
-0.046625756 0.015480245 0.10405114 0.10844282 -0.06240058 -0.027687475 -0.014236554 -0.007648845
-0.056462985 0.025035137 -0.069620185 -0.031517103 0.014052607 0.14119205 0.1090553 -0.0151552195
-0.06151899 0.012938558 0.009276385 0.009931762 -0.0659302 -0.05321532 -0.057639334 0.00967655
-0.05218073 -0.017220303 -0.0062397476 -0.0014692332 0.12245988 -0.028672546 -0.04342138 -0.015308815
0.008134975 -0.041616797 0.0946759 0.11906045 0.131021 -0.030005185 0.0895937 -0.036296368
0.012508293 -0.019544126 -0.05485935 -0.014689474 -0.027219048 0.018987136 -0.06392918 -0.06335981
-0.0019249521 -0.042422824 -0.05628885 -0.04165303 -0.032987554 -0.058971766 0.0032434124 -0.06143206
-0.0074120127 0.0998761 0.02314839 0.118775025 -0.06222154 -0.020344717 -0.0090004625 0.0041519077
00000000: f7cc 44bd 7d91 5f3b 86a0 bd3d fe1e cc3d
00000010: b2c5 7bbd d037 15bd b533 81bc 7d91 c2bc
00000020: 1997 44bd 7c12 a63c 267b 60bd f64c 4ebd
00000030: 8936 ca3c 63ff 0c3e ce07 ce3d b099 8bbc
00000040: 95ad 8bbd 0ac5 913c cc75 2d3c 14de 673a
00000050: 0871 6fbd f176 4fbd 877c 42bd c6e9 923c
00000060: 4d85 52bd 04b0 d5bc c6c5 96bb 39b5 6dbc
00000070: ef42 e33d 6412 d1bc 5651 42bd 7a3c 9cbc
00000080: ffca 1a3c 2d51 efbc 4404 af3d d186 e93d
00000090: 7a2a ff3d cd35 d9bc a622 a93d 3f5e 14bd
000000a0: 3d3d 9fbd cd28 b2bc 48cb 8bbd 09d7 0bbc
000000b0: 162f dbbc 41ef 9e3c f106 83bd 8f42 6cbd
000000c0: 2a59 0dbc 49fc 3ebd 4eb8 8cbd 25ed f2bc
000000d0: 633c c9bc dc3c 88bd 240c 9dbc 577b 77bd
000000e0: b191 a9bc 717c c13d e199 1c3d 0754 e73d
000000f0: 2a7f 88bd f758 f2bc 4bdb 6abc eb2c a43c
00000100: 5b9d 8e3d a7b6 79bc f6cd 72bd 47df bdbc
00000110: ef30 ca3d 37ac 07bd a2c0 5abd 0ac7 4c3c
00000120: bb8e 993d 0eac 63bd c7d2 a53d 5f82 653d
00000130: a715 593d b65b 9fbd 58e8 a5bc ba69 5cbd
00000140: 01a2 e83d 3939 433d ecec 793d cf6f 09bc
00000150: 1095 be3d ff8b 973d d100 9b3d abc1 413d
00000160: 6185 953d e914 84bd e2bb 823d 698e 87bd
00000170: 2edc 1cbd 2980 90bd 271f 8c3d 79d7 5fbd
00000180: f12a 7c3d a2e5 a0bd 9b52 58bd 9817 cbbc
00000190: 771b 8dbd 1913 90bd 9902 66bd 66be 873d
000001a0: aeed 0c3c ca28 b0bd e133 023e cc48 acbd
000001b0: 401e 833d 0d08 223d 7b4d dc3d 14ff bd3d
000001c0: f3f1 cab9 13ce 893d 8d29 033e 3fac 9fbd
000001d0: 3c06 a7bd 5911 eb3d 2770 8ebb c209 ce3d
000001e0: 2124 83bd cca0 1cbd 6208 71bd 1a80 d4bc
000001f0: ec02 e83d cd6a 8abd 2676 0ebd 4253 903d
00000200: dd02 993d 84b6 cebc aac2 35bd 31d6 45bd
00000210: 4e17 aa3d 2654 83bc 0b99 15bd eb78 b5bc
00000220: e471 9f3d 30ab 1dbd 1da8 a53d 1dff 5b3d
00000230: 199d 1c3d af42 e1bd bd4d 47bd 214f 15bd
00000240: 3664 b03d 6aeb 2d3d 462b 513d a505 a3bc
00000250: a7a8 a83d 67a7 9e3d 2400 a03d 7bb7 373d
00000260: d4b7 9d3d 95b9 f9bc d44d 7b3d 1a0e 14bd
00000270: 7827 9abd 6ea0 febc 59ab 963d 8c8e 1dbd
00000280: 3710 573d cee3 eabc 15d9 06bd 759a 86bd
00000290: 80f0 b8bd a587 fbbc 5faa fcbc 3747 8f3d
000002a0: 923b 2abb 25b9 fcbc 05a9 c03d ac0c 0dbd
000002b0: aeda 873d 34b6 183d 164f af3d 457e a63d
000002c0: 98f1 273b d03b 953d b38d c13d 3f46 e9bc
000002d0: a8a0 febc 031e af3d 131d 0abd 514f aa3d
000002e0: 93f0 0cbd 34c0 35bd d23b 28bd 8670 85bd
000002f0: 1811 b13d 7e2d f4bc 2cde 2abd 4088 3f3d
00000300: a6fa 3ebd dba0 7d3c c418 d53d 4517 de3d
00000310: c097 7fbd d8d0 e2bc 6f40 69bc 2aa3 fabb
00000320: bb45 67bd 7d16 cd3c 0795 8ebd 1418 01bd
00000330: e83c 663c a694 103e 6358 df3d 994d 78bc
00000340: 56fb 7bbd 3ffc 533c fbfb 173c d4b8 223c
00000350: 6a06 87bd 4ff8 59bd 3917 6cbd 648a 1e3c
00000360: 76bb 55bd 9811 8dbc cc76 ccbb 4993 c0ba
00000370: 3fcc fa3d b0e2 eabc 9eda 31bd d3d1 7abc
00000380: 8f48 053c 6076 2abd 70e5 c13d f7d5 f33d
00000390: 5e2a 063e 6fcd f5bc e77c b73d 80ab 14bd
000003a0: 95ef 4c3c 011b a0bc 33b4 60bd 1fac 70bc
000003b0: 7bfa debc e98a 9b3c 4ded 82bd cac2 81bd
000003c0: ad4e fcba 8ec3 2dbd 238f 66bd 5e9c 2abd
000003d0: f51d 07bd 618c 71bd 6e8f 543b 2fa0 7bbd
000003e0: 78e0 f2bb d78b cc3d b1a1 bd3c 5240 f33d
000003f0: 03dc 7ebd f7a9 a6bc ad76 13bc ba0c 883b

bias f4 [32]
0.015790083 0.036893837 -0.05815578 0.06721884 0.08919875 -0.007831469 -0.018219406 -0.033338863
-0.020381875 -0.005836981 -0.009496887 0.044829726 -0.065293916 0.08166805 0.045395527 -0.08500836
-0.021171542 0.053760767 0.08739175 -0.094594784 -0.24560824 -0.05288652 0.09869221 0.037429497
0.09889053 0.005728575 0.070036896 -0.039829638 0.10555256 0.05657254 -0.061389368 -0.04676358
00000000: 345a 813c fe1d 173d c134 6ebd 08aa 893d
00000010: d6ad b63d 904f 00bc dd40 95bc 558e 08bd
00000020: e4f7 a6bc 2544 bfbb d598 1bbc 609f 373d
00000030: d1b8 85bd 9441 a73d a9f0 393d dd18 aebd
00000040: f16f adbc 4034 5c3d 72fa b23d e9ba c1bd
00000050: ba80 7bbe 899f 58bd 241f ca3d ac4f 193d
00000060: 1e87 ca3d c5b6 bb3b 816f 8f3d 6724 23bd
00000070: f12b d83d 9cb8 673d 6b73 7bbd 2b8b 3fbd

weight f4 [32, 1]
0.2904498 -0.27755418 0.25767252 -0.22838975 -0.29628438 0.2662676 -0.23949961 0.2831194
-0.2789118 -0.27588484 -0.29693183 0.26123798 -0.1671673 0.25824285 -0.30322775 0.27796614
-0.27863833 -0.28387278 -0.24041799 0.27055266 -0.30041042 -0.30421206 0.27144325 0.2932935
-0.3012233 -0.17741837 -0.14764257 -0.2986419 0.2607619 0.26635695 0.22713715 -0.25024915
00000000: d6b5 943e 951b 8ebe a7ed 833e 01df 69be
00000010: 96b2 97be 3a54 883e 633f 75be 07f5 903e
00000020: 87cd 8ebe c740 8dbe 7307 98be fcc0 853e
00000030: e82d 2bbe 6838 843e ab40 9bbe 9451 8e3e
00000040: afa9 8ebe c657 91be 2230 76be e185 8a3e
00000050: 65cf 99be afc1 9bbe 9cfa 8a3e 912a 963e
00000060: f139 9abe 29ad 35be 9d2f 17be 97e7 98be
00000070: 9582 853e f05f 883e a496 683e a820 80be

bias f4 [32]
-0.7841076 0.33448294 -0.29866415 0.21506095 0.6794212 0.017576164 0.22741689 -0.6709698
0.3539044 0.30152482 0.6929227 -0.016946191 0.13355686 -0.19977221 0.8165084 -0.5944128
0.34913757 0.45218754 0.22870867 -0.48914507 0.75885385 0.8349626 -0.5031768 -0.8298274
0.7759777 0.16869734 0.09634443 0.7265618 -0.34542704 -0.42887297 -0.23869854 0.23476748
00000000: 47bb 48bf 5941 ab3e 82ea 98be f038 5c3e
00000010: 8cee 2d3f e3fb 8f3c f9df 683e adc4 2bbf
00000020: f532 b53e 7661 9a3e 6263 313f bdd2 8abc
00000030: 21c3 083e 1691 4cbe b206 513f 702b 18bf
00000040: 29c2 b23e 2085 e73e 9b32 6a3e 3971 fabe
00000050: 3f44 423f 1cc0 553f 32d0 00bf 926f 54bf
00000060: 79a6 463f ffbe 2c3e 3b50 c53d f4ff 393f
00000070: d0db b0be 3d95 dbbe 646d 74be e366 703e

weight f4 [64, 32]
0.0016141924 0.0018452435 0.0015386264 0.0042806324 0.00024364528 -0.12093206 0.003927778 0.0015701046
0.0016796984 0.0023683954 0.0003382519 -0.07043246 0.009918437 -0.01508347 0.00012641777 0.0016849457
0.0017222314 0.0011791551 0.0037339462 0.0017492899 0.00024535487 -5.1941777e-05 0.0016712595 0.0014931847
0.00016991059 0.00735743 0.06095115 0.00031001057 0.0016988002 0.0017759978 0.0012768884 0.0033872698
0.013720334 -0.013239411 0.0124903275 -0.012158077 -0.014501656 -0.014384144 -0.012237318 0.013605513
-0.013427081 -0.012839441 -0.0145405615 0.014788008 -0.015366346 -0.032717746 -0.014705317 0.0134593705
-0.013387434 -0.014002569 -0.012208511 0.013304542 -0.014533847 -0.014710123 0.013317809 0.013865151
-0.014642625 -0.013323882 -0.018831367 -0.01466286 0.012721189 0.013129058 0.0120129865 -0.012116345
-0.000758988 0.016743809 -0.0039207847 0.029155837 0.008020843 -0.15832518 0.026961358 -0.0009728936
0.015905926 0.018876942 0.007895864 -0.12464343 0.06113285 -0.027231723 0.0064615863 -0.0012494264
0.016278036 0.012203734 0.026569616 -0.0019056152 0.007024023 0.0063545136 -0.0016972669 -0.0005771473
0.0069545684 0.04581836 0.076728225 0.0074423137 -0.003106938 -0.0022510616 -0.0058450727 0.02535226
0.006028096 -0.0016529523 0.004366185 0.0023124153 -0.004298061 -0.03659921 0.0019426155 0.005829863
-0.0020111664 -0.0011189232 -0.004463795 -0.04599773 0.009827666 0.006247606 -0.0047002556 0.005787616
-0.0017725921 -0.0030307067 0.0018952461 0.0055298726 -0.004685336 -0.0047841845 0.0055306093 0.005983885
-0.00472637 0.004331392 0.048227653 -0.004499097 0.0047030794 0.0052100173 0.0028282907 0.0012017742
-0.006691344 0.04758718 -0.03643201 0.103485905 0.01682421 -0.18990129 0.09311038 -0.009135925
0.044048455 0.05527054 0.016185863 -0.22019707 0.15665773 -0.07261098 0.012245026 -0.011519545
0.045046907 0.030796705 0.091522954 -0.01636438 0.01400122 0.011852247 -0.015482455 -0.005859673
0.013462397 0.13762902 0.17278053 0.015109509 -0.028920349 -0.02026545 -0.05700419 0.08590204
0.024591943 -0.055140804 0.053403202 -0.113362044 -0.029543156 0.16848114 -0.100701764 0.027049107
-0.0519758 -0.061910413 -0.029002126 0.12660503 -0.17220384 0.09213715 -0.025978101 0.029432787
-0.052759483 -0.04087243 -0.09887286 0.03397341 -0.027210413 -0.025626527 0.03304411 0.023845889
-0.026802279 -0.17456594 -0.20025979 -0.028101495 0.046030276 0.03777098 0.07645362 -0.090820864
0.021704258 -0.05347143 0.050443944 -0.113107875 -0.028175611 0.1674114 -0.09892949 0.024179542
-0.050527044 -0.06034148 -0.027807362 0.1279947 -0.17510444 0.08881337 -0.024683982 0.02646538
-0.051305987 -0.039488256 -0.09715459 0.031080922 -0.026009884 -0.02427473 0.030143332 0.020916378
-0.02564506 -0.17640415 -0.19488984 -0.026855186 0.04316601 0.03495614 0.07385236 -0.08932461
-0.0084717665 0.0488343 -0.036909353 0.1025637 0.01908931 -0.17816003 0.092696756 -0.010808137
0.045383908 0.056340426 0.01846632 -0.20750082 0.15517113 -0.07210814 0.01471378 -0.0130811
0.046224143 0.032662455 0.09136485 -0.017475296 0.016476301 0.014334534 -0.016677577 -0.007718395
0.015918583 0.1347529 0.1709395 0.017367085 -0.029521687 -0.021322574 -0.05581997 0.086011454
00000000: 4f93 d33a 19dc f13a bcab c93a 8c44 8c3b
00000010: 087b 7f39 3aab f7bd 97b4 803b f8cb cd3a
00000020: 5329 dc3a 1537 1b3b 6757 b139 e53e 90bd
00000030: f180 223c a920 77bc 038f 0439 65d9 dc3a
00000040: 7fbc e13a e18d 9a3a 39b5 743b 6e48 e53a
00000050: f9a2 8039 0fdc 59b8 2a0e db3a f7b6 c33a
00000060: 072a 3239 9916 f13b eaa7 793d ea88 a239
00000070: 47aa de3a 99c8 e83a 445d a73a f5fc 5d3b
00000080: 40cb 603c 1dea 58bc 3ba4 4c3c ac32 47bc
00000090: 5b98 6dbc 79ab 6bbc 087f 48bc a8e9 5e3c
000000a0: 42fd 5bbc 855c 52bc 893b 6ebc 6749 723c
000000b0: 20c3 7bbc 0b03 06bd 92ee 70bc b184 5c3c
000000c0: f856 5bbc 086b 65bc 3506 48bc 4bfb 593c
000000d0: 5f1f 6ebc ba02 71bc f132 5a3c a92a 633c
000000e0: 9fe7 6fbc 694c 5abc 3d44 9abc 7e3c 70bc
000000f0: 896c 503c 431b 573c 1ed2 443c a283 46bc
00000100: d3f6 46ba 502a 893c ed79 80bb 39d8 ee3c
00000110: db69 033c ff1f 22be 11de dc3c c909 7fba
00000120: 254d 823c d1a3 9a3c a75d 013c 0e45 ffbd
00000130: 7066 7a3d 1015 dfbc b7bb d33b cbc3 a3ba
00000140: 8459 853c 2cf2 473c 86a8 d93c d6c5 f9ba
00000150: c729 e63b 8639 d03b d476 deba b34b 17ba
00000160: 26e3 e33b 08ac 3b3d b023 9d3d a7de f33b
00000170: c59d 4bbb 8c86 13bb 0688 bfbb 8baf cf3c
00000180: 5687 c53b e0a7 d8ba 3712 8f3b e48b 173b
00000190: c0d6 8cbb 0ee9 15bd 5c9f fe3a 6f08 bf3b
000001a0: c6cd 03bb d5a8 92ba 0745 92bb 1e68 3cbd
000001b0: 3804 213c b8b8 cc3b 9a04 9abb 0ba6 bd3b
000001c0: 5256 e8ba d29e 46bb e869 f83a ef33 b53b
000001d0: 7287 99bb a6c4 9cbb 1d3a b53b 7714 c43b
000001e0: aadf 9abb 59ee 8d3b 5c8a 453d 296d 93bb
000001f0: 4a1c 9a3b cbb8 aa3b d85a 393b da84 9d3a
00000200: 1043 dbbb c6ea 423d bb39 15bd 6bf0 d33d
00000210: edd2 893c 7c75 42be a8b0 be3d d9ae 15bc
00000220: 276c 343d 5d63 623d 3798 843c 577b 61be
00000230: e26a 203e 11b5 94bd 5d9f 483c 79bc 3cbc
00000240: 1b83 383d 5f49 fc3c 6370 bb3d 980e 86bc
00000250: 6065 653c ed2f 423c 1faa 7dbc 8002 c0bb
00000260: 6391 5c3c 9fee 0c3e 61ed 303e e08d 773c
00000270: 5eea ecbc bb03 a6bc 3a7d 69bd 69ed af3d
00000280: 0b75 c93c 53db 61bd 51bd 5a3d 5c2a e8bd
00000290: 7d04 f2bc 5286 2c3e ba3c cebd 1796 dd3c
000002a0: 94e4 54bd c695 7dbd de95 edbc c0a4 013e
000002b0: 3456 30be 67b2 bc3d 07d0 d4bc 071d f13c
000002c0: 541a 58bd d969 27bd db7d cabd b427 0b3d
000002d0: 5fe8 debc b9ee d1bc 4359 073d 7458 c33c
000002e0: 7490 dbbc 6ac1 32be e710 4dbe 1b35 e6bc
000002f0: 3e8a 3c3d beb5 1a3d b793 9c3d 4a00 babd
00000300: 21cd b13c dc04 5bbd 4f9e 4e3d 1aa5 e7bd
00000310: 8ad0 e6bc e56d 2b3e 8b9b cabd 2d14 c63c
00000320: 72f5 4ebd a128 77bd 44cc e3bc 0b11 033e
00000330: 944e 33be c9e3 b53d 1036 cabc edcd d83c
00000340: 3a26 52bd 70be 21bd fcf8 c6bd 6b9d fe3c
00000350: ae12 d5bc ccdb c6bc 26ef f63c d358 ab3c
00000360: 9715 d2bc 4aa3 34be 3491 47be 68ff dbbc
00000370: d8ce 303d 2b2e 0f3d e83f 973d d2ef b6bd
00000380: 2acd 0abc 7a06 483d 432e 17bd eb0c d23d
00000390: 2f61 9c3c 956f 36be ccd7 bd3d 9d14 31bc
000003a0: 7ae4 393d 38c5 663d ae46 973c 187b 54be
000003b0: 2ee5 1e3e 6fad 93bd 1112 713c 1c52 56bc
000003c0: 8755 3d3d 11c9 053d 7f1d bb3d 5a28 8fbc
000003d0: 4ff9 863c 65db 6a3c 6a9f 88bc 97ea fcbb
000003e0: b067 823c aafc 093e c40a 2f3e 6b45 8e3c
000003f0: 77d7 f1bc aeac aebc 7ba3 64bd c626 b03d

bias f4 [64]
-0.028004263 0.045664147 -0.14283481 -0.036693577 -0.12468901 0.068795614 0.06521786 -0.13917376
-0.15651849 0.013118859 0.037687484 -0.17184502 -0.010228099 0.08454328 0.1504643 0.008779605
-0.1488655 -0.00139537 0.17284727 0.033524536 0.14536564 6.895549e-05 0.06439146 -0.13289158
0.091167144 -0.13847873 -0.16151774 0.1304979 -0.052193973 -0.08127393 -0.16746631 0.09126285
0.16282295 0.027866298 0.17048973 -0.04385286 0.07662876 -0.10830958 0.063845895 0.19187306
0.06331195 -0.0991663 -0.015353928 -0.05733392 0.045774207 0.07909016 -0.16077699 -0.1424849
0.033970818 -0.121143736 0.085010216 -0.030036593 0.09319533 0.029611027 -0.04790894 0.10563381
0.072106495 -0.11535575 -0.14066875 -0.11370862 -0.08490275 -0.13885853 -0.03485512 0.18538962
00000000: 3269 e5bc 540a 3b3d 4a43 12be 014c 16bd
00000010: f45c ffbd b7e4 8c3d f190 853d 9183 0ebe
00000020: 6246 20be 7cf0 563c 315e 1a3d 24f8 2fbe
00000030: c293 27bc 0725 ad3d 5013 1a3e 55d8 0f3c
00000040: 3370 18be d9e4 b6ba e0fe 303e 0651 093d
00000050: bbda 143e 329c 9038 abdf 833d bb14 08be
00000060: d7b5 ba3d 5ecd 0dbe e864 25be 3ea1 053e
00000070: 59c9 55bd f272 a6bd 4a7c 2bbe 04e8 ba3d
00000080: 0fbb 263e dd47 e43c dc94 2e3e 0e9f 33bd
00000090: 8aef 9c3d 6ad1 ddbd a3c1 823d 5f7a 443e
000000a0: b2a9 813d b317 cbbd 0b8f 7bbc f9d6 6abd
000000b0: bc7d 3b3d 06fa a13d b9a2 24be 90e7 11be
000000c0: fc24 0b3d 351a f8bd d619 ae3d 4d0f f6bc
000000d0: 31dd be3d d392 f23c 2a3c 44bd 8a56 d83d
000000e0: 92ac 933d a33f ecbd 780b 10be 11e0 e8bd
000000f0: 7ee1 adbd ee30 0ebe 3ec4 0ebd c7d6 3d3e

weight f4 [32, 64]
-0.0016156561 -0.0014171196 0.03103727 -0.0036249002 0.081511095 -0.03095485 -0.037581667 0.07746807
0.049539726 0.0057623493 -0.006119665 -0.023308882 -0.0079755075 -0.025275331 -0.05076503 -0.036192197
-0.012714924 -0.0057675596 -0.06337584 -0.0027480628 -0.048118383 -0.03814834 -0.032061502 0.07671384
-0.03876322 0.0715832 0.07836755 -0.060354687 -0.031490557 0.019664846 0.07637064 -0.053828195
-0.06653645 -0.013534603 -0.061761897 -0.043395344 -0.03639592 0.08614681 -0.032684717 -0.06321474
-0.02748994 0.002677142 0.007814542 -0.035604004 0.009449911 -0.029525366 0.07908123 0.07411758
-0.0021707679 0.019245174 -0.034643877 0.0024487935 -0.02999621 -0.0025066587 0.0017638409 -0.028137099
-0.037394535 0.02775829 0.03128074 0.025939362 -0.003551728 0.04147594 -0.017179396 -0.062619545
0.004302865 0.0006876697 -0.009012481 0.002955463 -0.06890459 0.042943608 0.046116937 -0.061891887
-0.021266855 0.0059165466 -0.0147855785 0.018460736 -0.017431784 0.03194523 0.0081651965 -0.0069333855
-0.007967749 0.0012009853 0.016687097 -0.0020413892 0.009363747 0.025373854 0.040468067 -0.061252754
0.034235388 -0.05651808 -0.0731617 0.0155999875 0.0391905 -0.023840996 -0.067418054 0.010252814
0.017803133 0.0001444761 0.013474101 0.015052096 0.042404316 -0.073657006 0.04229625 0.016130155
0.037702985 0.0016114266 -0.021932337 0.00742908 -0.0026724883 0.039195422 -0.071377836 -0.05947209
-0.00091916457 -0.041540753 0.041423243 -0.0002845451 0.037384268 -0.00040147125 -0.009412857 0.032939453
0.04762149 -0.04260471 -0.008170063 -0.04118488 0.010119036 -0.020803528 0.015575057 0.01570069
0.0019607174 -0.005729577 0.015667778 0.0049054204 -0.05173906 -0.007951537 -0.010255206 -0.055138543
-0.05612433 -0.015914097 -0.0054347734 0.024571223 -0.0004654458 -0.006982957 -0.0013991944 0.0009958391
0.025545599 -0.006519833 0.00021502572 -0.005668061 -0.0016673558 -0.0016847419 -0.009666918 -0.05654673
-0.00519622 -0.045237705 -0.034557108 -0.0016604068 0.010148406 0.008479354 -0.03566432 -0.0039945366
0.00096124475 -0.005522556 -0.0024346171 0.03644543 -0.008538777 -0.060540903 -0.010021402 -0.003066225
-0.011048585 0.023516782 -0.0007761968 0.033377837 -0.006015614 -0.007269675 -0.036886483 -0.046041477
-0.0055053853 0.009653189 -0.0071476246 0.0006751419 -0.0058556544 -0.0054656696 0.03027109 -0.0035975957
-0.010222601 0.008162222 0.015712727 0.012085967 0.012814964 -0.041406594 0.014886591 -0.0028843798
0.013148449 -0.0009921648 0.047234334 0.009773678 0.08293521 -0.03515899 -0.04119857 0.07574384
0.03630169 0.008629649 0.012548214 -0.01820537 -0.005641594 -0.029368445 -0.060791444 -0.024242684
-0.008447937 0.007138151 -0.06841924 0.0013856691 -0.06069888 -0.021320798 -0.03490483 0.07544559
-0.037955545 0.07149478 0.07680826 -0.060817488 -0.030675441 0.025561556 0.07355221 -0.05476548
-0.06940074 -0.0055987276 -0.06589304 -0.009495082 -0.041242074 0.08773396 -0.034222655 -0.06779602
-0.030898187 0.01616313 0.019748388 -0.00049245014 0.009292771 -0.036312856 0.07660924 0.07421931
0.00053942367 0.027776713 -0.039748576 0.011655455 -0.036278844 0.0007137651 0.001680937 -0.034352735
-0.04126522 0.033857033 0.046816938 0.019781142 6.25876e-05 0.031096831 -0.01451844 -0.0644173
00000000: 6cc4 d3ba a5be b9ba df41 fe3c bc8f 6dbb
00000010: 4aef a63d 0795 fdbc 3cef 19bd 94a7 9e3d
00000020: 2bea 4a3d 17d2 bc3b 7987 c8bb 45f2 bebc
00000030: b4ab 02bc 360e cfbc feee 4fbd 453e 14bd
00000040: 4252 50bc ccfd bcbb 31cb 81bd d818 34bb
00000050: c817 45bd 6f41 1cbd ec52 03bd 251c 9d3d
00000060: 2fc6 1ebd 369a 923d 2b7f a03d 7a36 77bd
00000070: 3efc 00bd 2c18 a13c 3668 9c3d f47a 5cbd
00000080: 4344 88bd 3dc0 5dbc 0bfa 7cbd 51bf 31bd
00000090: e313 15bd bd6d b03d 69e0 05bd bb76 81bd
000000a0: 9532 e1bc fd72 2f3b 9108 003c 81d5 11bd
000000b0: cdd3 1a3c 2edf f1bc 57f5 a13d f5ca 973d
000000c0: 7143 0ebb 0ea8 9d3c bde6 0dbd f07b 203b
000000d0: 9dba f5bc c146 24bb ae30 e73a c67f e6bc
000000e0: 032b 19bd 5a65 e33c 3c20 003d c97e d43c
000000f0: 1cc4 68bb ade2 293d cebb 8cbc ad3e 80bd
00000100: 0cff 8c3b bb44 343a 16a9 13bc 71b0 413b
00000110: da1d 8dbd a3e5 2f3d 1de5 3c3d 5982 7dbd
00000120: d437 aebc 97df c13b 363f 72bc f83a 973c
00000130: 1acd 8ebc 00d9 023d 51c7 053c 7431 e3bb
00000140: 298b 02bc 616a 9d3a 61b3 883c d4c8 05bb
00000150: 676a 193c d4dc cf3c d8c1 253d 2be4 7abd
00000160: 683a 0c3d 817f 67bd cdd5 95bd 1797 7f3c
00000170: 3886 203d 314e c3bc 7a12 8abd 6bfb 273c
00000180: e0d7 913c 827e 1739 7ac2 5c3c 119d 763c
00000190: 26b0 2d3d 7cd9 96bd d53e 2d3d 6323 843c
000001a0: 726e 1a3d 8136 d33a 72ab b3bc a46f f33b
000001b0: ea24 2fbb 618b 203d 8b2e 92bd 0299 73bd
000001c0: 17f4 70ba a326 2abd 6bab 293d ff2e 95b9
000001d0: 3f20 193d 8f7c d2b9 6238 1abc 85eb 063d
000001e0: c00e 433d 4782 2ebd badb 05bc 7ab1 28bd
000001f0: 50ca 253c 296c aabc 862e 7f3c bc9e 803c
00000200: 617f 003b 2dbf bbbb b659 803c a6bd a03b
00000210: 56ec 53bd 2a47 02bc 7405 28bc f4d8 61bd
00000220: a0e2 65bd 485e 82bc 2f16 b2bb 9749 c93c
00000230: 1407 f4b9 4ad1 e4bb 2c65 b7ba d186 823a
00000240: 0145 d13c 53a4 d5bb 8778 6139 24bb b9bb
00000250: 2d8b daba 8fd2 dcba fe61 1ebc 8b9d 67bd
00000260: 0d45 aabb 2c4b 39bd c18b 0dbd 02a2 d9ba
00000270: 8045 263c fdec 0a3c c014 12bd 9ae4 82bb
00000280: 0bfc 7b3a 8ff6 b4bb 198e 1fbb ce47 153d
00000290: 3ae6 0bbc bdf9 77bd ce30 24bc b8f2 48bb
000002a0: 2005 35bc 44a6 c03c af79 4bba 33b7 083d
000002b0: a11e c5bb 7436 eebb 4816 17bd fd95 3cbd
000002c0: 8566 b4bb 6928 1e3c 9f36 eabb 02fc 303a
000002d0: cae0 bfbb 5c19 b3bb 14fb f73c a4c5 6bbb
000002e0: b27c 27bc d7ba 053c fab7 803c 3804 463c
000002f0: dbf5 513c f699 29bd e3e6 733c dd07 3dbb
00000300: 986c 573c 870b 82ba ca78 413d c721 203c
00000310: efd9 a93d e002 10bd d5bf 28bd 961f 9b3d
00000320: 15b1 143d 5f63 0d3c 0697 4d3c 6e23 95bc
00000330: 1fdd b8bb 1896 f0bc 7300 79bd 9898 c6bc
00000340: 3769 0abc 27e7 e93b 631f 8cbd 579f b53a
00000350: 649f 78bd f4a8 aebc 5ef8 0ebd 3883 9a3d
00000360: 4677 1bbd db6b 923d a64d 9d3d c21b 79bd
00000370: 104b fbbc 7866 d13c 8ba2 963d c551 60bd
00000380: fa21 8ebd 8875 b7bb eef2 86bd 4391 1bbc
00000390: 73ed 28bd ddad b33d 0e2d 0cbd a4d8 8abd
000003a0: 321e fdbc 8a68 843c 5fc7 a13c c517 01ba
000003b0: b540 183c cabc 14bd 4ee5 9c3d 4b00 983d
000003c0: 1c68 0d3a fd8b e33c 67cf 22bd 86f6 3e3c
000003d0: 2099 14bd f71b 3b3a e352 dc3a 74b5 0cbd
000003e0: b805 29bd acad 0a3d 1ec3 3f3d 100c a23c
000003f0: 7641 8338 c8be fe3c c0de 6dbc 38ed 83bd

bias f4 [32]
0.04161927 0.07439786 -0.0008154374 0.06923099 0.042387832 -0.016267315 0.060141083 -0.10667277
-0.12051683 -0.030900287 -0.027177254 -0.13893066 0.010802539 -0.09107939 0.08781985 -0.07051958
0.047445357 -0.09271895 -0.12355236 -0.037071925 -0.26215604 -0.11874016 -0.04346407 -0.08314108
0.04198135 -0.03589785 -0.0585243 0.05298428 -0.11169082 0.07863029 -0.08286244 0.030009445
00000000: f878 2a3d e85d 983d 14c3 55ba fac8 8d3d
00000010: dd9e 2d3d 0843 85bc 7f56 763d 4177 dabd
00000020: 87d1 f6bd 9922 fdbc d5a2 debc d743 0ebe
00000030: 22fd 303c d587 babd e5da b33d 926c 90bd
00000040: 1056 423d 6fe3 bdbd 0509 fdbd bbd8 17bd
00000050: 5139 86be 0a2e f3bd 6107 32bd df45 aabd
00000060: a3f4 2b3d a009 13bd 2db7 6fbd 0b06 593d
00000070: 28be e4bd eb08 a13d c8b3 a9bd 5ed6 f53c

weight f4 [32, 1]
-0.26625702 0.2189397 0.2615819 -0.2641173 0.25227118 -0.2675364 -0.26368457 0.24458897
-0.26932806 -0.26863256 0.16444862 -0.2675538 0.25091535 0.11391236 -0.26634124 0.25693804
-0.26672757 -0.26421583 -0.26715142 -0.26627845 0.25494868 -0.13988456 0.24862935 -0.26386848
0.19263881 -0.271729 0.25304866 0.3960139 0.25289834 -0.27294233 -0.2667943 -0.26343614
00000000: d752 88be bb31 603e 10ee 853e 623a 87be
00000010: b029 813e 88fa 88be aa01 87be 8875 7a3e
00000020: 5ee5 89be 358a 89be 3865 283e d0fc 88be
00000030: fa77 803e e24a e93d e15d 88be 628d 833e
00000040: 8490 88be 4c47 87be 12c8 88be a655 88be
00000050: a288 823e e63d 0fbe b198 7e3e c519 87be
00000060: 1c43 453e 1020 8bbe 988f 813e 55c2 ca3e
00000070: e47b 813e 19bf 8bbe 4399 88be 1ae1 86be

bias f4 [32]
0.5496472 -0.22188176 -0.32973942 0.75016516 -0.6412903 0.47216332 0.24331269 -0.25387746
0.38517323 0.42283374 -0.16994676 0.4756793 -0.72785497 -0.13522951 0.22846714 -0.44958594
0.51165956 0.7352959 0.22778371 0.54044235 -0.5221529 0.11997772 -0.8670155 0.7722936
-0.19883594 0.308408 -0.6042023 -0.11693555 -0.6139757 0.27865613 0.5163763 0.8288433
00000000: aeb5 0c3f f934 63be 9bd3 a8be d30a 403f
00000010: 9a2b 24bf 64bf f13e f626 793e 3afc 81be
00000020: 6d35 c53e aa7d d83e 8606 2ebe 3d8c f33e
00000030: b454 3abf 9b79 0abe 4af3 693e 2130 e6be
00000040: 1ffc 023f 5a3c 3c3f 2240 693e 6e5a 0a3f
00000050: d0ab 05bf e1b6 f53d baf4 5dbf 09b5 453f
00000060: a69b 4bbe a7e7 9d3e 00ad 1abf e87b efbd
00000070: 832d 1dbf 04ac 8e3e 3d31 043f 132f 543f

weight f4 [64, 32]
-0.006455536 0.0056603975 0.005273112 -0.006717762 0.0059699398 -0.0062587806 -0.005369652 0.005478606
-0.0059313094 -0.006103856 0.0061366702 -0.006285219 0.006073376 0.007178538 -0.0056783822 0.0056209625
-0.00628142 -0.0066503566 -0.0056253206 -0.006390244 0.0056901523 -0.00878555 0.006076474 -0.0067060245
0.005889152 -0.0054633846 0.0058585443 0.050622404 0.0059452835 -0.005429456 -0.00634212 -0.006810635
0.0152449515 -0.0063979086 -0.0061811656 0.014593729 -0.006956337 0.01570963 0.019020716 -0.0063559236
0.01655505 0.016277382 -0.0074117975 0.015699474 -0.0072913086 -0.011217011 0.01956548 -0.006433016
0.01554541 0.014518947 0.019544266 0.015310349 -0.0066188765 0.05448708 -0.007598324 0.014476102
-0.006884867 0.01757498 -0.0067705135 -0.031284604 -0.006807362 0.018083338 0.01554619 0.0143093495
0.011169803 -0.003614744 -0.0027531646 0.010374051 -0.0034854885 0.011816448 0.015722454 -0.003081986
0.0127537465 0.012323607 -0.0022302878 0.011784342 -0.0036491328 0.0010706844 0.01623219 -0.0029511577
0.011423518 0.010388936 0.016117547 0.011180732 -0.0032233952 0.017260637 -0.003931846 0.010240297
-0.0026640987 0.014033349 -0.003242568 -0.07455405 -0.0033799638 0.014639674 0.011476432 0.009996652
-0.00093901687 0.020890057 0.014163697 0.0016940419 0.0057891156 -0.0025177505 -0.013751694 0.018835934
-0.0050762203 -0.0038604268 0.023765644 -0.0024974707 0.0046233614 0.026356054 -0.014957482 0.009968942
-0.0016524192 0.0014990013 -0.015075149 -0.001044148 0.008066898 -0.053359326 0.002991391 0.0018206716
0.022632536 -0.008732272 0.0065374062 0.13485463 0.0062949522 -0.010533897 -0.0014851779 0.0023838785
-0.0056400523 0.020755462 0.015722524 -0.0033607534 0.008907306 -0.007050941 -0.016072266 0.019372862
-0.00928107 -0.008147604 0.0226467 -0.0069733947 0.00779274 0.023887848 -0.017059345 0.012235474
-0.0061944686 -0.0034828347 -0.01716947 -0.005690561 0.010794148 -0.036290973 0.0064416067 -0.0031457369
0.021883717 -0.012055087 0.009360212 0.13712919 0.009182942 -0.01364559 -0.0061556255 -0.0026719891
-0.0057857637 0.012608606 0.011115003 -0.005357628 0.008697086 -0.0061158086 -0.007986356 0.012277105
-0.006544846 -0.006343671 0.013288964 -0.006232472 0.008453634 0.014006525 -0.007998223 0.009955104
-0.0059259296 -0.0055125696 -0.008156772 -0.0059840875 0.009521129 -0.011081032 0.007832964 -0.005311146
0.013155367 -0.007157133 0.008924579 0.09080129 0.008887535 -0.0075562247 -0.005939879 -0.0053483136
0.012757896 -0.00155927 -0.0021792096 0.011720489 -0.0036981152 0.013137653 0.016847624 -0.0021629045
0.014020295 0.013665157 -0.00051002397 0.01310937 -0.0039395154 0.001872261 0.017459765 -0.0027196496
0.0129779875 0.011890782 0.0174726 0.012682994 -0.0030879632 0.025553094 -0.0043829987 0.011795193
-0.0010023718 0.015392594 -0.0034330727 -0.10262788 -0.0035195479 0.016050396 0.012931766 0.011506222
-0.024094399 0.026268536 0.025018344 -0.02347119 0.023524662 -0.02432581 -0.026313344 0.025914026
-0.024885412 -0.024594782 0.026815703 -0.024275556 0.023308095 0.024868878 -0.026388505 0.02423109
-0.024140252 -0.023620024 -0.026467472 -0.02401702 0.024035882 -0.025595928 0.023059309 -0.023545766
0.026694128 -0.025462644 0.02355235 -0.0052800695 0.023661913 -0.025784869 -0.024191374 -0.023371657
00000000: f688 d3bb db7a b93b 12ca ac3b ac20 dcbb
00000010: 7c9f c33b 7516 cdbb e8f3 afbb e185 b33b
00000020: 6e5b c2bb db02 c8bb 1f16 c93b 3df4 cdbb
00000030: 2c03 c73b f139 eb3b b911 babb 0d30 b83b
00000040: 5fd4 cdbb 3ceb d9bb 9c54 b8bb 4065 d1bb
00000050: 7574 ba3b 44f1 0fbc 291d c73b 36be dbbb
00000060: caf9 c03b 3106 b3bb 08f9 bf3b 7059 4f3d
00000070: a7d0 c23b 94e9 b1bb 8fd1 cfbb bf2b dfbb
00000080: f6c5 793c 8ca5 d1bb 608b cabb 891a 6f3c
00000090: fcf1 e3bb 7bb1 803c 55d1 9b3c 5a45 d0bb
000000a0: 759e 873c 2558 853c aade f2bb 2f9c 803c
000000b0: eeeb eebb 8ec7 37bc c947 a03c 0dcc d2bb
000000c0: 2db2 7e3c e1e0 6d3c 4c1b a03c 42d8 7a3c
000000d0: 29e3 d8bb d82d 5f3d 5dfb f8bb 2c2d 6d3c
000000e0: 739a e1bb 68f9 8f3c 2fdb ddbb 4924 00bd
000000f0: 4b10 dfbb 8223 943c 72b5 7e3c c371 6a3c
00000100: 8d01 373c 57e5 6cbb 706e 34bb ecf7 293c
00000110: cb6c 64bb c699 413c 60cc 803c 25fb 49bb
00000120: 17f5 503c f4e8 493c 052a 12bb 1d13 413c
00000130: 4a26 6fbb 3556 8c3a 5ff9 843c 3668 41bb
00000140: b529 3b3c 5b36 2a3c f208 843c 642f 373c
00000150: 993f 53bb 2e66 8d3c b7d6 80bb ebc6 273c
00000160: 2998 2ebb 22ec 653c 4481 54bb cbaf 98bd
00000170: 6282 5dbb 3edb 6f3c a507 3c3c ffc8 233c
00000180: 5b28 76ba a021 ab3c da0e 683c 9d0a de3a
00000190: 9fb2 bd3b d800 25bb c94e 61bc d14d 9a3c
000001a0: 6c56 a6bb 37ff 7cbb 2bb0 c23c 9bac 23bb
000001b0: 917f 973b a7e8 d73c 3a10 75bc c654 233c
000001c0: fd95 d8ba 237a c43a c2fd 76bc cbdb 88ba
000001d0: 062b 043c 4f8f 5abd 370b 443b 9aa3 ee3a
000001e0: de67 b93c ce11 0fbc bd37 d63b 5517 0a3e
000001f0: e345 ce3b 5e96 2cbc 4daa c2ba d83a 1c3b
00000200: 30d0 b8bb 5c07 aa3c 86cc 803c 1640 5cbb
00000210: f3ef 113c 950b e7bb fca9 83bc d6b3 9e3c
00000220: a10f 18bc 877d 05bc 9285 b93c 1381 e4bb
00000230: 3e5a ff3b 73b0 c33c 0ac0 8bbc 4c77 483c
00000240: f8fa cabb 4540 64bb fda6 8cbc e377 babb
00000250: f0d9 303c d8a5 14bd 1d14 d33b b528 4ebb
00000260: 7b45 b33c b382 45bc 935b 193c 986b 0c3e
00000270: 0d74 163c c191 5fbc 21b5 c9bb 8a1c 2fbb
00000280: 8196 bdbb 5494 4e3c b41b 363c 0b8f afbb
00000290: 397e 0e3c 1f67 c8bb 34d9 02bc e925 493c
000002a0: 2676 d6bb 92de cfbb f4b9 593c c439 ccbb
000002b0: 1c81 0a3c a07b 653c fb0a 03bc bc1a 233c
000002c0: 4d2e c2bb c9a2 b4bb fba3 05bc 2a16 c4bb
000002d0: 82fe 1b3c 388d 35bc d555 003c 1f09 aebb
000002e0: 9c89 573c 6286 eabb 6638 123c 07f6 b93d
000002f0: 069d 113c 359a f7bb 51a3 c2bb e840 afbb
00000300: 7f06 513c 6b60 ccba 12d1 0ebb 4b07 403c
00000310: 145c 72bb 4f3f 573c 0704 8a3c 84bf 0dbb
00000320: 61b5 653c d3e3 5f3c 21b3 05ba afc8 563c
00000330: 0d17 81bb a866 f53a c807 8f3c 263c 32bb
00000340: a0a1 543c 8ed1 423c b322 8f3c 55cc 4f3c
00000350: 6d5f 4abb b954 d13c 429f 8fbb a040 413c
00000360: 0462 83ba 3831 7c3c 67fd 60bb 912e d2bd
00000370: 37a8 66bb 1f7c 833c c2df 533c 9884 3c3c
00000380: 9e61 c5bc 1d31 d73c 45f3 cc3c a746 c0bc
00000390: cbb6 c03c ec46 c7bc 158f d7bc a749 d43c
000003a0: 7edc cbbc ff7a c9bc 9bac db3c 88dd c6bc
000003b0: 9ef0 be3c d1b9 cb3c b52c d8bc 4780 c63c
000003c0: c7c1 c5bc c87e c1bc 50d2 d8bc 57bf c4bc
000003d0: e6e6 c43c 8dae d1bc e0e6 bc3c 0de3 c0bc
000003e0: a5ad da3c 0997 d0bc dcf0 c03c 6f04 adbb
000003f0: a1d6 c13c ca3a d3bc fd2c c6bc eb75 bfbc

bias f4 [64]
-0.014463213 -0.15771304 -0.12023682 -0.16401526 -0.11563216 -0.0817461 -0.11864842 0.08118816
0.04502369 -0.0070158406 -0.15678723 0.09080362 -0.1368701 -0.17621006 0.13334952 0.11517842
0.047860023 0.1152212 0.09065791 0.043358218 0.06839028 0.16849765 -0.032305036 0.0011670282
-0.14907917 -0.13348122 0.07827649 0.0979234 -0.00048402083 0.13721263 0.026337644 -0.064032294
-0.040290456 0.13426802 0.08453256 -0.113001555 -0.070825115 0.14891265 0.022082716 -0.09450333
0.08139096 0.16259614 -0.112804 -0.03613443 -0.037582844 -0.080767944 -0.09615551 -0.05357489
0.05249002 -0.18198521 -0.0010715387 0.006595688 0.023027344 -0.06540316 -0.098687425 -0.10969637
-0.0050493632 -0.11592859 -0.03607291 -0.1825583 0.062191233 0.010952457 0.11350385 -0.080985434
00000000: 1df7 6cbc 877f 21be b93e f6bd 9ef3 27be
00000010: 8ed0 ecbd 806a a7bd f1fd f2bd fa45 a63d
00000020: c36a 383d 23e5 e5bb d58c 20be 40f7 b93d
00000030: ad27 0cbe 6970 34be c78c 083e aae2 eb3d
00000040: df08 443d 18f9 eb3d dbaa b93d 6398 313d
00000050: 3410 8c3d a68a 2c3e 4952 04bd f8f6 983a
00000060: 36a8 18be 4daf 08be 6d4f a03d 108c c83d
00000070: 2dc4 fdb9 7881 0c3e 0bc2 d73c 5d23 83bd
00000080: 9b07 25bd 8e7d 093e 681f ad3d 5c6d e7bd
00000090: c20c 91bd 8f7c 183e d0e6 b43c f68a c1bd
000000a0: 4eb0 a63d 9a7f 263e c905 e7bd b201 14bd
000000b0: 78f0 19bd aa69 a5bd 2eed c4bd 5871 5bbd
000000c0: c6ff 563d 555a 3abe df72 8cba a420 d83b
000000d0: d7a3 bc3c 18f2 85bd a21c cabd 7ea8 e0bd
000000e0: 2175 a5bb f86b edbd 30c1 13bd 90f0 3abe
000000f0: 3cbc 7e3d ef71 333c b574 e83d b1db a5bd

weight f4 [32, 64]
0.004062615 -0.0074086543 0.0017923898 0.016019113 0.018842438 0.0106239 0.0025856378 -0.0013414687
0.005848183 0.0016200219 -0.008124464 0.0035215942 -0.036497183 -0.017895222 0.0035537663 -0.002147754
0.0019913104 -0.0061143353 0.00643857 -0.020615468 -0.0065277484 0.02130477 0.01400053 0.0057639615
-0.058085255 0.053595785 -0.007590892 0.0005678094 0.005700376 0.009736637 -0.016918343 0.0064437874
-0.0009508787 0.0038126186 -0.0133804595 0.018709725 0.018330568 0.01592782 0.004456131 0.026610374
0.0054689324 0.012460213 0.01810205 0.013592422 -0.001367135 0.00014040791 0.008365958 0.022798605
0.009527405 -0.0057007205 0.006933776 0.00501116 -0.016059825 0.0070670233 -0.012440748 3.1440042e-05
-0.0033723742 0.019566393 0.005196686 -0.0078121354 -0.011112686 0.0041405265 0.005020701 -0.017229756
-0.002237747 -0.0006836521 0.013560649 -0.009572309 -0.007859666 -0.010315025 0.016759498 0.0058799353
-0.011107091 -0.0010955557 -2.0891588e-05 -0.00023934097 0.014775006 0.020897012 0.00046832854 0.005705101
-0.001922281 0.009290139 -0.0028951373 0.0241554 0.010487229 -0.017760878 -0.010075008 -0.00223074
0.060176928 -0.037793968 0.0036975173 0.003497639 -0.0028285708 -0.0001455187 0.012941776 -0.0043971883
0.008865908 -0.0018140596 0.013961278 -0.013983618 -0.0152717475 -0.01307124 -0.0018732259 -0.005509028
-0.0022789126 -0.011031493 -0.013580256 0.0017079997 0.002254364 0.0062093 -0.0057371114 -0.01837628
0.0013262532 0.019335061 -0.002601116 -0.0028536927 0.01823011 0.008919457 0.01562829 0.005446976
0.0040083323 -0.009336836 0.0033081532 0.018909588 0.014782984 -0.002529617 -0.0026417335 0.032284405
-0.0030040366 0.04252289 0.025537852 0.009302821 0.0004565811 0.0021789565 0.019822093 -0.012354471
0.00790819 -0.00045907972 0.043189682 -0.016103877 0.060917247 0.044127077 -0.021640858 -0.01732576
-0.0059112567 -0.015322929 -0.019926244 0.0027306438 -0.0060407976 -0.053993165 -0.006096432 -0.0055317064
0.06978491 -0.020865267 0.0026780446 -0.020249534 -0.006341838 -0.048721123 0.0245953 -0.001750729
-0.017488008 -0.019451078 -0.015136433 -0.00660921 -0.00079765084 -0.045722093 -0.0066255885 -0.00467629
-0.017961523 -0.03336113 -0.0064908843 0.010799942 0.00380481 0.022968002 -0.004675567 -0.0051667634
-0.03868432 0.056136727 -0.0054209693 -0.009214766 0.008987999 0.018167023 0.023641603 0.012068434
0.0009327111 -0.0013173145 -0.019052807 0.04971706 -0.010386439 -0.0073967027 -0.019295948 0.013697192
0.00805801 -0.024226896 0.019506503 0.026445916 0.031540383 0.01280769 0.016942566 0.001661817
0.0062599955 0.0036261897 -0.024596896 0.007051905 -0.0014502435 -0.008844531 0.0072111245 0.0031002588
0.0032985262 -0.0009664306 0.010331997 -0.018399894 -0.0044528097 0.025953095 0.01698567 0.0146052195
-0.043920647 0.07060782 -0.0050840215 0.0038089575 0.011249311 0.020550482 -0.016885372 0.0080667045
0.0043488345 0.0072229276 -0.008112505 0.02479088 0.023374405 0.019660655 0.009186967 0.029608786
0.009880793 0.014353327 0.023950828 0.0057393867 -0.0008298158 0.0073249885 0.011011069 0.0282022
0.013645359 0.00823154 0.015760731 0.0073069814 -0.016543668 0.022643672 -0.0059902105 0.0133318575
0.0014279373 0.03086613 0.010722463 0.007536814 -0.009583243 0.0064333985 0.008264344 -0.0053134
00000000: af1f 853b 4cc4 f2bb 9fee ea3a 843a 833c
00000010: 755b 9a3c de0f 2e3c ce73 293b 38d4 afba
00000020: 1da2 bf3b ea56 d43a 791c 05bc 8cca 663b
00000030: 127e 15bd 0099 92bc 4ee6 683b 55c1 0cbb
00000040: a580 023b c35a c8bb a4fa d23b c5e1 a8bc
00000050: b9e6 d5bb 5787 ae3c 7b62 653c 9ddf bc3b
00000060: ceea 6dbd 4187 5b3d 04bd f8bb 0bd9 143a
00000070: 38ca ba3b 6a86 1f3c 5698 8abc 6826 d33b
00000080: 6444 79ba 20dd 793b b739 5bbc 2345 993c
00000090: fd29 963c 0f7b 823c bc04 923b 00fe d93c
000000a0: bb34 b33b ec25 4c3c c04a 943c c0b2 5e3c
000000b0: 7031 b3ba 763a 1339 5f11 093c 24c4 ba3c
000000c0: d518 1c3c 1ccd babb bb34 e33b a834 a43b
000000d0: e58f 83bc 7d92 e73b 47d4 4bbc 7dde 0338
000000e0: 0d03 5dbb b349 a03c f648 aa3b f1fc ffbb
000000f0: fc11 36bc 41ad 873b b184 a43b 6b25 8dbc
00000100: 2aa7 12bb 1e37 33ba 7c2d 5e3c 2dd5 1cbc
00000110: d4c5 00bc 5a00 29bc 374b 893c 79ac c03b
00000120: 84fa 35bc c098 8fba 5840 afb7 9af7 7ab9
00000130: de12 723c 3630 ab3c fe89 f539 dbf1 ba3b
00000140: 0cf5 fbba ab35 183c 58bc 3dbb 8ce1 c53c
00000150: a0d2 2b3c 437f 91bc a511 25bc 9b31 12bb
00000160: 157c 763d d9cd 1abd 0c52 723b a538 653b
00000170: 8b5f 39bb 6196 18b9 be09 543c 4a16 90bb
00000180: 5042 113c bdc5 edba d8bd 643c 8b1b 65bc
00000190: 5a36 7abc c128 56bc 0887 f5ba 1485 b4bb
000001a0: cf59 15bb 6fbd 34bc b97f 5ebc f6de df3a
000001b0: f4bd 133b 6277 cb3b 61fe bbbb da89 96bc
000001c0: acd5 ad3a 9064 9e3c 7c77 2abb 0505 3bbb
000001d0: 5057 953c ea22 123c e606 803c 8c7c b23b
000001e0: 5458 833b 87f9 18bc 9acd 583b 48e8 9a3c
000001f0: 5434 723c eec7 25bb ef20 2dbb a73c 043d
00000200: 5fdf 44bb 7b2c 2e3d c234 d13c dc6a 183c
00000210: 4761 ef39 d3cc 0e3b f161 a23c 686a 4abc
00000220: 5a91 013c a3b0 f0b9 aae7 303d 47ec 83bc
00000230: 5d84 793d 98be 343d 2b48 b1bc c1ee 8dbc
00000240: 37b3 c1bb 060d 7bbc 5d3c a3bc 9af4 323b
00000250: e2f1 c5bb f027 5dbd 94c4 c7bb 5143 b5bb
00000260: 64eb 8e3d a3ed aabc 2282 2f3b 5ae2 a5bc
00000270: 31cf cfbb cd8f 47bd 157c c93c b878 e5ba
00000280: 0343 8fbc de57 9fbc cdfe 77bc 1292 d8bb
00000290: 7119 51ba 1747 3bbd 771b d9bb 903b 99bb
000002a0: 0b24 93bc aea5 08bd 7cb1 d4bb 3df2 303c
000002b0: 1f5a 793b 6427 bc3c 8035 99bb f44d a9bb
000002c0: 7373 1ebd a0ef 653d 63a2 b1bb 88f9 16bc
000002d0: 6642 133c 02d3 943c 09ac c13c aeba 453c
000002e0: 2f81 743a bda9 acba a214 9cbc 1ea4 4b3d
000002f0: e22b 2abc 0a60 f2bb 8912 9ebc 306a 603c
00000300: be05 043c 7c77 c6bc 1acc 9f3c 1ba5 d83c
00000310: 7d30 013d 58d7 513c 23cb 8a3c 53d1 d93a
00000320: a620 cd3b 5ea5 6d3b 6e7f c9bc ab13 e73b
00000330: 1916 beba a7e8 10bc 4c4b ec3b b62d 4b3b
00000340: 162c 583b 0f58 7dba 8947 293c 60bb 96bc
00000350: e0e8 91bb 969b d43c 8825 8b3c bb4a 6f3c
00000360: 23e6 33bd d59a 903d dd97 a6bb b49f 793b
00000370: 084f 383c 7c59 a83c 3153 8abc 362a 043c
00000380: ab80 8e3b 4fae ec3b 50ea 04bc 3e16 cb3c
00000390: ae7b bf3c 620f a13c ef84 163c 208e f23c
000003a0: 0de3 213c 382a 6b3c 8734 c43c 7711 bc3b
000003b0: ff87 59ba 7506 f03b c567 343c 4d08 e73c
000003c0: c990 5f3c 95dd 063c a61c 813c 676f ef3b
000003d0: 9686 87bc 397f b93c 8749 c4bb dd6d 5a3c
000003e0: a029 bb3a f7da fc3c 45ad 2f3c 61f7 f63b
000003f0: 0903 1dbc 42cf d23b 2c67 073c 081c aebb

bias f4 [32]
-0.04559015 -0.07742284 0.07347499 -0.027674936 0.019942682 -0.00016496224 -0.08275509 0.04064298
-0.08222714 0.112121016 -0.13434237 -0.115676045 -0.062634274 -0.057708997 0.107681386 -0.08727859
0.092917606 -0.026856264 -0.03694293 0.002253049 -0.028054347 -0.023274621 -0.033116356 0.077079296
-0.10730359 0.053189136 -0.04089923 -0.14263527 -0.04008682 0.06604028 0.0377347 0.019475339
00000000: bdbc 3abd de8f 9ebd 0e7a 963d 8cb6 e2bc
00000010: d65e a33c b7f9 2cb9 807b a9bd 4179 263d
00000020: b466 a8bd b49f e53d 0c91 09be 90e7 ecbd
00000030: 6646 80bd 4560 6cbd 0f88 dc3d 1ebf b2bd
00000040: 964b be3d ab01 dcbc 7851 17bd e4a7 133b
00000050: 3bd2 e5bc 6baa bebc 04a5 07bd c0db 9d3d
00000060: fcc1 dbbd dadc 593d f385 27bd fb0e 12be
00000070: 1432 24bd 2040 873d b38f 1a3d bf8a 9f3c
