checkpoints/insurance_honam2_emb32_3.pt (torch, 134190 bytes, 74 tensors)

weight f4 [32, 1]
000000 4f cf 5d 3e eb ad 57 3e 63 5a 58 3e b9 ef 6c 3e
       0.21661113 0.21062438 0.2112823 0.23138322
000010 80 66 a0 3e 28 6f 55 3e 41 d6 6f 3e f8 fa 0b be
       0.313282 0.20843184 0.23421575 -0.13669956
000020 5b 00 56 be eb 63 9c 3e 98 5c 71 3e 6d 8a 61 3e
       -0.20898573 0.3054498 0.23570478 0.22025461
000030 a8 32 68 be 46 07 96 3e 98 2c 5f 3e d8 e9 95 3e
       -0.22675574 0.29302424 0.21794355 0.2927997
000040 91 ec 9b 3e b7 8a 55 be de 96 67 be c8 14 78 3e
       0.30453923 -0.20853697 -0.22616145 0.24226677
000050 65 37 9c 3e b9 92 56 be 19 93 5f be 2f 64 77 be
       0.30511013 -0.20954408 -0.21833457 -0.24159311
000060 9b ef 7f 3e 8d fb 57 be 3b 54 71 be a8 81 72 3e
       0.24993746 -0.21092053 -0.23567288 0.23682272
000070 20 0a 5c be 69 38 2a be fc 5d 5d 3e 84 f6 72 3e
       -0.21488237 -0.16623081 0.21617883 0.23726851

bias f4 [32]
000000 27 6a 24 bf dd 96 4f bf a2 1b 48 bf 65 15 db be
       -0.64224476 -0.81089574 -0.78167164 -0.4278976
000010 ec ab 17 be ed 08 67 bf 67 e3 cf be 44 1e 07 3e
       -0.14811677 -0.90247995 -0.40603182 0.13195139
000020 82 f7 50 3e 92 7a c8 bc 6f a9 97 bc e2 46 13 bf
       0.20406917 -0.024472509 -0.01851341 -0.57530034
000030 31 a2 e5 3e 7a e9 0c be 93 49 1b bf 0b be 0c be
       0.44850305 -0.13760939 -0.6065914 -0.1374437
000040 9b 3e c7 bc 68 cf 56 3f 50 bb e9 3e 3f 0b b2 be
       -0.024321845 0.83910227 0.4565072 -0.34774205
000050 2f c7 c7 bc e7 b4 4c 3f dd a8 11 3f 81 73 6d 3e
       -0.02438697 0.79963535 0.5689829 0.23188592
000060 11 51 9d be d5 0f 40 3f 07 72 be 3e 82 4c c5 be
       -0.3072591 0.7502416 0.3719637 -0.38534933
000070 9e fa 21 3f 8f 81 24 3e eb e0 28 bf 0d 4e c4 be
       0.63273036 0.16065048 -0.659682 -0.38340798

weight f4 [64, 32]
000000 73 05 02 3c b3 4d 97 3b 4b ec a4 3b 3e 4e 9a 3c
       0.0079358695 0.0046174168 0.005033051 0.018836137
000010 bf d0 0a 3e 6b 39 67 3b 40 4a ad 3c 91 f1 43 be
       0.13556193 0.0035282027 0.02115357 -0.19135119
000020 b2 ad 04 be b7 62 77 3e c0 85 56 3e ff 9b 25 3c
       -0.12956885 0.2415875 0.20949459 0.010107993
000030 e3 87 86 bc a5 07 27 3e cc 4e 12 3c 27 f3 26 3e
       -0.016422218 0.1631151 0.008929919 0.16303693
000040 39 8a 7c 3e 6b e3 80 bb 4f 3f 82 bc 8a 71 f2 3c
       0.24662103 -0.0039333603 -0.015899329 0.029595155
000050 71 50 7a 3e 69 71 93 bb 6b 89 22 bc cd 1f a6 bd
       0.24444748 -0.0044996035 -0.009920458 -0.08111534
000060 8b f1 1e 3d 0a b4 af bb 9d 3f c8 bc ab 76 c2 3c
       0.038804572 -0.0053620385 -0.024444396 0.023738226
000070 2e 81 fe bb a8 a7 43 be d3 b5 f7 3b d4 73 c4 3c
       -0.0077668643 -0.19106925 0.007559517 0.023981012
000080 aa 9e c0 3b 77 18 d3 3b 1a 5d d3 3b 15 d5 6f 3b
       0.005878289 0.0064421254 0.0064503076 0.0036595513
000090 37 25 f2 bc 5a 3b dc 3b 27 3f 57 3b e9 c9 8e 3d
       -0.029558761 0.0067209424 0.0032844038 0.06972105
0000a0 82 73 5c 3c d0 ee 24 be 90 03 f2 bd 0f 9c af 3b
       0.013455274 -0.16106725 -0.11817086 0.00535918
0000b0 74 ab 88 bb 54 a5 3f bd 16 83 ba 3b 92 4a 3f bd
       -0.0041708294 -0.04678853 0.005691896 -0.046701975
0000c0 73 3a 26 be 56 6f d8 bb 4d 4b 8b bb 6b 99 d8 3a
       -0.16233234 -0.006605069 -0.00425092 0.0016525214
0000d0 b3 9e 25 be a2 c1 d4 bb f3 44 ae bb 64 0f d2 3b
       -0.1617382 -0.0064928094 -0.005318278 0.006410526
0000e0 e0 5f 8e 39 bb a9 d0 bb a9 aa 2c bb 4f ab 3a 3b
       0.00027155783 -0.0063678897 -0.0026346839 0.0028483456
0000f0 d4 00 c0 bb b8 0f e5 3c 2a 48 bf 3b 77 c1 35 3b
       -0.0058594737 0.027961597 0.00583746 0.0027733722
000100 85 ae 0f bc e4 46 13 bc 26 3b 14 bc 4d 37 0e bc
       -0.008769636 -0.00898907 -0.009047305 -0.008680177
000110 10 74 86 bc 16 2d 16 bc ec e4 0c bc d7 e6 61 3d
       -0.016412765 -0.009166023 -0.008599501 0.055151787
000120 bb 45 84 3c a2 3e 89 bd f1 e2 3a bd 62 97 10 bc
       0.016146531 -0.067013994 -0.045626584 -0.008825155
000130 7a a3 37 3c 9e 72 b8 bc ad 78 10 bc 03 10 b8 bc
       0.011208409 -0.022515591 -0.008817834 -0.022468572
000140 1e fd 8b bd 08 4f 30 3c 4c 5a 38 3c bb 43 0e bc
       -0.06835388 0.01076103 0.011251997 -0.00868314
000150 ae 91 8a bd b9 8f 30 3c ef 8c 34 3c 7e 75 57 3c
       -0.067660674 0.010776454 0.011019929 0.013150571
000160 9d 72 0d bc ef 36 31 3c a3 8f 3b 3c c4 63 0c bc
       -0.008633283 0.01081632 0.01144782 -0.008568708
000170 a9 38 33 3c a3 59 d8 3c 0f 0f 12 bc b4 6b 0c bc
       0.010938802 0.02640993 -0.008914723 -0.0085706
000180 2e 9b 39 bc 23 b1 01 bc 8e 95 08 bc f1 d5 b3 bc
       -0.011328502 -0.007915768 -0.008336438 -0.021952601
000190 ae 8a e9 bd a5 76 d9 bb e9 68 c4 bc 6d 1c 4c 3e
       -0.11403404 -0.006636458 -0.023975806 0.19932719
0001a0 c4 0d f4 3d 95 a8 a8 be df b6 96 be b1 77 5e bc
       0.11916688 -0.32941118 -0.29436395 -0.013578341
0001b0 57 70 a2 3c c3 e0 09 be 40 d3 4a bc e0 d3 09 be
       0.019828958 -0.13464646 -0.0123794675 -0.1345973
0001c0 a8 6f aa be 9e d0 ea 3b 91 a1 9d 3c 83 89 00 bd
       -0.33288312 0.0071659824 0.01924208 -0.03138114
0001d0 98 72 a9 be 62 79 fc 3b 42 df 5a 3c 66 39 99 3d
       -0.3309524 0.0077048996 0.013358893 0.07481651
0001e0 cb 12 21 bd 3a 6d 0c 3c 50 2c e2 3c eb f0 d6 bc
       -0.039324563 0.0085709635 0.02760902 -0.026237926
0001f0 15 d2 36 3c 96 b5 4c 3e de d0 32 bc ed 74 d9 bc
       0.011158486 0.19991145 -0.010914056 -0.026545012
000200 77 8a 13 3d 78 f6 0c 3d e7 a0 0d 3d db 90 2a 3d
       0.036020722 0.03441474 0.034577277 0.04164205
000210 da d7 57 3d a1 c9 0a 3d 54 6f 2f 3d f5 bf be bd
       0.052696086 0.033883695 0.04283078 -0.09313957
000220 52 cc ad bd 80 81 b0 3d 5c b1 8a 3d d9 25 18 3d
       -0.08486237 0.0861845 0.0677211 0.03714547
000230 67 ac 22 bd 98 99 86 3d 1b 4e 15 3d f5 eb 86 3d
       -0.039715197 0.065722644 0.03645144 0.06587974
000240 a3 7f b1 3d 7b 24 09 bd 3d 7d 21 bd af 3f 42 3d
       0.08666923 -0.033482056 -0.039426077 0.047424015
000250 b7 b5 b0 3d d5 b2 09 bd f5 a7 14 bd 47 04 a5 bd
       0.08628409 -0.033617813 -0.03629299 -0.080574565
000260 75 37 5a 3d e4 04 0b bd cf cb 34 bd 2e 37 35 3d
       0.053275544 -0.03394021 -0.04413968 0.044242077
000270 6c a9 10 bd 8c 67 a6 bd 73 92 12 3d 9a 5b 35 3d
       -0.035317823 -0.08125219 0.035784196 0.04427681
000280 fb c9 80 bd cf 71 6f bd 96 c4 71 bd 67 d1 9b bd
       -0.06288525 -0.058458146 -0.05902537 -0.076083
000290 88 99 5c be 1d 81 69 bd 80 21 a1 bd 7f 67 9f 3e
       -0.21542943 -0.057007898 -0.07867718 0.3113365
0002a0 5f d3 46 3e f5 b1 85 be 5a c7 71 be b5 3d 86 bd
       0.19416569 -0.26112333 -0.23611203 -0.065547384
0002b0 e1 3c 96 3d 00 26 6a be 3d 3a 83 bd 87 36 6a be
       0.073358305 -0.22866058 -0.064075924 -0.22872363
0002c0 b0 b2 87 be 63 0a 6b 3d 78 bd 94 3d 4a 6f b4 bd
       -0.26503515 0.057382952 0.07262701 -0.08810289
0002d0 88 da 86 be ca df 6d 3d 03 ab 85 3d bb 32 11 3e
       -0.263386 0.05807475 0.065267585 0.14179508
0002e0 63 ba c8 bd 37 6a 72 3d ec ee a9 3d 34 06 a7 bd
       -0.098011754 0.059183326 0.08297524 -0.0815548
0002f0 9e cc 7f 3d 40 a7 98 3e 5a 09 7f bd 10 de a7 bd
       0.062450998 0.29815102 -0.062264778 -0.08196652
000300 7e 96 22 bc f8 3a de bb 7d e0 ed bb f0 33 9e bc
       -0.009923575 -0.006781932 -0.007259427 -0.019311875
000310 82 d1 b3 bd 33 69 ba bb d3 c9 ad bc 50 9c 74 3e
       -0.08780195 -0.0056888103 -0.021214401 0.23887753
000320 01 f0 f4 3d 04 d7 62 be 3c af 4b be 38 af 43 bc
       0.119598396 -0.22152334 -0.19891065 -0.011943631
000330 26 c5 8a 3c f9 07 e0 bd 3c f9 32 bc da f4 df bd
       0.01693971 -0.10939021 -0.01092368 -0.109353736
000340 99 13 67 be 0b a7 b6 3b eb 57 86 3c c6 96 e3 bc
       -0.2256607 0.0055741123 0.016399344 -0.027781855
000350 6c 5c 65 be 5d c3 c9 3b b2 f0 37 3c 84 52 89 3d
       -0.22398537 0.0061573223 0.01122682 0.06705192
000360 b1 d6 0d bd ff 89 df 3b 72 1b c3 3c 44 12 be bc
       -0.034628574 0.0068218703 0.023816798 -0.02320207
000370 bf 23 1a 3c f9 9a 65 3e e6 e9 1d bc 08 fe bf bc
       0.009407937 0.22422399 -0.009638285 -0.023436561
000380 c2 77 6d ba 22 bb 50 b7 94 20 49 b9 29 11 70 bb
       -0.0009058678 -1.2441336e-05 -0.0001918099 -0.0036631322
000390 c2 cb 45 bd 12 a3 c9 39 64 99 8c bb 2a 2f ab 3d
       -0.04829002 0.00038459204 -0.0042907465 0.08358605
0003a0 85 2f ec 3c ed 72 1d be bc 9f e1 bd 10 a5 ad ba
       0.028831253 -0.15375872 -0.11016795 -0.0013248045
0003b0 f6 07 31 3b fd 3c 6f bd bb 52 89 ba 96 62 6f bd
       0.0027012802 -0.058407772 -0.0010476926 -0.05844363
0003c0 cf ff 1e be 92 31 fb b9 fd 18 1e 3b 15 de d2 bb
       -0.1552727 -0.00047911383 0.002412378 -0.0064351656
0003d0 8b 55 1e be 92 d5 dd b9 a8 56 77 3a d2 42 b4 3c
       -0.1546232 -0.00042311527 0.0009435215 0.022004519
0003e0 0a 22 10 bc 73 af 84 b9 76 52 9d 3b f7 42 9e bb
       -0.008797178 -0.00025307722 0.00480109 -0.00482976
0003f0 19 78 eb 39 ea e3 2d 3d c8 4b 5e ba 4e e0 a1 bb
       0.00044912173 0.042453684 -0.000847992 -0.0049400693

bias f4 [64]
000000 ef 9f 0d 3e f2 38 1a 3b bc 5d b0 bd e8 bc e7 bd
       0.13830541 0.0023532477 -0.086116284 -0.11315328
000010 ed 8c 7a 3d 58 a9 01 be 1c 37 37 be 73 d3 e5 3b
       0.061169554 -0.12662256 -0.17892116 0.007013732
000020 55 0f 01 3e 12 69 01 be 1e b0 e7 3d 04 65 07 3d
       0.12603505 -0.12637737 0.113128886 0.03305532
000030 a5 d5 50 3b 5c f1 40 bd b0 70 f3 bd f0 a5 03 be
       0.0031865623 -0.04710518 -0.11886728 -0.12856269
000040 82 1f 81 3d db 74 98 3c 49 7a 21 3e 9a 8d 24 3c
       0.06304838 0.018610409 0.15769304 0.010043526
000050 5d 84 b1 3d 3f 18 03 3e fe 4e ff 3d b6 6e a2 3c
       0.086678244 0.12802218 0.124662384 0.019828182
000060 13 0d 0f 3e 45 2d 86 bc f1 bc 15 3e 14 f9 0d be
       0.13969831 -0.016379008 0.14622857 -0.13864547
000070 65 a1 36 bd 7b 8c c6 bd 10 1b c1 3d d3 f0 28 be
       -0.04458751 -0.09694763 0.0942899 -0.16498117
000080 31 76 1f 3e 9e 76 81 bd 7e 48 05 be 75 d5 bb bd
       0.1557243 -0.063214526 -0.13015935 -0.09171573
000090 97 ca 95 bd ea a8 3f bd e3 08 0e be ac 13 18 3e
       -0.073140316 -0.04679195 -0.13870578 0.14851254
0000a0 98 b5 8e bc 9d e7 49 bd 27 68 e3 3c e6 84 8a bd
       -0.017420575 -0.04929315 0.027759625 -0.067636296
0000b0 34 5e 20 3e aa a3 79 3c ef d0 8d 3d fc 0a 98 3d
       0.15660936 0.015236774 0.069246165 0.0742397
0000c0 4c 20 91 3b 6f 6c 19 3e e1 c8 0f 3d 85 30 a3 bc
       0.004428899 0.1498277 0.035103682 -0.019920597
0000d0 1d 55 39 bd 49 0f 42 3d 3d 68 2e 38 0d bd 85 3d
       -0.045247186 0.04737786 4.1581912e-05 0.06530199
0000e0 49 a3 81 bd a9 2b 82 bd b1 86 2c be 81 5e ec bd
       -0.06329972 -0.06355984 -0.16848256 -0.11541463
0000f0 85 cb 80 3d 05 c0 c6 bc 37 98 7a bc e4 d3 98 3c
       0.06288818 -0.024261484 -0.01529508 0.018655725

weight f4 [32, 64]
000000 ce 06 4a be 9f 0d 27 3c 19 85 b2 3c 4b 0d aa 3d
       -0.19729158 0.010196119 0.021791982 0.08303317
000010 28 06 f8 bc 7d 40 e8 3d fe c6 3f 3d 77 df c6 3c
       -0.030276373 0.11340425 0.046820633 0.024276478
000020 d8 97 56 be 53 63 eb 3d 78 bb 3d be 46 09 b5 3d
       -0.20956361 0.11493554 -0.18528545 0.088396594
000030 55 2b 59 bd db 6c 9d bc 01 ad 02 3d 7a ad d1 3d
       -0.05301984 -0.019216945 0.03190327 0.10238166
000040 56 91 ba bd 8f 56 d5 bd a3 92 de bd 2b d2 c3 bd
       -0.09109752 -0.104169 -0.108678125 -0.09561571
000050 80 c6 cf bd 3d 1d ef bd 55 05 40 be 1c f9 c2 3b
       -0.10145283 -0.11675499 -0.18752034 0.0059501063
000060 46 f7 29 be c2 19 3d 3c 1b e6 f5 bd f4 01 9f 3d
       -0.16598234 0.011541786 -0.1200678 0.077640444
000070 fd 9f b6 39 a7 95 4d 3d 30 02 52 bd c4 72 85 3d
       0.00034832946 0.050191548 -0.051271617 0.065160304
000080 6b c7 f9 bd bb d9 79 3c b8 c3 15 3d 43 bd 1c 3b
       -0.12196239 0.015249665 0.036563605 0.002391652
000090 d1 7b 79 3c 55 51 ac 3d 23 e2 ca 3c 0b 76 f1 bd
       0.015227274 0.0841395 0.024766034 -0.11790093
0000a0 fd 81 41 3b 66 f6 3c 3c 21 a4 9b 3d 46 4a e5 bb
       0.0029526942 0.011533355 0.075996645 -0.0069973795
0000b0 9d d6 f7 bd fc 4b 92 bd fc fe aa bd 4a 14 f2 bd
       -0.12101481 -0.07143399 -0.08349416 -0.11820276
0000c0 01 d1 7f bd be a6 47 be 7c ea af 3d 73 74 ff 3d
       -0.06245518 -0.19497201 0.08589646 0.12473383
0000d0 6a d8 c3 3d 72 e1 b0 bd f2 38 29 3c ec 2a aa bd
       0.09562762 -0.0863675 0.010328518 -0.08308968
0000e0 bb 09 d0 3d f8 8a bc 3d b8 32 69 3d 2c 9c 8a 3d
       0.10158106 0.09206194 0.056933135 0.06768069
0000f0 6c 04 b7 bd c6 35 98 b8 2a ab 0a 3c df aa d2 bd
       -0.0893639 -7.257941e-05 0.00846366 -0.10286497
000100 b0 32 2a bc 22 e1 ae 3a ae 5f ee bb d9 fd fa 3c
       -0.010388061 0.0013342241 -0.0072745895 0.030638622
000110 9d cb c4 b8 d3 86 a3 3d 10 dd e1 ba aa d9 f7 bb
       -9.383934e-05 0.079847 -0.001723202 -0.0075637894
000120 96 4e 3d bb d6 55 9b 3d 92 1c 0f 3b aa b9 ff 3d
       -0.0028885952 0.07584731 0.0021837098 0.124865845
000130 8f 7b 19 bc 7a 32 53 ba e5 86 c1 bb 73 9e d1 3d
       -0.009367838 -0.0008056533 -0.0059059733 0.102353
000140 e9 99 c0 bb 4e 9a 8d 3c 2f ea 61 bc 1a ae 92 3b
       -0.0058777225 0.017285492 -0.013788744 0.004476321
000150 7d ad ac bc bf fc 19 bc 93 c0 ce bb 59 92 e8 bb
       -0.02107882 -0.009398638 -0.0063095777 -0.007097524
000160 60 fa dd bb 68 b7 17 b9 08 f1 5e bc f8 84 13 bd
       -0.006774232 -0.00014468806 -0.013607271 -0.03601548
000170 a8 1f b4 3a 9c 9f c4 bc 5d fd 97 bc 62 db a4 b9
       0.0013742344 -0.024001889 -0.01855343 -0.0003144397
000180 fb 51 5b bc 89 6d 47 bb 49 30 0c bc b9 5d 05 bc
       -0.013386245 -0.0030430278 -0.008556434 -0.008140021
000190 ac 45 b9 bb e0 53 04 3e b7 d1 4a bc bd 61 5f bc
       -0.0056540575 0.12922621 -0.0123791015 -0.0136341425
0001a0 ec 43 35 bc c5 ab 5d bb 8b aa e7 3d 0f dd fb bb
       -0.011063557 -0.0033824306 0.11311825 -0.0076862643
0001b0 b0 43 fd bb 68 a2 73 3c 99 41 40 bc dd 2e 85 bc
       -0.0077290162 0.014870264 -0.01173439 -0.016257698
0001c0 5d 6e ba 3c 6f d2 23 bc b4 73 eb 3d 6a 07 30 3e
       0.022757703 -0.009998902 0.11496678 0.17190328
0001d0 b0 4d 4e 3d 11 6f 84 bb 48 68 51 bc 53 94 12 bc
       0.050367057 -0.0040415605 -0.01278121 -0.008946496
0001e0 41 e8 0e 3e 8d 7e 07 3e f7 28 74 bb e7 e0 af bc
       0.13955785 0.13231869 -0.0037255862 -0.021469546
0001f0 50 7a 3e bc 1a 8a 75 bc b0 47 10 b8 4a bd 87 3c
       -0.011625841 -0.014986539 -3.439904e-05 0.016569752
000200 5d 8e 7f 3d 90 d7 fa bb f1 d1 09 3d f4 4b 8b 3d
       0.062391628 -0.0076550916 0.03364748 0.06801596
000210 d5 41 c7 3c d6 4c a8 3d f1 f0 82 3c f1 da 3e 3b
       0.024323383 0.0821778 0.01598403 0.0029122198
000220 92 c9 76 3d 40 28 ac 3d d9 6d 7b 3d 7a 19 fb 3d
       0.060250826 0.084061146 0.061384056 0.12260719
000230 d4 14 1a bd 7b a4 6a bd 9f a3 cc bc 66 82 be 3d
       -0.03761752 -0.057285767 -0.024980364 0.09302215
000240 7b 8f d1 3d eb 7f 7e 3c 52 81 56 3d 03 7a 12 bb
       0.10232445 0.015533428 0.052369423 -0.0022350557
000250 50 f1 aa 3d 4b d2 5a 3d 4d 6a 75 3d f4 f6 03 bd
       0.08346808 0.053423207 0.05991583 -0.032217935
000260 d5 1c 8f 3d 72 8c 8b 3c 0b 22 65 3d 97 64 bd bb
       0.06987921 0.017034743 0.05594067 -0.0057798135
000270 c2 91 74 bc e8 e0 1a bd 12 2c a2 bc 1d de 27 bd
       -0.0149273295 -0.037812144 -0.019796405 -0.040983308
000280 68 eb 5a 3d 7a 9f 77 3c 54 ae dd 3b 3b ee 28 bb
       0.053447157 0.015113706 0.0067651663 -0.0025776762
000290 8b c5 28 bd 2f 4b dd 3d f7 18 64 3c 01 f1 63 3d
       -0.041204017 0.10805356 0.013921968 0.05564976
0002a0 2c cb 6c bd 8b 2d fe bc 5b 90 d6 3d 53 40 0e bd
       -0.057810947 -0.031027576 0.10476752 -0.034729313
0002b0 db 47 5d 3d d1 1f cb 3b d8 53 e8 3d 09 fc 91 3d
       0.054023605 0.006198861 0.11344117 0.0712815
0002c0 4b 55 81 bc 0d ad 66 3d 98 d1 f2 3d 9b 97 16 3e
       -0.015787741 0.056317378 0.11856383 0.1470627
0002d0 d4 cf 6b 3d 99 4f d7 3d b8 f0 9c bc 88 4f d3 3d
       0.057571247 0.10513229 -0.019157752 0.10317904
0002e0 14 f7 fc 3d 4a ba ee 3d b1 6c 30 bd 3b cb 41 bd
       0.12351814 0.116566256 -0.043072406 -0.047312956
0002f0 fc 58 c5 3d 71 30 90 bd 32 4c 1b 3c dc 3b 1b 3c
       0.09636113 -0.070404895 0.009478616 0.009474721
000300 be 74 ea bc ae 77 9c 3a 81 44 82 bb 3f cb 43 bb
       -0.02862012 0.0011937523 -0.0039754515 -0.0029875783
000310 47 64 f4 3b 0e 14 4f 3d 1f 0e 15 bb f5 c7 92 bc
       0.007458243 0.050556235 -0.0022744013 -0.017917613
000320 c1 fc ed bc 24 57 42 3d 8f c3 cd bc 5f 60 98 3d
       -0.029051187 0.047446385 -0.025117664 0.07440256
000330 fe 88 6b bc 09 2a 12 3b a2 18 f6 bb f3 1d 85 3d
       -0.014375923 0.0022302887 -0.0075102607 0.06499853
000340 df 99 35 bd 68 d5 98 3b f0 05 05 bd 81 36 09 b8
       -0.044336196 0.004664112 -0.032476366 -3.2714106e-05
000350 ac 12 50 bd 84 5f 09 bd e0 81 e3 bc 4d 59 81 bb
       -0.050799057 -0.033538356 -0.02777189 -0.003947413
000360 7e 95 df bc 3e 43 17 bc 63 9c 09 bd 82 04 fa 3b
       -0.027292963 -0.00923234 -0.033596408 0.007629932
000370 32 c5 34 3b 54 a6 98 3b e7 2a 57 bb d2 81 e3 3c
       0.0027583358 0.0046584997 -0.0032831968 0.027771864
000380 a1 5e 0b bd 36 a5 38 ba d9 df 9a b7 79 fb 87 bb
       -0.034025792 -0.00070436613 -1.8462468e-05 -0.004149851
000390 5a 4a 1c bb 8e 31 88 3d 96 a4 a0 bb cf 92 07 bd
       -0.0023848028 0.06650077 -0.0049024327 -0.033098992
0003a0 ab 67 fd 3a 8c e4 27 b8 8b 2d 7d 3d 4c 30 b4 bb
       0.0019333264 -4.0028754e-05 0.06181101 -0.0054989215
0003b0 e6 9a e4 bc 3c bf 6e 3b 79 73 24 bd 2e 97 58 bd
       -0.027905893 0.0036429903 -0.040149186 -0.05287855
0003c0 2b 9a 08 3c 1f e0 ee bc 72 fb 83 3d 53 62 8b 3d
       0.008337538 -0.029159604 0.06444444 0.06805863
0003d0 64 9a 18 3d d5 ee 37 bd c9 4a df bb 00 15 25 bd
       0.037256613 -0.044905502 -0.006814335 -0.04030323
0003e0 be 4e 7f 3d 09 fa 7d 3d 0f 65 a4 3c ba b8 b2 3c
       0.062330954 0.06200603 0.02006772 0.0218166
0003f0 d0 97 3e bd 3e fc 96 3b f6 f0 16 bc 81 82 35 3b
       -0.0465315 0.0046077063 -0.009212723 0.0027696195

bias f4 [32]
000000 78 1f 3d bd e8 e2 13 3d 79 6e 07 bc d0 da 0e 3c
       -0.04617259 0.036105067 -0.008266085 0.008719161
000010 57 13 81 3d 64 b6 55 3d 04 eb 78 3d 1d b8 de bc
       0.06302517 0.052175894 0.060771003 -0.027187401
000020 1c d3 0d 3d 01 22 4d bd 41 55 45 3d cb 76 c0 3b
       0.034625158 -0.050081257 0.048177008 0.005873536
000030 50 cb bd bc dc ee c7 3d 2e ce 3b 3d ef 5b b9 bd
       -0.023168236 0.09762356 0.045850925 -0.09050738
000040 a4 a5 50 3c 84 2d 06 3c af c6 da 3d 16 cc 2d be
       0.012734804 0.008189563 0.10682427 -0.16972384
000050 11 3d a1 bd 79 8c 11 be ac d7 8b 3d 7c 9b 64 3a
       -0.078729756 -0.14213742 0.068282455 0.0008720679
000060 6c 29 a0 3d 22 ae c1 bb a3 98 ee 3c 8c c0 fb bd
       0.078204006 -0.005910651 0.029125517 -0.12292585
000070 d1 3c ef 3d a0 c1 00 3d 70 7a 40 be 44 e0 14 bc
       0.11681522 0.031434655 -0.18796706 -0.009086672

weight f4 [32, 1]
000000 ea df dc bc 5d 28 e0 3c 4e f9 dd bc 00 1b e2 3c
       -0.02696224 0.027362997 -0.027096417 0.027600765
000010 65 ee dc 3c aa 02 e5 bc 80 7d e2 3c a1 fd dc bc
       0.026969144 -0.027955372 0.027647734 -0.026976408
000020 bb a5 e0 3c ad b0 df 3c e0 02 dd 3c 4a 89 df bc
       0.027422776 0.027305925 0.02697891 -0.027287144
000030 b6 97 f1 3c 42 e2 de bc 20 de dc 3c 9a a7 dc bc
       0.029491287 -0.027207498 0.026961386 -0.026935387
000040 5a 0e df 3c e8 4c de 3c 60 c1 e0 3c 26 eb de bc
       0.027228523 0.027136281 0.027435958 -0.027211737
000050 8e 7c db 3c cd fa dc 3c 5b 65 de bc 4d 27 de bc
       0.02679279 0.02697506 -0.02714794 -0.02711835
000060 1d 43 de 3c 0f 18 e8 3c 98 56 10 ba 4a b5 de 3c
       0.027131611 0.028331785 -0.00055060675 0.027186055
000070 93 87 dd bc 5f 6a dd bc f4 a0 de bc 65 f1 df 3c
       -0.027042186 -0.02702826 -0.027176358 0.027336786

bias f4 [32]
000000 52 df 60 bf 37 fd b3 3e d0 4f a3 be dc eb 3f 3e
       -0.8784076 0.35154125 -0.3189683 0.18742317
000010 ed 38 3c 3f 01 59 dc bb d7 f4 55 3e 5b ed 3f bf
       0.7352436 -0.0067244773 0.2089418 -0.7497155
000020 b6 63 bf 3e 72 e7 a0 3e 6f f6 3f 3f f0 2d 92 bd
       0.3738076 0.3142658 0.749854 -0.07137668
000030 bb d8 bf 3c ab 32 5b be 71 d7 62 3f 4b 5f 29 bf
       0.023418775 -0.21406047 0.8860999 -0.6616103
000040 2b 78 bc 3e 02 4d f7 3e 25 25 58 3e 2e 5e 0a bf
       0.3681043 0.4830094 0.2110792 -0.54049957
000050 d4 79 52 3f 93 36 68 3f 98 98 0e bf 2f 27 6e bf
       0.82217145 0.90708274 -0.5570159 -0.9302854
000060 a2 9e 57 3f de 4c b2 3d e0 28 57 bb 6c 98 49 3f
       0.8422643 0.087060675 -0.003283076 0.787482
000070 69 43 bf be a6 f7 f0 be 33 4a 6b be dd 9b 65 3e
       -0.37356117 -0.4706394 -0.22977524 0.22422738

weight f4 [64, 32]
000000 a8 c7 aa 3b e2 30 f2 bb 34 c4 02 3c 04 19 2a bc
       0.005211789 -0.007391081 0.007981349 -0.010381941
000010 69 80 a4 bb ce 54 eb 3c 87 12 20 bc c4 a4 b1 3b
       -0.0050201905 0.028726961 -0.009770042 0.005421253
000020 a0 08 eb bb 36 3d fb bb 8d c4 9e bb a3 73 87 3c
       -0.007172659 -0.007667209 -0.004845208 0.016534632
000030 e3 3e d3 bc e4 fb 22 3c e6 68 92 bb b8 57 bd 3b
       -0.025786823 0.009947751 -0.0044680713 0.005778279
000040 49 b7 eb bb a3 ff c5 bb 3f 90 1f bc 79 47 d0 3b
       -0.00719348 -0.006042437 -0.009738981 0.0063561765
000050 90 50 96 bb a4 f2 95 bb 92 af ca 3b aa 97 a4 3b
       -0.0045872405 -0.004576044 0.0061854804 0.0050229626
000060 6f 2f 97 bb 11 ee 80 bc e2 0d 13 3c fc 94 9a bb
       -0.004613809 -0.015738519 0.008975478 -0.0047174674
000070 3b f4 f4 3b 06 3e dd 3b 4f 97 1c 3c f7 e8 18 bc
       0.0074754036 0.0067517785 0.009557559 -0.009332887
000080 d5 03 0c 3d ac c8 18 bd b4 15 1a 3d ae eb 26 bd
       0.034183342 -0.03730075 0.037618354 -0.040752105
000090 91 e6 0d bd 6a e5 8e 3d 2e 84 24 bd d7 88 0d 3d
       -0.034643713 0.06977351 -0.04016512 0.03455433
0000a0 79 bc 17 bd 4b c4 1a bd fc c9 0d bd 5b 39 45 3d
       -0.037044976 -0.037784856 -0.034616455 0.0481504
0000b0 59 59 77 bd bb ce 22 3d 2c 47 0c bd 4e a3 0e 3d
       -0.060387943 0.039747935 -0.034247562 0.03482371
0000c0 6f dd 17 bd 3d 77 13 bd a1 fd 23 bd a2 70 11 3d
       -0.03707641 -0.036002386 -0.0400368 0.035507806
0000d0 d2 71 0c bd 76 06 0c bd 39 f8 10 3d 4e 02 0c 3d
       -0.034288235 -0.03418585 0.035392974 0.034181885
0000e0 db b6 0c bd ba 0b 42 bd e7 99 9f bc 32 b2 0d bd
       -0.034354072 -0.047374465 -0.019482566 -0.03459377
0000f0 bb bf 16 3d d3 3f 13 3d 52 0b 21 3d 78 22 22 bd
       0.036803942 0.03594954 0.039317437 -0.039583653
000100 b6 17 86 bc 52 4a 5e 3c e9 4a 8f bc f7 c3 58 3c
       -0.016368728 0.013567524 -0.017491775 0.013230315
000110 2f 56 66 3c 2f 81 9d bc da 57 5a 3c 66 f0 86 bc
       0.014058634 -0.019226639 0.0133266095 -0.016472053
000120 62 7a 5f 3c 76 56 60 3c fa 6c 67 3c ad 0f 9c bc
       0.013640018 0.013692489 0.014125103 -0.019050444
000130 06 77 28 3c 20 66 94 bc 88 c6 65 3c d1 fc 87 bc
       0.010282284 -0.018115103 0.014024384 -0.016600044
000140 f4 b3 61 3c ea c8 61 3c aa ff 59 3c da d5 8a bc
       0.013775814 0.013780812 0.013305584 -0.016947675
000150 a0 91 65 3c dc a3 66 3c e1 b6 89 bc f1 d8 84 bc
       0.0140117705 0.014077153 -0.016810836 -0.016216727
000160 a7 5c 67 3c b1 7f 46 3c c5 89 9e 3c 54 89 66 3c
       0.014121211 0.012115405 0.019352803 0.0140708275
000170 cf 2e 8d bc d9 66 8b bc c9 8d 93 bc 01 21 5a 3c
       -0.017234234 -0.017016815 -0.018011944 0.013313533
000180 50 27 17 3a f1 43 55 ba e5 ee 9b 3a 12 3e 83 ba
       0.0005766051 -0.0008135429 0.0011896758 -0.0010013005
000190 ff f4 5e ba ff 17 9d 3b b2 bd 85 ba 75 6a 10 3a
       -0.0008505135 0.0047941203 -0.0010203628 0.00055090274
0001a0 8d 17 6e ba 17 29 69 ba 5c 77 7c ba d0 be 35 3b
       -0.0009082489 -0.00088943675 -0.0009630823 0.0027732141
0001b0 7d c3 59 bb 5e 87 c7 3a 41 9b 5c ba 06 29 36 3a
       -0.0033228092 0.0015222838 -0.00084154686 0.0006948862
0001c0 e0 a8 43 ba 82 d3 54 ba 8f 9f 70 ba 6a 87 4f 3a
       -0.0007463824 -0.00081186753 -0.00091790495 0.00079166016
0001d0 6f b5 80 ba 18 f0 66 ba 2f 14 3d 3a 18 5b fa 39
       -0.0009819696 -0.00088095805 0.00072127854 0.00047751586
0001e0 6c 68 7e ba 20 20 c9 ba a9 a8 03 3a 3d bd 68 ba
       -0.0009704891 -0.0015344657 0.0005022386 -0.00088782964
0001f0 56 9f 7a 3a db 09 4e 3a 43 d5 b6 3a f0 34 7d ba
       0.0009560486 0.0007859745 0.0013949055 -0.00096590724
000200 85 e2 3f bb a1 45 55 3b f6 6f 18 bb 2b 9f 7a 3b
       -0.0029279303 0.0032542723 -0.0023260093 0.0038241844
000210 71 fc 3f 3b 6b ce 11 bb 27 33 76 3b 46 84 36 bb
       0.0029294754 -0.002224828 0.003756711 -0.0027849837
000220 7a 4d 50 3b 12 1b 57 3b 0f 8d 39 3b c0 76 d9 ba
       0.003178446 0.0032822532 0.0028312837 -0.0016591176
000230 65 1d f0 3b 3b 4c 00 bb 44 6f 33 3b 4c 91 30 bb
       0.007327723 -0.0019576687 0.0027379552 -0.0026942072
000240 4a 3f 59 3b 41 18 46 3b 51 05 6d 3b 36 8e 32 bb
       0.0033149295 0.0030226859 0.00361665 -0.002724541
000250 d9 cf 3a 3b c0 cf 37 3b 3f 5c 30 bb 92 08 40 bb
       0.0028505235 0.0028047413 -0.0026910452 -0.0029301983
000260 9f b0 39 3b 3e 07 a1 3b ee e4 a0 3c 33 84 40 3b
       0.0028334034 0.0049141934 0.019640412 0.0029375672
000270 c4 de 22 bb 20 7e 27 bb 2b 45 02 bb f0 02 71 3b
       -0.0024852017 -0.0025557354 -0.0019877653 0.0036775433
000280 52 07 20 3c 68 6f 27 bc db ac 2a 3c 7b c0 2d bc
       0.00976737 -0.010219432 0.0104171885 -0.010604973
000290 96 39 21 bc e1 b6 65 3c 3b 41 2e bc 85 3d 21 3c
       -0.00984039 0.0140206525 -0.010635669 0.009841328
0002a0 3c 35 24 bc a9 e8 27 bc 53 76 1f bc 1a 70 42 3c
       -0.010022458 -0.010248342 -0.009732801 0.011867547
0002b0 31 42 5d bc 28 af 2e 3c 5e b3 1f bc 66 65 22 3c
       -0.013504551 0.010661878 -0.009747354 0.009911871
0002c0 00 aa 24 bc 82 14 23 bc 35 12 2e bc d6 5e 24 3c
       -0.010050297 -0.00995362 -0.010624458 0.010032376
0002d0 71 8e 1e bc 6a dc 1f bc 0d 62 22 3c 2b 8d 20 3c
       -0.009677515 -0.009757141 0.009911072 0.009799282
0002e0 66 d0 1e bc d9 8a 3e bc 4d 45 26 bc 02 24 20 bc
       -0.009693241 -0.011629784 -0.0101483585 -0.00977421
0002f0 47 8b 27 3c c2 fb 24 3c 05 5b 2d 3c d5 99 2b bc
       0.010226077 0.010069789 0.010580783 -0.010473688
000300 3c 92 34 3c 32 46 33 bc 73 d9 38 3c 93 f9 38 bc
       0.011021193 -0.010942029 0.011282313 -0.011289972
000310 26 b6 32 bc 46 68 47 3c 46 c1 35 bc d2 93 35 3c
       -0.010907685 0.012170857 -0.011093443 0.011082606
000320 a5 7d 33 bc 52 da 35 bc 00 d1 33 bc 05 a7 42 3c
       -0.010955249 -0.011099415 -0.010975122 0.011880641
000330 7e 37 4a bc 40 ef 39 3c d0 9f 32 bc 98 8c 34 3c
       -0.012342332 0.011348546 -0.01090236 0.011019848
000340 59 ee 33 bc cd 9c 33 bc 3d fa 35 bc 46 a5 36 3c
       -0.0109821195 -0.010962677 -0.011107025 0.011147803
000350 c6 f0 32 bc 5a db 31 bc 71 c2 34 3c 0b 8d 34 3c
       -0.010921663 -0.01085552 0.011032687 0.011019955
000360 b0 e8 33 bc 79 b9 3e bc c0 fd 1a bc ac af 33 bc
       -0.01098077 -0.0116409 -0.009459913 -0.010967176
000370 d6 0b 38 3c 47 ba 37 3c df 64 3b 3c 55 a5 36 bc
       0.011233291 0.011213846 0.011437624 -0.011147817
000380 6e 0e f9 3b 36 de 05 bc 40 02 04 3c 7a 84 0b bc
       0.007600597 -0.008170655 0.008057177 -0.008515472
000390 81 24 01 bc 7c f8 e3 3b 22 e2 09 bc 91 2e fc 3b
       -0.007882238 0.006957112 -0.008415731 0.007695981
0003a0 7e 41 06 bc 14 19 07 bc 02 b0 02 bc 17 22 0a 3c
       -0.0081943255 -0.008245725 -0.007976534 0.008430979
0003b0 02 72 24 bc 89 da 08 3c 9a a0 02 bc c6 11 fe 3b
       -0.010036947 0.008352884 -0.007972861 0.0077535836
0003c0 00 3f 06 bc 05 76 02 bc 39 a8 08 bc 78 ec 01 3c
       -0.008193731 -0.007962708 -0.008340889 0.007929914
0003d0 e0 d1 ff bb a6 85 01 bc 55 c5 01 3c 58 4a f8 3b
       -0.0078070015 -0.007905399 0.007920583 0.007577222
0003e0 e9 e5 00 bc 32 95 16 bc 83 04 f9 3c 0e e4 01 bc
       -0.007867315 -0.009190844 0.03039766 -0.007927908
0003f0 05 4e 04 3c 3a 1e 02 3c e8 32 09 3c 83 18 09 bc
       0.008075242 0.007941777 0.008373953 -0.00836766

bias f4 [64]
000000 08 1f ef bc 53 0e f0 3c 35 6a 02 be ac b0 fa bc
       -0.029189602 0.029303705 -0.12735827 -0.030601822
000010 60 76 e7 bd 50 73 8f 3d cd d5 82 3d 88 45 10 be
       -0.11301875 0.07004416 0.063884355 -0.14089024
000020 9d 8f 16 be 17 4b 96 3c 4f dc 39 3d e2 57 1a be
       -0.14703222 0.018346353 0.04537612 -0.15072587
000030 97 2f 66 bb cf e2 a7 3d cb a7 e7 3d 12 9f 56 ba
       -0.003512358 0.08197557 0.11311301 -0.00081871555
000040 46 29 05 be bc c5 6d bb bf 4f 07 3e 6c 56 10 3d
       -0.13004026 -0.003628119 0.13214014 0.03523867
000050 5e 91 d5 3d 67 c7 83 3c 5f 59 65 3d fc 40 ec bd
       0.10428117 0.016086293 0.055993434 -0.11535832
000060 ce c7 b5 3d f4 3f 0b be 57 4a 12 be 38 48 c6 3d
       0.08876 -0.13598615 -0.14286171 0.096817434
000070 d7 5e 05 bd b9 ca 90 bd a4 c5 1d be a2 2d 7e 3d
       -0.03256115 -0.07069916 -0.15407425 0.062055238
000080 99 6a ef 3d fc 95 e8 3c a1 50 07 3e 5c 65 70 bd
       0.11690254 0.02839183 0.13214351 -0.058690414
000090 7f ad 8d 3d 4d 2d bf bd 2d 46 52 3d 38 49 1c 3e
       0.069178574 -0.09334812 0.051336456 0.15262306
0000a0 0f 6b 76 3d a2 c0 a8 bd c3 e1 28 b9 6d e8 3a bd
       0.060160693 -0.08239867 -0.00016105831 -0.045631815
0000b0 14 c5 08 3d b6 d8 99 3d dd d4 11 be 02 9a 01 be
       0.033391073 0.075120375 -0.14241357 -0.12656406
0000c0 fc 3f f7 3c be 66 bd bd ff 79 ab 3d d6 c3 06 bd
       0.030181877 -0.09248112 0.08372878 -0.032901607
0000d0 46 22 bb 3d 9b 1c 9d 3c 09 82 33 bd de bb d5 3d
       0.091373965 0.01917868 -0.043825183 0.104362234
0000e0 1a fa 80 3d 8d 7a bf bd eb 86 05 be ad c2 af bd
       0.06297703 -0.093495466 -0.13039748 -0.08582053
0000f0 98 56 93 bd 2b 4b 04 be 26 50 56 bd a8 29 11 3e
       -0.07194251 -0.129193 -0.05232253 0.14176047

weight f4 [32, 64]
000000 36 67 6d 3d 58 ba 41 3a f2 0a 20 3d 29 e5 2b 3c
       0.057959758 0.0007390133 0.03907294 0.010491648
000010 28 f2 0f 3d b7 3d bf ba 2e 61 a7 ba 86 ad cc 3c
       0.035143048 -0.0014590536 -0.0012770051 0.024985086
000020 c2 6a 4a bd ed a7 16 bb c8 24 b1 ba 2b 54 0f 3d
       -0.04941822 -0.0022988275 -0.001351499 0.03499238
000030 95 8b e5 3c 9a a0 78 ba 29 9e b9 b9 a2 fa 13 3d
       0.02802066 -0.0009484381 -0.00035403788 0.036127694
000040 2f 48 87 3c 6d ee ef 3a ad 5a ec b8 dc c1 50 ba
       0.016513912 0.0018305309 -0.000112702466 -0.00079634576
000050 dc af c6 b9 d9 cb 0b bb 0c b1 b2 ba 5f 67 0f bc
       -0.00037896528 -0.002133122 -0.0013633086 -0.008752673
000060 58 7a 31 ba b0 48 5b 3d 9a b0 35 3d 01 66 01 ba
       -0.0006770245 0.053536117 0.044357873 -0.0004936159
000070 f4 1d 2d 3c a5 59 85 3a 31 cc 0f 3d a5 b4 0e bb
       0.010566223 0.0010173811 0.03510684 -0.0021775153
000080 5b 5a 83 39 22 0d 14 3a 7c 3a eb b6 23 48 95 bc
       0.00025053587 0.0005647709 -7.0103542e-06 -0.018222874
000090 0a 2d 9e ba ef 77 72 3d 7b 95 b3 ba a6 58 8c b9
       -0.0012067866 0.05919641 -0.0013701165 -0.0002676893
0000a0 98 93 01 bb ad b9 a4 b9 d2 e5 b0 3a cf 93 0c 3a
       -0.001977181 -0.00031418857 0.0013496226 0.00053626014
0000b0 34 5b 8f 3a 55 75 af ba a5 fa 37 3d b4 85 0a bb
       0.0010937215 -0.0013386408 0.044916768 -0.0021136822
0000c0 00 d6 2a ba 20 b3 bf 39 9a 8c b3 ba dd d9 27 3d
       -0.0006516874 0.00036563817 -0.0013698519 0.040979255
0000d0 2d 0d 17 ba a4 b0 df bc c2 03 0f 3a ad 5f 28 ba
       -0.0005762156 -0.027305909 0.0005455577 -0.0006422948
0000e0 91 fe a5 ba 54 f4 ee bc 37 d8 78 3c 93 95 04 3d
       -0.0012664368 -0.02916924 0.015188268 0.032369208
0000f0 f1 b2 6f 3d 4b 30 a6 3c 70 97 c7 3c ce 8a 47 ba
       0.05852026 0.0202867 0.024364203 -0.0007611931
000100 7e 06 77 bb 9d 2e f4 bc ef f4 32 3c 68 9b f1 bb
       -0.0037693079 -0.029807383 0.0109226545 -0.007373262
000110 06 61 c4 3b e0 94 f2 ba 58 f7 0e bb 7a 2a db 3b
       0.0059930114 -0.0018507503 -0.0021814909 0.006688413
000120 b1 d3 b8 bc 44 3e 37 bb 2d e8 13 bb 02 2c 50 3c
       -0.02256188 -0.0027960697 -0.0022568807 0.012705805
000130 60 5c 80 bb 7c 17 a0 ba b0 0d 55 ba 54 26 39 39
       -0.003917262 -0.001221403 -0.0008127345 0.00017657253
000140 12 82 39 bb 38 22 9d bb 11 9e 18 ba 60 8d d7 ba
       -0.0028306288 -0.004795339 -0.00058218936 -0.0016445331
000150 3a f2 a6 38 0f ee 20 bb b0 c5 fc ba 54 a3 11 bc
       7.960615e-05 -0.0024555956 -0.001928499 -0.008889038
000160 9e 0b 8c ba 8f bb 86 bc 33 27 67 3c 15 fc 56 ba
       -0.0010684615 -0.016446857 0.014108467 -0.00082010153
000170 3b 5f cb bb fc b2 9a 3a 9d f5 11 3c 15 be 25 bb
       -0.0062064207 0.0011802609 0.008908656 -0.00252903
000180 c4 be 56 ba c9 49 fa ba 8c 1c 8b b9 38 82 38 3c
       -0.00081918784 -0.0019095476 -0.00026533415 0.011261515
000190 2e 2c 46 bb e8 09 9f bb 1a a5 c8 bb d1 c4 34 ba
       -0.0030238735 -0.004853476 -0.0061231973 -0.0006895783
0001a0 c9 7e 47 bb 78 5b ba b9 d8 34 8d bb d4 b3 57 3a
       -0.003044056 -0.00035544834 -0.004309278 0.00082283956
0001b0 93 d4 d4 bc ac 89 d3 ba 32 06 6a 3c 9e 07 02 bb
       -0.02598027 -0.0016139052 0.014283704 -0.0019840966
0001c0 62 dc 9d ba 39 89 0e 3a 04 15 f8 ba 39 db 13 bc
       -0.0012043829 0.0005437318 -0.0018927162 -0.009024435
0001d0 07 7d 6f ba 8d ba d3 bc 9c a9 80 3a 2e 8c 8b ba
       -0.0009135757 -0.02584579 0.0009816173 -0.0010646635
0001e0 44 1f 87 ba 3f fe 44 bc f9 e9 12 bb b0 b6 a4 3a
       -0.0010309 -0.012023508 -0.002241729 0.0012566652
0001f0 5c 76 03 3c 64 3f b0 b9 4b 96 c2 bb bb da 83 ba
       0.008023825 -0.00033616566 -0.0059383265 -0.0010059694
000200 59 30 cf 3a 77 99 57 bb 3a e1 4d 3c 40 ab 11 ba
       0.0015807255 -0.0032897869 0.012565905 -0.0005556829
000210 b0 84 1e 3c 04 d8 cd ba 62 f6 dd ba 5d 68 69 3c
       0.00967519 -0.0015704636 -0.001693439 0.014246074
000220 cb 46 18 bd 73 01 30 bb b6 62 e0 ba aa fa c5 3c
       -0.03717689 -0.0026856333 -0.0017119262 0.024167378
000230 dd 2c c0 3b 64 11 27 ba 9c df b6 b8 71 63 16 3c
       0.005864723 -0.0006373136 -8.720087e-05 0.009178982
000240 b6 be 96 bb 47 13 b4 3a 23 e6 02 39 0e 1a 5e ba
       -0.0046003712 0.0013738655 0.00012483499 -0.00084725104
000250 50 c1 88 b9 35 1f 05 bb 0c cc ad ba f0 b2 28 bc
       -0.0002608397 -0.002031279 -0.0013259663 -0.010296568
000260 6d 83 26 ba 14 0c 67 bc f6 a2 a1 3c ef 4a 0b ba
       -0.00063519814 -0.014102001 0.019731026 -0.0005313595
000270 1f 7b e3 bb 03 a3 89 3a 65 b9 f3 3c 56 97 06 bb
       -0.0069421674 0.0010500852 0.029751489 -0.002053698
000280 f7 7f d0 38 cb 87 ee b9 b8 d0 a9 38 4f 76 d8 3c
       9.942048e-05 -0.0004549607 8.097425e-05 0.026423601
000290 37 30 fd ba 4d d8 32 ba 6e ad 8f ba ca e6 3a b9
       -0.0019316737 -0.00068223925 -0.001096172 -0.00017824318
0002a0 08 c9 20 bb 1b 31 cb b9 fc af 8a 39 69 b7 62 3a
       -0.0024533886 -0.00038755764 0.0002645253 0.0008648546
0002b0 1a 49 51 bb b5 2e 94 ba 54 ad a5 3c 23 e2 1d bb
       -0.003193444 -0.0011305424 0.02022425 -0.0024091087
0002c0 f1 17 d5 b9 e2 f8 84 39 0e df cb ba e1 00 a1 ba
       -0.00040644364 0.00025362434 -0.0015554146 -0.0012283587
0002d0 9f f2 d2 b9 b4 b7 af 3c bc a5 4e 3a 5a 98 0b ba
       -0.00040235088 0.021449901 0.0007882973 -0.00053251314
0002e0 af 7e 86 ba bb 5a 3d bd bc 2a e7 b9 09 96 73 3c
       -0.0010261143 -0.046229105 -0.00044091593 0.014867314
0002f0 58 11 e2 3b 11 a3 c6 3a 14 54 1c bb 75 11 34 ba
       0.00689904 0.0015154799 -0.0023853825 -0.00068690564
000300 bc 12 bb 3c 9d 8d fb bc 6b 05 95 3c 4c 42 94 3c
       0.022836082 -0.030707175 0.01819106 0.018098019
000310 cb 27 b7 3c 4e 67 f5 ba 2a 8f 02 bb 5d 2a 7e 3c
       0.022357842 -0.0018722804 -0.0019921758 0.01551303
000320 92 f7 cf bc 2f 9c 0b bb 46 3b ff ba 78 23 a6 3c
       -0.025386605 -0.002130281 -0.0019472621 0.020280585
000330 f9 a7 8d 3c 72 84 ad ba 55 9c 82 ba 32 d7 76 3c
       0.01729201 -0.0013238324 -0.0009964803 0.015065955
000340 4b 2f bd 3b 6f 2a 99 3b f3 92 8a ba ce a3 68 ba
       0.00577346 0.004674248 -0.0010572359 -0.00088745065
000350 82 3e 0a ba 81 12 10 bb 6a 2d d7 ba 03 3d 74 bb
       -0.00052735966 -0.0021983685 -0.0016416733 -0.003726781
000360 e6 cc b4 ba cc 17 b2 3c f0 b3 c2 3c ba 34 93 ba
       -0.0013793975 0.021739863 0.023767442 -0.0011230924
000370 73 fa 24 bb 2b 41 b9 3a 60 44 8f 3c 18 c4 19 bb
       -0.0025173693 0.0014133801 0.017488658 -0.0023462828
000380 5c 33 da b8 de 4e 84 b9 7b 10 5d ba 38 51 a0 3c
       -0.000104046165 -0.00025235763 -0.0008432937 0.019569978
000390 8c 09 d1 ba 34 e2 ba 3c 46 6a 95 3b 01 e0 a5 ba
       -0.001594828 0.02281294 0.004559788 -0.0012655259
0003a0 61 ef 18 bb 31 93 a8 38 d0 ea 35 3b 3e ee d2 3a
       -0.002333604 8.038281e-05 0.0027758367 0.001609273
0003b0 4d cd 7e bc b9 0a d6 ba f8 b5 c3 3c 04 ec c7 ba
       -0.015551877 -0.00163301 0.02389048 -0.0015252833
0003c0 8d 7a 3d ba 47 64 72 3a 77 43 f0 ba bc 22 a1 3c
       -0.00072280393 0.000924651 -0.0018330653 0.019669883
0003d0 a1 6e 93 ba b2 41 f5 bc dc 8f d1 3a 3b 83 ae ba
       -0.001124818 -0.029938553 0.0015988308 -0.0013314256
0003e0 60 b7 26 ba 4d 57 fa bb a9 0b 8e 3c 6a cc 80 3c
       -0.00063597225 -0.0076398016 0.017339544 0.015722472
0003f0 d0 9f c9 3c c0 15 83 3c f0 82 87 3c de f9 e7 ba
       0.024612337 0.016001582 0.016541928 -0.0017698368

bias f4 [32]
000000 67 01 b7 bb 46 23 9f 3d 6a 42 90 3c 9d 55 72 3d
       -0.005584884 0.077704 0.017609794 0.05916368
000010 f0 1f 81 bb 60 cd 8b 3c f0 41 a0 3d c0 55 91 bd
       -0.003940575 0.017065704 0.078250766 -0.07096434
000020 ab 98 0b be 35 7f b0 bc c2 66 7a 3c b6 16 d8 bd
       -0.13632457 -0.021545032 0.015283288 -0.10551207
000030 0c 2d 22 3b 1d b6 50 bd 63 ab b2 3d e3 31 93 bd
       0.0024746088 -0.050954927 0.08724096 -0.071872495
000040 61 18 dd bb cf 75 65 bd cb 19 ff bd 3e e0 1b 3c
       -0.006747291 -0.056020554 -0.124560915 0.009513913
000050 d6 0c 27 be 9e 07 00 be 1b d0 a4 bb c7 f3 00 be
       -0.1631349 -0.12502906 -0.005029691 -0.12592994
000060 24 b4 e2 bb ee a9 70 bc 62 a5 90 bd 42 66 96 3d
       -0.006918447 -0.014688952 -0.07062794 0.07343723
000070 c4 d0 99 bd 59 9c 7e 3d d5 6b 02 be b6 51 d9 bc
       -0.07510522 0.062160823 -0.12736447 -0.02652822

weight f4 [32, 1]
000000 16 65 23 3f b0 7b 3c bf fc 2f 33 bf fe d7 0a 3f
       0.6382612 -0.7362623 -0.69995093 0.5423583
000010 1c 5a 18 bf 5f cf 29 3f 85 c8 3a 3f 40 a1 39 bf
       -0.59512496 0.6633205 0.7296222 -0.7251167
000020 61 63 30 3f 5d b0 2d 3f 7e f0 41 bf 96 ab 29 3f
       0.6890164 0.67847234 -0.75757587 0.66277444
000030 35 41 0c bf 9d 55 4c bf 4d 03 3c 3f 94 5e 2a bf
       -0.54787 -0.79818135 0.73442537 -0.66550565
000040 37 82 26 3f 4e d8 0d 3f cb f6 3b 3f 89 27 24 3f
       0.6504244 0.5540818 0.7342345 0.64122826
000050 a3 42 24 bf 64 55 4c 3f e0 e6 e7 be 47 df 07 3f
       -0.6416418 0.79817796 -0.4529333 0.5307507
000060 9b 5d 3f bf 5e de 35 3f 36 7f 1c bf 9d 4b 3a bf
       -0.74752206 0.7104243 -0.6113161 -0.72771627
000070 6f 6d 1b bf 24 0f 38 3f 94 6a 26 3f 72 63 fa 3e
       -0.6071386 0.718981 0.65006375 0.48903996

bias f4 [32]
000000 70 e0 fb 3e cc d1 04 be 52 c4 88 be df 05 33 3f
       0.4919467 -0.12970656 -0.2671228 0.69930834
000010 ba f7 17 bf b4 7f d2 3e 2f 17 26 3e a5 9d 30 be
       -0.59362376 0.41113055 0.16219781 -0.17247637
000020 ef da a3 3e f5 1e b8 3e 5d 53 50 bd 8b b3 d4 3e
       0.3200297 0.35961118 -0.05086075 0.4154323
000030 33 c0 2e bf 3f c1 cb ba 17 f3 16 3e a6 c8 c9 be
       -0.6826202 -0.0015545263 0.14741169 -0.39410895
000040 a2 5d e7 3e 73 34 2f 3f e9 b7 16 3e 9c e2 f6 3e
       0.45188624 0.68439406 0.14718594 0.48219764
000050 67 8b f0 be 98 11 e3 bd 73 9e 57 bf dd 39 39 3f
       -0.46981356 -0.1108734 -0.8422615 0.7235392
000060 58 5a b2 bd 65 84 74 3e 6d 1d 0e bf d2 18 26 be
       -0.08708638 0.2387863 -0.5551365 -0.16220406
000070 a7 c6 10 bf 2d 37 54 3e f9 67 ea 3e 8e fb 48 3f
       -0.5655312 0.20724173 0.4578245 0.7850884

weight f4 [64, 32]
000000 18 59 91 bc 48 77 fb 3d 7e f8 88 3d 82 b5 0b 3c
       -0.017742679 0.122786105 0.06688021 0.008527162
000010 3b a0 57 3b f9 e4 02 bd b4 1d db bd a5 f8 d0 3d
       0.0032901901 -0.031956647 -0.10699025 0.10203675
000020 51 e4 56 bd 2f d6 2f bd 44 41 32 3e 90 f2 ff bc
       -0.052463833 -0.04292887 0.1740771 -0.031243593
000030 7b 76 dd bb 60 17 42 3e 23 3c ea bd 27 c6 0f 3d
       -0.0067585087 0.1895423 -0.114372514 0.035101082
000040 f6 5f c6 bc 81 b3 e2 3b 2d 30 ea bd fc 62 9d bc
       -0.02421568 0.006918371 -0.1143497 -0.019212238
000050 13 a4 ab 3c cc f4 b8 be 05 06 9d bc 32 dc 2c 3c
       0.02095226 -0.36124265 -0.01916791 0.0105505455
000060 71 63 17 3e 11 d1 9c bd c0 ad 06 3c 74 60 da 3d
       0.14784028 -0.07657064 0.008220136 0.10662928
000070 b0 73 e2 3b bd bf b4 bd 09 20 c0 bc f9 4b 7f 3c
       0.0069107637 -0.08825634 -0.023452776 0.015582078
000080 0c 17 7c bd e2 f5 44 3e f6 97 fc 3d 5c 19 d9 bc
       -0.061545417 0.19234422 0.12333672 -0.02650135
000090 ad 1a 2a 3d 0b 40 a4 bd f1 0c 34 be c6 f1 2a 3e
       0.041529346 -0.08020028 -0.17583062 0.16693792
0000a0 76 b8 da bd 2d 52 c1 bd 13 8a 81 3e bd 79 a2 bd
       -0.106797144 -0.09439502 0.25300655 -0.07933376
0000b0 4c db e6 3c 7f ba b2 3e 04 84 3d be 2f e2 a9 3d
       0.02818074 0.3490791 -0.18507391 0.08295094
0000c0 15 47 8f bd 4d 19 ed bc be 84 3d be d6 f8 81 bd
       -0.0699598 -0.028942728 -0.18507668 -0.0634629
0000d0 9e 6f 84 3d d2 e8 eb be 56 fe 40 3c de b6 c5 bc
       0.06466602 -0.46076065 0.011779388 -0.02413505
0000e0 70 96 63 3e 08 19 0d be e7 40 45 3d 79 d4 30 3e
       0.22225356 -0.1377908 0.0481576 0.17268552
0000f0 26 d6 3d 3d 04 32 1c be d8 82 8d bd 6e ac 8c bc
       0.046346806 -0.15253454 -0.06909722 -0.017172065
000100 f8 5e 5b bd af 37 40 3e 1d 54 ef 3d 32 7d 90 bc
       -0.053557366 0.18771242 0.11685965 -0.017637823
000110 58 0f 04 3d 81 9f 94 bd 2a 82 2e be 1e a0 25 3e
       0.032241195 -0.072569855 -0.17041841 0.16174361
000120 7d 77 cc bd e0 a5 b2 bd 5f 15 80 3e e4 d4 92 bd
       -0.09983728 -0.087230444 0.25016305 -0.07169512
000130 92 e6 97 3c a1 48 b2 3e 7d 41 38 be 00 00 9a 3d
       0.018542562 0.34821036 -0.17993732 0.07519531
000140 fe 0f 7f bd 5b 46 a4 bc e4 3f 38 be 95 ae 63 bd
       -0.06227111 -0.02005308 -0.17993122 -0.055586416
000150 5d 17 66 3d b0 2e eb be 73 47 c2 3a 68 e1 78 bc
       0.056174625 -0.45934057 0.0014822319 -0.01519046
000160 5b eb 5f 3e ad a1 06 be bf 78 20 3d 45 aa 2b 3e
       0.21867125 -0.13147612 0.039177652 0.16764171
000170 67 5b 18 3d 38 0d 16 be 20 27 7b bd d8 ac 04 bc
       0.037196543 -0.1465348 -0.06131661 -0.00809785
000180 1e 03 74 bd 09 9b 43 3e 6e 0e fa 3d 95 f8 cb bc
       -0.059573285 0.1910211 0.122097835 -0.024898807
000190 33 2b 25 3d 00 d7 9f bd c7 28 31 be 61 cb 29 3e
       0.0403244 -0.0780468 -0.17300712 0.16581489
0001a0 41 09 d6 bd e5 06 bd bd 7f e6 80 3e 70 38 9e bd
       -0.10450984 -0.09229831 0.25175855 -0.07725608
0001b0 0a ca de 3c ca 35 b2 3e 10 ab 3a be f0 8a a7 3d
       0.02719595 0.34806663 -0.18229318 0.08180797
0001c0 6d 47 8b bd 57 3c df bc 1b b1 3a be 05 a9 7b bd
       -0.06800733 -0.027250452 -0.18231623 -0.061440486
0001d0 b3 ea 81 3d 09 cc e9 be b6 c2 30 3c cf d9 b8 bc
       0.063435934 -0.4566348 0.01078861 -0.022564797
0001e0 80 50 62 3e 9b a4 0a be ae 67 40 3d d8 87 2f 3e
       0.22101021 -0.13539355 0.046973877 0.17141664
0001f0 59 be 38 3d a3 6f 19 be 56 64 89 bd dc a6 7e bc
       0.045103405 -0.14983992 -0.06708591 -0.015542712
000200 a2 8c 98 bc 2a a0 37 3e fb ca c4 3d 41 44 ca 3c
       -0.018621746 0.17932191 0.09609028 0.02469075
000210 68 0e b6 bb 0b 2e 2a bd fd 9f 20 be 4e a2 18 3e
       -0.0055559166 -0.041547816 -0.1568603 0.14905664
000220 34 bb 97 bd 99 9c 71 bd 4b ca 80 3e aa 97 25 bd
       -0.07408753 -0.058987234 0.25154337 -0.04042784
000230 97 e2 b7 bc 0a d0 b5 3e d8 e0 2b be fb 79 3d 3d
       -0.022446914 0.35510284 -0.1678499 0.046258908
000240 94 55 ee bc d5 f6 b2 3c 78 f2 2b be 2e aa ab bc
       -0.029093541 0.021846214 -0.16791713 -0.020955171
000250 d6 29 c1 3c 51 c3 f8 be 3d 05 33 bd 47 fb e4 3c
       0.02357952 -0.48586515 -0.043706167 0.02795185
000260 c1 4b 5c 3e 5f 00 e4 bd 10 94 2c 3b 1e 79 1f 3e
       0.21513273 -0.11132883 0.002633337 0.15573546
000270 50 f0 a6 39 90 01 04 be a1 f6 e4 bc ed b7 16 3d
       0.00031841034 -0.12891221 -0.027949633 0.0367965
000280 08 e7 ff bc c0 13 41 3e 65 77 db 3d f9 bd 31 3c
       -0.031238094 0.1885519 0.10716132 0.010848516
000290 dc fc 06 3c 83 a6 5b bd dc be 2a be 5e c7 22 3e
       0.008238997 -0.053625595 -0.1667437 0.15896365
0002a0 77 dd ae bd c8 d5 90 bd 7e cf 84 3e 4a d4 57 bd
       -0.08538335 -0.070720255 0.25939554 -0.05269269
0002b0 43 17 01 bc 2f ce ba 3e da a3 35 be c8 2d 70 3d
       -0.007879081 0.3648543 -0.17738286 0.05863741
0002c0 fe 00 2a bd 1d 1f 02 3c 98 cb 35 be 36 44 0a bd
       -0.041504852 0.007941988 -0.17753446 -0.033756457
0002d0 cf f7 15 3d d2 69 fb be 7d ce e8 bc 2a 67 64 3c
       0.03661328 -0.49104172 -0.028418774 0.013940612
0002e0 35 39 65 3e 9c f4 f9 bd 6c 53 85 3c 72 9b 29 3e
       0.22385104 -0.12204859 0.01627513 0.16563204
0002f0 54 c6 66 3c 8c b7 0e be ca 96 25 bd d3 e5 b6 3c
       0.014085371 -0.13937205 -0.040427007 0.022326386
000300 cd c5 34 bd 13 7c 3b bd 85 40 07 3a 55 b9 91 bd
       -0.04413395 -0.045772623 0.00051594555 -0.071154274
000310 a5 be 77 3d c7 b3 f9 bc f7 f3 13 3d 75 8e ef bc
       0.060484547 -0.030481232 0.036121335 -0.029242733
000320 7e 86 38 bc c1 30 a4 bc da c3 ab bd 50 7b ff bc
       -0.011262534 -0.020042779 -0.08386965 -0.03118673
000330 6f 85 91 3d fe ac 00 be 6b 55 2c 3d 8d 2a f1 3c
       0.071055286 -0.12565991 0.04207365 0.029439235
000340 fb 7c 1a bd 78 d3 8d bd 67 eb 2b 3d c0 27 2f bd
       -0.037716847 -0.069251 0.041972544 -0.042762518
000350 ed a9 2f 3d f9 55 4e 3e e4 cf ad 3d 64 e5 95 bd
       0.042886663 0.20149983 0.084869176 -0.073191434
000360 f7 1a 85 bd 11 53 2b 3c 48 7c 63 3d df 18 07 bd
       -0.06499284 0.010456816 0.055538446 -0.032982703
000370 9e 04 69 3d 22 5b a6 3c 89 df 1d bd 4a e0 a1 bd
       0.05688917 0.020307127 -0.038543258 -0.07904108
000380 ac 59 22 bd 8a 7e 38 3e fe 61 da 3d 90 f5 07 bb
       -0.0396363 0.18017021 0.10663222 -0.0020745732
000390 6d 2f 97 3c dc a4 73 bd b7 ee 24 be 27 f7 1c 3e
       0.018455232 -0.059483394 -0.16106687 0.15328656
0003a0 64 1c b4 bd 1a 17 99 bd 09 b3 7a 3e 1f 64 6f bd
       -0.087944776 -0.074751094 0.24482359 -0.058445092
0003b0 77 d3 83 3b d3 d4 ae 3e 3d aa 2e be 37 6e 81 3d
       0.0040230113 0.34146747 -0.17057128 0.0631985
0003c0 95 9b 47 bd 1c 7d 97 bb bc b9 2e be c2 91 2a bd
       -0.04873236 -0.0046230685 -0.1706304 -0.04164291
0003d0 65 e7 32 3d c5 e8 ec be cc cf 66 bc 60 16 2c 3a
       0.043677706 -0.4627134 -0.014087629 0.00065646134
0003e0 6e 5d 59 3e 42 51 f7 bd 27 be d0 3c 27 29 23 3e
       0.21227047 -0.120760456 0.025481297 0.15933667
0003f0 de c0 c1 3c ec 7f 0b be f7 6f 43 bd 2b 3b 07 3c
       0.023651537 -0.13623017 -0.0477142 0.008253853

bias f4 [64]
000000 4c 82 9e 3d fc 33 ab bd 64 0f f3 bc e5 d0 af bd
       0.07739696 -0.083595246 -0.029670425 -0.08584765
000010 fd 4f 32 3d be fb 8c 3d b3 92 91 be a6 11 5f 3e
       0.043533314 0.068839535 -0.28432235 0.21784076
000020 b0 4b 43 3e eb 62 d4 3d 20 ce ab bd ea f1 6e 3e
       0.19071841 0.103704296 -0.083889246 0.2333447
000030 11 45 b9 bd 7e db 42 bd 6b a0 8b 3e a0 88 7f 3e
       -0.090463765 -0.047572605 0.27270827 0.24954462
000040 b3 c7 4d 3e f1 70 7f 3e 46 88 71 3e 7b 24 47 3e
       0.2009571 0.24945427 0.2358714 0.1944751
000050 d0 c3 5c 3e 36 48 8b 3e 4e 04 87 3d fa 01 05 3e
       0.21559072 0.2720353 0.06592618 0.12989035
000060 ba 6e a1 be 21 46 5b be a5 3f 53 3e c1 bc 73 3e
       -0.3152979 -0.21413471 0.20629747 0.23802473
000070 0d 01 66 bd 1c 99 6e 3e b7 de 30 3e 11 cd 54 3d
       -0.056153346 0.23300594 0.17272459 0.05195338
000080 f1 cd 5c bd e3 6a 8c 3e 1f a3 67 3e b6 b5 fd bd
       -0.05390734 0.27425298 0.2262082 -0.12388174
000090 5a 86 67 be 14 91 84 3e 47 7e 35 3e 49 79 73 be
       -0.22609845 0.25891936 0.17723952 -0.23776735
0000a0 ab 7d 65 3e c1 9f 86 3e 22 08 fe bd b8 02 b7 3d
       0.2241122 0.26293758 -0.12403895 0.089360654
0000b0 4f 55 a9 3d 66 3d 9f 3d 40 c6 0a 3d 3a c1 94 3d
       0.082682244 0.07775383 0.033880472 0.072634175
0000c0 da c1 49 3e df 5b 16 be c4 44 20 3e 94 7e 1d 3e
       0.19702855 -0.14683484 0.15651232 0.15380317
0000d0 27 ac 3e 3e c6 80 94 3d c5 18 c1 3c 88 5c 24 be
       0.18620358 0.07251124 0.023571381 -0.16050923
0000e0 19 fb 20 3e 7e d2 74 be 57 57 07 3e c1 2f ae bd
       0.15720786 -0.23908421 0.13216911 -0.08505202
0000f0 83 f5 54 3e dd 45 1e 3e be 8d 81 3e 91 7d 79 3d
       0.2079678 0.15456338 0.25303453 0.060910765
