checkpoints/insurance_honam2_emb32_4.pt (torch, 134190 bytes, 74 tensors)

weight f4 [32, 1]
00000000: 5ace ef3e 34fc edbe 1d07 09bf f7b4 de3e
00000010: dce9 ef3e d159 f8be 8bf2 01bf 7a86 b9be
00000020: 449d c2be 8300 fdbe 2409 06bf 0ec7 eb3e
00000030: 63d2 f23e a6f5 03bf 892f dcbe 0102 bb3e
00000040: ba26 f13e 74f5 0bbf c6b4 e73e 827c f5be
00000050: 4dd6 e5be b383 0b3f acfb 0d3f 9b8b c5be
00000060: 0c4a cfbe eaa3 06bf 95b8 99be a7cd f7be
00000070: 1ad6 fc3e 830b e9be 5dce 0b3f 6fff f4be
0.4683712 -0.46481478 -0.5352648 0.4349744 0.46858108 -0.48506024 -0.50760716 -0.3623541
-0.3801061 -0.49414453 -0.523577 0.46050304 0.47426137 -0.51546705 -0.43005016 0.36524966
0.4709986 -0.54671407 0.45255107 -0.47946554 -0.4489006 0.5449783 0.55462146 -0.38583073
-0.4048618 -0.52593863 -0.30023637 -0.48399088 0.49382097 -0.45516595 0.5461176 -0.4785113

bias f4 [32]
00000000: 4e26 67be b781 ea3e 8c6c 2a3f e669 e6be
00000010: 07ee 66be 6e8c 003f 84d7 153f 2a26 943e
00000020: bd48 9a3e 6543 0a3f f71b 223f 046a f9be
00000030: d12c 6abe 431b 1c3f b9f3 d83e f42d cebe
00000040: 337e 0bbe 87b9 323f 4dff fabe f82d f23e
00000050: d56d e23e cdc2 32bf b930 3abf 92b6 9f3e
00000060: 0e29 cc3e e8b4 233f adfb 753e 811d ff3e
00000070: 3caa 06bf ffc4 e63e dabb 33bf 0409 f53e
-0.22573206 0.4580209 0.6657188 -0.4500267 -0.22551738 0.5021428 0.58531976 0.28935367
0.3013362 0.54009086 0.6332392 -0.48713696 -0.22868659 0.609791 0.42373446 -0.40269434
-0.1362236 0.6981434 -0.49022904 0.47300696 0.4422442 -0.6982849 -0.72730595 0.31193978
0.39875072 0.63947916 0.24021788 0.49827197 -0.5260351 0.4507217 -0.70208514 0.4785844

weight f4 [64, 32]
00000000: 4c90 8b3e ced2 42bd d00c 8a3b 8844 873d
00000010: b2f2 8f3e 1d43 ebbc fe4b f3bb 7e94 84be
00000020: b88a 6ebe dfc8 8abc 89d4 d4b8 b00e 3c3d
00000030: 10cc 893e 3cdc 60bb 33f5 92bd 3049 c33d
00000040: c98e a23e 0aff f23b 1632 433d 9af0 1ebd
00000050: 4b17 6cbd c38b b6bb fa03 05bc 6d89 61be
00000060: 43cf b3bd 719d 863a 6d1f 84be 864a f4bc
00000070: 7cc4 d13c 6409 54bd b249 bcbb 9326 11bd
00000080: 9727 a83a c180 3fbb 63f2 1ebc e479 4a3a
00000090: a215 513b a17d c7bb c8a6 0bbc cc9a 34bb
000000a0: 748d 49bb 954e f9bb 02a7 1abc 3a83 713b
000000b0: abc1 fbba 35ab 12bc 2f5f 683a 0c0e cdba
000000c0: 4c16 543b 6bcb 23bc 8649 4f3b 2ea5 90bb
000000d0: 4014 a4b9 3f1e 253c f6c7 2a3c 85d7 54bb
000000e0: 65de fe3a 21bf 1abc 704b 27ba 1fd3 c0bb
000000f0: 1c01 e93b 21dc 02bb f017 253c 3930 a0bb
00000100: 880b dabb c9da 253a 39fd 253a 7ee9 1b39
00000110: bcdf cbbb 9a1d 083a 668b 2c3a dedb f439
00000120: 3f3a b439 5905 3b3a 75d0 423a 7d77 5439
00000130: 7fcc dfbb c230 3a3a a247 1f3a 7ee8 be38
00000140: 4c63 5f3c 9cc9 283a 0195 1339 8538 0b3a
00000150: 631f 233a cab9 e038 3b3d 7639 1c77 ae39
00000160: 125a 553a 4454 203a f8fa 823a 40b5 1d3a
00000170: 82a8 4b39 2018 493a df54 b338 c5c2 493a
00000180: 830a 643e 2b4f 06be 4c40 e4bc 220d 063e
00000190: f1d0 693e 96c0 a2bd f73a 30bd 3bc8 93bd
000001a0: 88d7 7cbd e26d 6cbd 2958 07bd 840c f73d
000001b0: 59ca 5e3e 0379 18bd 53f7 2ebe ab6d 123e
000001c0: 4f5e 8c3e 2f19 c4bc 3598 d03d b390 d8bd
000001d0: 1364 25be 76db c73c 336f ae3c cab3 6ebd
000001e0: 0952 2bbe 32a9 02bd 9ba1 15be 1e51 a8bd
000001f0: 1786 8d3d c39e 14be d9ee c33c b83a c8bd
00000200: f4c4 503e 1830 06bd 2545 1c3b 0bf0 373d
00000210: 9396 563e 93e6 a3bc 4638 b9bb b30d 24be
00000220: 1d18 1ebe 8e76 42bc 7c4b 28ba ec03 033d
00000230: ec3a 4f3e 1866 39bb 2a50 46bd 993d 803d
00000240: 35db 813e 75ef 963b 1cef 093d 1a7d dcbc
00000250: ac58 21bd 2965 51bb de68 9ebb e8e5 18be
00000260: 2496 6ebd 837c 9f39 d133 1fbe cd6d a9bc
00000270: 9c08 933c 1821 12bd 94b8 57bb b2a8 c9bc
00000280: b268 1f3e 998e bbbd 2137 6abd 27bb d43d
00000290: 8814 223e 7378 9fbd 2035 83bd 1a29 9abe
000002a0: 522e 9cbe d062 8fbd 6e6b 74bd 47f6 b93d
000002b0: d26d 1c3e ad32 7cbd 4346 e3bd d0ff c63d
000002c0: 7a41 1d3e fd38 62bd 38be b93d 1228 aebd
000002d0: a714 ccbd 00f4 623d ccb8 5c3d f474 9bbe
000002e0: 3ede f1bd 8392 71bd 4257 95be efd3 a0bd
000002f0: 2330 983d 7724 c3bd e5f8 613d 3a8f a9bd
00000300: f352 163e b9dc 01be 389d 4dbd 188b 0f3e
00000310: 818a 163e ead4 b9bd d403 80bd 3f15 72bd
00000320: 1fdf 75bd d4b5 97bd 61ad 5ebd ada5 fe3d
00000330: 89b6 163e 1e27 6dbd f3cf 29be a7c4 fd3d
00000340: fa28 0d3e c7ce 3fbd ae77 e03d 6e16 e0bd
00000350: 3f66 16be c3c7 443d c188 393d 0fda 78bd
00000360: 0a9b 35be ebdc 5abd f5a4 60bd 04be bdbd
00000370: 07b1 ab3d f61a 0bbe 8e4d 433d a974 d4bd
00000380: cdae 0ebd acaa e13b 824b ee3b 8282 e6bb
00000390: 672c 20bd 1724 e73b bbfb e83b 9191 ab3c
000003a0: 01cf 793c 5253 eb3b b341 ee3b 7a81 e6bb
000003b0: b6a1 05bd 50fb ec3b f266 ec3b 39fa 16bc
000003c0: 33b0 a7bd 22ca e93b ed26 f0bb 9c33 e53b
000003d0: 62dc de3b 6b3e f5bb 5e49 f3bb d33a 5a3c
000003e0: a707 023c 1c13 e93b 9d5e 0c3e 8bb2 ea3b
000003f0: 8b18 e7bb d470 e03b 89cf f6bb 95c7 e23b
0.27258527 -0.04756432 0.004212953 0.06604868 0.2811485 -0.028718526 -0.0074248305 -0.2589454
-0.23295105 -0.016941486 -0.000101485355 0.045912445 0.269135 -0.0034310957 -0.07175674 0.09535444
0.3174956 0.007415657 0.047655188 -0.038803674 -0.0576394 -0.00557086 -0.008118624 -0.2202508
-0.087797664 0.001027031 -0.25805226 -0.029820692 0.025606386 -0.051766768 -0.00574609 -0.035437178
0.0012829182 -0.002922103 -0.009701344 0.00077238516 0.0031903763 -0.006087974 -0.0085236505 -0.0027558086
-0.0030754479 -0.0076082447 -0.009439232 0.0036851899 -0.0019207498 -0.008951952 0.0008864281 -0.0015644445
0.0032361923 -0.009997229 0.0031629517 -0.004414222 -0.00031295605 0.010078012 0.010423651 -0.0032477092
0.0019444941 -0.009444983 -0.00063817855 -0.0058845426 0.007110728 -0.0019967633 0.010076508 -0.004888561
-0.0066542067 0.0006326852 0.00063319836 0.00014868935 -0.0062217396 0.0005192399 0.0006582051 0.0004670312
0.00034375672 0.0007134281 0.0007431575 0.00020262408 -0.0068297978 0.00071026024 0.0006076043 9.103211e-05
0.013634514 0.00064387335 0.00014074521 0.0005310851 0.00062226335 0.00010715758 0.00023483198 0.0003327661
0.00081387267 0.0006116072 0.0009993007 0.0006016083 0.00019422363 0.00076711364 8.5511936e-05 0.00076965644
0.22269635 -0.13116138 -0.02786269 0.13090947 0.22833611 -0.07946889 -0.043024983 -0.07215925
-0.061728984 -0.05772198 -0.03304306 0.12062934 0.21756877 -0.03722478 -0.17086534 0.14299648
0.27415702 -0.02393779 0.10185281 -0.10574474 -0.16151457 0.02439664 0.021293258 -0.05827693
-0.16730513 -0.03189964 -0.14612429 -0.08218597 0.06910341 -0.14513688 0.023917602 -0.09776825
0.20387632 -0.03276071 0.0023844924 0.044906657 0.20955877 -0.020007407 -0.0056524603 -0.16020851
-0.15438886 -0.011869086 -0.00064199395 0.031986162 0.2023732 -0.0028289612 -0.048416294 0.06261749
0.25362554 0.004606182 0.033675298 -0.026915122 -0.039391205 -0.0031951165 -0.0048342785 -0.14931452
-0.058248654 0.00030419612 -0.1554711 -0.02068224 0.017948441 -0.035676092 -0.0032916414 -0.024616573
0.15567282 -0.09158058 -0.05718148 0.10387259 0.15828145 -0.07786646 -0.06406617 -0.30109483
-0.3050409 -0.07001269 -0.059672765 0.09080177 0.15276268 -0.061571766 -0.11097386 0.09716761
0.15357009 -0.05523013 0.090694845 -0.085037366 -0.099648766 0.055408478 0.053887174 -0.30362666
-0.118099675 -0.058977615 -0.29168135 -0.07852923 0.07431056 -0.095284395 0.055169005 -0.082792714
0.1468008 -0.12681855 -0.050198764 0.14017904 0.14701273 -0.09073813 -0.0625073 -0.059102293
-0.060027238 -0.07407728 -0.054364566 0.12433944 0.14718069 -0.057898633 -0.16583233 0.12391024
0.13785163 -0.046828058 0.10960327 -0.10941778 -0.14687441 0.04804207 0.045296434 -0.060754832
-0.17734924 -0.05343334 -0.054844815 -0.09264758 0.08383375 -0.13584504 0.047681384 -0.10373814
-0.03483467 0.0068868008 0.007272185 -0.0070346007 -0.039104845 0.007053863 0.0071100867 0.020943435
0.0152471075 0.0071815634 0.0072710156 -0.007034478 -0.032624923 0.007232107 0.0072144205 -0.009214931
-0.08187904 0.007134692 -0.007328859 0.0069946777 0.006801174 -0.0074842474 -0.0074245175 0.013319689
0.007936395 0.0071128737 0.13707967 0.0071623973 -0.0070524863 0.0068493877 -0.0075320643 0.0069207647

bias f4 [64]
00000000: 7019 3b3e cbfa babb 8c1e 21bc d425 93bd
00000010: 45ce fc3d 3773 123e 91fa e83c 7fc5 23be
00000020: cf48 b7bd dea2 c4bb 26fa eabd 5aa7 ac3d
00000030: 4cb8 d43d 434d f93d 3a6d a03d b44b 0dbe
00000040: 3456 8cbb 0acd 043e 8350 873c 873c 99bd
00000050: 3b47 1f3d 5da1 5ebd b2b6 bc3d f64a 41bb
00000060: 1c03 4ebd 612c 173b d7fe a0bd 0ea8 203e
00000070: 628b 81b9 6852 85bc 9b66 fe3d 079b 183c
00000080: ca75 1c3e 1736 a1bd 5b03 e93c be77 80bd
00000090: 5e2b b5bd 3748 f53d 8424 b1bd 8524 9a3d
000000a0: 13ee 263e 9049 4a3d b5f0 c83c c597 f33c
000000b0: da2f b53d 4639 023e 66f3 6f3d e1ed 18be
000000c0: 5b9e 99bd a7f8 d83c 3f17 853d 8834 123d
000000d0: befe 28be 4649 0ebd e331 0fbe 7372 fabd
000000e0: 36a6 36bc fa4c 993d b935 103e 2f1a f53d
000000f0: 2c2a a43c f819 0fbe 1bd7 b5bd 7793 023e
0.18271422 -0.0057061664 -0.009833943 -0.071849495 0.1234403 0.14301763 0.028439792 -0.15993308
-0.08949434 -0.0060008606 -0.11473493 0.08430357 0.10386714 0.1217294 0.07833333 -0.1379841
-0.004282737 0.12968841 0.016517883 -0.07482248 0.03888629 -0.054353107 0.09214534 -0.0029494143
-0.050295934 0.0023067223 -0.07861107 0.15689108 -0.00024708646 -0.016274646 0.12421914 0.009314305
0.15279308 -0.07871645 0.028443983 -0.06272839 -0.08846162 0.119766645 -0.08649543 0.07526497
0.16301756 0.04938656 0.02452884 0.029735455 0.088470176 0.1271716 0.058581732 -0.14934494
-0.07500907 0.026485754 0.064985745 0.03569463 -0.16503426 -0.034737848 -0.13983874 -0.12228861
-0.011148026 0.07485385 0.14082994 0.11967885 0.02003964 -0.1397475 -0.08878919 0.12751566

weight f4 [32, 64]
00000000: d067 b53d c2cd cd3b fb61 64bc 2015 c7bc
00000010: 67e1 123d dbe8 34bc 4fe0 c6bc ce9f 40bd
00000020: 6483 98bd 01b5 35bd fc4d d6bc 9dea d6bd
00000030: 4479 69be 8b10 48be 0b5e 89be 9afb 1e3d
00000040: 31c3 5b3c b7b3 0b3d c852 ed3c 4ae1 27bd
00000050: 1178 85bd da5b febd 3fa3 efbd bd5f 933b
00000060: e724 c5bc 3c23 dfbc e97c 0cbc e4d4 44bd
00000070: 27c2 d23c 70e7 c23b 0699 bcbb ae17 b0bc
00000080: 18ba a83b 25da 51bd 0a9b 283b 3a1f 4abd
00000090: 4766 5ebd 3882 c9bb 2718 17bd 4f1b 8e3b
000000a0: 9db5 4fbe e8b0 013c e823 c7ba 11f9 7b3c
000000b0: c820 8c3d 4b34 41be ce4c fabb b604 61bc
000000c0: 1c6c 8dbc ecb7 443d 2c05 8ebd a484 79be
000000d0: cd92 ecbb 0ffc a23b 4d85 75bd 8aeb 27bd
000000e0: 0da3 19bb 8441 75be b199 67bd 4df6 9abc
000000f0: 4aad e1bb f703 92bd 717c d3bc 4287 2fbc
00000100: 3b64 1f3c b063 703c 0ddb 9b3b 1e2b c73c
00000110: bbd6 00bd 2e8d 21bd 482d d5bc 4712 273c
00000120: 1b7e ed3b 921b 2abc fd3a 113c fc9d f9bc
00000130: 63a7 59bd f087 49bd a185 2ebd a435 c93c
00000140: 5e90 063b 4808 efbc a63b 68bd 007a d03b
00000150: a104 2ebd 4cc6 26be f81a 0cbd 408b 873b
00000160: a092 e73c bd96 353c 7f9c 49bb 1219 0abd
00000170: 87c9 bbbc 55a0 893d 4291 18bd beea 1fbd
00000180: 7138 b2bc 3b59 2a3c f27c 80bd 81e4 faba
00000190: 756f dc3b a02a 12bd fdb9 df3a d004 1ebd
000001a0: 9c12 5bbd a135 1fbd a899 bdbc 774b 98bd
000001b0: c2a2 bfbb 26d6 6dbd 8b67 e9bc 97b9 413b
000001c0: a304 b4ba ed2d f6bc 655a 80bd 6487 86bc
000001d0: 9a05 173d bf50 073c 1eb7 753c 774b c2b9
000001e0: 9920 74bc 025f 26bd dd9d 42bd da3c fbbc
000001f0: 1f86 1dbd 129b cf3b 3d47 fbbb d271 03bd
00000200: 1b74 173d 7cfc f93c b9c0 9539 80bd e53d
00000210: c035 90bb ad7b 86bc e489 43bc 0800 e93c
00000220: a4ae 2b3c e647 a03c 17ec df3c df1f c1bc
00000230: b8a4 a3bc c421 d2bc b24c c9bc 0bb6 aeba
00000240: 5059 173d 3329 fb3a 7fec ffbd a386 d8bb
00000250: ece3 adbc ff7c 7abe 2a14 49bc f285 893c
00000260: 2248 c83b f89a b53d f21d f93b 987a adba
00000270: 5434 84bc 323a 213d 05b9 11bc 5d19 efbc
00000280: 346a 023c 9369 c23c f029 16be 8eb7 cdbb
00000290: 333d b63c 0839 b1bc a38f 693b eaa8 87bc
000002a0: 1256 f8bc 0e6d 4cbc 1444 e6bc d38f 14be
000002b0: fb1a 24bc 8601 02bd e834 a2bc c30b 4a3d
000002c0: 2b8b 2e3d 6573 89bc bd2e c1bc 9ee4 033c
000002d0: ab8c 893d 6088 873a d41d 8b3c 93e4 2dba
000002e0: e9a0 a9bc 886d a3bc 0422 fabc 4fb4 dcbc
000002f0: 3fbd dbbc 02fd a03c ede1 4d3b f5bf d3bc
00000300: b2d1 f6bd f20f 29bc 1323 283c f0aa 37bd
00000310: 1307 35bd bffe a9bd 04cd 503c 4674 cebc
00000320: eca5 573c b341 18bd aea3 283b ba6c 8dbd
00000330: cf71 1a3d bddf 563d ec5d 8d3d c14a 263c
00000340: ccf3 2bbc 5ccb 63bd dd21 bc3d 365e 1f3d
00000350: 56fe b93c 1c1b 243e 47e2 a6bc a702 5eba
00000360: a8e8 20bd c605 c6bd 5d4a 7b3c b71b c8bc
00000370: 97d7 3fbb 25ff bfbd 0516 10bd 88ec 49bc
00000380: 3882 d9bd 2020 9739 7b4d cc3d 3406 cd3c
00000390: ebf8 a3bc 9a21 1cbd bed1 883c a1ae 4d3d
000003a0: cff8 183d 1685 0abd ac07 9bbc 7ffa f13d
000003b0: ae54 1abd c592 c13c 4145 a43b 7fc5 f9bb
000003c0: 3eb6 a8bd dfb2 483c 375b 013c 90f1 fe3b
000003d0: 1cae ebbc 7f7a 2d3c 1e77 a13a d25e fc3c
000003e0: 5a77 adbb 77b0 a73d ec72 92bd d1ad 2bbd
000003f0: 9e25 f2bb 97f4 253c ec66 063d fc41 37bd
0.08857691 0.0062806318 -0.013939376 -0.024302065 0.03585949 -0.011041845 -0.02427688 -0.0470274
-0.07446936 -0.044362072 -0.026160233 -0.10493968 -0.22800165 -0.1953756 -0.26829562 0.038814165
0.0134132365 0.034106936 0.028970137 -0.040986337 -0.065170415 -0.12419863 -0.117010586 0.004497497
-0.024065448 -0.02723848 -0.008574703 -0.04805459 0.025727345 0.0059479997 -0.0057555465 -0.021495666
0.005149137 -0.05123343 0.0025727176 -0.049346186 -0.054296758 -0.0061495565 -0.036888268 0.0043367515
-0.20284124 0.007915713 -0.0015193196 0.015379206 0.0684219 -0.18867604 -0.0076385504 -0.013734033
-0.017263465 0.048026964 -0.0693458 -0.24367005 -0.0072196485 0.0049738954 -0.05994158 -0.040996112
-0.0023443133 -0.23950773 -0.056543056 -0.018916273 -0.0068871127 -0.071296625 -0.025816174 -0.0107134
0.009728487 0.014672205 0.0047563375 0.024312552 -0.031454783 -0.03944128 -0.026022568 0.010197229
0.007247699 -0.01038255 0.008864162 -0.03047084 -0.053138148 -0.049201906 -0.042607907 0.02456171
0.0020532827 -0.029178753 -0.05669751 0.0063622 -0.042484883 -0.16286582 -0.034205407 0.004136473
0.028268158 0.011083302 -0.0030763445 -0.033715315 -0.022923244 0.06720034 -0.037247904 -0.039042227
-0.021755429 0.010397251 -0.062738314 -0.0019141586 0.006727154 -0.03568518 0.0017068979 -0.03857881
-0.053484544 -0.038869504 -0.023144558 -0.07436269 -0.0058482597 -0.058065556 -0.028491756 0.0029560083
-0.0013734292 -0.030051196 -0.062672414 -0.016421981 0.036870576 0.008258997 0.014997272 -0.0003705879
-0.01490035 -0.04061795 -0.04751383 -0.030668665 -0.038457986 0.0063356245 -0.0076684044 -0.03209097
0.03697596 0.030515902 0.00028563084 0.11217785 -0.0044009387 -0.016416395 -0.011934731 0.028442398
0.010478649 0.019565534 0.027334256 -0.023574768 -0.019976005 -0.025650866 -0.024572704 -0.00133294
0.03695041 0.0019162059 -0.1249628 -0.006607847 -0.021226846 -0.24461745 -0.012272874 0.016787503
0.0061121145 0.088674486 0.0076024467 -0.0013235388 -0.016138233 0.03936214 -0.00889421 -0.029186899
0.007959891 0.023731982 -0.14664435 -0.006277985 0.022245979 -0.02163364 0.0035638593 -0.016560037
-0.030314479 -0.012477173 -0.028108634 -0.1450799 -0.010016198 -0.031739734 -0.019800618 0.049327623
0.04261319 -0.016778657 -0.023581857 0.008050112 0.067162834 0.0010340326 0.016981997 -0.00066334865
-0.02070661 -0.01994969 -0.030533798 -0.026941447 -0.026823638 0.019651894 0.003141518 -0.025848368
-0.12051715 -0.010318743 0.010262269 -0.044840753 -0.0441962 -0.08300542 0.012744192 -0.025201928
0.013162117 -0.03717203 0.0025732326 -0.069055036 0.037706193 0.052459467 0.0690268 0.010149659
-0.010495137 -0.05561386 0.091861464 0.038908206 0.022704285 0.16025966 -0.02037157 -0.0008469023
-0.03928438 -0.0966907 0.015337554 -0.024427278 -0.0029272789 -0.09374837 -0.03517725 -0.01232446
-0.106205404 0.000288249 0.09975716 0.025027372 -0.020016154 -0.038117982 0.016701575 0.050215367
0.037346657 -0.033818327 -0.018924557 0.118153565 -0.037678413 0.023629555 0.0050131385 -0.0076224203
-0.08237885 0.012249677 0.0078952825 0.0077802613 -0.028769545 0.010588287 0.0012318825 0.030806933
-0.005293769 0.08187955 -0.07150826 -0.04191381 -0.007389738 0.010129116 0.032812998 -0.044740662

bias f4 [32]
00000000: eca9 cc3d 6be0 993d 1886 1ebe c98b d53c
00000010: a3ef 5dbd 666f 6bbc 2288 c8bb b361 00be
00000020: 0d87 e43c 29c2 26be 98ac 9fbd cb8f 023e
00000030: fad4 e2bc fc6b f739 0bf9 5fbc 595e 363d
00000040: 4588 8a3d 19fc 073e 8347 213d f6da d33d
00000050: bf1a ab3d 6861 1fbd f602 9d3c bdaf c53c
00000060: 00ec 8dbd d752 8ebc 9679 9c3d b541 b83d
00000070: 556c e03d 3945 143d 93ea f2bc 8d8f 863d
0.099933475 0.075135075 -0.1548084 0.026067631 -0.054183614 -0.014369821 -0.006119744 -0.1253727
0.027896428 -0.16285004 -0.077965915 0.12750165 -0.027689446 0.00047191966 -0.013670216 0.04452357
0.067642726 0.13279761 0.03937484 0.10344498 0.08354711 -0.038911253 0.019166451 0.02413165
-0.06929779 -0.017373485 0.07640378 0.089969076 0.10958163 0.03619883 -0.02965287 0.06570349

weight f4 [32, 1]
00000000: d27a c3bd 00ad 2b3e 789f 12be 3446 15be
00000010: a815 1c3e b786 10bd e8c7 173d 9253 263e
00000020: 574a 163e 9c82 23be 7bff 11be ed50 2ebe
00000030: 8690 153e 9e38 0abe 7b5f 203e 93cc 11be
00000040: 55f3 79bb 8877 2ebe c73b 48be cde8 21be
00000050: e398 2ebe facd 0fbe f6aa 1ebe ba26 6fbd
00000060: 2f81 033e 7081 08be 9abc 7c3d fd26 0e3e
00000070: 6ea4 0fbe b8c3 0ebe 458d bf3d 514d 103e
-0.095449105 0.16765213 -0.14318645 -0.14577562 0.15242636 -0.035284724 0.03705588 0.16242817
0.14676796 -0.15967792 -0.14257614 -0.17023058 0.14605913 -0.1349816 0.15661423 -0.14238195
-0.0038139422 -0.17037785 -0.19554053 -0.15811463 -0.17050509 -0.14043418 -0.15494904 -0.058386542
0.12842248 -0.13330626 0.061703302 0.1388206 -0.14027569 -0.13941848 0.09353117 0.14091994

bias f4 [32]
00000000: 510c b03d 8c39 81be b01c 0a3f fdd6 f93e
00000010: fd82 c1be cfc2 a8bb bfd9 d9bd 639c 93be
00000020: ce86 e9be 65a5 4a3e fff8 0b3e 75f5 7c3e
00000030: 4461 ecbe 8bce ec3d 6713 09bd 7d6e 113f
00000040: 9f25 b4bc 7fc2 793e 67d8 413e d5c9 ad3e
00000050: 3678 793e 30b5 203f 0eba bc3e eb5c 09bc
00000060: 2943 39be b7a2 e53d 2628 febd 98e3 23bf
00000070: 2dc8 233f 8499 2e3f 2bc0 27be e878 0fbf
0.08596099 -0.25239217 0.53950024 0.48796836 -0.3779525 -0.005150176 -0.10637235 -0.2883025
-0.4561066 0.19789656 0.13669203 0.2470301 -0.46167958 0.115628324 -0.03346577 0.56809217
-0.021990595 0.243906 0.18930207 0.33943048 0.24362263 0.6277647 0.36860698 -0.00838397
-0.18092026 0.11212676 -0.124100015 -0.64019156 0.6397732 0.68202996 -0.163819 -0.56043863

weight f4 [64, 32]
00000000: 09fb 42bd d81a f83c 7cec 2fbc 6b3c 4ebc
00000010: 8231 953c 0c7d 4dbd e2fc 183d 675c d43c
00000020: 98e8 653c c4ad 35bd 5ecd 60bd 1a6a 00bd
00000030: cc92 633c a285 76bd 3826 383e 8d5e 25bc
00000040: 5779 60bc e397 01bd 4fef 2abd 860f abbc
00000050: 3882 02bd dda6 0abc 58d2 99bc e91c 2cbd
00000060: 635a 2a3d d295 5fbd e859 1a3d 7ce6 063c
00000070: 7a87 07bc 28f2 efbb 1fa5 1c3d 9e95 263c
00000080: 1428 a5bc 7df2 d03c 36d4 e4bc b36d e3bc
00000090: c311 de3c 0db6 19bc 0eda 933c 49ee d43c
000000a0: c1c4 e23c fd79 c2bc 2e43 bfbc 8245 cebc
000000b0: 9f2c e33c cbb3 95ba 0b1d e0bc 361a e7bc
000000c0: ea3b 1dbb 9398 cebc 15c2 c4bc 9c5a dabc
000000d0: 1743 cfbc 1bb3 e7bc c4fb dcbc 7792 2f3d
000000e0: bb9c bb3c fe1e c7bc 3cda ab3c 1029 e93c
000000f0: c455 e8bc 38a5 e9bc be3d d03c 04c0 e73c
00000100: c6df b4bd 1a7d 953d 35e0 18bd 8f8f 27bd
00000110: df79 4d3d 4ebc 1cbc e202 823d b7d2 833d
00000120: c862 2d3d 645c d4bd bd53 d0bd b818 a3bd
00000130: 34fd 2a3d e3cd 32be 5812 6e3e 1ac6 11bd
00000140: f439 4abd dfcc a4bd 8180 cebd c8f5 6dbd
00000150: 992d a5bd 072f 05bd a8ff 5bbd cabe 66bd
00000160: 216d a93d ffd4 bebd efc0 a43d 0693 003d
00000170: 09de 03bd 7b52 f9bc 739e 173a 696a 0f3d
00000180: 295b f83b ec31 09bc ac89 093c 95e0 0a3c
00000190: 21fd 00bc ccfb 753b 45b6 54bb 26c7 06bc
000001a0: 818e febb 38f3 283c 8cd3 213c e967 1d3c
000001b0: c230 fbbb 5364 823c a9f9 abbd ccde 093c
000001c0: b268 06bd 4c23 1e3c 2872 293c 43f9 143c
000001d0: 3219 1d3c 066d 083c 53f6 113c 232f 963c
000001e0: ce94 05bc dde9 0f3c b0fc d8bb c166 f9bb
000001f0: c1d3 063c ce3d 063c 5727 eebb 0b18 fabb
00000200: 44cd 193b 08f1 663c a83b b0bc 872b a7bc
00000210: cab8 9e3c 7054 253c 7c86 1c3b 7ec5 833c
00000220: adc7 b03c ec34 90bb a872 953b 405f 27bc
00000230: 5164 b23c 23b4 c33c 58d5 193e 53d1 b4bc
00000240: 23da 9d3c eed5 23bc 2a79 cbbb 4692 7bbc
00000250: 83b1 21bc 6972 bdbc d567 87bc 4fd7 893d
00000260: e82a b83b 030d 133a bc77 df3b 8132 cd3c
00000270: 226b bfbc 9d6c c5bc 6faa ba3b 6604 c23c
00000280: 0beb ccbc 7af9 6fbb deaf 2c3c 3e7f 223c
00000290: e227 f1bb 030c 27bc b255 853a 5ee2 a5bb
000002a0: 866b 10bc 0fed f73a cc90 d9bb 955b 973b
000002b0: f008 14bc 4ca3 e8bc 4894 adbd 9700 303c
000002c0: e785 4e3d 88fe 913b eb7a 403b 6d10 ee3b
000002d0: 8249 933b dadf 3b3c a6d1 fe3b 24a1 8fbc
000002e0: fe86 103b d6a3 1ebc 2c35 ff3a f3cd 38bc
000002f0: ac34 3d3c a466 433c 6cb1 cc3b 20d9 2bbc
00000300: 57ea 0dbd 3ea7 613d 6bf7 61bd 20e5 64bd
00000310: 8387 693d 5de6 54bc dab9 7b3d 006c 693d
00000320: a42c 653d cad1 4abd f5c6 3ebd c672 66bd
00000330: c731 643d 1212 77bd 5468 983d bd4c 60bd
00000340: ce95 513b 58d5 64bd d694 48bd 2cee 6fbd
00000350: 3427 65bd f163 5cbd 5f3a 6ebd 8a60 3ebb
00000360: fc29 513d ee48 2cbd aa14 5d3d 07ba 5a3d
00000370: 12a3 5bbd 9859 59bd 3769 583d 8e3b 5e3d
00000380: 9e05 cbbd 3c99 a93d d03e 0cbd ac30 23bd
00000390: 700f 583d eeb1 30bc 63f5 a03d e5bf 933d
000003a0: e3ab 2a3d 9cb1 fdbd 91ae ffbd 2f7b bfbd
000003b0: 74cc 263d 3af8 47be f3a1 543e 368c 01bd
000003c0: 2475 2cbd edaf c1bd ad22 f5bd 4b14 85bd
000003d0: fb13 c2bd 6aef dbbc ebe4 6fbd ae5b 98bd
000003e0: 9eb5 c93d 4427 e6bd 1084 b93d ff1c cc3c
000003f0: 8327 d5bc 163f bebc efd3 ad3d 9b21 fc3c
-0.047602687 0.030286238 -0.010737535 -0.012587647 0.018212084 -0.050168082 0.037350543 0.025922967
0.014032505 -0.04435517 -0.054883353 -0.031351186 0.01388998 -0.060186036 0.1798333 -0.010093343
-0.013700805 -0.03163899 -0.04173213 -0.020881426 -0.031862468 -0.008462635 -0.018777058 -0.04201976
0.041590106 -0.05458624 0.037683398 0.008233663 -0.008272046 -0.0073225684 0.03824341 0.010167507
-0.020160712 0.025506252 -0.027933221 -0.02776227 0.027108079 -0.009381783 0.018048313 0.02599253
0.02768171 -0.02373981 -0.023347463 -0.025179628 0.027731238 -0.001142138 -0.027357599 -0.02821074
-0.002399201 -0.025219237 -0.024018327 -0.026654534 -0.025300546 -0.028283646 -0.02697552 0.04286429
0.022901883 -0.02430677 0.020978086 0.028461963 -0.028361209 -0.028521165 0.025420066 0.028289802
-0.08831744 0.07299252 -0.037323195 -0.040908393 0.050165053 -0.00956638 0.06348206 0.06436675
0.042330533 -0.103691846 -0.10172222 -0.07963699 0.04174538 -0.17461352 0.23249185 -0.035589315
-0.049371675 -0.080468886 -0.10083104 -0.058095723 -0.08065338 -0.032515552 -0.05371061 -0.056334294
0.08272768 -0.093179695 0.08044612 0.031390212 -0.03219417 -0.030434838 0.00057838036 0.03501359
0.0075792265 -0.008373719 0.00839464 0.008476396 -0.007872851 0.0037534116 -0.0032457274 -0.008226192
-0.0077684526 0.010311894 0.009877097 0.009607294 -0.0076657245 0.015916979 -0.08397228 0.008414935
-0.03281469 0.00965197 0.010342158 0.009092632 0.009588527 0.008326774 0.008908826 0.018333023
-0.008153154 0.008783785 -0.0066219196 -0.007611126 0.008229197 0.008193446 -0.0072678733 -0.0076322607
0.0023468295 0.014095552 -0.021512821 -0.020406498 0.019375224 0.010090932 0.002388387 0.016085383
0.021579588 -0.00440084 0.004560787 -0.01021558 0.02177635 0.023889607 0.1502279 -0.02207247
0.019269055 -0.009999735 -0.0062095122 -0.0153546985 -0.009868982 -0.023125844 -0.016529003 0.0673052
0.005620349 0.0005609544 0.0068196934 0.025048496 -0.023366515 -0.024099642 0.005696587 0.023683738
-0.025014421 -0.0036617205 0.010539977 0.009918032 -0.0073594907 -0.010195735 0.0010172634 -0.0050623855
-0.008814698 0.0018915253 -0.0066395756 0.0046190717 -0.009035334 -0.028398179 -0.08475548 0.010742328
0.050420668 0.0044553913 0.002937014 0.0072651417 0.004494847 0.011466945 0.007776457 -0.017532893
0.0022053118 -0.009682616 0.0019470803 -0.011279571 0.0115482025 0.011926327 0.0062467363 -0.010488778
-0.034647312 0.055091135 -0.055167597 -0.055882573 0.057014 -0.012994376 0.06145654 0.056987762
0.055950776 -0.049516477 -0.04657646 -0.0562618 0.055711534 -0.060319968 0.07441774 -0.054760683
0.003198016 -0.055867523 -0.048970066 -0.058576748 -0.05594559 -0.05380625 -0.058161136 -0.002904924
0.05106543 -0.04206174 0.053974785 0.053400066 -0.053622313 -0.05306396 0.052834716 0.054256015
-0.09913181 0.0828118 -0.03423959 -0.03984134 0.052749097 -0.010784609 0.07859304 0.07214335
0.04166783 -0.12387392 -0.12484468 -0.09349667 0.040722325 -0.19528285 0.20764904 -0.031627856
-0.0421039 -0.09457383 -0.119695045 -0.06498011 -0.09476467 -0.02684756 -0.058567923 -0.074393615
0.09849094 -0.11237958 0.09058392 0.02491617 -0.026019817 -0.023223441 0.08487689 0.030777743

bias f4 [64]
00000000: ee35 ffbd f4b6 a43d af14 9e3c 31c9 a1bd
00000010: 55b4 f4bd 7f5a 3abd 7526 8a3d de42 dc3c
00000020: 80bb b2bd 45f2 95bd e5e2 013d 957c 1abe
00000030: 762a 36be 7815 283d b046 ca3c 9b70 be3d
00000040: 35ea 13bd de38 45ba d112 37bd f218 703d
00000050: d90c fa3c 4f5f 1dbe 4c0b debd 4eed 7a3d
00000060: 641a be34 2c61 993d 63ad 11be a98b dfbd
00000070: c8b6 993d a413 883d 15f5 84bd 7fa0 a83d
00000080: 59e5 a6bd b2ec 0dbe b6a8 97bd 2f69 9e3d
00000090: 902b b43c 8e0e 87bd e3ad b13d 22e6 c53d
000000a0: 20fc 8c3d 68cf 3ebe 9bce cfbd 3561 2f3c
000000b0: 334e 3f3d 2237 3ebd 2f9b 923d a269 d33c
000000c0: d384 1fbc 173c 78bd 31e6 16be b8d5 1abe
000000d0: 1b79 b0bd 9f26 00be 8855 41bd be46 47bd
000000e0: 6c0f 483d 55b8 63bb 3678 9a3d ff80 6c3c
000000f0: a830 82bd a886 8ebd 5b0c acbd c331 d4bd
-0.12461458 0.08042708 0.019296972 -0.07899702 -0.11948458 -0.04549646 0.06745616 0.026887354
-0.08727169 -0.073216 0.031710524 -0.15086587 -0.17789635 0.0410361 0.02469191 0.092988215
-0.03611203 -0.00075234275 -0.04469568 0.05861754 0.030523704 -0.15368389 -0.108419985 0.061261468
3.540946e-07 0.07489237 -0.14226298 -0.1091531 0.07505566 0.06644371 -0.06492058 0.08233737
-0.08149213 -0.13859823 -0.07405226 0.07734906 0.021993428 -0.06594573 0.086757444 0.09663035
0.068840265 -0.18633807 -0.10146829 0.010704328 0.046705436 -0.046439297 0.07158505 0.025807206
-0.009736258 -0.06060418 -0.14736249 -0.1512059 -0.08616849 -0.12514733 -0.04720071 -0.04865145
0.048842832 -0.0034747322 0.0754246 0.014435052 -0.06356937 -0.069592774 -0.08400794 -0.10361054

weight f4 [32, 64]
00000000: f893 2bbd 905a 16bd 7ac0 f3bc d68e 0c3d
00000010: eedf c4bc a27a 80bc e23d 5fbd b26b fdbc
00000020: 4a85 5d3c 9ef0 9aba 5246 38bd c17c 723d
00000030: 0718 0bbc 4f72 e6bd a4a9 dabb 8d90 b5bd
00000040: 55aa 47bc 1d45 d43b 769e 693d fce8 80bd
00000050: ea2e e8bc 2c3c 6f3c af14 67bb fd4a e8bc
00000060: 3daf ccbc b12e 0dbe 5430 d33b 2523 2e3d
00000070: 9072 b6bc 85f6 d7bc 6dfe 20bc da56 11bd
00000080: e841 d7bc ce53 a5bb 8e0c 1abd 5894 18bd
00000090: dfd5 83bb c161 18bc b081 273d 280f a2bd
000000a0: d718 1ebd cad5 003c 572f 09bc ae95 9a3b
000000b0: 0d1a 6b3c b878 3d3d b566 6dbd 05d1 b03c
000000c0: ed60 01bd 67ee 96bc bf2f 833d 8b09 ee3c
000000d0: d01a 023c 11ec 303d 8773 193d 8e46 573d
000000e0: abf3 43bc 6188 7ebc 883a efbc b673 89bc
000000f0: de09 06bd 7231 a93c e787 34bd 4301 8ebc
00000100: c653 9fbc 343d 66ba 4c3b 15bd 10f7 b73c
00000110: 4e17 12bc 1a73 2b3b d2fe 31bc d334 2ebd
00000120: b09b 433c c57a 9a3b 8754 3fbd ddb4 593c
00000130: 8848 bb3b 00a4 20bd 636a 5e3c b27b 36bd
00000140: ab50 a1bb c8e6 82bc 6a1f 213c 8a2f 50bd
00000150: b290 bfbc eb01 963c e63a 513c 6038 a6bd
00000160: 5b99 56bc be61 3bbd 1d3f 193c 0f16 f33c
00000170: c250 3f3c c3b5 66bc 1883 1f3b d296 433a
00000180: 51b3 80bc dded 4b3b 2341 31bc 1006 a7bc
00000190: 9942 22bc a11c 5f3b 5be0 233d 7d87 17bd
000001a0: 8da4 a5bd f4d1 083d 3f76 b5bb b4db 1bbb
000001b0: 461b d23c dc7d 403c bed6 e4bc 38fd aebd
000001c0: 59a8 a5bc 4759 ccbc e86b 4d3d b3db d43c
000001d0: ebc7 163c 9623 b43c 8d90 9c3b efd2 543c
000001e0: b78a 80bc 9bf1 03bc 4e95 153c 051b 33bd
000001f0: dec6 b3bc a8b2 aa3c d1c6 a7bc 94c6 d3bb
00000200: 0f19 b0bc 660e 573b a6cc 85bd 3eb8 323c
00000210: 8cdb 23bc 7732 8e3c 44b2 86bc 289c 9bbd
00000220: 9491 24bb c2a2 173c 87fe afbd 245d b23c
00000230: b4a6 8b3c 7928 2fbd 7060 b43c 862a 14bd
00000240: ad8f 573b 860c 55bb 3672 db3b e74c adbd
00000250: 8964 71bd 8b3f 5d3d 9f75 0abc ba26 9f3c
00000260: 74b5 ed39 1535 12bd f1a0 7e3c ed0f ee3c
00000270: 5b6d b7bb 560e cfbc e124 993c 728c 823b
00000280: d8e6 2bbd eb99 cd3c 89e4 dfbc a6bf cbbc
00000290: 206d 91bd 257a 2b39 cb88 b73b e6a7 0bbd
000002a0: e19d b33c 46bc fa3c 476a 8c3b 085c 92bc
000002b0: ac45 be3a c66f e93b 1fdb b2bc 0675 f63c
000002c0: 4cbe 273b f82c 0dbb 96b0 6c3d 2c25 7d3d
000002d0: e828 143c 6477 113d 9a8e 9e3b 7b82 043c
000002e0: bdd3 2bbd 7936 0c38 9697 0dbc e3ca 13bc
000002f0: 721b b4bc a604 a93c aa3b d93c d64e 0bb9
00000300: 223a 833d fba7 ad3b c98b ce3d 2792 a03b
00000310: 3c93 4b3d 3cba 6a3c 8b4a 193d 6a53 f23d
00000320: 482a a63c 075d 2dbb 936a 0d3e 98c3 84bc
00000330: acbb 9a3c fd02 783d 5997 00bc beee 6f3d
00000340: ee37 82bc 7c83 4d3c 4c65 12bc 60f9 043e
00000350: da27 ca3d 195c 7dbd f9bc c63c 2e0b 64bc
00000360: 9186 113b b83e 6c3d 05cc bbbc 25cd 34bc
00000370: df03 b23c bdff 353d cce5 7fbc b57b a23b
00000380: 4d91 da3d ff0f 9c39 4da2 b93d 4456 323d
00000390: 4849 fe3d bd5f d73c 413f 1b3c e59d 4c3d
000003a0: d612 8bbc b275 183b 53ac 5e3c 002d 403d
000003b0: 046d 553c a7e1 ffbb 112b 233d 1e12 81bc
000003c0: 8a5e a5bb 4011 debb f6a5 2cbd fe92 fabc
000003d0: 166c b7ba c5d2 c9ba c826 d2bb d2f0 19bc
000003e0: 889f 853d d786 85bc 1f7b ea3c 018c 983c
000003f0: 3f04 973d d0fc 953b c5e8 f43a 7e46 c83b
-0.04188916 -0.03670746 -0.029754866 0.034315906 -0.02403256 -0.015683476 -0.054502375 -0.030935142
0.013520548 -0.0011820977 -0.044988938 0.059201006 -0.008489615 -0.112522714 -0.006673055 -0.088654615
-0.012186606 0.0064779655 0.057035886 -0.06294438 -0.028342683 0.014601748 -0.003526013 -0.02835607
-0.024985904 -0.13787343 0.00644497 0.042513985 -0.022271425 -0.026362667 -0.009826285 -0.03548322
-0.026276544 -0.0050453907 -0.03760963 -0.037250847 -0.004023298 -0.00930065 0.040895164 -0.07913047
-0.038597908 0.007863471 -0.008373103 0.0047175502 0.014349473 0.046257704 -0.057959277 0.021584043
-0.031586576 -0.018424226 0.06405591 0.029057285 0.007940963 0.04319388 0.03746369 0.05255752
-0.01195995 -0.015535445 -0.029202715 -0.016778808 -0.032724254 0.02065346 -0.04407492 -0.017334586
-0.019449126 -0.00087829237 -0.036433503 0.022456676 -0.008916689 0.0026161135 -0.010863977 -0.042530846
0.011938974 0.0047143423 -0.04671147 0.01328775 0.0057154335 -0.039218903 0.013575169 -0.04455156
-0.0049229464 -0.015979186 0.00983415 -0.050826587 -0.023384426 0.018311461 0.01277039 -0.081162214
-0.013098086 -0.04574751 0.009353426 0.029673604 0.011676969 -0.014081421 0.0024339613 0.00074611336
-0.015710505 0.003111712 -0.010818752 -0.020388633 -0.009903573 0.0034044164 0.040008884 -0.036994446
-0.08088026 0.033403352 -0.0055377777 -0.0023782076 0.02564777 0.011748757 -0.027934428 -0.085443914
-0.020221876 -0.024944915 0.050151736 0.025983667 0.009202938 0.021989625 0.004777974 0.012989744
-0.015691144 -0.008053209 0.009129835 -0.04372694 -0.021945413 0.020837143 -0.020480545 -0.0064628813
-0.021496324 0.0032814979 -0.06533174 0.010908185 -0.0100010745 0.017358048 -0.016442426 -0.07598144
-0.0025111185 0.009255113 -0.08593469 0.021772929 0.017047264 -0.042763207 0.022018641 -0.036173366
0.0032892034 -0.0032508685 0.0066969646 -0.084619336 -0.05893377 0.054015677 -0.008450895 0.019427646
0.00045339356 -0.035695154 0.015541301 0.029060328 -0.005597753 -0.02527539 0.018694343 0.0039840275
-0.041968197 0.025097808 -0.027330654 -0.024871659 -0.07100892 0.00016353333 0.005601024 -0.034095667
0.021925868 0.030607354 0.00428513 -0.01786615 0.0014516613 0.00712392 -0.021833 0.030085098
0.0025595604 -0.0021541696 0.057785593 0.061803028 0.009042956 0.03551425 0.004838777 0.00808775
-0.041949976 3.3429333e-05 -0.008642098 -0.00902054 -0.021985743 0.0206321 0.026517708 -0.00013285442
0.06407572 0.005299566 0.10085256 0.004900235 0.04970096 0.014326628 0.037424605 0.11832316
0.020283833 -0.0026453154 0.13810186 -0.016206548 0.018888317 0.060549725 -0.007848584 0.05857729
-0.01589581 0.012543555 -0.008935284 0.12985754 0.09870882 -0.06185541 0.024260031 -0.013918681
0.0022205452 0.057677 -0.022924433 -0.011035238 0.021730362 0.044433344 -0.015618753 0.0049585947
0.10672245 0.00029766557 0.090641595 0.0435393 0.12416321 0.026290769 0.00947553 0.049955267
-0.016976755 0.0023263511 0.01359089 0.046917915 0.01302648 -0.0078088823 0.039835993 -0.01575571
-0.0050466703 -0.0067769587 -0.04215046 -0.03058767 -0.0013994004 -0.0015397897 -0.0064133145 -0.009395795
0.06524569 -0.016299648 0.028623162 0.018621447 0.07373857 0.0045772567 0.0018685093 0.006111919

bias f4 [32]
00000000: c933 93bd 2f3f 063d d678 133d eea4 a5bd
00000010: 5359 e8bd fe9b 89bd 4878 27be 4b1d 6abd
00000020: 75a1 7ebd 46f5 09be 112d 17bd 458a e8bb
00000030: 914c 95bd dde9 fe3c 95b0 08be 3331 babd
00000040: fa9a a7bb 4dce 23be 4107 97bd 3888 b1bb
00000050: cc16 18be 2139 23be d59a 6c3d 31ca 79bd
00000060: 240e f63c e9e4 5cbd 5706 90bd a3c0 ca38
00000070: 2311 f5bb 6d85 703d 0651 b33d 2aa7 a0bd
-0.071876116 0.0327751 0.03600391 -0.080880985 -0.11345162 -0.06719206 -0.16354477 -0.057156842
-0.062165696 -0.1347247 -0.036908213 -0.007096561 -0.072899945 0.031117374 -0.1334861 -0.09091415
-0.00511491 -0.15996666 -0.073744304 -0.00541785 -0.14852446 -0.15939762 0.057764847 -0.06098384
0.03003604 -0.053929243 -0.07032459 9.667992e-05 -0.0074788495 0.058720995 0.08755688 -0.07844384

weight f4 [32, 1]
00000000: 675c bdbe c322 a3be 78cf cebe 1c2a d0be
00000010: 4b31 aa3e 88ba cb3e aaf9 c13e ff57 cd3e
00000020: 3c94 d8be c924 dd3e d58d d53e 1b80 c53e
00000030: bd07 c23e 3d5f 85be 0538 cabe 5cee 8bbe
00000040: 80b9 c33e eedc c7be 2c0f c7be f62d c33e
00000050: dde3 a13e e1a1 c83e 10b2 d73e 4211 d03e
00000060: a759 83be 6af6 cb3e ffbd ae3e 4ead c1be
00000070: 80d4 c13e 0f09 d83e 9dae c3be e1e9 b9be
-0.3698456 -0.3186246 -0.4039266 -0.40657127 0.33240733 0.3979075 0.3788579 0.40106198
-0.42300594 0.43192127 0.41709772 0.385743 0.3789653 -0.26049224 -0.39495865 -0.2733029
0.38227463 -0.39035743 -0.38878763 0.38121003 0.31619158 0.39186004 0.42128038 0.40638167
-0.25654337 0.39836437 0.3412933 -0.37827533 0.37857437 0.4219441 -0.38219157 -0.36311248

bias f4 [32]
00000000: cc4d b83e 1c3e 2d3e e4be 0f3f ced7 143f
00000010: a504 b3be 2609 02bf 7d52 10be 95e3 07bf
00000020: 544a 3a3f 3ef5 4cbf a33a 29bf 3ce9 d8be
00000030: f7c5 c7be ff1b 0e3e 4164 803e e58f 173e
00000040: 7365 cdbe 5bcc ea3e 3e7a e63e e65c cabe
00000050: b52e 92be 3e27 eebe fcba 32bf 967d bbbe
00000060: 7668 033e 8fca 02bf be14 50bd 5f9a c43e
00000070: 3963 c6be 0170 34bf 6ed5 4e3e a529 a23e
0.35996854 0.16918224 0.5615065 0.5814179 -0.3496448 -0.5079521 -0.14093967 -0.5308164
0.72769666 -0.8006171 -0.661051 -0.42365444 -0.39018223 0.13877867 0.25076488 0.14800985
-0.40116462 0.45859036 0.45015138 -0.39524 -0.2855126 -0.46514314 -0.69816566 -0.36619252
0.12832817 -0.5109033 -0.05080103 0.38399026 -0.38747576 -0.70483404 0.20198604 0.31672397

weight f4 [64, 32]
00000000: 0c63 5cbd fd59 07bf d6a6 f0bc 4a87 e6bc
00000010: 7dfa 803d 7c58 0a3d ef89 1a3e 2f3a 023d
00000020: ac3d aebc cc9e 9d3c ad45 c53c 4101 303d
00000030: 5760 223d 3544 0fbf dde3 e9bd 9260 0ebf
00000040: dc0f 3e3d 29b3 1dbd 86af 20bd b138 413d
00000050: e151 8d3c f233 1b3d c1b1 b93c 0dfa 7c3c
00000060: db2a 0ebf f6e1 083d 9009 683e 7a69 48bd
00000070: 1727 463d 04ff b63c 90d5 8cbe 67f8 88bd
00000080: d0df 17bc 5e82 fc3c 35e6 febb aac2 ffbb
00000090: c500 0b3c 56c1 063c 3950 a03e 3fc6 033c
000000a0: fabd f4bb a625 e43b f8e8 f03b 7ec7 0f3c
000000b0: 848a 203c b0b1 cd3d f7ba 3cbb 2c17 893d
000000c0: 5ada 133c c5d1 06bc 7d06 07bc 0888 163c
000000d0: 5ed2 533e 83e3 0a3c f334 f03b f0e9 963c
000000e0: 1fe3 0b3e 20e8 033c 3437 973d 1041 0fbc
000000f0: f3d1 1b3c 3467 eb3b 6c0d 213c 3dc6 fdbb
00000100: b8d9 9bbd 45ac 0cbf 8572 4bbd f218 46bd
00000110: 71d2 af3d 36bd 5d3d c4ec 313e 7672 563d
00000120: b22e 27bd b000 1e3d 92b3 333d 533c 833d
00000130: 8290 7f3d 682f 1abf 6c83 0ebe fcd4 16bf
00000140: 7ffe 8a3d e189 73bd 4907 77bd d7d1 8c3d
00000150: af11 9b3c 2b08 703d b806 2d3d 253c 203d
00000160: d663 1dbf ea83 5d3d a9fa 7b3e f6c5 90bd
00000170: a537 8f3d 04bd 2b3d 0440 98be 8862 b9bd
00000180: 3d63 fabb f4bf 533d 9ecf abbc 32cf b1bc
00000190: 3444 113c a22e 943c 4264 7e3e a694 9b3c
000001a0: d426 cfbc 9acf d13c 8150 bd3c f182 533c
000001b0: 831d 183c f1ac aa3d e0f4 013c 6b8b 933d
000001c0: 58c6 363c d010 83bc 80e2 7bbc 9078 2d3c
000001d0: c73b 533e 66c0 813c d8c5 c33c 3140 9c3c
000001e0: 21fa b13d 1126 953c 9a09 16be 3206 21bc
000001f0: 70f8 233c f8ad c53c 4424 de3c 4bfa 46bb
00000200: aa77 99bc ff2c bf3b e00f fbbc aa30 00bd
00000210: 45d7 963c 2d7a ef3c 3a20 5b3c e6d2 f43c
00000220: 076d 0bbd 2883 0f3d 8392 073d e0a2 ca3c
00000230: 470a a23b e31a 0f3d aa03 40bc 061e 9d3c
00000240: e9aa bc3c f27d d9bc 25db d4bc 8e38 b93c
00000250: 403b dd3d 5cc5 df3c 269b 0a3d aa04 0e3b
00000260: 2d16 833d ef09 f03c 98f7 7cbd 5b9f acbc
00000270: 9df1 b33c 26be 0a3d 2042 47bb c46a 83bc
00000280: ece1 18bd 2076 f1bb 42ba 0abd 5713 0abd
00000290: 8b82 153d 51eb 103d 0864 5f3d 8cc1 0f3d
000002a0: 7019 06bd d5ba 083d d11b 0b3d f5f4 153d
000002b0: 2b5b 063d 0259 0fbc 96c0 1ebd 47f5 15bc
000002c0: 2c48 183d 3526 10bd 6f91 10bd 1c3a 183d
000002d0: 9b53 613e 4b04 133d 6027 0a3d b1f7 c03c
000002e0: f5ac 94bb 5196 103d c1a4 2fbb 9a47 16bd
000002f0: a024 193d 3853 0a3d 2382 9bbc 068c 28bd
00000300: 5c75 18bd c4d2 e2be aec3 823b f2ad bc3b
00000310: b07f 683d c79a 543b bf41 8e3e e4bd b539
00000320: d5de 833c b541 98bc c74f 3abc 600f 943c
00000330: 1498 8c3c 02e3 e6be 422a c7bd 4e6a e8be
00000340: 250d c43c 2e87 2bbc dac8 3ebc 416c d03c
00000350: 9213 7e3e d337 213c 91fd 5dbc ddc0 86bb
00000360: f80f ddbe 984b 3e3b 9b62 a73e d934 e7bc
00000370: c560 e63c c98a 64bc f654 7abe e9ab 60bd
00000380: 83fb 6fbd 1e19 6dbc e06c 59bd 2ce4 57bd
00000390: aeb9 653d c467 5d3d 2146 723c 7c3a 5b3d
000003a0: 6267 50bd 8ac4 4e3d 5059 533d cac4 653d
000003b0: 979a 5d3d a746 18bc 9872 e8bc 44b0 4bbc
000003c0: a723 683d 33ad 62bd 0f6b 63bd a2a9 683d
000003d0: 74a8 bd3d b4e4 603d b510 523d 48e2 233d
000003e0: 08d7 c139 ff45 5d3d 9aae 9cbd f6fc 6cbd
000003f0: 2c59 693d 2535 523d 0040 8fbc dba0 6bbd
-0.053805396 -0.52871686 -0.029376429 -0.028140683 0.06297777 0.03377579 0.1509168 0.03179377
-0.021269642 0.01924076 0.024081076 0.042969946 0.039642658 -0.5596345 -0.114204146 -0.55616105
0.046401843 -0.03850094 -0.039229892 0.047173206 0.017250957 0.037891336 0.022667767 0.015440476
-0.5553414 0.03341862 0.22659898 -0.048928715 0.048377123 0.022338398 -0.27506685 -0.06688004
-0.00926967 0.030823883 -0.0077789077 -0.007805188 0.00848407 0.008224806 0.31311205 0.008042871
-0.007468936 0.006962496 0.007351991 0.00877559 0.00979865 0.10043657 -0.0028797963 0.06693873
0.009024227 -0.008228724 -0.008241293 0.009187706 0.20685717 0.008477095 0.007330531 0.018422097
0.13660859 0.008050948 0.07383576 -0.008743539 0.009510505 0.0071839336 0.00982986 -0.007744579
-0.07609886 -0.5495036 -0.04966976 -0.048363633 0.085850604 0.054135524 0.17375475 0.052355252
-0.040816016 0.038574874 0.043872423 0.0640799 0.062393673 -0.60228586 -0.13917321 -0.5891874
0.067868225 -0.059457663 -0.060309682 0.06875961 0.01892933 0.05860154 0.042242736 0.03911986
-0.6148046 0.05408088 0.24607338 -0.07069008 0.06993035 0.041928306 -0.2973634 -0.090519965
-0.0076412247 0.051696733 -0.020973023 -0.021705244 0.008866359 0.018088643 0.24842933 0.01899178
-0.02528707 0.025611687 0.023109676 0.012909637 0.00928438 0.08333767 0.007931918 0.07204326
0.011155687 -0.015999228 -0.015373826 0.010587826 0.20628272 0.015838813 0.02389805 0.019073578
0.086902864 0.018206628 -0.146521 -0.009828137 0.010007963 0.024130806 0.027116902 -0.0030361589
-0.018733818 0.0058342214 -0.030647218 -0.03129641 0.018413195 0.029233063 0.013374383 0.02988572
-0.034039523 0.03503719 0.03309871 0.024735868 0.004945073 0.03493775 -0.011719624 0.019179355
0.023030715 -0.026549313 -0.025983403 0.022609975 0.10802317 0.027315788 0.033839367 0.002167026
0.06400714 0.029301612 -0.06175956 -0.02107208 0.021965796 0.033872746 -0.0030404404 -0.01604212
-0.03732483 -0.007368818 -0.033869036 -0.03370985 0.03650145 0.035380665 0.054538757 0.03509669
-0.032739103 0.033381302 0.033962075 0.036610562 0.03280179 -0.008749248 -0.038757883 -0.009152717
0.037178203 -0.035192687 -0.035294946 0.037164792 0.22004549 0.035892766 0.033728957 0.023555608
-0.0045372196 0.035299603 -0.0026801082 -0.03668938 0.037388444 0.03377077 -0.018982952 -0.04114916
-0.037221298 -0.44301426 0.003990612 0.0057580406 0.056762397 0.0032440887 0.27784535 0.0003466449
0.016097466 -0.018586019 -0.011371559 0.018073738 0.01716236 -0.45095068 -0.09724857 -0.45393604
0.023932049 -0.010469241 -0.011644566 0.025442244 0.24812153 0.00983997 -0.0135492245 -0.0041123466
-0.43176246 0.0029036757 0.32692418 -0.028223442 0.028122315 -0.013949105 -0.24446473 -0.054851446
-0.05858947 -0.01447132 -0.053082347 -0.052707836 0.05608528 0.054054037 0.014787228 0.053522572
-0.050879844 0.050480403 0.051598847 0.056095876 0.054102506 -0.009294189 -0.028374955 -0.012432162
0.056674626 -0.055340957 -0.05552202 0.0568024 0.092606455 0.05490561 0.051285464 0.04001072
0.0003697204 0.05402183 -0.0765049 -0.05785843 0.056969807 0.051320214 -0.017486572 -0.05752645

bias f4 [64]
00000000: c1bb dd3d bc41 15be 00c1 203e 919b 44bd
00000010: 68f1 df3c 5f19 67ba 49f5 b23b 2505 ec3c
00000020: 2712 143e b8fd d5bd 996c 843d 0b1d fcbd
00000030: 7b84 063e e60f d1bc 0547 04be 22cf cc3d
00000040: 5ee7 a7bc 1222 05be bda4 b3bd 2ad5 113d
00000050: 5cc5 f2ba 00de 0b3c 8b1b 07bd 3e98 433d
00000060: 43e9 a4bd e622 a0bd 9ed9 093d 3a91 f4bd
00000070: 2073 063e 36a2 923d 7ac9 1cbd 1c1d d8bd
00000080: b434 843d e56a 8e3d d85a 2cbd 1935 273e
00000090: 3417 9bbd dd4e 133e 4b03 46bc 8f0b 06be
000000a0: 1d0a 94bd 1dc1 163e f710 ae3d 087d dabd
000000b0: b9fc 2d3d 9e55 e0bd a3d0 16be b8f3 1b3e
000000c0: 7c1b 243e efd7 92bd da86 7c3b fb2b e3bd
000000d0: a810 09be dc59 153e f686 123e bddf b4bd
000000e0: 0ea7 08be d4ab cabd 324f 7abd 6066 91bc
000000f0: 3ec5 183e 6b7d 00be c00f 8abc c33e 88bd
0.10826827 -0.14575857 0.15698624 -0.047999922 0.027336791 -0.0008815731 0.005461369 0.028811047
0.1446005 -0.10448784 0.06466026 -0.12310227 0.13136475 -0.025520276 -0.12917717 0.10000445
-0.020496067 -0.13001278 -0.08771656 0.03560368 -0.0018521952 0.008536816 -0.03298525 0.04775261
-0.08052304 -0.07819156 0.0336548 -0.11941762 0.13129854 0.071598455 -0.03827808 -0.10552427
0.06455365 0.06953982 -0.042078823 0.16328849 -0.07572785 0.14385553 -0.012085746 -0.13090347
-0.072284915 0.14722104 0.084993295 -0.10668379 0.042477343 -0.1095383 -0.14728026 0.1522969
0.1602611 -0.07170092 0.0038532526 -0.11092373 -0.1338526 0.1458506 0.14309296 -0.08831737
-0.13344976 -0.09896055 -0.061110683 -0.017749012 0.14918992 -0.12547843 -0.016853213 -0.06652596

weight f4 [32, 64]
00000000: 67ea 463e c2d2 d4bc 88d5 423e eda6 b83b
00000010: 8da5 8a3a 783d e23c 8ffe e23d 9b8f 493d
00000020: 0a66 5c3e 4269 b83b 7911 d43d 53bb e1be
00000030: 4ac4 4e3e 5ea5 df3c b2c8 fbbe fc09 263e
00000040: a2cb c93c f0ec ffbe 4907 09be c89c 383a
00000050: f417 443c 3a46 b33c 5f15 c1bd de13 e93b
00000060: 3818 88bb 5377 a5bc ba92 3c3c ada8 f6be
00000070: ff3b 563e b18b 233e d573 2dbc ed77 d4be
00000080: 2a2f 0c3e 3a5a 0f3e 2679 73bd 9d4b 633e
00000090: f178 adbc 401e 613e c26d 833c 4f5e 04bf
000000a0: 5c48 2bbd 72ad 5a3e 4039 073e 4d30 a0be
000000b0: 23e2 593d 3bff f4be 72a2 31ba ccd5 4b3e
000000c0: 9f7c 663e ef78 3bbe c0e3 38bc 85ad 1fbd
000000d0: 4ce9 fcbe 9393 5c3e 5ae8 5e3e b2ab 51bd
000000e0: f424 f8be 5cd4 d7be a466 0c3d 3ce1 853d
000000f0: 3930 613e 7d5c f7be c797 c73c 32e0 4a3b
00000100: 1ea3 cb3d 9583 1fbc b361 d33d 3dee 12bc
00000110: 7e69 603b 8ecd b43b e7d5 763d 394d 103d
00000120: 21bf e83d dc22 dcbb caaf e23c 6b6c 8ebe
00000130: 75a0 d83d 2edd b9ba 5e76 a4be 9735 8f3d
00000140: 6f81 8c3c a6f2 a9be d7b2 703c db25 8bbb
00000150: dc6a 8fbc a9eb 823c f6ee 393c 8303 f7bb
00000160: 6058 cfbc 6196 7fbc 97a3 c23c 7ab1 aabe
00000170: cc08 e03d c1e4 8d3d 5b85 e83a 610e 92be
00000180: 1eef 963d 39b3 493d f997 36bd 17ac f13d
00000190: bb67 05bd e3ba eb3d 7b62 473b 1764 b0be
000001a0: 3281 47bd 7ef4 f43d ead6 9d3d 006e 24be
000001b0: 9e73 c33c 20fd aabe 6456 e9ba dc80 da3d
000001c0: 0a9c f43d 7951 efbd 0a4c 55bc c771 e1bc
000001d0: 7d8c a5be f762 f43d ced9 ea3d 915f 04bd
000001e0: aa4d a2be a211 95be 53bf cc3b 5555 11bb
000001f0: ec15 f63d ecc3 a1be f2d0 84bc 0993 24bc
00000200: 64fa 25bc 7a34 fbbb 5c9f e1bb fbf0 9abc
00000210: 89c4 1cbb d4f2 bb3b 7cec 7ebd 42d4 383c
00000220: 07b8 7cb7 7eee 29bc 5c90 73bd 8402 36be
00000230: f239 1fbb b23f 603a e945 55be e458 0fbd
00000240: 7007 bebd 13f4 5dbe 2614 e73b dacf c3ba
00000250: f0d7 663b a8fa 02bb 7195 013c 26b3 3ebb
00000260: ec3c 47bc edfc cb3b b5b3 863c 4e8c 63be
00000270: 795a 4439 355f 69bd b732 1c3a 36d0 47be
00000280: 8568 1abd 4cfc 6dbd 45be 5bbd fd90 eb3b
00000290: 1a12 003c 87c5 1b3b e40e 5b3c e796 66be
000002a0: e0be e7bb f505 fa3b 8f14 a1bc ec8f 95bd
000002b0: 654d a7bd e8bf 65be c5b1 dcbb ecff 5cbb
000002c0: c50d b83b 14a2 b9bd 0b19 50bc 0bcf 81bb
000002d0: d978 54be 8edf d23b 5602 733a 2261 0a3c
000002e0: d57b 53be 0a61 4cbe fa45 92bd a90a 53bd
000002f0: e064 d93b eb00 50be a181 84bb 0b82 17bc
00000300: 4772 343d dc5f 293c 7f33 093d 08aa 843c
00000310: 9250 e03a 9e0c 323b 8291 bb3d 5a06 123c
00000320: c138 0a3d 1878 02bc 190d 9c3d b096 bcbb
00000330: 58ad 543d 89f6 0d3c db5e b43b d939 733d
00000340: 1fc0 cf3d 05d2 593c 0423 c83a 436c af38
00000350: 330a 5a37 b37a 59bc a424 a0bc c563 6139
00000360: 879e b43c 6e97 093b 5206 5cbc 999d a63c
00000370: eaf6 453d 8bf0 c73d 50c6 aa38 d88b 5b3c
00000380: 5a62 9a3d 39c7 a63d 2986 efbb 0e45 533d
00000390: d710 233c 8268 373d da62 093b ad6a 3a3c
000003a0: 1456 863c 71d4 563d 4feb b73d 42a1 dfba
000003b0: 2e58 b73d 5202 ca3c 983a 693d 49e1 063d
000003c0: 5a3d 383d c678 00bc d4b8 d63b ece6 343c
000003d0: de9c 373c f571 453d 6a6b 0f3d b57c f7bb
000003e0: 5948 1c3c a8b9 583c 9bf2 ed3d bccb 513d
000003f0: 429e 3e3d d143 1a3c 5ef9 e5bc b153 8d3c
0.19425355 -0.025979403 0.19026768 0.0056351335 0.0010577902 0.027617201 0.110837094 0.04920922
0.215233 0.005627782 0.10354895 -0.4408823 0.20192066 0.027300533 -0.49176556 0.16214746
0.024633233 -0.49985456 -0.13381685 0.0007042405 0.0119686015 0.021884073 -0.09427904 0.007112964
-0.0041532777 -0.0201985 0.011509592 -0.48175564 0.20921324 0.15971257 -0.010586699 -0.41497746
0.13689867 0.13999262 -0.059441708 0.22196813 -0.021175833 0.21984196 0.016043548 -0.51706403
-0.041817054 0.21355227 0.13205433 -0.3128685 0.053194176 -0.47850975 -0.00067762204 0.19905776
0.22508477 -0.18307851 -0.011284769 -0.03898384 -0.4939674 0.2154067 0.21768323 -0.051189132
-0.48465693 -0.42154205 0.034277573 0.06537101 0.21991052 -0.4831275 0.024364365 0.0030956385
0.099432215 -0.009735961 0.10321369 -0.008967933 0.0034242566 0.005517668 0.060262587 0.035229895
0.1136458 -0.0067180227 0.027671713 -0.2781709 0.1057748 -0.0014180297 -0.32121557 0.06992643
0.017151562 -0.3319294 0.014691076 -0.004246456 -0.01750701 0.015981512 0.011348477 -0.0075382604
-0.025310695 -0.015599818 0.023759646 -0.3333853 0.10939178 0.06928397 0.0017739938 -0.28526595
0.07369827 0.049243186 -0.044578526 0.11800402 -0.03256963 0.11510255 0.003042369 -0.34451362
-0.048707195 0.11960696 0.07707007 -0.16057587 0.023858842 -0.33396244 -0.0017802236 0.10669109
0.119438246 -0.116854616 -0.013018617 -0.027520074 -0.32333747 0.119329385 0.11467324 -0.0323177
-0.31699878 -0.29115015 0.0062483936 -0.0022176106 0.120159 -0.3159479 -0.016212914 -0.010044822
-0.010130499 -0.007666168 -0.006885452 -0.018913737 -0.0023920855 0.0057357345 -0.062237248 0.011281075
-1.5063218e-05 -0.010371802 -0.059463844 -0.17774397 -0.0024296013 0.0008554413 -0.2082745 -0.034996882
-0.09278762 -0.21675138 0.0070519624 -0.0014939264 0.0035223924 -0.0019985829 0.007909165 -0.002909848
-0.012160521 0.0062252195 0.016443113 -0.2222149 0.0001872572 -0.056975562 0.0005958485 -0.1951302
-0.037697334 -0.058101937 -0.053648252 0.007188915 0.007816816 0.0023768859 0.013370249 -0.22518502
-0.0070723146 0.0076301047 -0.019663123 -0.073028415 -0.08169059 -0.22436488 -0.006735059 -0.0033721877
0.005616876 -0.09064117 -0.012701283 -0.003961449 -0.20749225 0.006435341 0.00092700624 0.00844601
-0.20652707 -0.19958892 -0.07142253 -0.05152384 0.0066343397 -0.2031285 -0.0040437733 -0.009247313
0.044054296 0.010337796 0.033496376 0.016194358 0.0017113856 0.0027168165 0.09158613 0.008912647
0.03374553 -0.007963203 0.07619686 -0.005755268 0.051923126 0.008664736 0.0055044717 0.05938134
0.10144066 0.013294701 0.0015269225 8.3648156e-05 1.2996187e-05 -0.013273883 -0.019548722 0.00021494839
0.022048248 0.00209948 -0.013429241 0.02033882 0.04833118 0.09762677 8.14317e-05 0.013400041
0.0753829 0.081434675 -0.0073096943 0.051579528 0.009952745 0.0447774 0.002096346 0.011377973
0.016398467 0.052448694 0.089804284 -0.0017061608 0.08952366 0.02465931 0.056940645 0.032929692
0.044980384 -0.007841295 0.006552795 0.011041384 0.011206834 0.04820438 0.035014547 -0.007552708
0.009538733 0.013227858 0.11618539 0.051219687 0.046537645 0.009415583 -0.02807301 0.017251821

bias f4 [32]
00000000: 1737 363e e8fa da3d e6a3 073e 153a d93d
00000010: 9b96 d23d 1bde 3f3e e382 0dbe 2033 073e
00000020: 48fb 35bd ae3d df3d b2ad e7bc a1a2 fa3d
00000030: 34ee b03d 506b 893c 7dbe 7cbd c691 cdbd
00000040: 70ed 03be ddde 0dbc 0a27 edbd 21b5 8c3d
00000050: a344 2cbe c2bf 46bd 3a77 9c3d 606f bf3d
00000060: 0191 babd 1ed2 1fbe 3f68 193e 3fe7 e03c
00000070: 6dc9 efbd 41c6 efbd 7f6b 83bd ddb4 2bbe
0.17794453 0.10692388 0.13246116 0.106067814 0.10282632 0.1873707 -0.1381946 0.13203096
-0.044429094 0.10900436 -0.028281067 0.1223805 0.08639184 0.016774803 -0.0617051 -0.1003757
-0.12883544 -0.008659092 -0.11579712 0.06870485 -0.16823058 -0.04852272 0.07639928 0.09347415
-0.091096886 -0.15607497 0.14981173 0.027454017 -0.11708341 -0.11707736 -0.06416988 -0.16768213
