checkpoints/insurance_honam2_emb32_0.pt (torch, 134190 bytes, 74 tensors)

weight f4 [32, 1]
0.33042413 0.3160184 0.33469686 0.3567179 0.32458887 -0.34954864 -0.3108938 -0.3146211
-0.20628117 0.3191109 -0.22324644 0.35641384 0.33674827 0.31960768 -0.32737127 -0.3232254
0.31488323 0.41174746 -0.32829008 -0.3622216 -0.30825672 -0.21112528 -0.33084038 0.32515246
-0.22850332 0.34180328 0.33434814 0.31939065 -0.31132185 -0.30881384 0.32541466 -0.27383527
00000000: 5a2d a93e 2acd a13e 635d ab3e bba3 b63e
00000010: 8330 a63e 0af8 b2be 792d 9fbe 0416 a1be
00000020: 5f3b 53be 8162 a33e b79a 64be e07b b63e
00000030: 456a ac3e 9ea3 a33e 359d a7be cd7d a5be
00000040: 6038 a13e 90d0 d23e a315 a8be 1c75 b9be
00000050: d3d3 9dbe 3a31 58be e963 a9be 627a a63e
00000060: c6fc 69be d700 af3e ae2f ab3e 2c87 a33e
00000070: 9465 9fbe d91c 9ebe c09c a63e 2334 8cbe

bias f4 [32]
-0.5522268 -0.3866196 -0.59692115 -0.8111076 -0.49464646 0.7406078 0.37351137 0.40727654
0.20330063 -0.43221185 0.22110756 -0.8084361 -0.618263 -0.43483675 0.53568053 0.49679863
-0.37172478 0.009113181 0.5439624 0.862462 0.3305951 0.20908749 0.5706947 -0.49929115
0.22631457 -0.6652784 -0.592047 -0.43563128 0.37910816 0.33520743 -0.5024839 0.26907572
00000000: bc5e 0dbf 01f3 c5be d3cf 18bf bfa4 4fbf
00000010: 4d42 fdbe 7998 3d3f e23c bf3e 8d86 d03e
00000020: 0a2e 503e df4a ddbe 056a 623e abf5 4ebf
00000030: 7c46 1ebf eca2 debe 5c22 093f 645c fe3e
00000040: b652 bebe 744f 153c 1f41 0b3f 4fca 5c3f
00000050: c343 a93e 081b 563e 0c19 123f 17a3 ffbe
00000060: 02bf 673e af4f 2abf 6490 17bf 100b dfbe
00000070: 771a c23e 4fa0 ab3e c9a2 00bf 4bc4 893e

weight f4 [64, 32]
-0.05359919 -0.07743026 -0.04975956 -0.03941554 -0.059115414 0.04122443 0.07671602 0.07029067
0.25977853 -0.06796317 0.20591848 -0.039454278 -0.04828597 -0.067868695 0.05349644 0.057301216
-0.081015766 -0.31860748 0.05287335 0.037214898 0.0896236 0.21888246 0.05047556 -0.058619507
0.19827954 -0.045564037 -0.050191432 -0.067412786 0.07534772 0.088298984 -0.058359116 0.129611
0.027379632 0.052115776 0.023801604 0.013722977 0.033016276 -0.01561344 -0.051824182 -0.04494728
-0.28562608 0.04199981 -0.1716422 0.013877495 0.022233658 0.041786153 -0.02764788 -0.031429283
0.055937324 0.36593556 -0.027064685 -0.011968438 -0.066501394 -0.19306073 -0.024647813 0.032458253
-0.16293183 0.019588662 0.024231615 0.041376326 -0.050431624 -0.06497782 0.03217593 -0.11008172
0.012643678 0.009340932 0.013354705 0.014939627 0.011824468 -0.014574773 -0.009446466 -0.010262921
0.046321932 0.0105415145 0.00494714 0.014930775 0.013577662 0.010608192 -0.012643721 -0.012039446
0.0088340435 -0.27468947 -0.012827503 -0.015162671 -0.0075918664 0.008970468 -0.013140611 0.011857502
0.0034179557 0.014003301 0.013250507 0.01067764 -0.009498866 -0.007800597 0.012046345 -0.0038335787
0.016356869 0.016139671 0.01618811 0.015974447 0.016333817 -0.015370785 -0.0147336675 -0.015046018
-0.06582105 0.016370142 -0.022592653 0.015995493 0.016166795 0.016271863 -0.015420683 -0.015365676
0.016066048 0.15994745 -0.015304013 -0.015194425 -0.0140801985 -0.029134873 -0.0153691 0.016314449
-0.020585129 0.016088698 0.016321646 0.016322179 -0.01486451 -0.014356815 0.016277203 -0.014937357
-0.008178843 -0.014645424 -0.0073588574 -0.0048704185 -0.00974137 0.00707089 0.01748334 0.01540151
0.13063179 -0.012185701 0.045640927 -0.004759722 -0.007023891 -0.011994873 0.010667237 0.011760794
-0.015724806 -0.18718731 0.010455911 0.0060572517 0.021634243 0.055427764 0.009742744 -0.009520233
0.04262492 -0.00623631 -0.00741099 -0.011932521 0.017123709 0.02124139 -0.009579997 0.03214233
0.00032549573 -0.00824014 0.00183579 0.0060005845 -0.0016938085 -0.005549386 0.008117366 0.0059305043
0.16380341 -0.0048954613 0.05683949 0.006011267 0.0024326092 -0.004813186 -0.0003964502 0.0009872797
-0.009395192 -0.3339993 -0.000629684 -0.00728246 0.0125707425 0.07202201 -0.0016589593 -0.0016379245
0.050666187 0.0034504125 0.0017120464 -0.004820894 0.00760979 0.012071503 -0.0013999777 0.024881499
0.026871772 0.023218675 0.027317947 0.028755253 0.026054565 -0.029021084 -0.023805823 -0.024909714
-0.012373197 0.024635654 -0.016693383 0.02877141 0.027649878 0.024858387 -0.027375512 -0.02679564
0.022667784 -0.13777547 -0.02742893 -0.029601498 -0.021673076 -0.016390905 -0.027723843 0.026159132
-0.016841274 0.027868057 0.027415287 0.02485541 -0.023952141 -0.02192862 0.026239624 -0.017595809
0.027693862 0.027721161 0.027721629 0.027245931 0.02774548 -0.026422566 -0.02689239 -0.026958313
-0.0007846359 0.027824875 -0.021019055 0.027332215 0.02765119 0.027903177 -0.026898744 -0.026883004
0.027686415 -0.12624335 -0.026926674 -0.026385969 -0.026870556 -0.018296389 -0.026775952 0.027785996
-0.022209471 0.027474308 0.027604185 0.027775692 -0.026983626 -0.026854245 0.027785558 -0.025945881
00000000: d38a 5bbd c293 9ebd aed0 4bbd 3072 21bd
00000010: 0123 72bd f3da 283d 4a1d 9d3d 8ef4 8f3d
00000020: b101 853e 4630 8bbd 4bdc 523e cf9a 21bd
00000030: 82c7 45bd befe 8abd 151f 5b3d aeb4 6a3d
00000040: 98eb a5bd 8520 a3be ba91 583d a66e 183d
00000050: 948c b73d b922 603e 76bf 4e3d 021b 70bd
00000060: cb09 4b3e 5ba1 3abd 8895 4dbd b70f 8abd
00000070: e84f 9a3d 19d6 b43d f809 6fbd bfb8 043e
00000080: 404b e03c 5a77 553d 95fb c23c 56d6 603c
00000090: 133c 073d 84cf 7fbc 9845 54bd a41a 38bd
000000a0: 953d 92be fe07 2c3d f9c2 2fbe 6f5e 633c
000000b0: 5c23 b63c f527 2b3d cf7d e2bc febb 00bd
000000c0: 891e 653d e85b bb3e c2b6 ddbc 4417 44bc
000000d0: e231 88bd b6b1 45be 36ea c9bc f2f2 043d
000000e0: 9ad7 26be 6778 a03c 6181 c63c 397a 293d
000000f0: 6491 4ebd 1713 85bd e8ca 033d 8672 e1bd
00000100: 6e27 4f3c b50a 193c b1cd 5a3c 56c5 743c
00000110: 6abb 413c 07cb 6ebc 5ac5 1abc d025 28bc
00000120: 11bc 3d3d 51b6 2c3c 9e1b a23b 36a0 743c
00000130: d874 5e3c fbcd 2d3c 9c27 4fbc 1941 45bc
00000140: aabc 103c 19a4 8cbe 722a 52bc da6c 78bc
00000150: 31c5 f8bb dff8 123c b84b 57bc f845 423c
00000160: c8ff 5f3b 1a6e 653c a818 593c 45f1 2e3c
00000170: 22a1 1bbc 279c ffbb 085e 453c c73c 7bbb
00000180: d7fe 853c 5837 843c ed9c 843c d8dc 823c
00000190: 7fce 853c bfd5 7bbc 7b65 71bc 9383 76bc
000001a0: 30cd 86bd ad1a 863c 3a14 b9bc fb08 833c
000001b0: 3a70 843c 924c 853c 08a7 7cbc 51c0 7bbc
000001c0: f29c 833c 44c9 233e afbd 7abc 0af2 78bc
000001d0: a2b0 66bc 42ac eebc adce 7bbc e1a5 853c
000001e0: 25a2 a8bc 72cc 833c f9b4 853c 17b6 853c
000001f0: 468a 73bc d938 6bbc c557 853c d1bb 74bc
00000200: 8e00 06bc 5cf3 6fbc 9222 f1bb 0898 9fbb
00000210: 449a 1fbc edb2 e73b 3939 8f3c 9d56 7c3c
00000220: 57c4 053e 89a6 47bc fbf1 3a3d 71f7 9bbb
00000230: ab28 e6bb 2586 44bc a3c5 2e3c 58b0 403c
00000240: 4fd1 80bc 08ae 3fbe 454f 2b3c e97b c63b
00000250: 4c3a b13c 3908 633d 08a0 1f3c c0fa 1bbc
00000260: 7897 2e3d f659 ccbb e4d7 f2bb 9f80 43bc
00000270: 0547 8c3c 6c02 ae3c 6bf5 1cbc ada7 033d
00000280: 4ca7 aa39 a701 07bc e49e f03a 8da0 c43b
00000290: c802 deba a0d7 b5bb b3fe 043c ad54 c23b
000002a0: 15bc 273e 1b6a a0bb 86d0 683d 2afa c43b
000002b0: 696c 1f3b eeb7 9dbb a5da cfb9 9c67 813a
000002c0: 4bee 19bc f501 abbe 6111 25ba b4a1 eebb
000002d0: 84f5 4d3c 4780 933d 7071 d9ba a0af d6ba
000002e0: 5987 4f3d 5120 623b bf66 e03a 97f8 9dbb
000002f0: 8c5b f93b 8ec7 453c 757f b7ba 49d4 cb3c
00000300: 3122 dc3c 1735 be3c e3c9 df3c 2390 eb3c
00000310: 6270 d53c a0bd edbc 6e04 c3bc 750f ccbc
00000320: f3b8 4abc b6d0 c93c 90c0 88bc 05b2 eb3c
00000330: ff81 e23c d1a3 cb3c 9c42 e0bc 8882 dbbc
00000340: cab1 b93c 0315 0dbe a3b2 e0bc d77e f2bc
00000350: bc8b b1bc 3846 86bc 1d1d e3bc ad4b d63c
00000360: b6f6 89bc 8d4b e43c 0696 e03c 939d cb3c
00000370: 4837 c4bc a6a3 b3bc 7bf4 d63c 1625 90bc
00000380: 3dde e23c 7d17 e33c 7818 e33c dc32 df3c
00000390: 7d4a e33c 2374 d8bc 6e4d dcbc aed7 dcbc
000003a0: 06b0 4dba fef0 e33c 2730 acbc cfe7 df3c
000003b0: c084 e23c 3495 e43c c15a dcbc bf39 dcbc
000003c0: 9fce e23c f045 01be 5495 dcbc 6327 d8bc
000003d0: a41f dcbc 4fe2 95bc 3e59 dbbc 759f e33c
000003e0: a3f0 b5bc cd11 e13c 2c22 e23c d989 e33c
000003f0: c40c ddbc 6ffd dbbc 8a9e e33c 758c d4bc

bias f4 [64]
0.022072233 0.16841477 -0.0009757422 -0.04975214 -0.14978322 -0.11263844 0.09552104 -0.029765027
-0.020000683 0.056279168 -0.06176567 -0.03315547 -0.059843875 0.06572462 0.11195455 0.12854955
0.088260755 -0.09196561 -0.025673877 0.0066703847 -0.1404681 0.07832197 -0.09289703 0.102955155
0.15702431 -0.14321296 0.11180276 0.06358289 -0.06600113 0.17683 -0.16658758 -0.108189456
-0.10714932 -0.014496054 0.04263286 -0.06394504 -0.15533291 -0.00017609326 0.103160635 0.1519139
0.06994682 0.02387626 0.009398831 -0.14337635 0.06357843 -0.17954826 -0.03417338 -0.05712472
0.102562755 -0.014689675 -0.028129004 0.032063 -0.14350972 -0.009543432 0.07883446 -0.033931665
-0.01705484 0.06878317 -0.102841586 -0.03296636 0.18061127 0.076353 -0.049806494 0.07312292
00000000: d4d0 b43c ec74 2c3e f3c8 7fba e6c8 4bbd
00000010: c660 19be fcae e6bd 89a0 c33d c9d5 f3bc
00000020: 79d8 a3bc fc84 663d 00fe 7cbd 08ce 07bd
00000030: da1e 75bd a19a 863d 6d48 e53d 7ea2 033e
00000040: 0ec2 b43d 7758 bcbd 0652 d2bc 3e93 da3b
00000050: dfd6 0fbe 4567 a03d cc40 bebd 27da d23d
00000060: fbca 203e 6ba6 12be d8f8 e43d bf37 823d
00000070: 9a2b 87bd ec12 353e ef95 2abe 6f92 ddbd
00000080: 1a71 dbbd db80 6dbc cb9f 2e3d 9ef5 82bd
00000090: 970f 1fbe ada5 38b9 e245 d33d 518f 1b3e
000000a0: 4740 8f3d 2598 c33c 8efd 193c 40d1 12be
000000b0: 6835 823d 80db 37be 63f9 0bbd 9cfb 69bd
000000c0: 6c0c d23d f6ac 70bc cc6e e6bc 7e54 033d
000000d0: 36f4 12be 0e5c 1cbc f673 a13d eefb 0abd
000000e0: 98b6 8bbc 31de 8c3d 9c9e d2bd bc07 07bd
000000f0: 29f2 383e f65e 9c3d e501 4cbd 78c1 953d

weight f4 [32, 64]
-0.14334832 0.052444447 -0.001998892 0.024020227 -0.009586 -0.044602614 -0.013569781 0.0024261787
0.0026989568 -0.0015746913 -0.13764703 0.02350242 -0.010214499 0.016766176 0.0002593925 0.044687096
-0.00254761 -0.1733933 0.045940295 0.0041210577 -0.008412293 0.064627446 0.009479088 0.057809126
0.056081384 -0.011356141 0.0009418323 0.014755958 -0.13704342 0.049140688 -0.015343965 -0.09674574
-0.0411236 -0.0033770332 0.010467918 -0.029190835 -0.011804549 -0.115734816 -0.006588416 0.060973957
-0.0025698682 0.010219862 -0.0041256235 -0.061374694 0.0053992546 -0.014706971 -0.14726126 0.03336491
-0.00075614965 -0.0031777609 0.0587761 -0.06037606 -0.011657678 -0.11530487 0.06033709 -0.0010241525
-0.0042184093 -0.0026712925 0.029885244 0.053696703 0.057363123 0.09259894 0.017170945 -0.00025785336
0.084388815 -0.095720954 0.030187882 0.02885884 0.022269897 0.026537893 0.02415801 -0.027758026
0.017725399 0.002692253 0.080883704 0.03222212 0.014176201 0.001215645 0.003950074 -0.07866883
0.002318308 0.11083008 -0.037292313 0.037268277 0.0096692275 -0.08932362 0.000641763 -0.093746535
-0.10000063 0.020085847 0.0019820866 -0.0153049035 0.08059535 -0.08773699 0.08496804 -0.0015387996
0.042454764 0.007396041 -0.009771628 0.034676768 0.008778978 0.050747354 0.007677911 -0.10926336
7.433588e-05 0.02335367 0.037849613 -0.0062829517 0.0122341225 0.059912637 0.0835064 0.021435827
0.0013435767 -0.0069426317 -0.0701985 -0.010686528 0.032318037 0.05243771 -0.08155281 0.0117195565
-0.0053658816 -0.001926249 -0.013103881 -0.07491921 -0.10168911 -0.11645489 0.016334629 0.0012161738
0.124086685 -0.047442965 -0.003527689 -0.0038134865 0.020167163 0.039043017 0.026160954 -0.034584664
-0.0023881025 0.00036399154 0.120366916 0.0029550132 -0.002314619 -0.01026051 0.0018080357 -0.0363945
-0.00047142082 0.15079376 -0.0051277187 0.020775523 -0.0061056204 -0.05111605 0.014223213 -0.051521286
-0.051534817 -0.006194794 -0.0010268589 0.0017246164 0.119831614 -0.0416782 0.031355873 0.034840524
0.008600069 -0.015951848 0.026291676 -0.0013863856 -0.0041795336 0.09085407 0.0047579007 -0.06133431
0.0003652029 -0.01480236 0.018430455 0.027645396 0.011945367 0.017237494 0.12474006 -0.019944787
6.557942e-05 -0.0046102433 -0.037997182 -0.027458325 0.017991887 0.08599916 -0.04525028 -0.0050711185
-0.006187839 -0.0003038886 0.011765391 -0.041147206 -0.053328678 -0.080473006 -0.001353758 0.00031420722
-0.23014358 0.014526912 0.040654436 0.06296487 0.011594987 -0.020732062 -0.0143182725 0.007867815
0.0065800794 0.00074650045 -0.23659427 0.043170378 0.010848525 0.021787345 0.00250518 0.010817662
-0.001687292 -0.2645298 0.0013671556 0.03853631 0.013058302 0.021954302 -0.0045986 0.021975124
0.018685237 0.034704648 0.004619335 -0.013272855 -0.23491736 0.010604562 0.03130381 -0.10749928
0.0059706024 0.026490983 -0.022758525 0.017117847 0.008562556 -0.19605845 0.013421857 0.02488574
-0.00027905178 0.04392448 0.034030493 -0.016635804 -0.0034618631 0.033719018 -0.23782718 0.06150933
-3.7750506e-06 -0.0007810058 0.014852092 0.01703267 0.004929965 -0.20525768 0.015480976 0.003592886
0.0014623129 0.0034025519 -0.014963727 0.012666653 0.019378377 0.047371615 0.03077481 0.000378955
00000000: e7c9 12be fdcf 563d d8ff 02bb 11c6 c43c
00000010: 990e 1dbc 3bb1 36bd c953 5ebc 8600 1f3b
00000020: fbe0 303b df65 ceba 58f3 0cbe 2688 c03c
00000030: b75a 27bc 3859 893c 12ff 8739 d109 373d
00000040: cef5 26bb 038e 31be e42b 3c3d f009 873b
00000050: b7d3 09bc 655b 843d 2d4e 1b3c 43c9 6c3d
00000060: 98b5 653d 1c0f 3abc 4ce5 763a f9c2 713c
00000070: 1c55 0cbe bf47 493d 4165 7bbc a122 c6bd
00000080: 3871 28bd 3751 5dbb a181 2b3c 9e21 efbc
00000090: de67 41bc 6006 edbd a4e3 d7bb d4bf 793d
000000a0: 3c6b 28bb 3571 273c 3d30 87bb 0864 7bbd
000000b0: 3bec b03b 82f5 70bc a8cb 16be a5a9 083d
000000c0: 5838 46ba fb41 50bb 35bf 703d e34c 77bd
000000d0: d8ff 3ebc f624 ecbd 0624 773d db3c 86ba
000000e0: 953a 8abb da10 2fbb e6d1 f43c 13f1 5b3d
000000f0: 98f5 6a3d 83a4 bd3d 15aa 8c3c 7e30 87b9
00000100: 0bd4 ac3d 5909 c4bd 944c f73c 6069 ec3c
00000110: 5c6f b63c ff65 d93c 05e7 c53c cd64 e3bc
00000120: db34 913c 8370 303b 5ba6 a53d 57fb 033d
00000130: 4c43 683c 4756 9f3a 9f6f 813b 201d a1bd
00000140: c1ee 173b e2fa e23d d3bf 18bd 9fa6 183d
00000150: ae6b 1e3c 4def b6bd fc3b 283a 2ffe bfbd
00000160: 21cd ccbd 138b a43c e5e5 013b 6bc1 7abc
00000170: 2d0f a53d 73af b3bd b903 ae3d 8cb1 c9ba
00000180: 0ce5 2d3d 7d5a f23b 2e19 20bc 3a09 0e3d
00000190: b4d5 0f3c 75dc 4f3d fc96 fb3b 78c5 dfbd
000001a0: c6e4 9b38 3250 bf3c 3208 1b3d 38e1 cdbb
000001b0: a171 483c f466 753d 6705 ab3d 309a af3c
000001c0: f41a b03a 047f e3bb 3bc4 8fbd 8c16 2fbc
000001d0: eb5f 043d edc8 563d 2905 a7bd 6203 403c
000001e0: 47d4 afbb 317a fcba a9b1 56bc 3e6f 99bd
000001f0: 6142 d0bd e77f eebd 33d0 853c 0568 9f3a
00000200: 2921 fe3d 8e53 42bd cd30 67bb b0eb 79bb
00000210: 9b35 a53c 92eb 1f3d 7f4f d63c a6a8 0dbd
00000220: b681 1cbb 1ed6 be39 ee82 f63d e5a8 413b
00000230: ddb0 17bb b31b 28bc 9cfb ec3a 6612 15bd
00000240: 0829 f7b9 ae69 1a3e 6c06 a8bb 6e31 aa3c
00000250: a811 c8bb 105f 51bd 7b08 693c fc07 53bd
00000260: 2c16 53bd b3fd cabb ab97 86ba 860c e23a
00000270: 476a f53d c3b6 2abd 046f 003d f0b4 0e3d
00000280: 4ee7 0c3c 73ad 82bc a461 d73c 62b7 b5ba
00000290: 78f4 88bb b311 ba3d 2ae8 9b3b af39 7bbd
000002a0: b478 bf39 9985 72bc 77fb 963c 9978 e23c
000002b0: 80b6 433c a535 8d3c b777 ff3d 4063 a3bc
000002c0: af87 8938 8611 97bb efa2 1bbd 48f0 e0bc
000002d0: b963 933c 5420 b03d 5c58 39bd a02b a6bb
000002e0: 5bc3 cabb 3d53 9fb9 a0c3 403c f989 28bd
000002f0: 2c6f 5abd 08cf a4bd 9570 b1ba 2ebc a439
00000300: c2aa 6bbe 4902 6e3c 4485 263d baf3 803d
00000310: e6f8 3d3c 49d6 a9bc 3097 6abc 02e8 003c
00000320: b59d d73b ccb0 433a c545 72be 6cd3 303d
00000330: 03be 313c 607b b23c f22d 243b 903c 313c
00000340: 2028 ddba 7370 87be 2132 b33a 40d8 1d3d
00000350: 7df2 553c 82d9 b33c daaf 96bb 2d05 b43c
00000360: c811 993c 7626 0e3d ca5d 973b 6476 59bc
00000370: 2d8e 70be c2be 2d3c 6d38 003d 9528 dcbd
00000380: 0ba5 c33b 9e03 d93c 1670 babc ba3a 8c3c
00000390: f649 0c3c 8cc3 48be 59e7 5b3c 2edd cb3c
000003a0: b24d 92b9 28ea 333d 8f63 0b3d cf47 88bc
000003b0: 6de0 62bb f41c 0a3d f888 73be 35f1 7b3d
000003c0: e056 7db6 69bc 4cba 3056 733c 1988 8b3c
000003d0: 8b8b a13b 122f 52be eba3 7d3c a076 6b3b
000003e0: 14ab bf3a 59fd 5e3b 6c2a 75bc cb87 4f3c
000003f0: 67bf 9e3c bd08 423d 741b fc3c 7bae c639

bias f4 [32]
0.07367384 0.065151714 0.12310799 0.08053582 0.033311374 0.073197655 0.025916379 -0.026653973
0.07428976 0.0032841736 -0.08816016 -0.010903243 -0.12461173 0.0816754 0.07625688 -0.054430418
-0.04434861 0.06268171 -0.009739351 0.12399378 0.04349238 0.032953274 -0.03464692 -0.00044118217
-0.0030456905 0.17682233 -0.029269535 -0.16364148 -0.14566387 -0.011409581 0.020887945 0.093517795
00000000: 4fe2 963d 436e 853d 0b20 fc3d f7ef a43d
00000010: 8271 083d a7e8 953d 964e d43c 6f59 dabc
00000020: 3b25 983d 4a3b 573b 508d b4bd 84a3 32bc
00000030: 6f34 ffbd 6f45 a73d 912c 9c3d 6ef2 5ebd
00000040: e3a6 35bd 455f 803d cd91 1fbc 73f0 fd3d
00000050: 1125 323d 03fa 063d eee9 0dbd 784e e7b9
00000060: 359a 47bb ea10 353e aac6 efbc a291 27be
00000070: e928 15be 40ef 3abc 321d ab3c 4286 bf3d

weight f4 [32, 1]
-0.039621163 -0.04040008 0.04148648 0.041271534 0.041235525 -0.07716198 0.037669912 0.041350406
0.04055922 -0.040110994 0.037616268 0.04163244 0.04148466 -0.040282495 -0.039716475 0.04142577
0.04146088 -0.040322665 0.041480925 0.041380383 -0.039783526 -0.040135015 0.032396846 -0.028766545
-0.039792925 0.041422557 0.03628223 0.04114744 0.04118626 -0.039823756 0.041446343 0.04135514
00000000: cd49 22bd 8e7a 25bd baed 293d 570c 293d
00000010: 95e6 283d 1a07 9ebd c44b 1a3d 0b5f 293d
00000020: 6d21 263d 6d4b 24bd 8413 1a3d c786 2a3d
00000030: d2eb 293d 42ff 24bd bead 22bd 11ae 293d
00000040: e2d2 293d 6129 25bd e7e7 293d 7a7e 293d
00000050: 0df4 22bd 9d64 24bd 8eb2 043d d1a7 ebbc
00000060: e8fd 22bd b3aa 293d ad9c 143d 388a 283d
00000070: ecb2 283d 3c1e 23bd a4c3 293d 0264 293d

bias f4 [32]
0.82806945 0.55424803 -0.67734885 -0.704441 -0.6623941 0.1214536 -0.106238216 -0.8587587
-0.16861188 0.5096332 -0.05847941 -0.67953056 -0.5386234 0.25698212 0.1977353 -0.3162454
-0.70038795 0.3081409 -0.4159521 -0.7576042 0.8000328 0.28570947 -0.06815189 0.05101488
0.69537187 -0.77031636 -0.09072501 -0.23709777 -0.8531611 0.7312362 -0.8267468 -0.28486395
00000000: 5cfc 533f 33e3 0d3f bc66 2dbf 3f56 34bf
00000010: a992 29bf aabc f83d 6c93 d9bd 9cd7 5bbf
00000020: 98a8 2cbe 5277 023f 1b88 6fbd b7f5 2dbf
00000030: 39e3 09bf 2993 833e 1f7b 4a3e ebea a1be
00000040: a04c 33bf a5c4 9d3e acf7 d4be 59f2 41bf
00000050: f3ce 4c3f 8348 923e 3893 8bbd fbf4 503d
00000060: e403 323f 7433 45bf 09ce b9bd c2c9 72be
00000070: c468 5abf 4c32 3b3f aea5 53bf b0d9 91be

weight f4 [64, 32]
0.01732863 0.016377686 -0.014366502 -0.014511118 -0.014298493 -0.014753212 -0.004831423 -0.015237877
-0.0077616796 0.016154086 0.054346442 -0.014364561 -0.013651164 0.014229629 0.013208431 -0.0114502935
-0.014547842 0.0148726 -0.012689129 -0.014794253 0.017202107 0.014538759 -0.0015110418 0.0067777983
0.016989544 -0.014913712 -0.0036839738 -0.00977023 -0.015088357 0.016962307 -0.014984636 -0.010834596
-0.03109201 -0.03069999 0.031002011 0.030977491 0.03081644 -0.08375106 0.02847115 0.031124279
0.029288402 -0.030779008 0.020748869 0.030949846 0.030733624 -0.030147975 -0.029721096 0.030331843
0.031018328 -0.030272922 0.030493192 0.031005299 -0.030897712 -0.03024332 0.027496994 -0.027084487
-0.03091314 0.03090104 0.0280647 0.029793004 0.031031875 -0.030863238 0.031011399 0.030221414
-0.004688514 -0.0035232727 0.0044044433 0.0044883336 0.0044637993 0.1681519 -0.006256194 0.0050869845
-0.0025953292 -0.003428324 -0.001654617 0.004517342 0.0036638984 -0.00062491425 0.00075438834 0.0014410131
0.0045853863 -0.0014475168 0.0027004879 0.0046754386 -0.004495876 -0.0012710725 -0.010847496 0.012828928
-0.0043234536 0.004707169 -0.00763932 -0.00015638427 0.0050808894 -0.0043223617 0.004964355 0.00094566506
0.015950304 0.0151525 -0.013158678 -0.013331429 -0.013107675 -0.03912469 -0.0052122143 -0.013863465
-0.0076089525 0.014987873 -0.017365448 -0.013340184 -0.012553235 0.013272187 0.012440477 -0.010720868
-0.0132669 0.013880683 -0.011719515 -0.013648127 0.015837938 0.013583903 -0.0024497039 0.005511578
0.015614448 -0.013618886 -0.004252538 -0.00942654 -0.013811057 0.015668565 -0.013834263 -0.010184838
-0.02478766 -0.024902945 0.024911867 0.024737036 0.024901839 -0.056339875 0.024792256 0.024725175
0.024850471 -0.02471776 -0.010664098 0.024872828 0.024931645 -0.024822313 -0.024866804 0.024958884
0.02487557 -0.024848249 0.024891289 0.024821563 -0.024817912 -0.024820566 0.024918457 -0.024957381
-0.02471264 0.024901927 0.024870226 0.024837004 0.024838401 -0.02473498 0.024736013 0.02481485
0.019635051 0.019150948 -0.016826846 -0.01697671 -0.016873132 0.021606011 -0.009017923 -0.017486008
-0.011505161 0.019014543 0.039218776 -0.016915979 -0.01634963 0.017827947 0.01712664 -0.014459202
-0.017080337 0.018162536 -0.015479868 -0.01727778 0.019713098 0.018007874 -0.006319425 0.012957833
0.019407554 -0.01716968 -0.008199199 -0.013206453 -0.017514586 0.019476261 -0.017504022 -0.014035689
-0.010510296 -0.010510294 0.010298452 0.010169835 0.010289268 -0.026609696 0.010676545 0.010206194
0.01052775 -0.010533395 -0.0038496577 0.01025428 0.010307945 -0.010729948 -0.010877656 0.010380483
0.010271138 -0.010643404 0.010220875 0.010192873 -0.010455122 -0.010686923 0.010623091 -0.011444789
-0.010387908 0.010299901 0.010735897 0.010357213 0.010240457 -0.0103864055 0.010171317 0.010333103
-0.03545067 -0.035624273 0.035593446 0.035452496 0.03566272 -0.012179366 0.036647737 0.035500657
0.036838196 -0.035764698 0.05041066 0.035594523 0.035807997 -0.036476385 -0.0367312 0.036245186
0.035566676 -0.036252093 0.03592479 0.035453226 -0.035507273 -0.036420204 0.032261122 -0.027516354
-0.035572335 0.03550775 0.03593093 0.036692698 0.03541116 -0.03555551 0.035399478 0.03635707
00000000: c5f4 8d3c 7f2a 863c 7a61 6bbc 0ac0 6dbc
00000010: 3a44 6abc 75b7 71bc ea50 9ebb 4aa8 79bc
00000020: b055 febb 9355 843c 609a 5e3d 5659 6bbc
00000030: 22a9 5fbc 6423 693c 2d68 583c 039a 3bbc
00000040: 125a 6ebc 35ac 733c 11e6 4fbc 9863 72bc
00000050: 6feb 8c3c fa33 6e3c 260e c6ba 4b18 de3b
00000060: a82d 8b3c a458 74bc d36e 71bb 5113 20bc
00000070: 2835 77bc 89f4 8a3c 1e82 75bc 9783 31bc
00000080: acb4 febc 8c7e fbbc eef7 fd3c 82c4 fd3c
00000090: c272 fc3c ad85 abbd 543c e93c 58f8 fe3c
000000a0: 3bee ef3c 4224 fcbc 88f9 a93c 888a fd3c
000000b0: 15c5 fb3c e3f8 f6bc a879 f3bc 7c7a f83c
000000c0: 261a fe3c ebfe f7bc dccc f93c d3fe fd3c
000000d0: 331d fdbc d7c0 f7bc 6041 e13c 49e0 ddbc
000000e0: 8e3d fdbc 2e24 fd3c f1e7 e53c 7510 f43c
000000f0: 8f36 fe3c e7d4 fcbc 9e0b fe3c e692 f73c
00000100: 1ba2 99bb b5e6 66bb 2653 903b df12 933b
00000110: 1045 923b 0330 2c3e c200 cdbb b8b0 a63b
00000120: 6616 2abb bbad 60bb bcdf d8ba 3606 943b
00000130: 041e 703b 49d1 23ba 25c2 453a 60e0 bc3a
00000140: 0241 963b 9bba bdba abfa 303b 6c34 993b
00000150: 2452 93bb 1e9a a6ba b2b9 31bc 6d30 523c
00000160: c2ab 8dbb 983e 9a3b 4353 fabb 15fb 23b9
00000170: 977d a63b 99a2 8dbb 07ac a23b 82e6 773a
00000180: 36aa 823c 3142 783c 7f97 57bc 116c 5abc
00000190: 93c1 56bc 3641 20bd 39cb aabb 9623 63bc
000001a0: 8554 f9bb b28f 753c fc41 8ebc ca90 5abc
000001b0: 15ac 4dbc 9673 593c 24d3 4b3c 94a6 2fbc
000001c0: 695d 59bc ce6b 633c 3503 40bc 659c 5fbc
000001d0: 90be 813c 058f 5e3c 368b 20bb 789a b43b
000001e0: bed3 7f3c bf21 5fbc e058 8bbb c671 1abc
000001f0: c647 62bc 5d5b 803c 1ba9 62bc 4fde 26bc
00000200: 7e0f cbbc 4301 ccbc f913 cc3c 53a5 ca3c
00000210: f1fe cb3c a4c4 66bd 2119 cb3c 738c ca3c
00000220: 3793 cb3c e67c cabc 78b8 2ebc 1ac2 cb3c
00000230: 733d cc3c 2a58 cbbc 78b5 cbbc 9376 cc3c
00000240: dac7 cb3c 8e8e cbbc d1e8 cb3c 9756 cb3c
00000250: ef4e cbbc 8054 cbbc cb21 cc3c 6c73 ccbc
00000260: 2a72 cabc 20ff cb3c a5bc cb3c f976 cb3c
00000270: e779 cb3c 03a1 cabc 2ea3 ca3c 8348 cb3c
00000280: b0d9 a03c 73e2 9c3c 74d8 89bc be12 8bbc
00000290: 8639 8abc 17ff b03c e9bf 13bc d13e 8fbc
000002a0: 2580 3cbc 63c4 9b3c dea3 203d 6193 8abc
000002b0: a9ef 85bc ea0b 923c 2b4d 8c3c 4ae6 6cbc
000002c0: 10ec 8bbc 99c9 943c 469f 7dbc 228a 8dbc
000002d0: 5d7d a13c 4085 933c 2e13 cfbb 174d 543c
000002e0: 97fc 9e3c 6ea7 8cbc ef55 06bc e15f 58bc
000002f0: c07a 8fbc ae8c 9f3c 9864 8fbc f2f5 65bc
00000300: 6033 2cbc 5e33 2cbc d7ba 283c 619f 263c
00000310: 5194 283c 94fc d9bc adec 2e3c e137 273c
00000320: 957c 2c3c 4394 2cbc 8a4a 7cbb 9101 283c
00000330: a8e2 283c aacc 2fbc 3238 32bc e712 2a3c
00000340: 4648 283c ac61 2ebc 7575 273c 0200 273c
00000350: f64b 2bbc 3418 2fbc 790c 2e3c ed82 3bbc
00000360: 0b32 2abc eac0 283c 9ee5 2f3c 4db1 293c
00000370: 97c7 273c be2b 2abc 98a5 263c 2d4c 293c
00000380: b934 11bd c2ea 11bd 6fca 113d a336 113d
00000390: 1313 123d f78b 47bc f01b 163d 2369 113d
000003a0: a6e3 163d 017e 12bd 697b 4e3d 90cb 113d
000003b0: 68ab 123d 4368 15bd 7473 16bd d575 143d
000003c0: 5dae 113d 137d 14bd df25 133d 6737 113d
000003d0: 1370 11bd 5a2d 15bd 3d24 043d fa69 e1bc
000003e0: 4cb4 11bd 9370 113d 502c 133d 154b 163d
000003f0: 4b0b 113d a8a2 11bd 0bff 103d 27eb 143d

bias f4 [64]
-0.12213106 0.10543493 -0.10301271 -0.099874556 0.11709054 -0.14135636 0.050812516 0.10903562
-0.024945155 -0.14618798 -0.1305318 -0.0072663724 -0.02527059 0.09257754 0.11592474 -0.09262541
-0.04134085 -0.120551296 0.027514797 0.10440194 -0.052230693 -5.15572e-06 -0.011392747 -0.15371594
0.14329365 0.027646009 0.13801722 -0.12767641 -0.04716392 -0.049716186 0.04808355 -0.03709004
-0.08985159 0.12023097 0.115704685 0.14482015 0.085777104 0.09056348 -0.10856423 0.0018573815
-0.05079729 -0.013138631 -0.003406488 0.031557947 -0.0914356 -0.06280564 -0.0702054 -0.05505298
-0.09931781 -0.08808333 -0.10872459 -0.10984831 -0.02195832 -0.13123521 -0.17612399 0.10177344
-0.11147629 0.08744071 -0.018472321 -0.02325189 0.10577004 -0.14564833 0.059169274 0.09367259
00000000: d91f fabd 45ee d73d 54f8 d2bd 088b ccbd
00000010: 2acd ef3d b9bf 10be c920 503d 114e df3d
00000020: c859 ccbc 4db2 15be 21aa 05be c01a eebb
00000030: 4504 cfbc 4b99 bd3d f369 ed3d 64b2 bdbd
00000040: 0655 29bd 99e3 f6bd b666 e13c afd0 d53d
00000050: daef 55bd 4cff acb6 a5a8 3abc b667 1dbe
00000060: 92bb 123e e279 e23c 6354 0d3e 9bbd 02be
00000070: f42e 41bd 33a3 4bbd 42f3 443d baeb 17bd
00000080: 1c04 b8bd a83b f63d 94f6 ec3d bc4b 143e
00000090: e8ab af3d 5979 b93d ec56 debd 6273 f33a
000000a0: d210 50bd 6a43 57bc 633f 5fbb e842 013d
000000b0: 9642 bbbd 3ea0 80bd d9c7 8fbd 3c7f 61bd
000000c0: 2367 cbbd 0865 b4bd ffaa debd 27f8 e0bd
000000d0: efe1 b3bc 8662 06be d959 34be 986e d03d
000000e0: ae4d e4bd 1d14 b33d 4453 97bc bf7a bebc
000000f0: f69d d83d d624 15be 7b5b 723d 6ad7 bf3d

weight f4 [32, 64]
0.00019562781 -0.0027533197 0.0063152686 0.015240341 9.152397e-05 0.003953094 0.00040524977 0.032040674
0.0017960946 0.0010051295 0.019666098 -0.0010514968 0.0059394073 0.003320945 0.00094854453 0.012310516
0.004043183 0.0013136655 -0.014746355 -0.00027925917 0.002883143 0.0010331424 0.0004403879 0.030136751
-0.00015220295 -0.0046641044 -0.0001545046 -0.0005315653 0.015075123 0.015515068 -0.00043167864 0.0027312692
0.010615609 -0.0002310469 0.0010486518 -0.0040061846 0.0001370351 0.0027806724 0.0094237905 0.0024435825
0.008207575 0.00035388628 0.01259808 -0.0137934 0.010334198 0.04056653 0.004291493 -0.003069887
0.014544029 0.013210623 0.003613631 0.0023225464 0.00666977 0.012783417 -0.0044537326 -0.00023844723
0.0034977128 -0.00038931106 0.021419408 0.009561782 -0.00070169545 0.009360051 0.0062657306 -0.00020963786
0.023623968 0.006157232 -0.00304136 0.030035622 0.0010013906 0.020967523 0.0044367323 -0.030933117
0.00042058397 0.008023737 0.0038964888 0.0005688118 0.0027830855 -0.0031075438 -0.0004216935 0.0013240853
0.01871652 0.0007692253 0.013977944 0.0018010933 -0.0015952974 0.022821223 0.0008587174 -0.01622418
0.0018505496 0.0066528497 0.0011491268 0.01855485 0.034071226 0.000603437 0.0024283912 0.009264438
0.005460253 0.0012878061 8.1727034e-05 0.0059854505 -0.000546131 0.0026033383 0.009734682 -0.00294533
0.019032247 0.0012186046 0.029693 0.015829254 0.0068191634 -0.026531959 0.008323698 0.013517397
0.018415043 0.03427061 0.021860747 0.0005750573 -0.0146283265 -0.0019853113 0.010541754 0.0008806706
0.02653705 -0.00011897323 0.010694013 0.018975077 0.0052206907 0.023488212 -0.008872105 -0.00028422716
0.022350136 0.0043799975 -0.0013782114 0.024966616 0.00018233887 0.019731881 0.0037630848 -0.0291868
0.00019413211 0.00720192 0.0014027068 0.0008182935 9.408834e-06 -0.0028372735 -0.00024204525 -0.004217589
0.01442117 0.0013165998 0.0113775665 0.0008979065 -0.0016273076 0.022728797 0.0008424849 -0.019409336
0.0006585131 0.0057691736 0.00035548277 0.017908527 0.03008232 -0.0039484855 0.0022261166 0.00430789
0.0010606175 0.0004099936 -0.0006200055 0.0039665294 0.00014163918 0.0024174799 6.785438e-07 -0.004553783
0.013828122 0.0011930084 0.025759738 0.014751765 0.0015577216 -0.02756615 0.009142531 0.016034337
0.010301418 0.026272211 0.02067691 -0.01184362 -0.017728861 -0.007415224 0.008701768 0.00036792594
0.022779858 0.0003179488 0.0060310117 0.012667127 0.0034637586 0.016932886 -0.0076073073 0.00011447748
0.00028761115 -0.0040205335 -0.019166637 0.014274622 -0.0001635058 0.002924803 0.0041554705 0.029863931
0.00029816298 0.0022779629 0.013694726 -0.00085991446 0.0041919616 0.0008619433 0.0022622098 0.014328318
0.004214798 0.0019372768 -0.012202402 -0.000676757 0.0010518766 0.0019639998 -0.00032175315 0.0134892585
-8.256492e-05 0.004345893 -0.00020306704 -0.0009623614 0.016568275 0.0016334151 0.0013537696 -0.00021669052
0.006685211 -0.00039395707 0.0007999584 -0.0045714267 0.0024531856 0.012966625 0.0032783686 -0.00682491
-0.001832058 -0.00017233774 0.025079891 -0.004513461 0.006923875 0.033392016 -0.0038450768 -0.004991223
-0.010936234 0.013397666 0.0028951014 -0.013181845 0.00305629 -0.0010422702 -0.018942166 -0.0003021606
-0.00053122744 -0.0010351397 0.024675712 0.013442893 -0.000523165 -0.018997466 -0.0007987788 -4.779354e-05
00000000: 7121 4d39 0a71 34bb 50f0 ce3b a0b2 793c
00000010: 8ff0 bf38 f588 813b b477 d439 153d 033d
00000020: ef6a eb3a 8dbe 833a cc1a a13c 61d2 89ba
00000030: 5c9f c23b 36a4 593b bfa7 783a 0cb2 493c
00000040: ad7c 843b 4d2f ac3a b29a 71bc 8869 92b9
00000050: 1df3 3c3b 826a 873a dde3 e639 59e1 f63c
00000060: ab98 1fb9 58d5 98bb 8302 22b9 be58 0bba
00000070: a6fd 763c e932 7e3c ed52 e2b9 18ff 323b
00000080: 17ed 2d3c 2e45 72b9 ea72 893a 5046 83bb
00000090: 14b1 0f39 f13b 363b 3e66 1a3c 8324 203b
000000a0: 1179 063c d089 b939 2d68 4e3c b6fd 61bc
000000b0: c550 293c 1729 263d a79f 8c3b 2830 49bb
000000c0: 144a 6e3c 5e71 583c abd2 6c3b dd35 183b
000000d0: 168e da3b 8971 513c 9ef0 91bb b107 7ab9
000000e0: e239 653b 721c ccb9 c177 af3c 05a9 1c3c
000000f0: fcf1 37ba e65a 193c c250 cd3b 3cd2 5bb9
00000100: 0d87 c13c 9bc2 c93b 8e51 47bb 440d f63c
00000110: 1841 833a 15c4 ab3c 0262 913b 7367 fdbc
00000120: d381 dc39 fe75 033c 3c5c 7f3b 501c 153a
00000130: 6d64 363b efa7 4bbb be16 ddb9 ee8c ad3a
00000140: 6353 993c d6a5 493a bf03 653c aa12 ec3a
00000150: 4c19 d1ba 93f3 ba3c 8d1b 613a 92e8 84bc
00000160: 248e f23a 2600 da3b 4c9e 963a 5700 983c
00000170: 458e 0b3d f92f 1e3a a525 1f3b dfc9 173c
00000180: eceb b23b 9acb a83a de64 ab38 9921 c43b
00000190: 3b2a 0fba c59c 2a3b 377e 1f3c 7006 41bb
000001a0: 84e9 9b3c 96b9 9f3a bc3e f33c 5aac 813c
000001b0: 4a73 df3b 8d59 d9bc 1f60 083c 1378 5d3c
000001c0: 25db 963c 575f 0c3d 4f15 b33c 71bf 163a
000001d0: a6ab 6fbc ff1b 02bb 52b7 2c3c cedc 663a
000001e0: 3a64 d93c 4481 f9b8 f135 2f3c 9f71 9b3c
000001f0: 5412 ab3b 5a6a c03c 4e5c 11bc 5304 95b9
00000200: a217 b73c 1586 8f3b 1aa5 b4ba ca86 cc3c
00000210: 3832 3f39 c1a4 a13c 169e 763b 2819 efbc
00000220: f18f 4b39 15fe eb3b 08db b73a bf82 563a
00000230: a2da 1d37 8df1 39bb 87cd 7db9 b333 8abb
00000240: c546 6c3c c291 ac3a f968 3a3c 7c61 6b3a
00000250: 624b d5ba be31 ba3c 34da 5c3a 5400 9fbc
00000260: 11a0 2c3a 560b bd3b 1760 ba39 e7b4 923c
00000270: 336f f63c 4c62 81bb 0ae4 113b 3329 8d3b
00000280: 6b04 8b3a 69f4 d639 dd87 22ba a9f9 813b
00000290: fa84 1439 956e 1e3b 2d25 3635 e737 95bb
000002a0: 598f 623c b85e 9c3a 1606 d33c 63b1 713c
000002b0: 772c cc3a 68d2 e1bc 8eca 153c 715a 833c
000002c0: 47c7 283c d238 d73c a062 a93c be0b 42bc
000002d0: 1e3c 91bc 68fb f2bb dc91 0e3c 2fe6 c039
000002e0: d39c ba3c 5eb2 a639 cb9f c53b c889 4f3c
000002f0: 3a00 633b d6b6 8a3c b846 f9bb a113 f038
00000300: 84ca 9639 aebe 83bb 5a03 9dbc 1be0 693c
00000310: c172 2bb9 0dae 3f3b 9d2a 883b 34a5 f43c
00000320: c252 9c39 e049 153b d85f 603c e26b 61ba
00000330: b95c 893b 09f4 613a 9541 143b 52c1 6a3c
00000340: 4a1c 8a3b 39ec fd3a 95ec 47bc 6568 31ba
00000350: 1fdf 893a 73b6 003b fab0 a8b9 0d02 5d3c
00000360: b426 adb8 fe67 8e3b 65ee 54b9 fb46 7cba
00000370: 31ba 873c 5118 d63a f870 b13a 6b37 63b9
00000380: 9d0f db3b 068c ceb9 4db4 513a e8cb 95bb
00000390: a0c5 203b f871 543c e6d9 563b 7fa3 dfbb
000003a0: aa21 f0ba 8fb5 34b9 5874 cd3c a8e5 93bb
000003b0: ace1 e23b 11c6 083d affd 7bbb 6a8d a3bb
000003c0: e42d 33bc e281 5b3c bebb 3d3b aaf8 57bc
000003d0: 0a4c 483b c99c 88ba 9a2c 9bbc 4f6b 9eb9
000003e0: 1242 0bba 86ad 87ba b824 ca3c 943f 5c3c
000003f0: 0225 09ba 93a0 9bbc 2365 51ba ec75 48b8

bias f4 [32]
0.0857965 -0.03748851 -0.03872651 0.060052183 -0.004486065 -0.054364014 0.012067193 0.11011893
-0.051812343 0.02542828 -0.07302759 -0.13973846 -0.011515037 -0.010300484 0.020993493 -0.06005929
-0.1259658 -0.012282805 -0.0052742744 -0.15026087 -0.13925074 -0.10608257 -0.0847598 -0.0020724938
0.0509522 0.0917119 0.0015872126 0.023234 -0.13735947 -0.17687029 -0.11354629 -0.12800787
00000000: 13b6 af3d 8d8d 19bd b09f 1ebd 47f9 753d
00000010: d7ff 92bb cdac 5ebd 7ab5 453c 0986 e13d
00000020: 2e39 54bd f84e d03c 7d8f 95bd 9917 0fbe
00000030: 91a9 3cbc 5cc3 28bc 8cfa ab3c bb00 76bd
00000040: 2efd 00be d13d 49bc d2d3 acbb fcdd 19be
00000050: bf97 0ebe d241 d9bd 8c96 adbd add2 07bb
00000060: 41b3 503d 73d3 bb3d 040a d03a 3b55 be3c
00000070: f6a7 0cbe 7c1d 35be f58a e8bd 7f14 03be

weight f4 [32, 1]
-0.17464393 -0.54957896 -0.5423048 -0.43379137 0.2591703 -0.16791458 0.42291835 -0.13938238
0.35864562 0.14079851 -0.5137456 -0.5881171 -0.45070902 0.37019914 0.5689525 -0.5097958
0.14865394 0.20962095 -0.6385127 -0.4028176 0.37083504 -0.43552417 -0.36938867 -0.3304805
0.567727 -0.44328204 0.29898587 0.27283826 -0.44281408 -0.45533118 0.24963215 -0.40076756
00000000: dcd5 32be 35b1 0cbf 7dd4 0abf e719 debe
00000010: f8b1 843e cdf1 2bbe c188 d83e 41ba 0ebe
00000020: 66a0 b73e 7c2d 103e d584 03bf d88e 16bf
00000030: 55c3 e6be be8a bd3e dfa6 113f fa81 02bf
00000040: bd38 183e e0a6 563e 9175 23bf 1c3e cebe
00000050: 17de bd3e 06fd debe 8320 bdbe bd34 a9be
00000060: 8f56 113f ddf5 e2be ad14 993e 75b1 8b3e
00000070: 87b8 e2be 2b21 e9be 929f 7f3e 6831 cdbe

bias f4 [32]
-0.62534785 -0.038744472 -0.06026912 -0.3447468 0.5590944 -0.63615346 0.37189522 -0.7443788
0.47139928 0.80213267 -0.14522006 0.042134564 0.24390236 0.45554307 -0.016980352 -0.15601537
0.725404 0.598641 0.065663695 -0.40001747 0.45546654 -0.34081215 -0.44722813 -0.48951536
-0.009362672 -0.32497045 0.52985644 0.54785144 -0.32570994 -0.29746363 0.5664675 -0.40275925
00000000: cc16 20bf 86b2 1ebd c1dc 76bd a782 b0be
00000010: d020 0f3f f4da 22bf 0d69 be3e 9c8f 3ebf
00000020: 3f5b f13e 9158 4d3f 91b4 14be 4b95 2c3d
00000030: 8ac1 793e f13c e93e 611a 8bbc 7ec2 1fbe
00000040: 14b4 393f 8940 193f b07a 863d 17cf ccbe
00000050: e932 e93e ee7e aebe 16fb e4be c2a1 fabe
00000060: e565 19bc 8762 a6be aca4 073f fe3f 0c3f
00000070: 74c3 a6be 274d 98be 0404 113f 7636 cebe

weight f4 [64, 32]
0.020834075 0.10307696 0.090730265 0.03586604 -0.023259262 0.020762533 -0.0337392 0.01897934
-0.027659686 -0.018194214 0.06227527 0.13680887 0.26922312 -0.028404657 -0.16841589 0.05977139
-0.019189024 -0.021563055 0.10002856 0.03179444 -0.028447855 0.03600119 0.028877297 0.02656908
-0.16007061 0.037485115 -0.024606904 -0.023636296 0.037326366 0.03991336 -0.02287747 0.03160445
-0.029919464 0.26283357 0.23195305 0.03813305 0.018484883 -0.031067709 -0.030386155 -0.040815573
-0.0023406108 0.04478429 0.14390486 0.3415384 1.0833423 -0.0060962695 -0.39403227 0.13526292
0.03869946 0.025582407 0.35003984 0.020081988 -0.006296129 0.039462037 0.006724004 -0.0041490663
-0.38190347 0.04513315 0.011841791 0.016152292 0.044860978 0.055820324 0.019917827 0.01933607
0.0023660774 -0.010918558 -0.009325 -0.0008364764 0.0003141276 0.002354125 0.0027543511 0.0023648331
0.0014570692 -0.00064513064 -0.005017317 -0.0024787793 -0.15357238 0.0016776556 0.024992434 -0.004724736
-0.0007210469 -0.00017640505 0.03651603 -0.00014782023 0.0016504002 -0.0008769552 0.00033932942 0.0008657496
0.023980537 -0.0010702979 0.0007028584 0.00048470942 -0.0009895745 -0.0013877199 0.00031610238 -0.00013765055
0.023581307 0.026271721 0.026025807 0.024332188 -0.023602372 0.023465963 -0.023985367 0.023210963
-0.023718191 -0.023021048 0.02531983 0.024478612 0.05427346 -0.023663787 -0.027193425 0.025304634
-0.023212766 -0.023502158 0.0007666826 0.02409357 -0.023688791 0.024357 0.023950694 0.023860788
-0.02698238 0.024332726 -0.023661856 -0.023630103 0.024508884 0.024626648 -0.02349538 0.024227565
0.019448506 0.14511675 0.12933145 0.04668468 -0.023902388 0.019172145 -0.04310278 0.016137673
-0.032211863 -0.01466693 0.08907947 0.23033103 0.4118638 -0.033839922 -0.21943642 0.08556509
-0.016370196 -0.020905199 0.33629337 0.039768346 -0.033699393 0.047073714 0.034444377 0.030162878
-0.21106856 0.049466763 -0.026719932 -0.024850056 0.049354516 0.053657137 -0.02321833 0.03944731
0.010783748 -0.028714081 -0.02384056 0.0025556914 -0.0073401406 0.0108653 -0.00071486976 0.011364913
-0.0043145223 -0.009387717 -0.0110346535 -0.026980653 -0.31066388 -0.0039487206 0.063118316 -0.009917931
-0.009324811 -0.008309678 0.0045975186 0.0046760743 -0.0038297253 0.0023965107 0.006464892 0.007685768
0.059978724 0.001777206 -0.0062636826 -0.0069354717 0.0016937001 0.00038364553 -0.007442499 0.0048214365
0.040579338 0.054909866 0.051901016 0.04159931 -0.040524 0.04063674 -0.041400827 0.04077283
-0.040790122 -0.040770445 0.045951825 0.13226758 0.29639733 -0.040804002 -0.07276059 0.045343973
-0.04086552 -0.040541578 0.16647488 0.04092489 -0.040922996 0.041516524 0.040640444 0.04051768
-0.07097492 0.041714467 -0.040582065 -0.040404804 0.04175134 0.0421422 -0.040512696 0.04104433
0.018542472 0.13280244 0.11828547 0.04297363 -0.022605622 0.018141039 -0.03992927 0.015029726
-0.03025804 -0.013707572 0.08166168 0.24013421 0.41452193 -0.03145766 -0.20140423 0.07839648
-0.015449287 -0.020042531 0.37852576 0.03666273 -0.0315977 0.04345817 0.032105993 0.028252764
-0.19309002 0.045610648 -0.025053816 -0.023456156 0.045432027 0.04927218 -0.022134721 0.036393475
00000000: 39ac aa3c 031a d33d cad0 b93d 45e8 123d
00000010: 358a bebc 3016 aa3c 1e32 0abd 907a 9b3c
00000020: 9196 e2bc 080c 95bc 5a14 7f3d a017 0c3e
00000030: 9dd7 893e e2b0 e8bc 3775 2cbe d8d2 743d
00000040: 4d32 9dbc 01a5 b0bc c6db cc3d e33a 023d
00000050: 7a0b e9bc fc75 133d 1590 ec3c 66a7 d93c
00000060: 8de9 23be fe89 193d 6b94 c9bc e8a0 c1bc
00000070: 88e3 183d 317c 233d 8869 bbbc ab73 013d
00000080: aa19 f5bc 1f92 863e 1a85 6d3e 6731 1c3d
00000090: 9c6d 973c b581 febc 63ec f8bc 3b2e 27bd
000000a0: ef64 19bb bb6f 373d cc5b 133e 1fde ae3e
000000b0: f6aa 8a3f 37c3 c7bb 99be c9be 5d82 0a3e
000000c0: 5383 1e3d 3292 d13c 6c38 b33e fb82 a43c
000000d0: c24f cebb f2a2 213d 0955 dc3b e4f4 87bb
000000e0: da88 c3be 8add 383d 1204 423c d051 843c
000000f0: 25c0 373d daa3 643d b62a a33c ae66 9e3c
00000100: 3110 1b3b c0e3 32bc e3c7 18bc fb46 5bba
00000110: 7eb1 a439 aa47 1a3b 5882 343b 51fb 1a3b
00000120: 21fb be3a fc1d 29ba 4e68 a4bb 0473 22bb
00000130: 1442 1dbe c8e4 db3a efbc cc3c f5d1 9abb
00000140: a304 3dba 5ff9 38b9 d591 153d 3100 1bb9
00000150: 3e52 d83a 78e3 65ba 06e8 b139 79f3 623a
00000160: d572 c43c 3d49 8cba 0740 383a 9920 fe39
00000170: 9cb4 81ba 27e4 b5ba 8bba a539 4a56 10b9
00000180: 962d c13c cb37 d73c 1334 d53c 4c54 c73c
00000190: c359 c1bc b13b c03c f67c c4bc eb24 be3c
000001a0: a74c c2bc a396 bcbc 886b cf3c 5f87 c83c
000001b0: d94d 5e3d 8fda c1bc bfc4 debc aa4b cf3c
000001c0: b328 bebc 9987 c0bc 33fb 483a e15f c53c
000001d0: ff0e c2bc 5588 c73c 3f34 c43c b377 c33c
000001e0: 270a ddbc 6d55 c73c 82d6 c1bc eb93 c1bc
000001f0: dbc6 c83c d3bd c93c 6279 c0bc e378 c63c
00000200: 7952 9f3c 7c99 143e 776f 043e 6f38 3f3d
00000210: f1ce c3bc e70e 9d3c 8a8c 30bd 2733 843c
00000220: 96f0 03bd 904d 70bc 4c6f b63d e6db 6b3e
00000230: d0df d23e bb9b 0abd f1b3 60be c03c af3d
00000240: ca1a 86bc 6141 abbc a52e ac3e 22e4 223d
00000250: 6008 0abd 5ed0 403d 8c15 0d3d 2418 f73c
00000260: 5b22 58be a99d 4a3d c2e3 dabc 5892 cbbc
00000270: f627 4a3d 96c7 5b3d 5e34 bebc 8193 213d
00000280: 51ae 303c cb39 ebbc 474d c3bc 637d 273b
00000290: 9085 f0bb 5f04 323c 1966 3bba e633 3a3c
000002a0: d660 8dbb f0ce 19bc b1ca 34bc 8806 ddbc
000002b0: 560f 9fbe 4564 81bb 2d44 813d d17e 22bc
000002c0: 18c7 18bc 5125 08bc c8a6 963b c139 993b
000002d0: 21fc 7abb c70e 1d3b 72d7 d33b e5d8 fb3b
000002e0: 40ac 753d 23f1 e83a 943f cdbb f442 e3bb
000002f0: 25ff dd3a 0824 c939 35e0 f3bb 24fd 9d3b
00000300: 8536 263d 2be9 603d 2996 543d 0a64 2a3d
00000310: 7efc 25bd b672 263d ea93 29bd 6901 273d
00000320: 8b13 27bd e9fe 26bd fb37 3c3d 2771 073e
00000330: 64c1 973e 1922 27bd 8103 95bd 9aba 393d
00000340: 9a62 27bd ed0e 26bd 6478 2a3e dca0 273d
00000350: df9e 27bd 3b0d 2a3d 9876 263d def5 253d
00000360: 4d5b 91bd cadc 2a3d 6139 26bd 827f 25bd
00000370: 7403 2b3d 4d9d 2c3d a4f0 25bd 191e 283d
00000380: 62e6 973c 5dfd 073e a73f f23d 1e05 303d
00000390: 6d2f b9bc 849c 943c e08c 23bd 3d3f 763c
000003a0: b6df f7bc b995 60bc 3d3e a73d bee5 753e
000003b0: 383c d43e bfd9 00bd e93c 4ebe 558e a03d
000003c0: 021f 7dbc 3c30 a4bc 21ce c13e a92b 163d
000003d0: 976c 01bd 3201 323d 9381 033d 5772 e73c
000003e0: 64b9 45be 3bd2 3a3d a93d cdbc 2027 c0bc
000003f0: ef16 3a3d a0d1 493d e053 b5bc 5311 153d

bias f4 [64]
0.056255717 0.14711986 -0.08472936 -0.026590707 0.08123884 -0.12688024 0.13836135 0.1466545
-0.10407042 -0.111241534 0.05869108 -0.14563411 0.05417991 0.11840771 0.069712594 0.15512908
-0.082119904 -0.13810062 0.04236795 0.17493895 -0.008025416 -0.022670552 -0.053126343 0.0017250144
-0.064155295 -0.1452221 0.15464298 -0.050362647 -0.0718778 -0.14732084 -0.12375117 0.09675985
-0.14292365 0.1621797 -0.13123557 0.054736346 0.09904982 -0.11214609 -0.15950395 -0.034561586
-0.166966 0.14519918 -0.16618587 -0.15165326 0.07790542 -0.12369744 0.17063445 0.14914589
-0.14911784 -0.21376169 -0.130139 0.051506337 0.12353368 0.17083545 -0.13930628 0.043195568
-0.10607288 -0.16421983 0.050456755 0.18599351 0.11626914 -0.16774862 0.092271015 -0.03350517
00000000: 656c 663d 97a6 163e 9686 adbd c1d4 d9bc
00000010: 8d60 a63d e5ec 01be 99ae 0d3e 992c 163e
00000020: df22 d5bd 9ad2 e3bd 0f66 703d 1c21 15be
00000030: c1eb 5d3d be7f f23d 7ac5 8e3d 28da 1e3e
00000040: 7b2e a8bd 406a 0dbe 048a 2d3d 3223 333e
00000050: 097d 03bc 98b7 b9bc 029b 59bd e119 e23a
00000060: da63 83bd 1ab5 14be bb5a 1e3e 1049 4ebd
00000070: ab34 93bd 46db 16be 4171 fdbd 072a c63d
00000080: 945a 12be 6f12 263e 9e62 06be 3833 603d
00000090: a2da ca3d d9ac e5bd 0155 23be 7390 0dbd
000000a0: 23f9 2abe 18af 143e a12c 2abe fe4a 1bbe
000000b0: e08c 9f3d 1555 fdbd ccba 2e3e b3b9 183e
000000c0: 59b2 18be 58e4 5abe 2843 05be 4ff8 523d
000000d0: 3aff fc3d 7def 2e3e 4ea6 0ebe d6ed 303d
000000e0: bd3c d9bd 3e29 28be beab 4e3d 1575 3e3e
000000f0: 841e ee3d 4bc6 2bbe 96f8 bc3d b83c 09bd

weight f4 [32, 64]
-0.04953209 -0.24109527 -0.017765261 0.01197365 -0.08088883 -0.013856173 -0.056802012 -0.09142919
0.08127511 0.087900974 -0.047747526 -0.002196706 -0.036591873 -0.09485845 -0.028651604 -0.22765817
0.019447481 -0.043609086 -0.030782385 -0.15721722 0.0047235545 -0.034354206 -0.029909259 -0.013297659
-0.0039179777 -0.015137099 -0.21348521 -0.010562741 -0.0017659998 0.03850379 0.043315843 -0.06912398
0.07731483 -0.23930469 0.012249289 -0.036319666 -0.03656249 0.020605203 -0.0058623287 -0.0113318665
0.070931494 -0.17641556 0.022955416 0.06635217 -0.07697898 -0.032723088 -0.19723962 -0.08296268
0.06579686 -0.0029843573 0.08101492 -0.04882176 -0.05441925 -0.24659163 0.0018394615 -0.15140326
0.033903893 -0.0044280104 -0.064327836 -0.14175092 -0.057589535 0.06810828 -0.061346326 0.0058260225
-0.04683706 -0.033749856 0.019220727 -0.009005676 -0.09668807 0.009175354 -0.0060351235 -0.06003938
0.038180456 0.029115275 -0.04834301 0.029263558 -0.006804671 -0.069990955 -0.031689305 -0.017123863
0.0117492685 -0.02842071 -0.046399422 -0.022072682 -0.00079491606 -0.025701858 -0.03712073 -0.015761822
0.005206121 -0.019487834 -0.030531721 -0.029971024 -0.02495205 0.06778428 0.14470686 -0.09524933
0.052550144 0.020658059 0.15115774 -0.0072014644 -0.072061464 0.13127646 -0.001448526 -0.0106840115
0.10732757 -0.008563771 0.04289027 0.07175636 0.012470269 0.042090394 0.017002098 -0.05138053
0.06954504 0.15919325 0.04079541 -0.0073644244 -0.009200011 0.0041455273 -0.004892514 -0.053802222
-0.083383314 0.0053245258 -0.020944571 0.0021161824 -0.004529216 0.06943543 -0.09202143 0.0061232243
-0.048407193 -0.004906512 0.020266283 -0.033205245 -0.0042301826 0.0059720916 -0.0014305713 0.011380433
-0.036879923 -0.044456296 0.03821334 0.04486067 0.023702927 0.009200044 -0.007887119 0.017775614
0.011182153 -0.0043362905 -0.017343467 -0.01701915 0.009757092 -0.0009182845 0.0022153517 -0.013524878
0.0045808726 0.021550108 0.012391462 -0.02457156 -0.0021269312 0.037611254 0.051214386 0.07048336
-0.027368976 -0.035502933 0.096426085 0.024443533 0.07385518 0.063779734 0.025435567 0.025103386
0.012952554 -0.018970862 0.013450289 -0.008354098 -0.00991273 0.034106337 -0.04007254 0.018645141
-0.010311099 0.07424669 -0.035649195 -0.023224387 -0.00012638928 -0.04120454 0.03875453 0.026629757
-0.038125623 0.023502646 -0.009895861 0.009723927 -0.0072109797 -0.012161322 0.05800543 -0.0037419847
-0.10878254 -0.36004308 -0.015183896 0.0024431634 -0.15489855 -0.012996624 -0.010817055 -0.16782461
0.103727296 0.10967021 -0.11202634 0.022235258 -0.11612099 -0.171135 -0.13182423 -0.3378391
0.038986128 -0.032702524 -0.07737108 -0.29140374 -0.007056107 -0.0442389 -0.025477804 -0.019511517
0.018615827 -0.0060839746 -0.3139577 -0.012334568 -0.015780725 -0.01743012 0.07386516 -0.07657961
0.10268684 -0.38913637 0.053139236 -0.11293228 -0.12626255 0.06333895 -0.016789263 0.01779745
0.12775493 -0.29101902 0.022307435 0.09668081 -0.18211322 -0.01837919 -0.3532839 -0.16444485
0.094918765 0.06658917 0.10413473 -0.13078572 -0.0065307305 -0.41019794 -0.01078689 -0.21976644
0.014958329 -0.014503278 -0.12518531 -0.29133156 -0.0059695775 0.09764337 -0.1187349 -0.012742408
00000000: 29e2 4abd aee1 76be 7488 91bc 212d 443c
00000010: 0ba9 a5bd 0005 63bc 3aa9 68bd 3a3f bbbd
00000020: 9173 a63d 6d05 b43d e992 43bd 9cf6 0fbb
00000030: 5ce1 15bd 2645 c2bd c5b6 eabc 391f 69be
00000040: 5350 9f3c 719f 32bd 572b fcbc 8dfd 20be
00000050: 0cc8 9a3b ffb6 0cbd 4304 f5bc 6dde 59bc
00000060: 6162 80bb 9801 78bc de9b 5abe 590f 2dbc
00000070: 1f79 e7ba 26b6 1d3d f46b 313d e090 8dbd
00000080: 3d57 9e3d 4a0c 75be 3eb1 483c eec3 14bd
00000090: 8dc2 15bd 3ecc a83c c718 c0bb 4ba9 39bc
000000a0: 8844 913d 48a6 34be ff0c bc3c a6e3 873d
000000b0: 28a7 9dbd a508 06bd 2ff9 49be 56e8 a9bd
000000c0: 81c0 863d 3595 43bb 26eb a53d 53f9 47bd
000000d0: b8e6 5ebd 8482 7cbe 161a f13a 7509 1bbe
000000e0: cfde 0a3d d818 91bb 50be 83bd 2727 11be
000000f0: 01e3 6bbd 5b7c 8b3d 4946 7bbd 38e8 be3b
00000100: 38d8 3fbd 4a3d 0abd c974 9d3c 8b8c 13bc
00000110: 6504 c6bd 3954 163c 49c2 c5bb daeb 75bd
00000120: 1c63 1c3d 2883 ee3c 5203 46bd 21ba ef3c
00000130: b8f9 debb 6b57 8fbd a5cc 01bd 5847 8cbc
00000140: 0180 403c 8cd2 e8bc 520d 3ebd c5d1 b4bc
00000150: ea61 50ba b48c d2bc e80b 18bd f01e 81bc
00000160: 1c98 aa3b f3a4 9fbc a91d fabc cb85 f5bc
00000170: 3e68 ccbc 7cd2 8a3d 092e 143e 1512 c3bd
00000180: d23e 573d 173b a93c 18c9 1a3e 43fa ebbb
00000190: f694 93bd 566d 063e 78dc bdba fe0b 2fbc
000001a0: 8fce db3d 0f4f 0cbc b5ad 2f3d 00f5 923d
000001b0: 1950 4c3c fa66 2c3d fc47 8b3c 6474 52bd
000001c0: a16d 8e3d 8e03 233e 1619 273d 4551 f1bb
000001d0: a5bb 16bc 34d7 873b 6251 a0bb b85f 5cbd
000001e0: dfc4 aabd 5c79 ae3b f393 abbc a6af 0a3b
000001f0: d169 94bb 2a34 8e3d bb75 bcbd 54a5 c83b
00000200: 9f46 46bd cec6 a0bb 7a05 a63c 3902 08bd
00000210: 589d 8abb 89b1 c33b 0282 bbba ff74 3a3c
00000220: 670f 17bd ce17 36bd 9785 1c3d d2bf 373d
00000230: a42c c23c c8bb 163c fa38 01bc 2a9e 913c
00000240: 5935 373c 7117 8ebb e313 8ebc bf6b 8bbc
00000250: 36dc 1f3c 08b9 70ba 6f2f 113b 7397 5dbc
00000260: 251b 963b da89 b03c 8f05 4b3c 4c4a c9bc
00000270: fc63 0bbb 420e 1a3d 2dc6 513d 9459 903d
00000280: e734 e0bc 866b 11bd 0a7b c53d ce3d c83c
00000290: 6241 973d f39e 823d 405e d03c 9ea5 cd3c
000002a0: f336 543c c868 9bbc 9a5e 5c3c a0df 08bc
000002b0: 0169 22bc 16b3 0b3d 1b23 24bd b2bd 983c
000002c0: e2ef 28bc a60e 983d e404 12bd 1241 bebc
000002d0: 5d87 04b9 17c6 28bd 12bd 1e3d a626 da3c
000002e0: 9d29 1cbd 9f88 c03c 4022 22bc 1b51 1f3c
000002f0: 154a ecbb 4840 47bc 1a97 6d3d 163c 75bb
00000300: 61c9 debd 9157 b8be e0c5 78bc 7b1d 203b
00000310: ba9d 1ebe cbef 54bc 043a 31bc 37da 2bbe
00000320: fa6e d43d c69a e03d 116e e5bd b726 b63c
00000330: d7d0 edbd 033e 2fbe eefc 06be 3ff9 acbe
00000340: ebaf 1f3d 15f3 05bd bb74 9ebd df32 95be
00000350: ea36 e7bb d933 35bd d4b6 d0bc 9ed6 9fbc
00000360: 3880 983c 145c c7bb 10bf a0be ee16 4abc
00000370: 9446 81bc 9cc9 8ebc 9e46 973d c5d5 9cbd
00000380: 7a4d d23d e23c c7be 87a8 593d 0a49 e7bd
00000390: f84a 01be dab7 813d a389 89bc f5cb 913c
000003a0: 30d2 023e 7200 95be 15be b63c 9700 c63d
000003b0: e37b 3abe f48f 96bc a1e1 b4be 3b64 28be
000003c0: c564 c23d e75f 883d 9744 d53d b1ec 05be
000003d0: bdff d5bb 7705 d2be 7fbb 30bc 740a 61be
000003e0: c713 753c 289f 6dbc 9430 00be 6929 95be
000003f0: 729c c3bb 3ff9 c73d 492b f3bd 88c5 50bc

bias f4 [32]
-0.06269469 -0.015236194 -0.104728 -0.054863777 -0.0064364877 0.03395626 0.02631095 -0.105976574
-0.112875186 0.27133524 0.031246312 -0.058050897 0.098911665 -0.0961926 -0.04897505 -0.003716429
-0.06562666 0.046920773 0.0952631 -0.08593023 -0.028399644 -0.049652077 0.04331362 -0.06085292
-0.08402207 -0.0029727085 -0.001968857 -0.1234793 0.06957219 -0.031722996 0.0945884 -0.0365533
00000000: 1366 80bd 3ba1 79bc a27b d6bd d7b8 60bd
00000010: 2ce9 d2bb b815 0b3d 108a d73c 3f0a d9bd
00000020: 1b2b e7bd 74ec 8a3e 44f8 ff3c c7c6 6dbd
00000030: 3392 ca3d a000 c5bd 109a 48bd 558f 73bb
00000040: 4567 86bd ff2f 403d 4d19 c33d 30fc afbd
00000050: 5fa6 e8bc fa5f 4bbd 9f69 313d e940 79bd
00000060: c313 acbd c6d1 42bb f007 01bb b7e2 fcbd
00000070: dd7b 8e3d f9ef 01bd 90b7 c13d eab8 15bd
