checkpoints/insurance_honam2_emb32_2.pt (torch, 134190 bytes, 74 tensors)

weight f4 [32, 1]
00000000: cc29 76be f33d a6be f022 5dbe 3a20 a13e
00000010: 1470 a0be 754a 9c3e a6b6 aa3e 874c a33e
00000020: fc2b 803e 9637 a93e cd28 a0be 2a7a a0be
00000030: 26cd 68be 6b41 a2be 8b45 a0be 1a14 5abe
00000040: 7aff 53be 4741 51be 9ab8 a3be 85d1 a6be
00000050: 9159 a7be 5d90 a4be feb3 5a3e 9022 c63e
00000060: 6978 a93e 5bed a4be c1fb 54be 2602 aabe
00000070: 5fd8 a2be 2e3c a83e 6a15 89be 1ba0 aabe
-0.24039382 -0.32469139 -0.21595359 0.314699 -0.3133551 0.30525556 0.33342475 0.31894323
0.25033557 0.3305022 -0.3128113 -0.31343204 -0.22734508 -0.31690535 -0.31303057 -0.2129673
-0.20702925 -0.20435058 -0.31976777 -0.32581726 -0.3268552 -0.3214139 0.21357724 0.38698244
0.33099678 -0.32212338 -0.20799161 -0.33204764 -0.31805703 0.32858413 -0.2677415 -0.33325276

bias f4 [32]
00000000: 5570 6a3e cd29 093f 350d 533e f808 b9be
00000010: 45aa ae3e 76ad 99be 8d37 31be 2452 e1be
00000020: 160b 92be 1869 4bbf b45b a93e 1670 983e
00000030: b7fa 5d3e d448 c53e 5d46 a83e b3ed 503e
00000040: 38be 4a3e 3d47 483e 96a2 d83e 3b7f 0c3f
00000050: df77 173f 198c ed3e fe38 84be 88d6 c8bb
00000060: 83f3 2fbe fbbe ee3e f4a9 4b3e b311 4a3f
00000070: 348b cc3e 0cb9 39bf 0651 823e fac4 523f
0.22894414 0.5357941 0.20610507 -0.36139655 0.3411428 -0.30015153 -0.17306347 -0.4400798
-0.28524083 -0.79457235 0.33077776 0.29773015 0.21677671 0.38532126 0.32866183 0.20403175
0.19799125 0.19558425 0.42311543 0.5488164 0.59167284 0.4639595 -0.25824732 -0.0061290897
-0.17182736 0.46630082 0.1988905 0.78933257 0.39949954 -0.72547984 0.2545244 0.8233181

weight f4 [64, 32]
00000000: d7af e63d 1f6e b63d 45a5 943e a3ea bdbd
00000010: d417 b73d 51f8 87bd 37b0 9abe 9395 bcbd
00000020: 7d7d d1bd 90b2 b8bd 2bc1 b73d 3088 b73d
00000030: c6af 053e 5166 b73d df68 b83d 0278 963e
00000040: f7ef 2f3e 479e 563e 0c65 b73d 6b85 b63d
00000050: 4403 b63d 2de6 b63d d78e fbbd 7c73 4fbe
00000060: ca17 8dbe 4725 b73d 7c7b 2c3e 6448 b53d
00000070: 596b b73d 4cfe b8bd 89bb c33d 0d69 b53d
00000080: 1a09 2bbe 4b2e 58bc e43c b8be 6d8e 3b3d
00000090: 803b 51bd 7f6a 7b3c 1f03 9a3e acfa d73c
000000a0: 4a1a d93d ba0a 08bb 5b27 65bd d2e0 95bd
000000b0: 1f6a 38be 2d8f 18bd d8cc 6bbd 6af3 b9be
000000c0: caef 6cbe 986d 8cbe b19c eebc 9634 4abc
000000d0: 3410 0abc 8f23 b3bc 47a7 003e 6200 c33e
000000e0: fb1b 9b3e 9ebe b3bc a008 69be 03eb 0b3b
000000f0: 9858 0bbd e1a0 163a 2b14 13be 1e43 4c3b
00000100: 9530 293e 1dd6 de3d 46f8 b53e f670 f6bd
00000110: 67b1 f23d 550d e7bd 3349 f5be f17f ebbd
00000120: 6f55 0ebe fac4 d8bd 8741 f53d 89f7 fc3d
00000130: 51a4 463e 3efe eb3d 5b82 f63d 005b b73e
00000140: ba44 8b3e 6de5 963e 17ef e73d b9ca de3d
00000150: fcf5 db3d 7c7e e33d e399 2cbe 2627 8cbe
00000160: 4d15 fabe b653 e43d 6d10 8b3e 05f6 d53d
00000170: a58f ea3d 8281 dabd e54c 103e 2778 d53d
00000180: d57c 60bd 9fe4 07bc d644 e13d d427 d03c
00000190: 48d2 fabc c652 113e f08a 5c3d 228d 7d3c
000001a0: 5ef5 3d3d bf85 1cbb a717 07bd a297 26bd
000001b0: 0c3e 46bd 1f11 bbbc 8bc2 09bd 1c51 ea3d
000001c0: 39de 15bb 64e4 133d ec1d 92bc 713f f1bb
000001d0: 62f3 a5bb 7968 60bc 2150 383d 5f96 e1bd
000001e0: c59c 523d fe22 5bbc 974d d2bb b62e e63a
000001f0: 0873 a9bc 1264 beb9 ddef 61bd 4491 263b
00000200: 0e7b 71bd f0ff e1bc db48 273c 45dd 3a3d
00000210: bd09 4dbd 6b1d 0d3d df32 533e 374f 133d
00000220: 5b69 543d d960 7e3c e91b 54bd efbc 63bd
00000230: dd76 69bd a8ca 31bd 16dd 55bd feef 5f3c
00000240: d5e3 1bbd 1a19 d6bc 4e61 1dbd 6e37 dbbc
00000250: ded1 c3bc 1cfb 0abd 454a 513d f5f3 0e3d
00000260: e04c 963e bfe2 09bd d43e 24bd a151 7dbc
00000270: c3fd 29bd 6ef3 903c a50d 73bd 6cd5 6bbc
00000280: 336e 27be dc35 66bc 29c4 b5be 68e7 393d
00000290: 7591 4fbd b2c0 4f3c 4ffc 943e f7f1 da3c
000002a0: 9b49 d43d 29a9 60ba 36bb 62bd ea68 93bd
000002b0: 4ccd 33be a136 18bd 7f3f 69bd 1c90 b7be
000002c0: d94c 68be 99fc 89be d170 f1bc 700b 57bc
000002d0: 8051 18bc 5f20 b6bc 99ab f93d aa59 c03e
000002e0: a09f 953e 0f92 b7bc cc6c 64be 1c95 7a3a
000002f0: 7a64 0bbd 1063 dd3a e0c0 10be 9ece 073b
00000300: d749 d63d 2c2f 843d 709a 423e 2221 88bd
00000310: 06be 893d f333 2bbd f24a b8be f9bf 84bd
00000320: 04ac a5bd 5cc4 7fbd d3cf 8a3d 5e13 8d3d
00000330: 76d9 053e ca4c 883d c297 8b3d 3a2f 433e
00000340: b1f0 263e 4ef1 2c3e 4443 873d 6957 843d
00000350: c47c 833d aece 853d 7836 dbbd a6ea 66be
00000360: 9da7 b6be 2ce6 853d 0f6a 263e 5088 813d
00000370: 2ed5 873d 2549 80bd ce18 a83d cbbd 813d
00000380: 32b6 18be 8984 0bbb 6fa9 abbe f2e5 053d
00000390: 5366 17bd bee6 c5bb a8ed 8d3e 3688 713c
000003a0: c792 b53d 33f9 41bc b5a2 29bd dfec 69bd
000003b0: 9fe8 29be 0820 c5bc f622 2fbd b316 adbe
000003c0: 3874 5dbe 2f32 82be 65ee 88bc 14e5 9aba
000003d0: 1a8e 223b 6710 23bc 2128 e03d bd7e bf3e
000003e0: 5d69 8b3e 73f1 24bc ec87 5abe 14b5 493c
000003f0: b693 acbc fb33 18bc b3bd ffbd 8124 573c
0.112640075 0.08907723 0.2903234 -0.09273269 0.08940092 -0.066391595 -0.30212566 -0.092082165
-0.10229013 -0.09018433 0.08972391 0.089615226 0.13055333 0.08955062 0.090043776 0.29388434
0.17181383 0.20958816 0.0895482 0.08912166 0.088873416 0.08930621 -0.12283104 -0.20258898
-0.27557212 0.08942657 0.1684398 0.08851698 0.08956022 -0.09032878 0.09557254 0.088579275
-0.1670269 -0.013194631 -0.35983956 0.045790125 -0.051082134 0.015345215 0.30080506 0.026364647
0.10600717 -0.0020758347 -0.055945735 -0.07318272 -0.18009232 -0.037245918 -0.0575684 -0.36318523
-0.23138347 -0.27427363 -0.02912745 -0.012341639 -0.008426715 -0.021867542 0.12563811 0.3808623
0.30294785 -0.02194148 -0.22757196 0.0021349795 -0.034020036 0.0005746019 -0.14363162 0.0031167935
0.16522439 0.108806826 0.3554098 -0.12033264 0.11850243 -0.1128184 -0.4790741 -0.11499012
-0.13899778 -0.10584445 0.11975389 0.12351901 0.19398619 0.11523102 0.12036582 0.35811615
0.27200872 0.29471913 0.113249 0.1087851 0.10740277 0.11108109 -0.16855578 -0.27373618
-0.48844376 0.11148779 0.2716097 0.10447315 0.11453179 -0.10669233 0.14091833 0.10423308
-0.05480655 -0.008294254 0.109994575 0.025409617 -0.030617848 0.14191732 0.05384344 0.015475543
0.04637658 -0.002388343 -0.03298154 -0.040671952 -0.048399016 -0.022835312 -0.033632796 0.11441252
-0.002286805 0.036106482 -0.017836533 -0.007362299 -0.005064414 -0.013696783 0.044998292 -0.11015009
0.05141904 -0.013375042 -0.006417941 0.0017561528 -0.020684734 -0.00036314182 -0.055160392 0.0025416175
-0.058955245 -0.02758786 0.010210241 0.045621175 -0.050058115 0.034451883 0.20624875 0.035964217
0.051858287 0.01552602 -0.05178443 -0.055600103 -0.056998122 -0.04340616 -0.052212797 0.013668058
-0.038059074 -0.026135016 -0.038422875 -0.02675983 -0.023903783 -0.033930883 0.05109622 0.034900624
0.29355526 -0.033663508 -0.04009898 -0.015461356 -0.04150177 0.017694201 -0.059339184 -0.014394145
-0.16350631 -0.014050927 -0.3550122 0.0453867 -0.050675828 0.0126802195 0.29098746 0.026726706
0.10365602 -0.00085701287 -0.05535432 -0.07197745 -0.17558783 -0.037161473 -0.05694532 -0.35852134
-0.22685565 -0.2695053 -0.02947274 -0.0131252855 -0.009296775 -0.022232233 0.12190933 0.37568408
0.29223347 -0.022408513 -0.22307128 0.0009558962 -0.03403137 0.0016890485 -0.14136076 0.0020722519
0.104633026 0.0645431 0.19004226 -0.066469446 0.06725697 -0.04179759 -0.3599468 -0.064819284
-0.0808945 -0.062443122 0.067779206 0.068884596 0.13071236 0.06655271 0.06816055 0.19060984
0.16302754 0.16888925 0.06604627 0.06461985 0.064202815 0.06533562 -0.107037485 -0.22550449
-0.35674754 0.065380424 0.16251396 0.06324828 0.06632458 -0.06263951 0.08207856 0.06335028
-0.14913252 -0.0021288714 -0.33527705 0.032689996 -0.03696282 -0.0060394695 0.2772038 0.014741948
0.08865886 -0.011839199 -0.041414935 -0.057110664 -0.16592644 -0.024063125 -0.04275795 -0.3380638
-0.21626365 -0.25428912 -0.016715238 -0.0011817538 0.0024803937 -0.009952641 0.10945154 0.3740138
0.27228823 -0.010067332 -0.21340913 0.012311239 -0.021066528 -0.009289737 -0.12487354 0.013131262

bias f4 [64]
00000000: 1dfb 9fbd c6c8 333e 4c96 8cbc b305 06be
00000010: bdba 8dbd 3836 363e 22ee e13c c393 ea3d
00000020: 77b0 bf3c 35bd aebd 5421 8fbd 8e17 8dbd
00000030: 8f00 aa3c 1472 263e 9866 f93d 72bd 00bb
00000040: 6401 5fbc 90b9 d33d 7eff 43bd e9a4 343e
00000050: 0093 b6bd 7307 343e d448 833c 9ab2 9cbc
00000060: af58 a7bc 03ad 153d 27e2 a3bd ca6b 043e
00000070: 2c5f 593c 4e64 073e 14ed 043e 42f1 ce3d
00000080: 7e8d 193e 456f 003e ebde 033e 2587 5bbc
00000090: 4952 193e b830 043e 9fe8 083e 8017 7c3c
000000a0: 041a acbd 2c1e 383e 6e33 aebd 08f3 323e
000000b0: 7a61 28bd 27db b6bc cba8 183e c207 183d
000000c0: cf13 3fbc e403 ffbc be84 e1bc 2b1a b0bc
000000d0: 6395 cf3d 7e50 ea3a 96a9 1d3e d7a9 143e
000000e0: fd6d 933c 4a1c 3ebd c5d6 cf3d a04c a83c
000000f0: 634d 1a3e 70c8 83bd 219e 0b3e bd4b 56bd
-0.07811568 0.17557058 -0.01716151 -0.13088112 -0.06920383 0.1779412 0.02757937 0.114539646
0.023399575 -0.08532182 -0.06988779 -0.06889258 0.02075222 0.16254455 0.12177771 -0.0019644168
-0.013611171 0.103381276 -0.04785108 0.17641033 -0.08914757 0.17580967 0.016025938 -0.019128133
-0.02042803 0.03654195 -0.080021195 0.12931743 0.01326732 0.13221857 0.12981063 0.1010461
0.14995381 0.12542446 0.12878005 -0.01339892 0.14972796 0.1290921 0.13369988 0.015386462
-0.084033996 0.1798026 -0.08505903 0.17475522 -0.041108586 -0.022321297 0.1490814 0.037116773
-0.011662438 -0.031129785 -0.027529117 -0.021496853 0.10135915 0.0017876772 0.15396723 0.14517914
0.017996782 -0.046413697 0.10148386 0.02054435 0.15068583 -0.06434715 0.1363454 -0.052318323

weight f4 [32, 64]
00000000: 73b6 13be cce1 6b3e 39e3 4fbd 059c f5bd
00000010: d56b aebd 9701 693e 381d 89bd 855e 673e
00000020: 07be f4bd 9e0d 19be bb61 1ebe d925 1fbd
00000030: 8ef9 d1bc 1b52 5d3e 9554 653e a746 30bd
00000040: 5752 643b 94d7 673e b37d 103c 6be9 683e
00000050: 5baa 16be ca13 633e fee0 72bd c14f 00be
00000060: 1589 18be 2269 babd 1764 1bbe 6fd2 6f3e
00000070: 424a 7abd cd8f 6f3e 1bf1 653e bd51 673e
00000080: 22b6 4e3e 9a9f 673e aadb 663e 7bfd 93bd
00000090: 1571 603e 891b 6f3e 4e26 6e3e 1f60 25be
000000a0: febf ebbc 8cdd 663e e002 1cbe 412d 683e
000000b0: 9bf3 8abd 799b 6cbd 8a85 683e 57b2 1ebd
000000c0: 5ec2 1bbe 3e82 bbbd 25fb 1dbd bf28 17be
000000d0: ee58 683e a4e0 04bd 07bf 643e 37ee 683e
000000e0: d9fa 86bd 01c9 0abd f558 683e 3cd6 bebc
000000f0: 20c0 4c3e 8281 46bd 3b4d 6d3e 04e4 c63c
00000100: db0d 21be d7ca afbb d523 61be 2cdb 043e
00000110: 6244 703d b244 c2bb bac3 15be 8dc4 8abc
00000120: 4fce c23b 6e77 18be 5506 21be 92a1 fb3d
00000130: 3e61 eb3c e8a2 a1bc 1185 8fbc 9399 68be
00000140: 3e92 ec3b 8422 a0bc c450 963d 9313 ebbb
00000150: 890a 16be d63a 4ebc d453 883d acd1 55bd
00000160: 05b7 0cbe 28fd ac3d a5bd 15be 2c57 edbb
00000170: dae6 993d d4e4 d5bb db32 5ebc e2c7 b2bc
00000180: 5aba c6bc 1bb7 5fbc 739e 6ebc cc37 b13c
00000190: a2d5 a0bc 2f90 debb 4e3f f3bb 6aad 3a3d
000001a0: 6549 e03d 2f7c 10bc 8dde 16be aa30 f4bb
000001b0: ac7b 683d f2a3 4dbe ceba 0ebc 8329 59be
000001c0: eb24 f2bd 64dc 563d 99e4 ce3d 3806 0cbe
000001d0: 3f77 a6bc 5b1f b53d 865e 49bc e5ad 2abc
000001e0: e925 14be 9b08 873d 718a a4bc c8b1 db3d
000001f0: 228e c2bc 1205 0f3d abe0 e4bb f0ef a63d
00000200: 3ffb eebd 81f3 c43a 0783 36be 1fcb da3d
00000210: 9ac5 273d 80c6 5f3a 1d7e e8bd 7118 28bb
00000220: 253d 1c3b 4e4e dfbd 5d42 f0bd 3595 da3d
00000230: 3cd9 8c3c 2fe1 b9bb 5fd9 61bb 57c1 36be
00000240: 4237 c8bc 9c98 dbba 8674 b63d 9d04 8c39
00000250: 8480 d5bd e123 0abb 4abb b63d 79df 4dbc
00000260: 4cd0 ddbd 88bc 5d3d f54f d9bd ca81 0a3b
00000270: 19b0 a23d 0614 343b 3b1e dfba 813a 2dbb
00000280: a1f5 4abc 586e d8ba 73a8 0dbb 66a3 113d
00000290: c6e0 8abb 8b60 233b 1db1 1f3b 19d7 6d3d
000002a0: 390f e73d 45d9 fab9 ca41 d3bd 0d1d 0638
000002b0: e10d ccbc 3986 31be 9a06 8ab9 6387 32be
000002c0: 0db3 a8bd 8d4d 533d f6fd 9e3d 55df dcbd
000002d0: 9c9a f0ba 7299 e13d a739 f6ba 7315 bab9
000002e0: 6df0 dcbd bfdc 6a3d 6cb4 c3ba 2e22 763d
000002f0: 9043 50bc 303e b93d b8a3 f43a 5c8a 7b3d
00000300: eacf 01be 4903 85bd f435 31be 17ef 4bbd
00000310: 5243 23b9 d4ff 83bd 0c82 05be 48d0 b5bd
00000320: 17ba d53c 9ee2 f7bd f2dc 02be c6fa 14bd
00000330: f55b 043c 042b 89bd 3229 adbd 5f4b 2cbe
00000340: f787 b13c 9c9d c4bd 693f cfbc 7ad8 87bd
00000350: 3083 eabd f28c 8abd ee65 113c 59d5 b2bd
00000360: 55b9 f4bd 1865 783c d378 efbd 989c b6bd
00000370: ee84 c33c 70ab b3bd 8ebb a2bd 909f c7bd
00000380: 712b 69bd 397b a6bd 5b5c a3bd c5fb a03c
00000390: 640e 94bd 8e35 b6bd 1159 b0bd c67f 943a
000003a0: b8e6 253d a051 86bd a9d7 e4bd f8f0 87bd
000003b0: b07a 203d cf15 28be 1dfa 8ebd e586 26be
000003c0: 6d09 d5bd 2522 3bbc 2082 c53b f7db f5bd
000003d0: bfe9 c7bd 4e17 34bc 174a 8dbd ffb5 9fbd
000003e0: e453 0bbe bdeb e0bc ad06 c8bd 020a b63c
000003f0: e906 67bd fc29 52bd 9849 acbd b3a1 e3bc
-0.14425068 0.23035353 -0.050753806 -0.11992649 -0.08516661 0.22754513 -0.06695026 0.2259465
-0.11950307 -0.14946601 -0.15466969 -0.038854454 -0.025631692 0.21613352 0.22395547 -0.04303613
0.0034839117 0.2264083 0.0088190315 0.22745292 -0.14713423 0.22175518 -0.0592966 -0.12530424
-0.14896043 -0.09102084 -0.151749 0.23420118 -0.061105974 0.233947 0.22455256 0.22589774
0.20186666 0.22619477 0.22544733 -0.07226082 0.21918137 0.23350348 0.232568 -0.16149949
-0.028778072 0.22545451 -0.15235472 0.22673513 -0.06784745 -0.057765458 0.22707191 -0.038744297
-0.15210864 -0.09155701 -0.03856959 -0.14761637 0.22690174 -0.032440796 0.22338496 0.22747122
-0.06590814 -0.0338831 0.22690184 -0.023295514 0.19995165 -0.048463352 0.23173992 0.024278648
-0.15727942 -0.0053647566 -0.21986325 0.12974232 0.058658965 -0.0059285993 -0.14625445 -0.016939426
0.005945004 -0.14889309 -0.15725072 0.122866765 0.028732892 -0.019731 -0.017519506 -0.22714834
0.007219582 -0.019547708 0.073396236 -0.0071739643 -0.14652456 -0.01258727 0.06656614 -0.05220191
-0.13741691 0.08446723 -0.14623125 -0.0072430577 0.075147346 -0.0065275226 -0.01356193 -0.021823827
-0.024258781 -0.013654496 -0.014564144 0.021633051 -0.019633118 -0.0067920904 -0.007423318 0.045575537
0.10951499 -0.00881867 -0.14733334 -0.0074520903 0.056758568 -0.20082071 -0.00871153 -0.21207242
-0.11823448 0.052456275 0.10102195 -0.13674247 -0.020320533 0.08843871 -0.012290603 -0.010417436
-0.14467587 0.06593438 -0.020085545 0.107272685 -0.023749415 0.034916945 -0.0069847903 0.08151233
-0.11669015 0.0015026183 -0.1782342 0.106832735 0.040959932 0.00085363537 -0.11352179 -0.0025649334
0.0023840156 -0.10903607 -0.11731408 0.1067299 0.01719343 -0.005672596 -0.0034461839 -0.17847191
-0.024440411 -0.0016753855 0.08908944 0.00026706318 -0.10424903 -0.0021078514 0.08922441 -0.012565487
-0.10830745 0.054134876 -0.10610954 0.002113449 0.07943744 0.0027477755 -0.0017022559 -0.0026432576
-0.012387664 -0.0016512377 -0.0021615296 0.03555622 -0.004238221 0.002492937 0.0024367042 0.05806646
0.112822 -0.00047845594 -0.10315283 3.1975145e-05 -0.024908962 -0.17336358 -0.0002632633 -0.17434458
-0.08237276 0.05158763 0.07763283 -0.10784785 -0.0018356624 0.110155955 -0.0018785492 -0.00035492665
-0.10788045 0.057339426 -0.0014931089 0.06009119 -0.012711421 0.090450644 0.0018664515 0.061411247
-0.12676969 -0.06494767 -0.17305738 -0.04978856 -0.0001556997 -0.0644528 -0.1303789 -0.08877617
0.026089711 -0.12103771 -0.12779596 -0.03637197 0.008078565 -0.06697658 -0.08455123 -0.16825627
0.021671278 -0.09600374 -0.025298791 -0.066330865 -0.11450803 -0.067651644 0.0088744 -0.08732099
-0.11949412 0.015160821 -0.11692967 -0.08916587 0.023867097 -0.087729335 -0.079459295 -0.09747231
-0.056926195 -0.081289716 -0.079766 0.019651303 -0.07229307 -0.088969335 -0.08610738 0.0011329583
0.040503234 -0.065585375 -0.111739464 -0.06637758 0.039179504 -0.1641457 -0.06981299 -0.16262396
-0.104021885 -0.011421715 0.006027475 -0.120048456 -0.097613804 -0.010991884 -0.06898897 -0.07798385
-0.1360622 -0.027456159 -0.09766898 0.022221569 -0.056403074 -0.05130957 -0.084124744 -0.027787065

bias f4 [32]
00000000: 1034 ba3d 5c4e 3cbe 1e0c 51be 54f2 2bbd
00000010: 9603 39be 462b 33be 8494 d8bd af8d b1bd
00000020: b967 a33c 1c52 20be 9042 70be a67a 383e
00000030: bc43 4abd 3508 78bd 767c 653d 164e a93d
00000040: fccd 043c e56f 563d 0edc 90be aff8 04be
00000050: 9482 1cbd f007 7c3c 6db0 ecbd 92da 11be
00000060: c43a 46be c388 75be 9a72 273e f24f 05be
00000070: 8994 0fbe 8511 0dbe 4c48 b73c 46ef b5bd
0.090919614 -0.18389267 -0.20414779 -0.04197915 -0.18067774 -0.17496976 -0.10575202 -0.08669602
0.01994692 -0.15656322 -0.23462892 0.18015537 -0.049381003 -0.0605547 0.0560269 0.08266847
0.008105751 0.052352805 -0.28292888 -0.1298549 -0.038210467 0.015382752 -0.11557088 -0.14243534
-0.19358355 -0.23977952 0.16352311 -0.13018778 -0.14021505 -0.13776214 0.022373341 -0.088835284

weight f4 [32, 1]
00000000: 6454 9c3e 36dd 5cbe 29f8 9f3e f037 c1be
00000010: 1a3f a83e 88c4 403e 43d9 bfbe 88fb b53e
00000020: 79d0 cdbe 688e 8ebe 7374 c4be b174 90be
00000030: 237e 10be 6131 c8be e1cd 2c3e a5c0 473c
00000040: 430b 4a3e cec0 9f3e 4c31 61be f83b b3be
00000050: 6fc3 883e 4591 51be 54ff 8bbe 6046 8abe
00000060: 0d76 ba3e 9fc3 6f3e 2279 95be 394e 773e
00000070: 4364 983e 0c1e 8ebe fa96 553e fbe3 b5be
0.30533135 -0.2156876 0.3124402 -0.3773799 0.32860643 0.1882497 -0.37470445 0.35543466
-0.40198115 -0.27843022 -0.38370094 -0.28214028 -0.14110617 -0.39100173 0.16875412 0.012191926
0.19730859 0.31201786 -0.21991462 -0.3500669 0.26711604 -0.20465572 -0.27343237 -0.27006817
0.3641819 0.23414467 -0.2919398 0.24150933 0.29763994 -0.277573 0.20858374 -0.35525498

bias f4 [32]
00000000: ba1e b2be 80fc ac3d 5219 abbe 7d1c 653e
00000010: 480e aabe 3e7e 47be 27d8 5d3e c0af c9be
00000020: 5a8c a83e 51ff ec3d 4261 8b3e 0d55 ef3d
00000030: 94a1 ad3b 9512 923e 8619 33be ac44 19bd
00000040: 5e32 53be a2ca a7be 615b ab3d f3ca 3f3e
00000050: 553c 8abe 3cb3 9f3d bb6c e23d a724 e83d
00000060: 1bb5 bdbe 55db 73be f83c cf3d d2be 84be
00000070: e9a3 b4be 0d6e df3d a1e9 69be 59bf 4a3e
-0.34789068 0.08446598 -0.33417755 0.22374149 -0.3321402 -0.19481751 0.21664487 -0.393919
0.3291958 0.11572135 0.2722264 0.11686144 0.0052988026 0.28529802 -0.17490205 -0.037419006
-0.20624682 -0.32771784 0.083670385 0.18729763 -0.26999155 0.07797858 0.11055895 0.11335116
-0.37052235 -0.23814137 0.10119051 -0.25926834 -0.35281304 0.109096624 -0.22843029 0.19799556

weight f4 [64, 32]
00000000: da0e 253c 4a6c b33c bc9a d43b 9089 56bc
00000010: 067f e3b9 1c3e 0cbc 9ba3 49bc e09d 933c
00000020: e4b6 a7bc 6177 623c 3c4c 87bc 9cf5 5c3c
00000030: 9944 f03c 26da 93bc a7a1 a6bb 126d 963d
00000040: 8fa5 1ebb f86f da3b 298c ae3c bf65 f4bb
00000050: 6d45 1bbc ca11 cf3c e6d9 203c ac24 873c
00000060: 9cc3 a93c bef5 83bb 8624 7e3b 0094 9eb9
00000070: f746 3e3c 9d34 113c 13bc 8dbb 2ec1 14bc
00000080: 71a7 ac3c fda0 67be 5cd3 ea3c 6bc6 2ebd
00000090: f0b2 b0bc 21b7 e53b 7fb1 36bd 390c fe3b
000000a0: 76d3 afbc b401 3bbe c6a4 04bd 3694 39be
000000b0: 03a9 58be 9a3c eebc 12b2 0dbb 2288 263c
000000c0: 8335 4b3d b530 343c 1f4f 66be c25d 57bd
000000d0: 1661 86bb dcac 72be 5742 19be 98cf 4abe
000000e0: 68b7 853c ca0a ff3c 1dfa b9bd 024b f13c
000000f0: 25de b43b bce3 14be 381e 203b 2e48 4ebd
00000100: d8b1 9ab9 e895 3a3c 7f21 a6ba 8002 fc3a
00000110: a439 643b 8cbb 52ba 396a 073b ef0e 8e3a
00000120: 238b c8b7 5ede 183c 3596 7f3a b6ad 193c
00000130: 5656 a03c 25a9 463a 14bc dd3a eb89 733b
00000140: 07f3 b7bb 7a0c 9a3b 604d 393c 5b77 4c3b
00000150: 6a1a 62bb 0211 513c cda5 1f3c b924 213c
00000160: 03dd 823a f461 dcbb 3821 023c c319 80bb
00000170: 2558 443b e661 1c3c c0a8 c9bb 6be3 2e3b
00000180: 5470 81bc 6506 03bc 1804 7abc b923 8e3c
00000190: a733 16bc 1aa2 5039 5faa 8a3c 5611 9cbc
000001a0: dcf9 c13c 8718 0dba 6911 a63c 92a5 f5b9
000001b0: e93a ccbc ca14 ae3c 3b00 093c 786e 393e
000001c0: ab05 babb 0e7b 3abc 01ae 01bc 21f0 693c
000001d0: e45a 31bc 8098 3dbc f274 94b8 cb68 b9ba
000001e0: 07cb abbc 8e23 01bc 4ac0 483b 00d6 21bc
000001f0: b0a6 82bc a4f8 2739 84ca 6ebb 507d 7a3c
00000200: 8a00 ea3b ca8d 303c 408f cf3b 9abd 09bc
00000210: e950 f439 d73f bbbb c1fb 04bc 108a 1c3c
00000220: 4983 3bbc acde c33b 435d 20bc 361a c33b
00000230: d92f e83c 499a 29bc 76dc a1bb dd08 52bd
00000240: 3486 3dbb 6320 4a3b 2cec 2a3c 113f dcbb
00000250: f8c0 be3a 76c8 5c3c 9e66 ab3b e9c3 e63b
00000260: c603 353c ff6e 06bb a607 a53a cfe4 0dbb
00000270: 1890 eb3b 2299 a43b 67cd 3bbb 457d edbb
00000280: 1655 a8bc 97b5 4e3c 68c7 adbc debb be3c
00000290: 9569 e8bb b035 8dbb cb95 bd3c 3e40 aabc
000002a0: e1d7 ca3c b636 7d3c 3d41 c43c fa60 7d3c
000002b0: bd6f d0bb 6695 c53c 1117 d7ba 6cde a8ba
000002c0: 6c86 6abc 1ae0 16bc 13db 533c d33a b83c
000002d0: c677 97bc f1c7 213c ed9f 8b3c e6a8 713c
000002e0: b2ea b8bc 59fa 97bc a444 9c3c 0a5d 80bc
000002f0: 8bc0 82bc 701c 8d3c 2ac5 84bc 677d ba3c
00000300: c881 663c ffa8 443d 1b46 fb3b d3c0 babc
00000310: e8cb 613c 0210 02bc a9af abbc b1b7 003d
00000320: ea1a 1fbd fef6 ed3c 1ae7 f7bc 095f ea3c
00000330: 2b3f a33d 81e3 07bd 3137 3ebb 42fb 5dbd
00000340: e0fe 07bc fbee 0c3c 2f48 403d 75e6 3bbc
00000350: 8a78 8ebb fd76 683d be3d bf3c 224d 0b3d
00000360: 2294 123d a31d 7abc 7972 633c 3492 13bc
00000370: 55db 8a3c 753a b63c 21a2 fdbb a5b6 71bc
00000380: caae 7bbc e989 353d 55e8 9bbc 3189 983c
00000390: 81c5 6f3c aaa0 b23b 75c2 963c 305b 84bc
000003a0: 2a80 ab3c 0ebc cf3c eb31 a03c 0fea cd3c
000003b0: e0b7 f93c dccf a13c f5a6 96ba d9c4 5d3e
000003c0: 7680 83bc b6ea 2a3b 0a4b 313d f4ad 913c
000003d0: 5c77 ae3b bc5f 533d 0323 a43c 905d f93c
000003e0: c9e3 97bc 7b5f 7bbc 67e7 813c cf1d 36bc
000003f0: 26ef 93bc 819f 9c3c f121 c4bb c8c8 943c
0.010074342 0.021902222 0.0064881723 -0.013094321 -0.00043391454 -0.00855973 -0.012307073 0.018019617
-0.020472951 0.013822407 -0.016515844 0.013486292 0.029329585 -0.018048357 -0.0050851884 0.07345022
-0.0024207567 0.0066661797 0.021307068 -0.007458418 -0.009477002 0.025277037 0.009817576 0.016496979
0.020723157 -0.0040270975 0.0038779094 -0.00030246377 0.011613599 0.008862642 -0.0043253987 -0.009079261
0.021075936 -0.22620006 0.028665237 -0.042669695 -0.021569699 0.007010356 -0.044602867 0.007752922
-0.021463137 -0.18262368 -0.032383703 -0.18122944 -0.21158223 -0.029081631 -0.002162103 0.0101642925
0.04961158 0.010997941 -0.2249112 -0.05257965 -0.004100929 -0.23698753 -0.14966713 -0.19805753
0.016322806 0.031133074 -0.090809084 0.029454712 0.0055196458 -0.14539999 0.0024432074 -0.050361805
-0.00029505673 0.0113882795 -0.0012674778 0.0019226819 0.0034824396 -0.0008038811 0.002066268 0.0010838191
-2.3906648e-05 0.00933036 0.00097498606 0.009379795 0.019572418 0.0007578305 0.0016917014 0.0037161063
-0.005613688 0.0047011944 0.011309952 0.003119907 -0.0034500607 0.012760403 0.00974412 0.0098354155
0.000998408 -0.006725544 0.00794249 -0.003909321 0.0029959765 0.009544825 -0.00615415 0.0026685845
-0.015800633 -0.00799713 -0.015259765 0.017351018 -0.009167588 0.00019896813 0.016926942 -0.019051235
0.023678713 -0.0005382378 0.020271974 -0.000468534 -0.024930434 0.021250147 0.008361871 0.18108547
-0.005676945 -0.011381878 -0.007915021 0.014278443 -0.010824893 -0.011572003 -7.078973e-05 -0.0014145611
-0.020970834 -0.007882012 0.0030632191 -0.009877682 -0.015948623 0.00016018987 -0.0036436627 0.015288666
0.0071411775 0.010775993 0.0063342154 -0.008407021 0.0004659959 -0.0057143974 -0.008116663 0.009554401
-0.011444875 0.0059774723 -0.00978786 0.0059540523 0.028343128 -0.010351726 -0.004939611 -0.051277984
-0.0028919103 0.0030842058 0.010432284 -0.0067213853 0.0014553359 0.013475528 0.005230739 0.0070423973
0.011048263 -0.0020512936 0.001259078 -0.0021651273 0.007188808 0.0050231377 -0.0028656365 -0.0072475993
-0.020548385 0.012616537 -0.021213248 0.023282941 -0.0070926645 -0.0043093786 0.023142716 -0.020782586
0.024761142 0.015454939 0.02395689 0.015465016 -0.0063609765 0.02411909 -0.0016410073 -0.001288367
-0.014314275 -0.009208703 0.012930649 0.022488987 -0.01848973 0.00987433 0.017044032 0.014749741
-0.022572849 -0.018551992 0.0190757 -0.015669364 -0.015960952 0.017225474 -0.016207296 0.022764875
0.014069028 0.04801273 0.0076682693 -0.022797024 0.013781525 -0.007938387 -0.020957785 0.03142518
-0.038844027 0.02904844 -0.030261565 0.02860977 0.07971033 -0.03317595 -0.0029024596 -0.054194696
-0.008300513 0.008601899 0.04694384 -0.011468519 -0.0043478655 0.0567541 0.02334487 0.034009106
0.0357858 -0.015265855 0.013882273 -0.0090070255 0.016950289 0.022244671 -0.0077402745 -0.0147530185
-0.015361497 0.044320974 -0.019031683 0.018620105 0.014634491 0.0054512816 0.018403271 -0.016156763
0.020935137 0.025358226 0.019555053 0.025136022 0.030483186 0.019752435 -0.0011493849 0.21657123
-0.016052466 0.002607984 0.043284453 0.017783143 0.0053242873 0.05160497 0.020036226 0.030440122
-0.018541234 -0.015342589 0.015857412 -0.011115505 -0.01805837 0.019119026 -0.0059854914 0.018162146

bias f4 [64]
00000000: c6aa d1bb 40fb 443e 0c77 1cbd fa8e bcbd
00000010: 453c b4ba e3d9 b4bd 306e e4bb c601 08be
00000020: 4e75 e3bb b2ef 4ebd 7f78 86bd 5a9c 9dbd
00000030: 7896 8bbc afe6 2cbb 1890 203e c83a 84bb
00000040: 345c 66bb 8ced f6bb 25bb ebbd 93b2 9dbd
00000050: 8851 14bd 7365 cdbd df57 3dbc 1a8d c5bb
00000060: 2d7e aabc 7e51 01bb ecbd 8bbc ca71 49bc
00000070: c233 8ebd 4dfb b0bb 9c8e 9bbd 6c8d b8bc
00000080: 7db7 4bbd 3cf3 21be f1bd e8bd 62de b0bb
00000090: 226a 0bbd 72ac d7bd a28b 56bc 951a c8ba
000000a0: 3d8f 40bd 99e9 06be 7f92 2dbd 3911 173e
000000b0: 7ab5 81bd dcc3 97bd 984b 31bd aec1 4bbd
000000c0: 20af 1abb 7834 c2bd 9ff4 dabb 9833 18bc
000000d0: 2dee fdba 2feb 233e 8621 04bc 49b7 34bb
000000e0: b7f1 ca39 efa8 f5bb b329 20be 018c 19bc
000000f0: b721 213e 0023 02be 91b0 dbbb 1687 26bb
-0.0063985316 0.1923647 -0.03819947 -0.09206958 -0.0013750872 -0.08830621 -0.006971143 -0.13281927
-0.006941474 -0.05052156 -0.065659516 -0.07695837 -0.017039523 -0.0026382615 0.15679967 -0.0040353276
-0.0035150172 -0.007535642 -0.11510304 -0.07700076 -0.036210567 -0.100291155 -0.011556595 -0.0060287835
-0.020812118 -0.001973241 -0.017058335 -0.012295196 -0.06943466 -0.005401051 -0.0759556 -0.022528373
-0.049735535 -0.15815443 -0.113643534 -0.005397604 -0.034036763 -0.10530938 -0.0130948145 -0.0015266711
-0.047011603 -0.13175048 -0.042376038 0.14752664 -0.06333442 -0.07410404 -0.043284982 -0.049745254
-0.0023602918 -0.09482664 -0.006681993 -0.009289645 -0.001937335 0.16007684 -0.008064633 -0.0027575067
0.00038708534 -0.007496945 -0.15640907 -0.009371758 0.15735517 -0.12708664 -0.006704398 -0.0025410107

weight f4 [32, 64]
00000000: c40a 7e3d 398f 84bc 359e 923d cc6a d13d
00000010: 881a eb3c 1c58 cb3b 4a7d 563d 5ede d83d
00000020: fa09 833b aade 1dbd d708 583d 831e 893d
00000030: 46fb 353d 3eaf 8abc e5d8 b4bc 1a14 243d
00000040: 33e3 fb3c 9688 26bd c4b1 423c b6f8 573a
00000050: 0ea5 c33c 3df4 003e 66a9 583c b5ab a23d
00000060: 2cc5 e23c 57d3 153d 9b95 f8ba fc83 3c3d
00000070: 6fca 373d 1834 dabc 50f0 023e 9b29 043d
00000080: 2322 913d f61b aabb e7e8 703d a488 97bc
00000090: 90ab 393d c3c0 f53c 950f 713d 3f44 96bc
000000a0: 9484 2a3d 5e79 f53c 04c8 273d e2d4 c3bc
000000b0: a78e 863d d933 d73d 427d ad3d 5d7c e9bd
000000c0: 7ef5 133c 2191 ce3d c111 693d 8b66 693c
000000d0: e180 c53c 86b7 e4bc cdee 843d 65b3 56bc
000000e0: 3c8d 7b3c a54c 3e3d d330 37bb 3dc7 3e3c
000000f0: ac82 2abd bbe3 6d3d bfa0 9d3c c1bc fe3c
00000100: 7abb 50bc 8631 b8bd deb0 7a3c 762b 663c
00000110: 2cd1 563c ce56 a63b f860 ac3c fd3d 313c
00000120: 00e3 093a 4ba4 94bc 1a3d 533c 8aaa 803d
00000130: c169 8e3a 7bb7 acbb 11f0 a1bd e1e7 b63c
00000140: 06db 9cbd a6a1 3bb9 cd8b f73c 2911 433c
00000150: b127 bdba 7d29 f43c 6175 323c 2b28 2bba
00000160: f11d 2d3d 6e5e aa3c e16a 3f3c f494 cf3c
00000170: 12ad 853d 755e 773c 432d 893d e822 9f3c
00000180: a620 ea3b 87dc 4d3c ef4c 1c3d 0f2f 093c
00000190: 671e 593c c809 85ba 717a ff3c 3e9c d23b
000001a0: abdb 383d e7cb f23c ed57 0e3d f306 abbd
000001b0: 5f5c 0cbd b007 3c3d d36a 843d eaad f83c
000001c0: 9bc9 a53b 847f 29bd 5e81 20bd 7c37 ba3b
000001d0: 724b 1f3d bafa a3bd b4bd 04bb 71ab a23b
000001e0: 9069 603c c854 c93c 8931 4e3c 0aba d1bc
000001f0: c1d1 a4bd 76ca c6bb 4471 5cbe af4c 0bbc
00000200: 6f6c 74bd e2d9 dabd dedf 643c d543 d73c
00000210: 330c ae3b afe3 d13b 3c32 efbc 815b 1ebd
00000220: 87d3 453b 1e9b 0ebd d7dc c03a e4eb 2cbc
00000230: 17c2 e93b 5bbd b4bb d014 bfbd d100 de39
00000240: 81e4 24bd 9212 45bc a490 863b 3121 0d39
00000250: 5550 503d 09db 833c bc8c f73c b175 203c
00000260: 229a 8a3c 3954 6d3b c876 e9bb 2600 19bd
00000270: 11a0 cebc 6852 193b 2807 74bb 013c 3e3b
00000280: ba44 173c 7f03 173c 936a 09bd 4c03 88bc
00000290: 7298 b2bc 0e7e 10bd 07ad 593c d634 ef3c
000002a0: cf0c bebb 460f a0bc 43f6 2c3d 772e babd
000002b0: 984e 24bd cb37 973c 13c4 40bb 34b7 f4bc
000002c0: acae 0e3c 44d3 133d cc42 03bd 0592 44bc
000002d0: e305 6c3c e758 c1bd 544a 63bc b054 9a3c
000002e0: aa91 a03b 0eb8 e33b e54c 0e3c 7ba2 0abd
000002f0: 0d54 30bc 0137 1fbd 90e3 a6bc 267e a1bc
00000300: 01c6 6a3d e8c7 bdbd f2a5 773c 96fe 523a
00000310: 5827 3a3c 049f 1b39 b9fc cf3c d849 e63c
00000320: ade9 893c 604e c03c 90b5 4c3b 3a23 1d3c
00000330: 4a86 d93c c43f 91bb 7a85 8cbd 8478 e03c
00000340: 8e4b f13b b51c eb3b 4a18 a8bb b80d 87bb
00000350: 907d c43b d1d4 76bc f1e6 08bb baa0 723c
00000360: 3ada 0f3d ed97 913c e42b aabb f73b 1e3d
00000370: 200c 343d ab6a f93c fd52 953b 8a25 bb3d
00000380: cb52 2f3c b547 61bc fec7 25bc 6fe7 003d
00000390: c20f c33d ff6a ce3c 6d92 fd3c 0f6c e83b
000003a0: f107 883c 96cb d23c 452c 023d 0b25 26ba
000003b0: 8d96 553c e158 b53c 81b5 273d da76 b0bd
000003c0: 1992 183c 4e9a debc b3f2 00bd 61c9 243b
000003d0: f2f3 2c3d 49b8 a8bd f7d0 ad3c 262d cd38
000003e0: e5dc e83c df19 0f3d b906 5dbc 4b75 b0bd
000003f0: 822e 9cbd b83d e0bd 4da6 4a3b e076 2f3d
0.062021986 -0.016181575 0.07159082 0.10225448 0.028699175 0.006205572 0.05236558 0.10589288
0.003998992 -0.038542427 0.052742805 0.06695273 0.044429086 -0.016929265 -0.02207608 0.040058233
0.030747985 -0.040657602 0.011883203 0.000823866 0.023882415 0.1259317 0.0132239815 0.07942907
0.02768191 0.036578503 -0.0018965484 0.046024308 0.04487079 -0.026636168 0.12786984 0.03226624
0.07086589 -0.0051913215 0.058815863 -0.018497773 0.04532963 0.029999143 0.05885275 -0.01834309
0.041630343 0.029965099 0.040962234 -0.023905221 0.065701775 0.10507936 0.08471157 -0.114006735
0.009030698 0.10086275 0.056901697 0.01424564 0.024109306 -0.027919542 0.0649086 -0.013104294
0.015353497 0.046459813 -0.0027952685 0.011644182 -0.041628525 0.05807851 0.019241689 0.031095864
-0.01274001 -0.08993821 0.0153009575 0.014048448 0.013111394 0.005076266 0.021042332 0.010818002
0.0005259961 -0.018144747 0.012892986 0.06282528 0.0010865257 -0.005270896 -0.07907117 0.022327365
-0.07658963 -0.00017893928 0.03021803 0.011905947 -0.0014431385 0.02980494 0.010892243 -0.0006529118
0.042264882 0.02079698 0.011683197 0.025339581 0.06527151 0.015098204 0.06698086 0.019425824
0.0071450053 0.012564785 0.038159307 0.008373036 0.013251877 -0.001015001 0.031186314 0.006427317
0.045131367 0.029638244 0.03475182 -0.08350935 -0.03426778 0.04590577 0.064656876 0.030356366
0.0050594336 -0.041381374 -0.039185874 0.005682884 0.03889031 -0.08006807 -0.0020254673 0.004964285
0.013697043 0.02457656 0.012585052 -0.025601406 -0.0804782 -0.0060666157 -0.21527582 -0.0085021695
-0.059673723 -0.10686089 0.01396939 0.026277462 0.005311513 0.006405316 -0.029198758 -0.038661484
0.0030185895 -0.0348159 0.0014714253 -0.010554288 0.007133733 -0.005515737 -0.093301415 0.00042343748
-0.04025698 -0.012028353 0.004106598 0.00013459173 0.05085786 0.016095655 0.030218475 0.009793685
0.0169192 0.003621353 -0.0071247555 -0.037353657 -0.02522281 0.0023395065 -0.003723571 0.0029027464
0.009232694 0.009217142 -0.033548903 -0.016603135 -0.021801207 -0.035276465 0.013285882 0.029199999
-0.0057998667 -0.019538533 0.04222704 -0.09090894 -0.040114015 0.018459221 -0.0029413744 -0.029872514
0.008708637 0.03609015 -0.032046124 -0.011997704 0.0144057 -0.09440785 -0.013872702 0.01883921
0.004900177 0.0069494313 0.008685325 -0.03384636 -0.010762227 -0.038870815 -0.020372182 -0.019713473
0.057317737 -0.09266645 0.015115248 0.00080488005 0.011361919 0.0001484119 0.025389062 0.028111383
0.016835058 0.023474872 0.003123615 0.009590918 0.026553292 -0.0044326503 -0.06861396 0.027401216
0.007363743 0.007175053 -0.0051298486 -0.0041215084 0.0059964135 -0.015065388 -0.0020889605 0.014808828
0.035120226 0.01777264 -0.0051932205 0.038631406 0.043956876 0.030446371 0.004557012 0.091380194
0.010700892 -0.013750006 -0.010118483 0.031470712 0.0952449 0.025197504 0.03095361 0.0070929597
0.01660535 0.025731843 0.0317805 -0.00063379173 0.013036382 0.022137107 0.04094458 -0.08616419
0.009312176 -0.027173188 -0.031481456 0.0025144445 0.042224832 -0.082382746 0.021217806 9.783571e-05
0.028425643 0.034936782 -0.013490372 -0.08616122 -0.07626058 -0.10949272 0.0030921877 0.042837977

bias f4 [32]
00000000: b519 bfbd 9913 5dbc 7a9a 4d3d c715 d3bb
00000010: 90fc 27be a10e bcbd 0034 99be 850b 16bc
00000020: 8485 3abe dc8b 10bc c999 f83c 5d59 953d
00000030: 4354 16bc 253e 653d c395 12be 95b2 2b3d
00000040: 5ce0 3abd 3487 7cbe b4f9 4c3d 7378 e5bd
00000050: bd65 673d d80a 31be 7695 dcbd a89d 19be
00000060: c988 fcbd b7fa 47be 2af0 20bd cc64 b8bd
00000070: 0590 993d f325 77bd f8d4 4d3c d788 0cbd
-0.09331075 -0.013493442 0.05019615 -0.006441805 -0.16404939 -0.09182478 -0.29922485 -0.00915802
-0.18214995 -0.008822408 0.030346768 0.07292435 -0.009175363 0.05596747 -0.14314942 0.041918356
-0.045624122 -0.24660951 0.050042823 -0.112046145 0.05649351 -0.17289293 -0.10770695 -0.15001547
-0.12330777 -0.19529234 -0.03929154 -0.090036005 0.07498173 -0.060338926 0.012562983 -0.03431019

weight f4 [32, 1]
00000000: e53d e93e 3d58 d73e bbf5 183f 8a76 c5be
00000010: e5d0 d53e 8b59 afbe 3ab0 24bf d976 c53e
00000020: d61f 16bf 8c04 213f a5ac 1e3f 1e21 123f
00000030: d8ea a9be a520 393e fd4d c2be b38f 03bf
00000040: f51d 183f e81e 1ebf 3bf1 c2be 16a1 043f
00000050: 8be0 cebe ef09 b13e 5ddf d83e 04ec b73d
00000060: 2a62 a5be 58ec a23e 0199 f43e 0b7b 98be
00000070: 1325 c8be 1e02 afbe 18e1 25bf a899 233f
0.45555034 0.42059508 0.59749955 -0.38567 0.41760936 -0.34248003 -0.643314 0.38567236
-0.5864233 0.62897563 0.61982185 0.5708178 -0.33186984 0.18078859 -0.37950125 -0.5139114
0.5942071 -0.6176591 -0.3807467 0.518083 -0.40405688 0.3457789 0.42357913 0.08980563
-0.32301456 0.3182094 0.47772983 -0.29781374 -0.39090785 -0.34181303 -0.6479659 0.63906336

bias f4 [32]
00000000: 25f4 d3be 784e d8be 1818 08bf 87d9 a13e
00000010: c7af c0be 1a97 993e e817 213f e7ec 67bb
00000020: 5d23 023f 3f53 2bbf 3d9c 22bf a1f4 11bf
00000030: 600d 8d3e 0faf 3ebe 76bd 453e 02f8 d33e
00000040: 2b84 07bf bb7b 143f 4980 463e 6f5b 06bf
00000050: db5e a33e 105d 1bbc bc32 bfbe d2e8 d1bd
00000060: cf9e 263e f32d 92be 7bc2 d6be a195 1a3e
00000070: 0793 4b3e 7253 303e 1034 233f 335e 0fbf
-0.41397205 -0.42247367 -0.53161764 0.31611273 -0.37634107 0.29998094 0.62927103 -0.0035389008
0.5083521 -0.669239 -0.6351965 -0.570139 0.27549267 -0.18621467 0.19310555 0.41400152
-0.5293605 0.580013 0.19384874 -0.52483267 0.31908306 -0.009482637 -0.37343395 -0.10249485
0.16271518 -0.2855068 -0.41945252 0.15096141 0.19880305 0.17219332 0.63751316 -0.5600311

weight f4 [64, 32]
00000000: 85ae babd 7d66 78bd 1dbd 93bd f86e 8d3d
00000010: d3e3 d5bd 5495 e43c ac9b 863d 37b4 423e
00000020: e52f 8b3d 37f8 5bbd c8c6 4fbd c798 adbd
00000030: 6bd8 1e3d babe c5bd 25c1 a8be 27c7 9f3d
00000040: fc46 9bbd 891a 8a3d c6c8 a6be 6bc4 b4bd
00000050: 316e 9f3d f38e 0f3e 1919 15be 02e9 e8bd
00000060: 6a6d 98be 1658 63be 6c32 c3bd 1ffb 9dbe
00000070: f0ea abbe 8658 92be 4f0c 863d 6dc4 95bd
00000080: 9237 583d 527b 913d 4b7e 8b3c 4537 9cbd
00000090: 10ed 6c3d ec8a f2bd 95c2 a4bb 1c5e 393e
000000a0: 53cd 9cbc da01 333c c54f 713c 8bac f13a
000000b0: 727d f7bd c455 133d 92a1 6cbf 5e49 01bd
000000c0: ecf2 8a3c 6bc7 19bc 0ac5 69bf 6ceb 573b
000000d0: e5d0 87bd 01a9 603e e1da ba3d bfc8 153c
000000e0: 54f7 51bf 31b2 823e f12b 393d 5c40 4ebf
000000f0: 45f0 70bf 0d83 4ebf 4af4 90bb 83ec 883c
00000100: 16e8 df3c a0a8 883b 1391 ed3c 16e5 213c
00000110: f2a9 c23c 7318 b53c 9b36 8fbc 0ed7 7bbe
00000120: 31b3 4cbc 1dfd 483c 05be 1d3c 57e4 b53c
00000130: 9362 bd3c f6eb 993d c40e d33d 1665 08bc
00000140: a537 b83c 53f6 83bc c971 d13d 7809 9a3c
00000150: 6455 bc3b b584 36be d93c 243d 1a8e 563d
00000160: 4bcf e33d 6405 3a3e 6684 bf3c 531c 073e
00000170: cc68 cd3d b0f9 cb3d b81c 90bc ad80 ec3c
00000180: 1dbd 96bc 4e7b c9bc 7d98 24bc 6ab9 3b3d
00000190: 0080 5dbc 8eea 4d3d 1d52 293c f755 9cbe
000001a0: cc1b 943c a69a 13bc 3c60 32bc 5a60 41bc
000001b0: 633c 413d 088f a1bc ddde 233e 225c de3c
000001c0: f470 35bc d870 563c 7ada 223e 1c48 3fbc
000001d0: 0d61 343d d455 88be 1861 dc3b 8932 8f3d
000001e0: f149 3d3e a3ca b13d f592 86bc 2255 573e
000001f0: e56a 1f3e a668 2c3e e59d 223c c057 08bc
00000200: 0efb fdbd 3029 01be b589 c0bd 3f4b 1d3e
00000210: e1aa 0bbe ac56 2f3e 0e86 a23d 8e8a 99be
00000220: c9d2 bd3d 2581 9fbd 62aa a5bd f2dc b3bd
00000230: 99a3 423e 18ee 3bbe 6f89 d73e b04f e23d
00000240: 110d c0bd db86 ac3d 85b9 d63e 8f09 c4bd
00000250: 25fe 173e 134a 86be 4899 11be 92ea d8bd
00000260: afba c63e 4aee 54be a66f f3bd c8b8 cb3e
00000270: ea83 d83e 3322 c53e 577e a13d b120 b5bd
00000280: aaef 793c 7d27 143d ca6b fa3c 93fc 24bd
00000290: 84bc 223d 6f01 13bd 1c86 c1bc 510b f1bd
000002a0: 17ea edbc 687a bf3c e528 c53c 2513 c93c
000002b0: 1f6a 2bbd b3b4 a93d 7efd a13c 9521 10bd
000002c0: 60e4 d13c 3dc2 d1bc ba2a a13c c09e ec3c
000002d0: 31ff 26bd ed18 8cbd 0366 793d b952 4e3d
000002e0: 18cf ea3c 0eb0 0c3e ce79 003d 6e99 5f3d
000002f0: ee49 9b3c 7a0c b83c a4d7 bdbc 67aa ac3c
00000300: ae68 f3bd b4ea f7bd 8f67 bbbd b23e 173e
00000310: 4813 05be 459c 293e f5c1 a03d 1a09 7fbe
00000320: a53d b93d 95e1 9cbd 007b a2bd 3348 afbd
00000330: 6afc 3c3e 447b 1dbe 4f32 bf3e b138 db3d
00000340: 0396 babd 0496 a93d 69ec be3e b468 bdbd
00000350: dd56 123e 3725 69be fc68 0bbe abc5 b2bd
00000360: a8bd a83e 8b70 55be 58bf e9bd 1aeb a83e
00000370: bfd2 c53e 872a ab3e 78b8 9f3d eb4f b0bd
00000380: cc41 4dbd 571c a13b 1e93 d9b9 300d e13b
00000390: 9105 753b 70ea 743c 68e3 10bd 64da a63d
000003a0: 6c6c 0bbd 7e8d 103d 852d 113d 4283 a43b
000003b0: e825 403c 746f bcbc 03e4 af3c 7ae1 f6bc
000003c0: 9da0 8739 dcc2 0abd 563f af3c 81d2 ed3c
000003d0: 07cb aa3b d3f2 a83c e73c 913c bd0e 8c3c
000003e0: 26a1 c33c 0ec7 693c 31ab 61bc 0650 203c
000003f0: a5d5 ac3c dc68 b93c 809b 11bd 0efc 8d3c
-0.09115318 -0.060644615 -0.07213805 0.06905931 -0.10443845 0.027903236 0.06572661 0.19014059
0.067962445 -0.053703513 -0.050726682 -0.084764056 0.03878061 -0.09655519 -0.32959858 0.07801657
-0.075818986 0.067433424 -0.32575053 -0.08826526 0.07784689 0.14019375 -0.14560355 -0.11372568
-0.29770976 -0.22201571 -0.095311016 -0.30855653 -0.3357768 -0.28583163 0.065453164 -0.07312856
0.05278737 0.071035996 0.017027995 -0.07627729 0.057843268 -0.118429035 -0.005028079 0.18102306
-0.019140875 0.010925734 0.014728491 0.0018438263 -0.12084474 0.035970464 -0.92434037 -0.03156411
0.016961537 -0.009385924 -0.9131628 0.003294672 -0.0663164 0.2193947 0.09123779 0.0091421
-0.8201802 0.25526574 0.04520792 -0.80566955 -0.9411662 -0.8066872 -0.004423653 0.01671434
0.027332347 0.0041704923 0.02899984 0.0098812785 0.023762677 0.022106385 -0.017482093 -0.24593756
-0.012493894 0.012267378 0.009627824 0.022203607 0.023118293 0.07515709 0.10305551 -0.008324882
0.02248747 -0.016108667 0.10226781 0.018803343 0.005747484 -0.17824061 0.04009709 0.052381612
0.11123522 0.18166119 0.023378562 0.13194399 0.10029754 0.099597335 -0.01759182 0.028869951
-0.018400723 -0.02459493 -0.010046122 0.04583112 -0.013519287 0.050272517 0.010334519 -0.30534336
0.01807966 -0.009009039 -0.010887202 -0.011802757 0.04717673 -0.019721523 0.16002984 0.027143542
-0.011074293 0.0130884275 0.15903655 -0.011674907 0.044037867 -0.26627982 0.0067254417 0.06992061
0.18485238 0.08681228 -0.016427496 0.2102857 0.15568121 0.16836795 0.00992534 -0.0083217025
-0.124014005 -0.12613368 -0.094012655 0.15360735 -0.13639404 0.17122906 0.07935725 -0.2998852
0.0926872 -0.07788304 -0.080891386 -0.08782376 0.1900772 -0.18352544 0.4209704 0.110503554
-0.09377492 0.08424159 0.41938415 -0.09572136 0.14843042 -0.2622839 -0.14218628 -0.10591616
0.38814303 -0.20794025 -0.118865296 0.39789414 0.42288142 0.38502654 0.078854255 -0.08844126
0.015254894 0.03617047 0.030568976 -0.040279936 0.039730564 -0.03589004 -0.023623519 -0.117697366
-0.029042287 0.023373798 0.024067352 0.024545262 -0.04184925 0.08286419 0.019774195 -0.035188276
0.025621593 -0.025605315 0.019673694 0.028884292 -0.040770713 -0.06840692 0.0608883 0.05037186
0.028663203 0.13739035 0.031366162 0.05458968 0.01895615 0.022466887 -0.023174115 0.021077348
-0.118852004 -0.12105313 -0.091506116 0.1477001 -0.12995636 0.16563518 0.07849494 -0.24905816
0.09044961 -0.07660214 -0.07933617 -0.08558693 0.18455663 -0.15379053 0.3734307 0.107041724
-0.09110644 0.08280566 0.37289742 -0.09248486 0.14290948 -0.22768103 -0.13614267 -0.087291084
0.32957196 -0.20843713 -0.11413449 0.32991868 0.3863735 0.33430883 0.077988565 -0.08608993
-0.050111577 0.0049167085 -0.00041499076 0.006868027 0.003738735 0.014948472 -0.03537312 0.081471235
-0.034038946 0.035291187 0.0354438 0.00502053 0.011727788 -0.023002364 0.02147103 -0.030136812
0.00025868873 -0.03387724 0.021392506 0.02903104 0.005212191 0.0206236 0.017729236 0.017096872
0.023880553 0.01426865 -0.013773725 0.009784704 0.021097967 0.022633009 -0.035548687 0.017332103

bias f4 [64]
00000000: 6acd 533d 0f3a 9f3d 2040 e8bd 63c9 fcbd
00000010: e8f7 b8bd 3900 4b3c 76bd d6bd d3b4 44bd
00000020: 2798 10bd 9056 1a3e 38e8 8ebd 0975 f9bd
00000030: b1a2 23be ea13 b0bd d972 bb3d 4a68 e8bd
00000040: cfed ab3c a775 9bbd 9271 ff3d 29d6 25be
00000050: ac98 b63d 0ed3 71bd 5884 4cbd 0436 bebd
00000060: 450e b53c 535d 4cbe 5314 26bd 641c acbd
00000070: e771 b23d c2c0 81bd 4275 113e 93ee c6bd
00000080: f73e 72bc bb2f 0a3b 9ab4 543d 353a 00bc
00000090: e369 313e 3af8 b2bd ce56 d6bd fb80 60bd
000000a0: e6de bc3d ecdd 953c 1baa 013e 3f23 61bd
000000b0: b57f b63d 28f1 c73c 127b d9bc d810 88bd
000000c0: e497 ccbd 2f8e 11be 6b3c cabb a82a 2cbe
000000d0: f102 c43c 303c 30be 0f9d e2bd de3e 19be
000000e0: 0929 9ebc 1b29 293e 53e3 df3d 1c78 37ba
000000f0: 103b c8bd 6e58 9e3c db7d 393d dce1 9dbb
0.05170957 0.07774746 -0.11340356 -0.12343099 -0.09031659 0.01239019 -0.104853556 -0.04802401
-0.035301354 0.15072083 -0.06977886 -0.12180526 -0.1598003 -0.08597548 0.09152765 -0.113480166
0.02098742 -0.075908 0.12472834 -0.16194977 0.089158386 -0.059039168 -0.0499309 -0.092876464
0.02210153 -0.19957475 -0.040546726 -0.084038526 0.087131314 -0.06335594 0.14204887 -0.09713473
-0.01478552 0.0021085578 0.051930048 -0.007826378 0.17325549 -0.08738752 -0.104657754 -0.054810505
0.09222202 0.018294297 0.12662546 -0.054965254 0.08911077 0.024406984 -0.026547942 -0.06643838
-0.09989908 -0.14214395 -0.006171753 -0.16813147 0.023927184 -0.1721046 -0.11065113 -0.14965388
-0.019306676 0.16519587 0.109320305 -0.00069987937 -0.0977689 0.019329276 0.04528604 -0.0048181843

weight f4 [32, 64]
00000000: 1680 893e 1e31 1dbf 27ea 54bc 42bd 50be
00000010: bc0b 85bd 7932 f6bb 7886 7dbd 64fb 7abd
00000020: b2a6 70bd 5524 853d a189 8dbd 6fe4 8abd
00000030: 40d0 20be 5c5f 06be 1960 1bbf 6199 07be
00000040: 55ad 62bb d31a 8e3d 0a2c eabe 6ac7 ddbc
00000050: 2eac a83e d0fd d8bc b4ef 53bd 8e63 753d
00000060: 037e 7abd ba92 9dbd 3385 82bd fa1f e4bc
00000070: 4ae0 273e cba3 94bd ecb7 e5bd b1bf 88bd
00000080: ce7b e4bd 4684 803c 63b9 c1bb c7d8 38bd
00000090: 41cd 6f3d 2c42 8cbd b000 133d 66f2 9abd
000000a0: 4a33 873e b75e 17bf 478c 0bbf e869 03bd
000000b0: 019b a83e cc2e 90bd 486f dbbc 4afa 37bd
000000c0: 57cc bebc faf1 1cbe 6928 82bc d668 84bd
000000d0: fb49 fdbc 2890 ffbd 8c30 bebd 8c51 07be
000000e0: cef4 cabc b3da 933d 1510 36bf 210d b6bc
000000f0: aa40 22bd fa4e 27bd d5b4 b6bc 86a2 c03c
00000100: 5514 cdbd 3280 fabd e9f6 383d 4778 52bd
00000110: 84df 5ebe 414e 703d 6c45 51be 679a 0c3e
00000120: 6ce2 0a3e 8f37 fbbd 3f8b 5cbe 2e0f 66be
00000130: 5d6e cb3d 8874 58be f7fc 25be bd05 e33d
00000140: ff45 d93d d49d 953d 2da8 b1bd 5538 713d
00000150: 91e3 f5bd d047 47be db55 d43d 088a 843d
00000160: 6b78 a33d 7f28 4abe 7b8e 45be 714b 503d
00000170: 5d4d 10be dd8a 063d a6ae 9abd fd50 dd3d
00000180: ff75 c5bd cb46 703d 8836 973d ffe6 eebc
00000190: 68be f4bd c524 60be 1a03 acbd 17b1 a13d
000001a0: 1304 dbbd 13a9 e7bd f6a5 bfbd 97ea 953d
000001b0: 8932 f6bd 2463 a63b 7aa5 41be 6858 943d
000001c0: 6136 48be 305a a43c 79e3 5c3d 551d 8ebd
000001d0: 1bec e43d 299a dd3d 06cb f63d ea08 a7be
000001e0: e503 e7be 577a f5bd 9871 eebd 43c1 873d
000001f0: a270 bd3d ceee e63d c9d6 653d f315 b13d
00000200: fdef 8a3d 47fb f7be 9b05 933c 40af f5bc
00000210: d233 78bd a599 6e3b 899f 37bd a91d 89bc
00000220: 8b6d 893d 1081 54bd 29c5 83bd b19f 85bd
00000230: 2a14 1f3d 0c8f b7bc 3e9c d2be 8514 7239
00000240: da91 823a 44a0 fcbb 3722 dfbe 6a40 bdbd
00000250: 8abf a33d 987a 39bd c8c5 53bd a942 f1bb
00000260: a0d7 2fbc f78c d7bc 7a6b 54bd df71 083b
00000270: 3961 143c 15bb e9bd 94d6 60be aa60 1d3d
00000280: 71cb e5bc b1dc bd3c ef58 0e3c 512d 1e3c
00000290: 6b92 4dbd 9469 84bd 4d85 38bd 4ff4 5b3c
000002a0: ccba 6c3d ab99 e6be a317 f0be bd5f 573c
000002b0: 57f1 a33d dd91 d33a 4afb 4bbd 4d49 ebbc
000002c0: b2dd 50bd 7d2e 91be cb78 953b 2674 fdbc
000002d0: ef83 9fbc cc98 863c 5fac 2fbc 5b49 42be
000002e0: e568 88bc 5057 54bd c09a 00bf 7c79 123d
000002f0: d03c 933b d47b 04bd d57b 133a e1db 7c3c
00000300: 036f c73d 099e be3d 8669 c7bd 2023 f3bd
00000310: 54ab dfbe 09db ecbc 21b4 b6be 65ed 39bd
00000320: dfd1 9cbd 0440 f73d 6f11 e1be 4d17 eabe
00000330: 1332 dbbd 1acd 90bd 7891 b23b f55d a1bd
00000340: 402e a7bc ecc7 b9bc 3eab f83d 9795 dabd
00000350: a087 d73d 0b0b 6ebe 0e47 9ebd e87d a7bc
00000360: c26a b5bc 4ab0 f5bd 0c3c babe a2e6 0cbd
00000370: 8367 9b3d 72c4 80bd 83a5 ff3d 7eb8 bebc
00000380: c9e1 cbbc 2365 a3bc 7ed2 d23b 051e 5abc
00000390: 0836 ff3d db7e e8be 38c8 c2bd 5b04 aabd
000003a0: 50d7 c03d 3c9d d33d 74cb f83d d3a1 69bd
000003b0: 97ad d43d d859 f1bc 91ad 68be a168 c2bd
000003c0: 5956 0bbe 20b8 b0bd b6d5 f3bc 93d2 fbbd
000003d0: 0151 1fbd 84d7 e4bd cd43 c5bc 94d7 20be
000003e0: cda8 82bd baf0 003e d251 dd3d ca19 1abd
000003f0: 7c2d 93bd 4dbe 15bd 8512 583c 91f3 0abd
0.26855534 -0.6140307 -0.012995279 -0.20384696 -0.06496379 -0.007513341 -0.061895818 -0.0612749
-0.058752723 0.065010704 -0.06911016 -0.067818515 -0.15704441 -0.13122314 -0.6069351 -0.13242103
-0.0034588177 0.0693871 -0.45736724 -0.027072627 0.32943863 -0.026488215 -0.05174227 0.059909396
-0.06115533 -0.076940015 -0.06373062 -0.027847279 0.16394153 -0.072578035 -0.11216721 -0.06677187
-0.11156426 0.015688073 -0.0059119924 -0.04512861 0.058545355 -0.06848559 0.035889328 -0.07565765
0.26406318 -0.591289 -0.5451092 -0.032083422 0.3293076 -0.07040176 -0.026786461 -0.04491643
-0.023290796 -0.15326682 -0.01588841 -0.06465308 -0.030919066 -0.124786675 -0.09286603 -0.13214701
-0.024774935 0.07219448 -0.7111829 -0.022223057 -0.03961245 -0.040846802 -0.022303024 0.023514997
-0.10013644 -0.122314826 0.045157347 -0.051384237 -0.21764952 0.05866838 -0.20436639 0.13730775
0.13562936 -0.12266456 -0.21537493 -0.22466728 0.099331595 -0.21138203 -0.1620978 0.11085079
0.10609054 0.07305494 -0.08674655 0.058891613 -0.120062955 -0.19460988 0.10367938 0.0647164
0.07981952 -0.1974201 -0.19292633 0.050853197 -0.14092012 0.032847274 -0.07552843 0.10806463
-0.096416466 0.058661263 0.07383448 -0.029162882 -0.119503796 -0.21889026 -0.08399029 0.07895105
-0.106941365 -0.11311545 -0.093578264 0.07320135 -0.120213576 0.0050777365 -0.1891078 0.07243425
-0.19551994 0.020062536 0.053927872 -0.069391884 0.11177846 0.10820419 0.120504424 -0.32623988
-0.4512016 -0.11986225 -0.1164276 0.066286586 0.09249999 0.11276017 0.05611304 0.086467646
0.067840554 -0.48433897 0.017947009 -0.029990792 -0.060596295 0.0036407497 -0.04482988 -0.016737776
0.06710347 -0.051880896 -0.0643409 -0.06524599 0.03883759 -0.022407077 -0.41134828 0.00023086563
0.000996168 -0.007709535 -0.4358079 -0.09240802 0.079955176 -0.04528293 -0.05170229 -0.007362683
-0.010732561 -0.026312334 -0.05186031 0.0020819826 0.009056383 -0.11412636 -0.21956855 0.038422264
-0.02805111 0.023176523 0.008688196 0.009654359 -0.050188463 -0.0646545 -0.045049 0.013424947
0.05779533 -0.45039114 -0.46893033 0.013145384 0.08005016 0.0016141493 -0.049800195 -0.028721476
-0.050992675 -0.2835578 0.004561519 -0.030939173 -0.01947209 0.016430281 -0.010722249 -0.18973295
-0.01665158 -0.05184108 -0.5023613 0.035760388 0.0044933334 -0.032344654 0.00056260574 0.015433283
0.09737971 0.093074866 -0.09736924 -0.11871934 -0.436854 -0.028913038 -0.35684302 -0.045392413
-0.07657217 0.12072757 -0.43958613 -0.45720902 -0.1070291 -0.0707037 0.00544947 -0.07879249
-0.020407796 -0.022678338 0.12142037 -0.10673063 0.10523915 -0.232464 -0.07728396 -0.020445779
-0.022145633 -0.11996515 -0.36373937 -0.034399636 0.07588103 -0.06287469 0.12482741 -0.023281332
-0.024887936 -0.019945687 0.006433784 -0.013312821 0.124614775 -0.45409283 -0.09510845 -0.08301612
0.094160676 0.103327245 0.121481806 -0.057039093 0.10384672 -0.029461786 -0.2272246 -0.09492613
-0.13607158 -0.08628869 -0.029764991 -0.12296023 -0.03889561 -0.11173919 -0.024080181 -0.15707237
-0.063798524 0.1259183 0.108066216 -0.03762225 -0.0718641 -0.036558438 0.013188009 -0.03392369

bias f4 [32]
00000000: 0ba3 683d 7684 fabd 618d 183e 4ddc 4b3d
00000010: d3d0 203d f651 7a3c 13cc 9d3b 49db b53d
00000020: cbbc 4abe 6d9d 4fbe 0154 0e3e 2d3c a33d
00000030: a2f5 1c3e 8352 da3d bd98 d7bd 483a 533c
00000040: d22a 56be acff c63d a0f3 963d 82d5 893b
00000050: 7c40 093d 1c73 af3d 6cdd 1ebe 3a14 e8bd
00000060: b53e 0dbd 1b51 2cbe 9d70 6d3d ac4f 1d3e
00000070: 7792 3bbe a44e 113d a470 a2be 24d6 42be
0.056796115 -0.12232296 0.14897682 0.049770642 0.03926165 0.01527833 0.0048155873 0.08879716
-0.19798581 -0.20274897 0.13899232 0.07970462 0.15328076 0.10660269 -0.105271794 0.012892313
-0.20914772 0.09716734 0.073706865 0.0042063603 0.033508763 0.08566877 -0.15514153 -0.11331983
-0.03448363 -0.16827814 0.057968725 0.15362424 -0.1831759 0.03547539 -0.31726563 -0.19027
