checkpoints/support2_honam2_emb32_2.pt (torch, 635858 bytes, 350 tensors)

weight f4 [32, 1]
0.33867213 0.11000253 0.5665197 -0.1654316 0.23164842 -0.21244793 -0.3008304 -0.10169382
-0.25181752 0.3015284 0.23954065 0.2555504 0.36191133 0.2027995 0.23956965 0.58826923
0.44242167 0.49022183 0.18351784 0.101082906 0.07297817 0.15570132 -0.28909293 -0.47472334
-0.30907425 0.15756978 0.43643314 -0.07169913 0.19706288 0.2223249 0.30651605 -0.1014559
00000000: 6f66 ad3e 0249 e13d 6f07 113f e766 29be
00000010: 3e35 6d3e f38b 59be 7106 9abe d944 d0bd
00000020: 3aee 80be ee61 9a3e 254a 753e 81d7 823e
00000030: 714c b93e acaa 4f3e bf51 753e d098 163f
00000040: 1885 e23e 5bfe fa3e 1aec 3b3e 8e04 cf3d
00000050: 9475 953d 2b70 1f3e fd03 94be f00e f3be
00000060: fb3e 9ebe f959 213e 2a74 df3e fed6 92bd
00000070: daca 493e 23a9 633e acef 9c3e 1cc8 cfbd

bias f4 [32]
0.09724802 0.3367456 -0.0013990805 -0.19967385 0.22371385 -0.16644853 -0.07654334 -0.23114862
-0.12995324 -0.41893205 0.21717861 0.19263075 0.07378034 0.25126132 0.21465619 -0.0014216828
0.011227721 -0.0012370013 0.27684435 0.34255365 0.36498272 0.29874158 -0.08976737 0.07952975
-0.064987466 0.30203277 0.015122095 0.46783718 0.26239306 -0.34348667 0.13373365 0.4889476
00000000: f829 c73d eb69 ac3e 5a61 b7ba 4d77 4cbe
00000010: 3e15 653e 7c71 2abe c1c2 9cbd 39b2 6cbe
00000020: 7612 05be 437e d6be 1264 5e3e ff40 453e
00000030: 261a 973d 53a5 803e d5ce 5b3e c257 baba
00000040: 7af4 373c e022 a2ba 8bbe 8d3e 3163 af3e
00000050: 04df ba3e a8f4 983e f4d7 b7bd 7ee0 a23d
00000060: 2618 85bd 0aa4 9a3e aac2 773c 5b88 ef3e
00000070: 6258 863e 7cdd afbe 79f1 083e 5757 fa3e

weight f4 [64, 32]
-0.026932202 0.048219576 -0.2692221 -0.022616941 0.026797064 -0.011444275 0.030863468 -0.032471452
0.0028073706 -0.060334943 0.024826108 0.018605003 -0.04645914 0.033870496 0.024576474 -0.29270282
-0.13796432 -0.19624634 0.038137577 0.048945606 0.051559813 0.042616528 0.022717414 0.2593767
0.03800336 0.04246632 -0.12965535 0.060495604 0.035455596 -0.056058872 -0.0049660276 0.06189155
-0.06722204 -0.032220874 -0.19473445 0.03786797 -0.041494384 0.04260789 0.06353716 0.0339261
0.049297214 0.026073748 -0.04248 -0.04542213 -0.07683504 -0.038417548 -0.04261597 -0.20410432
-0.12552379 -0.16066541 -0.03650229 -0.03194708 -0.030879812 -0.03466961 0.05935573 0.22047122
0.06739905 -0.034690455 -0.120904185 -0.027735496 -0.037745237 0.027398998 -0.05638678 -0.027374063
-0.035993777 0.016284335 -0.12841764 0.0010580437 0.000867917 0.008776886 0.036449708 -0.00587688
0.01842588 -0.022349497 -0.00062399794 -0.0048408415 -0.048667744 0.0058295648 -0.0008724815 -0.12336552
-0.10272626 -0.12939098 0.0089512635 0.016954098 0.018657468 0.012094632 0.031301785 0.20057772
0.0407657 0.012275923 -0.098235555 0.024665372 0.0070730667 -0.019244727 -0.021215359 0.025468443
-0.06510054 0.021000668 -0.35691714 0.0028530462 -0.003403147 0.014659114 0.056282386 -0.0073539712
0.029041199 -0.030729005 -0.0058739446 -0.012617186 -0.087646455 0.004629732 -0.006188781 -0.39034176
-0.19133839 -0.2595286 0.009563333 0.022123218 0.025007268 0.014543669 0.04867643 0.24456707
0.06268025 0.014556102 -0.18227835 0.034060847 0.0065668407 -0.027465548 -0.03978195 0.035236023
-0.079017654 0.006147052 -0.5397365 0.011104977 -0.016753621 0.021298036 0.058429748 0.0024626255
0.034001485 -0.013792609 -0.019174801 -0.025661368 -0.1039693 -0.009113515 -0.01936951 -0.5911695
-0.24133603 -0.36011887 -0.0045694117 0.006939179 0.009598021 0.0001279708 0.05140254 0.21589778
0.06421013 3.7219806e-06 -0.22754858 0.017320408 -0.007534613 -0.012126689 -0.05264969 0.018350765
-0.035713416 0.02756367 -0.1519433 -0.0141528305 0.0077318116 -0.004019153 0.032024316 -0.023162832
0.008391008 -0.05414882 0.0059014494 0.0006191987 -0.049903676 0.014047802 0.0056293276 -0.15459283
-0.10863805 -0.13920625 0.01788487 0.028453017 0.031136882 0.022164423 0.025380978 0.2692896
0.038002778 0.02201647 -0.10391562 0.040615473 0.015505642 -0.047898423 -0.018725846 0.04228821
-0.051290847 0.038433883 -0.37394017 -0.018846568 0.015138955 -0.0069432803 0.042914405 -0.028614113
0.0088814255 -0.051537286 0.012735064 0.0056947796 -0.0776518 0.023156663 0.012421028 -0.39454022
-0.21349439 -0.30433032 0.027853025 0.03926657 0.041936375 0.032639656 0.032685738 0.32308543
0.052236304 0.032415535 -0.20074672 0.050244734 0.024882369 -0.04755261 -0.022856545 0.051557872
-0.06529778 -0.0318136 -0.1661336 0.036908172 -0.041106604 0.041358437 0.05903104 0.033106014
0.047348466 0.024762075 -0.042053398 -0.044654083 -0.07413105 -0.037831653 -0.04200782 -0.17203036
-0.1142447 -0.13894571 -0.036036555 -0.031353734 -0.030243875 -0.03411436 0.055705093 0.10127396
0.062174615 -0.034183074 -0.11090475 -0.027016338 -0.037134614 0.026338905 -0.055457726 -0.02671865
00000000: eca0 dcbc e481 453d 7bd7 89be 2a47 b9bc
00000010: 8485 db3c c580 3bbc 62d5 fc3c c900 05bd
00000020: ddfb 373b c621 77bd 1f60 cb3c 8569 983c
00000030: f04b 3ebd cabb 0a3d 9a54 c93c 25dd 95be
00000040: 8546 0dbe cdf4 48be 2636 1c3d 307b 483d
00000050: 6230 533d ab8e 2e3d df19 ba3c 06cd 843e
00000060: 69a9 1b3d 2af1 2d3d 5fc4 04be 3dca 773d
00000070: e339 113d fd9d 65bd 0fba a2bb fe81 7d3d
00000080: b5ab 89bd 09fa 03bd 7868 47be 721b 1b3d
00000090: 04f6 29bd 9c85 2e3d c51f 823d 18f6 0a3d
000000a0: e0eb 493d 9d98 d53c 82ff 2dbd 8e0c 3abd
000000b0: b05b 9dbd b85b 1dbd 158e 2ebd b900 51be
000000c0: 4f89 00be 7985 24be 6d83 15bd f1da 02bd
000000d0: a9f7 fcbc b901 0ebd fe1e 733d 35c3 613e
000000e0: 8308 8a3d 9417 0ebd 9d9c f7bd 8d35 e3bc
000000f0: c09a 1abd dd73 e03c d3f5 66bd 923f e0bc
00000100: 366e 13bd ba66 853c ea7f 03be 0eae 8a3a
00000110: ed84 633a eecc 0f3c 4a4c 153d d892 c0bb
00000120: dff1 963c 4b16 b7bc cb93 23ba ec9f 9ebb
00000130: d457 47bd ef05 bf3b 3eb7 64ba 10a7 fcbd
00000140: 2562 d2bd 127f 04be 52a8 123c 52e3 8a3c
00000150: 8cd7 983c 9028 463c 4d36 003d 3f64 4d3e
00000160: eff9 263d f420 493c b92f c9bd 090f ca3c
00000170: 2fc5 e73b 1ea7 9dbc d5cb adbc 32a3 d03c
00000180: 6f53 85bd 9809 ac3c d8bd b6be 2cfa 3a3b
00000190: 5507 5fbb c82c 703c 5c88 663d 95f9 f0bb
000001a0: cfe7 ed3c 65bb fbbc 387a c0bb 50b8 4ebc
000001b0: fc7f b3bd 02b5 973b 42cb cabb e0da c7be
000001c0: 36ee 43be efe0 84be 87af 1c3c c03b b53c
000001d0: 0bdc cc3c 9248 6e3c f060 473d ca6f 7a3e
000001e0: 815e 803d b87c 6e3c 2da7 3abe 6383 0b3d
000001f0: a72e d73b 6eff e0bc 66f2 22bd a653 103d
00000200: 02d4 a1bd 366d c93b 2c2c 0abf a6f1 353c
00000210: e43e 89bc 3879 ae3c 0854 6f3d 0064 213b
00000220: 2445 0b3d 65fa 61bc 7914 9dbc ca37 d2bc
00000230: dbed d4bd da50 15bc ceac 9ebc e256 17bf
00000240: cb20 77be 8061 b8be 01bb 95bb 0d62 e33b
00000250: 0541 1d3c e62f 0639 788b 523d 4f14 5d3e
00000260: 9a80 833d 24c7 7936 7f02 69be 87e3 8d3c
00000270: eae4 f6bb 05af 46bc 34a7 57bd 5854 963c
00000280: 3b48 12bd 35cd e13c 0697 1bbe 46e1 67bc
00000290: 235b fd3b 19b3 83bb ee2b 033d fbbf bdbc
000002a0: 707a 093c 27cb 5dbd f260 c13b b951 223a
000002b0: cc67 4cbd c128 663c 3976 b83b 954d 1ebe
000002c0: a07d debd 158c 0ebe 4a83 923c 4d16 e93c
000002d0: c612 ff3c 2a92 b53c c5eb cf3c 54e0 893e
000002e0: cda8 1b3d e25b b43c b6d1 d4bd 695c 263d
000002f0: 600b 7e3c 2331 44bd f266 99bc 6736 2d3d
00000300: 5a16 52bd d96c 1d3d 1675 bfbe 1e64 9abc
00000310: 6109 783c 7584 e3bb 04c7 2f3d 2568 eabc
00000320: 6683 113c c318 53bd bba6 503c 469b ba3b
00000330: e807 9fbd 0bb3 bd3c 9181 4b3c 2d01 cabe
00000340: 469e 5abe 2fd1 9bbe 072c e43c fcd5 203d
00000350: 7ac5 2b3d 29b1 053d 7be1 053d 746b a53e
00000360: bcf5 553d 27c6 043d 8c90 4dbe 6ccd 4d3d
00000370: 1cd6 cb3c 87c6 42bd a63d bbbc 592e 533d
00000380: d8ba 85bd fa4e 02bd ed1e 2abe 062d 173d
00000390: 665f 28bd 7767 293d 88ca 713d 2c9a 073d
000003a0: 77f0 413d d6d9 ca3c 2f40 2cbd 33e7 36bd
000003b0: 05d2 97bd 5df5 1abd 6410 2cbd ba28 30be
000003c0: 20f9 e9bd c947 0ebe 119b 13bd c66c 00bd
000003d0: 01c2 f7bc 80bb 0bbd 062b 643d b968 cf3d
000003e0: cfaa 7e3d 8d03 0cbd 0822 e3bd 5e51 ddbc
000003f0: 771a 18bd b0c4 d73c a427 63bd 12e1 dabc

bias f4 [64]
-0.08999079 0.12953274 -0.07801215 -0.097888105 -0.039563913 0.20535827 0.03609206 0.05838594
0.02831441 -0.121250175 -0.17289232 -0.04350032 0.060874525 0.1643921 0.060264416 -0.042995468
-0.016251124 0.065420754 -0.00079275854 0.15484469 -0.16335683 0.13184431 0.047732297 -0.019160686
-0.08722369 0.06440679 -0.118753925 0.06264529 0.041064575 0.11869897 0.077397816 0.060854662
0.12866597 0.08631602 0.13230927 0.03633574 0.116356306 0.08551077 0.08547907 0.031613026
0.06153619 0.18281384 -0.2119379 0.12336913 0.045080397 -0.13134609 0.10445545 -0.00959055
0.026245426 -0.0128747085 0.037469126 -0.111704975 0.073059246 0.04235377 0.09832321 0.14347443
-0.004889153 -0.014847988 0.06153094 0.038263764 0.12214569 -0.026837325 0.08313119 -0.015162735
00000000: 174d b8bd 3ba4 043e d6c4 9fbd 8f79 c8bd
00000010: c50d 22bd 7049 523e 45d5 133d 1826 6f3d
00000020: 9ff3 e73c 0352 f8bd af0a 31be 642d 32bd
00000030: 9157 793d 6756 283e d2d7 763d 041c 30bd
00000040: 1421 85bc 51fb 853d 20d1 4fba 9b8f 1e3e
00000050: 0347 27be 3202 073e f182 433d dff6 9cbc
00000060: 55a2 b2bd b5e7 833d 4235 f3bd 2c4c 803d
00000070: 5433 283d 7218 f33d bf82 9e3d bd42 793d
00000080: 03c1 033e 74c6 b03d 157c 073e c9d4 143d
00000090: 374c ee3d 4520 af3d a70f af3d a97c 013d
000000a0: 5f0d 7c3d 8d33 3b3e 4006 59be f4a8 fc3d
000000b0: 39a6 383d 977f 06be bdec d53d af21 1dbc
000000c0: a600 d73c 71f0 52bc 3a79 193d 94c5 e4bd
000000d0: 16a0 953d 267b 2d3d ae5d c93d f6ea 123e
000000e0: 3035 a0bb fa44 73bc de07 7c3d 77ba 1c3d
000000f0: 8527 fa3d f3d9 dbbc af40 aa3d 1f6d 78bc

weight f4 [32, 64]
0.14371282 0.10914479 0.086158775 0.19839846 0.28720978 0.08828677 0.22575277 0.03971889
0.1385566 0.2478521 -0.3052866 0.02503673 0.037724815 0.10186854 0.0063214023 0.3104607
0.06627269 0.10798762 0.2473832 0.09694747 0.065690674 0.05008801 0.11707199 0.09739791
-8.525458e-05 0.18135206 0.21175677 0.026348727 0.14273424 0.13045067 0.072782345 0.10672335
0.08868126 0.10545589 0.17281319 0.107901394 0.103119925 0.07799992 0.06359233 0.08445187
0.2223614 0.07292335 0.02783788 0.052066322 0.12963246 0.034779195 0.056206 0.24470137
0.19959252 -0.004881663 0.35934344 -0.34134844 0.13365096 0.18641716 -0.010906044 0.103443496
0.23651752 0.13110359 0.12593316 0.15420465 0.13376622 0.20840083 0.03314434 0.04062273
0.014686661 -0.04139313 0.0012449719 -0.048738636 -0.12281069 -0.023965945 0.01918217 0.0035792266
-0.016659768 -0.058301684 0.120623715 -0.012739575 -0.005523603 0.041639693 0.023948 -0.13231052
-0.02477628 -0.007823647 -0.060425017 -0.056645177 0.0014651993 -0.027616698 -0.0437813 0.03132489
0.04691422 -0.0084678205 -0.068158045 0.017162938 -0.03895094 -0.022827778 0.0029003422 -0.010980254
0.00794144 -0.0153287165 -0.023760274 -0.039091825 -0.027754018 0.018781161 -0.010448887 -0.038608193
-0.054753695 -0.00944637 -0.021226995 -0.007770074 -0.02779616 0.024013808 -0.032999873 -0.076765485
-0.008519237 0.0063618654 -0.03692923 0.16090581 -0.036011223 -0.029230952 0.0005503896 0.018343281
-0.069034055 -0.037101183 -0.05237522 -0.035348106 -0.026570264 -0.06860536 0.009088416 0.0062358757
0.2254152 0.045091767 0.044548545 0.13443111 0.06826088 0.1386265 0.09291766 0.07398037
0.121413045 0.08736304 -0.06869494 0.04362559 0.120526865 0.11247913 0.028211774 0.06669108
0.07018175 0.10560076 0.11640557 0.1737121 -0.013052045 0.10081761 0.1447471 0.12765738
0.0019545218 0.14247489 0.06824378 0.03624869 0.16446792 0.08696388 0.1302319 0.09779412
0.087022044 0.13128257 0.07564113 0.16725238 0.10910965 0.11823035 0.10893581 0.092927784
0.1588859 0.043452676 -0.09007762 0.09636424 0.2332572 0.04209883 0.06501191 0.0908275
0.08467421 0.08195566 0.055428933 -0.034880035 0.12813273 0.123095304 0.03625006 0.062260453
0.11558017 0.05864502 0.10391317 0.01966675 0.039115313 0.11111543 0.07428599 0.06657224
0.050806094 0.0013645401 0.02072779 0.058995698 0.15101002 0.068940096 0.1517057 0.002716142
0.039805226 0.08727223 -0.2244239 -0.009310883 -0.002424946 0.076169394 0.011385827 0.12388603
0.060232323 0.0046749227 0.12210928 0.015533738 0.003345266 0.0016244886 -0.026223147 -0.034360856
-0.053238206 0.102272354 0.08806301 0.017195879 0.03235961 0.025994696 -0.019493438 0.006836194
0.023316387 0.008238585 0.041568507 0.07856337 -0.01132241 0.00674212 -0.0072860993 0.002591025
0.12708212 0.011953044 -0.028273156 -0.011480577 0.014024859 0.0049430155 -0.003629576 0.12532063
0.13894597 0.042448465 0.26923096 -0.25942978 0.02090375 0.059709273 -0.0043043764 0.0136087835
0.10090778 0.02435176 0.0058242395 0.0120067485 0.016212195 0.09068723 0.02468222 0.061241817
00000000: 7429 133e 4e87 df3d 0374 b03d f728 4b3e
00000010: 290d 933e b2cf b43d bc2b 673e 46b0 223d
00000020: c8e1 0d3e f1cc 7d3e 864e 9cbe d419 cd3c
00000030: 5685 1a3d 74a0 d03d c423 cf3b b4f4 9e3e
00000040: fab9 873d 9d28 dd3d 0652 7d3e 658c c63d
00000050: d588 863d 1629 4d3d 71c3 ef3d 8e78 c73d
00000060: b4ca b2b8 5bb4 393e c4d6 583e 49d9 d73c
00000070: ed28 123e dc94 053e e90e 953d c691 da3d
00000080: 859e b53d 42f9 d73d f1f5 303e 68fb dc3d
00000090: 8a30 d33d 6cbe 9f3d b23c 823d 1af5 ac3d
000000a0: b5b2 633e d658 953d 440c e43c 7f43 553d
000000b0: 5fbe 043e a174 0e3d 4338 663d ff92 7a3e
000000c0: fb61 4c3e 5bf6 9fbb ddfb b73e 39c5 aebe
000000d0: ccdb 083e 24e4 3e3e 44af 32bc 2fda d33d
000000e0: a631 723e 0540 063e 9ff4 003e d3e7 1d3e
000000f0: 03fa 083e 0767 553e 5cc2 073d 0564 263d
00000100: 52a0 703c d88b 29bd 532e a33a 2aa2 47bd
00000110: 2c84 fbbd 3b54 c4bc ed23 9d3c 7591 6a3b
00000120: 117a 88bc bfcd 6ebd 9109 f73d a6b9 50bc
00000130: 57ff b4bb 628e 2a3d 992e c43c 697c 07be
00000140: a0f7 cabc c12e 00bc 3980 77bd c604 68bd
00000150: ee0b c03a 6a3c e2bc 0554 33bd 874e 003d
00000160: 2029 403d 9dbc 0abc 7296 8bbd 4a99 8c3c
00000170: 058b 1fbd 5201 bbbc ab13 3e3b 86e6 33bc
00000180: d01c 023c 4c25 7bbc e8a4 c2bc c01e 20bd
00000190: 655c e3bc f3da 993c cf31 2bbc a023 1ebd
000001a0: 6945 60bd f3c4 1abc 3ce4 adbc 1b9c febb
000001b0: c6b4 e3bc 9bb8 c43c e02a 07bd 3937 9dbd
000001c0: 4594 0bbc 3277 d03b 1b43 17bd 7ec4 243e
000001d0: 8180 13bd c075 efbc 0548 103a a644 963c
000001e0: ba61 8dbd 69f7 17bd 6687 56bd 2dc9 10bd
000001f0: e2a9 d9bc f880 8cbd 94e7 143c 5156 cc3b
00000200: 3ed3 663e 25b2 383d 8978 363d 4fa8 093e
00000210: 5ccc 8b3d 1bf4 0d3e 9d4b be3d 0583 973d
00000220: 67a7 f83d 65eb b23d efaf 8cbd bfb0 323d
00000230: cad6 f63d 755b e63d 611c e73c 5595 883d
00000240: 73bb 8f3d 3645 d83d 0b66 ee3d 96e1 313e
00000250: 3fd8 55bc 7779 ce3d 9538 143e 9eb8 023e
00000260: 6f17 003b f0e4 113e 65c3 8b3d 8279 143d
00000270: 476a 283e 1e1a b23d 835b 053e 4948 c83d
00000280: 9d38 b23d f06e 063e bde9 9a3d 3544 2b3e
00000290: e174 df3d c122 f23d bd19 df3d ec50 be3d
000002a0: fcb2 223e 6ffb 313d 9e7a b8bd 9d5a c53d
000002b0: fada 6e3e d36f 2c3d f724 853d c503 ba3d
000002c0: ac69 ad3d 5ed8 a73d 7309 633d 5ede 0ebd
000002d0: 3a35 033e 6419 fc3d f17a 143d d104 7f3d
000002e0: 4cb5 ec3d c335 703d 6ed0 d43d 2a1c a13c
000002f0: 6137 203d 7d90 e33d 4123 983d 0757 883d
00000300: 0d1a 503d 5eda b23a 54cd a93c 79a5 713d
00000310: 5fa2 1a3e 7730 8d3d bd58 1b3e 4d01 323b
00000320: ce0a 233d c8bb b23d 61cf 65be ac8c 18bc
00000330: d8eb 1ebb b3fe 9b3d 9f8b 3a3c f5b7 fd3d
00000340: 2bb6 763d 1830 993b 6e14 fa3d 3881 7e3c
00000350: 403c 5b3b cbec d43a edd1 d6bc f8bd 0cbd
00000360: 4e10 5abd 2b74 d13d 615a b43d 5fde 8c3c
00000370: 838b 043d d4f2 d43c b4b0 9fbc 2702 e03b
00000380: 0202 bf3c 21fb 063c bd43 2a3d d5e5 a03d
00000390: a181 39bc 00ed dc3b 3bc0 eebb 30ce 293b
000003a0: d121 023e b3d6 433c 1b9d e7bc 0819 3cbc
000003b0: 86c8 653c 05f9 a13b 2ede 6dbb 0d54 003e
000003c0: da47 0e3e 71de 2d3d a4d8 893e fbd3 84be
000003d0: 573e ab3c b691 743d ba0b 8dbb 60f7 5e3c
000003e0: bda8 ce3d 587d c73c 43d9 be3b f4b7 443c
000003f0: 70cf 843c 3aba b93d 5e32 ca3c b3d8 7a3d

bias f4 [32]
-0.071121104 -0.05268705 -0.14138225 0.042544503 -0.22574434 -0.35556966 0.07996324 0.0034027481
-0.09397587 -0.015581063 -0.16935268 0.020432515 -0.01072943 -0.060702614 -0.057266917 0.00978522
-0.26993123 -0.10381262 -0.20755835 -0.1867387 -0.24558373 -0.24780977 -0.011777609 -0.032680735
-0.2139449 -0.24114737 -0.05765572 -0.35493332 0.053053025 0.0033156585 -0.066266485 -0.08986648
00000000: f1a7 91bd 60ce 57bd 82c6 10be 2543 2e3d
00000010: 8629 67be 3a0d b6be c4c3 a33d a400 5f3b
00000020: 6c76 c0bd b747 7fbc ca6a 2dbe 1762 a73c
00000030: 7eca 2fbc 4ea3 78bd b790 6abd 3052 203c
00000040: 6d34 8abe b69b d4bd 2d8a 54be 6e38 3fbe
00000050: 4d7a 7bbe d8c1 7dbe dff6 40bc 3cdc 05bd
00000060: 5f14 5bbe 56ef 76be 6728 6cbd d2b9 b5be
00000070: 214e 593d 854b 593b b9b6 87bd eb0b b8bd

weight f4 [32, 1]
0.28984532 -0.2235315 0.2915 -0.30424848 0.29116887 0.22945394 -0.30478466 0.28571305
-0.2998516 -0.28683218 -0.30288205 -0.2520123 -0.17465512 -0.3023233 0.3093893 -0.07600303
0.329058 0.29160455 -0.21890269 -0.3082279 0.29931784 -0.20174494 -0.2961203 -0.2714453
0.28469014 0.290763 -0.32840294 0.31038606 0.28904587 -0.29731336 0.29108533 -0.3072753
00000000: 9b66 943e 71e5 64be 7d3f 953e 75c6 9bbe
00000010: 1614 953e f9f5 6a3e bc0c 9cbe fb48 923e
00000020: 2686 99be abdb 92be 5b13 9bbe c207 81be
00000030: cbd8 32be 1fca 9abe 4668 9e3e 7aa7 9bbd
00000040: 4a7a a83e 314d 953e 0728 60be 0cd0 9dbe
00000050: 3040 993e 3a96 4ebe 149d 97be e1fa 8abe
00000060: e8c2 913e e3de 943e 6e24 a8be ecea 9e3e
00000070: d2fd 933e 7539 98be 2309 953e 3053 9dbe

bias f4 [32]
-0.56477904 0.22079203 -0.530818 0.60762167 -0.5381335 -0.2758936 0.59548175 -0.6834646
0.7542621 0.27827764 0.6678914 0.26779532 0.1720821 0.6908006 -0.041649055 -0.0026428523
-0.123669915 -0.5342253 0.22279532 0.5395871 -0.430796 0.21192805 0.2951141 0.26087686
-0.7228953 -0.33567646 0.35670692 -0.35411322 -0.58579797 0.3013861 -0.32195243 0.55787194
00000000: 5c95 10bf 4e17 623e b0e3 07bf 188d 1b3f
00000010: 1ec3 09bf ed41 8dbe 7e71 183f 89f7 2ebf
00000020: 5217 413f 687a 8e3e eefa 2a3f 781c 893e
00000030: 4a36 303e 4fd8 303f 3398 2abd b433 2dbb
00000040: a746 fdbd fdc2 08bf 7524 643e 6122 0a3f
00000050: 4b91 dcbe ab03 593e 3219 973e a791 853e
00000060: ab0f 39bf c9dd abbe 4aa2 b63e 544e b5be
00000070: dbf6 15bf 474f 9a3e f3d6 a4be b2d0 0e3f

weight f4 [64, 32]
0.021512775 -0.016066307 0.021440355 -0.020469718 0.02145129 0.013296506 -0.020568984 0.021271853
-0.020243894 -0.012348017 -0.02033677 -0.011394978 -0.017825928 -0.020386646 0.016313262 -0.0030260317
0.036904614 0.021479646 -0.012849302 -0.02052203 0.021500995 -0.021982593 -0.011924727 -0.01193825
0.021100095 0.020015644 -0.02119232 0.020809349 0.021422215 -0.012662969 0.01802254 -0.020504255
0.057916533 -0.034058522 0.056913104 -0.06006789 0.057195544 0.03641543 -0.059758466 0.060078073
-0.061678387 -0.033427037 -0.060930423 -0.033571173 -0.056944188 -0.061222054 -0.08404837 0.049572863
0.010229443 0.056975402 -0.03376145 -0.058512095 0.05228842 -0.037172254 -0.035592057 -0.032476008
0.060479414 0.043172985 -0.042406686 0.04336159 0.058335092 -0.036075454 0.040071115 -0.059070952
0.00787812 0.028649984 0.007946796 -0.0054279347 0.007976935 0.008505067 -0.005441192 0.007881223
-0.0060669044 0.0060823117 -0.005670881 0.0037684583 0.09731467 -0.0056739245 0.0037677744 0.019605627
0.07739841 0.007876668 0.027913315 -0.0050208494 0.00801023 0.038857367 0.00014524063 0.010870175
0.007943107 0.008433361 -0.0045128176 0.008435021 0.008000122 -0.0007651792 0.007982051 -0.005223752
0.025604723 0.017938325 0.025687281 -0.017751584 0.025666302 0.027187744 -0.017535614 0.02513472
-0.01865026 -0.008533283 -0.01812404 -0.009826179 0.091965824 -0.018237976 -0.18457374 0.033581395
-0.09114039 0.025761252 0.017132843 -0.017091315 0.025925638 0.02789505 -0.011329372 -0.0052478146
0.025123646 0.026187003 -0.013839081 0.026126554 0.025468985 -0.011480995 0.02609648 -0.017172556
0.039640974 -0.083085306 0.040588237 -0.04317079 0.040473644 0.045772307 -0.043611247 0.037266243
-0.03938772 -0.06705165 -0.04145293 -0.06447195 -0.11042212 -0.040904164 0.07655796 0.010618328
0.19948651 0.04052581 -0.082598425 -0.046047546 0.043879528 -0.087776355 -0.06333212 -0.07018998
0.03670635 0.047622383 -0.058034442 0.04694136 0.039323047 -0.06293934 0.04639721 -0.045268446
0.008281674 0.023699556 0.008351886 -0.0025642314 0.00832889 0.009121333 -0.002503808 0.008191448
-0.0031545665 0.0036079877 -0.002817164 0.0026843608 0.098308474 -0.0029857324 -0.0936966 0.015308474
-0.0130347535 0.008433366 0.022491656 -0.0021784427 0.008601353 0.051648602 0.0015337644 0.005806877
0.008096487 0.008668155 -0.0004986038 0.0086957365 0.0082232375 0.001391491 0.0090483995 -0.0022647602
0.024395883 -0.019428315 0.023929372 -0.025962347 0.024179662 0.017705323 -0.025822686 0.025409065
-0.026813952 -0.019497134 -0.02631437 -0.019282902 -0.029489128 -0.026549254 -0.037096847 0.014802699
0.010836893 0.024006464 -0.019308116 -0.025167067 0.022594549 -0.020186773 -0.020376872 -0.01883212
0.025741644 0.019782046 -0.022368947 0.020912545 0.02465826 -0.020574173 0.01966817 -0.02535076
-0.08176299 0.2634238 -0.08402539 0.09084964 -0.08355225 -0.13790435 0.09160191 -0.07604722
0.083006054 0.18009458 0.0873354 0.17028944 0.26348642 0.08613772 -0.16652317 0.0010380024
-0.21052511 -0.083999135 0.26281103 0.096452974 -0.093505986 0.2883146 0.15234764 0.2013133
-0.07465654 -0.11198834 0.124282435 -0.105279535 -0.080731235 0.14855652 -0.11493068 0.094888315
00000000: 8f3b b03c 7d9d 83bc afa3 af3c 1cb0 a7bc
00000010: 9eba af3c 97d9 593c 4980 a8bc 4f42 ae3c
00000020: 86d6 a5bc 564f 4abc 4c99 a6bc 00b2 3abc
00000030: ae07 92bc e501 a7bc 64a3 853c 6350 46bb
00000040: 4b29 173d 15f6 af3c e185 52bc d11d a8bc
00000050: db22 b03c d714 b4bc ee5f 43bc a698 43bc
00000060: 1bda ac3c d9f7 a33c 849b adbc 5e78 aa3c
00000070: a47d af3c 5778 4fbc 01a4 933c 8af8 a7bc
00000080: e339 6d3d f380 0bbd b71d 693d bf09 76bd
00000090: e045 6a3d 5928 153d 4bc5 74bd 6d14 763d
000000a0: 7aa2 7cbd caea 08bd 2e92 79bd ed81 09bd
000000b0: 4f3e 69bd fac3 7abd 8d21 acbd ea0c 4b3d
000000c0: 6599 273c 0a5f 693d 7249 0abd 61aa 6fbd
000000d0: 622c 563d ef41 18bd fac8 11bd 9005 05bd
000000e0: 43b9 773d 28d6 303d a2b2 2dbd ec9b 313d
000000f0: c7f0 6e3d dbc3 13bd 9c21 243d 62f4 71bd
00000100: 3b13 013c 5fb3 ea3c 4733 023c d1dc b1bb
00000110: b1b1 023c d658 0b3c 074c b2bb 3f20 013c
00000120: e2cc c6bb 214e c73b ccd2 b9bb 3df8 763b
00000130: ea4c c73d 54ec b9bb c4ec 763b fb9b a03c
00000140: 0f83 9e3d 240d 013c 77aa e43c f085 a4bb
00000150: 573d 033c e728 1f3d bc4b 1839 d218 323c
00000160: ce23 023c 142c 0a3c 42e0 93bb 0b33 0a3c
00000170: f212 033c 4f96 48ba 26c7 023c 022c abbb
00000180: ffc0 d13c 65f3 923c 226e d23c c56b 91bc
00000190: 2342 d23c d5b8 de3c d9a6 8fbc 54e7 cd3c
000001a0: 6ec8 98bc 2fcf 0bbc de78 94bc fbfd 20bc
000001b0: 9458 bc3d cf67 95bc e600 3dbe a58c 093d
000001c0: d0a7 babd 4309 d33c 2d5a 8c3c 1603 8cbc
000001d0: 0162 d43c 2984 e43c d59e 39bc dcf5 abbb
000001e0: 1bd0 cd3c 2086 d63c 50bd 62bc 5b07 d63c
000001f0: 55a4 d03c c91a 3cbc 49c8 d53c 76ad 8cbc
00000200: 935e 223d a128 aabd da3f 263d dbd3 30bd
00000210: b1c7 253d be7b 3b3d b5a1 32bd 7da4 183d
00000220: 0555 21bd 6052 89bd 8cca 29bd df09 84bd
00000230: fe24 e2bd 208b 27bd 6bca 9c3d 7ff8 2d3c
00000240: 3146 4c3e 64fe 253d 5d29 a9bd 5a9c 3cbd
00000250: 05bb 333d 17c4 b3bd 45b4 81bd c4bf 8fbd
00000260: 6659 163d b00f 433d 86b5 6dbd 9545 403d
00000270: 3411 213d 57e6 80bd 000b 3e3d 686b 39bd
00000280: dcaf 073c 9225 c23c 59d6 083c aa0c 28bb
00000290: e675 083c a571 153c ed16 24bb 6c35 063c
000002a0: d8bc 4ebb fd73 6c3b 2ba0 38bb 1aec 2f3b
000002b0: f455 c93d 47ac 43bb 01e4 bfbd 65d0 7a3c
000002c0: b88f 55bc 1a2c 0a3c 6c40 b83c 34c4 0ebb
000002d0: b0ec 0c3c 7c8d 533d 9808 c93a 9d47 be3b
000002e0: 21a7 043c e104 0e3c bcb4 02ba 9078 0e3c
000002f0: c2ba 063c b162 b63a bd3f 143c 5f6c 14bb
00000300: e0d9 c73c 2128 9fbc 8807 c43c fdae d4bc
00000310: 6d14 c63c c10a 913c 198a d3bc ac26 d03c
00000320: efa8 dbbc 74b8 9fbc 3c91 d7bc 2df7 9dbc
00000330: 2f93 f1bc d27d d9bc ddf2 17bd 0587 723c
00000340: 398d 313c 34a9 c43c 0e2c 9ebc 2a2b cebc
00000350: 3418 b93c bb5e a5bc 66ed a6bc d145 9abc
00000360: 24e0 d23c f50d a23c 153f b7bc c950 ab3c
00000370: 1f00 ca3c 2b8b a8bc 241f a13c 66ac cfbc
00000380: 5b73 a7bd 7cdf 863e 8115 acbd 600f ba3d
00000390: 711d abbd cc36 0dbe c899 bb3d a5be 9bbd
000003a0: 14ff a93d b76a 383e e7dc b23d 5b60 2e3e
000003b0: b1e7 863e f968 b03d 0d85 2abe 950d 883a
000003c0: e593 57be bd07 acbd 2b8f 863e 2389 c53d
000003d0: 1180 bfbd f99d 933e 0501 1c3e 1325 4e3e
000003e0: 87e5 98bd 255a e5bd ca87 fe3d cc9c d7bd
000003f0: 6b56 a5bd 331f 183e c760 ebbd ce54 c23d

bias f4 [64]
0.019402249 0.08628896 -0.043686274 -0.17507061 -0.0037989789 -0.12762131 0.048328463 -0.11757401
-0.05503311 -0.115802765 -0.103419945 -0.12716071 0.04243864 -0.01420303 0.2079558 0.04343876
0.014507462 0.06780115 -0.15807359 -0.11568162 0.01458829 -0.15000957 0.0046420083 -0.037168406
-0.020225553 0.040905625 -0.019280918 0.007819075 -0.063745156 0.03398476 -0.12996377 0.03713708
-0.054100163 -0.14500134 -0.16908196 0.06783038 0.0611346 -0.16691023 -0.0017749493 0.03981178
-0.059176695 -0.19204436 -0.096308745 0.089225665 -0.105144694 -0.09645426 -0.10004169 -0.08223523
0.06039998 -0.13279773 0.022817532 -0.03167525 0.042617235 0.08232971 -0.0060379663 0.062726565
0.061888024 0.03840947 -0.14909814 0.07031491 0.078743175 -0.14332256 -0.028565064 0.027950943
00000000: 77f1 9e3c 44b8 b03d 61f0 32bd b645 33be
00000010: 4af8 78bb 29af 02be 11f4 453d a4ca f0bd
00000020: 666a 61bd 002a edbd d6cd d3bd 6b36 02be
00000030: 24d4 2d3d d3b3 68bc 5ef2 543e d7ec 313d
00000040: b5b0 6d3c 54db 8a3d 0bde 21be 7cea ecbd
00000050: b903 6f3c 1c9c 19be fd1b 983b e63d 18bd
00000060: 0fb0 a5bc a88c 273d 04f3 9dbc 941b 003c
00000070: d28c 82bd 9b33 0b3d 3915 05be 0d1d 183d
00000080: 2298 5dbd 3b7b 14be d223 2dbe a7ea 8a3d
00000090: 4668 7a3d 84ea 2abe 6aa5 e8ba ad11 233d
000000a0: 4363 72bd 47a7 44be 853d c5bd f2bb b63d
000000b0: 1a56 d7bd d089 c5bd a8e2 ccbd f26a a8bd
000000c0: f865 773d 21fc 07be d5eb ba3c e8bd 01bd
000000d0: 698f 2e3d 7b9c a83d 22da c5bb c976 803d
000000e0: 4c7e 7d3d 4053 1d3d 2fad 18be 4301 903d
000000f0: 1a44 a13d 26c3 12be 4801 eabc 60f9 e43c

weight f4 [32, 64]
0.008084923 0.0032359548 0.0355408 0.0119634 0.026190672 -0.003821186 0.007228106 0.07038727
0.019170059 0.037793867 0.0287212 0.006279632 0.0071559614 0.022830395 -0.01966438 0.004706757
-0.007555086 0.0033553825 0.021173565 0.02816122 0.016734492 0.019069243 0.027045539 0.009497049
0.020462293 0.010478817 0.014728031 0.016579771 0.0015810637 0.00519605 0.042001408 0.011479546
0.008322035 0.008474396 0.039150454 0.0016922585 0.005411829 0.046068687 0.036004405 -0.004021183
0.010012899 0.039212983 0.04756366 -0.0036759914 0.019417088 0.026292253 -0.00016069564 0.041945234
0.0065012667 0.040782273 0.004244438 0.014507262 0.006031063 0.00081436796 0.011079228 0.0019699505
0.0058705597 0.005500986 0.006095517 0.0027227306 0.002636918 0.014659309 0.04408206 0.0053329538
-0.025060922 -0.055520877 -0.026982356 0.007823472 0.002800789 -0.033145417 -0.0008827061 -0.18594642
0.050005868 -0.015778594 -0.007834047 0.0085859485 -0.030910667 -0.027879167 -0.015787726 -2.9375047e-05
0.008390127 -0.005000491 -0.025037177 -0.05027216 0.0078701805 -0.022063429 0.0014837441 -0.019113772
-0.00358512 0.00044332017 0.0009426865 0.006208932 -0.0037230344 -0.006358412 -0.056196682 -0.027224725
-0.022735473 0.013389287 -0.07331905 -0.028162442 -0.010065238 -0.015190756 -0.059677735 -0.030694684
-0.020792704 -0.047251847 -0.009656079 0.017204478 -0.017947957 -0.04019018 -0.018650075 -0.023942854
0.009203166 -0.038478926 -0.02887817 -0.018599356 0.0048471536 -0.0315551 0.01446068 -0.009107278
-0.049454384 0.010189794 0.02921798 0.0037403968 -0.048015423 -0.0146616325 -0.03913682 -0.008816977
-0.028226336 -0.032456186 0.0013238811 0.0443267 -0.08220872 0.05018607 -0.031635083 0.10094059
-0.0039470214 0.0124046635 0.038211133 0.01264351 -0.0348848 0.0094819665 -0.13078715 -0.024460815
-0.0010069537 -0.031184148 0.06460366 0.033184115 -0.013369674 0.030908445 -0.072853826 0.002410086
-0.054852504 -0.040682312 -0.0051456364 -0.047041617 0.020065729 -0.030140193 0.06501779 -0.035392415
-0.019297397 0.034407962 0.04985478 -0.04064002 -0.033322603 0.0107061 -0.05566321 -0.028247636
-0.019973263 0.06775602 -0.014061823 -0.04070423 0.04128286 0.080915034 0.02891733 -0.013357823
-0.03250576 0.059021216 -0.027899796 -0.01187988 -0.030314714 -0.026367756 -0.02910877 -0.02909127
-0.036028776 -0.030819785 0.008352643 -0.026310155 -0.038316138 0.019866092 -0.070442386 -0.037336428
0.011776183 0.0037849545 0.041171428 0.0280366 0.031317517 0.02365464 0.004867979 0.007947799
0.018053064 0.034976248 0.022100154 0.00071459834 0.0056838207 0.022659037 -0.029092586 0.0035350807
0.0012616006 0.0039508664 0.03425475 0.010905841 0.008569386 0.009506778 0.025445161 0.026791766
0.016262498 0.010967975 0.008311449 0.016086334 -0.020158557 0.005353227 0.010002792 0.008372953
0.013898684 0.021836983 -0.01924783 0.0049601393 0.006409532 0.05540417 0.013433657 0.003916309
0.016524784 -0.027831273 0.048322074 0.0071747024 0.011357541 0.028494745 0.00038038954 0.04484129
0.0048129866 0.018808143 0.007993656 0.019836701 0.0056354217 0.0025062305 0.008884046 0.004237226
0.0050007715 0.004847485 0.0059868954 0.0031646504 0.0054052584 0.003840689 -0.014354181 0.0056855823
00000000: a076 043c 5012 543b 3b93 113d 2302 443c
00000010: d28d d63c dd6c 7abb bfd9 ec3b 3327 903d
00000020: 870a 9d3c becd 1a3d b948 eb3c 5fc5 cd3b
00000030: 8e7c ea3b cf06 bb3c 3217 a1bc 243b 9a3b
00000040: a890 f7bb fae5 5b3b 2f74 ad3c 5cb2 e63c
00000050: c616 893c 1a37 9c3c 9b8e dd3c 8399 1b3c
00000060: 8aa0 a73c 58af 2b3c d74d 713c 4dd2 873c
00000070: b23b cf3a a043 aa3b ab09 2c3d b514 3c3c
00000080: 2559 083c 31d8 0a3c 3a5c 203d c6ce dd3a
00000090: b655 b13b 85b2 3c3d 5b79 133d 21c4 83bb
000000a0: 240d 243c cb9d 203d 1dd2 423d e7e8 70bb
000000b0: 9610 9f3c da62 d73c 6880 28b9 c4ce 2b3d
000000c0: 9408 d53b 500b 273d ed14 8b3b deaf 6d3c
000000d0: 39a0 c53b 4f7b 553a a685 353c 491a 013b
000000e0: d35d c03b 9d41 b43b e7bc c73b d76f 323b
000000f0: 25d0 2c3b 992d 703c 648f 343d 0fc0 ae3b
00000100: 904c cdbc dc69 63bd 1a0a ddbc 052e 003c
00000110: 718d 373b 7dc3 07bd 6765 67ba bd68 3ebe
00000120: f4d2 4c3d 1c42 81bc 605a 00bc 14ac 0c3c
00000130: 5e38 fdbc da62 e4bc 4355 81bc 6f6a f6b7
00000140: be76 093c 29db a3bb c41a cdbc 2eea 4dbd
00000150: eef1 003c 5dbe b4bc 317a c23a 7c94 9cbc
00000160: 55f4 6abb 6d6d e839 9f1e 773a 4c74 cb3b
00000170: 27fe 73bb 3a5a d0bb 7e2e 66bd 6306 dfbc
00000180: be3f babc bd5e 5b3c 4c28 96bd ecb4 e6bc
00000190: abe8 24bc a6e2 78bc a470 74bd 6b73 fbbc
000001a0: 7655 aabc 278b 41bd 8834 1ebc 68f0 8c3c
000001b0: 9807 93bc 759e 24bd 0bc8 98bc ce23 c4bc
000001c0: e0c8 163c 149c 1dbd e991 ecbc ad5d 98bc
000001d0: dfd4 9e3b ec3f 01bd 7dec 6c3c b136 15bc
000001e0: ae90 4abd 18f3 263c 8c5a ef3c 7221 753b
000001f0: d2ab 44bd 5837 70bc ee4d 20bd 1575 10bc
00000200: eb3a e7bc c7f0 04bd 1486 ad3a ea8f 353d
00000210: 0c5d a8bd e98f 4d3d ca93 01bd f1b9 ce3d
00000220: 0456 81bb ee3c 4b3c 4783 1c3d b926 4f3c
00000230: 5de3 0ebd 405a 1b3c 11ed 05be 0c62 c8bc
00000240: c2fb 83ba e675 ffbc ec4e 843d 11ec 073d
00000250: 7a0c 5bbc b533 fd3c 6334 95bd 89f2 1d3b
00000260: 05ad 60bd 7fa2 26bd ba9c a8bb b6ae 40bd
00000270: e260 a43c 91e8 f6bc 0c28 853d a3f7 10bd
00000280: 9315 9ebc 5def 0c3d 8734 4c3d 2676 26bd
00000290: 487d 08bd a368 2f3c 1bff 63bd 9667 e7bc
000002a0: f89e a3bc abc3 8a3d 8f63 66bc 7bb9 26bd
000002b0: 3718 293d c8b6 a53d 09e4 ec3c c5da 5abc
000002c0: c324 05bd 3bc0 713d 1d8e e4bc d4a3 42bc
000002d0: 9056 f8bc 3101 d8bc 8475 eebc d150 eebc
000002e0: e992 13bd c679 fcbc 86d9 083c 6588 d7bc
000002f0: 62f1 1cbd 37be a23c 1944 90bd 15ee 18bd
00000300: e4f0 403c 000d 783b 5fa3 283d 03ad e53c
00000310: cc46 003d 60c7 c13c 9183 9f3b 7c37 023c
00000320: 05e4 933c 4143 0f3d 620b b53c e253 3b3a
00000330: 583f ba3b 729f b93c 9353 eebc d0ac 673b
00000340: 4b5c a53a 4576 813b b54e 0c3d 6aae 323c
00000350: 9c66 0c3c 51c2 1b3c 5f72 d03c 687a db3c
00000360: ee38 853c 05b3 333c be2c 083c 7dc7 833c
00000370: 8f23 a5bc 1f6a af3b c0e2 233c b62e 093c
00000380: 4eb7 633c 79e3 b23c a0ad 9dbc aa88 a23b
00000390: 0d07 d23b 7cef 623d d718 5c3c 6254 803b
000003a0: fc5e 873c 69fe e3bc 5eed 453d c419 eb3b
000003b0: fb14 3a3c d06d e93c 056f c739 80ab 373d
000003c0: 42b6 9d3b 8913 9a3c d3f7 023c 9480 a23c
000003d0: 58a9 b83b 923f 243b 648e 113c 6ed8 8a3b
000003e0: 83dd a33b a7d7 9e3b b82d c43b 0666 4f3b
000003f0: 981e b13b 12b4 7b3b cc2d 6bbc 1f4e ba3b

bias f4 [32]
-0.030624356 0.051321145 0.033805538 -0.018365808 -0.20382388 -0.31532443 -0.19506928 -0.062314615
-0.118469395 -0.056934938 0.065224715 -0.013646277 -0.08786188 0.008376266 -0.12602994 7.9230434e-05
-0.065235205 -0.29393455 0.039404437 -0.19682913 -0.08250297 -0.34967166 -0.05110145 -0.14794424
-0.07774864 -0.24165304 -0.06182613 -0.30565536 0.110326074 -0.11330847 0.027789246 0.09523712
00000000: eedf fabc 1f36 523d ad77 0a3d e473 96bc
00000010: 35b7 50be 3472 a1be 3ec0 47be 9c3d 7fbd
00000020: 15a0 f2bd 9c34 69bd 8994 853d a294 5fbc
00000030: eef0 b3bd 9b3c 093c fe0d 01be 8428 a638
00000040: 099a 85bd 977e 96be 8c66 213d 938d 49be
00000050: 51f7 a8bd 2a08 b3be c14f 51bd b27e 17be
00000060: ae3a 9fbd e573 77be 653d 7dbd dc7e 9cbe
00000070: a3f2 e13d 450e e8bd 46a6 e33c ae0b c33d

weight f4 [32, 1]
0.4800294 0.47144377 0.47409093 0.0484504 0.5968245 0.2250592 -0.47596234 -0.42837846
-0.49283767 0.4680342 0.46824437 0.4720473 0.28310516 -0.38725826 0.41097614 -0.5444675
0.47418693 -0.48052585 0.40973732 0.47950405 -0.09314422 -0.41508317 0.54856515 -0.4456173
0.4628684 -0.24553196 0.5851237 0.47258878 0.39656833 0.44266567 -0.47531578 0.46984825
00000000: 6ac6 f53e 1461 f13e 0cbc f23e ed73 463d
00000010: 7ec9 183f eb75 663e 56b1 f3be 6c54 dbbe
00000020: 3855 fcbe 2ea2 ef3e babd ef3e 2fb0 f13e
00000030: 29f3 903e b746 c6be 776b d23e 3962 0bbf
00000040: a1c8 f23e 7c07 f6be 17c9 d13e 8e81 f53e
00000050: 66c2 bebd c885 d4be c46e 0c3f f327 e4be
00000060: 16fd ec3e bb6c 7bbe abca 153f 28f7 f13e
00000070: 010b cb3e 13a5 e23e 975c f3be f38f f03e

bias f4 [32]
-0.5108017 -0.48404476 -0.7537276 0.17194486 -0.37977687 0.11999154 0.9216699 -0.017954124
0.7268754 -0.94467944 -0.89868665 -0.7835261 0.10174603 -0.025168307 0.029727045 0.5487275
-0.7489808 0.8413868 0.03109697 -0.68818104 0.20164044 -0.023962146 -0.37753144 -0.021811383
-0.0009840047 -0.088568985 -0.471191 -0.004155651 0.043688346 -0.0003869601 0.9344508 -0.8229936
00000000: e6c3 02bf b7d4 f7be 4bf4 40bf 5012 303e
00000010: 1d72 c2be 20be f53d 8ff2 6b3f 8714 93bc
00000020: 8214 3a3f 83d6 71bf 5410 66bf 2b95 48bf
00000030: 3960 d03d c42d cebc 2286 f33c 6879 0c3f
00000040: 35bd 3fbf 2065 573f 13bf fe3c a22c 30bf
00000050: d57a 4e3e 434c c4bc cd4b c1be c9ad b2bc
00000060: b8f9 80ba a863 b5bd f23f f1be 212c 88bb
00000070: 8df2 323d e8e0 cab9 2b38 6f3f b5af 52bf

weight f4 [64, 32]
0.1088742 0.11297452 0.092389554 -0.045601875 0.67408925 -0.03453336 -0.09187216 0.019377194
-0.10104161 0.08745232 0.08858724 0.091485366 -0.032529503 0.0182027 -0.03802091 -0.114396684
0.092543304 -0.09511633 -0.037823804 0.09456362 -0.05422369 0.017728597 0.5863535 0.032560565
-0.07418923 0.027147166 0.2766689 -0.18820496 -0.035208173 -0.051863667 -0.09141421 0.09041964
0.03850219 0.014147544 0.022070274 0.029160157 0.041440003 0.048184726 -0.018982183 -0.1895832
-0.020851092 0.020844556 0.021122225 0.02194797 0.059787318 -0.1253258 0.12996611 -0.033465106
0.022276524 -0.019182095 0.12850466 0.023373207 0.017653558 -0.16416351 0.048834637 -0.24869926
0.21608321 -0.053546153 0.04523725 0.31440145 0.11544656 0.17455792 -0.018953444 0.021547431
0.08041946 0.08986558 0.03873768 0.002255313 0.5600471 0.010021559 -0.02822515 0.0013162914
-0.04218387 0.029144997 0.030757666 0.036810257 0.009319876 -0.005868577 -0.013002352 -0.08616091
0.039067246 -0.03268354 -0.012456779 0.044100493 -0.011723889 -0.0020703548 0.51070863 0.012832206
-0.07180134 -0.0075329645 0.16615857 -0.17351735 -0.006645944 -0.038529783 -0.027589818 0.034299716
-0.004336323 0.012201099 -0.010748421 -0.0064717415 0.1560259 -0.017560817 0.014797748 0.039142434
0.01206989 -0.013218763 -0.012625064 -0.011165529 -0.025549414 0.028140707 -0.07568413 0.008251877
-0.010590311 0.013739866 -0.074663304 -0.009523641 -0.0016296973 0.03580905 0.12188775 0.04862675
-0.14137365 0.009099521 0.06270389 -0.22854955 -0.06508369 -0.109261684 0.014967068 -0.011807142
0.082442544 0.089597896 0.053990167 -0.009658217 0.68138516 0.00075971993 -0.052586544 -0.021985976
-0.06498976 0.04625676 0.04758957 0.052394025 0.00057297136 -0.01990412 -0.016353836 -0.09382091
0.054093737 -0.056696467 -0.0159348 0.05781269 -0.023934985 -0.021684214 0.6052337 -0.016110327
-0.05452757 -0.012462337 0.30743936 -0.13610989 -0.011799492 -0.03368232 -0.05193964 0.05059736
0.0081944605 -0.0118006505 0.008984753 0.025425093 -0.13967717 0.0397735 -0.009669905 -0.16112676
-0.007855645 0.010442123 0.010224187 0.009263183 0.0492193 -0.106638744 0.109310344 -0.008073737
0.008920404 -0.008847786 0.10820314 0.008567274 0.018147489 -0.13984907 -0.08988255 -0.21158524
0.18219966 -0.045457784 -0.044529743 0.26690573 0.09704952 0.14720877 -0.009728822 0.009738261
0.11175554 0.116301425 0.08086497 -0.022544323 0.7614446 -0.0056543904 -0.08082134 -0.035651494
-0.09438229 0.072759114 0.07416526 0.07914636 -0.0035513532 -0.027954685 -0.008087441 -0.12502092
0.08113773 -0.08535282 -0.0078988895 0.08516435 -0.04130008 -0.033763897 0.64588314 -0.031410843
-0.035642285 -0.010122326 0.32765377 -0.11507569 -0.0057019955 -0.019086065 -0.080191545 0.07737493
0.06843094 0.07571821 0.041500077 -0.013708626 0.20230429 -0.0043058055 -0.03566487 0.00050701626
-0.04428361 0.035705652 0.036754053 0.04029015 -0.0020670563 -0.0015662836 -0.00032588767 -0.07169988
0.041767403 -0.0383524 -0.00022039829 0.0451421 -0.02280347 -0.002182662 0.23057106 0.00493255
-0.010095381 0.0034767364 0.09747771 -0.049567226 -7.90784e-05 -0.0030636047 -0.035299156 0.03893927
00000000: 70f9 de3d 2f5f e73d bc36 bd3d 08c9 3abd
00000010: 1d91 2c3f da72 0dbd 7927 bcbd ecbc 9e3c
00000020: e7ee cebd 341a b33d 3a6d b53d ae5c bb3d
00000030: a83d 05bd d41d 953c d0bb 1bbd cf48 eabd
00000040: 5887 bd3d 5acc c2bd 22ed 1abd 92aa c13d
00000050: a919 5ebd 903b 913c 431b 163f 3a5e 053d
00000060: 86f0 97bd bc63 de3c 8ca7 8d3e cdb8 40be
00000070: 7236 10bd ff6e 54bd 6037 bbbd ef2d b93d
00000080: 79b4 1d3d 1acb 673c b8cc b43c 48e1 ee3c
00000090: febc 293d 595d 453d 8680 9bbc 1922 42be
000000a0: e9cf aabc 34c2 aa3c 8408 ad3c 3bcc b33c
000000b0: 8ce3 743d 6855 00be d615 053e b512 09bd
000000c0: 427d b63c c523 9dbc ba96 033e 2b79 bf3c
000000d0: 329e 903c 7b1a 28be d406 483d 05ab 7ebe
000000e0: eb44 5d3e 3653 5bbd b24a 393d 3af9 a03e
000000f0: 3f6f ec3d 50bf 323e 4144 9bbc 3d84 b03c
00000100: f5b2 a43d 720b b83d 67ab 1e3d e0cd 133b
00000110: 3f5f 0f3f 7731 243c 6e38 e7bc 6987 ac3a
00000120: fec8 2cbd 7dc1 ee3c 80f7 fb3c 5ac6 163d
00000130: 65b2 183c 314d c0bb d107 55bc 2275 b0bd
00000140: fa04 203d 2ddf 05bd 8517 4cbc b8a2 343d
00000150: 8e15 40bc caae 07bb cdbd 023f 2c3e 523c
00000160: 950c 93bd 16d7 f6bb 7925 2a3e 88ae 31be
00000170: 38c6 d9bb 68d1 1dbd 0b04 e2bc dc7d 0c3d
00000180: b717 8ebb 1ee7 473c 251a 30bc e710 d4bb
00000190: 41c5 1f3e b4db 8fbc 4172 723c d153 203d
000001a0: cac0 453c 8393 58bc 5bd9 4ebc 9fef 36bc
000001b0: 014d d1bc 5787 e63c 4800 9bbd e132 073c
000001c0: fc82 2dbc 2d1d 613c 13e9 98bd 0c09 1cbc
000001d0: 919b d5ba 83ac 123d 49a0 f93d d82c 473d
000001e0: 41c4 10be 2816 153c e66a 803d e508 6abe
000001f0: 994a 85bd 97c4 dfbd 6f38 753c be72 41bc
00000200: a3d7 a83d 1a7f b73d cb24 5d3d 803d 1ebc
00000210: 426f 2e3f f127 473a fd64 57bd ef1b b4bc
00000220: 5a19 85bd ba77 3d3d 48ed 423d 1e9b 563d
00000230: 7533 163a f70d a3bc 7bf8 85bc 2d25 c0bd
00000240: 6591 5d3d 8e3a 68bd b389 82bc 00cd 6c3d
00000250: 4d13 c4bc 18a3 b1bc 99f0 1a3f cef9 83bc
00000260: 4d58 5fbd d42e 4cbc b168 9d3e 6460 0bbe
00000270: a852 41bc 79f6 09bd a9be 54bd 2d3f 4f3d
00000280: 0f42 063c 8457 41bc c934 133c 4948 d03c
00000290: 8807 0fbe 8ae9 223d 856e 1ebc 6afe 24be
000002a0: f7b4 00bc 7015 2b3c 5983 273c 9bc4 173c
000002b0: 2d9a 493d 6a65 dabd 1ade df3d b547 04bc
000002c0: e326 123c 4ef6 10bc 9c99 dd3d c05d 0c3c
000002d0: 0baa 943c 9834 0fbe 5814 b8bd cda9 58be
000002e0: 8c92 3a3e f131 3abd d264 36bd dea7 883e
000002f0: e6c1 c63d e5bd 163e a365 1fbc 3a8d 1f3c
00000300: 17e0 e43d 712f ee3d 899c a53d dfae b8bc
00000310: 09ee 423f 7748 b9bb a985 a5bd 4d07 12bd
00000320: 814b c1bd bb02 953d f5e3 973d 7d17 a23d
00000330: d2bd 68bb 3901 e5bc 3081 04bc 7c05 00be
00000340: 8a2b a63d 76cd aebd 586a 01bc a66a ae3d
00000350: 462a 29bd 034c 0abd 9958 253f a8a8 00bd
00000360: a5fd 11bd 1dd8 25bc 3cc2 a73e ceac ebbd
00000370: ced7 babb 615a 9cbc 773b a4bd bf76 9e3d
00000380: 8525 8c3d 2612 9b3d fcfb 293d 259a 60bc
00000390: db28 4f3e b717 8dbb 5415 12bd 49e9 043a
000003a0: bb62 35bd 1740 123d 6b8b 163d 4907 253d
000003b0: 7377 07bb c24b cdba e7db aab9 63d7 92bd
000003c0: 4c14 2b3d 6817 1dbd b71a 67b9 ece6 383d
000003d0: 58ce babc fe0a 0fbb d21a 6c3e 3aa1 a13b
000003e0: 1967 25bc f5d9 633b 65a2 c73d 0107 4bbd
000003f0: e5d6 a5b8 c2c6 48bb d995 10bd c97e 1f3d

bias f4 [64]
-0.08107922 0.020633616 -0.07458989 -0.07773753 -0.14635742 0.00034082134 -0.18927372 -0.026715396
0.08267928 0.16557065 -0.08515076 -0.24225089 -0.13849004 0.07654886 0.052602977 -0.06433643
0.046737853 0.0811257 0.14208265 -0.14539889 0.02185572 -0.067384735 0.07377774 -0.07803046
0.038465746 -0.16081722 -0.09679205 -0.06826197 0.040981337 -0.12310718 0.24110241 -0.08414464
0.019513426 0.024093045 0.07382886 0.0277144 0.21528938 -0.118014544 0.09831499 0.07712663
0.016264135 -0.09513813 0.0904269 -0.069735445 0.02547896 0.04189505 -0.05211822 -0.07414359
-0.08775162 -0.14491981 0.006356188 -0.09546153 0.005799607 -0.11205488 -0.16028602 -0.09556436
0.02655597 0.20316994 0.05568765 -0.08477585 -0.08012851 -0.004731147 0.07228691 0.0042220238
00000000: dd0c a6bd d407 a93c 96c2 98bd db34 9fbd
00000010: b8de 15be 44b0 b239 f8d0 41be 3fda dabc
00000020: c153 a93d 5a8b 293e 8663 aebd 9e10 78be
00000030: 55d0 0dbe a6c5 9c3d 3876 573d d1c2 83bd
00000040: 3170 3f3d 3b25 a63d 1d7e 113e 72e3 14be
00000050: c40a b33c 0201 8abd c918 973d 6fce 9fbd
00000060: 428e 1d3d 45ad 24be e93a c6bd efcc 8bbd
00000070: 0cdc 273d 9e1f fcbd 8de3 763e 0654 acbd
00000080: 9fda 9f3c c75e c53c 9633 973d 4f09 e33c
00000090: d274 5c3e 9cb1 f1bd 5f59 c93d 91f4 9d3d
000000a0: 5d3c 853c c8d7 c2bd bd31 b93d 75d1 8ebd
000000b0: 40b9 d03c 259a 2b3d ea79 55bd 98d8 97bd
000000c0: 1fb7 b3bd dc65 14be 9247 d03b 5681 c3bd
000000d0: a10a be3b 077d e5bd 0522 24be 3fb7 c3bd
000000e0: e88b d93c c80b 503e bc18 643d f69e adbd
000000f0: 6b1a a4bd bd07 9bbb 290b 943d e758 8a3b

weight f4 [32, 64]
0.038634136 -0.10874342 0.04144146 0.07301879 0.04564299 -0.09260128 0.043400466 0.045567017
-0.2763108 -0.04468591 0.07859916 0.041738342 0.046627246 -0.27686808 -0.1337073 0.083834946
-0.13688041 -0.2744712 -0.04791829 0.045754958 -0.09729967 0.10629181 -0.27679646 0.09486057
-0.11763264 0.045620546 0.04629514 0.036977373 -0.1208538 0.04464635 -0.04179172 0.07621954
-0.11205729 -0.08619165 -0.09886006 -0.11839378 -0.043160357 0.04843813 -0.2854188 -0.14149103
-0.08831096 0.037388276 -0.06049161 0.03696335 -0.11548165 -0.12736776 -0.005106786 0.03467736
0.072806686 0.045812864 -0.08411008 0.07696497 -0.100682534 0.049450584 0.044819575 0.046485174
-0.10741253 -0.042800635 -0.13031462 0.005895046 0.06724374 -0.08332825 -0.10335845 -0.08879927
-0.09788932 -0.18588382 -0.069368295 -0.04081867 -0.1286796 -0.1396938 -0.15900914 -0.076319516
0.43493703 0.1420279 0.0055799754 -0.19029571 -0.120666385 0.43207896 -0.24376158 0.0009325227
-0.3451931 0.43264017 0.11823399 -0.12840039 -0.11945406 -0.024299966 0.43275958 -0.022530619
-0.24015443 -0.13532889 -0.12598278 -0.10774205 -0.234049 -0.13657789 0.1887349 -0.056149498
-0.25211486 -0.027968172 -0.0513997 -0.277729 0.17127724 -0.10399532 0.43188846 0.23367971
-0.0703981 -0.11567792 0.05552883 -0.10867121 -0.28171706 -0.2488008 -0.09789259 -0.06739283
-0.046161737 -0.12733808 -0.07057931 -0.064907216 -0.20775233 -0.0977969 -0.13875292 -0.12530537
-0.16572358 0.1678396 -0.17313133 -0.12259477 -0.03748278 -0.11444719 -0.065333076 -0.13138747
0.0010144552 -0.04826335 0.0019819145 0.00951861 -0.0030544798 -0.026040362 -0.009341685 -0.0033437135
0.07400343 0.00671027 -0.00782875 -0.015264182 -0.0012472676 0.07362594 -0.06412804 -0.0015496413
-0.059813395 0.0730259 0.0018488345 -0.0030286286 -0.034192752 -0.008782669 0.074071765 -0.0003759411
-0.0567694 -0.004473568 -0.0041980664 0.001530048 -0.04898802 -0.003993703 0.015162241 0.001956249
-0.04435222 -0.0058615967 -0.035058036 -0.053859472 0.012069022 0.0024506259 0.08207955 0.05187214
-0.012516986 -1.7361297e-05 -0.011072131 0.001461036 -0.05946405 -0.056317568 0.0028128568 0.0018526241
0.009131748 -0.0027782263 -0.015031378 -0.00069066166 -0.04129146 0.0039311205 -0.005160943 -0.0039399937
-0.04687455 0.011338734 -0.05348041 -5.9560767e-05 0.010868455 -0.0066130473 -0.03762422 -0.027777825
0.022071965 -0.040158115 0.005997134 0.0298201 0.034213174 -0.023346 0.036836103 0.045334537
-0.20726092 -0.035226937 0.049081113 0.038417105 0.03341564 -0.20699084 -0.064904355 0.038663454
-0.06862986 -0.20570889 -0.033759464 0.034001 -0.032047413 0.05288101 -0.20696773 0.04658245
-0.049507678 0.035270702 0.03339392 0.018718727 -0.055101927 0.04045463 -0.037856027 0.03793843
-0.041394655 -0.030204684 -0.03893599 -0.049787696 -0.03806181 0.03102697 -0.22884716 -0.117444895
-0.025396395 0.019565571 -0.024358232 0.018786673 -0.045705304 -0.059333187 -0.016276015 0.0017255775
0.031450488 0.033935837 -0.021289239 0.039262958 -0.028717734 0.030037375 0.03520903 0.033120688
-0.041008916 -0.036921196 -0.06249989 -0.014881413 0.030239308 -0.015028439 -0.04234977 -0.021562234
00000000: d43e 1e3d dfb4 debd 85be 293d e08a 953d
00000010: 25f4 3a3d bda5 bdbd b0c4 313d 7ba4 3a3d
00000020: 9c78 8dbe 9308 37bd 99f8 a03d d3f5 2a3d
00000030: 36fc 3e3d a7c1 8dbe 91ea 08be a8b1 ab3d
00000040: 612a 0cbe 7d87 8cbe f845 44bd 8d69 3b3d
00000050: 0d45 c7bd 85af d93d 44b8 8dbe 4246 c23d
00000060: 62e9 f0bd 9cdc 3a3d f99f 3d3d 9675 173d
00000070: 3282 f7bd 17df 363d cb2d 2bbd fd18 9c3d
00000080: 4b7e e5bd 3f85 b0bd 2577 cabd 7078 f2bd
00000090: eac8 30bd 1067 463d 6a22 92be 06e3 10be
000000a0: 60dc b4bd 7324 193d 0dc6 77bd e266 173d
000000b0: a581 ecbd b26c 02be d356 a7bb d909 0e3d
000000c0: ac1b 953d 45a6 3b3d e841 acbd cf9f 9d3d
000000d0: a532 cebd b28c 4a3d bb94 373d 3d67 3e3d
000000e0: 1afb dbbd b84f 2fbd 3271 05be 3b2b c13b
000000f0: 16b7 893d 00a8 aabd 98ad d3bd 64dc b5bd
00000100: 327a c8bd 5458 3ebe f710 8ebd 7a31 27bd
00000110: 96c4 03be e40b 0fbe 4bd3 22be 684d 9cbd
00000120: 11b0 de3e c36f 113e 3ad8 b63b e1dc 42be
00000130: f01f f7bd 7439 dd3e a39c 79be 8a74 743a
00000140: 26bd b0be 0383 dd3e aa24 f23d 647b 03be
00000150: 55a4 f4bd b910 c7bc aa92 dd3e 2292 b8bc
00000160: 0beb 75be a893 0abe a101 01be dda7 dcbd
00000170: 8baa 6fbe 13db 0bbe b943 413e 04fd 65bd
00000180: 3315 81be 821d e5bc 7e88 52bd 7f32 8ebe
00000190: 4d63 2f3e 80fb d4bd 7c20 dd3e bc49 6f3e
000001a0: e12c 90bd 8ce8 ecbd 3372 633d 038f debd
000001b0: 383d 90be a3c5 7ebe e97b c8bd 4105 8abd
000001c0: 1714 3dbd ea64 02be e38b 90bd 13ee 84bd
000001d0: 07bd 54be be49 c8bd 3f15 0ebe 0d50 00be
000001e0: 71b3 29be 25de 2b3e 5749 31be f712 fbbd
000001f0: 8b87 19bd 4a63 eabd 59cd 85bd 708a 06be
00000200: 78f7 843a caaf 45bd 02e3 013b f2f3 1b3c
00000210: ab2d 48bb 9952 d5bc de0d 19bc 3422 5bbb
00000220: 1c8f 973d d3e1 db3b 2844 00bc 9f16 7abc
00000230: 5b7b a3ba 32c9 963d 9055 83bd 551d cbba
00000240: e4fe 74bd 9a8e 953d 9754 f23a f57b 46bb
00000250: b30d 0cbd 2fe5 0fbc f0b2 973d f619 c5b9
00000260: 0887 68bd 0297 92bb ef8f 89bb e48b c83a
00000270: a9a7 48bd 9cdd 82bb 0c6b 783c 6934 003b
00000280: acaa 35bd a312 c0bb 0499 0fbd c09b 5cbd
00000290: 26bd 453c ae9a 203b 5319 a83d e277 543d
000002a0: 0b14 4dbc 1aa3 91b7 e267 35bc 3c80 bf3a
000002b0: 9390 73bd 40ad 66bd e857 383b c0d3 f23a
000002c0: 549d 153c e712 36bb 2b46 76bc 850d 35ba
000002d0: 3c21 29bd a1d0 803b 211d a9bb 101b 81bb
000002e0: 87ff 3fbd 19c6 393c 460e 5bbd e3d0 79b8
000002f0: 9b11 323c 43b2 d8bb db1b 1abd 528e e3bc
00000300: 44d0 b43c d67c 24bd 9b83 c43b 4849 f43c
00000310: 1d23 0c3d 1c40 bfbc 74e1 163d b5b0 393d
00000320: 353c 54be 1f4a 10bd 4709 493d 415b 1d3d
00000330: d7de 083d 68f5 53be 93ec 84bd 925d 1e3d
00000340: d08d 8cbd 5aa5 52be 5d47 0abd a244 0b3d
00000350: 2644 03bd c299 583d 59ef 53be 3dcd 3e3d
00000360: 90c8 4abd 0378 103d 10c8 083d 0458 993c
00000370: 8fb2 61bd c1b3 253d ec0e 1bbd 5465 1b3d
00000380: 718d 29bd d06f f7bc 587b 1fbd 2fee 4bbd
00000390: b3e6 1bbd 462c fe3c e956 6abe f386 f0bd
000003a0: 1a0c d0bc fa47 a03c ea8a c7bc 82e6 993c
000003b0: 7c35 3bbd 5b07 73bd 4755 85bc c62c e23a
000003c0: 3ad2 003d 4e00 0b3d c566 aebc 32d2 203d
000003d0: 7441 ebbc f110 f63c 5837 103d 8fa9 073d
000003e0: f7f8 27bd ae3a 17bd e2ff 7fbd 2cd1 73bc
000003f0: 6db8 f73c d839 76bc f476 2dbd 48a3 b0bc

bias f4 [32]
-0.13949299 0.26302364 0.13747832 -0.1242078 0.24933296 -0.07675972 -0.20156178 0.08328028
-0.08519762 -0.13796572 0.1419962 0.07689308 0.19535644 0.0129588265 -0.06470209 -0.09915602
-0.23267163 0.16833706 0.14167449 -0.03722349 0.10875123 0.0026970177 -0.113360785 -0.103600875
-0.07898353 -0.21985887 0.19158256 -0.10705297 -0.11363691 0.11226184 -0.14777477 0.18388754
00000000: 40d7 0ebe 09ab 863e 1ec7 0c3e a960 febd
00000010: 2451 7f3e 3334 9dbd 3666 4ebe da8e aa3d
00000020: 177c aebd e346 0dbe 7467 113e 1e7a 9d3d
00000030: 850b 483e 4251 543c 8882 84bd 5012 cbbd
00000040: 7941 6ebe 8d60 2c3e 1e13 113e a977 18bd
00000050: f7b8 de3d 73c0 303b b329 e8bd b22c d4bd
00000060: 1ec2 a1bd af22 61be 382e 443e 963e dbbd
00000070: 78ba e8bd 89e9 e53d 4552 17be 044d 3c3e
