checkpoints/support2_honam2_emb32_3.pt (torch, 635858 bytes, 350 tensors)

weight f4 [32, 1]
0	0xbe415b22	-0.1888242
1	0x3da4bc8c	0.08043775
2	0x3d046c9a	0.032330133
3	0xbeaa439a	-0.332547
4	0xbed99d4a	-0.42502815
5	0x3e34e923	0.1766706
6	0xbeb00bda	-0.34384042
7	0xbe9ff5c2	-0.31242186
8	0x3ef10e09	0.4708102
9	0xbee4f6a1	-0.44719413
10	0xbef4906a	-0.4776643
11	0xbe7c101e	-0.24615523
12	0x3eadf05a	0.33972436
13	0xbede6014	-0.43432677
14	0xbe61a0cb	-0.22033994
15	0xbede17b5	-0.43377462
16	0xbef33d30	-0.4750762
17	0xbcdb0c03	-0.026739126
18	0x3eabcc2b	0.33554205
19	0xbebd4dc3	-0.3697339
20	0xbef2f6f0	-0.47454023
21	0x3d12ccbb	0.035839777
22	0x3e8deb5b	0.27718624
23	0x3edfbe2a	0.4369977
24	0xbec6406f	-0.38721034
25	0x3df00624	0.11719921
26	0x3ebebeff	0.37255093
27	0xbeb4dfc9	-0.35326985
28	0x3e6e69f1	0.23282601
29	0xbe401fec	-0.18762177
30	0xbe2cc4ee	-0.16871998
31	0xbeb4eeb3	-0.35338363

bias f4 [32]
0	0xbeb88459	-0.36038473
1	0xbe98591b	-0.29755482
2	0xbe9c65e6	-0.30546492
3	0xbe83d825	-0.25750843
4	0xbdba4fb8	-0.090972364
5	0xbeaa59c4	-0.3327161
6	0xbe7834ce	-0.24238893
7	0x3e9431ce	0.28944248
8	0x3b0a698b	0.0021120037
9	0x3e196142	0.14978507
10	0x3e22e634	0.15908128
11	0xbeaf0616	-0.3418433
12	0x3e8b34b6	0.27188653
13	0xbd96bd58	-0.07360333
14	0xbeb41021	-0.35168555
15	0xbd9699e6	-0.073535725
16	0xbc4f1083	-0.012638214
17	0x3eb1a7b2	0.34698254
18	0x3e8e17c7	0.27752516
19	0xbe4a3061	-0.19745018
20	0xbc3e96ff	-0.01163268
21	0x3ebaa903	0.3645707
22	0x3eb2c256	0.34913892
23	0x3d96923a	0.07352109
24	0xbe286c28	-0.16447508
25	0x3ec7b707	0.39006826
26	0x3e5a6d53	0.21330766
27	0xbe6826f2	-0.22671106
28	0x3ec0897e	0.37604898
29	0x3e344687	0.17605029
30	0xbeb8a0e9	-0.36060265
31	0xbe665a35	-0.22495349

weight f4 [64, 32]
0	0xbb66a4ed	-0.0035193518
1	0xbc76b854	-0.015058596
2	0xbc61e8c0	-0.013788402
3	0x3cca6c84	0.024709947
4	0x3dbdc945	0.09266905
5	0xbc9eb0c0	-0.01937139
6	0x3cef1de6	0.029189061
7	0x3f0b7cbe	0.54487216
8	0xbe30ca40	-0.17264652
9	0x3e3e5bd0	0.18589711
10	0x3ebd7c72	0.37009007
11	0x3b56be20	0.0032767132
12	0xbcc8fd00	-0.024534702
13	0x3dd65aa9	0.10466511
14	0xb927e25c	-0.00016010687
15	0x3dd5d285	0.10440544
16	0x3e40fb92	0.18845966
17	0x3c6ce9f4	0.014460076
18	0xbcbccb92	-0.023046289
19	0x3d30625a	0.043062545
20	0x3e3e8571	0.18605591
21	0x3c4f58a2	0.012655409
22	0xbbe37f4d	-0.0069426657
23	0xbdd8d07a	-0.10586639
24	0x3d61b42c	0.055103466
25	0x3c1963c1	0.009362162
26	0xbd26d6f8	-0.040732354
27	0x3d0a55b9	0.033773158
28	0x363e27e8	2.8335435e-06
29	0x3e81eef1	0.2537761
30	0xbbaa2230	-0.0051920637
31	0x3d0b27f8	0.033973664
32	0x3d232d28	0.039837986
33	0x3ce0aeec	0.02742716
34	0x3cf21541	0.02955115
35	0x3d606416	0.05478295
36	0x3daaa1f1	0.08331669
37	0x3cc181bc	0.023621432
38	0x3d6912c5	0.056902666
39	0x3e18b2be	0.14911935
40	0xbdee7a26	-0.11644392
41	0x3e22c15b	0.15894072
42	0x3e4fa049	0.20275988
43	0x3d33f144	0.04393126
44	0xbd62dada	-0.055384494
45	0x3db38c01	0.08766938
46	0x3d2c112c	0.042008564
47	0x3db38828	0.08766204
48	0x3debe7c5	0.11518816
49	0xbcf1afc9	-0.029502766
50	0xbd5fafe8	-0.054611117
51	0x3d80f70a	0.06297119
52	0x3dea7a92	0.1144916
53	0xbd0335c7	-0.032033708
54	0xbd3d0def	-0.046155866
55	0xbdbbd552	-0.09171547
56	0x3d8c1bbf	0.0684123
57	0xbd1187e3	-0.035529982
58	0xbd817d42	-0.06322719
59	0x3d719e1c	0.058988675
60	0xbd2d56ba	-0.042319037
61	0x3d923128	0.07138282
62	0x3d1de48b	0.038548034
63	0x3d7224dc	0.059117183
64	0xbb26d6a2	-0.002545752
65	0xbb33a0c2	-0.0027409052
66	0xbb3446fd	-0.0027508133
67	0xbb3a19e2	-0.0028396775
68	0xbb85ddc4	-0.0040852744
69	0xbb3c6ad8	-0.0028750207
70	0xbb399b01	-0.002832115
71	0xbd5d8d4a	-0.054089822
72	0x3caec93a	0.021336187
73	0xbde4a752	-0.11164726
74	0xbe310963	-0.17288737
75	0xbb3186f4	-0.0027088495
76	0x3c3887ee	0.011262877
77	0xbb915cdf	-0.00443612
78	0xbb2cc412	-0.0026361984
79	0xbb8f231c	-0.004368199
80	0xbbf57dde	-0.007491811
81	0x3c0b98ff	0.008520364
82	0x3c379ee3	0.011207315
83	0xbb471091	-0.0030374865
84	0xbbf5c20a	-0.007499938
85	0x3c0cacad	0.008586091
86	0x3c25395f	0.010084479
87	0x3c87fbfe	0.016599651
88	0xbb4b420a	-0.0031014704
89	0x3c1093c0	0.008824289
90	0x3c49cb57	0.012316546
91	0xbb3a016c	-0.0028382195
92	0x3c1c7a58	0.009550653
93	0xbc226cd2	-0.00991364
94	0xbb2cd8ab	-0.0026374261
95	0xbb38973b	-0.0028166312
96	0x3c0b3578	0.008496635
97	0xbb0343ac	-0.002002935
98	0x398cc0fa	0.0002684666
99	0x3c8585b5	0.016299108
100	0x3ce73784	0.028224714
101	0xbbe4d218	-0.006983053
102	0x3c8df039	0.017326461
103	0xbc89054a	-0.016726155
104	0xbcefff0a	-0.029296417
105	0x3cd51f57	0.02601592
106	0xbda43800	-0.08018494
107	0x3c31c682	0.010850551
108	0xbc48477f	-0.012224077
109	0x3cf3ec58	0.029775783
110	0x3c20173c	0.0097711645
111	0x3cf44365	0.029817292
112	0x3d1e18b5	0.03859778
113	0x3b4008ab	0.0029302042
114	0xbc4439ec	-0.0119767
115	0x3ca51245	0.020150313
116	0x3d1dd517	0.038533296
117	0x39cb028f	0.00038721084
118	0xbc08d414	-0.008351345
119	0xbcc3acfd	-0.023886198
120	0x3cb75e6f	0.022383897
121	0xbb1b0838	-0.0023656022
122	0xbc781696	-0.015142104
123	0x3c95c7e8	0.0182838
124	0xbbd618af	-0.006533704
125	0x3ddcb088	0.10775858
126	0x3bff0315	0.00778235
127	0x3c965d3e	0.018355008
128	0x3c25fc5b	0.010130967
129	0xbc885dd7	-0.016646309
130	0xbc40e646	-0.0117736515
131	0x3d50e766	0.05100193
132	0x3e1d280d	0.1534731
133	0xbcf9318f	-0.03041914
134	0x3d6a6231	0.05722255
135	0x3ec309b6	0.38093346
136	0xbe9579b8	-0.29194427
137	0x3f034a32	0.5128509
138	0x3efec701	0.49761203
139	0x3ca7e4f6	0.02049492
140	0xbd4a1e26	-0.049345158
141	0x3e30e8a1	0.17276241
142	0x3c7b0bc9	0.015322634
143	0x3e30ecad	0.17277785
144	0x3e9e2d2d	0.3089384
145	0x3c4ce8e7	0.0125067
146	0xbd418a4d	-0.047251035
147	0x3d9df618	0.07712954
148	0x3e9c6895	0.3054854
149	0x3bf42adb	0.007451398
150	0xbcc954af	-0.024576513
151	0xbe3289a5	-0.1743532
152	0x3dc36b52	0.09541954
153	0x3a22eb25	0.0006214849
154	0xbd94c35c	-0.07263824
155	0x3d828f58	0.06374997
156	0xbc72ce2f	-0.014819666
157	0x3e726f94	0.23675376
158	0x3bf25b37	0.0073961276
159	0x3d835142	0.06411983
160	0x3c20970b	0.009801636
161	0x3c10b59a	0.00883236
162	0x3c1ea6ac	0.009683292
163	0x3b0c9168	0.0021448974
164	0xbc676208	-0.014122494
165	0x3c0613c4	0.008183423
166	0x3a7caaf5	0.00096385117
167	0xbeba55b3	-0.36393508
168	0x3d866c94	0.065636784
169	0xbd546038	-0.051849574
170	0xbe3ba9a8	-0.18326437
171	0x3c05c1fe	0.008163927
172	0x3ba7a854	0.005116502
173	0xbc88d658	-0.01670377
174	0x3c14ff37	0.009094051
175	0xbc86f9d0	-0.016476542
176	0xbcfce3cd	-0.030870343
177	0xbbf55890	-0.007487364
178	0x3b90ce79	0.0044191447
179	0xbb34ca91	-0.002758656
180	0xbcfa0442	-0.030519608
181	0xbc0402f2	-0.008057343
182	0xbb0e7296	-0.002173578
183	0x3d2097fd	0.039207447
184	0xbbbd9996	-0.005786131
185	0xbc00a945	-0.007852857
186	0x3c442d91	0.0119737545
187	0xb98eedff	-0.00027261671
188	0xbba49bf4	-0.005023474
189	0xbe16d0df	-0.14728115
190	0x3c285f36	0.010276606
191	0xb9c55b9a	-0.00037643017
192	0xbdbac01e	-0.09118675
193	0xbd90680f	-0.070510976
194	0xbd97bed6	-0.07409446
195	0xbdf2f5da	-0.11863299
196	0xbe2eff57	-0.17089592
197	0xbd7fffd3	-0.062499832
198	0xbdfaef5a	-0.12252684
199	0xbeb9c43f	-0.36282536
200	0x3e7a641e	0.24452254
201	0xbe0967e7	-0.13418542
202	0xbe8da09c	-0.27661598
203	0xbdca181d	-0.098678805
204	0x3e042b1b	0.12907068
205	0xbe37418c	-0.17896098
206	0xbdc2ad4d	-0.09505711
207	0xbe371ca6	-0.17882022
208	0xbe6a928c	-0.22907466
209	0x3da59d33	0.08086624
210	0x3e02990a	0.12753692
211	0xbe093b2e	-0.13401482
212	0xbe694613	-0.22780637
213	0x3dae8fc3	0.08523514
214	0x3de3f028	0.111297905
215	0x3e4b200c	0.19836444
216	0xbe130a99	-0.14359511
217	0x3dba9ba0	0.09111714
218	0x3e13df46	0.14440641
219	0xbe015d37	-0.12633215
220	0x3dd4721c	0.10373327
221	0xbe8eb5a9	-0.2787297
222	0xbdb6b459	-0.08921117
223	0xbe0195ee	-0.1265485
224	0x3d0e5f66	0.034758948
225	0x3c98386a	0.018581588
226	0x3cb18468	0.021669582
227	0x3d41f6f8	0.04735467
228	0x3d856ed4	0.065152794
229	0x3c4e0988	0.012575515
230	0x3d47d8a6	0.048790596
231	0x3e359b1f	0.17734955
232	0xbdb5b949	-0.08873231
233	0x3db076bc	0.08616397
234	0x3cfe47bc	0.031040065
235	0x3d1f3a99	0.038874242
236	0xbd4f03ec	-0.05054085
237	0x3d8acabf	0.06776952
238	0x3d177a49	0.036981855
239	0x3d8a8c71	0.06765068
240	0x3da6ed04	0.08150676
241	0xbcbea48e	-0.023271825
242	0xbd4d38cd	-0.050102998
243	0x3d590123	0.0529796
244	0x3da65be4	0.081229955
245	0xbcdeaf36	-0.027183156
246	0xbd3099fe	-0.04311561
247	0xbd995af8	-0.07488054
248	0x3d673a61	0.05645216
249	0xbd02ce45	-0.031934995
250	0xbd66ed66	-0.056378745
251	0x3d4e1765	0.05031528
252	0xbd213fa4	-0.039367333
253	0x3db7d767	0.089766316
254	0x3d09237b	0.033481102
255	0x3d4e58be	0.0503776

bias f4 [64]
0	0x3e3bdaf6	0.18345246
1	0xbc4f2bc9	-0.012644717
2	0xbdb89570	-0.09012878
3	0xbdd82594	-0.105540425
4	0x3e05e1e4	0.13074452
5	0xbe4bd33a	-0.19904795
6	0xbdf01a4d	-0.117237665
7	0xbc818baf	-0.015813677
8	0x3e0c29ba	0.13687792
9	0xbe2f4aa3	-0.17118315
10	0x3df8a51b	0.12140866
11	0xbd1ce36d	-0.038302828
12	0x3c157873	0.009122956
13	0xbd7f68e2	-0.062355883
14	0xbddeb177	-0.108736925
15	0xbe2f10b0	-0.1709621
16	0x3ccf876a	0.025333125
17	0x3d71c4c6	0.05902555
18	0x3e5a3629	0.21309723
19	0xbc384a9d	-0.011248258
20	0x3dfb9e27	0.122860245
21	0x3e1fb097	0.15594707
22	0x3e1bfc15	0.1523288
23	0xbc1b773f	-0.00948888
24	0x3e4854ec	0.19563645
25	0xbcde00ed	-0.02710005
26	0x3e575cf4	0.21031553
27	0xbe10910b	-0.1411783
28	0xbd5f6785	-0.054542083
29	0xbbb9c236	-0.0056689037
30	0x3e41238d	0.18861218
31	0xbe20f17a	-0.15717116
32	0x3e602156	0.21887717
33	0xb9bc1a66	-0.00035877823
34	0xbe1ca6e9	-0.15298046
35	0xbdc06138	-0.09393543
36	0xbddb818f	-0.10718071
37	0xbdaa5112	-0.08316244
38	0xbe20bbf1	-0.15696694
39	0x3e583631	0.21114422
40	0xbd2b74f4	-0.041859582
41	0xbd85c48a	-0.065316275
42	0xbd1105d9	-0.035405967
43	0xbdabcadc	-0.08388302
44	0x3e51e1e1	0.20496322
45	0xbb44d8f7	-0.0030036548
46	0x3dd5d848	0.10441643
47	0x3df0b408	0.11753088
48	0x3ab15da4	0.0013531935
49	0x3e477248	0.19477189
50	0xbd0f7d21	-0.03503144
51	0xbdb02e07	-0.08602529
52	0xbdb6942c	-0.0891498
53	0x3c944256	0.018098038
54	0xbc258497	-0.010102413
55	0x3d300e8a	0.042982616
56	0xbe0eb9a3	-0.13938002
57	0xbdfa242c	-0.122139305
58	0xbdf34e96	-0.118802235
59	0xbdd68e47	-0.10476356
60	0x3ce23f7c	0.027618162
61	0x3c8c6e97	0.017142577
62	0xbd101618	-0.03517732
63	0x3d76c5f2	0.06024737

weight f4 [32, 64]
0	0xbd05c998	-0.032662958
1	0x3b035376	0.002003876
2	0x3ca241c1	0.019806745
3	0x3c976be2	0.01848406
4	0xbd617af8	-0.055048913
5	0x3cf65a32	0.030072305
6	0xbd9f51be	-0.07779263
7	0x3b315099	0.0027056097
8	0xbd155082	-0.03645373
9	0x3c994f0c	0.01871445
10	0xbd014612	-0.031560965
11	0x3c1c419c	0.009537127
12	0x3a3a18b6	0.0007099019
13	0x3c8ae5a4	0.016955204
14	0x3c75b383	0.014996412
15	0x3b8d8c4a	0.0043197023
16	0x3b1eb77f	0.002421826
17	0xbcb20572	-0.021731112
18	0xbcfe92aa	-0.031075794
19	0x3b417188	0.0029517133
20	0xbd2bf77f	-0.041984078
21	0xbd2467d9	-0.0401381
22	0xbd479b0d	-0.048731852
23	0x3b4ada86	0.0030953004
24	0xbceffcd7	-0.029295368
25	0xbc71b545	-0.014752691
26	0xbcea65a3	-0.028612917
27	0x3ca586ef	0.020205943
28	0x3b9535cf	0.0045535336
29	0xbda33d6c	-0.079707
30	0xbcfd14df	-0.030893741
31	0xba4543bf	-0.00075250486
32	0xbce2758a	-0.027643938
33	0xbd405a29	-0.046960983
34	0x3cd7b950	0.026333481
35	0xbbd30af2	-0.006440514
36	0x3c0499b3	0.008093285
37	0x3c888e56	0.016669434
38	0x3d283b10	0.04107195
39	0xbce1e3a9	-0.027574377
40	0x3bcc8723	0.0062416955
41	0x3c108abc	0.008822139
42	0x3c93c1cb	0.018036744
43	0x3b470589	0.003036829
44	0xbce90eb7	-0.0284494
45	0x3b421598	0.0029614922
46	0xbc90f8d3	-0.017696774
47	0xbd412cd0	-0.047161877
48	0x3b6a26cb	0.0035728689
49	0xbceecd62	-0.029150669
50	0x3c96702a	0.01836403
51	0x3cf32a38	0.029683217
52	0xbc416d9c	-0.011805918
53	0x3992ac2c	0.00027975568
54	0x3b4d2c74	0.0031307014
55	0xbb8a59b3	-0.0042221188
56	0x3c8af8db	0.016964367
57	0x3cf84466	0.030306052
58	0xbc73ae36	-0.014873078
59	0x3c8c28c9	0.017109292
60	0x3af7440c	0.0018864884
61	0xbc58a1db	-0.013222183
62	0x3a24b7a9	0.0006283471
63	0xbcd0d344	-0.025491364
64	0xbb6c91df	-0.0036097688
65	0x3b0bc741	0.0021328481
66	0x3c4db1e2	0.012554618
67	0x3c77ae32	0.015117215
68	0xbc078227	-0.008270777
69	0x3bd352fd	0.006449102
70	0xbe278e3a	-0.16362849
71	0x378680c9	1.6034015e-05
72	0xbbe012d8	-0.006838184
73	0x3c6d66a5	0.014489804
74	0xbbe28bfc	-0.00691366
75	0xb962a9a0	-0.0002161623
76	0x3a3916d3	0.0007060591
77	0x3cfb206f	0.030655114
78	0x3ca83506	0.020533096
79	0x3c51ab6a	0.012797216
80	0xbae2e734	-0.0017311336
81	0xbbd0565d	-0.0063579516
82	0xbb80eaa6	-0.0039342223
83	0x3afadd90	0.0019139517
84	0xbbe24522	-0.006905214
85	0xbbda220e	-0.0066568917
86	0xbbeceb80	-0.007230222
87	0x3aa9eb1a	0.0012963742
88	0xbb5cb896	-0.0033679358
89	0xbbc1871d	-0.0059059993
90	0xbb79561c	-0.003804571
91	0x3c2460ae	0.010032816
92	0x3cc77c93	0.024351394
93	0xbdb12b8a	-0.086508825
94	0xbb790c41	-0.0038001689
95	0x3c697ed0	0.014251426
96	0xbb74e2f9	-0.0037366732
97	0xbdf3e0e0	-0.11908126
98	0x3c30debb	0.010795291
99	0x3a49c18e	0.00076963834
100	0x3d05bc7e	0.032650463
101	0x3c271474	0.0101977475
102	0x3c9f095a	0.019413639
103	0xbb796f5d	-0.0038060762
104	0x3c2542ee	0.010086758
105	0x3d28eb27	0.041239884
106	0xbbcde70c	-0.0062836464
107	0x3cc24125	0.023712704
108	0xbb76455c	-0.0037577963
109	0x3a83e3e6	0.0010062426
110	0xbbab37bf	-0.0052251513
111	0xbc025fcf	-0.007957413
112	0x3ae211cc	0.0017247736
113	0xbb7b6258	-0.0038358178
114	0xbbce1a74	-0.0062897746
115	0x3c9f27af	0.019428102
116	0x3d082d73	0.03324647
117	0xbacbb8d4	-0.0015542754
118	0x3b0ac76c	0.0021175994
119	0xbaf77da0	-0.0018882044
120	0x3cca24bb	0.024675718
121	0x3c3c823b	0.011505659
122	0xbcae54d5	-0.021280685
123	0x3caa2ec1	0.020774247
124	0xbb0205fc	-0.0019839993
125	0xbbc77268	-0.0060866363
126	0x3b98ea51	0.0046666046
127	0xbbec29bb	-0.007207123
128	0xbd6d2007	-0.05789187
129	0x3d6e0899	0.058113668
130	0x3d980b22	0.074239984
131	0x3db0ac93	0.08626666
132	0xbe3dfa14	-0.18552428
133	0x3dc18fc0	0.09451246
134	0xbe86a1fb	-0.26295456
135	0x3d5e2d26	0.054242276
136	0xbe30bf07	-0.17260371
137	0x3de6bb7d	0.11266229
138	0xbe206638	-0.15663993
139	0x3da0a3e8	0.07843763
140	0x3d1f2f7c	0.038863644
141	0x3dbce20a	0.09222801
142	0x3dc4e33e	0.096136555
143	0x3d989659	0.074505515
144	0x3d20b2c7	0.039232995
145	0xbdc7bde0	-0.09753013
146	0xbd80bf86	-0.0628653
147	0x3d66c4b5	0.05633994
148	0xbe2a4a3f	-0.16629885
149	0xbe270ac1	-0.16312696
150	0xbe404e7c	-0.1877994
151	0x3d3169cf	0.043313798
152	0xbd5e990a	-0.05434517
153	0x3ce886b5	0.028384546
154	0xbd74791d	-0.059685815
155	0x3db9e0ce	0.09076081
156	0x3db82cbc	0.089929074
157	0xbe06e620	-0.13173723
158	0xbd63a578	-0.055577725
159	0x3dfbdd04	0.12298015
160	0xbd782d5a	-0.060590126
161	0xbd823075	-0.06356899
162	0x3dcbddd5	0.099544205
163	0x3d89c908	0.06727797
164	0x3deeb21f	0.11655068
165	0x3d92ac8c	0.07161817
166	0x3d8568cb	0.06514128
167	0xbd704cc7	-0.05866697
168	0x3dcd778d	0.10032568
169	0x3df31a37	0.118702345
170	0x3d9d5ef3	0.07684126
171	0x3dbd28e7	0.09236317
172	0xbd74395f	-0.059625026
173	0x3d12ee49	0.035871778
174	0xbe248e1f	-0.1606984
175	0xbe37dc70	-0.17955184
176	0x3cfbbceb	0.030729732
177	0xbd6b18be	-0.057396643
178	0x3d9d74da	0.07688303
179	0x3db6c497	0.08924215
180	0x3debbdde	0.11510824
181	0x3ccf2b55	0.025289217
182	0x3d21e7b9	0.03952763
183	0x3cd7524f	0.026284365
184	0x3dc01f29	0.09380943
185	0x3dc26d02	0.09493448
186	0xbd0d4911	-0.03449351
187	0x3d82644e	0.06366788
188	0x3cc7e20c	0.02439978
189	0xbd8e2de9	-0.069423504
190	0x3d953611	0.07285703
191	0xbe1f49db	-0.15555517
192	0xbd33aae3	-0.043864142
193	0x3ba45cdc	0.0050159525
194	0x3ce0b553	0.027430212
195	0x3d6b42ad	0.057436634
196	0xbcc85f36	-0.024459463
197	0x3d2062f6	0.039156877
198	0xbd0b5c4b	-0.034023564
199	0x3c53b289	0.012920984
200	0xbd051964	-0.032494918
201	0x3d4b4c52	0.04963333
202	0xbd0803c7	-0.033206727
203	0x3d2129a0	0.039346337
204	0x3bd9044f	0.006622828
205	0x3d01668e	0.031591944
206	0x3d33d581	0.043904785
207	0x3d6599a0	0.05605471
208	0xbbc63c58	-0.006049674
209	0xbd174302	-0.036929138
210	0xbd35e12e	-0.0444042
211	0xbaa4f9ac	-0.0012586615
212	0xbce5177e	-0.027965304
213	0xbd01bc9c	-0.031674013
214	0xbce795b2	-0.028269622
215	0xbb6671b8	-0.0035162997
216	0xbd3c4516	-0.045964323
217	0x3d5ba375	0.05362268
218	0xbd3c0d52	-0.04591114
219	0x3d20778f	0.03917652
220	0x3daf3996	0.085559055
221	0x3c4a0e54	0.012332518
222	0xbd362e0f	-0.04447752
223	0x3da32c77	0.07967465
224	0xbd3f82ab	-0.046755474
225	0x3d735d22	0.05941499
226	0x3d21a61c	0.039465055
227	0x3d89797a	0.06712623
228	0x3d28b995	0.04119261
229	0x3d758c86	0.059948467
230	0x3ce8fdde	0.028441366
231	0xbd3ec6ca	-0.0465763
232	0x3dc6ed26	0.09713201
233	0x3dab6e15	0.08370606
234	0x3d9cf455	0.0766379
235	0x3d90aea4	0.0706456
236	0xbd3f72f6	-0.046740495
237	0xbbb58bdb	-0.0055403537
238	0x3cde78e9	0.027157264
239	0xbcd5fc25	-0.026121208
240	0x3a2ae7b2	0.00065195106
241	0xbd3e200d	-0.046417285
242	0x3d9ccf93	0.07656779
243	0x3d72c390	0.059268534
244	0x3cc57009	0.024101274
245	0xbbe20de2	-0.0068986276
246	0x3a3206f5	0.0006791198
247	0xbb1cacce	-0.002390671
248	0x3d0004db	0.03125463
249	0x3d1ea48c	0.038731143
250	0x3dd3846c	0.10327992
251	0x3cfeb3af	0.03109154
252	0xbbe3cbcf	-0.006951786
253	0x3af7433d	0.0018864643
254	0x3d55c393	0.052188467
255	0xbd08a02c	-0.033355877

bias f4 [32]
0	0xbd474706	-0.048651718
1	0xbc3bced8	-0.01146289
2	0xbe7bffd2	-0.24609306
3	0xbd5596d8	-0.05214581
4	0x3dade33a	0.08490606
5	0xbd067cae	-0.032833748
6	0xbdcfcdd7	-0.10146683
7	0xbe3584dd	-0.17726465
8	0xbd62e1db	-0.055391174
9	0xbc273548	-0.010205574
10	0xbda49041	-0.08035327
11	0xbd814058	-0.06311101
12	0x3c480d49	0.012210199
13	0x3d56cdf0	0.05244249
14	0x3d1e7cc1	0.038693193
15	0xbe415059	-0.18878306
16	0xbd9c686e	-0.07637106
17	0xbd85842b	-0.0651935
18	0x3d3e7de9	0.046506796
19	0xbe28bc85	-0.16478164
20	0xbbf721ab	-0.0075418553
21	0xbe330fc7	-0.17486487
22	0xbd19b958	-0.037530273
23	0xbd23012c	-0.03979604
24	0x3da07425	0.07834653
25	0xbe1521e6	-0.14563712
26	0x3d665ae7	0.056239035
27	0xbe1fc6ce	-0.15603182
28	0x3d819903	0.06328013
29	0x3dcdf875	0.10057155
30	0xbe0e7a21	-0.13913776
31	0xbdb0d695	-0.08634678

weight f4 [32, 1]
0	0x3e2bdb9f	0.16782998
1	0xbe278795	-0.16360314
2	0x3e0f1448	0.1397258
3	0xbe0a8156	-0.135259
4	0xbe3d39cb	-0.18479078
5	0x3c8b4820	0.017002165
6	0xbe0ccb50	-0.13749433
7	0x3e299723	0.1656156
8	0xbe2aa50c	-0.16664523
9	0xbe216210	-0.15760064
10	0xbe3db415	-0.18525727
11	0x3ccbea26	0.024891924
12	0xbd820d99	-0.0635025
13	0x3dc9d4c9	0.09855039
14	0xbe3f7f57	-0.1870092
15	0x3e274320	0.163342
16	0xbe29e8b6	-0.16592678
17	0xbe343ba5	-0.17600878
18	0xbe0c094f	-0.13675426
19	0x3e229b20	0.15879488
20	0xbe3ed8d0	-0.18637395
21	0xbe3fba16	-0.1872333
22	0x3e234f3f	0.15948199
23	0x3e2c612b	0.16833942
24	0xbe3eedb5	-0.18645366
25	0xbda89087	-0.082306914
26	0xbd1898fb	-0.03725527
27	0xbe3e096b	-0.1855828
28	0x3e16984a	0.14706531
29	0x3e1ed27e	0.15509984
30	0x3dc4cf3c	0.09609839
31	0xbe0fd89e	-0.14047477

bias f4 [32]
0	0xbf3b8f6f	-0.7326574
1	0x3e603d9a	0.21898499
2	0xbe5a05cd	-0.21291275
3	0x3dbfd7bc	0.0936732
4	0x3f12e3d0	0.57378864
5	0xbd2af352	-0.041735955
6	0x3ddf8575	0.10914127
7	0xbf1b8d05	-0.60762054
8	0x3e729625	0.23690088
9	0x3e422f9a	0.18963471
10	0x3f16975e	0.5882472
11	0xbd97f93d	-0.07420585
12	0x3ce1e793	0.027576244
13	0xbe1c758c	-0.15279216
14	0x3f38b598	0.7215209
15	0xbf05d885	-0.5228351
16	0x3e6dd11f	0.23224305
17	0x3eab515f	0.3346052
18	0x3de4add3	0.11165967
19	0xbed109c8	-0.40827775
20	0x3f28b925	0.6590751
21	0x3f3dd434	0.7415192
22	0xbed9094e	-0.4238991
23	0xbf4898b3	-0.78358
24	0x3f2d7cc4	0.677685
25	0x3d477b67	0.04870167
26	0xbcd668ee	-0.026173081
27	0x3f1fd95c	0.6244104
28	0xbe8429d5	-0.25813165
29	0xbeb019f1	-0.34394792
30	0xbe2fa12c	-0.17151326
31	0x3df79eb9	0.12090821

weight f4 [64, 32]
0	0x3ae5392b	0.0017488351
1	0xbc8da457	-0.017290277
2	0x3c27cdd5	0.010241945
3	0xbcee66f1	-0.02910182
4	0xbb368922	-0.0027852734
5	0x3ca84cb2	0.020544384
6	0xbcee06fa	-0.029056061
7	0x3b42d4ea	0.0029728957
8	0xbc8158b9	-0.015789377
9	0xbca574a2	-0.020197216
10	0xbb1d47c5	-0.0023999077
11	0x3c67cfb9	0.014148646
12	0xbd258dbf	-0.040418383
13	0x3c45d757	0.012075267
14	0xb9b29d0b	-0.00034067812
15	0x3b87d9c6	0.0041458337
16	0xbc84273a	-0.016131986
17	0xbc1e28ef	-0.009653314
18	0xbcef62c1	-0.029221894
19	0x3bc39f79	0.0059699384
20	0xba9c077f	-0.001190409
21	0xb9811ecb	-0.0002462774
22	0x3bb7c449	0.005608116
23	0x3a9b1532	0.0011831878
24	0xba7a2e1b	-0.00095436134
25	0xbd0a1f78	-0.033721417
26	0xbcaf6769	-0.021411614
27	0xbae05c16	-0.0017117287
28	0x3c164236	0.009171059
29	0x3bed2048	0.0072365142
30	0x3c2617f0	0.010137543
31	0xbce81215	-0.028328935
32	0x3cf3a1a2	0.029740158
33	0xbced1063	-0.028938478
34	0x3ce1c79a	0.027560998
35	0xbc3d3b59	-0.011549794
36	0xbcfa5dc7	-0.030562295
37	0xbc11e30c	-0.00890423
38	0xbc841ec2	-0.016127948
39	0x3cf31e13	0.029677426
40	0xbcf060e1	-0.02934307
41	0xbce4118d	-0.0278404
42	0xbcfa8f82	-0.030586008
43	0xbc7f47c2	-0.015581073
44	0xbc831685	-0.01600195
45	0x3cc361ee	0.023850407
46	0xbcfa9080	-0.030586481
47	0x3cf1fef4	0.029540516
48	0xbcefa763	-0.02925462
49	0xbcf82fa7	-0.03029616
50	0xbc8a51cb	-0.016884705
51	0x3cf0720d	0.029351259
52	0xbcf9c45f	-0.030489145
53	0xbcfa6aed	-0.030568564
54	0x3cf0b21a	0.0293818
55	0x3cf4a478	0.029863581
56	0xbcfa7b53	-0.030576384
57	0xbc75fd9c	-0.0150140785
58	0xba9a0d6f	-0.0011753271
59	0xbcfb2845	-0.03065885
60	0x3ce7da25	0.028302262
61	0x3cee4108	0.029083744
62	0x3cb10584	0.021609075
63	0xbc9e6a2e	-0.01933774
64	0x3bb71378	0.0055870377
65	0xbcbd361f	-0.023097096
66	0x3ca2d941	0.019878985
67	0xbd0eee10	-0.034895003
68	0xbbe5eb98	-0.0070166104
69	0x3cc506f9	0.024051176
70	0xbd11d69a	-0.03560505
71	0x3bf8f3f4	0.007597441
72	0xbcaffad5	-0.02148191
73	0xbcd63714	-0.02614931
74	0xbbda628e	-0.0066645807
75	0x3c4aa06e	0.012367351
76	0xbd177305	-0.036974926
77	0x3cc6bcf8	0.02426003
78	0xbb90e118	-0.0044213645
79	0x3c17bc3c	0.009261187
80	0xbcb1c4d4	-0.0217003
81	0xbc7632ab	-0.015026729
82	0xbd12609d	-0.03573667
83	0x3c43ba42	0.011946263
84	0xbbb26c72	-0.0054450566
85	0xbb85df86	-0.004085484
86	0x3c3df4f4	0.011594046
87	0x3ba3fa7c	0.0050042253
88	0xbba3f3af	-0.0050034146
89	0xbd155b2b	-0.036463898
90	0xbcdf29f1	-0.027241679
91	0xbbc365b9	-0.005963054
92	0x3c90b3e3	0.017663902
93	0x3c671ea1	0.014106424
94	0x3cbf2d2e	0.023336973
95	0xbd0ff016	-0.035141073
96	0x393d3b30	0.00018046494
97	0xbcafd0fd	-0.021461958
98	0x3c1e55e7	0.009664035
99	0xbd16ae80	-0.03678751
100	0xbb51e14e	-0.0032025161
101	0x3ca0fd4c	0.019652031
102	0xbd1741b5	-0.036927897
103	0x3ad31d76	0.0016106803
104	0xbca0a75c	-0.019611053
105	0xbcd0fa12	-0.025509868
106	0xbb44888c	-0.0029988615
107	0x3c3140bd	0.010818657
108	0xbd13d509	-0.036091838
109	0x3c321623	0.010869536
110	0xb9c1ffc3	-0.00037002386
111	0x3b3fdaf8	0.0029274803
112	0xbca2f5ef	-0.01989266
113	0xbc43565f	-0.011922448
114	0xbd17319e	-0.036912553
115	0x3ba17cdc	0.0049282145
116	0xbaced462	-0.0015779848
117	0xb8eb4c1f	-0.00011219852
118	0x3b95884b	0.0045633665
119	0xb9e4cbe6	-0.00043639465
120	0xbaa02f65	-0.0012221156
121	0xbd1e382c	-0.03862779
122	0xbc89ce87	-0.016822113
123	0xbb0b75bc	-0.0021279892
124	0x3c087de6	0.008330798
125	0x3bcb5a63	0.0062058433
126	0x3c0c3da0	0.008559614
127	0xbd13e64f	-0.03610831
128	0x3b20b7f1	0.00245237
129	0x3cbbbde7	0.022917701
130	0xbbd9cce4	-0.0066467393
131	0x3d3ceba4	0.046123162
132	0x3bbfe3bc	0.0058560055
133	0x3b807431	0.003920101
134	0x3d3e6079	0.046478722
135	0x3aecd687	0.0018069305
136	0x3ca9fff7	0.020751936
137	0x3ce1b367	0.027551366
138	0x3bb4da58	0.0055191927
139	0x3bcefa32	0.0063164467
140	0x3d55f587	0.052236106
141	0xbc4bb655	-0.012433608
142	0x3b6721d8	0.0035267975
143	0x3a94f9fe	0.0011366007
144	0x3caeda11	0.021344217
145	0x3c5884e5	0.013215278
146	0x3d3bdcad	0.04586475
147	0xb9e11b44	-0.0004293566
148	0x3b9164ef	0.004437081
149	0x3b5cc702	0.0033687954
150	0xb8fa2c5b	-0.00011929191
151	0x3b307c43	0.0026929535
152	0x3b888c73	0.0041671335
153	0x3d33241f	0.04373562
154	0xbc1b3c8c	-0.009474885
155	0x3ba413e7	0.0050072554
156	0xbb90d355	-0.004419724
157	0xbad510c6	-0.0016255609
158	0xbc36b82c	-0.011152308
159	0x3d2f10d8	0.042740673
160	0x3d5318d5	0.051537354
161	0xbd87891a	-0.06617947
162	0x3d741abe	0.059595816
163	0xbd325c7e	-0.04354524
164	0xbd5fff8b	-0.054687064
165	0x3b9b6d83	0.0047432794
166	0xbd3ab955	-0.045586903
167	0x3d578efb	0.05262659
168	0xbd879e90	-0.0662204
169	0xbd69f760	-0.05712068
170	0xbd5eb4f1	-0.054371778
171	0x3c7379b4	0.014860559
172	0xbd0ce30f	-0.034396227
173	0x3d71dacb	0.059046548
174	0xbd5838a7	-0.052788403
175	0x3d5b91db	0.053605895
176	0xbd87d4a2	-0.06632353
177	0xbd7a7f28	-0.061156422
178	0xbd3c1405	-0.04591753
179	0x3d62fe0f	0.05541807
180	0xbd5ab024	-0.053390637
181	0xbd578095	-0.05261286
182	0x3d6159ee	0.055017404
183	0x3d51d806	0.051231407
184	0xbd59d672	-0.053183027
185	0xbd23e423	-0.04001249
186	0x3ca9ba59	0.02071874
187	0xbd5cbfec	-0.05389397
188	0x3d71b217	0.05900773
189	0x3d688491	0.05676705
190	0x3d6f099e	0.05835878
191	0xbd3db69b	-0.046316724
192	0x3cf5a95b	0.029987982
193	0xbd329f42	-0.04360891
194	0x3d2593ad	0.040424038
195	0xbd7b73d7	-0.06138977
196	0xbd025666	-0.031820677
197	0x3d20df8d	0.039275695
198	0xbd803a31	-0.06261099
199	0x3cfe7385	0.031060943
200	0xbd2c9421	-0.042133454
201	0xbd40bf65	-0.047057528
202	0xbd01ebc9	-0.031719003
203	0x3d0e7d51	0.03478748
204	0xbd1467a3	-0.03623165
205	0x3d416214	0.047212675
206	0xbcf84c61	-0.030309858
207	0x3d02bade	0.03191649
208	0xbd2e0b1f	-0.042491075
209	0xbd1768d5	-0.03696521
210	0xbd807665	-0.06272582
211	0x3d0a5900	0.033776283
212	0xbcfd179f	-0.030895052
213	0xbcf6a5f7	-0.030108435
214	0x3d08a9e5	0.03336515
215	0x3cf2e9e7	0.029652549
216	0xbcfc0d85	-0.030768165
217	0xbd5f4243	-0.05450655
218	0xbb4343ce	-0.0029795053
219	0xbd001bc2	-0.031276472
220	0x3d1c1311	0.03810412
221	0x3d1071cc	0.035264775
222	0x3d3dc3b0	0.0463292
223	0xbd7623ae	-0.06009262
224	0xbc04338d	-0.008068931
225	0x3bc40d7e	0.0059830537
226	0x3a9a3dab	0.0011767646
227	0xb9f20df9	-0.00046168247
228	0x3c3f07d0	0.0116595775
229	0x3b357592	0.0027688486
230	0x39e9ad5e	0.00044570392
231	0xbbde483c	-0.0067835134
232	0x3bd534c9	0.0065065366
233	0x3b9c5516	0.004770885
234	0x3c3f2621	0.0116668055
235	0x38fdf794	0.00012110095
236	0xbc7a10a6	-0.015262758
237	0x3b9745ec	0.0046164896
238	0x3c4c9afd	0.012488124
239	0xbbbb26e5	-0.0057114237
240	0x3bd063c0	0.0063595474
241	0x3c11fef8	0.008910887
242	0x3a1e8e76	0.000604845
243	0xbb7bbea9	-0.0038413203
244	0x3c496a77	0.01229345
245	0x3c4f61e3	0.012657615
246	0xbb870d42	-0.0041214535
247	0xbc0b78b6	-0.008512666
248	0x3c4a8fe1	0.012363405
249	0xbbeb4408	-0.007179741
250	0xbc9dcccb	-0.019262692
251	0x3c4464cf	0.011986925
252	0xb98d9de5	-0.00027011256
253	0xbb280287	-0.0025636272
254	0x3b9fe22f	0.004879258
255	0x3a7d49e9	0.00096621976

bias f4 [64]
0	0xbc886ed1	-0.016654404
1	0x3d001ff0	0.031280458
2	0xbe08703a	-0.13324061
3	0xbc90106d	-0.017585957
4	0xbdf78146	-0.12085204
5	0x3d0aed9f	0.03391802
6	0x3d4f9dc4	0.050687566
7	0xbdedb23c	-0.11606261
8	0xbe1d00c3	-0.15332322
9	0x3c43d8a9	0.011953511
10	0x3d011c77	0.031521287
11	0xbe0deba3	-0.1385942
12	0x3c02b7cc	0.007978391
13	0x3d8bd3a4	0.068274766
14	0x3daa4e25	0.08315686
15	0xbd0223f4	-0.03177257
16	0xbe016a7c	-0.12638277
17	0xbc06770c	-0.008207094
18	0x3de126ef	0.10993754
19	0x3d00cc92	0.031445093
20	0x3da04edb	0.078275405
21	0x39edaf48	0.00045334757
22	0x3d0b2eea	0.033980288
23	0xbe003197	-0.12518917
24	0x3d7e3961	0.06206644
25	0xbe06c48b	-0.13160913
26	0xbe138e27	-0.14409696
27	0x3db18239	0.08667416
28	0xbcb50954	-0.022099175
29	0xbd75d93a	-0.060021617
30	0xbe1858ab	-0.14877574
31	0x3d27c8e7	0.04096308
32	0x3dd430ee	0.10360895
33	0x3c4b4d02	0.012408497
34	0x3dd9ba23	0.10631206
35	0xbd1c95a9	-0.038228665
36	0x3d312bf9	0.043254826
37	0xbdf766f0	-0.12080181
38	0x3d48d23e	0.049028628
39	0x3df65483	0.12027838
40	0x3d359bbe	0.04433798
41	0xbd8ff20f	-0.07028591
42	0x3b8fc12b	0.004387041
43	0xbd17beb4	-0.037047103
44	0x3d4c089b	0.049812894
45	0x3d81bb67	0.06334572
46	0xbe1b1945	-0.15146358
47	0xbdf387ba	-0.11891122
48	0x3cf10208	0.029419914
49	0xbdd0999a	-0.10185547
50	0x3d8ad49b	0.067788325
51	0xbd537d7b	-0.05163334
52	0x3d832fe4	0.06405619
53	0x3cc0aa3d	0.023518676
54	0xbd0ee286	-0.034884
55	0x3dba535a	0.09097929
56	0x3c95774e	0.018245365
57	0xbddf62f3	-0.10907545
58	0xbe109344	-0.14118677
59	0xbd97ea76	-0.07417767
60	0xbd811f00	-0.06304741
61	0xbe12b78f	-0.14327835
62	0xbd605930	-0.054772556
63	0x3dfff4f2	0.124978915

weight f4 [32, 64]
0	0x3cd530ee	0.026024308
1	0x3cf16e35	0.029471496
2	0x3d151f38	0.036406726
3	0x3ca91c71	0.020643445
4	0x3cae9570	0.021311492
5	0xbc3777ef	-0.011198028
6	0xbc73337f	-0.014843821
7	0x3b5920ca	0.0033131116
8	0x3cf5bd4f	0.029997496
9	0x3bd79df8	0.0065801106
10	0xbcbbc5c0	-0.022921443
11	0xbb643680	-0.0034822524
12	0x3bd60b81	0.006532133
13	0x3afb7b36	0.00191865
14	0x3aad384a	0.0013215628
15	0xbc8e9054	-0.017402805
16	0x3c274e12	0.0102114845
17	0xb99631e1	-0.00028647392
18	0x3a71c733	0.00092231034
19	0x3ba9efa0	0.005186036
20	0x3a0dc9f6	0.00054088177
21	0x3cfaf784	0.030635603
22	0x3cc36e2e	0.023856249
23	0x3d2598fb	0.040429097
24	0x3a951622	0.0011374394
25	0x3c671d35	0.014106085
26	0x3d172fc7	0.0369108
27	0xba427cbe	-0.0007419101
28	0x3c912b45	0.017720828
29	0x3cb76e63	0.022391504
30	0xbb8686b1	-0.004105412
31	0x3c0e4150	0.008682564
32	0xbb145c1b	-0.0022637907
33	0x3ce9521a	0.028481532
34	0x3a25ecbe	0.0006329528
35	0x3cc0bab1	0.023526521
36	0x3a0dc23e	0.00054076675
37	0x3c58fd41	0.013243974
38	0x3b21f3c2	0.0024711941
39	0xbac32678	-0.0014888784
40	0x3af2553a	0.0018488534
41	0x3cb925c6	0.02260102
42	0x3be0676a	0.0068482654
43	0x3ccadfbf	0.024764894
44	0x3acded07	0.0015710898
45	0x3b982990	0.0046436265
46	0x3ccdbf86	0.02511574
47	0x3c3f55e8	0.0116781965
48	0x3b892af3	0.004186028
49	0x3cc5191e	0.024059828
50	0x3cdd91cb	0.027047059
51	0x3cda4191	0.026642593
52	0x3c4c4b41	0.012469114
53	0x3b08cb3d	0.0020873093
54	0x3cc731bc	0.024315707
55	0xbc2ac673	-0.010423291
56	0x3c79a276	0.015236488
57	0xbc83cf6f	-0.016090123
58	0x3c905052	0.017616425
59	0x3cbfc22c	0.023408018
60	0x3cced889	0.025249736
61	0x3c6bb8f7	0.014387361
62	0x3bb9579e	0.0056561967
63	0xbb6a3f3f	-0.0035743264
64	0x3db334eb	0.08750328
65	0x3cdd4426	0.027010035
66	0x3d9e72de	0.07736753
67	0x3dada104	0.08477977
68	0xbd8226dd	-0.06355069
69	0xbc0f4331	-0.008744047
70	0x3ca88c1f	0.020574627
71	0x3c2486b4	0.010041881
72	0x3d930dab	0.07180341
73	0x3cda7645	0.026667723
74	0x3d22aebe	0.03971743
75	0xbb27a66e	-0.0025581378
76	0x3c89699a	0.016773988
77	0x3c191932	0.009344386
78	0x3c131318	0.00897672
79	0x3c410255	0.011780341
80	0x3c983efc	0.01858472
81	0x3c8f26a8	0.017474487
82	0x3b5403b9	0.0032350852
83	0x3cc1c91c	0.023655467
84	0x3c52b786	0.012861138
85	0x3d24633a	0.040133692
86	0x3cb9a0f5	0.022659758
87	0x3dd11278	0.10208601
88	0x3c57bdde	0.013167826
89	0x3d1ca1e7	0.03824034
90	0x3d913631	0.07090414
91	0x3b8f9ddd	0.0043828324
92	0x3ce6f8b4	0.028194763
93	0x3d7b834e	0.06140452
94	0xbb83d9ba	-0.0040237578
95	0x3cd85ef8	0.026412472
96	0x3b9a284a	0.00470451
97	0x3cf888ee	0.03033873
98	0x3bbcc327	0.0057605687
99	0x3d29659f	0.04135668
100	0x3c0f759b	0.008756067
101	0x3d84cf53	0.064848565
102	0x3c57dcb4	0.013175178
103	0x3aa89f0b	0.0012864781
104	0x3c5a1876	0.013311496
105	0x3d71791a	0.058953382
106	0x3cc853a8	0.024453953
107	0x3d635786	0.05550339
108	0x3be88e25	0.007097023
109	0x3c081cf2	0.008307682
110	0x3d07f9a5	0.033197064
111	0x3c1cc46d	0.009568316
112	0x3cc41b5a	0.023938823
113	0x3d344c6c	0.044018194
114	0x3c78898f	0.015169515
115	0x3e0da859	0.13833751
116	0x3c85f9e9	0.016354518
117	0x3c3a1810	0.011358276
118	0x3d585e07	0.052824046
119	0xb91896f0	-0.00014552078
120	0x3c4bd453	0.012440759
121	0xbbc55771	-0.0060223867
122	0x3d6bee8f	0.057600554
123	0x3d7b0868	0.061287314
124	0x3d2a15b5	0.041524608
125	0x3d459409	0.04823688
126	0x3d0e1472	0.034687467
127	0x3b3b7949	0.0028606227
128	0x3dff0bc2	0.124534145
129	0x3b60a53d	0.0034278177
130	0x3d9ebfe9	0.07751448
131	0x3dbb4f92	0.09146036
132	0xbd616224	-0.055025235
133	0xbcb6db32	-0.022321317
134	0xbb9ad54b	-0.0047251335
135	0x3d65f768	0.056144148
136	0x3d8ac04c	0.06774959
137	0x3becf11d	0.0072308914
138	0xbca9899b	-0.020695498
139	0xbc8aba82	-0.016934637
140	0x3c9a8c3e	0.0188657
141	0xbbeb5df2	-0.00718283
142	0xbc0aa90d	-0.008463156
143	0x3d025122	0.031815656
144	0x3cb29745	0.021800647
145	0x3d52fe86	0.051512264
146	0xbc469747	-0.012121028
147	0x3bf68366	0.007522988
148	0xbbd08615	-0.00636364
149	0x3ca88703	0.020572191
150	0xbb235012	-0.0024919552
151	0x3dc30d3f	0.09524011
152	0xbbb9edd2	-0.0056741023
153	0x3d53c7a7	0.051704075
154	0x3d8a8660	0.06763911
155	0xbc3ac412	-0.011399286
156	0x3d86aa7f	0.06575488
157	0x3daf0ba3	0.085471414
158	0xbca85ac7	-0.020551099
159	0x3b87475f	0.004128381
160	0xbc20fadf	-0.009825437
161	0x3bec0e27	0.0072038355
162	0xbc32915e	-0.010898916
163	0x3dcf014b	0.101076685
164	0xbc08e4fb	-0.008355374
165	0x3e143de7	0.14476739
166	0xbb434b71	-0.0029799605
167	0xbc6fbf13	-0.014632958
168	0xbb04fde3	-0.002029293
169	0x3da90813	0.08253493
170	0x3cc8a1f4	0.024491288
171	0x3e0297ce	0.12753221
172	0xbc194032	-0.009353684
173	0xbc06bb6b	-0.008223395
174	0x3d437617	0.04772004
175	0x3cb016a3	0.021495169
176	0x3c0e69a3	0.008692178
177	0x3d9cd051	0.07656921
178	0xbc0705f4	-0.008241165
179	0x3d2015b5	0.0390832
180	0xbbf845a7	-0.0075766626
181	0xbacd6ee3	-0.0015673306
182	0x3dfb8221	0.122806795
183	0xbc234f25	-0.0099676
184	0xbbd5cbcc	-0.0065245386
185	0x3d1e9518	0.038716406
186	0x3d4400cc	0.047852322
187	0x3dadab20	0.08479905
188	0x3dc52582	0.09626295
189	0x3d1e0ed0	0.038588345
190	0x3d856a77	0.06514447
191	0xbc6b2652	-0.014352398
192	0xbc0f0bfc	-0.008730885
193	0xbcf3aeb1	-0.029746385
194	0xbc68f589	-0.014218696
195	0xbbb3e74a	-0.0054902183
196	0x3d920223	0.07129314
197	0xbc3208c6	-0.01086635
198	0xbbe694ca	-0.00703678
199	0x3c103b23	0.008803162
200	0x3c1ca73e	0.009561358
201	0xbc7f404a	-0.015579293
202	0xbc756147	-0.014976806
203	0x3cd904e5	0.026491592
204	0xbc999066	-0.018745612
205	0xbcd5194b	-0.026013037
206	0xbc9f6cfd	-0.01946115
207	0x3a05275f	0.0005079414
208	0x3bb1b768	0.005423475
209	0x3c139437	0.009007505
210	0xbc8ff02d	-0.01757058
211	0xbd040b4f	-0.032237347
212	0xbcc4ca36	-0.024022203
213	0xbcf0d7a9	-0.02939971
214	0xbce57abc	-0.028012626
215	0xbc4a27ab	-0.012338559
216	0xbca7dc94	-0.020490922
217	0xbc6079a3	-0.013700875
218	0xbc353a3c	-0.011061247
219	0xbc994b4a	-0.018712658
220	0xbc39ab5b	-0.011332358
221	0xbc605ba7	-0.013693727
222	0x3cdf644d	0.027269507
223	0xbb9efadd	-0.0048516826
224	0xbca21110	-0.019783527
225	0xbd00beb6	-0.031431876
226	0xbc90a4c6	-0.017656695
227	0xbafdd295	-0.0019365126
228	0xbc95ebe5	-0.01830096
229	0x3ce9f0bd	0.028557176
230	0xbcdb2f42	-0.026755933
231	0xbc914d3d	-0.017737025
232	0xbccd722b	-0.025078854
233	0xbc3e8db9	-0.011630469
234	0xbcacfef2	-0.021117661
235	0xbc44c744	-0.012010399
236	0xbcb08f37	-0.021552665
237	0xbcb6b603	-0.022303587
238	0x3ce32c96	0.027731221
239	0x3c9c6d9e	0.019095238
240	0xbc2c8147	-0.010528869
241	0x3c93a36a	0.018022258
242	0xbcf52f07	-0.029929651
243	0x3bb34d05	0.005471828
244	0xbd0de447	-0.03464153
245	0xbcc76cfd	-0.024343962
246	0xbc3614cd	-0.011113358
247	0xbbfd37d6	-0.0077276034
248	0xbcfa2b15	-0.030538121
249	0x3d52021f	0.051271554
250	0x3cca32a0	0.024682343
251	0xbc537cb6	-0.012908151
252	0x3b007f19	0.0019607006
253	0x3cf091ee	0.02936646
254	0x3c23de83	0.010001781
255	0xbbe8e6e6	-0.0071076034

bias f4 [32]
0	0x3cd0b286	0.025475752
1	0x3c92b839	0.01791011
2	0xbd9ea062	-0.07745434
3	0x3d24fbe6	0.04027929
4	0xbb0f0775	-0.0021824513
5	0xbd07189f	-0.032982465
6	0xbd1cb418	-0.03825769
7	0xbe3de3a2	-0.18543866
8	0xbe0c5a81	-0.137064
9	0xbd30f54b	-0.04320268
10	0x3c0443de	0.008072821
11	0xbddf3b2f	-0.1089996
12	0xbc1e1c77	-0.009650341
13	0xbd9f4dc3	-0.07778504
14	0x3caa6183	0.02079845
15	0xbd348b0a	-0.04407791
16	0xbca254c7	-0.019815816
17	0xbe598b5a	-0.21244565
18	0xbe189434	-0.14900285
19	0xbc872f5f	-0.01650208
20	0xbdf9dacd	-0.12199936
21	0xbe325849	-0.1741649
22	0xbe01f2ed	-0.12690325
23	0xbddb4dbc	-0.10708186
24	0xbc95f9b9	-0.018307554
25	0xbdd484cd	-0.10376892
26	0xbe39c241	-0.18140508
27	0x3c596d77	0.013270727
28	0xbde2d55e	-0.11075853
29	0x3d31a1ad	0.043367077
30	0xbdb1400b	-0.08654793
31	0xbd2ae614	-0.041723326

weight f4 [32, 1]
0	0xbf215d13	-0.63032645
1	0x3e8c0f50	0.27355433
2	0x3f162f07	0.5866551
3	0xbf2652c3	-0.64970034
4	0x3f22bb9f	0.6356754
5	0xbf11a183	-0.5688707
6	0xbf02a025	-0.5102561
7	0x3ecfe771	0.40606263
8	0xbf2abbb8	-0.66692686
9	0xbf08e774	-0.5347817
10	0xbf3611ff	-0.7112121
11	0xbf12749d	-0.5720919
12	0x3f1ac611	0.60458475
13	0xbf53d544	-0.8274729
14	0xbef8e145	-0.48609367
15	0x3f3131f2	0.69216835
16	0xbf198aa5	-0.5997718
17	0xbf28069c	-0.65635085
18	0xbef78096	-0.4834029
19	0xbf1fd70d	-0.62437516
20	0x3f2abf00	0.6669769
21	0x3f62c7b0	0.8858595
22	0x3f09a6a3	0.5376989
23	0xbf25ba14	-0.6473706
24	0xbee9facc	-0.45699155
25	0xbf17a6e8	-0.59239054
26	0x3f38af62	0.7214261
27	0x3ea8832b	0.32912573
28	0x3f245dce	0.64205635
29	0xbf0f4f7f	-0.55980676
30	0xbf1b2da4	-0.6061652
31	0xbf1f00c8	-0.6211057

bias f4 [32]
0	0x3f236ce0	0.63838005
1	0xbea79e68	-0.32738042
2	0xbeabe71d	-0.33574763
3	0x3f4f4042	0.80957425
4	0xbf31f6e5	-0.69517356
5	0x3f13c208	0.57717943
6	0x3ec6004f	0.3867211
7	0xbead6184	-0.3386346
8	0x3ef5f0b0	0.48035192
9	0x3f09243c	0.53570914
10	0xbe611014	-0.2197879
11	0x3f14860a	0.5801703
12	0xbf4b819e	-0.79494655
13	0xbded9291	-0.11600221
14	0x3ec199f1	0.3781276
15	0xbedd19b3	-0.4318367
16	0x3f1c32f7	0.61015266
17	0x3f4aba7d	0.7919081
18	0x3ec06f01	0.3758469
19	0x3f226543	0.63435763
20	0xbf0f4f5a	-0.55980456
21	0x3d739ebf	0.059477564
22	0xbf73f7a2	-0.9529973
23	0x3f55753c	0.8338201
24	0xbe7421ea	-0.23841062
25	0x3ede6da7	0.43443033
26	0xbf174c39	-0.5910068
27	0xbeb9deb4	-0.36302722
28	0xbf2a23e9	-0.66461045
29	0x3ed7163e	0.42009157
30	0x3f1d4e7c	0.6144788
31	0x3f661eb9	0.8989063

weight f4 [64, 32]
0	0xb95a7899	-0.00020835026
1	0x3c007199	0.007839584
2	0xbe599e95	-0.212519
3	0xba0b57de	-0.00053155224
4	0x3a4730c6	0.00075985154
5	0xba7512d2	-0.0009348813
6	0xbc8ac5b0	-0.016939968
7	0x3d632f63	0.055465113
8	0xbc40a95b	-0.0117591275
9	0xbb08b553	-0.002086003
10	0x3d1e3cbe	0.038632147
11	0xba68948a	-0.00088722317
12	0x3a9bd5f8	0.0011889329
13	0x3d5e6068	0.05429116
14	0xbc837015	-0.016044656
15	0xbe71c2da	-0.23609486
16	0xba2a8c4f	-0.0006505893
17	0xb9c14458	-0.0003686275
18	0xbc842cc1	-0.016134622
19	0xb95aa822	-0.00020852734
20	0x3d4f9ece	0.050688557
21	0xbde50c33	-0.111839674
22	0x3affef0a	0.0019526195
23	0xba046058	-0.0005049757
24	0x3ce96586	0.028490793
25	0xbc76c529	-0.015061655
26	0x3d765d20	0.060147405
27	0x3bd0311f	0.006353512
28	0x3a2a15d3	0.00064882374
29	0xbc766d30	-0.015040681
30	0xba02588e	-0.0004972302
31	0xba7c6039	-0.00096273754
32	0xbd42ca3d	-0.04755615
33	0x3cc093f3	0.023508048
34	0xbd273570	-0.040822446
35	0xbd94c3f4	-0.072639376
36	0x3d883240	0.066502094
37	0xbd43181b	-0.04763041
38	0xbd624112	-0.055237837
39	0x3dc6c0e7	0.09704762
40	0xbd4b91de	-0.049699657
41	0xbd4747fc	-0.048652634
42	0x3d32157e	0.043477528
43	0xbd4235b5	-0.0474145
44	0x3d9518ac	0.072800964
45	0xbb4c6207	-0.0031186359
46	0xbd5c19ea	-0.05373565
47	0xbd3b159b	-0.0456749
48	0xbd43de11	-0.0478192
49	0xbd934164	-0.07190207
50	0xbd59e5c9	-0.053197656
51	0xbd3f963a	-0.046774127
52	0x3dab2c8f	0.08358108
53	0x3dd3d19b	0.103427134
54	0x3d9dbae1	0.0770166
55	0xbd96cc6f	-0.07363211
56	0x3d8b0955	0.06788889
57	0xbd5ea76a	-0.054358877
58	0x3e3d92d9	0.18513049
59	0x3d745efd	0.0596609
60	0x3d818fdf	0.06326269
61	0xbd6191ae	-0.05507057
62	0xbd4466a8	-0.047949463
63	0xbd9a9c35	-0.075493254
64	0xba373c1f	-0.0006989855
65	0x3cdfa74b	0.027301451
66	0xbd235ae3	-0.0398816
67	0xbbfbf17e	-0.0076887
68	0x3c1edf4a	0.009696791
69	0x3a37e990	0.00070156995
70	0x3d1cd937	0.03829309
71	0x3e397a1d	0.18112989
72	0x3ca67338	0.020318612
73	0x3bb0f39a	0.0054001333
74	0x3e113611	0.14180781
75	0x3a2a8f11	0.0006506304
76	0x3c5b1b40	0.013373196
77	0x3e5aa0bc	0.21350378
78	0x3d21a734	0.039466098
79	0xbc453328	-0.012036122
80	0xba350e0e	-0.00069066964
81	0xbbe55378	-0.0069984756
82	0x3d1df3ab	0.038562458
83	0xba10bb38	-0.0005521062
84	0x3e1dcd1e	0.15410277
85	0xbec03dc0	-0.37547112
86	0x3c95b75a	0.018275905
87	0xbc07b73e	-0.008283434
88	0x3dd1fc64	0.10253218
89	0x3d10af60	0.0353235
90	0x3df3362b	0.11875566
91	0x3c63dcc4	0.013907615
92	0x3c0b60e4	0.008506987
93	0x3d207b3d	0.03918003
94	0xb9981d44	-0.00029013504
95	0xbc2fd5f7	-0.010732166
96	0x3c8d9f91	0.017288001
97	0x3b3458ce	0.0027518752
98	0xbe32319e	-0.1740174
99	0x3b2814cc	0.0025647162
100	0xbb6c6d5e	-0.003607593
101	0x3c855cfb	0.016279688
102	0x3c33efbb	0.010982449
103	0x3d368a35	0.0445654
104	0x3c8b5311	0.017007383
105	0x3c62e5f6	0.013848772
106	0x3dc2428e	0.094853505
107	0x3c87082e	0.016483393
108	0x3b87e23f	0.0041468437
109	0x3d8a20e8	0.067445576
110	0x3c57e526	0.013177192
111	0xbe345c86	-0.1761342
112	0x3c86c2f3	0.01645038
113	0x3b825e76	0.003978546
114	0x3c5c9cc6	0.013465112
115	0x3c9588bd	0.018253678
116	0x3d9bd2c5	0.076085605
117	0xbd9ece6c	-0.077542156
118	0x3c6505dd	0.013978449
119	0x3a793254	0.00095060957
120	0x3dcf8b8a	0.10134037
121	0x3c33e504	0.010979895
122	0x3dbe55e6	0.092937276
123	0x3c146a8b	0.009058605
124	0xbbcd298b	-0.006261056
125	0x3c39f95d	0.011350957
126	0x3c8a8abd	0.016911859
127	0xbb6ea204	-0.0036412487
128	0xbc0a1ba2	-0.00842944
129	0x3c8a388f	0.016872672
130	0xbe99f511	-0.30069783
131	0xbc315222	-0.010822805
132	0x3c4ac725	0.012376581
133	0xbc1abb92	-0.009444134
134	0xbd39c43f	-0.04535317
135	0xbd3d71fa	-0.046251275
136	0xbd1adaff	-0.037806507
137	0xbc466c6d	-0.012110812
138	0x3d36a33e	0.044589274
139	0xbc17fcdd	-0.009276596
140	0x3c62b1c1	0.013836325
141	0x3ca77046	0.020439278
142	0xbd2efc85	-0.04272129
143	0xbeac49f1	-0.33650163
144	0xbc15154e	-0.009099318
145	0xbc2ba1d2	-0.010475593
146	0xbd2eabc1	-0.042644266
147	0xbc06f36b	-0.008236746
148	0xbceed9e0	-0.029156625
149	0x3c811b84	0.01576019
150	0x3c8583c9	0.016298192
151	0xbc376e62	-0.011195751
152	0x3d48468c	0.048895404
153	0xbd3b5fa2	-0.0457455
154	0x3d2da381	0.042392258
155	0x3c9bd553	0.01902262
156	0x3c40de6a	0.011771778
157	0xbd37f84d	-0.044914532
158	0xbc12b5a7	-0.008954442
159	0xbc4a12a2	-0.012333544
160	0xbd49fa5e	-0.049311034
161	0x3d9143fe	0.070930466
162	0x3d0f5581	0.034993652
163	0xbd8cc25c	-0.068730086
164	0x3d763451	0.060108487
165	0xbd42b2ba	-0.04753373
166	0xbb1ae262	-0.002363347
167	0x3e6b394a	0.22971073
168	0xbbc79d84	-0.0060917754
169	0xbd3ec282	-0.046572216
170	0x3e35144d	0.17683525
171	0xbd422e49	-0.047407422
172	0x3d90186a	0.070359066
173	0x3e5ddeea	0.21667066
174	0xba6106e3	-0.0008584095
175	0x3d82c202	0.0638466
176	0xbd4a9a7e	-0.04946374
177	0xbd896abb	-0.0670981
178	0xbae84754	-0.0017721453
179	0xbd448673	-0.047979783
180	0x3e434841	0.19070531
181	0xbea82934	-0.32843935
182	0x3da71335	0.0815796
183	0xbd8fba0a	-0.07017906
184	0x3e1eec0a	0.1551973
185	0x3a80c49e	0.0009824221
186	0x3e3835b6	0.17989239
187	0x3d908504	0.07056621
188	0x3d669fa3	0.056304585
189	0x3b0c9c9b	0.0021455649
190	0xbd481b7c	-0.048854336
191	0xbd9abad3	-0.07555165
192	0x3af0cfe6	0.0018372505
193	0x3cf0f01e	0.029411372
194	0x3694b492	4.431765e-06
195	0xbccbd7fd	-0.024883265
196	0x3ca165bc	0.019701831
197	0x3bc4a3fd	0.0060009942
198	0x3dada5c8	0.08478886
199	0x3e88fde9	0.26756218
200	0x3d594c24	0.05305113
201	0x3c36d073	0.011158097
202	0x3e3e8372	0.1860483
203	0x3bba9ea8	0.005695183
204	0x3cfa23b8	0.03053461
205	0x3e6f2d68	0.23357165
206	0x3db03e81	0.08605672
207	0x3d38fd13	0.045163225
208	0x3b553922	0.0032535275
209	0xbcba16fe	-0.022716042
210	0x3dae4318	0.08508891
211	0x3b980cc6	0.0046401946
212	0x3e1d99ea	0.15390745
213	0xbeb86f10	-0.36022234
214	0x3d31939b	0.04335366
215	0xbcd9f39c	-0.02660542
216	0x3e1a52f3	0.15070705
217	0x3da4ad9b	0.08040925
218	0x3df6e859	0.120560355
219	0x3cbbd3b6	0.0229281
220	0x3c81d168	0.015846923
221	0x3dad7228	0.08469039
222	0x3b92332f	0.004461668
223	0xbd07362e	-0.033010654
224	0xbcae9e68	-0.021315768
225	0x3c446c74	0.011988748
226	0xbdc9acb8	-0.098473966
227	0xbce2130e	-0.027596977
228	0x3cd95092	0.026527677
229	0xbc96c54e	-0.01840463
230	0xbc0a2ae1	-0.008433075
231	0x3d41f2a3	0.047350537
232	0xbc7f7c97	-0.015593669
233	0xbc856a50	-0.016286045
234	0x3d80a1cd	0.06280861
235	0xbc979c0f	-0.018507032
236	0x3ceea222	0.029130045
237	0x3d7ff246	0.06248691
238	0xbbeba47a	-0.007191238
239	0xbdb82454	-0.08991304
240	0xbca2e760	-0.019885719
241	0xbcdf3ea1	-0.027251543
242	0xbbf34350	-0.0074237958
243	0xbcaa7855	-0.020809332
244	0x3d4e8302	0.050417908
245	0xbd402ef6	-0.046919785
246	0x3d052b59	0.032512043
247	0xbce7a989	-0.028279083
248	0x3d409457	0.047016468
249	0xbc47a9c6	-0.012186473
250	0x3cad4e79	0.021155583
251	0x3c546951	0.0129645625
252	0x3cd26a56	0.02568547
253	0xbc2abdec	-0.0104212575
254	0xbca4ba6d	-0.020108426
255	0xbcf39723	-0.029735154

bias f4 [64]
0	0xbc646cc3	-0.013941946
1	0xbe7328ab	-0.23745982
2	0xbe273aa8	-0.1633097
3	0xbe5bde82	-0.21471599
4	0xbe12f59b	-0.14351504
5	0xbe43917b	-0.19098465
6	0xbe5be928	-0.21475661
7	0x3d64c799	0.055854414
8	0x3d1227aa	0.035682358
9	0xbcc27fbc	-0.02374255
10	0xbe60b6a9	-0.2194468
11	0x3da6dca8	0.081475556
12	0xbe3ac21e	-0.18238112
13	0xbe756c2f	-0.2396705
14	0x3ecc7755	0.39934793
15	0x3d9ca489	0.0764857
16	0x3d404960	0.046944976
17	0x3dbf3f4b	0.09338244
18	0x3daa6aeb	0.08321174
19	0x3d20d4f3	0.039265584
20	0x3d74213d	0.05960201
21	0x3e4f087f	0.20218085
22	0xbbe9a455	-0.0071301856
23	0xbbbbc76d	-0.0057305605
24	0xbe511dcb	-0.20421521
25	0xbe201331	-0.15632321
26	0x3d88ad68	0.066736996
27	0x3da56763	0.0807636
28	0xbe24f8c2	-0.16110519
29	0x3e9fee14	0.31236327
30	0x3cf82bae	0.030294266
31	0xbe6028d5	-0.21890576
32	0x3c3692ea	0.0111434255
33	0x3de371f3	0.111057185
34	0x3da5ee9b	0.08102151
35	0xbe0e9365	-0.13923414
36	0xbe4d83c3	-0.20069794
37	0x3db25e68	0.08709413
38	0x3c654367	0.013993121
39	0xbe5fbb62	-0.21848825
40	0x3d96f6e2	0.07371308
41	0x3daba976	0.083819315
42	0xbe6ef474	-0.23335439
43	0x3d5d81fe	0.05407905
44	0xbdd0dcc9	-0.101983614
45	0xbe6bc688	-0.23024952
46	0xbe69d350	-0.22834516
47	0xbe24c1ae	-0.16089508
48	0x3d215385	0.03938629
49	0xbe926bda	-0.2859791
50	0x3dbebd81	0.09313489
51	0x3c0d7b45	0.008635347
52	0x3cda2e87	0.026633514
53	0xbe2e4271	-0.17017533
54	0xbe0aab33	-0.1354187
55	0xbe19e8dc	-0.15030235
56	0xbe1c4d01	-0.1526375
57	0xbe1492b0	-0.14509082
58	0xbe0fc671	-0.14040543
59	0xbdf09d16	-0.11748712
60	0x3d292a09	0.041299853
61	0x3de90b8e	0.11379157
62	0x3dd8f969	0.10594446
63	0xbde51892	-0.11186327
