checkpoints/support2_honam2_emb32_0.pt (torch, 635858 bytes, 350 tensors)

weight f4 [32, 1]
00000000: 6011 9dbd ae44 783e 2616 d2bd 87de 19be
00000010: 1b7d 64bc 70c0 ff3d 19ee d3be dab2 0bbf
00000020: c03b 95be b315 493e fc25 9dbe 69ae 18be
00000030: 5beb e4bd 4b32 8d3e af3c 9a3c bd34 c6bd
00000040: ab14 823e 3d49 6d3d 8b2e fc3c 16ff 143e
00000050: 0170 a9be e1c3 99be c69d 903d 6033 b6bc
00000060: e344 9dbe 99c9 febd b1a3 d3bd 392b 453e
00000070: 487b debe e2b8 a8be 2c1b e1bc 3aec a2be
-0.0766933 0.24244949 -0.10258131 -0.15026294 -0.013945843 0.124878764 -0.41392592 -0.5456978
-0.29147148 0.19637184 -0.30693042 -0.14910282 -0.11177703 0.27577433 0.018827764 -0.09678028
0.25406393 0.057931174 0.030783912 0.14550433 -0.33093265 -0.30032256 0.07061343 -0.022241294
-0.3071662 -0.124407955 -0.10333956 0.1925477 -0.4345343 -0.32953554 -0.027478777 -0.31820852

bias f4 [32]
00000000: 95dd eabe cf29 85be 0d7d 06bf 6e55 4abf
00000010: f104 b4be 8f53 323f 4d98 713e 78c8 2b3e
00000020: df81 883e bc68 4cbe fcde 8c3e 8179 49bf
00000030: f405 0ebf c014 3bbe edfa cd3e c5a2 8d3e
00000040: 2ef0 8abe c3ae 2ebd 6965 d63e 4c84 573f
00000050: 9957 923e 70a5 8c3e 9703 f43e 389a b9be
00000060: 5bf9 8f3e ea81 1dbf 041d 05bf 65eb 44be
00000070: fdca 653e 5618 923e c823 bdbe 9e8e 8f3e
-0.4587218 -0.2600846 -0.5253456 -0.79036605 -0.3516002 0.6965875 0.23593254 0.16775692
0.26661584 -0.19961828 0.27513874 -0.78701025 -0.55477834 -0.18269634 0.40230504 0.27663246
-0.27136368 -0.042647135 0.41874245 0.84186244 0.28582457 0.2746997 0.4765899 -0.36250472
0.2811993 -0.6152636 -0.519974 -0.19230421 0.22440715 0.28534192 -0.3694136 0.28038496

weight f4 [64, 32]
00000000: bc4f 033c 90ce 8cbb 8b43 0c3c 936d 133c
00000010: f5cc e03b 7f28 22bc b37a a0ba 71da 45bb
00000020: 0b55 5b3c 76d0 e739 7e6b 6b3b 84dd 133c
00000030: 3a8b 0d3c 600f 2dbc bc01 09bc 4fec a7bb
00000040: ec89 50bb fb72 0abd f6a0 0cbc ccb7 23bc
00000050: 1a4f 6239 e6c3 993b 68c2 18bc 22a6 e83b
00000060: 9fea 393b 91ca 0f3c 5609 0c3c fcba 89bb
00000070: f20a cdba 1c81 1c39 fec5 e73b c842 663a
00000080: e44f d83c 3e23 74bd 0327 003d 4f4c 223d
00000090: d067 733c 9585 12bd 9125 ab3d e758 db3d
000000a0: 50b8 f53e cad6 fdbc 534e 953e 95fd 213d
000000b0: cdb0 063d c8ea 14be 0718 89bc 7c9a a6b9
000000c0: 69ba 86bd eb47 27bc 9581 9abc 2ea2 20bd
000000d0: 0b6e f73d 0de2 a63e fddf d3bc afac 843c
000000e0: d6b4 8e3e a961 103d 498c 003d 6db9 d4bc
000000f0: 5ecc a63d a09e f03d adfe 8c3c 4b68 3a3e
00000100: a640 d03b 470a 843b 771a d73b 16d2 da3b
00000110: e922 cf3b 68e5 dcbb bee2 60bb 6a67 c0bb
00000120: a80c 4fbb df23 c33b 9871 4cbb 28cb da3b
00000130: c5a1 d73b d95e 083d 90c9 d8bb 83ce ddbb
00000140: 228a 603b 3aa3 763d d161 dbbb 4277 dcbb
00000150: a968 c4ba 292e 5ebb 5660 dabb cb21 ce3b
00000160: a794 4bbb b637 d93b 77da d53b dd54 bc3b
00000170: 4d8e 6dbb 26bd b5ba ac4d d23b bca4 56bb
00000180: 35c1 f83c b1e1 e03c fb9d f33c af3d e83c
00000190: 1df9 ff3c dd91 cabc 5642 3fbc 66fc f2ba
000001a0: 1067 7a3d 1df3 e43c 07d9 43bc 6584 e83c
000001b0: 37ff f13c 49b8 96bc 1016 d7bc 89a9 d9bc
000001c0: c124 df3c ebe5 9f3d ea0d d5bc 87ae c6bc
000001d0: fb0d 95bc f501 c7bb d713 d2bc c10b ff3c
000001e0: 52c9 70bc 9cad ee3c 2ae2 f43c 9ef4 d83c
000001f0: 0309 33bc 8607 97bc 9e5f fe3c b7ed 8cbc
00000200: c35c 86bb 54e7 fe3c 3c39 eabb 890b 63bc
00000210: 919b fb3a b43e a03c 057a 9bbd 9ea6 c0bd
00000220: f215 d7be 3270 a73c c7f2 87be 6f2e 5fbc
00000230: e20f 08bc ec36 4a3e 2957 d03b cb66 80bb
00000240: 3704 113d 320c ce3d 40b6 fa3b 9732 b63c
00000250: f511 e5bd 8921 97be f6cc 4a3c e1a4 ab3a
00000260: 08c9 82be cb03 23bc 82d8 e7bb b1fb b63c
00000270: 26f1 99bd 4421 debd 81a9 363a f2f7 29be
00000280: d7a3 c53b 8079 243c 87ca 693b 68d0 e4ba
00000290: c01d 443c 7c5f f83b 6268 8ebd 5037 b9bd
000002a0: 88b7 b0be 87e3 543c a529 60be 1b10 d4ba
000002b0: d926 2d3b a4d9 ba3d 11d6 afbb 09b5 83bc
000002c0: f483 903c ea63 bc3c 8406 82bb 1c64 223c
000002d0: 4f13 cfbd 843e 78be c57d 3b3a 559c 363c
000002e0: d5ba 59be 2eff 993a 8676 6c3b d493 6e3c
000002f0: 2dd0 8abd 509b d8bd 0b91 303c bca6 15be
00000300: 5918 b13d 75f8 2dbc ef00 bb3d ce86 ca3d
00000310: 76c1 963d f81f c4bd e239 b23d 4fc3 083e
00000320: 18a0 c63e 993d ad3b 0a76 6b3e 3746 ca3d
00000330: 969f be3d 6931 41bd c143 9cbd dc18 5dbd
00000340: 6911 54bc caad 39bd d6ed a0bd 2bfa c9bd
00000350: f4f7 c43d dbf7 7d3e a694 b0bd b958 9a3d
00000360: 7830 4a3e 89bf c23d 5787 bb3d c0c5 cf3b
00000370: 2012 b83d a44e bd3d 1393 9c3d aac3 183e
00000380: 41a6 4e3c 91cb 343d c70c 243c 72ad a83b
00000390: 1c33 9e3c 9975 c9bb fd28 bfbd 1f39 cbbd
000003a0: b839 c2be 1b6f 133d ea93 9abe 2265 ae3b
000003b0: fb33 143c 9555 383e 1d2e 9cbc f524 01bd
000003c0: 3922 5c3d 9378 9a3d d0e5 90bc db3b 89bb
000003d0: 0ed9 12be 93b5 b1be b832 52bc d35f 973c
000003e0: 68c2 94be e514 fa3b 8185 213c 74c1 e93c
000003f0: bdfd b8bd d4f2 0fbe 21e1 923c e7ab 48be
0.008014616 -0.004297085 0.008561025 0.0089982925 0.0068603703 -0.00989735 -0.0012243598 -0.0030190016
0.013386975 0.0004421507 0.0035922225 0.009024981 0.008639151 -0.010562748 -0.00836223 -0.0051246057
-0.003182049 -0.03380106 -0.008583298 -0.009992551 0.00021582507 0.0046925424 -0.009323694 0.0070998827
0.0028368605 0.008776323 0.008547148 -0.0042031985 -0.0015643521 0.00014925416 0.007073163 0.0008783755
0.026405282 -0.059603922 0.031287204 0.039623555 0.014856294 -0.035771925 0.083567746 0.10710316
0.47992182 -0.030986208 0.2916132 0.039548475 0.032883454 -0.14542687 -0.01673509 -0.00031777087
-0.06578524 -0.010210018 -0.018860618 -0.039217167 0.12081536 0.32594338 -0.025863642 0.016195623
0.27872342 0.035249386 0.031383786 -0.025967324 0.08144449 0.11749005 0.017211283 0.18203847
0.006355363 0.0040295455 0.006564434 0.006677876 0.0063213003 -0.0067412145 -0.0034314836 -0.005871703
-0.0031593237 0.005955204 -0.0031195637 0.00667705 0.0065805637 0.03329358 -0.006615825 -0.006769003
0.003426202 0.06021426 -0.0066950102 -0.006728084 -0.0014984804 -0.0033902025 -0.006664316 0.0062906495
-0.0031063945 0.0066289557 0.006526287 0.005747421 -0.0036248148 -0.0013865575 0.0064179506 -0.0032751998
0.030365566 0.027451368 0.029738417 0.028349726 0.031246716 -0.024727756 -0.011673531 -0.0018538355
0.061133444 0.027947957 -0.011953599 0.028383443 0.029540641 -0.01839842 -0.026255637 -0.026570098
0.027239205 0.07807525 -0.026007611 -0.024253143 -0.018195143 -0.0060732313 -0.025644226 0.031133534
-0.014696436 0.029135518 0.029893 0.02648383 -0.0109274415 -0.018436205 0.031051453 -0.017203195
-0.0041004135 0.031116165 -0.007147936 -0.013857731 0.0019196143 0.01956115 -0.07591633 -0.0940678
-0.4200893 0.020439241 -0.26552412 -0.0136219105 -0.008304568 0.19747514 0.0063580466 -0.003918504
0.03540441 0.1006092 0.0076511204 0.02224092 -0.11185066 -0.29517773 0.012377968 0.0013095402
-0.25544 -0.009949635 -0.0070753703 0.022336813 -0.075166985 -0.10846189 0.0006968007 -0.1659849
0.006031494 0.0100387335 0.0035673694 -0.001745713 0.011969984 0.007579742 -0.06953503 -0.09043753
-0.34515023 0.0129937 -0.21890886 -0.0016179116 0.002642086 0.09123543 -0.005366095 -0.016077535
0.017641045 0.022996861 -0.003968062 0.009911563 -0.10111105 -0.24242598 0.0007152225 0.011145671
-0.21262677 0.0011749023 0.0036081388 0.014561612 -0.06777988 -0.105764985 0.010776768 -0.14614385
0.08647222 -0.010618319 0.091310374 0.09888993 0.073611185 -0.0957641 0.087024465 0.13355754
0.38794017 0.005286884 0.22994247 0.09876674 0.09307782 -0.04716626 -0.076301105 -0.053978786
-0.012943604 -0.045331754 -0.078578636 -0.09862169 0.09617606 0.2480158 -0.086221024 0.07536454
0.19745052 0.09509189 0.091566734 0.0063407123 0.08987832 0.09243515 0.0764524 0.1491839
0.01261288 0.04413945 0.010012812 0.0051476294 0.01931148 -0.006148052 -0.0933399 -0.09923004
-0.3793466 0.03599463 -0.30190974 0.0053221146 0.009045596 0.18001397 -0.019064957 -0.031529386
0.053743575 0.07542529 -0.017687708 -0.0041880435 -0.14340612 -0.34708843 -0.012829475 0.01847831
-0.2905457 0.0076318854 0.00985849 0.028534628 -0.09032772 -0.14057475 0.017929615 -0.19596826

bias f4 [64]
00000000: f3ae c1ba 5c61 ea3d 164f 4a3c 2556 6dbd
00000010: 8234 fbbd 4b6f a5bd 46a5 e93c 2881 04bc
00000020: ccc7 b7bc 307f a1bb ed12 bdbd b1b4 6dbc
00000030: e5ac 3abd 7c42 473d dd9e c43d 9af4 9e3d
00000040: 2c57 c23d f30a 0dbe 5be8 6dbd 6b84 513c
00000050: 4a8d f0bd 26a6 c83c 221d b3bd 88d2 0ebc
00000060: d50f d53d e928 0bbe 841d d93d 8ed5 713d
00000070: ac0b bebd c273 f63d 5b32 fdbd e592 c6bd
00000080: b8ad a7bd a723 cabc e728 9f3c 260e 5ebd
00000090: 459b 14be eaeb 1bbd 63a8 be3d a38e c73d
000000a0: 6761 4d3d f262 723c a1fc e93c 6c32 e9bd
000000b0: cad1 3fbb ec02 11be 8299 7fbd 9085 50bd
000000c0: 22c8 e43c 1615 66bc c588 babd 4687 a63c
000000d0: a9ef 07be b4ad 2abd ed5b 083d 2af4 93bc
000000e0: aa51 01bd 3ae8 9c3d d839 edbd afa7 8bbd
000000f0: df17 f73d 7037 283c e59c b5bc 7be3 4b3d
-0.001477687 0.11444351 0.012347957 -0.057943482 -0.122658744 -0.08077868 0.028521191 -0.008087434
-0.022434138 -0.004928492 -0.092321254 -0.014508412 -0.04557504 0.04864739 0.09600613 0.07761498
0.09489283 -0.13773708 -0.05808292 0.012787919 -0.11745699 0.024493288 -0.08745791 -0.008717187
0.1040341 -0.13589825 0.10601333 0.059041552 -0.0927957 0.12033798 -0.1236312 -0.09695987
-0.08187431 -0.024675203 0.019428683 -0.05421271 -0.14512356 -0.038066782 0.09309461 0.09744003
0.05014172 0.014794098 0.028562846 -0.1138657 -0.002926933 -0.14161271 -0.062402256 -0.050908625
0.027927462 -0.014043113 -0.09108118 0.020328175 -0.13275017 -0.041669562 0.033290792 -0.018060762
-0.03157202 0.07661481 -0.115832984 -0.068190925 0.120651 0.010267124 -0.02216954 0.04977749

weight f4 [32, 64]
00000000: d8b6 053b 610e 16bd 2184 16bc d32e f9bb
00000010: 7586 913a b40e 763d ce89 afbc 94ab b03d
00000020: 825c 563d 6c48 97bc 3b08 f83c 4d70 20bc
00000030: 36c7 573c 76f3 92bc e8c8 1bbd bdd5 04bd
00000040: 92bd 36bd 45d3 caba 6ddc 793c 0f1c 6bbc
00000050: 4168 153d 3578 79bc 4f1f 583d 7e19 d0bc
00000060: 45b1 24bd 14da 7e3b 2635 25bd 08d1 82bd
00000070: 887c 133d 6353 25bd f40c 713d 665e 443d
00000080: 9c8b bbbc 0b7a d33c 5fb8 57bc df5d 31bb
00000090: 1713 423d 5ff4 a13d 55c6 12bd d9a2 16bd
000000a0: df34 8fbc 5ed1 74bc 8f6d 81bc 4db9 4e3c
000000b0: fb5f c0bc ccf5 2e3d 2c0f 3b3d 5335 acbb
000000c0: f8cf e6bc 9f87 6e3d a344 d7bb e63e 7ebc
000000d0: b38b 8b3b b346 4f3c c08d 82bc bd71 6f3d
000000e0: 652d 8cbb f5bf 0ebd 0a6f e33b d744 3b3d
000000f0: b088 1ebd 0c07 4ebc 58ce a3bb da94 92bc
00000100: f2b4 7d3c 8b8a 49bd 4c09 063c 01e8 0bbd
00000110: 1f59 403d e924 3a3d 6230 d0bc a991 a23d
00000120: 77db 4e3d 8abc fcbc 8d4e d83c 05e1 1ebc
00000130: 54e2 5637 fc2e d23a 073d 0cbd 61d6 24bd
00000140: 9c3f 4bbd 5599 063d 84a9 a43b b692 0a3b
00000150: 3f05 6e3d 20d2 893b 0ac5 433d c4c1 36bd
00000160: bb4a 28bd 8f4d 1d3d 10ee 21bd d3dd cc3a
00000170: dd3e e03c 7267 49bd cc5b 6b3d 32e4 353d
00000180: 3e44 bf3a 672e abbb b72d a13b 0ca4 dfba
00000190: 13f2 e93c 9d5d 863d bd10 1dbd 0ec2 16bd
000001a0: 1b79 843b 2f90 223b 38b5 673b 6882 423d
000001b0: 955f e7bc b62c 543d 52e8 0dbc 34b8 3cbc
000001c0: 70ed dfbc 02b1 c53d f491 0dbd 5518 ff3a
000001d0: a083 223d fea5 86bb 4808 573b 4c38 413d
000001e0: 16ab 61bb 1695 29bd 0d99 103d 5521 00bc
000001f0: 9d18 37bd 32a8 e03b aa76 223a cf38 043b
00000200: 7410 133c efa5 7b3c d796 f6ba cb79 88bc
00000210: 82e2 9fb9 6fd1 113b 2143 0dbe 5788 be3c
00000220: 21cf ca3c 2351 4dbe c3be 77bc 2c2a 3b3d
00000230: 0664 863d 61be f8bb 54d9 363c a12d 903c
00000240: de9d 5c3c a2f5 473b 7333 7f3d 393b 773b
00000250: 7a23 1d39 03e9 fd3b c2f2 44ba 2987 5cbe
00000260: dd0d 973c 58b0 053c 8121 683c 93b8 cabc
00000270: 8bf8 7cbb 814b 6f3c 7cd5 443c 8ff0 893b
00000280: a34f c83c a54e 653d 926d a53b 03e0 d53c
00000290: e478 bcbb 951a dd3c a532 a23c df16 813c
000002a0: 7715 c4bb 461d a43b fa00 8a3b 7f79 cbbb
000002b0: e1b7 4dbe c199 313b 8d1a 0d3d e03c 8f3d
000002c0: c89d 12be a968 243d c772 fb3c 6a03 6c3b
000002d0: 2660 093c bc75 203d 3348 673b a8fe 033c
000002e0: aaf8 4f3c ff58 b03c 91b9 0dbb 3cc1 ea3b
000002f0: 9bb5 8e3c 8df2 383c cf59 d83b fc50 f1bb
00000300: 64ac 633c ce71 bebd 7bdd 1ebc 96ab 5c3c
00000310: 1181 123d 9c97 653d 40bc 53bd 2c56 b53d
00000320: eea7 583d 21d3 f3bc e099 0839 5cce 1ebc
00000330: 0240 2f3c 8dad 1dbd 968a 80bd a6ae e0bd
00000340: b9ae e5bd 1d44 b13c 23ce 0c3c 8fcb d3bc
00000350: 93ca 913d 6338 dfbc 4c8a 593d d623 46bd
00000360: a574 cebd 8e4b e63c 2f46 c1bd 771f 0ebd
00000370: c072 e93c f99a b5bd 616b 9e3d 1d44 263d
00000380: 57f6 853b f9fa 5b3d 59bb dbbc 7ec0 483c
00000390: ef4e 953c 1ea6 7f3d 18c9 04be 747d debd
000003a0: 5142 17bd dd0c e0bc 2917 efbc 1332 3a3d
000003b0: e193 47bd 7729 863d b25d dd3c 1089 6ebb
000003c0: 6537 73bd 9db6 b13d df0f cf3b 4720 e3bc
000003d0: 8cad ed3c 3109 453c 632f f8bc dadc 423d
000003e0: 2e1e ad3c a310 f2bd 99f1 053d 0750 da3a
000003f0: cba1 c5bd f1f8 b6bc f998 0abc 42c6 1cbd
0.0020403173 -0.036634807 -0.009186775 -0.007604459 0.0011102693 0.060072616 -0.021428015 0.08626476
0.052334316 -0.01846715 0.030277362 -0.0097924 0.013170054 -0.017938357 -0.038033396 -0.0324304
-0.044614382 -0.001547434 0.0152503075 -0.014349951 0.036476377 -0.0152264135 0.052764233 -0.02540278
-0.04020812 0.003888731 -0.04033389 -0.06387526 0.036007434 -0.040362727 0.058850244 0.047941588
-0.02289372 0.02581503 -0.013166516 -0.0027064008 0.047381487 0.07907938 -0.035833675 -0.036776397
-0.017481266 -0.014942495 -0.015799312 0.012617421 -0.023483267 0.04271488 0.045668766 -0.00525538
-0.02817534 0.058234807 -0.0065694614 -0.015517926 0.004258597 0.012651133 -0.015936732 0.05845808
-0.0042778724 -0.034851033 0.006940727 0.045719948 -0.038704574 -0.012574922 -0.0049989633 -0.017893244
0.015485035 -0.04920439 0.0081809275 -0.034156803 0.046959992 0.045445357 -0.025413696 0.07937939
0.050502267 -0.030851621 0.026404643 -0.0096972035 1.280809e-05 0.0016035731 -0.034237888 -0.04024351
-0.04962121 0.032861073 0.0050250906 0.0021144575 0.05811047 0.004205957 0.047795333 -0.044618383
-0.041086894 0.038404044 -0.039533675 0.0015630074 0.027373726 -0.04917092 0.05746059 0.044407077
0.0014592481 -0.0052240374 0.0049187797 -0.001706244 0.028557813 0.06560824 -0.03834604 -0.03680616
0.004042757 0.0024805178 0.0035355818 0.047487646 -0.02824382 0.051800452 -0.0086613465 -0.011518527
-0.027334899 0.09652902 -0.03456302 0.0019462208 0.03967631 -0.0041091433 0.0032811332 0.04717283
-0.003443425 -0.041401945 0.03530221 -0.007820447 -0.044701207 0.006855988 0.0006197492 0.0020175462
0.008976091 0.015359386 -0.0018813264 -0.016659638 -0.00030495605 0.0022250076 -0.13795139 0.023258371
0.02475697 -0.20050482 -0.015121165 0.045694515 0.06562047 -0.0075910543 0.0111602135 0.017599883
0.013465373 0.0030511399 0.062304925 0.0037724508 0.00014985903 0.0077487244 -0.00075129804 -0.21535935
0.018439228 0.008159719 0.014168144 -0.024746215 -0.0038600292 0.014605404 0.012013789 0.004209585
0.024452036 0.055983204 0.005048462 0.026107794 -0.005751716 0.026990214 0.01979954 0.015757976
-0.005984004 0.0050083725 0.004211542 -0.006209552 -0.20089675 0.00270997 0.03444915 0.06994033
-0.14318001 0.040138874 0.030694379 0.0036012777 0.00838474 0.03917478 0.0035290837 0.00805632
0.0126935635 0.021526812 -0.0021625499 0.0071641486 0.01742058 0.011288297 0.006602503 -0.0073643904
0.013896082 -0.0929905 -0.00969636 0.013468644 0.03576762 0.05605279 -0.0516932 0.088543266
0.052894525 -0.02976376 0.00013027294 -0.009692755 0.010696413 -0.03849559 -0.06276433 -0.109708115
-0.11214966 0.021638924 0.008594069 -0.0258539 0.07118716 -0.027248567 0.053110406 -0.04837402
-0.10080842 0.0281122 -0.094372146 -0.034697976 0.0284971 -0.08867449 0.07735325 0.0405923
0.004088204 0.053706143 -0.026822733 0.012252925 0.018226115 0.06241428 -0.12967336 -0.10863772
-0.03692848 -0.027349884 -0.029185848 0.04545791 -0.048725013 0.065508775 0.027022216 -0.0036397614
-0.059379 0.08677409 0.0063190307 -0.027725352 0.029013418 0.012026117 -0.030296033 0.0475739
0.021132555 -0.118195795 0.03270111 0.001665593 -0.0965 -0.022335501 -0.008459323 -0.03827501

bias f4 [32]
00000000: 0a54 2abc d366 6b3d 4235 a43d 050a 333d
00000010: 6363 e5bd 5869 bcbc b30d 28be d07a 59bc
00000020: 9998 d0bc bbcc c33d 99e3 30be 60b9 58be
00000030: 9543 31be 6d1c 403d 216b bebd 18c5 03be
00000040: 655f 14bd 536b 503d b7db 403b 72e9 813d
00000050: 378b d4bb 9790 31ba 57ab 95bd 080c 7dbd
00000060: 5c29 79bc 759e 823d 9fc1 bbbc ceab e7bd
00000070: 8327 1bbe 51f2 19be 2aa6 08be cdf6 dfbc
-0.010396013 0.057471108 0.080179706 0.043710727 -0.11200597 -0.02299945 -0.16411476 -0.01327391
-0.02546339 0.095605336 -0.17274322 -0.21164465 -0.17310937 0.04690211 -0.09297777 -0.12868154
-0.036223788 0.050883602 0.0029427835 0.06343354 -0.0064863223 -0.000677356 -0.07308071 -0.061779052
-0.015207615 0.063778795 -0.022919474 -0.11312066 -0.15151791 -0.15033843 -0.13344637 -0.027339363

weight f4 [32, 1]
00000000: d2d7 8c3c d4c3 023e 12dc 75bd bc41 4abd
00000010: 7751 85bd cc65 aebe f320 dfbe 1498 87bb
00000020: 9368 cdbe e0f4 243e dc71 f9be 091b 6abd
00000030: 8854 03be 6bcd b43e 55e3 c43e f445 a0be
00000040: 518b 4ebd 1972 a53e cb6f 6ebe 7b1f 00bd
00000050: 7d4e d13c 855c ac3e 05a2 eabe b89c ec3e
00000060: 91c0 723d de4e e3bc 26a3 e3be d96a babe
00000070: d1b6 a7bb 446c 443d f81a 22bc fb31 abbe
0.017192755 0.12770015 -0.06002433 -0.049379095 -0.06509679 -0.3406204 -0.43579826 -0.004138002
-0.40118846 0.16109037 -0.4871968 -0.05715469 -0.12825215 0.3531297 0.3845469 -0.3130337
-0.05042583 0.32313612 -0.23284833 -0.031280022 0.025550121 0.33664337 -0.45826736 0.46213317
0.059265677 -0.027747568 -0.4446041 -0.36409643 -0.005118229 0.047954813 -0.009894125 -0.3343657

bias f4 [32]
00000000: d9b4 013f 359b a73e 2802 c9be f203 d2be
00000010: 1cbe c3be 1eb8 a83e 4007 2dbd 331c 0cbf
00000020: 4b4b b4bd 73a2 9b3e c2b7 f3bc e901 c9be
00000030: b010 a4be 63ef 143e 6779 d33d 240d 43be
00000040: 9a8e d0be 6bec 383e 0be5 81be d6cc e7be
00000050: 6b8f f63e a0e8 283e 54c4 a5bc c831 843c
00000060: 3bd9 cc3e 4d8d edbe 29b3 f5bc a927 0cbe
00000070: 41ad 0abf 0c05 da3e 630e 04bf 8b67 2dbe
0.50666577 0.327356 -0.39259458 -0.41018635 -0.3823098 0.3295297 -0.042243242 -0.5473053
-0.088034235 0.30397376 -0.029750708 -0.3925927 -0.32043982 0.14544444 0.1032589 -0.19047982
-0.40733796 0.18058936 -0.25370058 -0.45273465 0.48156294 0.1649499 -0.020235218 0.016137019
0.40009484 -0.46396866 -0.029992657 -0.13687004 -0.54170614 0.42581975 -0.5158445 -0.1693403

weight f4 [64, 32]
00000000: b7ed 2dbb 87f5 09bb 6f47 063c 7e46 053c
00000010: e9fa 063c 38a5 9cbd d7ba ea3b 8bff f93b
00000020: baa9 013c db4a faba 792c 93ba bbb5 063c
00000030: 042d 093c 1f8c 7d3a f995 123b f0b9 073c
00000040: c16b 043c 673f 2539 6534 093c 8b5d 023c
00000050: 1bfd 2ebb a088 cf39 7fd0 cc3b 517f 413c
00000060: 9f47 20bb 33af 003c 6595 e23b 6825 073c
00000070: 57fa fe3b 0cfc 2bbb 68fb 003c 223b 083c
00000080: 8f48 aeba 3a53 01bc 31f3 853b 2721 613b
00000090: 999d 8b3b ec98 c23e 26ec 9b3d 56cc 293a
000000a0: 8322 533d 9d02 24bc ba83 423e ca5f 803b
000000b0: 7c72 053c 2ddf 0bbd b7a1 3dbd f675 c73c
000000c0: 5195 683b 4c53 d9bc dde1 733c 48c6 183b
000000d0: 7e13 daba dad4 f2bc 5a7f d23d 8839 04be
000000e0: ca84 79bb 4a86 023b 2217 ae3d 2c4e 133d
000000f0: d371 273a ee85 44bb f5a1 863a d1cf e83c
00000100: 6847 03bc 3de6 d9bb d210 2e3c 2fd2 2d3c
00000110: 63b5 2f3c d6cd 1bbe 4d15 8f3b 8ad9 303c
00000120: 48e3 d43b 5c20 d0bb ead2 dcbb 2664 303c
00000130: 5529 2a3c 9ca0 6aba 4995 043b ab02 143c
00000140: 47ed 2f3c 85b3 2abb a4a1 213c d29c 2e3c
00000150: c7bb ffbb 6f4e 05bb 7926 0c3b 7986 c03c
00000160: 7d05 f9bb 7a70 2e3c 92b0 713b 75d6 013c
00000170: 9eea 303c b767 f9bb b27a 303c 63c9 0e3c
00000180: 161e 4bbc e5b6 26bc 2b2c 6c3c 73b8 6c3c
00000190: 888b 6b3c 2615 57bd 1720 0a3c 6c00 703c
000001a0: c8c4 1d3c 8538 1bbc 37fe 7f3b 7ce8 693c
000001b0: 3c90 603c 97ec 02bb 374b ab3a 337f 3b3c
000001c0: 3043 6d3c 51de 84bb 8f89 4e3c a4a0 6c3c
000001d0: f9a6 49bc 8b1e 57bb 8084 f43b 050a b23c
000001e0: 7603 3fbc 2f18 6e3c fa2b 053c 2990 2b3c
000001f0: 0bac 703c af1d 43bc 5807 6f3c 61ca 363c
00000200: 1f72 98ba 4e6c 4fbc 8797 af3b 1f5d 883b
00000210: c18b c13b d848 b13e 9ee8 f23d 5cf5 e9b9
00000220: 485f ab3d b572 82bc 6c38 663e e2f0 a73b
00000230: a289 4d3c 1ae0 66bd 1a76 9bbd 0756 243d
00000240: 1da9 903b 7375 34bd 38df c63c b08a 1f3b
00000250: 86d9 03bb 6a13 49bd 8a6d 1d3e 0dea 3dbe
00000260: 7274 aebb 260e 0c3b ecb7 053e dd74 723d
00000270: 58a4 5ab9 f345 87bb 6fc4 9239 7140 3f3d
00000280: 8a4f c53b 9f92 123c c28b 54bb 0ff9 52bb
00000290: 08ce 5cbb f138 5abe f526 32bc d2a5 40bb
000002a0: ab7b 10bc 320e 203c a302 93bc 0578 57bb
000002b0: 994d 7dbb 0ad9 a33c 1e4c cc3c a28f bfbb
000002c0: f758 5bbb f768 893c 5ad4 98bb 8944 53bb
000002d0: 6eae d03b f4e3 933c b478 50bc 4046 693d
000002e0: 4896 e83b c039 48bb 8b47 3ebc d1dc eebb
000002f0: bdcf 43bb 3219 df3b 3adc 49bb 8b9a d0bb
00000300: e606 7cbc 662f 72bc 0f9b 783c 2655 773c
00000310: e6f3 773c a746 15bd 7fae 463c e563 7c3c
00000320: 703c 553c 8479 70bc 1879 293c 7ad8 773c
00000330: a0c1 733c 7c39 5fbc 54c7 57bc 7aa7 673c
00000340: d2d8 783c ab07 64bc 4251 6c3c 184c 793c
00000350: 8646 7abc f334 62bc 2ab9 333c b164 2dbc
00000360: 1ab7 75bc ce6c 7b3c 4d6b 413c af78 5e3c
00000370: 7fd1 7c3c a9ff 76bc 24dd 7a3c ffc7 633c
00000380: d267 313b b995 40bc 2bd1 3d3b 8769 bf3a
00000390: e20d 703b 7d75 d83e 14fb 1d3e e751 8bbb
000003a0: 9da5 d73d ede3 84bc 0478 963e c822 2e3b
000003b0: fc13 473c 7ffd 8abd e3cf bfbd c598 413d
000003c0: 505e e13a af61 54bd 4f02 de3c 262a 55ba
000003d0: 643c d63a f170 6fbd c26b 503e c8e2 78be
000003e0: 7b57 31bb 2412 a2ba f83b 2f3e a352 943d
000003f0: 32e9 88bb d4cd 99ba 69ae 62bb cc22 653d
-0.0026539394 -0.0021050887 0.008195742 0.008134482 0.008238533 -0.076487005 0.0071633863 0.00762934
0.007914001 -0.0019095795 -0.0011228464 0.008222039 0.008372549 0.0009672064 0.0022367223 0.008284077
0.008082331 0.00015759245 0.008374308 0.007956873 -0.0026701156 0.0003958391 0.0062504406 0.01181014
-0.0024456752 0.007854271 0.006914782 0.008248664 0.0077813077 -0.002624276 0.00787244 0.00831488
-0.0013296771 -0.007893378 0.0040878286 0.0034352036 0.0042607305 0.38007295 0.07613401 0.0006477287
0.051546585 -0.010010389 0.18995562 0.003917669 0.008144971 -0.034148384 -0.0462968 0.02434824
0.003548939 -0.026528977 0.014885393 0.0023311544 -0.0016637889 -0.029642511 0.10278197 -0.12912571
-0.0038073533 0.0019916468 0.08500506 0.035963222 0.00063875056 -0.0029987055 0.0010271656 0.028419407
-0.00801263 -0.006649761 0.010624127 0.010609194 0.010724398 -0.15215239 0.004366553 0.010794053
0.0064968206 -0.006351514 -0.00673901 0.010766065 0.010385831 -0.0008950324 0.0020230582 0.009033839
0.010737724 -0.0026046943 0.009865198 0.010657506 -0.007804367 -0.002034094 0.0021385236 0.023501622
-0.007599531 0.010646934 0.0036878926 0.007924666 0.010798125 -0.0076112407 0.01077144 0.0087150065
-0.01239731 -0.010175441 0.014414827 0.014448273 0.014376529 -0.052510403 0.008430502 0.014648538
0.009629436 -0.0094739245 0.0039061436 0.01427662 0.013706263 -0.0019977444 0.001306868 0.011443901
0.014481351 -0.0040548225 0.012606039 0.014442597 -0.012307876 -0.0032824602 0.0074620843 0.021733293
-0.01165854 0.014532133 0.008128161 0.010471382 0.014689456 -0.011908933 0.014589153 0.011156649
-0.001163069 -0.012660099 0.0053586396 0.0041614915 0.0059065525 0.34625888 0.118607745 -0.0004462403
0.08367783 -0.015923837 0.2248246 0.005125151 0.012545021 -0.056366064 -0.075908855 0.040121105
0.004414691 -0.04405732 0.02427636 0.0024344139 -0.0020118668 -0.04909078 0.15373817 -0.18546315
-0.00532394 0.0021370738 0.13058442 0.05919348 -0.00020851323 -0.0041282116 0.00027993644 0.046692315
0.0060214447 0.00894609 -0.0032431935 -0.0032191908 -0.003369214 -0.21310784 -0.010873546 -0.0029395712
-0.008818547 0.009769009 -0.017945593 -0.0032877934 -0.0038650988 0.020000953 0.02493864 -0.00584598
-0.0033469775 0.016773684 -0.004663986 -0.0032236895 0.00636845 0.018053032 -0.01272409 0.05695176
0.007097993 -0.0030552 -0.011613737 -0.007289507 -0.002987846 0.0068084234 -0.0030801431 -0.006366079
-0.015382504 -0.0147818085 0.015173688 0.015095985 0.0151338335 -0.036444332 0.012126564 0.015404676
0.013014898 -0.014677409 0.010343812 0.015127296 0.014877707 -0.013624545 -0.013170082 0.014139051
0.015188413 -0.013917844 0.01442367 0.015215896 -0.015275603 -0.013806569 0.0109694395 -0.010583089
-0.014997268 0.015345765 0.011805368 0.013578578 0.015430807 -0.015075603 0.015311513 0.013902663
0.0027069938 -0.011754447 0.0028963785 0.0014603593 0.0036629369 0.42277136 0.1542781 -0.004251707
0.10529635 -0.016221965 0.2938844 0.0026571024 0.012150761 -0.06786632 -0.09365823 0.047264833
0.0017194245 -0.05185097 0.02710071 -0.0008131586 0.0016344902 -0.05845732 0.20353606 -0.2430526
-0.00270602 -0.0012365025 0.1711272 0.07242324 -0.0041781897 -0.0011734315 -0.003458882 0.055941388

bias f4 [64]
00000000: b880 12be 1a4e 1b3e 6ba1 d9bd 145c 05be
00000010: 9482 213e f80d 25be 7a93 333d 9857 2c3e
00000020: bc89 fdbc 098b 2dbe fcdd 21be 3563 8e3c
00000030: af3d 62bd b42f 0f3e b5b3 213e 2000 edbd
00000040: 3c54 32bd aa6f 0bbe 2f79 973c 1307 143e
00000050: c70a 9fbd d02f eebb 0b8f d1bc 4cce 27be
00000060: dc7d 4b3e 2705 a03c 73fb 443e 0aae 21be
00000070: f791 92bd d304 88bd eef9 2c3d 0d32 8ebd
00000080: 7fb2 ffbd 18a0 373e 2906 1d3e 605a 4a3e
00000090: 3f8b 023e 7d66 9a3d a7e7 03be 3133 193a
000000a0: 5a8c 93bd 88b7 b6bc c3ae 98bc 6ebe f33c
000000b0: 3cb6 d3bd 0c3e 84bd d3d1 b5bd 52b5 39bd
000000c0: 45ac f2bd 6b93 d8bd 7565 fbbd c643 d5bd
000000d0: 9a5e e6bc 2057 20be 1bd3 2dbe 13cf 2d3e
000000e0: 0d57 0dbe 74d5 103e 980b b436 6ff5 1abd
000000f0: 4391 273e 3011 09be 6ddf 653d 7860 aa3d
-0.14306915 0.15166512 -0.10626491 -0.13023406 0.15772468 -0.1611861 0.043841816 0.1683029
-0.030949466 -0.16947569 -0.15807337 0.01738129 -0.055234607 0.13983041 0.15791209 -0.115722895
-0.043537363 -0.13616815 0.018490402 0.14455824 -0.077657275 -0.0072688833 -0.025580904 -0.1638729
0.1987223 0.019533707 0.19236545 -0.15789047 -0.07156747 -0.06641545 0.04223054 -0.0694314
-0.12485217 0.17932165 0.15334381 0.19761038 0.1274843 0.07539079 -0.12881337 0.0005844115
-0.07204504 -0.022304311 -0.01863802 0.02975389 -0.10337493 -0.06457147 -0.088779114 -0.045338936
-0.11849264 -0.10574993 -0.12275211 -0.104133174 -0.028121281 -0.15658236 -0.16975062 0.16973524
-0.13802738 0.14143926 5.3657677e-06 -0.03783172 0.16364007 -0.13385463 0.05612128 0.08319181

weight f4 [32, 64]
00000000: 3522 d83c 17f7 64bc 12a5 ff3c 6c8a a03c
00000010: 41c7 eabc c859 c73c c8fc 8db9 7740 4cbd
00000020: e3cf 323b 3ce8 4c3b def6 153d 0c7c bdbc
00000030: 1bf0 bcbc 5624 debc 75e2 ecbc 9978 c13c
00000040: f2d3 fe3b 99ba e4b9 ad2d 3a3c d518 cfbc
00000050: 3ebc 26bc f2a2 be3c 1de8 883c 9edf bf3b
00000060: bb60 5bbd 2af7 7439 13e2 56bd 5df9 743a
00000070: 9393 be3c 288b eb3c 5cac cdba ef8d 183d
00000080: 516c 433d 69aa 1ebd 0653 9bbc cc62 03bd
00000090: 0ced aebc 6f18 55bc bf4a b83c 1007 7139
000000a0: 32e2 5ebc ff09 993c e2f4 94b9 cb44 803c
000000b0: b811 44ba 8a91 b8bb 2177 453b bd18 923c
000000c0: b370 9b3c 3b97 183d 5c8d ae3a a9d1 353c
000000d0: 9939 91bb 2d8d 7e3b 5676 883b 5de5 08bd
000000e0: cc67 9c3c 70fe 04bd c915 133d 514a 703d
000000f0: c69f 32bd 1bc8 00bc e3a4 caba b48f c7ba
00000100: c79f 3a3d 6bbb b0bc 4a4c 283d 0438 4a3d
00000110: 354e 1fbc e93d 143d 0d6a abba 6211 1bbd
00000120: c4f4 f93c 0dd0 b93c be01 473d c3d1 4abd
00000130: 63e8 583c 4f5a 80bc 9174 4dbc 4727 193d
00000140: d99e c53c 2132 ff3c 95fa 8a3c b8d2 c2ba
00000150: 1912 083c 686d a63c 8883 643d c422 8c3c
00000160: 1d71 50bd 34c0 b4bb 301f 3cbd d769 ac3c
00000170: e759 553d dccb 3d3d 3b8b ac3a e4cb 593d
00000180: 2dd7 6a3d 959c 46bd 648a bebc fcc2 20bd
00000190: fe02 b03c 001c 8ebc 4bfe 333d 18b2 4d3b
000001a0: 38ce ac3b bd96 3d3d 3789 c8bc 09b1 a63c
000001b0: 5e54 a33c 16bd 0d3d 4eb5 963c 1f00 3b3d
000001c0: 7433 373d a0ad 393d 0d6b d03c c4cd 453d
000001d0: 08f9 debb be9a 803c e0bf c03c da8b 11bd
000001e0: 26dd 483d 0475 d9bc 9f80 723c 650d 943d
000001f0: 647b bdbc 1758 b43c b3c3 80bc 20d2 15bc
00000200: 05b4 043d b2be b2bc a73a 0f3d 1a2c 053d
00000210: 6735 a4bc 2a76 c63c cfd2 1bbb 11f9 bfbc
00000220: c97d e93c a156 c33c 2afa 053d fb9e c4bd
00000230: d01b a33d 5183 e1bc 425d a3bc d098 fc3c
00000240: 9710 3d3c 823f c43c af6e efba 1295 a5bc
00000250: 4711 e63c ead0 f4ba 6907 4c3d 767e c83c
00000260: 4a50 cfbc d733 eaba afb8 babc 6724 c13c
00000270: d95a 6d3d 6a0b 743d c8fd 1cbb 23b0 933d
00000280: 132a 393d f17c e8bc e4b7 d5bc 78c7 cebc
00000290: 1d9f 9fbc 7700 3dbb 7d9b 133d 2e36 26b8
000002a0: 8484 a03c e74c 913d fd99 253a 7c2c 8aba
000002b0: f7cd 0b3c 380b 9d3d 6409 113d cf0f 2c3d
000002c0: 33c5 f43c 2bb8 c63c 886a 753c 9d03 d13c
000002d0: 549b b7bc b8f2 b03c 4812 bf3c dedb 1fbd
000002e0: 88c4 023d b763 d5bc 5137 0fba ffe6 8f3c
000002f0: b160 b7bc dbb3 c73c d2e0 d7ba 7ee5 ebba
00000300: c602 843d 44c8 18bd 0db5 6a3d 8f13 413d
00000310: b26a febc 4fd7 de3c 8a28 d3bb c530 29bd
00000320: 741e 723d 1415 43bb 62bc 833d 7c8a cdbd
00000330: d69b 0bbc 75e4 18bd 67c3 f5bc fa97 883d
00000340: 06c9 213d 2414 703d 3958 e339 695a c2bc
00000350: 94ec 523b 7b16 a03b bee8 963d daa5 4ebb
00000360: 0466 41bd a030 43ba af68 40bd b4ba 27bb
00000370: b530 e23c 44e2 4f3d a102 4abb 5767 8c3d
00000380: a440 9c3d 6721 23bd 5f00 34bd 1231 41bd
00000390: d2ed 43bc 6133 c5bc 63ea 873d 6086 803a
000003a0: b20a 233b 3cff a23d e275 63ba 0d8d 4bb9
000003b0: fa90 6d3d 4c64 793b 183b 2ebc f506 7f3d
000003c0: ba2c 323d d4c2 833d 8aea 113d 8d4c 753d
000003d0: 379c 9bbd 498d b9bb c219 79bb 16ed 11bd
000003e0: 93ea 393d 5956 ffbc 2266 413b 10da 9b3d
000003f0: 6584 f3bc 8784 5c3d a8c8 57bc 9535 97bc
0.026383499 -0.013974926 0.031206641 0.019597255 -0.028659465 0.024334803 -0.00027081952 -0.049866166
0.0027284555 0.0031266352 0.036612384 -0.02313044 -0.02306371 -0.027116936 -0.028916577 0.023617076
0.0077767307 -0.00043626575 0.011363429 -0.025280396 -0.010176716 0.023271058 0.016712243 0.0058555147
-0.053559046 0.00023361729 -0.052461695 0.00093450194 0.023263728 0.028752878 -0.0015691626 0.037244733
0.04771072 -0.038736735 -0.018960487 -0.032076642 -0.021353267 -0.013006314 0.02249658 0.00022986182
-0.013603734 0.018681524 -0.00028411212 0.015657803 -0.0007479447 -0.005632584 0.003013082 0.017834062
0.018974638 0.0372536 0.0013317275 0.01109735 -0.004431915 0.0038841472 0.0041644974 -0.033421863
0.019092463 -0.032469213 0.035909448 0.058664624 -0.043609403 -0.007860209 -0.0015460517 -0.0015225322
0.04556253 -0.021573743 0.04108838 0.049369827 -0.009723236 0.036191855 -0.001307787 -0.037858374
0.030512221 0.022682214 0.048585646 -0.04951645 0.013238999 -0.015668062 -0.012539999 0.037390973
0.024123596 0.031151833 0.01696519 -0.0014863824 0.008305096 0.02031584 0.0557895 0.017106421
-0.050889123 -0.0055160765 -0.04592818 0.021046562 0.05208769 0.046336994 0.0013164053 0.05317296
0.057334114 -0.048489172 -0.02325935 -0.03924845 0.021485802 -0.017347336 0.043943685 0.003138667
0.0052736066 0.046286333 -0.024479492 0.020348089 0.01993769 0.034604155 0.018397 0.045654412
0.044726804 0.045331597 0.02544167 0.048291937 -0.006804589 0.015698787 0.023528993 -0.035533763
0.04903903 -0.026545055 0.0148011735 0.07229117 -0.023130126 0.02201466 -0.015718317 -0.009144336
0.032398243 -0.021819446 0.034968045 0.03251276 -0.020044995 0.024226267 -0.0023776775 -0.023434194
0.028502362 0.023845019 0.03270928 -0.096006356 0.07964289 -0.027528437 -0.01994193 0.030834585
0.0115396 0.023956064 -0.0018267239 -0.020212684 0.02808441 -0.0018677984 0.049811754 0.024474364
-0.02530684 -0.0017868233 -0.022793142 0.023576928 0.057947967 0.059581198 -0.0023954976 0.0721133
0.04520614 -0.02837989 -0.026088662 -0.025241598 -0.01948505 -0.0028839388 0.036036957 -3.9627943e-05
0.019594438 0.07094746 0.00063171965 -0.0010541822 0.008532993 0.076681554 0.035409346 0.042007264
0.029879188 0.02425774 0.014979012 0.025514418 -0.022412933 0.021600112 0.023324147 -0.03902804
0.031925708 -0.026048524 -0.000546326 0.017566202 -0.022384973 0.024377754 -0.00164702 -0.0017997471
0.064458415 -0.037300363 0.05730157 0.047137793 -0.031056736 0.027202277 -0.0064440416 -0.041306276
0.059111074 -0.0029767202 0.064324155 -0.100361794 -0.008521041 -0.03732725 -0.030000402 0.06669612
0.03949835 0.058612958 0.00043362545 -0.023724752 0.0032184469 0.0048854924 0.07368611 -0.003153196
-0.04721643 -0.00074459054 -0.046974834 -0.0025593461 0.027611116 0.050752893 -0.003082432 0.06855648
0.07629517 -0.039826777 -0.043945666 -0.047165938 -0.011958556 -0.024072351 0.066365026 0.0009805672
0.00248782 0.07958838 -0.00086769287 -0.00019412134 0.05799959 0.0038054166 -0.010634206 0.062262494
0.043499686 0.06433645 0.035624065 0.059887458 -0.07598155 -0.0056625945 -0.0038009738 -0.035626493
0.045389723 -0.031169103 0.0029510339 0.076099515 -0.029726217 0.053837325 -0.013170399 -0.018458167

bias f4 [32]
00000000: 4ab6 623d c19d 9dbd 8578 f1bc 1c4c 29bc
00000010: d494 a83a f646 8abd 0d91 daba 3989 ed3d
00000020: 9988 08be 3af1 73b9 4504 fcbd 4e26 89be
00000030: 3cf0 053b 4dbf 92bc c9f8 1c3c f236 0fbe
00000040: 5a1f e4bd b827 e4bc c002 87bc 615d 58be
00000050: 46ee 1dbe cbb9 f3bd b692 e9bc 3990 4fbb
00000060: 0194 a23d 2b0b db3a 2ffc 723d 4e37 523c
00000070: 3389 d2bd 7f9e 18be 8982 42be f129 33be
0.055349626 -0.07696105 -0.029476414 -0.010333087 0.0012861737 -0.06751816 -0.0016675309 0.11598439
-0.13333358 -0.0002326415 -0.12305502 -0.26787037 0.002043738 -0.017913485 0.009580799 -0.13985804
-0.11138792 -0.02785097 -0.016480803 -0.21129371 -0.15422925 -0.119006716 -0.02851234 -0.0031671657
0.07938386 0.0016711702 0.059322532 0.0128305685 -0.10280075 -0.14904211 -0.18995108 -0.17496468

weight f4 [32, 1]
00000000: 22cc 063f 1f22 76be f11a 863e 1d3c f13e
00000010: ac87 07bf fcbc 063f 81c4 dcbe 8ade 063f
00000020: e079 ffbe 82f6 07bf 542f 4e3e e58b d2be
00000030: 3d5c 08bf 71ab fabe a978 e53e 68f8 a03e
00000040: 7007 08bf 2737 08bf b067 d8be 8d88 db3e
00000050: b17e fabe 892f c43e 364d 073f 5b38 f83e
00000060: d8e6 e13e 10fe e43e 6bb2 06bf eff5 06bf
00000070: 0518 e83e febc e43e 4ea2 07bf da90 e43e
0.5265523 -0.24036454 0.2619243 0.47116175 -0.52941394 0.5263212 -0.4311867 0.5268332
-0.4989767 -0.53110516 0.20135242 -0.41122356 -0.53265744 -0.48958924 0.4481862 0.3143952
-0.5313635 -0.53209156 -0.42266607 0.42877617 -0.48924783 0.38317516 0.5285219 0.48480496
0.44121432 0.44725084 -0.52615994 -0.52719015 0.45330825 0.4467544 -0.5298203 0.44641763

bias f4 [32]
00000000: 1398 27bf 91ef 63bd e6a3 8bbd ebff c1be
00000010: bf31 153f 64d1 29bf 1ad7 dc3e 326e 3ebf
00000020: eeb8 fe3e e0bf 4a3f 0460 56be fe4f 7bbd
00000030: ee38 a43e c38b f93e 69da 4c3d 5d2c 66be
00000040: e828 3c3f 786b 213f 5a89 63bd 5a43 e8be
00000050: b25c f93e 1484 cfbe 8441 e6be 0165 07bf
00000060: cd24 5e3d 19d3 c0be 2579 0b3f 8785 113f
00000070: 0c23 bcbe c36e a7be e08f 173f 2070 e8be
-0.6546642 -0.05564839 -0.068183705 -0.37890562 0.5827903 -0.6633513 0.4313286 -0.74386895
0.49750465 0.7919903 -0.20935065 -0.061355583 0.32074684 0.48739442 0.05001298 -0.22477861
0.7349992 0.6305461 -0.05555091 -0.45363885 0.48703533 -0.40530455 -0.4497186 -0.52888495
0.054234315 -0.37661055 0.54481727 0.5684437 -0.3674549 -0.32701692 0.5920391 -0.45398045

weight f4 [64, 32]
00000000: 98cb 883c e75c 0e3d 3409 3abd 16cf 51bd
00000010: 051a 6dbc e2b6 8b3c 6669 17bc 2ec9 973c
00000020: 98e3 31bc 5967 9bbc a4da 073c 84e3 1d3d
00000030: 5b8d 8fbe 1d14 2cbc ee15 15bd ce41 18bd
00000040: 0a57 93bc 0a0d 80bc c520 173d dbd1 343c
00000050: 9c22 2cbc a228 2f3c eae3 253c b61a 433c
00000060: 8226 1bbd 2388 51bd 10f3 57bc 013a 64bc
00000070: 32da 59bd 1a69 a9bd 6e7d 70bc 53fe 403c
00000080: 6d9a 8e3c f3ca 1e3d cf7c f23a 78bb b43c
00000090: cdb2 5dbc 4d3e 923c df63 6639 cd0a a83c
000000a0: 5338 b3bb 1632 b2bc 83aa 9f3b 256d 033d
000000b0: 79b1 49be dbcc 38bb 0402 dcbc 38ba 283d
000000c0: a619 a6bc fc0f 84bc 48a3 fa3c d36a a93b
000000d0: 378b 38bb 33ab cb3b 9b15 b03b 0d9d 0b3c
000000e0: 8aad e7bc 8b38 a03c 11c6 36bc 189b 52bc
000000f0: 5800 9c3c 17c6 71bc 4d20 67bc b5ac 123b
00000100: e6c2 393d 0706 a4bd 0e8c 433e f2cd 873e
00000110: 8c55 8bbd fe4f 313d 7fd1 85be 9e10 f33c
00000120: b072 0cbe 17ca bebc 327a 033e 6581 cabd
00000130: a207 45be 57e7 1ebe aa07 c03d 3d41 5c3e
00000140: 0de0 fbbc c0a9 56bd 1d19 cdbd 9e3f 1f3e
00000150: e2c5 1fbe 8688 4a3e 3cc5 493e fd86 ba3d
00000160: ef59 c43d 9ed2 8c3e c8e8 afbd 1148 96bd
00000170: f6ff 8b3e 5a71 983e a9c6 83bd cf2d 483e
00000180: cd13 adbc cbaa cb3d 6c50 1dbe 039c 5bbd
00000190: e305 d53c 4282 aabc 8528 303d af6d 94bc
000001a0: ff18 083d bbd7 903c 72b3 57bd a513 573e
000001b0: ac43 9d3e 2069 0d3d 6ada 73be 76d6 07be
000001c0: 5b5d 9e3c 5f38 c23c 24c2 663e e659 18bd
000001d0: 1151 0d3d 857f 31bd da22 fdbc 4ada f3bc
000001e0: a6f3 69be a57a 3ebd c85e e63c 25a7 d83c
000001f0: d813 60bd 370d 17be 354b d13c 956b 18bd
00000200: b15c edbc 9956 9abd b880 9abc 3ba3 5dbe
00000210: 63e0 c03c c39f f0bc bf8b 363c e750 08bd
00000220: d680 523c 264f 103d 4958 d8bc c458 15be
00000230: 6ee2 eabe dab3 383c 8865 313e 0d8f d9bd
00000240: fda2 073d fb94 de3c e9f9 20be 5474 a1bc
00000250: 8662 393c 5947 bfbc 2e36 32be 18de 89bc
00000260: f3e9 283e 72e0 71be dafb a23c 8c1e b83c
00000270: c854 62be 2eb1 3cbe 7711 c83c cdf8 9ebc
00000280: 377c b4bb 9e57 873c a35d b63d e824 c93d
00000290: de45 053c 4078 b3bb baaa 2a3c 6c69 acbb
000002a0: 9acc 153c eb42 e73b df1f afbb 61e4 153d
000002b0: 3ef3 143e ff7d 143c 50d2 9fbd ab07 8f3d
000002c0: d45c e93b 6e69 003c ee73 223d 6020 bcbb
000002d0: 3b33 163c d1fa c1bb adc1 1b3e 4501 9abb
000002e0: 9eec 90bd 98e6 f23d acce 0b3c 331a 063c
000002f0: e144 d13d 15e0 ba3d 9679 053c bd43 c3bb
00000300: 8c29 b7bb 276b afbd 125b 2c3d 5201 39be
00000310: 04e7 dbba b3f0 ccbb 4540 acbc 9a1f 38bc
00000320: cd7b 6bbc edd3 573c 1194 733b 7b51 2fbe
00000330: 7aea 06bf 65fb 85bc b8f0 503e defc 4bbd
00000340: b569 263c 8400 313b 6342 3ebe 712e 0e3c
00000350: 8435 88bc 255a 263c 7348 3bbe 83de a13b
00000360: 36ff 453e 06c7 52be 46a4 bfbb 0e73 35bb
00000370: a89a 3ebe 1e0e 0abe fa2e 38ba 7e6e 2f3c
00000380: 7ee5 9dbc 6d5e 96bd 3eba 19bc 0111 55be
00000390: 0cbf 653c 2493 a2bc 7a53 9c38 d1ab c5bc
000003a0: beac 173b c72a db3c 21bd 89bc d3c7 1bbe
000003b0: d598 03bf 1209 583a e315 3b3e 54f0 c1bd
000003c0: 259a c73c ca79 913c c204 29be 23e1 1dbc
000003d0: 1d00 143a 0fc9 4ebc 14e6 4abe 9aa6 f1bb
000003e0: 7d4f 313e 21ca 6abe 8123 273c 2023 533c
000003f0: 7cf3 59be 83da 2fbe db9e 723c ae8f 0fbc
0.016698644 0.034756567 -0.045418933 -0.051222883 -0.014471536 0.017054979 -0.009241438 0.018528547
-0.010857485 -0.018970178 0.008291874 0.038547054 -0.28037533 -0.010502842 -0.036397867 -0.03717213
-0.01798584 -0.015631218 0.036896486 0.011036362 -0.010506298 0.01069084 0.01012514 0.011908224
-0.03787852 -0.05115522 -0.013180509 -0.013929845 -0.053186603 -0.08272 -0.014678342 0.011779386
0.01740762 0.038767766 0.0018500331 0.022062048 -0.013531399 0.017851973 0.00021971714 0.020512963
-0.005469361 -0.021752398 0.0048726215 0.03208651 -0.19696607 -0.0028198275 -0.02685643 0.041193217
-0.020275902 -0.016120903 0.030595437 0.005170205 -0.002815915 0.006215477 0.0053736693 0.008521331
-0.028280992 0.019558212 -0.011155621 -0.01285436 0.019043133 -0.014756701 -0.014106822 0.0022380773
0.045351885 -0.08008962 0.19096395 0.2652431 -0.06803426 0.043289177 -0.26136395 0.02967101
-0.13715625 -0.023289723 0.12839583 -0.09887961 -0.19241193 -0.15517937 0.09376462 0.21509261
-0.030746484 -0.05240798 -0.100145556 0.15551612 -0.1560283 0.19778642 0.19704145 0.09107778
0.09587466 0.27504438 -0.085893214 -0.07337964 0.2734372 0.2977398 -0.06434376 0.19548725
-0.021127606 0.099446855 -0.1536271 -0.05361558 0.026003784 -0.020814065 0.043007392 -0.018118707
0.033226963 0.017680993 -0.052661367 0.21003588 0.30715692 0.034524083 -0.23813787 -0.13265404
0.019331625 0.02370852 0.22534996 -0.03719511 0.03450114 -0.043334503 -0.030900408 -0.029767174
-0.22846851 -0.04650368 0.028121367 0.026446888 -0.054706424 -0.14751135 0.025548557 -0.037211973
-0.028974863 -0.075360484 -0.018860206 -0.21644299 0.023544496 -0.029373055 0.0111417165 -0.03328028
0.0128481 0.03523173 -0.026409285 -0.14584643 -0.45875877 0.011273349 0.17323887 -0.10622988
0.033114422 0.027170649 -0.15720333 -0.01970879 0.011314994 -0.02334945 -0.1740348 -0.016829535
0.16495495 -0.23620775 0.019895483 0.022475503 -0.22102654 -0.18426964 0.02442239 -0.019405747
-0.0055079716 0.016521271 0.089045785 0.098214924 0.008134333 -0.0054769814 0.010416681 -0.0052615907
0.009143019 0.007057538 -0.0053443755 0.036594752 0.14545915 0.009063243 -0.07803786 0.069838844
0.0071216617 0.007837636 0.03966134 -0.005741164 0.009167488 -0.005919792 0.152106 -0.0046998584
-0.07076381 0.118603885 0.008533161 0.008184957 0.10218216 0.091247715 0.008146664 -0.0059590028
-0.0055896696 -0.085653596 0.04207904 -0.1806691 -0.0016777222 -0.0062542795 -0.02102674 -0.011238003
-0.014372778 0.013173086 0.0037167112 -0.17120926 -0.5270153 -0.016355226 0.20404327 -0.0498017
0.010157038 0.0027008364 -0.18580012 0.008678065 -0.01662708 0.010153328 -0.18289356 0.0049398555
0.19335636 -0.20583734 -0.0058484403 -0.0027686986 -0.18613684 -0.13481948 -0.0007026043 0.010707496
-0.01927447 -0.07342229 -0.0093827825 -0.20807268 0.0140226 -0.019845553 7.4542084e-05 -0.02412978
0.0023143734 0.026753796 -0.016813817 -0.15212946 -0.5140508 0.00082410977 0.18270068 -0.09469667
0.024365494 0.017758269 -0.16505721 -0.009636196 0.0005645769 -0.012621178 -0.1981433 -0.007374597
0.17315479 -0.22928669 0.010201336 0.012886792 -0.21284288 -0.171732 0.014808382 -0.008762283

bias f4 [64]
00000000: b7a1 fa3c 21a5 40bc 6e4d 5bbd 4739 3cbc
00000010: 1c02 023e f7bb d5bd f7e8 603e e5ca 403e
00000020: 2ad4 56bd a476 05be e897 753d 9a90 38be
00000030: 9594 513d fe34 293e 43cc 063e f774 043c
00000040: 26c7 e6bd 9154 3bbe 320f 183d d872 3c3e
00000050: 1b76 50bc ad9b 8fbc b82c 3bbd 6e9a 7b3c
00000060: 06e3 28bd 236b debd 0df5 9abc 4381 7fbd
00000070: d602 14be db2e 3dbe c054 e1bd 4355 373c
00000080: 6856 29be b36f eb3c dee0 15bd 46ea 043e
00000090: 42fc 053e d07e cbbc df85 05be fe06 4fbd
000000a0: 2200 3fbe 74ff 263c 8d5d 09be 11ba 30be
000000b0: 905b 243e e0ff c5bd e921 7a3d 3876 483e
000000c0: 38ca d5bd d63d 30be 0163 49be bb0d 0c3e
000000d0: 600b 533e dc88 fa3c 71e7 38be b820 16be
000000e0: 0d42 acbd 180e 49be e2e1 003e 24f6 393e
000000f0: 4ffd 463e 8b6d 4dbe 3ff4 2e3d 0493 44bd
0.03059469 -0.01175812 -0.05354064 -0.011488265 0.12696117 -0.10436242 0.21963869 0.18827398
-0.05244843 -0.13033539 0.059959322 -0.18023911 0.05116709 0.16524121 0.13163857 0.008084527
-0.11268453 -0.18293978 0.037123866 0.18403184 -0.012723471 -0.017530287 -0.045696944 0.015356643
-0.04123213 -0.108602785 -0.018915677 -0.062379133 -0.14454207 -0.18474905 -0.11002493 0.011189762
-0.16536868 0.028739786 -0.036591403 0.12979993 0.1308451 -0.024840742 -0.13039349 -0.050543778
-0.18652394 0.010192741 -0.13414593 -0.17258479 0.16050553 -0.09667945 0.061067495 0.19576347
-0.10438961 -0.17211089 -0.19666673 0.13677113 0.20609808 0.030582838 -0.18057038 -0.14660919
-0.08411036 -0.19634283 0.12586167 0.18160301 0.19432567 -0.20061319 0.0427134 -0.047991768

weight f4 [32, 64]
00000000: e17c ee3c d778 a63c 3afb debb 829f 03be
00000010: 2373 1bbd a24e 0a3d 8bcb 563b 2c3a 05bd
00000020: 02f1 41bd a38f 3c3d 3552 babc e783 683d
00000030: 37c2 67bd 9bf2 ccbb e4c2 43bc 6341 71bd
00000040: f58f d73b 738e 063d 0b8f 78bd e4f7 50bd
00000050: 9b89 f4bd 87b2 bbbd ec33 533d 2052 63bd
00000060: 63a6 503d 9935 1bbe b64d 293d b727 4e3d
00000070: 06e5 483d 4b1a 803d 3fe1 f73d 786d 71bd
00000080: 46d7 643d dc6c 8fbd a08f 0cbe 73cd aabb
00000090: 5ca6 03bc 020f babc 19f7 26be ee5b 1c3d
000000a0: d109 7c3d e848 5bbd ce7e 28be 0125 803d
000000b0: 1935 59bd a7a9 1f3d 3950 e9bc 97cd 0fba
000000c0: 498d 18be 26aa 0c3d 832f 303d ff20 f0bb
000000d0: a70c 1f3a d7e7 69bd bfe0 863d 347d b73d
000000e0: 87bc 953d b0f4 cd3c 3f9f dcbb 9f67 c4bb
000000f0: d64a f7ba 4df0 773d f44a aa3c 6ea5 613d
00000100: e36b 3ebc 2483 62bc 58eb a3bb 5b06 a93c
00000110: d857 8abd 2f35 263c e41d 48bd e7d5 60bd
00000120: 0f3a 3fbd e278 7a3c 99cd 6abd 832e 1f3c
00000130: 2a37 3fbd 6211 79bd 221a 89bd 9761 8abd
00000140: a621 9e3c e16c c03c f354 65bd 316d 86bd
00000150: c669 e23c efbd 063d e0d6 e73a 3113 8abd
00000160: d494 083b 6aca 04bc efa7 54bc e813 10b9
00000170: b397 95bc fb9b 323d 1860 bf3c 5ace 82bd
00000180: 6048 083d f8f1 87bd 8eb0 b93b d303 7dbd
00000190: 4e02 8bbd d325 1fbd 3547 9fbc e466 e13c
000001a0: c6f4 473d 89b8 85bd 98cd b1bc 1335 353d
000001b0: 8569 92bd 4783 a93b b923 6bbd 4344 64bd
000001c0: 4559 09bc 4bcb 953b 156e a1ba b493 86bd
000001d0: e418 48bd 391a 7dbd 725e 0d3c 576b 463d
000001e0: d104 b43b a13f 473c 21f9 8fbd 35f2 73bd
000001f0: bb8b 60bd 3c32 493d 9b25 4bbc 5dfc f0bc
00000200: 9440 363a ee1b 33bd 7bfc 80bc 4ab5 333c
00000210: b02a dbbc e9ed d83c a11c a3bd b241 09bd
00000220: b6e6 03bd 4f4d 2d3d 45b7 7dbe a30b 943c
00000230: de0e 8cbd 6d98 76bd 328f 49bd c51b 95bd
00000240: 433c fb3c 3ff6 903c d968 63bd dc6e b2bc
00000250: fa28 db3b 7afb 46bb 8b99 0ebd 7ec3 07be
00000260: b428 11bd 5039 293d 29a2 62bd f6f6 6abd
00000270: 073e 883c 829a 063c c084 00bd 806d 9abd
00000280: e5d8 7a3d e3e5 84bd 1ec8 d33c b904 61bd
00000290: daf6 5dbd 98b3 90bc fb2b 4c3d 976e 7d3d
000002a0: e581 363c ef00 73bd e4f5 553d 1717 b23b
000002b0: a6d2 a2bc dc8a 7c3d 13db 63be be04 92bd
000002c0: 5861 243d 512a e23d 1ad1 663d 49cf 5fbd
000002d0: eae2 96bd ab77 9ebd eb33 363c da76 e239
000002e0: c92c 84bc 8e81 a03c 9d50 5cbd 8d36 7ebd
000002f0: 44ff 8abd 2af1 493c 3aff 16bc f3c5 72bd
00000300: 80b8 813d 96c5 b3bb b9bc 823d aa2b 3abe
00000310: b06e ecbd 30d1 303d 36dc 87bd 6e91 e9bd
00000320: 3d45 833b 9277 813d 75bc c63b 6c33 3c3d
00000330: a83d 9d3b 286d a8bd 0361 b5bd 47a2 0ebb
00000340: 99ea 873c 9476 803d 0b8a c8bb 2c8d 09be
00000350: 2f3d 3ebe 993c 3cbe 3e74 a73d fc2d 8dbc
00000360: 24b9 a73d ca35 e0bd efa9 9b3d 9ea6 933d
00000370: 9e7b e13c 7437 d53d 8f9c f83d 620b a039
00000380: 7e4e bc3d 7e46 3bbc f133 b9bd a1be aebd
00000390: c7dc afbd 2563 2d3d 483e ecbd 2325 993c
000003a0: a82f dc3d 98b9 12bb 4c9b efbd aa65 cb3d
000003b0: a66e 0bbe d35e 813d 13b9 57ba 3049 9abd
000003c0: 6bf2 d8bd dd56 243d b4f6 1a3d 0d57 aabd
000003d0: 8edf 8bbd 1228 e7b8 8f03 4b3d 2b04 f93d
000003e0: ece7 c53d 60a6 4e3d 6eb8 a4bd 937c a9bd
000003f0: 3c23 9ebd 6cf2 dd3d 7ded 5c3d 98d2 273d
0.029112281 0.020321293 -0.006804851 -0.12853816 -0.0379516 0.033766396 0.003277513 -0.03252618
-0.047348984 0.04603542 -0.022744277 0.056766417 -0.056581702 -0.0062545068 -0.011948321 -0.05890025
0.0065784403 0.032850694 -0.06068329 -0.051017657 -0.11940309 -0.09164911 0.05156319 -0.055498242
0.05093993 -0.15157165 0.041333877 0.050330844 0.04904654 0.06255015 0.12103509 -0.05894229
0.055869363 -0.07003185 -0.13726664 -0.0052124797 -0.008035269 -0.022712234 -0.16305198 0.03817361
0.0615328 -0.053536326 -0.16454622 0.06257058 -0.053029153 0.038980152 -0.028480636 -0.00054856524
-0.14897646 0.034341954 0.04301406 -0.007328152 0.0006067254 -0.057105865 0.06585836 0.089594275
0.07311349 0.02514109 -0.006732851 -0.005993798 -0.0018866907 0.060531903 0.020787694 0.055089407
-0.011622402 -0.013825212 -0.0050024204 0.020632913 -0.06755036 0.010144516 -0.04885663 -0.054891493
-0.04668623 0.01528761 -0.05732498 0.009715679 -0.046683468 -0.060807593 -0.066944376 -0.06756895
0.019303154 0.023489418 -0.055989217 -0.06563795 0.027638327 0.03289598 0.0017687939 -0.06741942
0.0020840662 -0.0081049 -0.012979492 -0.00013740326 -0.018260812 0.043605786 0.02336125 -0.06387015
0.033272147 -0.06637949 0.005666799 -0.061771225 -0.06787549 -0.03885443 -0.019443134 0.027514882
0.04881742 -0.06529338 -0.02170448 0.04424007 -0.071490325 0.00517312 -0.057407115 -0.055729162
-0.0083831 0.0045713536 -0.0012316132 -0.06571141 -0.048851863 -0.061792586 0.008628475 0.04844221
0.005493738 0.012161166 -0.070299394 -0.05955716 -0.054820757 0.049120173 -0.012399103 -0.029417211
0.0006952372 -0.043727808 -0.015745392 0.010968516 -0.026753753 0.026480632 -0.07964445 -0.033509918
-0.032202445 0.042310055 -0.24776943 0.018071955 -0.06838773 -0.06020396 -0.049208827 -0.07280687
0.030668383 0.017695544 -0.055519912 -0.021781377 0.0066882344 -0.0030362294 -0.0348144 -0.13258168
-0.03543921 0.041314423 -0.05533043 -0.057364427 0.01663114 0.0082155485 -0.0313766 -0.07540417
0.061242003 -0.0648916 0.02585226 -0.054936145 -0.054190494 -0.017663762 0.04984663 0.061873045
0.011139368 -0.059327062 0.052236453 0.0054348814 -0.019875836 0.061655864 -0.22251539 -0.07129811
0.040131897 0.110432275 0.05635176 -0.054641042 -0.07367499 -0.077376686 0.011120777 0.0004319463
-0.016134636 0.019593026 -0.053787816 -0.062063742 -0.06786969 0.012325564 -0.009216124 -0.05927081
0.06334019 -0.0054862006 0.06383652 -0.18180719 -0.115445495 0.043168247 -0.06633799 -0.11404692
0.0040060566 0.06321634 0.0060649463 0.045947477 0.0047986098 -0.08223945 -0.08856394 -0.0021764205
0.016591357 0.06272617 -0.0061199716 -0.13432759 -0.18578027 -0.18382491 0.08176468 -0.017233841
0.0818961 -0.109477594 0.07600772 0.07209514 0.027524766 0.104109675 0.12139236 0.0003052606
0.09194659 -0.011430381 -0.0904311 -0.08532453 -0.08587032 0.04233088 -0.11535317 0.018694466
0.10751277 -0.0022388455 -0.116995424 0.099315 -0.13616428 0.063169144 -0.00082291773 -0.07533491
-0.105931126 0.0401219 0.03783293 -0.08317385 -0.06829749 -0.00011022402 0.04956394 0.12158998
0.09663376 0.050451636 -0.0804299 -0.08275714 -0.07721564 0.10837254 0.053937424 0.040972322

bias f4 [32]
00000000: 8b9e 36be bf5b 29bb dc16 9ebd c904 71be
00000010: 8bdc 69bc 18d6 5c3d a2b0 a13c 606f 01be
00000020: 4405 b53c 5951 a13d 75c0 f33d 26db 3c3d
00000030: 0388 183e 0d2f 0fbe 3a08 a5bd 4b47 a53d
00000040: 7a5f f4bd b1cf 7d3d 356e 813e be34 11be
00000050: a980 69bb a07c b9bb 10bd b03d dcef 4abe
00000060: 2f3b 3dbe b139 74bc 41d0 823d c88e c6bd
00000070: a926 c33d b7fc ddbd a867 1a3e ff44 13bb
-0.17833917 -0.0025842038 -0.07719204 -0.23536982 -0.014273773 0.053915113 0.019737545 -0.12640142
0.022097237 0.07876844 0.11901943 0.046107434 0.14895634 -0.13982792 -0.0805821 0.08070239
-0.11932273 0.061965648 0.25279394 -0.14180276 -0.0035629666 -0.0056606084 0.08629811 -0.19818062
-0.18479608 -0.014906333 0.063873775 -0.09695202 0.09528858 -0.10839217 0.15078604 -0.0022471545
